<?xml version="1.0" ?>
<net name="ssdlite_mobilenet_v2" version="10">
	<layers>
		<layer id="0" name="2250225415020" type="Const" version="opset1">
			<data element_type="f16" offset="0" shape="" size="2"/>
			<output>
				<port id="0" precision="FP16"/>
			</output>
		</layer>
		<layer id="1" name="2251225515401" type="Const" version="opset1">
			<data element_type="f16" offset="2" shape="" size="2"/>
			<output>
				<port id="0" precision="FP16"/>
			</output>
		</layer>
		<layer id="2" name="2252225615056" type="Const" version="opset1">
			<data element_type="f16" offset="0" shape="" size="2"/>
			<output>
				<port id="0" precision="FP16"/>
			</output>
		</layer>
		<layer id="3" name="2253225717069" type="Const" version="opset1">
			<data element_type="f16" offset="2" shape="" size="2"/>
			<output>
				<port id="0" precision="FP16"/>
			</output>
		</layer>
		<layer id="4" name="data_add_178811788656616352" type="Const" version="opset1">
			<data element_type="f16" offset="4" shape="1,576,1,1" size="1152"/>
			<output>
				<port id="0" precision="FP16">
					<dim>1</dim>
					<dim>576</dim>
					<dim>1</dim>
					<dim>1</dim>
				</port>
			</output>
		</layer>
		<layer id="5" name="1870187416136" type="Const" version="opset1">
			<data element_type="f16" offset="1156" shape="1,576,1,1" size="1152"/>
			<output>
				<port id="0" precision="FP16">
					<dim>1</dim>
					<dim>576</dim>
					<dim>1</dim>
					<dim>1</dim>
				</port>
			</output>
		</layer>
		<layer id="6" name="1871187516019" type="Const" version="opset1">
			<data element_type="f16" offset="2308" shape="1,576,1,1" size="1152"/>
			<output>
				<port id="0" precision="FP16">
					<dim>1</dim>
					<dim>576</dim>
					<dim>1</dim>
					<dim>1</dim>
				</port>
			</output>
		</layer>
		<layer id="7" name="1872187615035" type="Const" version="opset1">
			<data element_type="f16" offset="1156" shape="1,576,1,1" size="1152"/>
			<output>
				<port id="0" precision="FP16">
					<dim>1</dim>
					<dim>576</dim>
					<dim>1</dim>
					<dim>1</dim>
				</port>
			</output>
		</layer>
		<layer id="8" name="1873187715548" type="Const" version="opset1">
			<data element_type="f16" offset="2308" shape="1,576,1,1" size="1152"/>
			<output>
				<port id="0" precision="FP16">
					<dim>1</dim>
					<dim>576</dim>
					<dim>1</dim>
					<dim>1</dim>
				</port>
			</output>
		</layer>
		<layer id="9" name="2850285415338" type="Const" version="opset1">
			<data element_type="f16" offset="3460" shape="" size="2"/>
			<output>
				<port id="0" precision="FP16"/>
			</output>
		</layer>
		<layer id="10" name="2851285516409" type="Const" version="opset1">
			<data element_type="f16" offset="3462" shape="" size="2"/>
			<output>
				<port id="0" precision="FP16"/>
			</output>
		</layer>
		<layer id="11" name="2852285615251" type="Const" version="opset1">
			<data element_type="f16" offset="3460" shape="" size="2"/>
			<output>
				<port id="0" precision="FP16"/>
			</output>
		</layer>
		<layer id="12" name="2853285717072" type="Const" version="opset1">
			<data element_type="f16" offset="3462" shape="" size="2"/>
			<output>
				<port id="0" precision="FP16"/>
			</output>
		</layer>
		<layer id="13" name="3070307415575" type="Const" version="opset1">
			<data element_type="f16" offset="3464" shape="" size="2"/>
			<output>
				<port id="0" precision="FP16"/>
			</output>
		</layer>
		<layer id="14" name="3071307515569" type="Const" version="opset1">
			<data element_type="f16" offset="3466" shape="" size="2"/>
			<output>
				<port id="0" precision="FP16"/>
			</output>
		</layer>
		<layer id="15" name="3072307616325" type="Const" version="opset1">
			<data element_type="f16" offset="3464" shape="" size="2"/>
			<output>
				<port id="0" precision="FP16"/>
			</output>
		</layer>
		<layer id="16" name="3073307716778" type="Const" version="opset1">
			<data element_type="f16" offset="3466" shape="" size="2"/>
			<output>
				<port id="0" precision="FP16"/>
			</output>
		</layer>
		<layer id="17" name="3750375417117" type="Const" version="opset1">
			<data element_type="f16" offset="0" shape="" size="2"/>
			<output>
				<port id="0" precision="FP16"/>
			</output>
		</layer>
		<layer id="18" name="3751375515989" type="Const" version="opset1">
			<data element_type="f16" offset="3468" shape="" size="2"/>
			<output>
				<port id="0" precision="FP16"/>
			</output>
		</layer>
		<layer id="19" name="3752375616412" type="Const" version="opset1">
			<data element_type="f16" offset="0" shape="" size="2"/>
			<output>
				<port id="0" precision="FP16"/>
			</output>
		</layer>
		<layer id="20" name="3753375715392" type="Const" version="opset1">
			<data element_type="f16" offset="3468" shape="" size="2"/>
			<output>
				<port id="0" precision="FP16"/>
			</output>
		</layer>
		<layer id="21" name="FeatureExtractor/MobilenetV2/expanded_conv_12/depthwise/BatchNorm/batchnorm/sub/_169__cf__17274815350" type="Const" version="opset1">
			<data element_type="f16" offset="3470" shape="1,576,1,1" size="1152"/>
			<output>
				<port id="0" names="FeatureExtractor/MobilenetV2/expanded_conv_12/depthwise/BatchNorm/batchnorm/sub/_169__cf__172:0" precision="FP16">
					<dim>1</dim>
					<dim>576</dim>
					<dim>1</dim>
					<dim>1</dim>
				</port>
			</output>
		</layer>
		<layer id="22" name="2530253415515" type="Const" version="opset1">
			<data element_type="f16" offset="1156" shape="1,576,1,1" size="1152"/>
			<output>
				<port id="0" precision="FP16">
					<dim>1</dim>
					<dim>576</dim>
					<dim>1</dim>
					<dim>1</dim>
				</port>
			</output>
		</layer>
		<layer id="23" name="2531253516883" type="Const" version="opset1">
			<data element_type="f16" offset="4622" shape="1,576,1,1" size="1152"/>
			<output>
				<port id="0" precision="FP16">
					<dim>1</dim>
					<dim>576</dim>
					<dim>1</dim>
					<dim>1</dim>
				</port>
			</output>
		</layer>
		<layer id="24" name="2532253616166" type="Const" version="opset1">
			<data element_type="f16" offset="1156" shape="1,576,1,1" size="1152"/>
			<output>
				<port id="0" precision="FP16">
					<dim>1</dim>
					<dim>576</dim>
					<dim>1</dim>
					<dim>1</dim>
				</port>
			</output>
		</layer>
		<layer id="25" name="2533253716358" type="Const" version="opset1">
			<data element_type="f16" offset="4622" shape="1,576,1,1" size="1152"/>
			<output>
				<port id="0" precision="FP16">
					<dim>1</dim>
					<dim>576</dim>
					<dim>1</dim>
					<dim>1</dim>
				</port>
			</output>
		</layer>
		<layer id="26" name="3080308416586" type="Const" version="opset1">
			<data element_type="f16" offset="5774" shape="" size="2"/>
			<output>
				<port id="0" precision="FP16"/>
			</output>
		</layer>
		<layer id="27" name="3081308515116" type="Const" version="opset1">
			<data element_type="f16" offset="5776" shape="" size="2"/>
			<output>
				<port id="0" precision="FP16"/>
			</output>
		</layer>
		<layer id="28" name="3082308615629" type="Const" version="opset1">
			<data element_type="f16" offset="5774" shape="" size="2"/>
			<output>
				<port id="0" precision="FP16"/>
			</output>
		</layer>
		<layer id="29" name="3083308716163" type="Const" version="opset1">
			<data element_type="f16" offset="5776" shape="" size="2"/>
			<output>
				<port id="0" precision="FP16"/>
			</output>
		</layer>
		<layer id="30" name="2430243416283" type="Const" version="opset1">
			<data element_type="f16" offset="5778" shape="" size="2"/>
			<output>
				<port id="0" precision="FP16"/>
			</output>
		</layer>
		<layer id="31" name="2431243515176" type="Const" version="opset1">
			<data element_type="f16" offset="5780" shape="" size="2"/>
			<output>
				<port id="0" precision="FP16"/>
			</output>
		</layer>
		<layer id="32" name="2432243615884" type="Const" version="opset1">
			<data element_type="f16" offset="5778" shape="" size="2"/>
			<output>
				<port id="0" precision="FP16"/>
			</output>
		</layer>
		<layer id="33" name="2433243716355" type="Const" version="opset1">
			<data element_type="f16" offset="5780" shape="" size="2"/>
			<output>
				<port id="0" precision="FP16"/>
			</output>
		</layer>
		<layer id="34" name="3290329416871" type="Const" version="opset1">
			<data element_type="f16" offset="0" shape="" size="2"/>
			<output>
				<port id="0" precision="FP16"/>
			</output>
		</layer>
		<layer id="35" name="3291329516286" type="Const" version="opset1">
			<data element_type="f16" offset="5782" shape="" size="2"/>
			<output>
				<port id="0" precision="FP16"/>
			</output>
		</layer>
		<layer id="36" name="3292329615113" type="Const" version="opset1">
			<data element_type="f16" offset="0" shape="" size="2"/>
			<output>
				<port id="0" precision="FP16"/>
			</output>
		</layer>
		<layer id="37" name="3293329717159" type="Const" version="opset1">
			<data element_type="f16" offset="5782" shape="" size="2"/>
			<output>
				<port id="0" precision="FP16"/>
			</output>
		</layer>
		<layer id="38" name="FeatureExtractor/MobilenetV2/expanded_conv_11/depthwise/BatchNorm/batchnorm/sub/_160__cf__16373315860" type="Const" version="opset1">
			<data element_type="f16" offset="5784" shape="1,576,1,1" size="1152"/>
			<output>
				<port id="0" names="FeatureExtractor/MobilenetV2/expanded_conv_11/depthwise/BatchNorm/batchnorm/sub/_160__cf__163:0" precision="FP16">
					<dim>1</dim>
					<dim>576</dim>
					<dim>1</dim>
					<dim>1</dim>
				</port>
			</output>
		</layer>
		<layer id="39" name="3810381415938" type="Const" version="opset1">
			<data element_type="f16" offset="1156" shape="1,576,1,1" size="1152"/>
			<output>
				<port id="0" precision="FP16">
					<dim>1</dim>
					<dim>576</dim>
					<dim>1</dim>
					<dim>1</dim>
				</port>
			</output>
		</layer>
		<layer id="40" name="3811381516295" type="Const" version="opset1">
			<data element_type="f16" offset="6936" shape="1,576,1,1" size="1152"/>
			<output>
				<port id="0" precision="FP16">
					<dim>1</dim>
					<dim>576</dim>
					<dim>1</dim>
					<dim>1</dim>
				</port>
			</output>
		</layer>
		<layer id="41" name="3812381616085" type="Const" version="opset1">
			<data element_type="f16" offset="1156" shape="1,576,1,1" size="1152"/>
			<output>
				<port id="0" precision="FP16">
					<dim>1</dim>
					<dim>576</dim>
					<dim>1</dim>
					<dim>1</dim>
				</port>
			</output>
		</layer>
		<layer id="42" name="3813381716301" type="Const" version="opset1">
			<data element_type="f16" offset="6936" shape="1,576,1,1" size="1152"/>
			<output>
				<port id="0" precision="FP16">
					<dim>1</dim>
					<dim>576</dim>
					<dim>1</dim>
					<dim>1</dim>
				</port>
			</output>
		</layer>
		<layer id="43" name="2440244416556" type="Const" version="opset1">
			<data element_type="f16" offset="8088" shape="" size="2"/>
			<output>
				<port id="0" precision="FP16"/>
			</output>
		</layer>
		<layer id="44" name="2441244515797" type="Const" version="opset1">
			<data element_type="f16" offset="8090" shape="" size="2"/>
			<output>
				<port id="0" precision="FP16"/>
			</output>
		</layer>
		<layer id="45" name="2442244616517" type="Const" version="opset1">
			<data element_type="f16" offset="8088" shape="" size="2"/>
			<output>
				<port id="0" precision="FP16"/>
			</output>
		</layer>
		<layer id="46" name="2443244715524" type="Const" version="opset1">
			<data element_type="f16" offset="8090" shape="" size="2"/>
			<output>
				<port id="0" precision="FP16"/>
			</output>
		</layer>
		<layer id="47" name="2630263415272" type="Const" version="opset1">
			<data element_type="f16" offset="0" shape="" size="2"/>
			<output>
				<port id="0" precision="FP16"/>
			</output>
		</layer>
		<layer id="48" name="2631263515260" type="Const" version="opset1">
			<data element_type="f16" offset="8092" shape="" size="2"/>
			<output>
				<port id="0" precision="FP16"/>
			</output>
		</layer>
		<layer id="49" name="2632263616574" type="Const" version="opset1">
			<data element_type="f16" offset="0" shape="" size="2"/>
			<output>
				<port id="0" precision="FP16"/>
			</output>
		</layer>
		<layer id="50" name="2633263715947" type="Const" version="opset1">
			<data element_type="f16" offset="8092" shape="" size="2"/>
			<output>
				<port id="0" precision="FP16"/>
			</output>
		</layer>
		<layer id="51" name="FeatureExtractor/MobilenetV2/expanded_conv_10/depthwise/BatchNorm/batchnorm/sub/_61__cf__6456816040" type="Const" version="opset1">
			<data element_type="f16" offset="8094" shape="1,384,1,1" size="768"/>
			<output>
				<port id="0" names="FeatureExtractor/MobilenetV2/expanded_conv_10/depthwise/BatchNorm/batchnorm/sub/_61__cf__64:0" precision="FP16">
					<dim>1</dim>
					<dim>384</dim>
					<dim>1</dim>
					<dim>1</dim>
				</port>
			</output>
		</layer>
		<layer id="52" name="1970197416298" type="Const" version="opset1">
			<data element_type="f16" offset="8862" shape="1,384,1,1" size="768"/>
			<output>
				<port id="0" precision="FP16">
					<dim>1</dim>
					<dim>384</dim>
					<dim>1</dim>
					<dim>1</dim>
				</port>
			</output>
		</layer>
		<layer id="53" name="1971197516703" type="Const" version="opset1">
			<data element_type="f16" offset="9630" shape="1,384,1,1" size="768"/>
			<output>
				<port id="0" precision="FP16">
					<dim>1</dim>
					<dim>384</dim>
					<dim>1</dim>
					<dim>1</dim>
				</port>
			</output>
		</layer>
		<layer id="54" name="1972197616859" type="Const" version="opset1">
			<data element_type="f16" offset="8862" shape="1,384,1,1" size="768"/>
			<output>
				<port id="0" precision="FP16">
					<dim>1</dim>
					<dim>384</dim>
					<dim>1</dim>
					<dim>1</dim>
				</port>
			</output>
		</layer>
		<layer id="55" name="1973197717102" type="Const" version="opset1">
			<data element_type="f16" offset="9630" shape="1,384,1,1" size="768"/>
			<output>
				<port id="0" precision="FP16">
					<dim>1</dim>
					<dim>384</dim>
					<dim>1</dim>
					<dim>1</dim>
				</port>
			</output>
		</layer>
		<layer id="56" name="3250325415308" type="Const" version="opset1">
			<data element_type="f16" offset="10398" shape="" size="2"/>
			<output>
				<port id="0" precision="FP16"/>
			</output>
		</layer>
		<layer id="57" name="3251325516925" type="Const" version="opset1">
			<data element_type="f16" offset="10400" shape="" size="2"/>
			<output>
				<port id="0" precision="FP16"/>
			</output>
		</layer>
		<layer id="58" name="3252325615077" type="Const" version="opset1">
			<data element_type="f16" offset="10398" shape="" size="2"/>
			<output>
				<port id="0" precision="FP16"/>
			</output>
		</layer>
		<layer id="59" name="3253325715491" type="Const" version="opset1">
			<data element_type="f16" offset="10400" shape="" size="2"/>
			<output>
				<port id="0" precision="FP16"/>
			</output>
		</layer>
		<layer id="60" name="2730273416814" type="Const" version="opset1">
			<data element_type="f16" offset="10402" shape="" size="2"/>
			<output>
				<port id="0" precision="FP16"/>
			</output>
		</layer>
		<layer id="61" name="2731273516139" type="Const" version="opset1">
			<data element_type="f16" offset="10404" shape="" size="2"/>
			<output>
				<port id="0" precision="FP16"/>
			</output>
		</layer>
		<layer id="62" name="2732273616676" type="Const" version="opset1">
			<data element_type="f16" offset="10402" shape="" size="2"/>
			<output>
				<port id="0" precision="FP16"/>
			</output>
		</layer>
		<layer id="63" name="2733273714801" type="Const" version="opset1">
			<data element_type="f16" offset="10404" shape="" size="2"/>
			<output>
				<port id="0" precision="FP16"/>
			</output>
		</layer>
		<layer id="64" name="3190319416130" type="Const" version="opset1">
			<data element_type="f16" offset="0" shape="" size="2"/>
			<output>
				<port id="0" precision="FP16"/>
			</output>
		</layer>
		<layer id="65" name="3191319515146" type="Const" version="opset1">
			<data element_type="f16" offset="10406" shape="" size="2"/>
			<output>
				<port id="0" precision="FP16"/>
			</output>
		</layer>
		<layer id="66" name="3192319616811" type="Const" version="opset1">
			<data element_type="f16" offset="0" shape="" size="2"/>
			<output>
				<port id="0" precision="FP16"/>
			</output>
		</layer>
		<layer id="67" name="3193319715533" type="Const" version="opset1">
			<data element_type="f16" offset="10406" shape="" size="2"/>
			<output>
				<port id="0" precision="FP16"/>
			</output>
		</layer>
		<layer id="68" name="FeatureExtractor/MobilenetV2/expanded_conv_9/depthwise/BatchNorm/batchnorm/sub/_151__cf__15470615830" type="Const" version="opset1">
			<data element_type="f16" offset="10408" shape="1,384,1,1" size="768"/>
			<output>
				<port id="0" names="FeatureExtractor/MobilenetV2/expanded_conv_9/depthwise/BatchNorm/batchnorm/sub/_151__cf__154:0" precision="FP16">
					<dim>1</dim>
					<dim>384</dim>
					<dim>1</dim>
					<dim>1</dim>
				</port>
			</output>
		</layer>
		<layer id="69" name="2130213415161" type="Const" version="opset1">
			<data element_type="f16" offset="8862" shape="1,384,1,1" size="768"/>
			<output>
				<port id="0" precision="FP16">
					<dim>1</dim>
					<dim>384</dim>
					<dim>1</dim>
					<dim>1</dim>
				</port>
			</output>
		</layer>
		<layer id="70" name="2131213517066" type="Const" version="opset1">
			<data element_type="f16" offset="11176" shape="1,384,1,1" size="768"/>
			<output>
				<port id="0" precision="FP16">
					<dim>1</dim>
					<dim>384</dim>
					<dim>1</dim>
					<dim>1</dim>
				</port>
			</output>
		</layer>
		<layer id="71" name="2132213617051" type="Const" version="opset1">
			<data element_type="f16" offset="8862" shape="1,384,1,1" size="768"/>
			<output>
				<port id="0" precision="FP16">
					<dim>1</dim>
					<dim>384</dim>
					<dim>1</dim>
					<dim>1</dim>
				</port>
			</output>
		</layer>
		<layer id="72" name="2133213716877" type="Const" version="opset1">
			<data element_type="f16" offset="11176" shape="1,384,1,1" size="768"/>
			<output>
				<port id="0" precision="FP16">
					<dim>1</dim>
					<dim>384</dim>
					<dim>1</dim>
					<dim>1</dim>
				</port>
			</output>
		</layer>
		<layer id="73" name="2740274415932" type="Const" version="opset1">
			<data element_type="f16" offset="11944" shape="" size="2"/>
			<output>
				<port id="0" precision="FP16"/>
			</output>
		</layer>
		<layer id="74" name="2741274516559" type="Const" version="opset1">
			<data element_type="f16" offset="11946" shape="" size="2"/>
			<output>
				<port id="0" precision="FP16"/>
			</output>
		</layer>
		<layer id="75" name="2742274616493" type="Const" version="opset1">
			<data element_type="f16" offset="11944" shape="" size="2"/>
			<output>
				<port id="0" precision="FP16"/>
			</output>
		</layer>
		<layer id="76" name="2743274715485" type="Const" version="opset1">
			<data element_type="f16" offset="11946" shape="" size="2"/>
			<output>
				<port id="0" precision="FP16"/>
			</output>
		</layer>
		<layer id="77" name="3210321416850" type="Const" version="opset1">
			<data element_type="f16" offset="11948" shape="" size="2"/>
			<output>
				<port id="0" precision="FP16"/>
			</output>
		</layer>
		<layer id="78" name="3211321516529" type="Const" version="opset1">
			<data element_type="f16" offset="11950" shape="" size="2"/>
			<output>
				<port id="0" precision="FP16"/>
			</output>
		</layer>
		<layer id="79" name="3212321616448" type="Const" version="opset1">
			<data element_type="f16" offset="11948" shape="" size="2"/>
			<output>
				<port id="0" precision="FP16"/>
			</output>
		</layer>
		<layer id="80" name="3213321716169" type="Const" version="opset1">
			<data element_type="f16" offset="11950" shape="" size="2"/>
			<output>
				<port id="0" precision="FP16"/>
			</output>
		</layer>
		<layer id="81" name="2550255415785" type="Const" version="opset1">
			<data element_type="f16" offset="0" shape="" size="2"/>
			<output>
				<port id="0" precision="FP16"/>
			</output>
		</layer>
		<layer id="82" name="2551255514828" type="Const" version="opset1">
			<data element_type="f16" offset="11952" shape="" size="2"/>
			<output>
				<port id="0" precision="FP16"/>
			</output>
		</layer>
		<layer id="83" name="2552255615110" type="Const" version="opset1">
			<data element_type="f16" offset="0" shape="" size="2"/>
			<output>
				<port id="0" precision="FP16"/>
			</output>
		</layer>
		<layer id="84" name="2553255716886" type="Const" version="opset1">
			<data element_type="f16" offset="11952" shape="" size="2"/>
			<output>
				<port id="0" precision="FP16"/>
			</output>
		</layer>
		<layer id="85" name="FeatureExtractor/MobilenetV2/expanded_conv_8/depthwise/BatchNorm/batchnorm/sub/_142__cf__14569116538" type="Const" version="opset1">
			<data element_type="f16" offset="11954" shape="1,384,1,1" size="768"/>
			<output>
				<port id="0" names="FeatureExtractor/MobilenetV2/expanded_conv_8/depthwise/BatchNorm/batchnorm/sub/_142__cf__145:0" precision="FP16">
					<dim>1</dim>
					<dim>384</dim>
					<dim>1</dim>
					<dim>1</dim>
				</port>
			</output>
		</layer>
		<layer id="86" name="1930193416145" type="Const" version="opset1">
			<data element_type="f16" offset="8862" shape="1,384,1,1" size="768"/>
			<output>
				<port id="0" precision="FP16">
					<dim>1</dim>
					<dim>384</dim>
					<dim>1</dim>
					<dim>1</dim>
				</port>
			</output>
		</layer>
		<layer id="87" name="1931193516250" type="Const" version="opset1">
			<data element_type="f16" offset="12722" shape="1,384,1,1" size="768"/>
			<output>
				<port id="0" precision="FP16">
					<dim>1</dim>
					<dim>384</dim>
					<dim>1</dim>
					<dim>1</dim>
				</port>
			</output>
		</layer>
		<layer id="88" name="1932193616100" type="Const" version="opset1">
			<data element_type="f16" offset="8862" shape="1,384,1,1" size="768"/>
			<output>
				<port id="0" precision="FP16">
					<dim>1</dim>
					<dim>384</dim>
					<dim>1</dim>
					<dim>1</dim>
				</port>
			</output>
		</layer>
		<layer id="89" name="1933193715497" type="Const" version="opset1">
			<data element_type="f16" offset="12722" shape="1,384,1,1" size="768"/>
			<output>
				<port id="0" precision="FP16">
					<dim>1</dim>
					<dim>384</dim>
					<dim>1</dim>
					<dim>1</dim>
				</port>
			</output>
		</layer>
		<layer id="90" name="3220322416304" type="Const" version="opset1">
			<data element_type="f16" offset="13490" shape="" size="2"/>
			<output>
				<port id="0" precision="FP16"/>
			</output>
		</layer>
		<layer id="91" name="3221322514879" type="Const" version="opset1">
			<data element_type="f16" offset="13492" shape="" size="2"/>
			<output>
				<port id="0" precision="FP16"/>
			</output>
		</layer>
		<layer id="92" name="3222322615902" type="Const" version="opset1">
			<data element_type="f16" offset="13490" shape="" size="2"/>
			<output>
				<port id="0" precision="FP16"/>
			</output>
		</layer>
		<layer id="93" name="3223322716514" type="Const" version="opset1">
			<data element_type="f16" offset="13492" shape="" size="2"/>
			<output>
				<port id="0" precision="FP16"/>
			</output>
		</layer>
		<layer id="94" name="3730373415971" type="Const" version="opset1">
			<data element_type="f16" offset="13494" shape="" size="2"/>
			<output>
				<port id="0" precision="FP16"/>
			</output>
		</layer>
		<layer id="95" name="3731373515650" type="Const" version="opset1">
			<data element_type="f16" offset="13496" shape="" size="2"/>
			<output>
				<port id="0" precision="FP16"/>
			</output>
		</layer>
		<layer id="96" name="3732373615518" type="Const" version="opset1">
			<data element_type="f16" offset="13494" shape="" size="2"/>
			<output>
				<port id="0" precision="FP16"/>
			</output>
		</layer>
		<layer id="97" name="3733373716610" type="Const" version="opset1">
			<data element_type="f16" offset="13496" shape="" size="2"/>
			<output>
				<port id="0" precision="FP16"/>
			</output>
		</layer>
		<layer id="98" name="3270327416748" type="Const" version="opset1">
			<data element_type="f16" offset="0" shape="" size="2"/>
			<output>
				<port id="0" precision="FP16"/>
			</output>
		</layer>
		<layer id="99" name="3271327516712" type="Const" version="opset1">
			<data element_type="f16" offset="2" shape="" size="2"/>
			<output>
				<port id="0" precision="FP16"/>
			</output>
		</layer>
		<layer id="100" name="3272327615869" type="Const" version="opset1">
			<data element_type="f16" offset="0" shape="" size="2"/>
			<output>
				<port id="0" precision="FP16"/>
			</output>
		</layer>
		<layer id="101" name="3273327716736" type="Const" version="opset1">
			<data element_type="f16" offset="2" shape="" size="2"/>
			<output>
				<port id="0" precision="FP16"/>
			</output>
		</layer>
		<layer id="102" name="FeatureExtractor/MobilenetV2/expanded_conv_7/depthwise/BatchNorm/batchnorm/sub/_133__cf__13667615119" type="Const" version="opset1">
			<data element_type="f16" offset="13498" shape="1,384,1,1" size="768"/>
			<output>
				<port id="0" names="FeatureExtractor/MobilenetV2/expanded_conv_7/depthwise/BatchNorm/batchnorm/sub/_133__cf__136:0" precision="FP16">
					<dim>1</dim>
					<dim>384</dim>
					<dim>1</dim>
					<dim>1</dim>
				</port>
			</output>
		</layer>
		<layer id="103" name="3090309414909" type="Const" version="opset1">
			<data element_type="f16" offset="8862" shape="1,384,1,1" size="768"/>
			<output>
				<port id="0" precision="FP16">
					<dim>1</dim>
					<dim>384</dim>
					<dim>1</dim>
					<dim>1</dim>
				</port>
			</output>
		</layer>
		<layer id="104" name="3091309516061" type="Const" version="opset1">
			<data element_type="f16" offset="14266" shape="1,384,1,1" size="768"/>
			<output>
				<port id="0" precision="FP16">
					<dim>1</dim>
					<dim>384</dim>
					<dim>1</dim>
					<dim>1</dim>
				</port>
			</output>
		</layer>
		<layer id="105" name="3092309614750" type="Const" version="opset1">
			<data element_type="f16" offset="8862" shape="1,384,1,1" size="768"/>
			<output>
				<port id="0" precision="FP16">
					<dim>1</dim>
					<dim>384</dim>
					<dim>1</dim>
					<dim>1</dim>
				</port>
			</output>
		</layer>
		<layer id="106" name="3093309714867" type="Const" version="opset1">
			<data element_type="f16" offset="14266" shape="1,384,1,1" size="768"/>
			<output>
				<port id="0" precision="FP16">
					<dim>1</dim>
					<dim>384</dim>
					<dim>1</dim>
					<dim>1</dim>
				</port>
			</output>
		</layer>
		<layer id="107" name="3740374415776" type="Const" version="opset1">
			<data element_type="f16" offset="15034" shape="" size="2"/>
			<output>
				<port id="0" precision="FP16"/>
			</output>
		</layer>
		<layer id="108" name="3741374517135" type="Const" version="opset1">
			<data element_type="f16" offset="15036" shape="" size="2"/>
			<output>
				<port id="0" precision="FP16"/>
			</output>
		</layer>
		<layer id="109" name="3742374615167" type="Const" version="opset1">
			<data element_type="f16" offset="15034" shape="" size="2"/>
			<output>
				<port id="0" precision="FP16"/>
			</output>
		</layer>
		<layer id="110" name="3743374716499" type="Const" version="opset1">
			<data element_type="f16" offset="15036" shape="" size="2"/>
			<output>
				<port id="0" precision="FP16"/>
			</output>
		</layer>
		<layer id="111" name="1890189417054" type="Const" version="opset1">
			<data element_type="f16" offset="0" shape="" size="2"/>
			<output>
				<port id="0" precision="FP16"/>
			</output>
		</layer>
		<layer id="112" name="1891189516709" type="Const" version="opset1">
			<data element_type="f16" offset="15038" shape="" size="2"/>
			<output>
				<port id="0" precision="FP16"/>
			</output>
		</layer>
		<layer id="113" name="1892189615740" type="Const" version="opset1">
			<data element_type="f16" offset="0" shape="" size="2"/>
			<output>
				<port id="0" precision="FP16"/>
			</output>
		</layer>
		<layer id="114" name="1893189715986" type="Const" version="opset1">
			<data element_type="f16" offset="15038" shape="" size="2"/>
			<output>
				<port id="0" precision="FP16"/>
			</output>
		</layer>
		<layer id="115" name="FeatureExtractor/MobilenetV2/expanded_conv_6/depthwise/BatchNorm/batchnorm/sub/_70__cf__7357015209" type="Const" version="opset1">
			<data element_type="f16" offset="15040" shape="1,192,1,1" size="384"/>
			<output>
				<port id="0" names="FeatureExtractor/MobilenetV2/expanded_conv_6/depthwise/BatchNorm/batchnorm/sub/_70__cf__73:0" precision="FP16">
					<dim>1</dim>
					<dim>192</dim>
					<dim>1</dim>
					<dim>1</dim>
				</port>
			</output>
		</layer>
		<layer id="116" name="2410241415218" type="Const" version="opset1">
			<data element_type="f16" offset="15424" shape="1,192,1,1" size="384"/>
			<output>
				<port id="0" precision="FP16">
					<dim>1</dim>
					<dim>192</dim>
					<dim>1</dim>
					<dim>1</dim>
				</port>
			</output>
		</layer>
		<layer id="117" name="2411241516397" type="Const" version="opset1">
			<data element_type="f16" offset="15808" shape="1,192,1,1" size="384"/>
			<output>
				<port id="0" precision="FP16">
					<dim>1</dim>
					<dim>192</dim>
					<dim>1</dim>
					<dim>1</dim>
				</port>
			</output>
		</layer>
		<layer id="118" name="2412241616733" type="Const" version="opset1">
			<data element_type="f16" offset="15424" shape="1,192,1,1" size="384"/>
			<output>
				<port id="0" precision="FP16">
					<dim>1</dim>
					<dim>192</dim>
					<dim>1</dim>
					<dim>1</dim>
				</port>
			</output>
		</layer>
		<layer id="119" name="2413241717156" type="Const" version="opset1">
			<data element_type="f16" offset="15808" shape="1,192,1,1" size="384"/>
			<output>
				<port id="0" precision="FP16">
					<dim>1</dim>
					<dim>192</dim>
					<dim>1</dim>
					<dim>1</dim>
				</port>
			</output>
		</layer>
		<layer id="120" name="3610361415326" type="Const" version="opset1">
			<data element_type="f16" offset="16192" shape="" size="2"/>
			<output>
				<port id="0" precision="FP16"/>
			</output>
		</layer>
		<layer id="121" name="3611361514774" type="Const" version="opset1">
			<data element_type="f16" offset="16194" shape="" size="2"/>
			<output>
				<port id="0" precision="FP16"/>
			</output>
		</layer>
		<layer id="122" name="3612361616013" type="Const" version="opset1">
			<data element_type="f16" offset="16192" shape="" size="2"/>
			<output>
				<port id="0" precision="FP16"/>
			</output>
		</layer>
		<layer id="123" name="3613361716640" type="Const" version="opset1">
			<data element_type="f16" offset="16194" shape="" size="2"/>
			<output>
				<port id="0" precision="FP16"/>
			</output>
		</layer>
		<layer id="124" name="2270227415839" type="Const" version="opset1">
			<data element_type="f16" offset="16196" shape="" size="2"/>
			<output>
				<port id="0" precision="FP16"/>
			</output>
		</layer>
		<layer id="125" name="2271227516760" type="Const" version="opset1">
			<data element_type="f16" offset="16198" shape="" size="2"/>
			<output>
				<port id="0" precision="FP16"/>
			</output>
		</layer>
		<layer id="126" name="2272227616151" type="Const" version="opset1">
			<data element_type="f16" offset="16196" shape="" size="2"/>
			<output>
				<port id="0" precision="FP16"/>
			</output>
		</layer>
		<layer id="127" name="2273227715050" type="Const" version="opset1">
			<data element_type="f16" offset="16198" shape="" size="2"/>
			<output>
				<port id="0" precision="FP16"/>
			</output>
		</layer>
		<layer id="128" name="1950195416523" type="Const" version="opset1">
			<data element_type="f16" offset="0" shape="" size="2"/>
			<output>
				<port id="0" precision="FP16"/>
			</output>
		</layer>
		<layer id="129" name="1951195516334" type="Const" version="opset1">
			<data element_type="f16" offset="16200" shape="" size="2"/>
			<output>
				<port id="0" precision="FP16"/>
			</output>
		</layer>
		<layer id="130" name="1952195615287" type="Const" version="opset1">
			<data element_type="f16" offset="0" shape="" size="2"/>
			<output>
				<port id="0" precision="FP16"/>
			</output>
		</layer>
		<layer id="131" name="1953195716253" type="Const" version="opset1">
			<data element_type="f16" offset="16200" shape="" size="2"/>
			<output>
				<port id="0" precision="FP16"/>
			</output>
		</layer>
		<layer id="132" name="FeatureExtractor/MobilenetV2/expanded_conv_5/depthwise/BatchNorm/batchnorm/sub/_124__cf__12764915572" type="Const" version="opset1">
			<data element_type="f16" offset="16202" shape="1,192,1,1" size="384"/>
			<output>
				<port id="0" names="FeatureExtractor/MobilenetV2/expanded_conv_5/depthwise/BatchNorm/batchnorm/sub/_124__cf__127:0" precision="FP16">
					<dim>1</dim>
					<dim>192</dim>
					<dim>1</dim>
					<dim>1</dim>
				</port>
			</output>
		</layer>
		<layer id="133" name="3550355415935" type="Const" version="opset1">
			<data element_type="f16" offset="15424" shape="1,192,1,1" size="384"/>
			<output>
				<port id="0" precision="FP16">
					<dim>1</dim>
					<dim>192</dim>
					<dim>1</dim>
					<dim>1</dim>
				</port>
			</output>
		</layer>
		<layer id="134" name="3551355516865" type="Const" version="opset1">
			<data element_type="f16" offset="16586" shape="1,192,1,1" size="384"/>
			<output>
				<port id="0" precision="FP16">
					<dim>1</dim>
					<dim>192</dim>
					<dim>1</dim>
					<dim>1</dim>
				</port>
			</output>
		</layer>
		<layer id="135" name="3552355615608" type="Const" version="opset1">
			<data element_type="f16" offset="15424" shape="1,192,1,1" size="384"/>
			<output>
				<port id="0" precision="FP16">
					<dim>1</dim>
					<dim>192</dim>
					<dim>1</dim>
					<dim>1</dim>
				</port>
			</output>
		</layer>
		<layer id="136" name="3553355716997" type="Const" version="opset1">
			<data element_type="f16" offset="16586" shape="1,192,1,1" size="384"/>
			<output>
				<port id="0" precision="FP16">
					<dim>1</dim>
					<dim>192</dim>
					<dim>1</dim>
					<dim>1</dim>
				</port>
			</output>
		</layer>
		<layer id="137" name="2280228415329" type="Const" version="opset1">
			<data element_type="f16" offset="16970" shape="" size="2"/>
			<output>
				<port id="0" precision="FP16"/>
			</output>
		</layer>
		<layer id="138" name="2281228515842" type="Const" version="opset1">
			<data element_type="f16" offset="16972" shape="" size="2"/>
			<output>
				<port id="0" precision="FP16"/>
			</output>
		</layer>
		<layer id="139" name="2282228615536" type="Const" version="opset1">
			<data element_type="f16" offset="16970" shape="" size="2"/>
			<output>
				<port id="0" precision="FP16"/>
			</output>
		</layer>
		<layer id="140" name="2283228716790" type="Const" version="opset1">
			<data element_type="f16" offset="16972" shape="" size="2"/>
			<output>
				<port id="0" precision="FP16"/>
			</output>
		</layer>
		<layer id="141" name="3430343416361" type="Const" version="opset1">
			<data element_type="f16" offset="16974" shape="" size="2"/>
			<output>
				<port id="0" precision="FP16"/>
			</output>
		</layer>
		<layer id="142" name="3431343515041" type="Const" version="opset1">
			<data element_type="f16" offset="16976" shape="" size="2"/>
			<output>
				<port id="0" precision="FP16"/>
			</output>
		</layer>
		<layer id="143" name="3432343615320" type="Const" version="opset1">
			<data element_type="f16" offset="16974" shape="" size="2"/>
			<output>
				<port id="0" precision="FP16"/>
			</output>
		</layer>
		<layer id="144" name="3433343715725" type="Const" version="opset1">
			<data element_type="f16" offset="16976" shape="" size="2"/>
			<output>
				<port id="0" precision="FP16"/>
			</output>
		</layer>
		<layer id="145" name="3470347417033" type="Const" version="opset1">
			<data element_type="f16" offset="0" shape="" size="2"/>
			<output>
				<port id="0" precision="FP16"/>
			</output>
		</layer>
		<layer id="146" name="3471347515206" type="Const" version="opset1">
			<data element_type="f16" offset="2" shape="" size="2"/>
			<output>
				<port id="0" precision="FP16"/>
			</output>
		</layer>
		<layer id="147" name="3472347614930" type="Const" version="opset1">
			<data element_type="f16" offset="0" shape="" size="2"/>
			<output>
				<port id="0" precision="FP16"/>
			</output>
		</layer>
		<layer id="148" name="3473347716553" type="Const" version="opset1">
			<data element_type="f16" offset="2" shape="" size="2"/>
			<output>
				<port id="0" precision="FP16"/>
			</output>
		</layer>
		<layer id="149" name="FeatureExtractor/MobilenetV2/expanded_conv_4/depthwise/BatchNorm/batchnorm/sub/_115__cf__11863416460" type="Const" version="opset1">
			<data element_type="f16" offset="16978" shape="1,192,1,1" size="384"/>
			<output>
				<port id="0" names="FeatureExtractor/MobilenetV2/expanded_conv_4/depthwise/BatchNorm/batchnorm/sub/_115__cf__118:0" precision="FP16">
					<dim>1</dim>
					<dim>192</dim>
					<dim>1</dim>
					<dim>1</dim>
				</port>
			</output>
		</layer>
		<layer id="150" name="3370337416379" type="Const" version="opset1">
			<data element_type="f16" offset="15424" shape="1,192,1,1" size="384"/>
			<output>
				<port id="0" precision="FP16">
					<dim>1</dim>
					<dim>192</dim>
					<dim>1</dim>
					<dim>1</dim>
				</port>
			</output>
		</layer>
		<layer id="151" name="3371337516244" type="Const" version="opset1">
			<data element_type="f16" offset="17362" shape="1,192,1,1" size="384"/>
			<output>
				<port id="0" precision="FP16">
					<dim>1</dim>
					<dim>192</dim>
					<dim>1</dim>
					<dim>1</dim>
				</port>
			</output>
		</layer>
		<layer id="152" name="3372337616205" type="Const" version="opset1">
			<data element_type="f16" offset="15424" shape="1,192,1,1" size="384"/>
			<output>
				<port id="0" precision="FP16">
					<dim>1</dim>
					<dim>192</dim>
					<dim>1</dim>
					<dim>1</dim>
				</port>
			</output>
		</layer>
		<layer id="153" name="3373337716835" type="Const" version="opset1">
			<data element_type="f16" offset="17362" shape="1,192,1,1" size="384"/>
			<output>
				<port id="0" precision="FP16">
					<dim>1</dim>
					<dim>192</dim>
					<dim>1</dim>
					<dim>1</dim>
				</port>
			</output>
		</layer>
		<layer id="154" name="3440344416004" type="Const" version="opset1">
			<data element_type="f16" offset="17746" shape="" size="2"/>
			<output>
				<port id="0" precision="FP16"/>
			</output>
		</layer>
		<layer id="155" name="3441344516367" type="Const" version="opset1">
			<data element_type="f16" offset="17748" shape="" size="2"/>
			<output>
				<port id="0" precision="FP16"/>
			</output>
		</layer>
		<layer id="156" name="3442344615239" type="Const" version="opset1">
			<data element_type="f16" offset="17746" shape="" size="2"/>
			<output>
				<port id="0" precision="FP16"/>
			</output>
		</layer>
		<layer id="157" name="3443344715353" type="Const" version="opset1">
			<data element_type="f16" offset="17748" shape="" size="2"/>
			<output>
				<port id="0" precision="FP16"/>
			</output>
		</layer>
		<layer id="158" name="2750275416445" type="Const" version="opset1">
			<data element_type="f16" offset="0" shape="" size="2"/>
			<output>
				<port id="0" precision="FP16"/>
			</output>
		</layer>
		<layer id="159" name="2751275515896" type="Const" version="opset1">
			<data element_type="f16" offset="2" shape="" size="2"/>
			<output>
				<port id="0" precision="FP16"/>
			</output>
		</layer>
		<layer id="160" name="2752275616439" type="Const" version="opset1">
			<data element_type="f16" offset="0" shape="" size="2"/>
			<output>
				<port id="0" precision="FP16"/>
			</output>
		</layer>
		<layer id="161" name="2753275716688" type="Const" version="opset1">
			<data element_type="f16" offset="2" shape="" size="2"/>
			<output>
				<port id="0" precision="FP16"/>
			</output>
		</layer>
		<layer id="162" name="FeatureExtractor/MobilenetV2/expanded_conv_3/depthwise/BatchNorm/batchnorm/sub/_79__cf__8257214819" type="Const" version="opset1">
			<data element_type="f16" offset="17750" shape="1,144,1,1" size="288"/>
			<output>
				<port id="0" names="FeatureExtractor/MobilenetV2/expanded_conv_3/depthwise/BatchNorm/batchnorm/sub/_79__cf__82:0" precision="FP16">
					<dim>1</dim>
					<dim>144</dim>
					<dim>1</dim>
					<dim>1</dim>
				</port>
			</output>
		</layer>
		<layer id="163" name="2830283416229" type="Const" version="opset1">
			<data element_type="f16" offset="18038" shape="1,144,1,1" size="288"/>
			<output>
				<port id="0" precision="FP16">
					<dim>1</dim>
					<dim>144</dim>
					<dim>1</dim>
					<dim>1</dim>
				</port>
			</output>
		</layer>
		<layer id="164" name="2831283516094" type="Const" version="opset1">
			<data element_type="f16" offset="18326" shape="1,144,1,1" size="288"/>
			<output>
				<port id="0" precision="FP16">
					<dim>1</dim>
					<dim>144</dim>
					<dim>1</dim>
					<dim>1</dim>
				</port>
			</output>
		</layer>
		<layer id="165" name="2832283616820" type="Const" version="opset1">
			<data element_type="f16" offset="18038" shape="1,144,1,1" size="288"/>
			<output>
				<port id="0" precision="FP16">
					<dim>1</dim>
					<dim>144</dim>
					<dim>1</dim>
					<dim>1</dim>
				</port>
			</output>
		</layer>
		<layer id="166" name="2833283714852" type="Const" version="opset1">
			<data element_type="f16" offset="18326" shape="1,144,1,1" size="288"/>
			<output>
				<port id="0" precision="FP16">
					<dim>1</dim>
					<dim>144</dim>
					<dim>1</dim>
					<dim>1</dim>
				</port>
			</output>
		</layer>
		<layer id="167" name="1910191416916" type="Const" version="opset1">
			<data element_type="f16" offset="18614" shape="" size="2"/>
			<output>
				<port id="0" precision="FP16"/>
			</output>
		</layer>
		<layer id="168" name="1911191516349" type="Const" version="opset1">
			<data element_type="f16" offset="18616" shape="" size="2"/>
			<output>
				<port id="0" precision="FP16"/>
			</output>
		</layer>
		<layer id="169" name="1912191615230" type="Const" version="opset1">
			<data element_type="f16" offset="18614" shape="" size="2"/>
			<output>
				<port id="0" precision="FP16"/>
			</output>
		</layer>
		<layer id="170" name="1913191716976" type="Const" version="opset1">
			<data element_type="f16" offset="18616" shape="" size="2"/>
			<output>
				<port id="0" precision="FP16"/>
			</output>
		</layer>
		<layer id="171" name="2170217415803" type="Const" version="opset1">
			<data element_type="f16" offset="18618" shape="" size="2"/>
			<output>
				<port id="0" precision="FP16"/>
			</output>
		</layer>
		<layer id="172" name="2171217515014" type="Const" version="opset1">
			<data element_type="f16" offset="18620" shape="" size="2"/>
			<output>
				<port id="0" precision="FP16"/>
			</output>
		</layer>
		<layer id="173" name="2172217616724" type="Const" version="opset1">
			<data element_type="f16" offset="18618" shape="" size="2"/>
			<output>
				<port id="0" precision="FP16"/>
			</output>
		</layer>
		<layer id="174" name="2173217715848" type="Const" version="opset1">
			<data element_type="f16" offset="18620" shape="" size="2"/>
			<output>
				<port id="0" precision="FP16"/>
			</output>
		</layer>
		<layer id="175" name="3390339417141" type="Const" version="opset1">
			<data element_type="f16" offset="0" shape="" size="2"/>
			<output>
				<port id="0" precision="FP16"/>
			</output>
		</layer>
		<layer id="176" name="3391339516121" type="Const" version="opset1">
			<data element_type="f16" offset="2" shape="" size="2"/>
			<output>
				<port id="0" precision="FP16"/>
			</output>
		</layer>
		<layer id="177" name="3392339614951" type="Const" version="opset1">
			<data element_type="f16" offset="0" shape="" size="2"/>
			<output>
				<port id="0" precision="FP16"/>
			</output>
		</layer>
		<layer id="178" name="3393339715638" type="Const" version="opset1">
			<data element_type="f16" offset="2" shape="" size="2"/>
			<output>
				<port id="0" precision="FP16"/>
			</output>
		</layer>
		<layer id="179" name="FeatureExtractor/MobilenetV2/expanded_conv_2/depthwise/BatchNorm/batchnorm/sub/_106__cf__10960716157" type="Const" version="opset1">
			<data element_type="f16" offset="18622" shape="1,144,1,1" size="288"/>
			<output>
				<port id="0" names="FeatureExtractor/MobilenetV2/expanded_conv_2/depthwise/BatchNorm/batchnorm/sub/_106__cf__109:0" precision="FP16">
					<dim>1</dim>
					<dim>144</dim>
					<dim>1</dim>
					<dim>1</dim>
				</port>
			</output>
		</layer>
		<layer id="180" name="2050205415236" type="Const" version="opset1">
			<data element_type="f16" offset="18038" shape="1,144,1,1" size="288"/>
			<output>
				<port id="0" precision="FP16">
					<dim>1</dim>
					<dim>144</dim>
					<dim>1</dim>
					<dim>1</dim>
				</port>
			</output>
		</layer>
		<layer id="181" name="2051205516991" type="Const" version="opset1">
			<data element_type="f16" offset="18910" shape="1,144,1,1" size="288"/>
			<output>
				<port id="0" precision="FP16">
					<dim>1</dim>
					<dim>144</dim>
					<dim>1</dim>
					<dim>1</dim>
				</port>
			</output>
		</layer>
		<layer id="182" name="2052205615365" type="Const" version="opset1">
			<data element_type="f16" offset="18038" shape="1,144,1,1" size="288"/>
			<output>
				<port id="0" precision="FP16">
					<dim>1</dim>
					<dim>144</dim>
					<dim>1</dim>
					<dim>1</dim>
				</port>
			</output>
		</layer>
		<layer id="183" name="2053205715722" type="Const" version="opset1">
			<data element_type="f16" offset="18910" shape="1,144,1,1" size="288"/>
			<output>
				<port id="0" precision="FP16">
					<dim>1</dim>
					<dim>144</dim>
					<dim>1</dim>
					<dim>1</dim>
				</port>
			</output>
		</layer>
		<layer id="184" name="2180218416373" type="Const" version="opset1">
			<data element_type="f16" offset="19198" shape="" size="2"/>
			<output>
				<port id="0" precision="FP16"/>
			</output>
		</layer>
		<layer id="185" name="2181218517138" type="Const" version="opset1">
			<data element_type="f16" offset="19200" shape="" size="2"/>
			<output>
				<port id="0" precision="FP16"/>
			</output>
		</layer>
		<layer id="186" name="2182218615185" type="Const" version="opset1">
			<data element_type="f16" offset="19198" shape="" size="2"/>
			<output>
				<port id="0" precision="FP16"/>
			</output>
		</layer>
		<layer id="187" name="2183218716505" type="Const" version="opset1">
			<data element_type="f16" offset="19200" shape="" size="2"/>
			<output>
				<port id="0" precision="FP16"/>
			</output>
		</layer>
		<layer id="188" name="2890289415950" type="Const" version="opset1">
			<data element_type="f16" offset="0" shape="" size="2"/>
			<output>
				<port id="0" precision="FP16"/>
			</output>
		</layer>
		<layer id="189" name="2891289516589" type="Const" version="opset1">
			<data element_type="f16" offset="2" shape="" size="2"/>
			<output>
				<port id="0" precision="FP16"/>
			</output>
		</layer>
		<layer id="190" name="2892289616772" type="Const" version="opset1">
			<data element_type="f16" offset="0" shape="" size="2"/>
			<output>
				<port id="0" precision="FP16"/>
			</output>
		</layer>
		<layer id="191" name="2893289715299" type="Const" version="opset1">
			<data element_type="f16" offset="2" shape="" size="2"/>
			<output>
				<port id="0" precision="FP16"/>
			</output>
		</layer>
		<layer id="192" name="FeatureExtractor/MobilenetV2/expanded_conv_1/depthwise/BatchNorm/batchnorm/sub/_88__cf__9157415476" type="Const" version="opset1">
			<data element_type="f16" offset="19202" shape="1,96,1,1" size="192"/>
			<output>
				<port id="0" names="FeatureExtractor/MobilenetV2/expanded_conv_1/depthwise/BatchNorm/batchnorm/sub/_88__cf__91:0" precision="FP16">
					<dim>1</dim>
					<dim>96</dim>
					<dim>1</dim>
					<dim>1</dim>
				</port>
			</output>
		</layer>
		<layer id="193" name="3010301415872" type="Const" version="opset1">
			<data element_type="f16" offset="19394" shape="1,96,1,1" size="192"/>
			<output>
				<port id="0" precision="FP16">
					<dim>1</dim>
					<dim>96</dim>
					<dim>1</dim>
					<dim>1</dim>
				</port>
			</output>
		</layer>
		<layer id="194" name="3011301517057" type="Const" version="opset1">
			<data element_type="f16" offset="19586" shape="1,96,1,1" size="192"/>
			<output>
				<port id="0" precision="FP16">
					<dim>1</dim>
					<dim>96</dim>
					<dim>1</dim>
					<dim>1</dim>
				</port>
			</output>
		</layer>
		<layer id="195" name="3012301616847" type="Const" version="opset1">
			<data element_type="f16" offset="19394" shape="1,96,1,1" size="192"/>
			<output>
				<port id="0" precision="FP16">
					<dim>1</dim>
					<dim>96</dim>
					<dim>1</dim>
					<dim>1</dim>
				</port>
			</output>
		</layer>
		<layer id="196" name="3013301716667" type="Const" version="opset1">
			<data element_type="f16" offset="19586" shape="1,96,1,1" size="192"/>
			<output>
				<port id="0" precision="FP16">
					<dim>1</dim>
					<dim>96</dim>
					<dim>1</dim>
					<dim>1</dim>
				</port>
			</output>
		</layer>
		<layer id="197" name="2910291415464" type="Const" version="opset1">
			<data element_type="f16" offset="19778" shape="" size="2"/>
			<output>
				<port id="0" precision="FP16"/>
			</output>
		</layer>
		<layer id="198" name="2911291516535" type="Const" version="opset1">
			<data element_type="f16" offset="19780" shape="" size="2"/>
			<output>
				<port id="0" precision="FP16"/>
			</output>
		</layer>
		<layer id="199" name="2912291616805" type="Const" version="opset1">
			<data element_type="f16" offset="19778" shape="" size="2"/>
			<output>
				<port id="0" precision="FP16"/>
			</output>
		</layer>
		<layer id="200" name="2913291717111" type="Const" version="opset1">
			<data element_type="f16" offset="19780" shape="" size="2"/>
			<output>
				<port id="0" precision="FP16"/>
			</output>
		</layer>
		<layer id="201" name="3670367416634" type="Const" version="opset1">
			<data element_type="f16" offset="0" shape="" size="2"/>
			<output>
				<port id="0" precision="FP16"/>
			</output>
		</layer>
		<layer id="202" name="3671367516115" type="Const" version="opset1">
			<data element_type="f16" offset="2" shape="" size="2"/>
			<output>
				<port id="0" precision="FP16"/>
			</output>
		</layer>
		<layer id="203" name="3672367616979" type="Const" version="opset1">
			<data element_type="f16" offset="0" shape="" size="2"/>
			<output>
				<port id="0" precision="FP16"/>
			</output>
		</layer>
		<layer id="204" name="3673367716337" type="Const" version="opset1">
			<data element_type="f16" offset="2" shape="" size="2"/>
			<output>
				<port id="0" precision="FP16"/>
			</output>
		</layer>
		<layer id="205" name="FeatureExtractor/MobilenetV2/expanded_conv/depthwise/BatchNorm/batchnorm/sub/_97__cf__10057615371" type="Const" version="opset1">
			<data element_type="f16" offset="19782" shape="1,32,1,1" size="64"/>
			<output>
				<port id="0" names="FeatureExtractor/MobilenetV2/expanded_conv/depthwise/BatchNorm/batchnorm/sub/_97__cf__100:0" precision="FP16">
					<dim>1</dim>
					<dim>32</dim>
					<dim>1</dim>
					<dim>1</dim>
				</port>
			</output>
		</layer>
		<layer id="206" name="2450245415782" type="Const" version="opset1">
			<data element_type="f16" offset="19846" shape="1,32,1,1" size="64"/>
			<output>
				<port id="0" precision="FP16">
					<dim>1</dim>
					<dim>32</dim>
					<dim>1</dim>
					<dim>1</dim>
				</port>
			</output>
		</layer>
		<layer id="207" name="2451245516241" type="Const" version="opset1">
			<data element_type="f16" offset="19910" shape="1,32,1,1" size="64"/>
			<output>
				<port id="0" precision="FP16">
					<dim>1</dim>
					<dim>32</dim>
					<dim>1</dim>
					<dim>1</dim>
				</port>
			</output>
		</layer>
		<layer id="208" name="2452245614783" type="Const" version="opset1">
			<data element_type="f16" offset="19846" shape="1,32,1,1" size="64"/>
			<output>
				<port id="0" precision="FP16">
					<dim>1</dim>
					<dim>32</dim>
					<dim>1</dim>
					<dim>1</dim>
				</port>
			</output>
		</layer>
		<layer id="209" name="2453245714897" type="Const" version="opset1">
			<data element_type="f16" offset="19910" shape="1,32,1,1" size="64"/>
			<output>
				<port id="0" precision="FP16">
					<dim>1</dim>
					<dim>32</dim>
					<dim>1</dim>
					<dim>1</dim>
				</port>
			</output>
		</layer>
		<layer id="210" name="2030203416031" type="Const" version="opset1">
			<data element_type="f16" offset="19974" shape="" size="2"/>
			<output>
				<port id="0" precision="FP16"/>
			</output>
		</layer>
		<layer id="211" name="2031203515461" type="Const" version="opset1">
			<data element_type="f16" offset="19976" shape="" size="2"/>
			<output>
				<port id="0" precision="FP16"/>
			</output>
		</layer>
		<layer id="212" name="2032203615542" type="Const" version="opset1">
			<data element_type="f16" offset="19974" shape="" size="2"/>
			<output>
				<port id="0" precision="FP16"/>
			</output>
		</layer>
		<layer id="213" name="2033203716763" type="Const" version="opset1">
			<data element_type="f16" offset="19976" shape="" size="2"/>
			<output>
				<port id="0" precision="FP16"/>
			</output>
		</layer>
		<layer id="214" name="Preprocessor/sub/y57715620" type="Const" version="opset1">
			<data element_type="f16" offset="19978" shape="1,1,1,1" size="2"/>
			<output>
				<port id="0" names="Preprocessor/sub/y:0" precision="FP16">
					<dim>1</dim>
					<dim>1</dim>
					<dim>1</dim>
					<dim>1</dim>
				</port>
			</output>
		</layer>
		<layer id="215" name="Preprocessor/mul/x57816670" type="Const" version="opset1">
			<data element_type="f16" offset="19980" shape="1,1,1,1" size="2"/>
			<output>
				<port id="0" names="Preprocessor/mul/x:0" precision="FP16">
					<dim>1</dim>
					<dim>1</dim>
					<dim>1</dim>
					<dim>1</dim>
				</port>
			</output>
		</layer>
		<layer id="216" name="image_tensor" type="Parameter" version="opset1">
			<data element_type="f16" shape="1,3,300,300"/>
			<output>
				<port id="0" precision="FP16">
					<dim>1</dim>
					<dim>3</dim>
					<dim>300</dim>
					<dim>300</dim>
				</port>
			</output>
		</layer>
		<layer id="217" name="Preprocessor/mul" type="Multiply" version="opset1">
			<data auto_broadcast="numpy"/>
			<input>
				<port id="0">
					<dim>1</dim>
					<dim>1</dim>
					<dim>1</dim>
					<dim>1</dim>
				</port>
				<port id="1">
					<dim>1</dim>
					<dim>3</dim>
					<dim>300</dim>
					<dim>300</dim>
				</port>
			</input>
			<output>
				<port id="2" names="Preprocessor/mul:0" precision="FP16">
					<dim>1</dim>
					<dim>3</dim>
					<dim>300</dim>
					<dim>300</dim>
				</port>
			</output>
		</layer>
		<layer id="218" name="Preprocessor/sub" type="Add" version="opset1">
			<data auto_broadcast="numpy"/>
			<input>
				<port id="0">
					<dim>1</dim>
					<dim>3</dim>
					<dim>300</dim>
					<dim>300</dim>
				</port>
				<port id="1">
					<dim>1</dim>
					<dim>1</dim>
					<dim>1</dim>
					<dim>1</dim>
				</port>
			</input>
			<output>
				<port id="2" names="FeatureExtractor/MobilenetV2/MobilenetV2/input:0,Preprocessor/sub:0" precision="FP16">
					<dim>1</dim>
					<dim>3</dim>
					<dim>300</dim>
					<dim>300</dim>
				</port>
			</output>
		</layer>
		<layer id="219" name="FeatureExtractor/MobilenetV2/Conv/BatchNorm/batchnorm/mul_1/fq_input_0" type="FakeQuantize" version="opset1">
			<data auto_broadcast="numpy" levels="256"/>
			<input>
				<port id="0">
					<dim>1</dim>
					<dim>3</dim>
					<dim>300</dim>
					<dim>300</dim>
				</port>
				<port id="1"/>
				<port id="2"/>
				<port id="3"/>
				<port id="4"/>
			</input>
			<output>
				<port id="5" precision="FP16">
					<dim>1</dim>
					<dim>3</dim>
					<dim>300</dim>
					<dim>300</dim>
				</port>
			</output>
		</layer>
		<layer id="220" name="FeatureExtractor/MobilenetV2/Conv/weights/read/_101__cf__1045827799/quantized1029915425" type="Const" version="opset1">
			<data element_type="i8" offset="19982" shape="32,3,3,3" size="864"/>
			<output>
				<port id="0" precision="I8">
					<dim>32</dim>
					<dim>3</dim>
					<dim>3</dim>
					<dim>3</dim>
				</port>
			</output>
		</layer>
		<layer id="221" name="FeatureExtractor/MobilenetV2/Conv/weights/read/_101__cf__1045827799/quantized/to_f16" type="Convert" version="opset1">
			<data destination_type="f16"/>
			<input>
				<port id="0">
					<dim>32</dim>
					<dim>3</dim>
					<dim>3</dim>
					<dim>3</dim>
				</port>
			</input>
			<output>
				<port id="1" precision="FP16">
					<dim>32</dim>
					<dim>3</dim>
					<dim>3</dim>
					<dim>3</dim>
				</port>
			</output>
		</layer>
		<layer id="222" name="FeatureExtractor/MobilenetV2/Conv/BatchNorm/batchnorm/mul_1/fq_weights_1/zero_point1031816469" type="Const" version="opset1">
			<data element_type="f16" offset="20846" shape="32,1,1,1" size="64"/>
			<output>
				<port id="0" precision="FP16">
					<dim>32</dim>
					<dim>1</dim>
					<dim>1</dim>
					<dim>1</dim>
				</port>
			</output>
		</layer>
		<layer id="223" name="FeatureExtractor/MobilenetV2/Conv/BatchNorm/batchnorm/mul_1/fq_weights_1/minus_zp" type="Subtract" version="opset1">
			<data auto_broadcast="numpy"/>
			<input>
				<port id="0">
					<dim>32</dim>
					<dim>3</dim>
					<dim>3</dim>
					<dim>3</dim>
				</port>
				<port id="1">
					<dim>32</dim>
					<dim>1</dim>
					<dim>1</dim>
					<dim>1</dim>
				</port>
			</input>
			<output>
				<port id="2" precision="FP16">
					<dim>32</dim>
					<dim>3</dim>
					<dim>3</dim>
					<dim>3</dim>
				</port>
			</output>
		</layer>
		<layer id="224" name="FeatureExtractor/MobilenetV2/Conv/BatchNorm/batchnorm/mul_1/fq_weights_1/scale1030716868" type="Const" version="opset1">
			<data element_type="f16" offset="20910" shape="32,1,1,1" size="64"/>
			<output>
				<port id="0" precision="FP16">
					<dim>32</dim>
					<dim>1</dim>
					<dim>1</dim>
					<dim>1</dim>
				</port>
			</output>
		</layer>
		<layer id="225" name="FeatureExtractor/MobilenetV2/Conv/BatchNorm/batchnorm/mul_1/fq_weights_1/mulpiply_by_scale" type="Multiply" version="opset1">
			<data auto_broadcast="numpy"/>
			<input>
				<port id="0">
					<dim>32</dim>
					<dim>3</dim>
					<dim>3</dim>
					<dim>3</dim>
				</port>
				<port id="1">
					<dim>32</dim>
					<dim>1</dim>
					<dim>1</dim>
					<dim>1</dim>
				</port>
			</input>
			<output>
				<port id="2" precision="FP16">
					<dim>32</dim>
					<dim>3</dim>
					<dim>3</dim>
					<dim>3</dim>
				</port>
			</output>
		</layer>
		<layer id="226" name="FeatureExtractor/MobilenetV2/Conv/BatchNorm/batchnorm/mul_1" type="Convolution" version="opset1">
			<data auto_pad="same_upper" dilations="1,1" pads_begin="0,0" pads_end="0,0" strides="2,2"/>
			<input>
				<port id="0">
					<dim>1</dim>
					<dim>3</dim>
					<dim>300</dim>
					<dim>300</dim>
				</port>
				<port id="1">
					<dim>32</dim>
					<dim>3</dim>
					<dim>3</dim>
					<dim>3</dim>
				</port>
			</input>
			<output>
				<port id="2" names="FeatureExtractor/MobilenetV2/Conv/BatchNorm/batchnorm/mul_1:0" precision="FP16">
					<dim>1</dim>
					<dim>32</dim>
					<dim>150</dim>
					<dim>150</dim>
				</port>
			</output>
		</layer>
		<layer id="227" name="FeatureExtractor/MobilenetV2/Conv/BatchNorm/batchnorm/sub/_100__cf__10358416451" type="Const" version="opset1">
			<data element_type="f16" offset="20974" shape="1,32,1,1" size="64"/>
			<output>
				<port id="0" names="FeatureExtractor/MobilenetV2/Conv/BatchNorm/batchnorm/sub/_100__cf__103:0" precision="FP16">
					<dim>1</dim>
					<dim>32</dim>
					<dim>1</dim>
					<dim>1</dim>
				</port>
			</output>
		</layer>
		<layer id="228" name="FeatureExtractor/MobilenetV2/Conv/BatchNorm/batchnorm/add_1" type="Add" version="opset1">
			<data auto_broadcast="numpy"/>
			<input>
				<port id="0">
					<dim>1</dim>
					<dim>32</dim>
					<dim>150</dim>
					<dim>150</dim>
				</port>
				<port id="1">
					<dim>1</dim>
					<dim>32</dim>
					<dim>1</dim>
					<dim>1</dim>
				</port>
			</input>
			<output>
				<port id="2" names="FeatureExtractor/MobilenetV2/Conv/BatchNorm/batchnorm/add_1:0" precision="FP16">
					<dim>1</dim>
					<dim>32</dim>
					<dim>150</dim>
					<dim>150</dim>
				</port>
			</output>
		</layer>
		<layer id="229" name="FeatureExtractor/MobilenetV2/Conv/Relu6" type="Clamp" version="opset1">
			<data max="6.0" min="0.0"/>
			<input>
				<port id="0">
					<dim>1</dim>
					<dim>32</dim>
					<dim>150</dim>
					<dim>150</dim>
				</port>
			</input>
			<output>
				<port id="1" names="FeatureExtractor/MobilenetV2/Conv/Relu6:0,FeatureExtractor/MobilenetV2/expanded_conv/input:0" precision="FP16">
					<dim>1</dim>
					<dim>32</dim>
					<dim>150</dim>
					<dim>150</dim>
				</port>
			</output>
		</layer>
		<layer id="230" name="FeatureExtractor/MobilenetV2/expanded_conv/depthwise/depthwise/fq_input_0" type="FakeQuantize" version="opset1">
			<data auto_broadcast="numpy" levels="256"/>
			<input>
				<port id="0">
					<dim>1</dim>
					<dim>32</dim>
					<dim>150</dim>
					<dim>150</dim>
				</port>
				<port id="1">
					<dim>1</dim>
					<dim>32</dim>
					<dim>1</dim>
					<dim>1</dim>
				</port>
				<port id="2">
					<dim>1</dim>
					<dim>32</dim>
					<dim>1</dim>
					<dim>1</dim>
				</port>
				<port id="3">
					<dim>1</dim>
					<dim>32</dim>
					<dim>1</dim>
					<dim>1</dim>
				</port>
				<port id="4">
					<dim>1</dim>
					<dim>32</dim>
					<dim>1</dim>
					<dim>1</dim>
				</port>
			</input>
			<output>
				<port id="5" precision="FP16">
					<dim>1</dim>
					<dim>32</dim>
					<dim>150</dim>
					<dim>150</dim>
				</port>
			</output>
		</layer>
		<layer id="231" name="13010/value1301215389" type="Const" version="opset1">
			<data element_type="i64" offset="21038" shape="5" size="40"/>
			<output>
				<port id="0" precision="I64">
					<dim>5</dim>
				</port>
			</output>
		</layer>
		<layer id="232" name="FeatureExtractor/MobilenetV2/expanded_conv/depthwise/BatchNorm/batchnorm/mul_1_copy5877801/quantized1059916076" type="Const" version="opset1">
			<data element_type="i8" offset="21078" shape="32,1,3,3" size="288"/>
			<output>
				<port id="0" precision="I8">
					<dim>32</dim>
					<dim>1</dim>
					<dim>3</dim>
					<dim>3</dim>
				</port>
			</output>
		</layer>
		<layer id="233" name="FeatureExtractor/MobilenetV2/expanded_conv/depthwise/BatchNorm/batchnorm/mul_1_copy5877801/quantized/to_f16" type="Convert" version="opset1">
			<data destination_type="f16"/>
			<input>
				<port id="0">
					<dim>32</dim>
					<dim>1</dim>
					<dim>3</dim>
					<dim>3</dim>
				</port>
			</input>
			<output>
				<port id="1" precision="FP16">
					<dim>32</dim>
					<dim>1</dim>
					<dim>3</dim>
					<dim>3</dim>
				</port>
			</output>
		</layer>
		<layer id="234" name="FeatureExtractor/MobilenetV2/expanded_conv/depthwise/depthwise/fq_weights_1/zero_point1061814840" type="Const" version="opset1">
			<data element_type="f16" offset="21366" shape="32,1,1,1" size="64"/>
			<output>
				<port id="0" precision="FP16">
					<dim>32</dim>
					<dim>1</dim>
					<dim>1</dim>
					<dim>1</dim>
				</port>
			</output>
		</layer>
		<layer id="235" name="FeatureExtractor/MobilenetV2/expanded_conv/depthwise/depthwise/fq_weights_1/minus_zp" type="Subtract" version="opset1">
			<data auto_broadcast="numpy"/>
			<input>
				<port id="0">
					<dim>32</dim>
					<dim>1</dim>
					<dim>3</dim>
					<dim>3</dim>
				</port>
				<port id="1">
					<dim>32</dim>
					<dim>1</dim>
					<dim>1</dim>
					<dim>1</dim>
				</port>
			</input>
			<output>
				<port id="2" precision="FP16">
					<dim>32</dim>
					<dim>1</dim>
					<dim>3</dim>
					<dim>3</dim>
				</port>
			</output>
		</layer>
		<layer id="236" name="FeatureExtractor/MobilenetV2/expanded_conv/depthwise/depthwise/fq_weights_1/scale1060715701" type="Const" version="opset1">
			<data element_type="f16" offset="21430" shape="32,1,1,1" size="64"/>
			<output>
				<port id="0" precision="FP16">
					<dim>32</dim>
					<dim>1</dim>
					<dim>1</dim>
					<dim>1</dim>
				</port>
			</output>
		</layer>
		<layer id="237" name="FeatureExtractor/MobilenetV2/expanded_conv/depthwise/depthwise/fq_weights_1/mulpiply_by_scale" type="Multiply" version="opset1">
			<data auto_broadcast="numpy"/>
			<input>
				<port id="0">
					<dim>32</dim>
					<dim>1</dim>
					<dim>3</dim>
					<dim>3</dim>
				</port>
				<port id="1">
					<dim>32</dim>
					<dim>1</dim>
					<dim>1</dim>
					<dim>1</dim>
				</port>
			</input>
			<output>
				<port id="2" precision="FP16">
					<dim>32</dim>
					<dim>1</dim>
					<dim>3</dim>
					<dim>3</dim>
				</port>
			</output>
		</layer>
		<layer id="238" name="13010" type="Reshape" version="opset1">
			<data special_zero="true"/>
			<input>
				<port id="0">
					<dim>32</dim>
					<dim>1</dim>
					<dim>3</dim>
					<dim>3</dim>
				</port>
				<port id="1">
					<dim>5</dim>
				</port>
			</input>
			<output>
				<port id="2" precision="FP16">
					<dim>32</dim>
					<dim>1</dim>
					<dim>1</dim>
					<dim>3</dim>
					<dim>3</dim>
				</port>
			</output>
		</layer>
		<layer id="239" name="FeatureExtractor/MobilenetV2/expanded_conv/depthwise/depthwise" type="GroupConvolution" version="opset1">
			<data auto_pad="same_upper" dilations="1,1" pads_begin="0,0" pads_end="0,0" strides="1,1"/>
			<input>
				<port id="0">
					<dim>1</dim>
					<dim>32</dim>
					<dim>150</dim>
					<dim>150</dim>
				</port>
				<port id="1">
					<dim>32</dim>
					<dim>1</dim>
					<dim>1</dim>
					<dim>3</dim>
					<dim>3</dim>
				</port>
			</input>
			<output>
				<port id="2" names="FeatureExtractor/MobilenetV2/expanded_conv/depthwise/BatchNorm/batchnorm/mul_1:0" precision="FP16">
					<dim>1</dim>
					<dim>32</dim>
					<dim>150</dim>
					<dim>150</dim>
				</port>
			</output>
		</layer>
		<layer id="240" name="FeatureExtractor/MobilenetV2/expanded_conv/depthwise/BatchNorm/batchnorm/add_1" type="Add" version="opset1">
			<data auto_broadcast="numpy"/>
			<input>
				<port id="0">
					<dim>1</dim>
					<dim>32</dim>
					<dim>150</dim>
					<dim>150</dim>
				</port>
				<port id="1">
					<dim>1</dim>
					<dim>32</dim>
					<dim>1</dim>
					<dim>1</dim>
				</port>
			</input>
			<output>
				<port id="2" names="FeatureExtractor/MobilenetV2/expanded_conv/depthwise/BatchNorm/batchnorm/add_1:0" precision="FP16">
					<dim>1</dim>
					<dim>32</dim>
					<dim>150</dim>
					<dim>150</dim>
				</port>
			</output>
		</layer>
		<layer id="241" name="FeatureExtractor/MobilenetV2/expanded_conv/depthwise/Relu6" type="Clamp" version="opset1">
			<data max="6.0" min="0.0"/>
			<input>
				<port id="0">
					<dim>1</dim>
					<dim>32</dim>
					<dim>150</dim>
					<dim>150</dim>
				</port>
			</input>
			<output>
				<port id="1" names="FeatureExtractor/MobilenetV2/expanded_conv/depthwise/Relu6:0,FeatureExtractor/MobilenetV2/expanded_conv/depthwise_output:0" precision="FP16">
					<dim>1</dim>
					<dim>32</dim>
					<dim>150</dim>
					<dim>150</dim>
				</port>
			</output>
		</layer>
		<layer id="242" name="FeatureExtractor/MobilenetV2/expanded_conv/project/BatchNorm/batchnorm/mul_1/fq_input_0" type="FakeQuantize" version="opset1">
			<data auto_broadcast="numpy" levels="256"/>
			<input>
				<port id="0">
					<dim>1</dim>
					<dim>32</dim>
					<dim>150</dim>
					<dim>150</dim>
				</port>
				<port id="1"/>
				<port id="2"/>
				<port id="3"/>
				<port id="4"/>
			</input>
			<output>
				<port id="5" precision="FP16">
					<dim>1</dim>
					<dim>32</dim>
					<dim>150</dim>
					<dim>150</dim>
				</port>
			</output>
		</layer>
		<layer id="243" name="FeatureExtractor/MobilenetV2/expanded_conv/project/weights/read/_95__cf__985757795/quantized1116916481" type="Const" version="opset1">
			<data element_type="i8" offset="21494" shape="16,32,1,1" size="512"/>
			<output>
				<port id="0" precision="I8">
					<dim>16</dim>
					<dim>32</dim>
					<dim>1</dim>
					<dim>1</dim>
				</port>
			</output>
		</layer>
		<layer id="244" name="FeatureExtractor/MobilenetV2/expanded_conv/project/weights/read/_95__cf__985757795/quantized/to_f16" type="Convert" version="opset1">
			<data destination_type="f16"/>
			<input>
				<port id="0">
					<dim>16</dim>
					<dim>32</dim>
					<dim>1</dim>
					<dim>1</dim>
				</port>
			</input>
			<output>
				<port id="1" precision="FP16">
					<dim>16</dim>
					<dim>32</dim>
					<dim>1</dim>
					<dim>1</dim>
				</port>
			</output>
		</layer>
		<layer id="245" name="FeatureExtractor/MobilenetV2/expanded_conv/project/BatchNorm/batchnorm/mul_1/fq_weights_1/zero_point1118816394" type="Const" version="opset1">
			<data element_type="f16" offset="22006" shape="16,1,1,1" size="32"/>
			<output>
				<port id="0" precision="FP16">
					<dim>16</dim>
					<dim>1</dim>
					<dim>1</dim>
					<dim>1</dim>
				</port>
			</output>
		</layer>
		<layer id="246" name="FeatureExtractor/MobilenetV2/expanded_conv/project/BatchNorm/batchnorm/mul_1/fq_weights_1/minus_zp" type="Subtract" version="opset1">
			<data auto_broadcast="numpy"/>
			<input>
				<port id="0">
					<dim>16</dim>
					<dim>32</dim>
					<dim>1</dim>
					<dim>1</dim>
				</port>
				<port id="1">
					<dim>16</dim>
					<dim>1</dim>
					<dim>1</dim>
					<dim>1</dim>
				</port>
			</input>
			<output>
				<port id="2" precision="FP16">
					<dim>16</dim>
					<dim>32</dim>
					<dim>1</dim>
					<dim>1</dim>
				</port>
			</output>
		</layer>
		<layer id="247" name="FeatureExtractor/MobilenetV2/expanded_conv/project/BatchNorm/batchnorm/mul_1/fq_weights_1/scale1117715437" type="Const" version="opset1">
			<data element_type="f16" offset="22038" shape="16,1,1,1" size="32"/>
			<output>
				<port id="0" precision="FP16">
					<dim>16</dim>
					<dim>1</dim>
					<dim>1</dim>
					<dim>1</dim>
				</port>
			</output>
		</layer>
		<layer id="248" name="FeatureExtractor/MobilenetV2/expanded_conv/project/BatchNorm/batchnorm/mul_1/fq_weights_1/mulpiply_by_scale" type="Multiply" version="opset1">
			<data auto_broadcast="numpy"/>
			<input>
				<port id="0">
					<dim>16</dim>
					<dim>32</dim>
					<dim>1</dim>
					<dim>1</dim>
				</port>
				<port id="1">
					<dim>16</dim>
					<dim>1</dim>
					<dim>1</dim>
					<dim>1</dim>
				</port>
			</input>
			<output>
				<port id="2" precision="FP16">
					<dim>16</dim>
					<dim>32</dim>
					<dim>1</dim>
					<dim>1</dim>
				</port>
			</output>
		</layer>
		<layer id="249" name="FeatureExtractor/MobilenetV2/expanded_conv/project/BatchNorm/batchnorm/mul_1" type="Convolution" version="opset1">
			<data auto_pad="same_upper" dilations="1,1" pads_begin="0,0" pads_end="0,0" strides="1,1"/>
			<input>
				<port id="0">
					<dim>1</dim>
					<dim>32</dim>
					<dim>150</dim>
					<dim>150</dim>
				</port>
				<port id="1">
					<dim>16</dim>
					<dim>32</dim>
					<dim>1</dim>
					<dim>1</dim>
				</port>
			</input>
			<output>
				<port id="2" names="FeatureExtractor/MobilenetV2/expanded_conv/project/BatchNorm/batchnorm/mul_1:0" precision="FP16">
					<dim>1</dim>
					<dim>16</dim>
					<dim>150</dim>
					<dim>150</dim>
				</port>
			</output>
		</layer>
		<layer id="250" name="FeatureExtractor/MobilenetV2/expanded_conv/project/BatchNorm/batchnorm/sub/_94__cf__9759216694" type="Const" version="opset1">
			<data element_type="f16" offset="22070" shape="1,16,1,1" size="32"/>
			<output>
				<port id="0" names="FeatureExtractor/MobilenetV2/expanded_conv/project/BatchNorm/batchnorm/sub/_94__cf__97:0" precision="FP16">
					<dim>1</dim>
					<dim>16</dim>
					<dim>1</dim>
					<dim>1</dim>
				</port>
			</output>
		</layer>
		<layer id="251" name="FeatureExtractor/MobilenetV2/expanded_conv/project/BatchNorm/batchnorm/add_1" type="Add" version="opset1">
			<data auto_broadcast="numpy"/>
			<input>
				<port id="0">
					<dim>1</dim>
					<dim>16</dim>
					<dim>150</dim>
					<dim>150</dim>
				</port>
				<port id="1">
					<dim>1</dim>
					<dim>16</dim>
					<dim>1</dim>
					<dim>1</dim>
				</port>
			</input>
			<output>
				<port id="2" names="FeatureExtractor/MobilenetV2/expanded_conv/output:0,FeatureExtractor/MobilenetV2/expanded_conv/project/BatchNorm/batchnorm/add_1:0,FeatureExtractor/MobilenetV2/expanded_conv/project/Identity:0,FeatureExtractor/MobilenetV2/expanded_conv_1/input:0" precision="FP16">
					<dim>1</dim>
					<dim>16</dim>
					<dim>150</dim>
					<dim>150</dim>
				</port>
			</output>
		</layer>
		<layer id="252" name="FeatureExtractor/MobilenetV2/expanded_conv_1/expand/BatchNorm/batchnorm/mul_1/fq_input_0" type="FakeQuantize" version="opset1">
			<data auto_broadcast="numpy" levels="256"/>
			<input>
				<port id="0">
					<dim>1</dim>
					<dim>16</dim>
					<dim>150</dim>
					<dim>150</dim>
				</port>
				<port id="1"/>
				<port id="2"/>
				<port id="3"/>
				<port id="4"/>
			</input>
			<output>
				<port id="5" precision="FP16">
					<dim>1</dim>
					<dim>16</dim>
					<dim>150</dim>
					<dim>150</dim>
				</port>
			</output>
		</layer>
		<layer id="253" name="FeatureExtractor/MobilenetV2/expanded_conv_1/expand/weights/read/_92__cf__955947803/quantized1098915668" type="Const" version="opset1">
			<data element_type="i8" offset="22102" shape="96,16,1,1" size="1536"/>
			<output>
				<port id="0" precision="I8">
					<dim>96</dim>
					<dim>16</dim>
					<dim>1</dim>
					<dim>1</dim>
				</port>
			</output>
		</layer>
		<layer id="254" name="FeatureExtractor/MobilenetV2/expanded_conv_1/expand/weights/read/_92__cf__955947803/quantized/to_f16" type="Convert" version="opset1">
			<data destination_type="f16"/>
			<input>
				<port id="0">
					<dim>96</dim>
					<dim>16</dim>
					<dim>1</dim>
					<dim>1</dim>
				</port>
			</input>
			<output>
				<port id="1" precision="FP16">
					<dim>96</dim>
					<dim>16</dim>
					<dim>1</dim>
					<dim>1</dim>
				</port>
			</output>
		</layer>
		<layer id="255" name="FeatureExtractor/MobilenetV2/expanded_conv_1/expand/BatchNorm/batchnorm/mul_1/fq_weights_1/zero_point1100814753" type="Const" version="opset1">
			<data element_type="f16" offset="23638" shape="96,1,1,1" size="192"/>
			<output>
				<port id="0" precision="FP16">
					<dim>96</dim>
					<dim>1</dim>
					<dim>1</dim>
					<dim>1</dim>
				</port>
			</output>
		</layer>
		<layer id="256" name="FeatureExtractor/MobilenetV2/expanded_conv_1/expand/BatchNorm/batchnorm/mul_1/fq_weights_1/minus_zp" type="Subtract" version="opset1">
			<data auto_broadcast="numpy"/>
			<input>
				<port id="0">
					<dim>96</dim>
					<dim>16</dim>
					<dim>1</dim>
					<dim>1</dim>
				</port>
				<port id="1">
					<dim>96</dim>
					<dim>1</dim>
					<dim>1</dim>
					<dim>1</dim>
				</port>
			</input>
			<output>
				<port id="2" precision="FP16">
					<dim>96</dim>
					<dim>16</dim>
					<dim>1</dim>
					<dim>1</dim>
				</port>
			</output>
		</layer>
		<layer id="257" name="FeatureExtractor/MobilenetV2/expanded_conv_1/expand/BatchNorm/batchnorm/mul_1/fq_weights_1/scale1099717105" type="Const" version="opset1">
			<data element_type="f16" offset="23830" shape="96,1,1,1" size="192"/>
			<output>
				<port id="0" precision="FP16">
					<dim>96</dim>
					<dim>1</dim>
					<dim>1</dim>
					<dim>1</dim>
				</port>
			</output>
		</layer>
		<layer id="258" name="FeatureExtractor/MobilenetV2/expanded_conv_1/expand/BatchNorm/batchnorm/mul_1/fq_weights_1/mulpiply_by_scale" type="Multiply" version="opset1">
			<data auto_broadcast="numpy"/>
			<input>
				<port id="0">
					<dim>96</dim>
					<dim>16</dim>
					<dim>1</dim>
					<dim>1</dim>
				</port>
				<port id="1">
					<dim>96</dim>
					<dim>1</dim>
					<dim>1</dim>
					<dim>1</dim>
				</port>
			</input>
			<output>
				<port id="2" precision="FP16">
					<dim>96</dim>
					<dim>16</dim>
					<dim>1</dim>
					<dim>1</dim>
				</port>
			</output>
		</layer>
		<layer id="259" name="FeatureExtractor/MobilenetV2/expanded_conv_1/expand/BatchNorm/batchnorm/mul_1" type="Convolution" version="opset1">
			<data auto_pad="same_upper" dilations="1,1" pads_begin="0,0" pads_end="0,0" strides="1,1"/>
			<input>
				<port id="0">
					<dim>1</dim>
					<dim>16</dim>
					<dim>150</dim>
					<dim>150</dim>
				</port>
				<port id="1">
					<dim>96</dim>
					<dim>16</dim>
					<dim>1</dim>
					<dim>1</dim>
				</port>
			</input>
			<output>
				<port id="2" names="FeatureExtractor/MobilenetV2/expanded_conv_1/expand/BatchNorm/batchnorm/mul_1:0" precision="FP16">
					<dim>1</dim>
					<dim>96</dim>
					<dim>150</dim>
					<dim>150</dim>
				</port>
			</output>
		</layer>
		<layer id="260" name="FeatureExtractor/MobilenetV2/expanded_conv_1/expand/BatchNorm/batchnorm/sub/_91__cf__9459616490" type="Const" version="opset1">
			<data element_type="f16" offset="24022" shape="1,96,1,1" size="192"/>
			<output>
				<port id="0" names="FeatureExtractor/MobilenetV2/expanded_conv_1/expand/BatchNorm/batchnorm/sub/_91__cf__94:0" precision="FP16">
					<dim>1</dim>
					<dim>96</dim>
					<dim>1</dim>
					<dim>1</dim>
				</port>
			</output>
		</layer>
		<layer id="261" name="FeatureExtractor/MobilenetV2/expanded_conv_1/expand/BatchNorm/batchnorm/add_1" type="Add" version="opset1">
			<data auto_broadcast="numpy"/>
			<input>
				<port id="0">
					<dim>1</dim>
					<dim>96</dim>
					<dim>150</dim>
					<dim>150</dim>
				</port>
				<port id="1">
					<dim>1</dim>
					<dim>96</dim>
					<dim>1</dim>
					<dim>1</dim>
				</port>
			</input>
			<output>
				<port id="2" names="FeatureExtractor/MobilenetV2/expanded_conv_1/expand/BatchNorm/batchnorm/add_1:0" precision="FP16">
					<dim>1</dim>
					<dim>96</dim>
					<dim>150</dim>
					<dim>150</dim>
				</port>
			</output>
		</layer>
		<layer id="262" name="FeatureExtractor/MobilenetV2/expanded_conv_1/expand/Relu6" type="Clamp" version="opset1">
			<data max="6.0" min="0.0"/>
			<input>
				<port id="0">
					<dim>1</dim>
					<dim>96</dim>
					<dim>150</dim>
					<dim>150</dim>
				</port>
			</input>
			<output>
				<port id="1" names="FeatureExtractor/MobilenetV2/expanded_conv_1/expand/Relu6:0,FeatureExtractor/MobilenetV2/expanded_conv_1/expansion_output:0" precision="FP16">
					<dim>1</dim>
					<dim>96</dim>
					<dim>150</dim>
					<dim>150</dim>
				</port>
			</output>
		</layer>
		<layer id="263" name="FeatureExtractor/MobilenetV2/expanded_conv_1/depthwise/depthwise/fq_input_0" type="FakeQuantize" version="opset1">
			<data auto_broadcast="numpy" levels="256"/>
			<input>
				<port id="0">
					<dim>1</dim>
					<dim>96</dim>
					<dim>150</dim>
					<dim>150</dim>
				</port>
				<port id="1">
					<dim>1</dim>
					<dim>96</dim>
					<dim>1</dim>
					<dim>1</dim>
				</port>
				<port id="2">
					<dim>1</dim>
					<dim>96</dim>
					<dim>1</dim>
					<dim>1</dim>
				</port>
				<port id="3">
					<dim>1</dim>
					<dim>96</dim>
					<dim>1</dim>
					<dim>1</dim>
				</port>
				<port id="4">
					<dim>1</dim>
					<dim>96</dim>
					<dim>1</dim>
					<dim>1</dim>
				</port>
			</input>
			<output>
				<port id="5" precision="FP16">
					<dim>1</dim>
					<dim>96</dim>
					<dim>150</dim>
					<dim>150</dim>
				</port>
			</output>
		</layer>
		<layer id="264" name="13014/value1301616823" type="Const" version="opset1">
			<data element_type="i64" offset="24214" shape="5" size="40"/>
			<output>
				<port id="0" precision="I64">
					<dim>5</dim>
				</port>
			</output>
		</layer>
		<layer id="265" name="FeatureExtractor/MobilenetV2/expanded_conv_1/depthwise/BatchNorm/batchnorm/mul_1_copy5997805/quantized882916580" type="Const" version="opset1">
			<data element_type="i8" offset="24254" shape="96,1,3,3" size="864"/>
			<output>
				<port id="0" precision="I8">
					<dim>96</dim>
					<dim>1</dim>
					<dim>3</dim>
					<dim>3</dim>
				</port>
			</output>
		</layer>
		<layer id="266" name="FeatureExtractor/MobilenetV2/expanded_conv_1/depthwise/BatchNorm/batchnorm/mul_1_copy5997805/quantized/to_f16" type="Convert" version="opset1">
			<data destination_type="f16"/>
			<input>
				<port id="0">
					<dim>96</dim>
					<dim>1</dim>
					<dim>3</dim>
					<dim>3</dim>
				</port>
			</input>
			<output>
				<port id="1" precision="FP16">
					<dim>96</dim>
					<dim>1</dim>
					<dim>3</dim>
					<dim>3</dim>
				</port>
			</output>
		</layer>
		<layer id="267" name="FeatureExtractor/MobilenetV2/expanded_conv_1/depthwise/depthwise/fq_weights_1/zero_point884814771" type="Const" version="opset1">
			<data element_type="f16" offset="25118" shape="96,1,1,1" size="192"/>
			<output>
				<port id="0" precision="FP16">
					<dim>96</dim>
					<dim>1</dim>
					<dim>1</dim>
					<dim>1</dim>
				</port>
			</output>
		</layer>
		<layer id="268" name="FeatureExtractor/MobilenetV2/expanded_conv_1/depthwise/depthwise/fq_weights_1/minus_zp" type="Subtract" version="opset1">
			<data auto_broadcast="numpy"/>
			<input>
				<port id="0">
					<dim>96</dim>
					<dim>1</dim>
					<dim>3</dim>
					<dim>3</dim>
				</port>
				<port id="1">
					<dim>96</dim>
					<dim>1</dim>
					<dim>1</dim>
					<dim>1</dim>
				</port>
			</input>
			<output>
				<port id="2" precision="FP16">
					<dim>96</dim>
					<dim>1</dim>
					<dim>3</dim>
					<dim>3</dim>
				</port>
			</output>
		</layer>
		<layer id="269" name="FeatureExtractor/MobilenetV2/expanded_conv_1/depthwise/depthwise/fq_weights_1/scale883715215" type="Const" version="opset1">
			<data element_type="f16" offset="25310" shape="96,1,1,1" size="192"/>
			<output>
				<port id="0" precision="FP16">
					<dim>96</dim>
					<dim>1</dim>
					<dim>1</dim>
					<dim>1</dim>
				</port>
			</output>
		</layer>
		<layer id="270" name="FeatureExtractor/MobilenetV2/expanded_conv_1/depthwise/depthwise/fq_weights_1/mulpiply_by_scale" type="Multiply" version="opset1">
			<data auto_broadcast="numpy"/>
			<input>
				<port id="0">
					<dim>96</dim>
					<dim>1</dim>
					<dim>3</dim>
					<dim>3</dim>
				</port>
				<port id="1">
					<dim>96</dim>
					<dim>1</dim>
					<dim>1</dim>
					<dim>1</dim>
				</port>
			</input>
			<output>
				<port id="2" precision="FP16">
					<dim>96</dim>
					<dim>1</dim>
					<dim>3</dim>
					<dim>3</dim>
				</port>
			</output>
		</layer>
		<layer id="271" name="13014" type="Reshape" version="opset1">
			<data special_zero="true"/>
			<input>
				<port id="0">
					<dim>96</dim>
					<dim>1</dim>
					<dim>3</dim>
					<dim>3</dim>
				</port>
				<port id="1">
					<dim>5</dim>
				</port>
			</input>
			<output>
				<port id="2" precision="FP16">
					<dim>96</dim>
					<dim>1</dim>
					<dim>1</dim>
					<dim>3</dim>
					<dim>3</dim>
				</port>
			</output>
		</layer>
		<layer id="272" name="FeatureExtractor/MobilenetV2/expanded_conv_1/depthwise/depthwise" type="GroupConvolution" version="opset1">
			<data auto_pad="same_upper" dilations="1,1" pads_begin="0,0" pads_end="0,0" strides="2,2"/>
			<input>
				<port id="0">
					<dim>1</dim>
					<dim>96</dim>
					<dim>150</dim>
					<dim>150</dim>
				</port>
				<port id="1">
					<dim>96</dim>
					<dim>1</dim>
					<dim>1</dim>
					<dim>3</dim>
					<dim>3</dim>
				</port>
			</input>
			<output>
				<port id="2" names="FeatureExtractor/MobilenetV2/expanded_conv_1/depthwise/BatchNorm/batchnorm/mul_1:0" precision="FP16">
					<dim>1</dim>
					<dim>96</dim>
					<dim>75</dim>
					<dim>75</dim>
				</port>
			</output>
		</layer>
		<layer id="273" name="FeatureExtractor/MobilenetV2/expanded_conv_1/depthwise/BatchNorm/batchnorm/add_1" type="Add" version="opset1">
			<data auto_broadcast="numpy"/>
			<input>
				<port id="0">
					<dim>1</dim>
					<dim>96</dim>
					<dim>75</dim>
					<dim>75</dim>
				</port>
				<port id="1">
					<dim>1</dim>
					<dim>96</dim>
					<dim>1</dim>
					<dim>1</dim>
				</port>
			</input>
			<output>
				<port id="2" names="FeatureExtractor/MobilenetV2/expanded_conv_1/depthwise/BatchNorm/batchnorm/add_1:0" precision="FP16">
					<dim>1</dim>
					<dim>96</dim>
					<dim>75</dim>
					<dim>75</dim>
				</port>
			</output>
		</layer>
		<layer id="274" name="FeatureExtractor/MobilenetV2/expanded_conv_1/depthwise/Relu6" type="Clamp" version="opset1">
			<data max="6.0" min="0.0"/>
			<input>
				<port id="0">
					<dim>1</dim>
					<dim>96</dim>
					<dim>75</dim>
					<dim>75</dim>
				</port>
			</input>
			<output>
				<port id="1" names="FeatureExtractor/MobilenetV2/expanded_conv_1/depthwise/Relu6:0,FeatureExtractor/MobilenetV2/expanded_conv_1/depthwise_output:0" precision="FP16">
					<dim>1</dim>
					<dim>96</dim>
					<dim>75</dim>
					<dim>75</dim>
				</port>
			</output>
		</layer>
		<layer id="275" name="FeatureExtractor/MobilenetV2/expanded_conv_1/project/BatchNorm/batchnorm/mul_1/fq_input_0" type="FakeQuantize" version="opset1">
			<data auto_broadcast="numpy" levels="256"/>
			<input>
				<port id="0">
					<dim>1</dim>
					<dim>96</dim>
					<dim>75</dim>
					<dim>75</dim>
				</port>
				<port id="1"/>
				<port id="2"/>
				<port id="3"/>
				<port id="4"/>
			</input>
			<output>
				<port id="5" precision="FP16">
					<dim>1</dim>
					<dim>96</dim>
					<dim>75</dim>
					<dim>75</dim>
				</port>
			</output>
		</layer>
		<layer id="276" name="FeatureExtractor/MobilenetV2/expanded_conv_1/project/weights/read/_86__cf__895737793/quantized1035916118" type="Const" version="opset1">
			<data element_type="i8" offset="25502" shape="24,96,1,1" size="2304"/>
			<output>
				<port id="0" precision="I8">
					<dim>24</dim>
					<dim>96</dim>
					<dim>1</dim>
					<dim>1</dim>
				</port>
			</output>
		</layer>
		<layer id="277" name="FeatureExtractor/MobilenetV2/expanded_conv_1/project/weights/read/_86__cf__895737793/quantized/to_f16" type="Convert" version="opset1">
			<data destination_type="f16"/>
			<input>
				<port id="0">
					<dim>24</dim>
					<dim>96</dim>
					<dim>1</dim>
					<dim>1</dim>
				</port>
			</input>
			<output>
				<port id="1" precision="FP16">
					<dim>24</dim>
					<dim>96</dim>
					<dim>1</dim>
					<dim>1</dim>
				</port>
			</output>
		</layer>
		<layer id="278" name="FeatureExtractor/MobilenetV2/expanded_conv_1/project/BatchNorm/batchnorm/mul_1/fq_weights_1/zero_point1037815314" type="Const" version="opset1">
			<data element_type="f16" offset="27806" shape="24,1,1,1" size="48"/>
			<output>
				<port id="0" precision="FP16">
					<dim>24</dim>
					<dim>1</dim>
					<dim>1</dim>
					<dim>1</dim>
				</port>
			</output>
		</layer>
		<layer id="279" name="FeatureExtractor/MobilenetV2/expanded_conv_1/project/BatchNorm/batchnorm/mul_1/fq_weights_1/minus_zp" type="Subtract" version="opset1">
			<data auto_broadcast="numpy"/>
			<input>
				<port id="0">
					<dim>24</dim>
					<dim>96</dim>
					<dim>1</dim>
					<dim>1</dim>
				</port>
				<port id="1">
					<dim>24</dim>
					<dim>1</dim>
					<dim>1</dim>
					<dim>1</dim>
				</port>
			</input>
			<output>
				<port id="2" precision="FP16">
					<dim>24</dim>
					<dim>96</dim>
					<dim>1</dim>
					<dim>1</dim>
				</port>
			</output>
		</layer>
		<layer id="280" name="FeatureExtractor/MobilenetV2/expanded_conv_1/project/BatchNorm/batchnorm/mul_1/fq_weights_1/scale1036715410" type="Const" version="opset1">
			<data element_type="f16" offset="27854" shape="24,1,1,1" size="48"/>
			<output>
				<port id="0" precision="FP16">
					<dim>24</dim>
					<dim>1</dim>
					<dim>1</dim>
					<dim>1</dim>
				</port>
			</output>
		</layer>
		<layer id="281" name="FeatureExtractor/MobilenetV2/expanded_conv_1/project/BatchNorm/batchnorm/mul_1/fq_weights_1/mulpiply_by_scale" type="Multiply" version="opset1">
			<data auto_broadcast="numpy"/>
			<input>
				<port id="0">
					<dim>24</dim>
					<dim>96</dim>
					<dim>1</dim>
					<dim>1</dim>
				</port>
				<port id="1">
					<dim>24</dim>
					<dim>1</dim>
					<dim>1</dim>
					<dim>1</dim>
				</port>
			</input>
			<output>
				<port id="2" precision="FP16">
					<dim>24</dim>
					<dim>96</dim>
					<dim>1</dim>
					<dim>1</dim>
				</port>
			</output>
		</layer>
		<layer id="282" name="FeatureExtractor/MobilenetV2/expanded_conv_1/project/BatchNorm/batchnorm/mul_1" type="Convolution" version="opset1">
			<data auto_pad="same_upper" dilations="1,1" pads_begin="0,0" pads_end="0,0" strides="1,1"/>
			<input>
				<port id="0">
					<dim>1</dim>
					<dim>96</dim>
					<dim>75</dim>
					<dim>75</dim>
				</port>
				<port id="1">
					<dim>24</dim>
					<dim>96</dim>
					<dim>1</dim>
					<dim>1</dim>
				</port>
			</input>
			<output>
				<port id="2" names="FeatureExtractor/MobilenetV2/expanded_conv_1/project/BatchNorm/batchnorm/mul_1:0" precision="FP16">
					<dim>1</dim>
					<dim>24</dim>
					<dim>75</dim>
					<dim>75</dim>
				</port>
			</output>
		</layer>
		<layer id="283" name="FeatureExtractor/MobilenetV2/expanded_conv_1/project/BatchNorm/batchnorm/sub/_85__cf__8860416193" type="Const" version="opset1">
			<data element_type="f16" offset="27902" shape="1,24,1,1" size="48"/>
			<output>
				<port id="0" names="FeatureExtractor/MobilenetV2/expanded_conv_1/project/BatchNorm/batchnorm/sub/_85__cf__88:0" precision="FP16">
					<dim>1</dim>
					<dim>24</dim>
					<dim>1</dim>
					<dim>1</dim>
				</port>
			</output>
		</layer>
		<layer id="284" name="FeatureExtractor/MobilenetV2/expanded_conv_1/project/BatchNorm/batchnorm/add_1" type="Add" version="opset1">
			<data auto_broadcast="numpy"/>
			<input>
				<port id="0">
					<dim>1</dim>
					<dim>24</dim>
					<dim>75</dim>
					<dim>75</dim>
				</port>
				<port id="1">
					<dim>1</dim>
					<dim>24</dim>
					<dim>1</dim>
					<dim>1</dim>
				</port>
			</input>
			<output>
				<port id="2" names="FeatureExtractor/MobilenetV2/expanded_conv_1/output:0,FeatureExtractor/MobilenetV2/expanded_conv_1/project/BatchNorm/batchnorm/add_1:0,FeatureExtractor/MobilenetV2/expanded_conv_1/project/Identity:0,FeatureExtractor/MobilenetV2/expanded_conv_2/input:0" precision="FP16">
					<dim>1</dim>
					<dim>24</dim>
					<dim>75</dim>
					<dim>75</dim>
				</port>
			</output>
		</layer>
		<layer id="285" name="FeatureExtractor/MobilenetV2/expanded_conv_2/add/fq_input_1" type="FakeQuantize" version="opset1">
			<data auto_broadcast="numpy" levels="256"/>
			<input>
				<port id="0">
					<dim>1</dim>
					<dim>24</dim>
					<dim>75</dim>
					<dim>75</dim>
				</port>
				<port id="1"/>
				<port id="2"/>
				<port id="3"/>
				<port id="4"/>
			</input>
			<output>
				<port id="5" precision="FP16">
					<dim>1</dim>
					<dim>24</dim>
					<dim>75</dim>
					<dim>75</dim>
				</port>
			</output>
		</layer>
		<layer id="286" name="FeatureExtractor/MobilenetV2/expanded_conv_2/expand/weights/read/_110__cf__1136087809/quantized1017915296" type="Const" version="opset1">
			<data element_type="i8" offset="27950" shape="144,24,1,1" size="3456"/>
			<output>
				<port id="0" precision="I8">
					<dim>144</dim>
					<dim>24</dim>
					<dim>1</dim>
					<dim>1</dim>
				</port>
			</output>
		</layer>
		<layer id="287" name="FeatureExtractor/MobilenetV2/expanded_conv_2/expand/weights/read/_110__cf__1136087809/quantized/to_f16" type="Convert" version="opset1">
			<data destination_type="f16"/>
			<input>
				<port id="0">
					<dim>144</dim>
					<dim>24</dim>
					<dim>1</dim>
					<dim>1</dim>
				</port>
			</input>
			<output>
				<port id="1" precision="FP16">
					<dim>144</dim>
					<dim>24</dim>
					<dim>1</dim>
					<dim>1</dim>
				</port>
			</output>
		</layer>
		<layer id="288" name="FeatureExtractor/MobilenetV2/expanded_conv_2/expand/BatchNorm/batchnorm/mul_1/fq_weights_1/zero_point1019815656" type="Const" version="opset1">
			<data element_type="f16" offset="31406" shape="144,1,1,1" size="288"/>
			<output>
				<port id="0" precision="FP16">
					<dim>144</dim>
					<dim>1</dim>
					<dim>1</dim>
					<dim>1</dim>
				</port>
			</output>
		</layer>
		<layer id="289" name="FeatureExtractor/MobilenetV2/expanded_conv_2/expand/BatchNorm/batchnorm/mul_1/fq_weights_1/minus_zp" type="Subtract" version="opset1">
			<data auto_broadcast="numpy"/>
			<input>
				<port id="0">
					<dim>144</dim>
					<dim>24</dim>
					<dim>1</dim>
					<dim>1</dim>
				</port>
				<port id="1">
					<dim>144</dim>
					<dim>1</dim>
					<dim>1</dim>
					<dim>1</dim>
				</port>
			</input>
			<output>
				<port id="2" precision="FP16">
					<dim>144</dim>
					<dim>24</dim>
					<dim>1</dim>
					<dim>1</dim>
				</port>
			</output>
		</layer>
		<layer id="290" name="FeatureExtractor/MobilenetV2/expanded_conv_2/expand/BatchNorm/batchnorm/mul_1/fq_weights_1/scale1018715131" type="Const" version="opset1">
			<data element_type="f16" offset="31694" shape="144,1,1,1" size="288"/>
			<output>
				<port id="0" precision="FP16">
					<dim>144</dim>
					<dim>1</dim>
					<dim>1</dim>
					<dim>1</dim>
				</port>
			</output>
		</layer>
		<layer id="291" name="FeatureExtractor/MobilenetV2/expanded_conv_2/expand/BatchNorm/batchnorm/mul_1/fq_weights_1/mulpiply_by_scale" type="Multiply" version="opset1">
			<data auto_broadcast="numpy"/>
			<input>
				<port id="0">
					<dim>144</dim>
					<dim>24</dim>
					<dim>1</dim>
					<dim>1</dim>
				</port>
				<port id="1">
					<dim>144</dim>
					<dim>1</dim>
					<dim>1</dim>
					<dim>1</dim>
				</port>
			</input>
			<output>
				<port id="2" precision="FP16">
					<dim>144</dim>
					<dim>24</dim>
					<dim>1</dim>
					<dim>1</dim>
				</port>
			</output>
		</layer>
		<layer id="292" name="FeatureExtractor/MobilenetV2/expanded_conv_2/expand/BatchNorm/batchnorm/mul_1" type="Convolution" version="opset1">
			<data auto_pad="same_upper" dilations="1,1" pads_begin="0,0" pads_end="0,0" strides="1,1"/>
			<input>
				<port id="0">
					<dim>1</dim>
					<dim>24</dim>
					<dim>75</dim>
					<dim>75</dim>
				</port>
				<port id="1">
					<dim>144</dim>
					<dim>24</dim>
					<dim>1</dim>
					<dim>1</dim>
				</port>
			</input>
			<output>
				<port id="2" names="FeatureExtractor/MobilenetV2/expanded_conv_2/expand/BatchNorm/batchnorm/mul_1:0" precision="FP16">
					<dim>1</dim>
					<dim>144</dim>
					<dim>75</dim>
					<dim>75</dim>
				</port>
			</output>
		</layer>
		<layer id="293" name="FeatureExtractor/MobilenetV2/expanded_conv_2/expand/BatchNorm/batchnorm/sub/_109__cf__11261017120" type="Const" version="opset1">
			<data element_type="f16" offset="31982" shape="1,144,1,1" size="288"/>
			<output>
				<port id="0" names="FeatureExtractor/MobilenetV2/expanded_conv_2/expand/BatchNorm/batchnorm/sub/_109__cf__112:0" precision="FP16">
					<dim>1</dim>
					<dim>144</dim>
					<dim>1</dim>
					<dim>1</dim>
				</port>
			</output>
		</layer>
		<layer id="294" name="FeatureExtractor/MobilenetV2/expanded_conv_2/expand/BatchNorm/batchnorm/add_1" type="Add" version="opset1">
			<data auto_broadcast="numpy"/>
			<input>
				<port id="0">
					<dim>1</dim>
					<dim>144</dim>
					<dim>75</dim>
					<dim>75</dim>
				</port>
				<port id="1">
					<dim>1</dim>
					<dim>144</dim>
					<dim>1</dim>
					<dim>1</dim>
				</port>
			</input>
			<output>
				<port id="2" names="FeatureExtractor/MobilenetV2/expanded_conv_2/expand/BatchNorm/batchnorm/add_1:0" precision="FP16">
					<dim>1</dim>
					<dim>144</dim>
					<dim>75</dim>
					<dim>75</dim>
				</port>
			</output>
		</layer>
		<layer id="295" name="FeatureExtractor/MobilenetV2/expanded_conv_2/expand/Relu6" type="Clamp" version="opset1">
			<data max="6.0" min="0.0"/>
			<input>
				<port id="0">
					<dim>1</dim>
					<dim>144</dim>
					<dim>75</dim>
					<dim>75</dim>
				</port>
			</input>
			<output>
				<port id="1" names="FeatureExtractor/MobilenetV2/expanded_conv_2/expand/Relu6:0,FeatureExtractor/MobilenetV2/expanded_conv_2/expansion_output:0" precision="FP16">
					<dim>1</dim>
					<dim>144</dim>
					<dim>75</dim>
					<dim>75</dim>
				</port>
			</output>
		</layer>
		<layer id="296" name="FeatureExtractor/MobilenetV2/expanded_conv_2/depthwise/depthwise/fq_input_0" type="FakeQuantize" version="opset1">
			<data auto_broadcast="numpy" levels="256"/>
			<input>
				<port id="0">
					<dim>1</dim>
					<dim>144</dim>
					<dim>75</dim>
					<dim>75</dim>
				</port>
				<port id="1">
					<dim>1</dim>
					<dim>144</dim>
					<dim>1</dim>
					<dim>1</dim>
				</port>
				<port id="2">
					<dim>1</dim>
					<dim>144</dim>
					<dim>1</dim>
					<dim>1</dim>
				</port>
				<port id="3">
					<dim>1</dim>
					<dim>144</dim>
					<dim>1</dim>
					<dim>1</dim>
				</port>
				<port id="4">
					<dim>1</dim>
					<dim>144</dim>
					<dim>1</dim>
					<dim>1</dim>
				</port>
			</input>
			<output>
				<port id="5" precision="FP16">
					<dim>1</dim>
					<dim>144</dim>
					<dim>75</dim>
					<dim>75</dim>
				</port>
			</output>
		</layer>
		<layer id="297" name="13018/value1302015017" type="Const" version="opset1">
			<data element_type="i64" offset="32270" shape="5" size="40"/>
			<output>
				<port id="0" precision="I64">
					<dim>5</dim>
				</port>
			</output>
		</layer>
		<layer id="298" name="FeatureExtractor/MobilenetV2/expanded_conv_2/depthwise/BatchNorm/batchnorm/mul_1_copy6137811/quantized927914945" type="Const" version="opset1">
			<data element_type="i8" offset="32310" shape="144,1,3,3" size="1296"/>
			<output>
				<port id="0" precision="I8">
					<dim>144</dim>
					<dim>1</dim>
					<dim>3</dim>
					<dim>3</dim>
				</port>
			</output>
		</layer>
		<layer id="299" name="FeatureExtractor/MobilenetV2/expanded_conv_2/depthwise/BatchNorm/batchnorm/mul_1_copy6137811/quantized/to_f16" type="Convert" version="opset1">
			<data destination_type="f16"/>
			<input>
				<port id="0">
					<dim>144</dim>
					<dim>1</dim>
					<dim>3</dim>
					<dim>3</dim>
				</port>
			</input>
			<output>
				<port id="1" precision="FP16">
					<dim>144</dim>
					<dim>1</dim>
					<dim>3</dim>
					<dim>3</dim>
				</port>
			</output>
		</layer>
		<layer id="300" name="FeatureExtractor/MobilenetV2/expanded_conv_2/depthwise/depthwise/fq_weights_1/zero_point929816829" type="Const" version="opset1">
			<data element_type="f16" offset="33606" shape="144,1,1,1" size="288"/>
			<output>
				<port id="0" precision="FP16">
					<dim>144</dim>
					<dim>1</dim>
					<dim>1</dim>
					<dim>1</dim>
				</port>
			</output>
		</layer>
		<layer id="301" name="FeatureExtractor/MobilenetV2/expanded_conv_2/depthwise/depthwise/fq_weights_1/minus_zp" type="Subtract" version="opset1">
			<data auto_broadcast="numpy"/>
			<input>
				<port id="0">
					<dim>144</dim>
					<dim>1</dim>
					<dim>3</dim>
					<dim>3</dim>
				</port>
				<port id="1">
					<dim>144</dim>
					<dim>1</dim>
					<dim>1</dim>
					<dim>1</dim>
				</port>
			</input>
			<output>
				<port id="2" precision="FP16">
					<dim>144</dim>
					<dim>1</dim>
					<dim>3</dim>
					<dim>3</dim>
				</port>
			</output>
		</layer>
		<layer id="302" name="FeatureExtractor/MobilenetV2/expanded_conv_2/depthwise/depthwise/fq_weights_1/scale928716343" type="Const" version="opset1">
			<data element_type="f16" offset="33894" shape="144,1,1,1" size="288"/>
			<output>
				<port id="0" precision="FP16">
					<dim>144</dim>
					<dim>1</dim>
					<dim>1</dim>
					<dim>1</dim>
				</port>
			</output>
		</layer>
		<layer id="303" name="FeatureExtractor/MobilenetV2/expanded_conv_2/depthwise/depthwise/fq_weights_1/mulpiply_by_scale" type="Multiply" version="opset1">
			<data auto_broadcast="numpy"/>
			<input>
				<port id="0">
					<dim>144</dim>
					<dim>1</dim>
					<dim>3</dim>
					<dim>3</dim>
				</port>
				<port id="1">
					<dim>144</dim>
					<dim>1</dim>
					<dim>1</dim>
					<dim>1</dim>
				</port>
			</input>
			<output>
				<port id="2" precision="FP16">
					<dim>144</dim>
					<dim>1</dim>
					<dim>3</dim>
					<dim>3</dim>
				</port>
			</output>
		</layer>
		<layer id="304" name="13018" type="Reshape" version="opset1">
			<data special_zero="true"/>
			<input>
				<port id="0">
					<dim>144</dim>
					<dim>1</dim>
					<dim>3</dim>
					<dim>3</dim>
				</port>
				<port id="1">
					<dim>5</dim>
				</port>
			</input>
			<output>
				<port id="2" precision="FP16">
					<dim>144</dim>
					<dim>1</dim>
					<dim>1</dim>
					<dim>3</dim>
					<dim>3</dim>
				</port>
			</output>
		</layer>
		<layer id="305" name="FeatureExtractor/MobilenetV2/expanded_conv_2/depthwise/depthwise" type="GroupConvolution" version="opset1">
			<data auto_pad="same_upper" dilations="1,1" pads_begin="0,0" pads_end="0,0" strides="1,1"/>
			<input>
				<port id="0">
					<dim>1</dim>
					<dim>144</dim>
					<dim>75</dim>
					<dim>75</dim>
				</port>
				<port id="1">
					<dim>144</dim>
					<dim>1</dim>
					<dim>1</dim>
					<dim>3</dim>
					<dim>3</dim>
				</port>
			</input>
			<output>
				<port id="2" names="FeatureExtractor/MobilenetV2/expanded_conv_2/depthwise/BatchNorm/batchnorm/mul_1:0" precision="FP16">
					<dim>1</dim>
					<dim>144</dim>
					<dim>75</dim>
					<dim>75</dim>
				</port>
			</output>
		</layer>
		<layer id="306" name="FeatureExtractor/MobilenetV2/expanded_conv_2/depthwise/BatchNorm/batchnorm/add_1" type="Add" version="opset1">
			<data auto_broadcast="numpy"/>
			<input>
				<port id="0">
					<dim>1</dim>
					<dim>144</dim>
					<dim>75</dim>
					<dim>75</dim>
				</port>
				<port id="1">
					<dim>1</dim>
					<dim>144</dim>
					<dim>1</dim>
					<dim>1</dim>
				</port>
			</input>
			<output>
				<port id="2" names="FeatureExtractor/MobilenetV2/expanded_conv_2/depthwise/BatchNorm/batchnorm/add_1:0" precision="FP16">
					<dim>1</dim>
					<dim>144</dim>
					<dim>75</dim>
					<dim>75</dim>
				</port>
			</output>
		</layer>
		<layer id="307" name="FeatureExtractor/MobilenetV2/expanded_conv_2/depthwise/Relu6" type="Clamp" version="opset1">
			<data max="6.0" min="0.0"/>
			<input>
				<port id="0">
					<dim>1</dim>
					<dim>144</dim>
					<dim>75</dim>
					<dim>75</dim>
				</port>
			</input>
			<output>
				<port id="1" names="FeatureExtractor/MobilenetV2/expanded_conv_2/depthwise/Relu6:0,FeatureExtractor/MobilenetV2/expanded_conv_2/depthwise_output:0" precision="FP16">
					<dim>1</dim>
					<dim>144</dim>
					<dim>75</dim>
					<dim>75</dim>
				</port>
			</output>
		</layer>
		<layer id="308" name="FeatureExtractor/MobilenetV2/expanded_conv_2/project/BatchNorm/batchnorm/mul_1/fq_input_0" type="FakeQuantize" version="opset1">
			<data auto_broadcast="numpy" levels="256"/>
			<input>
				<port id="0">
					<dim>1</dim>
					<dim>144</dim>
					<dim>75</dim>
					<dim>75</dim>
				</port>
				<port id="1"/>
				<port id="2"/>
				<port id="3"/>
				<port id="4"/>
			</input>
			<output>
				<port id="5" precision="FP16">
					<dim>1</dim>
					<dim>144</dim>
					<dim>75</dim>
					<dim>75</dim>
				</port>
			</output>
		</layer>
		<layer id="309" name="FeatureExtractor/MobilenetV2/expanded_conv_2/project/weights/read/_104__cf__1076067807/quantized999917093" type="Const" version="opset1">
			<data element_type="i8" offset="34182" shape="24,144,1,1" size="3456"/>
			<output>
				<port id="0" precision="I8">
					<dim>24</dim>
					<dim>144</dim>
					<dim>1</dim>
					<dim>1</dim>
				</port>
			</output>
		</layer>
		<layer id="310" name="FeatureExtractor/MobilenetV2/expanded_conv_2/project/weights/read/_104__cf__1076067807/quantized/to_f16" type="Convert" version="opset1">
			<data destination_type="f16"/>
			<input>
				<port id="0">
					<dim>24</dim>
					<dim>144</dim>
					<dim>1</dim>
					<dim>1</dim>
				</port>
			</input>
			<output>
				<port id="1" precision="FP16">
					<dim>24</dim>
					<dim>144</dim>
					<dim>1</dim>
					<dim>1</dim>
				</port>
			</output>
		</layer>
		<layer id="311" name="FeatureExtractor/MobilenetV2/expanded_conv_2/project/BatchNorm/batchnorm/mul_1/fq_weights_1/zero_point1001815713" type="Const" version="opset1">
			<data element_type="f16" offset="37638" shape="24,1,1,1" size="48"/>
			<output>
				<port id="0" precision="FP16">
					<dim>24</dim>
					<dim>1</dim>
					<dim>1</dim>
					<dim>1</dim>
				</port>
			</output>
		</layer>
		<layer id="312" name="FeatureExtractor/MobilenetV2/expanded_conv_2/project/BatchNorm/batchnorm/mul_1/fq_weights_1/minus_zp" type="Subtract" version="opset1">
			<data auto_broadcast="numpy"/>
			<input>
				<port id="0">
					<dim>24</dim>
					<dim>144</dim>
					<dim>1</dim>
					<dim>1</dim>
				</port>
				<port id="1">
					<dim>24</dim>
					<dim>1</dim>
					<dim>1</dim>
					<dim>1</dim>
				</port>
			</input>
			<output>
				<port id="2" precision="FP16">
					<dim>24</dim>
					<dim>144</dim>
					<dim>1</dim>
					<dim>1</dim>
				</port>
			</output>
		</layer>
		<layer id="313" name="FeatureExtractor/MobilenetV2/expanded_conv_2/project/BatchNorm/batchnorm/mul_1/fq_weights_1/scale1000716757" type="Const" version="opset1">
			<data element_type="f16" offset="37686" shape="24,1,1,1" size="48"/>
			<output>
				<port id="0" precision="FP16">
					<dim>24</dim>
					<dim>1</dim>
					<dim>1</dim>
					<dim>1</dim>
				</port>
			</output>
		</layer>
		<layer id="314" name="FeatureExtractor/MobilenetV2/expanded_conv_2/project/BatchNorm/batchnorm/mul_1/fq_weights_1/mulpiply_by_scale" type="Multiply" version="opset1">
			<data auto_broadcast="numpy"/>
			<input>
				<port id="0">
					<dim>24</dim>
					<dim>144</dim>
					<dim>1</dim>
					<dim>1</dim>
				</port>
				<port id="1">
					<dim>24</dim>
					<dim>1</dim>
					<dim>1</dim>
					<dim>1</dim>
				</port>
			</input>
			<output>
				<port id="2" precision="FP16">
					<dim>24</dim>
					<dim>144</dim>
					<dim>1</dim>
					<dim>1</dim>
				</port>
			</output>
		</layer>
		<layer id="315" name="FeatureExtractor/MobilenetV2/expanded_conv_2/project/BatchNorm/batchnorm/mul_1" type="Convolution" version="opset1">
			<data auto_pad="same_upper" dilations="1,1" pads_begin="0,0" pads_end="0,0" strides="1,1"/>
			<input>
				<port id="0">
					<dim>1</dim>
					<dim>144</dim>
					<dim>75</dim>
					<dim>75</dim>
				</port>
				<port id="1">
					<dim>24</dim>
					<dim>144</dim>
					<dim>1</dim>
					<dim>1</dim>
				</port>
			</input>
			<output>
				<port id="2" names="FeatureExtractor/MobilenetV2/expanded_conv_2/project/BatchNorm/batchnorm/mul_1:0" precision="FP16">
					<dim>1</dim>
					<dim>24</dim>
					<dim>75</dim>
					<dim>75</dim>
				</port>
			</output>
		</layer>
		<layer id="316" name="FeatureExtractor/MobilenetV2/expanded_conv_2/project/BatchNorm/batchnorm/sub/_103__cf__10661815764" type="Const" version="opset1">
			<data element_type="f16" offset="37734" shape="1,24,1,1" size="48"/>
			<output>
				<port id="0" names="FeatureExtractor/MobilenetV2/expanded_conv_2/project/BatchNorm/batchnorm/sub/_103__cf__106:0" precision="FP16">
					<dim>1</dim>
					<dim>24</dim>
					<dim>1</dim>
					<dim>1</dim>
				</port>
			</output>
		</layer>
		<layer id="317" name="FeatureExtractor/MobilenetV2/expanded_conv_2/project/BatchNorm/batchnorm/add_1" type="Add" version="opset1">
			<data auto_broadcast="numpy"/>
			<input>
				<port id="0">
					<dim>1</dim>
					<dim>24</dim>
					<dim>75</dim>
					<dim>75</dim>
				</port>
				<port id="1">
					<dim>1</dim>
					<dim>24</dim>
					<dim>1</dim>
					<dim>1</dim>
				</port>
			</input>
			<output>
				<port id="2" names="FeatureExtractor/MobilenetV2/expanded_conv_2/project/BatchNorm/batchnorm/add_1:0,FeatureExtractor/MobilenetV2/expanded_conv_2/project/Identity:0" precision="FP16">
					<dim>1</dim>
					<dim>24</dim>
					<dim>75</dim>
					<dim>75</dim>
				</port>
			</output>
		</layer>
		<layer id="318" name="FeatureExtractor/MobilenetV2/expanded_conv_2/add/fq_input_0" type="FakeQuantize" version="opset1">
			<data auto_broadcast="numpy" levels="256"/>
			<input>
				<port id="0">
					<dim>1</dim>
					<dim>24</dim>
					<dim>75</dim>
					<dim>75</dim>
				</port>
				<port id="1"/>
				<port id="2"/>
				<port id="3"/>
				<port id="4"/>
			</input>
			<output>
				<port id="5" precision="FP16">
					<dim>1</dim>
					<dim>24</dim>
					<dim>75</dim>
					<dim>75</dim>
				</port>
			</output>
		</layer>
		<layer id="319" name="FeatureExtractor/MobilenetV2/expanded_conv_2/add" type="Add" version="opset1">
			<data auto_broadcast="numpy"/>
			<input>
				<port id="0">
					<dim>1</dim>
					<dim>24</dim>
					<dim>75</dim>
					<dim>75</dim>
				</port>
				<port id="1">
					<dim>1</dim>
					<dim>24</dim>
					<dim>75</dim>
					<dim>75</dim>
				</port>
			</input>
			<output>
				<port id="2" names="FeatureExtractor/MobilenetV2/expanded_conv_2/add:0,FeatureExtractor/MobilenetV2/expanded_conv_2/output:0,FeatureExtractor/MobilenetV2/expanded_conv_3/input:0" precision="FP16">
					<dim>1</dim>
					<dim>24</dim>
					<dim>75</dim>
					<dim>75</dim>
				</port>
			</output>
		</layer>
		<layer id="320" name="FeatureExtractor/MobilenetV2/expanded_conv_3/expand/BatchNorm/batchnorm/mul_1/fq_input_0" type="FakeQuantize" version="opset1">
			<data auto_broadcast="numpy" levels="256"/>
			<input>
				<port id="0">
					<dim>1</dim>
					<dim>24</dim>
					<dim>75</dim>
					<dim>75</dim>
				</port>
				<port id="1"/>
				<port id="2"/>
				<port id="3"/>
				<port id="4"/>
			</input>
			<output>
				<port id="5" precision="FP16">
					<dim>1</dim>
					<dim>24</dim>
					<dim>75</dim>
					<dim>75</dim>
				</port>
			</output>
		</layer>
		<layer id="321" name="FeatureExtractor/MobilenetV2/expanded_conv_3/expand/weights/read/_83__cf__866217813/quantized993915794" type="Const" version="opset1">
			<data element_type="i8" offset="37782" shape="144,24,1,1" size="3456"/>
			<output>
				<port id="0" precision="I8">
					<dim>144</dim>
					<dim>24</dim>
					<dim>1</dim>
					<dim>1</dim>
				</port>
			</output>
		</layer>
		<layer id="322" name="FeatureExtractor/MobilenetV2/expanded_conv_3/expand/weights/read/_83__cf__866217813/quantized/to_f16" type="Convert" version="opset1">
			<data destination_type="f16"/>
			<input>
				<port id="0">
					<dim>144</dim>
					<dim>24</dim>
					<dim>1</dim>
					<dim>1</dim>
				</port>
			</input>
			<output>
				<port id="1" precision="FP16">
					<dim>144</dim>
					<dim>24</dim>
					<dim>1</dim>
					<dim>1</dim>
				</port>
			</output>
		</layer>
		<layer id="323" name="FeatureExtractor/MobilenetV2/expanded_conv_3/expand/BatchNorm/batchnorm/mul_1/fq_weights_1/zero_point995816769" type="Const" version="opset1">
			<data element_type="f16" offset="41238" shape="144,1,1,1" size="288"/>
			<output>
				<port id="0" precision="FP16">
					<dim>144</dim>
					<dim>1</dim>
					<dim>1</dim>
					<dim>1</dim>
				</port>
			</output>
		</layer>
		<layer id="324" name="FeatureExtractor/MobilenetV2/expanded_conv_3/expand/BatchNorm/batchnorm/mul_1/fq_weights_1/minus_zp" type="Subtract" version="opset1">
			<data auto_broadcast="numpy"/>
			<input>
				<port id="0">
					<dim>144</dim>
					<dim>24</dim>
					<dim>1</dim>
					<dim>1</dim>
				</port>
				<port id="1">
					<dim>144</dim>
					<dim>1</dim>
					<dim>1</dim>
					<dim>1</dim>
				</port>
			</input>
			<output>
				<port id="2" precision="FP16">
					<dim>144</dim>
					<dim>24</dim>
					<dim>1</dim>
					<dim>1</dim>
				</port>
			</output>
		</layer>
		<layer id="325" name="FeatureExtractor/MobilenetV2/expanded_conv_3/expand/BatchNorm/batchnorm/mul_1/fq_weights_1/scale994716775" type="Const" version="opset1">
			<data element_type="f16" offset="41526" shape="144,1,1,1" size="288"/>
			<output>
				<port id="0" precision="FP16">
					<dim>144</dim>
					<dim>1</dim>
					<dim>1</dim>
					<dim>1</dim>
				</port>
			</output>
		</layer>
		<layer id="326" name="FeatureExtractor/MobilenetV2/expanded_conv_3/expand/BatchNorm/batchnorm/mul_1/fq_weights_1/mulpiply_by_scale" type="Multiply" version="opset1">
			<data auto_broadcast="numpy"/>
			<input>
				<port id="0">
					<dim>144</dim>
					<dim>24</dim>
					<dim>1</dim>
					<dim>1</dim>
				</port>
				<port id="1">
					<dim>144</dim>
					<dim>1</dim>
					<dim>1</dim>
					<dim>1</dim>
				</port>
			</input>
			<output>
				<port id="2" precision="FP16">
					<dim>144</dim>
					<dim>24</dim>
					<dim>1</dim>
					<dim>1</dim>
				</port>
			</output>
		</layer>
		<layer id="327" name="FeatureExtractor/MobilenetV2/expanded_conv_3/expand/BatchNorm/batchnorm/mul_1" type="Convolution" version="opset1">
			<data auto_pad="same_upper" dilations="1,1" pads_begin="0,0" pads_end="0,0" strides="1,1"/>
			<input>
				<port id="0">
					<dim>1</dim>
					<dim>24</dim>
					<dim>75</dim>
					<dim>75</dim>
				</port>
				<port id="1">
					<dim>144</dim>
					<dim>24</dim>
					<dim>1</dim>
					<dim>1</dim>
				</port>
			</input>
			<output>
				<port id="2" names="FeatureExtractor/MobilenetV2/expanded_conv_3/expand/BatchNorm/batchnorm/mul_1:0" precision="FP16">
					<dim>1</dim>
					<dim>144</dim>
					<dim>75</dim>
					<dim>75</dim>
				</port>
			</output>
		</layer>
		<layer id="328" name="FeatureExtractor/MobilenetV2/expanded_conv_3/expand/BatchNorm/batchnorm/sub/_82__cf__8562316340" type="Const" version="opset1">
			<data element_type="f16" offset="41814" shape="1,144,1,1" size="288"/>
			<output>
				<port id="0" names="FeatureExtractor/MobilenetV2/expanded_conv_3/expand/BatchNorm/batchnorm/sub/_82__cf__85:0" precision="FP16">
					<dim>1</dim>
					<dim>144</dim>
					<dim>1</dim>
					<dim>1</dim>
				</port>
			</output>
		</layer>
		<layer id="329" name="FeatureExtractor/MobilenetV2/expanded_conv_3/expand/BatchNorm/batchnorm/add_1" type="Add" version="opset1">
			<data auto_broadcast="numpy"/>
			<input>
				<port id="0">
					<dim>1</dim>
					<dim>144</dim>
					<dim>75</dim>
					<dim>75</dim>
				</port>
				<port id="1">
					<dim>1</dim>
					<dim>144</dim>
					<dim>1</dim>
					<dim>1</dim>
				</port>
			</input>
			<output>
				<port id="2" names="FeatureExtractor/MobilenetV2/expanded_conv_3/expand/BatchNorm/batchnorm/add_1:0" precision="FP16">
					<dim>1</dim>
					<dim>144</dim>
					<dim>75</dim>
					<dim>75</dim>
				</port>
			</output>
		</layer>
		<layer id="330" name="FeatureExtractor/MobilenetV2/expanded_conv_3/expand/Relu6" type="Clamp" version="opset1">
			<data max="6.0" min="0.0"/>
			<input>
				<port id="0">
					<dim>1</dim>
					<dim>144</dim>
					<dim>75</dim>
					<dim>75</dim>
				</port>
			</input>
			<output>
				<port id="1" names="FeatureExtractor/MobilenetV2/expanded_conv_3/expand/Relu6:0,FeatureExtractor/MobilenetV2/expanded_conv_3/expansion_output:0" precision="FP16">
					<dim>1</dim>
					<dim>144</dim>
					<dim>75</dim>
					<dim>75</dim>
				</port>
			</output>
		</layer>
		<layer id="331" name="FeatureExtractor/MobilenetV2/expanded_conv_3/depthwise/depthwise/fq_input_0" type="FakeQuantize" version="opset1">
			<data auto_broadcast="numpy" levels="256"/>
			<input>
				<port id="0">
					<dim>1</dim>
					<dim>144</dim>
					<dim>75</dim>
					<dim>75</dim>
				</port>
				<port id="1">
					<dim>1</dim>
					<dim>144</dim>
					<dim>1</dim>
					<dim>1</dim>
				</port>
				<port id="2">
					<dim>1</dim>
					<dim>144</dim>
					<dim>1</dim>
					<dim>1</dim>
				</port>
				<port id="3">
					<dim>1</dim>
					<dim>144</dim>
					<dim>1</dim>
					<dim>1</dim>
				</port>
				<port id="4">
					<dim>1</dim>
					<dim>144</dim>
					<dim>1</dim>
					<dim>1</dim>
				</port>
			</input>
			<output>
				<port id="5" precision="FP16">
					<dim>1</dim>
					<dim>144</dim>
					<dim>75</dim>
					<dim>75</dim>
				</port>
			</output>
		</layer>
		<layer id="332" name="13022/value1302417012" type="Const" version="opset1">
			<data element_type="i64" offset="32270" shape="5" size="40"/>
			<output>
				<port id="0" precision="I64">
					<dim>5</dim>
				</port>
			</output>
		</layer>
		<layer id="333" name="FeatureExtractor/MobilenetV2/expanded_conv_3/depthwise/BatchNorm/batchnorm/mul_1_copy6267815/quantized981916067" type="Const" version="opset1">
			<data element_type="i8" offset="42102" shape="144,1,3,3" size="1296"/>
			<output>
				<port id="0" precision="I8">
					<dim>144</dim>
					<dim>1</dim>
					<dim>3</dim>
					<dim>3</dim>
				</port>
			</output>
		</layer>
		<layer id="334" name="FeatureExtractor/MobilenetV2/expanded_conv_3/depthwise/BatchNorm/batchnorm/mul_1_copy6267815/quantized/to_f16" type="Convert" version="opset1">
			<data destination_type="f16"/>
			<input>
				<port id="0">
					<dim>144</dim>
					<dim>1</dim>
					<dim>3</dim>
					<dim>3</dim>
				</port>
			</input>
			<output>
				<port id="1" precision="FP16">
					<dim>144</dim>
					<dim>1</dim>
					<dim>3</dim>
					<dim>3</dim>
				</port>
			</output>
		</layer>
		<layer id="335" name="FeatureExtractor/MobilenetV2/expanded_conv_3/depthwise/depthwise/fq_weights_1/zero_point983815038" type="Const" version="opset1">
			<data element_type="f16" offset="43398" shape="144,1,1,1" size="288"/>
			<output>
				<port id="0" precision="FP16">
					<dim>144</dim>
					<dim>1</dim>
					<dim>1</dim>
					<dim>1</dim>
				</port>
			</output>
		</layer>
		<layer id="336" name="FeatureExtractor/MobilenetV2/expanded_conv_3/depthwise/depthwise/fq_weights_1/minus_zp" type="Subtract" version="opset1">
			<data auto_broadcast="numpy"/>
			<input>
				<port id="0">
					<dim>144</dim>
					<dim>1</dim>
					<dim>3</dim>
					<dim>3</dim>
				</port>
				<port id="1">
					<dim>144</dim>
					<dim>1</dim>
					<dim>1</dim>
					<dim>1</dim>
				</port>
			</input>
			<output>
				<port id="2" precision="FP16">
					<dim>144</dim>
					<dim>1</dim>
					<dim>3</dim>
					<dim>3</dim>
				</port>
			</output>
		</layer>
		<layer id="337" name="FeatureExtractor/MobilenetV2/expanded_conv_3/depthwise/depthwise/fq_weights_1/scale982716613" type="Const" version="opset1">
			<data element_type="f16" offset="43686" shape="144,1,1,1" size="288"/>
			<output>
				<port id="0" precision="FP16">
					<dim>144</dim>
					<dim>1</dim>
					<dim>1</dim>
					<dim>1</dim>
				</port>
			</output>
		</layer>
		<layer id="338" name="FeatureExtractor/MobilenetV2/expanded_conv_3/depthwise/depthwise/fq_weights_1/mulpiply_by_scale" type="Multiply" version="opset1">
			<data auto_broadcast="numpy"/>
			<input>
				<port id="0">
					<dim>144</dim>
					<dim>1</dim>
					<dim>3</dim>
					<dim>3</dim>
				</port>
				<port id="1">
					<dim>144</dim>
					<dim>1</dim>
					<dim>1</dim>
					<dim>1</dim>
				</port>
			</input>
			<output>
				<port id="2" precision="FP16">
					<dim>144</dim>
					<dim>1</dim>
					<dim>3</dim>
					<dim>3</dim>
				</port>
			</output>
		</layer>
		<layer id="339" name="13022" type="Reshape" version="opset1">
			<data special_zero="true"/>
			<input>
				<port id="0">
					<dim>144</dim>
					<dim>1</dim>
					<dim>3</dim>
					<dim>3</dim>
				</port>
				<port id="1">
					<dim>5</dim>
				</port>
			</input>
			<output>
				<port id="2" precision="FP16">
					<dim>144</dim>
					<dim>1</dim>
					<dim>1</dim>
					<dim>3</dim>
					<dim>3</dim>
				</port>
			</output>
		</layer>
		<layer id="340" name="FeatureExtractor/MobilenetV2/expanded_conv_3/depthwise/depthwise" type="GroupConvolution" version="opset1">
			<data auto_pad="same_upper" dilations="1,1" pads_begin="0,0" pads_end="0,0" strides="2,2"/>
			<input>
				<port id="0">
					<dim>1</dim>
					<dim>144</dim>
					<dim>75</dim>
					<dim>75</dim>
				</port>
				<port id="1">
					<dim>144</dim>
					<dim>1</dim>
					<dim>1</dim>
					<dim>3</dim>
					<dim>3</dim>
				</port>
			</input>
			<output>
				<port id="2" names="FeatureExtractor/MobilenetV2/expanded_conv_3/depthwise/BatchNorm/batchnorm/mul_1:0" precision="FP16">
					<dim>1</dim>
					<dim>144</dim>
					<dim>38</dim>
					<dim>38</dim>
				</port>
			</output>
		</layer>
		<layer id="341" name="FeatureExtractor/MobilenetV2/expanded_conv_3/depthwise/BatchNorm/batchnorm/add_1" type="Add" version="opset1">
			<data auto_broadcast="numpy"/>
			<input>
				<port id="0">
					<dim>1</dim>
					<dim>144</dim>
					<dim>38</dim>
					<dim>38</dim>
				</port>
				<port id="1">
					<dim>1</dim>
					<dim>144</dim>
					<dim>1</dim>
					<dim>1</dim>
				</port>
			</input>
			<output>
				<port id="2" names="FeatureExtractor/MobilenetV2/expanded_conv_3/depthwise/BatchNorm/batchnorm/add_1:0" precision="FP16">
					<dim>1</dim>
					<dim>144</dim>
					<dim>38</dim>
					<dim>38</dim>
				</port>
			</output>
		</layer>
		<layer id="342" name="FeatureExtractor/MobilenetV2/expanded_conv_3/depthwise/Relu6" type="Clamp" version="opset1">
			<data max="6.0" min="0.0"/>
			<input>
				<port id="0">
					<dim>1</dim>
					<dim>144</dim>
					<dim>38</dim>
					<dim>38</dim>
				</port>
			</input>
			<output>
				<port id="1" names="FeatureExtractor/MobilenetV2/expanded_conv_3/depthwise/Relu6:0,FeatureExtractor/MobilenetV2/expanded_conv_3/depthwise_output:0" precision="FP16">
					<dim>1</dim>
					<dim>144</dim>
					<dim>38</dim>
					<dim>38</dim>
				</port>
			</output>
		</layer>
		<layer id="343" name="FeatureExtractor/MobilenetV2/expanded_conv_3/project/BatchNorm/batchnorm/mul_1/fq_input_0" type="FakeQuantize" version="opset1">
			<data auto_broadcast="numpy" levels="256"/>
			<input>
				<port id="0">
					<dim>1</dim>
					<dim>144</dim>
					<dim>38</dim>
					<dim>38</dim>
				</port>
				<port id="1"/>
				<port id="2"/>
				<port id="3"/>
				<port id="4"/>
			</input>
			<output>
				<port id="5" precision="FP16">
					<dim>1</dim>
					<dim>144</dim>
					<dim>38</dim>
					<dim>38</dim>
				</port>
			</output>
		</layer>
		<layer id="344" name="FeatureExtractor/MobilenetV2/expanded_conv_3/project/weights/read/_77__cf__805717791/quantized1086915290" type="Const" version="opset1">
			<data element_type="i8" offset="43974" shape="32,144,1,1" size="4608"/>
			<output>
				<port id="0" precision="I8">
					<dim>32</dim>
					<dim>144</dim>
					<dim>1</dim>
					<dim>1</dim>
				</port>
			</output>
		</layer>
		<layer id="345" name="FeatureExtractor/MobilenetV2/expanded_conv_3/project/weights/read/_77__cf__805717791/quantized/to_f16" type="Convert" version="opset1">
			<data destination_type="f16"/>
			<input>
				<port id="0">
					<dim>32</dim>
					<dim>144</dim>
					<dim>1</dim>
					<dim>1</dim>
				</port>
			</input>
			<output>
				<port id="1" precision="FP16">
					<dim>32</dim>
					<dim>144</dim>
					<dim>1</dim>
					<dim>1</dim>
				</port>
			</output>
		</layer>
		<layer id="346" name="FeatureExtractor/MobilenetV2/expanded_conv_3/project/BatchNorm/batchnorm/mul_1/fq_weights_1/zero_point1088816616" type="Const" version="opset1">
			<data element_type="f16" offset="48582" shape="32,1,1,1" size="64"/>
			<output>
				<port id="0" precision="FP16">
					<dim>32</dim>
					<dim>1</dim>
					<dim>1</dim>
					<dim>1</dim>
				</port>
			</output>
		</layer>
		<layer id="347" name="FeatureExtractor/MobilenetV2/expanded_conv_3/project/BatchNorm/batchnorm/mul_1/fq_weights_1/minus_zp" type="Subtract" version="opset1">
			<data auto_broadcast="numpy"/>
			<input>
				<port id="0">
					<dim>32</dim>
					<dim>144</dim>
					<dim>1</dim>
					<dim>1</dim>
				</port>
				<port id="1">
					<dim>32</dim>
					<dim>1</dim>
					<dim>1</dim>
					<dim>1</dim>
				</port>
			</input>
			<output>
				<port id="2" precision="FP16">
					<dim>32</dim>
					<dim>144</dim>
					<dim>1</dim>
					<dim>1</dim>
				</port>
			</output>
		</layer>
		<layer id="348" name="FeatureExtractor/MobilenetV2/expanded_conv_3/project/BatchNorm/batchnorm/mul_1/fq_weights_1/scale1087716457" type="Const" version="opset1">
			<data element_type="f16" offset="48646" shape="32,1,1,1" size="64"/>
			<output>
				<port id="0" precision="FP16">
					<dim>32</dim>
					<dim>1</dim>
					<dim>1</dim>
					<dim>1</dim>
				</port>
			</output>
		</layer>
		<layer id="349" name="FeatureExtractor/MobilenetV2/expanded_conv_3/project/BatchNorm/batchnorm/mul_1/fq_weights_1/mulpiply_by_scale" type="Multiply" version="opset1">
			<data auto_broadcast="numpy"/>
			<input>
				<port id="0">
					<dim>32</dim>
					<dim>144</dim>
					<dim>1</dim>
					<dim>1</dim>
				</port>
				<port id="1">
					<dim>32</dim>
					<dim>1</dim>
					<dim>1</dim>
					<dim>1</dim>
				</port>
			</input>
			<output>
				<port id="2" precision="FP16">
					<dim>32</dim>
					<dim>144</dim>
					<dim>1</dim>
					<dim>1</dim>
				</port>
			</output>
		</layer>
		<layer id="350" name="FeatureExtractor/MobilenetV2/expanded_conv_3/project/BatchNorm/batchnorm/mul_1" type="Convolution" version="opset1">
			<data auto_pad="same_upper" dilations="1,1" pads_begin="0,0" pads_end="0,0" strides="1,1"/>
			<input>
				<port id="0">
					<dim>1</dim>
					<dim>144</dim>
					<dim>38</dim>
					<dim>38</dim>
				</port>
				<port id="1">
					<dim>32</dim>
					<dim>144</dim>
					<dim>1</dim>
					<dim>1</dim>
				</port>
			</input>
			<output>
				<port id="2" names="FeatureExtractor/MobilenetV2/expanded_conv_3/project/BatchNorm/batchnorm/mul_1:0" precision="FP16">
					<dim>1</dim>
					<dim>32</dim>
					<dim>38</dim>
					<dim>38</dim>
				</port>
			</output>
		</layer>
		<layer id="351" name="FeatureExtractor/MobilenetV2/expanded_conv_3/project/BatchNorm/batchnorm/sub/_76__cf__7963114882" type="Const" version="opset1">
			<data element_type="f16" offset="48710" shape="1,32,1,1" size="64"/>
			<output>
				<port id="0" names="FeatureExtractor/MobilenetV2/expanded_conv_3/project/BatchNorm/batchnorm/sub/_76__cf__79:0" precision="FP16">
					<dim>1</dim>
					<dim>32</dim>
					<dim>1</dim>
					<dim>1</dim>
				</port>
			</output>
		</layer>
		<layer id="352" name="FeatureExtractor/MobilenetV2/expanded_conv_3/project/BatchNorm/batchnorm/add_1" type="Add" version="opset1">
			<data auto_broadcast="numpy"/>
			<input>
				<port id="0">
					<dim>1</dim>
					<dim>32</dim>
					<dim>38</dim>
					<dim>38</dim>
				</port>
				<port id="1">
					<dim>1</dim>
					<dim>32</dim>
					<dim>1</dim>
					<dim>1</dim>
				</port>
			</input>
			<output>
				<port id="2" names="FeatureExtractor/MobilenetV2/expanded_conv_3/output:0,FeatureExtractor/MobilenetV2/expanded_conv_3/project/BatchNorm/batchnorm/add_1:0,FeatureExtractor/MobilenetV2/expanded_conv_3/project/Identity:0,FeatureExtractor/MobilenetV2/expanded_conv_4/input:0" precision="FP16">
					<dim>1</dim>
					<dim>32</dim>
					<dim>38</dim>
					<dim>38</dim>
				</port>
			</output>
		</layer>
		<layer id="353" name="FeatureExtractor/MobilenetV2/expanded_conv_4/add/fq_input_1" type="FakeQuantize" version="opset1">
			<data auto_broadcast="numpy" levels="256"/>
			<input>
				<port id="0">
					<dim>1</dim>
					<dim>32</dim>
					<dim>38</dim>
					<dim>38</dim>
				</port>
				<port id="1"/>
				<port id="2"/>
				<port id="3"/>
				<port id="4"/>
			</input>
			<output>
				<port id="5" precision="FP16">
					<dim>1</dim>
					<dim>32</dim>
					<dim>38</dim>
					<dim>38</dim>
				</port>
			</output>
		</layer>
		<layer id="354" name="FeatureExtractor/MobilenetV2/expanded_conv_4/expand/weights/read/_119__cf__1226357819/quantized963914762" type="Const" version="opset1">
			<data element_type="i8" offset="48774" shape="192,32,1,1" size="6144"/>
			<output>
				<port id="0" precision="I8">
					<dim>192</dim>
					<dim>32</dim>
					<dim>1</dim>
					<dim>1</dim>
				</port>
			</output>
		</layer>
		<layer id="355" name="FeatureExtractor/MobilenetV2/expanded_conv_4/expand/weights/read/_119__cf__1226357819/quantized/to_f16" type="Convert" version="opset1">
			<data destination_type="f16"/>
			<input>
				<port id="0">
					<dim>192</dim>
					<dim>32</dim>
					<dim>1</dim>
					<dim>1</dim>
				</port>
			</input>
			<output>
				<port id="1" precision="FP16">
					<dim>192</dim>
					<dim>32</dim>
					<dim>1</dim>
					<dim>1</dim>
				</port>
			</output>
		</layer>
		<layer id="356" name="FeatureExtractor/MobilenetV2/expanded_conv_4/expand/BatchNorm/batchnorm/mul_1/fq_weights_1/zero_point965815053" type="Const" version="opset1">
			<data element_type="f16" offset="54918" shape="192,1,1,1" size="384"/>
			<output>
				<port id="0" precision="FP16">
					<dim>192</dim>
					<dim>1</dim>
					<dim>1</dim>
					<dim>1</dim>
				</port>
			</output>
		</layer>
		<layer id="357" name="FeatureExtractor/MobilenetV2/expanded_conv_4/expand/BatchNorm/batchnorm/mul_1/fq_weights_1/minus_zp" type="Subtract" version="opset1">
			<data auto_broadcast="numpy"/>
			<input>
				<port id="0">
					<dim>192</dim>
					<dim>32</dim>
					<dim>1</dim>
					<dim>1</dim>
				</port>
				<port id="1">
					<dim>192</dim>
					<dim>1</dim>
					<dim>1</dim>
					<dim>1</dim>
				</port>
			</input>
			<output>
				<port id="2" precision="FP16">
					<dim>192</dim>
					<dim>32</dim>
					<dim>1</dim>
					<dim>1</dim>
				</port>
			</output>
		</layer>
		<layer id="358" name="FeatureExtractor/MobilenetV2/expanded_conv_4/expand/BatchNorm/batchnorm/mul_1/fq_weights_1/scale964716058" type="Const" version="opset1">
			<data element_type="f16" offset="55302" shape="192,1,1,1" size="384"/>
			<output>
				<port id="0" precision="FP16">
					<dim>192</dim>
					<dim>1</dim>
					<dim>1</dim>
					<dim>1</dim>
				</port>
			</output>
		</layer>
		<layer id="359" name="FeatureExtractor/MobilenetV2/expanded_conv_4/expand/BatchNorm/batchnorm/mul_1/fq_weights_1/mulpiply_by_scale" type="Multiply" version="opset1">
			<data auto_broadcast="numpy"/>
			<input>
				<port id="0">
					<dim>192</dim>
					<dim>32</dim>
					<dim>1</dim>
					<dim>1</dim>
				</port>
				<port id="1">
					<dim>192</dim>
					<dim>1</dim>
					<dim>1</dim>
					<dim>1</dim>
				</port>
			</input>
			<output>
				<port id="2" precision="FP16">
					<dim>192</dim>
					<dim>32</dim>
					<dim>1</dim>
					<dim>1</dim>
				</port>
			</output>
		</layer>
		<layer id="360" name="FeatureExtractor/MobilenetV2/expanded_conv_4/expand/BatchNorm/batchnorm/mul_1" type="Convolution" version="opset1">
			<data auto_pad="same_upper" dilations="1,1" pads_begin="0,0" pads_end="0,0" strides="1,1"/>
			<input>
				<port id="0">
					<dim>1</dim>
					<dim>32</dim>
					<dim>38</dim>
					<dim>38</dim>
				</port>
				<port id="1">
					<dim>192</dim>
					<dim>32</dim>
					<dim>1</dim>
					<dim>1</dim>
				</port>
			</input>
			<output>
				<port id="2" names="FeatureExtractor/MobilenetV2/expanded_conv_4/expand/BatchNorm/batchnorm/mul_1:0" precision="FP16">
					<dim>1</dim>
					<dim>192</dim>
					<dim>38</dim>
					<dim>38</dim>
				</port>
			</output>
		</layer>
		<layer id="361" name="FeatureExtractor/MobilenetV2/expanded_conv_4/expand/BatchNorm/batchnorm/sub/_118__cf__12163715851" type="Const" version="opset1">
			<data element_type="f16" offset="55686" shape="1,192,1,1" size="384"/>
			<output>
				<port id="0" names="FeatureExtractor/MobilenetV2/expanded_conv_4/expand/BatchNorm/batchnorm/sub/_118__cf__121:0" precision="FP16">
					<dim>1</dim>
					<dim>192</dim>
					<dim>1</dim>
					<dim>1</dim>
				</port>
			</output>
		</layer>
		<layer id="362" name="FeatureExtractor/MobilenetV2/expanded_conv_4/expand/BatchNorm/batchnorm/add_1" type="Add" version="opset1">
			<data auto_broadcast="numpy"/>
			<input>
				<port id="0">
					<dim>1</dim>
					<dim>192</dim>
					<dim>38</dim>
					<dim>38</dim>
				</port>
				<port id="1">
					<dim>1</dim>
					<dim>192</dim>
					<dim>1</dim>
					<dim>1</dim>
				</port>
			</input>
			<output>
				<port id="2" names="FeatureExtractor/MobilenetV2/expanded_conv_4/expand/BatchNorm/batchnorm/add_1:0" precision="FP16">
					<dim>1</dim>
					<dim>192</dim>
					<dim>38</dim>
					<dim>38</dim>
				</port>
			</output>
		</layer>
		<layer id="363" name="FeatureExtractor/MobilenetV2/expanded_conv_4/expand/Relu6" type="Clamp" version="opset1">
			<data max="6.0" min="0.0"/>
			<input>
				<port id="0">
					<dim>1</dim>
					<dim>192</dim>
					<dim>38</dim>
					<dim>38</dim>
				</port>
			</input>
			<output>
				<port id="1" names="FeatureExtractor/MobilenetV2/expanded_conv_4/expand/Relu6:0,FeatureExtractor/MobilenetV2/expanded_conv_4/expansion_output:0" precision="FP16">
					<dim>1</dim>
					<dim>192</dim>
					<dim>38</dim>
					<dim>38</dim>
				</port>
			</output>
		</layer>
		<layer id="364" name="FeatureExtractor/MobilenetV2/expanded_conv_4/depthwise/depthwise/fq_input_0" type="FakeQuantize" version="opset1">
			<data auto_broadcast="numpy" levels="256"/>
			<input>
				<port id="0">
					<dim>1</dim>
					<dim>192</dim>
					<dim>38</dim>
					<dim>38</dim>
				</port>
				<port id="1">
					<dim>1</dim>
					<dim>192</dim>
					<dim>1</dim>
					<dim>1</dim>
				</port>
				<port id="2">
					<dim>1</dim>
					<dim>192</dim>
					<dim>1</dim>
					<dim>1</dim>
				</port>
				<port id="3">
					<dim>1</dim>
					<dim>192</dim>
					<dim>1</dim>
					<dim>1</dim>
				</port>
				<port id="4">
					<dim>1</dim>
					<dim>192</dim>
					<dim>1</dim>
					<dim>1</dim>
				</port>
			</input>
			<output>
				<port id="5" precision="FP16">
					<dim>1</dim>
					<dim>192</dim>
					<dim>38</dim>
					<dim>38</dim>
				</port>
			</output>
		</layer>
		<layer id="365" name="13026/value1302816010" type="Const" version="opset1">
			<data element_type="i64" offset="56070" shape="5" size="40"/>
			<output>
				<port id="0" precision="I64">
					<dim>5</dim>
				</port>
			</output>
		</layer>
		<layer id="366" name="FeatureExtractor/MobilenetV2/expanded_conv_4/depthwise/BatchNorm/batchnorm/mul_1_copy6407821/quantized879916685" type="Const" version="opset1">
			<data element_type="i8" offset="56110" shape="192,1,3,3" size="1728"/>
			<output>
				<port id="0" precision="I8">
					<dim>192</dim>
					<dim>1</dim>
					<dim>3</dim>
					<dim>3</dim>
				</port>
			</output>
		</layer>
		<layer id="367" name="FeatureExtractor/MobilenetV2/expanded_conv_4/depthwise/BatchNorm/batchnorm/mul_1_copy6407821/quantized/to_f16" type="Convert" version="opset1">
			<data destination_type="f16"/>
			<input>
				<port id="0">
					<dim>192</dim>
					<dim>1</dim>
					<dim>3</dim>
					<dim>3</dim>
				</port>
			</input>
			<output>
				<port id="1" precision="FP16">
					<dim>192</dim>
					<dim>1</dim>
					<dim>3</dim>
					<dim>3</dim>
				</port>
			</output>
		</layer>
		<layer id="368" name="FeatureExtractor/MobilenetV2/expanded_conv_4/depthwise/depthwise/fq_weights_1/zero_point881815125" type="Const" version="opset1">
			<data element_type="f16" offset="57838" shape="192,1,1,1" size="384"/>
			<output>
				<port id="0" precision="FP16">
					<dim>192</dim>
					<dim>1</dim>
					<dim>1</dim>
					<dim>1</dim>
				</port>
			</output>
		</layer>
		<layer id="369" name="FeatureExtractor/MobilenetV2/expanded_conv_4/depthwise/depthwise/fq_weights_1/minus_zp" type="Subtract" version="opset1">
			<data auto_broadcast="numpy"/>
			<input>
				<port id="0">
					<dim>192</dim>
					<dim>1</dim>
					<dim>3</dim>
					<dim>3</dim>
				</port>
				<port id="1">
					<dim>192</dim>
					<dim>1</dim>
					<dim>1</dim>
					<dim>1</dim>
				</port>
			</input>
			<output>
				<port id="2" precision="FP16">
					<dim>192</dim>
					<dim>1</dim>
					<dim>3</dim>
					<dim>3</dim>
				</port>
			</output>
		</layer>
		<layer id="370" name="FeatureExtractor/MobilenetV2/expanded_conv_4/depthwise/depthwise/fq_weights_1/scale880715599" type="Const" version="opset1">
			<data element_type="f16" offset="58222" shape="192,1,1,1" size="384"/>
			<output>
				<port id="0" precision="FP16">
					<dim>192</dim>
					<dim>1</dim>
					<dim>1</dim>
					<dim>1</dim>
				</port>
			</output>
		</layer>
		<layer id="371" name="FeatureExtractor/MobilenetV2/expanded_conv_4/depthwise/depthwise/fq_weights_1/mulpiply_by_scale" type="Multiply" version="opset1">
			<data auto_broadcast="numpy"/>
			<input>
				<port id="0">
					<dim>192</dim>
					<dim>1</dim>
					<dim>3</dim>
					<dim>3</dim>
				</port>
				<port id="1">
					<dim>192</dim>
					<dim>1</dim>
					<dim>1</dim>
					<dim>1</dim>
				</port>
			</input>
			<output>
				<port id="2" precision="FP16">
					<dim>192</dim>
					<dim>1</dim>
					<dim>3</dim>
					<dim>3</dim>
				</port>
			</output>
		</layer>
		<layer id="372" name="13026" type="Reshape" version="opset1">
			<data special_zero="true"/>
			<input>
				<port id="0">
					<dim>192</dim>
					<dim>1</dim>
					<dim>3</dim>
					<dim>3</dim>
				</port>
				<port id="1">
					<dim>5</dim>
				</port>
			</input>
			<output>
				<port id="2" precision="FP16">
					<dim>192</dim>
					<dim>1</dim>
					<dim>1</dim>
					<dim>3</dim>
					<dim>3</dim>
				</port>
			</output>
		</layer>
		<layer id="373" name="FeatureExtractor/MobilenetV2/expanded_conv_4/depthwise/depthwise" type="GroupConvolution" version="opset1">
			<data auto_pad="same_upper" dilations="1,1" pads_begin="0,0" pads_end="0,0" strides="1,1"/>
			<input>
				<port id="0">
					<dim>1</dim>
					<dim>192</dim>
					<dim>38</dim>
					<dim>38</dim>
				</port>
				<port id="1">
					<dim>192</dim>
					<dim>1</dim>
					<dim>1</dim>
					<dim>3</dim>
					<dim>3</dim>
				</port>
			</input>
			<output>
				<port id="2" names="FeatureExtractor/MobilenetV2/expanded_conv_4/depthwise/BatchNorm/batchnorm/mul_1:0" precision="FP16">
					<dim>1</dim>
					<dim>192</dim>
					<dim>38</dim>
					<dim>38</dim>
				</port>
			</output>
		</layer>
		<layer id="374" name="FeatureExtractor/MobilenetV2/expanded_conv_4/depthwise/BatchNorm/batchnorm/add_1" type="Add" version="opset1">
			<data auto_broadcast="numpy"/>
			<input>
				<port id="0">
					<dim>1</dim>
					<dim>192</dim>
					<dim>38</dim>
					<dim>38</dim>
				</port>
				<port id="1">
					<dim>1</dim>
					<dim>192</dim>
					<dim>1</dim>
					<dim>1</dim>
				</port>
			</input>
			<output>
				<port id="2" names="FeatureExtractor/MobilenetV2/expanded_conv_4/depthwise/BatchNorm/batchnorm/add_1:0" precision="FP16">
					<dim>1</dim>
					<dim>192</dim>
					<dim>38</dim>
					<dim>38</dim>
				</port>
			</output>
		</layer>
		<layer id="375" name="FeatureExtractor/MobilenetV2/expanded_conv_4/depthwise/Relu6" type="Clamp" version="opset1">
			<data max="6.0" min="0.0"/>
			<input>
				<port id="0">
					<dim>1</dim>
					<dim>192</dim>
					<dim>38</dim>
					<dim>38</dim>
				</port>
			</input>
			<output>
				<port id="1" names="FeatureExtractor/MobilenetV2/expanded_conv_4/depthwise/Relu6:0,FeatureExtractor/MobilenetV2/expanded_conv_4/depthwise_output:0" precision="FP16">
					<dim>1</dim>
					<dim>192</dim>
					<dim>38</dim>
					<dim>38</dim>
				</port>
			</output>
		</layer>
		<layer id="376" name="FeatureExtractor/MobilenetV2/expanded_conv_4/project/BatchNorm/batchnorm/mul_1/fq_input_0" type="FakeQuantize" version="opset1">
			<data auto_broadcast="numpy" levels="256"/>
			<input>
				<port id="0">
					<dim>1</dim>
					<dim>192</dim>
					<dim>38</dim>
					<dim>38</dim>
				</port>
				<port id="1"/>
				<port id="2"/>
				<port id="3"/>
				<port id="4"/>
			</input>
			<output>
				<port id="5" precision="FP16">
					<dim>1</dim>
					<dim>192</dim>
					<dim>38</dim>
					<dim>38</dim>
				</port>
			</output>
		</layer>
		<layer id="377" name="FeatureExtractor/MobilenetV2/expanded_conv_4/project/weights/read/_113__cf__1166337817/quantized1062916406" type="Const" version="opset1">
			<data element_type="i8" offset="58606" shape="32,192,1,1" size="6144"/>
			<output>
				<port id="0" precision="I8">
					<dim>32</dim>
					<dim>192</dim>
					<dim>1</dim>
					<dim>1</dim>
				</port>
			</output>
		</layer>
		<layer id="378" name="FeatureExtractor/MobilenetV2/expanded_conv_4/project/weights/read/_113__cf__1166337817/quantized/to_f16" type="Convert" version="opset1">
			<data destination_type="f16"/>
			<input>
				<port id="0">
					<dim>32</dim>
					<dim>192</dim>
					<dim>1</dim>
					<dim>1</dim>
				</port>
			</input>
			<output>
				<port id="1" precision="FP16">
					<dim>32</dim>
					<dim>192</dim>
					<dim>1</dim>
					<dim>1</dim>
				</port>
			</output>
		</layer>
		<layer id="379" name="FeatureExtractor/MobilenetV2/expanded_conv_4/project/BatchNorm/batchnorm/mul_1/fq_weights_1/zero_point1064816079" type="Const" version="opset1">
			<data element_type="f16" offset="64750" shape="32,1,1,1" size="64"/>
			<output>
				<port id="0" precision="FP16">
					<dim>32</dim>
					<dim>1</dim>
					<dim>1</dim>
					<dim>1</dim>
				</port>
			</output>
		</layer>
		<layer id="380" name="FeatureExtractor/MobilenetV2/expanded_conv_4/project/BatchNorm/batchnorm/mul_1/fq_weights_1/minus_zp" type="Subtract" version="opset1">
			<data auto_broadcast="numpy"/>
			<input>
				<port id="0">
					<dim>32</dim>
					<dim>192</dim>
					<dim>1</dim>
					<dim>1</dim>
				</port>
				<port id="1">
					<dim>32</dim>
					<dim>1</dim>
					<dim>1</dim>
					<dim>1</dim>
				</port>
			</input>
			<output>
				<port id="2" precision="FP16">
					<dim>32</dim>
					<dim>192</dim>
					<dim>1</dim>
					<dim>1</dim>
				</port>
			</output>
		</layer>
		<layer id="381" name="FeatureExtractor/MobilenetV2/expanded_conv_4/project/BatchNorm/batchnorm/mul_1/fq_weights_1/scale1063716544" type="Const" version="opset1">
			<data element_type="f16" offset="64814" shape="32,1,1,1" size="64"/>
			<output>
				<port id="0" precision="FP16">
					<dim>32</dim>
					<dim>1</dim>
					<dim>1</dim>
					<dim>1</dim>
				</port>
			</output>
		</layer>
		<layer id="382" name="FeatureExtractor/MobilenetV2/expanded_conv_4/project/BatchNorm/batchnorm/mul_1/fq_weights_1/mulpiply_by_scale" type="Multiply" version="opset1">
			<data auto_broadcast="numpy"/>
			<input>
				<port id="0">
					<dim>32</dim>
					<dim>192</dim>
					<dim>1</dim>
					<dim>1</dim>
				</port>
				<port id="1">
					<dim>32</dim>
					<dim>1</dim>
					<dim>1</dim>
					<dim>1</dim>
				</port>
			</input>
			<output>
				<port id="2" precision="FP16">
					<dim>32</dim>
					<dim>192</dim>
					<dim>1</dim>
					<dim>1</dim>
				</port>
			</output>
		</layer>
		<layer id="383" name="FeatureExtractor/MobilenetV2/expanded_conv_4/project/BatchNorm/batchnorm/mul_1" type="Convolution" version="opset1">
			<data auto_pad="same_upper" dilations="1,1" pads_begin="0,0" pads_end="0,0" strides="1,1"/>
			<input>
				<port id="0">
					<dim>1</dim>
					<dim>192</dim>
					<dim>38</dim>
					<dim>38</dim>
				</port>
				<port id="1">
					<dim>32</dim>
					<dim>192</dim>
					<dim>1</dim>
					<dim>1</dim>
				</port>
			</input>
			<output>
				<port id="2" names="FeatureExtractor/MobilenetV2/expanded_conv_4/project/BatchNorm/batchnorm/mul_1:0" precision="FP16">
					<dim>1</dim>
					<dim>32</dim>
					<dim>38</dim>
					<dim>38</dim>
				</port>
			</output>
		</layer>
		<layer id="384" name="FeatureExtractor/MobilenetV2/expanded_conv_4/project/BatchNorm/batchnorm/sub/_112__cf__11564516766" type="Const" version="opset1">
			<data element_type="f16" offset="64878" shape="1,32,1,1" size="64"/>
			<output>
				<port id="0" names="FeatureExtractor/MobilenetV2/expanded_conv_4/project/BatchNorm/batchnorm/sub/_112__cf__115:0" precision="FP16">
					<dim>1</dim>
					<dim>32</dim>
					<dim>1</dim>
					<dim>1</dim>
				</port>
			</output>
		</layer>
		<layer id="385" name="FeatureExtractor/MobilenetV2/expanded_conv_4/project/BatchNorm/batchnorm/add_1" type="Add" version="opset1">
			<data auto_broadcast="numpy"/>
			<input>
				<port id="0">
					<dim>1</dim>
					<dim>32</dim>
					<dim>38</dim>
					<dim>38</dim>
				</port>
				<port id="1">
					<dim>1</dim>
					<dim>32</dim>
					<dim>1</dim>
					<dim>1</dim>
				</port>
			</input>
			<output>
				<port id="2" names="FeatureExtractor/MobilenetV2/expanded_conv_4/project/BatchNorm/batchnorm/add_1:0,FeatureExtractor/MobilenetV2/expanded_conv_4/project/Identity:0" precision="FP16">
					<dim>1</dim>
					<dim>32</dim>
					<dim>38</dim>
					<dim>38</dim>
				</port>
			</output>
		</layer>
		<layer id="386" name="FeatureExtractor/MobilenetV2/expanded_conv_4/add/fq_input_0" type="FakeQuantize" version="opset1">
			<data auto_broadcast="numpy" levels="256"/>
			<input>
				<port id="0">
					<dim>1</dim>
					<dim>32</dim>
					<dim>38</dim>
					<dim>38</dim>
				</port>
				<port id="1"/>
				<port id="2"/>
				<port id="3"/>
				<port id="4"/>
			</input>
			<output>
				<port id="5" precision="FP16">
					<dim>1</dim>
					<dim>32</dim>
					<dim>38</dim>
					<dim>38</dim>
				</port>
			</output>
		</layer>
		<layer id="387" name="FeatureExtractor/MobilenetV2/expanded_conv_4/add" type="Add" version="opset1">
			<data auto_broadcast="numpy"/>
			<input>
				<port id="0">
					<dim>1</dim>
					<dim>32</dim>
					<dim>38</dim>
					<dim>38</dim>
				</port>
				<port id="1">
					<dim>1</dim>
					<dim>32</dim>
					<dim>38</dim>
					<dim>38</dim>
				</port>
			</input>
			<output>
				<port id="2" names="FeatureExtractor/MobilenetV2/expanded_conv_4/add:0,FeatureExtractor/MobilenetV2/expanded_conv_4/output:0,FeatureExtractor/MobilenetV2/expanded_conv_5/input:0" precision="FP16">
					<dim>1</dim>
					<dim>32</dim>
					<dim>38</dim>
					<dim>38</dim>
				</port>
			</output>
		</layer>
		<layer id="388" name="FeatureExtractor/MobilenetV2/expanded_conv_5/add/fq_input_1" type="FakeQuantize" version="opset1">
			<data auto_broadcast="numpy" levels="256"/>
			<input>
				<port id="0">
					<dim>1</dim>
					<dim>32</dim>
					<dim>38</dim>
					<dim>38</dim>
				</port>
				<port id="1"/>
				<port id="2"/>
				<port id="3"/>
				<port id="4"/>
			</input>
			<output>
				<port id="5" precision="FP16">
					<dim>1</dim>
					<dim>32</dim>
					<dim>38</dim>
					<dim>38</dim>
				</port>
			</output>
		</layer>
		<layer id="389" name="FeatureExtractor/MobilenetV2/expanded_conv_5/expand/weights/read/_128__cf__1316507825/quantized957915008" type="Const" version="opset1">
			<data element_type="i8" offset="64942" shape="192,32,1,1" size="6144"/>
			<output>
				<port id="0" precision="I8">
					<dim>192</dim>
					<dim>32</dim>
					<dim>1</dim>
					<dim>1</dim>
				</port>
			</output>
		</layer>
		<layer id="390" name="FeatureExtractor/MobilenetV2/expanded_conv_5/expand/weights/read/_128__cf__1316507825/quantized/to_f16" type="Convert" version="opset1">
			<data destination_type="f16"/>
			<input>
				<port id="0">
					<dim>192</dim>
					<dim>32</dim>
					<dim>1</dim>
					<dim>1</dim>
				</port>
			</input>
			<output>
				<port id="1" precision="FP16">
					<dim>192</dim>
					<dim>32</dim>
					<dim>1</dim>
					<dim>1</dim>
				</port>
			</output>
		</layer>
		<layer id="391" name="FeatureExtractor/MobilenetV2/expanded_conv_5/expand/BatchNorm/batchnorm/mul_1/fq_weights_1/zero_point959814756" type="Const" version="opset1">
			<data element_type="f16" offset="71086" shape="192,1,1,1" size="384"/>
			<output>
				<port id="0" precision="FP16">
					<dim>192</dim>
					<dim>1</dim>
					<dim>1</dim>
					<dim>1</dim>
				</port>
			</output>
		</layer>
		<layer id="392" name="FeatureExtractor/MobilenetV2/expanded_conv_5/expand/BatchNorm/batchnorm/mul_1/fq_weights_1/minus_zp" type="Subtract" version="opset1">
			<data auto_broadcast="numpy"/>
			<input>
				<port id="0">
					<dim>192</dim>
					<dim>32</dim>
					<dim>1</dim>
					<dim>1</dim>
				</port>
				<port id="1">
					<dim>192</dim>
					<dim>1</dim>
					<dim>1</dim>
					<dim>1</dim>
				</port>
			</input>
			<output>
				<port id="2" precision="FP16">
					<dim>192</dim>
					<dim>32</dim>
					<dim>1</dim>
					<dim>1</dim>
				</port>
			</output>
		</layer>
		<layer id="393" name="FeatureExtractor/MobilenetV2/expanded_conv_5/expand/BatchNorm/batchnorm/mul_1/fq_weights_1/scale958715458" type="Const" version="opset1">
			<data element_type="f16" offset="71470" shape="192,1,1,1" size="384"/>
			<output>
				<port id="0" precision="FP16">
					<dim>192</dim>
					<dim>1</dim>
					<dim>1</dim>
					<dim>1</dim>
				</port>
			</output>
		</layer>
		<layer id="394" name="FeatureExtractor/MobilenetV2/expanded_conv_5/expand/BatchNorm/batchnorm/mul_1/fq_weights_1/mulpiply_by_scale" type="Multiply" version="opset1">
			<data auto_broadcast="numpy"/>
			<input>
				<port id="0">
					<dim>192</dim>
					<dim>32</dim>
					<dim>1</dim>
					<dim>1</dim>
				</port>
				<port id="1">
					<dim>192</dim>
					<dim>1</dim>
					<dim>1</dim>
					<dim>1</dim>
				</port>
			</input>
			<output>
				<port id="2" precision="FP16">
					<dim>192</dim>
					<dim>32</dim>
					<dim>1</dim>
					<dim>1</dim>
				</port>
			</output>
		</layer>
		<layer id="395" name="FeatureExtractor/MobilenetV2/expanded_conv_5/expand/BatchNorm/batchnorm/mul_1" type="Convolution" version="opset1">
			<data auto_pad="same_upper" dilations="1,1" pads_begin="0,0" pads_end="0,0" strides="1,1"/>
			<input>
				<port id="0">
					<dim>1</dim>
					<dim>32</dim>
					<dim>38</dim>
					<dim>38</dim>
				</port>
				<port id="1">
					<dim>192</dim>
					<dim>32</dim>
					<dim>1</dim>
					<dim>1</dim>
				</port>
			</input>
			<output>
				<port id="2" names="FeatureExtractor/MobilenetV2/expanded_conv_5/expand/BatchNorm/batchnorm/mul_1:0" precision="FP16">
					<dim>1</dim>
					<dim>192</dim>
					<dim>38</dim>
					<dim>38</dim>
				</port>
			</output>
		</layer>
		<layer id="396" name="FeatureExtractor/MobilenetV2/expanded_conv_5/expand/BatchNorm/batchnorm/sub/_127__cf__13065215398" type="Const" version="opset1">
			<data element_type="f16" offset="71854" shape="1,192,1,1" size="384"/>
			<output>
				<port id="0" names="FeatureExtractor/MobilenetV2/expanded_conv_5/expand/BatchNorm/batchnorm/sub/_127__cf__130:0" precision="FP16">
					<dim>1</dim>
					<dim>192</dim>
					<dim>1</dim>
					<dim>1</dim>
				</port>
			</output>
		</layer>
		<layer id="397" name="FeatureExtractor/MobilenetV2/expanded_conv_5/expand/BatchNorm/batchnorm/add_1" type="Add" version="opset1">
			<data auto_broadcast="numpy"/>
			<input>
				<port id="0">
					<dim>1</dim>
					<dim>192</dim>
					<dim>38</dim>
					<dim>38</dim>
				</port>
				<port id="1">
					<dim>1</dim>
					<dim>192</dim>
					<dim>1</dim>
					<dim>1</dim>
				</port>
			</input>
			<output>
				<port id="2" names="FeatureExtractor/MobilenetV2/expanded_conv_5/expand/BatchNorm/batchnorm/add_1:0" precision="FP16">
					<dim>1</dim>
					<dim>192</dim>
					<dim>38</dim>
					<dim>38</dim>
				</port>
			</output>
		</layer>
		<layer id="398" name="FeatureExtractor/MobilenetV2/expanded_conv_5/expand/Relu6" type="Clamp" version="opset1">
			<data max="6.0" min="0.0"/>
			<input>
				<port id="0">
					<dim>1</dim>
					<dim>192</dim>
					<dim>38</dim>
					<dim>38</dim>
				</port>
			</input>
			<output>
…
		<edge from-layer="716" from-port="0" to-layer="880" to-port="3"/>
		<edge from-layer="717" from-port="0" to-layer="880" to-port="4"/>
		<edge from-layer="881" from-port="0" to-layer="882" to-port="0"/>
		<edge from-layer="882" from-port="1" to-layer="884" to-port="0"/>
		<edge from-layer="883" from-port="0" to-layer="884" to-port="1"/>
		<edge from-layer="884" from-port="2" to-layer="886" to-port="0"/>
		<edge from-layer="885" from-port="0" to-layer="886" to-port="1"/>
		<edge from-layer="880" from-port="5" to-layer="887" to-port="0"/>
		<edge from-layer="886" from-port="2" to-layer="887" to-port="1"/>
		<edge from-layer="887" from-port="2" to-layer="889" to-port="0"/>
		<edge from-layer="888" from-port="0" to-layer="889" to-port="1"/>
		<edge from-layer="889" from-port="2" to-layer="890" to-port="0"/>
		<edge from-layer="710" from-port="0" to-layer="890" to-port="1"/>
		<edge from-layer="711" from-port="0" to-layer="890" to-port="2"/>
		<edge from-layer="712" from-port="0" to-layer="890" to-port="3"/>
		<edge from-layer="713" from-port="0" to-layer="890" to-port="4"/>
		<edge from-layer="891" from-port="0" to-layer="892" to-port="0"/>
		<edge from-layer="892" from-port="1" to-layer="894" to-port="0"/>
		<edge from-layer="893" from-port="0" to-layer="894" to-port="1"/>
		<edge from-layer="894" from-port="2" to-layer="896" to-port="0"/>
		<edge from-layer="895" from-port="0" to-layer="896" to-port="1"/>
		<edge from-layer="890" from-port="5" to-layer="897" to-port="0"/>
		<edge from-layer="896" from-port="2" to-layer="897" to-port="1"/>
		<edge from-layer="897" from-port="2" to-layer="899" to-port="0"/>
		<edge from-layer="898" from-port="0" to-layer="899" to-port="1"/>
		<edge from-layer="899" from-port="2" to-layer="900" to-port="0"/>
		<edge from-layer="900" from-port="1" to-layer="901" to-port="0"/>
		<edge from-layer="706" from-port="0" to-layer="901" to-port="1"/>
		<edge from-layer="707" from-port="0" to-layer="901" to-port="2"/>
		<edge from-layer="708" from-port="0" to-layer="901" to-port="3"/>
		<edge from-layer="709" from-port="0" to-layer="901" to-port="4"/>
		<edge from-layer="903" from-port="0" to-layer="904" to-port="0"/>
		<edge from-layer="904" from-port="1" to-layer="906" to-port="0"/>
		<edge from-layer="905" from-port="0" to-layer="906" to-port="1"/>
		<edge from-layer="906" from-port="2" to-layer="908" to-port="0"/>
		<edge from-layer="907" from-port="0" to-layer="908" to-port="1"/>
		<edge from-layer="908" from-port="2" to-layer="909" to-port="0"/>
		<edge from-layer="902" from-port="0" to-layer="909" to-port="1"/>
		<edge from-layer="901" from-port="5" to-layer="910" to-port="0"/>
		<edge from-layer="909" from-port="2" to-layer="910" to-port="1"/>
		<edge from-layer="910" from-port="2" to-layer="911" to-port="0"/>
		<edge from-layer="705" from-port="0" to-layer="911" to-port="1"/>
		<edge from-layer="911" from-port="2" to-layer="912" to-port="0"/>
		<edge from-layer="912" from-port="1" to-layer="913" to-port="0"/>
		<edge from-layer="701" from-port="0" to-layer="913" to-port="1"/>
		<edge from-layer="702" from-port="0" to-layer="913" to-port="2"/>
		<edge from-layer="703" from-port="0" to-layer="913" to-port="3"/>
		<edge from-layer="704" from-port="0" to-layer="913" to-port="4"/>
		<edge from-layer="914" from-port="0" to-layer="915" to-port="0"/>
		<edge from-layer="915" from-port="1" to-layer="917" to-port="0"/>
		<edge from-layer="916" from-port="0" to-layer="917" to-port="1"/>
		<edge from-layer="917" from-port="2" to-layer="919" to-port="0"/>
		<edge from-layer="918" from-port="0" to-layer="919" to-port="1"/>
		<edge from-layer="913" from-port="5" to-layer="920" to-port="0"/>
		<edge from-layer="919" from-port="2" to-layer="920" to-port="1"/>
		<edge from-layer="920" from-port="2" to-layer="922" to-port="0"/>
		<edge from-layer="921" from-port="0" to-layer="922" to-port="1"/>
		<edge from-layer="922" from-port="2" to-layer="924" to-port="0"/>
		<edge from-layer="923" from-port="0" to-layer="924" to-port="1"/>
		<edge from-layer="924" from-port="2" to-layer="926" to-port="0"/>
		<edge from-layer="925" from-port="0" to-layer="926" to-port="1"/>
		<edge from-layer="945" from-port="0" to-layer="946" to-port="0"/>
		<edge from-layer="946" from-port="1" to-layer="948" to-port="0"/>
		<edge from-layer="947" from-port="0" to-layer="948" to-port="1"/>
		<edge from-layer="948" from-port="2" to-layer="950" to-port="0"/>
		<edge from-layer="949" from-port="0" to-layer="950" to-port="1"/>
		<edge from-layer="901" from-port="5" to-layer="951" to-port="0"/>
		<edge from-layer="950" from-port="2" to-layer="951" to-port="1"/>
		<edge from-layer="951" from-port="2" to-layer="953" to-port="0"/>
		<edge from-layer="952" from-port="0" to-layer="953" to-port="1"/>
		<edge from-layer="953" from-port="2" to-layer="954" to-port="0"/>
		<edge from-layer="954" from-port="1" to-layer="955" to-port="0"/>
		<edge from-layer="941" from-port="0" to-layer="955" to-port="1"/>
		<edge from-layer="942" from-port="0" to-layer="955" to-port="2"/>
		<edge from-layer="943" from-port="0" to-layer="955" to-port="3"/>
		<edge from-layer="944" from-port="0" to-layer="955" to-port="4"/>
		<edge from-layer="957" from-port="0" to-layer="958" to-port="0"/>
		<edge from-layer="958" from-port="1" to-layer="960" to-port="0"/>
		<edge from-layer="959" from-port="0" to-layer="960" to-port="1"/>
		<edge from-layer="960" from-port="2" to-layer="962" to-port="0"/>
		<edge from-layer="961" from-port="0" to-layer="962" to-port="1"/>
		<edge from-layer="962" from-port="2" to-layer="963" to-port="0"/>
		<edge from-layer="956" from-port="0" to-layer="963" to-port="1"/>
		<edge from-layer="955" from-port="5" to-layer="964" to-port="0"/>
		<edge from-layer="963" from-port="2" to-layer="964" to-port="1"/>
		<edge from-layer="964" from-port="2" to-layer="965" to-port="0"/>
		<edge from-layer="940" from-port="0" to-layer="965" to-port="1"/>
		<edge from-layer="965" from-port="2" to-layer="966" to-port="0"/>
		<edge from-layer="966" from-port="1" to-layer="967" to-port="0"/>
		<edge from-layer="936" from-port="0" to-layer="967" to-port="1"/>
		<edge from-layer="937" from-port="0" to-layer="967" to-port="2"/>
		<edge from-layer="938" from-port="0" to-layer="967" to-port="3"/>
		<edge from-layer="939" from-port="0" to-layer="967" to-port="4"/>
		<edge from-layer="968" from-port="0" to-layer="969" to-port="0"/>
		<edge from-layer="969" from-port="1" to-layer="971" to-port="0"/>
		<edge from-layer="970" from-port="0" to-layer="971" to-port="1"/>
		<edge from-layer="971" from-port="2" to-layer="973" to-port="0"/>
		<edge from-layer="972" from-port="0" to-layer="973" to-port="1"/>
		<edge from-layer="967" from-port="5" to-layer="974" to-port="0"/>
		<edge from-layer="973" from-port="2" to-layer="974" to-port="1"/>
		<edge from-layer="974" from-port="2" to-layer="976" to-port="0"/>
		<edge from-layer="975" from-port="0" to-layer="976" to-port="1"/>
		<edge from-layer="976" from-port="2" to-layer="977" to-port="0"/>
		<edge from-layer="977" from-port="1" to-layer="978" to-port="0"/>
		<edge from-layer="932" from-port="0" to-layer="978" to-port="1"/>
		<edge from-layer="933" from-port="0" to-layer="978" to-port="2"/>
		<edge from-layer="934" from-port="0" to-layer="978" to-port="3"/>
		<edge from-layer="935" from-port="0" to-layer="978" to-port="4"/>
		<edge from-layer="980" from-port="0" to-layer="981" to-port="0"/>
		<edge from-layer="981" from-port="1" to-layer="983" to-port="0"/>
		<edge from-layer="982" from-port="0" to-layer="983" to-port="1"/>
		<edge from-layer="983" from-port="2" to-layer="985" to-port="0"/>
		<edge from-layer="984" from-port="0" to-layer="985" to-port="1"/>
		<edge from-layer="985" from-port="2" to-layer="986" to-port="0"/>
		<edge from-layer="979" from-port="0" to-layer="986" to-port="1"/>
		<edge from-layer="978" from-port="5" to-layer="987" to-port="0"/>
		<edge from-layer="986" from-port="2" to-layer="987" to-port="1"/>
		<edge from-layer="987" from-port="2" to-layer="988" to-port="0"/>
		<edge from-layer="931" from-port="0" to-layer="988" to-port="1"/>
		<edge from-layer="988" from-port="2" to-layer="989" to-port="0"/>
		<edge from-layer="989" from-port="1" to-layer="990" to-port="0"/>
		<edge from-layer="927" from-port="0" to-layer="990" to-port="1"/>
		<edge from-layer="928" from-port="0" to-layer="990" to-port="2"/>
		<edge from-layer="929" from-port="0" to-layer="990" to-port="3"/>
		<edge from-layer="930" from-port="0" to-layer="990" to-port="4"/>
		<edge from-layer="991" from-port="0" to-layer="992" to-port="0"/>
		<edge from-layer="992" from-port="1" to-layer="994" to-port="0"/>
		<edge from-layer="993" from-port="0" to-layer="994" to-port="1"/>
		<edge from-layer="994" from-port="2" to-layer="996" to-port="0"/>
		<edge from-layer="995" from-port="0" to-layer="996" to-port="1"/>
		<edge from-layer="990" from-port="5" to-layer="997" to-port="0"/>
		<edge from-layer="996" from-port="2" to-layer="997" to-port="1"/>
		<edge from-layer="997" from-port="2" to-layer="999" to-port="0"/>
		<edge from-layer="998" from-port="0" to-layer="999" to-port="1"/>
		<edge from-layer="999" from-port="2" to-layer="1001" to-port="0"/>
		<edge from-layer="1000" from-port="0" to-layer="1001" to-port="1"/>
		<edge from-layer="1001" from-port="2" to-layer="1003" to-port="0"/>
		<edge from-layer="1002" from-port="0" to-layer="1003" to-port="1"/>
		<edge from-layer="1022" from-port="0" to-layer="1023" to-port="0"/>
		<edge from-layer="1023" from-port="1" to-layer="1025" to-port="0"/>
		<edge from-layer="1024" from-port="0" to-layer="1025" to-port="1"/>
		<edge from-layer="1025" from-port="2" to-layer="1027" to-port="0"/>
		<edge from-layer="1026" from-port="0" to-layer="1027" to-port="1"/>
		<edge from-layer="978" from-port="5" to-layer="1028" to-port="0"/>
		<edge from-layer="1027" from-port="2" to-layer="1028" to-port="1"/>
		<edge from-layer="1028" from-port="2" to-layer="1030" to-port="0"/>
		<edge from-layer="1029" from-port="0" to-layer="1030" to-port="1"/>
		<edge from-layer="1030" from-port="2" to-layer="1031" to-port="0"/>
		<edge from-layer="1031" from-port="1" to-layer="1032" to-port="0"/>
		<edge from-layer="1018" from-port="0" to-layer="1032" to-port="1"/>
		<edge from-layer="1019" from-port="0" to-layer="1032" to-port="2"/>
		<edge from-layer="1020" from-port="0" to-layer="1032" to-port="3"/>
		<edge from-layer="1021" from-port="0" to-layer="1032" to-port="4"/>
		<edge from-layer="1034" from-port="0" to-layer="1035" to-port="0"/>
		<edge from-layer="1035" from-port="1" to-layer="1037" to-port="0"/>
		<edge from-layer="1036" from-port="0" to-layer="1037" to-port="1"/>
		<edge from-layer="1037" from-port="2" to-layer="1039" to-port="0"/>
		<edge from-layer="1038" from-port="0" to-layer="1039" to-port="1"/>
		<edge from-layer="1039" from-port="2" to-layer="1040" to-port="0"/>
		<edge from-layer="1033" from-port="0" to-layer="1040" to-port="1"/>
		<edge from-layer="1032" from-port="5" to-layer="1041" to-port="0"/>
		<edge from-layer="1040" from-port="2" to-layer="1041" to-port="1"/>
		<edge from-layer="1041" from-port="2" to-layer="1042" to-port="0"/>
		<edge from-layer="1017" from-port="0" to-layer="1042" to-port="1"/>
		<edge from-layer="1042" from-port="2" to-layer="1043" to-port="0"/>
		<edge from-layer="1043" from-port="1" to-layer="1044" to-port="0"/>
		<edge from-layer="1013" from-port="0" to-layer="1044" to-port="1"/>
		<edge from-layer="1014" from-port="0" to-layer="1044" to-port="2"/>
		<edge from-layer="1015" from-port="0" to-layer="1044" to-port="3"/>
		<edge from-layer="1016" from-port="0" to-layer="1044" to-port="4"/>
		<edge from-layer="1045" from-port="0" to-layer="1046" to-port="0"/>
		<edge from-layer="1046" from-port="1" to-layer="1048" to-port="0"/>
		<edge from-layer="1047" from-port="0" to-layer="1048" to-port="1"/>
		<edge from-layer="1048" from-port="2" to-layer="1050" to-port="0"/>
		<edge from-layer="1049" from-port="0" to-layer="1050" to-port="1"/>
		<edge from-layer="1044" from-port="5" to-layer="1051" to-port="0"/>
		<edge from-layer="1050" from-port="2" to-layer="1051" to-port="1"/>
		<edge from-layer="1051" from-port="2" to-layer="1053" to-port="0"/>
		<edge from-layer="1052" from-port="0" to-layer="1053" to-port="1"/>
		<edge from-layer="1053" from-port="2" to-layer="1054" to-port="0"/>
		<edge from-layer="1054" from-port="1" to-layer="1055" to-port="0"/>
		<edge from-layer="1009" from-port="0" to-layer="1055" to-port="1"/>
		<edge from-layer="1010" from-port="0" to-layer="1055" to-port="2"/>
		<edge from-layer="1011" from-port="0" to-layer="1055" to-port="3"/>
		<edge from-layer="1012" from-port="0" to-layer="1055" to-port="4"/>
		<edge from-layer="1057" from-port="0" to-layer="1058" to-port="0"/>
		<edge from-layer="1058" from-port="1" to-layer="1060" to-port="0"/>
		<edge from-layer="1059" from-port="0" to-layer="1060" to-port="1"/>
		<edge from-layer="1060" from-port="2" to-layer="1062" to-port="0"/>
		<edge from-layer="1061" from-port="0" to-layer="1062" to-port="1"/>
		<edge from-layer="1062" from-port="2" to-layer="1063" to-port="0"/>
		<edge from-layer="1056" from-port="0" to-layer="1063" to-port="1"/>
		<edge from-layer="1055" from-port="5" to-layer="1064" to-port="0"/>
		<edge from-layer="1063" from-port="2" to-layer="1064" to-port="1"/>
		<edge from-layer="1064" from-port="2" to-layer="1065" to-port="0"/>
		<edge from-layer="1008" from-port="0" to-layer="1065" to-port="1"/>
		<edge from-layer="1065" from-port="2" to-layer="1066" to-port="0"/>
		<edge from-layer="1066" from-port="1" to-layer="1067" to-port="0"/>
		<edge from-layer="1004" from-port="0" to-layer="1067" to-port="1"/>
		<edge from-layer="1005" from-port="0" to-layer="1067" to-port="2"/>
		<edge from-layer="1006" from-port="0" to-layer="1067" to-port="3"/>
		<edge from-layer="1007" from-port="0" to-layer="1067" to-port="4"/>
		<edge from-layer="1068" from-port="0" to-layer="1069" to-port="0"/>
		<edge from-layer="1069" from-port="1" to-layer="1071" to-port="0"/>
		<edge from-layer="1070" from-port="0" to-layer="1071" to-port="1"/>
		<edge from-layer="1071" from-port="2" to-layer="1073" to-port="0"/>
		<edge from-layer="1072" from-port="0" to-layer="1073" to-port="1"/>
		<edge from-layer="1067" from-port="5" to-layer="1074" to-port="0"/>
		<edge from-layer="1073" from-port="2" to-layer="1074" to-port="1"/>
		<edge from-layer="1074" from-port="2" to-layer="1076" to-port="0"/>
		<edge from-layer="1075" from-port="0" to-layer="1076" to-port="1"/>
		<edge from-layer="1076" from-port="2" to-layer="1078" to-port="0"/>
		<edge from-layer="1077" from-port="0" to-layer="1078" to-port="1"/>
		<edge from-layer="1078" from-port="2" to-layer="1080" to-port="0"/>
		<edge from-layer="1079" from-port="0" to-layer="1080" to-port="1"/>
		<edge from-layer="1099" from-port="0" to-layer="1100" to-port="0"/>
		<edge from-layer="1100" from-port="1" to-layer="1102" to-port="0"/>
		<edge from-layer="1101" from-port="0" to-layer="1102" to-port="1"/>
		<edge from-layer="1102" from-port="2" to-layer="1104" to-port="0"/>
		<edge from-layer="1103" from-port="0" to-layer="1104" to-port="1"/>
		<edge from-layer="1055" from-port="5" to-layer="1105" to-port="0"/>
		<edge from-layer="1104" from-port="2" to-layer="1105" to-port="1"/>
		<edge from-layer="1105" from-port="2" to-layer="1107" to-port="0"/>
		<edge from-layer="1106" from-port="0" to-layer="1107" to-port="1"/>
		<edge from-layer="1107" from-port="2" to-layer="1108" to-port="0"/>
		<edge from-layer="1108" from-port="1" to-layer="1109" to-port="0"/>
		<edge from-layer="1095" from-port="0" to-layer="1109" to-port="1"/>
		<edge from-layer="1096" from-port="0" to-layer="1109" to-port="2"/>
		<edge from-layer="1097" from-port="0" to-layer="1109" to-port="3"/>
		<edge from-layer="1098" from-port="0" to-layer="1109" to-port="4"/>
		<edge from-layer="1111" from-port="0" to-layer="1112" to-port="0"/>
		<edge from-layer="1112" from-port="1" to-layer="1114" to-port="0"/>
		<edge from-layer="1113" from-port="0" to-layer="1114" to-port="1"/>
		<edge from-layer="1114" from-port="2" to-layer="1116" to-port="0"/>
		<edge from-layer="1115" from-port="0" to-layer="1116" to-port="1"/>
		<edge from-layer="1116" from-port="2" to-layer="1117" to-port="0"/>
		<edge from-layer="1110" from-port="0" to-layer="1117" to-port="1"/>
		<edge from-layer="1109" from-port="5" to-layer="1118" to-port="0"/>
		<edge from-layer="1117" from-port="2" to-layer="1118" to-port="1"/>
		<edge from-layer="1118" from-port="2" to-layer="1119" to-port="0"/>
		<edge from-layer="1094" from-port="0" to-layer="1119" to-port="1"/>
		<edge from-layer="1119" from-port="2" to-layer="1120" to-port="0"/>
		<edge from-layer="1120" from-port="1" to-layer="1121" to-port="0"/>
		<edge from-layer="1090" from-port="0" to-layer="1121" to-port="1"/>
		<edge from-layer="1091" from-port="0" to-layer="1121" to-port="2"/>
		<edge from-layer="1092" from-port="0" to-layer="1121" to-port="3"/>
		<edge from-layer="1093" from-port="0" to-layer="1121" to-port="4"/>
		<edge from-layer="1122" from-port="0" to-layer="1123" to-port="0"/>
		<edge from-layer="1123" from-port="1" to-layer="1125" to-port="0"/>
		<edge from-layer="1124" from-port="0" to-layer="1125" to-port="1"/>
		<edge from-layer="1125" from-port="2" to-layer="1127" to-port="0"/>
		<edge from-layer="1126" from-port="0" to-layer="1127" to-port="1"/>
		<edge from-layer="1121" from-port="5" to-layer="1128" to-port="0"/>
		<edge from-layer="1127" from-port="2" to-layer="1128" to-port="1"/>
		<edge from-layer="1128" from-port="2" to-layer="1130" to-port="0"/>
		<edge from-layer="1129" from-port="0" to-layer="1130" to-port="1"/>
		<edge from-layer="1130" from-port="2" to-layer="1131" to-port="0"/>
		<edge from-layer="1131" from-port="1" to-layer="1132" to-port="0"/>
		<edge from-layer="1086" from-port="0" to-layer="1132" to-port="1"/>
		<edge from-layer="1087" from-port="0" to-layer="1132" to-port="2"/>
		<edge from-layer="1088" from-port="0" to-layer="1132" to-port="3"/>
		<edge from-layer="1089" from-port="0" to-layer="1132" to-port="4"/>
		<edge from-layer="1134" from-port="0" to-layer="1135" to-port="0"/>
		<edge from-layer="1135" from-port="1" to-layer="1137" to-port="0"/>
		<edge from-layer="1136" from-port="0" to-layer="1137" to-port="1"/>
		<edge from-layer="1137" from-port="2" to-layer="1139" to-port="0"/>
		<edge from-layer="1138" from-port="0" to-layer="1139" to-port="1"/>
		<edge from-layer="1139" from-port="2" to-layer="1140" to-port="0"/>
		<edge from-layer="1133" from-port="0" to-layer="1140" to-port="1"/>
		<edge from-layer="1132" from-port="5" to-layer="1141" to-port="0"/>
		<edge from-layer="1140" from-port="2" to-layer="1141" to-port="1"/>
		<edge from-layer="1141" from-port="2" to-layer="1142" to-port="0"/>
		<edge from-layer="1085" from-port="0" to-layer="1142" to-port="1"/>
		<edge from-layer="1142" from-port="2" to-layer="1143" to-port="0"/>
		<edge from-layer="1143" from-port="1" to-layer="1144" to-port="0"/>
		<edge from-layer="1081" from-port="0" to-layer="1144" to-port="1"/>
		<edge from-layer="1082" from-port="0" to-layer="1144" to-port="2"/>
		<edge from-layer="1083" from-port="0" to-layer="1144" to-port="3"/>
		<edge from-layer="1084" from-port="0" to-layer="1144" to-port="4"/>
		<edge from-layer="1145" from-port="0" to-layer="1146" to-port="0"/>
		<edge from-layer="1146" from-port="1" to-layer="1148" to-port="0"/>
		<edge from-layer="1147" from-port="0" to-layer="1148" to-port="1"/>
		<edge from-layer="1148" from-port="2" to-layer="1150" to-port="0"/>
		<edge from-layer="1149" from-port="0" to-layer="1150" to-port="1"/>
		<edge from-layer="1144" from-port="5" to-layer="1151" to-port="0"/>
		<edge from-layer="1150" from-port="2" to-layer="1151" to-port="1"/>
		<edge from-layer="1151" from-port="2" to-layer="1153" to-port="0"/>
		<edge from-layer="1152" from-port="0" to-layer="1153" to-port="1"/>
		<edge from-layer="1153" from-port="2" to-layer="1155" to-port="0"/>
		<edge from-layer="1154" from-port="0" to-layer="1155" to-port="1"/>
		<edge from-layer="1155" from-port="2" to-layer="1157" to-port="0"/>
		<edge from-layer="1156" from-port="0" to-layer="1157" to-port="1"/>
		<edge from-layer="1176" from-port="0" to-layer="1177" to-port="0"/>
		<edge from-layer="1177" from-port="1" to-layer="1179" to-port="0"/>
		<edge from-layer="1178" from-port="0" to-layer="1179" to-port="1"/>
		<edge from-layer="1179" from-port="2" to-layer="1181" to-port="0"/>
		<edge from-layer="1180" from-port="0" to-layer="1181" to-port="1"/>
		<edge from-layer="1132" from-port="5" to-layer="1182" to-port="0"/>
		<edge from-layer="1181" from-port="2" to-layer="1182" to-port="1"/>
		<edge from-layer="1182" from-port="2" to-layer="1184" to-port="0"/>
		<edge from-layer="1183" from-port="0" to-layer="1184" to-port="1"/>
		<edge from-layer="1184" from-port="2" to-layer="1185" to-port="0"/>
		<edge from-layer="1185" from-port="1" to-layer="1186" to-port="0"/>
		<edge from-layer="1172" from-port="0" to-layer="1186" to-port="1"/>
		<edge from-layer="1173" from-port="0" to-layer="1186" to-port="2"/>
		<edge from-layer="1174" from-port="0" to-layer="1186" to-port="3"/>
		<edge from-layer="1175" from-port="0" to-layer="1186" to-port="4"/>
		<edge from-layer="1188" from-port="0" to-layer="1189" to-port="0"/>
		<edge from-layer="1189" from-port="1" to-layer="1191" to-port="0"/>
		<edge from-layer="1190" from-port="0" to-layer="1191" to-port="1"/>
		<edge from-layer="1191" from-port="2" to-layer="1193" to-port="0"/>
		<edge from-layer="1192" from-port="0" to-layer="1193" to-port="1"/>
		<edge from-layer="1193" from-port="2" to-layer="1194" to-port="0"/>
		<edge from-layer="1187" from-port="0" to-layer="1194" to-port="1"/>
		<edge from-layer="1186" from-port="5" to-layer="1195" to-port="0"/>
		<edge from-layer="1194" from-port="2" to-layer="1195" to-port="1"/>
		<edge from-layer="1195" from-port="2" to-layer="1196" to-port="0"/>
		<edge from-layer="1171" from-port="0" to-layer="1196" to-port="1"/>
		<edge from-layer="1196" from-port="2" to-layer="1197" to-port="0"/>
		<edge from-layer="1197" from-port="1" to-layer="1198" to-port="0"/>
		<edge from-layer="1167" from-port="0" to-layer="1198" to-port="1"/>
		<edge from-layer="1168" from-port="0" to-layer="1198" to-port="2"/>
		<edge from-layer="1169" from-port="0" to-layer="1198" to-port="3"/>
		<edge from-layer="1170" from-port="0" to-layer="1198" to-port="4"/>
		<edge from-layer="1199" from-port="0" to-layer="1200" to-port="0"/>
		<edge from-layer="1200" from-port="1" to-layer="1202" to-port="0"/>
		<edge from-layer="1201" from-port="0" to-layer="1202" to-port="1"/>
		<edge from-layer="1202" from-port="2" to-layer="1204" to-port="0"/>
		<edge from-layer="1203" from-port="0" to-layer="1204" to-port="1"/>
		<edge from-layer="1198" from-port="5" to-layer="1205" to-port="0"/>
		<edge from-layer="1204" from-port="2" to-layer="1205" to-port="1"/>
		<edge from-layer="1205" from-port="2" to-layer="1207" to-port="0"/>
		<edge from-layer="1206" from-port="0" to-layer="1207" to-port="1"/>
		<edge from-layer="1207" from-port="2" to-layer="1208" to-port="0"/>
		<edge from-layer="1208" from-port="1" to-layer="1209" to-port="0"/>
		<edge from-layer="1163" from-port="0" to-layer="1209" to-port="1"/>
		<edge from-layer="1164" from-port="0" to-layer="1209" to-port="2"/>
		<edge from-layer="1165" from-port="0" to-layer="1209" to-port="3"/>
		<edge from-layer="1166" from-port="0" to-layer="1209" to-port="4"/>
		<edge from-layer="1211" from-port="0" to-layer="1212" to-port="0"/>
		<edge from-layer="1212" from-port="1" to-layer="1214" to-port="0"/>
		<edge from-layer="1213" from-port="0" to-layer="1214" to-port="1"/>
		<edge from-layer="1214" from-port="2" to-layer="1216" to-port="0"/>
		<edge from-layer="1215" from-port="0" to-layer="1216" to-port="1"/>
		<edge from-layer="1216" from-port="2" to-layer="1217" to-port="0"/>
		<edge from-layer="1210" from-port="0" to-layer="1217" to-port="1"/>
		<edge from-layer="1209" from-port="5" to-layer="1218" to-port="0"/>
		<edge from-layer="1217" from-port="2" to-layer="1218" to-port="1"/>
		<edge from-layer="1218" from-port="2" to-layer="1219" to-port="0"/>
		<edge from-layer="1162" from-port="0" to-layer="1219" to-port="1"/>
		<edge from-layer="1219" from-port="2" to-layer="1220" to-port="0"/>
		<edge from-layer="1220" from-port="1" to-layer="1221" to-port="0"/>
		<edge from-layer="1158" from-port="0" to-layer="1221" to-port="1"/>
		<edge from-layer="1159" from-port="0" to-layer="1221" to-port="2"/>
		<edge from-layer="1160" from-port="0" to-layer="1221" to-port="3"/>
		<edge from-layer="1161" from-port="0" to-layer="1221" to-port="4"/>
		<edge from-layer="1222" from-port="0" to-layer="1223" to-port="0"/>
		<edge from-layer="1223" from-port="1" to-layer="1225" to-port="0"/>
		<edge from-layer="1224" from-port="0" to-layer="1225" to-port="1"/>
		<edge from-layer="1225" from-port="2" to-layer="1227" to-port="0"/>
		<edge from-layer="1226" from-port="0" to-layer="1227" to-port="1"/>
		<edge from-layer="1221" from-port="5" to-layer="1228" to-port="0"/>
		<edge from-layer="1227" from-port="2" to-layer="1228" to-port="1"/>
		<edge from-layer="1228" from-port="2" to-layer="1230" to-port="0"/>
		<edge from-layer="1229" from-port="0" to-layer="1230" to-port="1"/>
		<edge from-layer="1230" from-port="2" to-layer="1232" to-port="0"/>
		<edge from-layer="1231" from-port="0" to-layer="1232" to-port="1"/>
		<edge from-layer="1232" from-port="2" to-layer="1234" to-port="0"/>
		<edge from-layer="1233" from-port="0" to-layer="1234" to-port="1"/>
		<edge from-layer="700" from-port="2" to-layer="1235" to-port="0"/>
		<edge from-layer="926" from-port="2" to-layer="1235" to-port="1"/>
		<edge from-layer="1003" from-port="2" to-layer="1235" to-port="2"/>
		<edge from-layer="1080" from-port="2" to-layer="1235" to-port="3"/>
		<edge from-layer="1157" from-port="2" to-layer="1235" to-port="4"/>
		<edge from-layer="1234" from-port="2" to-layer="1235" to-port="5"/>
		<edge from-layer="1235" from-port="6" to-layer="1237" to-port="0"/>
		<edge from-layer="1236" from-port="0" to-layer="1237" to-port="1"/>
		<edge from-layer="1244" from-port="0" to-layer="1245" to-port="0"/>
		<edge from-layer="1245" from-port="1" to-layer="1247" to-port="0"/>
		<edge from-layer="1246" from-port="0" to-layer="1247" to-port="1"/>
		<edge from-layer="1247" from-port="2" to-layer="1249" to-port="0"/>
		<edge from-layer="1248" from-port="0" to-layer="1249" to-port="1"/>
		<edge from-layer="1249" from-port="2" to-layer="1250" to-port="0"/>
		<edge from-layer="1243" from-port="0" to-layer="1250" to-port="1"/>
		<edge from-layer="675" from-port="5" to-layer="1251" to-port="0"/>
		<edge from-layer="1250" from-port="2" to-layer="1251" to-port="1"/>
		<edge from-layer="1251" from-port="2" to-layer="1252" to-port="0"/>
		<edge from-layer="1242" from-port="0" to-layer="1252" to-port="1"/>
		<edge from-layer="1252" from-port="2" to-layer="1253" to-port="0"/>
		<edge from-layer="1253" from-port="1" to-layer="1254" to-port="0"/>
		<edge from-layer="1238" from-port="0" to-layer="1254" to-port="1"/>
		<edge from-layer="1239" from-port="0" to-layer="1254" to-port="2"/>
		<edge from-layer="1240" from-port="0" to-layer="1254" to-port="3"/>
		<edge from-layer="1241" from-port="0" to-layer="1254" to-port="4"/>
		<edge from-layer="1255" from-port="0" to-layer="1256" to-port="0"/>
		<edge from-layer="1256" from-port="1" to-layer="1258" to-port="0"/>
		<edge from-layer="1257" from-port="0" to-layer="1258" to-port="1"/>
		<edge from-layer="1258" from-port="2" to-layer="1260" to-port="0"/>
		<edge from-layer="1259" from-port="0" to-layer="1260" to-port="1"/>
		<edge from-layer="1254" from-port="5" to-layer="1261" to-port="0"/>
		<edge from-layer="1260" from-port="2" to-layer="1261" to-port="1"/>
		<edge from-layer="1261" from-port="2" to-layer="1263" to-port="0"/>
		<edge from-layer="1262" from-port="0" to-layer="1263" to-port="1"/>
		<edge from-layer="1263" from-port="2" to-layer="1265" to-port="0"/>
		<edge from-layer="1264" from-port="0" to-layer="1265" to-port="1"/>
		<edge from-layer="1265" from-port="2" to-layer="1267" to-port="0"/>
		<edge from-layer="1266" from-port="0" to-layer="1267" to-port="1"/>
		<edge from-layer="1274" from-port="0" to-layer="1275" to-port="0"/>
		<edge from-layer="1275" from-port="1" to-layer="1277" to-port="0"/>
		<edge from-layer="1276" from-port="0" to-layer="1277" to-port="1"/>
		<edge from-layer="1277" from-port="2" to-layer="1279" to-port="0"/>
		<edge from-layer="1278" from-port="0" to-layer="1279" to-port="1"/>
		<edge from-layer="1279" from-port="2" to-layer="1280" to-port="0"/>
		<edge from-layer="1273" from-port="0" to-layer="1280" to-port="1"/>
		<edge from-layer="901" from-port="5" to-layer="1281" to-port="0"/>
		<edge from-layer="1280" from-port="2" to-layer="1281" to-port="1"/>
		<edge from-layer="1281" from-port="2" to-layer="1282" to-port="0"/>
		<edge from-layer="1272" from-port="0" to-layer="1282" to-port="1"/>
		<edge from-layer="1282" from-port="2" to-layer="1283" to-port="0"/>
		<edge from-layer="1283" from-port="1" to-layer="1284" to-port="0"/>
		<edge from-layer="1268" from-port="0" to-layer="1284" to-port="1"/>
		<edge from-layer="1269" from-port="0" to-layer="1284" to-port="2"/>
		<edge from-layer="1270" from-port="0" to-layer="1284" to-port="3"/>
		<edge from-layer="1271" from-port="0" to-layer="1284" to-port="4"/>
		<edge from-layer="1285" from-port="0" to-layer="1286" to-port="0"/>
		<edge from-layer="1286" from-port="1" to-layer="1288" to-port="0"/>
		<edge from-layer="1287" from-port="0" to-layer="1288" to-port="1"/>
		<edge from-layer="1288" from-port="2" to-layer="1290" to-port="0"/>
		<edge from-layer="1289" from-port="0" to-layer="1290" to-port="1"/>
		<edge from-layer="1284" from-port="5" to-layer="1291" to-port="0"/>
		<edge from-layer="1290" from-port="2" to-layer="1291" to-port="1"/>
		<edge from-layer="1291" from-port="2" to-layer="1293" to-port="0"/>
		<edge from-layer="1292" from-port="0" to-layer="1293" to-port="1"/>
		<edge from-layer="1293" from-port="2" to-layer="1295" to-port="0"/>
		<edge from-layer="1294" from-port="0" to-layer="1295" to-port="1"/>
		<edge from-layer="1295" from-port="2" to-layer="1297" to-port="0"/>
		<edge from-layer="1296" from-port="0" to-layer="1297" to-port="1"/>
		<edge from-layer="1304" from-port="0" to-layer="1305" to-port="0"/>
		<edge from-layer="1305" from-port="1" to-layer="1307" to-port="0"/>
		<edge from-layer="1306" from-port="0" to-layer="1307" to-port="1"/>
		<edge from-layer="1307" from-port="2" to-layer="1309" to-port="0"/>
		<edge from-layer="1308" from-port="0" to-layer="1309" to-port="1"/>
		<edge from-layer="1309" from-port="2" to-layer="1310" to-port="0"/>
		<edge from-layer="1303" from-port="0" to-layer="1310" to-port="1"/>
		<edge from-layer="978" from-port="5" to-layer="1311" to-port="0"/>
		<edge from-layer="1310" from-port="2" to-layer="1311" to-port="1"/>
		<edge from-layer="1311" from-port="2" to-layer="1312" to-port="0"/>
		<edge from-layer="1302" from-port="0" to-layer="1312" to-port="1"/>
		<edge from-layer="1312" from-port="2" to-layer="1313" to-port="0"/>
		<edge from-layer="1313" from-port="1" to-layer="1314" to-port="0"/>
		<edge from-layer="1298" from-port="0" to-layer="1314" to-port="1"/>
		<edge from-layer="1299" from-port="0" to-layer="1314" to-port="2"/>
		<edge from-layer="1300" from-port="0" to-layer="1314" to-port="3"/>
		<edge from-layer="1301" from-port="0" to-layer="1314" to-port="4"/>
		<edge from-layer="1315" from-port="0" to-layer="1316" to-port="0"/>
		<edge from-layer="1316" from-port="1" to-layer="1318" to-port="0"/>
		<edge from-layer="1317" from-port="0" to-layer="1318" to-port="1"/>
		<edge from-layer="1318" from-port="2" to-layer="1320" to-port="0"/>
		<edge from-layer="1319" from-port="0" to-layer="1320" to-port="1"/>
		<edge from-layer="1314" from-port="5" to-layer="1321" to-port="0"/>
		<edge from-layer="1320" from-port="2" to-layer="1321" to-port="1"/>
		<edge from-layer="1321" from-port="2" to-layer="1323" to-port="0"/>
		<edge from-layer="1322" from-port="0" to-layer="1323" to-port="1"/>
		<edge from-layer="1323" from-port="2" to-layer="1325" to-port="0"/>
		<edge from-layer="1324" from-port="0" to-layer="1325" to-port="1"/>
		<edge from-layer="1325" from-port="2" to-layer="1327" to-port="0"/>
		<edge from-layer="1326" from-port="0" to-layer="1327" to-port="1"/>
		<edge from-layer="1334" from-port="0" to-layer="1335" to-port="0"/>
		<edge from-layer="1335" from-port="1" to-layer="1337" to-port="0"/>
		<edge from-layer="1336" from-port="0" to-layer="1337" to-port="1"/>
		<edge from-layer="1337" from-port="2" to-layer="1339" to-port="0"/>
		<edge from-layer="1338" from-port="0" to-layer="1339" to-port="1"/>
		<edge from-layer="1339" from-port="2" to-layer="1340" to-port="0"/>
		<edge from-layer="1333" from-port="0" to-layer="1340" to-port="1"/>
		<edge from-layer="1055" from-port="5" to-layer="1341" to-port="0"/>
		<edge from-layer="1340" from-port="2" to-layer="1341" to-port="1"/>
		<edge from-layer="1341" from-port="2" to-layer="1342" to-port="0"/>
		<edge from-layer="1332" from-port="0" to-layer="1342" to-port="1"/>
		<edge from-layer="1342" from-port="2" to-layer="1343" to-port="0"/>
		<edge from-layer="1343" from-port="1" to-layer="1344" to-port="0"/>
		<edge from-layer="1328" from-port="0" to-layer="1344" to-port="1"/>
		<edge from-layer="1329" from-port="0" to-layer="1344" to-port="2"/>
		<edge from-layer="1330" from-port="0" to-layer="1344" to-port="3"/>
		<edge from-layer="1331" from-port="0" to-layer="1344" to-port="4"/>
		<edge from-layer="1345" from-port="0" to-layer="1346" to-port="0"/>
		<edge from-layer="1346" from-port="1" to-layer="1348" to-port="0"/>
		<edge from-layer="1347" from-port="0" to-layer="1348" to-port="1"/>
		<edge from-layer="1348" from-port="2" to-layer="1350" to-port="0"/>
		<edge from-layer="1349" from-port="0" to-layer="1350" to-port="1"/>
		<edge from-layer="1344" from-port="5" to-layer="1351" to-port="0"/>
		<edge from-layer="1350" from-port="2" to-layer="1351" to-port="1"/>
		<edge from-layer="1351" from-port="2" to-layer="1353" to-port="0"/>
		<edge from-layer="1352" from-port="0" to-layer="1353" to-port="1"/>
		<edge from-layer="1353" from-port="2" to-layer="1355" to-port="0"/>
		<edge from-layer="1354" from-port="0" to-layer="1355" to-port="1"/>
		<edge from-layer="1355" from-port="2" to-layer="1357" to-port="0"/>
		<edge from-layer="1356" from-port="0" to-layer="1357" to-port="1"/>
		<edge from-layer="1364" from-port="0" to-layer="1365" to-port="0"/>
		<edge from-layer="1365" from-port="1" to-layer="1367" to-port="0"/>
		<edge from-layer="1366" from-port="0" to-layer="1367" to-port="1"/>
		<edge from-layer="1367" from-port="2" to-layer="1369" to-port="0"/>
		<edge from-layer="1368" from-port="0" to-layer="1369" to-port="1"/>
		<edge from-layer="1369" from-port="2" to-layer="1370" to-port="0"/>
		<edge from-layer="1363" from-port="0" to-layer="1370" to-port="1"/>
		<edge from-layer="1132" from-port="5" to-layer="1371" to-port="0"/>
		<edge from-layer="1370" from-port="2" to-layer="1371" to-port="1"/>
		<edge from-layer="1371" from-port="2" to-layer="1372" to-port="0"/>
		<edge from-layer="1362" from-port="0" to-layer="1372" to-port="1"/>
		<edge from-layer="1372" from-port="2" to-layer="1373" to-port="0"/>
		<edge from-layer="1373" from-port="1" to-layer="1374" to-port="0"/>
		<edge from-layer="1358" from-port="0" to-layer="1374" to-port="1"/>
		<edge from-layer="1359" from-port="0" to-layer="1374" to-port="2"/>
		<edge from-layer="1360" from-port="0" to-layer="1374" to-port="3"/>
		<edge from-layer="1361" from-port="0" to-layer="1374" to-port="4"/>
		<edge from-layer="1375" from-port="0" to-layer="1376" to-port="0"/>
		<edge from-layer="1376" from-port="1" to-layer="1378" to-port="0"/>
		<edge from-layer="1377" from-port="0" to-layer="1378" to-port="1"/>
		<edge from-layer="1378" from-port="2" to-layer="1380" to-port="0"/>
		<edge from-layer="1379" from-port="0" to-layer="1380" to-port="1"/>
		<edge from-layer="1374" from-port="5" to-layer="1381" to-port="0"/>
		<edge from-layer="1380" from-port="2" to-layer="1381" to-port="1"/>
		<edge from-layer="1381" from-port="2" to-layer="1383" to-port="0"/>
		<edge from-layer="1382" from-port="0" to-layer="1383" to-port="1"/>
		<edge from-layer="1383" from-port="2" to-layer="1385" to-port="0"/>
		<edge from-layer="1384" from-port="0" to-layer="1385" to-port="1"/>
		<edge from-layer="1385" from-port="2" to-layer="1387" to-port="0"/>
		<edge from-layer="1386" from-port="0" to-layer="1387" to-port="1"/>
		<edge from-layer="1394" from-port="0" to-layer="1395" to-port="0"/>
		<edge from-layer="1395" from-port="1" to-layer="1397" to-port="0"/>
		<edge from-layer="1396" from-port="0" to-layer="1397" to-port="1"/>
		<edge from-layer="1397" from-port="2" to-layer="1399" to-port="0"/>
		<edge from-layer="1398" from-port="0" to-layer="1399" to-port="1"/>
		<edge from-layer="1399" from-port="2" to-layer="1400" to-port="0"/>
		<edge from-layer="1393" from-port="0" to-layer="1400" to-port="1"/>
		<edge from-layer="1209" from-port="5" to-layer="1401" to-port="0"/>
		<edge from-layer="1400" from-port="2" to-layer="1401" to-port="1"/>
		<edge from-layer="1401" from-port="2" to-layer="1402" to-port="0"/>
		<edge from-layer="1392" from-port="0" to-layer="1402" to-port="1"/>
		<edge from-layer="1402" from-port="2" to-layer="1403" to-port="0"/>
		<edge from-layer="1403" from-port="1" to-layer="1404" to-port="0"/>
		<edge from-layer="1388" from-port="0" to-layer="1404" to-port="1"/>
		<edge from-layer="1389" from-port="0" to-layer="1404" to-port="2"/>
		<edge from-layer="1390" from-port="0" to-layer="1404" to-port="3"/>
		<edge from-layer="1391" from-port="0" to-layer="1404" to-port="4"/>
		<edge from-layer="1405" from-port="0" to-layer="1406" to-port="0"/>
		<edge from-layer="1406" from-port="1" to-layer="1408" to-port="0"/>
		<edge from-layer="1407" from-port="0" to-layer="1408" to-port="1"/>
		<edge from-layer="1408" from-port="2" to-layer="1410" to-port="0"/>
		<edge from-layer="1409" from-port="0" to-layer="1410" to-port="1"/>
		<edge from-layer="1404" from-port="5" to-layer="1411" to-port="0"/>
		<edge from-layer="1410" from-port="2" to-layer="1411" to-port="1"/>
		<edge from-layer="1411" from-port="2" to-layer="1413" to-port="0"/>
		<edge from-layer="1412" from-port="0" to-layer="1413" to-port="1"/>
		<edge from-layer="1413" from-port="2" to-layer="1415" to-port="0"/>
		<edge from-layer="1414" from-port="0" to-layer="1415" to-port="1"/>
		<edge from-layer="1415" from-port="2" to-layer="1417" to-port="0"/>
		<edge from-layer="1416" from-port="0" to-layer="1417" to-port="1"/>
		<edge from-layer="1267" from-port="2" to-layer="1418" to-port="0"/>
		<edge from-layer="1297" from-port="2" to-layer="1418" to-port="1"/>
		<edge from-layer="1327" from-port="2" to-layer="1418" to-port="2"/>
		<edge from-layer="1357" from-port="2" to-layer="1418" to-port="3"/>
		<edge from-layer="1387" from-port="2" to-layer="1418" to-port="4"/>
		<edge from-layer="1417" from-port="2" to-layer="1418" to-port="5"/>
		<edge from-layer="1418" from-port="6" to-layer="1420" to-port="0"/>
		<edge from-layer="1419" from-port="0" to-layer="1420" to-port="1"/>
		<edge from-layer="1420" from-port="2" to-layer="1421" to-port="0"/>
		<edge from-layer="1421" from-port="1" to-layer="1423" to-port="0"/>
		<edge from-layer="1422" from-port="0" to-layer="1423" to-port="1"/>
		<edge from-layer="1076" from-port="2" to-layer="1425" to-port="0"/>
		<edge from-layer="1425" from-port="1" to-layer="1429" to-port="0"/>
		<edge from-layer="1426" from-port="0" to-layer="1429" to-port="1"/>
		<edge from-layer="1427" from-port="0" to-layer="1429" to-port="2"/>
		<edge from-layer="1428" from-port="0" to-layer="1429" to-port="3"/>
		<edge from-layer="216" from-port="0" to-layer="1430" to-port="0"/>
		<edge from-layer="1430" from-port="1" to-layer="1434" to-port="0"/>
		<edge from-layer="1431" from-port="0" to-layer="1434" to-port="1"/>
		<edge from-layer="1432" from-port="0" to-layer="1434" to-port="2"/>
		<edge from-layer="1433" from-port="0" to-layer="1434" to-port="3"/>
		<edge from-layer="1429" from-port="4" to-layer="1435" to-port="0"/>
		<edge from-layer="1434" from-port="4" to-layer="1435" to-port="1"/>
		<edge from-layer="1435" from-port="2" to-layer="1436" to-port="0"/>
		<edge from-layer="1424" from-port="0" to-layer="1436" to-port="1"/>
		<edge from-layer="1230" from-port="2" to-layer="1438" to-port="0"/>
		<edge from-layer="1438" from-port="1" to-layer="1442" to-port="0"/>
		<edge from-layer="1439" from-port="0" to-layer="1442" to-port="1"/>
		<edge from-layer="1440" from-port="0" to-layer="1442" to-port="2"/>
		<edge from-layer="1441" from-port="0" to-layer="1442" to-port="3"/>
		<edge from-layer="216" from-port="0" to-layer="1443" to-port="0"/>
		<edge from-layer="1443" from-port="1" to-layer="1447" to-port="0"/>
		<edge from-layer="1444" from-port="0" to-layer="1447" to-port="1"/>
		<edge from-layer="1445" from-port="0" to-layer="1447" to-port="2"/>
		<edge from-layer="1446" from-port="0" to-layer="1447" to-port="3"/>
		<edge from-layer="1442" from-port="4" to-layer="1448" to-port="0"/>
		<edge from-layer="1447" from-port="4" to-layer="1448" to-port="1"/>
		<edge from-layer="1448" from-port="2" to-layer="1449" to-port="0"/>
		<edge from-layer="1437" from-port="0" to-layer="1449" to-port="1"/>
		<edge from-layer="696" from-port="2" to-layer="1451" to-port="0"/>
		<edge from-layer="1451" from-port="1" to-layer="1455" to-port="0"/>
		<edge from-layer="1452" from-port="0" to-layer="1455" to-port="1"/>
		<edge from-layer="1453" from-port="0" to-layer="1455" to-port="2"/>
		<edge from-layer="1454" from-port="0" to-layer="1455" to-port="3"/>
		<edge from-layer="216" from-port="0" to-layer="1456" to-port="0"/>
		<edge from-layer="1456" from-port="1" to-layer="1460" to-port="0"/>
		<edge from-layer="1457" from-port="0" to-layer="1460" to-port="1"/>
		<edge from-layer="1458" from-port="0" to-layer="1460" to-port="2"/>
		<edge from-layer="1459" from-port="0" to-layer="1460" to-port="3"/>
		<edge from-layer="1455" from-port="4" to-layer="1461" to-port="0"/>
		<edge from-layer="1460" from-port="4" to-layer="1461" to-port="1"/>
		<edge from-layer="1461" from-port="2" to-layer="1462" to-port="0"/>
		<edge from-layer="1450" from-port="0" to-layer="1462" to-port="1"/>
		<edge from-layer="1153" from-port="2" to-layer="1464" to-port="0"/>
		<edge from-layer="1464" from-port="1" to-layer="1468" to-port="0"/>
		<edge from-layer="1465" from-port="0" to-layer="1468" to-port="1"/>
		<edge from-layer="1466" from-port="0" to-layer="1468" to-port="2"/>
		<edge from-layer="1467" from-port="0" to-layer="1468" to-port="3"/>
		<edge from-layer="216" from-port="0" to-layer="1469" to-port="0"/>
		<edge from-layer="1469" from-port="1" to-layer="1473" to-port="0"/>
		<edge from-layer="1470" from-port="0" to-layer="1473" to-port="1"/>
		<edge from-layer="1471" from-port="0" to-layer="1473" to-port="2"/>
		<edge from-layer="1472" from-port="0" to-layer="1473" to-port="3"/>
		<edge from-layer="1468" from-port="4" to-layer="1474" to-port="0"/>
		<edge from-layer="1473" from-port="4" to-layer="1474" to-port="1"/>
		<edge from-layer="1474" from-port="2" to-layer="1475" to-port="0"/>
		<edge from-layer="1463" from-port="0" to-layer="1475" to-port="1"/>
		<edge from-layer="999" from-port="2" to-layer="1477" to-port="0"/>
		<edge from-layer="1477" from-port="1" to-layer="1481" to-port="0"/>
		<edge from-layer="1478" from-port="0" to-layer="1481" to-port="1"/>
		<edge from-layer="1479" from-port="0" to-layer="1481" to-port="2"/>
		<edge from-layer="1480" from-port="0" to-layer="1481" to-port="3"/>
		<edge from-layer="216" from-port="0" to-layer="1482" to-port="0"/>
		<edge from-layer="1482" from-port="1" to-layer="1486" to-port="0"/>
		<edge from-layer="1483" from-port="0" to-layer="1486" to-port="1"/>
		<edge from-layer="1484" from-port="0" to-layer="1486" to-port="2"/>
		<edge from-layer="1485" from-port="0" to-layer="1486" to-port="3"/>
		<edge from-layer="1481" from-port="4" to-layer="1487" to-port="0"/>
		<edge from-layer="1486" from-port="4" to-layer="1487" to-port="1"/>
		<edge from-layer="1487" from-port="2" to-layer="1488" to-port="0"/>
		<edge from-layer="1476" from-port="0" to-layer="1488" to-port="1"/>
		<edge from-layer="922" from-port="2" to-layer="1490" to-port="0"/>
		<edge from-layer="1490" from-port="1" to-layer="1494" to-port="0"/>
		<edge from-layer="1491" from-port="0" to-layer="1494" to-port="1"/>
		<edge from-layer="1492" from-port="0" to-layer="1494" to-port="2"/>
		<edge from-layer="1493" from-port="0" to-layer="1494" to-port="3"/>
		<edge from-layer="216" from-port="0" to-layer="1495" to-port="0"/>
		<edge from-layer="1495" from-port="1" to-layer="1499" to-port="0"/>
		<edge from-layer="1496" from-port="0" to-layer="1499" to-port="1"/>
		<edge from-layer="1497" from-port="0" to-layer="1499" to-port="2"/>
		<edge from-layer="1498" from-port="0" to-layer="1499" to-port="3"/>
		<edge from-layer="1494" from-port="4" to-layer="1500" to-port="0"/>
		<edge from-layer="1499" from-port="4" to-layer="1500" to-port="1"/>
		<edge from-layer="1500" from-port="2" to-layer="1501" to-port="0"/>
		<edge from-layer="1489" from-port="0" to-layer="1501" to-port="1"/>
		<edge from-layer="1462" from-port="2" to-layer="1502" to-port="0"/>
		<edge from-layer="1501" from-port="2" to-layer="1502" to-port="1"/>
		<edge from-layer="1488" from-port="2" to-layer="1502" to-port="2"/>
		<edge from-layer="1436" from-port="2" to-layer="1502" to-port="3"/>
		<edge from-layer="1475" from-port="2" to-layer="1502" to-port="4"/>
		<edge from-layer="1449" from-port="2" to-layer="1502" to-port="5"/>
		<edge from-layer="1237" from-port="2" to-layer="1503" to-port="0"/>
		<edge from-layer="1423" from-port="2" to-layer="1503" to-port="1"/>
		<edge from-layer="1502" from-port="6" to-layer="1503" to-port="2"/>
		<edge from-layer="1503" from-port="3" to-layer="1504" to-port="0"/>
	</edges>
	<meta_data>
		<MO_version value="2021.4.2-3976-0943ed67223-refs/pull/539/head"/>
		<cli_parameters>
			<caffe_parser_path value="DIR"/>
			<data_type value="FP16"/>
			<disable_nhwc_to_nchw value="False"/>
			<disable_omitting_optional value="False"/>
			<disable_resnet_optimization value="False"/>
			<disable_weights_compression value="False"/>
			<enable_concat_optimization value="False"/>
			<enable_flattening_nested_params value="False"/>
			<enable_ssd_gluoncv value="False"/>
			<extensions value="DIR"/>
			<framework value="tf"/>
			<freeze_placeholder_with_value value="{}"/>
			<generate_deprecated_IR_V7 value="False"/>
			<input value="image_tensor"/>
			<input_model value="DIR/frozen_inference_graph.pb"/>
			<input_model_is_text value="False"/>
			<input_shape value="[1,300,300,3]"/>
			<k value="DIR/CustomLayersMapping.xml"/>
			<keep_shape_ops value="True"/>
			<legacy_ir_generation value="False"/>
			<legacy_mxnet_model value="False"/>
			<log_level value="ERROR"/>
			<mean_scale_values value="{}"/>
			<mean_values value="()"/>
			<model_name value="ssdlite_mobilenet_v2"/>
			<output value="['detection_scores', 'detection_boxes', 'num_detections']"/>
			<output_dir value="DIR"/>
			<placeholder_data_types value="{}"/>
			<placeholder_shapes value="{'image_tensor': array([  1, 300, 300,   3])}"/>
			<progress value="False"/>
			<remove_memory value="False"/>
			<remove_output_softmax value="False"/>
			<reverse_input_channels value="True"/>
			<save_params_from_nd value="False"/>
			<scale_values value="()"/>
			<silent value="False"/>
			<static_shape value="False"/>
			<stream_output value="False"/>
			<tensorflow_object_detection_api_pipeline_config value="DIR/pipeline.config"/>
			<transform value=""/>
			<transformations_config value="DIR/ssd_v2_support.json"/>
			<unset unset_cli_parameters="batch, counts, disable_fusing, disable_gfusing, finegrain_fusing, input_checkpoint, input_meta_graph, input_proto, input_symbol, mean_file, mean_file_offsets, move_to_preprocess, nd_prefix_name, pretrained_model_name, saved_model_dir, saved_model_tags, scale, tensorboard_logdir, tensorflow_custom_layer_libraries, tensorflow_custom_operations_config_update, tensorflow_use_custom_operations_config"/>
		</cli_parameters>
	</meta_data>
	<quantization_parameters>
		<config>{
		'compression': {
			'algorithms': [
				{
					'name': 'DefaultQuantization',
					'params': {
						'preset': 'performance',
						'stat_subset_size': 300
					}
				}
			]
		},
		'engine': {
			'models': [
				{
					'name': 'ssdlite_mobilenet_v2',
					'launchers': [
						{
							'framework': 'dlsdk',
							'adapter': 'ssd',
							'model': 'PATH',
							'device': 'CPU'
						}
					],
					'datasets': [
						{
							'name': 'ms_coco_detection_91_classes',
							'annotation_conversion': {
								'converter': 'mscoco_detection',
								'annotation_file': 'PATH',
								'has_background': true,
								'sort_annotations': true,
								'use_full_label_map': true
							},
							'annotation': 'PATH',
							'dataset_meta': 'PATH',
							'data_source': 'PATH',
							'preprocessing': [
								{
									'type': 'resize',
									'size': 300
								}
							],
							'postprocessing': [
								{
									'type': 'resize_prediction_boxes'
								}
							],
							'metrics': [
								{
									'type': 'coco_precision'
								}
							],
							'_command_line_mapping': {
								'annotation_file': 'PATH'
							}
						}
					]
				}
			],
			'stat_requests_number': null,
			'eval_requests_number': null,
			'type': 'accuracy_checker'
		}
	}</config>
		<version value="1.0"/>
		<cli_params value="{'quantize': None, 'preset': None, 'model': None, 'weights': None, 'name': None, 'ac_config': None, 'max_drop': None, 'evaluate': False, 'output_dir': 'PATH', 'direct_dump': True, 'log_level': 'INFO', 'pbar': False, 'stream_output': False, 'keep_uncompressed_weights': False}"/>
	</quantization_parameters>
</net>
