<?xml version="1.0" ?>
<net name="torch_jit" version="11">
	<layers>
		<layer id="122" name="images" type="Parameter" version="opset1">
			<data shape="1,3,320,320" element_type="f32"/>
			<output>
				<port id="0" precision="FP32" names="images">
					<dim>1</dim>
					<dim>3</dim>
					<dim>320</dim>
					<dim>320</dim>
					<rt_info/>
				</port>
			</output>
		</layer>
		<layer id="0" name="4143414719914" type="Const" version="opset1">
			<data offset="0" size="4" shape="" element_type="f32"/>
			<output>
				<port id="0" precision="FP32"/>
			</output>
		</layer>
		<layer id="1" name="4144414820598" type="Const" version="opset1">
			<data offset="4" size="4" shape="" element_type="f32"/>
			<output>
				<port id="0" precision="FP32"/>
			</output>
		</layer>
		<layer id="2" name="4145414918624" type="Const" version="opset1">
			<data offset="0" size="4" shape="" element_type="f32"/>
			<output>
				<port id="0" precision="FP32"/>
			</output>
		</layer>
		<layer id="3" name="4146415019800" type="Const" version="opset1">
			<data offset="4" size="4" shape="" element_type="f32"/>
			<output>
				<port id="0" precision="FP32"/>
			</output>
		</layer>
		<layer id="4" name="3223322719524" type="Const" version="opset1">
			<data offset="8" size="4" shape="" element_type="f32"/>
			<output>
				<port id="0" precision="FP32"/>
			</output>
		</layer>
		<layer id="5" name="3224322818921" type="Const" version="opset1">
			<data offset="12" size="4" shape="" element_type="f32"/>
			<output>
				<port id="0" precision="FP32"/>
			</output>
		</layer>
		<layer id="6" name="3225322918660" type="Const" version="opset1">
			<data offset="8" size="4" shape="" element_type="f32"/>
			<output>
				<port id="0" precision="FP32"/>
			</output>
		</layer>
		<layer id="7" name="3226323020853" type="Const" version="opset1">
			<data offset="12" size="4" shape="" element_type="f32"/>
			<output>
				<port id="0" precision="FP32"/>
			</output>
		</layer>
		<layer id="8" name="Constant_1238396719470" type="Const" version="opset1">
			<data offset="16" size="768" shape="1,192,1,1" element_type="f32"/>
			<output>
				<port id="0" precision="FP32">
					<dim>1</dim>
					<dim>192</dim>
					<dim>1</dim>
					<dim>1</dim>
				</port>
			</output>
		</layer>
		<layer id="9" name="5950595419080" type="Const" version="opset1">
			<data offset="784" size="4" shape="" element_type="f32"/>
			<output>
				<port id="0" precision="FP32"/>
			</output>
		</layer>
		<layer id="10" name="5951595519062" type="Const" version="opset1">
			<data offset="788" size="4" shape="" element_type="f32"/>
			<output>
				<port id="0" precision="FP32"/>
			</output>
		</layer>
		<layer id="11" name="5952595620538" type="Const" version="opset1">
			<data offset="784" size="4" shape="" element_type="f32"/>
			<output>
				<port id="0" precision="FP32"/>
			</output>
		</layer>
		<layer id="12" name="5953595720622" type="Const" version="opset1">
			<data offset="788" size="4" shape="" element_type="f32"/>
			<output>
				<port id="0" precision="FP32"/>
			</output>
		</layer>
		<layer id="13" name="1568157020049" type="Const" version="opset1">
			<data offset="792" size="384" shape="1,96,1,1" element_type="f32"/>
			<output>
				<port id="0" precision="FP32">
					<dim>1</dim>
					<dim>96</dim>
					<dim>1</dim>
					<dim>1</dim>
				</port>
			</output>
		</layer>
		<layer id="14" name="2733273718828" type="Const" version="opset1">
			<data offset="1176" size="4" shape="" element_type="f32"/>
			<output>
				<port id="0" precision="FP32"/>
			</output>
		</layer>
		<layer id="15" name="2734273820016" type="Const" version="opset1">
			<data offset="1180" size="4" shape="" element_type="f32"/>
			<output>
				<port id="0" precision="FP32"/>
			</output>
		</layer>
		<layer id="16" name="2735273920211" type="Const" version="opset1">
			<data offset="1176" size="4" shape="" element_type="f32"/>
			<output>
				<port id="0" precision="FP32"/>
			</output>
		</layer>
		<layer id="17" name="2736274020148" type="Const" version="opset1">
			<data offset="1180" size="4" shape="" element_type="f32"/>
			<output>
				<port id="0" precision="FP32"/>
			</output>
		</layer>
		<layer id="18" name="2463246720667" type="Const" version="opset1">
			<data offset="1184" size="4" shape="" element_type="f32"/>
			<output>
				<port id="0" precision="FP32"/>
			</output>
		</layer>
		<layer id="19" name="2464246818750" type="Const" version="opset1">
			<data offset="1188" size="4" shape="" element_type="f32"/>
			<output>
				<port id="0" precision="FP32"/>
			</output>
		</layer>
		<layer id="20" name="2465246920094" type="Const" version="opset1">
			<data offset="1184" size="4" shape="" element_type="f32"/>
			<output>
				<port id="0" precision="FP32"/>
			</output>
		</layer>
		<layer id="21" name="2466247020886" type="Const" version="opset1">
			<data offset="1188" size="4" shape="" element_type="f32"/>
			<output>
				<port id="0" precision="FP32"/>
			</output>
		</layer>
		<layer id="22" name="3783378719854" type="Const" version="opset1">
			<data offset="1192" size="4" shape="" element_type="f32"/>
			<output>
				<port id="0" precision="FP32"/>
			</output>
		</layer>
		<layer id="23" name="3784378819671" type="Const" version="opset1">
			<data offset="1196" size="4" shape="" element_type="f32"/>
			<output>
				<port id="0" precision="FP32"/>
			</output>
		</layer>
		<layer id="24" name="3785378919368" type="Const" version="opset1">
			<data offset="1192" size="4" shape="" element_type="f32"/>
			<output>
				<port id="0" precision="FP32"/>
			</output>
		</layer>
		<layer id="25" name="3786379019539" type="Const" version="opset1">
			<data offset="1196" size="4" shape="" element_type="f32"/>
			<output>
				<port id="0" precision="FP32"/>
			</output>
		</layer>
		<layer id="26" name="3123312720763" type="Const" version="opset1">
			<data offset="1200" size="4" shape="" element_type="f32"/>
			<output>
				<port id="0" precision="FP32"/>
			</output>
		</layer>
		<layer id="27" name="3124312820673" type="Const" version="opset1">
			<data offset="1204" size="4" shape="" element_type="f32"/>
			<output>
				<port id="0" precision="FP32"/>
			</output>
		</layer>
		<layer id="28" name="3125312919458" type="Const" version="opset1">
			<data offset="1200" size="4" shape="" element_type="f32"/>
			<output>
				<port id="0" precision="FP32"/>
			</output>
		</layer>
		<layer id="29" name="3126313018852" type="Const" version="opset1">
			<data offset="1204" size="4" shape="" element_type="f32"/>
			<output>
				<port id="0" precision="FP32"/>
			</output>
		</layer>
		<layer id="30" name="3913391719980" type="Const" version="opset1">
			<data offset="1208" size="4" shape="" element_type="f32"/>
			<output>
				<port id="0" precision="FP32"/>
			</output>
		</layer>
		<layer id="31" name="3914391819554" type="Const" version="opset1">
			<data offset="1212" size="4" shape="" element_type="f32"/>
			<output>
				<port id="0" precision="FP32"/>
			</output>
		</layer>
		<layer id="32" name="3915391920775" type="Const" version="opset1">
			<data offset="1208" size="4" shape="" element_type="f32"/>
			<output>
				<port id="0" precision="FP32"/>
			</output>
		</layer>
		<layer id="33" name="3916392018648" type="Const" version="opset1">
			<data offset="1212" size="4" shape="" element_type="f32"/>
			<output>
				<port id="0" precision="FP32"/>
			</output>
		</layer>
		<layer id="34" name="5660566420691" type="Const" version="opset1">
			<data offset="1216" size="4" shape="" element_type="f32"/>
			<output>
				<port id="0" precision="FP32"/>
			</output>
		</layer>
		<layer id="35" name="5661566518984" type="Const" version="opset1">
			<data offset="1220" size="4" shape="" element_type="f32"/>
			<output>
				<port id="0" precision="FP32"/>
			</output>
		</layer>
		<layer id="36" name="5662566620805" type="Const" version="opset1">
			<data offset="1216" size="4" shape="" element_type="f32"/>
			<output>
				<port id="0" precision="FP32"/>
			</output>
		</layer>
		<layer id="37" name="5663566719899" type="Const" version="opset1">
			<data offset="1220" size="4" shape="" element_type="f32"/>
			<output>
				<port id="0" precision="FP32"/>
			</output>
		</layer>
		<layer id="38" name="2713271719482" type="Const" version="opset1">
			<data offset="1224" size="4" shape="" element_type="f32"/>
			<output>
				<port id="0" precision="FP32"/>
			</output>
		</layer>
		<layer id="39" name="2714271819569" type="Const" version="opset1">
			<data offset="1228" size="4" shape="" element_type="f32"/>
			<output>
				<port id="0" precision="FP32"/>
			</output>
		</layer>
		<layer id="40" name="2715271918618" type="Const" version="opset1">
			<data offset="1224" size="4" shape="" element_type="f32"/>
			<output>
				<port id="0" precision="FP32"/>
			</output>
		</layer>
		<layer id="41" name="2716272020283" type="Const" version="opset1">
			<data offset="1228" size="4" shape="" element_type="f32"/>
			<output>
				<port id="0" precision="FP32"/>
			</output>
		</layer>
		<layer id="42" name="Constant_1187970920568" type="Const" version="opset1">
			<data offset="1232" size="768" shape="1,192,1,1" element_type="f32"/>
			<output>
				<port id="0" precision="FP32">
					<dim>1</dim>
					<dim>192</dim>
					<dim>1</dim>
					<dim>1</dim>
				</port>
			</output>
		</layer>
		<layer id="43" name="5870587418621" type="Const" version="opset1">
			<data offset="2000" size="4" shape="" element_type="f32"/>
			<output>
				<port id="0" precision="FP32"/>
			</output>
		</layer>
		<layer id="44" name="5871587520112" type="Const" version="opset1">
			<data offset="2004" size="4" shape="" element_type="f32"/>
			<output>
				<port id="0" precision="FP32"/>
			</output>
		</layer>
		<layer id="45" name="5872587620409" type="Const" version="opset1">
			<data offset="2000" size="4" shape="" element_type="f32"/>
			<output>
				<port id="0" precision="FP32"/>
			</output>
		</layer>
		<layer id="46" name="5873587719689" type="Const" version="opset1">
			<data offset="2004" size="4" shape="" element_type="f32"/>
			<output>
				<port id="0" precision="FP32"/>
			</output>
		</layer>
		<layer id="47" name="1536153820901" type="Const" version="opset1">
			<data offset="792" size="384" shape="1,96,1,1" element_type="f32"/>
			<output>
				<port id="0" precision="FP32">
					<dim>1</dim>
					<dim>96</dim>
					<dim>1</dim>
					<dim>1</dim>
				</port>
			</output>
		</layer>
		<layer id="48" name="3733373720832" type="Const" version="opset1">
			<data offset="2008" size="4" shape="" element_type="f32"/>
			<output>
				<port id="0" precision="FP32"/>
			</output>
		</layer>
		<layer id="49" name="3734373818681" type="Const" version="opset1">
			<data offset="2012" size="4" shape="" element_type="f32"/>
			<output>
				<port id="0" precision="FP32"/>
			</output>
		</layer>
		<layer id="50" name="3735373919077" type="Const" version="opset1">
			<data offset="2008" size="4" shape="" element_type="f32"/>
			<output>
				<port id="0" precision="FP32"/>
			</output>
		</layer>
		<layer id="51" name="3736374020508" type="Const" version="opset1">
			<data offset="2012" size="4" shape="" element_type="f32"/>
			<output>
				<port id="0" precision="FP32"/>
			</output>
		</layer>
		<layer id="52" name="3693369719371" type="Const" version="opset1">
			<data offset="2016" size="4" shape="" element_type="f32"/>
			<output>
				<port id="0" precision="FP32"/>
			</output>
		</layer>
		<layer id="53" name="3694369820748" type="Const" version="opset1">
			<data offset="2020" size="4" shape="" element_type="f32"/>
			<output>
				<port id="0" precision="FP32"/>
			</output>
		</layer>
		<layer id="54" name="3695369918972" type="Const" version="opset1">
			<data offset="2016" size="4" shape="" element_type="f32"/>
			<output>
				<port id="0" precision="FP32"/>
			</output>
		</layer>
		<layer id="55" name="3696370019056" type="Const" version="opset1">
			<data offset="2020" size="4" shape="" element_type="f32"/>
			<output>
				<port id="0" precision="FP32"/>
			</output>
		</layer>
		<layer id="56" name="3613361719215" type="Const" version="opset1">
			<data offset="2024" size="4" shape="" element_type="f32"/>
			<output>
				<port id="0" precision="FP32"/>
			</output>
		</layer>
		<layer id="57" name="3614361818687" type="Const" version="opset1">
			<data offset="2028" size="4" shape="" element_type="f32"/>
			<output>
				<port id="0" precision="FP32"/>
			</output>
		</layer>
		<layer id="58" name="3615361920106" type="Const" version="opset1">
			<data offset="2024" size="4" shape="" element_type="f32"/>
			<output>
				<port id="0" precision="FP32"/>
			</output>
		</layer>
		<layer id="59" name="3616362019287" type="Const" version="opset1">
			<data offset="2028" size="4" shape="" element_type="f32"/>
			<output>
				<port id="0" precision="FP32"/>
			</output>
		</layer>
		<layer id="60" name="2443244719893" type="Const" version="opset1">
			<data offset="2032" size="4" shape="" element_type="f32"/>
			<output>
				<port id="0" precision="FP32"/>
			</output>
		</layer>
		<layer id="61" name="2444244818657" type="Const" version="opset1">
			<data offset="2036" size="4" shape="" element_type="f32"/>
			<output>
				<port id="0" precision="FP32"/>
			</output>
		</layer>
		<layer id="62" name="2445244919851" type="Const" version="opset1">
			<data offset="2032" size="4" shape="" element_type="f32"/>
			<output>
				<port id="0" precision="FP32"/>
			</output>
		</layer>
		<layer id="63" name="2446245019821" type="Const" version="opset1">
			<data offset="2036" size="4" shape="" element_type="f32"/>
			<output>
				<port id="0" precision="FP32"/>
			</output>
		</layer>
		<layer id="64" name="2323232718615" type="Const" version="opset1">
			<data offset="2040" size="4" shape="" element_type="f32"/>
			<output>
				<port id="0" precision="FP32"/>
			</output>
		</layer>
		<layer id="65" name="2324232819143" type="Const" version="opset1">
			<data offset="2044" size="4" shape="" element_type="f32"/>
			<output>
				<port id="0" precision="FP32"/>
			</output>
		</layer>
		<layer id="66" name="2325232920556" type="Const" version="opset1">
			<data offset="2040" size="4" shape="" element_type="f32"/>
			<output>
				<port id="0" precision="FP32"/>
			</output>
		</layer>
		<layer id="67" name="2326233020037" type="Const" version="opset1">
			<data offset="2044" size="4" shape="" element_type="f32"/>
			<output>
				<port id="0" precision="FP32"/>
			</output>
		</layer>
		<layer id="68" name="3933393720280" type="Const" version="opset1">
			<data offset="2048" size="4" shape="" element_type="f32"/>
			<output>
				<port id="0" precision="FP32"/>
			</output>
		</layer>
		<layer id="69" name="3934393820604" type="Const" version="opset1">
			<data offset="2052" size="4" shape="" element_type="f32"/>
			<output>
				<port id="0" precision="FP32"/>
			</output>
		</layer>
		<layer id="70" name="3935393920100" type="Const" version="opset1">
			<data offset="2048" size="4" shape="" element_type="f32"/>
			<output>
				<port id="0" precision="FP32"/>
			</output>
		</layer>
		<layer id="71" name="3936394018891" type="Const" version="opset1">
			<data offset="2052" size="4" shape="" element_type="f32"/>
			<output>
				<port id="0" precision="FP32"/>
			</output>
		</layer>
		<layer id="72" name="4123412720844" type="Const" version="opset1">
			<data offset="2056" size="4" shape="" element_type="f32"/>
			<output>
				<port id="0" precision="FP32"/>
			</output>
		</layer>
		<layer id="73" name="4124412819572" type="Const" version="opset1">
			<data offset="2060" size="4" shape="" element_type="f32"/>
			<output>
				<port id="0" precision="FP32"/>
			</output>
		</layer>
		<layer id="74" name="4125412920034" type="Const" version="opset1">
			<data offset="2056" size="4" shape="" element_type="f32"/>
			<output>
				<port id="0" precision="FP32"/>
			</output>
		</layer>
		<layer id="75" name="4126413019560" type="Const" version="opset1">
			<data offset="2060" size="4" shape="" element_type="f32"/>
			<output>
				<port id="0" precision="FP32"/>
			</output>
		</layer>
		<layer id="76" name="2343234720898" type="Const" version="opset1">
			<data offset="2064" size="4" shape="" element_type="f32"/>
			<output>
				<port id="0" precision="FP32"/>
			</output>
		</layer>
		<layer id="77" name="2344234820295" type="Const" version="opset1">
			<data offset="2068" size="4" shape="" element_type="f32"/>
			<output>
				<port id="0" precision="FP32"/>
			</output>
		</layer>
		<layer id="78" name="2345234919029" type="Const" version="opset1">
			<data offset="2064" size="4" shape="" element_type="f32"/>
			<output>
				<port id="0" precision="FP32"/>
			</output>
		</layer>
		<layer id="79" name="2346235019881" type="Const" version="opset1">
			<data offset="2068" size="4" shape="" element_type="f32"/>
			<output>
				<port id="0" precision="FP32"/>
			</output>
		</layer>
		<layer id="80" name="2673267720400" type="Const" version="opset1">
			<data offset="2072" size="4" shape="" element_type="f32"/>
			<output>
				<port id="0" precision="FP32"/>
			</output>
		</layer>
		<layer id="81" name="2674267820856" type="Const" version="opset1">
			<data offset="2076" size="4" shape="" element_type="f32"/>
			<output>
				<port id="0" precision="FP32"/>
			</output>
		</layer>
		<layer id="82" name="2675267920619" type="Const" version="opset1">
			<data offset="2072" size="4" shape="" element_type="f32"/>
			<output>
				<port id="0" precision="FP32"/>
			</output>
		</layer>
		<layer id="83" name="2676268019611" type="Const" version="opset1">
			<data offset="2076" size="4" shape="" element_type="f32"/>
			<output>
				<port id="0" precision="FP32"/>
			</output>
		</layer>
		<layer id="84" name="2783278719452" type="Const" version="opset1">
			<data offset="2080" size="4" shape="" element_type="f32"/>
			<output>
				<port id="0" precision="FP32"/>
			</output>
		</layer>
		<layer id="85" name="2784278820658" type="Const" version="opset1">
			<data offset="2084" size="4" shape="" element_type="f32"/>
			<output>
				<port id="0" precision="FP32"/>
			</output>
		</layer>
		<layer id="86" name="2785278919092" type="Const" version="opset1">
			<data offset="2080" size="4" shape="" element_type="f32"/>
			<output>
				<port id="0" precision="FP32"/>
			</output>
		</layer>
		<layer id="87" name="2786279020406" type="Const" version="opset1">
			<data offset="2084" size="4" shape="" element_type="f32"/>
			<output>
				<port id="0" precision="FP32"/>
			</output>
		</layer>
		<layer id="88" name="Constant_1175361719347" type="Const" version="opset1">
			<data offset="2088" size="384" shape="1,96,1,1" element_type="f32"/>
			<output>
				<port id="0" precision="FP32">
					<dim>1</dim>
					<dim>96</dim>
					<dim>1</dim>
					<dim>1</dim>
				</port>
			</output>
		</layer>
		<layer id="89" name="5850585418588" type="Const" version="opset1">
			<data offset="2472" size="4" shape="" element_type="f32"/>
			<output>
				<port id="0" precision="FP32"/>
			</output>
		</layer>
		<layer id="90" name="5851585520226" type="Const" version="opset1">
			<data offset="2476" size="4" shape="" element_type="f32"/>
			<output>
				<port id="0" precision="FP32"/>
			</output>
		</layer>
		<layer id="91" name="5852585618903" type="Const" version="opset1">
			<data offset="2472" size="4" shape="" element_type="f32"/>
			<output>
				<port id="0" precision="FP32"/>
			</output>
		</layer>
		<layer id="92" name="5853585719386" type="Const" version="opset1">
			<data offset="2476" size="4" shape="" element_type="f32"/>
			<output>
				<port id="0" precision="FP32"/>
			</output>
		</layer>
		<layer id="93" name="1528153019461" type="Const" version="opset1">
			<data offset="2480" size="192" shape="1,48,1,1" element_type="f32"/>
			<output>
				<port id="0" precision="FP32">
					<dim>1</dim>
					<dim>48</dim>
					<dim>1</dim>
					<dim>1</dim>
				</port>
			</output>
		</layer>
		<layer id="94" name="2863286720415" type="Const" version="opset1">
			<data offset="2672" size="4" shape="" element_type="f32"/>
			<output>
				<port id="0" precision="FP32"/>
			</output>
		</layer>
		<layer id="95" name="2864286819983" type="Const" version="opset1">
			<data offset="2676" size="4" shape="" element_type="f32"/>
			<output>
				<port id="0" precision="FP32"/>
			</output>
		</layer>
		<layer id="96" name="2865286918609" type="Const" version="opset1">
			<data offset="2672" size="4" shape="" element_type="f32"/>
			<output>
				<port id="0" precision="FP32"/>
			</output>
		</layer>
		<layer id="97" name="2866287020913" type="Const" version="opset1">
			<data offset="2676" size="4" shape="" element_type="f32"/>
			<output>
				<port id="0" precision="FP32"/>
			</output>
		</layer>
		<layer id="98" name="3543354719242" type="Const" version="opset1">
			<data offset="2680" size="4" shape="" element_type="f32"/>
			<output>
				<port id="0" precision="FP32"/>
			</output>
		</layer>
		<layer id="99" name="3544354819947" type="Const" version="opset1">
			<data offset="2684" size="4" shape="" element_type="f32"/>
			<output>
				<port id="0" precision="FP32"/>
			</output>
		</layer>
		<layer id="100" name="3545354920907" type="Const" version="opset1">
			<data offset="2680" size="4" shape="" element_type="f32"/>
			<output>
				<port id="0" precision="FP32"/>
			</output>
		</layer>
		<layer id="101" name="3546355019479" type="Const" version="opset1">
			<data offset="2684" size="4" shape="" element_type="f32"/>
			<output>
				<port id="0" precision="FP32"/>
			</output>
		</layer>
		<layer id="102" name="3563356719284" type="Const" version="opset1">
			<data offset="2688" size="4" shape="" element_type="f32"/>
			<output>
				<port id="0" precision="FP32"/>
			</output>
		</layer>
		<layer id="103" name="3564356819431" type="Const" version="opset1">
			<data offset="2692" size="4" shape="" element_type="f32"/>
			<output>
				<port id="0" precision="FP32"/>
			</output>
		</layer>
		<layer id="104" name="3565356920172" type="Const" version="opset1">
			<data offset="2688" size="4" shape="" element_type="f32"/>
			<output>
				<port id="0" precision="FP32"/>
			</output>
		</layer>
		<layer id="105" name="3566357018831" type="Const" version="opset1">
			<data offset="2692" size="4" shape="" element_type="f32"/>
			<output>
				<port id="0" precision="FP32"/>
			</output>
		</layer>
		<layer id="106" name="4163416718735" type="Const" version="opset1">
			<data offset="2696" size="4" shape="" element_type="f32"/>
			<output>
				<port id="0" precision="FP32"/>
			</output>
		</layer>
		<layer id="107" name="4164416819227" type="Const" version="opset1">
			<data offset="2700" size="4" shape="" element_type="f32"/>
			<output>
				<port id="0" precision="FP32"/>
			</output>
		</layer>
		<layer id="108" name="4165416919218" type="Const" version="opset1">
			<data offset="2696" size="4" shape="" element_type="f32"/>
			<output>
				<port id="0" precision="FP32"/>
			</output>
		</layer>
		<layer id="109" name="4166417020697" type="Const" version="opset1">
			<data offset="2700" size="4" shape="" element_type="f32"/>
			<output>
				<port id="0" precision="FP32"/>
			</output>
		</layer>
		<layer id="110" name="3463346719956" type="Const" version="opset1">
			<data offset="2704" size="4" shape="" element_type="f32"/>
			<output>
				<port id="0" precision="FP32"/>
			</output>
		</layer>
		<layer id="111" name="3464346820760" type="Const" version="opset1">
			<data offset="2708" size="4" shape="" element_type="f32"/>
			<output>
				<port id="0" precision="FP32"/>
			</output>
		</layer>
		<layer id="112" name="3465346920166" type="Const" version="opset1">
			<data offset="2704" size="4" shape="" element_type="f32"/>
			<output>
				<port id="0" precision="FP32"/>
			</output>
		</layer>
		<layer id="113" name="3466347019740" type="Const" version="opset1">
			<data offset="2708" size="4" shape="" element_type="f32"/>
			<output>
				<port id="0" precision="FP32"/>
			</output>
		</layer>
		<layer id="114" name="5560556418936" type="Const" version="opset1">
			<data offset="2712" size="4" shape="" element_type="f32"/>
			<output>
				<port id="0" precision="FP32"/>
			</output>
		</layer>
		<layer id="115" name="5561556519782" type="Const" version="opset1">
			<data offset="2716" size="4" shape="" element_type="f32"/>
			<output>
				<port id="0" precision="FP32"/>
			</output>
		</layer>
		<layer id="116" name="5562556618792" type="Const" version="opset1">
			<data offset="2712" size="4" shape="" element_type="f32"/>
			<output>
				<port id="0" precision="FP32"/>
			</output>
		</layer>
		<layer id="117" name="5563556718537" type="Const" version="opset1">
			<data offset="2716" size="4" shape="" element_type="f32"/>
			<output>
				<port id="0" precision="FP32"/>
			</output>
		</layer>
		<layer id="118" name="5840584419758" type="Const" version="opset1">
			<data offset="2712" size="4" shape="" element_type="f32"/>
			<output>
				<port id="0" precision="FP32"/>
			</output>
		</layer>
		<layer id="119" name="5841584520241" type="Const" version="opset1">
			<data offset="2720" size="4" shape="" element_type="f32"/>
			<output>
				<port id="0" precision="FP32"/>
			</output>
		</layer>
		<layer id="120" name="5842584620652" type="Const" version="opset1">
			<data offset="2712" size="4" shape="" element_type="f32"/>
			<output>
				<port id="0" precision="FP32"/>
			</output>
		</layer>
		<layer id="121" name="5843584720331" type="Const" version="opset1">
			<data offset="2720" size="4" shape="" element_type="f32"/>
			<output>
				<port id="0" precision="FP32"/>
			</output>
		</layer>
		<layer id="123" name="Gather_4164/fq_input_0" type="FakeQuantize" version="opset1">
			<data levels="256" auto_broadcast="numpy"/>
			<input>
				<port id="0">
					<dim>1</dim>
					<dim>3</dim>
					<dim>320</dim>
					<dim>320</dim>
				</port>
				<port id="1"/>
				<port id="2"/>
				<port id="3"/>
				<port id="4"/>
			</input>
			<output>
				<port id="5" precision="FP32">
					<dim>1</dim>
					<dim>3</dim>
					<dim>320</dim>
					<dim>320</dim>
				</port>
			</output>
		</layer>
		<layer id="124" name="Range_4162545" type="Const" version="opset1">
			<data offset="2724" size="12" shape="3" element_type="i32"/>
			<output>
				<port id="0" precision="I32">
					<dim>3</dim>
				</port>
			</output>
		</layer>
		<layer id="125" name="Constant_4163546" type="Const" version="opset1">
			<data offset="2736" size="8" shape="1" element_type="i64"/>
			<output>
				<port id="0" precision="I64">
					<dim>1</dim>
				</port>
			</output>
		</layer>
		<layer id="126" name="Gather_4164" type="Gather" version="opset8">
			<data batch_dims="0"/>
			<rt_info>
				<attribute name="preprocessing" version="0"/>
			</rt_info>
			<input>
				<port id="0">
					<dim>1</dim>
					<dim>3</dim>
					<dim>320</dim>
					<dim>320</dim>
				</port>
				<port id="1">
					<dim>3</dim>
				</port>
				<port id="2">
					<dim>1</dim>
				</port>
			</input>
			<output>
				<port id="3" precision="FP32">
					<dim>1</dim>
					<dim>3</dim>
					<dim>320</dim>
					<dim>320</dim>
				</port>
			</output>
		</layer>
		<layer id="127" name="Divide_4166/fq_weights_1/scale1389119137" type="Const" version="opset1">
			<data offset="2744" size="4" shape="1,1,1,1" element_type="f32"/>
			<output>
				<port id="0" precision="FP32">
					<dim>1</dim>
					<dim>1</dim>
					<dim>1</dim>
					<dim>1</dim>
				</port>
			</output>
		</layer>
		<layer id="128" name="Constant_1275554810455/quantized1388318945" type="Const" version="opset1">
			<data offset="2748" size="1" shape="1,1,1,1" element_type="i8"/>
			<output>
				<port id="0" precision="I8">
					<dim>1</dim>
					<dim>1</dim>
					<dim>1</dim>
					<dim>1</dim>
				</port>
			</output>
		</layer>
		<layer id="129" name="Constant_1275554810455/quantized/to_f32" type="Convert" version="opset1">
			<data destination_type="f32"/>
			<input>
				<port id="0">
					<dim>1</dim>
					<dim>1</dim>
					<dim>1</dim>
					<dim>1</dim>
				</port>
			</input>
			<output>
				<port id="1" precision="FP32">
					<dim>1</dim>
					<dim>1</dim>
					<dim>1</dim>
					<dim>1</dim>
				</port>
			</output>
		</layer>
		<layer id="130" name="Divide_4166/fq_weights_1/mulpiply_by_scale" type="Multiply" version="opset1">
			<data auto_broadcast="numpy"/>
			<input>
				<port id="0">
					<dim>1</dim>
					<dim>1</dim>
					<dim>1</dim>
					<dim>1</dim>
				</port>
				<port id="1">
					<dim>1</dim>
					<dim>1</dim>
					<dim>1</dim>
					<dim>1</dim>
				</port>
			</input>
			<output>
				<port id="2" precision="FP32">
					<dim>1</dim>
					<dim>1</dim>
					<dim>1</dim>
					<dim>1</dim>
				</port>
			</output>
		</layer>
		<layer id="131" name="Divide_4166" type="Multiply" version="opset1">
			<data auto_broadcast="numpy"/>
			<rt_info>
				<attribute name="preprocessing" version="0"/>
			</rt_info>
			<input>
				<port id="0">
					<dim>1</dim>
					<dim>3</dim>
					<dim>320</dim>
					<dim>320</dim>
				</port>
				<port id="1">
					<dim>1</dim>
					<dim>1</dim>
					<dim>1</dim>
					<dim>1</dim>
				</port>
			</input>
			<output>
				<port id="2" precision="FP32">
					<dim>1</dim>
					<dim>3</dim>
					<dim>320</dim>
					<dim>320</dim>
				</port>
			</output>
		</layer>
		<layer id="132" name="/model.0/Slice/fq_input_0" type="FakeQuantize" version="opset1">
			<data levels="256" auto_broadcast="numpy"/>
			<input>
				<port id="0">
					<dim>1</dim>
					<dim>3</dim>
					<dim>320</dim>
					<dim>320</dim>
				</port>
				<port id="1"/>
				<port id="2"/>
				<port id="3"/>
				<port id="4"/>
			</input>
			<output>
				<port id="5" precision="FP32">
					<dim>1</dim>
					<dim>3</dim>
					<dim>320</dim>
					<dim>320</dim>
				</port>
			</output>
		</layer>
		<layer id="133" name="Constant_11574558" type="Const" version="opset1">
			<data offset="2749" size="24" shape="3" element_type="i64"/>
			<output>
				<port id="0" precision="I64">
					<dim>3</dim>
				</port>
			</output>
		</layer>
		<layer id="134" name="Constant_11577559" type="Const" version="opset1">
			<data offset="2773" size="24" shape="3" element_type="i64"/>
			<output>
				<port id="0" precision="I64">
					<dim>3</dim>
				</port>
			</output>
		</layer>
		<layer id="135" name="Constant_11580560" type="Const" version="opset1">
			<data offset="2797" size="24" shape="3" element_type="i64"/>
			<output>
				<port id="0" precision="I64">
					<dim>3</dim>
				</port>
			</output>
		</layer>
		<layer id="136" name="/model.0/Slice_2" type="StridedSlice" version="opset1">
			<data begin_mask="1,1,0" end_mask="1,1,0" new_axis_mask="" shrink_axis_mask="" ellipsis_mask=""/>
			<input>
				<port id="0">
					<dim>1</dim>
					<dim>3</dim>
					<dim>320</dim>
					<dim>320</dim>
				</port>
				<port id="1">
					<dim>3</dim>
				</port>
				<port id="2">
					<dim>3</dim>
				</port>
				<port id="3">
					<dim>3</dim>
				</port>
			</input>
			<output>
				<port id="4" precision="FP32" names="/model.0/Slice_2_output_0">
					<dim>1</dim>
					<dim>3</dim>
					<dim>160</dim>
					<dim>320</dim>
				</port>
			</output>
		</layer>
		<layer id="137" name="Constant_11610570" type="Const" version="opset1">
			<data offset="2821" size="32" shape="4" element_type="i64"/>
			<output>
				<port id="0" precision="I64">
					<dim>4</dim>
				</port>
			</output>
		</layer>
		<layer id="138" name="Constant_11613571" type="Const" version="opset1">
			<data offset="2853" size="32" shape="4" element_type="i64"/>
			<output>
				<port id="0" precision="I64">
					<dim>4</dim>
				</port>
			</output>
		</layer>
		<layer id="139" name="Constant_11616572" type="Const" version="opset1">
			<data offset="2885" size="32" shape="4" element_type="i64"/>
			<output>
				<port id="0" precision="I64">
					<dim>4</dim>
				</port>
			</output>
		</layer>
		<layer id="140" name="/model.0/Slice_5" type="StridedSlice" version="opset1">
			<data begin_mask="1,1,1,0" end_mask="1,1,1,0" new_axis_mask="" shrink_axis_mask="" ellipsis_mask=""/>
			<input>
				<port id="0">
					<dim>1</dim>
					<dim>3</dim>
					<dim>160</dim>
					<dim>320</dim>
				</port>
				<port id="1">
					<dim>4</dim>
				</port>
				<port id="2">
					<dim>4</dim>
				</port>
				<port id="3">
					<dim>4</dim>
				</port>
			</input>
			<output>
				<port id="4" precision="FP32" names="/model.0/Slice_5_output_0">
					<dim>1</dim>
					<dim>3</dim>
					<dim>160</dim>
					<dim>160</dim>
				</port>
			</output>
		</layer>
		<layer id="141" name="Constant_11550550" type="Const" version="opset1">
			<data offset="2917" size="24" shape="3" element_type="i64"/>
			<output>
				<port id="0" precision="I64">
					<dim>3</dim>
				</port>
			</output>
		</layer>
		<layer id="142" name="Constant_11553551" type="Const" version="opset1">
			<data offset="2773" size="24" shape="3" element_type="i64"/>
			<output>
				<port id="0" precision="I64">
					<dim>3</dim>
				</port>
			</output>
		</layer>
		<layer id="143" name="Constant_11556552" type="Const" version="opset1">
			<data offset="2797" size="24" shape="3" element_type="i64"/>
			<output>
				<port id="0" precision="I64">
					<dim>3</dim>
				</port>
			</output>
		</layer>
		<layer id="144" name="/model.0/Slice" type="StridedSlice" version="opset1">
			<data begin_mask="1,1,0" end_mask="1,1,0" new_axis_mask="" shrink_axis_mask="" ellipsis_mask=""/>
			<input>
				<port id="0">
					<dim>1</dim>
					<dim>3</dim>
					<dim>320</dim>
					<dim>320</dim>
				</port>
				<port id="1">
					<dim>3</dim>
				</port>
				<port id="2">
					<dim>3</dim>
				</port>
				<port id="3">
					<dim>3</dim>
				</port>
			</input>
			<output>
				<port id="4" precision="FP32" names="/model.0/Slice_output_0">
					<dim>1</dim>
					<dim>3</dim>
					<dim>160</dim>
					<dim>320</dim>
				</port>
			</output>
		</layer>
		<layer id="145" name="Constant_11598566" type="Const" version="opset1">
			<data offset="2821" size="32" shape="4" element_type="i64"/>
			<output>
				<port id="0" precision="I64">
					<dim>4</dim>
				</port>
			</output>
		</layer>
		<layer id="146" name="Constant_11601567" type="Const" version="opset1">
			<data offset="2853" size="32" shape="4" element_type="i64"/>
			<output>
				<port id="0" precision="I64">
					<dim>4</dim>
				</port>
			</output>
		</layer>
		<layer id="147" name="Constant_11604568" type="Const" version="opset1">
			<data offset="2885" size="32" shape="4" element_type="i64"/>
			<output>
				<port id="0" precision="I64">
					<dim>4</dim>
				</port>
			</output>
		</layer>
		<layer id="148" name="/model.0/Slice_4" type="StridedSlice" version="opset1">
			<data begin_mask="1,1,1,0" end_mask="1,1,1,0" new_axis_mask="" shrink_axis_mask="" ellipsis_mask=""/>
			<input>
				<port id="0">
					<dim>1</dim>
					<dim>3</dim>
					<dim>160</dim>
					<dim>320</dim>
				</port>
				<port id="1">
					<dim>4</dim>
				</port>
				<port id="2">
					<dim>4</dim>
				</port>
				<port id="3">
					<dim>4</dim>
				</port>
			</input>
			<output>
				<port id="4" precision="FP32" names="/model.0/Slice_4_output_0">
					<dim>1</dim>
					<dim>3</dim>
					<dim>160</dim>
					<dim>160</dim>
				</port>
			</output>
		</layer>
		<layer id="149" name="Constant_11586562" type="Const" version="opset1">
			<data offset="2941" size="32" shape="4" element_type="i64"/>
			<output>
				<port id="0" precision="I64">
					<dim>4</dim>
				</port>
			</output>
		</layer>
		<layer id="150" name="Constant_11589563" type="Const" version="opset1">
			<data offset="2853" size="32" shape="4" element_type="i64"/>
			<output>
				<port id="0" precision="I64">
					<dim>4</dim>
				</port>
			</output>
		</layer>
		<layer id="151" name="Constant_11592564" type="Const" version="opset1">
			<data offset="2885" size="32" shape="4" element_type="i64"/>
			<output>
				<port id="0" precision="I64">
					<dim>4</dim>
				</port>
			</output>
		</layer>
		<layer id="152" name="/model.0/Slice_3" type="StridedSlice" version="opset1">
			<data begin_mask="1,1,1,0" end_mask="1,1,1,0" new_axis_mask="" shrink_axis_mask="" ellipsis_mask=""/>
			<input>
				<port id="0">
					<dim>1</dim>
					<dim>3</dim>
					<dim>160</dim>
					<dim>320</dim>
				</port>
				<port id="1">
					<dim>4</dim>
				</port>
				<port id="2">
					<dim>4</dim>
				</port>
				<port id="3">
					<dim>4</dim>
				</port>
			</input>
			<output>
				<port id="4" precision="FP32" names="/model.0/Slice_3_output_0">
					<dim>1</dim>
					<dim>3</dim>
					<dim>160</dim>
					<dim>160</dim>
				</port>
			</output>
		</layer>
		<layer id="153" name="Constant_11562554" type="Const" version="opset1">
			<data offset="2941" size="32" shape="4" element_type="i64"/>
			<output>
				<port id="0" precision="I64">
					<dim>4</dim>
				</port>
			</output>
		</layer>
		<layer id="154" name="Constant_11565555" type="Const" version="opset1">
			<data offset="2853" size="32" shape="4" element_type="i64"/>
			<output>
				<port id="0" precision="I64">
					<dim>4</dim>
				</port>
			</output>
		</layer>
		<layer id="155" name="Constant_11568556" type="Const" version="opset1">
			<data offset="2885" size="32" shape="4" element_type="i64"/>
			<output>
				<port id="0" precision="I64">
					<dim>4</dim>
				</port>
			</output>
		</layer>
		<layer id="156" name="/model.0/Slice_1" type="StridedSlice" version="opset1">
			<data begin_mask="1,1,1,0" end_mask="1,1,1,0" new_axis_mask="" shrink_axis_mask="" ellipsis_mask=""/>
			<input>
				<port id="0">
					<dim>1</dim>
					<dim>3</dim>
					<dim>160</dim>
					<dim>320</dim>
				</port>
				<port id="1">
					<dim>4</dim>
				</port>
				<port id="2">
					<dim>4</dim>
				</port>
				<port id="3">
					<dim>4</dim>
				</port>
			</input>
			<output>
				<port id="4" precision="FP32" names="/model.0/Slice_1_output_0">
					<dim>1</dim>
					<dim>3</dim>
					<dim>160</dim>
					<dim>160</dim>
				</port>
			</output>
		</layer>
		<layer id="157" name="/model.0/Concat" type="Concat" version="opset1">
			<data axis="1"/>
			<input>
				<port id="0">
					<dim>1</dim>
					<dim>3</dim>
					<dim>160</dim>
					<dim>160</dim>
				</port>
				<port id="1">
					<dim>1</dim>
					<dim>3</dim>
					<dim>160</dim>
					<dim>160</dim>
				</port>
				<port id="2">
					<dim>1</dim>
					<dim>3</dim>
					<dim>160</dim>
					<dim>160</dim>
				</port>
				<port id="3">
					<dim>1</dim>
					<dim>3</dim>
					<dim>160</dim>
					<dim>160</dim>
				</port>
			</input>
			<output>
				<port id="4" precision="FP32" names="/model.0/Concat_output_0">
					<dim>1</dim>
					<dim>12</dim>
					<dim>160</dim>
					<dim>160</dim>
				</port>
			</output>
		</layer>
		<layer id="158" name="/model.0/conv/conv/Conv/WithoutBiases/fq_weights_1/scale1218120499" type="Const" version="opset1">
			<data offset="2973" size="192" shape="48,1,1,1" element_type="f32"/>
			<output>
				<port id="0" precision="FP32">
					<dim>48</dim>
					<dim>1</dim>
					<dim>1</dim>
					<dim>1</dim>
				</port>
			</output>
		</layer>
		<layer id="159" name="model.0.conv.conv.weight57510474/quantized1217319923" type="Const" version="opset1">
			<data offset="3165" size="5184" shape="48,12,3,3" element_type="i8"/>
			<output>
				<port id="0" precision="I8">
					<dim>48</dim>
					<dim>12</dim>
					<dim>3</dim>
					<dim>3</dim>
				</port>
			</output>
		</layer>
		<layer id="160" name="model.0.conv.conv.weight57510474/quantized/to_f32" type="Convert" version="opset1">
			<data destination_type="f32"/>
			<input>
				<port id="0">
					<dim>48</dim>
					<dim>12</dim>
					<dim>3</dim>
					<dim>3</dim>
				</port>
			</input>
			<output>
				<port id="1" precision="FP32">
					<dim>48</dim>
					<dim>12</dim>
					<dim>3</dim>
					<dim>3</dim>
				</port>
			</output>
		</layer>
		<layer id="161" name="/model.0/conv/conv/Conv/WithoutBiases/fq_weights_1/mulpiply_by_scale" type="Multiply" version="opset1">
			<data auto_broadcast="numpy"/>
			<input>
				<port id="0">
					<dim>48</dim>
					<dim>12</dim>
					<dim>3</dim>
					<dim>3</dim>
				</port>
				<port id="1">
					<dim>48</dim>
					<dim>1</dim>
					<dim>1</dim>
					<dim>1</dim>
				</port>
			</input>
			<output>
				<port id="2" precision="FP32">
					<dim>48</dim>
					<dim>12</dim>
					<dim>3</dim>
					<dim>3</dim>
				</port>
			</output>
		</layer>
		<layer id="162" name="/model.0/conv/conv/Conv/WithoutBiases" type="Convolution" version="opset1">
			<data auto_pad="explicit" strides="1,1" dilations="1,1" pads_begin="1,1" pads_end="1,1"/>
			<input>
				<port id="0">
					<dim>1</dim>
					<dim>12</dim>
					<dim>160</dim>
					<dim>160</dim>
				</port>
				<port id="1">
					<dim>48</dim>
					<dim>12</dim>
					<dim>3</dim>
					<dim>3</dim>
				</port>
			</input>
			<output>
				<port id="2" precision="FP32">
					<dim>1</dim>
					<dim>48</dim>
					<dim>160</dim>
					<dim>160</dim>
				</port>
			</output>
		</layer>
		<layer id="163" name="Reshape_25657720310" type="Const" version="opset1">
			<data offset="8349" size="192" shape="1,48,1,1" element_type="f32"/>
			<output>
				<port id="0" precision="FP32">
					<dim>1</dim>
					<dim>48</dim>
					<dim>1</dim>
					<dim>1</dim>
				</port>
			</output>
		</layer>
		<layer id="164" name="/model.0/conv/conv/Conv" type="Add" version="opset1">
			<data auto_broadcast="numpy"/>
			<input>
				<port id="0">
					<dim>1</dim>
					<dim>48</dim>
					<dim>160</dim>
					<dim>160</dim>
				</port>
				<port id="1">
					<dim>1</dim>
					<dim>48</dim>
					<dim>1</dim>
					<dim>1</dim>
				</port>
			</input>
			<output>
				<port id="2" precision="FP32" names="/model.0/conv/conv/Conv_output_0">
					<dim>1</dim>
					<dim>48</dim>
					<dim>160</dim>
					<dim>160</dim>
				</port>
			</output>
		</layer>
		<layer id="165" name="/model.0/conv/act/HardSwish" type="HSwish" version="opset4">
			<input>
				<port id="0">
					<dim>1</dim>
					<dim>48</dim>
					<dim>160</dim>
					<dim>160</dim>
				</port>
			</input>
			<output>
				<port id="1" precision="FP32" names="/model.0/conv/act/HardSwish_output_0">
					<dim>1</dim>
					<dim>48</dim>
					<dim>160</dim>
					<dim>160</dim>
				</port>
			</output>
		</layer>
		<layer id="166" name="/model.1/conv/Conv/WithoutBiases/fq_input_0" type="FakeQuantize" version="opset1">
			<data levels="256" auto_broadcast="numpy"/>
			<input>
				<port id="0">
					<dim>1</dim>
					<dim>48</dim>
					<dim>160</dim>
					<dim>160</dim>
				</port>
				<port id="1"/>
				<port id="2"/>
				<port id="3"/>
				<port id="4"/>
			</input>
			<output>
				<port id="5" precision="FP32">
					<dim>1</dim>
					<dim>48</dim>
					<dim>160</dim>
					<dim>160</dim>
				</port>
			</output>
		</layer>
		<layer id="167" name="/model.1/conv/Conv/WithoutBiases/fq_weights_1/scale1431119110" type="Const" version="opset1">
			<data offset="8541" size="384" shape="96,1,1,1" element_type="f32"/>
			<output>
				<port id="0" precision="FP32">
					<dim>96</dim>
					<dim>1</dim>
					<dim>1</dim>
					<dim>1</dim>
				</port>
			</output>
		</layer>
		<layer id="168" name="model.1.conv.weight58010476/quantized1430319197" type="Const" version="opset1">
			<data offset="8925" size="41472" shape="96,48,3,3" element_type="i8"/>
			<output>
				<port id="0" precision="I8">
					<dim>96</dim>
					<dim>48</dim>
					<dim>3</dim>
					<dim>3</dim>
				</port>
			</output>
		</layer>
		<layer id="169" name="model.1.conv.weight58010476/quantized/to_f32" type="Convert" version="opset1">
			<data destination_type="f32"/>
			<input>
				<port id="0">
					<dim>96</dim>
					<dim>48</dim>
					<dim>3</dim>
					<dim>3</dim>
				</port>
			</input>
			<output>
				<port id="1" precision="FP32">
					<dim>96</dim>
					<dim>48</dim>
					<dim>3</dim>
					<dim>3</dim>
				</port>
			</output>
		</layer>
		<layer id="170" name="/model.1/conv/Conv/WithoutBiases/fq_weights_1/mulpiply_by_scale" type="Multiply" version="opset1">
			<data auto_broadcast="numpy"/>
			<input>
				<port id="0">
					<dim>96</dim>
					<dim>48</dim>
					<dim>3</dim>
					<dim>3</dim>
				</port>
				<port id="1">
					<dim>96</dim>
					<dim>1</dim>
					<dim>1</dim>
					<dim>1</dim>
				</port>
			</input>
			<output>
				<port id="2" precision="FP32">
					<dim>96</dim>
					<dim>48</dim>
					<dim>3</dim>
					<dim>3</dim>
				</port>
			</output>
		</layer>
		<layer id="171" name="/model.1/conv/Conv/WithoutBiases" type="Convolution" version="opset1">
			<data auto_pad="explicit" strides="2,2" dilations="1,1" pads_begin="1,1" pads_end="1,1"/>
			<input>
				<port id="0">
					<dim>1</dim>
					<dim>48</dim>
					<dim>160</dim>
					<dim>160</dim>
				</port>
				<port id="1">
					<dim>96</dim>
					<dim>48</dim>
					<dim>3</dim>
					<dim>3</dim>
				</port>
			</input>
			<output>
				<port id="2" precision="FP32">
					<dim>1</dim>
					<dim>96</dim>
					<dim>80</dim>
					<dim>80</dim>
				</port>
			</output>
		</layer>
		<layer id="172" name="Reshape_30558220649" type="Const" version="opset1">
			<data offset="50397" size="384" shape="1,96,1,1" element_type="f32"/>
			<output>
				<port id="0" precision="FP32">
					<dim>1</dim>
					<dim>96</dim>
					<dim>1</dim>
					<dim>1</dim>
				</port>
			</output>
		</layer>
		<layer id="173" name="/model.1/conv/Conv" type="Add" version="opset1">
			<data auto_broadcast="numpy"/>
			<input>
				<port id="0">
					<dim>1</dim>
					<dim>96</dim>
					<dim>80</dim>
					<dim>80</dim>
				</port>
				<port id="1">
					<dim>1</dim>
					<dim>96</dim>
					<dim>1</dim>
					<dim>1</dim>
				</port>
			</input>
			<output>
				<port id="2" precision="FP32" names="/model.1/conv/Conv_output_0">
					<dim>1</dim>
					<dim>96</dim>
					<dim>80</dim>
					<dim>80</dim>
				</port>
			</output>
		</layer>
		<layer id="174" name="/model.1/act/HardSwish" type="HSwish" version="opset4">
			<input>
				<port id="0">
					<dim>1</dim>
					<dim>96</dim>
					<dim>80</dim>
					<dim>80</dim>
				</port>
			</input>
			<output>
				<port id="1" precision="FP32" names="/model.1/act/HardSwish_output_0">
					<dim>1</dim>
					<dim>96</dim>
					<dim>80</dim>
					<dim>80</dim>
				</port>
			</output>
		</layer>
		<layer id="175" name="/model.2/cv1/conv/Conv/WithoutBiases/fq_input_0" type="FakeQuantize" version="opset1">
			<data levels="256" auto_broadcast="numpy"/>
			<input>
				<port id="0">
					<dim>1</dim>
					<dim>96</dim>
					<dim>80</dim>
					<dim>80</dim>
				</port>
				<port id="1"/>
				<port id="2"/>
				<port id="3"/>
				<port id="4"/>
			</input>
			<output>
				<port id="5" precision="FP32">
					<dim>1</dim>
					<dim>96</dim>
					<dim>80</dim>
					<dim>80</dim>
				</port>
			</output>
		</layer>
		<layer id="176" name="/model.2/cv1/conv/Conv/WithoutBiases/fq_weights_1/scale1278120457" type="Const" version="opset1">
			<data offset="50781" size="192" shape="48,1,1,1" element_type="f32"/>
			<output>
				<port id="0" precision="FP32">
					<dim>48</dim>
					<dim>1</dim>
					<dim>1</dim>
					<dim>1</dim>
				</port>
			</output>
		</layer>
		<layer id="177" name="model.2.cv1.conv.weight58510478/quantized1277318822" type="Const" version="opset1">
			<data offset="50973" size="4608" shape="48,96,1,1" element_type="i8"/>
			<output>
				<port id="0" precision="I8">
					<dim>48</dim>
					<dim>96</dim>
					<dim>1</dim>
					<dim>1</dim>
				</port>
			</output>
		</layer>
		<layer id="178" name="model.2.cv1.conv.weight58510478/quantized/to_f32" type="Convert" version="opset1">
			<data destination_type="f32"/>
			<input>
				<port id="0">
					<dim>48</dim>
					<dim>96</dim>
					<dim>1</dim>
					<dim>1</dim>
				</port>
			</input>
			<output>
				<port id="1" precision="FP32">
					<dim>48</dim>
					<dim>96</dim>
					<dim>1</dim>
					<dim>1</dim>
				</port>
			</output>
		</layer>
		<layer id="179" name="/model.2/cv1/conv/Conv/WithoutBiases/fq_weights_1/mulpiply_by_scale" type="Multiply" version="opset1">
			<data auto_broadcast="numpy"/>
			<input>
				<port id="0">
					<dim>48</dim>
					<dim>96</dim>
					<dim>1</dim>
					<dim>1</dim>
				</port>
				<port id="1">
					<dim>48</dim>
					<dim>1</dim>
					<dim>1</dim>
					<dim>1</dim>
				</port>
			</input>
			<output>
				<port id="2" precision="FP32">
					<dim>48</dim>
					<dim>96</dim>
					<dim>1</dim>
					<dim>1</dim>
				</port>
			</output>
		</layer>
		<layer id="180" name="/model.2/cv1/conv/Conv/WithoutBiases" type="Convolution" version="opset1">
			<data auto_pad="explicit" strides="1,1" dilations="1,1" pads_begin="0,0" pads_end="0,0"/>
			<input>
				<port id="0">
					<dim>1</dim>
					<dim>96</dim>
					<dim>80</dim>
					<dim>80</dim>
				</port>
				<port id="1">
					<dim>48</dim>
					<dim>96</dim>
					<dim>1</dim>
					<dim>1</dim>
				</port>
			</input>
			<output>
				<port id="2" precision="FP32">
					<dim>1</dim>
					<dim>48</dim>
					<dim>80</dim>
					<dim>80</dim>
				</port>
			</output>
		</layer>
		<layer id="181" name="Reshape_35458720478" type="Const" version="opset1">
			<data offset="55581" size="192" shape="1,48,1,1" element_type="f32"/>
			<output>
				<port id="0" precision="FP32">
					<dim>1</dim>
					<dim>48</dim>
					<dim>1</dim>
					<dim>1</dim>
				</port>
			</output>
		</layer>
		<layer id="182" name="/model.2/cv1/conv/Conv" type="Add" version="opset1">
			<data auto_broadcast="numpy"/>
			<input>
				<port id="0">
					<dim>1</dim>
					<dim>48</dim>
					<dim>80</dim>
					<dim>80</dim>
				</port>
				<port id="1">
					<dim>1</dim>
					<dim>48</dim>
					<dim>1</dim>
					<dim>1</dim>
				</port>
			</input>
			<output>
				<port id="2" precision="FP32" names="/model.2/cv1/conv/Conv_output_0">
					<dim>1</dim>
					<dim>48</dim>
					<dim>80</dim>
					<dim>80</dim>
				</port>
			</output>
		</layer>
		<layer id="183" name="/model.2/cv1/act/HardSwish" type="HSwish" version="opset4">
			<input>
				<port id="0">
					<dim>1</dim>
					<dim>48</dim>
					<dim>80</dim>
					<dim>80</dim>
				</port>
			</input>
			<output>
				<port id="1" precision="FP32" names="/model.2/cv1/act/HardSwish_output_0">
					<dim>1</dim>
					<dim>48</dim>
					<dim>80</dim>
					<dim>80</dim>
				</port>
			</output>
		</layer>
		<layer id="184" name="/model.2/m/m.0/Add/fq_input_0" type="FakeQuantize" version="opset1">
			<data levels="256" auto_broadcast="numpy"/>
			<input>
				<port id="0">
					<dim>1</dim>
					<dim>48</dim>
					<dim>80</dim>
					<dim>80</dim>
				</port>
				<port id="1"/>
				<port id="2"/>
				<port id="3"/>
				<port id="4"/>
			</input>
			<output>
				<port id="5" precision="FP32">
					<dim>1</dim>
					<dim>48</dim>
					<dim>80</dim>
					<dim>80</dim>
				</port>
			</output>
		</layer>
		<layer id="185" name="3573357720829" type="Const" version="opset1">
			<data offset="55773" size="4" shape="" element_type="f32"/>
			<output>
				<port id="0" precision="FP32"/>
			</output>
		</layer>
		<layer id="186" name="3574357820424" type="Const" version="opset1">
			<data offset="55777" size="4" shape="" element_type="f32"/>
			<output>
				<port id="0" precision="FP32"/>
			</output>
		</layer>
		<layer id="187" name="3575357918558" type="Const" version="opset1">
			<data offset="55773" size="4" shape="" element_type="f32"/>
			<output>
				<port id="0" precision="FP32"/>
			</output>
		</layer>
		<layer id="188" name="3576358019329" type="Const" version="opset1">
			<data offset="55777" size="4" shape="" element_type="f32"/>
			<output>
				<port id="0" precision="FP32"/>
			</output>
		</layer>
		<layer id="189" name="2063206720250" type="Const" version="opset1">
			<data offset="55781" size="4" shape="" element_type="f32"/>
			<output>
				<port id="0" precision="FP32"/>
			</output>
		</layer>
		<layer id="190" name="2064206819338" type="Const" version="opset1">
			<data offset="55785" size="4" shape="" element_type="f32"/>
			<output>
				<port id="0" precision="FP32"/>
			</output>
		</layer>
		<layer id="191" name="2065206919065" type="Const" version="opset1">
			<data offset="55781" size="4" shape="" element_type="f32"/>
			<output>
				<port id="0" precision="FP32"/>
			</output>
		</layer>
		<layer id="192" name="2066207019410" type="Const" version="opset1">
			<data offset="55785" size="4" shape="" element_type="f32"/>
			<output>
				<port id="0" precision="FP32"/>
			</output>
		</layer>
		<layer id="193" name="/model.2/m/m.0/cv1/conv/Conv/WithoutBiases/fq_weights_1/scale1362119035" type="Const" version="opset1">
			<data offset="55789" size="192" shape="48,1,1,1" element_type="f32"/>
			<output>
				<port id="0" precision="FP32">
					<dim>48</dim>
					<dim>1</dim>
					<dim>1</dim>
					<dim>1</dim>
				</port>
			</output>
		</layer>
		<layer id="194" name="model.2.m.0.cv1.conv.weight59010480/quantized1361320877" type="Const" version="opset1">
			<data offset="55981" size="2304" shape="48,48,1,1" element_type="i8"/>
			<output>
				<port id="0" precision="I8">
					<dim>48</dim>
					<dim>48</dim>
					<dim>1</dim>
					<dim>1</dim>
				</port>
			</output>
		</layer>
		<layer id="195" name="model.2.m.0.cv1.conv.weight59010480/quantized/to_f32" type="Convert" version="opset1">
			<data destination_type="f32"/>
			<input>
				<port id="0">
					<dim>48</dim>
					<dim>48</dim>
					<dim>1</dim>
					<dim>1</dim>
				</port>
			</input>
			<output>
				<port id="1" precision="FP32">
					<dim>48</dim>
					<dim>48</dim>
					<dim>1</dim>
					<dim>1</dim>
				</port>
			</output>
		</layer>
		<layer id="196" name="/model.2/m/m.0/cv1/conv/Conv/WithoutBiases/fq_weights_1/mulpiply_by_scale" type="Multiply" version="opset1">
			<data auto_broadcast="numpy"/>
			<input>
				<port id="0">
					<dim>48</dim>
					<dim>48</dim>
					<dim>1</dim>
					<dim>1</dim>
				</port>
				<port id="1">
					<dim>48</dim>
					<dim>1</dim>
					<dim>1</dim>
					<dim>1</dim>
				</port>
			</input>
			<output>
				<port id="2" precision="FP32">
					<dim>48</dim>
					<dim>48</dim>
					<dim>1</dim>
					<dim>1</dim>
				</port>
			</output>
		</layer>
		<layer id="197" name="/model.2/m/m.0/cv1/conv/Conv/WithoutBiases" type="Convolution" version="opset1">
			<data auto_pad="explicit" strides="1,1" dilations="1,1" pads_begin="0,0" pads_end="0,0"/>
			<input>
				<port id="0">
					<dim>1</dim>
					<dim>48</dim>
					<dim>80</dim>
					<dim>80</dim>
				</port>
				<port id="1">
					<dim>48</dim>
					<dim>48</dim>
					<dim>1</dim>
					<dim>1</dim>
				</port>
			</input>
			<output>
				<port id="2" precision="FP32">
					<dim>1</dim>
					<dim>48</dim>
					<dim>80</dim>
					<dim>80</dim>
				</port>
			</output>
		</layer>
		<layer id="198" name="Reshape_40359220817" type="Const" version="opset1">
			<data offset="58285" size="192" shape="1,48,1,1" element_type="f32"/>
			<output>
				<port id="0" precision="FP32">
					<dim>1</dim>
					<dim>48</dim>
					<dim>1</dim>
					<dim>1</dim>
				</port>
			</output>
		</layer>
		<layer id="199" name="/model.2/m/m.0/cv1/conv/Conv" type="Add" version="opset1">
			<data auto_broadcast="numpy"/>
			<input>
				<port id="0">
					<dim>1</dim>
					<dim>48</dim>
					<dim>80</dim>
					<dim>80</dim>
				</port>
				<port id="1">
					<dim>1</dim>
					<dim>48</dim>
					<dim>1</dim>
					<dim>1</dim>
				</port>
			</input>
			<output>
				<port id="2" precision="FP32" names="/model.2/m/m.0/cv1/conv/Conv_output_0">
					<dim>1</dim>
					<dim>48</dim>
					<dim>80</dim>
					<dim>80</dim>
				</port>
			</output>
		</layer>
		<layer id="200" name="/model.2/m/m.0/cv1/act/HardSwish" type="HSwish" version="opset4">
			<input>
				<port id="0">
					<dim>1</dim>
					<dim>48</dim>
					<dim>80</dim>
					<dim>80</dim>
				</port>
			</input>
			<output>
				<port id="1" precision="FP32" names="/model.2/m/m.0/cv1/act/HardSwish_output_0">
					<dim>1</dim>
					<dim>48</dim>
					<dim>80</dim>
					<dim>80</dim>
				</port>
			</output>
		</layer>
		<layer id="201" name="/model.2/m/m.0/cv2/conv/Conv/WithoutBiases/fq_input_0" type="FakeQuantize" version="opset1">
			<data levels="256" auto_broadcast="numpy"/>
			<input>
				<port id="0">
					<dim>1</dim>
					<dim>48</dim>
					<dim>80</dim>
					<dim>80</dim>
				</port>
				<port id="1"/>
				<port id="2"/>
				<port id="3"/>
				<port id="4"/>
			</input>
			<output>
				<port id="5" precision="FP32">
					<dim>1</dim>
					<dim>48</dim>
					<dim>80</dim>
					<dim>80</dim>
				</port>
			</output>
		</layer>
		<layer id="202" name="/model.2/m/m.0/cv2/conv/Conv/WithoutBiases/fq_weights_1/scale1434120895" type="Const" version="opset1">
			<data offset="58477" size="192" shape="48,1,1,1" element_type="f32"/>
			<output>
				<port id="0" precision="FP32">
					<dim>48</dim>
					<dim>1</dim>
					<dim>1</dim>
					<dim>1</dim>
				</port>
			</output>
		</layer>
		<layer id="203" name="model.2.m.0.cv2.conv.weight59510482/quantized1433320823" type="Const" version="opset1">
			<data offset="58669" size="20736" shape="48,48,3,3" element_type="i8"/>
			<output>
				<port id="0" precision="I8">
					<dim>48</dim>
					<dim>48</dim>
					<dim>3</dim>
					<dim>3</dim>
				</port>
			</output>
		</layer>
		<layer id="204" name="model.2.m.0.cv2.conv.weight59510482/quantized/to_f32" type="Convert" version="opset1">
			<data destination_type="f32"/>
			<input>
				<port id="0">
					<dim>48</dim>
					<dim>48</dim>
					<dim>3</dim>
					<dim>3</dim>
				</port>
			</input>
			<output>
				<port id="1" precision="FP32">
					<dim>48</dim>
					<dim>48</dim>
					<dim>3</dim>
					<dim>3</dim>
				</port>
			</output>
		</layer>
		<layer id="205" name="/model.2/m/m.0/cv2/conv/Conv/WithoutBiases/fq_weights_1/mulpiply_by_scale" type="Multiply" version="opset1">
			<data auto_broadcast="numpy"/>
			<input>
				<port id="0">
					<dim>48</dim>
					<dim>48</dim>
					<dim>3</dim>
					<dim>3</dim>
				</port>
				<port id="1">
					<dim>48</dim>
					<dim>1</dim>
					<dim>1</dim>
					<dim>1</dim>
				</port>
			</input>
			<output>
				<port id="2" precision="FP32">
					<dim>48</dim>
					<dim>48</dim>
					<dim>3</dim>
					<dim>3</dim>
				</port>
			</output>
		</layer>
		<layer id="206" name="/model.2/m/m.0/cv2/conv/Conv/WithoutBiases" type="Convolution" version="opset1">
			<data auto_pad="explicit" strides="1,1" dilations="1,1" pads_begin="1,1" pads_end="1,1"/>
			<input>
				<port id="0">
					<dim>1</dim>
					<dim>48</dim>
					<dim>80</dim>
					<dim>80</dim>
				</port>
				<port id="1">
					<dim>48</dim>
					<dim>48</dim>
					<dim>3</dim>
					<dim>3</dim>
				</port>
			</input>
			<output>
				<port id="2" precision="FP32">
					<dim>1</dim>
					<dim>48</dim>
					<dim>80</dim>
					<dim>80</dim>
				</port>
			</output>
		</layer>
		<layer id="207" name="Reshape_45259720814" type="Const" version="opset1">
			<data offset="79405" size="192" shape="1,48,1,1" element_type="f32"/>
			<output>
				<port id="0" precision="FP32">
					<dim>1</dim>
					<dim>48</dim>
					<dim>1</dim>
					<dim>1</dim>
				</port>
			</output>
		</layer>
		<layer id="208" name="/model.2/m/m.0/cv2/conv/Conv" type="Add" version="opset1">
			<data auto_broadcast="numpy"/>
			<input>
				<port id="0">
					<dim>1</dim>
					<dim>48</dim>
					<dim>80</dim>
					<dim>80</dim>
				</port>
				<port id="1">
					<dim>1</dim>
					<dim>48</dim>
					<dim>1</dim>
					<dim>1</dim>
				</port>
			</input>
			<output>
				<port id="2" precision="FP32" names="/model.2/m/m.0/cv2/conv/Conv_output_0">
					<dim>1</dim>
					<dim>48</dim>
					<dim>80</dim>
					<dim>80</dim>
				</port>
			</output>
		</layer>
		<layer id="209" name="/model.2/m/m.0/cv2/act/HardSwish" type="HSwish" version="opset4">
			<input>
				<port id="0">
					<dim>1</dim>
					<dim>48</dim>
					<dim>80</dim>
					<dim>80</dim>
				</port>
			</input>
			<output>
				<port id="1" precision="FP32" names="/model.2/m/m.0/cv2/act/HardSwish_output_0">
					<dim>1</dim>
					<dim>48</dim>
					<dim>80</dim>
					<dim>80</dim>
				</port>
			</output>
		</layer>
		<layer id="210" name="/model.2/m/m.0/Add/fq_input_1" type="FakeQuantize" version="opset1">
			<data levels="256" auto_broadcast="numpy"/>
			<input>
				<port id="0">
					<dim>1</dim>
					<dim>48</dim>
					<dim>80</dim>
					<dim>80</dim>
				</port>
				<port id="1"/>
				<port id="2"/>
				<port id="3"/>
				<port id="4"/>
			</input>
			<output>
				<port id="5" precision="FP32">
					<dim>1</dim>
					<dim>48</dim>
					<dim>80</dim>
					<dim>80</dim>
				</port>
			</output>
		</layer>
		<layer id="211" name="/model.2/m/m.0/Add" type="Add" version="opset1">
			<data auto_broadcast="numpy"/>
			<input>
				<port id="0">
					<dim>1</dim>
					<dim>48</dim>
					<dim>80</dim>
					<dim>80</dim>
				</port>
				<port id="1">
					<dim>1</dim>
					<dim>48</dim>
					<dim>80</dim>
					<dim>80</dim>
				</port>
			</input>
			<output>
				<port id="2" precision="FP32" names="/model.2/m/m.0/Add_output_0">
					<dim>1</dim>
					<dim>48</dim>
					<dim>80</dim>
					<dim>80</dim>
				</port>
			</output>
		</layer>
		<layer id="212" name="/model.2/m/m.1/Add/fq_input_0" type="FakeQuantize" version="opset1">
			<data levels="256" auto_broadcast="numpy"/>
			<input>
				<port id="0">
					<dim>1</dim>
					<dim>48</dim>
					<dim>80</dim>
					<dim>80</dim>
				</port>
				<port id="1"/>
				<port id="2"/>
				<port id="3"/>
				<port id="4"/>
			</input>
			<output>
				<port id="5" precision="FP32">
					<dim>1</dim>
					<dim>48</dim>
					<dim>80</dim>
					<dim>80</dim>
				</port>
			</output>
		</layer>
		<layer id="213" name="3553355718612" type="Const" version="opset1">
			<data offset="79597" size="4" shape="" element_type="f32"/>
			<output>
				<port id="0" precision="FP32"/>
			</output>
		</layer>
		<layer id="214" name="3554355820025" type="Const" version="opset1">
			<data offset="79601" size="4" shape="" element_type="f32"/>
			<output>
				<port id="0" precision="FP32"/>
			</output>
		</layer>
		<layer id="215" name="3555355920778" type="Const" version="opset1">
			<data offset="79597" size="4" shape="" element_type="f32"/>
			<output>
				<port id="0" precision="FP32"/>
			</output>
		</layer>
		<layer id="216" name="3556356019053" type="Const" version="opset1">
			<data offset="79601" size="4" shape="" element_type="f32"/>
			<output>
				<port id="0" precision="FP32"/>
			</output>
		</layer>
		<layer id="217" name="3443344718876" type="Const" version="opset1">
			<data offset="79605" size="4" shape="" element_type="f32"/>
			<output>
				<port id="0" precision="FP32"/>
			</output>
		</layer>
		<layer id="218" name="3444344818684" type="Const" version="opset1">
			<data offset="79609" size="4" shape="" element_type="f32"/>
			<output>
				<port id="0" precision="FP32"/>
			</output>
		</layer>
		<layer id="219" name="3445344920472" type="Const" version="opset1">
			<data offset="79605" size="4" shape="" element_type="f32"/>
			<output>
				<port id="0" precision="FP32"/>
			</output>
		</layer>
		<layer id="220" name="3446345018582" type="Const" version="opset1">
			<data offset="79609" size="4" shape="" element_type="f32"/>
			<output>
				<port id="0" precision="FP32"/>
			</output>
		</layer>
		<layer id="221" name="/model.2/m/m.1/cv1/conv/Conv/WithoutBiases/fq_weights_1/scale1173120142" type="Const" version="opset1">
			<data offset="79613" size="192" shape="48,1,1,1" element_type="f32"/>
			<output>
				<port id="0" precision="FP32">
					<dim>48</dim>
					<dim>1</dim>
					<dim>1</dim>
					<dim>1</dim>
				</port>
			</output>
		</layer>
		<layer id="222" name="model.2.m.1.cv1.conv.weight60110484/quantized1172320346" type="Const" version="opset1">
			<data offset="79805" size="2304" shape="48,48,1,1" element_type="i8"/>
			<output>
				<port id="0" precision="I8">
					<dim>48</dim>
					<dim>48</dim>
					<dim>1</dim>
					<dim>1</dim>
				</port>
			</output>
		</layer>
		<layer id="223" name="model.2.m.1.cv1.conv.weight60110484/quantized/to_f32" type="Convert" version="opset1">
			<data destination_type="f32"/>
			<input>
				<port id="0">
					<dim>48</dim>
					<dim>48</dim>
					<dim>1</dim>
					<dim>1</dim>
				</port>
			</input>
			<output>
				<port id="1" precision="FP32">
					<dim>48</dim>
					<dim>48</dim>
					<dim>1</dim>
					<dim>1</dim>
				</port>
			</output>
		</layer>
		<layer id="224" name="/model.2/m/m.1/cv1/conv/Conv/WithoutBiases/fq_weights_1/mulpiply_by_scale" type="Multiply" version="opset1">
			<data auto_broadcast="numpy"/>
			<input>
				<port id="0">
					<dim>48</dim>
					<dim>48</dim>
					<dim>1</dim>
					<dim>1</dim>
				</port>
				<port id="1">
					<dim>48</dim>
					<dim>1</dim>
					<dim>1</dim>
					<dim>1</dim>
				</port>
			</input>
			<output>
				<port id="2" precision="FP32">
					<dim>48</dim>
					<dim>48</dim>
					<dim>1</dim>
					<dim>1</dim>
				</port>
			</output>
		</layer>
		<layer id="225" name="/model.2/m/m.1/cv1/conv/Conv/WithoutBiases" type="Convolution" version="opset1">
			<data auto_pad="explicit" strides="1,1" dilations="1,1" pads_begin="0,0" pads_end="0,0"/>
			<input>
				<port id="0">
					<dim>1</dim>
					<dim>48</dim>
					<dim>80</dim>
					<dim>80</dim>
				</port>
				<port id="1">
					<dim>48</dim>
					<dim>48</dim>
					<dim>1</dim>
					<dim>1</dim>
				</port>
			</input>
			<output>
				<port id="2" precision="FP32">
					<dim>1</dim>
					<dim>48</dim>
					<dim>80</dim>
					<dim>80</dim>
				</port>
			</output>
		</layer>
		<layer id="226" name="Reshape_50260320382" type="Const" version="opset1">
			<data offset="82109" size="192" shape="1,48,1,1" element_type="f32"/>
			<output>
				<port id="0" precision="FP32">
					<dim>1</dim>
					<dim>48</dim>
					<dim>1</dim>
					<dim>1</dim>
				</port>
			</output>
		</layer>
		<layer id="227" name="/model.2/m/m.1/cv1/conv/Conv" type="Add" version="opset1">
			<data auto_broadcast="numpy"/>
			<input>
				<port id="0">
					<dim>1</dim>
					<dim>48</dim>
					<dim>80</dim>
					<dim>80</dim>
				</port>
				<port id="1">
					<dim>1</dim>
					<dim>48</dim>
					<dim>1</dim>
					<dim>1</dim>
				</port>
			</input>
			<output>
				<port id="2" precision="FP32" names="/model.2/m/m.1/cv1/conv/Conv_output_0">
					<dim>1</dim>
					<dim>48</dim>
					<dim>80</dim>
					<dim>80</dim>
				</port>
			</output>
		</layer>
		<layer id="228" name="/model.2/m/m.1/cv1/act/HardSwish" type="HSwish" version="opset4">
			<input>
				<port id="0">
					<dim>1</dim>
					<dim>48</dim>
					<dim>80</dim>
					<dim>80</dim>
				</port>
			</input>
			<output>
				<port id="1" precision="FP32" names="/model.2/m/m.1/cv1/act/HardSwish_output_0">
					<dim>1</dim>
					<dim>48</dim>
					<dim>80</dim>
					<dim>80</dim>
				</port>
			</output>
		</layer>
		<layer id="229" name="/model.2/m/m.1/cv2/conv/Conv/WithoutBiases/fq_input_0" type="FakeQuantize" version="opset1">
			<data levels="256" auto_broadcast="numpy"/>
			<input>
				<port id="0">
					<dim>1</dim>
					<dim>48</dim>
					<dim>80</dim>
					<dim>80</dim>
				</port>
				<port id="1"/>
				<port id="2"/>
				<port id="3"/>
				<port id="4"/>
			</input>
			<output>
				<port id="5" precision="FP32">
					<dim>1</dim>
					<dim>48</dim>
					<dim>80</dim>
					<dim>80</dim>
				</port>
			</output>
		</layer>
		<layer id="230" name="/model.2/m/m.1/cv2/conv/Conv/WithoutBiases/fq_weights_1/scale1437119488" type="Const" version="opset1">
			<data offset="82301" size="192" shape="48,1,1,1" element_type="f32"/>
			<output>
				<port id="0" precision="FP32">
					<dim>48</dim>
					<dim>1</dim>
					<dim>1</dim>
					<dim>1</dim>
				</port>
			</output>
		</layer>
		<layer id="231" name="model.2.m.1.cv2.conv.weight60610486/quantized1436319086" type="Const" version="opset1">
			<data offset="82493" size="20736" shape="48,48,3,3" element_type="i8"/>
			<output>
				<port id="0" precision="I8">
					<dim>48</dim>
					<dim>48</dim>
					<dim>3</dim>
					<dim>3</dim>
				</port>
			</output>
		</layer>
		<layer id="232" name="model.2.m.1.cv2.conv.weight60610486/quantized/to_f32" type="Convert" version="opset1">
			<data destination_type="f32"/>
			<input>
				<port id="0">
					<dim>48</dim>
					<dim>48</dim>
					<dim>3</dim>
					<dim>3</dim>
				</port>
			</input>
			<output>
				<port id="1" precision="FP32">
					<dim>48</dim>
					<dim>48</dim>
					<dim>3</dim>
					<dim>3</dim>
				</port>
			</output>
		</layer>
		<layer id="233" name="/model.2/m/m.1/cv2/conv/Conv/WithoutBiases/fq_weights_1/mulpiply_by_scale" type="Multiply" version="opset1">
			<data auto_broadcast="numpy"/>
			<input>
				<port id="0">
					<dim>48</dim>
					<dim>48</dim>
					<dim>3</dim>
					<dim>3</dim>
				</port>
				<port id="1">
					<dim>48</dim>
					<dim>1</dim>
					<dim>1</dim>
					<dim>1</dim>
				</port>
			</input>
			<output>
				<port id="2" precision="FP32">
					<dim>48</dim>
					<dim>48</dim>
					<dim>3</dim>
					<dim>3</dim>
				</port>
			</output>
		</layer>
		<layer id="234" name="/model.2/m/m.1/cv2/conv/Conv/WithoutBiases" type="Convolution" version="opset1">
			<data auto_pad="explicit" strides="1,1" dilations="1,1" pads_begin="1,1" pads_end="1,1"/>
			<input>
				<port id="0">
					<dim>1</dim>
					<dim>48</dim>
					<dim>80</dim>
					<dim>80</dim>
				</port>
				<port id="1">
					<dim>48</dim>
					<dim>48</dim>
					<dim>3</dim>
					<dim>3</dim>
				</port>
			</input>
			<output>
				<port id="2" precision="FP32">
					<dim>1</dim>
					<dim>48</dim>
					<dim>80</dim>
					<dim>80</dim>
				</port>
			</output>
		</layer>
		<layer id="235" name="Reshape_55160820205" type="Const" version="opset1">
			<data offset="103229" size="192" shape="1,48,1,1" element_type="f32"/>
			<output>
				<port id="0" precision="FP32">
					<dim>1</dim>
					<dim>48</dim>
					<dim>1</dim>
					<dim>1</dim>
				</port>
			</output>
		</layer>
		<layer id="236" name="/model.2/m/m.1/cv2/conv/Conv" type="Add" version="opset1">
			<data auto_broadcast="numpy"/>
			<input>
				<port id="0">
					<dim>1</dim>
					<dim>48</dim>
					<dim>80</dim>
					<dim>80</dim>
				</port>
				<port id="1">
					<dim>1</dim>
					<dim>48</dim>
					<dim>1</dim>
					<dim>1</dim>
				</port>
			</input>
			<output>
				<port id="2" precision="FP32" names="/model.2/m/m.1/cv2/conv/Conv_output_0">
					<dim>1</dim>
					<dim>48</dim>
					<dim>80</dim>
					<dim>80</dim>
				</port>
			</output>
		</layer>
		<layer id="237" name="/model.2/m/m.1/cv2/act/HardSwish" type="HSwish" version="opset4">
			<input>
				<port id="0">
					<dim>1</dim>
					<dim>48</dim>
					<dim>80</dim>
					<dim>80</dim>
				</port>
			</input>
			<output>
				<port id="1" precision="FP32" names="/model.2/m/m.1/cv2/act/HardSwish_output_0">
					<dim>1</dim>
					<dim>48</dim>
					<dim>80</dim>
					<dim>80</dim>
				</port>
			</output>
		</layer>
		<layer id="238" name="/model.2/m/m.1/Add/fq_input_1" type="FakeQuantize" version="opset1">
			<data levels="256" auto_broadcast="numpy"/>
			<input>
				<port id="0">
					<dim>1</dim>
					<dim>48</dim>
					<dim>80</dim>
					<dim>80</dim>
				</port>
				<port id="1"/>
				<port id="2"/>
				<port id="3"/>
				<port id="4"/>
			</input>
			<output>
				<port id="5" precision="FP32">
					<dim>1</dim>
					<dim>48</dim>
					<dim>80</dim>
					<dim>80</dim>
				</port>
			</output>
		</layer>
		<layer id="239" name="/model.2/m/m.1/Add" type="Add" version="opset1">
			<data auto_broadcast="numpy"/>
			<input>
				<port id="0">
					<dim>1</dim>
					<dim>48</dim>
					<dim>80</dim>
					<dim>80</dim>
				</port>
				<port id="1">
					<dim>1</dim>
					<dim>48</dim>
					<dim>80</dim>
					<dim>80</dim>
				</port>
			</input>
			<output>
				<port id="2" precision="FP32" names="/model.2/m/m.1/Add_output_0">
					<dim>1</dim>
					<dim>48</dim>
					<dim>80</dim>
					<dim>80</dim>
				</port>
			</output>
		</layer>
		<layer id="240" name="/model.2/cv3/Conv/fq_input_0" type="FakeQuantize" version="opset1">
			<data levels="256" auto_broadcast="numpy"/>
			<input>
				<port id="0">
					<dim>1</dim>
					<dim>48</dim>
					<dim>80</dim>
					<dim>80</dim>
				</port>
				<port id="1"/>
				<port id="2"/>
				<port id="3"/>
				<port id="4"/>
			</input>
			<output>
				<port id="5" precision="FP32">
					<dim>1</dim>
					<dim>48</dim>
					<dim>80</dim>
					<dim>80</dim>
				</port>
			</output>
		</layer>
		<layer id="241" name="/model.2/cv3/Conv/fq_weights_1/scale1185119644" type="Const" version="opset1">
			<data offset="103421" size="192" shape="48,1,1,1" element_type="f32"/>
			<output>
				<port id="0" precision="FP32">
					<dim>48</dim>
					<dim>1</dim>
					<dim>1</dim>
					<dim>1</dim>
				</port>
			</output>
		</layer>
		<layer id="242" name="model.2.cv3.weight61210488/quantized1184318966" type="Const" version="opset1">
			<data offset="103613" size="2304" shape="48,48,1,1" element_type="i8"/>
			<output>
				<port id="0" precision="I8">
					<dim>48</dim>
					<dim>48</dim>
					<dim>1</dim>
					<dim>1</dim>
				</port>
			</output>
		</layer>
		<layer id="243" name="model.2.cv3.weight61210488/quantized/to_f32" type="Convert" version="opset1">
			<data destination_type="f32"/>
			<input>
				<port id="0">
					<dim>48</dim>
					<dim>48</dim>
					<dim>1</dim>
					<dim>1</dim>
				</port>
			</input>
			<output>
				<port id="1" precision="FP32">
					<dim>48</dim>
					<dim>48</dim>
					<dim>1</dim>
					<dim>1</dim>
				</port>
			</output>
		</layer>
		<layer id="244" name="/model.2/cv3/Conv/fq_weights_1/mulpiply_by_scale" type="Multiply" version="opset1">
			<data auto_broadcast="numpy"/>
			<input>
				<port id="0">
					<dim>48</dim>
					<dim>48</dim>
					<dim>1</dim>
					<dim>1</dim>
				</port>
				<port id="1">
					<dim>48</dim>
					<dim>1</dim>
					<dim>1</dim>
					<dim>1</dim>
				</port>
			</input>
			<output>
				<port id="2" precision="FP32">
					<dim>48</dim>
					<dim>48</dim>
					<dim>1</dim>
					<dim>1</dim>
				</port>
			</output>
		</layer>
		<layer id="245" name="/model.2/cv3/Conv" type="Convolution" version="opset1">
			<data auto_pad="explicit" strides="1,1" dilations="1,1" pads_begin="0,0" pads_end="0,0"/>
			<input>
				<port id="0">
					<dim>1</dim>
					<dim>48</dim>
					<dim>80</dim>
					<dim>80</dim>
				</port>
				<port id="1">
					<dim>48</dim>
					<dim>48</dim>
					<dim>1</dim>
					<dim>1</dim>
				</port>
			</input>
			<output>
				<port id="2" precision="FP32" names="/model.2/cv3/Conv_output_0">
					<dim>1</dim>
					<dim>48</dim>
					<dim>80</dim>
					<dim>80</dim>
				</port>
			</output>
		</layer>
		<layer id="246" name="/model.2/cv3/Conv/add_" type="Add" version="opset1">
			<data auto_broadcast="numpy"/>
			<input>
				<port id="0">
					<dim>1</dim>
					<dim>48</dim>
					<dim>80</dim>
					<dim>80</dim>
				</port>
				<port id="1">
					<dim>1</dim>
					<dim>48</dim>
					<dim>1</dim>
					<dim>1</dim>
				</port>
			</input>
			<output>
				<port id="2" precision="FP32">
					<dim>1</dim>
					<dim>48</dim>
					<dim>80</dim>
					<dim>80</dim>
				</port>
			</output>
		</layer>
		<layer id="247" name="/model.2/Concat/fq_input_0" type="FakeQuantize" version="opset1">
			<data levels="256" auto_broadcast="numpy"/>
			<input>
				<port id="0">
					<dim>1</dim>
					<dim>48</dim>
					<dim>80</dim>
					<dim>80</dim>
				</port>
				<port id="1"/>
				<port id="2"/>
				<port id="3"/>
				<port id="4"/>
			</input>
			<output>
				<port id="5" precision="FP32">
					<dim>1</dim>
					<dim>48</dim>
					<dim>80</dim>
					<dim>80</dim>
				</port>
			</output>
		</layer>
		<layer id="248" name="5860586420640" type="Const" version="opset1">
			<data offset="105917" size="4" shape="" element_type="f32"/>
			<output>
				<port id="0" precision="FP32"/>
			</output>
		</layer>
		<layer id="249" name="5861586519149" type="Const" version="opset1">
			<data offset="105921" size="4" shape="" element_type="f32"/>
			<output>
				<port id="0" precision="FP32"/>
			</output>
		</layer>
		<layer id="250" name="5862586619128" type="Const" version="opset1">
			<data offset="105917" size="4" shape="" element_type="f32"/>
			<output>
				<port id="0" precision="FP32"/>
			</output>
		</layer>
		<layer id="251" name="5863586719812" type="Const" version="opset1">
			<data offset="105921" size="4" shape="" element_type="f32"/>
			<output>
				<port id="0" precision="FP32"/>
			</output>
		</layer>
		<layer id="252" name="1532153420736" type="Const" version="opset1">
			<data offset="2480" size="192" shape="1,48,1,1" element_type="f32"/>
			<output>
				<port id="0" precision="FP32">
					<dim>1</dim>
					<dim>48</dim>
					<dim>1</dim>
					<dim>1</dim>
				</port>
			</output>
		</layer>
		<layer id="253" name="/model.2/cv2/Conv/fq_weights_1/scale1416120790" type="Const" version="opset1">
			<data offset="105925" size="192" shape="48,1,1,1" element_type="f32"/>
			<output>
				<port id="0" precision="FP32">
					<dim>48</dim>
					<dim>1</dim>
					<dim>1</dim>
					<dim>1</dim>
				</port>
			</output>
		</layer>
		<layer id="254" name="model.2.cv2.weight61410489/quantized1415319383" type="Const" version="opset1">
			<data offset="106117" size="4608" shape="48,96,1,1" element_type="i8"/>
			<output>
				<port id="0" precision="I8">
					<dim>48</dim>
					<dim>96</dim>
					<dim>1</dim>
					<dim>1</dim>
				</port>
			</output>
		</layer>
		<layer id="255" name="model.2.cv2.weight61410489/quantized/to_f32" type="Convert" version="opset1">
			<data destination_type="f32"/>
			<input>
				<port id="0">
					<dim>48</dim>
					<dim>96</dim>
					<dim>1</dim>
					<dim>1</dim>
				</port>
			</input>
			<output>
				<port id="1" precision="FP32">
					<dim>48</dim>
					<dim>96</dim>
					<dim>1</dim>
					<dim>1</dim>
				</port>
			</output>
		</layer>
		<layer id="256" name="/model.2/cv2/Conv/fq_weights_1/mulpiply_by_scale" type="Multiply" version="opset1">
			<data auto_broadcast="numpy"/>
			<input>
				<port id="0">
					<dim>48</dim>
					<dim>96</dim>
					<dim>1</dim>
					<dim>1</dim>
				</port>
				<port id="1">
					<dim>48</dim>
					<dim>1</dim>
					<dim>1</dim>
					<dim>1</dim>
				</port>
			</input>
			<output>
				<port id="2" precision="FP32">
					<dim>48</dim>
					<dim>96</dim>
					<dim>1</dim>
					<dim>1</dim>
				</port>
			</output>
		</layer>
		<layer id="257" name="/model.2/cv2/Conv" type="Convolution" version="opset1">
			<data auto_pad="explicit" strides="1,1" dilations="1,1" pads_begin="0,0" pads_end="0,0"/>
			<input>
				<port id="0">
					<dim>1</dim>
					<dim>96</dim>
					<dim>80</dim>
					<dim>80</dim>
				</port>
				<port id="1">
					<dim>48</dim>
					<dim>96</dim>
					<dim>1</dim>
					<dim>1</dim>
				</port>
			</input>
			<output>
				<port id="2" precision="FP32" names="/model.2/cv2/Conv_output_0">
					<dim>1</dim>
					<dim>48</dim>
					<dim>80</dim>
					<dim>80</dim>
				</port>
			</output>
		</layer>
		<layer id="258" name="/model.2/cv2/Conv/add_" type="Add" version="opset1">
			<data auto_broadcast="numpy"/>
			<input>
				<port id="0">
					<dim>1</dim>
					<dim>48</dim>
					<dim>80</dim>
					<dim>80</dim>
				</port>
				<port id="1">
					<dim>1</dim>
					<dim>48</dim>
					<dim>1</dim>
					<dim>1</dim>
				</port>
			</input>
			<output>
				<port id="2" precision="FP32">
					<dim>1</dim>
					<dim>48</dim>
					<dim>80</dim>
					<dim>80</dim>
				</port>
			</output>
		</layer>
		<layer id="259" name="/model.2/Concat/fq_input_1" type="FakeQuantize" version="opset1">
			<data levels="256" auto_broadcast="numpy"/>
			<input>
				<port id="0">
					<dim>1</dim>
					<dim>48</dim>
					<dim>80</dim>
					<dim>80</dim>
				</port>
				<port id="1"/>
				<port id="2"/>
				<port id="3"/>
				<port id="4"/>
			</input>
			<output>
				<port id="5" precision="FP32">
					<dim>1</dim>
					<dim>48</dim>
					<dim>80</dim>
					<dim>80</dim>
				</port>
			</output>
		</layer>
		<layer id="260" name="/model.2/Concat" type="Concat" version="opset1">
			<data axis="1"/>
			<input>
				<port id="0">
					<dim>1</dim>
					<dim>48</dim>
					<dim>80</dim>
					<dim>80</dim>
				</port>
				<port id="1">
					<dim>1</dim>
					<dim>48</dim>
					<dim>80</dim>
					<dim>80</dim>
				</port>
			</input>
			<output>
				<port id="2" precision="FP32" names="/model.2/Concat_output_0">
					<dim>1</dim>
					<dim>96</dim>
					<dim>80</dim>
					<dim>80</dim>
				</port>
			</output>
		</layer>
		<layer id="261" name="Multiply_12639" type="Multiply" version="opset1">
			<data auto_broadcast="numpy"/>
			<input>
				<port id="0">
					<dim>1</dim>
					<dim>96</dim>
					<dim>80</dim>
					<dim>80</dim>
				</port>
				<port id="1">
					<dim>1</dim>
					<dim>96</dim>
					<dim>1</dim>
					<dim>1</dim>
				</port>
			</input>
			<output>
				<port id="2" precision="FP32">
					<dim>1</dim>
					<dim>96</dim>
					<dim>80</dim>
					<dim>80</dim>
				</port>
			</output>
		</layer>
		<layer id="262" name="Constant_1264461919194" type="Const" version="opset1">
			<data offset="110725" size="384" shape="1,96,1,1" element_type="f32"/>
			<output>
				<port id="0" precision="FP32">
					<dim>1</dim>
					<dim>96</dim>
					<dim>1</dim>
					<dim>1</dim>
				</port>
			</output>
		</layer>
		<layer id="263" name="/model.2/bn/BatchNormalization" type="Add" version="opset1">
			<data auto_broadcast="numpy"/>
			<input>
				<port id="0">
					<dim>1</dim>
					<dim>96</dim>
					<dim>80</dim>
					<dim>80</dim>
				</port>
				<port id="1">
					<dim>1</dim>
					<dim>96</dim>
					<dim>1</dim>
					<dim>1</dim>
				</port>
			</input>
			<output>
				<port id="2" precision="FP32" names="/model.2/bn/BatchNormalization_output_0">
					<dim>1</dim>
					<dim>96</dim>
					<dim>80</dim>
					<dim>80</dim>
				</port>
			</output>
		</layer>
		<layer id="264" name="Constant_587621" type="Const" version="opset1">
			<data offset="111109" size="4" shape="1" element_type="f32"/>
			<output>
				<port id="0" precision="FP32">
					<dim>1</dim>
				</port>
			</output>
		</layer>
		<layer id="265" name="/model.2/act/LeakyRelu" type="PReLU" version="opset1">
			<input>
				<port id="0">
					<dim>1</dim>
					<dim>96</dim>
					<dim>80</dim>
					<dim>80</dim>
				</port>
				<port id="1">
					<dim>1</dim>
				</port>
			</input>
			<output>
				<port id="2" precision="FP32" names="/model.2/act/LeakyRelu_output_0">
					<dim>1</dim>
					<dim>96</dim>
					<dim>80</dim>
					<dim>80</dim>
				</port>
			</output>
		</layer>
		<layer id="266" name="/model.2/cv4/conv/Conv/WithoutBiases/fq_input_0" type="FakeQuantize" version="opset1">
			<data levels="256" auto_broadcast="numpy"/>
			<input>
				<port id="0">
					<dim>1</dim>
					<dim>96</dim>
					<dim>80</dim>
					<dim>80</dim>
				</port>
				<port id="1"/>
				<port id="2"/>
				<port id="3"/>
				<port id="4"/>
			</input>
			<output>
				<port id="5" precision="FP32">
					<dim>1</dim>
					<dim>96</dim>
					<dim>80</dim>
					<dim>80</dim>
				</port>
			</output>
		</layer>
		<layer id="267" name="/model.2/cv4/conv/Conv/WithoutBiases/fq_weights_1/scale1161118597" type="Const" version="opset1">
			<data offset="111113" size="384" shape="96,1,1,1" element_type="f32"/>
			<output>
				<port id="0" precision="FP32">
					<dim>96</dim>
					<dim>1</dim>
					<dim>1</dim>
					<dim>1</dim>
				</port>
			</output>
		</layer>
		<layer id="268" name="model.2.cv4.conv.weight62310493/quantized1160320058" type="Const" version="opset1">
			<data offset="111497" size="9216" shape="96,96,1,1" element_type="i8"/>
			<output>
				<port id="0" precision="I8">
					<dim>96</dim>
					<dim>96</dim>
					<dim>1</dim>
					<dim>1</dim>
				</port>
			</output>
		</layer>
		<layer id="269" name="model.2.cv4.conv.weight62310493/quantized/to_f32" type="Convert" version="opset1">
			<data destination_type="f32"/>
			<input>
				<port id="0">
					<dim>96</dim>
					<dim>96</dim>
					<dim>1</dim>
					<dim>1</dim>
				</port>
			</input>
			<output>
				<port id="1" precision="FP32">
					<dim>96</dim>
					<dim>96</dim>
					<dim>1</dim>
					<dim>1</dim>
				</port>
			</output>
		</layer>
		<layer id="270" name="/model.2/cv4/conv/Conv/WithoutBiases/fq_weights_1/mulpiply_by_scale" type="Multiply" version="opset1">
			<data auto_broadcast="numpy"/>
			<input>
				<port id="0">
					<dim>96</dim>
					<dim>96</dim>
					<dim>1</dim>
					<dim>1</dim>
				</port>
				<port id="1">
					<dim>96</dim>
					<dim>1</dim>
					<dim>1</dim>
					<dim>1</dim>
				</port>
			</input>
			<output>
				<port id="2" precision="FP32">
					<dim>96</dim>
					<dim>96</dim>
					<dim>1</dim>
					<dim>1</dim>
				</port>
			</output>
		</layer>
		<layer id="271" name="/model.2/cv4/conv/Conv/WithoutBiases" type="Convolution" version="opset1">
			<data auto_pad="explicit" strides="1,1" dilations="1,1" pads_begin="0,0" pads_end="0,0"/>
			<input>
				<port id="0">
					<dim>1</dim>
					<dim>96</dim>
					<dim>80</dim>
					<dim>80</dim>
				</port>
				<port id="1">
					<dim>96</dim>
					<dim>96</dim>
					<dim>1</dim>
					<dim>1</dim>
				</port>
			</input>
			<output>
				<port id="2" precision="FP32">
					<dim>1</dim>
					<dim>96</dim>
					<dim>80</dim>
					<dim>80</dim>
				</port>
			</output>
		</layer>
		<layer id="272" name="Reshape_60962519320" type="Const" version="opset1">
			<data offset="120713" size="384" shape="1,96,1,1" element_type="f32"/>
			<output>
				<port id="0" precision="FP32">
					<dim>1</dim>
					<dim>96</dim>
					<dim>1</dim>
					<dim>1</dim>
				</port>
			</output>
		</layer>
		<layer id="273" name="/model.2/cv4/conv/Conv" type="Add" version="opset1">
			<data auto_broadcast="numpy"/>
			<input>
				<port id="0">
					<dim>1</dim>
					<dim>96</dim>
					<dim>80</dim>
					<dim>80</dim>
				</port>
				<port id="1">
					<dim>1</dim>
					<dim>96</dim>
					<dim>1</dim>
					<dim>1</dim>
				</port>
			</input>
			<output>
				<port id="2" precision="FP32" names="/model.2/cv4/conv/Conv_output_0">
					<dim>1</dim>
					<dim>96</dim>
					<dim>80</dim>
					<dim>80</dim>
				</port>
			</output>
		</layer>
		<layer id="274" name="/model.2/cv4/act/HardSwish" type="HSwish" version="opset4">
			<input>
				<port id="0">
					<dim>1</dim>
					<dim>96</dim>
					<dim>80</dim>
					<dim>80</dim>
				</port>
			</input>
			<output>
				<port id="1" precision="FP32" names="/model.2/cv4/act/HardSwish_output_0">
					<dim>1</dim>
					<dim>96</dim>
					<dim>80</dim>
					<dim>80</dim>
				</port>
			</output>
		</layer>
		<layer id="275" name="/model.3/conv/Conv/WithoutBiases/fq_input_0" type="FakeQuantize" version="opset1">
			<data levels="256" auto_broadcast="numpy"/>
			<input>
				<port id="0">
					<dim>1</dim>
					<dim>96</dim>
					<dim>80</dim>
					<dim>80</dim>
				</port>
				<port id="1"/>
				<port id="2"/>
				<port id="3"/>
				<port id="4"/>
			</input>
			<output>
				<port id="5" precision="FP32">
					<dim>1</dim>
					<dim>96</dim>
					<dim>80</dim>
					<dim>80</dim>
				</port>
			</output>
		</layer>
		<layer id="276" name="/model.3/conv/Conv/WithoutBiases/fq_weights_1/scale1227119659" type="Const" version="opset1">
			<data offset="121097" size="768" shape="192,1,1,1" element_type="f32"/>
			<output>
				<port id="0" precision="FP32">
					<dim>192</dim>
					<dim>1</dim>
					<dim>1</dim>
					<dim>1</dim>
				</port>
			</output>
		</layer>
		<layer id="277" name="model.3.conv.weight62810495/quantized1226320766" type="Const" version="opset1">
			<data offset="121865" size="165888" shape="192,96,3,3" element_type="i8"/>
			<output>
				<port id="0" precision="I8">
					<dim>192</dim>
					<dim>96</dim>
					<dim>3</dim>
					<dim>3</dim>
				</port>
			</output>
		</layer>
		<layer id="278" name="model.3.conv.weight62810495/quantized/to_f32" type="Convert" version="opset1">
			<data destination_type="f32"/>
			<input>
				<port id="0">
					<dim>192</dim>
					<dim>96</dim>
					<dim>3</dim>
					<dim>3</dim>
				</port>
			</input>
			<output>
				<port id="1" precision="FP32">
					<dim>192</dim>
					<dim>96</dim>
					<dim>3</dim>
					<dim>3</dim>
				</port>
			</output>
		</layer>
		<layer id="279" name="/model.3/conv/Conv/WithoutBiases/fq_weights_1/mulpiply_by_scale" type="Multiply" version="opset1">
			<data auto_broadcast="numpy"/>
			<input>
				<port id="0">
					<dim>192</dim>
					<dim>96</dim>
					<dim>3</dim>
					<dim>3</dim>
				</port>
				<port id="1">
					<dim>192</dim>
					<dim>1</dim>
					<dim>1</dim>
					<dim>1</dim>
				</port>
			</input>
			<output>
				<port id="2" precision="FP32">
					<dim>192</dim>
					<dim>96</dim>
					<dim>3</dim>
					<dim>3</dim>
				</port>
			</output>
		</layer>
		<layer id="280" name="/model.3/conv/Conv/WithoutBiases" type="Convolution" version="opset1">
			<data auto_pad="explicit" strides="2,2" dilations="1,1" pads_begin="1,1" pads_end="1,1"/>
			<input>
				<port id="0">
					<dim>1</dim>
					<dim>96</dim>
					<dim>80</dim>
					<dim>80</dim>
				</port>
				<port id="1">
					<dim>192</dim>
					<dim>96</dim>
					<dim>3</dim>
					<dim>3</dim>
				</port>
			</input>
			<output>
				<port id="2" precision="FP32">
					<dim>1</dim>
					<dim>192</dim>
					<dim>40</dim>
					<dim>40</dim>
				</port>
			</output>
		</layer>
		<layer id="281" name="Reshape_65863018636" type="Const" version="opset1">
			<data offset="287753" size="768" shape="1,192,1,1" element_type="f32"/>
			<output>
				<port id="0" precision="FP32">
					<dim>1</dim>
					<dim>192</dim>
					<dim>1</dim>
					<dim>1</dim>
				</port>
			</output>
		</layer>
		<layer id="282" name="/model.3/conv/Conv" type="Add" version="opset1">
			<data auto_broadcast="numpy"/>
			<input>
				<port id="0">
					<dim>1</dim>
					<dim>192</dim>
					<dim>40</dim>
					<dim>40</dim>
				</port>
				<port id="1">
					<dim>1</dim>
					<dim>192</dim>
					<dim>1</dim>
					<dim>1</dim>
				</port>
			</input>
			<output>
				<port id="2" precision="FP32" names="/model.3/conv/Conv_output_0">
					<dim>1</dim>
					<dim>192</dim>
					<dim>40</dim>
					<dim>40</dim>
				</port>
			</output>
		</layer>
		<layer id="283" name="/model.3/act/HardSwish" type="HSwish" version="opset4">
			<input>
				<port id="0">
					<dim>1</dim>
					<dim>192</dim>
					<dim>40</dim>
					<dim>40</dim>
				</port>
			</input>
			<output>
				<port id="1" precision="FP32" names="/model.3/act/HardSwish_output_0">
					<dim>1</dim>
					<dim>192</dim>
					<dim>40</dim>
					<dim>40</dim>
				</port>
			</output>
		</layer>
		<layer id="284" name="/model.4/cv1/conv/Conv/WithoutBiases/fq_input_0" type="FakeQuantize" version="opset1">
			<data levels="256" auto_broadcast="numpy"/>
			<input>
				<port id="0">
					<dim>1</dim>
					<dim>192</dim>
					<dim>40</dim>
					<dim>40</dim>
				</port>
				<port id="1"/>
				<port id="2"/>
				<port id="3"/>
				<port id="4"/>
			</input>
			<output>
				<port id="5" precision="FP32">
					<dim>1</dim>
					<dim>192</dim>
					<dim>40</dim>
					<dim>40</dim>
				</port>
			</output>
		</layer>
		<layer id="285" name="/model.4/cv1/conv/Conv/WithoutBiases/fq_weights_1/scale1164119473" type="Const" version="opset1">
			<data offset="288521" size="384" shape="96,1,1,1" element_type="f32"/>
			<output>
				<port id="0" precision="FP32">
					<dim>96</dim>
					<dim>1</dim>
					<dim>1</dim>
					<dim>1</dim>
				</port>
			</output>
		</layer>
		<layer id="286" name="model.4.cv1.conv.weight63310497/quantized1163318846" type="Const" version="opset1">
			<data offset="288905" size="18432" shape="96,192,1,1" element_type="i8"/>
			<output>
				<port id="0" precision="I8">
					<dim>96</dim>
					<dim>192</dim>
					<dim>1</dim>
					<dim>1</dim>
				</port>
			</output>
		</layer>
		<layer id="287" name="model.4.cv1.conv.weight63310497/quantized/to_f32" type="Convert" version="opset1">
			<data destination_type="f32"/>
			<input>
				<port id="0">
					<dim>96</dim>
					<dim>192</dim>
					<dim>1</dim>
					<dim>1</dim>
				</port>
			</input>
			<output>
				<port id="1" precision="FP32">
					<dim>96</dim>
					<dim>192</dim>
					<dim>1</dim>
					<dim>1</dim>
				</port>
			</output>
		</layer>
		<layer id="288" name="/model.4/cv1/conv/Conv/WithoutBiases/fq_weights_1/mulpiply_by_scale" type="Multiply" version="opset1">
			<data auto_broadcast="numpy"/>
			<input>
				<port id="0">
					<dim>96</dim>
					<dim>192</dim>
					<dim>1</dim>
					<dim>1</dim>
				</port>
				<port id="1">
					<dim>96</dim>
					<dim>1</dim>
					<dim>1</dim>
					<dim>1</dim>
				</port>
			</input>
			<output>
				<port id="2" precision="FP32">
					<dim>96</dim>
					<dim>192</dim>
					<dim>1</dim>
					<dim>1</dim>
				</port>
			</output>
		</layer>
		<layer id="289" name="/model.4/cv1/conv/Conv/WithoutBiases" type="Convolution" version="opset1">
			<data auto_pad="explicit" strides="1,1" dilations="1,1" pads_begin="0,0" pads_end="0,0"/>
			<input>
				<port id="0">
					<dim>1</dim>
					<dim>192</dim>
					<dim>40</dim>
					<dim>40</dim>
				</port>
				<port id="1">
					<dim>96</dim>
					<dim>192</dim>
					<dim>1</dim>
					<dim>1</dim>
				</port>
			</input>
			<output>
				<port id="2" precision="FP32">
					<dim>1</dim>
					<dim>96</dim>
					<dim>40</dim>
					<dim>40</dim>
				</port>
			</output>
		</layer>
		<layer id="290" name="Reshape_70763518534" type="Const" version="opset1">
			<data offset="307337" size="384" shape="1,96,1,1" element_type="f32"/>
			<output>
				<port id="0" precision="FP32">
					<dim>1</dim>
					<dim>96</dim>
					<dim>1</dim>
					<dim>1</dim>
				</port>
			</output>
		</layer>
		<layer id="291" name="/model.4/cv1/conv/Conv" type="Add" version="opset1">
			<data auto_broadcast="numpy"/>
			<input>
				<port id="0">
					<dim>1</dim>
					<dim>96</dim>
					<dim>40</dim>
					<dim>40</dim>
				</port>
				<port id="1">
					<dim>1</dim>
					<dim>96</dim>
					<dim>1</dim>
					<dim>1</dim>
				</port>
			</input>
			<output>
				<port id="2" precision="FP32" names="/model.4/cv1/conv/Conv_output_0">
					<dim>1</dim>
					<dim>96</dim>
					<dim>40</dim>
					<dim>40</dim>
				</port>
			</output>
		</layer>
		<layer id="292" name="/model.4/cv1/act/HardSwish" type="HSwish" version="opset4">
			<input>
				<port id="0">
					<dim>1</dim>
					<dim>96</dim>
					<dim>40</dim>
					<dim>40</dim>
				</port>
			</input>
			<output>
				<port id="1" precision="FP32" names="/model.4/cv1/act/HardSwish_output_0">
					<dim>1</dim>
					<dim>96</dim>
					<dim>40</dim>
					<dim>40</dim>
				</port>
			</output>
		</layer>
		<layer id="293" name="/model.4/m/m.0/Add/fq_input_0" type="FakeQuantize" version="opset1">
			<data levels="256" auto_broadcast="numpy"/>
			<input>
				<port id="0">
					<dim>1</dim>
					<dim>96</dim>
					<dim>40</dim>
					<dim>40</dim>
				</port>
				<port id="1"/>
				<port id="2"/>
				<port id="3"/>
				<port id="4"/>
			</input>
			<output>
				<port id="5" precision="FP32">
					<dim>1</dim>
					<dim>96</dim>
					<dim>40</dim>
					<dim>40</dim>
				</port>
			</output>
		</layer>
		<layer id="294" name="4133413719104" type="Const" version="opset1">
			<data offset="307721" size="4" shape="" element_type="f32"/>
			<output>
				<port id="0" precision="FP32"/>
			</output>
		</layer>
		<layer id="295" name="4134413818909" type="Const" version="opset1">
			<data offset="307725" size="4" shape="" element_type="f32"/>
			<output>
				<port id="0" precision="FP32"/>
			</output>
		</layer>
		<layer id="296" name="4135413920394" type="Const" version="opset1">
			<data offset="307721" size="4" shape="" element_type="f32"/>
			<output>
				<port id="0" precision="FP32"/>
			</output>
		</layer>
		<layer id="297" name="4136414020379" type="Const" version="opset1">
			<data offset="307725" size="4" shape="" element_type="f32"/>
			<output>
				<port id="0" precision="FP32"/>
			</output>
		</layer>
		<layer id="298" name="3183318719005" type="Const" version="opset1">
			<data offset="307729" size="4" shape="" element_type="f32"/>
			<output>
				<port id="0" precision="FP32"/>
			</output>
		</layer>
		<layer id="299" name="3184318819968" type="Const" version="opset1">
			<data offset="307733" size="4" shape="" element_type="f32"/>
			<output>
				<port id="0" precision="FP32"/>
			</output>
		</layer>
		<layer id="300" name="3185318919176" type="Const" version="opset1">
			<data offset="307729" size="4" shape="" element_type="f32"/>
			<output>
				<port id="0" precision="FP32"/>
			</output>
		</layer>
		<layer id="301" name="3186319020859" type="Const" version="opset1">
			<data offset="307733" size="4" shape="" element_type="f32"/>
			<output>
				<port id="0" precision="FP32"/>
			</output>
		</layer>
		<layer id="302" name="/model.4/m/m.0/cv1/conv/Conv/WithoutBiases/fq_weights_1/scale1284118561" type="Const" version="opset1">
			<data offset="307737" size="384" shape="96,1,1,1" element_type="f32"/>
			<output>
				<port id="0" precision="FP32">
					<dim>96</dim>
					<dim>1</dim>
					<dim>1</dim>
					<dim>1</dim>
				</port>
			</output>
		</layer>
		<layer id="303" name="model.4.m.0.cv1.conv.weight63810499/quantized1283319731" type="Const" version="opset1">
			<data offset="308121" size="9216" shape="96,96,1,1" element_type="i8"/>
			<output>
				<port id="0" precision="I8">
					<dim>96</dim>
					<dim>96</dim>
					<dim>1</dim>
					<dim>1</dim>
				</port>
			</output>
		</layer>
		<layer id="304" name="model.4.m.0.cv1.conv.weight63810499/quantized/to_f32" type="Convert" version="opset1">
			<data destination_type="f32"/>
			<input>
				<port id="0">
					<dim>96</dim>
					<dim>96</dim>
					<dim>1</dim>
					<dim>1</dim>
				</port>
			</input>
			<output>
				<port id="1" precision="FP32">
					<dim>96</dim>
					<dim>96</dim>
					<dim>1</dim>
					<dim>1</dim>
				</port>
			</output>
		</layer>
		<layer id="305" name="/model.4/m/m.0/cv1/conv/Conv/WithoutBiases/fq_weights_1/mulpiply_by_scale" type="Multiply" version="opset1">
			<data auto_broadcast="numpy"/>
			<input>
				<port id="0">
					<dim>96</dim>
					<dim>96</dim>
					<dim>1</dim>
					<dim>1</dim>
				</port>
				<port id="1">
					<dim>96</dim>
					<dim>1</dim>
					<dim>1</dim>
					<dim>1</dim>
				</port>
			</input>
			<output>
				<port id="2" precision="FP32">
					<dim>96</dim>
					<dim>96</dim>
					<dim>1</dim>
					<dim>1</dim>
				</port>
			</output>
		</layer>
		<layer id="306" name="/model.4/m/m.0/cv1/conv/Conv/WithoutBiases" type="Convolution" version="opset1">
			<data auto_pad="explicit" strides="1,1" dilations="1,1" pads_begin="0,0" pads_end="0,0"/>
			<input>
				<port id="0">
					<dim>1</dim>
					<dim>96</dim>
					<dim>40</dim>
					<dim>40</dim>
				</port>
				<port id="1">
					<dim>96</dim>
					<dim>96</dim>
					<dim>1</dim>
					<dim>1</dim>
				</port>
			</input>
			<output>
				<port id="2" precision="FP32">
					<dim>1</dim>
					<dim>96</dim>
					<dim>40</dim>
					<dim>40</dim>
				</port>
			</output>
		</layer>
		<layer id="307" name="Reshape_75664018834" type="Const" version="opset1">
			<data offset="317337" size="384" shape="1,96,1,1" element_type="f32"/>
			<output>
				<port id="0" precision="FP32">
					<dim>1</dim>
					<dim>96</dim>
					<dim>1</dim>
					<dim>1</dim>
				</port>
			</output>
		</layer>
		<layer id="308" name="/model.4/m/m.0/cv1/conv/Conv" type="Add" version="opset1">
			<data auto_broadcast="numpy"/>
			<input>
				<port id="0">
					<dim>1</dim>
					<dim>96</dim>
					<dim>40</dim>
					<dim>40</dim>
				</port>
				<port id="1">
					<dim>1</dim>
					<dim>96</dim>
					<dim>1</dim>
					<dim>1</dim>
				</port>
			</input>
			<output>
				<port id="2" precision="FP32" names="/model.4/m/m.0/cv1/conv/Conv_output_0">
					<dim>1</dim>
					<dim>96</dim>
					<dim>40</dim>
					<dim>40</dim>
				</port>
			</output>
		</layer>
		<layer id="309" name="/model.4/m/m.0/cv1/act/HardSwish" type="HSwish" version="opset4">
			<input>
				<port id="0">
					<dim>1</dim>
					<dim>96</dim>
					<dim>40</dim>
					<dim>40</dim>
				</port>
			</input>
			<output>
				<port id="1" precision="FP32" names="/model.4/m/m.0/cv1/act/HardSwish_output_0">
					<dim>1</dim>
					<dim>96</dim>
					<dim>40</dim>
					<dim>40</dim>
				</port>
			</output>
		</layer>
		<layer id="310" name="/model.4/m/m.0/cv2/conv/Conv/WithoutBiases/fq_input_0" type="FakeQuantize" version="opset1">
			<data levels="256" auto_broadcast="numpy"/>
			<input>
				<port id="0">
					<dim>1</dim>
					<dim>96</dim>
					<dim>40</dim>
					<dim>40</dim>
				</port>
				<port id="1"/>
				<port id="2"/>
				<port id="3"/>
				<port id="4"/>
			</input>
			<output>
				<port id="5" precision="FP32">
					<dim>1</dim>
					<dim>96</dim>
					<dim>40</dim>
					<dim>40</dim>
				</port>
			</output>
		</layer>
		<layer id="311" name="/model.4/m/m.0/cv2/conv/Conv/WithoutBiases/fq_weights_1/scale1311120883" type="Const" version="opset1">
			<data offset="317721" size="384" shape="96,1,1,1" element_type="f32"/>
			<output>
				<port id="0" precision="FP32">
					<dim>96</dim>
					<dim>1</dim>
					<dim>1</dim>
					<dim>1</dim>
				</port>
			</output>
		</layer>
		<layer id="312" name="model.4.m.0.cv2.conv.weight64310501/quantized1310319272" type="Const" version="opset1">
			<data offset="318105" size="82944" shape="96,96,3,3" element_type="i8"/>
			<output>
				<port id="0" precision="I8">
					<dim>96</dim>
					<dim>96</dim>
					<dim>3</dim>
					<dim>3</dim>
				</port>
			</output>
		</layer>
		<layer id="313" name="model.4.m.0.cv2.conv.weight64310501/quantized/to_f32" type="Convert" version="opset1">
			<data destination_type="f32"/>
			<input>
				<port id="0">
					<dim>96</dim>
					<dim>96</dim>
					<dim>3</dim>
					<dim>3</dim>
				</port>
			</input>
			<output>
				<port id="1" precision="FP32">
					<dim>96</dim>
					<dim>96</dim>
					<dim>3</dim>
					<dim>3</dim>
				</port>
			</output>
		</layer>
		<layer id="314" name="/model.4/m/m.0/cv2/conv/Conv/WithoutBiases/fq_weights_1/mulpiply_by_scale" type="Multiply" version="opset1">
			<data auto_broadcast="numpy"/>
			<input>
				<port id="0">
					<dim>96</dim>
					<dim>96</dim>
					<dim>3</dim>
					<dim>3</dim>
				</port>
				<port id="1">
					<dim>96</dim>
					<dim>1</dim>
					<dim>1</dim>
					<dim>1</dim>
				</port>
			</input>
			<output>
				<port id="2" precision="FP32">
					<dim>96</dim>
					<dim>96</dim>
					<dim>3</dim>
					<dim>3</dim>
				</port>
			</output>
		</layer>
		<layer id="315" name="/model.4/m/m.0/cv2/conv/Conv/WithoutBiases" type="Convolution" version="opset1">
			<data auto_pad="explicit" strides="1,1" dilations="1,1" pads_begin="1,1" pads_end="1,1"/>
			<input>
				<port id="0">
					<dim>1</dim>
					<dim>96</dim>
					<dim>40</dim>
					<dim>40</dim>
				</port>
				<port id="1">
					<dim>96</dim>
					<dim>96</dim>
					<dim>3</dim>
					<dim>3</dim>
				</port>
			</input>
			<output>
				<port id="2" precision="FP32">
					<dim>1</dim>
					<dim>96</dim>
					<dim>40</dim>
					<dim>40</dim>
				</port>
			</output>
		</layer>
		<layer id="316" name="Reshape_80564519650" type="Const" version="opset1">
			<data offset="401049" size="384" shape="1,96,1,1" element_type="f32"/>
			<output>
				<port id="0" precision="FP32">
					<dim>1</dim>
					<dim>96</dim>
					<dim>1</dim>
					<dim>1</dim>
				</port>
			</output>
		</layer>
		<layer id="317" name="/model.4/m/m.0/cv2/conv/Conv" type="Add" version="opset1">
			<data auto_broadcast="numpy"/>
			<input>
				<port id="0">
					<dim>1</dim>
					<dim>96</dim>
					<dim>40</dim>
					<dim>40</dim>
				</port>
				<port id="1">
					<dim>1</dim>
					<dim>96</dim>
					<dim>1</dim>
					<dim>1</dim>
				</port>
			</input>
			<output>
				<port id="2" precision="FP32" names="/model.4/m/m.0/cv2/conv/Conv_output_0">
					<dim>1</dim>
					<dim>96</dim>
					<dim>40</dim>
					<dim>40</dim>
				</port>
			</output>
		</layer>
		<layer id="318" name="/model.4/m/m.0/cv2/act/HardSwish" type="HSwish" version="opset4">
			<input>
				<port id="0">
					<dim>1</dim>
					<dim>96</dim>
					<dim>40</dim>
					<dim>40</dim>
				</port>
			</input>
			<output>
				<port id="1" precision="FP32" names="/model.4/m/m.0/cv2/act/HardSwish_output_0">
					<dim>1</dim>
					<dim>96</dim>
					<dim>40</dim>
					<dim>40</dim>
				</port>
			</output>
		</layer>
		<layer id="319" name="/model.4/m/m.0/Add/fq_input_1" type="FakeQuantize" version="opset1">
			<data levels="256" auto_broadcast="numpy"/>
			<input>
				<port id="0">
					<dim>1</dim>
					<dim>96</dim>
					<dim>40</dim>
					<dim>40</dim>
				</port>
				<port id="1"/>
				<port id="2"/>
				<port id="3"/>
				<port id="4"/>
			</input>
			<output>
				<port id="5" precision="FP32">
					<dim>1</dim>
					<dim>96</dim>
					<dim>40</dim>
					<dim>40</dim>
				</port>
			</output>
		</layer>
		<layer id="320" name="/model.4/m/m.0/Add" type="Add" version="opset1">
			<data auto_broadcast="numpy"/>
			<input>
				<port id="0">
					<dim>1</dim>
					<dim>96</dim>
					<dim>40</dim>
					<dim>40</dim>
				</port>
				<port id="1">
					<dim>1</dim>
					<dim>96</dim>
					<dim>40</dim>
					<dim>40</dim>
				</port>
			</input>
			<output>
				<port id="2" precision="FP32" names="/model.4/m/m.0/Add_output_0">
					<dim>1</dim>
					<dim>96</dim>
					<dim>40</dim>
					<dim>40</dim>
				</port>
			</output>
		</layer>
		<layer id="321" name="/model.4/m/m.1/Add/fq_input_0" type="FakeQuantize" version="opset1">
			<data levels="256" auto_broadcast="numpy"/>
			<input>
				<port id="0">
					<dim>1</dim>
					<dim>96</dim>
					<dim>40</dim>
					<dim>40</dim>
				</port>
				<port id="1"/>
				<port id="2"/>
				<port id="3"/>
				<port id="4"/>
			</input>
			<output>
				<port id="5" precision="FP32">
					<dim>1</dim>
					<dim>96</dim>
					<dim>40</dim>
					<dim>40</dim>
				</port>
			</output>
		</layer>
		<layer id="322" name="3943394718870" type="Const" version="opset1">
			<data offset="401433" size="4" shape="" element_type="f32"/>
			<output>
				<port id="0" precision="FP32"/>
			</output>
		</layer>
		<layer id="323" name="3944394820154" type="Const" version="opset1">
			<data offset="401437" size="4" shape="" element_type="f32"/>
			<output>
				<port id="0" precision="FP32"/>
			</output>
		</layer>
		<layer id="324" name="3945394920811" type="Const" version="opset1">
			<data offset="401433" size="4" shape="" element_type="f32"/>
			<output>
				<port id="0" precision="FP32"/>
			</output>
		</layer>
		<layer id="325" name="3946395020784" type="Const" version="opset1">
			<data offset="401437" size="4" shape="" element_type="f32"/>
			<output>
				<port id="0" precision="FP32"/>
			</output>
		</layer>
		<layer id="326" name="2183218719917" type="Const" version="opset1">
			<data offset="401441" size="4" shape="" element_type="f32"/>
			<output>
				<port id="0" precision="FP32"/>
			</output>
		</layer>
		<layer id="327" name="2184218820919" type="Const" version="opset1">
			<data offset="401445" size="4" shape="" element_type="f32"/>
			<output>
				<port id="0" precision="FP32"/>
			</output>
		</layer>
		<layer id="328" name="2185218920808" type="Const" version="opset1">
			<data offset="401441" size="4" shape="" element_type="f32"/>
			<output>
				<port id="0" precision="FP32"/>
			</output>
		</layer>
		<layer id="329" name="2186219019803" type="Const" version="opset1">
			<data offset="401445" size="4" shape="" element_type="f32"/>
			<output>
				<port id="0" precision="FP32"/>
			</output>
		</layer>
		<layer id="330" name="/model.4/m/m.1/cv1/conv/Conv/WithoutBiases/fq_weights_1/scale1341118771" type="Const" version="opset1">
			<data offset="401449" size="384" shape="96,1,1,1" element_type="f32"/>
			<output>
				<port id="0" precision="FP32">
					<dim>96</dim>
					<dim>1</dim>
					<dim>1</dim>
					<dim>1</dim>
				</port>
			</output>
		</layer>
		<layer id="331" name="model.4.m.1.cv1.conv.weight64910503/quantized1340320466" type="Const" version="opset1">
			<data offset="401833" size="9216" shape="96,96,1,1" element_type="i8"/>
			<output>
				<port id="0" precision="I8">
					<dim>96</dim>
					<dim>96</dim>
					<dim>1</dim>
					<dim>1</dim>
				</port>
			</output>
		</layer>
		<layer id="332" name="model.4.m.1.cv1.conv.weight64910503/quantized/to_f32" type="Convert" version="opset1">
			<data destination_type="f32"/>
			<input>
				<port id="0">
					<dim>96</dim>
					<dim>96</dim>
					<dim>1</dim>
					<dim>1</dim>
				</port>
			</input>
			<output>
				<port id="1" precision="FP32">
					<dim>96</dim>
					<dim>96</dim>
					<dim>1</dim>
					<dim>1</dim>
				</port>
			</output>
		</layer>
		<layer id="333" name="/model.4/m/m.1/cv1/conv/Conv/WithoutBiases/fq_weights_1/mulpiply_by_scale" type="Multiply" version="opset1">
			<data auto_broadcast="numpy"/>
			<input>
				<port id="0">
					<dim>96</dim>
					<dim>96</dim>
					<dim>1</dim>
					<dim>1</dim>
				</port>
				<port id="1">
					<dim>96</dim>
					<dim>1</dim>
					<dim>1</dim>
					<dim>1</dim>
				</port>
			</input>
			<output>
				<port id="2" precision="FP32">
					<dim>96</dim>
					<dim>96</dim>
					<dim>1</dim>
					<dim>1</dim>
				</port>
			</output>
		</layer>
		<layer id="334" name="/model.4/m/m.1/cv1/conv/Conv/WithoutBiases" type="Convolution" version="opset1">
			<data auto_pad="explicit" strides="1,1" dilations="1,1" pads_begin="0,0" pads_end="0,0"/>
			<input>
				<port id="0">
					<dim>1</dim>
					<dim>96</dim>
					<dim>40</dim>
					<dim>40</dim>
				</port>
				<port id="1">
					<dim>96</dim>
					<dim>96</dim>
					<dim>1</dim>
					<dim>1</dim>
				</port>
			</input>
			<output>
				<port id="2" precision="FP32">
					<dim>1</dim>
					<dim>96</dim>
					<dim>40</dim>
					<dim>40</dim>
				</port>
			</output>
		</layer>
		<layer id="335" name="Reshape_85565119254" type="Const" version="opset1">
			<data offset="411049" size="384" shape="1,96,1,1" element_type="f32"/>
			<output>
				<port id="0" precision="FP32">
					<dim>1</dim>
					<dim>96</dim>
					<dim>1</dim>
					<dim>1</dim>
				</port>
			</output>
		</layer>
		<layer id="336" name="/model.4/m/m.1/cv1/conv/Conv" type="Add" version="opset1">
			<data auto_broadcast="numpy"/>
			<input>
				<port id="0">
					<dim>1</dim>
					<dim>96</dim>
					<dim>40</dim>
					<dim>40</dim>
				</port>
				<port id="1">
					<dim>1</dim>
					<dim>96</dim>
					<dim>1</dim>
					<dim>1</dim>
				</port>
			</input>
			<output>
				<port id="2" precision="FP32" names="/model.4/m/m.1/cv1/conv/Conv_output_0">
					<dim>1</dim>
					<dim>96</dim>
					<dim>40</dim>
					<dim>40</dim>
				</port>
			</output>
		</layer>
		<layer id="337" name="/model.4/m/m.1/cv1/act/HardSwish" type="HSwish" version="opset4">
			<input>
				<port id="0">
					<dim>1</dim>
					<dim>96</dim>
					<dim>40</dim>
					<dim>40</dim>
				</port>
			</input>
			<output>
				<port id="1" precision="FP32" names="/model.4/m/m.1/cv1/act/HardSwish_output_0">
					<dim>1</dim>
					<dim>96</dim>
					<dim>40</dim>
					<dim>40</dim>
				</port>
			</output>
		</layer>
		<layer id="338" name="/model.4/m/m.1/cv2/conv/Conv/WithoutBiases/fq_input_0" type="FakeQuantize" version="opset1">
			<data levels="256" auto_broadcast="numpy"/>
			<input>
				<port id="0">
					<dim>1</dim>
					<dim>96</dim>
					<dim>40</dim>
					<dim>40</dim>
				</port>
				<port id="1"/>
				<port id="2"/>
				<port id="3"/>
				<port id="4"/>
			</input>
			<output>
				<port id="5" precision="FP32">
					<dim>1</dim>
					<dim>96</dim>
					<dim>40</dim>
					<dim>40</dim>
				</port>
			</output>
		</layer>
		<layer id="339" name="/model.4/m/m.1/cv2/conv/Conv/WithoutBiases/fq_weights_1/scale1260119395" type="Const" version="opset1">
			<data offset="411433" size="384" shape="96,1,1,1" element_type="f32"/>
			<output>
				<port id="0" precision="FP32">
					<dim>96</dim>
					<dim>1</dim>
					<dim>1</dim>
					<dim>1</dim>
				</port>
			</output>
		</layer>
		<layer id="340" name="model.4.m.1.cv2.conv.weight65410505/quantized1259319929" type="Const" version="opset1">
			<data offset="411817" size="82944" shape="96,96,3,3" element_type="i8"/>
			<output>
				<port id="0" precision="I8">
					<dim>96</dim>
					<dim>96</dim>
					<dim>3</dim>
					<dim>3</dim>
				</port>
			</output>
		</layer>
		<layer id="341" name="model.4.m.1.cv2.conv.weight65410505/quantized/to_f32" type="Convert" version="opset1">
			<data destination_type="f32"/>
			<input>
				<port id="0">
					<dim>96</dim>
					<dim>96</dim>
					<dim>3</dim>
					<dim>3</dim>
				</port>
			</input>
			<output>
				<port id="1" precision="FP32">
					<dim>96</dim>
					<dim>96</dim>
					<dim>3</dim>
					<dim>3</dim>
				</port>
			</output>
		</layer>
		<layer id="342" name="/model.4/m/m.1/cv2/conv/Conv/WithoutBiases/fq_weights_1/mulpiply_by_scale" type="Multiply" version="opset1">
			<data auto_broadcast="numpy"/>
			<input>
				<port id="0">
					<dim>96</dim>
					<dim>96</dim>
					<dim>3</dim>
					<dim>3</dim>
				</port>
				<port id="1">
					<dim>96</dim>
					<dim>1</dim>
					<dim>1</dim>
					<dim>1</dim>
				</port>
			</input>
			<output>
				<port id="2" precision="FP32">
					<dim>96</dim>
					<dim>96</dim>
					<dim>3</dim>
					<dim>3</dim>
				</port>
			</output>
		</layer>
		<layer id="343" name="/model.4/m/m.1/cv2/conv/Conv/WithoutBiases" type="Convolution" version="opset1">
			<data auto_pad="explicit" strides="1,1" dilations="1,1" pads_begin="1,1" pads_end="1,1"/>
			<input>
				<port id="0">
					<dim>1</dim>
					<dim>96</dim>
					<dim>40</dim>
					<dim>40</dim>
				</port>
				<port id="1">
					<dim>96</dim>
					<dim>96</dim>
					<dim>3</dim>
					<dim>3</dim>
				</port>
			</input>
			<output>
				<port id="2" precision="FP32">
					<dim>1</dim>
					<dim>96</dim>
					<dim>40</dim>
					<dim>40</dim>
				</port>
			</output>
		</layer>
		<layer id="344" name="Reshape_90465619341" type="Const" version="opset1">
			<data offset="494761" size="384" shape="1,96,1,1" element_type="f32"/>
			<output>
				<port id="0" precision="FP32">
					<dim>1</dim>
					<dim>96</dim>
					<dim>1</dim>
					<dim>1</dim>
				</port>
			</output>
		</layer>
		<layer id="345" name="/model.4/m/m.1/cv2/conv/Conv" type="Add" version="opset1">
			<data auto_broadcast="numpy"/>
			<input>
				<port id="0">
					<dim>1</dim>
					<dim>96</dim>
					<dim>40</dim>
					<dim>40</dim>
				</port>
				<port id="1">
					<dim>1</dim>
					<dim>96</dim>
					<dim>1</dim>
					<dim>1</dim>
				</port>
			</input>
			<output>
				<port id="2" precision="FP32" names="/model.4/m/m.1/cv2/conv/Conv_output_0">
					<dim>1</dim>
					<dim>96</dim>
					<dim>40</dim>
					<dim>40</dim>
				</port>
			</output>
		</layer>
		<layer id="346" name="/model.4/m/m.1/cv2/act/HardSwish" type="HSwish" version="opset4">
			<input>
				<port id="0">
					<dim>1</dim>
					<dim>96</dim>
					<dim>40</dim>
					<dim>40</dim>
				</port>
			</input>
			<output>
				<port id="1" precision="FP32" names="/model.4/m/m.1/cv2/act/HardSwish_output_0">
					<dim>1</dim>
					<dim>96</dim>
					<dim>40</dim>
					<dim>40</dim>
				</port>
			</output>
		</layer>
		<layer id="347" name="/model.4/m/m.1/Add/fq_input_1" type="FakeQuantize" version="opset1">
			<data levels="256" auto_broadcast="numpy"/>
			<input>
				<port id="0">
					<dim>1</dim>
					<dim>96</dim>
					<dim>40</dim>
					<dim>40</dim>
				</port>
				<port id="1"/>
				<port id="2"/>
				<port id="3"/>
				<port id="4"/>
			</input>
			<output>
				<port id="5" precision="FP32">
					<dim>1</dim>
					<dim>96</dim>
					<dim>40</dim>
					<dim>40</dim>
				</port>
			</output>
		</layer>
		<layer id="348" name="/model.4/m/m.1/Add" type="Add" version="opset1">
			<data auto_broadcast="numpy"/>
			<input>
				<port id="0">
					<dim>1</dim>
					<dim>96</dim>
					<dim>40</dim>
					<dim>40</dim>
				</port>
				<port id="1">
					<dim>1</dim>
					<dim>96</dim>
					<dim>40</dim>
					<dim>40</dim>
				</port>
			</input>
			<output>
				<port id="2" precision="FP32" names="/model.4/m/m.1/Add_output_0">
					<dim>1</dim>
					<dim>96</dim>
					<dim>40</dim>
					<dim>40</dim>
				</port>
			</output>
		</layer>
		<layer id="349" name="/model.4/m/m.2/Add/fq_input_0" type="FakeQuantize" version="opset1">
			<data levels="256" auto_broadcast="numpy"/>
			<input>
				<port id="0">
					<dim>1</dim>
					<dim>96</dim>
					<dim>40</dim>
					<dim>40</dim>
				</port>
				<port id="1"/>
				<port id="2"/>
				<port id="3"/>
				<port id="4"/>
			</input>
			<output>
				<port id="5" precision="FP32">
					<dim>1</dim>
					<dim>96</dim>
					<dim>40</dim>
					<dim>40</dim>
				</port>
			</output>
		</layer>
		<layer id="350" name="2333233720103" type="Const" version="opset1">
			<data offset="495145" size="4" shape="" element_type="f32"/>
			<output>
				<port id="0" precision="FP32"/>
			</output>
		</layer>
		<layer id="351" name="2334233819629" type="Const" version="opset1">
			<data offset="495149" size="4" shape="" element_type="f32"/>
			<output>
				<port id="0" precision="FP32"/>
			</output>
		</layer>
		<layer id="352" name="2335233919356" type="Const" version="opset1">
			<data offset="495145" size="4" shape="" element_type="f32"/>
			<output>
				<port id="0" precision="FP32"/>
			</output>
		</layer>
		<layer id="353" name="2336234019995" type="Const" version="opset1">
			<data offset="495149" size="4" shape="" element_type="f32"/>
			<output>
				<port id="0" precision="FP32"/>
			</output>
		</layer>
		<layer id="354" name="3163316720403" type="Const" version="opset1">
			<data offset="495153" size="4" shape="" element_type="f32"/>
			<output>
				<port id="0" precision="FP32"/>
			</output>
		</layer>
		<layer id="355" name="3164316820904" type="Const" version="opset1">
			<data offset="495157" size="4" shape="" element_type="f32"/>
			<output>
				<port id="0" precision="FP32"/>
			</output>
		</layer>
		<layer id="356" name="3165316919584" type="Const" version="opset1">
			<data offset="495153" size="4" shape="" element_type="f32"/>
			<output>
				<port id="0" precision="FP32"/>
			</output>
		</layer>
		<layer id="357" name="3166317019824" type="Const" version="opset1">
			<data offset="495157" size="4" shape="" element_type="f32"/>
			<output>
				<port id="0" precision="FP32"/>
			</output>
		</layer>
		<layer id="358" name="/model.4/m/m.2/cv1/conv/Conv/WithoutBiases/fq_weights_1/scale1320119647" type="Const" version="opset1">
			<data offset="495161" size="384" shape="96,1,1,1" element_type="f32"/>
			<output>
				<port id="0" precision="FP32">
					<dim>96</dim>
					<dim>1</dim>
					<dim>1</dim>
					<dim>1</dim>
				</port>
			</output>
		</layer>
		<layer id="359" name="model.4.m.2.cv1.conv.weight66010507/quantized1319318702" type="Const" version="opset1">
			<data offset="495545" size="9216" shape="96,96,1,1" element_type="i8"/>
			<output>
				<port id="0" precision="I8">
					<dim>96</dim>
					<dim>96</dim>
					<dim>1</dim>
					<dim>1</dim>
				</port>
			</output>
		</layer>
		<layer id="360" name="model.4.m.2.cv1.conv.weight66010507/quantized/to_f32" type="Convert" version="opset1">
			<data destination_type="f32"/>
			<input>
				<port id="0">
					<dim>96</dim>
					<dim>96</dim>
					<dim>1</dim>
					<dim>1</dim>
				</port>
			</input>
			<output>
				<port id="1" precision="FP32">
					<dim>96</dim>
					<dim>96</dim>
					<dim>1</dim>
					<dim>1</dim>
				</port>
			</output>
		</layer>
		<layer id="361" name="/model.4/m/m.2/cv1/conv/Conv/WithoutBiases/fq_weights_1/mulpiply_by_scale" type="Multiply" version="opset1">
			<data auto_broadcast="numpy"/>
			<input>
				<port id="0">
					<dim>96</dim>
					<dim>96</dim>
					<dim>1</dim>
					<dim>1</dim>
				</port>
				<port id="1">
					<dim>96</dim>
					<dim>1</dim>
					<dim>1</dim>
					<dim>1</dim>
				</port>
			</input>
			<output>
				<port id="2" precision="FP32">
					<dim>96</dim>
					<dim>96</dim>
					<dim>1</dim>
					<dim>1</dim>
				</port>
			</output>
		</layer>
		<layer id="362" name="/model.4/m/m.2/cv1/conv/Conv/WithoutBiases" type="Convolution" version="opset1">
			<data auto_pad="explicit" strides="1,1" dilations="1,1" pads_begin="0,0" pads_end="0,0"/>
			<input>
				<port id="0">
					<dim>1</dim>
					<dim>96</dim>
					<dim>40</dim>
					<dim>40</dim>
				</port>
				<port id="1">
					<dim>96</dim>
					<dim>96</dim>
					<dim>1</dim>
					<dim>1</dim>
				</port>
			</input>
			<output>
				<port id="2" precision="FP32">
					<dim>1</dim>
					<dim>96</dim>
					<dim>40</dim>
					<dim>40</dim>
				</port>
			</output>
		</layer>
		<layer id="363" name="Reshape_95466220436" type="Const" version="opset1">
			<data offset="504761" size="384" shape="1,96,1,1" element_type="f32"/>
			<output>
				<port id="0" precision="FP32">
					<dim>1</dim>
					<dim>96</dim>
					<dim>1</dim>
					<dim>1</dim>
				</port>
			</output>
		</layer>
		<layer id="364" name="/model.4/m/m.2/cv1/conv/Conv" type="Add" version="opset1">
			<data auto_broadcast="numpy"/>
			<input>
				<port id="0">
					<dim>1</dim>
					<dim>96</dim>
					<dim>40</dim>
					<dim>40</dim>
				</port>
				<port id="1">
					<dim>1</dim>
					<dim>96</dim>
					<dim>1</dim>
					<dim>1</dim>
				</port>
			</input>
			<output>
				<port id="2" precision="FP32" names="/model.4/m/m.2/cv1/conv/Conv_output_0">
					<dim>1</dim>
					<dim>96</dim>
					<dim>40</dim>
					<dim>40</dim>
				</port>
			</output>
		</layer>
		<layer id="365" name="/model.4/m/m.2/cv1/act/HardSwish" type="HSwish" version="opset4">
			<input>
				<port id="0">
					<dim>1</dim>
					<dim>96</dim>
					<dim>40</dim>
					<dim>40</dim>
				</port>
			</input>
			<output>
				<port id="1" precision="FP32" names="/model.4/m/m.2/cv1/act/HardSwish_output_0">
					<dim>1</dim>
					<dim>96</dim>
					<dim>40</dim>
					<dim>40</dim>
				</port>
			</output>
		</layer>
		<layer id="366" name="/model.4/m/m.2/cv2/conv/Conv/WithoutBiases/fq_input_0" type="FakeQuantize" version="opset1">
			<data levels="256" auto_broadcast="numpy"/>
			<input>
				<port id="0">
					<dim>1</dim>
					<dim>96</dim>
					<dim>40</dim>
					<dim>40</dim>
				</port>
				<port id="1"/>
				<port id="2"/>
				<port id="3"/>
				<port id="4"/>
			</input>
			<output>
				<port id="5" precision="FP32">
					<dim>1</dim>
					<dim>96</dim>
					<dim>40</dim>
					<dim>40</dim>
				</port>
			</output>
		</layer>
		<layer id="367" name="/model.4/m/m.2/cv2/conv/Conv/WithoutBiases/fq_weights_1/scale1203120487" type="Const" version="opset1">
			<data offset="505145" size="384" shape="96,1,1,1" element_type="f32"/>
			<output>
				<port id="0" precision="FP32">
					<dim>96</dim>
					<dim>1</dim>
					<dim>1</dim>
					<dim>1</dim>
				</port>
			</output>
		</layer>
		<layer id="368" name="model.4.m.2.cv2.conv.weight66510509/quantized1202320610" type="Const" version="opset1">
			<data offset="505529" size="82944" shape="96,96,3,3" element_type="i8"/>
			<output>
				<port id="0" precision="I8">
					<dim>96</dim>
					<dim>96</dim>
					<dim>3</dim>
					<dim>3</dim>
				</port>
			</output>
		</layer>
		<layer id="369" name="model.4.m.2.cv2.conv.weight66510509/quantized/to_f32" type="Convert" version="opset1">
			<data destination_type="f32"/>
			<input>
				<port id="0">
					<dim>96</dim>
					<dim>96</dim>
					<dim>3</dim>
					<dim>3</dim>
				</port>
			</input>
			<output>
				<port id="1" precision="FP32">
					<dim>96</dim>
					<dim>96</dim>
					<dim>3</dim>
					<dim>3</dim>
				</port>
			</output>
		</layer>
		<layer id="370" name="/model.4/m/m.2/cv2/conv/Conv/WithoutBiases/fq_weights_1/mulpiply_by_scale" type="Multiply" version="opset1">
			<data auto_broadcast="numpy"/>
			<input>
				<port id="0">
					<dim>96</dim>
					<dim>96</dim>
					<dim>3</dim>
					<dim>3</dim>
				</port>
				<port id="1">
					<dim>96</dim>
					<dim>1</dim>
					<dim>1</dim>
					<dim>1</dim>
				</port>
			</input>
			<output>
				<port id="2" precision="FP32">
					<dim>96</dim>
					<dim>96</dim>
					<dim>3</dim>
					<dim>3</dim>
				</port>
			</output>
		</layer>
		<layer id="371" name="/model.4/m/m.2/cv2/conv/Conv/WithoutBiases" type="Convolution" version="opset1">
			<data auto_pad="explicit" strides="1,1" dilations="1,1" pads_begin="1,1" pads_end="1,1"/>
			<input>
				<port id="0">
					<dim>1</dim>
					<dim>96</dim>
					<dim>40</dim>
					<dim>40</dim>
				</port>
				<port id="1">
					<dim>96</dim>
					<dim>96</dim>
					<dim>3</dim>
					<dim>3</dim>
				</port>
			</input>
			<output>
				<port id="2" precision="FP32">
					<dim>1</dim>
					<dim>96</dim>
					<dim>40</dim>
					<dim>40</dim>
				</port>
			</output>
		</layer>
		<layer id="372" name="Reshape_100366720862" type="Const" version="opset1">
			<data offset="588473" size="384" shape="1,96,1,1" element_type="f32"/>
			<output>
				<port id="0" precision="FP32">
					<dim>1</dim>
					<dim>96</dim>
					<dim>1</dim>
					<dim>1</dim>
				</port>
			</output>
		</layer>
		<layer id="373" name="/model.4/m/m.2/cv2/conv/Conv" type="Add" version="opset1">
			<data auto_broadcast="numpy"/>
			<input>
				<port id="0">
					<dim>1</dim>
					<dim>96</dim>
					<dim>40</dim>
					<dim>40</dim>
				</port>
				<port id="1">
					<dim>1</dim>
					<dim>96</dim>
					<dim>1</dim>
					<dim>1</dim>
				</port>
			</input>
			<output>
				<port id="2" precision="FP32" names="/model.4/m/m.2/cv2/conv/Conv_output_0">
					<dim>1</dim>
					<dim>96</dim>
					<dim>40</dim>
					<dim>40</dim>
				</port>
			</output>
		</layer>
		<layer id="374" name="/model.4/m/m.2/cv2/act/HardSwish" type="HSwish" version="opset4">
			<input>
				<port id="0">
					<dim>1</dim>
					<dim>96</dim>
					<dim>40</dim>
					<dim>40</dim>
				</port>
			</input>
			<output>
				<port id="1" precision="FP32" names="/model.4/m/m.2/cv2/act/HardSwish_output_0">
					<dim>1</dim>
					<dim>96</dim>
					<dim>40</dim>
					<dim>40</dim>
				</port>
			</output>
		</layer>
		<layer id="375" name="/model.4/m/m.2/Add/fq_input_1" type="FakeQuantize" version="opset1">
			<data levels="256" auto_broadcast="numpy"/>
			<input>
				<port id="0">
					<dim>1</dim>
					<dim>96</dim>
					<dim>40</dim>
					<dim>40</dim>
				</port>
				<port id="1"/>
				<port id="2"/>
				<port id="3"/>
				<port id="4"/>
			</input>
			<output>
				<port id="5" precision="FP32">
					<dim>1</dim>
					<dim>96</dim>
					<dim>40</dim>
					<dim>40</dim>
				</port>
			</output>
		</layer>
		<layer id="376" name="/model.4/m/m.2/Add" type="Add" version="opset1">
			<data auto_broadcast="numpy"/>
			<input>
				<port id="0">
					<dim>1</dim>
					<dim>96</dim>
					<dim>40</dim>
					<dim>40</dim>
				</port>
				<port id="1">
					<dim>1</dim>
					<dim>96</dim>
					<dim>40</dim>
					<dim>40</dim>
				</port>
			</input>
			<output>
				<port id="2" precision="FP32" names="/model.4/m/m.2/Add_output_0">
					<dim>1</dim>
					<dim>96</dim>
					<dim>40</dim>
					<dim>40</dim>
				</port>
			</output>
		</layer>
		<layer id="377" name="/model.4/m/m.3/Add/fq_input_0" type="FakeQuantize" version="opset1">
			<data levels="256" auto_broadcast="numpy"/>
			<input>
				<port id="0">
					<dim>1</dim>
					<dim>96</dim>
					<dim>40</dim>
					<dim>40</dim>
				</port>
				<port id="1"/>
				<port id="2"/>
				<port id="3"/>
				<port id="4"/>
			</input>
			<output>
				<port id="5" precision="FP32">
					<dim>1</dim>
					<dim>96</dim>
					<dim>40</dim>
					<dim>40</dim>
				</port>
			</output>
		</layer>
		<layer id="378" name="2453245720031" type="Const" version="opset1">
			<data offset="588857" size="4" shape="" element_type="f32"/>
			<output>
				<port id="0" precision="FP32"/>
			</output>
		</layer>
		<layer id="379" name="2454245819119" type="Const" version="opset1">
			<data offset="588861" size="4" shape="" element_type="f32"/>
			<output>
				<port id="0" precision="FP32"/>
			</output>
		</layer>
		<layer id="380" name="2455245919935" type="Const" version="opset1">
			<data offset="588857" size="4" shape="" element_type="f32"/>
			<output>
				<port id="0" precision="FP32"/>
			</output>
		</layer>
		<layer id="381" name="2456246020229" type="Const" version="opset1">
			<data offset="588861" size="4" shape="" element_type="f32"/>
			<output>
				<port id="0" precision="FP32"/>
			</output>
		</layer>
		<layer id="382" name="2563256719260" type="Const" version="opset1">
			<data offset="588865" size="4" shape="" element_type="f32"/>
			<output>
				<port id="0" precision="FP32"/>
			</output>
		</layer>
		<layer id="383" name="2564256818606" type="Const" version="opset1">
			<data offset="588869" size="4" shape="" element_type="f32"/>
			<output>
				<port id="0" precision="FP32"/>
			</output>
		</layer>
		<layer id="384" name="2565256918747" type="Const" version="opset1">
			<data offset="588865" size="4" shape="" element_type="f32"/>
			<output>
				<port id="0" precision="FP32"/>
			</output>
		</layer>
		<layer id="385" name="2566257020286" type="Const" version="opset1">
			<data offset="588869" size="4" shape="" element_type="f32"/>
			<output>
				<port id="0" precision="FP32"/>
			</output>
		</layer>
		<layer id="386" name="/model.4/m/m.3/cv1/conv/Conv/WithoutBiases/fq_weights_1/scale1257120157" type="Const" version="opset1">
			<data offset="588873" size="384" shape="96,1,1,1" element_type="f32"/>
			<output>
				<port id="0" precision="FP32">
					<dim>96</dim>
					<dim>1</dim>
					<dim>1</dim>
					<dim>1</dim>
				</port>
			</output>
		</layer>
		<layer id="387" name="model.4.m.3.cv1.conv.weight67110511/quantized1256320079" type="Const" version="opset1">
			<data offset="589257" size="9216" shape="96,96,1,1" element_type="i8"/>
			<output>
				<port id="0" precision="I8">
					<dim>96</dim>
					<dim>96</dim>
					<dim>1</dim>
					<dim>1</dim>
				</port>
			</output>
		</layer>
		<layer id="388" name="model.4.m.3.cv1.conv.weight67110511/quantized/to_f32" type="Convert" version="opset1">
			<data destination_type="f32"/>
			<input>
				<port id="0">
					<dim>96</dim>
					<dim>96</dim>
					<dim>1</dim>
					<dim>1</dim>
				</port>
			</input>
			<output>
				<port id="1" precision="FP32">
					<dim>96</dim>
					<dim>96</dim>
					<dim>1</dim>
					<dim>1</dim>
				</port>
			</output>
		</layer>
		<layer id="389" name="/model.4/m/m.3/cv1/conv/Conv/WithoutBiases/fq_weights_1/mulpiply_by_scale" type="Multiply" version="opset1">
			<data auto_broadcast="numpy"/>
			<input>
				<port id="0">
					<dim>96</dim>
					<dim>96</dim>
					<dim>1</dim>
					<dim>1</dim>
				</port>
				<port id="1">
					<dim>96</dim>
					<dim>1</dim>
					<dim>1</dim>
					<dim>1</dim>
				</port>
			</input>
			<output>
				<port id="2" precision="FP32">
					<dim>96</dim>
					<dim>96</dim>
					<dim>1</dim>
					<dim>1</dim>
				</port>
			</output>
		</layer>
		<layer id="390" name="/model.4/m/m.3/cv1/conv/Conv/WithoutBiases" type="Convolution" version="opset1">
			<data auto_pad="explicit" strides="1,1" dilations="1,1" pads_begin="0,0" pads_end="0,0"/>
			<input>
				<port id="0">
					<dim>1</dim>
					<dim>96</dim>
					<dim>40</dim>
					<dim>40</dim>
				</port>
				<port id="1">
					<dim>96</dim>
					<dim>96</dim>
					<dim>1</dim>
					<dim>1</dim>
				</port>
			</input>
			<output>
				<port id="2" precision="FP32">
					<dim>1</dim>
					<dim>96</dim>
					<dim>40</dim>
					<dim>40</dim>
				</port>
			</output>
		</layer>
		<layer id="391" name="Reshape_105367319872" type="Const" version="opset1">
			<data offset="598473" size="384" shape="1,96,1,1" element_type="f32"/>
			<output>
				<port id="0" precision="FP32">
					<dim>1</dim>
					<dim>96</dim>
					<dim>1</dim>
					<dim>1</dim>
				</port>
			</output>
		</layer>
		<layer id="392" name="/model.4/m/m.3/cv1/conv/Conv" type="Add" version="opset1">
			<data auto_broadcast="numpy"/>
			<input>
				<port id="0">
					<dim>1</dim>
					<dim>96</dim>
					<dim>40</dim>
					<dim>40</dim>
				</port>
				<port id="1">
					<dim>1</dim>
					<dim>96</dim>
					<dim>1</dim>
					<dim>1</dim>
				</port>
			</input>
			<output>
				<port id="2" precision="FP32" names="/model.4/m/m.3/cv1/conv/Conv_output_0">
					<dim>1</dim>
					<dim>96</dim>
					<dim>40</dim>
					<dim>40</dim>
				</port>
			</output>
		</layer>
		<layer id="393" name="/model.4/m/m.3/cv1/act/HardSwish" type="HSwish" version="opset4">
			<input>
				<port id="0">
					<dim>1</dim>
					<dim>96</dim>
					<dim>40</dim>
					<dim>40</dim>
				</port>
			</input>
			<output>
				<port id="1" precision="FP32" names="/model.4/m/m.3/cv1/act/HardSwish_output_0">
					<dim>1</dim>
					<dim>96</dim>
					<dim>40</dim>
					<dim>40</dim>
				</port>
			</output>
		</layer>
		<layer id="394" name="/model.4/m/m.3/cv2/conv/Conv/WithoutBiases/fq_input_0" type="FakeQuantize" version="opset1">
			<data levels="256" auto_broadcast="numpy"/>
			<input>
				<port id="0">
					<dim>1</dim>
					<dim>96</dim>
					<dim>40</dim>
					<dim>40</dim>
				</port>
				<port id="1"/>
				<port id="2"/>
				<port id="3"/>
				<port id="4"/>
			</input>
			<output>
				<port id="5" precision="FP32">
					<dim>1</dim>
					<dim>96</dim>
					<dim>40</dim>
					<dim>40</dim>
				</port>
			</output>
		</layer>
		<layer id="395" name="/model.4/m/m.3/cv2/conv/Conv/WithoutBiases/fq_weights_1/scale1323119047" type="Const" version="opset1">
			<data offset="598857" size="384" shape="96,1,1,1" element_type="f32"/>
			<output>
				<port id="0" precision="FP32">
					<dim>96</dim>
					<dim>1</dim>
					<dim>1</dim>
					<dim>1</dim>
				</port>
			</output>
		</layer>
		<layer id="396" name="model.4.m.3.cv2.conv.weight67610513/quantized1322320526" type="Const" version="opset1">
			<data offset="599241" size="82944" shape="96,96,3,3" element_type="i8"/>
			<output>
				<port id="0" precision="I8">
					<dim>96</dim>
					<dim>96</dim>
					<dim>3</dim>
					<dim>3</dim>
				</port>
			</output>
		</layer>
		<layer id="397" name="model.4.m.3.cv2.conv.weight67610513/quantized/to_f32" type="Convert" version="opset1">
			<data destination_type="f32"/>
			<input>
				<port id="0">
					<dim>96</dim>
					<dim>96</dim>
					<dim>3</dim>
					<dim>3</dim>
				</port>
			</input>
			<output>
				<port id="1" precision="FP32">
					<dim>96</dim>
					<dim>96</dim>
					<dim>3</dim>
					<dim>3</dim>
				</port>
			</output>
		</layer>
		<layer id="398" name="/model.4/m/m.3/cv2/conv/Conv/WithoutBiases/fq_weights_1/mulpiply_by_scale" type="Multiply" version="opset1">
			<data auto_broadcast="numpy"/>
			<input>
				<port id="0">
					<dim>96</dim>
					<dim>96</dim>
					<dim>3</dim>
					<dim>3</dim>
				</port>
				<port id="1">
					<dim>96</dim>
					<dim>1</dim>
					<dim>1</dim>
					<dim>1</dim>
				</port>
			</input>
			<output>
				<port id="2" precision="FP32">
					<dim>96</dim>
					<dim>96</dim>
					<dim>3</dim>
					<dim>3</dim>
				</port>
			</output>
		</layer>
		<layer id="399" name="/model.4/m/m.3/cv2/conv/Conv/WithoutBiases" type="Convolution" version="opset1">
			<data auto_pad="explicit" strides="1,1" dilations="1,1" pads_begin="1,1" pads_end="1,1"/>
			<input>
				<port id="0">
					<dim>1</dim>
					<dim>96</dim>
					<dim>40</dim>
					<dim>40</dim>
				</port>
				<port id="1">
					<dim>96</dim>
					<dim>96</dim>
					<dim>3</dim>
					<dim>3</dim>
				</port>
			</input>
			<output>
				<port id="2" precision="FP32">
					<dim>1</dim>
					<dim>96</dim>
					<dim>40</dim>
					<dim>40</dim>
				</port>
			</output>
		</layer>
		<layer id="400" name="Reshape_110267819581" type="Const" version="opset1">
			<data offset="682185" size="384" shape="1,96,1,1" element_type="f32"/>
			<output>
				<port id="0" precision="FP32">
					<dim>1</dim>
					<dim>96</dim>
					<dim>1</dim>
					<dim>1</dim>
				</port>
			</output>
		</layer>
		<layer id="401" name="/model.4/m/m.3/cv2/conv/Conv" type="Add" version="opset1">
			<data auto_broadcast="numpy"/>
			<input>
				<port id="0">
					<dim>1</dim>
					<dim>96</dim>
					<dim>40</dim>
					<dim>40</dim>
				</port>
				<port id="1">
					<dim>1</dim>
					<dim>96</dim>
					<dim>1</dim>
					<dim>1</dim>
				</port>
			</input>
			<output>
				<port id="2" precision="FP32" names="/model.4/m/m.3/cv2/conv/Conv_output_0">
					<dim>1</dim>
					<dim>96</dim>
					<dim>40</dim>
					<dim>40</dim>
				</port>
			</output>
		</layer>
		<layer id="402" name="/model.4/m/m.3/cv2/act/HardSwish" type="HSwish" version="opset4">
			<input>
				<port id="0">
					<dim>1</dim>
					<dim>96</dim>
					<dim>40</dim>
					<dim>40</dim>
				</port>
			</input>
			<output>
				<port id="1" precision="FP32" names="/model.4/m/m.3/cv2/act/HardSwish_output_0">
					<dim>1</dim>
					<dim>96</dim>
					<dim>40</dim>
					<dim>40</dim>
				</port>
			</output>
		</layer>
		<layer id="403" name="/model.4/m/m.3/Add/fq_input_1" type="FakeQuantize" version="opset1">
			<data levels="256" auto_broadcast="numpy"/>
			<input>
				<port id="0">
					<dim>1</dim>
					<dim>96</dim>
					<dim>40</dim>
					<dim>40</dim>
				</port>
				<port id="1"/>
				<port id="2"/>
				<port id="3"/>
				<port id="4"/>
			</input>
			<output>
				<port id="5" precision="FP32">
					<dim>1</dim>
					<dim>96</dim>
					<dim>40</dim>
					<dim>40</dim>
				</port>
			</output>
		</layer>
		<layer id="404" name="/model.4/m/m.3/Add" type="Add" version="opset1">
			<data auto_broadcast="numpy"/>
			<input>
				<port id="0">
					<dim>1</dim>
					<dim>96</dim>
					<dim>40</dim>
					<dim>40</dim>
				</port>
				<port id="1">
					<dim>1</dim>
					<dim>96</dim>
					<dim>40</dim>
					<dim>40</dim>
				</port>
			</input>
			<output>
				<port id="2" precision="FP32" names="/model.4/m/m.3/Add_output_0">
					<dim>1</dim>
					<dim>96</dim>
					<dim>40</dim>
					<dim>40</dim>
				</port>
			</output>
		</layer>
		<layer id="405" name="/model.4/m/m.4/Add/fq_input_0" type="FakeQuantize" version="opset1">
			<data levels="256" auto_broadcast="numpy"/>
			<input>
				<port id="0">
					<dim>1</dim>
					<dim>96</dim>
					<dim>40</dim>
					<dim>40</dim>
				</port>
				<port id="1"/>
				<port id="2"/>
				<port id="3"/>
				<port id="4"/>
			</input>
			<output>
				<port id="5" precision="FP32">
					<dim>1</dim>
					<dim>96</dim>
					<dim>40</dim>
					<dim>40</dim>
				</port>
			</output>
		</layer>
		<layer id="406" name="3623362719683" type="Const" version="opset1">
			<data offset="682569" size="4" shape="" element_type="f32"/>
			<output>
				<port id="0" precision="FP32"/>
			</output>
		</layer>
		<layer id="407" name="3624362820613" type="Const" version="opset1">
			<data offset="682573" size="4" shape="" element_type="f32"/>
			<output>
				<port id="0" precision="FP32"/>
			</output>
		</layer>
		<layer id="408" name="3625362919530" type="Const" version="opset1">
			<data offset="682569" size="4" shape="" element_type="f32"/>
			<output>
				<port id="0" precision="FP32"/>
			</output>
		</layer>
		<layer id="409" name="3626363018783" type="Const" version="opset1">
			<data offset="682573" size="4" shape="" element_type="f32"/>
			<output>
				<port id="0" precision="FP32"/>
			</output>
		</layer>
		<layer id="410" name="4103410718708" type="Const" version="opset1">
			<data offset="682577" size="4" shape="" element_type="f32"/>
			<output>
				<port id="0" precision="FP32"/>
			</output>
		</layer>
		<layer id="411" name="4104410820706" type="Const" version="opset1">
			<data offset="682581" size="4" shape="" element_type="f32"/>
			<output>
				<port id="0" precision="FP32"/>
			</output>
		</layer>
		<layer id="412" name="4105410920175" type="Const" version="opset1">
			<data offset="682577" size="4" shape="" element_type="f32"/>
			<output>
				<port id="0" precision="FP32"/>
			</output>
		</layer>
		<layer id="413" name="4106411020754" type="Const" version="opset1">
			<data offset="682581" size="4" shape="" element_type="f32"/>
			<output>
				<port id="0" precision="FP32"/>
			</output>
		</layer>
		<layer id="414" name="/model.4/m/m.4/cv1/conv/Conv/WithoutBiases/fq_weights_1/scale1374120739" type="Const" version="opset1">
			<data offset="682585" size="384" shape="96,1,1,1" element_type="f32"/>
			<output>
				<port id="0" precision="FP32">
					<dim>96</dim>
					<dim>1</dim>
					<dim>1</dim>
					<dim>1</dim>
				</port>
			</output>
		</layer>
		<layer id="415" name="model.4.m.4.cv1.conv.weight68210515/quantized1373319662" type="Const" version="opset1">
			<data offset="682969" size="9216" shape="96,96,1,1" element_type="i8"/>
			<output>
				<port id="0" precision="I8">
					<dim>96</dim>
					<dim>96</dim>
					<dim>1</dim>
					<dim>1</dim>
				</port>
			</output>
		</layer>
		<layer id="416" name="model.4.m.4.cv1.conv.weight68210515/quantized/to_f32" type="Convert" version="opset1">
			<data destination_type="f32"/>
			<input>
				<port id="0">
					<dim>96</dim>
					<dim>96</dim>
					<dim>1</dim>
					<dim>1</dim>
				</port>
			</input>
			<output>
				<port id="1" precision="FP32">
					<dim>96</dim>
					<dim>96</dim>
					<dim>1</dim>
					<dim>1</dim>
				</port>
			</output>
		</layer>
		<layer id="417" name="/model.4/m/m.4/cv1/conv/Conv/WithoutBiases/fq_weights_1/mulpiply_by_scale" type="Multiply" version="opset1">
			<data auto_broadcast="numpy"/>
			<input>
				<port id="0">
					<dim>96</dim>
					<dim>96</dim>
					<dim>1</dim>
					<dim>1</dim>
				</port>
				<port id="1">
					<dim>96</dim>
					<dim>1</dim>
					<dim>1</dim>
					<dim>1</dim>
				</port>
			</input>
			<output>
				<port id="2" precision="FP32">
					<dim>96</dim>
					<dim>96</dim>
					<dim>1</dim>
					<dim>1</dim>
				</port>
			</output>
		</layer>
		<layer id="418" name="/model.4/m/m.4/cv1/conv/Conv/WithoutBiases" type="Convolution" version="opset1">
			<data auto_pad="explicit" strides="1,1" dilations="1,1" pads_begin="0,0" pads_end="0,0"/>
			<input>
				<port id="0">
					<dim>1</dim>
					<dim>96</dim>
					<dim>40</dim>
					<dim>40</dim>
				</port>
				<port id="1">
					<dim>96</dim>
					<dim>96</dim>
					<dim>1</dim>
					<dim>1</dim>
				</port>
			</input>
			<output>
				<port id="2" precision="FP32">
					<dim>1</dim>
					<dim>96</dim>
					<dim>40</dim>
					<dim>40</dim>
				</port>
			</output>
		</layer>
		<layer id="419" name="Reshape_115268419965" type="Const" version="opset1">
			<data offset="692185" size="384" shape="1,96,1,1" element_type="f32"/>
			<output>
				<port id="0" precision="FP32">
					<dim>1</dim>
					<dim>96</dim>
					<dim>1</dim>
					<dim>1</dim>
				</port>
			</output>
		</layer>
		<layer id="420" name="/model.4/m/m.4/cv1/conv/Conv" type="Add" version="opset1">
			<data auto_broadcast="numpy"/>
			<input>
				<port id="0">
					<dim>1</dim>
					<dim>96</dim>
					<dim>40</dim>
					<dim>40</dim>
				</port>
				<port id="1">
					<dim>1</dim>
					<dim>96</dim>
					<dim>1</dim>
					<dim>1</dim>
				</port>
			</input>
			<output>
				<port id="2" precision="FP32" names="/model.4/m/m.4/cv1/conv/Conv_output_0">
					<dim>1</dim>
					<dim>96</dim>
					<dim>40</dim>
					<dim>40</dim>
				</port>
			</output>
		</layer>
		<layer id="421" name="/model.4/m/m.4/cv1/act/HardSwish" type="HSwish" version="opset4">
			<input>
				<port id="0">
					<dim>1</dim>
					<dim>96</dim>
					<dim>40</dim>
					<dim>40</dim>
				</port>
			</input>
			<output>
				<port id="1" precision="FP32" names="/model.4/m/m.4/cv1/act/HardSwish_output_0">
					<dim>1</dim>
					<dim>96</dim>
					<dim>40</dim>
					<dim>40</dim>
				</port>
			</output>
		</layer>
		<layer id="422" name="/model.4/m/m.4/cv2/conv/Conv/WithoutBiases/fq_input_0" type="FakeQuantize" version="opset1">
			<data levels="256" auto_broadcast="numpy"/>
			<input>
				<port id="0">
					<dim>1</dim>
					<dim>96</dim>
					<dim>40</dim>
					<dim>40</dim>
				</port>
				<port id="1"/>
				<port id="2"/>
				<port id="3"/>
				<port id="4"/>
			</input>
			<output>
				<port id="5" precision="FP32">
					<dim>1</dim>
					<dim>96</dim>
					<dim>40</dim>
					<dim>40</dim>
				</port>
			</output>
		</layer>
		<layer id="423" name="/model.4/m/m.4/cv2/conv/Conv/WithoutBiases/fq_weights_1/scale1233120847" type="Const" version="opset1">
			<data offset="692569" size="384" shape="96,1,1,1" element_type="f32"/>
			<output>
				<port id="0" precision="FP32">
					<dim>96</dim>
					<dim>1</dim>
					<dim>1</dim>
					<dim>1</dim>
				</port>
			</output>
		</layer>
		<layer id="424" name="model.4.m.4.cv2.conv.weight68710517/quantized1232319344" type="Const" version="opset1">
			<data offset="692953" size="82944" shape="96,96,3,3" element_type="i8"/>
			<output>
				<port id="0" precision="I8">
					<dim>96</dim>
					<dim>96</dim>
					<dim>3</dim>
					<dim>3</dim>
				</port>
			</output>
		</layer>
		<layer id="425" name="model.4.m.4.cv2.conv.weight68710517/quantized/to_f32" type="Convert" version="opset1">
			<data destination_type="f32"/>
			<input>
				<port id="0">
					<dim>96</dim>
					<dim>96</dim>
					<dim>3</dim>
					<dim>3</dim>
				</port>
			</input>
			<output>
				<port id="1" precision="FP32">
					<dim>96</dim>
					<dim>96</dim>
					<dim>3</dim>
					<dim>3</dim>
				</port>
			</output>
		</layer>
		<layer id="426" name="/model.4/m/m.4/cv2/conv/Conv/WithoutBiases/fq_weights_1/mulpiply_by_scale" type="Multiply" version="opset1">
			<data auto_broadcast="numpy"/>
			<input>
				<port id="0">
					<dim>96</dim>
					<dim>96</dim>
					<dim>3</dim>
					<dim>3</dim>
				</port>
				<port id="1">
					<dim>96</dim>
					<dim>1</dim>
					<dim>1</dim>
					<dim>1</dim>
				</port>
			</input>
			<output>
				<port id="2" precision="FP32">
					<dim>96</dim>
					<dim>96</dim>
					<dim>3</dim>
					<dim>3</dim>
				</port>
			</output>
		</layer>
		<layer id="427" name="/model.4/m/m.4/cv2/conv/Conv/WithoutBiases" type="Convolution" version="opset1">
			<data auto_pad="explicit" strides="1,1" dilations="1,1" pads_begin="1,1" pads_end="1,1"/>
			<input>
				<port id="0">
					<dim>1</dim>
					<dim>96</dim>
					<dim>40</dim>
					<dim>40</dim>
				</port>
				<port id="1">
					<dim>96</dim>
					<dim>96</dim>
					<dim>3</dim>
					<dim>3</dim>
				</port>
			</input>
			<output>
				<port id="2" precision="FP32">
					<dim>1</dim>
					<dim>96</dim>
					<dim>40</dim>
					<dim>40</dim>
				</port>
			</output>
		</layer>
		<layer id="428" name="Reshape_120168919335" type="Const" version="opset1">
			<data offset="775897" size="384" shape="1,96,1,1" element_type="f32"/>
			<output>
				<port id="0" precision="FP32">
					<dim>1</dim>
					<dim>96</dim>
					<dim>1</dim>
					<dim>1</dim>
				</port>
			</output>
		</layer>
		<layer id="429" name="/model.4/m/m.4/cv2/conv/Conv" type="Add" version="opset1">
			<data auto_broadcast="numpy"/>
			<input>
				<port id="0">
					<dim>1</dim>
					<dim>96</dim>
					<dim>40</dim>
					<dim>40</dim>
				</port>
				<port id="1">
					<dim>1</dim>
					<dim>96</dim>
					<dim>1</dim>
					<dim>1</dim>
				</port>
			</input>
			<output>
				<port id="2" precision="FP32" names="/model.4/m/m.4/cv2/conv/Conv_output_0">
					<dim>1</dim>
					<dim>96</dim>
					<dim>40</dim>
					<dim>40</dim>
				</port>
			</output>
		</layer>
		<layer id="430" name="/model.4/m/m.4/cv2/act/HardSwish" type="HSwish" version="opset4">
			<input>
				<port id="0">
					<dim>1</dim>
					<dim>96</dim>
					<dim>40</dim>
					<dim>40</dim>
				</port>
			</input>
			<output>
				<port id="1" precision="FP32" names="/model.4/m/m.4/cv2/act/HardSwish_output_0">
					<dim>1</dim>
					<dim>96</dim>
					<dim>40</dim>
					<dim>40</dim>
				</port>
			</output>
		</layer>
		<layer id="431" name="/model.4/m/m.4/Add/fq_input_1" type="FakeQuantize" version="opset1">
			<data levels="256" auto_broadcast="numpy"/>
			<input>
				<port id="0">
					<dim>1</dim>
					<dim>96</dim>
					<dim>40</dim>
					<dim>40</dim>
				</port>
				<port id="1"/>
				<port id="2"/>
				<port id="3"/>
				<port id="4"/>
			</input>
			<output>
				<port id="5" precision="FP32">
					<dim>1</dim>
					<dim>96</dim>
					<dim>40</dim>
					<dim>40</dim>
				</port>
			</output>
		</layer>
		<layer id="432" name="/model.4/m/m.4/Add" type="Add" version="opset1">
			<data auto_broadcast="numpy"/>
			<input>
				<port id="0">
					<dim>1</dim>
					<dim>96</dim>
					<dim>40</dim>
					<dim>40</dim>
				</port>
				<port id="1">
					<dim>1</dim>
					<dim>96</dim>
					<dim>40</dim>
					<dim>40</dim>
				</port>
			</input>
			<output>
				<port id="2" precision="FP32" names="/model.4/m/m.4/Add_output_0">
					<dim>1</dim>
					<dim>96</dim>
					<dim>40</dim>
					<dim>40</dim>
				</port>
			</output>
		</layer>
		<layer id="433" name="/model.4/m/m.5/Add/fq_input_0" type="FakeQuantize" version="opset1">
			<data levels="256" auto_broadcast="numpy"/>
			<input>
				<port id="0">
					<dim>1</dim>
					<dim>96</dim>
					<dim>40</dim>
					<dim>40</dim>
				</port>
				<port id="1"/>
				<port id="2"/>
				<port id="3"/>
				<port id="4"/>
			</input>
			<output>
				<port id="5" precision="FP32">
					<dim>1</dim>
					<dim>96</dim>
					<dim>40</dim>
					<dim>40</dim>
				</port>
			</output>
		</layer>
		<layer id="434" name="3703370718807" type="Const" version="opset1">
			<data offset="776281" size="4" shape="" element_type="f32"/>
			<output>
				<port id="0" precision="FP32"/>
			</output>
		</layer>
		<layer id="435" name="3704370819203" type="Const" version="opset1">
			<data offset="776285" size="4" shape="" element_type="f32"/>
			<output>
				<port id="0" precision="FP32"/>
			</output>
		</layer>
		<layer id="436" name="3705370920046" type="Const" version="opset1">
			<data offset="776281" size="4" shape="" element_type="f32"/>
			<output>
				<port id="0" precision="FP32"/>
			</output>
		</layer>
		<layer id="437" name="3706371020607" type="Const" version="opset1">
…
		<edge from-layer="909" from-port="1" to-layer="910" to-port="0"/>
		<edge from-layer="842" from-port="0" to-layer="910" to-port="1"/>
		<edge from-layer="843" from-port="0" to-layer="910" to-port="2"/>
		<edge from-layer="844" from-port="0" to-layer="910" to-port="3"/>
		<edge from-layer="845" from-port="0" to-layer="910" to-port="4"/>
		<edge from-layer="912" from-port="0" to-layer="913" to-port="0"/>
		<edge from-layer="913" from-port="1" to-layer="914" to-port="0"/>
		<edge from-layer="911" from-port="0" to-layer="914" to-port="1"/>
		<edge from-layer="910" from-port="5" to-layer="915" to-port="0"/>
		<edge from-layer="914" from-port="2" to-layer="915" to-port="1"/>
		<edge from-layer="915" from-port="2" to-layer="917" to-port="0"/>
		<edge from-layer="916" from-port="0" to-layer="917" to-port="1"/>
		<edge from-layer="917" from-port="2" to-layer="918" to-port="0"/>
		<edge from-layer="918" from-port="1" to-layer="919" to-port="0"/>
		<edge from-layer="838" from-port="0" to-layer="919" to-port="1"/>
		<edge from-layer="839" from-port="0" to-layer="919" to-port="2"/>
		<edge from-layer="840" from-port="0" to-layer="919" to-port="3"/>
		<edge from-layer="841" from-port="0" to-layer="919" to-port="4"/>
		<edge from-layer="921" from-port="0" to-layer="922" to-port="0"/>
		<edge from-layer="922" from-port="1" to-layer="923" to-port="0"/>
		<edge from-layer="920" from-port="0" to-layer="923" to-port="1"/>
		<edge from-layer="919" from-port="5" to-layer="924" to-port="0"/>
		<edge from-layer="923" from-port="2" to-layer="924" to-port="1"/>
		<edge from-layer="924" from-port="2" to-layer="926" to-port="0"/>
		<edge from-layer="925" from-port="0" to-layer="926" to-port="1"/>
		<edge from-layer="926" from-port="2" to-layer="927" to-port="0"/>
		<edge from-layer="927" from-port="1" to-layer="928" to-port="0"/>
		<edge from-layer="834" from-port="0" to-layer="928" to-port="1"/>
		<edge from-layer="835" from-port="0" to-layer="928" to-port="2"/>
		<edge from-layer="836" from-port="0" to-layer="928" to-port="3"/>
		<edge from-layer="837" from-port="0" to-layer="928" to-port="4"/>
		<edge from-layer="930" from-port="0" to-layer="931" to-port="0"/>
		<edge from-layer="931" from-port="1" to-layer="932" to-port="0"/>
		<edge from-layer="929" from-port="0" to-layer="932" to-port="1"/>
		<edge from-layer="928" from-port="5" to-layer="933" to-port="0"/>
		<edge from-layer="932" from-port="2" to-layer="933" to-port="1"/>
		<edge from-layer="933" from-port="2" to-layer="935" to-port="0"/>
		<edge from-layer="934" from-port="0" to-layer="935" to-port="1"/>
		<edge from-layer="935" from-port="2" to-layer="936" to-port="0"/>
		<edge from-layer="936" from-port="1" to-layer="937" to-port="0"/>
		<edge from-layer="830" from-port="0" to-layer="937" to-port="1"/>
		<edge from-layer="831" from-port="0" to-layer="937" to-port="2"/>
		<edge from-layer="832" from-port="0" to-layer="937" to-port="3"/>
		<edge from-layer="833" from-port="0" to-layer="937" to-port="4"/>
		<edge from-layer="939" from-port="0" to-layer="940" to-port="0"/>
		<edge from-layer="940" from-port="1" to-layer="941" to-port="0"/>
		<edge from-layer="938" from-port="0" to-layer="941" to-port="1"/>
		<edge from-layer="937" from-port="5" to-layer="942" to-port="0"/>
		<edge from-layer="941" from-port="2" to-layer="942" to-port="1"/>
		<edge from-layer="942" from-port="2" to-layer="943" to-port="0"/>
		<edge from-layer="829" from-port="0" to-layer="943" to-port="1"/>
		<edge from-layer="943" from-port="2" to-layer="944" to-port="0"/>
		<edge from-layer="825" from-port="0" to-layer="944" to-port="1"/>
		<edge from-layer="826" from-port="0" to-layer="944" to-port="2"/>
		<edge from-layer="827" from-port="0" to-layer="944" to-port="3"/>
		<edge from-layer="828" from-port="0" to-layer="944" to-port="4"/>
		<edge from-layer="951" from-port="0" to-layer="952" to-port="0"/>
		<edge from-layer="952" from-port="1" to-layer="953" to-port="0"/>
		<edge from-layer="950" from-port="0" to-layer="953" to-port="1"/>
		<edge from-layer="892" from-port="5" to-layer="954" to-port="0"/>
		<edge from-layer="953" from-port="2" to-layer="954" to-port="1"/>
		<edge from-layer="954" from-port="2" to-layer="955" to-port="0"/>
		<edge from-layer="949" from-port="0" to-layer="955" to-port="1"/>
		<edge from-layer="955" from-port="2" to-layer="956" to-port="0"/>
		<edge from-layer="945" from-port="0" to-layer="956" to-port="1"/>
		<edge from-layer="946" from-port="0" to-layer="956" to-port="2"/>
		<edge from-layer="947" from-port="0" to-layer="956" to-port="3"/>
		<edge from-layer="948" from-port="0" to-layer="956" to-port="4"/>
		<edge from-layer="944" from-port="5" to-layer="957" to-port="0"/>
		<edge from-layer="956" from-port="5" to-layer="957" to-port="1"/>
		<edge from-layer="957" from-port="2" to-layer="958" to-port="0"/>
		<edge from-layer="824" from-port="0" to-layer="958" to-port="1"/>
		<edge from-layer="958" from-port="2" to-layer="960" to-port="0"/>
		<edge from-layer="959" from-port="0" to-layer="960" to-port="1"/>
		<edge from-layer="960" from-port="2" to-layer="962" to-port="0"/>
		<edge from-layer="961" from-port="0" to-layer="962" to-port="1"/>
		<edge from-layer="962" from-port="2" to-layer="963" to-port="0"/>
		<edge from-layer="820" from-port="0" to-layer="963" to-port="1"/>
		<edge from-layer="821" from-port="0" to-layer="963" to-port="2"/>
		<edge from-layer="822" from-port="0" to-layer="963" to-port="3"/>
		<edge from-layer="823" from-port="0" to-layer="963" to-port="4"/>
		<edge from-layer="965" from-port="0" to-layer="966" to-port="0"/>
		<edge from-layer="966" from-port="1" to-layer="967" to-port="0"/>
		<edge from-layer="964" from-port="0" to-layer="967" to-port="1"/>
		<edge from-layer="963" from-port="5" to-layer="968" to-port="0"/>
		<edge from-layer="967" from-port="2" to-layer="968" to-port="1"/>
		<edge from-layer="968" from-port="2" to-layer="970" to-port="0"/>
		<edge from-layer="969" from-port="0" to-layer="970" to-port="1"/>
		<edge from-layer="970" from-port="2" to-layer="971" to-port="0"/>
		<edge from-layer="971" from-port="1" to-layer="972" to-port="0"/>
		<edge from-layer="816" from-port="0" to-layer="972" to-port="1"/>
		<edge from-layer="817" from-port="0" to-layer="972" to-port="2"/>
		<edge from-layer="818" from-port="0" to-layer="972" to-port="3"/>
		<edge from-layer="819" from-port="0" to-layer="972" to-port="4"/>
		<edge from-layer="974" from-port="0" to-layer="975" to-port="0"/>
		<edge from-layer="975" from-port="1" to-layer="976" to-port="0"/>
		<edge from-layer="973" from-port="0" to-layer="976" to-port="1"/>
		<edge from-layer="972" from-port="5" to-layer="977" to-port="0"/>
		<edge from-layer="976" from-port="2" to-layer="977" to-port="1"/>
		<edge from-layer="977" from-port="2" to-layer="979" to-port="0"/>
		<edge from-layer="978" from-port="0" to-layer="979" to-port="1"/>
		<edge from-layer="979" from-port="2" to-layer="980" to-port="0"/>
		<edge from-layer="980" from-port="1" to-layer="981" to-port="0"/>
		<edge from-layer="812" from-port="0" to-layer="981" to-port="1"/>
		<edge from-layer="813" from-port="0" to-layer="981" to-port="2"/>
		<edge from-layer="814" from-port="0" to-layer="981" to-port="3"/>
		<edge from-layer="815" from-port="0" to-layer="981" to-port="4"/>
		<edge from-layer="980" from-port="1" to-layer="982" to-port="0"/>
		<edge from-layer="982" from-port="1" to-layer="983" to-port="0"/>
		<edge from-layer="983" from-port="1" to-layer="984" to-port="0"/>
		<edge from-layer="811" from-port="0" to-layer="984" to-port="1"/>
		<edge from-layer="984" from-port="2" to-layer="985" to-port="0"/>
		<edge from-layer="981" from-port="5" to-layer="986" to-port="0"/>
		<edge from-layer="985" from-port="1" to-layer="986" to-port="1"/>
		<edge from-layer="811" from-port="0" to-layer="986" to-port="2"/>
		<edge from-layer="986" from-port="3" to-layer="987" to-port="0"/>
		<edge from-layer="807" from-port="0" to-layer="987" to-port="1"/>
		<edge from-layer="808" from-port="0" to-layer="987" to-port="2"/>
		<edge from-layer="809" from-port="0" to-layer="987" to-port="3"/>
		<edge from-layer="810" from-port="0" to-layer="987" to-port="4"/>
		<edge from-layer="987" from-port="5" to-layer="988" to-port="0"/>
		<edge from-layer="806" from-port="5" to-layer="988" to-port="1"/>
		<edge from-layer="990" from-port="0" to-layer="991" to-port="0"/>
		<edge from-layer="991" from-port="1" to-layer="992" to-port="0"/>
		<edge from-layer="989" from-port="0" to-layer="992" to-port="1"/>
		<edge from-layer="988" from-port="2" to-layer="993" to-port="0"/>
		<edge from-layer="992" from-port="2" to-layer="993" to-port="1"/>
		<edge from-layer="993" from-port="2" to-layer="995" to-port="0"/>
		<edge from-layer="994" from-port="0" to-layer="995" to-port="1"/>
		<edge from-layer="995" from-port="2" to-layer="996" to-port="0"/>
		<edge from-layer="996" from-port="1" to-layer="997" to-port="0"/>
		<edge from-layer="536" from-port="0" to-layer="997" to-port="1"/>
		<edge from-layer="537" from-port="0" to-layer="997" to-port="2"/>
		<edge from-layer="538" from-port="0" to-layer="997" to-port="3"/>
		<edge from-layer="539" from-port="0" to-layer="997" to-port="4"/>
		<edge from-layer="999" from-port="0" to-layer="1000" to-port="0"/>
		<edge from-layer="1000" from-port="1" to-layer="1001" to-port="0"/>
		<edge from-layer="998" from-port="0" to-layer="1001" to-port="1"/>
		<edge from-layer="997" from-port="5" to-layer="1002" to-port="0"/>
		<edge from-layer="1001" from-port="2" to-layer="1002" to-port="1"/>
		<edge from-layer="1002" from-port="2" to-layer="1004" to-port="0"/>
		<edge from-layer="1003" from-port="0" to-layer="1004" to-port="1"/>
		<edge from-layer="1004" from-port="2" to-layer="1005" to-port="0"/>
		<edge from-layer="1005" from-port="1" to-layer="1006" to-port="0"/>
		<edge from-layer="532" from-port="0" to-layer="1006" to-port="1"/>
		<edge from-layer="533" from-port="0" to-layer="1006" to-port="2"/>
		<edge from-layer="534" from-port="0" to-layer="1006" to-port="3"/>
		<edge from-layer="535" from-port="0" to-layer="1006" to-port="4"/>
		<edge from-layer="1008" from-port="0" to-layer="1009" to-port="0"/>
		<edge from-layer="1009" from-port="1" to-layer="1010" to-port="0"/>
		<edge from-layer="1007" from-port="0" to-layer="1010" to-port="1"/>
		<edge from-layer="1006" from-port="5" to-layer="1011" to-port="0"/>
		<edge from-layer="1010" from-port="2" to-layer="1011" to-port="1"/>
		<edge from-layer="1011" from-port="2" to-layer="1013" to-port="0"/>
		<edge from-layer="1012" from-port="0" to-layer="1013" to-port="1"/>
		<edge from-layer="1013" from-port="2" to-layer="1014" to-port="0"/>
		<edge from-layer="1014" from-port="1" to-layer="1015" to-port="0"/>
		<edge from-layer="528" from-port="0" to-layer="1015" to-port="1"/>
		<edge from-layer="529" from-port="0" to-layer="1015" to-port="2"/>
		<edge from-layer="530" from-port="0" to-layer="1015" to-port="3"/>
		<edge from-layer="531" from-port="0" to-layer="1015" to-port="4"/>
		<edge from-layer="1017" from-port="0" to-layer="1018" to-port="0"/>
		<edge from-layer="1018" from-port="1" to-layer="1019" to-port="0"/>
		<edge from-layer="1016" from-port="0" to-layer="1019" to-port="1"/>
		<edge from-layer="1015" from-port="5" to-layer="1020" to-port="0"/>
		<edge from-layer="1019" from-port="2" to-layer="1020" to-port="1"/>
		<edge from-layer="1020" from-port="2" to-layer="1022" to-port="0"/>
		<edge from-layer="1021" from-port="0" to-layer="1022" to-port="1"/>
		<edge from-layer="1022" from-port="2" to-layer="1023" to-port="0"/>
		<edge from-layer="1023" from-port="1" to-layer="1024" to-port="0"/>
		<edge from-layer="524" from-port="0" to-layer="1024" to-port="1"/>
		<edge from-layer="525" from-port="0" to-layer="1024" to-port="2"/>
		<edge from-layer="526" from-port="0" to-layer="1024" to-port="3"/>
		<edge from-layer="527" from-port="0" to-layer="1024" to-port="4"/>
		<edge from-layer="1026" from-port="0" to-layer="1027" to-port="0"/>
		<edge from-layer="1027" from-port="1" to-layer="1028" to-port="0"/>
		<edge from-layer="1025" from-port="0" to-layer="1028" to-port="1"/>
		<edge from-layer="1024" from-port="5" to-layer="1029" to-port="0"/>
		<edge from-layer="1028" from-port="2" to-layer="1029" to-port="1"/>
		<edge from-layer="1029" from-port="2" to-layer="1031" to-port="0"/>
		<edge from-layer="1030" from-port="0" to-layer="1031" to-port="1"/>
		<edge from-layer="1031" from-port="2" to-layer="1032" to-port="0"/>
		<edge from-layer="1032" from-port="1" to-layer="1033" to-port="0"/>
		<edge from-layer="520" from-port="0" to-layer="1033" to-port="1"/>
		<edge from-layer="521" from-port="0" to-layer="1033" to-port="2"/>
		<edge from-layer="522" from-port="0" to-layer="1033" to-port="3"/>
		<edge from-layer="523" from-port="0" to-layer="1033" to-port="4"/>
		<edge from-layer="1035" from-port="0" to-layer="1036" to-port="0"/>
		<edge from-layer="1036" from-port="1" to-layer="1037" to-port="0"/>
		<edge from-layer="1034" from-port="0" to-layer="1037" to-port="1"/>
		<edge from-layer="1033" from-port="5" to-layer="1038" to-port="0"/>
		<edge from-layer="1037" from-port="2" to-layer="1038" to-port="1"/>
		<edge from-layer="1038" from-port="2" to-layer="1039" to-port="0"/>
		<edge from-layer="519" from-port="0" to-layer="1039" to-port="1"/>
		<edge from-layer="1039" from-port="2" to-layer="1040" to-port="0"/>
		<edge from-layer="515" from-port="0" to-layer="1040" to-port="1"/>
		<edge from-layer="516" from-port="0" to-layer="1040" to-port="2"/>
		<edge from-layer="517" from-port="0" to-layer="1040" to-port="3"/>
		<edge from-layer="518" from-port="0" to-layer="1040" to-port="4"/>
		<edge from-layer="1047" from-port="0" to-layer="1048" to-port="0"/>
		<edge from-layer="1048" from-port="1" to-layer="1049" to-port="0"/>
		<edge from-layer="1046" from-port="0" to-layer="1049" to-port="1"/>
		<edge from-layer="988" from-port="2" to-layer="1050" to-port="0"/>
		<edge from-layer="1049" from-port="2" to-layer="1050" to-port="1"/>
		<edge from-layer="1050" from-port="2" to-layer="1051" to-port="0"/>
		<edge from-layer="1045" from-port="0" to-layer="1051" to-port="1"/>
		<edge from-layer="1051" from-port="2" to-layer="1052" to-port="0"/>
		<edge from-layer="1041" from-port="0" to-layer="1052" to-port="1"/>
		<edge from-layer="1042" from-port="0" to-layer="1052" to-port="2"/>
		<edge from-layer="1043" from-port="0" to-layer="1052" to-port="3"/>
		<edge from-layer="1044" from-port="0" to-layer="1052" to-port="4"/>
		<edge from-layer="1040" from-port="5" to-layer="1053" to-port="0"/>
		<edge from-layer="1052" from-port="5" to-layer="1053" to-port="1"/>
		<edge from-layer="1053" from-port="2" to-layer="1054" to-port="0"/>
		<edge from-layer="514" from-port="0" to-layer="1054" to-port="1"/>
		<edge from-layer="1054" from-port="2" to-layer="1056" to-port="0"/>
		<edge from-layer="1055" from-port="0" to-layer="1056" to-port="1"/>
		<edge from-layer="1056" from-port="2" to-layer="1058" to-port="0"/>
		<edge from-layer="1057" from-port="0" to-layer="1058" to-port="1"/>
		<edge from-layer="1058" from-port="2" to-layer="1059" to-port="0"/>
		<edge from-layer="510" from-port="0" to-layer="1059" to-port="1"/>
		<edge from-layer="511" from-port="0" to-layer="1059" to-port="2"/>
		<edge from-layer="512" from-port="0" to-layer="1059" to-port="3"/>
		<edge from-layer="513" from-port="0" to-layer="1059" to-port="4"/>
		<edge from-layer="1061" from-port="0" to-layer="1062" to-port="0"/>
		<edge from-layer="1062" from-port="1" to-layer="1063" to-port="0"/>
		<edge from-layer="1060" from-port="0" to-layer="1063" to-port="1"/>
		<edge from-layer="1059" from-port="5" to-layer="1064" to-port="0"/>
		<edge from-layer="1063" from-port="2" to-layer="1064" to-port="1"/>
		<edge from-layer="1064" from-port="2" to-layer="1066" to-port="0"/>
		<edge from-layer="1065" from-port="0" to-layer="1066" to-port="1"/>
		<edge from-layer="1066" from-port="2" to-layer="1067" to-port="0"/>
		<edge from-layer="1067" from-port="1" to-layer="1068" to-port="0"/>
		<edge from-layer="506" from-port="0" to-layer="1068" to-port="1"/>
		<edge from-layer="507" from-port="0" to-layer="1068" to-port="2"/>
		<edge from-layer="508" from-port="0" to-layer="1068" to-port="3"/>
		<edge from-layer="509" from-port="0" to-layer="1068" to-port="4"/>
		<edge from-layer="1070" from-port="0" to-layer="1071" to-port="0"/>
		<edge from-layer="1071" from-port="1" to-layer="1072" to-port="0"/>
		<edge from-layer="1069" from-port="0" to-layer="1072" to-port="1"/>
		<edge from-layer="1068" from-port="5" to-layer="1073" to-port="0"/>
		<edge from-layer="1072" from-port="2" to-layer="1073" to-port="1"/>
		<edge from-layer="1073" from-port="2" to-layer="1075" to-port="0"/>
		<edge from-layer="1074" from-port="0" to-layer="1075" to-port="1"/>
		<edge from-layer="1075" from-port="2" to-layer="1076" to-port="0"/>
		<edge from-layer="1076" from-port="1" to-layer="1077" to-port="0"/>
		<edge from-layer="502" from-port="0" to-layer="1077" to-port="1"/>
		<edge from-layer="503" from-port="0" to-layer="1077" to-port="2"/>
		<edge from-layer="504" from-port="0" to-layer="1077" to-port="3"/>
		<edge from-layer="505" from-port="0" to-layer="1077" to-port="4"/>
		<edge from-layer="1076" from-port="1" to-layer="1078" to-port="0"/>
		<edge from-layer="1078" from-port="1" to-layer="1079" to-port="0"/>
		<edge from-layer="1079" from-port="1" to-layer="1080" to-port="0"/>
		<edge from-layer="501" from-port="0" to-layer="1080" to-port="1"/>
		<edge from-layer="1080" from-port="2" to-layer="1081" to-port="0"/>
		<edge from-layer="1077" from-port="5" to-layer="1082" to-port="0"/>
		<edge from-layer="1081" from-port="1" to-layer="1082" to-port="1"/>
		<edge from-layer="501" from-port="0" to-layer="1082" to-port="2"/>
		<edge from-layer="1082" from-port="3" to-layer="1083" to-port="0"/>
		<edge from-layer="497" from-port="0" to-layer="1083" to-port="1"/>
		<edge from-layer="498" from-port="0" to-layer="1083" to-port="2"/>
		<edge from-layer="499" from-port="0" to-layer="1083" to-port="3"/>
		<edge from-layer="500" from-port="0" to-layer="1083" to-port="4"/>
		<edge from-layer="1083" from-port="5" to-layer="1084" to-port="0"/>
		<edge from-layer="496" from-port="5" to-layer="1084" to-port="1"/>
		<edge from-layer="1086" from-port="0" to-layer="1087" to-port="0"/>
		<edge from-layer="1087" from-port="1" to-layer="1088" to-port="0"/>
		<edge from-layer="1085" from-port="0" to-layer="1088" to-port="1"/>
		<edge from-layer="1084" from-port="2" to-layer="1089" to-port="0"/>
		<edge from-layer="1088" from-port="2" to-layer="1089" to-port="1"/>
		<edge from-layer="1089" from-port="2" to-layer="1091" to-port="0"/>
		<edge from-layer="1090" from-port="0" to-layer="1091" to-port="1"/>
		<edge from-layer="1091" from-port="2" to-layer="1092" to-port="0"/>
		<edge from-layer="1092" from-port="1" to-layer="1093" to-port="0"/>
		<edge from-layer="30" from-port="0" to-layer="1093" to-port="1"/>
		<edge from-layer="31" from-port="0" to-layer="1093" to-port="2"/>
		<edge from-layer="32" from-port="0" to-layer="1093" to-port="3"/>
		<edge from-layer="33" from-port="0" to-layer="1093" to-port="4"/>
		<edge from-layer="1095" from-port="0" to-layer="1096" to-port="0"/>
		<edge from-layer="1096" from-port="1" to-layer="1097" to-port="0"/>
		<edge from-layer="1094" from-port="0" to-layer="1097" to-port="1"/>
		<edge from-layer="1093" from-port="5" to-layer="1098" to-port="0"/>
		<edge from-layer="1097" from-port="2" to-layer="1098" to-port="1"/>
		<edge from-layer="1098" from-port="2" to-layer="1100" to-port="0"/>
		<edge from-layer="1099" from-port="0" to-layer="1100" to-port="1"/>
		<edge from-layer="1100" from-port="2" to-layer="1101" to-port="0"/>
		<edge from-layer="1101" from-port="1" to-layer="1102" to-port="0"/>
		<edge from-layer="26" from-port="0" to-layer="1102" to-port="1"/>
		<edge from-layer="27" from-port="0" to-layer="1102" to-port="2"/>
		<edge from-layer="28" from-port="0" to-layer="1102" to-port="3"/>
		<edge from-layer="29" from-port="0" to-layer="1102" to-port="4"/>
		<edge from-layer="1104" from-port="0" to-layer="1105" to-port="0"/>
		<edge from-layer="1105" from-port="1" to-layer="1106" to-port="0"/>
		<edge from-layer="1103" from-port="0" to-layer="1106" to-port="1"/>
		<edge from-layer="1102" from-port="5" to-layer="1107" to-port="0"/>
		<edge from-layer="1106" from-port="2" to-layer="1107" to-port="1"/>
		<edge from-layer="1107" from-port="2" to-layer="1109" to-port="0"/>
		<edge from-layer="1108" from-port="0" to-layer="1109" to-port="1"/>
		<edge from-layer="1109" from-port="2" to-layer="1110" to-port="0"/>
		<edge from-layer="1110" from-port="1" to-layer="1111" to-port="0"/>
		<edge from-layer="22" from-port="0" to-layer="1111" to-port="1"/>
		<edge from-layer="23" from-port="0" to-layer="1111" to-port="2"/>
		<edge from-layer="24" from-port="0" to-layer="1111" to-port="3"/>
		<edge from-layer="25" from-port="0" to-layer="1111" to-port="4"/>
		<edge from-layer="1113" from-port="0" to-layer="1114" to-port="0"/>
		<edge from-layer="1114" from-port="1" to-layer="1115" to-port="0"/>
		<edge from-layer="1112" from-port="0" to-layer="1115" to-port="1"/>
		<edge from-layer="1111" from-port="5" to-layer="1116" to-port="0"/>
		<edge from-layer="1115" from-port="2" to-layer="1116" to-port="1"/>
		<edge from-layer="1116" from-port="2" to-layer="1118" to-port="0"/>
		<edge from-layer="1117" from-port="0" to-layer="1118" to-port="1"/>
		<edge from-layer="1118" from-port="2" to-layer="1119" to-port="0"/>
		<edge from-layer="1119" from-port="1" to-layer="1120" to-port="0"/>
		<edge from-layer="18" from-port="0" to-layer="1120" to-port="1"/>
		<edge from-layer="19" from-port="0" to-layer="1120" to-port="2"/>
		<edge from-layer="20" from-port="0" to-layer="1120" to-port="3"/>
		<edge from-layer="21" from-port="0" to-layer="1120" to-port="4"/>
		<edge from-layer="1122" from-port="0" to-layer="1123" to-port="0"/>
		<edge from-layer="1123" from-port="1" to-layer="1124" to-port="0"/>
		<edge from-layer="1121" from-port="0" to-layer="1124" to-port="1"/>
		<edge from-layer="1120" from-port="5" to-layer="1125" to-port="0"/>
		<edge from-layer="1124" from-port="2" to-layer="1125" to-port="1"/>
		<edge from-layer="1125" from-port="2" to-layer="1127" to-port="0"/>
		<edge from-layer="1126" from-port="0" to-layer="1127" to-port="1"/>
		<edge from-layer="1127" from-port="2" to-layer="1128" to-port="0"/>
		<edge from-layer="1128" from-port="1" to-layer="1129" to-port="0"/>
		<edge from-layer="14" from-port="0" to-layer="1129" to-port="1"/>
		<edge from-layer="15" from-port="0" to-layer="1129" to-port="2"/>
		<edge from-layer="16" from-port="0" to-layer="1129" to-port="3"/>
		<edge from-layer="17" from-port="0" to-layer="1129" to-port="4"/>
		<edge from-layer="1131" from-port="0" to-layer="1132" to-port="0"/>
		<edge from-layer="1132" from-port="1" to-layer="1133" to-port="0"/>
		<edge from-layer="1130" from-port="0" to-layer="1133" to-port="1"/>
		<edge from-layer="1129" from-port="5" to-layer="1134" to-port="0"/>
		<edge from-layer="1133" from-port="2" to-layer="1134" to-port="1"/>
		<edge from-layer="1134" from-port="2" to-layer="1135" to-port="0"/>
		<edge from-layer="13" from-port="0" to-layer="1135" to-port="1"/>
		<edge from-layer="1135" from-port="2" to-layer="1136" to-port="0"/>
		<edge from-layer="9" from-port="0" to-layer="1136" to-port="1"/>
		<edge from-layer="10" from-port="0" to-layer="1136" to-port="2"/>
		<edge from-layer="11" from-port="0" to-layer="1136" to-port="3"/>
		<edge from-layer="12" from-port="0" to-layer="1136" to-port="4"/>
		<edge from-layer="1143" from-port="0" to-layer="1144" to-port="0"/>
		<edge from-layer="1144" from-port="1" to-layer="1145" to-port="0"/>
		<edge from-layer="1142" from-port="0" to-layer="1145" to-port="1"/>
		<edge from-layer="1084" from-port="2" to-layer="1146" to-port="0"/>
		<edge from-layer="1145" from-port="2" to-layer="1146" to-port="1"/>
		<edge from-layer="1146" from-port="2" to-layer="1147" to-port="0"/>
		<edge from-layer="1141" from-port="0" to-layer="1147" to-port="1"/>
		<edge from-layer="1147" from-port="2" to-layer="1148" to-port="0"/>
		<edge from-layer="1137" from-port="0" to-layer="1148" to-port="1"/>
		<edge from-layer="1138" from-port="0" to-layer="1148" to-port="2"/>
		<edge from-layer="1139" from-port="0" to-layer="1148" to-port="3"/>
		<edge from-layer="1140" from-port="0" to-layer="1148" to-port="4"/>
		<edge from-layer="1136" from-port="5" to-layer="1149" to-port="0"/>
		<edge from-layer="1148" from-port="5" to-layer="1149" to-port="1"/>
		<edge from-layer="1149" from-port="2" to-layer="1150" to-port="0"/>
		<edge from-layer="8" from-port="0" to-layer="1150" to-port="1"/>
		<edge from-layer="1150" from-port="2" to-layer="1152" to-port="0"/>
		<edge from-layer="1151" from-port="0" to-layer="1152" to-port="1"/>
		<edge from-layer="1152" from-port="2" to-layer="1154" to-port="0"/>
		<edge from-layer="1153" from-port="0" to-layer="1154" to-port="1"/>
		<edge from-layer="1154" from-port="2" to-layer="1155" to-port="0"/>
		<edge from-layer="4" from-port="0" to-layer="1155" to-port="1"/>
		<edge from-layer="5" from-port="0" to-layer="1155" to-port="2"/>
		<edge from-layer="6" from-port="0" to-layer="1155" to-port="3"/>
		<edge from-layer="7" from-port="0" to-layer="1155" to-port="4"/>
		<edge from-layer="1157" from-port="0" to-layer="1158" to-port="0"/>
		<edge from-layer="1158" from-port="1" to-layer="1159" to-port="0"/>
		<edge from-layer="1156" from-port="0" to-layer="1159" to-port="1"/>
		<edge from-layer="1155" from-port="5" to-layer="1160" to-port="0"/>
		<edge from-layer="1159" from-port="2" to-layer="1160" to-port="1"/>
		<edge from-layer="1160" from-port="2" to-layer="1162" to-port="0"/>
		<edge from-layer="1161" from-port="0" to-layer="1162" to-port="1"/>
		<edge from-layer="1162" from-port="2" to-layer="1163" to-port="0"/>
		<edge from-layer="1163" from-port="1" to-layer="1164" to-port="0"/>
		<edge from-layer="0" from-port="0" to-layer="1164" to-port="1"/>
		<edge from-layer="1" from-port="0" to-layer="1164" to-port="2"/>
		<edge from-layer="2" from-port="0" to-layer="1164" to-port="3"/>
		<edge from-layer="3" from-port="0" to-layer="1164" to-port="4"/>
		<edge from-layer="1166" from-port="0" to-layer="1167" to-port="0"/>
		<edge from-layer="1167" from-port="1" to-layer="1168" to-port="0"/>
		<edge from-layer="1165" from-port="0" to-layer="1168" to-port="1"/>
		<edge from-layer="1164" from-port="5" to-layer="1169" to-port="0"/>
		<edge from-layer="1168" from-port="2" to-layer="1169" to-port="1"/>
		<edge from-layer="1169" from-port="2" to-layer="1171" to-port="0"/>
		<edge from-layer="1170" from-port="0" to-layer="1171" to-port="1"/>
		<edge from-layer="1212" from-port="0" to-layer="1213" to-port="0"/>
		<edge from-layer="1213" from-port="1" to-layer="1214" to-port="0"/>
		<edge from-layer="1211" from-port="0" to-layer="1214" to-port="1"/>
		<edge from-layer="1164" from-port="5" to-layer="1215" to-port="0"/>
		<edge from-layer="1214" from-port="2" to-layer="1215" to-port="1"/>
		<edge from-layer="1215" from-port="2" to-layer="1217" to-port="0"/>
		<edge from-layer="1216" from-port="0" to-layer="1217" to-port="1"/>
		<edge from-layer="1217" from-port="2" to-layer="1218" to-port="0"/>
		<edge from-layer="1218" from-port="1" to-layer="1219" to-port="0"/>
		<edge from-layer="1207" from-port="0" to-layer="1219" to-port="1"/>
		<edge from-layer="1208" from-port="0" to-layer="1219" to-port="2"/>
		<edge from-layer="1209" from-port="0" to-layer="1219" to-port="3"/>
		<edge from-layer="1210" from-port="0" to-layer="1219" to-port="4"/>
		<edge from-layer="1219" from-port="5" to-layer="1220" to-port="0"/>
		<edge from-layer="1077" from-port="5" to-layer="1220" to-port="1"/>
		<edge from-layer="1222" from-port="0" to-layer="1223" to-port="0"/>
		<edge from-layer="1223" from-port="1" to-layer="1224" to-port="0"/>
		<edge from-layer="1221" from-port="0" to-layer="1224" to-port="1"/>
		<edge from-layer="1220" from-port="2" to-layer="1225" to-port="0"/>
		<edge from-layer="1224" from-port="2" to-layer="1225" to-port="1"/>
		<edge from-layer="1225" from-port="2" to-layer="1227" to-port="0"/>
		<edge from-layer="1226" from-port="0" to-layer="1227" to-port="1"/>
		<edge from-layer="1227" from-port="2" to-layer="1228" to-port="0"/>
		<edge from-layer="1228" from-port="1" to-layer="1229" to-port="0"/>
		<edge from-layer="1203" from-port="0" to-layer="1229" to-port="1"/>
		<edge from-layer="1204" from-port="0" to-layer="1229" to-port="2"/>
		<edge from-layer="1205" from-port="0" to-layer="1229" to-port="3"/>
		<edge from-layer="1206" from-port="0" to-layer="1229" to-port="4"/>
		<edge from-layer="1231" from-port="0" to-layer="1232" to-port="0"/>
		<edge from-layer="1232" from-port="1" to-layer="1233" to-port="0"/>
		<edge from-layer="1230" from-port="0" to-layer="1233" to-port="1"/>
		<edge from-layer="1229" from-port="5" to-layer="1234" to-port="0"/>
		<edge from-layer="1233" from-port="2" to-layer="1234" to-port="1"/>
		<edge from-layer="1234" from-port="2" to-layer="1236" to-port="0"/>
		<edge from-layer="1235" from-port="0" to-layer="1236" to-port="1"/>
		<edge from-layer="1236" from-port="2" to-layer="1237" to-port="0"/>
		<edge from-layer="1237" from-port="1" to-layer="1238" to-port="0"/>
		<edge from-layer="1199" from-port="0" to-layer="1238" to-port="1"/>
		<edge from-layer="1200" from-port="0" to-layer="1238" to-port="2"/>
		<edge from-layer="1201" from-port="0" to-layer="1238" to-port="3"/>
		<edge from-layer="1202" from-port="0" to-layer="1238" to-port="4"/>
		<edge from-layer="1240" from-port="0" to-layer="1241" to-port="0"/>
		<edge from-layer="1241" from-port="1" to-layer="1242" to-port="0"/>
		<edge from-layer="1239" from-port="0" to-layer="1242" to-port="1"/>
		<edge from-layer="1238" from-port="5" to-layer="1243" to-port="0"/>
		<edge from-layer="1242" from-port="2" to-layer="1243" to-port="1"/>
		<edge from-layer="1243" from-port="2" to-layer="1245" to-port="0"/>
		<edge from-layer="1244" from-port="0" to-layer="1245" to-port="1"/>
		<edge from-layer="1245" from-port="2" to-layer="1246" to-port="0"/>
		<edge from-layer="1246" from-port="1" to-layer="1247" to-port="0"/>
		<edge from-layer="1195" from-port="0" to-layer="1247" to-port="1"/>
		<edge from-layer="1196" from-port="0" to-layer="1247" to-port="2"/>
		<edge from-layer="1197" from-port="0" to-layer="1247" to-port="3"/>
		<edge from-layer="1198" from-port="0" to-layer="1247" to-port="4"/>
		<edge from-layer="1249" from-port="0" to-layer="1250" to-port="0"/>
		<edge from-layer="1250" from-port="1" to-layer="1251" to-port="0"/>
		<edge from-layer="1248" from-port="0" to-layer="1251" to-port="1"/>
		<edge from-layer="1247" from-port="5" to-layer="1252" to-port="0"/>
		<edge from-layer="1251" from-port="2" to-layer="1252" to-port="1"/>
		<edge from-layer="1252" from-port="2" to-layer="1254" to-port="0"/>
		<edge from-layer="1253" from-port="0" to-layer="1254" to-port="1"/>
		<edge from-layer="1254" from-port="2" to-layer="1255" to-port="0"/>
		<edge from-layer="1255" from-port="1" to-layer="1256" to-port="0"/>
		<edge from-layer="1191" from-port="0" to-layer="1256" to-port="1"/>
		<edge from-layer="1192" from-port="0" to-layer="1256" to-port="2"/>
		<edge from-layer="1193" from-port="0" to-layer="1256" to-port="3"/>
		<edge from-layer="1194" from-port="0" to-layer="1256" to-port="4"/>
		<edge from-layer="1258" from-port="0" to-layer="1259" to-port="0"/>
		<edge from-layer="1259" from-port="1" to-layer="1260" to-port="0"/>
		<edge from-layer="1257" from-port="0" to-layer="1260" to-port="1"/>
		<edge from-layer="1256" from-port="5" to-layer="1261" to-port="0"/>
		<edge from-layer="1260" from-port="2" to-layer="1261" to-port="1"/>
		<edge from-layer="1261" from-port="2" to-layer="1263" to-port="0"/>
		<edge from-layer="1262" from-port="0" to-layer="1263" to-port="1"/>
		<edge from-layer="1263" from-port="2" to-layer="1264" to-port="0"/>
		<edge from-layer="1264" from-port="1" to-layer="1265" to-port="0"/>
		<edge from-layer="1187" from-port="0" to-layer="1265" to-port="1"/>
		<edge from-layer="1188" from-port="0" to-layer="1265" to-port="2"/>
		<edge from-layer="1189" from-port="0" to-layer="1265" to-port="3"/>
		<edge from-layer="1190" from-port="0" to-layer="1265" to-port="4"/>
		<edge from-layer="1267" from-port="0" to-layer="1268" to-port="0"/>
		<edge from-layer="1268" from-port="1" to-layer="1269" to-port="0"/>
		<edge from-layer="1266" from-port="0" to-layer="1269" to-port="1"/>
		<edge from-layer="1265" from-port="5" to-layer="1270" to-port="0"/>
		<edge from-layer="1269" from-port="2" to-layer="1270" to-port="1"/>
		<edge from-layer="1270" from-port="2" to-layer="1271" to-port="0"/>
		<edge from-layer="1186" from-port="0" to-layer="1271" to-port="1"/>
		<edge from-layer="1271" from-port="2" to-layer="1272" to-port="0"/>
		<edge from-layer="1182" from-port="0" to-layer="1272" to-port="1"/>
		<edge from-layer="1183" from-port="0" to-layer="1272" to-port="2"/>
		<edge from-layer="1184" from-port="0" to-layer="1272" to-port="3"/>
		<edge from-layer="1185" from-port="0" to-layer="1272" to-port="4"/>
		<edge from-layer="1279" from-port="0" to-layer="1280" to-port="0"/>
		<edge from-layer="1280" from-port="1" to-layer="1281" to-port="0"/>
		<edge from-layer="1278" from-port="0" to-layer="1281" to-port="1"/>
		<edge from-layer="1220" from-port="2" to-layer="1282" to-port="0"/>
		<edge from-layer="1281" from-port="2" to-layer="1282" to-port="1"/>
		<edge from-layer="1282" from-port="2" to-layer="1283" to-port="0"/>
		<edge from-layer="1277" from-port="0" to-layer="1283" to-port="1"/>
		<edge from-layer="1283" from-port="2" to-layer="1284" to-port="0"/>
		<edge from-layer="1273" from-port="0" to-layer="1284" to-port="1"/>
		<edge from-layer="1274" from-port="0" to-layer="1284" to-port="2"/>
		<edge from-layer="1275" from-port="0" to-layer="1284" to-port="3"/>
		<edge from-layer="1276" from-port="0" to-layer="1284" to-port="4"/>
		<edge from-layer="1272" from-port="5" to-layer="1285" to-port="0"/>
		<edge from-layer="1284" from-port="5" to-layer="1285" to-port="1"/>
		<edge from-layer="1285" from-port="2" to-layer="1286" to-port="0"/>
		<edge from-layer="1181" from-port="0" to-layer="1286" to-port="1"/>
		<edge from-layer="1286" from-port="2" to-layer="1288" to-port="0"/>
		<edge from-layer="1287" from-port="0" to-layer="1288" to-port="1"/>
		<edge from-layer="1288" from-port="2" to-layer="1290" to-port="0"/>
		<edge from-layer="1289" from-port="0" to-layer="1290" to-port="1"/>
		<edge from-layer="1290" from-port="2" to-layer="1291" to-port="0"/>
		<edge from-layer="1177" from-port="0" to-layer="1291" to-port="1"/>
		<edge from-layer="1178" from-port="0" to-layer="1291" to-port="2"/>
		<edge from-layer="1179" from-port="0" to-layer="1291" to-port="3"/>
		<edge from-layer="1180" from-port="0" to-layer="1291" to-port="4"/>
		<edge from-layer="1293" from-port="0" to-layer="1294" to-port="0"/>
		<edge from-layer="1294" from-port="1" to-layer="1295" to-port="0"/>
		<edge from-layer="1292" from-port="0" to-layer="1295" to-port="1"/>
		<edge from-layer="1291" from-port="5" to-layer="1296" to-port="0"/>
		<edge from-layer="1295" from-port="2" to-layer="1296" to-port="1"/>
		<edge from-layer="1296" from-port="2" to-layer="1298" to-port="0"/>
		<edge from-layer="1297" from-port="0" to-layer="1298" to-port="1"/>
		<edge from-layer="1298" from-port="2" to-layer="1299" to-port="0"/>
		<edge from-layer="1299" from-port="1" to-layer="1300" to-port="0"/>
		<edge from-layer="1173" from-port="0" to-layer="1300" to-port="1"/>
		<edge from-layer="1174" from-port="0" to-layer="1300" to-port="2"/>
		<edge from-layer="1175" from-port="0" to-layer="1300" to-port="3"/>
		<edge from-layer="1176" from-port="0" to-layer="1300" to-port="4"/>
		<edge from-layer="1302" from-port="0" to-layer="1303" to-port="0"/>
		<edge from-layer="1303" from-port="1" to-layer="1304" to-port="0"/>
		<edge from-layer="1301" from-port="0" to-layer="1304" to-port="1"/>
		<edge from-layer="1300" from-port="5" to-layer="1305" to-port="0"/>
		<edge from-layer="1304" from-port="2" to-layer="1305" to-port="1"/>
		<edge from-layer="1305" from-port="2" to-layer="1307" to-port="0"/>
		<edge from-layer="1306" from-port="0" to-layer="1307" to-port="1"/>
		<edge from-layer="1348" from-port="0" to-layer="1349" to-port="0"/>
		<edge from-layer="1349" from-port="1" to-layer="1350" to-port="0"/>
		<edge from-layer="1347" from-port="0" to-layer="1350" to-port="1"/>
		<edge from-layer="1300" from-port="5" to-layer="1351" to-port="0"/>
		<edge from-layer="1350" from-port="2" to-layer="1351" to-port="1"/>
		<edge from-layer="1351" from-port="2" to-layer="1353" to-port="0"/>
		<edge from-layer="1352" from-port="0" to-layer="1353" to-port="1"/>
		<edge from-layer="1353" from-port="2" to-layer="1354" to-port="0"/>
		<edge from-layer="1354" from-port="1" to-layer="1355" to-port="0"/>
		<edge from-layer="1343" from-port="0" to-layer="1355" to-port="1"/>
		<edge from-layer="1344" from-port="0" to-layer="1355" to-port="2"/>
		<edge from-layer="1345" from-port="0" to-layer="1355" to-port="3"/>
		<edge from-layer="1346" from-port="0" to-layer="1355" to-port="4"/>
		<edge from-layer="1355" from-port="5" to-layer="1356" to-port="0"/>
		<edge from-layer="981" from-port="5" to-layer="1356" to-port="1"/>
		<edge from-layer="1358" from-port="0" to-layer="1359" to-port="0"/>
		<edge from-layer="1359" from-port="1" to-layer="1360" to-port="0"/>
		<edge from-layer="1357" from-port="0" to-layer="1360" to-port="1"/>
		<edge from-layer="1356" from-port="2" to-layer="1361" to-port="0"/>
		<edge from-layer="1360" from-port="2" to-layer="1361" to-port="1"/>
		<edge from-layer="1361" from-port="2" to-layer="1363" to-port="0"/>
		<edge from-layer="1362" from-port="0" to-layer="1363" to-port="1"/>
		<edge from-layer="1363" from-port="2" to-layer="1364" to-port="0"/>
		<edge from-layer="1364" from-port="1" to-layer="1365" to-port="0"/>
		<edge from-layer="1339" from-port="0" to-layer="1365" to-port="1"/>
		<edge from-layer="1340" from-port="0" to-layer="1365" to-port="2"/>
		<edge from-layer="1341" from-port="0" to-layer="1365" to-port="3"/>
		<edge from-layer="1342" from-port="0" to-layer="1365" to-port="4"/>
		<edge from-layer="1367" from-port="0" to-layer="1368" to-port="0"/>
		<edge from-layer="1368" from-port="1" to-layer="1369" to-port="0"/>
		<edge from-layer="1366" from-port="0" to-layer="1369" to-port="1"/>
		<edge from-layer="1365" from-port="5" to-layer="1370" to-port="0"/>
		<edge from-layer="1369" from-port="2" to-layer="1370" to-port="1"/>
		<edge from-layer="1370" from-port="2" to-layer="1372" to-port="0"/>
		<edge from-layer="1371" from-port="0" to-layer="1372" to-port="1"/>
		<edge from-layer="1372" from-port="2" to-layer="1373" to-port="0"/>
		<edge from-layer="1373" from-port="1" to-layer="1374" to-port="0"/>
		<edge from-layer="1335" from-port="0" to-layer="1374" to-port="1"/>
		<edge from-layer="1336" from-port="0" to-layer="1374" to-port="2"/>
		<edge from-layer="1337" from-port="0" to-layer="1374" to-port="3"/>
		<edge from-layer="1338" from-port="0" to-layer="1374" to-port="4"/>
		<edge from-layer="1376" from-port="0" to-layer="1377" to-port="0"/>
		<edge from-layer="1377" from-port="1" to-layer="1378" to-port="0"/>
		<edge from-layer="1375" from-port="0" to-layer="1378" to-port="1"/>
		<edge from-layer="1374" from-port="5" to-layer="1379" to-port="0"/>
		<edge from-layer="1378" from-port="2" to-layer="1379" to-port="1"/>
		<edge from-layer="1379" from-port="2" to-layer="1381" to-port="0"/>
		<edge from-layer="1380" from-port="0" to-layer="1381" to-port="1"/>
		<edge from-layer="1381" from-port="2" to-layer="1382" to-port="0"/>
		<edge from-layer="1382" from-port="1" to-layer="1383" to-port="0"/>
		<edge from-layer="1331" from-port="0" to-layer="1383" to-port="1"/>
		<edge from-layer="1332" from-port="0" to-layer="1383" to-port="2"/>
		<edge from-layer="1333" from-port="0" to-layer="1383" to-port="3"/>
		<edge from-layer="1334" from-port="0" to-layer="1383" to-port="4"/>
		<edge from-layer="1385" from-port="0" to-layer="1386" to-port="0"/>
		<edge from-layer="1386" from-port="1" to-layer="1387" to-port="0"/>
		<edge from-layer="1384" from-port="0" to-layer="1387" to-port="1"/>
		<edge from-layer="1383" from-port="5" to-layer="1388" to-port="0"/>
		<edge from-layer="1387" from-port="2" to-layer="1388" to-port="1"/>
		<edge from-layer="1388" from-port="2" to-layer="1390" to-port="0"/>
		<edge from-layer="1389" from-port="0" to-layer="1390" to-port="1"/>
		<edge from-layer="1390" from-port="2" to-layer="1391" to-port="0"/>
		<edge from-layer="1391" from-port="1" to-layer="1392" to-port="0"/>
		<edge from-layer="1327" from-port="0" to-layer="1392" to-port="1"/>
		<edge from-layer="1328" from-port="0" to-layer="1392" to-port="2"/>
		<edge from-layer="1329" from-port="0" to-layer="1392" to-port="3"/>
		<edge from-layer="1330" from-port="0" to-layer="1392" to-port="4"/>
		<edge from-layer="1394" from-port="0" to-layer="1395" to-port="0"/>
		<edge from-layer="1395" from-port="1" to-layer="1396" to-port="0"/>
		<edge from-layer="1393" from-port="0" to-layer="1396" to-port="1"/>
		<edge from-layer="1392" from-port="5" to-layer="1397" to-port="0"/>
		<edge from-layer="1396" from-port="2" to-layer="1397" to-port="1"/>
		<edge from-layer="1397" from-port="2" to-layer="1399" to-port="0"/>
		<edge from-layer="1398" from-port="0" to-layer="1399" to-port="1"/>
		<edge from-layer="1399" from-port="2" to-layer="1400" to-port="0"/>
		<edge from-layer="1400" from-port="1" to-layer="1401" to-port="0"/>
		<edge from-layer="1323" from-port="0" to-layer="1401" to-port="1"/>
		<edge from-layer="1324" from-port="0" to-layer="1401" to-port="2"/>
		<edge from-layer="1325" from-port="0" to-layer="1401" to-port="3"/>
		<edge from-layer="1326" from-port="0" to-layer="1401" to-port="4"/>
		<edge from-layer="1403" from-port="0" to-layer="1404" to-port="0"/>
		<edge from-layer="1404" from-port="1" to-layer="1405" to-port="0"/>
		<edge from-layer="1402" from-port="0" to-layer="1405" to-port="1"/>
		<edge from-layer="1401" from-port="5" to-layer="1406" to-port="0"/>
		<edge from-layer="1405" from-port="2" to-layer="1406" to-port="1"/>
		<edge from-layer="1406" from-port="2" to-layer="1407" to-port="0"/>
		<edge from-layer="1322" from-port="0" to-layer="1407" to-port="1"/>
		<edge from-layer="1407" from-port="2" to-layer="1408" to-port="0"/>
		<edge from-layer="1318" from-port="0" to-layer="1408" to-port="1"/>
		<edge from-layer="1319" from-port="0" to-layer="1408" to-port="2"/>
		<edge from-layer="1320" from-port="0" to-layer="1408" to-port="3"/>
		<edge from-layer="1321" from-port="0" to-layer="1408" to-port="4"/>
		<edge from-layer="1415" from-port="0" to-layer="1416" to-port="0"/>
		<edge from-layer="1416" from-port="1" to-layer="1417" to-port="0"/>
		<edge from-layer="1414" from-port="0" to-layer="1417" to-port="1"/>
		<edge from-layer="1356" from-port="2" to-layer="1418" to-port="0"/>
		<edge from-layer="1417" from-port="2" to-layer="1418" to-port="1"/>
		<edge from-layer="1418" from-port="2" to-layer="1419" to-port="0"/>
		<edge from-layer="1413" from-port="0" to-layer="1419" to-port="1"/>
		<edge from-layer="1419" from-port="2" to-layer="1420" to-port="0"/>
		<edge from-layer="1409" from-port="0" to-layer="1420" to-port="1"/>
		<edge from-layer="1410" from-port="0" to-layer="1420" to-port="2"/>
		<edge from-layer="1411" from-port="0" to-layer="1420" to-port="3"/>
		<edge from-layer="1412" from-port="0" to-layer="1420" to-port="4"/>
		<edge from-layer="1408" from-port="5" to-layer="1421" to-port="0"/>
		<edge from-layer="1420" from-port="5" to-layer="1421" to-port="1"/>
		<edge from-layer="1421" from-port="2" to-layer="1422" to-port="0"/>
		<edge from-layer="1317" from-port="0" to-layer="1422" to-port="1"/>
		<edge from-layer="1422" from-port="2" to-layer="1424" to-port="0"/>
		<edge from-layer="1423" from-port="0" to-layer="1424" to-port="1"/>
		<edge from-layer="1424" from-port="2" to-layer="1426" to-port="0"/>
		<edge from-layer="1425" from-port="0" to-layer="1426" to-port="1"/>
		<edge from-layer="1426" from-port="2" to-layer="1427" to-port="0"/>
		<edge from-layer="1313" from-port="0" to-layer="1427" to-port="1"/>
		<edge from-layer="1314" from-port="0" to-layer="1427" to-port="2"/>
		<edge from-layer="1315" from-port="0" to-layer="1427" to-port="3"/>
		<edge from-layer="1316" from-port="0" to-layer="1427" to-port="4"/>
		<edge from-layer="1429" from-port="0" to-layer="1430" to-port="0"/>
		<edge from-layer="1430" from-port="1" to-layer="1431" to-port="0"/>
		<edge from-layer="1428" from-port="0" to-layer="1431" to-port="1"/>
		<edge from-layer="1427" from-port="5" to-layer="1432" to-port="0"/>
		<edge from-layer="1431" from-port="2" to-layer="1432" to-port="1"/>
		<edge from-layer="1432" from-port="2" to-layer="1434" to-port="0"/>
		<edge from-layer="1433" from-port="0" to-layer="1434" to-port="1"/>
		<edge from-layer="1434" from-port="2" to-layer="1435" to-port="0"/>
		<edge from-layer="1435" from-port="1" to-layer="1436" to-port="0"/>
		<edge from-layer="1309" from-port="0" to-layer="1436" to-port="1"/>
		<edge from-layer="1310" from-port="0" to-layer="1436" to-port="2"/>
		<edge from-layer="1311" from-port="0" to-layer="1436" to-port="3"/>
		<edge from-layer="1312" from-port="0" to-layer="1436" to-port="4"/>
		<edge from-layer="1438" from-port="0" to-layer="1439" to-port="0"/>
		<edge from-layer="1439" from-port="1" to-layer="1440" to-port="0"/>
		<edge from-layer="1437" from-port="0" to-layer="1440" to-port="1"/>
		<edge from-layer="1436" from-port="5" to-layer="1441" to-port="0"/>
		<edge from-layer="1440" from-port="2" to-layer="1441" to-port="1"/>
		<edge from-layer="1441" from-port="2" to-layer="1443" to-port="0"/>
		<edge from-layer="1442" from-port="0" to-layer="1443" to-port="1"/>
		<edge from-layer="1171" from-port="2" to-layer="1172" to-port="0"/>
		<edge from-layer="1307" from-port="2" to-layer="1308" to-port="0"/>
		<edge from-layer="1443" from-port="2" to-layer="1444" to-port="0"/>
	</edges>
	<rt_info>
		<MO_version value="2022.3.0-9038-b84161848ea-releases/2022/3"/>
		<Runtime_version value="2022.3.0-9038-b84161848ea-releases/2022/3"/>
		<conversion_parameters>
			<data_type value="FP32"/>
			<framework value="onnx"/>
			<input_model value="DIR/yolov5m.onnx"/>
			<model_name value="yolov5m"/>
			<output value="/model.24/m.0/Conv,/model.24/m.1/Conv,/model.24/m.2/Conv"/>
			<output_dir value="/home/openvino/yolo/yolov5m-320/FP32"/>
			<reverse_input_channels value="True"/>
			<scale value="255.0"/>
		</conversion_parameters>
		<framework>
			<names value="{0: 'person', 1: 'bicycle', 2: 'car', 3: 'motorcycle', 4: 'airplane', 5: 'bus', 6: 'train', 7: 'truck', 8: 'boat', 9: 'traffic light', 10: 'fire hydrant', 11: 'stop sign', 12: 'parking meter', 13: 'bench', 14: 'bird', 15: 'cat', 16: 'dog', 17: 'horse', 18: 'sheep', 19: 'cow', 20: 'elephant', 21: 'bear', 22: 'zebra', 23: 'giraffe', 24: 'backpack', 25: 'umbrella', 26: 'handbag', 27: 'tie', 28: 'suitcase', 29: 'frisbee', 30: 'skis', 31: 'snowboard', 32: 'sports ball', 33: 'kite', 34: 'baseball bat', 35: 'baseball glove', 36: 'skateboard', 37: 'surfboard', 38: 'tennis racket', 39: 'bottle', 40: 'wine glass', 41: 'cup', 42: 'fork', 43: 'knife', 44: 'spoon', 45: 'bowl', 46: 'banana', 47: 'apple', 48: 'sandwich', 49: 'orange', 50: 'broccoli', 51: 'carrot', 52: 'hot dog', 53: 'pizza', 54: 'donut', 55: 'cake', 56: 'chair', 57: 'couch', 58: 'potted plant', 59: 'bed', 60: 'dining table', 61: 'toilet', 62: 'tv', 63: 'laptop', 64: 'mouse', 65: 'remote', 66: 'keyboard', 67: 'cell phone', 68: 'microwave', 69: 'oven', 70: 'toaster', 71: 'sink', 72: 'refrigerator', 73: 'book', 74: 'clock', 75: 'vase', 76: 'scissors', 77: 'teddy bear', 78: 'hair drier', 79: 'toothbrush'}"/>
			<stride value="32"/>
		</framework>
		<legacy_frontend value="False"/>
		<quantization_parameters>
			<cli_params>
				<ac_config value="None"/>
				<data_source value="/home/openvino/yolo/val2017/"/>
				<direct_dump value="False"/>
				<engine value="simplified"/>
				<evaluate value="False"/>
				<keep_uncompressed_weights value="False"/>
				<log_level value="INFO"/>
				<max_drop value="None"/>
				<model value="/home/openvino/yolo/yolov5m-320/FP32/yolov5m.xml"/>
				<name value="yolov5m"/>
				<output_dir value="PATH"/>
				<pbar value="False"/>
				<preset value="performance"/>
				<quantize value="default"/>
				<stream_output value="False"/>
				<weights value="/home/openvino/yolo/yolov5m-320/FP32/yolov5m.bin"/>
			</cli_params>
			<config value="{
		'compression': {
			'target_device': 'ANY',
			'algorithms': [
				{
					'name': 'DefaultQuantization',
					'params': {
						'preset': 'performance',
						'stat_subset_size': 300
					}
				}
			]
		},
		'engine': {
			'config': '&lt;CONFIG_PATH&gt;',
			'type': 'simplified',
			'data_source': 'PATH',
			'device': 'CPU'
		}
	}"/>
			<version value="2022.3.0-9038-b84161848ea-releases/2022/3"/>
		</quantization_parameters>
	</rt_info>
	<quantization_parameters>
		<config>{
		'compression': {
			'target_device': 'ANY',
			'algorithms': [
				{
					'name': 'DefaultQuantization',
					'params': {
						'preset': 'performance',
						'stat_subset_size': 300
					}
				}
			]
		},
		'engine': {
			'config': '&lt;CONFIG_PATH&gt;',
			'type': 'simplified',
			'data_source': 'PATH',
			'device': 'CPU'
		}
	}</config>
		<version value="2022.3.0-9038-b84161848ea-releases/2022/3"/>
		<cli_params value="{'quantize': 'default', 'preset': 'performance', 'model': '/home/openvino/yolo/yolov5m-320/FP32/yolov5m.xml', 'weights': '/home/openvino/yolo/yolov5m-320/FP32/yolov5m.bin', 'name': 'yolov5m', 'engine': 'simplified', 'ac_config': None, 'max_drop': None, 'evaluate': False, 'output_dir': 'PATH', 'direct_dump': False, 'log_level': 'INFO', 'pbar': False, 'stream_output': False, 'keep_uncompressed_weights': False, 'data_source': '/home/openvino/yolo/val2017/'}"/>
	</quantization_parameters>
</net>
