<?xml version="1.0" ?>
<net name="resnet_v1.5_50" version="10">
	<layers>
		<layer id="0" name="input_tensor" type="Parameter" version="opset1">
			<data element_type="f32" shape="1,3,224,224"/>
			<output>
				<port id="0" precision="FP32">
					<dim>1</dim>
					<dim>3</dim>
					<dim>224</dim>
					<dim>224</dim>
				</port>
			</output>
		</layer>
		<layer id="1" name="input_tensor/reverse_input_channels14984/Concat15001_const295_const" type="Const" version="opset1">
			<data element_type="f32" offset="0" shape="1,3,1,1" size="12"/>
			<output>
				<port id="1" precision="FP32">
					<dim>1</dim>
					<dim>3</dim>
					<dim>1</dim>
					<dim>1</dim>
				</port>
			</output>
		</layer>
		<layer id="2" name="Add_" type="Add" version="opset1">
			<input>
				<port id="0">
					<dim>1</dim>
					<dim>3</dim>
					<dim>224</dim>
					<dim>224</dim>
				</port>
				<port id="1">
					<dim>1</dim>
					<dim>3</dim>
					<dim>1</dim>
					<dim>1</dim>
				</port>
			</input>
			<output>
				<port id="2" precision="FP32">
					<dim>1</dim>
					<dim>3</dim>
					<dim>224</dim>
					<dim>224</dim>
				</port>
			</output>
		</layer>
		<layer id="3" name="983987_const" type="Const" version="opset1">
			<data element_type="f32" offset="12" shape="" size="4"/>
			<output>
				<port id="1" precision="FP32"/>
			</output>
		</layer>
		<layer id="4" name="984988_const" type="Const" version="opset1">
			<data element_type="f32" offset="16" shape="" size="4"/>
			<output>
				<port id="1" precision="FP32"/>
			</output>
		</layer>
		<layer id="5" name="985989_const" type="Const" version="opset1">
			<data element_type="f32" offset="12" shape="" size="4"/>
			<output>
				<port id="1" precision="FP32"/>
			</output>
		</layer>
		<layer id="6" name="986990_const" type="Const" version="opset1">
			<data element_type="f32" offset="16" shape="" size="4"/>
			<output>
				<port id="1" precision="FP32"/>
			</output>
		</layer>
		<layer id="7" name="resnet_model/conv2d/Conv2D/fq_input_0" type="FakeQuantize" version="opset1">
			<data levels="256"/>
			<input>
				<port id="0">
					<dim>1</dim>
					<dim>3</dim>
					<dim>224</dim>
					<dim>224</dim>
				</port>
				<port id="1"/>
				<port id="2"/>
				<port id="3"/>
				<port id="4"/>
			</input>
			<output>
				<port id="5" precision="FP32">
					<dim>1</dim>
					<dim>3</dim>
					<dim>224</dim>
					<dim>224</dim>
				</port>
			</output>
		</layer>
		<layer id="8" name="resnet_model/conv2d/Conv2D/fq_weights_1/Convert_to_float/Cast_05397_const" type="Const" version="opset1">
			<data element_type="u8" offset="20" shape="64,3,7,7" size="9408"/>
			<output>
				<port id="1" precision="U8">
					<dim>64</dim>
					<dim>3</dim>
					<dim>7</dim>
					<dim>7</dim>
				</port>
			</output>
		</layer>
		<layer id="9" name="resnet_model/conv2d/Conv2D/fq_weights_1/Convert_to_float" type="Convert" version="opset1">
			<data destination_type="f32"/>
			<input>
				<port id="0">
					<dim>64</dim>
					<dim>3</dim>
					<dim>7</dim>
					<dim>7</dim>
				</port>
			</input>
			<output>
				<port id="1" precision="FP32">
					<dim>64</dim>
					<dim>3</dim>
					<dim>7</dim>
					<dim>7</dim>
				</port>
			</output>
		</layer>
		<layer id="10" name="resnet_model/conv2d/Conv2D/fq_weights_1/Copy/out_low4519_const" type="Const" version="opset1">
			<data element_type="f32" offset="9428" shape="1" size="4"/>
			<output>
				<port id="1" precision="FP32">
					<dim>1</dim>
				</port>
			</output>
		</layer>
		<layer id="11" name="resnet_model/conv2d/Conv2D/fq_weights_1/Copy/out_high4520_const" type="Const" version="opset1">
			<data element_type="f32" offset="9432" shape="1" size="4"/>
			<output>
				<port id="1" precision="FP32">
					<dim>1</dim>
				</port>
			</output>
		</layer>
		<layer id="12" name="995999_const" type="Const" version="opset1">
			<data element_type="f32" offset="9436" shape="64,1,1,1" size="256"/>
			<output>
				<port id="1" precision="FP32">
					<dim>64</dim>
					<dim>1</dim>
					<dim>1</dim>
					<dim>1</dim>
				</port>
			</output>
		</layer>
		<layer id="13" name="9961000_const" type="Const" version="opset1">
			<data element_type="f32" offset="9692" shape="64,1,1,1" size="256"/>
			<output>
				<port id="1" precision="FP32">
					<dim>64</dim>
					<dim>1</dim>
					<dim>1</dim>
					<dim>1</dim>
				</port>
			</output>
		</layer>
		<layer id="14" name="resnet_model/conv2d/Conv2D/fq_weights_1" type="FakeQuantize" version="opset1">
			<data levels="255"/>
			<input>
				<port id="0">
					<dim>64</dim>
					<dim>3</dim>
					<dim>7</dim>
					<dim>7</dim>
				</port>
				<port id="1">
					<dim>1</dim>
				</port>
				<port id="2">
					<dim>1</dim>
				</port>
				<port id="3">
					<dim>64</dim>
					<dim>1</dim>
					<dim>1</dim>
					<dim>1</dim>
				</port>
				<port id="4">
					<dim>64</dim>
					<dim>1</dim>
					<dim>1</dim>
					<dim>1</dim>
				</port>
			</input>
			<output>
				<port id="5" precision="FP32">
					<dim>64</dim>
					<dim>3</dim>
					<dim>7</dim>
					<dim>7</dim>
				</port>
			</output>
		</layer>
		<layer id="15" name="resnet_model/conv2d/Conv2D" type="Convolution" version="opset1">
			<data dilations="1,1" output_padding="0,0" pads_begin="3,3" pads_end="3,3" strides="2,2"/>
			<input>
				<port id="0">
					<dim>1</dim>
					<dim>3</dim>
					<dim>224</dim>
					<dim>224</dim>
				</port>
				<port id="1">
					<dim>64</dim>
					<dim>3</dim>
					<dim>7</dim>
					<dim>7</dim>
				</port>
			</input>
			<output>
				<port id="2" precision="FP32">
					<dim>1</dim>
					<dim>64</dim>
					<dim>112</dim>
					<dim>112</dim>
				</port>
			</output>
		</layer>
		<layer id="16" name="data_add_1021410219/copy_const299_const" type="Const" version="opset1">
			<data element_type="f32" offset="9948" shape="1,64,1,1" size="256"/>
			<output>
				<port id="1" precision="FP32">
					<dim>1</dim>
					<dim>64</dim>
					<dim>1</dim>
					<dim>1</dim>
				</port>
			</output>
		</layer>
		<layer id="17" name="resnet_model/batch_normalization/FusedBatchNorm/variance/Fused_Add_" type="Add" version="opset1">
			<input>
				<port id="0">
					<dim>1</dim>
					<dim>64</dim>
					<dim>112</dim>
					<dim>112</dim>
				</port>
				<port id="1">
					<dim>1</dim>
					<dim>64</dim>
					<dim>1</dim>
					<dim>1</dim>
				</port>
			</input>
			<output>
				<port id="2" precision="FP32">
					<dim>1</dim>
					<dim>64</dim>
					<dim>112</dim>
					<dim>112</dim>
				</port>
			</output>
		</layer>
		<layer id="18" name="resnet_model/Relu" type="ReLU" version="opset1">
			<input>
				<port id="0">
					<dim>1</dim>
					<dim>64</dim>
					<dim>112</dim>
					<dim>112</dim>
				</port>
			</input>
			<output>
				<port id="1" precision="FP32">
					<dim>1</dim>
					<dim>64</dim>
					<dim>112</dim>
					<dim>112</dim>
				</port>
			</output>
		</layer>
		<layer id="19" name="30093013_const" type="Const" version="opset1">
			<data element_type="f32" offset="9428" shape="" size="4"/>
			<output>
				<port id="1" precision="FP32"/>
			</output>
		</layer>
		<layer id="20" name="30103014_const" type="Const" version="opset1">
			<data element_type="f32" offset="10204" shape="" size="4"/>
			<output>
				<port id="1" precision="FP32"/>
			</output>
		</layer>
		<layer id="21" name="30113015_const" type="Const" version="opset1">
			<data element_type="f32" offset="9428" shape="" size="4"/>
			<output>
				<port id="1" precision="FP32"/>
			</output>
		</layer>
		<layer id="22" name="30123016_const" type="Const" version="opset1">
			<data element_type="f32" offset="10204" shape="" size="4"/>
			<output>
				<port id="1" precision="FP32"/>
			</output>
		</layer>
		<layer id="23" name="resnet_model/max_pooling2d/MaxPool/fq_input_0" type="FakeQuantize" version="opset1">
			<data levels="256"/>
			<input>
				<port id="0">
					<dim>1</dim>
					<dim>64</dim>
					<dim>112</dim>
					<dim>112</dim>
				</port>
				<port id="1"/>
				<port id="2"/>
				<port id="3"/>
				<port id="4"/>
			</input>
			<output>
				<port id="5" precision="FP32">
					<dim>1</dim>
					<dim>64</dim>
					<dim>112</dim>
					<dim>112</dim>
				</port>
			</output>
		</layer>
		<layer id="24" name="resnet_model/max_pooling2d/MaxPool" type="MaxPool" version="opset1">
			<data auto_pad="same_upper" kernel="3,3" pads_begin="0,0" pads_end="1,1" strides="2,2"/>
			<input>
				<port id="0">
					<dim>1</dim>
					<dim>64</dim>
					<dim>112</dim>
					<dim>112</dim>
				</port>
			</input>
			<output>
				<port id="1" precision="FP32">
					<dim>1</dim>
					<dim>64</dim>
					<dim>56</dim>
					<dim>56</dim>
				</port>
			</output>
		</layer>
		<layer id="25" name="resnet_model/conv2d_2/Conv2D/fq_weights_1/Convert_to_float/Cast_05415_const" type="Const" version="opset1">
			<data element_type="u8" offset="10208" shape="64,64,1,1" size="4096"/>
			<output>
				<port id="1" precision="U8">
					<dim>64</dim>
					<dim>64</dim>
					<dim>1</dim>
					<dim>1</dim>
				</port>
			</output>
		</layer>
		<layer id="26" name="resnet_model/conv2d_2/Conv2D/fq_weights_1/Convert_to_float" type="Convert" version="opset1">
			<data destination_type="f32"/>
			<input>
				<port id="0">
					<dim>64</dim>
					<dim>64</dim>
					<dim>1</dim>
					<dim>1</dim>
				</port>
			</input>
			<output>
				<port id="1" precision="FP32">
					<dim>64</dim>
					<dim>64</dim>
					<dim>1</dim>
					<dim>1</dim>
				</port>
			</output>
		</layer>
		<layer id="27" name="resnet_model/conv2d_2/Conv2D/fq_weights_1/Copy/out_low4655_const" type="Const" version="opset1">
			<data element_type="f32" offset="9428" shape="1" size="4"/>
			<output>
				<port id="1" precision="FP32">
					<dim>1</dim>
				</port>
			</output>
		</layer>
		<layer id="28" name="resnet_model/conv2d_2/Conv2D/fq_weights_1/Copy/out_high4656_const" type="Const" version="opset1">
			<data element_type="f32" offset="9432" shape="1" size="4"/>
			<output>
				<port id="1" precision="FP32">
					<dim>1</dim>
				</port>
			</output>
		</layer>
		<layer id="29" name="13151319_const" type="Const" version="opset1">
			<data element_type="f32" offset="14304" shape="64,1,1,1" size="256"/>
			<output>
				<port id="1" precision="FP32">
					<dim>64</dim>
					<dim>1</dim>
					<dim>1</dim>
					<dim>1</dim>
				</port>
			</output>
		</layer>
		<layer id="30" name="13161320_const" type="Const" version="opset1">
			<data element_type="f32" offset="14560" shape="64,1,1,1" size="256"/>
			<output>
				<port id="1" precision="FP32">
					<dim>64</dim>
					<dim>1</dim>
					<dim>1</dim>
					<dim>1</dim>
				</port>
			</output>
		</layer>
		<layer id="31" name="resnet_model/conv2d_2/Conv2D/fq_weights_1" type="FakeQuantize" version="opset1">
			<data levels="255"/>
			<input>
				<port id="0">
					<dim>64</dim>
					<dim>64</dim>
					<dim>1</dim>
					<dim>1</dim>
				</port>
				<port id="1">
					<dim>1</dim>
				</port>
				<port id="2">
					<dim>1</dim>
				</port>
				<port id="3">
					<dim>64</dim>
					<dim>1</dim>
					<dim>1</dim>
					<dim>1</dim>
				</port>
				<port id="4">
					<dim>64</dim>
					<dim>1</dim>
					<dim>1</dim>
					<dim>1</dim>
				</port>
			</input>
			<output>
				<port id="5" precision="FP32">
					<dim>64</dim>
					<dim>64</dim>
					<dim>1</dim>
					<dim>1</dim>
				</port>
			</output>
		</layer>
		<layer id="32" name="resnet_model/conv2d_2/Conv2D" type="Convolution" version="opset1">
			<data auto_pad="same_upper" dilations="1,1" output_padding="0,0" pads_begin="0,0" pads_end="0,0" strides="1,1"/>
			<input>
				<port id="0">
					<dim>1</dim>
					<dim>64</dim>
					<dim>56</dim>
					<dim>56</dim>
				</port>
				<port id="1">
					<dim>64</dim>
					<dim>64</dim>
					<dim>1</dim>
					<dim>1</dim>
				</port>
			</input>
			<output>
				<port id="2" precision="FP32">
					<dim>1</dim>
					<dim>64</dim>
					<dim>56</dim>
					<dim>56</dim>
				</port>
			</output>
		</layer>
		<layer id="33" name="data_add_1022210227/copy_const305_const" type="Const" version="opset1">
			<data element_type="f32" offset="14816" shape="1,64,1,1" size="256"/>
			<output>
				<port id="1" precision="FP32">
					<dim>1</dim>
					<dim>64</dim>
					<dim>1</dim>
					<dim>1</dim>
				</port>
			</output>
		</layer>
		<layer id="34" name="resnet_model/batch_normalization_2/FusedBatchNorm/variance/Fused_Add_" type="Add" version="opset1">
			<input>
				<port id="0">
					<dim>1</dim>
					<dim>64</dim>
					<dim>56</dim>
					<dim>56</dim>
				</port>
				<port id="1">
					<dim>1</dim>
					<dim>64</dim>
					<dim>1</dim>
					<dim>1</dim>
				</port>
			</input>
			<output>
				<port id="2" precision="FP32">
					<dim>1</dim>
					<dim>64</dim>
					<dim>56</dim>
					<dim>56</dim>
				</port>
			</output>
		</layer>
		<layer id="35" name="resnet_model/Relu_1" type="ReLU" version="opset1">
			<input>
				<port id="0">
					<dim>1</dim>
					<dim>64</dim>
					<dim>56</dim>
					<dim>56</dim>
				</port>
			</input>
			<output>
				<port id="1" precision="FP32">
					<dim>1</dim>
					<dim>64</dim>
					<dim>56</dim>
					<dim>56</dim>
				</port>
			</output>
		</layer>
		<layer id="36" name="22532257_const" type="Const" version="opset1">
			<data element_type="f32" offset="9428" shape="" size="4"/>
			<output>
				<port id="1" precision="FP32"/>
			</output>
		</layer>
		<layer id="37" name="22542258_const" type="Const" version="opset1">
			<data element_type="f32" offset="15072" shape="" size="4"/>
			<output>
				<port id="1" precision="FP32"/>
			</output>
		</layer>
		<layer id="38" name="22552259_const" type="Const" version="opset1">
			<data element_type="f32" offset="9428" shape="" size="4"/>
			<output>
				<port id="1" precision="FP32"/>
			</output>
		</layer>
		<layer id="39" name="22562260_const" type="Const" version="opset1">
			<data element_type="f32" offset="15072" shape="" size="4"/>
			<output>
				<port id="1" precision="FP32"/>
			</output>
		</layer>
		<layer id="40" name="resnet_model/conv2d_3/Conv2D/fq_input_0" type="FakeQuantize" version="opset1">
			<data levels="256"/>
			<input>
				<port id="0">
					<dim>1</dim>
					<dim>64</dim>
					<dim>56</dim>
					<dim>56</dim>
				</port>
				<port id="1"/>
				<port id="2"/>
				<port id="3"/>
				<port id="4"/>
			</input>
			<output>
				<port id="5" precision="FP32">
					<dim>1</dim>
					<dim>64</dim>
					<dim>56</dim>
					<dim>56</dim>
				</port>
			</output>
		</layer>
		<layer id="41" name="resnet_model/conv2d_3/Conv2D/fq_weights_1/Convert_to_float/Cast_05395_const" type="Const" version="opset1">
			<data element_type="u8" offset="15076" shape="64,64,3,3" size="36864"/>
			<output>
				<port id="1" precision="U8">
					<dim>64</dim>
					<dim>64</dim>
					<dim>3</dim>
					<dim>3</dim>
				</port>
			</output>
		</layer>
		<layer id="42" name="resnet_model/conv2d_3/Conv2D/fq_weights_1/Convert_to_float" type="Convert" version="opset1">
			<data destination_type="f32"/>
			<input>
				<port id="0">
					<dim>64</dim>
					<dim>64</dim>
					<dim>3</dim>
					<dim>3</dim>
				</port>
			</input>
			<output>
				<port id="1" precision="FP32">
					<dim>64</dim>
					<dim>64</dim>
					<dim>3</dim>
					<dim>3</dim>
				</port>
			</output>
		</layer>
		<layer id="43" name="resnet_model/conv2d_3/Conv2D/fq_weights_1/Copy/out_low4727_const" type="Const" version="opset1">
			<data element_type="f32" offset="9428" shape="1" size="4"/>
			<output>
				<port id="1" precision="FP32">
					<dim>1</dim>
				</port>
			</output>
		</layer>
		<layer id="44" name="resnet_model/conv2d_3/Conv2D/fq_weights_1/Copy/out_high4728_const" type="Const" version="opset1">
			<data element_type="f32" offset="9432" shape="1" size="4"/>
			<output>
				<port id="1" precision="FP32">
					<dim>1</dim>
				</port>
			</output>
		</layer>
		<layer id="45" name="22652269_const" type="Const" version="opset1">
			<data element_type="f32" offset="51940" shape="64,1,1,1" size="256"/>
			<output>
				<port id="1" precision="FP32">
					<dim>64</dim>
					<dim>1</dim>
					<dim>1</dim>
					<dim>1</dim>
				</port>
			</output>
		</layer>
		<layer id="46" name="22662270_const" type="Const" version="opset1">
			<data element_type="f32" offset="52196" shape="64,1,1,1" size="256"/>
			<output>
				<port id="1" precision="FP32">
					<dim>64</dim>
					<dim>1</dim>
					<dim>1</dim>
					<dim>1</dim>
				</port>
			</output>
		</layer>
		<layer id="47" name="resnet_model/conv2d_3/Conv2D/fq_weights_1" type="FakeQuantize" version="opset1">
			<data levels="255"/>
			<input>
				<port id="0">
					<dim>64</dim>
					<dim>64</dim>
					<dim>3</dim>
					<dim>3</dim>
				</port>
				<port id="1">
					<dim>1</dim>
				</port>
				<port id="2">
					<dim>1</dim>
				</port>
				<port id="3">
					<dim>64</dim>
					<dim>1</dim>
					<dim>1</dim>
					<dim>1</dim>
				</port>
				<port id="4">
					<dim>64</dim>
					<dim>1</dim>
					<dim>1</dim>
					<dim>1</dim>
				</port>
			</input>
			<output>
				<port id="5" precision="FP32">
					<dim>64</dim>
					<dim>64</dim>
					<dim>3</dim>
					<dim>3</dim>
				</port>
			</output>
		</layer>
		<layer id="48" name="resnet_model/conv2d_3/Conv2D" type="Convolution" version="opset1">
			<data auto_pad="same_upper" dilations="1,1" output_padding="0,0" pads_begin="0,0" pads_end="0,0" strides="1,1"/>
			<input>
				<port id="0">
					<dim>1</dim>
					<dim>64</dim>
					<dim>56</dim>
					<dim>56</dim>
				</port>
				<port id="1">
					<dim>64</dim>
					<dim>64</dim>
					<dim>3</dim>
					<dim>3</dim>
				</port>
			</input>
			<output>
				<port id="2" precision="FP32">
					<dim>1</dim>
					<dim>64</dim>
					<dim>56</dim>
					<dim>56</dim>
				</port>
			</output>
		</layer>
		<layer id="49" name="data_add_1023010235/copy_const310_const" type="Const" version="opset1">
			<data element_type="f32" offset="52452" shape="1,64,1,1" size="256"/>
			<output>
				<port id="1" precision="FP32">
					<dim>1</dim>
					<dim>64</dim>
					<dim>1</dim>
					<dim>1</dim>
				</port>
			</output>
		</layer>
		<layer id="50" name="resnet_model/batch_normalization_3/FusedBatchNorm/variance/Fused_Add_" type="Add" version="opset1">
			<input>
				<port id="0">
					<dim>1</dim>
					<dim>64</dim>
					<dim>56</dim>
					<dim>56</dim>
				</port>
				<port id="1">
					<dim>1</dim>
					<dim>64</dim>
					<dim>1</dim>
					<dim>1</dim>
				</port>
			</input>
			<output>
				<port id="2" precision="FP32">
					<dim>1</dim>
					<dim>64</dim>
					<dim>56</dim>
					<dim>56</dim>
				</port>
			</output>
		</layer>
		<layer id="51" name="resnet_model/Relu_2" type="ReLU" version="opset1">
			<input>
				<port id="0">
					<dim>1</dim>
					<dim>64</dim>
					<dim>56</dim>
					<dim>56</dim>
				</port>
			</input>
			<output>
				<port id="1" precision="FP32">
					<dim>1</dim>
					<dim>64</dim>
					<dim>56</dim>
					<dim>56</dim>
				</port>
			</output>
		</layer>
		<layer id="52" name="10031007_const" type="Const" version="opset1">
			<data element_type="f32" offset="9428" shape="" size="4"/>
			<output>
				<port id="1" precision="FP32"/>
			</output>
		</layer>
		<layer id="53" name="10041008_const" type="Const" version="opset1">
			<data element_type="f32" offset="52708" shape="" size="4"/>
			<output>
				<port id="1" precision="FP32"/>
			</output>
		</layer>
		<layer id="54" name="10051009_const" type="Const" version="opset1">
			<data element_type="f32" offset="9428" shape="" size="4"/>
			<output>
				<port id="1" precision="FP32"/>
			</output>
		</layer>
		<layer id="55" name="10061010_const" type="Const" version="opset1">
			<data element_type="f32" offset="52708" shape="" size="4"/>
			<output>
				<port id="1" precision="FP32"/>
			</output>
		</layer>
		<layer id="56" name="resnet_model/conv2d_4/Conv2D/fq_input_0" type="FakeQuantize" version="opset1">
			<data levels="256"/>
			<input>
				<port id="0">
					<dim>1</dim>
					<dim>64</dim>
					<dim>56</dim>
					<dim>56</dim>
				</port>
				<port id="1"/>
				<port id="2"/>
				<port id="3"/>
				<port id="4"/>
			</input>
			<output>
				<port id="5" precision="FP32">
					<dim>1</dim>
					<dim>64</dim>
					<dim>56</dim>
					<dim>56</dim>
				</port>
			</output>
		</layer>
		<layer id="57" name="resnet_model/conv2d_4/Conv2D/fq_weights_1/Convert_to_float/Cast_05485_const" type="Const" version="opset1">
			<data element_type="u8" offset="52712" shape="256,64,1,1" size="16384"/>
			<output>
				<port id="1" precision="U8">
					<dim>256</dim>
					<dim>64</dim>
					<dim>1</dim>
					<dim>1</dim>
				</port>
			</output>
		</layer>
		<layer id="58" name="resnet_model/conv2d_4/Conv2D/fq_weights_1/Convert_to_float" type="Convert" version="opset1">
			<data destination_type="f32"/>
			<input>
				<port id="0">
					<dim>256</dim>
					<dim>64</dim>
					<dim>1</dim>
					<dim>1</dim>
				</port>
			</input>
			<output>
				<port id="1" precision="FP32">
					<dim>256</dim>
					<dim>64</dim>
					<dim>1</dim>
					<dim>1</dim>
				</port>
			</output>
		</layer>
		<layer id="59" name="resnet_model/conv2d_4/Conv2D/fq_weights_1/Copy/out_low4711_const" type="Const" version="opset1">
			<data element_type="f32" offset="9428" shape="1" size="4"/>
			<output>
				<port id="1" precision="FP32">
					<dim>1</dim>
				</port>
			</output>
		</layer>
		<layer id="60" name="resnet_model/conv2d_4/Conv2D/fq_weights_1/Copy/out_high4712_const" type="Const" version="opset1">
			<data element_type="f32" offset="9432" shape="1" size="4"/>
			<output>
				<port id="1" precision="FP32">
					<dim>1</dim>
				</port>
			</output>
		</layer>
		<layer id="61" name="10151019_const" type="Const" version="opset1">
			<data element_type="f32" offset="69096" shape="256,1,1,1" size="1024"/>
			<output>
				<port id="1" precision="FP32">
					<dim>256</dim>
					<dim>1</dim>
					<dim>1</dim>
					<dim>1</dim>
				</port>
			</output>
		</layer>
		<layer id="62" name="10161020_const" type="Const" version="opset1">
			<data element_type="f32" offset="70120" shape="256,1,1,1" size="1024"/>
			<output>
				<port id="1" precision="FP32">
					<dim>256</dim>
					<dim>1</dim>
					<dim>1</dim>
					<dim>1</dim>
				</port>
			</output>
		</layer>
		<layer id="63" name="resnet_model/conv2d_4/Conv2D/fq_weights_1" type="FakeQuantize" version="opset1">
			<data levels="255"/>
			<input>
				<port id="0">
					<dim>256</dim>
					<dim>64</dim>
					<dim>1</dim>
					<dim>1</dim>
				</port>
				<port id="1">
					<dim>1</dim>
				</port>
				<port id="2">
					<dim>1</dim>
				</port>
				<port id="3">
					<dim>256</dim>
					<dim>1</dim>
					<dim>1</dim>
					<dim>1</dim>
				</port>
				<port id="4">
					<dim>256</dim>
					<dim>1</dim>
					<dim>1</dim>
					<dim>1</dim>
				</port>
			</input>
			<output>
				<port id="5" precision="FP32">
					<dim>256</dim>
					<dim>64</dim>
					<dim>1</dim>
					<dim>1</dim>
				</port>
			</output>
		</layer>
		<layer id="64" name="resnet_model/conv2d_4/Conv2D" type="Convolution" version="opset1">
			<data auto_pad="same_upper" dilations="1,1" output_padding="0,0" pads_begin="0,0" pads_end="0,0" strides="1,1"/>
			<input>
				<port id="0">
					<dim>1</dim>
					<dim>64</dim>
					<dim>56</dim>
					<dim>56</dim>
				</port>
				<port id="1">
					<dim>256</dim>
					<dim>64</dim>
					<dim>1</dim>
					<dim>1</dim>
				</port>
			</input>
			<output>
				<port id="2" precision="FP32">
					<dim>1</dim>
					<dim>256</dim>
					<dim>56</dim>
					<dim>56</dim>
				</port>
			</output>
		</layer>
		<layer id="65" name="data_add_1023810243/copy_const315_const" type="Const" version="opset1">
			<data element_type="f32" offset="71144" shape="1,256,1,1" size="1024"/>
			<output>
				<port id="1" precision="FP32">
					<dim>1</dim>
					<dim>256</dim>
					<dim>1</dim>
					<dim>1</dim>
				</port>
			</output>
		</layer>
		<layer id="66" name="resnet_model/batch_normalization_4/FusedBatchNorm/variance/Fused_Add_" type="Add" version="opset1">
			<input>
				<port id="0">
					<dim>1</dim>
					<dim>256</dim>
					<dim>56</dim>
					<dim>56</dim>
				</port>
				<port id="1">
					<dim>1</dim>
					<dim>256</dim>
					<dim>1</dim>
					<dim>1</dim>
				</port>
			</input>
			<output>
				<port id="2" precision="FP32">
					<dim>1</dim>
					<dim>256</dim>
					<dim>56</dim>
					<dim>56</dim>
				</port>
			</output>
		</layer>
		<layer id="67" name="12431247_const" type="Const" version="opset1">
			<data element_type="f32" offset="72168" shape="" size="4"/>
			<output>
				<port id="1" precision="FP32"/>
			</output>
		</layer>
		<layer id="68" name="12441248_const" type="Const" version="opset1">
			<data element_type="f32" offset="72172" shape="" size="4"/>
			<output>
				<port id="1" precision="FP32"/>
			</output>
		</layer>
		<layer id="69" name="12451249_const" type="Const" version="opset1">
			<data element_type="f32" offset="72168" shape="" size="4"/>
			<output>
				<port id="1" precision="FP32"/>
			</output>
		</layer>
		<layer id="70" name="12461250_const" type="Const" version="opset1">
			<data element_type="f32" offset="72172" shape="" size="4"/>
			<output>
				<port id="1" precision="FP32"/>
			</output>
		</layer>
		<layer id="71" name="resnet_model/add/fq_input_0" type="FakeQuantize" version="opset1">
			<data levels="256"/>
			<input>
				<port id="0">
					<dim>1</dim>
					<dim>256</dim>
					<dim>56</dim>
					<dim>56</dim>
				</port>
				<port id="1"/>
				<port id="2"/>
				<port id="3"/>
				<port id="4"/>
			</input>
			<output>
				<port id="5" precision="FP32">
					<dim>1</dim>
					<dim>256</dim>
					<dim>56</dim>
					<dim>56</dim>
				</port>
			</output>
		</layer>
		<layer id="72" name="resnet_model/conv2d_1/Conv2D/fq_weights_1/Convert_to_float/Cast_05399_const" type="Const" version="opset1">
			<data element_type="u8" offset="72176" shape="256,64,1,1" size="16384"/>
			<output>
				<port id="1" precision="U8">
					<dim>256</dim>
					<dim>64</dim>
					<dim>1</dim>
					<dim>1</dim>
				</port>
			</output>
		</layer>
		<layer id="73" name="resnet_model/conv2d_1/Conv2D/fq_weights_1/Convert_to_float" type="Convert" version="opset1">
			<data destination_type="f32"/>
			<input>
				<port id="0">
					<dim>256</dim>
					<dim>64</dim>
					<dim>1</dim>
					<dim>1</dim>
				</port>
			</input>
			<output>
				<port id="1" precision="FP32">
					<dim>256</dim>
					<dim>64</dim>
					<dim>1</dim>
					<dim>1</dim>
				</port>
			</output>
		</layer>
		<layer id="74" name="resnet_model/conv2d_1/Conv2D/fq_weights_1/Copy/out_low4399_const" type="Const" version="opset1">
			<data element_type="f32" offset="9428" shape="1" size="4"/>
			<output>
				<port id="1" precision="FP32">
					<dim>1</dim>
				</port>
			</output>
		</layer>
		<layer id="75" name="resnet_model/conv2d_1/Conv2D/fq_weights_1/Copy/out_high4400_const" type="Const" version="opset1">
			<data element_type="f32" offset="9432" shape="1" size="4"/>
			<output>
				<port id="1" precision="FP32">
					<dim>1</dim>
				</port>
			</output>
		</layer>
		<layer id="76" name="17451749_const" type="Const" version="opset1">
			<data element_type="f32" offset="88560" shape="256,1,1,1" size="1024"/>
			<output>
				<port id="1" precision="FP32">
					<dim>256</dim>
					<dim>1</dim>
					<dim>1</dim>
					<dim>1</dim>
				</port>
			</output>
		</layer>
		<layer id="77" name="17461750_const" type="Const" version="opset1">
			<data element_type="f32" offset="89584" shape="256,1,1,1" size="1024"/>
			<output>
				<port id="1" precision="FP32">
					<dim>256</dim>
					<dim>1</dim>
					<dim>1</dim>
					<dim>1</dim>
				</port>
			</output>
		</layer>
		<layer id="78" name="resnet_model/conv2d_1/Conv2D/fq_weights_1" type="FakeQuantize" version="opset1">
			<data levels="255"/>
			<input>
				<port id="0">
					<dim>256</dim>
					<dim>64</dim>
					<dim>1</dim>
					<dim>1</dim>
				</port>
				<port id="1">
					<dim>1</dim>
				</port>
				<port id="2">
					<dim>1</dim>
				</port>
				<port id="3">
					<dim>256</dim>
					<dim>1</dim>
					<dim>1</dim>
					<dim>1</dim>
				</port>
				<port id="4">
					<dim>256</dim>
					<dim>1</dim>
					<dim>1</dim>
					<dim>1</dim>
				</port>
			</input>
			<output>
				<port id="5" precision="FP32">
					<dim>256</dim>
					<dim>64</dim>
					<dim>1</dim>
					<dim>1</dim>
				</port>
			</output>
		</layer>
		<layer id="79" name="resnet_model/conv2d_1/Conv2D" type="Convolution" version="opset1">
			<data auto_pad="same_upper" dilations="1,1" output_padding="0,0" pads_begin="0,0" pads_end="0,0" strides="1,1"/>
			<input>
				<port id="0">
					<dim>1</dim>
					<dim>64</dim>
					<dim>56</dim>
					<dim>56</dim>
				</port>
				<port id="1">
					<dim>256</dim>
					<dim>64</dim>
					<dim>1</dim>
					<dim>1</dim>
				</port>
			</input>
			<output>
				<port id="2" precision="FP32">
					<dim>1</dim>
					<dim>256</dim>
					<dim>56</dim>
					<dim>56</dim>
				</port>
			</output>
		</layer>
		<layer id="80" name="data_add_1024610251/copy_const319_const" type="Const" version="opset1">
			<data element_type="f32" offset="90608" shape="1,256,1,1" size="1024"/>
			<output>
				<port id="1" precision="FP32">
					<dim>1</dim>
					<dim>256</dim>
					<dim>1</dim>
					<dim>1</dim>
				</port>
			</output>
		</layer>
		<layer id="81" name="resnet_model/batch_normalization_1/FusedBatchNorm/variance/Fused_Add_" type="Add" version="opset1">
			<input>
				<port id="0">
					<dim>1</dim>
					<dim>256</dim>
					<dim>56</dim>
					<dim>56</dim>
				</port>
				<port id="1">
					<dim>1</dim>
					<dim>256</dim>
					<dim>1</dim>
					<dim>1</dim>
				</port>
			</input>
			<output>
				<port id="2" precision="FP32">
					<dim>1</dim>
					<dim>256</dim>
					<dim>56</dim>
					<dim>56</dim>
				</port>
			</output>
		</layer>
		<layer id="82" name="12531257_const" type="Const" version="opset1">
			<data element_type="f32" offset="91632" shape="" size="4"/>
			<output>
				<port id="1" precision="FP32"/>
			</output>
		</layer>
		<layer id="83" name="12541258_const" type="Const" version="opset1">
			<data element_type="f32" offset="91636" shape="" size="4"/>
			<output>
				<port id="1" precision="FP32"/>
			</output>
		</layer>
		<layer id="84" name="12551259_const" type="Const" version="opset1">
			<data element_type="f32" offset="91632" shape="" size="4"/>
			<output>
				<port id="1" precision="FP32"/>
			</output>
		</layer>
		<layer id="85" name="12561260_const" type="Const" version="opset1">
			<data element_type="f32" offset="91636" shape="" size="4"/>
			<output>
				<port id="1" precision="FP32"/>
			</output>
		</layer>
		<layer id="86" name="resnet_model/add/fq_input_1" type="FakeQuantize" version="opset1">
			<data levels="256"/>
			<input>
				<port id="0">
					<dim>1</dim>
					<dim>256</dim>
					<dim>56</dim>
					<dim>56</dim>
				</port>
				<port id="1"/>
				<port id="2"/>
				<port id="3"/>
				<port id="4"/>
			</input>
			<output>
				<port id="5" precision="FP32">
					<dim>1</dim>
					<dim>256</dim>
					<dim>56</dim>
					<dim>56</dim>
				</port>
			</output>
		</layer>
		<layer id="87" name="resnet_model/add" type="Add" version="opset1">
			<input>
				<port id="0">
					<dim>1</dim>
					<dim>256</dim>
					<dim>56</dim>
					<dim>56</dim>
				</port>
				<port id="1">
					<dim>1</dim>
					<dim>256</dim>
					<dim>56</dim>
					<dim>56</dim>
				</port>
			</input>
			<output>
				<port id="2" precision="FP32">
					<dim>1</dim>
					<dim>256</dim>
					<dim>56</dim>
					<dim>56</dim>
				</port>
			</output>
		</layer>
		<layer id="88" name="resnet_model/Relu_3" type="ReLU" version="opset1">
			<input>
				<port id="0">
					<dim>1</dim>
					<dim>256</dim>
					<dim>56</dim>
					<dim>56</dim>
				</port>
			</input>
			<output>
				<port id="1" precision="FP32">
					<dim>1</dim>
					<dim>256</dim>
					<dim>56</dim>
					<dim>56</dim>
				</port>
			</output>
		</layer>
		<layer id="89" name="15031507_const" type="Const" version="opset1">
			<data element_type="f32" offset="9428" shape="" size="4"/>
			<output>
				<port id="1" precision="FP32"/>
			</output>
		</layer>
		<layer id="90" name="15041508_const" type="Const" version="opset1">
			<data element_type="f32" offset="91640" shape="" size="4"/>
			<output>
				<port id="1" precision="FP32"/>
			</output>
		</layer>
		<layer id="91" name="15051509_const" type="Const" version="opset1">
			<data element_type="f32" offset="9428" shape="" size="4"/>
			<output>
				<port id="1" precision="FP32"/>
			</output>
		</layer>
		<layer id="92" name="15061510_const" type="Const" version="opset1">
			<data element_type="f32" offset="91640" shape="" size="4"/>
			<output>
				<port id="1" precision="FP32"/>
			</output>
		</layer>
		<layer id="93" name="resnet_model/add_1/fq_input_1" type="FakeQuantize" version="opset1">
			<data levels="256"/>
			<input>
				<port id="0">
					<dim>1</dim>
					<dim>256</dim>
					<dim>56</dim>
					<dim>56</dim>
				</port>
				<port id="1"/>
				<port id="2"/>
				<port id="3"/>
				<port id="4"/>
			</input>
			<output>
				<port id="5" precision="FP32">
					<dim>1</dim>
					<dim>256</dim>
					<dim>56</dim>
					<dim>56</dim>
				</port>
			</output>
		</layer>
		<layer id="94" name="resnet_model/conv2d_5/Conv2D/fq_weights_1/Convert_to_float/Cast_05381_const" type="Const" version="opset1">
			<data element_type="u8" offset="91644" shape="64,256,1,1" size="16384"/>
			<output>
				<port id="1" precision="U8">
					<dim>64</dim>
					<dim>256</dim>
					<dim>1</dim>
					<dim>1</dim>
				</port>
			</output>
		</layer>
		<layer id="95" name="resnet_model/conv2d_5/Conv2D/fq_weights_1/Convert_to_float" type="Convert" version="opset1">
			<data destination_type="f32"/>
			<input>
				<port id="0">
					<dim>64</dim>
					<dim>256</dim>
					<dim>1</dim>
					<dim>1</dim>
				</port>
			</input>
			<output>
				<port id="1" precision="FP32">
					<dim>64</dim>
					<dim>256</dim>
					<dim>1</dim>
					<dim>1</dim>
				</port>
			</output>
		</layer>
		<layer id="96" name="resnet_model/conv2d_5/Conv2D/fq_weights_1/Copy/out_low4671_const" type="Const" version="opset1">
			<data element_type="f32" offset="9428" shape="1" size="4"/>
			<output>
				<port id="1" precision="FP32">
					<dim>1</dim>
				</port>
			</output>
		</layer>
		<layer id="97" name="resnet_model/conv2d_5/Conv2D/fq_weights_1/Copy/out_high4672_const" type="Const" version="opset1">
			<data element_type="f32" offset="9432" shape="1" size="4"/>
			<output>
				<port id="1" precision="FP32">
					<dim>1</dim>
				</port>
			</output>
		</layer>
		<layer id="98" name="21452149_const" type="Const" version="opset1">
			<data element_type="f32" offset="108028" shape="64,1,1,1" size="256"/>
			<output>
				<port id="1" precision="FP32">
					<dim>64</dim>
					<dim>1</dim>
					<dim>1</dim>
					<dim>1</dim>
				</port>
			</output>
		</layer>
		<layer id="99" name="21462150_const" type="Const" version="opset1">
			<data element_type="f32" offset="108284" shape="64,1,1,1" size="256"/>
			<output>
				<port id="1" precision="FP32">
					<dim>64</dim>
					<dim>1</dim>
					<dim>1</dim>
					<dim>1</dim>
				</port>
			</output>
		</layer>
		<layer id="100" name="resnet_model/conv2d_5/Conv2D/fq_weights_1" type="FakeQuantize" version="opset1">
			<data levels="255"/>
			<input>
				<port id="0">
					<dim>64</dim>
					<dim>256</dim>
					<dim>1</dim>
					<dim>1</dim>
				</port>
				<port id="1">
					<dim>1</dim>
				</port>
				<port id="2">
					<dim>1</dim>
				</port>
				<port id="3">
					<dim>64</dim>
					<dim>1</dim>
					<dim>1</dim>
					<dim>1</dim>
				</port>
				<port id="4">
					<dim>64</dim>
					<dim>1</dim>
					<dim>1</dim>
					<dim>1</dim>
				</port>
			</input>
			<output>
				<port id="5" precision="FP32">
					<dim>64</dim>
					<dim>256</dim>
					<dim>1</dim>
					<dim>1</dim>
				</port>
			</output>
		</layer>
		<layer id="101" name="resnet_model/conv2d_5/Conv2D" type="Convolution" version="opset1">
			<data auto_pad="same_upper" dilations="1,1" output_padding="0,0" pads_begin="0,0" pads_end="0,0" strides="1,1"/>
			<input>
				<port id="0">
					<dim>1</dim>
					<dim>256</dim>
					<dim>56</dim>
					<dim>56</dim>
				</port>
				<port id="1">
					<dim>64</dim>
					<dim>256</dim>
					<dim>1</dim>
					<dim>1</dim>
				</port>
			</input>
			<output>
				<port id="2" precision="FP32">
					<dim>1</dim>
					<dim>64</dim>
					<dim>56</dim>
					<dim>56</dim>
				</port>
			</output>
		</layer>
		<layer id="102" name="data_add_1025410259/copy_const325_const" type="Const" version="opset1">
			<data element_type="f32" offset="108540" shape="1,64,1,1" size="256"/>
			<output>
				<port id="1" precision="FP32">
					<dim>1</dim>
					<dim>64</dim>
					<dim>1</dim>
					<dim>1</dim>
				</port>
			</output>
		</layer>
		<layer id="103" name="resnet_model/batch_normalization_5/FusedBatchNorm/variance/Fused_Add_" type="Add" version="opset1">
			<input>
				<port id="0">
					<dim>1</dim>
					<dim>64</dim>
					<dim>56</dim>
					<dim>56</dim>
				</port>
				<port id="1">
					<dim>1</dim>
					<dim>64</dim>
					<dim>1</dim>
					<dim>1</dim>
				</port>
			</input>
			<output>
				<port id="2" precision="FP32">
					<dim>1</dim>
					<dim>64</dim>
					<dim>56</dim>
					<dim>56</dim>
				</port>
			</output>
		</layer>
		<layer id="104" name="resnet_model/Relu_4" type="ReLU" version="opset1">
			<input>
				<port id="0">
					<dim>1</dim>
					<dim>64</dim>
					<dim>56</dim>
					<dim>56</dim>
				</port>
			</input>
			<output>
				<port id="1" precision="FP32">
					<dim>1</dim>
					<dim>64</dim>
					<dim>56</dim>
					<dim>56</dim>
				</port>
			</output>
		</layer>
		<layer id="105" name="13631367_const" type="Const" version="opset1">
			<data element_type="f32" offset="9428" shape="" size="4"/>
			<output>
				<port id="1" precision="FP32"/>
			</output>
		</layer>
		<layer id="106" name="13641368_const" type="Const" version="opset1">
			<data element_type="f32" offset="108796" shape="" size="4"/>
			<output>
				<port id="1" precision="FP32"/>
			</output>
		</layer>
		<layer id="107" name="13651369_const" type="Const" version="opset1">
			<data element_type="f32" offset="9428" shape="" size="4"/>
			<output>
				<port id="1" precision="FP32"/>
			</output>
		</layer>
		<layer id="108" name="13661370_const" type="Const" version="opset1">
			<data element_type="f32" offset="108796" shape="" size="4"/>
			<output>
				<port id="1" precision="FP32"/>
			</output>
		</layer>
		<layer id="109" name="resnet_model/conv2d_6/Conv2D/fq_input_0" type="FakeQuantize" version="opset1">
			<data levels="256"/>
			<input>
				<port id="0">
					<dim>1</dim>
					<dim>64</dim>
					<dim>56</dim>
					<dim>56</dim>
				</port>
				<port id="1"/>
				<port id="2"/>
				<port id="3"/>
				<port id="4"/>
			</input>
			<output>
				<port id="5" precision="FP32">
					<dim>1</dim>
					<dim>64</dim>
					<dim>56</dim>
					<dim>56</dim>
				</port>
			</output>
		</layer>
		<layer id="110" name="resnet_model/conv2d_6/Conv2D/fq_weights_1/Convert_to_float/Cast_05487_const" type="Const" version="opset1">
			<data element_type="u8" offset="108800" shape="64,64,3,3" size="36864"/>
			<output>
				<port id="1" precision="U8">
					<dim>64</dim>
					<dim>64</dim>
					<dim>3</dim>
					<dim>3</dim>
				</port>
			</output>
		</layer>
		<layer id="111" name="resnet_model/conv2d_6/Conv2D/fq_weights_1/Convert_to_float" type="Convert" version="opset1">
			<data destination_type="f32"/>
			<input>
				<port id="0">
					<dim>64</dim>
					<dim>64</dim>
					<dim>3</dim>
					<dim>3</dim>
				</port>
			</input>
			<output>
				<port id="1" precision="FP32">
					<dim>64</dim>
					<dim>64</dim>
					<dim>3</dim>
					<dim>3</dim>
				</port>
			</output>
		</layer>
		<layer id="112" name="resnet_model/conv2d_6/Conv2D/fq_weights_1/Copy/out_low4719_const" type="Const" version="opset1">
			<data element_type="f32" offset="9428" shape="1" size="4"/>
			<output>
				<port id="1" precision="FP32">
					<dim>1</dim>
				</port>
			</output>
		</layer>
		<layer id="113" name="resnet_model/conv2d_6/Conv2D/fq_weights_1/Copy/out_high4720_const" type="Const" version="opset1">
			<data element_type="f32" offset="9432" shape="1" size="4"/>
			<output>
				<port id="1" precision="FP32">
					<dim>1</dim>
				</port>
			</output>
		</layer>
		<layer id="114" name="13751379_const" type="Const" version="opset1">
			<data element_type="f32" offset="145664" shape="64,1,1,1" size="256"/>
			<output>
				<port id="1" precision="FP32">
					<dim>64</dim>
					<dim>1</dim>
					<dim>1</dim>
					<dim>1</dim>
				</port>
			</output>
		</layer>
		<layer id="115" name="13761380_const" type="Const" version="opset1">
			<data element_type="f32" offset="145920" shape="64,1,1,1" size="256"/>
			<output>
				<port id="1" precision="FP32">
					<dim>64</dim>
					<dim>1</dim>
					<dim>1</dim>
					<dim>1</dim>
				</port>
			</output>
		</layer>
		<layer id="116" name="resnet_model/conv2d_6/Conv2D/fq_weights_1" type="FakeQuantize" version="opset1">
			<data levels="255"/>
			<input>
				<port id="0">
					<dim>64</dim>
					<dim>64</dim>
					<dim>3</dim>
					<dim>3</dim>
				</port>
				<port id="1">
					<dim>1</dim>
				</port>
				<port id="2">
					<dim>1</dim>
				</port>
				<port id="3">
					<dim>64</dim>
					<dim>1</dim>
					<dim>1</dim>
					<dim>1</dim>
				</port>
				<port id="4">
					<dim>64</dim>
					<dim>1</dim>
					<dim>1</dim>
					<dim>1</dim>
				</port>
			</input>
			<output>
				<port id="5" precision="FP32">
					<dim>64</dim>
					<dim>64</dim>
					<dim>3</dim>
					<dim>3</dim>
				</port>
			</output>
		</layer>
		<layer id="117" name="resnet_model/conv2d_6/Conv2D" type="Convolution" version="opset1">
			<data auto_pad="same_upper" dilations="1,1" output_padding="0,0" pads_begin="0,0" pads_end="0,0" strides="1,1"/>
			<input>
				<port id="0">
					<dim>1</dim>
					<dim>64</dim>
					<dim>56</dim>
					<dim>56</dim>
				</port>
				<port id="1">
					<dim>64</dim>
					<dim>64</dim>
					<dim>3</dim>
					<dim>3</dim>
				</port>
			</input>
			<output>
				<port id="2" precision="FP32">
					<dim>1</dim>
					<dim>64</dim>
					<dim>56</dim>
					<dim>56</dim>
				</port>
			</output>
		</layer>
		<layer id="118" name="data_add_1026210267/copy_const330_const" type="Const" version="opset1">
			<data element_type="f32" offset="146176" shape="1,64,1,1" size="256"/>
			<output>
				<port id="1" precision="FP32">
					<dim>1</dim>
					<dim>64</dim>
					<dim>1</dim>
					<dim>1</dim>
				</port>
			</output>
		</layer>
		<layer id="119" name="resnet_model/batch_normalization_6/FusedBatchNorm/variance/Fused_Add_" type="Add" version="opset1">
			<input>
				<port id="0">
					<dim>1</dim>
					<dim>64</dim>
					<dim>56</dim>
					<dim>56</dim>
				</port>
				<port id="1">
					<dim>1</dim>
					<dim>64</dim>
					<dim>1</dim>
					<dim>1</dim>
				</port>
			</input>
			<output>
				<port id="2" precision="FP32">
					<dim>1</dim>
					<dim>64</dim>
					<dim>56</dim>
					<dim>56</dim>
				</port>
			</output>
		</layer>
		<layer id="120" name="resnet_model/Relu_5" type="ReLU" version="opset1">
			<input>
				<port id="0">
					<dim>1</dim>
					<dim>64</dim>
					<dim>56</dim>
					<dim>56</dim>
				</port>
			</input>
			<output>
				<port id="1" precision="FP32">
					<dim>1</dim>
					<dim>64</dim>
					<dim>56</dim>
					<dim>56</dim>
				</port>
			</output>
		</layer>
		<layer id="121" name="13931397_const" type="Const" version="opset1">
			<data element_type="f32" offset="9428" shape="" size="4"/>
			<output>
				<port id="1" precision="FP32"/>
			</output>
		</layer>
		<layer id="122" name="13941398_const" type="Const" version="opset1">
			<data element_type="f32" offset="146432" shape="" size="4"/>
			<output>
				<port id="1" precision="FP32"/>
			</output>
		</layer>
		<layer id="123" name="13951399_const" type="Const" version="opset1">
			<data element_type="f32" offset="9428" shape="" size="4"/>
			<output>
				<port id="1" precision="FP32"/>
			</output>
		</layer>
		<layer id="124" name="13961400_const" type="Const" version="opset1">
			<data element_type="f32" offset="146432" shape="" size="4"/>
			<output>
				<port id="1" precision="FP32"/>
			</output>
		</layer>
		<layer id="125" name="resnet_model/conv2d_7/Conv2D/fq_input_0" type="FakeQuantize" version="opset1">
			<data levels="256"/>
			<input>
				<port id="0">
					<dim>1</dim>
					<dim>64</dim>
					<dim>56</dim>
					<dim>56</dim>
				</port>
				<port id="1"/>
				<port id="2"/>
				<port id="3"/>
				<port id="4"/>
			</input>
			<output>
				<port id="5" precision="FP32">
					<dim>1</dim>
					<dim>64</dim>
					<dim>56</dim>
					<dim>56</dim>
				</port>
			</output>
		</layer>
		<layer id="126" name="resnet_model/conv2d_7/Conv2D/fq_weights_1/Convert_to_float/Cast_05409_const" type="Const" version="opset1">
			<data element_type="u8" offset="146436" shape="256,64,1,1" size="16384"/>
			<output>
				<port id="1" precision="U8">
					<dim>256</dim>
					<dim>64</dim>
					<dim>1</dim>
					<dim>1</dim>
				</port>
			</output>
		</layer>
		<layer id="127" name="resnet_model/conv2d_7/Conv2D/fq_weights_1/Convert_to_float" type="Convert" version="opset1">
			<data destination_type="f32"/>
			<input>
				<port id="0">
					<dim>256</dim>
					<dim>64</dim>
					<dim>1</dim>
					<dim>1</dim>
				</port>
			</input>
			<output>
				<port id="1" precision="FP32">
					<dim>256</dim>
					<dim>64</dim>
					<dim>1</dim>
					<dim>1</dim>
				</port>
			</output>
		</layer>
		<layer id="128" name="resnet_model/conv2d_7/Conv2D/fq_weights_1/Copy/out_low4383_const" type="Const" version="opset1">
			<data element_type="f32" offset="9428" shape="1" size="4"/>
			<output>
				<port id="1" precision="FP32">
					<dim>1</dim>
				</port>
			</output>
		</layer>
		<layer id="129" name="resnet_model/conv2d_7/Conv2D/fq_weights_1/Copy/out_high4384_const" type="Const" version="opset1">
			<data element_type="f32" offset="9432" shape="1" size="4"/>
			<output>
				<port id="1" precision="FP32">
					<dim>1</dim>
				</port>
			</output>
		</layer>
		<layer id="130" name="14051409_const" type="Const" version="opset1">
			<data element_type="f32" offset="162820" shape="256,1,1,1" size="1024"/>
			<output>
				<port id="1" precision="FP32">
					<dim>256</dim>
					<dim>1</dim>
					<dim>1</dim>
					<dim>1</dim>
				</port>
			</output>
		</layer>
		<layer id="131" name="14061410_const" type="Const" version="opset1">
			<data element_type="f32" offset="163844" shape="256,1,1,1" size="1024"/>
			<output>
				<port id="1" precision="FP32">
					<dim>256</dim>
					<dim>1</dim>
					<dim>1</dim>
					<dim>1</dim>
				</port>
			</output>
		</layer>
		<layer id="132" name="resnet_model/conv2d_7/Conv2D/fq_weights_1" type="FakeQuantize" version="opset1">
			<data levels="255"/>
			<input>
				<port id="0">
					<dim>256</dim>
					<dim>64</dim>
					<dim>1</dim>
					<dim>1</dim>
				</port>
				<port id="1">
					<dim>1</dim>
				</port>
				<port id="2">
					<dim>1</dim>
				</port>
				<port id="3">
					<dim>256</dim>
					<dim>1</dim>
					<dim>1</dim>
					<dim>1</dim>
				</port>
				<port id="4">
					<dim>256</dim>
					<dim>1</dim>
					<dim>1</dim>
					<dim>1</dim>
				</port>
			</input>
			<output>
				<port id="5" precision="FP32">
					<dim>256</dim>
					<dim>64</dim>
					<dim>1</dim>
					<dim>1</dim>
				</port>
			</output>
		</layer>
		<layer id="133" name="resnet_model/conv2d_7/Conv2D" type="Convolution" version="opset1">
			<data auto_pad="same_upper" dilations="1,1" output_padding="0,0" pads_begin="0,0" pads_end="0,0" strides="1,1"/>
			<input>
				<port id="0">
					<dim>1</dim>
					<dim>64</dim>
					<dim>56</dim>
					<dim>56</dim>
				</port>
				<port id="1">
					<dim>256</dim>
					<dim>64</dim>
					<dim>1</dim>
					<dim>1</dim>
				</port>
			</input>
			<output>
				<port id="2" precision="FP32">
					<dim>1</dim>
					<dim>256</dim>
					<dim>56</dim>
					<dim>56</dim>
				</port>
			</output>
		</layer>
		<layer id="134" name="data_add_1027010275/copy_const335_const" type="Const" version="opset1">
			<data element_type="f32" offset="164868" shape="1,256,1,1" size="1024"/>
			<output>
				<port id="1" precision="FP32">
					<dim>1</dim>
					<dim>256</dim>
					<dim>1</dim>
					<dim>1</dim>
				</port>
			</output>
		</layer>
		<layer id="135" name="resnet_model/batch_normalization_7/FusedBatchNorm/variance/Fused_Add_" type="Add" version="opset1">
			<input>
				<port id="0">
					<dim>1</dim>
					<dim>256</dim>
					<dim>56</dim>
					<dim>56</dim>
				</port>
				<port id="1">
					<dim>1</dim>
					<dim>256</dim>
					<dim>1</dim>
					<dim>1</dim>
				</port>
			</input>
			<output>
				<port id="2" precision="FP32">
					<dim>1</dim>
					<dim>256</dim>
					<dim>56</dim>
					<dim>56</dim>
				</port>
			</output>
		</layer>
		<layer id="136" name="14931497_const" type="Const" version="opset1">
			<data element_type="f32" offset="165892" shape="" size="4"/>
			<output>
				<port id="1" precision="FP32"/>
			</output>
		</layer>
		<layer id="137" name="14941498_const" type="Const" version="opset1">
			<data element_type="f32" offset="165896" shape="" size="4"/>
			<output>
				<port id="1" precision="FP32"/>
			</output>
		</layer>
		<layer id="138" name="14951499_const" type="Const" version="opset1">
			<data element_type="f32" offset="165892" shape="" size="4"/>
			<output>
				<port id="1" precision="FP32"/>
			</output>
		</layer>
		<layer id="139" name="14961500_const" type="Const" version="opset1">
			<data element_type="f32" offset="165896" shape="" size="4"/>
			<output>
				<port id="1" precision="FP32"/>
			</output>
		</layer>
		<layer id="140" name="resnet_model/add_1/fq_input_0" type="FakeQuantize" version="opset1">
			<data levels="256"/>
			<input>
				<port id="0">
					<dim>1</dim>
					<dim>256</dim>
					<dim>56</dim>
					<dim>56</dim>
				</port>
				<port id="1"/>
				<port id="2"/>
				<port id="3"/>
				<port id="4"/>
			</input>
			<output>
				<port id="5" precision="FP32">
					<dim>1</dim>
					<dim>256</dim>
					<dim>56</dim>
					<dim>56</dim>
				</port>
			</output>
		</layer>
		<layer id="141" name="resnet_model/add_1" type="Add" version="opset1">
			<input>
				<port id="0">
					<dim>1</dim>
					<dim>256</dim>
					<dim>56</dim>
					<dim>56</dim>
				</port>
				<port id="1">
					<dim>1</dim>
					<dim>256</dim>
					<dim>56</dim>
					<dim>56</dim>
				</port>
			</input>
			<output>
				<port id="2" precision="FP32">
					<dim>1</dim>
					<dim>256</dim>
					<dim>56</dim>
					<dim>56</dim>
				</port>
			</output>
		</layer>
		<layer id="142" name="resnet_model/Relu_6" type="ReLU" version="opset1">
			<input>
				<port id="0">
					<dim>1</dim>
					<dim>256</dim>
					<dim>56</dim>
					<dim>56</dim>
				</port>
			</input>
			<output>
				<port id="1" precision="FP32">
					<dim>1</dim>
					<dim>256</dim>
					<dim>56</dim>
					<dim>56</dim>
				</port>
			</output>
		</layer>
		<layer id="143" name="22232227_const" type="Const" version="opset1">
			<data element_type="f32" offset="9428" shape="" size="4"/>
			<output>
				<port id="1" precision="FP32"/>
			</output>
		</layer>
		<layer id="144" name="22242228_const" type="Const" version="opset1">
			<data element_type="f32" offset="165900" shape="" size="4"/>
			<output>
				<port id="1" precision="FP32"/>
			</output>
		</layer>
		<layer id="145" name="22252229_const" type="Const" version="opset1">
			<data element_type="f32" offset="9428" shape="" size="4"/>
			<output>
				<port id="1" precision="FP32"/>
			</output>
		</layer>
		<layer id="146" name="22262230_const" type="Const" version="opset1">
			<data element_type="f32" offset="165900" shape="" size="4"/>
			<output>
				<port id="1" precision="FP32"/>
			</output>
		</layer>
		<layer id="147" name="resnet_model/add_2/fq_input_1" type="FakeQuantize" version="opset1">
			<data levels="256"/>
			<input>
				<port id="0">
					<dim>1</dim>
					<dim>256</dim>
					<dim>56</dim>
					<dim>56</dim>
				</port>
				<port id="1"/>
				<port id="2"/>
				<port id="3"/>
				<port id="4"/>
			</input>
			<output>
				<port id="5" precision="FP32">
					<dim>1</dim>
					<dim>256</dim>
					<dim>56</dim>
					<dim>56</dim>
				</port>
			</output>
		</layer>
		<layer id="148" name="resnet_model/conv2d_8/Conv2D/fq_weights_1/Convert_to_float/Cast_05483_const" type="Const" version="opset1">
			<data element_type="u8" offset="165904" shape="64,256,1,1" size="16384"/>
			<output>
				<port id="1" precision="U8">
					<dim>64</dim>
					<dim>256</dim>
					<dim>1</dim>
					<dim>1</dim>
				</port>
			</output>
		</layer>
		<layer id="149" name="resnet_model/conv2d_8/Conv2D/fq_weights_1/Convert_to_float" type="Convert" version="opset1">
			<data destination_type="f32"/>
			<input>
				<port id="0">
					<dim>64</dim>
					<dim>256</dim>
					<dim>1</dim>
					<dim>1</dim>
				</port>
			</input>
			<output>
				<port id="1" precision="FP32">
					<dim>64</dim>
					<dim>256</dim>
					<dim>1</dim>
					<dim>1</dim>
				</port>
			</output>
		</layer>
		<layer id="150" name="resnet_model/conv2d_8/Conv2D/fq_weights_1/Copy/out_low4423_const" type="Const" version="opset1">
			<data element_type="f32" offset="9428" shape="1" size="4"/>
			<output>
				<port id="1" precision="FP32">
					<dim>1</dim>
				</port>
			</output>
		</layer>
		<layer id="151" name="resnet_model/conv2d_8/Conv2D/fq_weights_1/Copy/out_high4424_const" type="Const" version="opset1">
			<data element_type="f32" offset="9432" shape="1" size="4"/>
			<output>
				<port id="1" precision="FP32">
					<dim>1</dim>
				</port>
			</output>
		</layer>
		<layer id="152" name="19051909_const" type="Const" version="opset1">
			<data element_type="f32" offset="182288" shape="64,1,1,1" size="256"/>
			<output>
				<port id="1" precision="FP32">
					<dim>64</dim>
					<dim>1</dim>
					<dim>1</dim>
					<dim>1</dim>
				</port>
			</output>
		</layer>
		<layer id="153" name="19061910_const" type="Const" version="opset1">
			<data element_type="f32" offset="182544" shape="64,1,1,1" size="256"/>
			<output>
				<port id="1" precision="FP32">
					<dim>64</dim>
					<dim>1</dim>
					<dim>1</dim>
					<dim>1</dim>
				</port>
			</output>
		</layer>
		<layer id="154" name="resnet_model/conv2d_8/Conv2D/fq_weights_1" type="FakeQuantize" version="opset1">
			<data levels="255"/>
			<input>
				<port id="0">
					<dim>64</dim>
					<dim>256</dim>
					<dim>1</dim>
					<dim>1</dim>
				</port>
				<port id="1">
					<dim>1</dim>
				</port>
				<port id="2">
					<dim>1</dim>
				</port>
				<port id="3">
					<dim>64</dim>
					<dim>1</dim>
					<dim>1</dim>
					<dim>1</dim>
				</port>
				<port id="4">
					<dim>64</dim>
					<dim>1</dim>
					<dim>1</dim>
					<dim>1</dim>
				</port>
			</input>
			<output>
				<port id="5" precision="FP32">
					<dim>64</dim>
					<dim>256</dim>
					<dim>1</dim>
					<dim>1</dim>
				</port>
			</output>
		</layer>
		<layer id="155" name="resnet_model/conv2d_8/Conv2D" type="Convolution" version="opset1">
			<data auto_pad="same_upper" dilations="1,1" output_padding="0,0" pads_begin="0,0" pads_end="0,0" strides="1,1"/>
			<input>
				<port id="0">
					<dim>1</dim>
					<dim>256</dim>
					<dim>56</dim>
					<dim>56</dim>
				</port>
				<port id="1">
					<dim>64</dim>
					<dim>256</dim>
					<dim>1</dim>
					<dim>1</dim>
				</port>
			</input>
			<output>
				<port id="2" precision="FP32">
					<dim>1</dim>
					<dim>64</dim>
					<dim>56</dim>
					<dim>56</dim>
				</port>
			</output>
		</layer>
		<layer id="156" name="data_add_1027810283/copy_const341_const" type="Const" version="opset1">
			<data element_type="f32" offset="182800" shape="1,64,1,1" size="256"/>
			<output>
				<port id="1" precision="FP32">
					<dim>1</dim>
					<dim>64</dim>
					<dim>1</dim>
					<dim>1</dim>
				</port>
			</output>
		</layer>
		<layer id="157" name="resnet_model/batch_normalization_8/FusedBatchNorm/variance/Fused_Add_" type="Add" version="opset1">
			<input>
				<port id="0">
					<dim>1</dim>
					<dim>64</dim>
					<dim>56</dim>
					<dim>56</dim>
				</port>
				<port id="1">
					<dim>1</dim>
					<dim>64</dim>
					<dim>1</dim>
					<dim>1</dim>
				</port>
			</input>
			<output>
				<port id="2" precision="FP32">
					<dim>1</dim>
					<dim>64</dim>
					<dim>56</dim>
					<dim>56</dim>
				</port>
			</output>
		</layer>
		<layer id="158" name="resnet_model/Relu_7" type="ReLU" version="opset1">
			<input>
				<port id="0">
					<dim>1</dim>
					<dim>64</dim>
					<dim>56</dim>
					<dim>56</dim>
				</port>
			</input>
			<output>
				<port id="1" precision="FP32">
					<dim>1</dim>
					<dim>64</dim>
					<dim>56</dim>
					<dim>56</dim>
				</port>
			</output>
		</layer>
		<layer id="159" name="10831087_const" type="Const" version="opset1">
			<data element_type="f32" offset="9428" shape="" size="4"/>
			<output>
				<port id="1" precision="FP32"/>
			</output>
		</layer>
		<layer id="160" name="10841088_const" type="Const" version="opset1">
			<data element_type="f32" offset="183056" shape="" size="4"/>
			<output>
				<port id="1" precision="FP32"/>
			</output>
		</layer>
		<layer id="161" name="10851089_const" type="Const" version="opset1">
			<data element_type="f32" offset="9428" shape="" size="4"/>
			<output>
				<port id="1" precision="FP32"/>
			</output>
		</layer>
		<layer id="162" name="10861090_const" type="Const" version="opset1">
			<data element_type="f32" offset="183056" shape="" size="4"/>
			<output>
				<port id="1" precision="FP32"/>
			</output>
		</layer>
		<layer id="163" name="resnet_model/conv2d_9/Conv2D/fq_input_0" type="FakeQuantize" version="opset1">
			<data levels="256"/>
			<input>
				<port id="0">
					<dim>1</dim>
					<dim>64</dim>
					<dim>56</dim>
					<dim>56</dim>
				</port>
				<port id="1"/>
				<port id="2"/>
				<port id="3"/>
				<port id="4"/>
			</input>
			<output>
				<port id="5" precision="FP32">
					<dim>1</dim>
					<dim>64</dim>
					<dim>56</dim>
					<dim>56</dim>
				</port>
			</output>
		</layer>
		<layer id="164" name="resnet_model/conv2d_9/Conv2D/fq_weights_1/Convert_to_float/Cast_05471_const" type="Const" version="opset1">
			<data element_type="u8" offset="183060" shape="64,64,3,3" size="36864"/>
			<output>
				<port id="1" precision="U8">
					<dim>64</dim>
					<dim>64</dim>
					<dim>3</dim>
					<dim>3</dim>
				</port>
			</output>
		</layer>
		<layer id="165" name="resnet_model/conv2d_9/Conv2D/fq_weights_1/Convert_to_float" type="Convert" version="opset1">
			<data destination_type="f32"/>
			<input>
				<port id="0">
					<dim>64</dim>
					<dim>64</dim>
					<dim>3</dim>
					<dim>3</dim>
				</port>
			</input>
			<output>
				<port id="1" precision="FP32">
					<dim>64</dim>
					<dim>64</dim>
					<dim>3</dim>
					<dim>3</dim>
				</port>
			</output>
		</layer>
		<layer id="166" name="resnet_model/conv2d_9/Conv2D/fq_weights_1/Copy/out_low4535_const" type="Const" version="opset1">
			<data element_type="f32" offset="9428" shape="1" size="4"/>
			<output>
				<port id="1" precision="FP32">
					<dim>1</dim>
				</port>
			</output>
		</layer>
		<layer id="167" name="resnet_model/conv2d_9/Conv2D/fq_weights_1/Copy/out_high4536_const" type="Const" version="opset1">
			<data element_type="f32" offset="9432" shape="1" size="4"/>
			<output>
				<port id="1" precision="FP32">
					<dim>1</dim>
				</port>
			</output>
		</layer>
		<layer id="168" name="10951099_const" type="Const" version="opset1">
			<data element_type="f32" offset="219924" shape="64,1,1,1" size="256"/>
			<output>
				<port id="1" precision="FP32">
					<dim>64</dim>
					<dim>1</dim>
					<dim>1</dim>
					<dim>1</dim>
				</port>
			</output>
		</layer>
		<layer id="169" name="10961100_const" type="Const" version="opset1">
			<data element_type="f32" offset="220180" shape="64,1,1,1" size="256"/>
			<output>
				<port id="1" precision="FP32">
					<dim>64</dim>
					<dim>1</dim>
					<dim>1</dim>
					<dim>1</dim>
				</port>
			</output>
		</layer>
		<layer id="170" name="resnet_model/conv2d_9/Conv2D/fq_weights_1" type="FakeQuantize" version="opset1">
			<data levels="255"/>
			<input>
				<port id="0">
					<dim>64</dim>
					<dim>64</dim>
					<dim>3</dim>
					<dim>3</dim>
				</port>
				<port id="1">
					<dim>1</dim>
				</port>
				<port id="2">
					<dim>1</dim>
				</port>
				<port id="3">
					<dim>64</dim>
					<dim>1</dim>
					<dim>1</dim>
					<dim>1</dim>
				</port>
				<port id="4">
					<dim>64</dim>
					<dim>1</dim>
					<dim>1</dim>
					<dim>1</dim>
				</port>
			</input>
			<output>
				<port id="5" precision="FP32">
					<dim>64</dim>
					<dim>64</dim>
					<dim>3</dim>
					<dim>3</dim>
				</port>
			</output>
		</layer>
		<layer id="171" name="resnet_model/conv2d_9/Conv2D" type="Convolution" version="opset1">
			<data auto_pad="same_upper" dilations="1,1" output_padding="0,0" pads_begin="0,0" pads_end="0,0" strides="1,1"/>
			<input>
				<port id="0">
					<dim>1</dim>
					<dim>64</dim>
					<dim>56</dim>
					<dim>56</dim>
				</port>
				<port id="1">
					<dim>64</dim>
					<dim>64</dim>
					<dim>3</dim>
					<dim>3</dim>
				</port>
			</input>
			<output>
				<port id="2" precision="FP32">
					<dim>1</dim>
					<dim>64</dim>
					<dim>56</dim>
					<dim>56</dim>
				</port>
			</output>
		</layer>
		<layer id="172" name="data_add_1028610291/copy_const346_const" type="Const" version="opset1">
			<data element_type="f32" offset="220436" shape="1,64,1,1" size="256"/>
			<output>
				<port id="1" precision="FP32">
					<dim>1</dim>
					<dim>64</dim>
					<dim>1</dim>
					<dim>1</dim>
				</port>
			</output>
		</layer>
		<layer id="173" name="resnet_model/batch_normalization_9/FusedBatchNorm/variance/Fused_Add_" type="Add" version="opset1">
			<input>
				<port id="0">
					<dim>1</dim>
					<dim>64</dim>
					<dim>56</dim>
					<dim>56</dim>
				</port>
				<port id="1">
					<dim>1</dim>
					<dim>64</dim>
					<dim>1</dim>
					<dim>1</dim>
				</port>
			</input>
			<output>
				<port id="2" precision="FP32">
					<dim>1</dim>
					<dim>64</dim>
					<dim>56</dim>
					<dim>56</dim>
				</port>
			</output>
		</layer>
		<layer id="174" name="resnet_model/Relu_8" type="ReLU" version="opset1">
			<input>
				<port id="0">
					<dim>1</dim>
					<dim>64</dim>
					<dim>56</dim>
					<dim>56</dim>
				</port>
			</input>
			<output>
				<port id="1" precision="FP32">
					<dim>1</dim>
					<dim>64</dim>
					<dim>56</dim>
					<dim>56</dim>
				</port>
			</output>
		</layer>
		<layer id="175" name="923927_const" type="Const" version="opset1">
			<data element_type="f32" offset="9428" shape="" size="4"/>
			<output>
				<port id="1" precision="FP32"/>
			</output>
		</layer>
		<layer id="176" name="924928_const" type="Const" version="opset1">
			<data element_type="f32" offset="220692" shape="" size="4"/>
			<output>
				<port id="1" precision="FP32"/>
			</output>
		</layer>
		<layer id="177" name="925929_const" type="Const" version="opset1">
			<data element_type="f32" offset="9428" shape="" size="4"/>
			<output>
				<port id="1" precision="FP32"/>
			</output>
		</layer>
		<layer id="178" name="926930_const" type="Const" version="opset1">
			<data element_type="f32" offset="220692" shape="" size="4"/>
			<output>
				<port id="1" precision="FP32"/>
			</output>
		</layer>
		<layer id="179" name="resnet_model/conv2d_10/Conv2D/fq_input_0" type="FakeQuantize" version="opset1">
			<data levels="256"/>
			<input>
				<port id="0">
					<dim>1</dim>
					<dim>64</dim>
					<dim>56</dim>
					<dim>56</dim>
				</port>
				<port id="1"/>
				<port id="2"/>
				<port id="3"/>
				<port id="4"/>
			</input>
			<output>
				<port id="5" precision="FP32">
					<dim>1</dim>
					<dim>64</dim>
					<dim>56</dim>
					<dim>56</dim>
				</port>
			</output>
		</layer>
		<layer id="180" name="resnet_model/conv2d_10/Conv2D/fq_weights_1/Convert_to_float/Cast_05403_const" type="Const" version="opset1">
			<data element_type="u8" offset="220696" shape="256,64,1,1" size="16384"/>
			<output>
				<port id="1" precision="U8">
					<dim>256</dim>
					<dim>64</dim>
					<dim>1</dim>
					<dim>1</dim>
				</port>
			</output>
		</layer>
		<layer id="181" name="resnet_model/conv2d_10/Conv2D/fq_weights_1/Convert_to_float" type="Convert" version="opset1">
			<data destination_type="f32"/>
			<input>
				<port id="0">
					<dim>256</dim>
					<dim>64</dim>
					<dim>1</dim>
					<dim>1</dim>
				</port>
			</input>
			<output>
				<port id="1" precision="FP32">
					<dim>256</dim>
					<dim>64</dim>
					<dim>1</dim>
					<dim>1</dim>
				</port>
			</output>
		</layer>
		<layer id="182" name="resnet_model/conv2d_10/Conv2D/fq_weights_1/Copy/out_low4335_const" type="Const" version="opset1">
			<data element_type="f32" offset="9428" shape="1" size="4"/>
			<output>
				<port id="1" precision="FP32">
					<dim>1</dim>
				</port>
			</output>
		</layer>
		<layer id="183" name="resnet_model/conv2d_10/Conv2D/fq_weights_1/Copy/out_high4336_const" type="Const" version="opset1">
			<data element_type="f32" offset="9432" shape="1" size="4"/>
			<output>
				<port id="1" precision="FP32">
					<dim>1</dim>
				</port>
			</output>
		</layer>
		<layer id="184" name="935939_const" type="Const" version="opset1">
			<data element_type="f32" offset="237080" shape="256,1,1,1" size="1024"/>
			<output>
				<port id="1" precision="FP32">
					<dim>256</dim>
					<dim>1</dim>
					<dim>1</dim>
					<dim>1</dim>
				</port>
			</output>
		</layer>
		<layer id="185" name="936940_const" type="Const" version="opset1">
			<data element_type="f32" offset="238104" shape="256,1,1,1" size="1024"/>
			<output>
				<port id="1" precision="FP32">
					<dim>256</dim>
					<dim>1</dim>
					<dim>1</dim>
					<dim>1</dim>
				</port>
			</output>
		</layer>
		<layer id="186" name="resnet_model/conv2d_10/Conv2D/fq_weights_1" type="FakeQuantize" version="opset1">
			<data levels="255"/>
			<input>
				<port id="0">
					<dim>256</dim>
					<dim>64</dim>
					<dim>1</dim>
					<dim>1</dim>
				</port>
				<port id="1">
					<dim>1</dim>
				</port>
				<port id="2">
					<dim>1</dim>
				</port>
				<port id="3">
					<dim>256</dim>
					<dim>1</dim>
					<dim>1</dim>
					<dim>1</dim>
				</port>
				<port id="4">
					<dim>256</dim>
					<dim>1</dim>
					<dim>1</dim>
					<dim>1</dim>
				</port>
			</input>
			<output>
				<port id="5" precision="FP32">
					<dim>256</dim>
					<dim>64</dim>
					<dim>1</dim>
					<dim>1</dim>
				</port>
			</output>
		</layer>
		<layer id="187" name="resnet_model/conv2d_10/Conv2D" type="Convolution" version="opset1">
			<data auto_pad="same_upper" dilations="1,1" output_padding="0,0" pads_begin="0,0" pads_end="0,0" strides="1,1"/>
			<input>
				<port id="0">
					<dim>1</dim>
					<dim>64</dim>
					<dim>56</dim>
					<dim>56</dim>
				</port>
				<port id="1">
					<dim>256</dim>
					<dim>64</dim>
					<dim>1</dim>
					<dim>1</dim>
				</port>
			</input>
			<output>
				<port id="2" precision="FP32">
					<dim>1</dim>
					<dim>256</dim>
					<dim>56</dim>
					<dim>56</dim>
				</port>
			</output>
		</layer>
		<layer id="188" name="data_add_1029410299/copy_const351_const" type="Const" version="opset1">
			<data element_type="f32" offset="239128" shape="1,256,1,1" size="1024"/>
			<output>
				<port id="1" precision="FP32">
					<dim>1</dim>
					<dim>256</dim>
					<dim>1</dim>
					<dim>1</dim>
				</port>
			</output>
		</layer>
		<layer id="189" name="resnet_model/batch_normalization_10/FusedBatchNorm/variance/Fused_Add_" type="Add" version="opset1">
			<input>
				<port id="0">
					<dim>1</dim>
					<dim>256</dim>
					<dim>56</dim>
					<dim>56</dim>
				</port>
				<port id="1">
					<dim>1</dim>
					<dim>256</dim>
					<dim>1</dim>
					<dim>1</dim>
				</port>
			</input>
			<output>
				<port id="2" precision="FP32">
					<dim>1</dim>
					<dim>256</dim>
					<dim>56</dim>
					<dim>56</dim>
				</port>
			</output>
		</layer>
		<layer id="190" name="22132217_const" type="Const" version="opset1">
			<data element_type="f32" offset="240152" shape="" size="4"/>
			<output>
				<port id="1" precision="FP32"/>
			</output>
		</layer>
		<layer id="191" name="22142218_const" type="Const" version="opset1">
			<data element_type="f32" offset="240156" shape="" size="4"/>
			<output>
				<port id="1" precision="FP32"/>
			</output>
		</layer>
		<layer id="192" name="22152219_const" type="Const" version="opset1">
			<data element_type="f32" offset="240152" shape="" size="4"/>
			<output>
				<port id="1" precision="FP32"/>
			</output>
		</layer>
		<layer id="193" name="22162220_const" type="Const" version="opset1">
			<data element_type="f32" offset="240156" shape="" size="4"/>
			<output>
				<port id="1" precision="FP32"/>
			</output>
		</layer>
		<layer id="194" name="resnet_model/add_2/fq_input_0" type="FakeQuantize" version="opset1">
			<data levels="256"/>
			<input>
				<port id="0">
					<dim>1</dim>
					<dim>256</dim>
					<dim>56</dim>
					<dim>56</dim>
				</port>
				<port id="1"/>
				<port id="2"/>
				<port id="3"/>
				<port id="4"/>
			</input>
			<output>
				<port id="5" precision="FP32">
					<dim>1</dim>
					<dim>256</dim>
					<dim>56</dim>
					<dim>56</dim>
				</port>
			</output>
		</layer>
		<layer id="195" name="resnet_model/add_2" type="Add" version="opset1">
			<input>
				<port id="0">
					<dim>1</dim>
					<dim>256</dim>
					<dim>56</dim>
					<dim>56</dim>
				</port>
				<port id="1">
					<dim>1</dim>
					<dim>256</dim>
					<dim>56</dim>
					<dim>56</dim>
				</port>
			</input>
			<output>
				<port id="2" precision="FP32">
					<dim>1</dim>
					<dim>256</dim>
					<dim>56</dim>
					<dim>56</dim>
				</port>
			</output>
		</layer>
		<layer id="196" name="resnet_model/Relu_9" type="ReLU" version="opset1">
			<input>
				<port id="0">
					<dim>1</dim>
					<dim>256</dim>
					<dim>56</dim>
					<dim>56</dim>
				</port>
			</input>
			<output>
				<port id="1" precision="FP32">
					<dim>1</dim>
					<dim>256</dim>
					<dim>56</dim>
					<dim>56</dim>
				</port>
			</output>
		</layer>
		<layer id="197" name="15931597_const" type="Const" version="opset1">
			<data element_type="f32" offset="9428" shape="" size="4"/>
			<output>
				<port id="1" precision="FP32"/>
			</output>
		</layer>
		<layer id="198" name="15941598_const" type="Const" version="opset1">
			<data element_type="f32" offset="240160" shape="" size="4"/>
			<output>
				<port id="1" precision="FP32"/>
			</output>
		</layer>
		<layer id="199" name="15951599_const" type="Const" version="opset1">
			<data element_type="f32" offset="9428" shape="" size="4"/>
			<output>
				<port id="1" precision="FP32"/>
			</output>
		</layer>
		<layer id="200" name="15961600_const" type="Const" version="opset1">
			<data element_type="f32" offset="240160" shape="" size="4"/>
			<output>
				<port id="1" precision="FP32"/>
			</output>
		</layer>
		<layer id="201" name="resnet_model/conv2d_11/Conv2D/fq_input_0" type="FakeQuantize" version="opset1">
			<data levels="256"/>
			<input>
				<port id="0">
					<dim>1</dim>
					<dim>256</dim>
					<dim>56</dim>
					<dim>56</dim>
				</port>
				<port id="1"/>
				<port id="2"/>
				<port id="3"/>
				<port id="4"/>
			</input>
			<output>
				<port id="5" precision="FP32">
					<dim>1</dim>
					<dim>256</dim>
					<dim>56</dim>
					<dim>56</dim>
				</port>
			</output>
		</layer>
		<layer id="202" name="resnet_model/conv2d_12/Conv2D/fq_weights_1/Convert_to_float/Cast_05447_const" type="Const" version="opset1">
			<data element_type="u8" offset="240164" shape="128,256,1,1" size="32768"/>
			<output>
				<port id="1" precision="U8">
					<dim>128</dim>
					<dim>256</dim>
					<dim>1</dim>
					<dim>1</dim>
				</port>
			</output>
		</layer>
		<layer id="203" name="resnet_model/conv2d_12/Conv2D/fq_weights_1/Convert_to_float" type="Convert" version="opset1">
			<data destination_type="f32"/>
			<input>
				<port id="0">
					<dim>128</dim>
					<dim>256</dim>
					<dim>1</dim>
					<dim>1</dim>
				</port>
			</input>
			<output>
				<port id="1" precision="FP32">
					<dim>128</dim>
					<dim>256</dim>
					<dim>1</dim>
					<dim>1</dim>
				</port>
			</output>
		</layer>
		<layer id="204" name="resnet_model/conv2d_12/Conv2D/fq_weights_1/Copy/out_low4479_const" type="Const" version="opset1">
			<data element_type="f32" offset="9428" shape="1" size="4"/>
			<output>
				<port id="1" precision="FP32">
					<dim>1</dim>
				</port>
			</output>
		</layer>
		<layer id="205" name="resnet_model/conv2d_12/Conv2D/fq_weights_1/Copy/out_high4480_const" type="Const" version="opset1">
			<data element_type="f32" offset="9432" shape="1" size="4"/>
			<output>
				<port id="1" precision="FP32">
					<dim>1</dim>
				</port>
			</output>
		</layer>
		<layer id="206" name="14451449_const" type="Const" version="opset1">
			<data element_type="f32" offset="272932" shape="128,1,1,1" size="512"/>
			<output>
				<port id="1" precision="FP32">
					<dim>128</dim>
					<dim>1</dim>
					<dim>1</dim>
					<dim>1</dim>
				</port>
			</output>
		</layer>
		<layer id="207" name="14461450_const" type="Const" version="opset1">
			<data element_type="f32" offset="273444" shape="128,1,1,1" size="512"/>
			<output>
				<port id="1" precision="FP32">
					<dim>128</dim>
					<dim>1</dim>
					<dim>1</dim>
					<dim>1</dim>
				</port>
			</output>
		</layer>
		<layer id="208" name="resnet_model/conv2d_12/Conv2D/fq_weights_1" type="FakeQuantize" version="opset1">
			<data levels="255"/>
			<input>
				<port id="0">
					<dim>128</dim>
					<dim>256</dim>
					<dim>1</dim>
					<dim>1</dim>
				</port>
				<port id="1">
					<dim>1</dim>
				</port>
				<port id="2">
					<dim>1</dim>
				</port>
				<port id="3">
					<dim>128</dim>
					<dim>1</dim>
					<dim>1</dim>
					<dim>1</dim>
				</port>
				<port id="4">
					<dim>128</dim>
					<dim>1</dim>
					<dim>1</dim>
					<dim>1</dim>
				</port>
			</input>
			<output>
				<port id="5" precision="FP32">
					<dim>128</dim>
					<dim>256</dim>
					<dim>1</dim>
					<dim>1</dim>
				</port>
			</output>
		</layer>
		<layer id="209" name="resnet_model/conv2d_12/Conv2D" type="Convolution" version="opset1">
			<data auto_pad="same_upper" dilations="1,1" output_padding="0,0" pads_begin="0,0" pads_end="0,0" strides="1,1"/>
			<input>
				<port id="0">
					<dim>1</dim>
					<dim>256</dim>
					<dim>56</dim>
					<dim>56</dim>
				</port>
				<port id="1">
					<dim>128</dim>
					<dim>256</dim>
					<dim>1</dim>
					<dim>1</dim>
				</port>
			</input>
			<output>
				<port id="2" precision="FP32">
					<dim>1</dim>
					<dim>128</dim>
					<dim>56</dim>
					<dim>56</dim>
				</port>
			</output>
		</layer>
		<layer id="210" name="data_add_1030210307/copy_const357_const" type="Const" version="opset1">
			<data element_type="f32" offset="273956" shape="1,128,1,1" size="512"/>
			<output>
				<port id="1" precision="FP32">
					<dim>1</dim>
					<dim>128</dim>
					<dim>1</dim>
					<dim>1</dim>
				</port>
			</output>
		</layer>
		<layer id="211" name="resnet_model/batch_normalization_12/FusedBatchNorm/variance/Fused_Add_" type="Add" version="opset1">
			<input>
				<port id="0">
					<dim>1</dim>
					<dim>128</dim>
					<dim>56</dim>
					<dim>56</dim>
				</port>
				<port id="1">
					<dim>1</dim>
					<dim>128</dim>
					<dim>1</dim>
					<dim>1</dim>
				</port>
			</input>
			<output>
				<port id="2" precision="FP32">
					<dim>1</dim>
					<dim>128</dim>
					<dim>56</dim>
					<dim>56</dim>
				</port>
			</output>
		</layer>
		<layer id="212" name="resnet_model/Relu_10" type="ReLU" version="opset1">
			<input>
				<port id="0">
					<dim>1</dim>
					<dim>128</dim>
					<dim>56</dim>
					<dim>56</dim>
				</port>
			</input>
			<output>
				<port id="1" precision="FP32">
					<dim>1</dim>
					<dim>128</dim>
					<dim>56</dim>
					<dim>56</dim>
				</port>
			</output>
		</layer>
		<layer id="213" name="11031107_const" type="Const" version="opset1">
			<data element_type="f32" offset="9428" shape="" size="4"/>
			<output>
				<port id="1" precision="FP32"/>
			</output>
		</layer>
		<layer id="214" name="11041108_const" type="Const" version="opset1">
			<data element_type="f32" offset="274468" shape="" size="4"/>
			<output>
				<port id="1" precision="FP32"/>
			</output>
		</layer>
		<layer id="215" name="11051109_const" type="Const" version="opset1">
			<data element_type="f32" offset="9428" shape="" size="4"/>
			<output>
				<port id="1" precision="FP32"/>
			</output>
		</layer>
		<layer id="216" name="11061110_const" type="Const" version="opset1">
			<data element_type="f32" offset="274468" shape="" size="4"/>
			<output>
				<port id="1" precision="FP32"/>
			</output>
		</layer>
		<layer id="217" name="resnet_model/conv2d_13/Conv2D/fq_input_0" type="FakeQuantize" version="opset1">
			<data levels="256"/>
			<input>
				<port id="0">
					<dim>1</dim>
					<dim>128</dim>
					<dim>56</dim>
					<dim>56</dim>
				</port>
				<port id="1"/>
				<port id="2"/>
				<port id="3"/>
				<port id="4"/>
			</input>
			<output>
				<port id="5" precision="FP32">
					<dim>1</dim>
					<dim>128</dim>
					<dim>56</dim>
					<dim>56</dim>
				</port>
			</output>
		</layer>
		<layer id="218" name="resnet_model/conv2d_13/Conv2D/fq_weights_1/Convert_to_float/Cast_05449_const" type="Const" version="opset1">
			<data element_type="u8" offset="274472" shape="128,128,3,3" size="147456"/>
			<output>
				<port id="1" precision="U8">
					<dim>128</dim>
					<dim>128</dim>
					<dim>3</dim>
					<dim>3</dim>
				</port>
			</output>
		</layer>
		<layer id="219" name="resnet_model/conv2d_13/Conv2D/fq_weights_1/Convert_to_float" type="Convert" version="opset1">
			<data destination_type="f32"/>
			<input>
				<port id="0">
					<dim>128</dim>
					<dim>128</dim>
					<dim>3</dim>
					<dim>3</dim>
				</port>
			</input>
			<output>
				<port id="1" precision="FP32">
					<dim>128</dim>
					<dim>128</dim>
					<dim>3</dim>
					<dim>3</dim>
				</port>
			</output>
		</layer>
		<layer id="220" name="resnet_model/conv2d_13/Conv2D/fq_weights_1/Copy/out_low4511_const" type="Const" version="opset1">
			<data element_type="f32" offset="9428" shape="1" size="4"/>
			<output>
				<port id="1" precision="FP32">
					<dim>1</dim>
				</port>
			</output>
		</layer>
		<layer id="221" name="resnet_model/conv2d_13/Conv2D/fq_weights_1/Copy/out_high4512_const" type="Const" version="opset1">
			<data element_type="f32" offset="9432" shape="1" size="4"/>
			<output>
				<port id="1" precision="FP32">
					<dim>1</dim>
				</port>
			</output>
		</layer>
		<layer id="222" name="11151119_const" type="Const" version="opset1">
			<data element_type="f32" offset="421928" shape="128,1,1,1" size="512"/>
			<output>
				<port id="1" precision="FP32">
					<dim>128</dim>
					<dim>1</dim>
					<dim>1</dim>
					<dim>1</dim>
				</port>
			</output>
		</layer>
		<layer id="223" name="11161120_const" type="Const" version="opset1">
			<data element_type="f32" offset="422440" shape="128,1,1,1" size="512"/>
			<output>
				<port id="1" precision="FP32">
					<dim>128</dim>
					<dim>1</dim>
					<dim>1</dim>
					<dim>1</dim>
				</port>
			</output>
		</layer>
		<layer id="224" name="resnet_model/conv2d_13/Conv2D/fq_weights_1" type="FakeQuantize" version="opset1">
			<data levels="255"/>
			<input>
				<port id="0">
					<dim>128</dim>
					<dim>128</dim>
					<dim>3</dim>
					<dim>3</dim>
				</port>
				<port id="1">
					<dim>1</dim>
				</port>
				<port id="2">
					<dim>1</dim>
				</port>
				<port id="3">
					<dim>128</dim>
					<dim>1</dim>
					<dim>1</dim>
					<dim>1</dim>
				</port>
				<port id="4">
					<dim>128</dim>
					<dim>1</dim>
					<dim>1</dim>
					<dim>1</dim>
				</port>
			</input>
			<output>
				<port id="5" precision="FP32">
					<dim>128</dim>
					<dim>128</dim>
					<dim>3</dim>
					<dim>3</dim>
				</port>
			</output>
		</layer>
		<layer id="225" name="resnet_model/conv2d_13/Conv2D" type="Convolution" version="opset1">
			<data dilations="1,1" output_padding="0,0" pads_begin="1,1" pads_end="1,1" strides="2,2"/>
			<input>
				<port id="0">
					<dim>1</dim>
					<dim>128</dim>
					<dim>56</dim>
					<dim>56</dim>
				</port>
				<port id="1">
					<dim>128</dim>
					<dim>128</dim>
					<dim>3</dim>
					<dim>3</dim>
				</port>
			</input>
			<output>
				<port id="2" precision="FP32">
					<dim>1</dim>
					<dim>128</dim>
					<dim>28</dim>
					<dim>28</dim>
				</port>
			</output>
		</layer>
		<layer id="226" name="data_add_1031010315/copy_const362_const" type="Const" version="opset1">
			<data element_type="f32" offset="422952" shape="1,128,1,1" size="512"/>
			<output>
				<port id="1" precision="FP32">
					<dim>1</dim>
					<dim>128</dim>
					<dim>1</dim>
					<dim>1</dim>
				</port>
			</output>
		</layer>
		<layer id="227" name="resnet_model/batch_normalization_13/FusedBatchNorm/variance/Fused_Add_" type="Add" version="opset1">
			<input>
				<port id="0">
					<dim>1</dim>
					<dim>128</dim>
					<dim>28</dim>
					<dim>28</dim>
				</port>
				<port id="1">
					<dim>1</dim>
					<dim>128</dim>
					<dim>1</dim>
					<dim>1</dim>
				</port>
			</input>
			<output>
				<port id="2" precision="FP32">
					<dim>1</dim>
					<dim>128</dim>
					<dim>28</dim>
					<dim>28</dim>
				</port>
			</output>
		</layer>
		<layer id="228" name="resnet_model/Relu_11" type="ReLU" version="opset1">
			<input>
				<port id="0">
					<dim>1</dim>
					<dim>128</dim>
					<dim>28</dim>
					<dim>28</dim>
				</port>
			</input>
			<output>
				<port id="1" precision="FP32">
					<dim>1</dim>
					<dim>128</dim>
					<dim>28</dim>
					<dim>28</dim>
				</port>
			</output>
		</layer>
		<layer id="229" name="16331637_const" type="Const" version="opset1">
			<data element_type="f32" offset="9428" shape="" size="4"/>
			<output>
				<port id="1" precision="FP32"/>
			</output>
		</layer>
		<layer id="230" name="16341638_const" type="Const" version="opset1">
			<data element_type="f32" offset="423464" shape="" size="4"/>
			<output>
				<port id="1" precision="FP32"/>
			</output>
		</layer>
		<layer id="231" name="16351639_const" type="Const" version="opset1">
			<data element_type="f32" offset="9428" shape="" size="4"/>
			<output>
				<port id="1" precision="FP32"/>
			</output>
		</layer>
		<layer id="232" name="16361640_const" type="Const" version="opset1">
			<data element_type="f32" offset="423464" shape="" size="4"/>
			<output>
				<port id="1" precision="FP32"/>
			</output>
		</layer>
		<layer id="233" name="resnet_model/conv2d_14/Conv2D/fq_input_0" type="FakeQuantize" version="opset1">
			<data levels="256"/>
			<input>
				<port id="0">
					<dim>1</dim>
					<dim>128</dim>
					<dim>28</dim>
					<dim>28</dim>
				</port>
				<port id="1"/>
				<port id="2"/>
				<port id="3"/>
				<port id="4"/>
			</input>
			<output>
				<port id="5" precision="FP32">
					<dim>1</dim>
					<dim>128</dim>
					<dim>28</dim>
					<dim>28</dim>
				</port>
			</output>
		</layer>
		<layer id="234" name="resnet_model/conv2d_14/Conv2D/fq_weights_1/Convert_to_float/Cast_05479_const" type="Const" version="opset1">
			<data element_type="u8" offset="423468" shape="512,128,1,1" size="65536"/>
			<output>
				<port id="1" precision="U8">
					<dim>512</dim>
					<dim>128</dim>
					<dim>1</dim>
					<dim>1</dim>
				</port>
			</output>
		</layer>
		<layer id="235" name="resnet_model/conv2d_14/Conv2D/fq_weights_1/Convert_to_float" type="Convert" version="opset1">
			<data destination_type="f32"/>
			<input>
				<port id="0">
					<dim>512</dim>
					<dim>128</dim>
					<dim>1</dim>
					<dim>1</dim>
				</port>
			</input>
			<output>
				<port id="1" precision="FP32">
					<dim>512</dim>
					<dim>128</dim>
					<dim>1</dim>
					<dim>1</dim>
				</port>
			</output>
		</layer>
		<layer id="236" name="resnet_model/conv2d_14/Conv2D/fq_weights_1/Copy/out_low4575_const" type="Const" version="opset1">
			<data element_type="f32" offset="9428" shape="1" size="4"/>
			<output>
				<port id="1" precision="FP32">
					<dim>1</dim>
				</port>
			</output>
		</layer>
		<layer id="237" name="resnet_model/conv2d_14/Conv2D/fq_weights_1/Copy/out_high4576_const" type="Const" version="opset1">
			<data element_type="f32" offset="9432" shape="1" size="4"/>
			<output>
				<port id="1" precision="FP32">
					<dim>1</dim>
				</port>
			</output>
		</layer>
		<layer id="238" name="16451649_const" type="Const" version="opset1">
			<data element_type="f32" offset="489004" shape="512,1,1,1" size="2048"/>
			<output>
				<port id="1" precision="FP32">
					<dim>512</dim>
					<dim>1</dim>
					<dim>1</dim>
					<dim>1</dim>
				</port>
			</output>
		</layer>
		<layer id="239" name="16461650_const" type="Const" version="opset1">
			<data element_type="f32" offset="491052" shape="512,1,1,1" size="2048"/>
			<output>
				<port id="1" precision="FP32">
					<dim>512</dim>
					<dim>1</dim>
					<dim>1</dim>
					<dim>1</dim>
				</port>
			</output>
		</layer>
		<layer id="240" name="resnet_model/conv2d_14/Conv2D/fq_weights_1" type="FakeQuantize" version="opset1">
			<data levels="255"/>
			<input>
				<port id="0">
					<dim>512</dim>
					<dim>128</dim>
					<dim>1</dim>
					<dim>1</dim>
				</port>
				<port id="1">
					<dim>1</dim>
				</port>
				<port id="2">
					<dim>1</dim>
				</port>
				<port id="3">
					<dim>512</dim>
					<dim>1</dim>
					<dim>1</dim>
					<dim>1</dim>
				</port>
				<port id="4">
					<dim>512</dim>
					<dim>1</dim>
					<dim>1</dim>
					<dim>1</dim>
				</port>
			</input>
			<output>
				<port id="5" precision="FP32">
					<dim>512</dim>
					<dim>128</dim>
					<dim>1</dim>
					<dim>1</dim>
				</port>
			</output>
		</layer>
		<layer id="241" name="resnet_model/conv2d_14/Conv2D" type="Convolution" version="opset1">
			<data auto_pad="same_upper" dilations="1,1" output_padding="0,0" pads_begin="0,0" pads_end="0,0" strides="1,1"/>
			<input>
				<port id="0">
					<dim>1</dim>
					<dim>128</dim>
					<dim>28</dim>
					<dim>28</dim>
				</port>
				<port id="1">
					<dim>512</dim>
					<dim>128</dim>
					<dim>1</dim>
					<dim>1</dim>
				</port>
			</input>
			<output>
				<port id="2" precision="FP32">
					<dim>1</dim>
					<dim>512</dim>
					<dim>28</dim>
					<dim>28</dim>
				</port>
			</output>
		</layer>
		<layer id="242" name="data_add_1031810323/copy_const367_const" type="Const" version="opset1">
			<data element_type="f32" offset="493100" shape="1,512,1,1" size="2048"/>
			<output>
				<port id="1" precision="FP32">
					<dim>1</dim>
					<dim>512</dim>
					<dim>1</dim>
					<dim>1</dim>
				</port>
			</output>
		</layer>
		<layer id="243" name="resnet_model/batch_normalization_14/FusedBatchNorm/variance/Fused_Add_" type="Add" version="opset1">
			<input>
				<port id="0">
					<dim>1</dim>
					<dim>512</dim>
					<dim>28</dim>
					<dim>28</dim>
				</port>
				<port id="1">
					<dim>1</dim>
					<dim>512</dim>
					<dim>1</dim>
					<dim>1</dim>
				</port>
			</input>
			<output>
				<port id="2" precision="FP32">
					<dim>1</dim>
					<dim>512</dim>
					<dim>28</dim>
					<dim>28</dim>
				</port>
			</output>
		</layer>
		<layer id="244" name="17931797_const" type="Const" version="opset1">
			<data element_type="f32" offset="495148" shape="" size="4"/>
			<output>
				<port id="1" precision="FP32"/>
			</output>
		</layer>
		<layer id="245" name="17941798_const" type="Const" version="opset1">
			<data element_type="f32" offset="495152" shape="" size="4"/>
			<output>
				<port id="1" precision="FP32"/>
			</output>
		</layer>
		<layer id="246" name="17951799_const" type="Const" version="opset1">
			<data element_type="f32" offset="495148" shape="" size="4"/>
			<output>
				<port id="1" precision="FP32"/>
			</output>
		</layer>
		<layer id="247" name="17961800_const" type="Const" version="opset1">
			<data element_type="f32" offset="495152" shape="" size="4"/>
			<output>
				<port id="1" precision="FP32"/>
			</output>
		</layer>
		<layer id="248" name="resnet_model/add_3/fq_input_0" type="FakeQuantize" version="opset1">
			<data levels="256"/>
			<input>
				<port id="0">
					<dim>1</dim>
					<dim>512</dim>
					<dim>28</dim>
					<dim>28</dim>
				</port>
				<port id="1"/>
				<port id="2"/>
				<port id="3"/>
				<port id="4"/>
			</input>
			<output>
				<port id="5" precision="FP32">
					<dim>1</dim>
					<dim>512</dim>
					<dim>28</dim>
					<dim>28</dim>
				</port>
			</output>
		</layer>
		<layer id="249" name="resnet_model/conv2d_11/Conv2D/fq_weights_1/Convert_to_float/Cast_05465_const" type="Const" version="opset1">
			<data element_type="u8" offset="495156" shape="512,256,1,1" size="131072"/>
			<output>
				<port id="1" precision="U8">
					<dim>512</dim>
					<dim>256</dim>
					<dim>1</dim>
					<dim>1</dim>
				</port>
			</output>
		</layer>
		<layer id="250" name="resnet_model/conv2d_11/Conv2D/fq_weights_1/Convert_to_float" type="Convert" version="opset1">
			<data destination_type="f32"/>
			<input>
				<port id="0">
					<dim>512</dim>
					<dim>256</dim>
					<dim>1</dim>
					<dim>1</dim>
				</port>
			</input>
			<output>
				<port id="1" precision="FP32">
					<dim>512</dim>
					<dim>256</dim>
					<dim>1</dim>
					<dim>1</dim>
				</port>
			</output>
		</layer>
		<layer id="251" name="resnet_model/conv2d_11/Conv2D/fq_weights_1/Copy/out_low4551_const" type="Const" version="opset1">
			<data element_type="f32" offset="9428" shape="1" size="4"/>
			<output>
				<port id="1" precision="FP32">
					<dim>1</dim>
				</port>
			</output>
		</layer>
		<layer id="252" name="resnet_model/conv2d_11/Conv2D/fq_weights_1/Copy/out_high4552_const" type="Const" version="opset1">
			<data element_type="f32" offset="9432" shape="1" size="4"/>
			<output>
				<port id="1" precision="FP32">
					<dim>1</dim>
				</port>
			</output>
		</layer>
		<layer id="253" name="16051609_const" type="Const" version="opset1">
			<data element_type="f32" offset="626228" shape="512,1,1,1" size="2048"/>
			<output>
				<port id="1" precision="FP32">
					<dim>512</dim>
					<dim>1</dim>
					<dim>1</dim>
					<dim>1</dim>
				</port>
			</output>
		</layer>
		<layer id="254" name="16061610_const" type="Const" version="opset1">
			<data element_type="f32" offset="628276" shape="512,1,1,1" size="2048"/>
			<output>
				<port id="1" precision="FP32">
					<dim>512</dim>
					<dim>1</dim>
					<dim>1</dim>
					<dim>1</dim>
				</port>
			</output>
		</layer>
		<layer id="255" name="resnet_model/conv2d_11/Conv2D/fq_weights_1" type="FakeQuantize" version="opset1">
			<data levels="255"/>
			<input>
				<port id="0">
					<dim>512</dim>
					<dim>256</dim>
					<dim>1</dim>
					<dim>1</dim>
				</port>
				<port id="1">
					<dim>1</dim>
				</port>
				<port id="2">
					<dim>1</dim>
				</port>
				<port id="3">
					<dim>512</dim>
					<dim>1</dim>
					<dim>1</dim>
					<dim>1</dim>
				</port>
				<port id="4">
					<dim>512</dim>
					<dim>1</dim>
					<dim>1</dim>
					<dim>1</dim>
				</port>
			</input>
			<output>
				<port id="5" precision="FP32">
					<dim>512</dim>
					<dim>256</dim>
					<dim>1</dim>
					<dim>1</dim>
				</port>
			</output>
		</layer>
		<layer id="256" name="resnet_model/conv2d_11/Conv2D" type="Convolution" version="opset1">
			<data auto_pad="valid" dilations="1,1" output_padding="0,0" pads_begin="0,0" pads_end="0,0" strides="2,2"/>
			<input>
				<port id="0">
					<dim>1</dim>
					<dim>256</dim>
					<dim>56</dim>
					<dim>56</dim>
				</port>
				<port id="1">
					<dim>512</dim>
					<dim>256</dim>
					<dim>1</dim>
					<dim>1</dim>
				</port>
			</input>
			<output>
				<port id="2" precision="FP32">
					<dim>1</dim>
					<dim>512</dim>
					<dim>28</dim>
					<dim>28</dim>
				</port>
			</output>
		</layer>
		<layer id="257" name="data_add_1032610331/copy_const371_const" type="Const" version="opset1">
			<data element_type="f32" offset="630324" shape="1,512,1,1" size="2048"/>
			<output>
				<port id="1" precision="FP32">
					<dim>1</dim>
					<dim>512</dim>
					<dim>1</dim>
					<dim>1</dim>
				</port>
			</output>
		</layer>
		<layer id="258" name="resnet_model/batch_normalization_11/FusedBatchNorm/variance/Fused_Add_" type="Add" version="opset1">
			<input>
				<port id="0">
					<dim>1</dim>
					<dim>512</dim>
					<dim>28</dim>
					<dim>28</dim>
				</port>
				<port id="1">
					<dim>1</dim>
					<dim>512</dim>
					<dim>1</dim>
					<dim>1</dim>
				</port>
			</input>
			<output>
				<port id="2" precision="FP32">
					<dim>1</dim>
					<dim>512</dim>
					<dim>28</dim>
					<dim>28</dim>
				</port>
			</output>
		</layer>
		<layer id="259" name="18031807_const" type="Const" version="opset1">
			<data element_type="f32" offset="632372" shape="" size="4"/>
			<output>
				<port id="1" precision="FP32"/>
			</output>
		</layer>
		<layer id="260" name="18041808_const" type="Const" version="opset1">
			<data element_type="f32" offset="632376" shape="" size="4"/>
			<output>
				<port id="1" precision="FP32"/>
			</output>
		</layer>
		<layer id="261" name="18051809_const" type="Const" version="opset1">
			<data element_type="f32" offset="632372" shape="" size="4"/>
			<output>
				<port id="1" precision="FP32"/>
			</output>
		</layer>
		<layer id="262" name="18061810_const" type="Const" version="opset1">
			<data element_type="f32" offset="632376" shape="" size="4"/>
			<output>
				<port id="1" precision="FP32"/>
			</output>
		</layer>
		<layer id="263" name="resnet_model/add_3/fq_input_1" type="FakeQuantize" version="opset1">
			<data levels="256"/>
			<input>
				<port id="0">
					<dim>1</dim>
					<dim>512</dim>
					<dim>28</dim>
					<dim>28</dim>
				</port>
				<port id="1"/>
				<port id="2"/>
				<port id="3"/>
				<port id="4"/>
			</input>
			<output>
				<port id="5" precision="FP32">
					<dim>1</dim>
					<dim>512</dim>
					<dim>28</dim>
					<dim>28</dim>
				</port>
			</output>
		</layer>
		<layer id="264" name="resnet_model/add_3" type="Add" version="opset1">
			<input>
				<port id="0">
					<dim>1</dim>
					<dim>512</dim>
					<dim>28</dim>
					<dim>28</dim>
				</port>
				<port id="1">
					<dim>1</dim>
					<dim>512</dim>
					<dim>28</dim>
					<dim>28</dim>
				</port>
			</input>
			<output>
				<port id="2" precision="FP32">
					<dim>1</dim>
					<dim>512</dim>
					<dim>28</dim>
					<dim>28</dim>
				</port>
			</output>
		</layer>
		<layer id="265" name="resnet_model/Relu_12" type="ReLU" version="opset1">
			<input>
				<port id="0">
					<dim>1</dim>
					<dim>512</dim>
					<dim>28</dim>
					<dim>28</dim>
				</port>
			</input>
			<output>
				<port id="1" precision="FP32">
					<dim>1</dim>
					<dim>512</dim>
					<dim>28</dim>
					<dim>28</dim>
				</port>
			</output>
		</layer>
		<layer id="266" name="21832187_const" type="Const" version="opset1">
			<data element_type="f32" offset="9428" shape="" size="4"/>
			<output>
				<port id="1" precision="FP32"/>
			</output>
		</layer>
		<layer id="267" name="21842188_const" type="Const" version="opset1">
			<data element_type="f32" offset="632380" shape="" size="4"/>
			<output>
				<port id="1" precision="FP32"/>
			</output>
		</layer>
		<layer id="268" name="21852189_const" type="Const" version="opset1">
			<data element_type="f32" offset="9428" shape="" size="4"/>
			<output>
				<port id="1" precision="FP32"/>
			</output>
		</layer>
		<layer id="269" name="21862190_const" type="Const" version="opset1">
			<data element_type="f32" offset="632380" shape="" size="4"/>
			<output>
				<port id="1" precision="FP32"/>
			</output>
		</layer>
		<layer id="270" name="resnet_model/add_4/fq_input_1" type="FakeQuantize" version="opset1">
			<data levels="256"/>
			<input>
				<port id="0">
					<dim>1</dim>
					<dim>512</dim>
					<dim>28</dim>
					<dim>28</dim>
				</port>
				<port id="1"/>
				<port id="2"/>
				<port id="3"/>
				<port id="4"/>
			</input>
			<output>
				<port id="5" precision="FP32">
					<dim>1</dim>
					<dim>512</dim>
					<dim>28</dim>
					<dim>28</dim>
				</port>
			</output>
		</layer>
		<layer id="271" name="resnet_model/conv2d_15/Conv2D/fq_weights_1/Convert_to_float/Cast_05461_const" type="Const" version="opset1">
			<data element_type="u8" offset="632384" shape="128,512,1,1" size="65536"/>
			<output>
				<port id="1" precision="U8">
					<dim>128</dim>
					<dim>512</dim>
					<dim>1</dim>
					<dim>1</dim>
				</port>
			</output>
		</layer>
		<layer id="272" name="resnet_model/conv2d_15/Conv2D/fq_weights_1/Convert_to_float" type="Convert" version="opset1">
			<data destination_type="f32"/>
			<input>
				<port id="0">
					<dim>128</dim>
					<dim>512</dim>
					<dim>1</dim>
					<dim>1</dim>
				</port>
			</input>
			<output>
				<port id="1" precision="FP32">
					<dim>128</dim>
					<dim>512</dim>
					<dim>1</dim>
					<dim>1</dim>
				</port>
			</output>
		</layer>
		<layer id="273" name="resnet_model/conv2d_15/Conv2D/fq_weights_1/Copy/out_low4543_const" type="Const" version="opset1">
			<data element_type="f32" offset="9428" shape="1" size="4"/>
			<output>
				<port id="1" precision="FP32">
					<dim>1</dim>
				</port>
			</output>
		</layer>
		<layer id="274" name="resnet_model/conv2d_15/Conv2D/fq_weights_1/Copy/out_high4544_const" type="Const" version="opset1">
			<data element_type="f32" offset="9432" shape="1" size="4"/>
			<output>
				<port id="1" precision="FP32">
					<dim>1</dim>
				</port>
			</output>
		</layer>
		<layer id="275" name="975979_const" type="Const" version="opset1">
			<data element_type="f32" offset="697920" shape="128,1,1,1" size="512"/>
			<output>
				<port id="1" precision="FP32">
					<dim>128</dim>
					<dim>1</dim>
					<dim>1</dim>
					<dim>1</dim>
				</port>
			</output>
		</layer>
		<layer id="276" name="976980_const" type="Const" version="opset1">
			<data element_type="f32" offset="698432" shape="128,1,1,1" size="512"/>
			<output>
				<port id="1" precision="FP32">
					<dim>128</dim>
					<dim>1</dim>
					<dim>1</dim>
					<dim>1</dim>
				</port>
			</output>
		</layer>
		<layer id="277" name="resnet_model/conv2d_15/Conv2D/fq_weights_1" type="FakeQuantize" version="opset1">
			<data levels="255"/>
			<input>
				<port id="0">
					<dim>128</dim>
					<dim>512</dim>
					<dim>1</dim>
					<dim>1</dim>
				</port>
				<port id="1">
					<dim>1</dim>
				</port>
				<port id="2">
					<dim>1</dim>
				</port>
				<port id="3">
					<dim>128</dim>
					<dim>1</dim>
					<dim>1</dim>
					<dim>1</dim>
				</port>
				<port id="4">
					<dim>128</dim>
					<dim>1</dim>
					<dim>1</dim>
					<dim>1</dim>
				</port>
			</input>
			<output>
				<port id="5" precision="FP32">
					<dim>128</dim>
					<dim>512</dim>
					<dim>1</dim>
					<dim>1</dim>
				</port>
			</output>
		</layer>
		<layer id="278" name="resnet_model/conv2d_15/Conv2D" type="Convolution" version="opset1">
			<data auto_pad="same_upper" dilations="1,1" output_padding="0,0" pads_begin="0,0" pads_end="0,0" strides="1,1"/>
			<input>
				<port id="0">
					<dim>1</dim>
					<dim>512</dim>
					<dim>28</dim>
					<dim>28</dim>
				</port>
				<port id="1">
					<dim>128</dim>
					<dim>512</dim>
					<dim>1</dim>
					<dim>1</dim>
				</port>
			</input>
			<output>
				<port id="2" precision="FP32">
					<dim>1</dim>
					<dim>128</dim>
					<dim>28</dim>
					<dim>28</dim>
				</port>
			</output>
		</layer>
		<layer id="279" name="data_add_1033410339/copy_const377_const" type="Const" version="opset1">
			<data element_type="f32" offset="698944" shape="1,128,1,1" size="512"/>
			<output>
				<port id="1" precision="FP32">
					<dim>1</dim>
					<dim>128</dim>
					<dim>1</dim>
					<dim>1</dim>
				</port>
			</output>
		</layer>
		<layer id="280" name="resnet_model/batch_normalization_15/FusedBatchNorm/variance/Fused_Add_" type="Add" version="opset1">
			<input>
				<port id="0">
					<dim>1</dim>
					<dim>128</dim>
					<dim>28</dim>
					<dim>28</dim>
				</port>
				<port id="1">
					<dim>1</dim>
					<dim>128</dim>
					<dim>1</dim>
					<dim>1</dim>
				</port>
			</input>
			<output>
				<port id="2" precision="FP32">
					<dim>1</dim>
					<dim>128</dim>
					<dim>28</dim>
					<dim>28</dim>
				</port>
			</output>
		</layer>
		<layer id="281" name="resnet_model/Relu_13" type="ReLU" version="opset1">
			<input>
				<port id="0">
					<dim>1</dim>
					<dim>128</dim>
					<dim>28</dim>
					<dim>28</dim>
				</port>
			</input>
			<output>
				<port id="1" precision="FP32">
					<dim>1</dim>
					<dim>128</dim>
					<dim>28</dim>
					<dim>28</dim>
				</port>
			</output>
		</layer>
		<layer id="282" name="13431347_const" type="Const" version="opset1">
			<data element_type="f32" offset="9428" shape="" size="4"/>
			<output>
				<port id="1" precision="FP32"/>
			</output>
		</layer>
		<layer id="283" name="13441348_const" type="Const" version="opset1">
			<data element_type="f32" offset="699456" shape="" size="4"/>
			<output>
				<port id="1" precision="FP32"/>
			</output>
		</layer>
		<layer id="284" name="13451349_const" type="Const" version="opset1">
			<data element_type="f32" offset="9428" shape="" size="4"/>
			<output>
				<port id="1" precision="FP32"/>
			</output>
		</layer>
		<layer id="285" name="13461350_const" type="Const" version="opset1">
			<data element_type="f32" offset="699456" shape="" size="4"/>
			<output>
				<port id="1" precision="FP32"/>
			</output>
		</layer>
		<layer id="286" name="resnet_model/conv2d_16/Conv2D/fq_input_0" type="FakeQuantize" version="opset1">
			<data levels="256"/>
			<input>
				<port id="0">
					<dim>1</dim>
					<dim>128</dim>
					<dim>28</dim>
					<dim>28</dim>
				</port>
				<port id="1"/>
				<port id="2"/>
				<port id="3"/>
				<port id="4"/>
			</input>
			<output>
				<port id="5" precision="FP32">
					<dim>1</dim>
					<dim>128</dim>
					<dim>28</dim>
					<dim>28</dim>
				</port>
			</output>
		</layer>
		<layer id="287" name="resnet_model/conv2d_16/Conv2D/fq_weights_1/Convert_to_float/Cast_05383_const" type="Const" version="opset1">
			<data element_type="u8" offset="699460" shape="128,128,3,3" size="147456"/>
			<output>
				<port id="1" precision="U8">
					<dim>128</dim>
					<dim>128</dim>
					<dim>3</dim>
					<dim>3</dim>
				</port>
			</output>
		</layer>
		<layer id="288" name="resnet_model/conv2d_16/Conv2D/fq_weights_1/Convert_to_float" type="Convert" version="opset1">
			<data destination_type="f32"/>
			<input>
				<port id="0">
					<dim>128</dim>
					<dim>128</dim>
					<dim>3</dim>
					<dim>3</dim>
				</port>
			</input>
			<output>
				<port id="1" precision="FP32">
					<dim>128</dim>
					<dim>128</dim>
					<dim>3</dim>
					<dim>3</dim>
				</port>
			</output>
		</layer>
		<layer id="289" name="resnet_model/conv2d_16/Conv2D/fq_weights_1/Copy/out_low4463_const" type="Const" version="opset1">
			<data element_type="f32" offset="9428" shape="1" size="4"/>
			<output>
				<port id="1" precision="FP32">
					<dim>1</dim>
				</port>
			</output>
		</layer>
		<layer id="290" name="resnet_model/conv2d_16/Conv2D/fq_weights_1/Copy/out_high4464_const" type="Const" version="opset1">
			<data element_type="f32" offset="9432" shape="1" size="4"/>
			<output>
				<port id="1" precision="FP32">
					<dim>1</dim>
				</port>
			</output>
		</layer>
		<layer id="291" name="13551359_const" type="Const" version="opset1">
			<data element_type="f32" offset="846916" shape="128,1,1,1" size="512"/>
			<output>
				<port id="1" precision="FP32">
					<dim>128</dim>
					<dim>1</dim>
					<dim>1</dim>
					<dim>1</dim>
				</port>
			</output>
		</layer>
		<layer id="292" name="13561360_const" type="Const" version="opset1">
			<data element_type="f32" offset="847428" shape="128,1,1,1" size="512"/>
			<output>
				<port id="1" precision="FP32">
					<dim>128</dim>
					<dim>1</dim>
					<dim>1</dim>
					<dim>1</dim>
				</port>
			</output>
		</layer>
		<layer id="293" name="resnet_model/conv2d_16/Conv2D/fq_weights_1" type="FakeQuantize" version="opset1">
			<data levels="255"/>
			<input>
				<port id="0">
					<dim>128</dim>
					<dim>128</dim>
					<dim>3</dim>
					<dim>3</dim>
				</port>
				<port id="1">
					<dim>1</dim>
				</port>
				<port id="2">
					<dim>1</dim>
				</port>
				<port id="3">
					<dim>128</dim>
					<dim>1</dim>
					<dim>1</dim>
					<dim>1</dim>
				</port>
				<port id="4">
					<dim>128</dim>
					<dim>1</dim>
					<dim>1</dim>
					<dim>1</dim>
				</port>
			</input>
			<output>
				<port id="5" precision="FP32">
					<dim>128</dim>
					<dim>128</dim>
					<dim>3</dim>
					<dim>3</dim>
				</port>
			</output>
		</layer>
		<layer id="294" name="resnet_model/conv2d_16/Conv2D" type="Convolution" version="opset1">
			<data auto_pad="same_upper" dilations="1,1" output_padding="0,0" pads_begin="0,0" pads_end="0,0" strides="1,1"/>
			<input>
				<port id="0">
					<dim>1</dim>
					<dim>128</dim>
					<dim>28</dim>
					<dim>28</dim>
				</port>
				<port id="1">
					<dim>128</dim>
					<dim>128</dim>
					<dim>3</dim>
					<dim>3</dim>
				</port>
			</input>
			<output>
				<port id="2" precision="FP32">
					<dim>1</dim>
					<dim>128</dim>
					<dim>28</dim>
					<dim>28</dim>
				</port>
			</output>
		</layer>
		<layer id="295" name="data_add_1034210347/copy_const382_const" type="Const" version="opset1">
			<data element_type="f32" offset="847940" shape="1,128,1,1" size="512"/>
			<output>
				<port id="1" precision="FP32">
					<dim>1</dim>
					<dim>128</dim>
					<dim>1</dim>
					<dim>1</dim>
				</port>
			</output>
		</layer>
		<layer id="296" name="resnet_model/batch_normalization_16/FusedBatchNorm/variance/Fused_Add_" type="Add" version="opset1">
			<input>
				<port id="0">
					<dim>1</dim>
					<dim>128</dim>
					<dim>28</dim>
					<dim>28</dim>
				</port>
				<port id="1">
					<dim>1</dim>
					<dim>128</dim>
					<dim>1</dim>
					<dim>1</dim>
				</port>
			</input>
			<output>
				<port id="2" precision="FP32">
					<dim>1</dim>
					<dim>128</dim>
					<dim>28</dim>
					<dim>28</dim>
				</port>
			</output>
		</layer>
		<layer id="297" name="resnet_model/Relu_14" type="ReLU" version="opset1">
			<input>
				<port id="0">
					<dim>1</dim>
					<dim>128</dim>
					<dim>28</dim>
					<dim>28</dim>
				</port>
			</input>
			<output>
				<port id="1" precision="FP32">
					<dim>1</dim>
					<dim>128</dim>
					<dim>28</dim>
					<dim>28</dim>
				</port>
			</output>
		</layer>
		<layer id="298" name="11431147_const" type="Const" version="opset1">
			<data element_type="f32" offset="9428" shape="" size="4"/>
			<output>
				<port id="1" precision="FP32"/>
			</output>
		</layer>
		<layer id="299" name="11441148_const" type="Const" version="opset1">
			<data element_type="f32" offset="848452" shape="" size="4"/>
			<output>
				<port id="1" precision="FP32"/>
			</output>
		</layer>
		<layer id="300" name="11451149_const" type="Const" version="opset1">
			<data element_type="f32" offset="9428" shape="" size="4"/>
			<output>
				<port id="1" precision="FP32"/>
			</output>
		</layer>
		<layer id="301" name="11461150_const" type="Const" version="opset1">
			<data element_type="f32" offset="848452" shape="" size="4"/>
			<output>
				<port id="1" precision="FP32"/>
			</output>
		</layer>
		<layer id="302" name="resnet_model/conv2d_17/Conv2D/fq_input_0" type="FakeQuantize" version="opset1">
			<data levels="256"/>
			<input>
				<port id="0">
					<dim>1</dim>
					<dim>128</dim>
					<dim>28</dim>
					<dim>28</dim>
				</port>
				<port id="1"/>
				<port id="2"/>
				<port id="3"/>
				<port id="4"/>
			</input>
			<output>
				<port id="5" precision="FP32">
					<dim>1</dim>
					<dim>128</dim>
					<dim>28</dim>
					<dim>28</dim>
				</port>
			</output>
		</layer>
		<layer id="303" name="resnet_model/conv2d_17/Conv2D/fq_weights_1/Convert_to_float/Cast_05433_const" type="Const" version="opset1">
			<data element_type="u8" offset="848456" shape="512,128,1,1" size="65536"/>
			<output>
				<port id="1" precision="U8">
					<dim>512</dim>
					<dim>128</dim>
					<dim>1</dim>
					<dim>1</dim>
				</port>
			</output>
		</layer>
		<layer id="304" name="resnet_model/conv2d_17/Conv2D/fq_weights_1/Convert_to_float" type="Convert" version="opset1">
			<data destination_type="f32"/>
			<input>
				<port id="0">
					<dim>512</dim>
					<dim>128</dim>
					<dim>1</dim>
					<dim>1</dim>
				</port>
			</input>
			<output>
				<port id="1" precision="FP32">
					<dim>512</dim>
					<dim>128</dim>
					<dim>1</dim>
					<dim>1</dim>
				</port>
			</output>
		</layer>
		<layer id="305" name="resnet_model/conv2d_17/Conv2D/fq_weights_1/Copy/out_low4351_const" type="Const" version="opset1">
			<data element_type="f32" offset="9428" shape="1" size="4"/>
			<output>
				<port id="1" precision="FP32">
					<dim>1</dim>
				</port>
			</output>
		</layer>
		<layer id="306" name="resnet_model/conv2d_17/Conv2D/fq_weights_1/Copy/out_high4352_const" type="Const" version="opset1">
			<data element_type="f32" offset="9432" shape="1" size="4"/>
			<output>
				<port id="1" precision="FP32">
					<dim>1</dim>
				</port>
			</output>
		</layer>
		<layer id="307" name="11551159_const" type="Const" version="opset1">
			<data element_type="f32" offset="913992" shape="512,1,1,1" size="2048"/>
			<output>
				<port id="1" precision="FP32">
					<dim>512</dim>
					<dim>1</dim>
					<dim>1</dim>
					<dim>1</dim>
				</port>
			</output>
		</layer>
		<layer id="308" name="11561160_const" type="Const" version="opset1">
			<data element_type="f32" offset="916040" shape="512,1,1,1" size="2048"/>
			<output>
				<port id="1" precision="FP32">
					<dim>512</dim>
					<dim>1</dim>
					<dim>1</dim>
					<dim>1</dim>
				</port>
			</output>
		</layer>
		<layer id="309" name="resnet_model/conv2d_17/Conv2D/fq_weights_1" type="FakeQuantize" version="opset1">
			<data levels="255"/>
			<input>
				<port id="0">
					<dim>512</dim>
					<dim>128</dim>
					<dim>1</dim>
					<dim>1</dim>
				</port>
				<port id="1">
					<dim>1</dim>
				</port>
				<port id="2">
					<dim>1</dim>
				</port>
				<port id="3">
					<dim>512</dim>
					<dim>1</dim>
					<dim>1</dim>
					<dim>1</dim>
				</port>
				<port id="4">
					<dim>512</dim>
					<dim>1</dim>
					<dim>1</dim>
					<dim>1</dim>
				</port>
			</input>
			<output>
				<port id="5" precision="FP32">
					<dim>512</dim>
					<dim>128</dim>
					<dim>1</dim>
					<dim>1</dim>
				</port>
			</output>
		</layer>
		<layer id="310" name="resnet_model/conv2d_17/Conv2D" type="Convolution" version="opset1">
			<data auto_pad="same_upper" dilations="1,1" output_padding="0,0" pads_begin="0,0" pads_end="0,0" strides="1,1"/>
			<input>
				<port id="0">
					<dim>1</dim>
					<dim>128</dim>
					<dim>28</dim>
					<dim>28</dim>
				</port>
				<port id="1">
					<dim>512</dim>
					<dim>128</dim>
					<dim>1</dim>
					<dim>1</dim>
				</port>
			</input>
			<output>
				<port id="2" precision="FP32">
					<dim>1</dim>
					<dim>512</dim>
					<dim>28</dim>
					<dim>28</dim>
				</port>
			</output>
		</layer>
		<layer id="311" name="data_add_1035010355/copy_const387_const" type="Const" version="opset1">
			<data element_type="f32" offset="918088" shape="1,512,1,1" size="2048"/>
			<output>
				<port id="1" precision="FP32">
					<dim>1</dim>
					<dim>512</dim>
					<dim>1</dim>
					<dim>1</dim>
				</port>
			</output>
		</layer>
		<layer id="312" name="resnet_model/batch_normalization_17/FusedBatchNorm/variance/Fused_Add_" type="Add" version="opset1">
			<input>
				<port id="0">
					<dim>1</dim>
					<dim>512</dim>
					<dim>28</dim>
					<dim>28</dim>
				</port>
				<port id="1">
					<dim>1</dim>
					<dim>512</dim>
					<dim>1</dim>
					<dim>1</dim>
				</port>
			</input>
			<output>
				<port id="2" precision="FP32">
					<dim>1</dim>
					<dim>512</dim>
					<dim>28</dim>
					<dim>28</dim>
				</port>
			</output>
		</layer>
		<layer id="313" name="21732177_const" type="Const" version="opset1">
			<data element_type="f32" offset="920136" shape="" size="4"/>
			<output>
				<port id="1" precision="FP32"/>
			</output>
		</layer>
		<layer id="314" name="21742178_const" type="Const" version="opset1">
			<data element_type="f32" offset="920140" shape="" size="4"/>
			<output>
				<port id="1" precision="FP32"/>
			</output>
		</layer>
		<layer id="315" name="21752179_const" type="Const" version="opset1">
			<data element_type="f32" offset="920136" shape="" size="4"/>
			<output>
				<port id="1" precision="FP32"/>
			</output>
		</layer>
		<layer id="316" name="21762180_const" type="Const" version="opset1">
			<data element_type="f32" offset="920140" shape="" size="4"/>
			<output>
				<port id="1" precision="FP32"/>
			</output>
		</layer>
		<layer id="317" name="resnet_model/add_4/fq_input_0" type="FakeQuantize" version="opset1">
			<data levels="256"/>
			<input>
				<port id="0">
					<dim>1</dim>
					<dim>512</dim>
					<dim>28</dim>
					<dim>28</dim>
				</port>
				<port id="1"/>
				<port id="2"/>
				<port id="3"/>
				<port id="4"/>
			</input>
			<output>
				<port id="5" precision="FP32">
					<dim>1</dim>
					<dim>512</dim>
					<dim>28</dim>
					<dim>28</dim>
				</port>
			</output>
		</layer>
		<layer id="318" name="resnet_model/add_4" type="Add" version="opset1">
			<input>
				<port id="0">
					<dim>1</dim>
					<dim>512</dim>
					<dim>28</dim>
					<dim>28</dim>
				</port>
				<port id="1">
					<dim>1</dim>
					<dim>512</dim>
					<dim>28</dim>
					<dim>28</dim>
				</port>
			</input>
			<output>
				<port id="2" precision="FP32">
					<dim>1</dim>
					<dim>512</dim>
					<dim>28</dim>
					<dim>28</dim>
				</port>
			</output>
		</layer>
		<layer id="319" name="resnet_model/Relu_15" type="ReLU" version="opset1">
			<input>
				<port id="0">
					<dim>1</dim>
					<dim>512</dim>
					<dim>28</dim>
					<dim>28</dim>
				</port>
			</input>
			<output>
				<port id="1" precision="FP32">
					<dim>1</dim>
					<dim>512</dim>
					<dim>28</dim>
					<dim>28</dim>
				</port>
			</output>
		</layer>
		<layer id="320" name="17031707_const" type="Const" version="opset1">
			<data element_type="f32" offset="9428" shape="" size="4"/>
			<output>
				<port id="1" precision="FP32"/>
			</output>
		</layer>
		<layer id="321" name="17041708_const" type="Const" version="opset1">
			<data element_type="f32" offset="920144" shape="" size="4"/>
			<output>
				<port id="1" precision="FP32"/>
			</output>
		</layer>
		<layer id="322" name="17051709_const" type="Const" version="opset1">
			<data element_type="f32" offset="9428" shape="" size="4"/>
			<output>
				<port id="1" precision="FP32"/>
			</output>
		</layer>
		<layer id="323" name="17061710_const" type="Const" version="opset1">
			<data element_type="f32" offset="920144" shape="" size="4"/>
			<output>
				<port id="1" precision="FP32"/>
			</output>
		</layer>
		<layer id="324" name="resnet_model/add_5/fq_input_1" type="FakeQuantize" version="opset1">
			<data levels="256"/>
			<input>
				<port id="0">
					<dim>1</dim>
					<dim>512</dim>
					<dim>28</dim>
					<dim>28</dim>
				</port>
				<port id="1"/>
				<port id="2"/>
				<port id="3"/>
				<port id="4"/>
			</input>
			<output>
				<port id="5" precision="FP32">
					<dim>1</dim>
					<dim>512</dim>
					<dim>28</dim>
					<dim>28</dim>
				</port>
			</output>
		</layer>
		<layer id="325" name="resnet_model/conv2d_18/Conv2D/fq_weights_1/Convert_to_float/Cast_05445_const" type="Const" version="opset1">
			<data element_type="u8" offset="920148" shape="128,512,1,1" size="65536"/>
			<output>
				<port id="1" precision="U8">
					<dim>128</dim>
					<dim>512</dim>
					<dim>1</dim>
					<dim>1</dim>
				</port>
			</output>
		</layer>
		<layer id="326" name="resnet_model/conv2d_18/Conv2D/fq_weights_1/Convert_to_float" type="Convert" version="opset1">
			<data destination_type="f32"/>
			<input>
				<port id="0">
					<dim>128</dim>
					<dim>512</dim>
					<dim>1</dim>
					<dim>1</dim>
				</port>
			</input>
			<output>
				<port id="1" precision="FP32">
					<dim>128</dim>
					<dim>512</dim>
					<dim>1</dim>
					<dim>1</dim>
				</port>
			</output>
		</layer>
		<layer id="327" name="resnet_model/conv2d_18/Conv2D/fq_weights_1/Copy/out_low4607_const" type="Const" version="opset1">
			<data element_type="f32" offset="9428" shape="1" size="4"/>
			<output>
				<port id="1" precision="FP32">
					<dim>1</dim>
				</port>
			</output>
		</layer>
		<layer id="328" name="resnet_model/conv2d_18/Conv2D/fq_weights_1/Copy/out_high4608_const" type="Const" version="opset1">
			<data element_type="f32" offset="9432" shape="1" size="4"/>
			<output>
				<port id="1" precision="FP32">
					<dim>1</dim>
				</port>
			</output>
		</layer>
		<layer id="329" name="21652169_const" type="Const" version="opset1">
			<data element_type="f32" offset="985684" shape="128,1,1,1" size="512"/>
			<output>
				<port id="1" precision="FP32">
					<dim>128</dim>
					<dim>1</dim>
					<dim>1</dim>
					<dim>1</dim>
				</port>
			</output>
		</layer>
		<layer id="330" name="21662170_const" type="Const" version="opset1">
			<data element_type="f32" offset="986196" shape="128,1,1,1" size="512"/>
			<output>
				<port id="1" precision="FP32">
					<dim>128</dim>
					<dim>1</dim>
					<dim>1</dim>
					<dim>1</dim>
				</port>
			</output>
		</layer>
		<layer id="331" name="resnet_model/conv2d_18/Conv2D/fq_weights_1" type="FakeQuantize" version="opset1">
			<data levels="255"/>
			<input>
				<port id="0">
					<dim>128</dim>
					<dim>512</dim>
					<dim>1</dim>
					<dim>1</dim>
				</port>
				<port id="1">
					<dim>1</dim>
				</port>
				<port id="2">
					<dim>1</dim>
				</port>
				<port id="3">
					<dim>128</dim>
					<dim>1</dim>
					<dim>1</dim>
					<dim>1</dim>
				</port>
				<port id="4">
					<dim>128</dim>
					<dim>1</dim>
					<dim>1</dim>
					<dim>1</dim>
				</port>
			</input>
			<output>
				<port id="5" precision="FP32">
					<dim>128</dim>
					<dim>512</dim>
					<dim>1</dim>
					<dim>1</dim>
				</port>
			</output>
		</layer>
		<layer id="332" name="resnet_model/conv2d_18/Conv2D" type="Convolution" version="opset1">
			<data auto_pad="same_upper" dilations="1,1" output_padding="0,0" pads_begin="0,0" pads_end="0,0" strides="1,1"/>
			<input>
				<port id="0">
					<dim>1</dim>
					<dim>512</dim>
					<dim>28</dim>
					<dim>28</dim>
				</port>
				<port id="1">
					<dim>128</dim>
					<dim>512</dim>
					<dim>1</dim>
					<dim>1</dim>
				</port>
			</input>
			<output>
				<port id="2" precision="FP32">
					<dim>1</dim>
					<dim>128</dim>
					<dim>28</dim>
					<dim>28</dim>
				</port>
			</output>
		</layer>
		<layer id="333" name="data_add_1035810363/copy_const393_const" type="Const" version="opset1">
			<data element_type="f32" offset="986708" shape="1,128,1,1" size="512"/>
			<output>
				<port id="1" precision="FP32">
					<dim>1</dim>
					<dim>128</dim>
					<dim>1</dim>
					<dim>1</dim>
				</port>
			</output>
		</layer>
		<layer id="334" name="resnet_model/batch_normalization_18/FusedBatchNorm/variance/Fused_Add_" type="Add" version="opset1">
			<input>
				<port id="0">
					<dim>1</dim>
					<dim>128</dim>
					<dim>28</dim>
					<dim>28</dim>
				</port>
				<port id="1">
					<dim>1</dim>
					<dim>128</dim>
					<dim>1</dim>
					<dim>1</dim>
				</port>
			</input>
			<output>
				<port id="2" precision="FP32">
					<dim>1</dim>
					<dim>128</dim>
					<dim>28</dim>
					<dim>28</dim>
				</port>
			</output>
		</layer>
		<layer id="335" name="resnet_model/Relu_16" type="ReLU" version="opset1">
			<input>
				<port id="0">
					<dim>1</dim>
					<dim>128</dim>
					<dim>28</dim>
					<dim>28</dim>
				</port>
			</input>
			<output>
				<port id="1" precision="FP32">
					<dim>1</dim>
					<dim>128</dim>
					<dim>28</dim>
					<dim>28</dim>
				</port>
			</output>
		</layer>
		<layer id="336" name="20332037_const" type="Const" version="opset1">
			<data element_type="f32" offset="9428" shape="" size="4"/>
			<output>
				<port id="1" precision="FP32"/>
			</output>
		</layer>
		<layer id="337" name="20342038_const" type="Const" version="opset1">
			<data element_type="f32" offset="987220" shape="" size="4"/>
			<output>
				<port id="1" precision="FP32"/>
			</output>
		</layer>
		<layer id="338" name="20352039_const" type="Const" version="opset1">
			<data element_type="f32" offset="9428" shape="" size="4"/>
			<output>
				<port id="1" precision="FP32"/>
			</output>
		</layer>
		<layer id="339" name="20362040_const" type="Const" version="opset1">
			<data element_type="f32" offset="987220" shape="" size="4"/>
			<output>
				<port id="1" precision="FP32"/>
			</output>
		</layer>
		<layer id="340" name="resnet_model/conv2d_19/Conv2D/fq_input_0" type="FakeQuantize" version="opset1">
			<data levels="256"/>
			<input>
				<port id="0">
					<dim>1</dim>
					<dim>128</dim>
					<dim>28</dim>
					<dim>28</dim>
				</port>
				<port id="1"/>
				<port id="2"/>
				<port id="3"/>
				<port id="4"/>
			</input>
			<output>
				<port id="5" precision="FP32">
					<dim>1</dim>
					<dim>128</dim>
					<dim>28</dim>
					<dim>28</dim>
				</port>
			</output>
		</layer>
		<layer id="341" name="resnet_model/conv2d_19/Conv2D/fq_weights_1/Convert_to_float/Cast_05437_const" type="Const" version="opset1">
			<data element_type="u8" offset="987224" shape="128,128,3,3" size="147456"/>
			<output>
				<port id="1" precision="U8">
					<dim>128</dim>
					<dim>128</dim>
					<dim>3</dim>
					<dim>3</dim>
				</port>
			</output>
		</layer>
		<layer id="342" name="resnet_model/conv2d_19/Conv2D/fq_weights_1/Convert_to_float" type="Convert" version="opset1">
			<data destination_type="f32"/>
			<input>
				<port id="0">
					<dim>128</dim>
					<dim>128</dim>
					<dim>3</dim>
					<dim>3</dim>
				</port>
			</input>
			<output>
				<port id="1" precision="FP32">
					<dim>128</dim>
					<dim>128</dim>
					<dim>3</dim>
					<dim>3</dim>
				</port>
			</output>
		</layer>
		<layer id="343" name="resnet_model/conv2d_19/Conv2D/fq_weights_1/Copy/out_low4687_const" type="Const" version="opset1">
			<data element_type="f32" offset="9428" shape="1" size="4"/>
			<output>
				<port id="1" precision="FP32">
					<dim>1</dim>
				</port>
			</output>
		</layer>
		<layer id="344" name="resnet_model/conv2d_19/Conv2D/fq_weights_1/Copy/out_high4688_const" type="Const" version="opset1">
			<data element_type="f32" offset="9432" shape="1" size="4"/>
			<output>
				<port id="1" precision="FP32">
					<dim>1</dim>
				</port>
			</output>
		</layer>
		<layer id="345" name="20452049_const" type="Const" version="opset1">
			<data element_type="f32" offset="1134680" shape="128,1,1,1" size="512"/>
			<output>
				<port id="1" precision="FP32">
					<dim>128</dim>
					<dim>1</dim>
					<dim>1</dim>
					<dim>1</dim>
				</port>
			</output>
		</layer>
		<layer id="346" name="20462050_const" type="Const" version="opset1">
			<data element_type="f32" offset="1135192" shape="128,1,1,1" size="512"/>
			<output>
				<port id="1" precision="FP32">
					<dim>128</dim>
					<dim>1</dim>
					<dim>1</dim>
					<dim>1</dim>
				</port>
			</output>
		</layer>
		<layer id="347" name="resnet_model/conv2d_19/Conv2D/fq_weights_1" type="FakeQuantize" version="opset1">
			<data levels="255"/>
			<input>
				<port id="0">
					<dim>128</dim>
					<dim>128</dim>
					<dim>3</dim>
					<dim>3</dim>
				</port>
				<port id="1">
					<dim>1</dim>
				</port>
				<port id="2">
					<dim>1</dim>
				</port>
				<port id="3">
					<dim>128</dim>
					<dim>1</dim>
					<dim>1</dim>
					<dim>1</dim>
				</port>
				<port id="4">
					<dim>128</dim>
					<dim>1</dim>
					<dim>1</dim>
					<dim>1</dim>
				</port>
			</input>
			<output>
				<port id="5" precision="FP32">
					<dim>128</dim>
					<dim>128</dim>
					<dim>3</dim>
					<dim>3</dim>
				</port>
			</output>
		</layer>
		<layer id="348" name="resnet_model/conv2d_19/Conv2D" type="Convolution" version="opset1">
			<data auto_pad="same_upper" dilations="1,1" output_padding="0,0" pads_begin="0,0" pads_end="0,0" strides="1,1"/>
			<input>
				<port id="0">
					<dim>1</dim>
					<dim>128</dim>
					<dim>28</dim>
					<dim>28</dim>
				</port>
				<port id="1">
					<dim>128</dim>
					<dim>128</dim>
					<dim>3</dim>
					<dim>3</dim>
				</port>
			</input>
			<output>
				<port id="2" precision="FP32">
					<dim>1</dim>
					<dim>128</dim>
					<dim>28</dim>
					<dim>28</dim>
				</port>
			</output>
		</layer>
		<layer id="349" name="data_add_1036610371/copy_const398_const" type="Const" version="opset1">
			<data element_type="f32" offset="1135704" shape="1,128,1,1" size="512"/>
			<output>
				<port id="1" precision="FP32">
					<dim>1</dim>
					<dim>128</dim>
					<dim>1</dim>
					<dim>1</dim>
				</port>
			</output>
		</layer>
		<layer id="350" name="resnet_model/batch_normalization_19/FusedBatchNorm/variance/Fused_Add_" type="Add" version="opset1">
			<input>
				<port id="0">
					<dim>1</dim>
					<dim>128</dim>
					<dim>28</dim>
					<dim>28</dim>
				</port>
				<port id="1">
					<dim>1</dim>
					<dim>128</dim>
					<dim>1</dim>
					<dim>1</dim>
				</port>
			</input>
			<output>
				<port id="2" precision="FP32">
					<dim>1</dim>
					<dim>128</dim>
					<dim>28</dim>
					<dim>28</dim>
				</port>
			</output>
		</layer>
		<layer id="351" name="resnet_model/Relu_17" type="ReLU" version="opset1">
			<input>
				<port id="0">
					<dim>1</dim>
					<dim>128</dim>
					<dim>28</dim>
					<dim>28</dim>
				</port>
			</input>
			<output>
				<port id="1" precision="FP32">
					<dim>1</dim>
					<dim>128</dim>
					<dim>28</dim>
					<dim>28</dim>
				</port>
			</output>
		</layer>
		<layer id="352" name="17731777_const" type="Const" version="opset1">
			<data element_type="f32" offset="9428" shape="" size="4"/>
			<output>
				<port id="1" precision="FP32"/>
			</output>
		</layer>
		<layer id="353" name="17741778_const" type="Const" version="opset1">
			<data element_type="f32" offset="1136216" shape="" size="4"/>
			<output>
				<port id="1" precision="FP32"/>
			</output>
		</layer>
		<layer id="354" name="17751779_const" type="Const" version="opset1">
			<data element_type="f32" offset="9428" shape="" size="4"/>
			<output>
				<port id="1" precision="FP32"/>
			</output>
		</layer>
		<layer id="355" name="17761780_const" type="Const" version="opset1">
			<data element_type="f32" offset="1136216" shape="" size="4"/>
			<output>
				<port id="1" precision="FP32"/>
			</output>
		</layer>
		<layer id="356" name="resnet_model/conv2d_20/Conv2D/fq_input_0" type="FakeQuantize" version="opset1">
			<data levels="256"/>
			<input>
				<port id="0">
					<dim>1</dim>
					<dim>128</dim>
					<dim>28</dim>
					<dim>28</dim>
				</port>
				<port id="1"/>
				<port id="2"/>
				<port id="3"/>
				<port id="4"/>
			</input>
			<output>
				<port id="5" precision="FP32">
					<dim>1</dim>
					<dim>128</dim>
					<dim>28</dim>
					<dim>28</dim>
				</port>
			</output>
		</layer>
		<layer id="357" name="resnet_model/conv2d_20/Conv2D/fq_weights_1/Convert_to_float/Cast_05423_const" type="Const" version="opset1">
			<data element_type="u8" offset="1136220" shape="512,128,1,1" size="65536"/>
			<output>
				<port id="1" precision="U8">
					<dim>512</dim>
					<dim>128</dim>
					<dim>1</dim>
					<dim>1</dim>
				</port>
			</output>
		</layer>
		<layer id="358" name="resnet_model/conv2d_20/Conv2D/fq_weights_1/Convert_to_float" type="Convert" version="opset1">
			<data destination_type="f32"/>
			<input>
				<port id="0">
					<dim>512</dim>
					<dim>128</dim>
					<dim>1</dim>
					<dim>1</dim>
				</port>
			</input>
			<output>
				<port id="1" precision="FP32">
					<dim>512</dim>
					<dim>128</dim>
					<dim>1</dim>
					<dim>1</dim>
				</port>
			</output>
		</layer>
		<layer id="359" name="resnet_model/conv2d_20/Conv2D/fq_weights_1/Copy/out_low4415_const" type="Const" version="opset1">
			<data element_type="f32" offset="9428" shape="1" size="4"/>
			<output>
				<port id="1" precision="FP32">
					<dim>1</dim>
				</port>
			</output>
		</layer>
		<layer id="360" name="resnet_model/conv2d_20/Conv2D/fq_weights_1/Copy/out_high4416_const" type="Const" version="opset1">
			<data element_type="f32" offset="9432" shape="1" size="4"/>
			<output>
				<port id="1" precision="FP32">
					<dim>1</dim>
				</port>
			</output>
		</layer>
		<layer id="361" name="17851789_const" type="Const" version="opset1">
			<data element_type="f32" offset="1201756" shape="512,1,1,1" size="2048"/>
			<output>
				<port id="1" precision="FP32">
					<dim>512</dim>
					<dim>1</dim>
					<dim>1</dim>
					<dim>1</dim>
				</port>
			</output>
		</layer>
		<layer id="362" name="17861790_const" type="Const" version="opset1">
			<data element_type="f32" offset="1203804" shape="512,1,1,1" size="2048"/>
			<output>
				<port id="1" precision="FP32">
					<dim>512</dim>
					<dim>1</dim>
					<dim>1</dim>
					<dim>1</dim>
				</port>
			</output>
		</layer>
		<layer id="363" name="resnet_model/conv2d_20/Conv2D/fq_weights_1" type="FakeQuantize" version="opset1">
			<data levels="255"/>
			<input>
				<port id="0">
					<dim>512</dim>
					<dim>128</dim>
					<dim>1</dim>
					<dim>1</dim>
				</port>
				<port id="1">
					<dim>1</dim>
				</port>
				<port id="2">
					<dim>1</dim>
				</port>
				<port id="3">
					<dim>512</dim>
					<dim>1</dim>
					<dim>1</dim>
					<dim>1</dim>
				</port>
				<port id="4">
					<dim>512</dim>
					<dim>1</dim>
					<dim>1</dim>
					<dim>1</dim>
				</port>
			</input>
			<output>
				<port id="5" precision="FP32">
					<dim>512</dim>
					<dim>128</dim>
					<dim>1</dim>
					<dim>1</dim>
				</port>
			</output>
		</layer>
		<layer id="364" name="resnet_model/conv2d_20/Conv2D" type="Convolution" version="opset1">
			<data auto_pad="same_upper" dilations="1,1" output_padding="0,0" pads_begin="0,0" pads_end="0,0" strides="1,1"/>
			<input>
				<port id="0">
					<dim>1</dim>
					<dim>128</dim>
					<dim>28</dim>
					<dim>28</dim>
				</port>
				<port id="1">
					<dim>512</dim>
					<dim>128</dim>
					<dim>1</dim>
					<dim>1</dim>
				</port>
			</input>
			<output>
				<port id="2" precision="FP32">
					<dim>1</dim>
					<dim>512</dim>
					<dim>28</dim>
					<dim>28</dim>
				</port>
			</output>
		</layer>
		<layer id="365" name="data_add_1037410379/copy_const403_const" type="Const" version="opset1">
			<data element_type="f32" offset="1205852" shape="1,512,1,1" size="2048"/>
			<output>
				<port id="1" precision="FP32">
					<dim>1</dim>
					<dim>512</dim>
					<dim>1</dim>
					<dim>1</dim>
				</port>
			</output>
		</layer>
		<layer id="366" name="resnet_model/batch_normalization_20/FusedBatchNorm/variance/Fused_Add_" type="Add" version="opset1">
			<input>
				<port id="0">
					<dim>1</dim>
					<dim>512</dim>
					<dim>28</dim>
					<dim>28</dim>
				</port>
				<port id="1">
					<dim>1</dim>
					<dim>512</dim>
					<dim>1</dim>
					<dim>1</dim>
				</port>
			</input>
			<output>
				<port id="2" precision="FP32">
					<dim>1</dim>
					<dim>512</dim>
					<dim>28</dim>
					<dim>28</dim>
				</port>
			</output>
		</layer>
		<layer id="367" name="16931697_const" type="Const" version="opset1">
			<data element_type="f32" offset="1207900" shape="" size="4"/>
			<output>
				<port id="1" precision="FP32"/>
			</output>
		</layer>
		<layer id="368" name="16941698_const" type="Const" version="opset1">
			<data element_type="f32" offset="1207904" shape="" size="4"/>
			<output>
				<port id="1" precision="FP32"/>
			</output>
		</layer>
		<layer id="369" name="16951699_const" type="Const" version="opset1">
			<data element_type="f32" offset="1207900" shape="" size="4"/>
			<output>
				<port id="1" precision="FP32"/>
			</output>
		</layer>
		<layer id="370" name="16961700_const" type="Const" version="opset1">
			<data element_type="f32" offset="1207904" shape="" size="4"/>
			<output>
				<port id="1" precision="FP32"/>
			</output>
		</layer>
		<layer id="371" name="resnet_model/add_5/fq_input_0" type="FakeQuantize" version="opset1">
			<data levels="256"/>
			<input>
				<port id="0">
					<dim>1</dim>
					<dim>512</dim>
					<dim>28</dim>
					<dim>28</dim>
				</port>
				<port id="1"/>
				<port id="2"/>
				<port id="3"/>
				<port id="4"/>
			</input>
			<output>
				<port id="5" precision="FP32">
					<dim>1</dim>
					<dim>512</dim>
					<dim>28</dim>
					<dim>28</dim>
				</port>
			</output>
		</layer>
		<layer id="372" name="resnet_model/add_5" type="Add" version="opset1">
			<input>
				<port id="0">
					<dim>1</dim>
					<dim>512</dim>
					<dim>28</dim>
					<dim>28</dim>
				</port>
				<port id="1">
					<dim>1</dim>
					<dim>512</dim>
					<dim>28</dim>
					<dim>28</dim>
				</port>
			</input>
			<output>
				<port id="2" precision="FP32">
					<dim>1</dim>
					<dim>512</dim>
					<dim>28</dim>
					<dim>28</dim>
				</port>
			</output>
		</layer>
		<layer id="373" name="resnet_model/Relu_18" type="ReLU" version="opset1">
			<input>
				<port id="0">
					<dim>1</dim>
					<dim>512</dim>
					<dim>28</dim>
					<dim>28</dim>
				</port>
			</input>
			<output>
				<port id="1" precision="FP32">
					<dim>1</dim>
					<dim>512</dim>
					<dim>28</dim>
					<dim>28</dim>
				</port>
			</output>
		</layer>
		<layer id="374" name="15431547_const" type="Const" version="opset1">
			<data element_type="f32" offset="9428" shape="" size="4"/>
			<output>
				<port id="1" precision="FP32"/>
			</output>
		</layer>
		<layer id="375" name="15441548_const" type="Const" version="opset1">
			<data element_type="f32" offset="1207908" shape="" size="4"/>
			<output>
				<port id="1" precision="FP32"/>
			</output>
		</layer>
		<layer id="376" name="15451549_const" type="Const" version="opset1">
			<data element_type="f32" offset="9428" shape="" size="4"/>
			<output>
				<port id="1" precision="FP32"/>
			</output>
		</layer>
		<layer id="377" name="15461550_const" type="Const" version="opset1">
			<data element_type="f32" offset="1207908" shape="" size="4"/>
			<output>
				<port id="1" precision="FP32"/>
			</output>
		</layer>
		<layer id="378" name="resnet_model/add_6/fq_input_1" type="FakeQuantize" version="opset1">
			<data levels="256"/>
			<input>
				<port id="0">
					<dim>1</dim>
					<dim>512</dim>
					<dim>28</dim>
					<dim>28</dim>
				</port>
				<port id="1"/>
				<port id="2"/>
				<port id="3"/>
				<port id="4"/>
			</input>
			<output>
				<port id="5" precision="FP32">
					<dim>1</dim>
					<dim>512</dim>
					<dim>28</dim>
					<dim>28</dim>
				</port>
			</output>
		</layer>
		<layer id="379" name="resnet_model/conv2d_21/Conv2D/fq_weights_1/Convert_to_float/Cast_05421_const" type="Const" version="opset1">
			<data element_type="u8" offset="1207912" shape="128,512,1,1" size="65536"/>
			<output>
				<port id="1" precision="U8">
					<dim>128</dim>
					<dim>512</dim>
					<dim>1</dim>
					<dim>1</dim>
				</port>
			</output>
		</layer>
		<layer id="380" name="resnet_model/conv2d_21/Conv2D/fq_weights_1/Convert_to_float" type="Convert" version="opset1">
			<data destination_type="f32"/>
			<input>
				<port id="0">
					<dim>128</dim>
					<dim>512</dim>
					<dim>1</dim>
					<dim>1</dim>
				</port>
			</input>
			<output>
				<port id="1" precision="FP32">
					<dim>128</dim>
					<dim>512</dim>
					<dim>1</dim>
					<dim>1</dim>
				</port>
			</output>
		</layer>
		<layer id="381" name="resnet_model/conv2d_21/Conv2D/fq_weights_1/Copy/out_low4471_const" type="Const" version="opset1">
			<data element_type="f32" offset="9428" shape="1" size="4"/>
			<output>
				<port id="1" precision="FP32">
					<dim>1</dim>
				</port>
			</output>
		</layer>
		<layer id="382" name="resnet_model/conv2d_21/Conv2D/fq_weights_1/Copy/out_high4472_const" type="Const" version="opset1">
			<data element_type="f32" offset="9432" shape="1" size="4"/>
			<output>
				<port id="1" precision="FP32">
					<dim>1</dim>
				</port>
			</output>
		</layer>
		<layer id="383" name="14851489_const" type="Const" version="opset1">
			<data element_type="f32" offset="1273448" shape="128,1,1,1" size="512"/>
			<output>
				<port id="1" precision="FP32">
					<dim>128</dim>
					<dim>1</dim>
					<dim>1</dim>
					<dim>1</dim>
				</port>
			</output>
		</layer>
		<layer id="384" name="14861490_const" type="Const" version="opset1">
			<data element_type="f32" offset="1273960" shape="128,1,1,1" size="512"/>
			<output>
				<port id="1" precision="FP32">
					<dim>128</dim>
					<dim>1</dim>
					<dim>1</dim>
					<dim>1</dim>
				</port>
			</output>
		</layer>
		<layer id="385" name="resnet_model/conv2d_21/Conv2D/fq_weights_1" type="FakeQuantize" version="opset1">
			<data levels="255"/>
			<input>
				<port id="0">
					<dim>128</dim>
					<dim>512</dim>
					<dim>1</dim>
					<dim>1</dim>
				</port>
				<port id="1">
					<dim>1</dim>
				</port>
				<port id="2">
					<dim>1</dim>
				</port>
				<port id="3">
					<dim>128</dim>
					<dim>1</dim>
					<dim>1</dim>
					<dim>1</dim>
				</port>
				<port id="4">
					<dim>128</dim>
					<dim>1</dim>
					<dim>1</dim>
					<dim>1</dim>
				</port>
			</input>
			<output>
				<port id="5" precision="FP32">
					<dim>128</dim>
					<dim>512</dim>
					<dim>1</dim>
					<dim>1</dim>
				</port>
			</output>
		</layer>
		<layer id="386" name="resnet_model/conv2d_21/Conv2D" type="Convolution" version="opset1">
			<data auto_pad="same_upper" dilations="1,1" output_padding="0,0" pads_begin="0,0" pads_end="0,0" strides="1,1"/>
			<input>
				<port id="0">
					<dim>1</dim>
					<dim>512</dim>
					<dim>28</dim>
					<dim>28</dim>
				</port>
				<port id="1">
					<dim>128</dim>
					<dim>512</dim>
					<dim>1</dim>
					<dim>1</dim>
				</port>
			</input>
			<output>
				<port id="2" precision="FP32">
					<dim>1</dim>
					<dim>128</dim>
					<dim>28</dim>
					<dim>28</dim>
				</port>
			</output>
		</layer>
		<layer id="387" name="data_add_1038210387/copy_const409_const" type="Const" version="opset1">
			<data element_type="f32" offset="1274472" shape="1,128,1,1" size="512"/>
			<output>
				<port id="1" precision="FP32">
					<dim>1</dim>
					<dim>128</dim>
					<dim>1</dim>
					<dim>1</dim>
				</port>
			</output>
		</layer>
		<layer id="388" name="resnet_model/batch_normalization_21/FusedBatchNorm/variance/Fused_Add_" type="Add" version="opset1">
			<input>
				<port id="0">
					<dim>1</dim>
					<dim>128</dim>
					<dim>28</dim>
					<dim>28</dim>
				</port>
				<port id="1">
					<dim>1</dim>
					<dim>128</dim>
					<dim>1</dim>
					<dim>1</dim>
				</port>
			</input>
			<output>
				<port id="2" precision="FP32">
					<dim>1</dim>
					<dim>128</dim>
					<dim>28</dim>
					<dim>28</dim>
				</port>
			</output>
		</layer>
		<layer id="389" name="resnet_model/Relu_19" type="ReLU" version="opset1">
			<input>
				<port id="0">
					<dim>1</dim>
					<dim>128</dim>
					<dim>28</dim>
					<dim>28</dim>
				</port>
			</input>
			<output>
				<port id="1" precision="FP32">
					<dim>1</dim>
					<dim>128</dim>
					<dim>28</dim>
					<dim>28</dim>
				</port>
			</output>
		</layer>
		<layer id="390" name="11831187_const" type="Const" version="opset1">
			<data element_type="f32" offset="9428" shape="" size="4"/>
			<output>
				<port id="1" precision="FP32"/>
			</output>
		</layer>
		<layer id="391" name="11841188_const" type="Const" version="opset1">
			<data element_type="f32" offset="1274984" shape="" size="4"/>
			<output>
				<port id="1" precision="FP32"/>
			</output>
		</layer>
		<layer id="392" name="11851189_const" type="Const" version="opset1">
			<data element_type="f32" offset="9428" shape="" size="4"/>
			<output>
				<port id="1" precision="FP32"/>
			</output>
		</layer>
		<layer id="393" name="11861190_const" type="Const" version="opset1">
			<data element_type="f32" offset="1274984" shape="" size="4"/>
			<output>
				<port id="1" precision="FP32"/>
			</output>
		</layer>
		<layer id="394" name="resnet_model/conv2d_22/Conv2D/fq_input_0" type="FakeQuantize" version="opset1">
			<data levels="256"/>
			<input>
				<port id="0">
					<dim>1</dim>
					<dim>128</dim>
					<dim>28</dim>
					<dim>28</dim>
				</port>
				<port id="1"/>
				<port id="2"/>
				<port id="3"/>
				<port id="4"/>
			</input>
			<output>
				<port id="5" precision="FP32">
					<dim>1</dim>
					<dim>128</dim>
					<dim>28</dim>
					<dim>28</dim>
				</port>
			</output>
		</layer>
		<layer id="395" name="resnet_model/conv2d_22/Conv2D/fq_weights_1/Convert_to_float/Cast_05389_const" type="Const" version="opset1">
			<data element_type="u8" offset="1274988" shape="128,128,3,3" size="147456"/>
			<output>
				<port id="1" precision="U8">
					<dim>128</dim>
					<dim>128</dim>
					<dim>3</dim>
					<dim>3</dim>
				</port>
			</output>
		</layer>
		<layer id="396" name="resnet_model/conv2d_22/Conv2D/fq_weights_1/Convert_to_float" type="Convert" version="opset1">
			<data destination_type="f32"/>
			<input>
				<port id="0">
					<dim>128</dim>
					<dim>128</dim>
					<dim>3</dim>
					<dim>3</dim>
				</port>
			</input>
			<output>
				<port id="1" precision="FP32">
					<dim>128</dim>
					<dim>128</dim>
					<dim>3</dim>
					<dim>3</dim>
				</port>
			</output>
		</layer>
		<layer id="397" name="resnet_model/conv2d_22/Conv2D/fq_weights_1/Copy/out_low4751_const" type="Const" version="opset1">
			<data element_type="f32" offset="9428" shape="1" size="4"/>
			<output>
				<port id="1" precision="FP32">
					<dim>1</dim>
				</port>
			</output>
		</layer>
		<layer id="398" name="resnet_model/conv2d_22/Conv2D/fq_weights_1/Copy/out_high4752_const" type="Const" version="opset1">
			<data element_type="f32" offset="9432" shape="1" size="4"/>
			<output>
				<port id="1" precision="FP32">
					<dim>1</dim>
				</port>
			</output>
		</layer>
		<layer id="399" name="11951199_const" type="Const" version="opset1">
			<data element_type="f32" offset="1422444" shape="128,1,1,1" size="512"/>
			<output>
				<port id="1" precision="FP32">
					<dim>128</dim>
					<dim>1</dim>
					<dim>1</dim>
					<dim>1</dim>
				</port>
			</output>
		</layer>
		<layer id="400" name="11961200_const" type="Const" version="opset1">
			<data element_type="f32" offset="1422956" shape="128,1,1,1" size="512"/>
			<output>
				<port id="1" precision="FP32">
					<dim>128</dim>
					<dim>1</dim>
					<dim>1</dim>
					<dim>1</dim>
				</port>
			</output>
		</layer>
		<layer id="401" name="resnet_model/conv2d_22/Conv2D/fq_weights_1" type="FakeQuantize" version="opset1">
			<data levels="255"/>
			<input>
				<port id="0">
					<dim>128</dim>
					<dim>128</dim>
					<dim>3</dim>
					<dim>3</dim>
				</port>
				<port id="1">
					<dim>1</dim>
				</port>
				<port id="2">
					<dim>1</dim>
				</port>
				<port id="3">
					<dim>128</dim>
					<dim>1</dim>
					<dim>1</dim>
					<dim>1</dim>
				</port>
				<port id="4">
					<dim>128</dim>
					<dim>1</dim>
					<dim>1</dim>
					<dim>1</dim>
				</port>
			</input>
			<output>
				<port id="5" precision="FP32">
					<dim>128</dim>
					<dim>128</dim>
					<dim>3</dim>
					<dim>3</dim>
				</port>
			</output>
		</layer>
		<layer id="402" name="resnet_model/conv2d_22/Conv2D" type="Convolution" version="opset1">
			<data auto_pad="same_upper" dilations="1,1" output_padding="0,0" pads_begin="0,0" pads_end="0,0" strides="1,1"/>
			<input>
				<port id="0">
					<dim>1</dim>
					<dim>128</dim>
					<dim>28</dim>
					<dim>28</dim>
				</port>
				<port id="1">
					<dim>128</dim>
					<dim>128</dim>
					<dim>3</dim>
					<dim>3</dim>
				</port>
			</input>
			<output>
				<port id="2" precision="FP32">
					<dim>1</dim>
					<dim>128</dim>
					<dim>28</dim>
					<dim>28</dim>
				</port>
			</output>
		</layer>
		<layer id="403" name="data_add_1039010395/copy_const414_const" type="Const" version="opset1">
			<data element_type="f32" offset="1423468" shape="1,128,1,1" size="512"/>
			<output>
				<port id="1" precision="FP32">
					<dim>1</dim>
					<dim>128</dim>
					<dim>1</dim>
					<dim>1</dim>
				</port>
			</output>
		</layer>
		<layer id="404" name="resnet_model/batch_normalization_22/FusedBatchNorm/variance/Fused_Add_" type="Add" version="opset1">
			<input>
				<port id="0">
					<dim>1</dim>
					<dim>128</dim>
					<dim>28</dim>
					<dim>28</dim>
				</port>
				<port id="1">
					<dim>1</dim>
					<dim>128</dim>
					<dim>1</dim>
					<dim>1</dim>
				</port>
			</input>
			<output>
				<port id="2" precision="FP32">
					<dim>1</dim>
					<dim>128</dim>
					<dim>28</dim>
					<dim>28</dim>
				</port>
			</output>
		</layer>
		<layer id="405" name="resnet_model/Relu_20" type="ReLU" version="opset1">
			<input>
				<port id="0">
					<dim>1</dim>
					<dim>128</dim>
					<dim>28</dim>
					<dim>28</dim>
				</port>
			</input>
			<output>
				<port id="1" precision="FP32">
					<dim>1</dim>
					<dim>128</dim>
					<dim>28</dim>
					<dim>28</dim>
				</port>
			</output>
		</layer>
		<layer id="406" name="12631267_const" type="Const" version="opset1">
			<data element_type="f32" offset="9428" shape="" size="4"/>
			<output>
				<port id="1" precision="FP32"/>
			</output>
		</layer>
		<layer id="407" name="12641268_const" type="Const" version="opset1">
			<data element_type="f32" offset="1423980" shape="" size="4"/>
			<output>
				<port id="1" precision="FP32"/>
			</output>
		</layer>
		<layer id="408" name="12651269_const" type="Const" version="opset1">
			<data element_type="f32" offset="9428" shape="" size="4"/>
			<output>
				<port id="1" precision="FP32"/>
			</output>
		</layer>
		<layer id="409" name="12661270_const" type="Const" version="opset1">
			<data element_type="f32" offset="1423980" shape="" size="4"/>
			<output>
				<port id="1" precision="FP32"/>
			</output>
		</layer>
		<layer id="410" name="resnet_model/conv2d_23/Conv2D/fq_input_0" type="FakeQuantize" version="opset1">
			<data levels="256"/>
			<input>
				<port id="0">
					<dim>1</dim>
					<dim>128</dim>
					<dim>28</dim>
					<dim>28</dim>
				</port>
				<port id="1"/>
				<port id="2"/>
				<port id="3"/>
				<port id="4"/>
			</input>
			<output>
				<port id="5" precision="FP32">
					<dim>1</dim>
					<dim>128</dim>
					<dim>28</dim>
					<dim>28</dim>
				</port>
			</output>
		</layer>
		<layer id="411" name="resnet_model/conv2d_23/Conv2D/fq_weights_1/Convert_to_float/Cast_05401_const" type="Const" version="opset1">
			<data element_type="u8" offset="1423984" shape="512,128,1,1" size="65536"/>
			<output>
				<port id="1" precision="U8">
					<dim>512</dim>
					<dim>128</dim>
					<dim>1</dim>
					<dim>1</dim>
				</port>
			</output>
		</layer>
		<layer id="412" name="resnet_model/conv2d_23/Conv2D/fq_weights_1/Convert_to_float" type="Convert" version="opset1">
			<data destination_type="f32"/>
			<input>
				<port id="0">
					<dim>512</dim>
					<dim>128</dim>
					<dim>1</dim>
					<dim>1</dim>
				</port>
			</input>
			<output>
				<port id="1" precision="FP32">
					<dim>512</dim>
					<dim>128</dim>
					<dim>1</dim>
					<dim>1</dim>
				</port>
			</output>
		</layer>
		<layer id="413" name="resnet_model/conv2d_23/Conv2D/fq_weights_1/Copy/out_low4559_const" type="Const" version="opset1">
			<data element_type="f32" offset="9428" shape="1" size="4"/>
			<output>
				<port id="1" precision="FP32">
					<dim>1</dim>
				</port>
			</output>
		</layer>
		<layer id="414" name="resnet_model/conv2d_23/Conv2D/fq_weights_1/Copy/out_high4560_const" type="Const" version="opset1">
			<data element_type="f32" offset="9432" shape="1" size="4"/>
			<output>
				<port id="1" precision="FP32">
					<dim>1</dim>
				</port>
			</output>
		</layer>
		<layer id="415" name="12751279_const" type="Const" version="opset1">
			<data element_type="f32" offset="1489520" shape="512,1,1,1" size="2048"/>
			<output>
				<port id="1" precision="FP32">
					<dim>512</dim>
					<dim>1</dim>
					<dim>1</dim>
					<dim>1</dim>
				</port>
			</output>
		</layer>
		<layer id="416" name="12761280_const" type="Const" version="opset1">
			<data element_type="f32" offset="1491568" shape="512,1,1,1" size="2048"/>
			<output>
				<port id="1" precision="FP32">
					<dim>512</dim>
					<dim>1</dim>
					<dim>1</dim>
					<dim>1</dim>
				</port>
			</output>
		</layer>
		<layer id="417" name="resnet_model/conv2d_23/Conv2D/fq_weights_1" type="FakeQuantize" version="opset1">
			<data levels="255"/>
			<input>
				<port id="0">
					<dim>512</dim>
					<dim>128</dim>
					<dim>1</dim>
					<dim>1</dim>
				</port>
				<port id="1">
					<dim>1</dim>
				</port>
				<port id="2">
					<dim>1</dim>
				</port>
				<port id="3">
					<dim>512</dim>
					<dim>1</dim>
					<dim>1</dim>
					<dim>1</dim>
				</port>
				<port id="4">
					<dim>512</dim>
					<dim>1</dim>
					<dim>1</dim>
					<dim>1</dim>
				</port>
			</input>
			<output>
				<port id="5" precision="FP32">
					<dim>512</dim>
					<dim>128</dim>
					<dim>1</dim>
					<dim>1</dim>
				</port>
			</output>
		</layer>
		<layer id="418" name="resnet_model/conv2d_23/Conv2D" type="Convolution" version="opset1">
			<data auto_pad="same_upper" dilations="1,1" output_padding="0,0" pads_begin="0,0" pads_end="0,0" strides="1,1"/>
			<input>
				<port id="0">
					<dim>1</dim>
					<dim>128</dim>
					<dim>28</dim>
					<dim>28</dim>
				</port>
				<port id="1">
					<dim>512</dim>
					<dim>128</dim>
					<dim>1</dim>
					<dim>1</dim>
				</port>
			</input>
			<output>
				<port id="2" precision="FP32">
					<dim>1</dim>
					<dim>512</dim>
					<dim>28</dim>
					<dim>28</dim>
				</port>
			</output>
		</layer>
		<layer id="419" name="data_add_1039810403/copy_const419_const" type="Const" version="opset1">
			<data element_type="f32" offset="1493616" shape="1,512,1,1" size="2048"/>
…
		<edge from-layer="304" from-port="1" to-layer="309" to-port="0"/>
		<edge from-layer="305" from-port="1" to-layer="309" to-port="1"/>
		<edge from-layer="306" from-port="1" to-layer="309" to-port="2"/>
		<edge from-layer="307" from-port="1" to-layer="309" to-port="3"/>
		<edge from-layer="308" from-port="1" to-layer="309" to-port="4"/>
		<edge from-layer="302" from-port="5" to-layer="310" to-port="0"/>
		<edge from-layer="309" from-port="5" to-layer="310" to-port="1"/>
		<edge from-layer="310" from-port="2" to-layer="312" to-port="0"/>
		<edge from-layer="311" from-port="1" to-layer="312" to-port="1"/>
		<edge from-layer="312" from-port="2" to-layer="317" to-port="0"/>
		<edge from-layer="313" from-port="1" to-layer="317" to-port="1"/>
		<edge from-layer="314" from-port="1" to-layer="317" to-port="2"/>
		<edge from-layer="315" from-port="1" to-layer="317" to-port="3"/>
		<edge from-layer="316" from-port="1" to-layer="317" to-port="4"/>
		<edge from-layer="317" from-port="5" to-layer="318" to-port="0"/>
		<edge from-layer="270" from-port="5" to-layer="318" to-port="1"/>
		<edge from-layer="318" from-port="2" to-layer="319" to-port="0"/>
		<edge from-layer="319" from-port="1" to-layer="324" to-port="0"/>
		<edge from-layer="320" from-port="1" to-layer="324" to-port="1"/>
		<edge from-layer="321" from-port="1" to-layer="324" to-port="2"/>
		<edge from-layer="322" from-port="1" to-layer="324" to-port="3"/>
		<edge from-layer="323" from-port="1" to-layer="324" to-port="4"/>
		<edge from-layer="325" from-port="1" to-layer="326" to-port="0"/>
		<edge from-layer="326" from-port="1" to-layer="331" to-port="0"/>
		<edge from-layer="327" from-port="1" to-layer="331" to-port="1"/>
		<edge from-layer="328" from-port="1" to-layer="331" to-port="2"/>
		<edge from-layer="329" from-port="1" to-layer="331" to-port="3"/>
		<edge from-layer="330" from-port="1" to-layer="331" to-port="4"/>
		<edge from-layer="324" from-port="5" to-layer="332" to-port="0"/>
		<edge from-layer="331" from-port="5" to-layer="332" to-port="1"/>
		<edge from-layer="332" from-port="2" to-layer="334" to-port="0"/>
		<edge from-layer="333" from-port="1" to-layer="334" to-port="1"/>
		<edge from-layer="334" from-port="2" to-layer="335" to-port="0"/>
		<edge from-layer="335" from-port="1" to-layer="340" to-port="0"/>
		<edge from-layer="336" from-port="1" to-layer="340" to-port="1"/>
		<edge from-layer="337" from-port="1" to-layer="340" to-port="2"/>
		<edge from-layer="338" from-port="1" to-layer="340" to-port="3"/>
		<edge from-layer="339" from-port="1" to-layer="340" to-port="4"/>
		<edge from-layer="341" from-port="1" to-layer="342" to-port="0"/>
		<edge from-layer="342" from-port="1" to-layer="347" to-port="0"/>
		<edge from-layer="343" from-port="1" to-layer="347" to-port="1"/>
		<edge from-layer="344" from-port="1" to-layer="347" to-port="2"/>
		<edge from-layer="345" from-port="1" to-layer="347" to-port="3"/>
		<edge from-layer="346" from-port="1" to-layer="347" to-port="4"/>
		<edge from-layer="340" from-port="5" to-layer="348" to-port="0"/>
		<edge from-layer="347" from-port="5" to-layer="348" to-port="1"/>
		<edge from-layer="348" from-port="2" to-layer="350" to-port="0"/>
		<edge from-layer="349" from-port="1" to-layer="350" to-port="1"/>
		<edge from-layer="350" from-port="2" to-layer="351" to-port="0"/>
		<edge from-layer="351" from-port="1" to-layer="356" to-port="0"/>
		<edge from-layer="352" from-port="1" to-layer="356" to-port="1"/>
		<edge from-layer="353" from-port="1" to-layer="356" to-port="2"/>
		<edge from-layer="354" from-port="1" to-layer="356" to-port="3"/>
		<edge from-layer="355" from-port="1" to-layer="356" to-port="4"/>
		<edge from-layer="357" from-port="1" to-layer="358" to-port="0"/>
		<edge from-layer="358" from-port="1" to-layer="363" to-port="0"/>
		<edge from-layer="359" from-port="1" to-layer="363" to-port="1"/>
		<edge from-layer="360" from-port="1" to-layer="363" to-port="2"/>
		<edge from-layer="361" from-port="1" to-layer="363" to-port="3"/>
		<edge from-layer="362" from-port="1" to-layer="363" to-port="4"/>
		<edge from-layer="356" from-port="5" to-layer="364" to-port="0"/>
		<edge from-layer="363" from-port="5" to-layer="364" to-port="1"/>
		<edge from-layer="364" from-port="2" to-layer="366" to-port="0"/>
		<edge from-layer="365" from-port="1" to-layer="366" to-port="1"/>
		<edge from-layer="366" from-port="2" to-layer="371" to-port="0"/>
		<edge from-layer="367" from-port="1" to-layer="371" to-port="1"/>
		<edge from-layer="368" from-port="1" to-layer="371" to-port="2"/>
		<edge from-layer="369" from-port="1" to-layer="371" to-port="3"/>
		<edge from-layer="370" from-port="1" to-layer="371" to-port="4"/>
		<edge from-layer="371" from-port="5" to-layer="372" to-port="0"/>
		<edge from-layer="324" from-port="5" to-layer="372" to-port="1"/>
		<edge from-layer="372" from-port="2" to-layer="373" to-port="0"/>
		<edge from-layer="373" from-port="1" to-layer="378" to-port="0"/>
		<edge from-layer="374" from-port="1" to-layer="378" to-port="1"/>
		<edge from-layer="375" from-port="1" to-layer="378" to-port="2"/>
		<edge from-layer="376" from-port="1" to-layer="378" to-port="3"/>
		<edge from-layer="377" from-port="1" to-layer="378" to-port="4"/>
		<edge from-layer="379" from-port="1" to-layer="380" to-port="0"/>
		<edge from-layer="380" from-port="1" to-layer="385" to-port="0"/>
		<edge from-layer="381" from-port="1" to-layer="385" to-port="1"/>
		<edge from-layer="382" from-port="1" to-layer="385" to-port="2"/>
		<edge from-layer="383" from-port="1" to-layer="385" to-port="3"/>
		<edge from-layer="384" from-port="1" to-layer="385" to-port="4"/>
		<edge from-layer="378" from-port="5" to-layer="386" to-port="0"/>
		<edge from-layer="385" from-port="5" to-layer="386" to-port="1"/>
		<edge from-layer="386" from-port="2" to-layer="388" to-port="0"/>
		<edge from-layer="387" from-port="1" to-layer="388" to-port="1"/>
		<edge from-layer="388" from-port="2" to-layer="389" to-port="0"/>
		<edge from-layer="389" from-port="1" to-layer="394" to-port="0"/>
		<edge from-layer="390" from-port="1" to-layer="394" to-port="1"/>
		<edge from-layer="391" from-port="1" to-layer="394" to-port="2"/>
		<edge from-layer="392" from-port="1" to-layer="394" to-port="3"/>
		<edge from-layer="393" from-port="1" to-layer="394" to-port="4"/>
		<edge from-layer="395" from-port="1" to-layer="396" to-port="0"/>
		<edge from-layer="396" from-port="1" to-layer="401" to-port="0"/>
		<edge from-layer="397" from-port="1" to-layer="401" to-port="1"/>
		<edge from-layer="398" from-port="1" to-layer="401" to-port="2"/>
		<edge from-layer="399" from-port="1" to-layer="401" to-port="3"/>
		<edge from-layer="400" from-port="1" to-layer="401" to-port="4"/>
		<edge from-layer="394" from-port="5" to-layer="402" to-port="0"/>
		<edge from-layer="401" from-port="5" to-layer="402" to-port="1"/>
		<edge from-layer="402" from-port="2" to-layer="404" to-port="0"/>
		<edge from-layer="403" from-port="1" to-layer="404" to-port="1"/>
		<edge from-layer="404" from-port="2" to-layer="405" to-port="0"/>
		<edge from-layer="405" from-port="1" to-layer="410" to-port="0"/>
		<edge from-layer="406" from-port="1" to-layer="410" to-port="1"/>
		<edge from-layer="407" from-port="1" to-layer="410" to-port="2"/>
		<edge from-layer="408" from-port="1" to-layer="410" to-port="3"/>
		<edge from-layer="409" from-port="1" to-layer="410" to-port="4"/>
		<edge from-layer="411" from-port="1" to-layer="412" to-port="0"/>
		<edge from-layer="412" from-port="1" to-layer="417" to-port="0"/>
		<edge from-layer="413" from-port="1" to-layer="417" to-port="1"/>
		<edge from-layer="414" from-port="1" to-layer="417" to-port="2"/>
		<edge from-layer="415" from-port="1" to-layer="417" to-port="3"/>
		<edge from-layer="416" from-port="1" to-layer="417" to-port="4"/>
		<edge from-layer="410" from-port="5" to-layer="418" to-port="0"/>
		<edge from-layer="417" from-port="5" to-layer="418" to-port="1"/>
		<edge from-layer="418" from-port="2" to-layer="420" to-port="0"/>
		<edge from-layer="419" from-port="1" to-layer="420" to-port="1"/>
		<edge from-layer="420" from-port="2" to-layer="425" to-port="0"/>
		<edge from-layer="421" from-port="1" to-layer="425" to-port="1"/>
		<edge from-layer="422" from-port="1" to-layer="425" to-port="2"/>
		<edge from-layer="423" from-port="1" to-layer="425" to-port="3"/>
		<edge from-layer="424" from-port="1" to-layer="425" to-port="4"/>
		<edge from-layer="425" from-port="5" to-layer="426" to-port="0"/>
		<edge from-layer="378" from-port="5" to-layer="426" to-port="1"/>
		<edge from-layer="426" from-port="2" to-layer="427" to-port="0"/>
		<edge from-layer="427" from-port="1" to-layer="432" to-port="0"/>
		<edge from-layer="428" from-port="1" to-layer="432" to-port="1"/>
		<edge from-layer="429" from-port="1" to-layer="432" to-port="2"/>
		<edge from-layer="430" from-port="1" to-layer="432" to-port="3"/>
		<edge from-layer="431" from-port="1" to-layer="432" to-port="4"/>
		<edge from-layer="433" from-port="1" to-layer="434" to-port="0"/>
		<edge from-layer="434" from-port="1" to-layer="439" to-port="0"/>
		<edge from-layer="435" from-port="1" to-layer="439" to-port="1"/>
		<edge from-layer="436" from-port="1" to-layer="439" to-port="2"/>
		<edge from-layer="437" from-port="1" to-layer="439" to-port="3"/>
		<edge from-layer="438" from-port="1" to-layer="439" to-port="4"/>
		<edge from-layer="432" from-port="5" to-layer="440" to-port="0"/>
		<edge from-layer="439" from-port="5" to-layer="440" to-port="1"/>
		<edge from-layer="440" from-port="2" to-layer="442" to-port="0"/>
		<edge from-layer="441" from-port="1" to-layer="442" to-port="1"/>
		<edge from-layer="442" from-port="2" to-layer="443" to-port="0"/>
		<edge from-layer="443" from-port="1" to-layer="448" to-port="0"/>
		<edge from-layer="444" from-port="1" to-layer="448" to-port="1"/>
		<edge from-layer="445" from-port="1" to-layer="448" to-port="2"/>
		<edge from-layer="446" from-port="1" to-layer="448" to-port="3"/>
		<edge from-layer="447" from-port="1" to-layer="448" to-port="4"/>
		<edge from-layer="449" from-port="1" to-layer="450" to-port="0"/>
		<edge from-layer="450" from-port="1" to-layer="455" to-port="0"/>
		<edge from-layer="451" from-port="1" to-layer="455" to-port="1"/>
		<edge from-layer="452" from-port="1" to-layer="455" to-port="2"/>
		<edge from-layer="453" from-port="1" to-layer="455" to-port="3"/>
		<edge from-layer="454" from-port="1" to-layer="455" to-port="4"/>
		<edge from-layer="448" from-port="5" to-layer="456" to-port="0"/>
		<edge from-layer="455" from-port="5" to-layer="456" to-port="1"/>
		<edge from-layer="456" from-port="2" to-layer="458" to-port="0"/>
		<edge from-layer="457" from-port="1" to-layer="458" to-port="1"/>
		<edge from-layer="458" from-port="2" to-layer="459" to-port="0"/>
		<edge from-layer="459" from-port="1" to-layer="464" to-port="0"/>
		<edge from-layer="460" from-port="1" to-layer="464" to-port="1"/>
		<edge from-layer="461" from-port="1" to-layer="464" to-port="2"/>
		<edge from-layer="462" from-port="1" to-layer="464" to-port="3"/>
		<edge from-layer="463" from-port="1" to-layer="464" to-port="4"/>
		<edge from-layer="465" from-port="1" to-layer="466" to-port="0"/>
		<edge from-layer="466" from-port="1" to-layer="471" to-port="0"/>
		<edge from-layer="467" from-port="1" to-layer="471" to-port="1"/>
		<edge from-layer="468" from-port="1" to-layer="471" to-port="2"/>
		<edge from-layer="469" from-port="1" to-layer="471" to-port="3"/>
		<edge from-layer="470" from-port="1" to-layer="471" to-port="4"/>
		<edge from-layer="464" from-port="5" to-layer="472" to-port="0"/>
		<edge from-layer="471" from-port="5" to-layer="472" to-port="1"/>
		<edge from-layer="472" from-port="2" to-layer="474" to-port="0"/>
		<edge from-layer="473" from-port="1" to-layer="474" to-port="1"/>
		<edge from-layer="474" from-port="2" to-layer="479" to-port="0"/>
		<edge from-layer="475" from-port="1" to-layer="479" to-port="1"/>
		<edge from-layer="476" from-port="1" to-layer="479" to-port="2"/>
		<edge from-layer="477" from-port="1" to-layer="479" to-port="3"/>
		<edge from-layer="478" from-port="1" to-layer="479" to-port="4"/>
		<edge from-layer="480" from-port="1" to-layer="481" to-port="0"/>
		<edge from-layer="481" from-port="1" to-layer="486" to-port="0"/>
		<edge from-layer="482" from-port="1" to-layer="486" to-port="1"/>
		<edge from-layer="483" from-port="1" to-layer="486" to-port="2"/>
		<edge from-layer="484" from-port="1" to-layer="486" to-port="3"/>
		<edge from-layer="485" from-port="1" to-layer="486" to-port="4"/>
		<edge from-layer="432" from-port="5" to-layer="487" to-port="0"/>
		<edge from-layer="486" from-port="5" to-layer="487" to-port="1"/>
		<edge from-layer="487" from-port="2" to-layer="489" to-port="0"/>
		<edge from-layer="488" from-port="1" to-layer="489" to-port="1"/>
		<edge from-layer="489" from-port="2" to-layer="494" to-port="0"/>
		<edge from-layer="490" from-port="1" to-layer="494" to-port="1"/>
		<edge from-layer="491" from-port="1" to-layer="494" to-port="2"/>
		<edge from-layer="492" from-port="1" to-layer="494" to-port="3"/>
		<edge from-layer="493" from-port="1" to-layer="494" to-port="4"/>
		<edge from-layer="479" from-port="5" to-layer="495" to-port="0"/>
		<edge from-layer="494" from-port="5" to-layer="495" to-port="1"/>
		<edge from-layer="495" from-port="2" to-layer="496" to-port="0"/>
		<edge from-layer="496" from-port="1" to-layer="501" to-port="0"/>
		<edge from-layer="497" from-port="1" to-layer="501" to-port="1"/>
		<edge from-layer="498" from-port="1" to-layer="501" to-port="2"/>
		<edge from-layer="499" from-port="1" to-layer="501" to-port="3"/>
		<edge from-layer="500" from-port="1" to-layer="501" to-port="4"/>
		<edge from-layer="502" from-port="1" to-layer="503" to-port="0"/>
		<edge from-layer="503" from-port="1" to-layer="508" to-port="0"/>
		<edge from-layer="504" from-port="1" to-layer="508" to-port="1"/>
		<edge from-layer="505" from-port="1" to-layer="508" to-port="2"/>
		<edge from-layer="506" from-port="1" to-layer="508" to-port="3"/>
		<edge from-layer="507" from-port="1" to-layer="508" to-port="4"/>
		<edge from-layer="501" from-port="5" to-layer="509" to-port="0"/>
		<edge from-layer="508" from-port="5" to-layer="509" to-port="1"/>
		<edge from-layer="509" from-port="2" to-layer="511" to-port="0"/>
		<edge from-layer="510" from-port="1" to-layer="511" to-port="1"/>
		<edge from-layer="511" from-port="2" to-layer="512" to-port="0"/>
		<edge from-layer="512" from-port="1" to-layer="517" to-port="0"/>
		<edge from-layer="513" from-port="1" to-layer="517" to-port="1"/>
		<edge from-layer="514" from-port="1" to-layer="517" to-port="2"/>
		<edge from-layer="515" from-port="1" to-layer="517" to-port="3"/>
		<edge from-layer="516" from-port="1" to-layer="517" to-port="4"/>
		<edge from-layer="518" from-port="1" to-layer="519" to-port="0"/>
		<edge from-layer="519" from-port="1" to-layer="524" to-port="0"/>
		<edge from-layer="520" from-port="1" to-layer="524" to-port="1"/>
		<edge from-layer="521" from-port="1" to-layer="524" to-port="2"/>
		<edge from-layer="522" from-port="1" to-layer="524" to-port="3"/>
		<edge from-layer="523" from-port="1" to-layer="524" to-port="4"/>
		<edge from-layer="517" from-port="5" to-layer="525" to-port="0"/>
		<edge from-layer="524" from-port="5" to-layer="525" to-port="1"/>
		<edge from-layer="525" from-port="2" to-layer="527" to-port="0"/>
		<edge from-layer="526" from-port="1" to-layer="527" to-port="1"/>
		<edge from-layer="527" from-port="2" to-layer="528" to-port="0"/>
		<edge from-layer="528" from-port="1" to-layer="533" to-port="0"/>
		<edge from-layer="529" from-port="1" to-layer="533" to-port="1"/>
		<edge from-layer="530" from-port="1" to-layer="533" to-port="2"/>
		<edge from-layer="531" from-port="1" to-layer="533" to-port="3"/>
		<edge from-layer="532" from-port="1" to-layer="533" to-port="4"/>
		<edge from-layer="534" from-port="1" to-layer="535" to-port="0"/>
		<edge from-layer="535" from-port="1" to-layer="540" to-port="0"/>
		<edge from-layer="536" from-port="1" to-layer="540" to-port="1"/>
		<edge from-layer="537" from-port="1" to-layer="540" to-port="2"/>
		<edge from-layer="538" from-port="1" to-layer="540" to-port="3"/>
		<edge from-layer="539" from-port="1" to-layer="540" to-port="4"/>
		<edge from-layer="533" from-port="5" to-layer="541" to-port="0"/>
		<edge from-layer="540" from-port="5" to-layer="541" to-port="1"/>
		<edge from-layer="541" from-port="2" to-layer="543" to-port="0"/>
		<edge from-layer="542" from-port="1" to-layer="543" to-port="1"/>
		<edge from-layer="543" from-port="2" to-layer="548" to-port="0"/>
		<edge from-layer="544" from-port="1" to-layer="548" to-port="1"/>
		<edge from-layer="545" from-port="1" to-layer="548" to-port="2"/>
		<edge from-layer="546" from-port="1" to-layer="548" to-port="3"/>
		<edge from-layer="547" from-port="1" to-layer="548" to-port="4"/>
		<edge from-layer="548" from-port="5" to-layer="549" to-port="0"/>
		<edge from-layer="501" from-port="5" to-layer="549" to-port="1"/>
		<edge from-layer="549" from-port="2" to-layer="550" to-port="0"/>
		<edge from-layer="550" from-port="1" to-layer="555" to-port="0"/>
		<edge from-layer="551" from-port="1" to-layer="555" to-port="1"/>
		<edge from-layer="552" from-port="1" to-layer="555" to-port="2"/>
		<edge from-layer="553" from-port="1" to-layer="555" to-port="3"/>
		<edge from-layer="554" from-port="1" to-layer="555" to-port="4"/>
		<edge from-layer="556" from-port="1" to-layer="557" to-port="0"/>
		<edge from-layer="557" from-port="1" to-layer="562" to-port="0"/>
		<edge from-layer="558" from-port="1" to-layer="562" to-port="1"/>
		<edge from-layer="559" from-port="1" to-layer="562" to-port="2"/>
		<edge from-layer="560" from-port="1" to-layer="562" to-port="3"/>
		<edge from-layer="561" from-port="1" to-layer="562" to-port="4"/>
		<edge from-layer="555" from-port="5" to-layer="563" to-port="0"/>
		<edge from-layer="562" from-port="5" to-layer="563" to-port="1"/>
		<edge from-layer="563" from-port="2" to-layer="565" to-port="0"/>
		<edge from-layer="564" from-port="1" to-layer="565" to-port="1"/>
		<edge from-layer="565" from-port="2" to-layer="566" to-port="0"/>
		<edge from-layer="566" from-port="1" to-layer="571" to-port="0"/>
		<edge from-layer="567" from-port="1" to-layer="571" to-port="1"/>
		<edge from-layer="568" from-port="1" to-layer="571" to-port="2"/>
		<edge from-layer="569" from-port="1" to-layer="571" to-port="3"/>
		<edge from-layer="570" from-port="1" to-layer="571" to-port="4"/>
		<edge from-layer="572" from-port="1" to-layer="573" to-port="0"/>
		<edge from-layer="573" from-port="1" to-layer="578" to-port="0"/>
		<edge from-layer="574" from-port="1" to-layer="578" to-port="1"/>
		<edge from-layer="575" from-port="1" to-layer="578" to-port="2"/>
		<edge from-layer="576" from-port="1" to-layer="578" to-port="3"/>
		<edge from-layer="577" from-port="1" to-layer="578" to-port="4"/>
		<edge from-layer="571" from-port="5" to-layer="579" to-port="0"/>
		<edge from-layer="578" from-port="5" to-layer="579" to-port="1"/>
		<edge from-layer="579" from-port="2" to-layer="581" to-port="0"/>
		<edge from-layer="580" from-port="1" to-layer="581" to-port="1"/>
		<edge from-layer="581" from-port="2" to-layer="582" to-port="0"/>
		<edge from-layer="582" from-port="1" to-layer="587" to-port="0"/>
		<edge from-layer="583" from-port="1" to-layer="587" to-port="1"/>
		<edge from-layer="584" from-port="1" to-layer="587" to-port="2"/>
		<edge from-layer="585" from-port="1" to-layer="587" to-port="3"/>
		<edge from-layer="586" from-port="1" to-layer="587" to-port="4"/>
		<edge from-layer="588" from-port="1" to-layer="589" to-port="0"/>
		<edge from-layer="589" from-port="1" to-layer="594" to-port="0"/>
		<edge from-layer="590" from-port="1" to-layer="594" to-port="1"/>
		<edge from-layer="591" from-port="1" to-layer="594" to-port="2"/>
		<edge from-layer="592" from-port="1" to-layer="594" to-port="3"/>
		<edge from-layer="593" from-port="1" to-layer="594" to-port="4"/>
		<edge from-layer="587" from-port="5" to-layer="595" to-port="0"/>
		<edge from-layer="594" from-port="5" to-layer="595" to-port="1"/>
		<edge from-layer="595" from-port="2" to-layer="597" to-port="0"/>
		<edge from-layer="596" from-port="1" to-layer="597" to-port="1"/>
		<edge from-layer="597" from-port="2" to-layer="602" to-port="0"/>
		<edge from-layer="598" from-port="1" to-layer="602" to-port="1"/>
		<edge from-layer="599" from-port="1" to-layer="602" to-port="2"/>
		<edge from-layer="600" from-port="1" to-layer="602" to-port="3"/>
		<edge from-layer="601" from-port="1" to-layer="602" to-port="4"/>
		<edge from-layer="602" from-port="5" to-layer="603" to-port="0"/>
		<edge from-layer="555" from-port="5" to-layer="603" to-port="1"/>
		<edge from-layer="603" from-port="2" to-layer="604" to-port="0"/>
		<edge from-layer="604" from-port="1" to-layer="609" to-port="0"/>
		<edge from-layer="605" from-port="1" to-layer="609" to-port="1"/>
		<edge from-layer="606" from-port="1" to-layer="609" to-port="2"/>
		<edge from-layer="607" from-port="1" to-layer="609" to-port="3"/>
		<edge from-layer="608" from-port="1" to-layer="609" to-port="4"/>
		<edge from-layer="610" from-port="1" to-layer="611" to-port="0"/>
		<edge from-layer="611" from-port="1" to-layer="616" to-port="0"/>
		<edge from-layer="612" from-port="1" to-layer="616" to-port="1"/>
		<edge from-layer="613" from-port="1" to-layer="616" to-port="2"/>
		<edge from-layer="614" from-port="1" to-layer="616" to-port="3"/>
		<edge from-layer="615" from-port="1" to-layer="616" to-port="4"/>
		<edge from-layer="609" from-port="5" to-layer="617" to-port="0"/>
		<edge from-layer="616" from-port="5" to-layer="617" to-port="1"/>
		<edge from-layer="617" from-port="2" to-layer="619" to-port="0"/>
		<edge from-layer="618" from-port="1" to-layer="619" to-port="1"/>
		<edge from-layer="619" from-port="2" to-layer="620" to-port="0"/>
		<edge from-layer="620" from-port="1" to-layer="625" to-port="0"/>
		<edge from-layer="621" from-port="1" to-layer="625" to-port="1"/>
		<edge from-layer="622" from-port="1" to-layer="625" to-port="2"/>
		<edge from-layer="623" from-port="1" to-layer="625" to-port="3"/>
		<edge from-layer="624" from-port="1" to-layer="625" to-port="4"/>
		<edge from-layer="626" from-port="1" to-layer="627" to-port="0"/>
		<edge from-layer="627" from-port="1" to-layer="632" to-port="0"/>
		<edge from-layer="628" from-port="1" to-layer="632" to-port="1"/>
		<edge from-layer="629" from-port="1" to-layer="632" to-port="2"/>
		<edge from-layer="630" from-port="1" to-layer="632" to-port="3"/>
		<edge from-layer="631" from-port="1" to-layer="632" to-port="4"/>
		<edge from-layer="625" from-port="5" to-layer="633" to-port="0"/>
		<edge from-layer="632" from-port="5" to-layer="633" to-port="1"/>
		<edge from-layer="633" from-port="2" to-layer="635" to-port="0"/>
		<edge from-layer="634" from-port="1" to-layer="635" to-port="1"/>
		<edge from-layer="635" from-port="2" to-layer="636" to-port="0"/>
		<edge from-layer="636" from-port="1" to-layer="641" to-port="0"/>
		<edge from-layer="637" from-port="1" to-layer="641" to-port="1"/>
		<edge from-layer="638" from-port="1" to-layer="641" to-port="2"/>
		<edge from-layer="639" from-port="1" to-layer="641" to-port="3"/>
		<edge from-layer="640" from-port="1" to-layer="641" to-port="4"/>
		<edge from-layer="642" from-port="1" to-layer="643" to-port="0"/>
		<edge from-layer="643" from-port="1" to-layer="648" to-port="0"/>
		<edge from-layer="644" from-port="1" to-layer="648" to-port="1"/>
		<edge from-layer="645" from-port="1" to-layer="648" to-port="2"/>
		<edge from-layer="646" from-port="1" to-layer="648" to-port="3"/>
		<edge from-layer="647" from-port="1" to-layer="648" to-port="4"/>
		<edge from-layer="641" from-port="5" to-layer="649" to-port="0"/>
		<edge from-layer="648" from-port="5" to-layer="649" to-port="1"/>
		<edge from-layer="649" from-port="2" to-layer="651" to-port="0"/>
		<edge from-layer="650" from-port="1" to-layer="651" to-port="1"/>
		<edge from-layer="651" from-port="2" to-layer="656" to-port="0"/>
		<edge from-layer="652" from-port="1" to-layer="656" to-port="1"/>
		<edge from-layer="653" from-port="1" to-layer="656" to-port="2"/>
		<edge from-layer="654" from-port="1" to-layer="656" to-port="3"/>
		<edge from-layer="655" from-port="1" to-layer="656" to-port="4"/>
		<edge from-layer="656" from-port="5" to-layer="657" to-port="0"/>
		<edge from-layer="609" from-port="5" to-layer="657" to-port="1"/>
		<edge from-layer="657" from-port="2" to-layer="658" to-port="0"/>
		<edge from-layer="658" from-port="1" to-layer="663" to-port="0"/>
		<edge from-layer="659" from-port="1" to-layer="663" to-port="1"/>
		<edge from-layer="660" from-port="1" to-layer="663" to-port="2"/>
		<edge from-layer="661" from-port="1" to-layer="663" to-port="3"/>
		<edge from-layer="662" from-port="1" to-layer="663" to-port="4"/>
		<edge from-layer="664" from-port="1" to-layer="665" to-port="0"/>
		<edge from-layer="665" from-port="1" to-layer="670" to-port="0"/>
		<edge from-layer="666" from-port="1" to-layer="670" to-port="1"/>
		<edge from-layer="667" from-port="1" to-layer="670" to-port="2"/>
		<edge from-layer="668" from-port="1" to-layer="670" to-port="3"/>
		<edge from-layer="669" from-port="1" to-layer="670" to-port="4"/>
		<edge from-layer="663" from-port="5" to-layer="671" to-port="0"/>
		<edge from-layer="670" from-port="5" to-layer="671" to-port="1"/>
		<edge from-layer="671" from-port="2" to-layer="673" to-port="0"/>
		<edge from-layer="672" from-port="1" to-layer="673" to-port="1"/>
		<edge from-layer="673" from-port="2" to-layer="674" to-port="0"/>
		<edge from-layer="674" from-port="1" to-layer="679" to-port="0"/>
		<edge from-layer="675" from-port="1" to-layer="679" to-port="1"/>
		<edge from-layer="676" from-port="1" to-layer="679" to-port="2"/>
		<edge from-layer="677" from-port="1" to-layer="679" to-port="3"/>
		<edge from-layer="678" from-port="1" to-layer="679" to-port="4"/>
		<edge from-layer="680" from-port="1" to-layer="681" to-port="0"/>
		<edge from-layer="681" from-port="1" to-layer="686" to-port="0"/>
		<edge from-layer="682" from-port="1" to-layer="686" to-port="1"/>
		<edge from-layer="683" from-port="1" to-layer="686" to-port="2"/>
		<edge from-layer="684" from-port="1" to-layer="686" to-port="3"/>
		<edge from-layer="685" from-port="1" to-layer="686" to-port="4"/>
		<edge from-layer="679" from-port="5" to-layer="687" to-port="0"/>
		<edge from-layer="686" from-port="5" to-layer="687" to-port="1"/>
		<edge from-layer="687" from-port="2" to-layer="689" to-port="0"/>
		<edge from-layer="688" from-port="1" to-layer="689" to-port="1"/>
		<edge from-layer="689" from-port="2" to-layer="690" to-port="0"/>
		<edge from-layer="690" from-port="1" to-layer="695" to-port="0"/>
		<edge from-layer="691" from-port="1" to-layer="695" to-port="1"/>
		<edge from-layer="692" from-port="1" to-layer="695" to-port="2"/>
		<edge from-layer="693" from-port="1" to-layer="695" to-port="3"/>
		<edge from-layer="694" from-port="1" to-layer="695" to-port="4"/>
		<edge from-layer="696" from-port="1" to-layer="697" to-port="0"/>
		<edge from-layer="697" from-port="1" to-layer="702" to-port="0"/>
		<edge from-layer="698" from-port="1" to-layer="702" to-port="1"/>
		<edge from-layer="699" from-port="1" to-layer="702" to-port="2"/>
		<edge from-layer="700" from-port="1" to-layer="702" to-port="3"/>
		<edge from-layer="701" from-port="1" to-layer="702" to-port="4"/>
		<edge from-layer="695" from-port="5" to-layer="703" to-port="0"/>
		<edge from-layer="702" from-port="5" to-layer="703" to-port="1"/>
		<edge from-layer="703" from-port="2" to-layer="705" to-port="0"/>
		<edge from-layer="704" from-port="1" to-layer="705" to-port="1"/>
		<edge from-layer="705" from-port="2" to-layer="710" to-port="0"/>
		<edge from-layer="706" from-port="1" to-layer="710" to-port="1"/>
		<edge from-layer="707" from-port="1" to-layer="710" to-port="2"/>
		<edge from-layer="708" from-port="1" to-layer="710" to-port="3"/>
		<edge from-layer="709" from-port="1" to-layer="710" to-port="4"/>
		<edge from-layer="710" from-port="5" to-layer="711" to-port="0"/>
		<edge from-layer="663" from-port="5" to-layer="711" to-port="1"/>
		<edge from-layer="711" from-port="2" to-layer="712" to-port="0"/>
		<edge from-layer="712" from-port="1" to-layer="717" to-port="0"/>
		<edge from-layer="713" from-port="1" to-layer="717" to-port="1"/>
		<edge from-layer="714" from-port="1" to-layer="717" to-port="2"/>
		<edge from-layer="715" from-port="1" to-layer="717" to-port="3"/>
		<edge from-layer="716" from-port="1" to-layer="717" to-port="4"/>
		<edge from-layer="718" from-port="1" to-layer="719" to-port="0"/>
		<edge from-layer="719" from-port="1" to-layer="724" to-port="0"/>
		<edge from-layer="720" from-port="1" to-layer="724" to-port="1"/>
		<edge from-layer="721" from-port="1" to-layer="724" to-port="2"/>
		<edge from-layer="722" from-port="1" to-layer="724" to-port="3"/>
		<edge from-layer="723" from-port="1" to-layer="724" to-port="4"/>
		<edge from-layer="717" from-port="5" to-layer="725" to-port="0"/>
		<edge from-layer="724" from-port="5" to-layer="725" to-port="1"/>
		<edge from-layer="725" from-port="2" to-layer="727" to-port="0"/>
		<edge from-layer="726" from-port="1" to-layer="727" to-port="1"/>
		<edge from-layer="727" from-port="2" to-layer="728" to-port="0"/>
		<edge from-layer="728" from-port="1" to-layer="733" to-port="0"/>
		<edge from-layer="729" from-port="1" to-layer="733" to-port="1"/>
		<edge from-layer="730" from-port="1" to-layer="733" to-port="2"/>
		<edge from-layer="731" from-port="1" to-layer="733" to-port="3"/>
		<edge from-layer="732" from-port="1" to-layer="733" to-port="4"/>
		<edge from-layer="734" from-port="1" to-layer="735" to-port="0"/>
		<edge from-layer="735" from-port="1" to-layer="740" to-port="0"/>
		<edge from-layer="736" from-port="1" to-layer="740" to-port="1"/>
		<edge from-layer="737" from-port="1" to-layer="740" to-port="2"/>
		<edge from-layer="738" from-port="1" to-layer="740" to-port="3"/>
		<edge from-layer="739" from-port="1" to-layer="740" to-port="4"/>
		<edge from-layer="733" from-port="5" to-layer="741" to-port="0"/>
		<edge from-layer="740" from-port="5" to-layer="741" to-port="1"/>
		<edge from-layer="741" from-port="2" to-layer="743" to-port="0"/>
		<edge from-layer="742" from-port="1" to-layer="743" to-port="1"/>
		<edge from-layer="743" from-port="2" to-layer="744" to-port="0"/>
		<edge from-layer="744" from-port="1" to-layer="749" to-port="0"/>
		<edge from-layer="745" from-port="1" to-layer="749" to-port="1"/>
		<edge from-layer="746" from-port="1" to-layer="749" to-port="2"/>
		<edge from-layer="747" from-port="1" to-layer="749" to-port="3"/>
		<edge from-layer="748" from-port="1" to-layer="749" to-port="4"/>
		<edge from-layer="750" from-port="1" to-layer="751" to-port="0"/>
		<edge from-layer="751" from-port="1" to-layer="756" to-port="0"/>
		<edge from-layer="752" from-port="1" to-layer="756" to-port="1"/>
		<edge from-layer="753" from-port="1" to-layer="756" to-port="2"/>
		<edge from-layer="754" from-port="1" to-layer="756" to-port="3"/>
		<edge from-layer="755" from-port="1" to-layer="756" to-port="4"/>
		<edge from-layer="749" from-port="5" to-layer="757" to-port="0"/>
		<edge from-layer="756" from-port="5" to-layer="757" to-port="1"/>
		<edge from-layer="757" from-port="2" to-layer="759" to-port="0"/>
		<edge from-layer="758" from-port="1" to-layer="759" to-port="1"/>
		<edge from-layer="759" from-port="2" to-layer="764" to-port="0"/>
		<edge from-layer="760" from-port="1" to-layer="764" to-port="1"/>
		<edge from-layer="761" from-port="1" to-layer="764" to-port="2"/>
		<edge from-layer="762" from-port="1" to-layer="764" to-port="3"/>
		<edge from-layer="763" from-port="1" to-layer="764" to-port="4"/>
		<edge from-layer="764" from-port="5" to-layer="765" to-port="0"/>
		<edge from-layer="717" from-port="5" to-layer="765" to-port="1"/>
		<edge from-layer="765" from-port="2" to-layer="766" to-port="0"/>
		<edge from-layer="766" from-port="1" to-layer="771" to-port="0"/>
		<edge from-layer="767" from-port="1" to-layer="771" to-port="1"/>
		<edge from-layer="768" from-port="1" to-layer="771" to-port="2"/>
		<edge from-layer="769" from-port="1" to-layer="771" to-port="3"/>
		<edge from-layer="770" from-port="1" to-layer="771" to-port="4"/>
		<edge from-layer="772" from-port="1" to-layer="773" to-port="0"/>
		<edge from-layer="773" from-port="1" to-layer="778" to-port="0"/>
		<edge from-layer="774" from-port="1" to-layer="778" to-port="1"/>
		<edge from-layer="775" from-port="1" to-layer="778" to-port="2"/>
		<edge from-layer="776" from-port="1" to-layer="778" to-port="3"/>
		<edge from-layer="777" from-port="1" to-layer="778" to-port="4"/>
		<edge from-layer="771" from-port="5" to-layer="779" to-port="0"/>
		<edge from-layer="778" from-port="5" to-layer="779" to-port="1"/>
		<edge from-layer="779" from-port="2" to-layer="781" to-port="0"/>
		<edge from-layer="780" from-port="1" to-layer="781" to-port="1"/>
		<edge from-layer="781" from-port="2" to-layer="782" to-port="0"/>
		<edge from-layer="782" from-port="1" to-layer="787" to-port="0"/>
		<edge from-layer="783" from-port="1" to-layer="787" to-port="1"/>
		<edge from-layer="784" from-port="1" to-layer="787" to-port="2"/>
		<edge from-layer="785" from-port="1" to-layer="787" to-port="3"/>
		<edge from-layer="786" from-port="1" to-layer="787" to-port="4"/>
		<edge from-layer="788" from-port="1" to-layer="789" to-port="0"/>
		<edge from-layer="789" from-port="1" to-layer="794" to-port="0"/>
		<edge from-layer="790" from-port="1" to-layer="794" to-port="1"/>
		<edge from-layer="791" from-port="1" to-layer="794" to-port="2"/>
		<edge from-layer="792" from-port="1" to-layer="794" to-port="3"/>
		<edge from-layer="793" from-port="1" to-layer="794" to-port="4"/>
		<edge from-layer="787" from-port="5" to-layer="795" to-port="0"/>
		<edge from-layer="794" from-port="5" to-layer="795" to-port="1"/>
		<edge from-layer="795" from-port="2" to-layer="797" to-port="0"/>
		<edge from-layer="796" from-port="1" to-layer="797" to-port="1"/>
		<edge from-layer="797" from-port="2" to-layer="798" to-port="0"/>
		<edge from-layer="798" from-port="1" to-layer="803" to-port="0"/>
		<edge from-layer="799" from-port="1" to-layer="803" to-port="1"/>
		<edge from-layer="800" from-port="1" to-layer="803" to-port="2"/>
		<edge from-layer="801" from-port="1" to-layer="803" to-port="3"/>
		<edge from-layer="802" from-port="1" to-layer="803" to-port="4"/>
		<edge from-layer="804" from-port="1" to-layer="805" to-port="0"/>
		<edge from-layer="805" from-port="1" to-layer="810" to-port="0"/>
		<edge from-layer="806" from-port="1" to-layer="810" to-port="1"/>
		<edge from-layer="807" from-port="1" to-layer="810" to-port="2"/>
		<edge from-layer="808" from-port="1" to-layer="810" to-port="3"/>
		<edge from-layer="809" from-port="1" to-layer="810" to-port="4"/>
		<edge from-layer="803" from-port="5" to-layer="811" to-port="0"/>
		<edge from-layer="810" from-port="5" to-layer="811" to-port="1"/>
		<edge from-layer="811" from-port="2" to-layer="813" to-port="0"/>
		<edge from-layer="812" from-port="1" to-layer="813" to-port="1"/>
		<edge from-layer="813" from-port="2" to-layer="818" to-port="0"/>
		<edge from-layer="814" from-port="1" to-layer="818" to-port="1"/>
		<edge from-layer="815" from-port="1" to-layer="818" to-port="2"/>
		<edge from-layer="816" from-port="1" to-layer="818" to-port="3"/>
		<edge from-layer="817" from-port="1" to-layer="818" to-port="4"/>
		<edge from-layer="819" from-port="1" to-layer="820" to-port="0"/>
		<edge from-layer="820" from-port="1" to-layer="825" to-port="0"/>
		<edge from-layer="821" from-port="1" to-layer="825" to-port="1"/>
		<edge from-layer="822" from-port="1" to-layer="825" to-port="2"/>
		<edge from-layer="823" from-port="1" to-layer="825" to-port="3"/>
		<edge from-layer="824" from-port="1" to-layer="825" to-port="4"/>
		<edge from-layer="771" from-port="5" to-layer="826" to-port="0"/>
		<edge from-layer="825" from-port="5" to-layer="826" to-port="1"/>
		<edge from-layer="826" from-port="2" to-layer="828" to-port="0"/>
		<edge from-layer="827" from-port="1" to-layer="828" to-port="1"/>
		<edge from-layer="828" from-port="2" to-layer="833" to-port="0"/>
		<edge from-layer="829" from-port="1" to-layer="833" to-port="1"/>
		<edge from-layer="830" from-port="1" to-layer="833" to-port="2"/>
		<edge from-layer="831" from-port="1" to-layer="833" to-port="3"/>
		<edge from-layer="832" from-port="1" to-layer="833" to-port="4"/>
		<edge from-layer="818" from-port="5" to-layer="834" to-port="0"/>
		<edge from-layer="833" from-port="5" to-layer="834" to-port="1"/>
		<edge from-layer="834" from-port="2" to-layer="835" to-port="0"/>
		<edge from-layer="835" from-port="1" to-layer="840" to-port="0"/>
		<edge from-layer="836" from-port="1" to-layer="840" to-port="1"/>
		<edge from-layer="837" from-port="1" to-layer="840" to-port="2"/>
		<edge from-layer="838" from-port="1" to-layer="840" to-port="3"/>
		<edge from-layer="839" from-port="1" to-layer="840" to-port="4"/>
		<edge from-layer="841" from-port="1" to-layer="842" to-port="0"/>
		<edge from-layer="842" from-port="1" to-layer="847" to-port="0"/>
		<edge from-layer="843" from-port="1" to-layer="847" to-port="1"/>
		<edge from-layer="844" from-port="1" to-layer="847" to-port="2"/>
		<edge from-layer="845" from-port="1" to-layer="847" to-port="3"/>
		<edge from-layer="846" from-port="1" to-layer="847" to-port="4"/>
		<edge from-layer="840" from-port="5" to-layer="848" to-port="0"/>
		<edge from-layer="847" from-port="5" to-layer="848" to-port="1"/>
		<edge from-layer="848" from-port="2" to-layer="850" to-port="0"/>
		<edge from-layer="849" from-port="1" to-layer="850" to-port="1"/>
		<edge from-layer="850" from-port="2" to-layer="851" to-port="0"/>
		<edge from-layer="851" from-port="1" to-layer="856" to-port="0"/>
		<edge from-layer="852" from-port="1" to-layer="856" to-port="1"/>
		<edge from-layer="853" from-port="1" to-layer="856" to-port="2"/>
		<edge from-layer="854" from-port="1" to-layer="856" to-port="3"/>
		<edge from-layer="855" from-port="1" to-layer="856" to-port="4"/>
		<edge from-layer="857" from-port="1" to-layer="858" to-port="0"/>
		<edge from-layer="858" from-port="1" to-layer="863" to-port="0"/>
		<edge from-layer="859" from-port="1" to-layer="863" to-port="1"/>
		<edge from-layer="860" from-port="1" to-layer="863" to-port="2"/>
		<edge from-layer="861" from-port="1" to-layer="863" to-port="3"/>
		<edge from-layer="862" from-port="1" to-layer="863" to-port="4"/>
		<edge from-layer="856" from-port="5" to-layer="864" to-port="0"/>
		<edge from-layer="863" from-port="5" to-layer="864" to-port="1"/>
		<edge from-layer="864" from-port="2" to-layer="866" to-port="0"/>
		<edge from-layer="865" from-port="1" to-layer="866" to-port="1"/>
		<edge from-layer="866" from-port="2" to-layer="867" to-port="0"/>
		<edge from-layer="867" from-port="1" to-layer="872" to-port="0"/>
		<edge from-layer="868" from-port="1" to-layer="872" to-port="1"/>
		<edge from-layer="869" from-port="1" to-layer="872" to-port="2"/>
		<edge from-layer="870" from-port="1" to-layer="872" to-port="3"/>
		<edge from-layer="871" from-port="1" to-layer="872" to-port="4"/>
		<edge from-layer="873" from-port="1" to-layer="874" to-port="0"/>
		<edge from-layer="874" from-port="1" to-layer="879" to-port="0"/>
		<edge from-layer="875" from-port="1" to-layer="879" to-port="1"/>
		<edge from-layer="876" from-port="1" to-layer="879" to-port="2"/>
		<edge from-layer="877" from-port="1" to-layer="879" to-port="3"/>
		<edge from-layer="878" from-port="1" to-layer="879" to-port="4"/>
		<edge from-layer="872" from-port="5" to-layer="880" to-port="0"/>
		<edge from-layer="879" from-port="5" to-layer="880" to-port="1"/>
		<edge from-layer="880" from-port="2" to-layer="882" to-port="0"/>
		<edge from-layer="881" from-port="1" to-layer="882" to-port="1"/>
		<edge from-layer="882" from-port="2" to-layer="887" to-port="0"/>
		<edge from-layer="883" from-port="1" to-layer="887" to-port="1"/>
		<edge from-layer="884" from-port="1" to-layer="887" to-port="2"/>
		<edge from-layer="885" from-port="1" to-layer="887" to-port="3"/>
		<edge from-layer="886" from-port="1" to-layer="887" to-port="4"/>
		<edge from-layer="887" from-port="5" to-layer="888" to-port="0"/>
		<edge from-layer="840" from-port="5" to-layer="888" to-port="1"/>
		<edge from-layer="888" from-port="2" to-layer="889" to-port="0"/>
		<edge from-layer="889" from-port="1" to-layer="894" to-port="0"/>
		<edge from-layer="890" from-port="1" to-layer="894" to-port="1"/>
		<edge from-layer="891" from-port="1" to-layer="894" to-port="2"/>
		<edge from-layer="892" from-port="1" to-layer="894" to-port="3"/>
		<edge from-layer="893" from-port="1" to-layer="894" to-port="4"/>
		<edge from-layer="895" from-port="1" to-layer="896" to-port="0"/>
		<edge from-layer="896" from-port="1" to-layer="901" to-port="0"/>
		<edge from-layer="897" from-port="1" to-layer="901" to-port="1"/>
		<edge from-layer="898" from-port="1" to-layer="901" to-port="2"/>
		<edge from-layer="899" from-port="1" to-layer="901" to-port="3"/>
		<edge from-layer="900" from-port="1" to-layer="901" to-port="4"/>
		<edge from-layer="894" from-port="5" to-layer="902" to-port="0"/>
		<edge from-layer="901" from-port="5" to-layer="902" to-port="1"/>
		<edge from-layer="902" from-port="2" to-layer="904" to-port="0"/>
		<edge from-layer="903" from-port="1" to-layer="904" to-port="1"/>
		<edge from-layer="904" from-port="2" to-layer="905" to-port="0"/>
		<edge from-layer="905" from-port="1" to-layer="910" to-port="0"/>
		<edge from-layer="906" from-port="1" to-layer="910" to-port="1"/>
		<edge from-layer="907" from-port="1" to-layer="910" to-port="2"/>
		<edge from-layer="908" from-port="1" to-layer="910" to-port="3"/>
		<edge from-layer="909" from-port="1" to-layer="910" to-port="4"/>
		<edge from-layer="911" from-port="1" to-layer="912" to-port="0"/>
		<edge from-layer="912" from-port="1" to-layer="917" to-port="0"/>
		<edge from-layer="913" from-port="1" to-layer="917" to-port="1"/>
		<edge from-layer="914" from-port="1" to-layer="917" to-port="2"/>
		<edge from-layer="915" from-port="1" to-layer="917" to-port="3"/>
		<edge from-layer="916" from-port="1" to-layer="917" to-port="4"/>
		<edge from-layer="910" from-port="5" to-layer="918" to-port="0"/>
		<edge from-layer="917" from-port="5" to-layer="918" to-port="1"/>
		<edge from-layer="918" from-port="2" to-layer="920" to-port="0"/>
		<edge from-layer="919" from-port="1" to-layer="920" to-port="1"/>
		<edge from-layer="920" from-port="2" to-layer="921" to-port="0"/>
		<edge from-layer="921" from-port="1" to-layer="926" to-port="0"/>
		<edge from-layer="922" from-port="1" to-layer="926" to-port="1"/>
		<edge from-layer="923" from-port="1" to-layer="926" to-port="2"/>
		<edge from-layer="924" from-port="1" to-layer="926" to-port="3"/>
		<edge from-layer="925" from-port="1" to-layer="926" to-port="4"/>
		<edge from-layer="927" from-port="1" to-layer="928" to-port="0"/>
		<edge from-layer="928" from-port="1" to-layer="933" to-port="0"/>
		<edge from-layer="929" from-port="1" to-layer="933" to-port="1"/>
		<edge from-layer="930" from-port="1" to-layer="933" to-port="2"/>
		<edge from-layer="931" from-port="1" to-layer="933" to-port="3"/>
		<edge from-layer="932" from-port="1" to-layer="933" to-port="4"/>
		<edge from-layer="926" from-port="5" to-layer="934" to-port="0"/>
		<edge from-layer="933" from-port="5" to-layer="934" to-port="1"/>
		<edge from-layer="934" from-port="2" to-layer="936" to-port="0"/>
		<edge from-layer="935" from-port="1" to-layer="936" to-port="1"/>
		<edge from-layer="936" from-port="2" to-layer="941" to-port="0"/>
		<edge from-layer="937" from-port="1" to-layer="941" to-port="1"/>
		<edge from-layer="938" from-port="1" to-layer="941" to-port="2"/>
		<edge from-layer="939" from-port="1" to-layer="941" to-port="3"/>
		<edge from-layer="940" from-port="1" to-layer="941" to-port="4"/>
		<edge from-layer="941" from-port="5" to-layer="942" to-port="0"/>
		<edge from-layer="894" from-port="5" to-layer="942" to-port="1"/>
		<edge from-layer="942" from-port="2" to-layer="943" to-port="0"/>
		<edge from-layer="943" from-port="1" to-layer="948" to-port="0"/>
		<edge from-layer="944" from-port="1" to-layer="948" to-port="1"/>
		<edge from-layer="945" from-port="1" to-layer="948" to-port="2"/>
		<edge from-layer="946" from-port="1" to-layer="948" to-port="3"/>
		<edge from-layer="947" from-port="1" to-layer="948" to-port="4"/>
		<edge from-layer="948" from-port="5" to-layer="950" to-port="0"/>
		<edge from-layer="949" from-port="1" to-layer="950" to-port="1"/>
		<edge from-layer="950" from-port="2" to-layer="955" to-port="0"/>
		<edge from-layer="951" from-port="1" to-layer="955" to-port="1"/>
		<edge from-layer="952" from-port="1" to-layer="955" to-port="2"/>
		<edge from-layer="953" from-port="1" to-layer="955" to-port="3"/>
		<edge from-layer="954" from-port="1" to-layer="955" to-port="4"/>
		<edge from-layer="955" from-port="5" to-layer="957" to-port="0"/>
		<edge from-layer="956" from-port="1" to-layer="957" to-port="1"/>
		<edge from-layer="957" from-port="2" to-layer="959" to-port="0"/>
		<edge from-layer="958" from-port="1" to-layer="959" to-port="1"/>
		<edge from-layer="960" from-port="1" to-layer="961" to-port="0"/>
		<edge from-layer="961" from-port="1" to-layer="966" to-port="0"/>
		<edge from-layer="962" from-port="1" to-layer="966" to-port="1"/>
		<edge from-layer="963" from-port="1" to-layer="966" to-port="2"/>
		<edge from-layer="964" from-port="1" to-layer="966" to-port="3"/>
		<edge from-layer="965" from-port="1" to-layer="966" to-port="4"/>
		<edge from-layer="959" from-port="2" to-layer="967" to-port="0"/>
		<edge from-layer="966" from-port="5" to-layer="967" to-port="1"/>
		<edge from-layer="967" from-port="2" to-layer="969" to-port="0"/>
		<edge from-layer="968" from-port="1" to-layer="969" to-port="1"/>
		<edge from-layer="969" from-port="2" to-layer="970" to-port="0"/>
		<edge from-layer="970" from-port="1" to-layer="971" to-port="0"/>
	</edges>
	<meta_data>
		<MO_version value="unknown version"/>
		<cli_parameters>
			<blobs_as_inputs value="True"/>
			<caffe_parser_path value="DIR"/>
			<data_type value="FP32"/>
			<disable_nhwc_to_nchw value="False"/>
			<disable_omitting_optional value="False"/>
			<disable_resnet_optimization value="False"/>
			<disable_weights_compression value="False"/>
			<enable_concat_optimization value="False"/>
			<enable_flattening_nested_params value="False"/>
			<enable_ssd_gluoncv value="False"/>
			<extensions value="DIR"/>
			<framework value="tf"/>
			<freeze_placeholder_with_value value="{}"/>
			<generate_deprecated_IR_V2 value="False"/>
			<generate_deprecated_IR_V7 value="False"/>
			<generate_experimental_IR_V10 value="True"/>
			<input_model value="DIR/resnet_v1.5_50.pb"/>
			<input_model_is_text value="False"/>
			<input_shape value="(1, 224, 224, 3)"/>
			<k value="DIR/CustomLayersMapping.xml"/>
			<keep_quantize_ops_in_IR value="True"/>
			<keep_shape_ops value="False"/>
			<legacy_mxnet_model value="False"/>
			<log_level value="ERROR"/>
			<mean_scale_values value="[(array([123., 117., 104.]), None)]"/>
			<mean_values value="(123, 117, 104)"/>
			<model_name value="resnet_v1.5_50"/>
			<move_to_preprocess value="False"/>
			<output value="['softmax_tensor']"/>
			<output_dir value="DIR"/>
			<placeholder_data_types value="{}"/>
			<placeholder_shapes value="[  1 224 224   3]"/>
			<progress value="False"/>
			<remove_memory value="False"/>
			<remove_output_softmax value="False"/>
			<reverse_input_channels value="True"/>
			<save_params_from_nd value="False"/>
			<scale_values value="()"/>
			<silent value="False"/>
			<stream_output value="False"/>
			<unset unset_cli_parameters="batch, counts, disable_fusing, disable_gfusing, finegrain_fusing, input, input_checkpoint, input_meta_graph, input_proto, input_symbol, mean_file, mean_file_offsets, nd_prefix_name, pretrained_model_name, saved_model_dir, saved_model_tags, scale, tensorboard_logdir, tensorflow_custom_layer_libraries, tensorflow_custom_operations_config_update, tensorflow_object_detection_api_pipeline_config, tensorflow_use_custom_operations_config, transformations_config"/>
		</cli_parameters>
	</meta_data>
	<quantization_parameters>
		<config>{
		'compression': {
			'target_device': 'CPU',
			'algorithms': [
				{
					'name': 'DefaultQuantization',
					'params': {
						'stat_subset_size': 300,
						'preset': 'performance'
					}
				}
			]
		},
		'engine': {
			'models': [
				{
					'name': 'resnet_v1.5_50',
					'launchers': [
						{
							'framework': 'dlsdk',
							'device': 'CPU',
							'adapter': 'classification'
						}
					],
					'datasets': [
						{
							'name': 'ImageNet2012_bkgr',
							'data_source': 'PATH',
							'annotation': 'PATH',
							'dataset_meta': 'PATH',
							'annotation_conversion': {
								'converter': 'imagenet',
								'annotation_file': 'PATH',
								'labels_file': 'PATH',
								'has_background': true
							},
							'preprocessing': [
								{
									'type': 'resize',
									'size': 256,
									'aspect_ratio_scale': 'greater'
								},
								{
									'type': 'crop',
									'size': 224
								}
							],
							'metrics': [
								{
									'name': 'top1',
									'type': 'accuracy',
									'top_k': 1
								},
								{
									'name': 'top5',
									'type': 'accuracy',
									'top_k': 5
								}
							]
						}
					]
				}
			],
			'stat_requests_number': null,
			'eval_requests_number': null,
			'type': 'accuracy_checker'
		}
	}</config>
		<version value="1.0"/>
		<cli_params value="{'evaluate': False, 'output_dir': 'PATH', 'direct_dump': True, 'log_level': 'DEBUG', 'pbar': False, 'keep_uncompressed_weights': False}"/>
	</quantization_parameters>
</net>
