<?xml version="1.0" ?>
<net name="yolo-v4-tf" version="11">
	<layers>
		<layer id="152" name="image_input" type="Parameter" version="opset1">
			<data element_type="f32" shape="1,416,416,3"/>
			<rt_info>
				<attribute name="fused_names" value="image_input" version="0"/>
				<attribute name="old_api_map_element_type" value="f16" version="0"/>
				<attribute name="old_api_map_order" value="0,2,3,1" version="0"/>
			</rt_info>
			<output>
				<port id="0" names="Func/StatefulPartitionedCall/input/_0:0,image_input,image_input:0" precision="FP32">
					<dim>1</dim>
					<dim>416</dim>
					<dim>416</dim>
					<dim>3</dim>
					<rt_info>
						<attribute layout="[N,H,W,C]" name="layout" version="0"/>
					</rt_info>
				</port>
			</output>
		</layer>
		<layer id="0" name="3103310724036" type="Const" version="opset1">
			<data element_type="f32" offset="0" shape="1,1,1,1" size="4"/>
			<output>
				<port id="0" precision="FP32">
					<dim>1</dim>
					<dim>1</dim>
					<dim>1</dim>
					<dim>1</dim>
				</port>
			</output>
		</layer>
		<layer id="1" name="3104310823163" type="Const" version="opset1">
			<data element_type="f32" offset="4" shape="1,1,1,1" size="4"/>
			<output>
				<port id="0" precision="FP32">
					<dim>1</dim>
					<dim>1</dim>
					<dim>1</dim>
					<dim>1</dim>
				</port>
			</output>
		</layer>
		<layer id="2" name="3105310923007" type="Const" version="opset1">
			<data element_type="f32" offset="0" shape="1,1,1,1" size="4"/>
			<output>
				<port id="0" precision="FP32">
					<dim>1</dim>
					<dim>1</dim>
					<dim>1</dim>
					<dim>1</dim>
				</port>
			</output>
		</layer>
		<layer id="3" name="3106311023556" type="Const" version="opset1">
			<data element_type="f32" offset="4" shape="1,1,1,1" size="4"/>
			<output>
				<port id="0" precision="FP32">
					<dim>1</dim>
					<dim>1</dim>
					<dim>1</dim>
					<dim>1</dim>
				</port>
			</output>
		</layer>
		<layer id="4" name="5333533722527" type="Const" version="opset1">
			<data element_type="f32" offset="8" shape="1,1,1,1" size="4"/>
			<output>
				<port id="0" precision="FP32">
					<dim>1</dim>
					<dim>1</dim>
					<dim>1</dim>
					<dim>1</dim>
				</port>
			</output>
		</layer>
		<layer id="5" name="5334533824084" type="Const" version="opset1">
			<data element_type="f32" offset="12" shape="1,1,1,1" size="4"/>
			<output>
				<port id="0" precision="FP32">
					<dim>1</dim>
					<dim>1</dim>
					<dim>1</dim>
					<dim>1</dim>
				</port>
			</output>
		</layer>
		<layer id="6" name="5335533924123" type="Const" version="opset1">
			<data element_type="f32" offset="8" shape="1,1,1,1" size="4"/>
			<output>
				<port id="0" precision="FP32">
					<dim>1</dim>
					<dim>1</dim>
					<dim>1</dim>
					<dim>1</dim>
				</port>
			</output>
		</layer>
		<layer id="7" name="5336534024111" type="Const" version="opset1">
			<data element_type="f32" offset="12" shape="1,1,1,1" size="4"/>
			<output>
				<port id="0" precision="FP32">
					<dim>1</dim>
					<dim>1</dim>
					<dim>1</dim>
					<dim>1</dim>
				</port>
			</output>
		</layer>
		<layer id="8" name="3253325723784" type="Const" version="opset1">
			<data element_type="f32" offset="16" shape="1,1,1,1" size="4"/>
			<output>
				<port id="0" precision="FP32">
					<dim>1</dim>
					<dim>1</dim>
					<dim>1</dim>
					<dim>1</dim>
				</port>
			</output>
		</layer>
		<layer id="9" name="3254325822962" type="Const" version="opset1">
			<data element_type="f32" offset="20" shape="1,1,1,1" size="4"/>
			<output>
				<port id="0" precision="FP32">
					<dim>1</dim>
					<dim>1</dim>
					<dim>1</dim>
					<dim>1</dim>
				</port>
			</output>
		</layer>
		<layer id="10" name="3255325924096" type="Const" version="opset1">
			<data element_type="f32" offset="16" shape="1,1,1,1" size="4"/>
			<output>
				<port id="0" precision="FP32">
					<dim>1</dim>
					<dim>1</dim>
					<dim>1</dim>
					<dim>1</dim>
				</port>
			</output>
		</layer>
		<layer id="11" name="3256326022053" type="Const" version="opset1">
			<data element_type="f32" offset="20" shape="1,1,1,1" size="4"/>
			<output>
				<port id="0" precision="FP32">
					<dim>1</dim>
					<dim>1</dim>
					<dim>1</dim>
					<dim>1</dim>
				</port>
			</output>
		</layer>
		<layer id="12" name="5503550723670" type="Const" version="opset1">
			<data element_type="f32" offset="24" shape="1,1,1,1" size="4"/>
			<output>
				<port id="0" precision="FP32">
					<dim>1</dim>
					<dim>1</dim>
					<dim>1</dim>
					<dim>1</dim>
				</port>
			</output>
		</layer>
		<layer id="13" name="5504550822011" type="Const" version="opset1">
			<data element_type="f32" offset="28" shape="1,1,1,1" size="4"/>
			<output>
				<port id="0" precision="FP32">
					<dim>1</dim>
					<dim>1</dim>
					<dim>1</dim>
					<dim>1</dim>
				</port>
			</output>
		</layer>
		<layer id="14" name="5505550922377" type="Const" version="opset1">
			<data element_type="f32" offset="24" shape="1,1,1,1" size="4"/>
			<output>
				<port id="0" precision="FP32">
					<dim>1</dim>
					<dim>1</dim>
					<dim>1</dim>
					<dim>1</dim>
				</port>
			</output>
		</layer>
		<layer id="15" name="5506551022587" type="Const" version="opset1">
			<data element_type="f32" offset="28" shape="1,1,1,1" size="4"/>
			<output>
				<port id="0" precision="FP32">
					<dim>1</dim>
					<dim>1</dim>
					<dim>1</dim>
					<dim>1</dim>
				</port>
			</output>
		</layer>
		<layer id="16" name="5253525723889" type="Const" version="opset1">
			<data element_type="f32" offset="32" shape="1,1,1,1" size="4"/>
			<output>
				<port id="0" precision="FP32">
					<dim>1</dim>
					<dim>1</dim>
					<dim>1</dim>
					<dim>1</dim>
				</port>
			</output>
		</layer>
		<layer id="17" name="5254525822080" type="Const" version="opset1">
			<data element_type="f32" offset="36" shape="1,1,1,1" size="4"/>
			<output>
				<port id="0" precision="FP32">
					<dim>1</dim>
					<dim>1</dim>
					<dim>1</dim>
					<dim>1</dim>
				</port>
			</output>
		</layer>
		<layer id="18" name="5255525923655" type="Const" version="opset1">
			<data element_type="f32" offset="32" shape="1,1,1,1" size="4"/>
			<output>
				<port id="0" precision="FP32">
					<dim>1</dim>
					<dim>1</dim>
					<dim>1</dim>
					<dim>1</dim>
				</port>
			</output>
		</layer>
		<layer id="19" name="5256526021801" type="Const" version="opset1">
			<data element_type="f32" offset="36" shape="1,1,1,1" size="4"/>
			<output>
				<port id="0" precision="FP32">
					<dim>1</dim>
					<dim>1</dim>
					<dim>1</dim>
					<dim>1</dim>
				</port>
			</output>
		</layer>
		<layer id="20" name="4913491723997" type="Const" version="opset1">
			<data element_type="f32" offset="40" shape="1,1,1,1" size="4"/>
			<output>
				<port id="0" precision="FP32">
					<dim>1</dim>
					<dim>1</dim>
					<dim>1</dim>
					<dim>1</dim>
				</port>
			</output>
		</layer>
		<layer id="21" name="4914491823565" type="Const" version="opset1">
			<data element_type="f32" offset="44" shape="1,1,1,1" size="4"/>
			<output>
				<port id="0" precision="FP32">
					<dim>1</dim>
					<dim>1</dim>
					<dim>1</dim>
					<dim>1</dim>
				</port>
			</output>
		</layer>
		<layer id="22" name="4915491923883" type="Const" version="opset1">
			<data element_type="f32" offset="40" shape="1,1,1,1" size="4"/>
			<output>
				<port id="0" precision="FP32">
					<dim>1</dim>
					<dim>1</dim>
					<dim>1</dim>
					<dim>1</dim>
				</port>
			</output>
		</layer>
		<layer id="23" name="4916492022758" type="Const" version="opset1">
			<data element_type="f32" offset="44" shape="1,1,1,1" size="4"/>
			<output>
				<port id="0" precision="FP32">
					<dim>1</dim>
					<dim>1</dim>
					<dim>1</dim>
					<dim>1</dim>
				</port>
			</output>
		</layer>
		<layer id="24" name="7278728221873" type="Const" version="opset1">
			<data element_type="f32" offset="48" shape="1,1,1,1" size="4"/>
			<output>
				<port id="0" precision="FP32">
					<dim>1</dim>
					<dim>1</dim>
					<dim>1</dim>
					<dim>1</dim>
				</port>
			</output>
		</layer>
		<layer id="25" name="7279728323466" type="Const" version="opset1">
			<data element_type="f32" offset="52" shape="1,1,1,1" size="4"/>
			<output>
				<port id="0" precision="FP32">
					<dim>1</dim>
					<dim>1</dim>
					<dim>1</dim>
					<dim>1</dim>
				</port>
			</output>
		</layer>
		<layer id="26" name="7280728422659" type="Const" version="opset1">
			<data element_type="f32" offset="48" shape="1,1,1,1" size="4"/>
			<output>
				<port id="0" precision="FP32">
					<dim>1</dim>
					<dim>1</dim>
					<dim>1</dim>
					<dim>1</dim>
				</port>
			</output>
		</layer>
		<layer id="27" name="7281728523238" type="Const" version="opset1">
			<data element_type="f32" offset="52" shape="1,1,1,1" size="4"/>
			<output>
				<port id="0" precision="FP32">
					<dim>1</dim>
					<dim>1</dim>
					<dim>1</dim>
					<dim>1</dim>
				</port>
			</output>
		</layer>
		<layer id="28" name="3213321724213" type="Const" version="opset1">
			<data element_type="f32" offset="56" shape="1,1,1,1" size="4"/>
			<output>
				<port id="0" precision="FP32">
					<dim>1</dim>
					<dim>1</dim>
					<dim>1</dim>
					<dim>1</dim>
				</port>
			</output>
		</layer>
		<layer id="29" name="3214321823844" type="Const" version="opset1">
			<data element_type="f32" offset="60" shape="1,1,1,1" size="4"/>
			<output>
				<port id="0" precision="FP32">
					<dim>1</dim>
					<dim>1</dim>
					<dim>1</dim>
					<dim>1</dim>
				</port>
			</output>
		</layer>
		<layer id="30" name="3215321923610" type="Const" version="opset1">
			<data element_type="f32" offset="56" shape="1,1,1,1" size="4"/>
			<output>
				<port id="0" precision="FP32">
					<dim>1</dim>
					<dim>1</dim>
					<dim>1</dim>
					<dim>1</dim>
				</port>
			</output>
		</layer>
		<layer id="31" name="3216322023820" type="Const" version="opset1">
			<data element_type="f32" offset="60" shape="1,1,1,1" size="4"/>
			<output>
				<port id="0" precision="FP32">
					<dim>1</dim>
					<dim>1</dim>
					<dim>1</dim>
					<dim>1</dim>
				</port>
			</output>
		</layer>
		<layer id="32" name="4173417724639" type="Const" version="opset1">
			<data element_type="f32" offset="64" shape="1,1,1,1" size="4"/>
			<output>
				<port id="0" precision="FP32">
					<dim>1</dim>
					<dim>1</dim>
					<dim>1</dim>
					<dim>1</dim>
				</port>
			</output>
		</layer>
		<layer id="33" name="4174417823277" type="Const" version="opset1">
			<data element_type="f32" offset="68" shape="1,1,1,1" size="4"/>
			<output>
				<port id="0" precision="FP32">
					<dim>1</dim>
					<dim>1</dim>
					<dim>1</dim>
					<dim>1</dim>
				</port>
			</output>
		</layer>
		<layer id="34" name="4175417922374" type="Const" version="opset1">
			<data element_type="f32" offset="64" shape="1,1,1,1" size="4"/>
			<output>
				<port id="0" precision="FP32">
					<dim>1</dim>
					<dim>1</dim>
					<dim>1</dim>
					<dim>1</dim>
				</port>
			</output>
		</layer>
		<layer id="35" name="4176418022122" type="Const" version="opset1">
			<data element_type="f32" offset="68" shape="1,1,1,1" size="4"/>
			<output>
				<port id="0" precision="FP32">
					<dim>1</dim>
					<dim>1</dim>
					<dim>1</dim>
					<dim>1</dim>
				</port>
			</output>
		</layer>
		<layer id="36" name="3933393722251" type="Const" version="opset1">
			<data element_type="f32" offset="72" shape="1,1,1,1" size="4"/>
			<output>
				<port id="0" precision="FP32">
					<dim>1</dim>
					<dim>1</dim>
					<dim>1</dim>
					<dim>1</dim>
				</port>
			</output>
		</layer>
		<layer id="37" name="3934393822095" type="Const" version="opset1">
			<data element_type="f32" offset="76" shape="1,1,1,1" size="4"/>
			<output>
				<port id="0" precision="FP32">
					<dim>1</dim>
					<dim>1</dim>
					<dim>1</dim>
					<dim>1</dim>
				</port>
			</output>
		</layer>
		<layer id="38" name="3935393922749" type="Const" version="opset1">
			<data element_type="f32" offset="72" shape="1,1,1,1" size="4"/>
			<output>
				<port id="0" precision="FP32">
					<dim>1</dim>
					<dim>1</dim>
					<dim>1</dim>
					<dim>1</dim>
				</port>
			</output>
		</layer>
		<layer id="39" name="3936394023886" type="Const" version="opset1">
			<data element_type="f32" offset="76" shape="1,1,1,1" size="4"/>
			<output>
				<port id="0" precision="FP32">
					<dim>1</dim>
					<dim>1</dim>
					<dim>1</dim>
					<dim>1</dim>
				</port>
			</output>
		</layer>
		<layer id="40" name="5033503723253" type="Const" version="opset1">
			<data element_type="f32" offset="80" shape="1,1,1,1" size="4"/>
			<output>
				<port id="0" precision="FP32">
					<dim>1</dim>
					<dim>1</dim>
					<dim>1</dim>
					<dim>1</dim>
				</port>
			</output>
		</layer>
		<layer id="41" name="5034503824438" type="Const" version="opset1">
			<data element_type="f32" offset="84" shape="1,1,1,1" size="4"/>
			<output>
				<port id="0" precision="FP32">
					<dim>1</dim>
					<dim>1</dim>
					<dim>1</dim>
					<dim>1</dim>
				</port>
			</output>
		</layer>
		<layer id="42" name="5035503922692" type="Const" version="opset1">
			<data element_type="f32" offset="80" shape="1,1,1,1" size="4"/>
			<output>
				<port id="0" precision="FP32">
					<dim>1</dim>
					<dim>1</dim>
					<dim>1</dim>
					<dim>1</dim>
				</port>
			</output>
		</layer>
		<layer id="43" name="5036504022179" type="Const" version="opset1">
			<data element_type="f32" offset="84" shape="1,1,1,1" size="4"/>
			<output>
				<port id="0" precision="FP32">
					<dim>1</dim>
					<dim>1</dim>
					<dim>1</dim>
					<dim>1</dim>
				</port>
			</output>
		</layer>
		<layer id="44" name="3433343723928" type="Const" version="opset1">
			<data element_type="f32" offset="88" shape="1,1,1,1" size="4"/>
			<output>
				<port id="0" precision="FP32">
					<dim>1</dim>
					<dim>1</dim>
					<dim>1</dim>
					<dim>1</dim>
				</port>
			</output>
		</layer>
		<layer id="45" name="3434343823115" type="Const" version="opset1">
			<data element_type="f32" offset="92" shape="1,1,1,1" size="4"/>
			<output>
				<port id="0" precision="FP32">
					<dim>1</dim>
					<dim>1</dim>
					<dim>1</dim>
					<dim>1</dim>
				</port>
			</output>
		</layer>
		<layer id="46" name="3435343922800" type="Const" version="opset1">
			<data element_type="f32" offset="88" shape="1,1,1,1" size="4"/>
			<output>
				<port id="0" precision="FP32">
					<dim>1</dim>
					<dim>1</dim>
					<dim>1</dim>
					<dim>1</dim>
				</port>
			</output>
		</layer>
		<layer id="47" name="3436344022848" type="Const" version="opset1">
			<data element_type="f32" offset="92" shape="1,1,1,1" size="4"/>
			<output>
				<port id="0" precision="FP32">
					<dim>1</dim>
					<dim>1</dim>
					<dim>1</dim>
					<dim>1</dim>
				</port>
			</output>
		</layer>
		<layer id="48" name="7258726222170" type="Const" version="opset1">
			<data element_type="f32" offset="96" shape="1,1,1,1" size="4"/>
			<output>
				<port id="0" precision="FP32">
					<dim>1</dim>
					<dim>1</dim>
					<dim>1</dim>
					<dim>1</dim>
				</port>
			</output>
		</layer>
		<layer id="49" name="7259726322857" type="Const" version="opset1">
			<data element_type="f32" offset="100" shape="1,1,1,1" size="4"/>
			<output>
				<port id="0" precision="FP32">
					<dim>1</dim>
					<dim>1</dim>
					<dim>1</dim>
					<dim>1</dim>
				</port>
			</output>
		</layer>
		<layer id="50" name="7260726423262" type="Const" version="opset1">
			<data element_type="f32" offset="96" shape="1,1,1,1" size="4"/>
			<output>
				<port id="0" precision="FP32">
					<dim>1</dim>
					<dim>1</dim>
					<dim>1</dim>
					<dim>1</dim>
				</port>
			</output>
		</layer>
		<layer id="51" name="7261726522761" type="Const" version="opset1">
			<data element_type="f32" offset="100" shape="1,1,1,1" size="4"/>
			<output>
				<port id="0" precision="FP32">
					<dim>1</dim>
					<dim>1</dim>
					<dim>1</dim>
					<dim>1</dim>
				</port>
			</output>
		</layer>
		<layer id="52" name="4833483723208" type="Const" version="opset1">
			<data element_type="f32" offset="104" shape="1,1,1,1" size="4"/>
			<output>
				<port id="0" precision="FP32">
					<dim>1</dim>
					<dim>1</dim>
					<dim>1</dim>
					<dim>1</dim>
				</port>
			</output>
		</layer>
		<layer id="53" name="4834483823112" type="Const" version="opset1">
			<data element_type="f32" offset="108" shape="1,1,1,1" size="4"/>
			<output>
				<port id="0" precision="FP32">
					<dim>1</dim>
					<dim>1</dim>
					<dim>1</dim>
					<dim>1</dim>
				</port>
			</output>
		</layer>
		<layer id="54" name="4835483923154" type="Const" version="opset1">
			<data element_type="f32" offset="104" shape="1,1,1,1" size="4"/>
			<output>
				<port id="0" precision="FP32">
					<dim>1</dim>
					<dim>1</dim>
					<dim>1</dim>
					<dim>1</dim>
				</port>
			</output>
		</layer>
		<layer id="55" name="4836484024069" type="Const" version="opset1">
			<data element_type="f32" offset="108" shape="1,1,1,1" size="4"/>
			<output>
				<port id="0" precision="FP32">
					<dim>1</dim>
					<dim>1</dim>
					<dim>1</dim>
					<dim>1</dim>
				</port>
			</output>
		</layer>
		<layer id="56" name="7088709222017" type="Const" version="opset1">
			<data element_type="f32" offset="112" shape="1,1,1,1" size="4"/>
			<output>
				<port id="0" precision="FP32">
					<dim>1</dim>
					<dim>1</dim>
					<dim>1</dim>
					<dim>1</dim>
				</port>
			</output>
		</layer>
		<layer id="57" name="7089709322215" type="Const" version="opset1">
			<data element_type="f32" offset="116" shape="1,1,1,1" size="4"/>
			<output>
				<port id="0" precision="FP32">
					<dim>1</dim>
					<dim>1</dim>
					<dim>1</dim>
					<dim>1</dim>
				</port>
			</output>
		</layer>
		<layer id="58" name="7090709422821" type="Const" version="opset1">
			<data element_type="f32" offset="112" shape="1,1,1,1" size="4"/>
			<output>
				<port id="0" precision="FP32">
					<dim>1</dim>
					<dim>1</dim>
					<dim>1</dim>
					<dim>1</dim>
				</port>
			</output>
		</layer>
		<layer id="59" name="7091709523181" type="Const" version="opset1">
			<data element_type="f32" offset="116" shape="1,1,1,1" size="4"/>
			<output>
				<port id="0" precision="FP32">
					<dim>1</dim>
					<dim>1</dim>
					<dim>1</dim>
					<dim>1</dim>
				</port>
			</output>
		</layer>
		<layer id="60" name="3613361724591" type="Const" version="opset1">
			<data element_type="f32" offset="120" shape="1,1,1,1" size="4"/>
			<output>
				<port id="0" precision="FP32">
					<dim>1</dim>
					<dim>1</dim>
					<dim>1</dim>
					<dim>1</dim>
				</port>
			</output>
		</layer>
		<layer id="61" name="3614361822797" type="Const" version="opset1">
			<data element_type="f32" offset="124" shape="1,1,1,1" size="4"/>
			<output>
				<port id="0" precision="FP32">
					<dim>1</dim>
					<dim>1</dim>
					<dim>1</dim>
					<dim>1</dim>
				</port>
			</output>
		</layer>
		<layer id="62" name="3615361923562" type="Const" version="opset1">
			<data element_type="f32" offset="120" shape="1,1,1,1" size="4"/>
			<output>
				<port id="0" precision="FP32">
					<dim>1</dim>
					<dim>1</dim>
					<dim>1</dim>
					<dim>1</dim>
				</port>
			</output>
		</layer>
		<layer id="63" name="3616362022287" type="Const" version="opset1">
			<data element_type="f32" offset="124" shape="1,1,1,1" size="4"/>
			<output>
				<port id="0" precision="FP32">
					<dim>1</dim>
					<dim>1</dim>
					<dim>1</dim>
					<dim>1</dim>
				</port>
			</output>
		</layer>
		<layer id="64" name="5523552724612" type="Const" version="opset1">
			<data element_type="f32" offset="128" shape="1,1,1,1" size="4"/>
			<output>
				<port id="0" precision="FP32">
					<dim>1</dim>
					<dim>1</dim>
					<dim>1</dim>
					<dim>1</dim>
				</port>
			</output>
		</layer>
		<layer id="65" name="5524552823373" type="Const" version="opset1">
			<data element_type="f32" offset="132" shape="1,1,1,1" size="4"/>
			<output>
				<port id="0" precision="FP32">
					<dim>1</dim>
					<dim>1</dim>
					<dim>1</dim>
					<dim>1</dim>
				</port>
			</output>
		</layer>
		<layer id="66" name="5525552924861" type="Const" version="opset1">
			<data element_type="f32" offset="128" shape="1,1,1,1" size="4"/>
			<output>
				<port id="0" precision="FP32">
					<dim>1</dim>
					<dim>1</dim>
					<dim>1</dim>
					<dim>1</dim>
				</port>
			</output>
		</layer>
		<layer id="67" name="5526553024222" type="Const" version="opset1">
			<data element_type="f32" offset="132" shape="1,1,1,1" size="4"/>
			<output>
				<port id="0" precision="FP32">
					<dim>1</dim>
					<dim>1</dim>
					<dim>1</dim>
					<dim>1</dim>
				</port>
			</output>
		</layer>
		<layer id="68" name="4493449723502" type="Const" version="opset1">
			<data element_type="f32" offset="136" shape="1,1,1,1" size="4"/>
			<output>
				<port id="0" precision="FP32">
					<dim>1</dim>
					<dim>1</dim>
					<dim>1</dim>
					<dim>1</dim>
				</port>
			</output>
		</layer>
		<layer id="69" name="4494449824261" type="Const" version="opset1">
			<data element_type="f32" offset="140" shape="1,1,1,1" size="4"/>
			<output>
				<port id="0" precision="FP32">
					<dim>1</dim>
					<dim>1</dim>
					<dim>1</dim>
					<dim>1</dim>
				</port>
			</output>
		</layer>
		<layer id="70" name="4495449924747" type="Const" version="opset1">
			<data element_type="f32" offset="136" shape="1,1,1,1" size="4"/>
			<output>
				<port id="0" precision="FP32">
					<dim>1</dim>
					<dim>1</dim>
					<dim>1</dim>
					<dim>1</dim>
				</port>
			</output>
		</layer>
		<layer id="71" name="4496450022935" type="Const" version="opset1">
			<data element_type="f32" offset="140" shape="1,1,1,1" size="4"/>
			<output>
				<port id="0" precision="FP32">
					<dim>1</dim>
					<dim>1</dim>
					<dim>1</dim>
					<dim>1</dim>
				</port>
			</output>
		</layer>
		<layer id="72" name="3553355723517" type="Const" version="opset1">
			<data element_type="f32" offset="144" shape="1,1,1,1" size="4"/>
			<output>
				<port id="0" precision="FP32">
					<dim>1</dim>
					<dim>1</dim>
					<dim>1</dim>
					<dim>1</dim>
				</port>
			</output>
		</layer>
		<layer id="73" name="3554355821843" type="Const" version="opset1">
			<data element_type="f32" offset="148" shape="1,1,1,1" size="4"/>
			<output>
				<port id="0" precision="FP32">
					<dim>1</dim>
					<dim>1</dim>
					<dim>1</dim>
					<dim>1</dim>
				</port>
			</output>
		</layer>
		<layer id="74" name="3555355923448" type="Const" version="opset1">
			<data element_type="f32" offset="144" shape="1,1,1,1" size="4"/>
			<output>
				<port id="0" precision="FP32">
					<dim>1</dim>
					<dim>1</dim>
					<dim>1</dim>
					<dim>1</dim>
				</port>
			</output>
		</layer>
		<layer id="75" name="3556356023634" type="Const" version="opset1">
			<data element_type="f32" offset="148" shape="1,1,1,1" size="4"/>
			<output>
				<port id="0" precision="FP32">
					<dim>1</dim>
					<dim>1</dim>
					<dim>1</dim>
					<dim>1</dim>
				</port>
			</output>
		</layer>
		<layer id="76" name="4853485723403" type="Const" version="opset1">
			<data element_type="f32" offset="152" shape="1,1,1,1" size="4"/>
			<output>
				<port id="0" precision="FP32">
					<dim>1</dim>
					<dim>1</dim>
					<dim>1</dim>
					<dim>1</dim>
				</port>
			</output>
		</layer>
		<layer id="77" name="4854485823793" type="Const" version="opset1">
			<data element_type="f32" offset="156" shape="1,1,1,1" size="4"/>
			<output>
				<port id="0" precision="FP32">
					<dim>1</dim>
					<dim>1</dim>
					<dim>1</dim>
					<dim>1</dim>
				</port>
			</output>
		</layer>
		<layer id="78" name="4855485922467" type="Const" version="opset1">
			<data element_type="f32" offset="152" shape="1,1,1,1" size="4"/>
			<output>
				<port id="0" precision="FP32">
					<dim>1</dim>
					<dim>1</dim>
					<dim>1</dim>
					<dim>1</dim>
				</port>
			</output>
		</layer>
		<layer id="79" name="4856486022980" type="Const" version="opset1">
			<data element_type="f32" offset="156" shape="1,1,1,1" size="4"/>
			<output>
				<port id="0" precision="FP32">
					<dim>1</dim>
					<dim>1</dim>
					<dim>1</dim>
					<dim>1</dim>
				</port>
			</output>
		</layer>
		<layer id="80" name="3373337721966" type="Const" version="opset1">
			<data element_type="f32" offset="160" shape="1,1,1,1" size="4"/>
			<output>
				<port id="0" precision="FP32">
					<dim>1</dim>
					<dim>1</dim>
					<dim>1</dim>
					<dim>1</dim>
				</port>
			</output>
		</layer>
		<layer id="81" name="3374337824819" type="Const" version="opset1">
			<data element_type="f32" offset="164" shape="1,1,1,1" size="4"/>
			<output>
				<port id="0" precision="FP32">
					<dim>1</dim>
					<dim>1</dim>
					<dim>1</dim>
					<dim>1</dim>
				</port>
			</output>
		</layer>
		<layer id="82" name="3375337924645" type="Const" version="opset1">
			<data element_type="f32" offset="160" shape="1,1,1,1" size="4"/>
			<output>
				<port id="0" precision="FP32">
					<dim>1</dim>
					<dim>1</dim>
					<dim>1</dim>
					<dim>1</dim>
				</port>
			</output>
		</layer>
		<layer id="83" name="3376338022884" type="Const" version="opset1">
			<data element_type="f32" offset="164" shape="1,1,1,1" size="4"/>
			<output>
				<port id="0" precision="FP32">
					<dim>1</dim>
					<dim>1</dim>
					<dim>1</dim>
					<dim>1</dim>
				</port>
			</output>
		</layer>
		<layer id="84" name="5443544721834" type="Const" version="opset1">
			<data element_type="f32" offset="168" shape="1,1,1,1" size="4"/>
			<output>
				<port id="0" precision="FP32">
					<dim>1</dim>
					<dim>1</dim>
					<dim>1</dim>
					<dim>1</dim>
				</port>
			</output>
		</layer>
		<layer id="85" name="5444544823979" type="Const" version="opset1">
			<data element_type="f32" offset="172" shape="1,1,1,1" size="4"/>
			<output>
				<port id="0" precision="FP32">
					<dim>1</dim>
					<dim>1</dim>
					<dim>1</dim>
					<dim>1</dim>
				</port>
			</output>
		</layer>
		<layer id="86" name="5445544923352" type="Const" version="opset1">
			<data element_type="f32" offset="168" shape="1,1,1,1" size="4"/>
			<output>
				<port id="0" precision="FP32">
					<dim>1</dim>
					<dim>1</dim>
					<dim>1</dim>
					<dim>1</dim>
				</port>
			</output>
		</layer>
		<layer id="87" name="5446545022341" type="Const" version="opset1">
			<data element_type="f32" offset="172" shape="1,1,1,1" size="4"/>
			<output>
				<port id="0" precision="FP32">
					<dim>1</dim>
					<dim>1</dim>
					<dim>1</dim>
					<dim>1</dim>
				</port>
			</output>
		</layer>
		<layer id="88" name="5543554723667" type="Const" version="opset1">
			<data element_type="f32" offset="176" shape="1,1,1,1" size="4"/>
			<output>
				<port id="0" precision="FP32">
					<dim>1</dim>
					<dim>1</dim>
					<dim>1</dim>
					<dim>1</dim>
				</port>
			</output>
		</layer>
		<layer id="89" name="5544554823070" type="Const" version="opset1">
			<data element_type="f32" offset="180" shape="1,1,1,1" size="4"/>
			<output>
				<port id="0" precision="FP32">
					<dim>1</dim>
					<dim>1</dim>
					<dim>1</dim>
					<dim>1</dim>
				</port>
			</output>
		</layer>
		<layer id="90" name="5545554924777" type="Const" version="opset1">
			<data element_type="f32" offset="176" shape="1,1,1,1" size="4"/>
			<output>
				<port id="0" precision="FP32">
					<dim>1</dim>
					<dim>1</dim>
					<dim>1</dim>
					<dim>1</dim>
				</port>
			</output>
		</layer>
		<layer id="91" name="5546555022785" type="Const" version="opset1">
			<data element_type="f32" offset="180" shape="1,1,1,1" size="4"/>
			<output>
				<port id="0" precision="FP32">
					<dim>1</dim>
					<dim>1</dim>
					<dim>1</dim>
					<dim>1</dim>
				</port>
			</output>
		</layer>
		<layer id="92" name="4473447723349" type="Const" version="opset1">
			<data element_type="f32" offset="184" shape="1,1,1,1" size="4"/>
			<output>
				<port id="0" precision="FP32">
					<dim>1</dim>
					<dim>1</dim>
					<dim>1</dim>
					<dim>1</dim>
				</port>
			</output>
		</layer>
		<layer id="93" name="4474447822278" type="Const" version="opset1">
			<data element_type="f32" offset="188" shape="1,1,1,1" size="4"/>
			<output>
				<port id="0" precision="FP32">
					<dim>1</dim>
					<dim>1</dim>
					<dim>1</dim>
					<dim>1</dim>
				</port>
			</output>
		</layer>
		<layer id="94" name="4475447922368" type="Const" version="opset1">
			<data element_type="f32" offset="184" shape="1,1,1,1" size="4"/>
			<output>
				<port id="0" precision="FP32">
					<dim>1</dim>
					<dim>1</dim>
					<dim>1</dim>
					<dim>1</dim>
				</port>
			</output>
		</layer>
		<layer id="95" name="4476448022353" type="Const" version="opset1">
			<data element_type="f32" offset="188" shape="1,1,1,1" size="4"/>
			<output>
				<port id="0" precision="FP32">
					<dim>1</dim>
					<dim>1</dim>
					<dim>1</dim>
					<dim>1</dim>
				</port>
			</output>
		</layer>
		<layer id="96" name="4293429723493" type="Const" version="opset1">
			<data element_type="f32" offset="192" shape="1,1,1,1" size="4"/>
			<output>
				<port id="0" precision="FP32">
					<dim>1</dim>
					<dim>1</dim>
					<dim>1</dim>
					<dim>1</dim>
				</port>
			</output>
		</layer>
		<layer id="97" name="4294429822575" type="Const" version="opset1">
			<data element_type="f32" offset="196" shape="1,1,1,1" size="4"/>
			<output>
				<port id="0" precision="FP32">
					<dim>1</dim>
					<dim>1</dim>
					<dim>1</dim>
					<dim>1</dim>
				</port>
			</output>
		</layer>
		<layer id="98" name="4295429922557" type="Const" version="opset1">
			<data element_type="f32" offset="192" shape="1,1,1,1" size="4"/>
			<output>
				<port id="0" precision="FP32">
					<dim>1</dim>
					<dim>1</dim>
					<dim>1</dim>
					<dim>1</dim>
				</port>
			</output>
		</layer>
		<layer id="99" name="4296430021849" type="Const" version="opset1">
			<data element_type="f32" offset="196" shape="1,1,1,1" size="4"/>
			<output>
				<port id="0" precision="FP32">
					<dim>1</dim>
					<dim>1</dim>
					<dim>1</dim>
					<dim>1</dim>
				</port>
			</output>
		</layer>
		<layer id="100" name="5013501723271" type="Const" version="opset1">
			<data element_type="f32" offset="200" shape="1,1,1,1" size="4"/>
			<output>
				<port id="0" precision="FP32">
					<dim>1</dim>
					<dim>1</dim>
					<dim>1</dim>
					<dim>1</dim>
				</port>
			</output>
		</layer>
		<layer id="101" name="5014501822839" type="Const" version="opset1">
			<data element_type="f32" offset="204" shape="1,1,1,1" size="4"/>
			<output>
				<port id="0" precision="FP32">
					<dim>1</dim>
					<dim>1</dim>
					<dim>1</dim>
					<dim>1</dim>
				</port>
			</output>
		</layer>
		<layer id="102" name="5015501924684" type="Const" version="opset1">
			<data element_type="f32" offset="200" shape="1,1,1,1" size="4"/>
			<output>
				<port id="0" precision="FP32">
					<dim>1</dim>
					<dim>1</dim>
					<dim>1</dim>
					<dim>1</dim>
				</port>
			</output>
		</layer>
		<layer id="103" name="5016502024843" type="Const" version="opset1">
			<data element_type="f32" offset="204" shape="1,1,1,1" size="4"/>
			<output>
				<port id="0" precision="FP32">
					<dim>1</dim>
					<dim>1</dim>
					<dim>1</dim>
					<dim>1</dim>
				</port>
			</output>
		</layer>
		<layer id="104" name="7068707223427" type="Const" version="opset1">
			<data element_type="f32" offset="208" shape="1,1,1,1" size="4"/>
			<output>
				<port id="0" precision="FP32">
					<dim>1</dim>
					<dim>1</dim>
					<dim>1</dim>
					<dim>1</dim>
				</port>
			</output>
		</layer>
		<layer id="105" name="7069707322461" type="Const" version="opset1">
			<data element_type="f32" offset="212" shape="1,1,1,1" size="4"/>
			<output>
				<port id="0" precision="FP32">
					<dim>1</dim>
					<dim>1</dim>
					<dim>1</dim>
					<dim>1</dim>
				</port>
			</output>
		</layer>
		<layer id="106" name="7070707422947" type="Const" version="opset1">
			<data element_type="f32" offset="208" shape="1,1,1,1" size="4"/>
			<output>
				<port id="0" precision="FP32">
					<dim>1</dim>
					<dim>1</dim>
					<dim>1</dim>
					<dim>1</dim>
				</port>
			</output>
		</layer>
		<layer id="107" name="7071707523919" type="Const" version="opset1">
			<data element_type="f32" offset="212" shape="1,1,1,1" size="4"/>
			<output>
				<port id="0" precision="FP32">
					<dim>1</dim>
					<dim>1</dim>
					<dim>1</dim>
					<dim>1</dim>
				</port>
			</output>
		</layer>
		<layer id="108" name="4653465724246" type="Const" version="opset1">
			<data element_type="f32" offset="216" shape="1,1,1,1" size="4"/>
			<output>
				<port id="0" precision="FP32">
					<dim>1</dim>
					<dim>1</dim>
					<dim>1</dim>
					<dim>1</dim>
				</port>
			</output>
		</layer>
		<layer id="109" name="4654465824492" type="Const" version="opset1">
			<data element_type="f32" offset="220" shape="1,1,1,1" size="4"/>
			<output>
				<port id="0" precision="FP32">
					<dim>1</dim>
					<dim>1</dim>
					<dim>1</dim>
					<dim>1</dim>
				</port>
			</output>
		</layer>
		<layer id="110" name="4655465922911" type="Const" version="opset1">
			<data element_type="f32" offset="216" shape="1,1,1,1" size="4"/>
			<output>
				<port id="0" precision="FP32">
					<dim>1</dim>
					<dim>1</dim>
					<dim>1</dim>
					<dim>1</dim>
				</port>
			</output>
		</layer>
		<layer id="111" name="4656466023625" type="Const" version="opset1">
			<data element_type="f32" offset="220" shape="1,1,1,1" size="4"/>
			<output>
				<port id="0" precision="FP32">
					<dim>1</dim>
					<dim>1</dim>
					<dim>1</dim>
					<dim>1</dim>
				</port>
			</output>
		</layer>
		<layer id="112" name="4213421722818" type="Const" version="opset1">
			<data element_type="f32" offset="224" shape="1,1,1,1" size="4"/>
			<output>
				<port id="0" precision="FP32">
					<dim>1</dim>
					<dim>1</dim>
					<dim>1</dim>
					<dim>1</dim>
				</port>
			</output>
		</layer>
		<layer id="113" name="4214421823052" type="Const" version="opset1">
			<data element_type="f32" offset="228" shape="1,1,1,1" size="4"/>
			<output>
				<port id="0" precision="FP32">
					<dim>1</dim>
					<dim>1</dim>
					<dim>1</dim>
					<dim>1</dim>
				</port>
			</output>
		</layer>
		<layer id="114" name="4215421922893" type="Const" version="opset1">
			<data element_type="f32" offset="224" shape="1,1,1,1" size="4"/>
			<output>
				<port id="0" precision="FP32">
					<dim>1</dim>
					<dim>1</dim>
					<dim>1</dim>
					<dim>1</dim>
				</port>
			</output>
		</layer>
		<layer id="115" name="4216422023229" type="Const" version="opset1">
			<data element_type="f32" offset="228" shape="1,1,1,1" size="4"/>
			<output>
				<port id="0" precision="FP32">
					<dim>1</dim>
					<dim>1</dim>
					<dim>1</dim>
					<dim>1</dim>
				</port>
			</output>
		</layer>
		<layer id="116" name="3673367723109" type="Const" version="opset1">
			<data element_type="f32" offset="232" shape="1,1,1,1" size="4"/>
			<output>
				<port id="0" precision="FP32">
					<dim>1</dim>
					<dim>1</dim>
					<dim>1</dim>
					<dim>1</dim>
				</port>
			</output>
		</layer>
		<layer id="117" name="3674367824522" type="Const" version="opset1">
			<data element_type="f32" offset="236" shape="1,1,1,1" size="4"/>
			<output>
				<port id="0" precision="FP32">
					<dim>1</dim>
					<dim>1</dim>
					<dim>1</dim>
					<dim>1</dim>
				</port>
			</output>
		</layer>
		<layer id="118" name="3675367922521" type="Const" version="opset1">
			<data element_type="f32" offset="232" shape="1,1,1,1" size="4"/>
			<output>
				<port id="0" precision="FP32">
					<dim>1</dim>
					<dim>1</dim>
					<dim>1</dim>
					<dim>1</dim>
				</port>
			</output>
		</layer>
		<layer id="119" name="3676368022347" type="Const" version="opset1">
			<data element_type="f32" offset="236" shape="1,1,1,1" size="4"/>
			<output>
				<port id="0" precision="FP32">
					<dim>1</dim>
					<dim>1</dim>
					<dim>1</dim>
					<dim>1</dim>
				</port>
			</output>
		</layer>
		<layer id="120" name="4793479722314" type="Const" version="opset1">
			<data element_type="f32" offset="200" shape="1,1,1,1" size="4"/>
			<output>
				<port id="0" precision="FP32">
					<dim>1</dim>
					<dim>1</dim>
					<dim>1</dim>
					<dim>1</dim>
				</port>
			</output>
		</layer>
		<layer id="121" name="4794479823991" type="Const" version="opset1">
			<data element_type="f32" offset="240" shape="1,1,1,1" size="4"/>
			<output>
				<port id="0" precision="FP32">
					<dim>1</dim>
					<dim>1</dim>
					<dim>1</dim>
					<dim>1</dim>
				</port>
			</output>
		</layer>
		<layer id="122" name="4795479923340" type="Const" version="opset1">
			<data element_type="f32" offset="200" shape="1,1,1,1" size="4"/>
			<output>
				<port id="0" precision="FP32">
					<dim>1</dim>
					<dim>1</dim>
					<dim>1</dim>
					<dim>1</dim>
				</port>
			</output>
		</layer>
		<layer id="123" name="4796480021957" type="Const" version="opset1">
			<data element_type="f32" offset="240" shape="1,1,1,1" size="4"/>
			<output>
				<port id="0" precision="FP32">
					<dim>1</dim>
					<dim>1</dim>
					<dim>1</dim>
					<dim>1</dim>
				</port>
			</output>
		</layer>
		<layer id="124" name="3953395723169" type="Const" version="opset1">
			<data element_type="f32" offset="244" shape="1,1,1,1" size="4"/>
			<output>
				<port id="0" precision="FP32">
					<dim>1</dim>
					<dim>1</dim>
					<dim>1</dim>
					<dim>1</dim>
				</port>
			</output>
		</layer>
		<layer id="125" name="3954395824783" type="Const" version="opset1">
			<data element_type="f32" offset="248" shape="1,1,1,1" size="4"/>
			<output>
				<port id="0" precision="FP32">
					<dim>1</dim>
					<dim>1</dim>
					<dim>1</dim>
					<dim>1</dim>
				</port>
			</output>
		</layer>
		<layer id="126" name="3955395924033" type="Const" version="opset1">
			<data element_type="f32" offset="244" shape="1,1,1,1" size="4"/>
			<output>
				<port id="0" precision="FP32">
					<dim>1</dim>
					<dim>1</dim>
					<dim>1</dim>
					<dim>1</dim>
				</port>
			</output>
		</layer>
		<layer id="127" name="3956396024789" type="Const" version="opset1">
			<data element_type="f32" offset="248" shape="1,1,1,1" size="4"/>
			<output>
				<port id="0" precision="FP32">
					<dim>1</dim>
					<dim>1</dim>
					<dim>1</dim>
					<dim>1</dim>
				</port>
			</output>
		</layer>
		<layer id="128" name="7128713222767" type="Const" version="opset1">
			<data element_type="f32" offset="252" shape="1,1,1,1" size="4"/>
			<output>
				<port id="0" precision="FP32">
					<dim>1</dim>
					<dim>1</dim>
					<dim>1</dim>
					<dim>1</dim>
				</port>
			</output>
		</layer>
		<layer id="129" name="7129713324888" type="Const" version="opset1">
			<data element_type="f32" offset="256" shape="1,1,1,1" size="4"/>
			<output>
				<port id="0" precision="FP32">
					<dim>1</dim>
					<dim>1</dim>
					<dim>1</dim>
					<dim>1</dim>
				</port>
			</output>
		</layer>
		<layer id="130" name="7130713422656" type="Const" version="opset1">
			<data element_type="f32" offset="252" shape="1,1,1,1" size="4"/>
			<output>
				<port id="0" precision="FP32">
					<dim>1</dim>
					<dim>1</dim>
					<dim>1</dim>
					<dim>1</dim>
				</port>
			</output>
		</layer>
		<layer id="131" name="7131713522140" type="Const" version="opset1">
			<data element_type="f32" offset="256" shape="1,1,1,1" size="4"/>
			<output>
				<port id="0" precision="FP32">
					<dim>1</dim>
					<dim>1</dim>
					<dim>1</dim>
					<dim>1</dim>
				</port>
			</output>
		</layer>
		<layer id="132" name="3913391722161" type="Const" version="opset1">
			<data element_type="f32" offset="260" shape="1,1,1,1" size="4"/>
			<output>
				<port id="0" precision="FP32">
					<dim>1</dim>
					<dim>1</dim>
					<dim>1</dim>
					<dim>1</dim>
				</port>
			</output>
		</layer>
		<layer id="133" name="3914391822905" type="Const" version="opset1">
			<data element_type="f32" offset="264" shape="1,1,1,1" size="4"/>
			<output>
				<port id="0" precision="FP32">
					<dim>1</dim>
					<dim>1</dim>
					<dim>1</dim>
					<dim>1</dim>
				</port>
			</output>
		</layer>
		<layer id="134" name="3915391922740" type="Const" version="opset1">
			<data element_type="f32" offset="260" shape="1,1,1,1" size="4"/>
			<output>
				<port id="0" precision="FP32">
					<dim>1</dim>
					<dim>1</dim>
					<dim>1</dim>
					<dim>1</dim>
				</port>
			</output>
		</layer>
		<layer id="135" name="3916392022449" type="Const" version="opset1">
			<data element_type="f32" offset="264" shape="1,1,1,1" size="4"/>
			<output>
				<port id="0" precision="FP32">
					<dim>1</dim>
					<dim>1</dim>
					<dim>1</dim>
					<dim>1</dim>
				</port>
			</output>
		</layer>
		<layer id="136" name="5273527722248" type="Const" version="opset1">
			<data element_type="f32" offset="268" shape="1,1,1,1" size="4"/>
			<output>
				<port id="0" precision="FP32">
					<dim>1</dim>
					<dim>1</dim>
					<dim>1</dim>
					<dim>1</dim>
				</port>
			</output>
		</layer>
		<layer id="137" name="5274527824282" type="Const" version="opset1">
			<data element_type="f32" offset="272" shape="1,1,1,1" size="4"/>
			<output>
				<port id="0" precision="FP32">
					<dim>1</dim>
					<dim>1</dim>
					<dim>1</dim>
					<dim>1</dim>
				</port>
			</output>
		</layer>
		<layer id="138" name="5275527923613" type="Const" version="opset1">
			<data element_type="f32" offset="268" shape="1,1,1,1" size="4"/>
			<output>
				<port id="0" precision="FP32">
					<dim>1</dim>
					<dim>1</dim>
					<dim>1</dim>
					<dim>1</dim>
				</port>
			</output>
		</layer>
		<layer id="139" name="5276528023607" type="Const" version="opset1">
			<data element_type="f32" offset="272" shape="1,1,1,1" size="4"/>
			<output>
				<port id="0" precision="FP32">
					<dim>1</dim>
					<dim>1</dim>
					<dim>1</dim>
					<dim>1</dim>
				</port>
			</output>
		</layer>
		<layer id="140" name="4093409723421" type="Const" version="opset1">
			<data element_type="f32" offset="276" shape="1,1,1,1" size="4"/>
			<output>
				<port id="0" precision="FP32">
					<dim>1</dim>
					<dim>1</dim>
					<dim>1</dim>
					<dim>1</dim>
				</port>
			</output>
		</layer>
		<layer id="141" name="4094409824075" type="Const" version="opset1">
			<data element_type="f32" offset="280" shape="1,1,1,1" size="4"/>
			<output>
				<port id="0" precision="FP32">
					<dim>1</dim>
					<dim>1</dim>
					<dim>1</dim>
					<dim>1</dim>
				</port>
			</output>
		</layer>
		<layer id="142" name="4095409922167" type="Const" version="opset1">
			<data element_type="f32" offset="276" shape="1,1,1,1" size="4"/>
			<output>
				<port id="0" precision="FP32">
					<dim>1</dim>
					<dim>1</dim>
					<dim>1</dim>
					<dim>1</dim>
				</port>
			</output>
		</layer>
		<layer id="143" name="4096410024786" type="Const" version="opset1">
			<data element_type="f32" offset="280" shape="1,1,1,1" size="4"/>
			<output>
				<port id="0" precision="FP32">
					<dim>1</dim>
					<dim>1</dim>
					<dim>1</dim>
					<dim>1</dim>
				</port>
			</output>
		</layer>
		<layer id="144" name="5153515724810" type="Const" version="opset1">
			<data element_type="f32" offset="284" shape="1,1,1,1" size="4"/>
			<output>
				<port id="0" precision="FP32">
					<dim>1</dim>
					<dim>1</dim>
					<dim>1</dim>
					<dim>1</dim>
				</port>
			</output>
		</layer>
		<layer id="145" name="5154515823289" type="Const" version="opset1">
			<data element_type="f32" offset="288" shape="1,1,1,1" size="4"/>
			<output>
				<port id="0" precision="FP32">
					<dim>1</dim>
					<dim>1</dim>
					<dim>1</dim>
					<dim>1</dim>
				</port>
			</output>
		</layer>
		<layer id="146" name="5155515924570" type="Const" version="opset1">
			<data element_type="f32" offset="284" shape="1,1,1,1" size="4"/>
			<output>
				<port id="0" precision="FP32">
					<dim>1</dim>
					<dim>1</dim>
					<dim>1</dim>
					<dim>1</dim>
				</port>
			</output>
		</layer>
		<layer id="147" name="5156516023523" type="Const" version="opset1">
			<data element_type="f32" offset="288" shape="1,1,1,1" size="4"/>
			<output>
				<port id="0" precision="FP32">
					<dim>1</dim>
					<dim>1</dim>
					<dim>1</dim>
					<dim>1</dim>
				</port>
			</output>
		</layer>
		<layer id="148" name="7038704221945" type="Const" version="opset1">
			<data element_type="f32" offset="292" shape="1,1,1,1" size="4"/>
			<output>
				<port id="0" precision="FP32">
					<dim>1</dim>
					<dim>1</dim>
					<dim>1</dim>
					<dim>1</dim>
				</port>
			</output>
		</layer>
		<layer id="149" name="7039704324720" type="Const" version="opset1">
			<data element_type="f32" offset="296" shape="1,1,1,1" size="4"/>
			<output>
				<port id="0" precision="FP32">
					<dim>1</dim>
					<dim>1</dim>
					<dim>1</dim>
					<dim>1</dim>
				</port>
			</output>
		</layer>
		<layer id="150" name="7040704424537" type="Const" version="opset1">
			<data element_type="f32" offset="292" shape="1,1,1,1" size="4"/>
			<output>
				<port id="0" precision="FP32">
					<dim>1</dim>
					<dim>1</dim>
					<dim>1</dim>
					<dim>1</dim>
				</port>
			</output>
		</layer>
		<layer id="151" name="7041704524231" type="Const" version="opset1">
			<data element_type="f32" offset="296" shape="1,1,1,1" size="4"/>
			<output>
				<port id="0" precision="FP32">
					<dim>1</dim>
					<dim>1</dim>
					<dim>1</dim>
					<dim>1</dim>
				</port>
			</output>
		</layer>
		<layer id="153" name="Divide_1783/fq_input_0" type="FakeQuantize" version="opset1">
			<data auto_broadcast="numpy" levels="256"/>
			<input>
				<port id="0">
					<dim>1</dim>
					<dim>416</dim>
					<dim>416</dim>
					<dim>3</dim>
				</port>
				<port id="1">
					<dim>1</dim>
					<dim>1</dim>
					<dim>1</dim>
					<dim>1</dim>
				</port>
				<port id="2">
					<dim>1</dim>
					<dim>1</dim>
					<dim>1</dim>
					<dim>1</dim>
				</port>
				<port id="3">
					<dim>1</dim>
					<dim>1</dim>
					<dim>1</dim>
					<dim>1</dim>
				</port>
				<port id="4">
					<dim>1</dim>
					<dim>1</dim>
					<dim>1</dim>
					<dim>1</dim>
				</port>
			</input>
			<output>
				<port id="5" precision="FP32">
					<dim>1</dim>
					<dim>416</dim>
					<dim>416</dim>
					<dim>3</dim>
				</port>
			</output>
		</layer>
		<layer id="154" name="image_input/Transpose([0 3 1 2])/value2782136518935" type="Const" version="opset1">
			<data element_type="i64" offset="300" shape="4" size="32"/>
			<rt_info>
				<attribute name="fused_names" value="image_input/Transpose([0 3 1 2])/value2782136518" version="0"/>
			</rt_info>
			<output>
				<port id="0" precision="I64">
					<dim>4</dim>
				</port>
			</output>
		</layer>
		<layer id="155" name="Divide_1783" type="Transpose" version="opset1">
			<rt_info>
				<attribute name="fused_names" value="Divide_1783, image_input/Transpose([0 3 1 2])" version="0"/>
				<attribute name="preprocessing" version="0"/>
			</rt_info>
			<input>
				<port id="0">
					<dim>1</dim>
					<dim>416</dim>
					<dim>416</dim>
					<dim>3</dim>
				</port>
				<port id="1">
					<dim>4</dim>
				</port>
			</input>
			<output>
				<port id="2" precision="FP32">
					<dim>1</dim>
					<dim>3</dim>
					<dim>416</dim>
					<dim>416</dim>
				</port>
			</output>
		</layer>
		<layer id="156" name="Gather_349093812466/restored_convert/quantized1522722086" type="Const" version="opset1">
			<data element_type="i8" offset="332" shape="32,3,3,3" size="864"/>
			<output>
				<port id="0" precision="I8">
					<dim>32</dim>
					<dim>3</dim>
					<dim>3</dim>
					<dim>3</dim>
				</port>
			</output>
		</layer>
		<layer id="157" name="Gather_349093812466/restored_convert/quantized/to_f32" type="Convert" version="opset1">
			<data destination_type="f32"/>
			<input>
				<port id="0">
					<dim>32</dim>
					<dim>3</dim>
					<dim>3</dim>
					<dim>3</dim>
				</port>
			</input>
			<output>
				<port id="1" precision="FP32">
					<dim>32</dim>
					<dim>3</dim>
					<dim>3</dim>
					<dim>3</dim>
				</port>
			</output>
		</layer>
		<layer id="158" name="StatefulPartitionedCall/model/conv2d/Conv2D/fq_weights_1/zero_point1524623481" type="Const" version="opset1">
			<data element_type="f32" offset="1196" shape="32,1,1,1" size="128"/>
			<output>
				<port id="0" precision="FP32">
					<dim>32</dim>
					<dim>1</dim>
					<dim>1</dim>
					<dim>1</dim>
				</port>
			</output>
		</layer>
		<layer id="159" name="StatefulPartitionedCall/model/conv2d/Conv2D/fq_weights_1/minus_zp" type="Subtract" version="opset1">
			<data auto_broadcast="numpy"/>
			<input>
				<port id="0">
					<dim>32</dim>
					<dim>3</dim>
					<dim>3</dim>
					<dim>3</dim>
				</port>
				<port id="1">
					<dim>32</dim>
					<dim>1</dim>
					<dim>1</dim>
					<dim>1</dim>
				</port>
			</input>
			<output>
				<port id="2" precision="FP32">
					<dim>32</dim>
					<dim>3</dim>
					<dim>3</dim>
					<dim>3</dim>
				</port>
			</output>
		</layer>
		<layer id="160" name="StatefulPartitionedCall/model/conv2d/Conv2D/fq_weights_1/scale1523521804" type="Const" version="opset1">
			<data element_type="f32" offset="1324" shape="32,1,1,1" size="128"/>
			<output>
				<port id="0" precision="FP32">
					<dim>32</dim>
					<dim>1</dim>
					<dim>1</dim>
					<dim>1</dim>
				</port>
			</output>
		</layer>
		<layer id="161" name="StatefulPartitionedCall/model/conv2d/Conv2D/fq_weights_1/mulpiply_by_scale" type="Multiply" version="opset1">
			<data auto_broadcast="numpy"/>
			<input>
				<port id="0">
					<dim>32</dim>
					<dim>3</dim>
					<dim>3</dim>
					<dim>3</dim>
				</port>
				<port id="1">
					<dim>32</dim>
					<dim>1</dim>
					<dim>1</dim>
					<dim>1</dim>
				</port>
			</input>
			<output>
				<port id="2" precision="FP32">
					<dim>32</dim>
					<dim>3</dim>
					<dim>3</dim>
					<dim>3</dim>
				</port>
			</output>
		</layer>
		<layer id="162" name="StatefulPartitionedCall/model/conv2d/Conv2D" type="Convolution" version="opset1">
			<data auto_pad="same_upper" dilations="1,1" pads_begin="0,0" pads_end="0,0" strides="1,1"/>
			<rt_info>
				<attribute name="fused_names" value="Constant_1782, Divide_1783, StatefulPartitionedCall/model/batch_normalization/FusedBatchNormV3/mean/Fused_Mul__copy, StatefulPartitionedCall/model/conv2d/Conv2D, image_input/Transpose([0 3 1 2])" version="0"/>
				<attribute name="preprocessing" version="0"/>
			</rt_info>
			<input>
				<port id="0">
					<dim>1</dim>
					<dim>3</dim>
					<dim>416</dim>
					<dim>416</dim>
				</port>
				<port id="1">
					<dim>32</dim>
					<dim>3</dim>
					<dim>3</dim>
					<dim>3</dim>
				</port>
			</input>
			<output>
				<port id="2" precision="FP32">
					<dim>1</dim>
					<dim>32</dim>
					<dim>416</dim>
					<dim>416</dim>
				</port>
			</output>
		</layer>
		<layer id="163" name="data_add_2182094124651" type="Const" version="opset1">
			<data element_type="f16" offset="1452" shape="1,32,1,1" size="64"/>
			<output>
				<port id="0" precision="FP16">
					<dim>1</dim>
					<dim>32</dim>
					<dim>1</dim>
					<dim>1</dim>
				</port>
			</output>
		</layer>
		<layer id="164" name="data_add_2182094112467/restored_convert" type="Convert" version="opset1">
			<data destination_type="f32"/>
			<rt_info>
				<attribute name="decompression" version="0"/>
				<attribute name="fused_names" value="data_add_21820" version="0"/>
			</rt_info>
			<input>
				<port id="0">
					<dim>1</dim>
					<dim>32</dim>
					<dim>1</dim>
					<dim>1</dim>
				</port>
			</input>
			<output>
				<port id="1" precision="FP32">
					<dim>1</dim>
					<dim>32</dim>
					<dim>1</dim>
					<dim>1</dim>
				</port>
			</output>
		</layer>
		<layer id="165" name="StatefulPartitionedCall/model/batch_normalization/FusedBatchNormV3/variance/Fused_Add_" type="Add" version="opset1">
			<data auto_broadcast="numpy"/>
			<rt_info>
				<attribute name="fused_names" value="StatefulPartitionedCall/model/batch_normalization/FusedBatchNormV3/variance/Fused_Add_" version="0"/>
			</rt_info>
			<input>
				<port id="0">
					<dim>1</dim>
					<dim>32</dim>
					<dim>416</dim>
					<dim>416</dim>
				</port>
				<port id="1">
					<dim>1</dim>
					<dim>32</dim>
					<dim>1</dim>
					<dim>1</dim>
				</port>
			</input>
			<output>
				<port id="2" names="StatefulPartitionedCall/model/batch_normalization/FusedBatchNormV3:0" precision="FP32">
					<dim>1</dim>
					<dim>32</dim>
					<dim>416</dim>
					<dim>416</dim>
				</port>
			</output>
		</layer>
		<layer id="166" name="StatefulPartitionedCall/model/activation/mul" type="Mish" version="opset4">
			<rt_info>
				<attribute name="fused_names" value="StatefulPartitionedCall/model/activation/Softplus, StatefulPartitionedCall/model/activation/Tanh, StatefulPartitionedCall/model/activation/mul" version="0"/>
			</rt_info>
			<input>
				<port id="0">
					<dim>1</dim>
					<dim>32</dim>
					<dim>416</dim>
					<dim>416</dim>
				</port>
			</input>
			<output>
				<port id="1" names="StatefulPartitionedCall/model/activation/mul:0" precision="FP32">
					<dim>1</dim>
					<dim>32</dim>
					<dim>416</dim>
					<dim>416</dim>
				</port>
			</output>
		</layer>
		<layer id="167" name="StatefulPartitionedCall/model/conv2d_1/Conv2D/fq_input_0" type="FakeQuantize" version="opset1">
			<data auto_broadcast="numpy" levels="256"/>
			<input>
				<port id="0">
					<dim>1</dim>
					<dim>32</dim>
					<dim>416</dim>
					<dim>416</dim>
				</port>
				<port id="1">
					<dim>1</dim>
					<dim>1</dim>
					<dim>1</dim>
					<dim>1</dim>
				</port>
				<port id="2">
					<dim>1</dim>
					<dim>1</dim>
					<dim>1</dim>
					<dim>1</dim>
				</port>
				<port id="3">
					<dim>1</dim>
					<dim>1</dim>
					<dim>1</dim>
					<dim>1</dim>
				</port>
				<port id="4">
					<dim>1</dim>
					<dim>1</dim>
					<dim>1</dim>
					<dim>1</dim>
				</port>
			</input>
			<output>
				<port id="5" precision="FP32">
					<dim>1</dim>
					<dim>32</dim>
					<dim>416</dim>
					<dim>416</dim>
				</port>
			</output>
		</layer>
		<layer id="168" name="StatefulPartitionedCall/model/batch_normalization_1/FusedBatchNormV3/mean/Fused_Mul__copy94512468/restored_convert/quantized1501724081" type="Const" version="opset1">
			<data element_type="i8" offset="1516" shape="64,32,3,3" size="18432"/>
			<output>
				<port id="0" precision="I8">
					<dim>64</dim>
					<dim>32</dim>
					<dim>3</dim>
					<dim>3</dim>
				</port>
			</output>
		</layer>
		<layer id="169" name="StatefulPartitionedCall/model/batch_normalization_1/FusedBatchNormV3/mean/Fused_Mul__copy94512468/restored_convert/quantized/to_f32" type="Convert" version="opset1">
			<data destination_type="f32"/>
			<input>
				<port id="0">
					<dim>64</dim>
					<dim>32</dim>
					<dim>3</dim>
					<dim>3</dim>
				</port>
			</input>
			<output>
				<port id="1" precision="FP32">
					<dim>64</dim>
					<dim>32</dim>
					<dim>3</dim>
					<dim>3</dim>
				</port>
			</output>
		</layer>
		<layer id="170" name="StatefulPartitionedCall/model/conv2d_1/Conv2D/fq_weights_1/zero_point1503622125" type="Const" version="opset1">
			<data element_type="f32" offset="19948" shape="64,1,1,1" size="256"/>
			<output>
				<port id="0" precision="FP32">
					<dim>64</dim>
					<dim>1</dim>
					<dim>1</dim>
					<dim>1</dim>
				</port>
			</output>
		</layer>
		<layer id="171" name="StatefulPartitionedCall/model/conv2d_1/Conv2D/fq_weights_1/minus_zp" type="Subtract" version="opset1">
			<data auto_broadcast="numpy"/>
			<input>
				<port id="0">
					<dim>64</dim>
					<dim>32</dim>
					<dim>3</dim>
					<dim>3</dim>
				</port>
				<port id="1">
					<dim>64</dim>
					<dim>1</dim>
					<dim>1</dim>
					<dim>1</dim>
				</port>
			</input>
			<output>
				<port id="2" precision="FP32">
					<dim>64</dim>
					<dim>32</dim>
					<dim>3</dim>
					<dim>3</dim>
				</port>
			</output>
		</layer>
		<layer id="172" name="StatefulPartitionedCall/model/conv2d_1/Conv2D/fq_weights_1/scale1502522743" type="Const" version="opset1">
			<data element_type="f32" offset="20204" shape="64,1,1,1" size="256"/>
			<output>
				<port id="0" precision="FP32">
					<dim>64</dim>
					<dim>1</dim>
					<dim>1</dim>
					<dim>1</dim>
				</port>
			</output>
		</layer>
		<layer id="173" name="StatefulPartitionedCall/model/conv2d_1/Conv2D/fq_weights_1/mulpiply_by_scale" type="Multiply" version="opset1">
			<data auto_broadcast="numpy"/>
			<input>
				<port id="0">
					<dim>64</dim>
					<dim>32</dim>
					<dim>3</dim>
					<dim>3</dim>
				</port>
				<port id="1">
					<dim>64</dim>
					<dim>1</dim>
					<dim>1</dim>
					<dim>1</dim>
				</port>
			</input>
			<output>
				<port id="2" precision="FP32">
					<dim>64</dim>
					<dim>32</dim>
					<dim>3</dim>
					<dim>3</dim>
				</port>
			</output>
		</layer>
		<layer id="174" name="StatefulPartitionedCall/model/conv2d_1/Conv2D" type="Convolution" version="opset1">
			<data auto_pad="explicit" dilations="1,1" pads_begin="1,1" pads_end="0,0" strides="2,2"/>
			<rt_info>
				<attribute name="fused_names" value="StatefulPartitionedCall/model/conv2d_1/Conv2D, StatefulPartitionedCall/model/zero_padding2d/Pad" version="0"/>
			</rt_info>
			<input>
				<port id="0">
					<dim>1</dim>
					<dim>32</dim>
					<dim>416</dim>
					<dim>416</dim>
				</port>
				<port id="1">
					<dim>64</dim>
					<dim>32</dim>
					<dim>3</dim>
					<dim>3</dim>
				</port>
			</input>
			<output>
				<port id="2" precision="FP32">
					<dim>1</dim>
					<dim>64</dim>
					<dim>208</dim>
					<dim>208</dim>
				</port>
			</output>
		</layer>
		<layer id="175" name="data_add_218232182894824381" type="Const" version="opset1">
			<data element_type="f16" offset="20460" shape="1,64,1,1" size="128"/>
			<output>
				<port id="0" precision="FP16">
					<dim>1</dim>
					<dim>64</dim>
					<dim>1</dim>
					<dim>1</dim>
				</port>
			</output>
		</layer>
		<layer id="176" name="data_add_218232182894812469/restored_convert" type="Convert" version="opset1">
			<data destination_type="f32"/>
			<rt_info>
				<attribute name="decompression" version="0"/>
				<attribute name="fused_names" value="data_add_2182321828" version="0"/>
			</rt_info>
			<input>
				<port id="0">
					<dim>1</dim>
					<dim>64</dim>
					<dim>1</dim>
					<dim>1</dim>
				</port>
			</input>
			<output>
				<port id="1" precision="FP32">
					<dim>1</dim>
					<dim>64</dim>
					<dim>1</dim>
					<dim>1</dim>
				</port>
			</output>
		</layer>
		<layer id="177" name="StatefulPartitionedCall/model/batch_normalization_1/FusedBatchNormV3/variance/Fused_Add_" type="Add" version="opset1">
			<data auto_broadcast="numpy"/>
			<rt_info>
				<attribute name="fused_names" value="StatefulPartitionedCall/model/batch_normalization_1/FusedBatchNormV3/variance/Fused_Add_" version="0"/>
			</rt_info>
			<input>
				<port id="0">
					<dim>1</dim>
					<dim>64</dim>
					<dim>208</dim>
					<dim>208</dim>
				</port>
				<port id="1">
					<dim>1</dim>
					<dim>64</dim>
					<dim>1</dim>
					<dim>1</dim>
				</port>
			</input>
			<output>
				<port id="2" names="StatefulPartitionedCall/model/batch_normalization_1/FusedBatchNormV3:0" precision="FP32">
					<dim>1</dim>
					<dim>64</dim>
					<dim>208</dim>
					<dim>208</dim>
				</port>
			</output>
		</layer>
		<layer id="178" name="StatefulPartitionedCall/model/activation_1/mul" type="Mish" version="opset4">
			<rt_info>
				<attribute name="fused_names" value="StatefulPartitionedCall/model/activation_1/Softplus, StatefulPartitionedCall/model/activation_1/Tanh, StatefulPartitionedCall/model/activation_1/mul" version="0"/>
			</rt_info>
			<input>
				<port id="0">
					<dim>1</dim>
					<dim>64</dim>
					<dim>208</dim>
					<dim>208</dim>
				</port>
			</input>
			<output>
				<port id="1" names="StatefulPartitionedCall/model/activation_1/mul:0" precision="FP32">
					<dim>1</dim>
					<dim>64</dim>
					<dim>208</dim>
					<dim>208</dim>
				</port>
			</output>
		</layer>
		<layer id="179" name="StatefulPartitionedCall/model/conv2d_2/Conv2D/fq_input_0" type="FakeQuantize" version="opset1">
			<data auto_broadcast="numpy" levels="256"/>
			<input>
				<port id="0">
					<dim>1</dim>
					<dim>64</dim>
					<dim>208</dim>
					<dim>208</dim>
				</port>
				<port id="1">
					<dim>1</dim>
					<dim>1</dim>
					<dim>1</dim>
					<dim>1</dim>
				</port>
				<port id="2">
					<dim>1</dim>
					<dim>1</dim>
					<dim>1</dim>
					<dim>1</dim>
				</port>
				<port id="3">
					<dim>1</dim>
					<dim>1</dim>
					<dim>1</dim>
					<dim>1</dim>
				</port>
				<port id="4">
					<dim>1</dim>
					<dim>1</dim>
					<dim>1</dim>
					<dim>1</dim>
				</port>
			</input>
			<output>
				<port id="5" precision="FP32">
					<dim>1</dim>
					<dim>64</dim>
					<dim>208</dim>
					<dim>208</dim>
				</port>
			</output>
		</layer>
		<layer id="180" name="StatefulPartitionedCall/model/batch_normalization_3/FusedBatchNormV3/mean/Fused_Mul__copy95212470/restored_convert/quantized1453721840" type="Const" version="opset1">
			<data element_type="i8" offset="20588" shape="64,64,1,1" size="4096"/>
			<output>
				<port id="0" precision="I8">
					<dim>64</dim>
					<dim>64</dim>
					<dim>1</dim>
					<dim>1</dim>
				</port>
			</output>
		</layer>
		<layer id="181" name="StatefulPartitionedCall/model/batch_normalization_3/FusedBatchNormV3/mean/Fused_Mul__copy95212470/restored_convert/quantized/to_f32" type="Convert" version="opset1">
			<data destination_type="f32"/>
			<input>
				<port id="0">
					<dim>64</dim>
					<dim>64</dim>
					<dim>1</dim>
					<dim>1</dim>
				</port>
			</input>
			<output>
				<port id="1" precision="FP32">
					<dim>64</dim>
					<dim>64</dim>
					<dim>1</dim>
					<dim>1</dim>
				</port>
			</output>
		</layer>
		<layer id="182" name="StatefulPartitionedCall/model/conv2d_3/Conv2D/fq_weights_1/zero_point1455623547" type="Const" version="opset1">
			<data element_type="f32" offset="24684" shape="64,1,1,1" size="256"/>
			<output>
				<port id="0" precision="FP32">
					<dim>64</dim>
					<dim>1</dim>
					<dim>1</dim>
					<dim>1</dim>
				</port>
			</output>
		</layer>
		<layer id="183" name="StatefulPartitionedCall/model/conv2d_3/Conv2D/fq_weights_1/minus_zp" type="Subtract" version="opset1">
			<data auto_broadcast="numpy"/>
			<input>
				<port id="0">
					<dim>64</dim>
					<dim>64</dim>
					<dim>1</dim>
					<dim>1</dim>
				</port>
				<port id="1">
					<dim>64</dim>
					<dim>1</dim>
					<dim>1</dim>
					<dim>1</dim>
				</port>
			</input>
			<output>
				<port id="2" precision="FP32">
					<dim>64</dim>
					<dim>64</dim>
					<dim>1</dim>
					<dim>1</dim>
				</port>
			</output>
		</layer>
		<layer id="184" name="StatefulPartitionedCall/model/conv2d_3/Conv2D/fq_weights_1/scale1454523577" type="Const" version="opset1">
			<data element_type="f32" offset="24940" shape="64,1,1,1" size="256"/>
			<output>
				<port id="0" precision="FP32">
					<dim>64</dim>
					<dim>1</dim>
					<dim>1</dim>
					<dim>1</dim>
				</port>
			</output>
		</layer>
		<layer id="185" name="StatefulPartitionedCall/model/conv2d_3/Conv2D/fq_weights_1/mulpiply_by_scale" type="Multiply" version="opset1">
			<data auto_broadcast="numpy"/>
			<input>
				<port id="0">
					<dim>64</dim>
					<dim>64</dim>
					<dim>1</dim>
					<dim>1</dim>
				</port>
				<port id="1">
					<dim>64</dim>
					<dim>1</dim>
					<dim>1</dim>
					<dim>1</dim>
				</port>
			</input>
			<output>
				<port id="2" precision="FP32">
					<dim>64</dim>
					<dim>64</dim>
					<dim>1</dim>
					<dim>1</dim>
				</port>
			</output>
		</layer>
		<layer id="186" name="StatefulPartitionedCall/model/conv2d_3/Conv2D" type="Convolution" version="opset1">
			<data auto_pad="same_upper" dilations="1,1" pads_begin="0,0" pads_end="0,0" strides="1,1"/>
			<rt_info>
				<attribute name="fused_names" value="StatefulPartitionedCall/model/conv2d_3/Conv2D" version="0"/>
			</rt_info>
			<input>
				<port id="0">
					<dim>1</dim>
					<dim>64</dim>
					<dim>208</dim>
					<dim>208</dim>
				</port>
				<port id="1">
					<dim>64</dim>
					<dim>64</dim>
					<dim>1</dim>
					<dim>1</dim>
				</port>
			</input>
			<output>
				<port id="2" precision="FP32">
					<dim>1</dim>
					<dim>64</dim>
					<dim>208</dim>
					<dim>208</dim>
				</port>
			</output>
		</layer>
		<layer id="187" name="data_add_218392184495523925" type="Const" version="opset1">
			<data element_type="f16" offset="25196" shape="1,64,1,1" size="128"/>
			<output>
				<port id="0" precision="FP16">
					<dim>1</dim>
					<dim>64</dim>
					<dim>1</dim>
					<dim>1</dim>
				</port>
			</output>
		</layer>
		<layer id="188" name="data_add_218392184495512471/restored_convert" type="Convert" version="opset1">
			<data destination_type="f32"/>
			<rt_info>
				<attribute name="decompression" version="0"/>
				<attribute name="fused_names" value="data_add_2183921844" version="0"/>
			</rt_info>
			<input>
				<port id="0">
					<dim>1</dim>
					<dim>64</dim>
					<dim>1</dim>
					<dim>1</dim>
				</port>
			</input>
			<output>
				<port id="1" precision="FP32">
					<dim>1</dim>
					<dim>64</dim>
					<dim>1</dim>
					<dim>1</dim>
				</port>
			</output>
		</layer>
		<layer id="189" name="StatefulPartitionedCall/model/batch_normalization_3/FusedBatchNormV3/variance/Fused_Add_" type="Add" version="opset1">
			<data auto_broadcast="numpy"/>
			<rt_info>
				<attribute name="fused_names" value="StatefulPartitionedCall/model/batch_normalization_3/FusedBatchNormV3/variance/Fused_Add_" version="0"/>
			</rt_info>
			<input>
				<port id="0">
					<dim>1</dim>
					<dim>64</dim>
					<dim>208</dim>
					<dim>208</dim>
				</port>
				<port id="1">
					<dim>1</dim>
					<dim>64</dim>
					<dim>1</dim>
					<dim>1</dim>
				</port>
			</input>
			<output>
				<port id="2" names="StatefulPartitionedCall/model/batch_normalization_3/FusedBatchNormV3:0" precision="FP32">
					<dim>1</dim>
					<dim>64</dim>
					<dim>208</dim>
					<dim>208</dim>
				</port>
			</output>
		</layer>
		<layer id="190" name="StatefulPartitionedCall/model/activation_3/mul" type="Mish" version="opset4">
			<rt_info>
				<attribute name="fused_names" value="StatefulPartitionedCall/model/activation_3/Softplus, StatefulPartitionedCall/model/activation_3/Tanh, StatefulPartitionedCall/model/activation_3/mul" version="0"/>
			</rt_info>
			<input>
				<port id="0">
					<dim>1</dim>
					<dim>64</dim>
					<dim>208</dim>
					<dim>208</dim>
				</port>
			</input>
			<output>
				<port id="1" names="StatefulPartitionedCall/model/activation_3/mul:0" precision="FP32">
					<dim>1</dim>
					<dim>64</dim>
					<dim>208</dim>
					<dim>208</dim>
				</port>
			</output>
		</layer>
		<layer id="191" name="StatefulPartitionedCall/model/add/add/fq_input_0" type="FakeQuantize" version="opset1">
			<data auto_broadcast="numpy" levels="256"/>
			<input>
				<port id="0">
					<dim>1</dim>
					<dim>64</dim>
					<dim>208</dim>
					<dim>208</dim>
				</port>
				<port id="1">
					<dim>1</dim>
					<dim>1</dim>
					<dim>1</dim>
					<dim>1</dim>
				</port>
				<port id="2">
					<dim>1</dim>
					<dim>1</dim>
					<dim>1</dim>
					<dim>1</dim>
				</port>
				<port id="3">
					<dim>1</dim>
					<dim>1</dim>
					<dim>1</dim>
					<dim>1</dim>
				</port>
				<port id="4">
					<dim>1</dim>
					<dim>1</dim>
					<dim>1</dim>
					<dim>1</dim>
				</port>
			</input>
			<output>
				<port id="5" precision="FP32">
					<dim>1</dim>
					<dim>64</dim>
					<dim>208</dim>
					<dim>208</dim>
				</port>
			</output>
		</layer>
		<layer id="192" name="5283528722503" type="Const" version="opset1">
			<data element_type="f32" offset="25324" shape="1,1,1,1" size="4"/>
			<output>
				<port id="0" precision="FP32">
					<dim>1</dim>
					<dim>1</dim>
					<dim>1</dim>
					<dim>1</dim>
				</port>
			</output>
		</layer>
		<layer id="193" name="5284528823907" type="Const" version="opset1">
			<data element_type="f32" offset="25328" shape="1,1,1,1" size="4"/>
			<output>
				<port id="0" precision="FP32">
					<dim>1</dim>
					<dim>1</dim>
					<dim>1</dim>
					<dim>1</dim>
				</port>
			</output>
		</layer>
		<layer id="194" name="5285528923022" type="Const" version="opset1">
			<data element_type="f32" offset="25324" shape="1,1,1,1" size="4"/>
			<output>
				<port id="0" precision="FP32">
					<dim>1</dim>
					<dim>1</dim>
					<dim>1</dim>
					<dim>1</dim>
				</port>
			</output>
		</layer>
		<layer id="195" name="5286529022299" type="Const" version="opset1">
			<data element_type="f32" offset="25328" shape="1,1,1,1" size="4"/>
			<output>
				<port id="0" precision="FP32">
					<dim>1</dim>
					<dim>1</dim>
					<dim>1</dim>
					<dim>1</dim>
				</port>
			</output>
		</layer>
		<layer id="196" name="5233523723256" type="Const" version="opset1">
			<data element_type="f32" offset="200" shape="1,1,1,1" size="4"/>
			<output>
				<port id="0" precision="FP32">
					<dim>1</dim>
					<dim>1</dim>
					<dim>1</dim>
					<dim>1</dim>
				</port>
			</output>
		</layer>
		<layer id="197" name="5234523822185" type="Const" version="opset1">
			<data element_type="f32" offset="25332" shape="1,1,1,1" size="4"/>
			<output>
				<port id="0" precision="FP32">
					<dim>1</dim>
					<dim>1</dim>
					<dim>1</dim>
					<dim>1</dim>
				</port>
			</output>
		</layer>
		<layer id="198" name="5235523924642" type="Const" version="opset1">
			<data element_type="f32" offset="200" shape="1,1,1,1" size="4"/>
			<output>
				<port id="0" precision="FP32">
					<dim>1</dim>
					<dim>1</dim>
					<dim>1</dim>
					<dim>1</dim>
				</port>
			</output>
		</layer>
		<layer id="199" name="5236524024858" type="Const" version="opset1">
			<data element_type="f32" offset="25332" shape="1,1,1,1" size="4"/>
			<output>
				<port id="0" precision="FP32">
					<dim>1</dim>
					<dim>1</dim>
					<dim>1</dim>
					<dim>1</dim>
				</port>
			</output>
		</layer>
		<layer id="200" name="StatefulPartitionedCall/model/batch_normalization_4/FusedBatchNormV3/mean/Fused_Mul__copy95912472/restored_convert/quantized1513723880" type="Const" version="opset1">
			<data element_type="i8" offset="25336" shape="32,64,1,1" size="2048"/>
			<output>
				<port id="0" precision="I8">
					<dim>32</dim>
					<dim>64</dim>
					<dim>1</dim>
					<dim>1</dim>
				</port>
			</output>
		</layer>
		<layer id="201" name="StatefulPartitionedCall/model/batch_normalization_4/FusedBatchNormV3/mean/Fused_Mul__copy95912472/restored_convert/quantized/to_f32" type="Convert" version="opset1">
			<data destination_type="f32"/>
			<input>
				<port id="0">
					<dim>32</dim>
					<dim>64</dim>
					<dim>1</dim>
					<dim>1</dim>
				</port>
			</input>
			<output>
				<port id="1" precision="FP32">
					<dim>32</dim>
					<dim>64</dim>
					<dim>1</dim>
					<dim>1</dim>
				</port>
			</output>
		</layer>
		<layer id="202" name="StatefulPartitionedCall/model/conv2d_4/Conv2D/fq_weights_1/zero_point1515622983" type="Const" version="opset1">
			<data element_type="f32" offset="27384" shape="32,1,1,1" size="128"/>
			<output>
				<port id="0" precision="FP32">
					<dim>32</dim>
					<dim>1</dim>
					<dim>1</dim>
					<dim>1</dim>
				</port>
			</output>
		</layer>
		<layer id="203" name="StatefulPartitionedCall/model/conv2d_4/Conv2D/fq_weights_1/minus_zp" type="Subtract" version="opset1">
			<data auto_broadcast="numpy"/>
			<input>
				<port id="0">
					<dim>32</dim>
					<dim>64</dim>
					<dim>1</dim>
					<dim>1</dim>
				</port>
				<port id="1">
					<dim>32</dim>
					<dim>1</dim>
					<dim>1</dim>
					<dim>1</dim>
				</port>
			</input>
			<output>
				<port id="2" precision="FP32">
					<dim>32</dim>
					<dim>64</dim>
					<dim>1</dim>
					<dim>1</dim>
				</port>
			</output>
		</layer>
		<layer id="204" name="StatefulPartitionedCall/model/conv2d_4/Conv2D/fq_weights_1/scale1514523970" type="Const" version="opset1">
			<data element_type="f32" offset="27512" shape="32,1,1,1" size="128"/>
			<output>
				<port id="0" precision="FP32">
					<dim>32</dim>
					<dim>1</dim>
					<dim>1</dim>
					<dim>1</dim>
				</port>
			</output>
		</layer>
		<layer id="205" name="StatefulPartitionedCall/model/conv2d_4/Conv2D/fq_weights_1/mulpiply_by_scale" type="Multiply" version="opset1">
			<data auto_broadcast="numpy"/>
			<input>
				<port id="0">
					<dim>32</dim>
					<dim>64</dim>
					<dim>1</dim>
					<dim>1</dim>
				</port>
				<port id="1">
					<dim>32</dim>
					<dim>1</dim>
					<dim>1</dim>
					<dim>1</dim>
				</port>
			</input>
			<output>
				<port id="2" precision="FP32">
					<dim>32</dim>
					<dim>64</dim>
					<dim>1</dim>
					<dim>1</dim>
				</port>
			</output>
		</layer>
		<layer id="206" name="StatefulPartitionedCall/model/conv2d_4/Conv2D" type="Convolution" version="opset1">
			<data auto_pad="same_upper" dilations="1,1" pads_begin="0,0" pads_end="0,0" strides="1,1"/>
			<rt_info>
				<attribute name="fused_names" value="StatefulPartitionedCall/model/conv2d_4/Conv2D" version="0"/>
			</rt_info>
			<input>
				<port id="0">
					<dim>1</dim>
					<dim>64</dim>
					<dim>208</dim>
					<dim>208</dim>
				</port>
				<port id="1">
					<dim>32</dim>
					<dim>64</dim>
					<dim>1</dim>
					<dim>1</dim>
				</port>
			</input>
			<output>
				<port id="2" precision="FP32">
					<dim>1</dim>
					<dim>32</dim>
					<dim>208</dim>
					<dim>208</dim>
				</port>
			</output>
		</layer>
		<layer id="207" name="data_add_218472185296224594" type="Const" version="opset1">
			<data element_type="f16" offset="27640" shape="1,32,1,1" size="64"/>
			<output>
				<port id="0" precision="FP16">
					<dim>1</dim>
					<dim>32</dim>
					<dim>1</dim>
					<dim>1</dim>
				</port>
			</output>
		</layer>
		<layer id="208" name="data_add_218472185296212473/restored_convert" type="Convert" version="opset1">
			<data destination_type="f32"/>
			<rt_info>
				<attribute name="decompression" version="0"/>
				<attribute name="fused_names" value="data_add_2184721852" version="0"/>
			</rt_info>
			<input>
				<port id="0">
					<dim>1</dim>
					<dim>32</dim>
					<dim>1</dim>
					<dim>1</dim>
				</port>
			</input>
			<output>
				<port id="1" precision="FP32">
					<dim>1</dim>
					<dim>32</dim>
					<dim>1</dim>
					<dim>1</dim>
				</port>
			</output>
		</layer>
		<layer id="209" name="StatefulPartitionedCall/model/batch_normalization_4/FusedBatchNormV3/variance/Fused_Add_" type="Add" version="opset1">
			<data auto_broadcast="numpy"/>
			<rt_info>
				<attribute name="fused_names" value="StatefulPartitionedCall/model/batch_normalization_4/FusedBatchNormV3/variance/Fused_Add_" version="0"/>
			</rt_info>
			<input>
				<port id="0">
					<dim>1</dim>
					<dim>32</dim>
					<dim>208</dim>
					<dim>208</dim>
				</port>
				<port id="1">
					<dim>1</dim>
					<dim>32</dim>
					<dim>1</dim>
					<dim>1</dim>
				</port>
			</input>
			<output>
				<port id="2" names="StatefulPartitionedCall/model/batch_normalization_4/FusedBatchNormV3:0" precision="FP32">
					<dim>1</dim>
					<dim>32</dim>
					<dim>208</dim>
					<dim>208</dim>
				</port>
			</output>
		</layer>
		<layer id="210" name="StatefulPartitionedCall/model/activation_4/mul" type="Mish" version="opset4">
			<rt_info>
				<attribute name="fused_names" value="StatefulPartitionedCall/model/activation_4/Softplus, StatefulPartitionedCall/model/activation_4/Tanh, StatefulPartitionedCall/model/activation_4/mul" version="0"/>
			</rt_info>
			<input>
				<port id="0">
					<dim>1</dim>
					<dim>32</dim>
					<dim>208</dim>
					<dim>208</dim>
				</port>
			</input>
			<output>
				<port id="1" names="StatefulPartitionedCall/model/activation_4/mul:0" precision="FP32">
					<dim>1</dim>
					<dim>32</dim>
					<dim>208</dim>
					<dim>208</dim>
				</port>
			</output>
		</layer>
		<layer id="211" name="StatefulPartitionedCall/model/conv2d_5/Conv2D/fq_input_0" type="FakeQuantize" version="opset1">
			<data auto_broadcast="numpy" levels="256"/>
			<input>
				<port id="0">
					<dim>1</dim>
					<dim>32</dim>
					<dim>208</dim>
					<dim>208</dim>
				</port>
				<port id="1">
					<dim>1</dim>
					<dim>1</dim>
					<dim>1</dim>
					<dim>1</dim>
				</port>
				<port id="2">
					<dim>1</dim>
					<dim>1</dim>
					<dim>1</dim>
					<dim>1</dim>
				</port>
				<port id="3">
					<dim>1</dim>
					<dim>1</dim>
					<dim>1</dim>
					<dim>1</dim>
				</port>
				<port id="4">
					<dim>1</dim>
					<dim>1</dim>
					<dim>1</dim>
					<dim>1</dim>
				</port>
			</input>
			<output>
				<port id="5" precision="FP32">
					<dim>1</dim>
					<dim>32</dim>
					<dim>208</dim>
					<dim>208</dim>
				</port>
			</output>
		</layer>
		<layer id="212" name="StatefulPartitionedCall/model/batch_normalization_5/FusedBatchNormV3/mean/Fused_Mul__copy96612474/restored_convert/quantized1489723433" type="Const" version="opset1">
			<data element_type="i8" offset="27704" shape="64,32,3,3" size="18432"/>
			<output>
				<port id="0" precision="I8">
					<dim>64</dim>
					<dim>32</dim>
					<dim>3</dim>
					<dim>3</dim>
				</port>
			</output>
		</layer>
		<layer id="213" name="StatefulPartitionedCall/model/batch_normalization_5/FusedBatchNormV3/mean/Fused_Mul__copy96612474/restored_convert/quantized/to_f32" type="Convert" version="opset1">
			<data destination_type="f32"/>
			<input>
				<port id="0">
					<dim>64</dim>
					<dim>32</dim>
					<dim>3</dim>
					<dim>3</dim>
				</port>
			</input>
			<output>
				<port id="1" precision="FP32">
					<dim>64</dim>
					<dim>32</dim>
					<dim>3</dim>
					<dim>3</dim>
				</port>
			</output>
		</layer>
		<layer id="214" name="StatefulPartitionedCall/model/conv2d_5/Conv2D/fq_weights_1/zero_point1491624180" type="Const" version="opset1">
			<data element_type="f32" offset="46136" shape="64,1,1,1" size="256"/>
			<output>
				<port id="0" precision="FP32">
					<dim>64</dim>
					<dim>1</dim>
					<dim>1</dim>
					<dim>1</dim>
				</port>
			</output>
		</layer>
		<layer id="215" name="StatefulPartitionedCall/model/conv2d_5/Conv2D/fq_weights_1/minus_zp" type="Subtract" version="opset1">
			<data auto_broadcast="numpy"/>
			<input>
				<port id="0">
					<dim>64</dim>
					<dim>32</dim>
					<dim>3</dim>
					<dim>3</dim>
				</port>
				<port id="1">
					<dim>64</dim>
					<dim>1</dim>
					<dim>1</dim>
					<dim>1</dim>
				</port>
			</input>
			<output>
				<port id="2" precision="FP32">
					<dim>64</dim>
					<dim>32</dim>
					<dim>3</dim>
					<dim>3</dim>
				</port>
			</output>
		</layer>
		<layer id="216" name="StatefulPartitionedCall/model/conv2d_5/Conv2D/fq_weights_1/scale1490523085" type="Const" version="opset1">
			<data element_type="f32" offset="46392" shape="64,1,1,1" size="256"/>
			<output>
				<port id="0" precision="FP32">
					<dim>64</dim>
					<dim>1</dim>
					<dim>1</dim>
					<dim>1</dim>
				</port>
			</output>
		</layer>
		<layer id="217" name="StatefulPartitionedCall/model/conv2d_5/Conv2D/fq_weights_1/mulpiply_by_scale" type="Multiply" version="opset1">
			<data auto_broadcast="numpy"/>
			<input>
				<port id="0">
					<dim>64</dim>
					<dim>32</dim>
					<dim>3</dim>
					<dim>3</dim>
				</port>
				<port id="1">
					<dim>64</dim>
					<dim>1</dim>
					<dim>1</dim>
					<dim>1</dim>
				</port>
			</input>
			<output>
				<port id="2" precision="FP32">
					<dim>64</dim>
					<dim>32</dim>
					<dim>3</dim>
					<dim>3</dim>
				</port>
			</output>
		</layer>
		<layer id="218" name="StatefulPartitionedCall/model/conv2d_5/Conv2D" type="Convolution" version="opset1">
			<data auto_pad="same_upper" dilations="1,1" pads_begin="0,0" pads_end="0,0" strides="1,1"/>
			<rt_info>
				<attribute name="fused_names" value="StatefulPartitionedCall/model/conv2d_5/Conv2D" version="0"/>
			</rt_info>
			<input>
				<port id="0">
					<dim>1</dim>
					<dim>32</dim>
					<dim>208</dim>
					<dim>208</dim>
				</port>
				<port id="1">
					<dim>64</dim>
					<dim>32</dim>
					<dim>3</dim>
					<dim>3</dim>
				</port>
			</input>
			<output>
				<port id="2" precision="FP32">
					<dim>1</dim>
					<dim>64</dim>
					<dim>208</dim>
					<dim>208</dim>
				</port>
			</output>
		</layer>
		<layer id="219" name="data_add_218552186096922401" type="Const" version="opset1">
			<data element_type="f16" offset="46648" shape="1,64,1,1" size="128"/>
			<output>
				<port id="0" precision="FP16">
					<dim>1</dim>
					<dim>64</dim>
					<dim>1</dim>
					<dim>1</dim>
				</port>
			</output>
		</layer>
		<layer id="220" name="data_add_218552186096912475/restored_convert" type="Convert" version="opset1">
			<data destination_type="f32"/>
			<rt_info>
				<attribute name="decompression" version="0"/>
				<attribute name="fused_names" value="data_add_2185521860" version="0"/>
			</rt_info>
			<input>
				<port id="0">
					<dim>1</dim>
					<dim>64</dim>
					<dim>1</dim>
					<dim>1</dim>
				</port>
			</input>
			<output>
				<port id="1" precision="FP32">
					<dim>1</dim>
					<dim>64</dim>
					<dim>1</dim>
					<dim>1</dim>
				</port>
			</output>
		</layer>
		<layer id="221" name="StatefulPartitionedCall/model/batch_normalization_5/FusedBatchNormV3/variance/Fused_Add_" type="Add" version="opset1">
			<data auto_broadcast="numpy"/>
			<rt_info>
				<attribute name="fused_names" value="StatefulPartitionedCall/model/batch_normalization_5/FusedBatchNormV3/variance/Fused_Add_" version="0"/>
			</rt_info>
			<input>
				<port id="0">
					<dim>1</dim>
					<dim>64</dim>
					<dim>208</dim>
					<dim>208</dim>
				</port>
				<port id="1">
					<dim>1</dim>
					<dim>64</dim>
					<dim>1</dim>
					<dim>1</dim>
				</port>
			</input>
			<output>
				<port id="2" names="StatefulPartitionedCall/model/batch_normalization_5/FusedBatchNormV3:0" precision="FP32">
					<dim>1</dim>
					<dim>64</dim>
					<dim>208</dim>
					<dim>208</dim>
				</port>
			</output>
		</layer>
		<layer id="222" name="StatefulPartitionedCall/model/activation_5/mul" type="Mish" version="opset4">
			<rt_info>
				<attribute name="fused_names" value="StatefulPartitionedCall/model/activation_5/Softplus, StatefulPartitionedCall/model/activation_5/Tanh, StatefulPartitionedCall/model/activation_5/mul" version="0"/>
			</rt_info>
			<input>
				<port id="0">
					<dim>1</dim>
					<dim>64</dim>
					<dim>208</dim>
					<dim>208</dim>
				</port>
			</input>
			<output>
				<port id="1" names="StatefulPartitionedCall/model/activation_5/mul:0" precision="FP32">
					<dim>1</dim>
					<dim>64</dim>
					<dim>208</dim>
					<dim>208</dim>
				</port>
			</output>
		</layer>
		<layer id="223" name="StatefulPartitionedCall/model/add/add/fq_input_1" type="FakeQuantize" version="opset1">
			<data auto_broadcast="numpy" levels="256"/>
			<input>
				<port id="0">
					<dim>1</dim>
					<dim>64</dim>
					<dim>208</dim>
					<dim>208</dim>
				</port>
				<port id="1">
					<dim>1</dim>
					<dim>1</dim>
					<dim>1</dim>
					<dim>1</dim>
				</port>
				<port id="2">
					<dim>1</dim>
					<dim>1</dim>
					<dim>1</dim>
					<dim>1</dim>
				</port>
				<port id="3">
					<dim>1</dim>
					<dim>1</dim>
					<dim>1</dim>
					<dim>1</dim>
				</port>
				<port id="4">
					<dim>1</dim>
					<dim>1</dim>
					<dim>1</dim>
					<dim>1</dim>
				</port>
			</input>
			<output>
				<port id="5" precision="FP32">
					<dim>1</dim>
					<dim>64</dim>
					<dim>208</dim>
					<dim>208</dim>
				</port>
			</output>
		</layer>
		<layer id="224" name="StatefulPartitionedCall/model/add/add" type="Add" version="opset1">
			<data auto_broadcast="numpy"/>
			<rt_info>
				<attribute name="fused_names" value="StatefulPartitionedCall/model/add/add" version="0"/>
			</rt_info>
			<input>
				<port id="0">
					<dim>1</dim>
					<dim>64</dim>
					<dim>208</dim>
					<dim>208</dim>
				</port>
				<port id="1">
					<dim>1</dim>
					<dim>64</dim>
					<dim>208</dim>
					<dim>208</dim>
				</port>
			</input>
			<output>
				<port id="2" names="StatefulPartitionedCall/model/add/add:0" precision="FP32">
					<dim>1</dim>
					<dim>64</dim>
					<dim>208</dim>
					<dim>208</dim>
				</port>
			</output>
		</layer>
		<layer id="225" name="StatefulPartitionedCall/model/conv2d_6/Conv2D/fq_input_0" type="FakeQuantize" version="opset1">
			<data auto_broadcast="numpy" levels="256"/>
			<input>
				<port id="0">
					<dim>1</dim>
					<dim>64</dim>
					<dim>208</dim>
					<dim>208</dim>
				</port>
				<port id="1">
					<dim>1</dim>
					<dim>1</dim>
					<dim>1</dim>
					<dim>1</dim>
				</port>
				<port id="2">
					<dim>1</dim>
					<dim>1</dim>
					<dim>1</dim>
					<dim>1</dim>
				</port>
				<port id="3">
					<dim>1</dim>
					<dim>1</dim>
					<dim>1</dim>
					<dim>1</dim>
				</port>
				<port id="4">
					<dim>1</dim>
					<dim>1</dim>
					<dim>1</dim>
					<dim>1</dim>
				</port>
			</input>
			<output>
				<port id="5" precision="FP32">
					<dim>1</dim>
					<dim>64</dim>
					<dim>208</dim>
					<dim>208</dim>
				</port>
			</output>
		</layer>
		<layer id="226" name="StatefulPartitionedCall/model/batch_normalization_6/FusedBatchNormV3/mean/Fused_Mul__copy97412476/restored_convert/quantized1480723094" type="Const" version="opset1">
			<data element_type="i8" offset="46776" shape="64,64,1,1" size="4096"/>
			<output>
				<port id="0" precision="I8">
					<dim>64</dim>
					<dim>64</dim>
					<dim>1</dim>
					<dim>1</dim>
				</port>
			</output>
		</layer>
		<layer id="227" name="StatefulPartitionedCall/model/batch_normalization_6/FusedBatchNormV3/mean/Fused_Mul__copy97412476/restored_convert/quantized/to_f32" type="Convert" version="opset1">
			<data destination_type="f32"/>
			<input>
				<port id="0">
					<dim>64</dim>
					<dim>64</dim>
					<dim>1</dim>
					<dim>1</dim>
				</port>
			</input>
			<output>
				<port id="1" precision="FP32">
					<dim>64</dim>
					<dim>64</dim>
					<dim>1</dim>
					<dim>1</dim>
				</port>
			</output>
		</layer>
		<layer id="228" name="StatefulPartitionedCall/model/conv2d_6/Conv2D/fq_weights_1/zero_point1482624732" type="Const" version="opset1">
			<data element_type="f32" offset="50872" shape="64,1,1,1" size="256"/>
			<output>
				<port id="0" precision="FP32">
					<dim>64</dim>
					<dim>1</dim>
					<dim>1</dim>
					<dim>1</dim>
				</port>
			</output>
		</layer>
		<layer id="229" name="StatefulPartitionedCall/model/conv2d_6/Conv2D/fq_weights_1/minus_zp" type="Subtract" version="opset1">
			<data auto_broadcast="numpy"/>
			<input>
				<port id="0">
					<dim>64</dim>
					<dim>64</dim>
					<dim>1</dim>
					<dim>1</dim>
				</port>
				<port id="1">
					<dim>64</dim>
					<dim>1</dim>
					<dim>1</dim>
					<dim>1</dim>
				</port>
			</input>
			<output>
				<port id="2" precision="FP32">
					<dim>64</dim>
					<dim>64</dim>
					<dim>1</dim>
					<dim>1</dim>
				</port>
			</output>
		</layer>
		<layer id="230" name="StatefulPartitionedCall/model/conv2d_6/Conv2D/fq_weights_1/scale1481523001" type="Const" version="opset1">
			<data element_type="f32" offset="51128" shape="64,1,1,1" size="256"/>
			<output>
				<port id="0" precision="FP32">
					<dim>64</dim>
					<dim>1</dim>
					<dim>1</dim>
					<dim>1</dim>
				</port>
			</output>
		</layer>
		<layer id="231" name="StatefulPartitionedCall/model/conv2d_6/Conv2D/fq_weights_1/mulpiply_by_scale" type="Multiply" version="opset1">
			<data auto_broadcast="numpy"/>
			<input>
				<port id="0">
					<dim>64</dim>
					<dim>64</dim>
					<dim>1</dim>
					<dim>1</dim>
				</port>
				<port id="1">
					<dim>64</dim>
					<dim>1</dim>
					<dim>1</dim>
					<dim>1</dim>
				</port>
			</input>
			<output>
				<port id="2" precision="FP32">
					<dim>64</dim>
					<dim>64</dim>
					<dim>1</dim>
					<dim>1</dim>
				</port>
			</output>
		</layer>
		<layer id="232" name="StatefulPartitionedCall/model/conv2d_6/Conv2D" type="Convolution" version="opset1">
			<data auto_pad="same_upper" dilations="1,1" pads_begin="0,0" pads_end="0,0" strides="1,1"/>
			<rt_info>
				<attribute name="fused_names" value="StatefulPartitionedCall/model/conv2d_6/Conv2D" version="0"/>
			</rt_info>
			<input>
				<port id="0">
					<dim>1</dim>
					<dim>64</dim>
					<dim>208</dim>
					<dim>208</dim>
				</port>
				<port id="1">
					<dim>64</dim>
					<dim>64</dim>
					<dim>1</dim>
					<dim>1</dim>
				</port>
			</input>
			<output>
				<port id="2" precision="FP32">
					<dim>1</dim>
					<dim>64</dim>
					<dim>208</dim>
					<dim>208</dim>
				</port>
			</output>
		</layer>
		<layer id="233" name="data_add_218632186897723910" type="Const" version="opset1">
			<data element_type="f16" offset="51384" shape="1,64,1,1" size="128"/>
			<output>
				<port id="0" precision="FP16">
					<dim>1</dim>
					<dim>64</dim>
					<dim>1</dim>
					<dim>1</dim>
				</port>
			</output>
		</layer>
		<layer id="234" name="data_add_218632186897712477/restored_convert" type="Convert" version="opset1">
			<data destination_type="f32"/>
			<rt_info>
				<attribute name="decompression" version="0"/>
				<attribute name="fused_names" value="data_add_2186321868" version="0"/>
			</rt_info>
			<input>
				<port id="0">
					<dim>1</dim>
					<dim>64</dim>
					<dim>1</dim>
					<dim>1</dim>
				</port>
			</input>
			<output>
				<port id="1" precision="FP32">
					<dim>1</dim>
					<dim>64</dim>
					<dim>1</dim>
					<dim>1</dim>
				</port>
			</output>
		</layer>
		<layer id="235" name="StatefulPartitionedCall/model/batch_normalization_6/FusedBatchNormV3/variance/Fused_Add_" type="Add" version="opset1">
			<data auto_broadcast="numpy"/>
			<rt_info>
				<attribute name="fused_names" value="StatefulPartitionedCall/model/batch_normalization_6/FusedBatchNormV3/variance/Fused_Add_" version="0"/>
			</rt_info>
			<input>
				<port id="0">
					<dim>1</dim>
					<dim>64</dim>
					<dim>208</dim>
					<dim>208</dim>
				</port>
				<port id="1">
					<dim>1</dim>
					<dim>64</dim>
					<dim>1</dim>
					<dim>1</dim>
				</port>
			</input>
			<output>
				<port id="2" names="StatefulPartitionedCall/model/batch_normalization_6/FusedBatchNormV3:0" precision="FP32">
					<dim>1</dim>
					<dim>64</dim>
					<dim>208</dim>
					<dim>208</dim>
				</port>
			</output>
		</layer>
		<layer id="236" name="StatefulPartitionedCall/model/activation_6/mul" type="Mish" version="opset4">
			<rt_info>
				<attribute name="fused_names" value="StatefulPartitionedCall/model/activation_6/Softplus, StatefulPartitionedCall/model/activation_6/Tanh, StatefulPartitionedCall/model/activation_6/mul" version="0"/>
			</rt_info>
			<input>
				<port id="0">
					<dim>1</dim>
					<dim>64</dim>
					<dim>208</dim>
					<dim>208</dim>
				</port>
			</input>
			<output>
				<port id="1" names="StatefulPartitionedCall/model/activation_6/mul:0" precision="FP32">
					<dim>1</dim>
					<dim>64</dim>
					<dim>208</dim>
					<dim>208</dim>
				</port>
			</output>
		</layer>
		<layer id="237" name="StatefulPartitionedCall/model/concatenate/concat/fq_input_0" type="FakeQuantize" version="opset1">
			<data auto_broadcast="numpy" levels="256"/>
			<input>
				<port id="0">
					<dim>1</dim>
					<dim>64</dim>
					<dim>208</dim>
					<dim>208</dim>
				</port>
				<port id="1">
					<dim>1</dim>
					<dim>1</dim>
					<dim>1</dim>
					<dim>1</dim>
				</port>
				<port id="2">
					<dim>1</dim>
					<dim>1</dim>
					<dim>1</dim>
					<dim>1</dim>
				</port>
				<port id="3">
					<dim>1</dim>
					<dim>1</dim>
					<dim>1</dim>
					<dim>1</dim>
				</port>
				<port id="4">
					<dim>1</dim>
					<dim>1</dim>
					<dim>1</dim>
					<dim>1</dim>
				</port>
			</input>
			<output>
				<port id="5" precision="FP32">
					<dim>1</dim>
					<dim>64</dim>
					<dim>208</dim>
					<dim>208</dim>
				</port>
			</output>
		</layer>
		<layer id="238" name="7138714222755" type="Const" version="opset1">
			<data element_type="f32" offset="252" shape="1,1,1,1" size="4"/>
			<output>
				<port id="0" precision="FP32">
					<dim>1</dim>
					<dim>1</dim>
					<dim>1</dim>
					<dim>1</dim>
				</port>
			</output>
		</layer>
		<layer id="239" name="7139714323583" type="Const" version="opset1">
			<data element_type="f32" offset="256" shape="1,1,1,1" size="4"/>
			<output>
				<port id="0" precision="FP32">
					<dim>1</dim>
					<dim>1</dim>
					<dim>1</dim>
					<dim>1</dim>
				</port>
			</output>
		</layer>
		<layer id="240" name="7140714422614" type="Const" version="opset1">
			<data element_type="f32" offset="252" shape="1,1,1,1" size="4"/>
			<output>
				<port id="0" precision="FP32">
					<dim>1</dim>
					<dim>1</dim>
					<dim>1</dim>
					<dim>1</dim>
				</port>
			</output>
		</layer>
		<layer id="241" name="7141714522671" type="Const" version="opset1">
			<data element_type="f32" offset="256" shape="1,1,1,1" size="4"/>
			<output>
				<port id="0" precision="FP32">
					<dim>1</dim>
					<dim>1</dim>
					<dim>1</dim>
					<dim>1</dim>
				</port>
			</output>
		</layer>
		<layer id="242" name="StatefulPartitionedCall/model/batch_normalization_2/FusedBatchNormV3/mean/Fused_Mul__copy98112478/restored_convert/quantized1492724243" type="Const" version="opset1">
			<data element_type="i8" offset="51512" shape="64,64,1,1" size="4096"/>
			<output>
				<port id="0" precision="I8">
					<dim>64</dim>
					<dim>64</dim>
					<dim>1</dim>
					<dim>1</dim>
				</port>
			</output>
		</layer>
		<layer id="243" name="StatefulPartitionedCall/model/batch_normalization_2/FusedBatchNormV3/mean/Fused_Mul__copy98112478/restored_convert/quantized/to_f32" type="Convert" version="opset1">
			<data destination_type="f32"/>
			<input>
				<port id="0">
					<dim>64</dim>
					<dim>64</dim>
					<dim>1</dim>
					<dim>1</dim>
				</port>
			</input>
			<output>
				<port id="1" precision="FP32">
					<dim>64</dim>
					<dim>64</dim>
					<dim>1</dim>
					<dim>1</dim>
				</port>
			</output>
		</layer>
		<layer id="244" name="StatefulPartitionedCall/model/conv2d_2/Conv2D/fq_weights_1/zero_point1494623529" type="Const" version="opset1">
			<data element_type="f32" offset="55608" shape="64,1,1,1" size="256"/>
			<output>
				<port id="0" precision="FP32">
					<dim>64</dim>
					<dim>1</dim>
					<dim>1</dim>
					<dim>1</dim>
				</port>
			</output>
		</layer>
		<layer id="245" name="StatefulPartitionedCall/model/conv2d_2/Conv2D/fq_weights_1/minus_zp" type="Subtract" version="opset1">
			<data auto_broadcast="numpy"/>
			<input>
				<port id="0">
					<dim>64</dim>
					<dim>64</dim>
					<dim>1</dim>
					<dim>1</dim>
				</port>
				<port id="1">
					<dim>64</dim>
					<dim>1</dim>
					<dim>1</dim>
					<dim>1</dim>
				</port>
			</input>
			<output>
				<port id="2" precision="FP32">
					<dim>64</dim>
					<dim>64</dim>
					<dim>1</dim>
					<dim>1</dim>
				</port>
			</output>
		</layer>
		<layer id="246" name="StatefulPartitionedCall/model/conv2d_2/Conv2D/fq_weights_1/scale1493522284" type="Const" version="opset1">
			<data element_type="f32" offset="55864" shape="64,1,1,1" size="256"/>
			<output>
				<port id="0" precision="FP32">
					<dim>64</dim>
					<dim>1</dim>
					<dim>1</dim>
					<dim>1</dim>
				</port>
			</output>
		</layer>
		<layer id="247" name="StatefulPartitionedCall/model/conv2d_2/Conv2D/fq_weights_1/mulpiply_by_scale" type="Multiply" version="opset1">
			<data auto_broadcast="numpy"/>
			<input>
				<port id="0">
					<dim>64</dim>
					<dim>64</dim>
					<dim>1</dim>
					<dim>1</dim>
				</port>
				<port id="1">
					<dim>64</dim>
					<dim>1</dim>
					<dim>1</dim>
					<dim>1</dim>
				</port>
			</input>
			<output>
				<port id="2" precision="FP32">
					<dim>64</dim>
					<dim>64</dim>
					<dim>1</dim>
					<dim>1</dim>
				</port>
			</output>
		</layer>
		<layer id="248" name="StatefulPartitionedCall/model/conv2d_2/Conv2D" type="Convolution" version="opset1">
			<data auto_pad="same_upper" dilations="1,1" pads_begin="0,0" pads_end="0,0" strides="1,1"/>
			<rt_info>
				<attribute name="fused_names" value="StatefulPartitionedCall/model/conv2d_2/Conv2D" version="0"/>
			</rt_info>
			<input>
				<port id="0">
					<dim>1</dim>
					<dim>64</dim>
					<dim>208</dim>
					<dim>208</dim>
				</port>
				<port id="1">
					<dim>64</dim>
					<dim>64</dim>
					<dim>1</dim>
					<dim>1</dim>
				</port>
			</input>
			<output>
				<port id="2" precision="FP32">
					<dim>1</dim>
					<dim>64</dim>
					<dim>208</dim>
					<dim>208</dim>
				</port>
			</output>
		</layer>
		<layer id="249" name="data_add_218312183698423901" type="Const" version="opset1">
			<data element_type="f16" offset="56120" shape="1,64,1,1" size="128"/>
			<output>
				<port id="0" precision="FP16">
					<dim>1</dim>
					<dim>64</dim>
					<dim>1</dim>
					<dim>1</dim>
				</port>
			</output>
		</layer>
		<layer id="250" name="data_add_218312183698412479/restored_convert" type="Convert" version="opset1">
			<data destination_type="f32"/>
			<rt_info>
				<attribute name="decompression" version="0"/>
				<attribute name="fused_names" value="data_add_2183121836" version="0"/>
			</rt_info>
			<input>
				<port id="0">
					<dim>1</dim>
					<dim>64</dim>
					<dim>1</dim>
					<dim>1</dim>
				</port>
			</input>
			<output>
				<port id="1" precision="FP32">
					<dim>1</dim>
					<dim>64</dim>
					<dim>1</dim>
					<dim>1</dim>
				</port>
			</output>
		</layer>
		<layer id="251" name="StatefulPartitionedCall/model/batch_normalization_2/FusedBatchNormV3/variance/Fused_Add_" type="Add" version="opset1">
			<data auto_broadcast="numpy"/>
			<rt_info>
				<attribute name="fused_names" value="StatefulPartitionedCall/model/batch_normalization_2/FusedBatchNormV3/variance/Fused_Add_" version="0"/>
			</rt_info>
			<input>
				<port id="0">
					<dim>1</dim>
					<dim>64</dim>
					<dim>208</dim>
					<dim>208</dim>
				</port>
				<port id="1">
					<dim>1</dim>
					<dim>64</dim>
					<dim>1</dim>
					<dim>1</dim>
				</port>
			</input>
			<output>
				<port id="2" names="StatefulPartitionedCall/model/batch_normalization_2/FusedBatchNormV3:0" precision="FP32">
					<dim>1</dim>
					<dim>64</dim>
					<dim>208</dim>
					<dim>208</dim>
				</port>
			</output>
		</layer>
		<layer id="252" name="StatefulPartitionedCall/model/activation_2/mul" type="Mish" version="opset4">
			<rt_info>
				<attribute name="fused_names" value="StatefulPartitionedCall/model/activation_2/Softplus, StatefulPartitionedCall/model/activation_2/Tanh, StatefulPartitionedCall/model/activation_2/mul" version="0"/>
			</rt_info>
			<input>
				<port id="0">
					<dim>1</dim>
					<dim>64</dim>
					<dim>208</dim>
					<dim>208</dim>
				</port>
			</input>
			<output>
				<port id="1" names="StatefulPartitionedCall/model/activation_2/mul:0" precision="FP32">
					<dim>1</dim>
					<dim>64</dim>
					<dim>208</dim>
					<dim>208</dim>
				</port>
			</output>
		</layer>
		<layer id="253" name="StatefulPartitionedCall/model/concatenate/concat/fq_input_1" type="FakeQuantize" version="opset1">
			<data auto_broadcast="numpy" levels="256"/>
			<input>
				<port id="0">
					<dim>1</dim>
					<dim>64</dim>
					<dim>208</dim>
					<dim>208</dim>
				</port>
				<port id="1">
					<dim>1</dim>
					<dim>1</dim>
					<dim>1</dim>
					<dim>1</dim>
				</port>
				<port id="2">
					<dim>1</dim>
					<dim>1</dim>
					<dim>1</dim>
					<dim>1</dim>
				</port>
				<port id="3">
					<dim>1</dim>
					<dim>1</dim>
					<dim>1</dim>
					<dim>1</dim>
				</port>
				<port id="4">
					<dim>1</dim>
					<dim>1</dim>
					<dim>1</dim>
					<dim>1</dim>
				</port>
			</input>
			<output>
				<port id="5" precision="FP32">
					<dim>1</dim>
					<dim>64</dim>
					<dim>208</dim>
					<dim>208</dim>
				</port>
			</output>
		</layer>
		<layer id="254" name="StatefulPartitionedCall/model/concatenate/concat" type="Concat" version="opset1">
			<data axis="1"/>
			<rt_info>
				<attribute name="fused_names" value="StatefulPartitionedCall/model/concatenate/concat" version="0"/>
			</rt_info>
			<input>
				<port id="0">
					<dim>1</dim>
					<dim>64</dim>
					<dim>208</dim>
					<dim>208</dim>
				</port>
				<port id="1">
					<dim>1</dim>
					<dim>64</dim>
					<dim>208</dim>
					<dim>208</dim>
				</port>
			</input>
			<output>
				<port id="2" names="StatefulPartitionedCall/model/concatenate/concat:0" precision="FP32">
					<dim>1</dim>
					<dim>128</dim>
					<dim>208</dim>
					<dim>208</dim>
				</port>
			</output>
		</layer>
		<layer id="255" name="StatefulPartitionedCall/model/batch_normalization_7/FusedBatchNormV3/mean/Fused_Mul__copy98912480/restored_convert/quantized1576723709" type="Const" version="opset1">
			<data element_type="i8" offset="56248" shape="64,128,1,1" size="8192"/>
			<output>
				<port id="0" precision="I8">
					<dim>64</dim>
					<dim>128</dim>
					<dim>1</dim>
					<dim>1</dim>
				</port>
			</output>
		</layer>
		<layer id="256" name="StatefulPartitionedCall/model/batch_normalization_7/FusedBatchNormV3/mean/Fused_Mul__copy98912480/restored_convert/quantized/to_f32" type="Convert" version="opset1">
			<data destination_type="f32"/>
			<input>
				<port id="0">
					<dim>64</dim>
					<dim>128</dim>
					<dim>1</dim>
					<dim>1</dim>
				</port>
			</input>
			<output>
				<port id="1" precision="FP32">
					<dim>64</dim>
					<dim>128</dim>
					<dim>1</dim>
					<dim>1</dim>
				</port>
			</output>
		</layer>
		<layer id="257" name="StatefulPartitionedCall/model/conv2d_7/Conv2D/fq_weights_1/zero_point1578624696" type="Const" version="opset1">
			<data element_type="f32" offset="64440" shape="64,1,1,1" size="256"/>
			<output>
				<port id="0" precision="FP32">
					<dim>64</dim>
					<dim>1</dim>
					<dim>1</dim>
					<dim>1</dim>
				</port>
			</output>
		</layer>
		<layer id="258" name="StatefulPartitionedCall/model/conv2d_7/Conv2D/fq_weights_1/minus_zp" type="Subtract" version="opset1">
			<data auto_broadcast="numpy"/>
			<input>
				<port id="0">
					<dim>64</dim>
					<dim>128</dim>
					<dim>1</dim>
					<dim>1</dim>
				</port>
				<port id="1">
					<dim>64</dim>
					<dim>1</dim>
					<dim>1</dim>
					<dim>1</dim>
				</port>
			</input>
			<output>
				<port id="2" precision="FP32">
					<dim>64</dim>
					<dim>128</dim>
					<dim>1</dim>
					<dim>1</dim>
				</port>
			</output>
		</layer>
		<layer id="259" name="StatefulPartitionedCall/model/conv2d_7/Conv2D/fq_weights_1/scale1577524003" type="Const" version="opset1">
			<data element_type="f32" offset="64696" shape="64,1,1,1" size="256"/>
			<output>
				<port id="0" precision="FP32">
					<dim>64</dim>
					<dim>1</dim>
					<dim>1</dim>
					<dim>1</dim>
				</port>
			</output>
		</layer>
		<layer id="260" name="StatefulPartitionedCall/model/conv2d_7/Conv2D/fq_weights_1/mulpiply_by_scale" type="Multiply" version="opset1">
			<data auto_broadcast="numpy"/>
			<input>
				<port id="0">
					<dim>64</dim>
					<dim>128</dim>
					<dim>1</dim>
					<dim>1</dim>
				</port>
				<port id="1">
					<dim>64</dim>
					<dim>1</dim>
					<dim>1</dim>
					<dim>1</dim>
				</port>
			</input>
			<output>
				<port id="2" precision="FP32">
					<dim>64</dim>
					<dim>128</dim>
					<dim>1</dim>
					<dim>1</dim>
				</port>
			</output>
		</layer>
		<layer id="261" name="StatefulPartitionedCall/model/conv2d_7/Conv2D" type="Convolution" version="opset1">
			<data auto_pad="same_upper" dilations="1,1" pads_begin="0,0" pads_end="0,0" strides="1,1"/>
			<rt_info>
				<attribute name="fused_names" value="StatefulPartitionedCall/model/conv2d_7/Conv2D" version="0"/>
			</rt_info>
			<input>
				<port id="0">
					<dim>1</dim>
					<dim>128</dim>
					<dim>208</dim>
					<dim>208</dim>
				</port>
				<port id="1">
					<dim>64</dim>
					<dim>128</dim>
					<dim>1</dim>
					<dim>1</dim>
				</port>
			</input>
			<output>
				<port id="2" precision="FP32">
					<dim>1</dim>
					<dim>64</dim>
					<dim>208</dim>
					<dim>208</dim>
				</port>
			</output>
		</layer>
		<layer id="262" name="data_add_218712187699222323" type="Const" version="opset1">
			<data element_type="f16" offset="64952" shape="1,64,1,1" size="128"/>
			<output>
				<port id="0" precision="FP16">
					<dim>1</dim>
					<dim>64</dim>
					<dim>1</dim>
					<dim>1</dim>
				</port>
			</output>
		</layer>
		<layer id="263" name="data_add_218712187699212481/restored_convert" type="Convert" version="opset1">
			<data destination_type="f32"/>
			<rt_info>
				<attribute name="decompression" version="0"/>
				<attribute name="fused_names" value="data_add_2187121876" version="0"/>
			</rt_info>
			<input>
				<port id="0">
					<dim>1</dim>
					<dim>64</dim>
					<dim>1</dim>
					<dim>1</dim>
				</port>
			</input>
			<output>
				<port id="1" precision="FP32">
					<dim>1</dim>
					<dim>64</dim>
					<dim>1</dim>
					<dim>1</dim>
				</port>
			</output>
		</layer>
		<layer id="264" name="StatefulPartitionedCall/model/batch_normalization_7/FusedBatchNormV3/variance/Fused_Add_" type="Add" version="opset1">
			<data auto_broadcast="numpy"/>
			<rt_info>
				<attribute name="fused_names" value="StatefulPartitionedCall/model/batch_normalization_7/FusedBatchNormV3/variance/Fused_Add_" version="0"/>
			</rt_info>
			<input>
				<port id="0">
					<dim>1</dim>
					<dim>64</dim>
					<dim>208</dim>
					<dim>208</dim>
				</port>
				<port id="1">
					<dim>1</dim>
					<dim>64</dim>
					<dim>1</dim>
					<dim>1</dim>
				</port>
			</input>
			<output>
				<port id="2" names="StatefulPartitionedCall/model/batch_normalization_7/FusedBatchNormV3:0" precision="FP32">
					<dim>1</dim>
					<dim>64</dim>
					<dim>208</dim>
					<dim>208</dim>
				</port>
			</output>
		</layer>
		<layer id="265" name="StatefulPartitionedCall/model/activation_7/mul" type="Mish" version="opset4">
			<rt_info>
				<attribute name="fused_names" value="StatefulPartitionedCall/model/activation_7/Softplus, StatefulPartitionedCall/model/activation_7/Tanh, StatefulPartitionedCall/model/activation_7/mul" version="0"/>
			</rt_info>
			<input>
				<port id="0">
					<dim>1</dim>
					<dim>64</dim>
					<dim>208</dim>
					<dim>208</dim>
				</port>
			</input>
			<output>
				<port id="1" names="StatefulPartitionedCall/model/activation_7/mul:0" precision="FP32">
					<dim>1</dim>
					<dim>64</dim>
					<dim>208</dim>
					<dim>208</dim>
				</port>
			</output>
		</layer>
		<layer id="266" name="StatefulPartitionedCall/model/conv2d_8/Conv2D/fq_input_0" type="FakeQuantize" version="opset1">
			<data auto_broadcast="numpy" levels="256"/>
			<input>
				<port id="0">
					<dim>1</dim>
					<dim>64</dim>
					<dim>208</dim>
					<dim>208</dim>
				</port>
				<port id="1">
					<dim>1</dim>
					<dim>1</dim>
					<dim>1</dim>
					<dim>1</dim>
				</port>
				<port id="2">
					<dim>1</dim>
					<dim>1</dim>
					<dim>1</dim>
					<dim>1</dim>
				</port>
				<port id="3">
					<dim>1</dim>
					<dim>1</dim>
					<dim>1</dim>
					<dim>1</dim>
				</port>
				<port id="4">
					<dim>1</dim>
					<dim>1</dim>
					<dim>1</dim>
					<dim>1</dim>
				</port>
			</input>
			<output>
				<port id="5" precision="FP32">
					<dim>1</dim>
					<dim>64</dim>
					<dim>208</dim>
					<dim>208</dim>
				</port>
			</output>
		</layer>
		<layer id="267" name="StatefulPartitionedCall/model/batch_normalization_8/FusedBatchNormV3/mean/Fused_Mul__copy99612482/restored_convert/quantized1708723877" type="Const" version="opset1">
			<data element_type="i8" offset="65080" shape="128,64,3,3" size="73728"/>
			<output>
				<port id="0" precision="I8">
					<dim>128</dim>
					<dim>64</dim>
					<dim>3</dim>
					<dim>3</dim>
				</port>
			</output>
		</layer>
		<layer id="268" name="StatefulPartitionedCall/model/batch_normalization_8/FusedBatchNormV3/mean/Fused_Mul__copy99612482/restored_convert/quantized/to_f32" type="Convert" version="opset1">
			<data destination_type="f32"/>
			<input>
				<port id="0">
					<dim>128</dim>
					<dim>64</dim>
					<dim>3</dim>
					<dim>3</dim>
				</port>
			</input>
			<output>
				<port id="1" precision="FP32">
					<dim>128</dim>
					<dim>64</dim>
					<dim>3</dim>
					<dim>3</dim>
				</port>
			</output>
		</layer>
		<layer id="269" name="StatefulPartitionedCall/model/conv2d_8/Conv2D/fq_weights_1/zero_point1710623040" type="Const" version="opset1">
			<data element_type="f32" offset="138808" shape="128,1,1,1" size="512"/>
			<output>
				<port id="0" precision="FP32">
					<dim>128</dim>
					<dim>1</dim>
					<dim>1</dim>
					<dim>1</dim>
				</port>
			</output>
		</layer>
		<layer id="270" name="StatefulPartitionedCall/model/conv2d_8/Conv2D/fq_weights_1/minus_zp" type="Subtract" version="opset1">
			<data auto_broadcast="numpy"/>
			<input>
				<port id="0">
					<dim>128</dim>
					<dim>64</dim>
					<dim>3</dim>
					<dim>3</dim>
				</port>
				<port id="1">
					<dim>128</dim>
					<dim>1</dim>
					<dim>1</dim>
					<dim>1</dim>
				</port>
			</input>
			<output>
				<port id="2" precision="FP32">
					<dim>128</dim>
					<dim>64</dim>
					<dim>3</dim>
					<dim>3</dim>
				</port>
			</output>
		</layer>
		<layer id="271" name="StatefulPartitionedCall/model/conv2d_8/Conv2D/fq_weights_1/scale1709523508" type="Const" version="opset1">
			<data element_type="f32" offset="139320" shape="128,1,1,1" size="512"/>
			<output>
				<port id="0" precision="FP32">
					<dim>128</dim>
					<dim>1</dim>
					<dim>1</dim>
					<dim>1</dim>
				</port>
			</output>
		</layer>
		<layer id="272" name="StatefulPartitionedCall/model/conv2d_8/Conv2D/fq_weights_1/mulpiply_by_scale" type="Multiply" version="opset1">
			<data auto_broadcast="numpy"/>
			<input>
				<port id="0">
					<dim>128</dim>
					<dim>64</dim>
					<dim>3</dim>
					<dim>3</dim>
				</port>
				<port id="1">
					<dim>128</dim>
					<dim>1</dim>
					<dim>1</dim>
					<dim>1</dim>
				</port>
			</input>
			<output>
				<port id="2" precision="FP32">
					<dim>128</dim>
					<dim>64</dim>
					<dim>3</dim>
					<dim>3</dim>
				</port>
			</output>
		</layer>
		<layer id="273" name="StatefulPartitionedCall/model/conv2d_8/Conv2D" type="Convolution" version="opset1">
			<data auto_pad="explicit" dilations="1,1" pads_begin="1,1" pads_end="0,0" strides="2,2"/>
			<rt_info>
				<attribute name="fused_names" value="StatefulPartitionedCall/model/conv2d_8/Conv2D, StatefulPartitionedCall/model/zero_padding2d_1/Pad" version="0"/>
			</rt_info>
			<input>
				<port id="0">
					<dim>1</dim>
					<dim>64</dim>
					<dim>208</dim>
					<dim>208</dim>
				</port>
				<port id="1">
					<dim>128</dim>
					<dim>64</dim>
					<dim>3</dim>
					<dim>3</dim>
				</port>
			</input>
			<output>
				<port id="2" precision="FP32">
					<dim>1</dim>
					<dim>128</dim>
					<dim>104</dim>
					<dim>104</dim>
				</port>
			</output>
		</layer>
		<layer id="274" name="data_add_218792188499923049" type="Const" version="opset1">
			<data element_type="f16" offset="139832" shape="1,128,1,1" size="256"/>
			<output>
				<port id="0" precision="FP16">
					<dim>1</dim>
					<dim>128</dim>
					<dim>1</dim>
					<dim>1</dim>
				</port>
			</output>
		</layer>
		<layer id="275" name="data_add_218792188499912483/restored_convert" type="Convert" version="opset1">
			<data destination_type="f32"/>
			<rt_info>
				<attribute name="decompression" version="0"/>
				<attribute name="fused_names" value="data_add_2187921884" version="0"/>
			</rt_info>
			<input>
				<port id="0">
					<dim>1</dim>
					<dim>128</dim>
					<dim>1</dim>
					<dim>1</dim>
				</port>
			</input>
			<output>
				<port id="1" precision="FP32">
					<dim>1</dim>
					<dim>128</dim>
					<dim>1</dim>
					<dim>1</dim>
				</port>
			</output>
		</layer>
		<layer id="276" name="StatefulPartitionedCall/model/batch_normalization_8/FusedBatchNormV3/variance/Fused_Add_" type="Add" version="opset1">
			<data auto_broadcast="numpy"/>
			<rt_info>
				<attribute name="fused_names" value="StatefulPartitionedCall/model/batch_normalization_8/FusedBatchNormV3/variance/Fused_Add_" version="0"/>
			</rt_info>
			<input>
				<port id="0">
					<dim>1</dim>
					<dim>128</dim>
					<dim>104</dim>
					<dim>104</dim>
				</port>
				<port id="1">
					<dim>1</dim>
					<dim>128</dim>
					<dim>1</dim>
					<dim>1</dim>
				</port>
			</input>
			<output>
				<port id="2" names="StatefulPartitionedCall/model/batch_normalization_8/FusedBatchNormV3:0" precision="FP32">
					<dim>1</dim>
					<dim>128</dim>
					<dim>104</dim>
					<dim>104</dim>
				</port>
			</output>
		</layer>
		<layer id="277" name="StatefulPartitionedCall/model/activation_8/mul" type="Mish" version="opset4">
			<rt_info>
				<attribute name="fused_names" value="StatefulPartitionedCall/model/activation_8/Softplus, StatefulPartitionedCall/model/activation_8/Tanh, StatefulPartitionedCall/model/activation_8/mul" version="0"/>
			</rt_info>
			<input>
				<port id="0">
					<dim>1</dim>
					<dim>128</dim>
					<dim>104</dim>
					<dim>104</dim>
				</port>
			</input>
			<output>
				<port id="1" names="StatefulPartitionedCall/model/activation_8/mul:0" precision="FP32">
					<dim>1</dim>
					<dim>128</dim>
					<dim>104</dim>
					<dim>104</dim>
				</port>
			</output>
		</layer>
		<layer id="278" name="StatefulPartitionedCall/model/conv2d_10/Conv2D/fq_input_0" type="FakeQuantize" version="opset1">
			<data auto_broadcast="numpy" levels="256"/>
			<input>
				<port id="0">
					<dim>1</dim>
					<dim>128</dim>
					<dim>104</dim>
					<dim>104</dim>
				</port>
				<port id="1">
					<dim>1</dim>
					<dim>1</dim>
					<dim>1</dim>
					<dim>1</dim>
				</port>
				<port id="2">
					<dim>1</dim>
					<dim>1</dim>
					<dim>1</dim>
					<dim>1</dim>
				</port>
				<port id="3">
					<dim>1</dim>
					<dim>1</dim>
					<dim>1</dim>
					<dim>1</dim>
				</port>
				<port id="4">
					<dim>1</dim>
					<dim>1</dim>
					<dim>1</dim>
					<dim>1</dim>
				</port>
			</input>
			<output>
				<port id="5" precision="FP32">
					<dim>1</dim>
					<dim>128</dim>
					<dim>104</dim>
					<dim>104</dim>
				</port>
			</output>
		</layer>
		<layer id="279" name="StatefulPartitionedCall/model/batch_normalization_10/FusedBatchNormV3/mean/Fused_Mul__copy100312484/restored_convert/quantized1423721948" type="Const" version="opset1">
			<data element_type="i8" offset="140088" shape="64,128,1,1" size="8192"/>
			<output>
				<port id="0" precision="I8">
					<dim>64</dim>
					<dim>128</dim>
					<dim>1</dim>
					<dim>1</dim>
				</port>
			</output>
		</layer>
		<layer id="280" name="StatefulPartitionedCall/model/batch_normalization_10/FusedBatchNormV3/mean/Fused_Mul__copy100312484/restored_convert/quantized/to_f32" type="Convert" version="opset1">
			<data destination_type="f32"/>
			<input>
				<port id="0">
					<dim>64</dim>
					<dim>128</dim>
					<dim>1</dim>
					<dim>1</dim>
				</port>
			</input>
			<output>
				<port id="1" precision="FP32">
					<dim>64</dim>
					<dim>128</dim>
					<dim>1</dim>
					<dim>1</dim>
				</port>
			</output>
		</layer>
		<layer id="281" name="StatefulPartitionedCall/model/conv2d_10/Conv2D/fq_weights_1/zero_point1425622668" type="Const" version="opset1">
			<data element_type="f32" offset="148280" shape="64,1,1,1" size="256"/>
			<output>
				<port id="0" precision="FP32">
					<dim>64</dim>
					<dim>1</dim>
					<dim>1</dim>
					<dim>1</dim>
				</port>
			</output>
		</layer>
		<layer id="282" name="StatefulPartitionedCall/model/conv2d_10/Conv2D/fq_weights_1/minus_zp" type="Subtract" version="opset1">
			<data auto_broadcast="numpy"/>
			<input>
				<port id="0">
					<dim>64</dim>
					<dim>128</dim>
					<dim>1</dim>
					<dim>1</dim>
				</port>
				<port id="1">
					<dim>64</dim>
					<dim>1</dim>
					<dim>1</dim>
					<dim>1</dim>
				</port>
			</input>
			<output>
				<port id="2" precision="FP32">
					<dim>64</dim>
					<dim>128</dim>
					<dim>1</dim>
					<dim>1</dim>
				</port>
			</output>
		</layer>
		<layer id="283" name="StatefulPartitionedCall/model/conv2d_10/Conv2D/fq_weights_1/scale1424524717" type="Const" version="opset1">
			<data element_type="f32" offset="148536" shape="64,1,1,1" size="256"/>
			<output>
				<port id="0" precision="FP32">
					<dim>64</dim>
					<dim>1</dim>
					<dim>1</dim>
					<dim>1</dim>
				</port>
			</output>
		</layer>
		<layer id="284" name="StatefulPartitionedCall/model/conv2d_10/Conv2D/fq_weights_1/mulpiply_by_scale" type="Multiply" version="opset1">
			<data auto_broadcast="numpy"/>
			<input>
				<port id="0">
					<dim>64</dim>
					<dim>128</dim>
					<dim>1</dim>
					<dim>1</dim>
				</port>
				<port id="1">
					<dim>64</dim>
					<dim>1</dim>
					<dim>1</dim>
					<dim>1</dim>
				</port>
			</input>
			<output>
				<port id="2" precision="FP32">
					<dim>64</dim>
					<dim>128</dim>
					<dim>1</dim>
					<dim>1</dim>
				</port>
			</output>
		</layer>
		<layer id="285" name="StatefulPartitionedCall/model/conv2d_10/Conv2D" type="Convolution" version="opset1">
			<data auto_pad="same_upper" dilations="1,1" pads_begin="0,0" pads_end="0,0" strides="1,1"/>
			<rt_info>
				<attribute name="fused_names" value="StatefulPartitionedCall/model/conv2d_10/Conv2D" version="0"/>
			</rt_info>
			<input>
				<port id="0">
					<dim>1</dim>
					<dim>128</dim>
					<dim>104</dim>
					<dim>104</dim>
				</port>
				<port id="1">
					<dim>64</dim>
					<dim>128</dim>
					<dim>1</dim>
					<dim>1</dim>
				</port>
			</input>
			<output>
				<port id="2" precision="FP32">
					<dim>1</dim>
					<dim>64</dim>
					<dim>104</dim>
					<dim>104</dim>
				</port>
			</output>
		</layer>
		<layer id="286" name="data_add_2189521900100623697" type="Const" version="opset1">
			<data element_type="f16" offset="148792" shape="1,64,1,1" size="128"/>
			<output>
				<port id="0" precision="FP16">
					<dim>1</dim>
					<dim>64</dim>
					<dim>1</dim>
					<dim>1</dim>
				</port>
			</output>
		</layer>
		<layer id="287" name="data_add_2189521900100612485/restored_convert" type="Convert" version="opset1">
			<data destination_type="f32"/>
			<rt_info>
				<attribute name="decompression" version="0"/>
				<attribute name="fused_names" value="data_add_2189521900" version="0"/>
			</rt_info>
			<input>
				<port id="0">
					<dim>1</dim>
					<dim>64</dim>
					<dim>1</dim>
					<dim>1</dim>
				</port>
			</input>
			<output>
				<port id="1" precision="FP32">
					<dim>1</dim>
					<dim>64</dim>
					<dim>1</dim>
					<dim>1</dim>
				</port>
			</output>
		</layer>
		<layer id="288" name="StatefulPartitionedCall/model/batch_normalization_10/FusedBatchNormV3/variance/Fused_Add_" type="Add" version="opset1">
			<data auto_broadcast="numpy"/>
			<rt_info>
				<attribute name="fused_names" value="StatefulPartitionedCall/model/batch_normalization_10/FusedBatchNormV3/variance/Fused_Add_" version="0"/>
			</rt_info>
			<input>
				<port id="0">
					<dim>1</dim>
					<dim>64</dim>
					<dim>104</dim>
					<dim>104</dim>
				</port>
				<port id="1">
					<dim>1</dim>
					<dim>64</dim>
					<dim>1</dim>
					<dim>1</dim>
				</port>
			</input>
			<output>
				<port id="2" names="StatefulPartitionedCall/model/batch_normalization_10/FusedBatchNormV3:0" precision="FP32">
					<dim>1</dim>
					<dim>64</dim>
					<dim>104</dim>
					<dim>104</dim>
				</port>
			</output>
		</layer>
		<layer id="289" name="StatefulPartitionedCall/model/activation_10/mul" type="Mish" version="opset4">
			<rt_info>
				<attribute name="fused_names" value="StatefulPartitionedCall/model/activation_10/Softplus, StatefulPartitionedCall/model/activation_10/Tanh, StatefulPartitionedCall/model/activation_10/mul" version="0"/>
			</rt_info>
			<input>
				<port id="0">
					<dim>1</dim>
					<dim>64</dim>
					<dim>104</dim>
					<dim>104</dim>
				</port>
			</input>
			<output>
				<port id="1" names="StatefulPartitionedCall/model/activation_10/mul:0" precision="FP32">
					<dim>1</dim>
					<dim>64</dim>
					<dim>104</dim>
					<dim>104</dim>
				</port>
			</output>
		</layer>
		<layer id="290" name="StatefulPartitionedCall/model/add_1/add/fq_input_0" type="FakeQuantize" version="opset1">
			<data auto_broadcast="numpy" levels="256"/>
			<input>
				<port id="0">
					<dim>1</dim>
					<dim>64</dim>
					<dim>104</dim>
					<dim>104</dim>
				</port>
				<port id="1">
					<dim>1</dim>
					<dim>1</dim>
					<dim>1</dim>
					<dim>1</dim>
				</port>
				<port id="2">
					<dim>1</dim>
					<dim>1</dim>
					<dim>1</dim>
					<dim>1</dim>
				</port>
				<port id="3">
					<dim>1</dim>
					<dim>1</dim>
					<dim>1</dim>
					<dim>1</dim>
				</port>
				<port id="4">
					<dim>1</dim>
					<dim>1</dim>
					<dim>1</dim>
					<dim>1</dim>
				</port>
			</input>
			<output>
				<port id="5" precision="FP32">
					<dim>1</dim>
					<dim>64</dim>
					<dim>104</dim>
					<dim>104</dim>
				</port>
			</output>
		</layer>
		<layer id="291" name="3683368723343" type="Const" version="opset1">
			<data element_type="f32" offset="276" shape="1,1,1,1" size="4"/>
			<output>
				<port id="0" precision="FP32">
					<dim>1</dim>
					<dim>1</dim>
					<dim>1</dim>
					<dim>1</dim>
				</port>
			</output>
		</layer>
		<layer id="292" name="3684368823130" type="Const" version="opset1">
			<data element_type="f32" offset="148920" shape="1,1,1,1" size="4"/>
			<output>
				<port id="0" precision="FP32">
					<dim>1</dim>
					<dim>1</dim>
					<dim>1</dim>
					<dim>1</dim>
				</port>
			</output>
		</layer>
		<layer id="293" name="3685368924207" type="Const" version="opset1">
			<data element_type="f32" offset="276" shape="1,1,1,1" size="4"/>
			<output>
				<port id="0" precision="FP32">
					<dim>1</dim>
					<dim>1</dim>
					<dim>1</dim>
					<dim>1</dim>
				</port>
			</output>
		</layer>
		<layer id="294" name="3686369024306" type="Const" version="opset1">
			<data element_type="f32" offset="148920" shape="1,1,1,1" size="4"/>
			<output>
				<port id="0" precision="FP32">
					<dim>1</dim>
					<dim>1</dim>
					<dim>1</dim>
					<dim>1</dim>
				</port>
			</output>
		</layer>
		<layer id="295" name="5353535724795" type="Const" version="opset1">
			<data element_type="f32" offset="200" shape="1,1,1,1" size="4"/>
			<output>
				<port id="0" precision="FP32">
					<dim>1</dim>
					<dim>1</dim>
					<dim>1</dim>
					<dim>1</dim>
				</port>
			</output>
		</layer>
		<layer id="296" name="5354535824291" type="Const" version="opset1">
			<data element_type="f32" offset="148924" shape="1,1,1,1" size="4"/>
			<output>
				<port id="0" precision="FP32">
					<dim>1</dim>
					<dim>1</dim>
					<dim>1</dim>
					<dim>1</dim>
				</port>
			</output>
		</layer>
		<layer id="297" name="5355535922428" type="Const" version="opset1">
			<data element_type="f32" offset="200" shape="1,1,1,1" size="4"/>
			<output>
				<port id="0" precision="FP32">
					<dim>1</dim>
					<dim>1</dim>
					<dim>1</dim>
					<dim>1</dim>
				</port>
			</output>
		</layer>
		<layer id="298" name="5356536024156" type="Const" version="opset1">
			<data element_type="f32" offset="148924" shape="1,1,1,1" size="4"/>
			<output>
				<port id="0" precision="FP32">
					<dim>1</dim>
					<dim>1</dim>
					<dim>1</dim>
					<dim>1</dim>
				</port>
			</output>
		</layer>
		<layer id="299" name="StatefulPartitionedCall/model/batch_normalization_11/FusedBatchNormV3/mean/Fused_Mul__copy101012486/restored_convert/quantized1588722365" type="Const" version="opset1">
			<data element_type="i8" offset="148928" shape="64,64,1,1" size="4096"/>
			<output>
				<port id="0" precision="I8">
					<dim>64</dim>
					<dim>64</dim>
					<dim>1</dim>
					<dim>1</dim>
				</port>
			</output>
		</layer>
		<layer id="300" name="StatefulPartitionedCall/model/batch_normalization_11/FusedBatchNormV3/mean/Fused_Mul__copy101012486/restored_convert/quantized/to_f32" type="Convert" version="opset1">
			<data destination_type="f32"/>
			<input>
				<port id="0">
					<dim>64</dim>
					<dim>64</dim>
					<dim>1</dim>
					<dim>1</dim>
				</port>
			</input>
			<output>
				<port id="1" precision="FP32">
					<dim>64</dim>
					<dim>64</dim>
					<dim>1</dim>
					<dim>1</dim>
				</port>
			</output>
		</layer>
		<layer id="301" name="StatefulPartitionedCall/model/conv2d_11/Conv2D/fq_weights_1/zero_point1590621954" type="Const" version="opset1">
			<data element_type="f32" offset="153024" shape="64,1,1,1" size="256"/>
			<output>
				<port id="0" precision="FP32">
					<dim>64</dim>
					<dim>1</dim>
					<dim>1</dim>
					<dim>1</dim>
				</port>
			</output>
		</layer>
		<layer id="302" name="StatefulPartitionedCall/model/conv2d_11/Conv2D/fq_weights_1/minus_zp" type="Subtract" version="opset1">
			<data auto_broadcast="numpy"/>
			<input>
				<port id="0">
					<dim>64</dim>
					<dim>64</dim>
					<dim>1</dim>
					<dim>1</dim>
				</port>
				<port id="1">
					<dim>64</dim>
					<dim>1</dim>
					<dim>1</dim>
					<dim>1</dim>
				</port>
			</input>
			<output>
				<port id="2" precision="FP32">
					<dim>64</dim>
					<dim>64</dim>
					<dim>1</dim>
					<dim>1</dim>
				</port>
			</output>
		</layer>
		<layer id="303" name="StatefulPartitionedCall/model/conv2d_11/Conv2D/fq_weights_1/scale1589521906" type="Const" version="opset1">
			<data element_type="f32" offset="153280" shape="64,1,1,1" size="256"/>
			<output>
				<port id="0" precision="FP32">
					<dim>64</dim>
					<dim>1</dim>
					<dim>1</dim>
					<dim>1</dim>
				</port>
			</output>
		</layer>
		<layer id="304" name="StatefulPartitionedCall/model/conv2d_11/Conv2D/fq_weights_1/mulpiply_by_scale" type="Multiply" version="opset1">
			<data auto_broadcast="numpy"/>
			<input>
				<port id="0">
					<dim>64</dim>
					<dim>64</dim>
					<dim>1</dim>
					<dim>1</dim>
				</port>
				<port id="1">
					<dim>64</dim>
					<dim>1</dim>
					<dim>1</dim>
					<dim>1</dim>
				</port>
			</input>
			<output>
				<port id="2" precision="FP32">
					<dim>64</dim>
					<dim>64</dim>
					<dim>1</dim>
					<dim>1</dim>
				</port>
			</output>
		</layer>
		<layer id="305" name="StatefulPartitionedCall/model/conv2d_11/Conv2D" type="Convolution" version="opset1">
			<data auto_pad="same_upper" dilations="1,1" pads_begin="0,0" pads_end="0,0" strides="1,1"/>
			<rt_info>
				<attribute name="fused_names" value="StatefulPartitionedCall/model/conv2d_11/Conv2D" version="0"/>
			</rt_info>
			<input>
				<port id="0">
					<dim>1</dim>
					<dim>64</dim>
					<dim>104</dim>
					<dim>104</dim>
				</port>
				<port id="1">
					<dim>64</dim>
					<dim>64</dim>
					<dim>1</dim>
					<dim>1</dim>
				</port>
			</input>
			<output>
				<port id="2" precision="FP32">
					<dim>1</dim>
					<dim>64</dim>
					<dim>104</dim>
					<dim>104</dim>
				</port>
			</output>
		</layer>
		<layer id="306" name="data_add_2190321908101323442" type="Const" version="opset1">
			<data element_type="f16" offset="153536" shape="1,64,1,1" size="128"/>
			<output>
				<port id="0" precision="FP16">
					<dim>1</dim>
					<dim>64</dim>
					<dim>1</dim>
					<dim>1</dim>
				</port>
			</output>
		</layer>
		<layer id="307" name="data_add_2190321908101312487/restored_convert" type="Convert" version="opset1">
			<data destination_type="f32"/>
			<rt_info>
				<attribute name="decompression" version="0"/>
				<attribute name="fused_names" value="data_add_2190321908" version="0"/>
			</rt_info>
			<input>
				<port id="0">
					<dim>1</dim>
					<dim>64</dim>
					<dim>1</dim>
					<dim>1</dim>
				</port>
			</input>
			<output>
				<port id="1" precision="FP32">
					<dim>1</dim>
					<dim>64</dim>
					<dim>1</dim>
					<dim>1</dim>
				</port>
			</output>
		</layer>
		<layer id="308" name="StatefulPartitionedCall/model/batch_normalization_11/FusedBatchNormV3/variance/Fused_Add_" type="Add" version="opset1">
			<data auto_broadcast="numpy"/>
			<rt_info>
				<attribute name="fused_names" value="StatefulPartitionedCall/model/batch_normalization_11/FusedBatchNormV3/variance/Fused_Add_" version="0"/>
			</rt_info>
			<input>
				<port id="0">
					<dim>1</dim>
					<dim>64</dim>
					<dim>104</dim>
					<dim>104</dim>
				</port>
				<port id="1">
					<dim>1</dim>
					<dim>64</dim>
					<dim>1</dim>
					<dim>1</dim>
				</port>
			</input>
			<output>
				<port id="2" names="StatefulPartitionedCall/model/batch_normalization_11/FusedBatchNormV3:0" precision="FP32">
					<dim>1</dim>
					<dim>64</dim>
					<dim>104</dim>
					<dim>104</dim>
				</port>
			</output>
		</layer>
		<layer id="309" name="StatefulPartitionedCall/model/activation_11/mul" type="Mish" version="opset4">
			<rt_info>
				<attribute name="fused_names" value="StatefulPartitionedCall/model/activation_11/Softplus, StatefulPartitionedCall/model/activation_11/Tanh, StatefulPartitionedCall/model/activation_11/mul" version="0"/>
			</rt_info>
			<input>
				<port id="0">
					<dim>1</dim>
					<dim>64</dim>
					<dim>104</dim>
					<dim>104</dim>
				</port>
			</input>
			<output>
				<port id="1" names="StatefulPartitionedCall/model/activation_11/mul:0" precision="FP32">
					<dim>1</dim>
					<dim>64</dim>
					<dim>104</dim>
					<dim>104</dim>
				</port>
			</output>
		</layer>
		<layer id="310" name="StatefulPartitionedCall/model/conv2d_12/Conv2D/fq_input_0" type="FakeQuantize" version="opset1">
			<data auto_broadcast="numpy" levels="256"/>
			<input>
				<port id="0">
					<dim>1</dim>
					<dim>64</dim>
					<dim>104</dim>
					<dim>104</dim>
				</port>
				<port id="1">
					<dim>1</dim>
					<dim>1</dim>
					<dim>1</dim>
					<dim>1</dim>
				</port>
				<port id="2">
					<dim>1</dim>
					<dim>1</dim>
					<dim>1</dim>
					<dim>1</dim>
				</port>
				<port id="3">
					<dim>1</dim>
					<dim>1</dim>
					<dim>1</dim>
					<dim>1</dim>
				</port>
				<port id="4">
					<dim>1</dim>
					<dim>1</dim>
					<dim>1</dim>
					<dim>1</dim>
				</port>
			</input>
			<output>
				<port id="5" precision="FP32">
					<dim>1</dim>
					<dim>64</dim>
					<dim>104</dim>
					<dim>104</dim>
				</port>
			</output>
		</layer>
		<layer id="311" name="StatefulPartitionedCall/model/batch_normalization_12/FusedBatchNormV3/mean/Fused_Mul__copy101712488/restored_convert/quantized1546722803" type="Const" version="opset1">
			<data element_type="i8" offset="153664" shape="64,64,3,3" size="36864"/>
			<output>
				<port id="0" precision="I8">
					<dim>64</dim>
					<dim>64</dim>
					<dim>3</dim>
					<dim>3</dim>
				</port>
			</output>
		</layer>
		<layer id="312" name="StatefulPartitionedCall/model/batch_normalization_12/FusedBatchNormV3/mean/Fused_Mul__copy101712488/restored_convert/quantized/to_f32" type="Convert" version="opset1">
			<data destination_type="f32"/>
			<input>
				<port id="0">
					<dim>64</dim>
					<dim>64</dim>
					<dim>3</dim>
					<dim>3</dim>
				</port>
			</input>
			<output>
				<port id="1" precision="FP32">
					<dim>64</dim>
					<dim>64</dim>
					<dim>3</dim>
					<dim>3</dim>
				</port>
			</output>
		</layer>
		<layer id="313" name="StatefulPartitionedCall/model/conv2d_12/Conv2D/fq_weights_1/zero_point1548622089" type="Const" version="opset1">
			<data element_type="f32" offset="190528" shape="64,1,1,1" size="256"/>
			<output>
				<port id="0" precision="FP32">
					<dim>64</dim>
					<dim>1</dim>
					<dim>1</dim>
					<dim>1</dim>
				</port>
			</output>
		</layer>
		<layer id="314" name="StatefulPartitionedCall/model/conv2d_12/Conv2D/fq_weights_1/minus_zp" type="Subtract" version="opset1">
			<data auto_broadcast="numpy"/>
			<input>
				<port id="0">
					<dim>64</dim>
					<dim>64</dim>
					<dim>3</dim>
					<dim>3</dim>
				</port>
				<port id="1">
					<dim>64</dim>
					<dim>1</dim>
					<dim>1</dim>
					<dim>1</dim>
				</port>
			</input>
			<output>
				<port id="2" precision="FP32">
					<dim>64</dim>
					<dim>64</dim>
					<dim>3</dim>
					<dim>3</dim>
				</port>
			</output>
		</layer>
		<layer id="315" name="StatefulPartitionedCall/model/conv2d_12/Conv2D/fq_weights_1/scale1547522923" type="Const" version="opset1">
			<data element_type="f32" offset="190784" shape="64,1,1,1" size="256"/>
			<output>
				<port id="0" precision="FP32">
					<dim>64</dim>
					<dim>1</dim>
					<dim>1</dim>
					<dim>1</dim>
				</port>
			</output>
		</layer>
		<layer id="316" name="StatefulPartitionedCall/model/conv2d_12/Conv2D/fq_weights_1/mulpiply_by_scale" type="Multiply" version="opset1">
			<data auto_broadcast="numpy"/>
			<input>
				<port id="0">
					<dim>64</dim>
					<dim>64</dim>
					<dim>3</dim>
					<dim>3</dim>
				</port>
				<port id="1">
					<dim>64</dim>
					<dim>1</dim>
					<dim>1</dim>
					<dim>1</dim>
				</port>
			</input>
			<output>
				<port id="2" precision="FP32">
					<dim>64</dim>
					<dim>64</dim>
					<dim>3</dim>
					<dim>3</dim>
				</port>
			</output>
		</layer>
		<layer id="317" name="StatefulPartitionedCall/model/conv2d_12/Conv2D" type="Convolution" version="opset1">
			<data auto_pad="same_upper" dilations="1,1" pads_begin="0,0" pads_end="0,0" strides="1,1"/>
			<rt_info>
				<attribute name="fused_names" value="StatefulPartitionedCall/model/conv2d_12/Conv2D" version="0"/>
			</rt_info>
			<input>
				<port id="0">
					<dim>1</dim>
					<dim>64</dim>
					<dim>104</dim>
					<dim>104</dim>
				</port>
				<port id="1">
					<dim>64</dim>
					<dim>64</dim>
					<dim>3</dim>
					<dim>3</dim>
				</port>
			</input>
			<output>
				<port id="2" precision="FP32">
					<dim>1</dim>
					<dim>64</dim>
					<dim>104</dim>
					<dim>104</dim>
				</port>
			</output>
		</layer>
		<layer id="318" name="data_add_2191121916102022476" type="Const" version="opset1">
			<data element_type="f16" offset="191040" shape="1,64,1,1" size="128"/>
			<output>
				<port id="0" precision="FP16">
					<dim>1</dim>
					<dim>64</dim>
					<dim>1</dim>
					<dim>1</dim>
				</port>
			</output>
		</layer>
		<layer id="319" name="data_add_2191121916102012489/restored_convert" type="Convert" version="opset1">
			<data destination_type="f32"/>
			<rt_info>
				<attribute name="decompression" version="0"/>
				<attribute name="fused_names" value="data_add_2191121916" version="0"/>
			</rt_info>
			<input>
				<port id="0">
					<dim>1</dim>
					<dim>64</dim>
					<dim>1</dim>
					<dim>1</dim>
				</port>
			</input>
			<output>
				<port id="1" precision="FP32">
					<dim>1</dim>
					<dim>64</dim>
					<dim>1</dim>
					<dim>1</dim>
				</port>
			</output>
		</layer>
		<layer id="320" name="StatefulPartitionedCall/model/batch_normalization_12/FusedBatchNormV3/variance/Fused_Add_" type="Add" version="opset1">
			<data auto_broadcast="numpy"/>
			<rt_info>
				<attribute name="fused_names" value="StatefulPartitionedCall/model/batch_normalization_12/FusedBatchNormV3/variance/Fused_Add_" version="0"/>
			</rt_info>
			<input>
				<port id="0">
					<dim>1</dim>
					<dim>64</dim>
					<dim>104</dim>
					<dim>104</dim>
				</port>
				<port id="1">
					<dim>1</dim>
					<dim>64</dim>
					<dim>1</dim>
					<dim>1</dim>
				</port>
			</input>
			<output>
				<port id="2" names="StatefulPartitionedCall/model/batch_normalization_12/FusedBatchNormV3:0" precision="FP32">
					<dim>1</dim>
					<dim>64</dim>
					<dim>104</dim>
					<dim>104</dim>
				</port>
			</output>
		</layer>
		<layer id="321" name="StatefulPartitionedCall/model/activation_12/mul" type="Mish" version="opset4">
			<rt_info>
				<attribute name="fused_names" value="StatefulPartitionedCall/model/activation_12/Softplus, StatefulPartitionedCall/model/activation_12/Tanh, StatefulPartitionedCall/model/activation_12/mul" version="0"/>
			</rt_info>
			<input>
				<port id="0">
					<dim>1</dim>
					<dim>64</dim>
					<dim>104</dim>
					<dim>104</dim>
				</port>
			</input>
			<output>
				<port id="1" names="StatefulPartitionedCall/model/activation_12/mul:0" precision="FP32">
					<dim>1</dim>
					<dim>64</dim>
					<dim>104</dim>
					<dim>104</dim>
				</port>
			</output>
		</layer>
		<layer id="322" name="StatefulPartitionedCall/model/add_1/add/fq_input_1" type="FakeQuantize" version="opset1">
			<data auto_broadcast="numpy" levels="256"/>
			<input>
				<port id="0">
					<dim>1</dim>
					<dim>64</dim>
					<dim>104</dim>
					<dim>104</dim>
				</port>
				<port id="1">
					<dim>1</dim>
					<dim>1</dim>
					<dim>1</dim>
					<dim>1</dim>
				</port>
				<port id="2">
					<dim>1</dim>
					<dim>1</dim>
					<dim>1</dim>
					<dim>1</dim>
				</port>
				<port id="3">
					<dim>1</dim>
					<dim>1</dim>
					<dim>1</dim>
					<dim>1</dim>
				</port>
				<port id="4">
					<dim>1</dim>
					<dim>1</dim>
					<dim>1</dim>
					<dim>1</dim>
				</port>
			</input>
			<output>
				<port id="5" precision="FP32">
					<dim>1</dim>
					<dim>64</dim>
					<dim>104</dim>
					<dim>104</dim>
				</port>
			</output>
		</layer>
		<layer id="323" name="StatefulPartitionedCall/model/add_1/add" type="Add" version="opset1">
			<data auto_broadcast="numpy"/>
			<rt_info>
				<attribute name="fused_names" value="StatefulPartitionedCall/model/add_1/add" version="0"/>
			</rt_info>
			<input>
				<port id="0">
					<dim>1</dim>
					<dim>64</dim>
					<dim>104</dim>
					<dim>104</dim>
				</port>
				<port id="1">
					<dim>1</dim>
					<dim>64</dim>
					<dim>104</dim>
					<dim>104</dim>
				</port>
			</input>
			<output>
				<port id="2" names="StatefulPartitionedCall/model/add_1/add:0" precision="FP32">
					<dim>1</dim>
					<dim>64</dim>
					<dim>104</dim>
					<dim>104</dim>
				</port>
			</output>
		</layer>
		<layer id="324" name="StatefulPartitionedCall/model/add_2/add/fq_input_0" type="FakeQuantize" version="opset1">
			<data auto_broadcast="numpy" levels="256"/>
			<input>
				<port id="0">
					<dim>1</dim>
					<dim>64</dim>
					<dim>104</dim>
					<dim>104</dim>
				</port>
				<port id="1">
					<dim>1</dim>
					<dim>1</dim>
					<dim>1</dim>
					<dim>1</dim>
				</port>
				<port id="2">
					<dim>1</dim>
					<dim>1</dim>
					<dim>1</dim>
					<dim>1</dim>
				</port>
				<port id="3">
					<dim>1</dim>
					<dim>1</dim>
					<dim>1</dim>
					<dim>1</dim>
				</port>
				<port id="4">
					<dim>1</dim>
					<dim>1</dim>
					<dim>1</dim>
					<dim>1</dim>
				</port>
			</input>
			<output>
				<port id="5" precision="FP32">
					<dim>1</dim>
					<dim>64</dim>
					<dim>104</dim>
					<dim>104</dim>
				</port>
			</output>
		</layer>
		<layer id="325" name="4223422722134" type="Const" version="opset1">
			<data element_type="f32" offset="191168" shape="1,1,1,1" size="4"/>
			<output>
				<port id="0" precision="FP32">
					<dim>1</dim>
					<dim>1</dim>
					<dim>1</dim>
					<dim>1</dim>
				</port>
			</output>
		</layer>
		<layer id="326" name="4224422822977" type="Const" version="opset1">
			<data element_type="f32" offset="191172" shape="1,1,1,1" size="4"/>
			<output>
				<port id="0" precision="FP32">
					<dim>1</dim>
					<dim>1</dim>
					<dim>1</dim>
					<dim>1</dim>
				</port>
			</output>
		</layer>
		<layer id="327" name="4225422923574" type="Const" version="opset1">
			<data element_type="f32" offset="191168" shape="1,1,1,1" size="4"/>
			<output>
				<port id="0" precision="FP32">
					<dim>1</dim>
					<dim>1</dim>
					<dim>1</dim>
					<dim>1</dim>
				</port>
			</output>
		</layer>
		<layer id="328" name="4226423024249" type="Const" version="opset1">
			<data element_type="f32" offset="191172" shape="1,1,1,1" size="4"/>
			<output>
				<port id="0" precision="FP32">
					<dim>1</dim>
					<dim>1</dim>
					<dim>1</dim>
					<dim>1</dim>
				</port>
			</output>
		</layer>
		<layer id="329" name="3513351722173" type="Const" version="opset1">
			<data element_type="f32" offset="276" shape="1,1,1,1" size="4"/>
			<output>
				<port id="0" precision="FP32">
					<dim>1</dim>
					<dim>1</dim>
					<dim>1</dim>
					<dim>1</dim>
				</port>
			</output>
		</layer>
		<layer id="330" name="3514351823424" type="Const" version="opset1">
			<data element_type="f32" offset="191176" shape="1,1,1,1" size="4"/>
			<output>
				<port id="0" precision="FP32">
					<dim>1</dim>
					<dim>1</dim>
					<dim>1</dim>
					<dim>1</dim>
				</port>
			</output>
		</layer>
		<layer id="331" name="3515351924561" type="Const" version="opset1">
			<data element_type="f32" offset="276" shape="1,1,1,1" size="4"/>
			<output>
				<port id="0" precision="FP32">
					<dim>1</dim>
					<dim>1</dim>
					<dim>1</dim>
					<dim>1</dim>
				</port>
			</output>
		</layer>
		<layer id="332" name="3516352021828" type="Const" version="opset1">
			<data element_type="f32" offset="191176" shape="1,1,1,1" size="4"/>
			<output>
				<port id="0" precision="FP32">
					<dim>1</dim>
					<dim>1</dim>
					<dim>1</dim>
					<dim>1</dim>
				</port>
			</output>
		</layer>
		<layer id="333" name="StatefulPartitionedCall/model/batch_normalization_13/FusedBatchNormV3/mean/Fused_Mul__copy102512490/restored_convert/quantized1618723775" type="Const" version="opset1">
			<data element_type="i8" offset="191180" shape="64,64,1,1" size="4096"/>
			<output>
				<port id="0" precision="I8">
					<dim>64</dim>
					<dim>64</dim>
					<dim>1</dim>
					<dim>1</dim>
				</port>
			</output>
		</layer>
		<layer id="334" name="StatefulPartitionedCall/model/batch_normalization_13/FusedBatchNormV3/mean/Fused_Mul__copy102512490/restored_convert/quantized/to_f32" type="Convert" version="opset1">
			<data destination_type="f32"/>
			<input>
				<port id="0">
					<dim>64</dim>
					<dim>64</dim>
					<dim>1</dim>
					<dim>1</dim>
				</port>
			</input>
			<output>
				<port id="1" precision="FP32">
					<dim>64</dim>
					<dim>64</dim>
					<dim>1</dim>
					<dim>1</dim>
				</port>
			</output>
		</layer>
		<layer id="335" name="StatefulPartitionedCall/model/conv2d_13/Conv2D/fq_weights_1/zero_point1620624408" type="Const" version="opset1">
			<data element_type="f32" offset="195276" shape="64,1,1,1" size="256"/>
			<output>
				<port id="0" precision="FP32">
					<dim>64</dim>
					<dim>1</dim>
					<dim>1</dim>
					<dim>1</dim>
				</port>
			</output>
		</layer>
		<layer id="336" name="StatefulPartitionedCall/model/conv2d_13/Conv2D/fq_weights_1/minus_zp" type="Subtract" version="opset1">
			<data auto_broadcast="numpy"/>
			<input>
				<port id="0">
					<dim>64</dim>
					<dim>64</dim>
					<dim>1</dim>
					<dim>1</dim>
				</port>
				<port id="1">
					<dim>64</dim>
					<dim>1</dim>
					<dim>1</dim>
					<dim>1</dim>
				</port>
			</input>
			<output>
				<port id="2" precision="FP32">
					<dim>64</dim>
					<dim>64</dim>
					<dim>1</dim>
					<dim>1</dim>
				</port>
			</output>
		</layer>
		<layer id="337" name="StatefulPartitionedCall/model/conv2d_13/Conv2D/fq_weights_1/scale1619524846" type="Const" version="opset1">
			<data element_type="f32" offset="195532" shape="64,1,1,1" size="256"/>
			<output>
				<port id="0" precision="FP32">
					<dim>64</dim>
					<dim>1</dim>
					<dim>1</dim>
					<dim>1</dim>
				</port>
			</output>
		</layer>
		<layer id="338" name="StatefulPartitionedCall/model/conv2d_13/Conv2D/fq_weights_1/mulpiply_by_scale" type="Multiply" version="opset1">
			<data auto_broadcast="numpy"/>
			<input>
				<port id="0">
					<dim>64</dim>
					<dim>64</dim>
					<dim>1</dim>
					<dim>1</dim>
				</port>
				<port id="1">
					<dim>64</dim>
					<dim>1</dim>
					<dim>1</dim>
					<dim>1</dim>
				</port>
			</input>
			<output>
				<port id="2" precision="FP32">
					<dim>64</dim>
					<dim>64</dim>
					<dim>1</dim>
					<dim>1</dim>
				</port>
			</output>
		</layer>
		<layer id="339" name="StatefulPartitionedCall/model/conv2d_13/Conv2D" type="Convolution" version="opset1">
			<data auto_pad="same_upper" dilations="1,1" pads_begin="0,0" pads_end="0,0" strides="1,1"/>
			<rt_info>
				<attribute name="fused_names" value="StatefulPartitionedCall/model/conv2d_13/Conv2D" version="0"/>
			</rt_info>
			<input>
				<port id="0">
					<dim>1</dim>
					<dim>64</dim>
					<dim>104</dim>
					<dim>104</dim>
				</port>
				<port id="1">
					<dim>64</dim>
					<dim>64</dim>
					<dim>1</dim>
					<dim>1</dim>
				</port>
			</input>
			<output>
				<port id="2" precision="FP32">
					<dim>1</dim>
					<dim>64</dim>
					<dim>104</dim>
					<dim>104</dim>
				</port>
			</output>
		</layer>
		<layer id="340" name="data_add_2191921924102823796" type="Const" version="opset1">
			<data element_type="f16" offset="195788" shape="1,64,1,1" size="128"/>
			<output>
				<port id="0" precision="FP16">
					<dim>1</dim>
					<dim>64</dim>
					<dim>1</dim>
					<dim>1</dim>
				</port>
			</output>
		</layer>
		<layer id="341" name="data_add_2191921924102812491/restored_convert" type="Convert" version="opset1">
			<data destination_type="f32"/>
			<rt_info>
				<attribute name="decompression" version="0"/>
				<attribute name="fused_names" value="data_add_2191921924" version="0"/>
			</rt_info>
			<input>
				<port id="0">
					<dim>1</dim>
					<dim>64</dim>
					<dim>1</dim>
					<dim>1</dim>
				</port>
			</input>
			<output>
				<port id="1" precision="FP32">
					<dim>1</dim>
					<dim>64</dim>
					<dim>1</dim>
					<dim>1</dim>
				</port>
			</output>
		</layer>
		<layer id="342" name="StatefulPartitionedCall/model/batch_normalization_13/FusedBatchNormV3/variance/Fused_Add_" type="Add" version="opset1">
			<data auto_broadcast="numpy"/>
			<rt_info>
				<attribute name="fused_names" value="StatefulPartitionedCall/model/batch_normalization_13/FusedBatchNormV3/variance/Fused_Add_" version="0"/>
			</rt_info>
			<input>
				<port id="0">
					<dim>1</dim>
					<dim>64</dim>
					<dim>104</dim>
					<dim>104</dim>
				</port>
				<port id="1">
					<dim>1</dim>
					<dim>64</dim>
					<dim>1</dim>
					<dim>1</dim>
				</port>
			</input>
			<output>
				<port id="2" names="StatefulPartitionedCall/model/batch_normalization_13/FusedBatchNormV3:0" precision="FP32">
					<dim>1</dim>
					<dim>64</dim>
					<dim>104</dim>
					<dim>104</dim>
				</port>
			</output>
		</layer>
		<layer id="343" name="StatefulPartitionedCall/model/activation_13/mul" type="Mish" version="opset4">
			<rt_info>
				<attribute name="fused_names" value="StatefulPartitionedCall/model/activation_13/Softplus, StatefulPartitionedCall/model/activation_13/Tanh, StatefulPartitionedCall/model/activation_13/mul" version="0"/>
			</rt_info>
			<input>
				<port id="0">
					<dim>1</dim>
					<dim>64</dim>
					<dim>104</dim>
					<dim>104</dim>
				</port>
			</input>
			<output>
				<port id="1" names="StatefulPartitionedCall/model/activation_13/mul:0" precision="FP32">
					<dim>1</dim>
					<dim>64</dim>
					<dim>104</dim>
					<dim>104</dim>
				</port>
			</output>
		</layer>
		<layer id="344" name="StatefulPartitionedCall/model/conv2d_14/Conv2D/fq_input_0" type="FakeQuantize" version="opset1">
			<data auto_broadcast="numpy" levels="256"/>
			<input>
				<port id="0">
					<dim>1</dim>
					<dim>64</dim>
					<dim>104</dim>
					<dim>104</dim>
				</port>
				<port id="1">
					<dim>1</dim>
					<dim>1</dim>
					<dim>1</dim>
					<dim>1</dim>
				</port>
				<port id="2">
					<dim>1</dim>
					<dim>1</dim>
					<dim>1</dim>
					<dim>1</dim>
				</port>
				<port id="3">
					<dim>1</dim>
					<dim>1</dim>
					<dim>1</dim>
					<dim>1</dim>
				</port>
				<port id="4">
					<dim>1</dim>
					<dim>1</dim>
					<dim>1</dim>
					<dim>1</dim>
				</port>
			</input>
			<output>
				<port id="5" precision="FP32">
					<dim>1</dim>
					<dim>64</dim>
					<dim>104</dim>
					<dim>104</dim>
				</port>
			</output>
		</layer>
		<layer id="345" name="StatefulPartitionedCall/model/batch_normalization_14/FusedBatchNormV3/mean/Fused_Mul__copy103212492/restored_convert/quantized1582721825" type="Const" version="opset1">
			<data element_type="i8" offset="195916" shape="64,64,3,3" size="36864"/>
			<output>
				<port id="0" precision="I8">
					<dim>64</dim>
					<dim>64</dim>
					<dim>3</dim>
					<dim>3</dim>
				</port>
			</output>
		</layer>
		<layer id="346" name="StatefulPartitionedCall/model/batch_normalization_14/FusedBatchNormV3/mean/Fused_Mul__copy103212492/restored_convert/quantized/to_f32" type="Convert" version="opset1">
			<data destination_type="f32"/>
			<input>
				<port id="0">
					<dim>64</dim>
					<dim>64</dim>
					<dim>3</dim>
					<dim>3</dim>
				</port>
			</input>
			<output>
				<port id="1" precision="FP32">
					<dim>64</dim>
					<dim>64</dim>
					<dim>3</dim>
					<dim>3</dim>
				</port>
			</output>
		</layer>
		<layer id="347" name="StatefulPartitionedCall/model/conv2d_14/Conv2D/fq_weights_1/zero_point1584624555" type="Const" version="opset1">
			<data element_type="f32" offset="232780" shape="64,1,1,1" size="256"/>
			<output>
				<port id="0" precision="FP32">
					<dim>64</dim>
					<dim>1</dim>
					<dim>1</dim>
					<dim>1</dim>
				</port>
			</output>
		</layer>
		<layer id="348" name="StatefulPartitionedCall/model/conv2d_14/Conv2D/fq_weights_1/minus_zp" type="Subtract" version="opset1">
			<data auto_broadcast="numpy"/>
			<input>
				<port id="0">
					<dim>64</dim>
					<dim>64</dim>
					<dim>3</dim>
					<dim>3</dim>
				</port>
				<port id="1">
					<dim>64</dim>
					<dim>1</dim>
					<dim>1</dim>
					<dim>1</dim>
				</port>
			</input>
			<output>
				<port id="2" precision="FP32">
					<dim>64</dim>
					<dim>64</dim>
					<dim>3</dim>
					<dim>3</dim>
				</port>
			</output>
		</layer>
		<layer id="349" name="StatefulPartitionedCall/model/conv2d_14/Conv2D/fq_weights_1/scale1583523514" type="Const" version="opset1">
			<data element_type="f32" offset="233036" shape="64,1,1,1" size="256"/>
			<output>
				<port id="0" precision="FP32">
					<dim>64</dim>
					<dim>1</dim>
					<dim>1</dim>
					<dim>1</dim>
				</port>
			</output>
		</layer>
		<layer id="350" name="StatefulPartitionedCall/model/conv2d_14/Conv2D/fq_weights_1/mulpiply_by_scale" type="Multiply" version="opset1">
			<data auto_broadcast="numpy"/>
			<input>
				<port id="0">
					<dim>64</dim>
					<dim>64</dim>
					<dim>3</dim>
					<dim>3</dim>
				</port>
				<port id="1">
					<dim>64</dim>
					<dim>1</dim>
					<dim>1</dim>
					<dim>1</dim>
				</port>
			</input>
			<output>
				<port id="2" precision="FP32">
					<dim>64</dim>
					<dim>64</dim>
					<dim>3</dim>
					<dim>3</dim>
				</port>
			</output>
		</layer>
		<layer id="351" name="StatefulPartitionedCall/model/conv2d_14/Conv2D" type="Convolution" version="opset1">
			<data auto_pad="same_upper" dilations="1,1" pads_begin="0,0" pads_end="0,0" strides="1,1"/>
			<rt_info>
				<attribute name="fused_names" value="StatefulPartitionedCall/model/conv2d_14/Conv2D" version="0"/>
			</rt_info>
			<input>
				<port id="0">
					<dim>1</dim>
					<dim>64</dim>
					<dim>104</dim>
…
		<edge from-layer="1193" from-port="0" to-layer="1498" to-port="4"/>
		<edge from-layer="1499" from-port="0" to-layer="1500" to-port="0"/>
		<edge from-layer="1500" from-port="1" to-layer="1502" to-port="0"/>
		<edge from-layer="1501" from-port="0" to-layer="1502" to-port="1"/>
		<edge from-layer="1502" from-port="2" to-layer="1504" to-port="0"/>
		<edge from-layer="1503" from-port="0" to-layer="1504" to-port="1"/>
		<edge from-layer="1498" from-port="5" to-layer="1505" to-port="0"/>
		<edge from-layer="1504" from-port="2" to-layer="1505" to-port="1"/>
		<edge from-layer="1506" from-port="0" to-layer="1507" to-port="0"/>
		<edge from-layer="1505" from-port="2" to-layer="1508" to-port="0"/>
		<edge from-layer="1507" from-port="1" to-layer="1508" to-port="1"/>
		<edge from-layer="1509" from-port="0" to-layer="1510" to-port="0"/>
		<edge from-layer="1508" from-port="2" to-layer="1511" to-port="0"/>
		<edge from-layer="1510" from-port="1" to-layer="1511" to-port="1"/>
		<edge from-layer="1511" from-port="2" to-layer="1512" to-port="0"/>
		<edge from-layer="1186" from-port="0" to-layer="1512" to-port="1"/>
		<edge from-layer="1187" from-port="0" to-layer="1512" to-port="2"/>
		<edge from-layer="1188" from-port="0" to-layer="1512" to-port="3"/>
		<edge from-layer="1189" from-port="0" to-layer="1512" to-port="4"/>
		<edge from-layer="1513" from-port="0" to-layer="1514" to-port="0"/>
		<edge from-layer="1514" from-port="1" to-layer="1516" to-port="0"/>
		<edge from-layer="1515" from-port="0" to-layer="1516" to-port="1"/>
		<edge from-layer="1516" from-port="2" to-layer="1518" to-port="0"/>
		<edge from-layer="1517" from-port="0" to-layer="1518" to-port="1"/>
		<edge from-layer="1512" from-port="5" to-layer="1519" to-port="0"/>
		<edge from-layer="1518" from-port="2" to-layer="1519" to-port="1"/>
		<edge from-layer="1520" from-port="0" to-layer="1521" to-port="0"/>
		<edge from-layer="1519" from-port="2" to-layer="1522" to-port="0"/>
		<edge from-layer="1521" from-port="1" to-layer="1522" to-port="1"/>
		<edge from-layer="1523" from-port="0" to-layer="1524" to-port="0"/>
		<edge from-layer="1522" from-port="2" to-layer="1525" to-port="0"/>
		<edge from-layer="1524" from-port="1" to-layer="1525" to-port="1"/>
		<edge from-layer="1525" from-port="2" to-layer="1526" to-port="0"/>
		<edge from-layer="1182" from-port="0" to-layer="1526" to-port="1"/>
		<edge from-layer="1183" from-port="0" to-layer="1526" to-port="2"/>
		<edge from-layer="1184" from-port="0" to-layer="1526" to-port="3"/>
		<edge from-layer="1185" from-port="0" to-layer="1526" to-port="4"/>
		<edge from-layer="1527" from-port="0" to-layer="1528" to-port="0"/>
		<edge from-layer="1528" from-port="1" to-layer="1530" to-port="0"/>
		<edge from-layer="1529" from-port="0" to-layer="1530" to-port="1"/>
		<edge from-layer="1530" from-port="2" to-layer="1532" to-port="0"/>
		<edge from-layer="1531" from-port="0" to-layer="1532" to-port="1"/>
		<edge from-layer="1526" from-port="5" to-layer="1533" to-port="0"/>
		<edge from-layer="1532" from-port="2" to-layer="1533" to-port="1"/>
		<edge from-layer="1534" from-port="0" to-layer="1535" to-port="0"/>
		<edge from-layer="1533" from-port="2" to-layer="1536" to-port="0"/>
		<edge from-layer="1535" from-port="1" to-layer="1536" to-port="1"/>
		<edge from-layer="1537" from-port="0" to-layer="1538" to-port="0"/>
		<edge from-layer="1536" from-port="2" to-layer="1539" to-port="0"/>
		<edge from-layer="1538" from-port="1" to-layer="1539" to-port="1"/>
		<edge from-layer="1539" from-port="2" to-layer="1540" to-port="0"/>
		<edge from-layer="1540" from-port="1" to-layer="1543" to-port="0"/>
		<edge from-layer="1541" from-port="0" to-layer="1543" to-port="1"/>
		<edge from-layer="1542" from-port="0" to-layer="1543" to-port="2"/>
		<edge from-layer="1543" from-port="3" to-layer="1547" to-port="0"/>
		<edge from-layer="1544" from-port="0" to-layer="1547" to-port="1"/>
		<edge from-layer="1545" from-port="0" to-layer="1547" to-port="2"/>
		<edge from-layer="1546" from-port="0" to-layer="1547" to-port="3"/>
		<edge from-layer="1547" from-port="4" to-layer="1549" to-port="0"/>
		<edge from-layer="1548" from-port="0" to-layer="1549" to-port="1"/>
		<edge from-layer="1549" from-port="2" to-layer="1550" to-port="0"/>
		<edge from-layer="1539" from-port="2" to-layer="1551" to-port="0"/>
		<edge from-layer="1551" from-port="1" to-layer="1554" to-port="0"/>
		<edge from-layer="1552" from-port="0" to-layer="1554" to-port="1"/>
		<edge from-layer="1553" from-port="0" to-layer="1554" to-port="2"/>
		<edge from-layer="1554" from-port="3" to-layer="1558" to-port="0"/>
		<edge from-layer="1555" from-port="0" to-layer="1558" to-port="1"/>
		<edge from-layer="1556" from-port="0" to-layer="1558" to-port="2"/>
		<edge from-layer="1557" from-port="0" to-layer="1558" to-port="3"/>
		<edge from-layer="1558" from-port="4" to-layer="1559" to-port="0"/>
		<edge from-layer="1550" from-port="1" to-layer="1560" to-port="0"/>
		<edge from-layer="1559" from-port="1" to-layer="1560" to-port="1"/>
		<edge from-layer="1539" from-port="2" to-layer="1566" to-port="0"/>
		<edge from-layer="1562" from-port="0" to-layer="1566" to-port="1"/>
		<edge from-layer="1563" from-port="0" to-layer="1566" to-port="2"/>
		<edge from-layer="1564" from-port="0" to-layer="1566" to-port="3"/>
		<edge from-layer="1565" from-port="0" to-layer="1566" to-port="4"/>
		<edge from-layer="1549" from-port="2" to-layer="1567" to-port="0"/>
		<edge from-layer="1566" from-port="5" to-layer="1568" to-port="0"/>
		<edge from-layer="1567" from-port="1" to-layer="1568" to-port="1"/>
		<edge from-layer="1560" from-port="2" to-layer="1568" to-port="2"/>
		<edge from-layer="1561" from-port="0" to-layer="1568" to-port="3"/>
		<edge from-layer="1568" from-port="4" to-layer="1569" to-port="0"/>
		<edge from-layer="1178" from-port="0" to-layer="1569" to-port="1"/>
		<edge from-layer="1179" from-port="0" to-layer="1569" to-port="2"/>
		<edge from-layer="1180" from-port="0" to-layer="1569" to-port="3"/>
		<edge from-layer="1181" from-port="0" to-layer="1569" to-port="4"/>
		<edge from-layer="1177" from-port="5" to-layer="1570" to-port="0"/>
		<edge from-layer="1569" from-port="5" to-layer="1570" to-port="1"/>
		<edge from-layer="1571" from-port="0" to-layer="1572" to-port="0"/>
		<edge from-layer="1572" from-port="1" to-layer="1574" to-port="0"/>
		<edge from-layer="1573" from-port="0" to-layer="1574" to-port="1"/>
		<edge from-layer="1574" from-port="2" to-layer="1576" to-port="0"/>
		<edge from-layer="1575" from-port="0" to-layer="1576" to-port="1"/>
		<edge from-layer="1570" from-port="2" to-layer="1577" to-port="0"/>
		<edge from-layer="1576" from-port="2" to-layer="1577" to-port="1"/>
		<edge from-layer="1578" from-port="0" to-layer="1579" to-port="0"/>
		<edge from-layer="1577" from-port="2" to-layer="1580" to-port="0"/>
		<edge from-layer="1579" from-port="1" to-layer="1580" to-port="1"/>
		<edge from-layer="1581" from-port="0" to-layer="1582" to-port="0"/>
		<edge from-layer="1580" from-port="2" to-layer="1583" to-port="0"/>
		<edge from-layer="1582" from-port="1" to-layer="1583" to-port="1"/>
		<edge from-layer="1583" from-port="2" to-layer="1584" to-port="0"/>
		<edge from-layer="771" from-port="0" to-layer="1584" to-port="1"/>
		<edge from-layer="772" from-port="0" to-layer="1584" to-port="2"/>
		<edge from-layer="773" from-port="0" to-layer="1584" to-port="3"/>
		<edge from-layer="774" from-port="0" to-layer="1584" to-port="4"/>
		<edge from-layer="1585" from-port="0" to-layer="1586" to-port="0"/>
		<edge from-layer="1586" from-port="1" to-layer="1588" to-port="0"/>
		<edge from-layer="1587" from-port="0" to-layer="1588" to-port="1"/>
		<edge from-layer="1588" from-port="2" to-layer="1590" to-port="0"/>
		<edge from-layer="1589" from-port="0" to-layer="1590" to-port="1"/>
		<edge from-layer="1584" from-port="5" to-layer="1591" to-port="0"/>
		<edge from-layer="1590" from-port="2" to-layer="1591" to-port="1"/>
		<edge from-layer="1592" from-port="0" to-layer="1593" to-port="0"/>
		<edge from-layer="1591" from-port="2" to-layer="1594" to-port="0"/>
		<edge from-layer="1593" from-port="1" to-layer="1594" to-port="1"/>
		<edge from-layer="1595" from-port="0" to-layer="1596" to-port="0"/>
		<edge from-layer="1594" from-port="2" to-layer="1597" to-port="0"/>
		<edge from-layer="1596" from-port="1" to-layer="1597" to-port="1"/>
		<edge from-layer="1597" from-port="2" to-layer="1598" to-port="0"/>
		<edge from-layer="767" from-port="0" to-layer="1598" to-port="1"/>
		<edge from-layer="768" from-port="0" to-layer="1598" to-port="2"/>
		<edge from-layer="769" from-port="0" to-layer="1598" to-port="3"/>
		<edge from-layer="770" from-port="0" to-layer="1598" to-port="4"/>
		<edge from-layer="1599" from-port="0" to-layer="1600" to-port="0"/>
		<edge from-layer="1600" from-port="1" to-layer="1602" to-port="0"/>
		<edge from-layer="1601" from-port="0" to-layer="1602" to-port="1"/>
		<edge from-layer="1602" from-port="2" to-layer="1604" to-port="0"/>
		<edge from-layer="1603" from-port="0" to-layer="1604" to-port="1"/>
		<edge from-layer="1598" from-port="5" to-layer="1605" to-port="0"/>
		<edge from-layer="1604" from-port="2" to-layer="1605" to-port="1"/>
		<edge from-layer="1606" from-port="0" to-layer="1607" to-port="0"/>
		<edge from-layer="1605" from-port="2" to-layer="1608" to-port="0"/>
		<edge from-layer="1607" from-port="1" to-layer="1608" to-port="1"/>
		<edge from-layer="1609" from-port="0" to-layer="1610" to-port="0"/>
		<edge from-layer="1608" from-port="2" to-layer="1611" to-port="0"/>
		<edge from-layer="1610" from-port="1" to-layer="1611" to-port="1"/>
		<edge from-layer="1611" from-port="2" to-layer="1612" to-port="0"/>
		<edge from-layer="763" from-port="0" to-layer="1612" to-port="1"/>
		<edge from-layer="764" from-port="0" to-layer="1612" to-port="2"/>
		<edge from-layer="765" from-port="0" to-layer="1612" to-port="3"/>
		<edge from-layer="766" from-port="0" to-layer="1612" to-port="4"/>
		<edge from-layer="1613" from-port="0" to-layer="1614" to-port="0"/>
		<edge from-layer="1614" from-port="1" to-layer="1616" to-port="0"/>
		<edge from-layer="1615" from-port="0" to-layer="1616" to-port="1"/>
		<edge from-layer="1616" from-port="2" to-layer="1618" to-port="0"/>
		<edge from-layer="1617" from-port="0" to-layer="1618" to-port="1"/>
		<edge from-layer="1612" from-port="5" to-layer="1619" to-port="0"/>
		<edge from-layer="1618" from-port="2" to-layer="1619" to-port="1"/>
		<edge from-layer="1620" from-port="0" to-layer="1621" to-port="0"/>
		<edge from-layer="1619" from-port="2" to-layer="1622" to-port="0"/>
		<edge from-layer="1621" from-port="1" to-layer="1622" to-port="1"/>
		<edge from-layer="1623" from-port="0" to-layer="1624" to-port="0"/>
		<edge from-layer="1622" from-port="2" to-layer="1625" to-port="0"/>
		<edge from-layer="1624" from-port="1" to-layer="1625" to-port="1"/>
		<edge from-layer="1625" from-port="2" to-layer="1626" to-port="0"/>
		<edge from-layer="759" from-port="0" to-layer="1626" to-port="1"/>
		<edge from-layer="760" from-port="0" to-layer="1626" to-port="2"/>
		<edge from-layer="761" from-port="0" to-layer="1626" to-port="3"/>
		<edge from-layer="762" from-port="0" to-layer="1626" to-port="4"/>
		<edge from-layer="1627" from-port="0" to-layer="1628" to-port="0"/>
		<edge from-layer="1628" from-port="1" to-layer="1630" to-port="0"/>
		<edge from-layer="1629" from-port="0" to-layer="1630" to-port="1"/>
		<edge from-layer="1630" from-port="2" to-layer="1632" to-port="0"/>
		<edge from-layer="1631" from-port="0" to-layer="1632" to-port="1"/>
		<edge from-layer="1626" from-port="5" to-layer="1633" to-port="0"/>
		<edge from-layer="1632" from-port="2" to-layer="1633" to-port="1"/>
		<edge from-layer="1634" from-port="0" to-layer="1635" to-port="0"/>
		<edge from-layer="1633" from-port="2" to-layer="1636" to-port="0"/>
		<edge from-layer="1635" from-port="1" to-layer="1636" to-port="1"/>
		<edge from-layer="1637" from-port="0" to-layer="1638" to-port="0"/>
		<edge from-layer="1636" from-port="2" to-layer="1639" to-port="0"/>
		<edge from-layer="1638" from-port="1" to-layer="1639" to-port="1"/>
		<edge from-layer="1639" from-port="2" to-layer="1640" to-port="0"/>
		<edge from-layer="755" from-port="0" to-layer="1640" to-port="1"/>
		<edge from-layer="756" from-port="0" to-layer="1640" to-port="2"/>
		<edge from-layer="757" from-port="0" to-layer="1640" to-port="3"/>
		<edge from-layer="758" from-port="0" to-layer="1640" to-port="4"/>
		<edge from-layer="1641" from-port="0" to-layer="1642" to-port="0"/>
		<edge from-layer="1642" from-port="1" to-layer="1644" to-port="0"/>
		<edge from-layer="1643" from-port="0" to-layer="1644" to-port="1"/>
		<edge from-layer="1644" from-port="2" to-layer="1646" to-port="0"/>
		<edge from-layer="1645" from-port="0" to-layer="1646" to-port="1"/>
		<edge from-layer="1640" from-port="5" to-layer="1647" to-port="0"/>
		<edge from-layer="1646" from-port="2" to-layer="1647" to-port="1"/>
		<edge from-layer="1648" from-port="0" to-layer="1649" to-port="0"/>
		<edge from-layer="1647" from-port="2" to-layer="1650" to-port="0"/>
		<edge from-layer="1649" from-port="1" to-layer="1650" to-port="1"/>
		<edge from-layer="1651" from-port="0" to-layer="1652" to-port="0"/>
		<edge from-layer="1650" from-port="2" to-layer="1653" to-port="0"/>
		<edge from-layer="1652" from-port="1" to-layer="1653" to-port="1"/>
		<edge from-layer="1653" from-port="2" to-layer="1654" to-port="0"/>
		<edge from-layer="1654" from-port="1" to-layer="1657" to-port="0"/>
		<edge from-layer="1655" from-port="0" to-layer="1657" to-port="1"/>
		<edge from-layer="1656" from-port="0" to-layer="1657" to-port="2"/>
		<edge from-layer="1657" from-port="3" to-layer="1661" to-port="0"/>
		<edge from-layer="1658" from-port="0" to-layer="1661" to-port="1"/>
		<edge from-layer="1659" from-port="0" to-layer="1661" to-port="2"/>
		<edge from-layer="1660" from-port="0" to-layer="1661" to-port="3"/>
		<edge from-layer="1661" from-port="4" to-layer="1663" to-port="0"/>
		<edge from-layer="1662" from-port="0" to-layer="1663" to-port="1"/>
		<edge from-layer="1663" from-port="2" to-layer="1664" to-port="0"/>
		<edge from-layer="1653" from-port="2" to-layer="1665" to-port="0"/>
		<edge from-layer="1665" from-port="1" to-layer="1668" to-port="0"/>
		<edge from-layer="1666" from-port="0" to-layer="1668" to-port="1"/>
		<edge from-layer="1667" from-port="0" to-layer="1668" to-port="2"/>
		<edge from-layer="1668" from-port="3" to-layer="1672" to-port="0"/>
		<edge from-layer="1669" from-port="0" to-layer="1672" to-port="1"/>
		<edge from-layer="1670" from-port="0" to-layer="1672" to-port="2"/>
		<edge from-layer="1671" from-port="0" to-layer="1672" to-port="3"/>
		<edge from-layer="1672" from-port="4" to-layer="1673" to-port="0"/>
		<edge from-layer="1664" from-port="1" to-layer="1674" to-port="0"/>
		<edge from-layer="1673" from-port="1" to-layer="1674" to-port="1"/>
		<edge from-layer="1653" from-port="2" to-layer="1680" to-port="0"/>
		<edge from-layer="1676" from-port="0" to-layer="1680" to-port="1"/>
		<edge from-layer="1677" from-port="0" to-layer="1680" to-port="2"/>
		<edge from-layer="1678" from-port="0" to-layer="1680" to-port="3"/>
		<edge from-layer="1679" from-port="0" to-layer="1680" to-port="4"/>
		<edge from-layer="1663" from-port="2" to-layer="1681" to-port="0"/>
		<edge from-layer="1680" from-port="5" to-layer="1682" to-port="0"/>
		<edge from-layer="1681" from-port="1" to-layer="1682" to-port="1"/>
		<edge from-layer="1674" from-port="2" to-layer="1682" to-port="2"/>
		<edge from-layer="1675" from-port="0" to-layer="1682" to-port="3"/>
		<edge from-layer="1682" from-port="4" to-layer="1683" to-port="0"/>
		<edge from-layer="751" from-port="0" to-layer="1683" to-port="1"/>
		<edge from-layer="752" from-port="0" to-layer="1683" to-port="2"/>
		<edge from-layer="753" from-port="0" to-layer="1683" to-port="3"/>
		<edge from-layer="754" from-port="0" to-layer="1683" to-port="4"/>
		<edge from-layer="750" from-port="5" to-layer="1684" to-port="0"/>
		<edge from-layer="1683" from-port="5" to-layer="1684" to-port="1"/>
		<edge from-layer="1685" from-port="0" to-layer="1686" to-port="0"/>
		<edge from-layer="1686" from-port="1" to-layer="1688" to-port="0"/>
		<edge from-layer="1687" from-port="0" to-layer="1688" to-port="1"/>
		<edge from-layer="1688" from-port="2" to-layer="1690" to-port="0"/>
		<edge from-layer="1689" from-port="0" to-layer="1690" to-port="1"/>
		<edge from-layer="1684" from-port="2" to-layer="1691" to-port="0"/>
		<edge from-layer="1690" from-port="2" to-layer="1691" to-port="1"/>
		<edge from-layer="1692" from-port="0" to-layer="1693" to-port="0"/>
		<edge from-layer="1691" from-port="2" to-layer="1694" to-port="0"/>
		<edge from-layer="1693" from-port="1" to-layer="1694" to-port="1"/>
		<edge from-layer="1695" from-port="0" to-layer="1696" to-port="0"/>
		<edge from-layer="1694" from-port="2" to-layer="1697" to-port="0"/>
		<edge from-layer="1696" from-port="1" to-layer="1697" to-port="1"/>
		<edge from-layer="1697" from-port="2" to-layer="1698" to-port="0"/>
		<edge from-layer="44" from-port="0" to-layer="1698" to-port="1"/>
		<edge from-layer="45" from-port="0" to-layer="1698" to-port="2"/>
		<edge from-layer="46" from-port="0" to-layer="1698" to-port="3"/>
		<edge from-layer="47" from-port="0" to-layer="1698" to-port="4"/>
		<edge from-layer="1699" from-port="0" to-layer="1700" to-port="0"/>
		<edge from-layer="1700" from-port="1" to-layer="1702" to-port="0"/>
		<edge from-layer="1701" from-port="0" to-layer="1702" to-port="1"/>
		<edge from-layer="1702" from-port="2" to-layer="1704" to-port="0"/>
		<edge from-layer="1703" from-port="0" to-layer="1704" to-port="1"/>
		<edge from-layer="1698" from-port="5" to-layer="1705" to-port="0"/>
		<edge from-layer="1704" from-port="2" to-layer="1705" to-port="1"/>
		<edge from-layer="1706" from-port="0" to-layer="1707" to-port="0"/>
		<edge from-layer="1705" from-port="2" to-layer="1708" to-port="0"/>
		<edge from-layer="1707" from-port="1" to-layer="1708" to-port="1"/>
		<edge from-layer="1709" from-port="0" to-layer="1710" to-port="0"/>
		<edge from-layer="1708" from-port="2" to-layer="1711" to-port="0"/>
		<edge from-layer="1710" from-port="1" to-layer="1711" to-port="1"/>
		<edge from-layer="1711" from-port="2" to-layer="1712" to-port="0"/>
		<edge from-layer="40" from-port="0" to-layer="1712" to-port="1"/>
		<edge from-layer="41" from-port="0" to-layer="1712" to-port="2"/>
		<edge from-layer="42" from-port="0" to-layer="1712" to-port="3"/>
		<edge from-layer="43" from-port="0" to-layer="1712" to-port="4"/>
		<edge from-layer="1713" from-port="0" to-layer="1714" to-port="0"/>
		<edge from-layer="1714" from-port="1" to-layer="1716" to-port="0"/>
		<edge from-layer="1715" from-port="0" to-layer="1716" to-port="1"/>
		<edge from-layer="1716" from-port="2" to-layer="1718" to-port="0"/>
		<edge from-layer="1717" from-port="0" to-layer="1718" to-port="1"/>
		<edge from-layer="1712" from-port="5" to-layer="1719" to-port="0"/>
		<edge from-layer="1718" from-port="2" to-layer="1719" to-port="1"/>
		<edge from-layer="1720" from-port="0" to-layer="1721" to-port="0"/>
		<edge from-layer="1719" from-port="2" to-layer="1722" to-port="0"/>
		<edge from-layer="1721" from-port="1" to-layer="1722" to-port="1"/>
		<edge from-layer="1723" from-port="0" to-layer="1724" to-port="0"/>
		<edge from-layer="1722" from-port="2" to-layer="1725" to-port="0"/>
		<edge from-layer="1724" from-port="1" to-layer="1725" to-port="1"/>
		<edge from-layer="1725" from-port="2" to-layer="1726" to-port="0"/>
		<edge from-layer="36" from-port="0" to-layer="1726" to-port="1"/>
		<edge from-layer="37" from-port="0" to-layer="1726" to-port="2"/>
		<edge from-layer="38" from-port="0" to-layer="1726" to-port="3"/>
		<edge from-layer="39" from-port="0" to-layer="1726" to-port="4"/>
		<edge from-layer="1727" from-port="0" to-layer="1728" to-port="0"/>
		<edge from-layer="1728" from-port="1" to-layer="1730" to-port="0"/>
		<edge from-layer="1729" from-port="0" to-layer="1730" to-port="1"/>
		<edge from-layer="1730" from-port="2" to-layer="1732" to-port="0"/>
		<edge from-layer="1731" from-port="0" to-layer="1732" to-port="1"/>
		<edge from-layer="1726" from-port="5" to-layer="1733" to-port="0"/>
		<edge from-layer="1732" from-port="2" to-layer="1733" to-port="1"/>
		<edge from-layer="1734" from-port="0" to-layer="1735" to-port="0"/>
		<edge from-layer="1733" from-port="2" to-layer="1736" to-port="0"/>
		<edge from-layer="1735" from-port="1" to-layer="1736" to-port="1"/>
		<edge from-layer="1737" from-port="0" to-layer="1738" to-port="0"/>
		<edge from-layer="1736" from-port="2" to-layer="1739" to-port="0"/>
		<edge from-layer="1738" from-port="1" to-layer="1739" to-port="1"/>
		<edge from-layer="1739" from-port="2" to-layer="1740" to-port="0"/>
		<edge from-layer="32" from-port="0" to-layer="1740" to-port="1"/>
		<edge from-layer="33" from-port="0" to-layer="1740" to-port="2"/>
		<edge from-layer="34" from-port="0" to-layer="1740" to-port="3"/>
		<edge from-layer="35" from-port="0" to-layer="1740" to-port="4"/>
		<edge from-layer="1741" from-port="0" to-layer="1742" to-port="0"/>
		<edge from-layer="1742" from-port="1" to-layer="1744" to-port="0"/>
		<edge from-layer="1743" from-port="0" to-layer="1744" to-port="1"/>
		<edge from-layer="1744" from-port="2" to-layer="1746" to-port="0"/>
		<edge from-layer="1745" from-port="0" to-layer="1746" to-port="1"/>
		<edge from-layer="1740" from-port="5" to-layer="1747" to-port="0"/>
		<edge from-layer="1746" from-port="2" to-layer="1747" to-port="1"/>
		<edge from-layer="1748" from-port="0" to-layer="1749" to-port="0"/>
		<edge from-layer="1747" from-port="2" to-layer="1750" to-port="0"/>
		<edge from-layer="1749" from-port="1" to-layer="1750" to-port="1"/>
		<edge from-layer="1751" from-port="0" to-layer="1752" to-port="0"/>
		<edge from-layer="1750" from-port="2" to-layer="1753" to-port="0"/>
		<edge from-layer="1752" from-port="1" to-layer="1753" to-port="1"/>
		<edge from-layer="1753" from-port="2" to-layer="1754" to-port="0"/>
		<edge from-layer="28" from-port="0" to-layer="1754" to-port="1"/>
		<edge from-layer="29" from-port="0" to-layer="1754" to-port="2"/>
		<edge from-layer="30" from-port="0" to-layer="1754" to-port="3"/>
		<edge from-layer="31" from-port="0" to-layer="1754" to-port="4"/>
		<edge from-layer="1755" from-port="0" to-layer="1756" to-port="0"/>
		<edge from-layer="1756" from-port="1" to-layer="1758" to-port="0"/>
		<edge from-layer="1757" from-port="0" to-layer="1758" to-port="1"/>
		<edge from-layer="1758" from-port="2" to-layer="1760" to-port="0"/>
		<edge from-layer="1759" from-port="0" to-layer="1760" to-port="1"/>
		<edge from-layer="1754" from-port="5" to-layer="1761" to-port="0"/>
		<edge from-layer="1760" from-port="2" to-layer="1761" to-port="1"/>
		<edge from-layer="1762" from-port="0" to-layer="1763" to-port="0"/>
		<edge from-layer="1761" from-port="2" to-layer="1764" to-port="0"/>
		<edge from-layer="1763" from-port="1" to-layer="1764" to-port="1"/>
		<edge from-layer="1765" from-port="0" to-layer="1766" to-port="0"/>
		<edge from-layer="1764" from-port="2" to-layer="1767" to-port="0"/>
		<edge from-layer="1766" from-port="1" to-layer="1767" to-port="1"/>
		<edge from-layer="1767" from-port="2" to-layer="1768" to-port="0"/>
		<edge from-layer="24" from-port="0" to-layer="1768" to-port="1"/>
		<edge from-layer="25" from-port="0" to-layer="1768" to-port="2"/>
		<edge from-layer="26" from-port="0" to-layer="1768" to-port="3"/>
		<edge from-layer="27" from-port="0" to-layer="1768" to-port="4"/>
		<edge from-layer="1768" from-port="5" to-layer="1769" to-port="0"/>
		<edge from-layer="1640" from-port="5" to-layer="1769" to-port="1"/>
		<edge from-layer="1770" from-port="0" to-layer="1771" to-port="0"/>
		<edge from-layer="1771" from-port="1" to-layer="1773" to-port="0"/>
		<edge from-layer="1772" from-port="0" to-layer="1773" to-port="1"/>
		<edge from-layer="1773" from-port="2" to-layer="1775" to-port="0"/>
		<edge from-layer="1774" from-port="0" to-layer="1775" to-port="1"/>
		<edge from-layer="1769" from-port="2" to-layer="1776" to-port="0"/>
		<edge from-layer="1775" from-port="2" to-layer="1776" to-port="1"/>
		<edge from-layer="1777" from-port="0" to-layer="1778" to-port="0"/>
		<edge from-layer="1776" from-port="2" to-layer="1779" to-port="0"/>
		<edge from-layer="1778" from-port="1" to-layer="1779" to-port="1"/>
		<edge from-layer="1780" from-port="0" to-layer="1781" to-port="0"/>
		<edge from-layer="1779" from-port="2" to-layer="1782" to-port="0"/>
		<edge from-layer="1781" from-port="1" to-layer="1782" to-port="1"/>
		<edge from-layer="1782" from-port="2" to-layer="1783" to-port="0"/>
		<edge from-layer="20" from-port="0" to-layer="1783" to-port="1"/>
		<edge from-layer="21" from-port="0" to-layer="1783" to-port="2"/>
		<edge from-layer="22" from-port="0" to-layer="1783" to-port="3"/>
		<edge from-layer="23" from-port="0" to-layer="1783" to-port="4"/>
		<edge from-layer="1784" from-port="0" to-layer="1785" to-port="0"/>
		<edge from-layer="1785" from-port="1" to-layer="1787" to-port="0"/>
		<edge from-layer="1786" from-port="0" to-layer="1787" to-port="1"/>
		<edge from-layer="1787" from-port="2" to-layer="1789" to-port="0"/>
		<edge from-layer="1788" from-port="0" to-layer="1789" to-port="1"/>
		<edge from-layer="1783" from-port="5" to-layer="1790" to-port="0"/>
		<edge from-layer="1789" from-port="2" to-layer="1790" to-port="1"/>
		<edge from-layer="1791" from-port="0" to-layer="1792" to-port="0"/>
		<edge from-layer="1790" from-port="2" to-layer="1793" to-port="0"/>
		<edge from-layer="1792" from-port="1" to-layer="1793" to-port="1"/>
		<edge from-layer="1794" from-port="0" to-layer="1795" to-port="0"/>
		<edge from-layer="1793" from-port="2" to-layer="1796" to-port="0"/>
		<edge from-layer="1795" from-port="1" to-layer="1796" to-port="1"/>
		<edge from-layer="1796" from-port="2" to-layer="1797" to-port="0"/>
		<edge from-layer="16" from-port="0" to-layer="1797" to-port="1"/>
		<edge from-layer="17" from-port="0" to-layer="1797" to-port="2"/>
		<edge from-layer="18" from-port="0" to-layer="1797" to-port="3"/>
		<edge from-layer="19" from-port="0" to-layer="1797" to-port="4"/>
		<edge from-layer="1798" from-port="0" to-layer="1799" to-port="0"/>
		<edge from-layer="1799" from-port="1" to-layer="1801" to-port="0"/>
		<edge from-layer="1800" from-port="0" to-layer="1801" to-port="1"/>
		<edge from-layer="1801" from-port="2" to-layer="1803" to-port="0"/>
		<edge from-layer="1802" from-port="0" to-layer="1803" to-port="1"/>
		<edge from-layer="1797" from-port="5" to-layer="1804" to-port="0"/>
		<edge from-layer="1803" from-port="2" to-layer="1804" to-port="1"/>
		<edge from-layer="1805" from-port="0" to-layer="1806" to-port="0"/>
		<edge from-layer="1804" from-port="2" to-layer="1807" to-port="0"/>
		<edge from-layer="1806" from-port="1" to-layer="1807" to-port="1"/>
		<edge from-layer="1808" from-port="0" to-layer="1809" to-port="0"/>
		<edge from-layer="1807" from-port="2" to-layer="1810" to-port="0"/>
		<edge from-layer="1809" from-port="1" to-layer="1810" to-port="1"/>
		<edge from-layer="1810" from-port="2" to-layer="1811" to-port="0"/>
		<edge from-layer="12" from-port="0" to-layer="1811" to-port="1"/>
		<edge from-layer="13" from-port="0" to-layer="1811" to-port="2"/>
		<edge from-layer="14" from-port="0" to-layer="1811" to-port="3"/>
		<edge from-layer="15" from-port="0" to-layer="1811" to-port="4"/>
		<edge from-layer="1812" from-port="0" to-layer="1813" to-port="0"/>
		<edge from-layer="1813" from-port="1" to-layer="1815" to-port="0"/>
		<edge from-layer="1814" from-port="0" to-layer="1815" to-port="1"/>
		<edge from-layer="1815" from-port="2" to-layer="1817" to-port="0"/>
		<edge from-layer="1816" from-port="0" to-layer="1817" to-port="1"/>
		<edge from-layer="1811" from-port="5" to-layer="1818" to-port="0"/>
		<edge from-layer="1817" from-port="2" to-layer="1818" to-port="1"/>
		<edge from-layer="1819" from-port="0" to-layer="1820" to-port="0"/>
		<edge from-layer="1818" from-port="2" to-layer="1821" to-port="0"/>
		<edge from-layer="1820" from-port="1" to-layer="1821" to-port="1"/>
		<edge from-layer="1822" from-port="0" to-layer="1823" to-port="0"/>
		<edge from-layer="1821" from-port="2" to-layer="1824" to-port="0"/>
		<edge from-layer="1823" from-port="1" to-layer="1824" to-port="1"/>
		<edge from-layer="1824" from-port="2" to-layer="1825" to-port="0"/>
		<edge from-layer="8" from-port="0" to-layer="1825" to-port="1"/>
		<edge from-layer="9" from-port="0" to-layer="1825" to-port="2"/>
		<edge from-layer="10" from-port="0" to-layer="1825" to-port="3"/>
		<edge from-layer="11" from-port="0" to-layer="1825" to-port="4"/>
		<edge from-layer="1826" from-port="0" to-layer="1827" to-port="0"/>
		<edge from-layer="1827" from-port="1" to-layer="1829" to-port="0"/>
		<edge from-layer="1828" from-port="0" to-layer="1829" to-port="1"/>
		<edge from-layer="1829" from-port="2" to-layer="1831" to-port="0"/>
		<edge from-layer="1830" from-port="0" to-layer="1831" to-port="1"/>
		<edge from-layer="1825" from-port="5" to-layer="1832" to-port="0"/>
		<edge from-layer="1831" from-port="2" to-layer="1832" to-port="1"/>
		<edge from-layer="1833" from-port="0" to-layer="1834" to-port="0"/>
		<edge from-layer="1832" from-port="2" to-layer="1835" to-port="0"/>
		<edge from-layer="1834" from-port="1" to-layer="1835" to-port="1"/>
		<edge from-layer="1836" from-port="0" to-layer="1837" to-port="0"/>
		<edge from-layer="1835" from-port="2" to-layer="1838" to-port="0"/>
		<edge from-layer="1837" from-port="1" to-layer="1838" to-port="1"/>
		<edge from-layer="1838" from-port="2" to-layer="1839" to-port="0"/>
		<edge from-layer="4" from-port="0" to-layer="1839" to-port="1"/>
		<edge from-layer="5" from-port="0" to-layer="1839" to-port="2"/>
		<edge from-layer="6" from-port="0" to-layer="1839" to-port="3"/>
		<edge from-layer="7" from-port="0" to-layer="1839" to-port="4"/>
		<edge from-layer="1840" from-port="0" to-layer="1841" to-port="0"/>
		<edge from-layer="1841" from-port="1" to-layer="1843" to-port="0"/>
		<edge from-layer="1842" from-port="0" to-layer="1843" to-port="1"/>
		<edge from-layer="1843" from-port="2" to-layer="1845" to-port="0"/>
		<edge from-layer="1844" from-port="0" to-layer="1845" to-port="1"/>
		<edge from-layer="1839" from-port="5" to-layer="1846" to-port="0"/>
		<edge from-layer="1845" from-port="2" to-layer="1846" to-port="1"/>
		<edge from-layer="1847" from-port="0" to-layer="1848" to-port="0"/>
		<edge from-layer="1846" from-port="2" to-layer="1849" to-port="0"/>
		<edge from-layer="1848" from-port="1" to-layer="1849" to-port="1"/>
		<edge from-layer="1850" from-port="0" to-layer="1851" to-port="0"/>
		<edge from-layer="1849" from-port="2" to-layer="1852" to-port="0"/>
		<edge from-layer="1851" from-port="1" to-layer="1852" to-port="1"/>
		<edge from-layer="1852" from-port="2" to-layer="1853" to-port="0"/>
		<edge from-layer="0" from-port="0" to-layer="1853" to-port="1"/>
		<edge from-layer="1" from-port="0" to-layer="1853" to-port="2"/>
		<edge from-layer="2" from-port="0" to-layer="1853" to-port="3"/>
		<edge from-layer="3" from-port="0" to-layer="1853" to-port="4"/>
		<edge from-layer="1854" from-port="0" to-layer="1855" to-port="0"/>
		<edge from-layer="1855" from-port="1" to-layer="1857" to-port="0"/>
		<edge from-layer="1856" from-port="0" to-layer="1857" to-port="1"/>
		<edge from-layer="1857" from-port="2" to-layer="1859" to-port="0"/>
		<edge from-layer="1858" from-port="0" to-layer="1859" to-port="1"/>
		<edge from-layer="1853" from-port="5" to-layer="1860" to-port="0"/>
		<edge from-layer="1859" from-port="2" to-layer="1860" to-port="1"/>
		<edge from-layer="1861" from-port="0" to-layer="1862" to-port="0"/>
		<edge from-layer="1860" from-port="2" to-layer="1863" to-port="0"/>
		<edge from-layer="1862" from-port="1" to-layer="1863" to-port="1"/>
		<edge from-layer="1863" from-port="2" to-layer="1865" to-port="0"/>
		<edge from-layer="1864" from-port="0" to-layer="1865" to-port="1"/>
		<edge from-layer="1895" from-port="0" to-layer="1896" to-port="0"/>
		<edge from-layer="1896" from-port="1" to-layer="1898" to-port="0"/>
		<edge from-layer="1897" from-port="0" to-layer="1898" to-port="1"/>
		<edge from-layer="1898" from-port="2" to-layer="1900" to-port="0"/>
		<edge from-layer="1899" from-port="0" to-layer="1900" to-port="1"/>
		<edge from-layer="1839" from-port="5" to-layer="1901" to-port="0"/>
		<edge from-layer="1900" from-port="2" to-layer="1901" to-port="1"/>
		<edge from-layer="1902" from-port="0" to-layer="1903" to-port="0"/>
		<edge from-layer="1901" from-port="2" to-layer="1904" to-port="0"/>
		<edge from-layer="1903" from-port="1" to-layer="1904" to-port="1"/>
		<edge from-layer="1905" from-port="0" to-layer="1906" to-port="0"/>
		<edge from-layer="1904" from-port="2" to-layer="1907" to-port="0"/>
		<edge from-layer="1906" from-port="1" to-layer="1907" to-port="1"/>
		<edge from-layer="1907" from-port="2" to-layer="1908" to-port="0"/>
		<edge from-layer="1891" from-port="0" to-layer="1908" to-port="1"/>
		<edge from-layer="1892" from-port="0" to-layer="1908" to-port="2"/>
		<edge from-layer="1893" from-port="0" to-layer="1908" to-port="3"/>
		<edge from-layer="1894" from-port="0" to-layer="1908" to-port="4"/>
		<edge from-layer="1908" from-port="5" to-layer="1909" to-port="0"/>
		<edge from-layer="1526" from-port="5" to-layer="1909" to-port="1"/>
		<edge from-layer="1910" from-port="0" to-layer="1911" to-port="0"/>
		<edge from-layer="1911" from-port="1" to-layer="1913" to-port="0"/>
		<edge from-layer="1912" from-port="0" to-layer="1913" to-port="1"/>
		<edge from-layer="1913" from-port="2" to-layer="1915" to-port="0"/>
		<edge from-layer="1914" from-port="0" to-layer="1915" to-port="1"/>
		<edge from-layer="1909" from-port="2" to-layer="1916" to-port="0"/>
		<edge from-layer="1915" from-port="2" to-layer="1916" to-port="1"/>
		<edge from-layer="1917" from-port="0" to-layer="1918" to-port="0"/>
		<edge from-layer="1916" from-port="2" to-layer="1919" to-port="0"/>
		<edge from-layer="1918" from-port="1" to-layer="1919" to-port="1"/>
		<edge from-layer="1920" from-port="0" to-layer="1921" to-port="0"/>
		<edge from-layer="1919" from-port="2" to-layer="1922" to-port="0"/>
		<edge from-layer="1921" from-port="1" to-layer="1922" to-port="1"/>
		<edge from-layer="1922" from-port="2" to-layer="1923" to-port="0"/>
		<edge from-layer="1887" from-port="0" to-layer="1923" to-port="1"/>
		<edge from-layer="1888" from-port="0" to-layer="1923" to-port="2"/>
		<edge from-layer="1889" from-port="0" to-layer="1923" to-port="3"/>
		<edge from-layer="1890" from-port="0" to-layer="1923" to-port="4"/>
		<edge from-layer="1924" from-port="0" to-layer="1925" to-port="0"/>
		<edge from-layer="1925" from-port="1" to-layer="1927" to-port="0"/>
		<edge from-layer="1926" from-port="0" to-layer="1927" to-port="1"/>
		<edge from-layer="1927" from-port="2" to-layer="1929" to-port="0"/>
		<edge from-layer="1928" from-port="0" to-layer="1929" to-port="1"/>
		<edge from-layer="1923" from-port="5" to-layer="1930" to-port="0"/>
		<edge from-layer="1929" from-port="2" to-layer="1930" to-port="1"/>
		<edge from-layer="1931" from-port="0" to-layer="1932" to-port="0"/>
		<edge from-layer="1930" from-port="2" to-layer="1933" to-port="0"/>
		<edge from-layer="1932" from-port="1" to-layer="1933" to-port="1"/>
		<edge from-layer="1934" from-port="0" to-layer="1935" to-port="0"/>
		<edge from-layer="1933" from-port="2" to-layer="1936" to-port="0"/>
		<edge from-layer="1935" from-port="1" to-layer="1936" to-port="1"/>
		<edge from-layer="1936" from-port="2" to-layer="1937" to-port="0"/>
		<edge from-layer="1883" from-port="0" to-layer="1937" to-port="1"/>
		<edge from-layer="1884" from-port="0" to-layer="1937" to-port="2"/>
		<edge from-layer="1885" from-port="0" to-layer="1937" to-port="3"/>
		<edge from-layer="1886" from-port="0" to-layer="1937" to-port="4"/>
		<edge from-layer="1938" from-port="0" to-layer="1939" to-port="0"/>
		<edge from-layer="1939" from-port="1" to-layer="1941" to-port="0"/>
		<edge from-layer="1940" from-port="0" to-layer="1941" to-port="1"/>
		<edge from-layer="1941" from-port="2" to-layer="1943" to-port="0"/>
		<edge from-layer="1942" from-port="0" to-layer="1943" to-port="1"/>
		<edge from-layer="1937" from-port="5" to-layer="1944" to-port="0"/>
		<edge from-layer="1943" from-port="2" to-layer="1944" to-port="1"/>
		<edge from-layer="1945" from-port="0" to-layer="1946" to-port="0"/>
		<edge from-layer="1944" from-port="2" to-layer="1947" to-port="0"/>
		<edge from-layer="1946" from-port="1" to-layer="1947" to-port="1"/>
		<edge from-layer="1948" from-port="0" to-layer="1949" to-port="0"/>
		<edge from-layer="1947" from-port="2" to-layer="1950" to-port="0"/>
		<edge from-layer="1949" from-port="1" to-layer="1950" to-port="1"/>
		<edge from-layer="1950" from-port="2" to-layer="1951" to-port="0"/>
		<edge from-layer="1879" from-port="0" to-layer="1951" to-port="1"/>
		<edge from-layer="1880" from-port="0" to-layer="1951" to-port="2"/>
		<edge from-layer="1881" from-port="0" to-layer="1951" to-port="3"/>
		<edge from-layer="1882" from-port="0" to-layer="1951" to-port="4"/>
		<edge from-layer="1952" from-port="0" to-layer="1953" to-port="0"/>
		<edge from-layer="1953" from-port="1" to-layer="1955" to-port="0"/>
		<edge from-layer="1954" from-port="0" to-layer="1955" to-port="1"/>
		<edge from-layer="1955" from-port="2" to-layer="1957" to-port="0"/>
		<edge from-layer="1956" from-port="0" to-layer="1957" to-port="1"/>
		<edge from-layer="1951" from-port="5" to-layer="1958" to-port="0"/>
		<edge from-layer="1957" from-port="2" to-layer="1958" to-port="1"/>
		<edge from-layer="1959" from-port="0" to-layer="1960" to-port="0"/>
		<edge from-layer="1958" from-port="2" to-layer="1961" to-port="0"/>
		<edge from-layer="1960" from-port="1" to-layer="1961" to-port="1"/>
		<edge from-layer="1962" from-port="0" to-layer="1963" to-port="0"/>
		<edge from-layer="1961" from-port="2" to-layer="1964" to-port="0"/>
		<edge from-layer="1963" from-port="1" to-layer="1964" to-port="1"/>
		<edge from-layer="1964" from-port="2" to-layer="1965" to-port="0"/>
		<edge from-layer="1875" from-port="0" to-layer="1965" to-port="1"/>
		<edge from-layer="1876" from-port="0" to-layer="1965" to-port="2"/>
		<edge from-layer="1877" from-port="0" to-layer="1965" to-port="3"/>
		<edge from-layer="1878" from-port="0" to-layer="1965" to-port="4"/>
		<edge from-layer="1966" from-port="0" to-layer="1967" to-port="0"/>
		<edge from-layer="1967" from-port="1" to-layer="1969" to-port="0"/>
		<edge from-layer="1968" from-port="0" to-layer="1969" to-port="1"/>
		<edge from-layer="1969" from-port="2" to-layer="1971" to-port="0"/>
		<edge from-layer="1970" from-port="0" to-layer="1971" to-port="1"/>
		<edge from-layer="1965" from-port="5" to-layer="1972" to-port="0"/>
		<edge from-layer="1971" from-port="2" to-layer="1972" to-port="1"/>
		<edge from-layer="1973" from-port="0" to-layer="1974" to-port="0"/>
		<edge from-layer="1972" from-port="2" to-layer="1975" to-port="0"/>
		<edge from-layer="1974" from-port="1" to-layer="1975" to-port="1"/>
		<edge from-layer="1976" from-port="0" to-layer="1977" to-port="0"/>
		<edge from-layer="1975" from-port="2" to-layer="1978" to-port="0"/>
		<edge from-layer="1977" from-port="1" to-layer="1978" to-port="1"/>
		<edge from-layer="1978" from-port="2" to-layer="1979" to-port="0"/>
		<edge from-layer="1871" from-port="0" to-layer="1979" to-port="1"/>
		<edge from-layer="1872" from-port="0" to-layer="1979" to-port="2"/>
		<edge from-layer="1873" from-port="0" to-layer="1979" to-port="3"/>
		<edge from-layer="1874" from-port="0" to-layer="1979" to-port="4"/>
		<edge from-layer="1980" from-port="0" to-layer="1981" to-port="0"/>
		<edge from-layer="1981" from-port="1" to-layer="1983" to-port="0"/>
		<edge from-layer="1982" from-port="0" to-layer="1983" to-port="1"/>
		<edge from-layer="1983" from-port="2" to-layer="1985" to-port="0"/>
		<edge from-layer="1984" from-port="0" to-layer="1985" to-port="1"/>
		<edge from-layer="1979" from-port="5" to-layer="1986" to-port="0"/>
		<edge from-layer="1985" from-port="2" to-layer="1986" to-port="1"/>
		<edge from-layer="1987" from-port="0" to-layer="1988" to-port="0"/>
		<edge from-layer="1986" from-port="2" to-layer="1989" to-port="0"/>
		<edge from-layer="1988" from-port="1" to-layer="1989" to-port="1"/>
		<edge from-layer="1990" from-port="0" to-layer="1991" to-port="0"/>
		<edge from-layer="1989" from-port="2" to-layer="1992" to-port="0"/>
		<edge from-layer="1991" from-port="1" to-layer="1992" to-port="1"/>
		<edge from-layer="1992" from-port="2" to-layer="1993" to-port="0"/>
		<edge from-layer="1867" from-port="0" to-layer="1993" to-port="1"/>
		<edge from-layer="1868" from-port="0" to-layer="1993" to-port="2"/>
		<edge from-layer="1869" from-port="0" to-layer="1993" to-port="3"/>
		<edge from-layer="1870" from-port="0" to-layer="1993" to-port="4"/>
		<edge from-layer="1994" from-port="0" to-layer="1995" to-port="0"/>
		<edge from-layer="1995" from-port="1" to-layer="1997" to-port="0"/>
		<edge from-layer="1996" from-port="0" to-layer="1997" to-port="1"/>
		<edge from-layer="1997" from-port="2" to-layer="1999" to-port="0"/>
		<edge from-layer="1998" from-port="0" to-layer="1999" to-port="1"/>
		<edge from-layer="1993" from-port="5" to-layer="2000" to-port="0"/>
		<edge from-layer="1999" from-port="2" to-layer="2000" to-port="1"/>
		<edge from-layer="2001" from-port="0" to-layer="2002" to-port="0"/>
		<edge from-layer="2000" from-port="2" to-layer="2003" to-port="0"/>
		<edge from-layer="2002" from-port="1" to-layer="2003" to-port="1"/>
		<edge from-layer="2003" from-port="2" to-layer="2005" to-port="0"/>
		<edge from-layer="2004" from-port="0" to-layer="2005" to-port="1"/>
		<edge from-layer="2011" from-port="0" to-layer="2012" to-port="0"/>
		<edge from-layer="2012" from-port="1" to-layer="2014" to-port="0"/>
		<edge from-layer="2013" from-port="0" to-layer="2014" to-port="1"/>
		<edge from-layer="2014" from-port="2" to-layer="2016" to-port="0"/>
		<edge from-layer="2015" from-port="0" to-layer="2016" to-port="1"/>
		<edge from-layer="1754" from-port="5" to-layer="2017" to-port="0"/>
		<edge from-layer="2016" from-port="2" to-layer="2017" to-port="1"/>
		<edge from-layer="2018" from-port="0" to-layer="2019" to-port="0"/>
		<edge from-layer="2017" from-port="2" to-layer="2020" to-port="0"/>
		<edge from-layer="2019" from-port="1" to-layer="2020" to-port="1"/>
		<edge from-layer="2021" from-port="0" to-layer="2022" to-port="0"/>
		<edge from-layer="2020" from-port="2" to-layer="2023" to-port="0"/>
		<edge from-layer="2022" from-port="1" to-layer="2023" to-port="1"/>
		<edge from-layer="2023" from-port="2" to-layer="2024" to-port="0"/>
		<edge from-layer="2007" from-port="0" to-layer="2024" to-port="1"/>
		<edge from-layer="2008" from-port="0" to-layer="2024" to-port="2"/>
		<edge from-layer="2009" from-port="0" to-layer="2024" to-port="3"/>
		<edge from-layer="2010" from-port="0" to-layer="2024" to-port="4"/>
		<edge from-layer="2025" from-port="0" to-layer="2026" to-port="0"/>
		<edge from-layer="2026" from-port="1" to-layer="2028" to-port="0"/>
		<edge from-layer="2027" from-port="0" to-layer="2028" to-port="1"/>
		<edge from-layer="2028" from-port="2" to-layer="2030" to-port="0"/>
		<edge from-layer="2029" from-port="0" to-layer="2030" to-port="1"/>
		<edge from-layer="2024" from-port="5" to-layer="2031" to-port="0"/>
		<edge from-layer="2030" from-port="2" to-layer="2031" to-port="1"/>
		<edge from-layer="2032" from-port="0" to-layer="2033" to-port="0"/>
		<edge from-layer="2031" from-port="2" to-layer="2034" to-port="0"/>
		<edge from-layer="2033" from-port="1" to-layer="2034" to-port="1"/>
		<edge from-layer="2034" from-port="2" to-layer="2036" to-port="0"/>
		<edge from-layer="2035" from-port="0" to-layer="2036" to-port="1"/>
		<edge from-layer="1865" from-port="2" to-layer="1866" to-port="0"/>
		<edge from-layer="2005" from-port="2" to-layer="2006" to-port="0"/>
		<edge from-layer="2036" from-port="2" to-layer="2037" to-port="0"/>
	</edges>
	<meta_data>
		<MO_version value="2022.2.0-7713-af16ea1d79a-releases/2022/2"/>
		<Runtime_version value="2022.2.0-7713-af16ea1d79a-releases/2022/2"/>
		<legacy_path value="True"/>
		<cli_parameters>
			<caffe_parser_path value="DIR"/>
			<compress_fp16 value="True"/>
			<data_type value="FP16"/>
			<disable_nhwc_to_nchw value="False"/>
			<disable_omitting_optional value="False"/>
			<disable_resnet_optimization value="False"/>
			<disable_weights_compression value="False"/>
			<enable_concat_optimization value="False"/>
			<enable_flattening_nested_params value="False"/>
			<enable_ssd_gluoncv value="False"/>
			<extensions value="DIR"/>
			<framework value="tf"/>
			<freeze_placeholder_with_value value="{}"/>
			<input value="image_input"/>
			<input_model_is_text value="False"/>
			<input_shape value="[1, 416, 416, 3]"/>
			<k value="DIR/CustomLayersMapping.xml"/>
			<layout value="image_input(NHWC)"/>
			<layout_values value="{'image_input': {'source_layout': 'NHWC', 'target_layout': None, 'is_input': True}}"/>
			<legacy_mxnet_model value="False"/>
			<log_level value="ERROR"/>
			<mean_scale_values value="{'image_input': {'mean': None, 'scale': array([255.])}}"/>
			<mean_values value="()"/>
			<model_name value="yolo-v4-tf"/>
			<output_dir value="DIR"/>
			<packed_user_shapes value="defaultdict(&lt;class 'list'&gt;, {'image_input': [{'shape': (1, 416, 416, 3), 'port': None, 'added': True}]})"/>
			<placeholder_data_types value="{}"/>
			<placeholder_shapes value="{'image_input': (1, 416, 416, 3)}"/>
			<progress value="False"/>
			<remove_memory value="False"/>
			<remove_output_softmax value="False"/>
			<reverse_input_channels value="True"/>
			<save_params_from_nd value="False"/>
			<saved_model_dir value="DIR"/>
			<scale_values value="image_input[255]"/>
			<silent value="False"/>
			<source_layout value="()"/>
			<static_shape value="False"/>
			<stream_output value="False"/>
			<target_layout value="()"/>
			<transform value=""/>
			<use_legacy_frontend value="False"/>
			<use_new_frontend value="False"/>
			<unset unset_cli_parameters="batch, counts, disable_fusing, finegrain_fusing, input_checkpoint, input_meta_graph, input_model, input_proto, input_symbol, mean_file, mean_file_offsets, nd_prefix_name, output, pretrained_model_name, saved_model_tags, scale, tensorboard_logdir, tensorflow_custom_layer_libraries, tensorflow_custom_operations_config_update, tensorflow_object_detection_api_pipeline_config, tensorflow_use_custom_operations_config, transformations_config"/>
		</cli_parameters>
	</meta_data>
	<quantization_parameters>
		<config>{
		'compression': {
			'algorithms': [
				{
					'name': 'DefaultQuantization',
					'params': {
						'preset': 'mixed',
						'stat_subset_size': 300
					}
				}
			]
		},
		'engine': {
			'models': [
				{
					'name': 'yolo-v4-tf',
					'launchers': [
						{
							'framework': 'openvino',
							'adapter': {
								'type': 'yolo_v3',
								'anchors': '12,16,19,36,40,28,36,75,76,55,72,146,142,110,192,243,459,401',
								'num': 3,
								'coords': 4,
								'classes': 80,
								'threshold': 0.001,
								'anchor_masks': [
									[
										0,
										1,
										2
									],
									[
										3,
										4,
										5
									],
									[
										6,
										7,
										8
									]
								],
								'raw_output': true,
								'output_format': 'HWB',
								'outputs': [
									'Func/StatefulPartitionedCall/output/_544',
									'Func/StatefulPartitionedCall/output/_542',
									'Func/StatefulPartitionedCall/output/_543'
								]
							},
							'model': 'PATH',
							'device': 'cpu'
						}
					],
					'datasets': [
						{
							'name': 'ms_coco_detection_80_class_without_background',
							'data_source': 'PATH',
							'annotation_conversion': {
								'converter': 'mscoco_detection',
								'annotation_file': 'PATH',
								'has_background': false,
								'sort_annotations': true,
								'use_full_label_map': false
							},
							'annotation': 'PATH',
							'dataset_meta': 'PATH',
							'preprocessing': [
								{
									'type': 'resize',
									'size': 416
								}
							],
							'postprocessing': [
								{
									'type': 'resize_prediction_boxes'
								},
								{
									'type': 'filter',
									'apply_to': 'prediction',
									'min_confidence': 0.001,
									'remove_filtered': true
								},
								{
									'type': 'diou_nms',
									'overlap': 0.5
								},
								{
									'type': 'clip_boxes',
									'apply_to': 'prediction'
								}
							],
							'metrics': [
								{
									'type': 'map',
									'integral': '11point',
									'ignore_difficult': true,
									'presenter': 'print_scalar',
									'reference': 0.7123
								},
								{
									'name': 'AP@0.5',
									'type': 'coco_precision',
									'max_detections': 100,
									'threshold': 0.5,
									'reference': 0.774
								},
								{
									'name': 'AP@0.5:0.05:95',
									'type': 'coco_precision',
									'max_detections': 100,
									'threshold': '0.5:0.05:0.95',
									'reference': 0.5026
								}
							],
							'_command_line_mapping': {
								'annotation_file': 'PATH'
							}
						}
					]
				}
			],
			'stat_requests_number': null,
			'eval_requests_number': null,
			'type': 'accuracy_checker'
		}
	}</config>
		<version value="2022.2.0-7713-af16ea1d79a-releases/2022/2"/>
		<cli_params value="{'quantize': None, 'preset': None, 'model': None, 'weights': None, 'name': None, 'engine': None, 'ac_config': None, 'max_drop': None, 'evaluate': False, 'output_dir': 'PATH', 'direct_dump': True, 'log_level': 'INFO', 'pbar': False, 'stream_output': False, 'keep_uncompressed_weights': False, 'data_source': None}"/>
	</quantization_parameters>
</net>
