<?xml version="1.0" ?>
<net name="torch_jit" version="11">
	<layers>
		<layer id="116" name="images" type="Parameter" version="opset1">
			<data shape="1,3,640,640" element_type="f32"/>
			<rt_info>
				<attribute name="fused_names" version="0" value="images"/>
				<attribute name="old_api_map_element_type" version="0" value="f16"/>
			</rt_info>
			<output>
				<port id="0" precision="FP32" names="images">
					<dim>1</dim>
					<dim>3</dim>
					<dim>640</dim>
					<dim>640</dim>
					<rt_info/>
				</port>
			</output>
		</layer>
		<layer id="0" name="4818482217319" type="Const" version="opset1">
			<data offset="0" size="4" shape="" element_type="f32"/>
			<output>
				<port id="0" precision="FP32"/>
			</output>
		</layer>
		<layer id="1" name="4819482315735" type="Const" version="opset1">
			<data offset="4" size="4" shape="" element_type="f32"/>
			<output>
				<port id="0" precision="FP32"/>
			</output>
		</layer>
		<layer id="2" name="4820482416911" type="Const" version="opset1">
			<data offset="0" size="4" shape="" element_type="f32"/>
			<output>
				<port id="0" precision="FP32"/>
			</output>
		</layer>
		<layer id="3" name="4821482517535" type="Const" version="opset1">
			<data offset="4" size="4" shape="" element_type="f32"/>
			<output>
				<port id="0" precision="FP32"/>
			</output>
		</layer>
		<layer id="4" name="3757376117004" type="Const" version="opset1">
			<data offset="8" size="4" shape="" element_type="f32"/>
			<output>
				<port id="0" precision="FP32"/>
			</output>
		</layer>
		<layer id="5" name="3758376215762" type="Const" version="opset1">
			<data offset="12" size="4" shape="" element_type="f32"/>
			<output>
				<port id="0" precision="FP32"/>
			</output>
		</layer>
		<layer id="6" name="3759376315831" type="Const" version="opset1">
			<data offset="8" size="4" shape="" element_type="f32"/>
			<output>
				<port id="0" precision="FP32"/>
			</output>
		</layer>
		<layer id="7" name="3760376417121" type="Const" version="opset1">
			<data offset="12" size="4" shape="" element_type="f32"/>
			<output>
				<port id="0" precision="FP32"/>
			</output>
		</layer>
		<layer id="8" name="4798480216047" type="Const" version="opset1">
			<data offset="16" size="4" shape="" element_type="f32"/>
			<output>
				<port id="0" precision="FP32"/>
			</output>
		</layer>
		<layer id="9" name="4799480316398" type="Const" version="opset1">
			<data offset="20" size="4" shape="" element_type="f32"/>
			<output>
				<port id="0" precision="FP32"/>
			</output>
		</layer>
		<layer id="10" name="4800480415864" type="Const" version="opset1">
			<data offset="16" size="4" shape="" element_type="f32"/>
			<output>
				<port id="0" precision="FP32"/>
			</output>
		</layer>
		<layer id="11" name="4801480516530" type="Const" version="opset1">
			<data offset="20" size="4" shape="" element_type="f32"/>
			<output>
				<port id="0" precision="FP32"/>
			</output>
		</layer>
		<layer id="12" name="3737374117247" type="Const" version="opset1">
			<data offset="24" size="4" shape="" element_type="f32"/>
			<output>
				<port id="0" precision="FP32"/>
			</output>
		</layer>
		<layer id="13" name="3738374216278" type="Const" version="opset1">
			<data offset="28" size="4" shape="" element_type="f32"/>
			<output>
				<port id="0" precision="FP32"/>
			</output>
		</layer>
		<layer id="14" name="3739374315960" type="Const" version="opset1">
			<data offset="24" size="4" shape="" element_type="f32"/>
			<output>
				<port id="0" precision="FP32"/>
			</output>
		</layer>
		<layer id="15" name="3740374417289" type="Const" version="opset1">
			<data offset="28" size="4" shape="" element_type="f32"/>
			<output>
				<port id="0" precision="FP32"/>
			</output>
		</layer>
		<layer id="16" name="3477348116920" type="Const" version="opset1">
			<data offset="32" size="4" shape="" element_type="f32"/>
			<output>
				<port id="0" precision="FP32"/>
			</output>
		</layer>
		<layer id="17" name="3478348216098" type="Const" version="opset1">
			<data offset="36" size="4" shape="" element_type="f32"/>
			<output>
				<port id="0" precision="FP32"/>
			</output>
		</layer>
		<layer id="18" name="3479348315927" type="Const" version="opset1">
			<data offset="32" size="4" shape="" element_type="f32"/>
			<output>
				<port id="0" precision="FP32"/>
			</output>
		</layer>
		<layer id="19" name="3480348416383" type="Const" version="opset1">
			<data offset="36" size="4" shape="" element_type="f32"/>
			<output>
				<port id="0" precision="FP32"/>
			</output>
		</layer>
		<layer id="20" name="3257326116239" type="Const" version="opset1">
			<data offset="40" size="4" shape="" element_type="f32"/>
			<output>
				<port id="0" precision="FP32"/>
			</output>
		</layer>
		<layer id="21" name="3258326216377" type="Const" version="opset1">
			<data offset="44" size="4" shape="" element_type="f32"/>
			<output>
				<port id="0" precision="FP32"/>
			</output>
		</layer>
		<layer id="22" name="3259326316935" type="Const" version="opset1">
			<data offset="40" size="4" shape="" element_type="f32"/>
			<output>
				<port id="0" precision="FP32"/>
			</output>
		</layer>
		<layer id="23" name="3260326416149" type="Const" version="opset1">
			<data offset="44" size="4" shape="" element_type="f32"/>
			<output>
				<port id="0" precision="FP32"/>
			</output>
		</layer>
		<layer id="24" name="4928493215909" type="Const" version="opset1">
			<data offset="48" size="4" shape="" element_type="f32"/>
			<output>
				<port id="0" precision="FP32"/>
			</output>
		</layer>
		<layer id="25" name="4929493316284" type="Const" version="opset1">
			<data offset="52" size="4" shape="" element_type="f32"/>
			<output>
				<port id="0" precision="FP32"/>
			</output>
		</layer>
		<layer id="26" name="4930493417430" type="Const" version="opset1">
			<data offset="48" size="4" shape="" element_type="f32"/>
			<output>
				<port id="0" precision="FP32"/>
			</output>
		</layer>
		<layer id="27" name="4931493516044" type="Const" version="opset1">
			<data offset="52" size="4" shape="" element_type="f32"/>
			<output>
				<port id="0" precision="FP32"/>
			</output>
		</layer>
		<layer id="28" name="4778478216071" type="Const" version="opset1">
			<data offset="56" size="4" shape="" element_type="f32"/>
			<output>
				<port id="0" precision="FP32"/>
			</output>
		</layer>
		<layer id="29" name="4779478316773" type="Const" version="opset1">
			<data offset="60" size="4" shape="" element_type="f32"/>
			<output>
				<port id="0" precision="FP32"/>
			</output>
		</layer>
		<layer id="30" name="4780478417106" type="Const" version="opset1">
			<data offset="56" size="4" shape="" element_type="f32"/>
			<output>
				<port id="0" precision="FP32"/>
			</output>
		</layer>
		<layer id="31" name="4781478516731" type="Const" version="opset1">
			<data offset="60" size="4" shape="" element_type="f32"/>
			<output>
				<port id="0" precision="FP32"/>
			</output>
		</layer>
		<layer id="32" name="3557356116395" type="Const" version="opset1">
			<data offset="64" size="4" shape="" element_type="f32"/>
			<output>
				<port id="0" precision="FP32"/>
			</output>
		</layer>
		<layer id="33" name="3558356216506" type="Const" version="opset1">
			<data offset="68" size="4" shape="" element_type="f32"/>
			<output>
				<port id="0" precision="FP32"/>
			</output>
		</layer>
		<layer id="34" name="3559356316413" type="Const" version="opset1">
			<data offset="64" size="4" shape="" element_type="f32"/>
			<output>
				<port id="0" precision="FP32"/>
			</output>
		</layer>
		<layer id="35" name="3560356416587" type="Const" version="opset1">
			<data offset="68" size="4" shape="" element_type="f32"/>
			<output>
				<port id="0" precision="FP32"/>
			</output>
		</layer>
		<layer id="36" name="2057206116737" type="Const" version="opset1">
			<data offset="72" size="4" shape="" element_type="f32"/>
			<output>
				<port id="0" precision="FP32"/>
			</output>
		</layer>
		<layer id="37" name="2058206215771" type="Const" version="opset1">
			<data offset="76" size="4" shape="" element_type="f32"/>
			<output>
				<port id="0" precision="FP32"/>
			</output>
		</layer>
		<layer id="38" name="2059206317016" type="Const" version="opset1">
			<data offset="72" size="4" shape="" element_type="f32"/>
			<output>
				<port id="0" precision="FP32"/>
			</output>
		</layer>
		<layer id="39" name="2060206417382" type="Const" version="opset1">
			<data offset="76" size="4" shape="" element_type="f32"/>
			<output>
				<port id="0" precision="FP32"/>
			</output>
		</layer>
		<layer id="40" name="3577358115744" type="Const" version="opset1">
			<data offset="80" size="4" shape="" element_type="f32"/>
			<output>
				<port id="0" precision="FP32"/>
			</output>
		</layer>
		<layer id="41" name="3578358217142" type="Const" version="opset1">
			<data offset="84" size="4" shape="" element_type="f32"/>
			<output>
				<port id="0" precision="FP32"/>
			</output>
		</layer>
		<layer id="42" name="3579358316407" type="Const" version="opset1">
			<data offset="80" size="4" shape="" element_type="f32"/>
			<output>
				<port id="0" precision="FP32"/>
			</output>
		</layer>
		<layer id="43" name="3580358416929" type="Const" version="opset1">
			<data offset="84" size="4" shape="" element_type="f32"/>
			<output>
				<port id="0" precision="FP32"/>
			</output>
		</layer>
		<layer id="44" name="3397340117361" type="Const" version="opset1">
			<data offset="88" size="4" shape="" element_type="f32"/>
			<output>
				<port id="0" precision="FP32"/>
			</output>
		</layer>
		<layer id="45" name="3398340217220" type="Const" version="opset1">
			<data offset="92" size="4" shape="" element_type="f32"/>
			<output>
				<port id="0" precision="FP32"/>
			</output>
		</layer>
		<layer id="46" name="3399340315876" type="Const" version="opset1">
			<data offset="88" size="4" shape="" element_type="f32"/>
			<output>
				<port id="0" precision="FP32"/>
			</output>
		</layer>
		<layer id="47" name="3400340417337" type="Const" version="opset1">
			<data offset="92" size="4" shape="" element_type="f32"/>
			<output>
				<port id="0" precision="FP32"/>
			</output>
		</layer>
		<layer id="48" name="2617262116905" type="Const" version="opset1">
			<data offset="96" size="4" shape="" element_type="f32"/>
			<output>
				<port id="0" precision="FP32"/>
			</output>
		</layer>
		<layer id="49" name="2618262216896" type="Const" version="opset1">
			<data offset="100" size="4" shape="" element_type="f32"/>
			<output>
				<port id="0" precision="FP32"/>
			</output>
		</layer>
		<layer id="50" name="2619262315903" type="Const" version="opset1">
			<data offset="96" size="4" shape="" element_type="f32"/>
			<output>
				<port id="0" precision="FP32"/>
			</output>
		</layer>
		<layer id="51" name="2620262415765" type="Const" version="opset1">
			<data offset="100" size="4" shape="" element_type="f32"/>
			<output>
				<port id="0" precision="FP32"/>
			</output>
		</layer>
		<layer id="52" name="2557256116254" type="Const" version="opset1">
			<data offset="104" size="4" shape="" element_type="f32"/>
			<output>
				<port id="0" precision="FP32"/>
			</output>
		</layer>
		<layer id="53" name="2558256216563" type="Const" version="opset1">
			<data offset="108" size="4" shape="" element_type="f32"/>
			<output>
				<port id="0" precision="FP32"/>
			</output>
		</layer>
		<layer id="54" name="2559256316704" type="Const" version="opset1">
			<data offset="104" size="4" shape="" element_type="f32"/>
			<output>
				<port id="0" precision="FP32"/>
			</output>
		</layer>
		<layer id="55" name="2560256416017" type="Const" version="opset1">
			<data offset="108" size="4" shape="" element_type="f32"/>
			<output>
				<port id="0" precision="FP32"/>
			</output>
		</layer>
		<layer id="56" name="3457346117574" type="Const" version="opset1">
			<data offset="112" size="4" shape="" element_type="f32"/>
			<output>
				<port id="0" precision="FP32"/>
			</output>
		</layer>
		<layer id="57" name="3458346215930" type="Const" version="opset1">
			<data offset="116" size="4" shape="" element_type="f32"/>
			<output>
				<port id="0" precision="FP32"/>
			</output>
		</layer>
		<layer id="58" name="3459346317598" type="Const" version="opset1">
			<data offset="112" size="4" shape="" element_type="f32"/>
			<output>
				<port id="0" precision="FP32"/>
			</output>
		</layer>
		<layer id="59" name="3460346416656" type="Const" version="opset1">
			<data offset="116" size="4" shape="" element_type="f32"/>
			<output>
				<port id="0" precision="FP32"/>
			</output>
		</layer>
		<layer id="60" name="4988499217553" type="Const" version="opset1">
			<data offset="120" size="4" shape="" element_type="f32"/>
			<output>
				<port id="0" precision="FP32"/>
			</output>
		</layer>
		<layer id="61" name="4989499317541" type="Const" version="opset1">
			<data offset="124" size="4" shape="" element_type="f32"/>
			<output>
				<port id="0" precision="FP32"/>
			</output>
		</layer>
		<layer id="62" name="4990499416671" type="Const" version="opset1">
			<data offset="120" size="4" shape="" element_type="f32"/>
			<output>
				<port id="0" precision="FP32"/>
			</output>
		</layer>
		<layer id="63" name="4991499516257" type="Const" version="opset1">
			<data offset="124" size="4" shape="" element_type="f32"/>
			<output>
				<port id="0" precision="FP32"/>
			</output>
		</layer>
		<layer id="64" name="5178518217244" type="Const" version="opset1">
			<data offset="128" size="4" shape="" element_type="f32"/>
			<output>
				<port id="0" precision="FP32"/>
			</output>
		</layer>
		<layer id="65" name="5179518316746" type="Const" version="opset1">
			<data offset="132" size="4" shape="" element_type="f32"/>
			<output>
				<port id="0" precision="FP32"/>
			</output>
		</layer>
		<layer id="66" name="5180518415894" type="Const" version="opset1">
			<data offset="128" size="4" shape="" element_type="f32"/>
			<output>
				<port id="0" precision="FP32"/>
			</output>
		</layer>
		<layer id="67" name="5181518515906" type="Const" version="opset1">
			<data offset="132" size="4" shape="" element_type="f32"/>
			<output>
				<port id="0" precision="FP32"/>
			</output>
		</layer>
		<layer id="68" name="2807281116551" type="Const" version="opset1">
			<data offset="136" size="4" shape="" element_type="f32"/>
			<output>
				<port id="0" precision="FP32"/>
			</output>
		</layer>
		<layer id="69" name="2808281217163" type="Const" version="opset1">
			<data offset="140" size="4" shape="" element_type="f32"/>
			<output>
				<port id="0" precision="FP32"/>
			</output>
		</layer>
		<layer id="70" name="2809281316077" type="Const" version="opset1">
			<data offset="136" size="4" shape="" element_type="f32"/>
			<output>
				<port id="0" precision="FP32"/>
			</output>
		</layer>
		<layer id="71" name="2810281416596" type="Const" version="opset1">
			<data offset="140" size="4" shape="" element_type="f32"/>
			<output>
				<port id="0" precision="FP32"/>
			</output>
		</layer>
		<layer id="72" name="2477248117043" type="Const" version="opset1">
			<data offset="144" size="4" shape="" element_type="f32"/>
			<output>
				<port id="0" precision="FP32"/>
			</output>
		</layer>
		<layer id="73" name="2478248217484" type="Const" version="opset1">
			<data offset="148" size="4" shape="" element_type="f32"/>
			<output>
				<port id="0" precision="FP32"/>
			</output>
		</layer>
		<layer id="74" name="2479248316380" type="Const" version="opset1">
			<data offset="144" size="4" shape="" element_type="f32"/>
			<output>
				<port id="0" precision="FP32"/>
			</output>
		</layer>
		<layer id="75" name="2480248416209" type="Const" version="opset1">
			<data offset="148" size="4" shape="" element_type="f32"/>
			<output>
				<port id="0" precision="FP32"/>
			</output>
		</layer>
		<layer id="76" name="2197220117088" type="Const" version="opset1">
			<data offset="152" size="4" shape="" element_type="f32"/>
			<output>
				<port id="0" precision="FP32"/>
			</output>
		</layer>
		<layer id="77" name="2198220215912" type="Const" version="opset1">
			<data offset="156" size="4" shape="" element_type="f32"/>
			<output>
				<port id="0" precision="FP32"/>
			</output>
		</layer>
		<layer id="78" name="2199220316917" type="Const" version="opset1">
			<data offset="152" size="4" shape="" element_type="f32"/>
			<output>
				<port id="0" precision="FP32"/>
			</output>
		</layer>
		<layer id="79" name="2200220417046" type="Const" version="opset1">
			<data offset="156" size="4" shape="" element_type="f32"/>
			<output>
				<port id="0" precision="FP32"/>
			</output>
		</layer>
		<layer id="80" name="3217322115951" type="Const" version="opset1">
			<data offset="160" size="4" shape="" element_type="f32"/>
			<output>
				<port id="0" precision="FP32"/>
			</output>
		</layer>
		<layer id="81" name="3218322216494" type="Const" version="opset1">
			<data offset="164" size="4" shape="" element_type="f32"/>
			<output>
				<port id="0" precision="FP32"/>
			</output>
		</layer>
		<layer id="82" name="3219322316014" type="Const" version="opset1">
			<data offset="160" size="4" shape="" element_type="f32"/>
			<output>
				<port id="0" precision="FP32"/>
			</output>
		</layer>
		<layer id="83" name="3220322415993" type="Const" version="opset1">
			<data offset="164" size="4" shape="" element_type="f32"/>
			<output>
				<port id="0" precision="FP32"/>
			</output>
		</layer>
		<layer id="84" name="2747275116512" type="Const" version="opset1">
			<data offset="168" size="4" shape="" element_type="f32"/>
			<output>
				<port id="0" precision="FP32"/>
			</output>
		</layer>
		<layer id="85" name="2748275215858" type="Const" version="opset1">
			<data offset="172" size="4" shape="" element_type="f32"/>
			<output>
				<port id="0" precision="FP32"/>
			</output>
		</layer>
		<layer id="86" name="2749275317445" type="Const" version="opset1">
			<data offset="168" size="4" shape="" element_type="f32"/>
			<output>
				<port id="0" precision="FP32"/>
			</output>
		</layer>
		<layer id="87" name="2750275416110" type="Const" version="opset1">
			<data offset="172" size="4" shape="" element_type="f32"/>
			<output>
				<port id="0" precision="FP32"/>
			</output>
		</layer>
		<layer id="88" name="2317232116926" type="Const" version="opset1">
			<data offset="176" size="4" shape="" element_type="f32"/>
			<output>
				<port id="0" precision="FP32"/>
			</output>
		</layer>
		<layer id="89" name="2318232216182" type="Const" version="opset1">
			<data offset="180" size="4" shape="" element_type="f32"/>
			<output>
				<port id="0" precision="FP32"/>
			</output>
		</layer>
		<layer id="90" name="2319232316665" type="Const" version="opset1">
			<data offset="176" size="4" shape="" element_type="f32"/>
			<output>
				<port id="0" precision="FP32"/>
			</output>
		</layer>
		<layer id="91" name="2320232417151" type="Const" version="opset1">
			<data offset="180" size="4" shape="" element_type="f32"/>
			<output>
				<port id="0" precision="FP32"/>
			</output>
		</layer>
		<layer id="92" name="5158516215819" type="Const" version="opset1">
			<data offset="184" size="4" shape="" element_type="f32"/>
			<output>
				<port id="0" precision="FP32"/>
			</output>
		</layer>
		<layer id="93" name="5159516316623" type="Const" version="opset1">
			<data offset="188" size="4" shape="" element_type="f32"/>
			<output>
				<port id="0" precision="FP32"/>
			</output>
		</layer>
		<layer id="94" name="5160516417058" type="Const" version="opset1">
			<data offset="184" size="4" shape="" element_type="f32"/>
			<output>
				<port id="0" precision="FP32"/>
			</output>
		</layer>
		<layer id="95" name="5161516515939" type="Const" version="opset1">
			<data offset="188" size="4" shape="" element_type="f32"/>
			<output>
				<port id="0" precision="FP32"/>
			</output>
		</layer>
		<layer id="96" name="3817382116662" type="Const" version="opset1">
			<data offset="192" size="4" shape="" element_type="f32"/>
			<output>
				<port id="0" precision="FP32"/>
			</output>
		</layer>
		<layer id="97" name="3818382216701" type="Const" version="opset1">
			<data offset="196" size="4" shape="" element_type="f32"/>
			<output>
				<port id="0" precision="FP32"/>
			</output>
		</layer>
		<layer id="98" name="3819382317424" type="Const" version="opset1">
			<data offset="192" size="4" shape="" element_type="f32"/>
			<output>
				<port id="0" precision="FP32"/>
			</output>
		</layer>
		<layer id="99" name="3820382416749" type="Const" version="opset1">
			<data offset="196" size="4" shape="" element_type="f32"/>
			<output>
				<port id="0" precision="FP32"/>
			</output>
		</layer>
		<layer id="100" name="3057306116887" type="Const" version="opset1">
			<data offset="200" size="4" shape="" element_type="f32"/>
			<output>
				<port id="0" precision="FP32"/>
			</output>
		</layer>
		<layer id="101" name="3058306216611" type="Const" version="opset1">
			<data offset="204" size="4" shape="" element_type="f32"/>
			<output>
				<port id="0" precision="FP32"/>
			</output>
		</layer>
		<layer id="102" name="3059306317262" type="Const" version="opset1">
			<data offset="200" size="4" shape="" element_type="f32"/>
			<output>
				<port id="0" precision="FP32"/>
			</output>
		</layer>
		<layer id="103" name="3060306415969" type="Const" version="opset1">
			<data offset="204" size="4" shape="" element_type="f32"/>
			<output>
				<port id="0" precision="FP32"/>
			</output>
		</layer>
		<layer id="104" name="2727273116341" type="Const" version="opset1">
			<data offset="208" size="4" shape="" element_type="f32"/>
			<output>
				<port id="0" precision="FP32"/>
			</output>
		</layer>
		<layer id="105" name="2728273217022" type="Const" version="opset1">
			<data offset="212" size="4" shape="" element_type="f32"/>
			<output>
				<port id="0" precision="FP32"/>
			</output>
		</layer>
		<layer id="106" name="2729273317508" type="Const" version="opset1">
			<data offset="208" size="4" shape="" element_type="f32"/>
			<output>
				<port id="0" precision="FP32"/>
			</output>
		</layer>
		<layer id="107" name="2730273417379" type="Const" version="opset1">
			<data offset="212" size="4" shape="" element_type="f32"/>
			<output>
				<port id="0" precision="FP32"/>
			</output>
		</layer>
		<layer id="108" name="3657366116509" type="Const" version="opset1">
			<data offset="216" size="4" shape="" element_type="f32"/>
			<output>
				<port id="0" precision="FP32"/>
			</output>
		</layer>
		<layer id="109" name="3658366216152" type="Const" version="opset1">
			<data offset="220" size="4" shape="" element_type="f32"/>
			<output>
				<port id="0" precision="FP32"/>
			</output>
		</layer>
		<layer id="110" name="3659366317310" type="Const" version="opset1">
			<data offset="216" size="4" shape="" element_type="f32"/>
			<output>
				<port id="0" precision="FP32"/>
			</output>
		</layer>
		<layer id="111" name="3660366417442" type="Const" version="opset1">
			<data offset="220" size="4" shape="" element_type="f32"/>
			<output>
				<port id="0" precision="FP32"/>
			</output>
		</layer>
		<layer id="112" name="2417242116392" type="Const" version="opset1">
			<data offset="224" size="4" shape="" element_type="f32"/>
			<output>
				<port id="0" precision="FP32"/>
			</output>
		</layer>
		<layer id="113" name="2418242217124" type="Const" version="opset1">
			<data offset="228" size="4" shape="" element_type="f32"/>
			<output>
				<port id="0" precision="FP32"/>
			</output>
		</layer>
		<layer id="114" name="2419242316752" type="Const" version="opset1">
			<data offset="224" size="4" shape="" element_type="f32"/>
			<output>
				<port id="0" precision="FP32"/>
			</output>
		</layer>
		<layer id="115" name="2420242417565" type="Const" version="opset1">
			<data offset="228" size="4" shape="" element_type="f32"/>
			<output>
				<port id="0" precision="FP32"/>
			</output>
		</layer>
		<layer id="117" name="Conv_1/WithoutBiases/fq_input_0" type="FakeQuantize" version="opset1">
			<data levels="256" auto_broadcast="numpy"/>
			<input>
				<port id="0">
					<dim>1</dim>
					<dim>3</dim>
					<dim>640</dim>
					<dim>640</dim>
				</port>
				<port id="1"/>
				<port id="2"/>
				<port id="3"/>
				<port id="4"/>
			</input>
			<output>
				<port id="5" precision="FP32">
					<dim>1</dim>
					<dim>3</dim>
					<dim>640</dim>
					<dim>640</dim>
				</port>
			</output>
		</layer>
		<layer id="118" name="Conv_1/WithoutBiases/fq_weights_1/scale1140515807" type="Const" version="opset1">
			<data offset="232" size="192" shape="48,1,1,1" element_type="f32"/>
			<output>
				<port id="0" precision="FP32">
					<dim>48</dim>
					<dim>1</dim>
					<dim>1</dim>
					<dim>1</dim>
				</port>
			</output>
		</layer>
		<layer id="119" name="Gather_88746198805/restored_convert/quantized1139717076" type="Const" version="opset1">
			<data offset="424" size="5184" shape="48,3,6,6" element_type="i8"/>
			<output>
				<port id="0" precision="I8">
					<dim>48</dim>
					<dim>3</dim>
					<dim>6</dim>
					<dim>6</dim>
				</port>
			</output>
		</layer>
		<layer id="120" name="Gather_88746198805/restored_convert/quantized/to_f32" type="Convert" version="opset1">
			<data destination_type="f32"/>
			<input>
				<port id="0">
					<dim>48</dim>
					<dim>3</dim>
					<dim>6</dim>
					<dim>6</dim>
				</port>
			</input>
			<output>
				<port id="1" precision="FP32">
					<dim>48</dim>
					<dim>3</dim>
					<dim>6</dim>
					<dim>6</dim>
				</port>
			</output>
		</layer>
		<layer id="121" name="Conv_1/WithoutBiases/fq_weights_1/mulpiply_by_scale" type="Multiply" version="opset1">
			<data auto_broadcast="numpy"/>
			<input>
				<port id="0">
					<dim>48</dim>
					<dim>3</dim>
					<dim>6</dim>
					<dim>6</dim>
				</port>
				<port id="1">
					<dim>48</dim>
					<dim>1</dim>
					<dim>1</dim>
					<dim>1</dim>
				</port>
			</input>
			<output>
				<port id="2" precision="FP32">
					<dim>48</dim>
					<dim>3</dim>
					<dim>6</dim>
					<dim>6</dim>
				</port>
			</output>
		</layer>
		<layer id="122" name="Conv_1/WithoutBiases" type="Convolution" version="opset1">
			<data auto_pad="explicit" strides="2,2" dilations="1,1" pads_begin="2,2" pads_end="2,2"/>
			<rt_info>
				<attribute name="fused_names" version="0" value="Constant_4312, Conv_1/WithoutBiases, Divide_4313, model.0.conv.weight"/>
				<attribute name="preprocessing" version="0"/>
			</rt_info>
			<input>
				<port id="0">
					<dim>1</dim>
					<dim>3</dim>
					<dim>640</dim>
					<dim>640</dim>
				</port>
				<port id="1">
					<dim>48</dim>
					<dim>3</dim>
					<dim>6</dim>
					<dim>6</dim>
				</port>
			</input>
			<output>
				<port id="2" precision="FP32">
					<dim>1</dim>
					<dim>48</dim>
					<dim>320</dim>
					<dim>320</dim>
				</port>
			</output>
		</layer>
		<layer id="123" name="Reshape_18662215936" type="Const" version="opset1">
			<data offset="5608" size="96" shape="1,48,1,1" element_type="f16"/>
			<output>
				<port id="0" precision="FP16">
					<dim>1</dim>
					<dim>48</dim>
					<dim>1</dim>
					<dim>1</dim>
				</port>
			</output>
		</layer>
		<layer id="124" name="Reshape_1866228806/restored_convert" type="Convert" version="opset1">
			<data destination_type="f32"/>
			<rt_info>
				<attribute name="decompression" version="0"/>
			</rt_info>
			<input>
				<port id="0">
					<dim>1</dim>
					<dim>48</dim>
					<dim>1</dim>
					<dim>1</dim>
				</port>
			</input>
			<output>
				<port id="1" precision="FP32">
					<dim>1</dim>
					<dim>48</dim>
					<dim>1</dim>
					<dim>1</dim>
				</port>
			</output>
		</layer>
		<layer id="125" name="Conv_1" type="Add" version="opset1">
			<data auto_broadcast="numpy"/>
			<rt_info>
				<attribute name="fused_names" version="0" value="Concat_185, Conv_1, Reshape_186"/>
			</rt_info>
			<input>
				<port id="0">
					<dim>1</dim>
					<dim>48</dim>
					<dim>320</dim>
					<dim>320</dim>
				</port>
				<port id="1">
					<dim>1</dim>
					<dim>48</dim>
					<dim>1</dim>
					<dim>1</dim>
				</port>
			</input>
			<output>
				<port id="2" precision="FP32" names="input">
					<dim>1</dim>
					<dim>48</dim>
					<dim>320</dim>
					<dim>320</dim>
				</port>
			</output>
		</layer>
		<layer id="126" name="Mul_3" type="Swish" version="opset4">
			<rt_info>
				<attribute name="fused_names" version="0" value="Mul_3, Sigmoid_2"/>
			</rt_info>
			<input>
				<port id="0">
					<dim>1</dim>
					<dim>48</dim>
					<dim>320</dim>
					<dim>320</dim>
				</port>
			</input>
			<output>
				<port id="1" precision="FP32" names="onnx::Conv_171">
					<dim>1</dim>
					<dim>48</dim>
					<dim>320</dim>
					<dim>320</dim>
				</port>
			</output>
		</layer>
		<layer id="127" name="Conv_4/WithoutBiases/fq_input_0" type="FakeQuantize" version="opset1">
			<data levels="256" auto_broadcast="numpy"/>
			<input>
				<port id="0">
					<dim>1</dim>
					<dim>48</dim>
					<dim>320</dim>
					<dim>320</dim>
				</port>
				<port id="1"/>
				<port id="2"/>
				<port id="3"/>
				<port id="4"/>
			</input>
			<output>
				<port id="5" precision="FP32">
					<dim>1</dim>
					<dim>48</dim>
					<dim>320</dim>
					<dim>320</dim>
				</port>
			</output>
		</layer>
		<layer id="128" name="Conv_4/WithoutBiases/fq_weights_1/scale1005516023" type="Const" version="opset1">
			<data offset="5704" size="384" shape="96,1,1,1" element_type="f32"/>
			<output>
				<port id="0" precision="FP32">
					<dim>96</dim>
					<dim>1</dim>
					<dim>1</dim>
					<dim>1</dim>
				</port>
			</output>
		</layer>
		<layer id="129" name="model.1.conv.weight6268807/restored_convert/quantized1004715732" type="Const" version="opset1">
			<data offset="6088" size="41472" shape="96,48,3,3" element_type="i8"/>
			<output>
				<port id="0" precision="I8">
					<dim>96</dim>
					<dim>48</dim>
					<dim>3</dim>
					<dim>3</dim>
				</port>
			</output>
		</layer>
		<layer id="130" name="model.1.conv.weight6268807/restored_convert/quantized/to_f32" type="Convert" version="opset1">
			<data destination_type="f32"/>
			<input>
				<port id="0">
					<dim>96</dim>
					<dim>48</dim>
					<dim>3</dim>
					<dim>3</dim>
				</port>
			</input>
			<output>
				<port id="1" precision="FP32">
					<dim>96</dim>
					<dim>48</dim>
					<dim>3</dim>
					<dim>3</dim>
				</port>
			</output>
		</layer>
		<layer id="131" name="Conv_4/WithoutBiases/fq_weights_1/mulpiply_by_scale" type="Multiply" version="opset1">
			<data auto_broadcast="numpy"/>
			<input>
				<port id="0">
					<dim>96</dim>
					<dim>48</dim>
					<dim>3</dim>
					<dim>3</dim>
				</port>
				<port id="1">
					<dim>96</dim>
					<dim>1</dim>
					<dim>1</dim>
					<dim>1</dim>
				</port>
			</input>
			<output>
				<port id="2" precision="FP32">
					<dim>96</dim>
					<dim>48</dim>
					<dim>3</dim>
					<dim>3</dim>
				</port>
			</output>
		</layer>
		<layer id="132" name="Conv_4/WithoutBiases" type="Convolution" version="opset1">
			<data auto_pad="explicit" strides="2,2" dilations="1,1" pads_begin="1,1" pads_end="1,1"/>
			<rt_info>
				<attribute name="fused_names" version="0" value="Conv_4/WithoutBiases"/>
			</rt_info>
			<input>
				<port id="0">
					<dim>1</dim>
					<dim>48</dim>
					<dim>320</dim>
					<dim>320</dim>
				</port>
				<port id="1">
					<dim>96</dim>
					<dim>48</dim>
					<dim>3</dim>
					<dim>3</dim>
				</port>
			</input>
			<output>
				<port id="2" precision="FP32">
					<dim>1</dim>
					<dim>96</dim>
					<dim>160</dim>
					<dim>160</dim>
				</port>
			</output>
		</layer>
		<layer id="133" name="Reshape_23662916584" type="Const" version="opset1">
			<data offset="47560" size="192" shape="1,96,1,1" element_type="f16"/>
			<output>
				<port id="0" precision="FP16">
					<dim>1</dim>
					<dim>96</dim>
					<dim>1</dim>
					<dim>1</dim>
				</port>
			</output>
		</layer>
		<layer id="134" name="Reshape_2366298808/restored_convert" type="Convert" version="opset1">
			<data destination_type="f32"/>
			<rt_info>
				<attribute name="decompression" version="0"/>
			</rt_info>
			<input>
				<port id="0">
					<dim>1</dim>
					<dim>96</dim>
					<dim>1</dim>
					<dim>1</dim>
				</port>
			</input>
			<output>
				<port id="1" precision="FP32">
					<dim>1</dim>
					<dim>96</dim>
					<dim>1</dim>
					<dim>1</dim>
				</port>
			</output>
		</layer>
		<layer id="135" name="Conv_4" type="Add" version="opset1">
			<data auto_broadcast="numpy"/>
			<rt_info>
				<attribute name="fused_names" version="0" value="Concat_235, Conv_4, Reshape_236"/>
			</rt_info>
			<input>
				<port id="0">
					<dim>1</dim>
					<dim>96</dim>
					<dim>160</dim>
					<dim>160</dim>
				</port>
				<port id="1">
					<dim>1</dim>
					<dim>96</dim>
					<dim>1</dim>
					<dim>1</dim>
				</port>
			</input>
			<output>
				<port id="2" precision="FP32" names="input.4">
					<dim>1</dim>
					<dim>96</dim>
					<dim>160</dim>
					<dim>160</dim>
				</port>
			</output>
		</layer>
		<layer id="136" name="Mul_6" type="Swish" version="opset4">
			<rt_info>
				<attribute name="fused_names" version="0" value="Mul_6, Sigmoid_5"/>
			</rt_info>
			<input>
				<port id="0">
					<dim>1</dim>
					<dim>96</dim>
					<dim>160</dim>
					<dim>160</dim>
				</port>
			</input>
			<output>
				<port id="1" precision="FP32" names="onnx::Conv_174">
					<dim>1</dim>
					<dim>96</dim>
					<dim>160</dim>
					<dim>160</dim>
				</port>
			</output>
		</layer>
		<layer id="137" name="Conv_24/WithoutBiases/fq_input_0" type="FakeQuantize" version="opset1">
			<data levels="256" auto_broadcast="numpy"/>
			<input>
				<port id="0">
					<dim>1</dim>
					<dim>96</dim>
					<dim>160</dim>
					<dim>160</dim>
				</port>
				<port id="1"/>
				<port id="2"/>
				<port id="3"/>
				<port id="4"/>
			</input>
			<output>
				<port id="5" precision="FP32">
					<dim>1</dim>
					<dim>96</dim>
					<dim>160</dim>
					<dim>160</dim>
				</port>
			</output>
		</layer>
		<layer id="138" name="Conv_7/WithoutBiases/fq_weights_1/scale1092517256" type="Const" version="opset1">
			<data offset="47752" size="192" shape="48,1,1,1" element_type="f32"/>
			<output>
				<port id="0" precision="FP32">
					<dim>48</dim>
					<dim>1</dim>
					<dim>1</dim>
					<dim>1</dim>
				</port>
			</output>
		</layer>
		<layer id="139" name="model.2.cv1.conv.weight6338809/restored_convert/quantized1091716185" type="Const" version="opset1">
			<data offset="47944" size="4608" shape="48,96,1,1" element_type="i8"/>
			<output>
				<port id="0" precision="I8">
					<dim>48</dim>
					<dim>96</dim>
					<dim>1</dim>
					<dim>1</dim>
				</port>
			</output>
		</layer>
		<layer id="140" name="model.2.cv1.conv.weight6338809/restored_convert/quantized/to_f32" type="Convert" version="opset1">
			<data destination_type="f32"/>
			<input>
				<port id="0">
					<dim>48</dim>
					<dim>96</dim>
					<dim>1</dim>
					<dim>1</dim>
				</port>
			</input>
			<output>
				<port id="1" precision="FP32">
					<dim>48</dim>
					<dim>96</dim>
					<dim>1</dim>
					<dim>1</dim>
				</port>
			</output>
		</layer>
		<layer id="141" name="Conv_7/WithoutBiases/fq_weights_1/mulpiply_by_scale" type="Multiply" version="opset1">
			<data auto_broadcast="numpy"/>
			<input>
				<port id="0">
					<dim>48</dim>
					<dim>96</dim>
					<dim>1</dim>
					<dim>1</dim>
				</port>
				<port id="1">
					<dim>48</dim>
					<dim>1</dim>
					<dim>1</dim>
					<dim>1</dim>
				</port>
			</input>
			<output>
				<port id="2" precision="FP32">
					<dim>48</dim>
					<dim>96</dim>
					<dim>1</dim>
					<dim>1</dim>
				</port>
			</output>
		</layer>
		<layer id="142" name="Conv_7/WithoutBiases" type="Convolution" version="opset1">
			<data auto_pad="explicit" strides="1,1" dilations="1,1" pads_begin="0,0" pads_end="0,0"/>
			<rt_info>
				<attribute name="fused_names" version="0" value="Conv_7/WithoutBiases"/>
			</rt_info>
			<input>
				<port id="0">
					<dim>1</dim>
					<dim>96</dim>
					<dim>160</dim>
					<dim>160</dim>
				</port>
				<port id="1">
					<dim>48</dim>
					<dim>96</dim>
					<dim>1</dim>
					<dim>1</dim>
				</port>
			</input>
			<output>
				<port id="2" precision="FP32">
					<dim>1</dim>
					<dim>48</dim>
					<dim>160</dim>
					<dim>160</dim>
				</port>
			</output>
		</layer>
		<layer id="143" name="Reshape_28663616206" type="Const" version="opset1">
			<data offset="52552" size="96" shape="1,48,1,1" element_type="f16"/>
			<output>
				<port id="0" precision="FP16">
					<dim>1</dim>
					<dim>48</dim>
					<dim>1</dim>
					<dim>1</dim>
				</port>
			</output>
		</layer>
		<layer id="144" name="Reshape_2866368810/restored_convert" type="Convert" version="opset1">
			<data destination_type="f32"/>
			<rt_info>
				<attribute name="decompression" version="0"/>
			</rt_info>
			<input>
				<port id="0">
					<dim>1</dim>
					<dim>48</dim>
					<dim>1</dim>
					<dim>1</dim>
				</port>
			</input>
			<output>
				<port id="1" precision="FP32">
					<dim>1</dim>
					<dim>48</dim>
					<dim>1</dim>
					<dim>1</dim>
				</port>
			</output>
		</layer>
		<layer id="145" name="Conv_7" type="Add" version="opset1">
			<data auto_broadcast="numpy"/>
			<rt_info>
				<attribute name="fused_names" version="0" value="Concat_285, Conv_7, Reshape_286"/>
			</rt_info>
			<input>
				<port id="0">
					<dim>1</dim>
					<dim>48</dim>
					<dim>160</dim>
					<dim>160</dim>
				</port>
				<port id="1">
					<dim>1</dim>
					<dim>48</dim>
					<dim>1</dim>
					<dim>1</dim>
				</port>
			</input>
			<output>
				<port id="2" precision="FP32" names="input.8">
					<dim>1</dim>
					<dim>48</dim>
					<dim>160</dim>
					<dim>160</dim>
				</port>
			</output>
		</layer>
		<layer id="146" name="Mul_9" type="Swish" version="opset4">
			<rt_info>
				<attribute name="fused_names" version="0" value="Mul_9, Sigmoid_8"/>
			</rt_info>
			<input>
				<port id="0">
					<dim>1</dim>
					<dim>48</dim>
					<dim>160</dim>
					<dim>160</dim>
				</port>
			</input>
			<output>
				<port id="1" precision="FP32" names="onnx::Conv_177">
					<dim>1</dim>
					<dim>48</dim>
					<dim>160</dim>
					<dim>160</dim>
				</port>
			</output>
		</layer>
		<layer id="147" name="Add_16/fq_input_0" type="FakeQuantize" version="opset1">
			<data levels="256" auto_broadcast="numpy"/>
			<input>
				<port id="0">
					<dim>1</dim>
					<dim>48</dim>
					<dim>160</dim>
					<dim>160</dim>
				</port>
				<port id="1"/>
				<port id="2"/>
				<port id="3"/>
				<port id="4"/>
			</input>
			<output>
				<port id="5" precision="FP32">
					<dim>1</dim>
					<dim>48</dim>
					<dim>160</dim>
					<dim>160</dim>
				</port>
			</output>
		</layer>
		<layer id="148" name="3067307116476" type="Const" version="opset1">
			<data offset="52648" size="4" shape="" element_type="f32"/>
			<output>
				<port id="0" precision="FP32"/>
			</output>
		</layer>
		<layer id="149" name="3068307216119" type="Const" version="opset1">
			<data offset="52652" size="4" shape="" element_type="f32"/>
			<output>
				<port id="0" precision="FP32"/>
			</output>
		</layer>
		<layer id="150" name="3069307316404" type="Const" version="opset1">
			<data offset="52648" size="4" shape="" element_type="f32"/>
			<output>
				<port id="0" precision="FP32"/>
			</output>
		</layer>
		<layer id="151" name="3070307417178" type="Const" version="opset1">
			<data offset="52652" size="4" shape="" element_type="f32"/>
			<output>
				<port id="0" precision="FP32"/>
			</output>
		</layer>
		<layer id="152" name="2827283116575" type="Const" version="opset1">
			<data offset="52656" size="4" shape="" element_type="f32"/>
			<output>
				<port id="0" precision="FP32"/>
			</output>
		</layer>
		<layer id="153" name="2828283215753" type="Const" version="opset1">
			<data offset="52660" size="4" shape="" element_type="f32"/>
			<output>
				<port id="0" precision="FP32"/>
			</output>
		</layer>
		<layer id="154" name="2829283316461" type="Const" version="opset1">
			<data offset="52656" size="4" shape="" element_type="f32"/>
			<output>
				<port id="0" precision="FP32"/>
			</output>
		</layer>
		<layer id="155" name="2830283417100" type="Const" version="opset1">
			<data offset="52660" size="4" shape="" element_type="f32"/>
			<output>
				<port id="0" precision="FP32"/>
			</output>
		</layer>
		<layer id="156" name="Conv_10/WithoutBiases/fq_weights_1/scale1119516803" type="Const" version="opset1">
			<data offset="52664" size="192" shape="48,1,1,1" element_type="f32"/>
			<output>
				<port id="0" precision="FP32">
					<dim>48</dim>
					<dim>1</dim>
					<dim>1</dim>
					<dim>1</dim>
				</port>
			</output>
		</layer>
		<layer id="157" name="model.2.m.0.cv1.conv.weight6408811/restored_convert/quantized1118717025" type="Const" version="opset1">
			<data offset="52856" size="2304" shape="48,48,1,1" element_type="i8"/>
			<output>
				<port id="0" precision="I8">
					<dim>48</dim>
					<dim>48</dim>
					<dim>1</dim>
					<dim>1</dim>
				</port>
			</output>
		</layer>
		<layer id="158" name="model.2.m.0.cv1.conv.weight6408811/restored_convert/quantized/to_f32" type="Convert" version="opset1">
			<data destination_type="f32"/>
			<input>
				<port id="0">
					<dim>48</dim>
					<dim>48</dim>
					<dim>1</dim>
					<dim>1</dim>
				</port>
			</input>
			<output>
				<port id="1" precision="FP32">
					<dim>48</dim>
					<dim>48</dim>
					<dim>1</dim>
					<dim>1</dim>
				</port>
			</output>
		</layer>
		<layer id="159" name="Conv_10/WithoutBiases/fq_weights_1/mulpiply_by_scale" type="Multiply" version="opset1">
			<data auto_broadcast="numpy"/>
			<input>
				<port id="0">
					<dim>48</dim>
					<dim>48</dim>
					<dim>1</dim>
					<dim>1</dim>
				</port>
				<port id="1">
					<dim>48</dim>
					<dim>1</dim>
					<dim>1</dim>
					<dim>1</dim>
				</port>
			</input>
			<output>
				<port id="2" precision="FP32">
					<dim>48</dim>
					<dim>48</dim>
					<dim>1</dim>
					<dim>1</dim>
				</port>
			</output>
		</layer>
		<layer id="160" name="Conv_10/WithoutBiases" type="Convolution" version="opset1">
			<data auto_pad="explicit" strides="1,1" dilations="1,1" pads_begin="0,0" pads_end="0,0"/>
			<rt_info>
				<attribute name="fused_names" version="0" value="Conv_10/WithoutBiases"/>
			</rt_info>
			<input>
				<port id="0">
					<dim>1</dim>
					<dim>48</dim>
					<dim>160</dim>
					<dim>160</dim>
				</port>
				<port id="1">
					<dim>48</dim>
					<dim>48</dim>
					<dim>1</dim>
					<dim>1</dim>
				</port>
			</input>
			<output>
				<port id="2" precision="FP32">
					<dim>1</dim>
					<dim>48</dim>
					<dim>160</dim>
					<dim>160</dim>
				</port>
			</output>
		</layer>
		<layer id="161" name="Reshape_33664317532" type="Const" version="opset1">
			<data offset="55160" size="96" shape="1,48,1,1" element_type="f16"/>
			<output>
				<port id="0" precision="FP16">
					<dim>1</dim>
					<dim>48</dim>
					<dim>1</dim>
					<dim>1</dim>
				</port>
			</output>
		</layer>
		<layer id="162" name="Reshape_3366438812/restored_convert" type="Convert" version="opset1">
			<data destination_type="f32"/>
			<rt_info>
				<attribute name="decompression" version="0"/>
			</rt_info>
			<input>
				<port id="0">
					<dim>1</dim>
					<dim>48</dim>
					<dim>1</dim>
					<dim>1</dim>
				</port>
			</input>
			<output>
				<port id="1" precision="FP32">
					<dim>1</dim>
					<dim>48</dim>
					<dim>1</dim>
					<dim>1</dim>
				</port>
			</output>
		</layer>
		<layer id="163" name="Conv_10" type="Add" version="opset1">
			<data auto_broadcast="numpy"/>
			<rt_info>
				<attribute name="fused_names" version="0" value="Concat_335, Conv_10, Reshape_336"/>
			</rt_info>
			<input>
				<port id="0">
					<dim>1</dim>
					<dim>48</dim>
					<dim>160</dim>
					<dim>160</dim>
				</port>
				<port id="1">
					<dim>1</dim>
					<dim>48</dim>
					<dim>1</dim>
					<dim>1</dim>
				</port>
			</input>
			<output>
				<port id="2" precision="FP32" names="input.12">
					<dim>1</dim>
					<dim>48</dim>
					<dim>160</dim>
					<dim>160</dim>
				</port>
			</output>
		</layer>
		<layer id="164" name="Mul_12" type="Swish" version="opset4">
			<rt_info>
				<attribute name="fused_names" version="0" value="Mul_12, Sigmoid_11"/>
			</rt_info>
			<input>
				<port id="0">
					<dim>1</dim>
					<dim>48</dim>
					<dim>160</dim>
					<dim>160</dim>
				</port>
			</input>
			<output>
				<port id="1" precision="FP32" names="onnx::Conv_180">
					<dim>1</dim>
					<dim>48</dim>
					<dim>160</dim>
					<dim>160</dim>
				</port>
			</output>
		</layer>
		<layer id="165" name="Conv_13/WithoutBiases/fq_input_0" type="FakeQuantize" version="opset1">
			<data levels="256" auto_broadcast="numpy"/>
			<input>
				<port id="0">
					<dim>1</dim>
					<dim>48</dim>
					<dim>160</dim>
					<dim>160</dim>
				</port>
				<port id="1"/>
				<port id="2"/>
				<port id="3"/>
				<port id="4"/>
			</input>
			<output>
				<port id="5" precision="FP32">
					<dim>1</dim>
					<dim>48</dim>
					<dim>160</dim>
					<dim>160</dim>
				</port>
			</output>
		</layer>
		<layer id="166" name="Conv_13/WithoutBiases/fq_weights_1/scale1071517463" type="Const" version="opset1">
			<data offset="55256" size="192" shape="48,1,1,1" element_type="f32"/>
			<output>
				<port id="0" precision="FP32">
					<dim>48</dim>
					<dim>1</dim>
					<dim>1</dim>
					<dim>1</dim>
				</port>
			</output>
		</layer>
		<layer id="167" name="model.2.m.0.cv2.conv.weight6478813/restored_convert/quantized1070716167" type="Const" version="opset1">
			<data offset="55448" size="20736" shape="48,48,3,3" element_type="i8"/>
			<output>
				<port id="0" precision="I8">
					<dim>48</dim>
					<dim>48</dim>
					<dim>3</dim>
					<dim>3</dim>
				</port>
			</output>
		</layer>
		<layer id="168" name="model.2.m.0.cv2.conv.weight6478813/restored_convert/quantized/to_f32" type="Convert" version="opset1">
			<data destination_type="f32"/>
			<input>
				<port id="0">
					<dim>48</dim>
					<dim>48</dim>
					<dim>3</dim>
					<dim>3</dim>
				</port>
			</input>
			<output>
				<port id="1" precision="FP32">
					<dim>48</dim>
					<dim>48</dim>
					<dim>3</dim>
					<dim>3</dim>
				</port>
			</output>
		</layer>
		<layer id="169" name="Conv_13/WithoutBiases/fq_weights_1/mulpiply_by_scale" type="Multiply" version="opset1">
			<data auto_broadcast="numpy"/>
			<input>
				<port id="0">
					<dim>48</dim>
					<dim>48</dim>
					<dim>3</dim>
					<dim>3</dim>
				</port>
				<port id="1">
					<dim>48</dim>
					<dim>1</dim>
					<dim>1</dim>
					<dim>1</dim>
				</port>
			</input>
			<output>
				<port id="2" precision="FP32">
					<dim>48</dim>
					<dim>48</dim>
					<dim>3</dim>
					<dim>3</dim>
				</port>
			</output>
		</layer>
		<layer id="170" name="Conv_13/WithoutBiases" type="Convolution" version="opset1">
			<data auto_pad="explicit" strides="1,1" dilations="1,1" pads_begin="1,1" pads_end="1,1"/>
			<rt_info>
				<attribute name="fused_names" version="0" value="Conv_13/WithoutBiases"/>
			</rt_info>
			<input>
				<port id="0">
					<dim>1</dim>
					<dim>48</dim>
					<dim>160</dim>
					<dim>160</dim>
				</port>
				<port id="1">
					<dim>48</dim>
					<dim>48</dim>
					<dim>3</dim>
					<dim>3</dim>
				</port>
			</input>
			<output>
				<port id="2" precision="FP32">
					<dim>1</dim>
					<dim>48</dim>
					<dim>160</dim>
					<dim>160</dim>
				</port>
			</output>
		</layer>
		<layer id="171" name="Reshape_38665016434" type="Const" version="opset1">
			<data offset="76184" size="96" shape="1,48,1,1" element_type="f16"/>
			<output>
				<port id="0" precision="FP16">
					<dim>1</dim>
					<dim>48</dim>
					<dim>1</dim>
					<dim>1</dim>
				</port>
			</output>
		</layer>
		<layer id="172" name="Reshape_3866508814/restored_convert" type="Convert" version="opset1">
			<data destination_type="f32"/>
			<rt_info>
				<attribute name="decompression" version="0"/>
			</rt_info>
			<input>
				<port id="0">
					<dim>1</dim>
					<dim>48</dim>
					<dim>1</dim>
					<dim>1</dim>
				</port>
			</input>
			<output>
				<port id="1" precision="FP32">
					<dim>1</dim>
					<dim>48</dim>
					<dim>1</dim>
					<dim>1</dim>
				</port>
			</output>
		</layer>
		<layer id="173" name="Conv_13" type="Add" version="opset1">
			<data auto_broadcast="numpy"/>
			<rt_info>
				<attribute name="fused_names" version="0" value="Concat_385, Conv_13, Reshape_386"/>
			</rt_info>
			<input>
				<port id="0">
					<dim>1</dim>
					<dim>48</dim>
					<dim>160</dim>
					<dim>160</dim>
				</port>
				<port id="1">
					<dim>1</dim>
					<dim>48</dim>
					<dim>1</dim>
					<dim>1</dim>
				</port>
			</input>
			<output>
				<port id="2" precision="FP32" names="input.16">
					<dim>1</dim>
					<dim>48</dim>
					<dim>160</dim>
					<dim>160</dim>
				</port>
			</output>
		</layer>
		<layer id="174" name="Mul_15" type="Swish" version="opset4">
			<rt_info>
				<attribute name="fused_names" version="0" value="Mul_15, Sigmoid_14"/>
			</rt_info>
			<input>
				<port id="0">
					<dim>1</dim>
					<dim>48</dim>
					<dim>160</dim>
					<dim>160</dim>
				</port>
			</input>
			<output>
				<port id="1" precision="FP32" names="onnx::Add_183">
					<dim>1</dim>
					<dim>48</dim>
					<dim>160</dim>
					<dim>160</dim>
				</port>
			</output>
		</layer>
		<layer id="175" name="Add_16/fq_input_1" type="FakeQuantize" version="opset1">
			<data levels="256" auto_broadcast="numpy"/>
			<input>
				<port id="0">
					<dim>1</dim>
					<dim>48</dim>
					<dim>160</dim>
					<dim>160</dim>
				</port>
				<port id="1"/>
				<port id="2"/>
				<port id="3"/>
				<port id="4"/>
			</input>
			<output>
				<port id="5" precision="FP32">
					<dim>1</dim>
					<dim>48</dim>
					<dim>160</dim>
					<dim>160</dim>
				</port>
			</output>
		</layer>
		<layer id="176" name="Add_16" type="Add" version="opset1">
			<data auto_broadcast="numpy"/>
			<rt_info>
				<attribute name="fused_names" version="0" value="Add_16"/>
			</rt_info>
			<input>
				<port id="0">
					<dim>1</dim>
					<dim>48</dim>
					<dim>160</dim>
					<dim>160</dim>
				</port>
				<port id="1">
					<dim>1</dim>
					<dim>48</dim>
					<dim>160</dim>
					<dim>160</dim>
				</port>
			</input>
			<output>
				<port id="2" precision="FP32" names="input.20">
					<dim>1</dim>
					<dim>48</dim>
					<dim>160</dim>
					<dim>160</dim>
				</port>
			</output>
		</layer>
		<layer id="177" name="Add_23/fq_input_0" type="FakeQuantize" version="opset1">
			<data levels="256" auto_broadcast="numpy"/>
			<input>
				<port id="0">
					<dim>1</dim>
					<dim>48</dim>
					<dim>160</dim>
					<dim>160</dim>
				</port>
				<port id="1"/>
				<port id="2"/>
				<port id="3"/>
				<port id="4"/>
			</input>
			<output>
				<port id="5" precision="FP32">
					<dim>1</dim>
					<dim>48</dim>
					<dim>160</dim>
					<dim>160</dim>
				</port>
			</output>
		</layer>
		<layer id="178" name="3827383115837" type="Const" version="opset1">
			<data offset="76280" size="4" shape="" element_type="f32"/>
			<output>
				<port id="0" precision="FP32"/>
			</output>
		</layer>
		<layer id="179" name="3828383216218" type="Const" version="opset1">
			<data offset="76284" size="4" shape="" element_type="f32"/>
			<output>
				<port id="0" precision="FP32"/>
			</output>
		</layer>
		<layer id="180" name="3829383316629" type="Const" version="opset1">
			<data offset="76280" size="4" shape="" element_type="f32"/>
			<output>
				<port id="0" precision="FP32"/>
			</output>
		</layer>
		<layer id="181" name="3830383417112" type="Const" version="opset1">
			<data offset="76284" size="4" shape="" element_type="f32"/>
			<output>
				<port id="0" precision="FP32"/>
			</output>
		</layer>
		<layer id="182" name="3197320116260" type="Const" version="opset1">
			<data offset="76288" size="4" shape="" element_type="f32"/>
			<output>
				<port id="0" precision="FP32"/>
			</output>
		</layer>
		<layer id="183" name="3198320217400" type="Const" version="opset1">
			<data offset="76292" size="4" shape="" element_type="f32"/>
			<output>
				<port id="0" precision="FP32"/>
			</output>
		</layer>
		<layer id="184" name="3199320316950" type="Const" version="opset1">
			<data offset="76288" size="4" shape="" element_type="f32"/>
			<output>
				<port id="0" precision="FP32"/>
			</output>
		</layer>
		<layer id="185" name="3200320416401" type="Const" version="opset1">
			<data offset="76292" size="4" shape="" element_type="f32"/>
			<output>
				<port id="0" precision="FP32"/>
			</output>
		</layer>
		<layer id="186" name="Conv_17/WithoutBiases/fq_weights_1/scale1224515741" type="Const" version="opset1">
			<data offset="76296" size="192" shape="48,1,1,1" element_type="f32"/>
			<output>
				<port id="0" precision="FP32">
					<dim>48</dim>
					<dim>1</dim>
					<dim>1</dim>
					<dim>1</dim>
				</port>
			</output>
		</layer>
		<layer id="187" name="model.2.m.1.cv1.conv.weight6558815/restored_convert/quantized1223717556" type="Const" version="opset1">
			<data offset="76488" size="2304" shape="48,48,1,1" element_type="i8"/>
			<output>
				<port id="0" precision="I8">
					<dim>48</dim>
					<dim>48</dim>
					<dim>1</dim>
					<dim>1</dim>
				</port>
			</output>
		</layer>
		<layer id="188" name="model.2.m.1.cv1.conv.weight6558815/restored_convert/quantized/to_f32" type="Convert" version="opset1">
			<data destination_type="f32"/>
			<input>
				<port id="0">
					<dim>48</dim>
					<dim>48</dim>
					<dim>1</dim>
					<dim>1</dim>
				</port>
			</input>
			<output>
				<port id="1" precision="FP32">
					<dim>48</dim>
					<dim>48</dim>
					<dim>1</dim>
					<dim>1</dim>
				</port>
			</output>
		</layer>
		<layer id="189" name="Conv_17/WithoutBiases/fq_weights_1/mulpiply_by_scale" type="Multiply" version="opset1">
			<data auto_broadcast="numpy"/>
			<input>
				<port id="0">
					<dim>48</dim>
					<dim>48</dim>
					<dim>1</dim>
					<dim>1</dim>
				</port>
				<port id="1">
					<dim>48</dim>
					<dim>1</dim>
					<dim>1</dim>
					<dim>1</dim>
				</port>
			</input>
			<output>
				<port id="2" precision="FP32">
					<dim>48</dim>
					<dim>48</dim>
					<dim>1</dim>
					<dim>1</dim>
				</port>
			</output>
		</layer>
		<layer id="190" name="Conv_17/WithoutBiases" type="Convolution" version="opset1">
			<data auto_pad="explicit" strides="1,1" dilations="1,1" pads_begin="0,0" pads_end="0,0"/>
			<rt_info>
				<attribute name="fused_names" version="0" value="Conv_17/WithoutBiases"/>
			</rt_info>
			<input>
				<port id="0">
					<dim>1</dim>
					<dim>48</dim>
					<dim>160</dim>
					<dim>160</dim>
				</port>
				<port id="1">
					<dim>48</dim>
					<dim>48</dim>
					<dim>1</dim>
					<dim>1</dim>
				</port>
			</input>
			<output>
				<port id="2" precision="FP32">
					<dim>1</dim>
					<dim>48</dim>
					<dim>160</dim>
					<dim>160</dim>
				</port>
			</output>
		</layer>
		<layer id="191" name="Reshape_43765815852" type="Const" version="opset1">
			<data offset="78792" size="96" shape="1,48,1,1" element_type="f16"/>
			<output>
				<port id="0" precision="FP16">
					<dim>1</dim>
					<dim>48</dim>
					<dim>1</dim>
					<dim>1</dim>
				</port>
			</output>
		</layer>
		<layer id="192" name="Reshape_4376588816/restored_convert" type="Convert" version="opset1">
			<data destination_type="f32"/>
			<rt_info>
				<attribute name="decompression" version="0"/>
			</rt_info>
			<input>
				<port id="0">
					<dim>1</dim>
					<dim>48</dim>
					<dim>1</dim>
					<dim>1</dim>
				</port>
			</input>
			<output>
				<port id="1" precision="FP32">
					<dim>1</dim>
					<dim>48</dim>
					<dim>1</dim>
					<dim>1</dim>
				</port>
			</output>
		</layer>
		<layer id="193" name="Conv_17" type="Add" version="opset1">
			<data auto_broadcast="numpy"/>
			<rt_info>
				<attribute name="fused_names" version="0" value="Concat_436, Conv_17, Reshape_437"/>
			</rt_info>
			<input>
				<port id="0">
					<dim>1</dim>
					<dim>48</dim>
					<dim>160</dim>
					<dim>160</dim>
				</port>
				<port id="1">
					<dim>1</dim>
					<dim>48</dim>
					<dim>1</dim>
					<dim>1</dim>
				</port>
			</input>
			<output>
				<port id="2" precision="FP32" names="input.24">
					<dim>1</dim>
					<dim>48</dim>
					<dim>160</dim>
					<dim>160</dim>
				</port>
			</output>
		</layer>
		<layer id="194" name="Mul_19" type="Swish" version="opset4">
			<rt_info>
				<attribute name="fused_names" version="0" value="Mul_19, Sigmoid_18"/>
			</rt_info>
			<input>
				<port id="0">
					<dim>1</dim>
					<dim>48</dim>
					<dim>160</dim>
					<dim>160</dim>
				</port>
			</input>
			<output>
				<port id="1" precision="FP32" names="onnx::Conv_187">
					<dim>1</dim>
					<dim>48</dim>
					<dim>160</dim>
					<dim>160</dim>
				</port>
			</output>
		</layer>
		<layer id="195" name="Conv_20/WithoutBiases/fq_input_0" type="FakeQuantize" version="opset1">
			<data levels="256" auto_broadcast="numpy"/>
			<input>
				<port id="0">
					<dim>1</dim>
					<dim>48</dim>
					<dim>160</dim>
					<dim>160</dim>
				</port>
				<port id="1"/>
				<port id="2"/>
				<port id="3"/>
				<port id="4"/>
			</input>
			<output>
				<port id="5" precision="FP32">
					<dim>1</dim>
					<dim>48</dim>
					<dim>160</dim>
					<dim>160</dim>
				</port>
			</output>
		</layer>
		<layer id="196" name="Conv_20/WithoutBiases/fq_weights_1/scale1041517514" type="Const" version="opset1">
			<data offset="78888" size="192" shape="48,1,1,1" element_type="f32"/>
			<output>
				<port id="0" precision="FP32">
					<dim>48</dim>
					<dim>1</dim>
					<dim>1</dim>
					<dim>1</dim>
				</port>
			</output>
		</layer>
		<layer id="197" name="model.2.m.1.cv2.conv.weight6628817/restored_convert/quantized1040716878" type="Const" version="opset1">
			<data offset="79080" size="20736" shape="48,48,3,3" element_type="i8"/>
			<output>
				<port id="0" precision="I8">
					<dim>48</dim>
					<dim>48</dim>
					<dim>3</dim>
					<dim>3</dim>
				</port>
			</output>
		</layer>
		<layer id="198" name="model.2.m.1.cv2.conv.weight6628817/restored_convert/quantized/to_f32" type="Convert" version="opset1">
			<data destination_type="f32"/>
			<input>
				<port id="0">
					<dim>48</dim>
					<dim>48</dim>
					<dim>3</dim>
					<dim>3</dim>
				</port>
			</input>
			<output>
				<port id="1" precision="FP32">
					<dim>48</dim>
					<dim>48</dim>
					<dim>3</dim>
					<dim>3</dim>
				</port>
			</output>
		</layer>
		<layer id="199" name="Conv_20/WithoutBiases/fq_weights_1/mulpiply_by_scale" type="Multiply" version="opset1">
			<data auto_broadcast="numpy"/>
			<input>
				<port id="0">
					<dim>48</dim>
					<dim>48</dim>
					<dim>3</dim>
					<dim>3</dim>
				</port>
				<port id="1">
					<dim>48</dim>
					<dim>1</dim>
					<dim>1</dim>
					<dim>1</dim>
				</port>
			</input>
			<output>
				<port id="2" precision="FP32">
					<dim>48</dim>
					<dim>48</dim>
					<dim>3</dim>
					<dim>3</dim>
				</port>
			</output>
		</layer>
		<layer id="200" name="Conv_20/WithoutBiases" type="Convolution" version="opset1">
			<data auto_pad="explicit" strides="1,1" dilations="1,1" pads_begin="1,1" pads_end="1,1"/>
			<rt_info>
				<attribute name="fused_names" version="0" value="Conv_20/WithoutBiases"/>
			</rt_info>
			<input>
				<port id="0">
					<dim>1</dim>
					<dim>48</dim>
					<dim>160</dim>
					<dim>160</dim>
				</port>
				<port id="1">
					<dim>48</dim>
					<dim>48</dim>
					<dim>3</dim>
					<dim>3</dim>
				</port>
			</input>
			<output>
				<port id="2" precision="FP32">
					<dim>1</dim>
					<dim>48</dim>
					<dim>160</dim>
					<dim>160</dim>
				</port>
			</output>
		</layer>
		<layer id="201" name="Reshape_48766515915" type="Const" version="opset1">
			<data offset="99816" size="96" shape="1,48,1,1" element_type="f16"/>
			<output>
				<port id="0" precision="FP16">
					<dim>1</dim>
					<dim>48</dim>
					<dim>1</dim>
					<dim>1</dim>
				</port>
			</output>
		</layer>
		<layer id="202" name="Reshape_4876658818/restored_convert" type="Convert" version="opset1">
			<data destination_type="f32"/>
			<rt_info>
				<attribute name="decompression" version="0"/>
			</rt_info>
			<input>
				<port id="0">
					<dim>1</dim>
					<dim>48</dim>
					<dim>1</dim>
					<dim>1</dim>
				</port>
			</input>
			<output>
				<port id="1" precision="FP32">
					<dim>1</dim>
					<dim>48</dim>
					<dim>1</dim>
					<dim>1</dim>
				</port>
			</output>
		</layer>
		<layer id="203" name="Conv_20" type="Add" version="opset1">
			<data auto_broadcast="numpy"/>
			<rt_info>
				<attribute name="fused_names" version="0" value="Concat_486, Conv_20, Reshape_487"/>
			</rt_info>
			<input>
				<port id="0">
					<dim>1</dim>
					<dim>48</dim>
					<dim>160</dim>
					<dim>160</dim>
				</port>
				<port id="1">
					<dim>1</dim>
					<dim>48</dim>
					<dim>1</dim>
					<dim>1</dim>
				</port>
			</input>
			<output>
				<port id="2" precision="FP32" names="input.28">
					<dim>1</dim>
					<dim>48</dim>
					<dim>160</dim>
					<dim>160</dim>
				</port>
			</output>
		</layer>
		<layer id="204" name="Mul_22" type="Swish" version="opset4">
			<rt_info>
				<attribute name="fused_names" version="0" value="Mul_22, Sigmoid_21"/>
			</rt_info>
			<input>
				<port id="0">
					<dim>1</dim>
					<dim>48</dim>
					<dim>160</dim>
					<dim>160</dim>
				</port>
			</input>
			<output>
				<port id="1" precision="FP32" names="onnx::Add_190">
					<dim>1</dim>
					<dim>48</dim>
					<dim>160</dim>
					<dim>160</dim>
				</port>
			</output>
		</layer>
		<layer id="205" name="Add_23/fq_input_1" type="FakeQuantize" version="opset1">
			<data levels="256" auto_broadcast="numpy"/>
			<input>
				<port id="0">
					<dim>1</dim>
					<dim>48</dim>
					<dim>160</dim>
					<dim>160</dim>
				</port>
				<port id="1"/>
				<port id="2"/>
				<port id="3"/>
				<port id="4"/>
			</input>
			<output>
				<port id="5" precision="FP32">
					<dim>1</dim>
					<dim>48</dim>
					<dim>160</dim>
					<dim>160</dim>
				</port>
			</output>
		</layer>
		<layer id="206" name="Add_23" type="Add" version="opset1">
			<data auto_broadcast="numpy"/>
			<rt_info>
				<attribute name="fused_names" version="0" value="Add_23"/>
			</rt_info>
			<input>
				<port id="0">
					<dim>1</dim>
					<dim>48</dim>
					<dim>160</dim>
					<dim>160</dim>
				</port>
				<port id="1">
					<dim>1</dim>
					<dim>48</dim>
					<dim>160</dim>
					<dim>160</dim>
				</port>
			</input>
			<output>
				<port id="2" precision="FP32" names="onnx::Concat_191">
					<dim>1</dim>
					<dim>48</dim>
					<dim>160</dim>
					<dim>160</dim>
				</port>
			</output>
		</layer>
		<layer id="207" name="Concat_27/fq_input_0" type="FakeQuantize" version="opset1">
			<data levels="256" auto_broadcast="numpy"/>
			<input>
				<port id="0">
					<dim>1</dim>
					<dim>48</dim>
					<dim>160</dim>
					<dim>160</dim>
				</port>
				<port id="1"/>
				<port id="2"/>
				<port id="3"/>
				<port id="4"/>
			</input>
			<output>
				<port id="5" precision="FP32">
					<dim>1</dim>
					<dim>48</dim>
					<dim>160</dim>
					<dim>160</dim>
				</port>
			</output>
		</layer>
		<layer id="208" name="5168517217049" type="Const" version="opset1">
			<data offset="184" size="4" shape="" element_type="f32"/>
			<output>
				<port id="0" precision="FP32"/>
			</output>
		</layer>
		<layer id="209" name="5169517316350" type="Const" version="opset1">
			<data offset="188" size="4" shape="" element_type="f32"/>
			<output>
				<port id="0" precision="FP32"/>
			</output>
		</layer>
		<layer id="210" name="5170517416908" type="Const" version="opset1">
			<data offset="184" size="4" shape="" element_type="f32"/>
			<output>
				<port id="0" precision="FP32"/>
			</output>
		</layer>
		<layer id="211" name="5171517516695" type="Const" version="opset1">
			<data offset="188" size="4" shape="" element_type="f32"/>
			<output>
				<port id="0" precision="FP32"/>
			</output>
		</layer>
		<layer id="212" name="Conv_24/WithoutBiases/fq_weights_1/scale1101516002" type="Const" version="opset1">
			<data offset="99912" size="192" shape="48,1,1,1" element_type="f32"/>
			<output>
				<port id="0" precision="FP32">
					<dim>48</dim>
					<dim>1</dim>
					<dim>1</dim>
					<dim>1</dim>
				</port>
			</output>
		</layer>
		<layer id="213" name="model.2.cv2.conv.weight6708819/restored_convert/quantized1100716602" type="Const" version="opset1">
			<data offset="100104" size="4608" shape="48,96,1,1" element_type="i8"/>
			<output>
				<port id="0" precision="I8">
					<dim>48</dim>
					<dim>96</dim>
					<dim>1</dim>
					<dim>1</dim>
				</port>
			</output>
		</layer>
		<layer id="214" name="model.2.cv2.conv.weight6708819/restored_convert/quantized/to_f32" type="Convert" version="opset1">
			<data destination_type="f32"/>
			<input>
				<port id="0">
					<dim>48</dim>
					<dim>96</dim>
					<dim>1</dim>
					<dim>1</dim>
				</port>
			</input>
			<output>
				<port id="1" precision="FP32">
					<dim>48</dim>
					<dim>96</dim>
					<dim>1</dim>
					<dim>1</dim>
				</port>
			</output>
		</layer>
		<layer id="215" name="Conv_24/WithoutBiases/fq_weights_1/mulpiply_by_scale" type="Multiply" version="opset1">
			<data auto_broadcast="numpy"/>
			<input>
				<port id="0">
					<dim>48</dim>
					<dim>96</dim>
					<dim>1</dim>
					<dim>1</dim>
				</port>
				<port id="1">
					<dim>48</dim>
					<dim>1</dim>
					<dim>1</dim>
					<dim>1</dim>
				</port>
			</input>
			<output>
				<port id="2" precision="FP32">
					<dim>48</dim>
					<dim>96</dim>
					<dim>1</dim>
					<dim>1</dim>
				</port>
			</output>
		</layer>
		<layer id="216" name="Conv_24/WithoutBiases" type="Convolution" version="opset1">
			<data auto_pad="explicit" strides="1,1" dilations="1,1" pads_begin="0,0" pads_end="0,0"/>
			<rt_info>
				<attribute name="fused_names" version="0" value="Conv_24/WithoutBiases"/>
			</rt_info>
			<input>
				<port id="0">
					<dim>1</dim>
					<dim>96</dim>
					<dim>160</dim>
					<dim>160</dim>
				</port>
				<port id="1">
					<dim>48</dim>
					<dim>96</dim>
					<dim>1</dim>
					<dim>1</dim>
				</port>
			</input>
			<output>
				<port id="2" precision="FP32">
					<dim>1</dim>
					<dim>48</dim>
					<dim>160</dim>
					<dim>160</dim>
				</port>
			</output>
		</layer>
		<layer id="217" name="Reshape_53867315711" type="Const" version="opset1">
			<data offset="104712" size="96" shape="1,48,1,1" element_type="f16"/>
			<output>
				<port id="0" precision="FP16">
					<dim>1</dim>
					<dim>48</dim>
					<dim>1</dim>
					<dim>1</dim>
				</port>
			</output>
		</layer>
		<layer id="218" name="Reshape_5386738820/restored_convert" type="Convert" version="opset1">
			<data destination_type="f32"/>
			<rt_info>
				<attribute name="decompression" version="0"/>
			</rt_info>
			<input>
				<port id="0">
					<dim>1</dim>
					<dim>48</dim>
					<dim>1</dim>
					<dim>1</dim>
				</port>
			</input>
			<output>
				<port id="1" precision="FP32">
					<dim>1</dim>
					<dim>48</dim>
					<dim>1</dim>
					<dim>1</dim>
				</port>
			</output>
		</layer>
		<layer id="219" name="Conv_24" type="Add" version="opset1">
			<data auto_broadcast="numpy"/>
			<rt_info>
				<attribute name="fused_names" version="0" value="Concat_537, Conv_24, Reshape_538"/>
			</rt_info>
			<input>
				<port id="0">
					<dim>1</dim>
					<dim>48</dim>
					<dim>160</dim>
					<dim>160</dim>
				</port>
				<port id="1">
					<dim>1</dim>
					<dim>48</dim>
					<dim>1</dim>
					<dim>1</dim>
				</port>
			</input>
			<output>
				<port id="2" precision="FP32" names="input.32">
					<dim>1</dim>
					<dim>48</dim>
					<dim>160</dim>
					<dim>160</dim>
				</port>
			</output>
		</layer>
		<layer id="220" name="Mul_26" type="Swish" version="opset4">
			<rt_info>
				<attribute name="fused_names" version="0" value="Mul_26, Sigmoid_25"/>
			</rt_info>
			<input>
				<port id="0">
					<dim>1</dim>
					<dim>48</dim>
					<dim>160</dim>
					<dim>160</dim>
				</port>
			</input>
			<output>
				<port id="1" precision="FP32" names="onnx::Concat_194">
					<dim>1</dim>
					<dim>48</dim>
					<dim>160</dim>
					<dim>160</dim>
				</port>
			</output>
		</layer>
		<layer id="221" name="Concat_27/fq_input_1" type="FakeQuantize" version="opset1">
			<data levels="256" auto_broadcast="numpy"/>
			<input>
				<port id="0">
					<dim>1</dim>
					<dim>48</dim>
					<dim>160</dim>
					<dim>160</dim>
				</port>
				<port id="1"/>
				<port id="2"/>
				<port id="3"/>
				<port id="4"/>
			</input>
			<output>
				<port id="5" precision="FP32">
					<dim>1</dim>
					<dim>48</dim>
					<dim>160</dim>
					<dim>160</dim>
				</port>
			</output>
		</layer>
		<layer id="222" name="Concat_27" type="Concat" version="opset1">
			<data axis="1"/>
			<rt_info>
				<attribute name="fused_names" version="0" value="Concat_27"/>
			</rt_info>
			<input>
				<port id="0">
					<dim>1</dim>
					<dim>48</dim>
					<dim>160</dim>
					<dim>160</dim>
				</port>
				<port id="1">
					<dim>1</dim>
					<dim>48</dim>
					<dim>160</dim>
					<dim>160</dim>
				</port>
			</input>
			<output>
				<port id="2" precision="FP32" names="input.36">
					<dim>1</dim>
					<dim>96</dim>
					<dim>160</dim>
					<dim>160</dim>
				</port>
			</output>
		</layer>
		<layer id="223" name="Conv_28/WithoutBiases/fq_weights_1/scale1158516944" type="Const" version="opset1">
			<data offset="104808" size="384" shape="96,1,1,1" element_type="f32"/>
			<output>
				<port id="0" precision="FP32">
					<dim>96</dim>
					<dim>1</dim>
					<dim>1</dim>
					<dim>1</dim>
				</port>
			</output>
		</layer>
		<layer id="224" name="model.2.cv3.conv.weight6788821/restored_convert/quantized1157716326" type="Const" version="opset1">
			<data offset="105192" size="9216" shape="96,96,1,1" element_type="i8"/>
			<output>
				<port id="0" precision="I8">
					<dim>96</dim>
					<dim>96</dim>
					<dim>1</dim>
					<dim>1</dim>
				</port>
			</output>
		</layer>
		<layer id="225" name="model.2.cv3.conv.weight6788821/restored_convert/quantized/to_f32" type="Convert" version="opset1">
			<data destination_type="f32"/>
			<input>
				<port id="0">
					<dim>96</dim>
					<dim>96</dim>
					<dim>1</dim>
					<dim>1</dim>
				</port>
			</input>
			<output>
				<port id="1" precision="FP32">
					<dim>96</dim>
					<dim>96</dim>
					<dim>1</dim>
					<dim>1</dim>
				</port>
			</output>
		</layer>
		<layer id="226" name="Conv_28/WithoutBiases/fq_weights_1/mulpiply_by_scale" type="Multiply" version="opset1">
			<data auto_broadcast="numpy"/>
			<input>
				<port id="0">
					<dim>96</dim>
					<dim>96</dim>
					<dim>1</dim>
					<dim>1</dim>
				</port>
				<port id="1">
					<dim>96</dim>
					<dim>1</dim>
					<dim>1</dim>
					<dim>1</dim>
				</port>
			</input>
			<output>
				<port id="2" precision="FP32">
					<dim>96</dim>
					<dim>96</dim>
					<dim>1</dim>
					<dim>1</dim>
				</port>
			</output>
		</layer>
		<layer id="227" name="Conv_28/WithoutBiases" type="Convolution" version="opset1">
			<data auto_pad="explicit" strides="1,1" dilations="1,1" pads_begin="0,0" pads_end="0,0"/>
			<rt_info>
				<attribute name="fused_names" version="0" value="Conv_28/WithoutBiases"/>
			</rt_info>
			<input>
				<port id="0">
					<dim>1</dim>
					<dim>96</dim>
					<dim>160</dim>
					<dim>160</dim>
				</port>
				<port id="1">
					<dim>96</dim>
					<dim>96</dim>
					<dim>1</dim>
					<dim>1</dim>
				</port>
			</input>
			<output>
				<port id="2" precision="FP32">
					<dim>1</dim>
					<dim>96</dim>
					<dim>160</dim>
					<dim>160</dim>
				</port>
			</output>
		</layer>
		<layer id="228" name="Reshape_58968117187" type="Const" version="opset1">
			<data offset="114408" size="192" shape="1,96,1,1" element_type="f16"/>
			<output>
				<port id="0" precision="FP16">
					<dim>1</dim>
					<dim>96</dim>
					<dim>1</dim>
					<dim>1</dim>
				</port>
			</output>
		</layer>
		<layer id="229" name="Reshape_5896818822/restored_convert" type="Convert" version="opset1">
			<data destination_type="f32"/>
			<rt_info>
				<attribute name="decompression" version="0"/>
			</rt_info>
			<input>
				<port id="0">
					<dim>1</dim>
					<dim>96</dim>
					<dim>1</dim>
					<dim>1</dim>
				</port>
			</input>
			<output>
				<port id="1" precision="FP32">
					<dim>1</dim>
					<dim>96</dim>
					<dim>1</dim>
					<dim>1</dim>
				</port>
			</output>
		</layer>
		<layer id="230" name="Conv_28" type="Add" version="opset1">
			<data auto_broadcast="numpy"/>
			<rt_info>
				<attribute name="fused_names" version="0" value="Concat_588, Conv_28, Reshape_589"/>
			</rt_info>
			<input>
				<port id="0">
					<dim>1</dim>
					<dim>96</dim>
					<dim>160</dim>
					<dim>160</dim>
				</port>
				<port id="1">
					<dim>1</dim>
					<dim>96</dim>
					<dim>1</dim>
					<dim>1</dim>
				</port>
			</input>
			<output>
				<port id="2" precision="FP32" names="input.40">
					<dim>1</dim>
					<dim>96</dim>
					<dim>160</dim>
					<dim>160</dim>
				</port>
			</output>
		</layer>
		<layer id="231" name="Mul_30" type="Swish" version="opset4">
			<rt_info>
				<attribute name="fused_names" version="0" value="Mul_30, Sigmoid_29"/>
			</rt_info>
			<input>
				<port id="0">
					<dim>1</dim>
					<dim>96</dim>
					<dim>160</dim>
					<dim>160</dim>
				</port>
			</input>
			<output>
				<port id="1" precision="FP32" names="onnx::Conv_198">
					<dim>1</dim>
					<dim>96</dim>
					<dim>160</dim>
					<dim>160</dim>
				</port>
			</output>
		</layer>
		<layer id="232" name="Conv_31/WithoutBiases/fq_input_0" type="FakeQuantize" version="opset1">
			<data levels="256" auto_broadcast="numpy"/>
			<input>
				<port id="0">
					<dim>1</dim>
					<dim>96</dim>
					<dim>160</dim>
					<dim>160</dim>
				</port>
				<port id="1"/>
				<port id="2"/>
				<port id="3"/>
				<port id="4"/>
			</input>
			<output>
				<port id="5" precision="FP32">
					<dim>1</dim>
					<dim>96</dim>
					<dim>160</dim>
					<dim>160</dim>
				</port>
			</output>
		</layer>
		<layer id="233" name="Conv_31/WithoutBiases/fq_weights_1/scale1062517346" type="Const" version="opset1">
			<data offset="114600" size="768" shape="192,1,1,1" element_type="f32"/>
			<output>
				<port id="0" precision="FP32">
					<dim>192</dim>
					<dim>1</dim>
					<dim>1</dim>
					<dim>1</dim>
				</port>
			</output>
		</layer>
		<layer id="234" name="model.3.conv.weight6858823/restored_convert/quantized1061716347" type="Const" version="opset1">
			<data offset="115368" size="165888" shape="192,96,3,3" element_type="i8"/>
			<output>
				<port id="0" precision="I8">
					<dim>192</dim>
					<dim>96</dim>
					<dim>3</dim>
					<dim>3</dim>
				</port>
			</output>
		</layer>
		<layer id="235" name="model.3.conv.weight6858823/restored_convert/quantized/to_f32" type="Convert" version="opset1">
			<data destination_type="f32"/>
			<input>
				<port id="0">
					<dim>192</dim>
					<dim>96</dim>
					<dim>3</dim>
					<dim>3</dim>
				</port>
			</input>
			<output>
				<port id="1" precision="FP32">
					<dim>192</dim>
					<dim>96</dim>
					<dim>3</dim>
					<dim>3</dim>
				</port>
			</output>
		</layer>
		<layer id="236" name="Conv_31/WithoutBiases/fq_weights_1/mulpiply_by_scale" type="Multiply" version="opset1">
			<data auto_broadcast="numpy"/>
			<input>
				<port id="0">
					<dim>192</dim>
					<dim>96</dim>
					<dim>3</dim>
					<dim>3</dim>
				</port>
				<port id="1">
					<dim>192</dim>
					<dim>1</dim>
					<dim>1</dim>
					<dim>1</dim>
				</port>
			</input>
			<output>
				<port id="2" precision="FP32">
					<dim>192</dim>
					<dim>96</dim>
					<dim>3</dim>
					<dim>3</dim>
				</port>
			</output>
		</layer>
		<layer id="237" name="Conv_31/WithoutBiases" type="Convolution" version="opset1">
			<data auto_pad="explicit" strides="2,2" dilations="1,1" pads_begin="1,1" pads_end="1,1"/>
			<rt_info>
				<attribute name="fused_names" version="0" value="Conv_31/WithoutBiases"/>
			</rt_info>
			<input>
				<port id="0">
					<dim>1</dim>
					<dim>96</dim>
					<dim>160</dim>
					<dim>160</dim>
				</port>
				<port id="1">
					<dim>192</dim>
					<dim>96</dim>
					<dim>3</dim>
					<dim>3</dim>
				</port>
			</input>
			<output>
				<port id="2" precision="FP32">
					<dim>1</dim>
					<dim>192</dim>
					<dim>80</dim>
					<dim>80</dim>
				</port>
			</output>
		</layer>
		<layer id="238" name="Reshape_63968816335" type="Const" version="opset1">
			<data offset="281256" size="384" shape="1,192,1,1" element_type="f16"/>
			<output>
				<port id="0" precision="FP16">
					<dim>1</dim>
					<dim>192</dim>
					<dim>1</dim>
					<dim>1</dim>
				</port>
			</output>
		</layer>
		<layer id="239" name="Reshape_6396888824/restored_convert" type="Convert" version="opset1">
			<data destination_type="f32"/>
			<rt_info>
				<attribute name="decompression" version="0"/>
			</rt_info>
			<input>
				<port id="0">
					<dim>1</dim>
					<dim>192</dim>
					<dim>1</dim>
					<dim>1</dim>
				</port>
			</input>
			<output>
				<port id="1" precision="FP32">
					<dim>1</dim>
					<dim>192</dim>
					<dim>1</dim>
					<dim>1</dim>
				</port>
			</output>
		</layer>
		<layer id="240" name="Conv_31" type="Add" version="opset1">
			<data auto_broadcast="numpy"/>
			<rt_info>
				<attribute name="fused_names" version="0" value="Concat_638, Conv_31, Reshape_639"/>
			</rt_info>
			<input>
				<port id="0">
					<dim>1</dim>
					<dim>192</dim>
					<dim>80</dim>
					<dim>80</dim>
				</port>
				<port id="1">
					<dim>1</dim>
					<dim>192</dim>
					<dim>1</dim>
					<dim>1</dim>
				</port>
			</input>
			<output>
				<port id="2" precision="FP32" names="input.44">
					<dim>1</dim>
					<dim>192</dim>
					<dim>80</dim>
					<dim>80</dim>
				</port>
			</output>
		</layer>
		<layer id="241" name="Mul_33" type="Swish" version="opset4">
			<rt_info>
				<attribute name="fused_names" version="0" value="Mul_33, Sigmoid_32"/>
			</rt_info>
			<input>
				<port id="0">
					<dim>1</dim>
					<dim>192</dim>
					<dim>80</dim>
					<dim>80</dim>
				</port>
			</input>
			<output>
				<port id="1" precision="FP32" names="onnx::Conv_201">
					<dim>1</dim>
					<dim>192</dim>
					<dim>80</dim>
					<dim>80</dim>
				</port>
			</output>
		</layer>
		<layer id="242" name="Conv_34/WithoutBiases/fq_input_0" type="FakeQuantize" version="opset1">
			<data levels="256" auto_broadcast="numpy"/>
			<input>
				<port id="0">
					<dim>1</dim>
					<dim>192</dim>
					<dim>80</dim>
					<dim>80</dim>
				</port>
				<port id="1"/>
				<port id="2"/>
				<port id="3"/>
				<port id="4"/>
			</input>
			<output>
				<port id="5" precision="FP32">
					<dim>1</dim>
					<dim>192</dim>
					<dim>80</dim>
					<dim>80</dim>
				</port>
			</output>
		</layer>
		<layer id="243" name="Conv_34/WithoutBiases/fq_weights_1/scale1188515867" type="Const" version="opset1">
			<data offset="281640" size="384" shape="96,1,1,1" element_type="f32"/>
			<output>
				<port id="0" precision="FP32">
					<dim>96</dim>
					<dim>1</dim>
					<dim>1</dim>
					<dim>1</dim>
				</port>
			</output>
		</layer>
		<layer id="244" name="model.4.cv1.conv.weight6928825/restored_convert/quantized1187716323" type="Const" version="opset1">
			<data offset="282024" size="18432" shape="96,192,1,1" element_type="i8"/>
			<output>
				<port id="0" precision="I8">
					<dim>96</dim>
					<dim>192</dim>
					<dim>1</dim>
					<dim>1</dim>
				</port>
			</output>
		</layer>
		<layer id="245" name="model.4.cv1.conv.weight6928825/restored_convert/quantized/to_f32" type="Convert" version="opset1">
			<data destination_type="f32"/>
			<input>
				<port id="0">
					<dim>96</dim>
					<dim>192</dim>
					<dim>1</dim>
					<dim>1</dim>
				</port>
			</input>
			<output>
				<port id="1" precision="FP32">
					<dim>96</dim>
					<dim>192</dim>
					<dim>1</dim>
					<dim>1</dim>
				</port>
			</output>
		</layer>
		<layer id="246" name="Conv_34/WithoutBiases/fq_weights_1/mulpiply_by_scale" type="Multiply" version="opset1">
			<data auto_broadcast="numpy"/>
			<input>
				<port id="0">
					<dim>96</dim>
					<dim>192</dim>
					<dim>1</dim>
					<dim>1</dim>
				</port>
				<port id="1">
					<dim>96</dim>
					<dim>1</dim>
					<dim>1</dim>
					<dim>1</dim>
				</port>
			</input>
			<output>
				<port id="2" precision="FP32">
					<dim>96</dim>
					<dim>192</dim>
					<dim>1</dim>
					<dim>1</dim>
				</port>
			</output>
		</layer>
		<layer id="247" name="Conv_34/WithoutBiases" type="Convolution" version="opset1">
			<data auto_pad="explicit" strides="1,1" dilations="1,1" pads_begin="0,0" pads_end="0,0"/>
			<rt_info>
				<attribute name="fused_names" version="0" value="Conv_34/WithoutBiases"/>
			</rt_info>
			<input>
				<port id="0">
					<dim>1</dim>
					<dim>192</dim>
					<dim>80</dim>
					<dim>80</dim>
				</port>
				<port id="1">
					<dim>96</dim>
					<dim>192</dim>
					<dim>1</dim>
					<dim>1</dim>
				</port>
			</input>
			<output>
				<port id="2" precision="FP32">
					<dim>1</dim>
					<dim>96</dim>
					<dim>80</dim>
					<dim>80</dim>
				</port>
			</output>
		</layer>
		<layer id="248" name="Reshape_68969516317" type="Const" version="opset1">
			<data offset="300456" size="192" shape="1,96,1,1" element_type="f16"/>
			<output>
				<port id="0" precision="FP16">
					<dim>1</dim>
					<dim>96</dim>
					<dim>1</dim>
					<dim>1</dim>
				</port>
			</output>
		</layer>
		<layer id="249" name="Reshape_6896958826/restored_convert" type="Convert" version="opset1">
			<data destination_type="f32"/>
			<rt_info>
				<attribute name="decompression" version="0"/>
			</rt_info>
			<input>
				<port id="0">
					<dim>1</dim>
					<dim>96</dim>
					<dim>1</dim>
					<dim>1</dim>
				</port>
			</input>
			<output>
				<port id="1" precision="FP32">
					<dim>1</dim>
					<dim>96</dim>
					<dim>1</dim>
					<dim>1</dim>
				</port>
			</output>
		</layer>
		<layer id="250" name="Conv_34" type="Add" version="opset1">
			<data auto_broadcast="numpy"/>
			<rt_info>
				<attribute name="fused_names" version="0" value="Concat_688, Conv_34, Reshape_689"/>
			</rt_info>
			<input>
				<port id="0">
					<dim>1</dim>
					<dim>96</dim>
					<dim>80</dim>
					<dim>80</dim>
				</port>
				<port id="1">
					<dim>1</dim>
					<dim>96</dim>
					<dim>1</dim>
					<dim>1</dim>
				</port>
			</input>
			<output>
				<port id="2" precision="FP32" names="input.48">
					<dim>1</dim>
					<dim>96</dim>
					<dim>80</dim>
					<dim>80</dim>
				</port>
			</output>
		</layer>
		<layer id="251" name="Mul_36" type="Swish" version="opset4">
			<rt_info>
				<attribute name="fused_names" version="0" value="Mul_36, Sigmoid_35"/>
			</rt_info>
			<input>
				<port id="0">
					<dim>1</dim>
					<dim>96</dim>
					<dim>80</dim>
					<dim>80</dim>
				</port>
			</input>
			<output>
				<port id="1" precision="FP32" names="onnx::Conv_204">
					<dim>1</dim>
					<dim>96</dim>
					<dim>80</dim>
					<dim>80</dim>
				</port>
			</output>
		</layer>
		<layer id="252" name="Add_43/fq_input_0" type="FakeQuantize" version="opset1">
			<data levels="256" auto_broadcast="numpy"/>
			<input>
				<port id="0">
					<dim>1</dim>
					<dim>96</dim>
					<dim>80</dim>
					<dim>80</dim>
				</port>
				<port id="1"/>
				<port id="2"/>
				<port id="3"/>
				<port id="4"/>
			</input>
			<output>
				<port id="5" precision="FP32">
					<dim>1</dim>
					<dim>96</dim>
					<dim>80</dim>
					<dim>80</dim>
				</port>
			</output>
		</layer>
		<layer id="253" name="3227323117205" type="Const" version="opset1">
			<data offset="300648" size="4" shape="" element_type="f32"/>
			<output>
				<port id="0" precision="FP32"/>
			</output>
		</layer>
		<layer id="254" name="3228323217538" type="Const" version="opset1">
			<data offset="300652" size="4" shape="" element_type="f32"/>
			<output>
				<port id="0" precision="FP32"/>
			</output>
		</layer>
		<layer id="255" name="3229323315888" type="Const" version="opset1">
			<data offset="300648" size="4" shape="" element_type="f32"/>
			<output>
				<port id="0" precision="FP32"/>
			</output>
		</layer>
		<layer id="256" name="3230323415987" type="Const" version="opset1">
			<data offset="300652" size="4" shape="" element_type="f32"/>
			<output>
				<port id="0" precision="FP32"/>
			</output>
		</layer>
		<layer id="257" name="3697370116497" type="Const" version="opset1">
			<data offset="300656" size="4" shape="" element_type="f32"/>
			<output>
				<port id="0" precision="FP32"/>
			</output>
		</layer>
		<layer id="258" name="3698370216938" type="Const" version="opset1">
			<data offset="300660" size="4" shape="" element_type="f32"/>
			<output>
				<port id="0" precision="FP32"/>
			</output>
		</layer>
		<layer id="259" name="3699370315813" type="Const" version="opset1">
			<data offset="300656" size="4" shape="" element_type="f32"/>
			<output>
				<port id="0" precision="FP32"/>
			</output>
		</layer>
		<layer id="260" name="3700370416983" type="Const" version="opset1">
			<data offset="300660" size="4" shape="" element_type="f32"/>
			<output>
				<port id="0" precision="FP32"/>
			</output>
		</layer>
		<layer id="261" name="Conv_37/WithoutBiases/fq_weights_1/scale1152515723" type="Const" version="opset1">
			<data offset="300664" size="384" shape="96,1,1,1" element_type="f32"/>
			<output>
				<port id="0" precision="FP32">
					<dim>96</dim>
					<dim>1</dim>
					<dim>1</dim>
					<dim>1</dim>
				</port>
			</output>
		</layer>
		<layer id="262" name="model.4.m.0.cv1.conv.weight6998827/restored_convert/quantized1151716974" type="Const" version="opset1">
			<data offset="301048" size="9216" shape="96,96,1,1" element_type="i8"/>
			<output>
				<port id="0" precision="I8">
					<dim>96</dim>
					<dim>96</dim>
					<dim>1</dim>
					<dim>1</dim>
				</port>
			</output>
		</layer>
		<layer id="263" name="model.4.m.0.cv1.conv.weight6998827/restored_convert/quantized/to_f32" type="Convert" version="opset1">
			<data destination_type="f32"/>
			<input>
				<port id="0">
					<dim>96</dim>
					<dim>96</dim>
					<dim>1</dim>
					<dim>1</dim>
				</port>
			</input>
			<output>
				<port id="1" precision="FP32">
					<dim>96</dim>
					<dim>96</dim>
					<dim>1</dim>
					<dim>1</dim>
				</port>
			</output>
		</layer>
		<layer id="264" name="Conv_37/WithoutBiases/fq_weights_1/mulpiply_by_scale" type="Multiply" version="opset1">
			<data auto_broadcast="numpy"/>
			<input>
				<port id="0">
					<dim>96</dim>
					<dim>96</dim>
					<dim>1</dim>
					<dim>1</dim>
				</port>
				<port id="1">
					<dim>96</dim>
					<dim>1</dim>
					<dim>1</dim>
					<dim>1</dim>
				</port>
			</input>
			<output>
				<port id="2" precision="FP32">
					<dim>96</dim>
					<dim>96</dim>
					<dim>1</dim>
					<dim>1</dim>
				</port>
			</output>
		</layer>
		<layer id="265" name="Conv_37/WithoutBiases" type="Convolution" version="opset1">
			<data auto_pad="explicit" strides="1,1" dilations="1,1" pads_begin="0,0" pads_end="0,0"/>
			<rt_info>
				<attribute name="fused_names" version="0" value="Conv_37/WithoutBiases"/>
			</rt_info>
			<input>
				<port id="0">
					<dim>1</dim>
					<dim>96</dim>
					<dim>80</dim>
					<dim>80</dim>
				</port>
				<port id="1">
					<dim>96</dim>
					<dim>96</dim>
					<dim>1</dim>
					<dim>1</dim>
				</port>
			</input>
			<output>
				<port id="2" precision="FP32">
					<dim>1</dim>
					<dim>96</dim>
					<dim>80</dim>
					<dim>80</dim>
				</port>
			</output>
		</layer>
		<layer id="266" name="Reshape_73970217286" type="Const" version="opset1">
			<data offset="310264" size="192" shape="1,96,1,1" element_type="f16"/>
			<output>
				<port id="0" precision="FP16">
					<dim>1</dim>
					<dim>96</dim>
					<dim>1</dim>
					<dim>1</dim>
				</port>
			</output>
		</layer>
		<layer id="267" name="Reshape_7397028828/restored_convert" type="Convert" version="opset1">
			<data destination_type="f32"/>
			<rt_info>
				<attribute name="decompression" version="0"/>
			</rt_info>
			<input>
				<port id="0">
					<dim>1</dim>
					<dim>96</dim>
					<dim>1</dim>
					<dim>1</dim>
				</port>
			</input>
			<output>
				<port id="1" precision="FP32">
					<dim>1</dim>
					<dim>96</dim>
					<dim>1</dim>
					<dim>1</dim>
				</port>
			</output>
		</layer>
		<layer id="268" name="Conv_37" type="Add" version="opset1">
			<data auto_broadcast="numpy"/>
			<rt_info>
				<attribute name="fused_names" version="0" value="Concat_738, Conv_37, Reshape_739"/>
			</rt_info>
			<input>
				<port id="0">
					<dim>1</dim>
					<dim>96</dim>
					<dim>80</dim>
					<dim>80</dim>
				</port>
				<port id="1">
					<dim>1</dim>
					<dim>96</dim>
					<dim>1</dim>
					<dim>1</dim>
				</port>
			</input>
			<output>
				<port id="2" precision="FP32" names="input.52">
					<dim>1</dim>
					<dim>96</dim>
					<dim>80</dim>
					<dim>80</dim>
				</port>
			</output>
		</layer>
		<layer id="269" name="Mul_39" type="Swish" version="opset4">
			<rt_info>
				<attribute name="fused_names" version="0" value="Mul_39, Sigmoid_38"/>
			</rt_info>
			<input>
				<port id="0">
					<dim>1</dim>
					<dim>96</dim>
					<dim>80</dim>
					<dim>80</dim>
				</port>
			</input>
			<output>
				<port id="1" precision="FP32" names="onnx::Conv_207">
					<dim>1</dim>
					<dim>96</dim>
					<dim>80</dim>
					<dim>80</dim>
				</port>
			</output>
		</layer>
		<layer id="270" name="Conv_40/WithoutBiases/fq_input_0" type="FakeQuantize" version="opset1">
			<data levels="256" auto_broadcast="numpy"/>
			<input>
				<port id="0">
					<dim>1</dim>
					<dim>96</dim>
					<dim>80</dim>
					<dim>80</dim>
				</port>
				<port id="1"/>
				<port id="2"/>
				<port id="3"/>
				<port id="4"/>
			</input>
			<output>
				<port id="5" precision="FP32">
					<dim>1</dim>
					<dim>96</dim>
					<dim>80</dim>
					<dim>80</dim>
				</port>
			</output>
		</layer>
		<layer id="271" name="Conv_40/WithoutBiases/fq_weights_1/scale1137517172" type="Const" version="opset1">
			<data offset="310456" size="384" shape="96,1,1,1" element_type="f32"/>
			<output>
				<port id="0" precision="FP32">
					<dim>96</dim>
					<dim>1</dim>
					<dim>1</dim>
					<dim>1</dim>
				</port>
			</output>
		</layer>
		<layer id="272" name="model.4.m.0.cv2.conv.weight7068829/restored_convert/quantized1136716524" type="Const" version="opset1">
			<data offset="310840" size="82944" shape="96,96,3,3" element_type="i8"/>
			<output>
				<port id="0" precision="I8">
					<dim>96</dim>
					<dim>96</dim>
					<dim>3</dim>
					<dim>3</dim>
				</port>
			</output>
		</layer>
		<layer id="273" name="model.4.m.0.cv2.conv.weight7068829/restored_convert/quantized/to_f32" type="Convert" version="opset1">
			<data destination_type="f32"/>
			<input>
				<port id="0">
					<dim>96</dim>
					<dim>96</dim>
					<dim>3</dim>
					<dim>3</dim>
				</port>
			</input>
			<output>
				<port id="1" precision="FP32">
					<dim>96</dim>
					<dim>96</dim>
					<dim>3</dim>
					<dim>3</dim>
				</port>
			</output>
		</layer>
		<layer id="274" name="Conv_40/WithoutBiases/fq_weights_1/mulpiply_by_scale" type="Multiply" version="opset1">
			<data auto_broadcast="numpy"/>
			<input>
				<port id="0">
					<dim>96</dim>
					<dim>96</dim>
					<dim>3</dim>
					<dim>3</dim>
				</port>
				<port id="1">
					<dim>96</dim>
					<dim>1</dim>
					<dim>1</dim>
					<dim>1</dim>
				</port>
			</input>
			<output>
				<port id="2" precision="FP32">
					<dim>96</dim>
					<dim>96</dim>
					<dim>3</dim>
					<dim>3</dim>
				</port>
			</output>
		</layer>
		<layer id="275" name="Conv_40/WithoutBiases" type="Convolution" version="opset1">
			<data auto_pad="explicit" strides="1,1" dilations="1,1" pads_begin="1,1" pads_end="1,1"/>
			<rt_info>
				<attribute name="fused_names" version="0" value="Conv_40/WithoutBiases"/>
			</rt_info>
			<input>
				<port id="0">
					<dim>1</dim>
					<dim>96</dim>
					<dim>80</dim>
					<dim>80</dim>
				</port>
				<port id="1">
					<dim>96</dim>
					<dim>96</dim>
					<dim>3</dim>
					<dim>3</dim>
				</port>
			</input>
			<output>
				<port id="2" precision="FP32">
					<dim>1</dim>
					<dim>96</dim>
					<dim>80</dim>
					<dim>80</dim>
				</port>
			</output>
		</layer>
		<layer id="276" name="Reshape_78970917523" type="Const" version="opset1">
			<data offset="393784" size="192" shape="1,96,1,1" element_type="f16"/>
			<output>
				<port id="0" precision="FP16">
					<dim>1</dim>
					<dim>96</dim>
					<dim>1</dim>
					<dim>1</dim>
				</port>
			</output>
		</layer>
		<layer id="277" name="Reshape_7897098830/restored_convert" type="Convert" version="opset1">
			<data destination_type="f32"/>
			<rt_info>
				<attribute name="decompression" version="0"/>
			</rt_info>
			<input>
				<port id="0">
					<dim>1</dim>
					<dim>96</dim>
					<dim>1</dim>
					<dim>1</dim>
				</port>
			</input>
			<output>
				<port id="1" precision="FP32">
					<dim>1</dim>
					<dim>96</dim>
					<dim>1</dim>
					<dim>1</dim>
				</port>
			</output>
		</layer>
		<layer id="278" name="Conv_40" type="Add" version="opset1">
			<data auto_broadcast="numpy"/>
			<rt_info>
				<attribute name="fused_names" version="0" value="Concat_788, Conv_40, Reshape_789"/>
			</rt_info>
			<input>
				<port id="0">
					<dim>1</dim>
					<dim>96</dim>
					<dim>80</dim>
					<dim>80</dim>
				</port>
				<port id="1">
					<dim>1</dim>
					<dim>96</dim>
					<dim>1</dim>
					<dim>1</dim>
				</port>
			</input>
			<output>
				<port id="2" precision="FP32" names="input.56">
					<dim>1</dim>
					<dim>96</dim>
					<dim>80</dim>
					<dim>80</dim>
				</port>
			</output>
		</layer>
		<layer id="279" name="Mul_42" type="Swish" version="opset4">
			<rt_info>
				<attribute name="fused_names" version="0" value="Mul_42, Sigmoid_41"/>
			</rt_info>
			<input>
				<port id="0">
					<dim>1</dim>
					<dim>96</dim>
					<dim>80</dim>
					<dim>80</dim>
				</port>
			</input>
			<output>
				<port id="1" precision="FP32" names="onnx::Add_210">
					<dim>1</dim>
					<dim>96</dim>
					<dim>80</dim>
					<dim>80</dim>
				</port>
			</output>
		</layer>
		<layer id="280" name="Add_43/fq_input_1" type="FakeQuantize" version="opset1">
			<data levels="256" auto_broadcast="numpy"/>
			<input>
				<port id="0">
					<dim>1</dim>
					<dim>96</dim>
					<dim>80</dim>
					<dim>80</dim>
				</port>
				<port id="1"/>
				<port id="2"/>
				<port id="3"/>
				<port id="4"/>
			</input>
			<output>
				<port id="5" precision="FP32">
					<dim>1</dim>
					<dim>96</dim>
					<dim>80</dim>
					<dim>80</dim>
				</port>
			</output>
		</layer>
		<layer id="281" name="Add_43" type="Add" version="opset1">
			<data auto_broadcast="numpy"/>
			<rt_info>
				<attribute name="fused_names" version="0" value="Add_43"/>
			</rt_info>
			<input>
				<port id="0">
					<dim>1</dim>
					<dim>96</dim>
					<dim>80</dim>
					<dim>80</dim>
				</port>
				<port id="1">
					<dim>1</dim>
					<dim>96</dim>
					<dim>80</dim>
					<dim>80</dim>
				</port>
			</input>
			<output>
				<port id="2" precision="FP32" names="input.60">
					<dim>1</dim>
					<dim>96</dim>
					<dim>80</dim>
					<dim>80</dim>
				</port>
			</output>
		</layer>
		<layer id="282" name="Add_50/fq_input_0" type="FakeQuantize" version="opset1">
			<data levels="256" auto_broadcast="numpy"/>
			<input>
				<port id="0">
					<dim>1</dim>
					<dim>96</dim>
					<dim>80</dim>
					<dim>80</dim>
				</port>
				<port id="1"/>
				<port id="2"/>
				<port id="3"/>
				<port id="4"/>
			</input>
			<output>
				<port id="5" precision="FP32">
					<dim>1</dim>
					<dim>96</dim>
					<dim>80</dim>
					<dim>80</dim>
				</port>
			</output>
		</layer>
		<layer id="283" name="2207221116836" type="Const" version="opset1">
			<data offset="393976" size="4" shape="" element_type="f32"/>
			<output>
				<port id="0" precision="FP32"/>
			</output>
		</layer>
		<layer id="284" name="2208221216725" type="Const" version="opset1">
			<data offset="393980" size="4" shape="" element_type="f32"/>
			<output>
				<port id="0" precision="FP32"/>
			</output>
		</layer>
		<layer id="285" name="2209221317133" type="Const" version="opset1">
			<data offset="393976" size="4" shape="" element_type="f32"/>
			<output>
				<port id="0" precision="FP32"/>
			</output>
		</layer>
		<layer id="286" name="2210221416020" type="Const" version="opset1">
			<data offset="393980" size="4" shape="" element_type="f32"/>
			<output>
				<port id="0" precision="FP32"/>
			</output>
		</layer>
		<layer id="287" name="3157316117037" type="Const" version="opset1">
			<data offset="393984" size="4" shape="" element_type="f32"/>
			<output>
				<port id="0" precision="FP32"/>
			</output>
		</layer>
		<layer id="288" name="3158316216338" type="Const" version="opset1">
			<data offset="393988" size="4" shape="" element_type="f32"/>
			<output>
				<port id="0" precision="FP32"/>
			</output>
		</layer>
		<layer id="289" name="3159316316227" type="Const" version="opset1">
			<data offset="393984" size="4" shape="" element_type="f32"/>
			<output>
				<port id="0" precision="FP32"/>
			</output>
		</layer>
		<layer id="290" name="3160316416761" type="Const" version="opset1">
			<data offset="393988" size="4" shape="" element_type="f32"/>
			<output>
				<port id="0" precision="FP32"/>
			</output>
		</layer>
		<layer id="291" name="Conv_44/WithoutBiases/fq_weights_1/scale1236516884" type="Const" version="opset1">
			<data offset="393992" size="384" shape="96,1,1,1" element_type="f32"/>
			<output>
				<port id="0" precision="FP32">
					<dim>96</dim>
					<dim>1</dim>
					<dim>1</dim>
					<dim>1</dim>
				</port>
			</output>
		</layer>
		<layer id="292" name="model.4.m.1.cv1.conv.weight7148831/restored_convert/quantized1235716698" type="Const" version="opset1">
			<data offset="394376" size="9216" shape="96,96,1,1" element_type="i8"/>
			<output>
				<port id="0" precision="I8">
					<dim>96</dim>
					<dim>96</dim>
					<dim>1</dim>
					<dim>1</dim>
				</port>
			</output>
		</layer>
		<layer id="293" name="model.4.m.1.cv1.conv.weight7148831/restored_convert/quantized/to_f32" type="Convert" version="opset1">
			<data destination_type="f32"/>
			<input>
				<port id="0">
					<dim>96</dim>
					<dim>96</dim>
					<dim>1</dim>
					<dim>1</dim>
				</port>
			</input>
			<output>
				<port id="1" precision="FP32">
					<dim>96</dim>
					<dim>96</dim>
					<dim>1</dim>
					<dim>1</dim>
				</port>
			</output>
		</layer>
		<layer id="294" name="Conv_44/WithoutBiases/fq_weights_1/mulpiply_by_scale" type="Multiply" version="opset1">
			<data auto_broadcast="numpy"/>
			<input>
				<port id="0">
					<dim>96</dim>
					<dim>96</dim>
					<dim>1</dim>
					<dim>1</dim>
				</port>
				<port id="1">
					<dim>96</dim>
					<dim>1</dim>
					<dim>1</dim>
					<dim>1</dim>
				</port>
			</input>
			<output>
				<port id="2" precision="FP32">
					<dim>96</dim>
					<dim>96</dim>
					<dim>1</dim>
					<dim>1</dim>
				</port>
			</output>
		</layer>
		<layer id="295" name="Conv_44/WithoutBiases" type="Convolution" version="opset1">
			<data auto_pad="explicit" strides="1,1" dilations="1,1" pads_begin="0,0" pads_end="0,0"/>
			<rt_info>
				<attribute name="fused_names" version="0" value="Conv_44/WithoutBiases"/>
			</rt_info>
			<input>
				<port id="0">
					<dim>1</dim>
					<dim>96</dim>
					<dim>80</dim>
					<dim>80</dim>
				</port>
				<port id="1">
					<dim>96</dim>
					<dim>96</dim>
					<dim>1</dim>
					<dim>1</dim>
				</port>
			</input>
			<output>
				<port id="2" precision="FP32">
					<dim>1</dim>
					<dim>96</dim>
					<dim>80</dim>
					<dim>80</dim>
				</port>
			</output>
		</layer>
		<layer id="296" name="Reshape_84071717190" type="Const" version="opset1">
			<data offset="403592" size="192" shape="1,96,1,1" element_type="f16"/>
			<output>
				<port id="0" precision="FP16">
					<dim>1</dim>
					<dim>96</dim>
					<dim>1</dim>
					<dim>1</dim>
				</port>
			</output>
		</layer>
		<layer id="297" name="Reshape_8407178832/restored_convert" type="Convert" version="opset1">
			<data destination_type="f32"/>
			<rt_info>
				<attribute name="decompression" version="0"/>
			</rt_info>
			<input>
				<port id="0">
					<dim>1</dim>
					<dim>96</dim>
					<dim>1</dim>
					<dim>1</dim>
				</port>
			</input>
			<output>
				<port id="1" precision="FP32">
					<dim>1</dim>
					<dim>96</dim>
					<dim>1</dim>
					<dim>1</dim>
				</port>
			</output>
		</layer>
		<layer id="298" name="Conv_44" type="Add" version="opset1">
			<data auto_broadcast="numpy"/>
			<rt_info>
				<attribute name="fused_names" version="0" value="Concat_839, Conv_44, Reshape_840"/>
			</rt_info>
			<input>
				<port id="0">
					<dim>1</dim>
					<dim>96</dim>
					<dim>80</dim>
					<dim>80</dim>
				</port>
				<port id="1">
					<dim>1</dim>
					<dim>96</dim>
					<dim>1</dim>
					<dim>1</dim>
				</port>
			</input>
			<output>
				<port id="2" precision="FP32" names="input.64">
					<dim>1</dim>
					<dim>96</dim>
					<dim>80</dim>
					<dim>80</dim>
				</port>
			</output>
		</layer>
		<layer id="299" name="Mul_46" type="Swish" version="opset4">
			<rt_info>
				<attribute name="fused_names" version="0" value="Mul_46, Sigmoid_45"/>
			</rt_info>
			<input>
				<port id="0">
					<dim>1</dim>
					<dim>96</dim>
					<dim>80</dim>
					<dim>80</dim>
				</port>
			</input>
			<output>
				<port id="1" precision="FP32" names="onnx::Conv_214">
					<dim>1</dim>
					<dim>96</dim>
					<dim>80</dim>
					<dim>80</dim>
				</port>
			</output>
		</layer>
		<layer id="300" name="Conv_47/WithoutBiases/fq_input_0" type="FakeQuantize" version="opset1">
			<data levels="256" auto_broadcast="numpy"/>
			<input>
				<port id="0">
					<dim>1</dim>
					<dim>96</dim>
					<dim>80</dim>
					<dim>80</dim>
				</port>
				<port id="1"/>
				<port id="2"/>
				<port id="3"/>
				<port id="4"/>
			</input>
			<output>
				<port id="5" precision="FP32">
					<dim>1</dim>
					<dim>96</dim>
					<dim>80</dim>
					<dim>80</dim>
				</port>
			</output>
		</layer>
		<layer id="301" name="Conv_47/WithoutBiases/fq_weights_1/scale1167516659" type="Const" version="opset1">
			<data offset="403784" size="384" shape="96,1,1,1" element_type="f32"/>
			<output>
				<port id="0" precision="FP32">
					<dim>96</dim>
					<dim>1</dim>
					<dim>1</dim>
					<dim>1</dim>
				</port>
			</output>
		</layer>
		<layer id="302" name="model.4.m.1.cv2.conv.weight7218833/restored_convert/quantized1166716137" type="Const" version="opset1">
			<data offset="404168" size="82944" shape="96,96,3,3" element_type="i8"/>
			<output>
				<port id="0" precision="I8">
					<dim>96</dim>
					<dim>96</dim>
					<dim>3</dim>
					<dim>3</dim>
				</port>
			</output>
		</layer>
		<layer id="303" name="model.4.m.1.cv2.conv.weight7218833/restored_convert/quantized/to_f32" type="Convert" version="opset1">
			<data destination_type="f32"/>
			<input>
				<port id="0">
					<dim>96</dim>
					<dim>96</dim>
					<dim>3</dim>
					<dim>3</dim>
				</port>
			</input>
			<output>
				<port id="1" precision="FP32">
					<dim>96</dim>
					<dim>96</dim>
					<dim>3</dim>
					<dim>3</dim>
				</port>
			</output>
		</layer>
		<layer id="304" name="Conv_47/WithoutBiases/fq_weights_1/mulpiply_by_scale" type="Multiply" version="opset1">
			<data auto_broadcast="numpy"/>
			<input>
				<port id="0">
					<dim>96</dim>
					<dim>96</dim>
					<dim>3</dim>
					<dim>3</dim>
				</port>
				<port id="1">
					<dim>96</dim>
					<dim>1</dim>
					<dim>1</dim>
					<dim>1</dim>
				</port>
			</input>
			<output>
				<port id="2" precision="FP32">
					<dim>96</dim>
					<dim>96</dim>
					<dim>3</dim>
					<dim>3</dim>
				</port>
			</output>
		</layer>
		<layer id="305" name="Conv_47/WithoutBiases" type="Convolution" version="opset1">
			<data auto_pad="explicit" strides="1,1" dilations="1,1" pads_begin="1,1" pads_end="1,1"/>
			<rt_info>
				<attribute name="fused_names" version="0" value="Conv_47/WithoutBiases"/>
			</rt_info>
			<input>
				<port id="0">
					<dim>1</dim>
					<dim>96</dim>
					<dim>80</dim>
					<dim>80</dim>
				</port>
				<port id="1">
					<dim>96</dim>
					<dim>96</dim>
					<dim>3</dim>
					<dim>3</dim>
				</port>
			</input>
			<output>
				<port id="2" precision="FP32">
					<dim>1</dim>
					<dim>96</dim>
					<dim>80</dim>
					<dim>80</dim>
				</port>
			</output>
		</layer>
		<layer id="306" name="Reshape_89072417235" type="Const" version="opset1">
			<data offset="487112" size="192" shape="1,96,1,1" element_type="f16"/>
			<output>
				<port id="0" precision="FP16">
					<dim>1</dim>
					<dim>96</dim>
					<dim>1</dim>
					<dim>1</dim>
				</port>
			</output>
		</layer>
		<layer id="307" name="Reshape_8907248834/restored_convert" type="Convert" version="opset1">
			<data destination_type="f32"/>
			<rt_info>
				<attribute name="decompression" version="0"/>
			</rt_info>
			<input>
				<port id="0">
					<dim>1</dim>
					<dim>96</dim>
					<dim>1</dim>
					<dim>1</dim>
				</port>
			</input>
			<output>
				<port id="1" precision="FP32">
					<dim>1</dim>
					<dim>96</dim>
					<dim>1</dim>
					<dim>1</dim>
				</port>
			</output>
		</layer>
		<layer id="308" name="Conv_47" type="Add" version="opset1">
			<data auto_broadcast="numpy"/>
			<rt_info>
				<attribute name="fused_names" version="0" value="Concat_889, Conv_47, Reshape_890"/>
			</rt_info>
			<input>
				<port id="0">
					<dim>1</dim>
					<dim>96</dim>
					<dim>80</dim>
					<dim>80</dim>
				</port>
				<port id="1">
					<dim>1</dim>
					<dim>96</dim>
					<dim>1</dim>
					<dim>1</dim>
				</port>
			</input>
			<output>
				<port id="2" precision="FP32" names="input.68">
					<dim>1</dim>
					<dim>96</dim>
					<dim>80</dim>
					<dim>80</dim>
				</port>
			</output>
		</layer>
		<layer id="309" name="Mul_49" type="Swish" version="opset4">
			<rt_info>
				<attribute name="fused_names" version="0" value="Mul_49, Sigmoid_48"/>
			</rt_info>
			<input>
				<port id="0">
					<dim>1</dim>
					<dim>96</dim>
					<dim>80</dim>
					<dim>80</dim>
				</port>
			</input>
			<output>
				<port id="1" precision="FP32" names="onnx::Add_217">
					<dim>1</dim>
					<dim>96</dim>
					<dim>80</dim>
					<dim>80</dim>
				</port>
			</output>
		</layer>
		<layer id="310" name="Add_50/fq_input_1" type="FakeQuantize" version="opset1">
			<data levels="256" auto_broadcast="numpy"/>
			<input>
				<port id="0">
					<dim>1</dim>
					<dim>96</dim>
					<dim>80</dim>
					<dim>80</dim>
				</port>
				<port id="1"/>
				<port id="2"/>
				<port id="3"/>
				<port id="4"/>
			</input>
			<output>
				<port id="5" precision="FP32">
					<dim>1</dim>
					<dim>96</dim>
					<dim>80</dim>
					<dim>80</dim>
				</port>
			</output>
		</layer>
		<layer id="311" name="Add_50" type="Add" version="opset1">
			<data auto_broadcast="numpy"/>
			<rt_info>
				<attribute name="fused_names" version="0" value="Add_50"/>
			</rt_info>
			<input>
				<port id="0">
					<dim>1</dim>
					<dim>96</dim>
					<dim>80</dim>
					<dim>80</dim>
				</port>
				<port id="1">
					<dim>1</dim>
					<dim>96</dim>
					<dim>80</dim>
					<dim>80</dim>
				</port>
			</input>
			<output>
				<port id="2" precision="FP32" names="input.72">
					<dim>1</dim>
					<dim>96</dim>
					<dim>80</dim>
					<dim>80</dim>
				</port>
			</output>
		</layer>
		<layer id="312" name="Add_57/fq_input_0" type="FakeQuantize" version="opset1">
			<data levels="256" auto_broadcast="numpy"/>
			<input>
				<port id="0">
					<dim>1</dim>
					<dim>96</dim>
					<dim>80</dim>
					<dim>80</dim>
				</port>
				<port id="1"/>
				<port id="2"/>
				<port id="3"/>
				<port id="4"/>
			</input>
			<output>
				<port id="5" precision="FP32">
					<dim>1</dim>
					<dim>96</dim>
					<dim>80</dim>
					<dim>80</dim>
				</port>
			</output>
		</layer>
		<layer id="313" name="2487249116116" type="Const" version="opset1">
			<data offset="487304" size="4" shape="" element_type="f32"/>
			<output>
				<port id="0" precision="FP32"/>
			</output>
		</layer>
		<layer id="314" name="2488249217301" type="Const" version="opset1">
			<data offset="487308" size="4" shape="" element_type="f32"/>
			<output>
				<port id="0" precision="FP32"/>
			</output>
		</layer>
		<layer id="315" name="2489249316503" type="Const" version="opset1">
			<data offset="487304" size="4" shape="" element_type="f32"/>
			<output>
				<port id="0" precision="FP32"/>
			</output>
		</layer>
		<layer id="316" name="2490249416086" type="Const" version="opset1">
			<data offset="487308" size="4" shape="" element_type="f32"/>
			<output>
				<port id="0" precision="FP32"/>
			</output>
		</layer>
		<layer id="317" name="1897190116329" type="Const" version="opset1">
			<data offset="487312" size="4" shape="" element_type="f32"/>
			<output>
				<port id="0" precision="FP32"/>
			</output>
		</layer>
		<layer id="318" name="1898190217394" type="Const" version="opset1">
			<data offset="487316" size="4" shape="" element_type="f32"/>
			<output>
				<port id="0" precision="FP32"/>
			</output>
		</layer>
		<layer id="319" name="1899190315777" type="Const" version="opset1">
			<data offset="487312" size="4" shape="" element_type="f32"/>
			<output>
				<port id="0" precision="FP32"/>
			</output>
		</layer>
		<layer id="320" name="1900190416710" type="Const" version="opset1">
			<data offset="487316" size="4" shape="" element_type="f32"/>
			<output>
				<port id="0" precision="FP32"/>
			</output>
		</layer>
		<layer id="321" name="Conv_51/WithoutBiases/fq_weights_1/scale1200515981" type="Const" version="opset1">
			<data offset="487320" size="384" shape="96,1,1,1" element_type="f32"/>
			<output>
				<port id="0" precision="FP32">
					<dim>96</dim>
					<dim>1</dim>
					<dim>1</dim>
					<dim>1</dim>
				</port>
			</output>
		</layer>
		<layer id="322" name="model.4.m.2.cv1.conv.weight7298835/restored_convert/quantized1199716026" type="Const" version="opset1">
			<data offset="487704" size="9216" shape="96,96,1,1" element_type="i8"/>
			<output>
				<port id="0" precision="I8">
					<dim>96</dim>
					<dim>96</dim>
					<dim>1</dim>
					<dim>1</dim>
				</port>
			</output>
		</layer>
		<layer id="323" name="model.4.m.2.cv1.conv.weight7298835/restored_convert/quantized/to_f32" type="Convert" version="opset1">
			<data destination_type="f32"/>
			<input>
				<port id="0">
					<dim>96</dim>
					<dim>96</dim>
					<dim>1</dim>
					<dim>1</dim>
				</port>
			</input>
			<output>
				<port id="1" precision="FP32">
					<dim>96</dim>
					<dim>96</dim>
					<dim>1</dim>
					<dim>1</dim>
				</port>
			</output>
		</layer>
		<layer id="324" name="Conv_51/WithoutBiases/fq_weights_1/mulpiply_by_scale" type="Multiply" version="opset1">
			<data auto_broadcast="numpy"/>
			<input>
				<port id="0">
					<dim>96</dim>
					<dim>96</dim>
					<dim>1</dim>
					<dim>1</dim>
				</port>
				<port id="1">
					<dim>96</dim>
					<dim>1</dim>
					<dim>1</dim>
					<dim>1</dim>
				</port>
			</input>
			<output>
				<port id="2" precision="FP32">
					<dim>96</dim>
					<dim>96</dim>
					<dim>1</dim>
					<dim>1</dim>
				</port>
			</output>
		</layer>
		<layer id="325" name="Conv_51/WithoutBiases" type="Convolution" version="opset1">
			<data auto_pad="explicit" strides="1,1" dilations="1,1" pads_begin="0,0" pads_end="0,0"/>
			<rt_info>
				<attribute name="fused_names" version="0" value="Conv_51/WithoutBiases"/>
			</rt_info>
			<input>
				<port id="0">
					<dim>1</dim>
					<dim>96</dim>
					<dim>80</dim>
					<dim>80</dim>
				</port>
				<port id="1">
					<dim>96</dim>
					<dim>96</dim>
					<dim>1</dim>
					<dim>1</dim>
				</port>
			</input>
			<output>
				<port id="2" precision="FP32">
					<dim>1</dim>
					<dim>96</dim>
					<dim>80</dim>
					<dim>80</dim>
				</port>
			</output>
		</layer>
		<layer id="326" name="Reshape_94173216641" type="Const" version="opset1">
			<data offset="496920" size="192" shape="1,96,1,1" element_type="f16"/>
			<output>
				<port id="0" precision="FP16">
					<dim>1</dim>
					<dim>96</dim>
					<dim>1</dim>
					<dim>1</dim>
				</port>
			</output>
		</layer>
		<layer id="327" name="Reshape_9417328836/restored_convert" type="Convert" version="opset1">
			<data destination_type="f32"/>
			<rt_info>
				<attribute name="decompression" version="0"/>
			</rt_info>
			<input>
				<port id="0">
					<dim>1</dim>
					<dim>96</dim>
					<dim>1</dim>
					<dim>1</dim>
				</port>
			</input>
			<output>
				<port id="1" precision="FP32">
					<dim>1</dim>
					<dim>96</dim>
					<dim>1</dim>
					<dim>1</dim>
				</port>
			</output>
		</layer>
		<layer id="328" name="Conv_51" type="Add" version="opset1">
			<data auto_broadcast="numpy"/>
			<rt_info>
				<attribute name="fused_names" version="0" value="Concat_940, Conv_51, Reshape_941"/>
			</rt_info>
			<input>
				<port id="0">
					<dim>1</dim>
					<dim>96</dim>
					<dim>80</dim>
					<dim>80</dim>
				</port>
				<port id="1">
					<dim>1</dim>
					<dim>96</dim>
					<dim>1</dim>
					<dim>1</dim>
				</port>
			</input>
			<output>
				<port id="2" precision="FP32" names="input.76">
					<dim>1</dim>
					<dim>96</dim>
					<dim>80</dim>
					<dim>80</dim>
				</port>
			</output>
		</layer>
		<layer id="329" name="Mul_53" type="Swish" version="opset4">
			<rt_info>
				<attribute name="fused_names" version="0" value="Mul_53, Sigmoid_52"/>
			</rt_info>
			<input>
				<port id="0">
					<dim>1</dim>
					<dim>96</dim>
					<dim>80</dim>
					<dim>80</dim>
				</port>
			</input>
			<output>
				<port id="1" precision="FP32" names="onnx::Conv_221">
					<dim>1</dim>
					<dim>96</dim>
					<dim>80</dim>
					<dim>80</dim>
				</port>
			</output>
		</layer>
		<layer id="330" name="Conv_54/WithoutBiases/fq_input_0" type="FakeQuantize" version="opset1">
			<data levels="256" auto_broadcast="numpy"/>
			<input>
				<port id="0">
					<dim>1</dim>
					<dim>96</dim>
					<dim>80</dim>
					<dim>80</dim>
				</port>
				<port id="1"/>
				<port id="2"/>
				<port id="3"/>
				<port id="4"/>
			</input>
			<output>
				<port id="5" precision="FP32">
					<dim>1</dim>
					<dim>96</dim>
					<dim>80</dim>
					<dim>80</dim>
				</port>
			</output>
		</layer>
		<layer id="331" name="Conv_54/WithoutBiases/fq_weights_1/scale1122516620" type="Const" version="opset1">
			<data offset="497112" size="384" shape="96,1,1,1" element_type="f32"/>
			<output>
				<port id="0" precision="FP32">
					<dim>96</dim>
					<dim>1</dim>
					<dim>1</dim>
					<dim>1</dim>
				</port>
			</output>
		</layer>
		<layer id="332" name="model.4.m.2.cv2.conv.weight7368837/restored_convert/quantized1121716809" type="Const" version="opset1">
			<data offset="497496" size="82944" shape="96,96,3,3" element_type="i8"/>
			<output>
				<port id="0" precision="I8">
					<dim>96</dim>
					<dim>96</dim>
					<dim>3</dim>
					<dim>3</dim>
				</port>
			</output>
		</layer>
		<layer id="333" name="model.4.m.2.cv2.conv.weight7368837/restored_convert/quantized/to_f32" type="Convert" version="opset1">
			<data destination_type="f32"/>
			<input>
				<port id="0">
					<dim>96</dim>
					<dim>96</dim>
					<dim>3</dim>
					<dim>3</dim>
				</port>
			</input>
			<output>
				<port id="1" precision="FP32">
					<dim>96</dim>
					<dim>96</dim>
					<dim>3</dim>
					<dim>3</dim>
				</port>
			</output>
		</layer>
		<layer id="334" name="Conv_54/WithoutBiases/fq_weights_1/mulpiply_by_scale" type="Multiply" version="opset1">
			<data auto_broadcast="numpy"/>
			<input>
				<port id="0">
					<dim>96</dim>
					<dim>96</dim>
					<dim>3</dim>
					<dim>3</dim>
				</port>
				<port id="1">
					<dim>96</dim>
					<dim>1</dim>
					<dim>1</dim>
					<dim>1</dim>
				</port>
			</input>
			<output>
				<port id="2" precision="FP32">
					<dim>96</dim>
					<dim>96</dim>
					<dim>3</dim>
					<dim>3</dim>
				</port>
			</output>
		</layer>
		<layer id="335" name="Conv_54/WithoutBiases" type="Convolution" version="opset1">
			<data auto_pad="explicit" strides="1,1" dilations="1,1" pads_begin="1,1" pads_end="1,1"/>
			<rt_info>
				<attribute name="fused_names" version="0" value="Conv_54/WithoutBiases"/>
			</rt_info>
			<input>
				<port id="0">
					<dim>1</dim>
					<dim>96</dim>
					<dim>80</dim>
					<dim>80</dim>
				</port>
				<port id="1">
					<dim>96</dim>
					<dim>96</dim>
					<dim>3</dim>
					<dim>3</dim>
				</port>
			</input>
			<output>
				<port id="2" precision="FP32">
					<dim>1</dim>
					<dim>96</dim>
					<dim>80</dim>
					<dim>80</dim>
				</port>
			</output>
		</layer>
		<layer id="336" name="Reshape_99173916485" type="Const" version="opset1">
			<data offset="580440" size="192" shape="1,96,1,1" element_type="f16"/>
			<output>
				<port id="0" precision="FP16">
					<dim>1</dim>
					<dim>96</dim>
					<dim>1</dim>
					<dim>1</dim>
				</port>
			</output>
		</layer>
		<layer id="337" name="Reshape_9917398838/restored_convert" type="Convert" version="opset1">
			<data destination_type="f32"/>
			<rt_info>
				<attribute name="decompression" version="0"/>
			</rt_info>
			<input>
				<port id="0">
					<dim>1</dim>
					<dim>96</dim>
					<dim>1</dim>
					<dim>1</dim>
				</port>
			</input>
			<output>
				<port id="1" precision="FP32">
					<dim>1</dim>
					<dim>96</dim>
					<dim>1</dim>
					<dim>1</dim>
				</port>
			</output>
		</layer>
		<layer id="338" name="Conv_54" type="Add" version="opset1">
			<data auto_broadcast="numpy"/>
			<rt_info>
				<attribute name="fused_names" version="0" value="Concat_990, Conv_54, Reshape_991"/>
			</rt_info>
			<input>
				<port id="0">
					<dim>1</dim>
					<dim>96</dim>
					<dim>80</dim>
					<dim>80</dim>
				</port>
				<port id="1">
					<dim>1</dim>
					<dim>96</dim>
					<dim>1</dim>
					<dim>1</dim>
				</port>
			</input>
			<output>
				<port id="2" precision="FP32" names="input.80">
					<dim>1</dim>
					<dim>96</dim>
					<dim>80</dim>
					<dim>80</dim>
				</port>
			</output>
		</layer>
		<layer id="339" name="Mul_56" type="Swish" version="opset4">
			<rt_info>
				<attribute name="fused_names" version="0" value="Mul_56, Sigmoid_55"/>
			</rt_info>
			<input>
				<port id="0">
					<dim>1</dim>
					<dim>96</dim>
					<dim>80</dim>
					<dim>80</dim>
				</port>
			</input>
			<output>
				<port id="1" precision="FP32" names="onnx::Add_224">
					<dim>1</dim>
					<dim>96</dim>
					<dim>80</dim>
					<dim>80</dim>
				</port>
			</output>
		</layer>
		<layer id="340" name="Add_57/fq_input_1" type="FakeQuantize" version="opset1">
			<data levels="256" auto_broadcast="numpy"/>
			<input>
				<port id="0">
					<dim>1</dim>
					<dim>96</dim>
					<dim>80</dim>
					<dim>80</dim>
				</port>
				<port id="1"/>
				<port id="2"/>
				<port id="3"/>
				<port id="4"/>
			</input>
			<output>
				<port id="5" precision="FP32">
					<dim>1</dim>
					<dim>96</dim>
					<dim>80</dim>
					<dim>80</dim>
				</port>
			</output>
		</layer>
		<layer id="341" name="Add_57" type="Add" version="opset1">
			<data auto_broadcast="numpy"/>
			<rt_info>
				<attribute name="fused_names" version="0" value="Add_57"/>
			</rt_info>
			<input>
				<port id="0">
					<dim>1</dim>
					<dim>96</dim>
					<dim>80</dim>
					<dim>80</dim>
				</port>
				<port id="1">
					<dim>1</dim>
					<dim>96</dim>
					<dim>80</dim>
					<dim>80</dim>
				</port>
			</input>
			<output>
				<port id="2" precision="FP32" names="input.84">
					<dim>1</dim>
					<dim>96</dim>
					<dim>80</dim>
					<dim>80</dim>
				</port>
			</output>
		</layer>
		<layer id="342" name="Add_64/fq_input_0" type="FakeQuantize" version="opset1">
			<data levels="256" auto_broadcast="numpy"/>
			<input>
				<port id="0">
					<dim>1</dim>
					<dim>96</dim>
					<dim>80</dim>
					<dim>80</dim>
				</port>
				<port id="1"/>
				<port id="2"/>
				<port id="3"/>
				<port id="4"/>
			</input>
			<output>
				<port id="5" precision="FP32">
					<dim>1</dim>
					<dim>96</dim>
					<dim>80</dim>
					<dim>80</dim>
				</port>
			</output>
		</layer>
		<layer id="343" name="2817282116128" type="Const" version="opset1">
			<data offset="580632" size="4" shape="" element_type="f32"/>
			<output>
				<port id="0" precision="FP32"/>
			</output>
		</layer>
		<layer id="344" name="2818282217439" type="Const" version="opset1">
			<data offset="580636" size="4" shape="" element_type="f32"/>
			<output>
				<port id="0" precision="FP32"/>
			</output>
		</layer>
		<layer id="345" name="2819282316776" type="Const" version="opset1">
			<data offset="580632" size="4" shape="" element_type="f32"/>
			<output>
				<port id="0" precision="FP32"/>
			</output>
		</layer>
		<layer id="346" name="2820282417352" type="Const" version="opset1">
			<data offset="580636" size="4" shape="" element_type="f32"/>
			<output>
				<port id="0" precision="FP32"/>
			</output>
		</layer>
		<layer id="347" name="2097210116302" type="Const" version="opset1">
			<data offset="580640" size="4" shape="" element_type="f32"/>
			<output>
				<port id="0" precision="FP32"/>
			</output>
		</layer>
		<layer id="348" name="2098210216050" type="Const" version="opset1">
			<data offset="580644" size="4" shape="" element_type="f32"/>
			<output>
				<port id="0" precision="FP32"/>
			</output>
		</layer>
		<layer id="349" name="2099210316188" type="Const" version="opset1">
			<data offset="580640" size="4" shape="" element_type="f32"/>
			<output>
				<port id="0" precision="FP32"/>
			</output>
		</layer>
		<layer id="350" name="2100210416464" type="Const" version="opset1">
			<data offset="580644" size="4" shape="" element_type="f32"/>
			<output>
				<port id="0" precision="FP32"/>
			</output>
		</layer>
		<layer id="351" name="Conv_58/WithoutBiases/fq_weights_1/scale1194517001" type="Const" version="opset1">
			<data offset="580648" size="384" shape="96,1,1,1" element_type="f32"/>
			<output>
				<port id="0" precision="FP32">
					<dim>96</dim>
					<dim>1</dim>
					<dim>1</dim>
					<dim>1</dim>
				</port>
			</output>
		</layer>
		<layer id="352" name="model.4.m.3.cv1.conv.weight7448839/restored_convert/quantized1193715810" type="Const" version="opset1">
			<data offset="581032" size="9216" shape="96,96,1,1" element_type="i8"/>
			<output>
				<port id="0" precision="I8">
					<dim>96</dim>
					<dim>96</dim>
					<dim>1</dim>
					<dim>1</dim>
				</port>
			</output>
		</layer>
		<layer id="353" name="model.4.m.3.cv1.conv.weight7448839/restored_convert/quantized/to_f32" type="Convert" version="opset1">
			<data destination_type="f32"/>
			<input>
				<port id="0">
					<dim>96</dim>
					<dim>96</dim>
					<dim>1</dim>
					<dim>1</dim>
				</port>
			</input>
			<output>
				<port id="1" precision="FP32">
					<dim>96</dim>
					<dim>96</dim>
					<dim>1</dim>
					<dim>1</dim>
				</port>
			</output>
		</layer>
		<layer id="354" name="Conv_58/WithoutBiases/fq_weights_1/mulpiply_by_scale" type="Multiply" version="opset1">
			<data auto_broadcast="numpy"/>
			<input>
				<port id="0">
					<dim>96</dim>
					<dim>96</dim>
					<dim>1</dim>
					<dim>1</dim>
				</port>
				<port id="1">
					<dim>96</dim>
					<dim>1</dim>
					<dim>1</dim>
					<dim>1</dim>
				</port>
			</input>
			<output>
				<port id="2" precision="FP32">
					<dim>96</dim>
					<dim>96</dim>
					<dim>1</dim>
					<dim>1</dim>
				</port>
			</output>
		</layer>
		<layer id="355" name="Conv_58/WithoutBiases" type="Convolution" version="opset1">
			<data auto_pad="explicit" strides="1,1" dilations="1,1" pads_begin="0,0" pads_end="0,0"/>
			<rt_info>
				<attribute name="fused_names" version="0" value="Conv_58/WithoutBiases"/>
			</rt_info>
			<input>
				<port id="0">
					<dim>1</dim>
					<dim>96</dim>
					<dim>80</dim>
					<dim>80</dim>
				</port>
				<port id="1">
					<dim>96</dim>
					<dim>96</dim>
					<dim>1</dim>
					<dim>1</dim>
				</port>
			</input>
			<output>
				<port id="2" precision="FP32">
					<dim>1</dim>
					<dim>96</dim>
					<dim>80</dim>
					<dim>80</dim>
				</port>
			</output>
		</layer>
		<layer id="356" name="Reshape_104274716452" type="Const" version="opset1">
			<data offset="590248" size="192" shape="1,96,1,1" element_type="f16"/>
			<output>
				<port id="0" precision="FP16">
					<dim>1</dim>
					<dim>96</dim>
					<dim>1</dim>
					<dim>1</dim>
				</port>
			</output>
		</layer>
		<layer id="357" name="Reshape_10427478840/restored_convert" type="Convert" version="opset1">
			<data destination_type="f32"/>
			<rt_info>
				<attribute name="decompression" version="0"/>
			</rt_info>
			<input>
				<port id="0">
					<dim>1</dim>
					<dim>96</dim>
					<dim>1</dim>
					<dim>1</dim>
				</port>
			</input>
			<output>
				<port id="1" precision="FP32">
					<dim>1</dim>
					<dim>96</dim>
					<dim>1</dim>
					<dim>1</dim>
				</port>
			</output>
		</layer>
		<layer id="358" name="Conv_58" type="Add" version="opset1">
			<data auto_broadcast="numpy"/>
			<rt_info>
				<attribute name="fused_names" version="0" value="Concat_1041, Conv_58, Reshape_1042"/>
			</rt_info>
			<input>
				<port id="0">
					<dim>1</dim>
					<dim>96</dim>
					<dim>80</dim>
					<dim>80</dim>
				</port>
				<port id="1">
					<dim>1</dim>
					<dim>96</dim>
					<dim>1</dim>
					<dim>1</dim>
				</port>
			</input>
			<output>
				<port id="2" precision="FP32" names="input.88">
					<dim>1</dim>
					<dim>96</dim>
					<dim>80</dim>
					<dim>80</dim>
				</port>
			</output>
		</layer>
		<layer id="359" name="Mul_60" type="Swish" version="opset4">
			<rt_info>
				<attribute name="fused_names" version="0" value="Mul_60, Sigmoid_59"/>
			</rt_info>
			<input>
				<port id="0">
					<dim>1</dim>
					<dim>96</dim>
					<dim>80</dim>
					<dim>80</dim>
				</port>
			</input>
			<output>
				<port id="1" precision="FP32" names="onnx::Conv_228">
					<dim>1</dim>
					<dim>96</dim>
					<dim>80</dim>
					<dim>80</dim>
				</port>
			</output>
		</layer>
		<layer id="360" name="Conv_61/WithoutBiases/fq_input_0" type="FakeQuantize" version="opset1">
			<data levels="256" auto_broadcast="numpy"/>
			<input>
				<port id="0">
					<dim>1</dim>
					<dim>96</dim>
					<dim>80</dim>
					<dim>80</dim>
				</port>
				<port id="1"/>
				<port id="2"/>
				<port id="3"/>
				<port id="4"/>
			</input>
			<output>
				<port id="5" precision="FP32">
					<dim>1</dim>
					<dim>96</dim>
					<dim>80</dim>
					<dim>80</dim>
				</port>
			</output>
		</layer>
		<layer id="361" name="Conv_61/WithoutBiases/fq_weights_1/scale1020515885" type="Const" version="opset1">
			<data offset="590440" size="384" shape="96,1,1,1" element_type="f32"/>
			<output>
				<port id="0" precision="FP32">
					<dim>96</dim>
					<dim>1</dim>
					<dim>1</dim>
					<dim>1</dim>
				</port>
			</output>
		</layer>
		<layer id="362" name="model.4.m.3.cv2.conv.weight7518841/restored_convert/quantized1019716305" type="Const" version="opset1">
			<data offset="590824" size="82944" shape="96,96,3,3" element_type="i8"/>
			<output>
				<port id="0" precision="I8">
					<dim>96</dim>
					<dim>96</dim>
					<dim>3</dim>
					<dim>3</dim>
				</port>
			</output>
		</layer>
		<layer id="363" name="model.4.m.3.cv2.conv.weight7518841/restored_convert/quantized/to_f32" type="Convert" version="opset1">
			<data destination_type="f32"/>
			<input>
				<port id="0">
					<dim>96</dim>
					<dim>96</dim>
					<dim>3</dim>
					<dim>3</dim>
				</port>
			</input>
			<output>
				<port id="1" precision="FP32">
					<dim>96</dim>
					<dim>96</dim>
					<dim>3</dim>
					<dim>3</dim>
				</port>
			</output>
		</layer>
		<layer id="364" name="Conv_61/WithoutBiases/fq_weights_1/mulpiply_by_scale" type="Multiply" version="opset1">
			<data auto_broadcast="numpy"/>
			<input>
				<port id="0">
					<dim>96</dim>
					<dim>96</dim>
					<dim>3</dim>
					<dim>3</dim>
				</port>
				<port id="1">
					<dim>96</dim>
					<dim>1</dim>
					<dim>1</dim>
					<dim>1</dim>
				</port>
			</input>
			<output>
				<port id="2" precision="FP32">
					<dim>96</dim>
					<dim>96</dim>
					<dim>3</dim>
					<dim>3</dim>
				</port>
			</output>
		</layer>
		<layer id="365" name="Conv_61/WithoutBiases" type="Convolution" version="opset1">
			<data auto_pad="explicit" strides="1,1" dilations="1,1" pads_begin="1,1" pads_end="1,1"/>
			<rt_info>
				<attribute name="fused_names" version="0" value="Conv_61/WithoutBiases"/>
			</rt_info>
			<input>
				<port id="0">
					<dim>1</dim>
					<dim>96</dim>
					<dim>80</dim>
					<dim>80</dim>
				</port>
				<port id="1">
					<dim>96</dim>
					<dim>96</dim>
					<dim>3</dim>
					<dim>3</dim>
				</port>
			</input>
			<output>
				<port id="2" precision="FP32">
					<dim>1</dim>
					<dim>96</dim>
					<dim>80</dim>
					<dim>80</dim>
				</port>
			</output>
		</layer>
		<layer id="366" name="Reshape_109275417595" type="Const" version="opset1">
			<data offset="673768" size="192" shape="1,96,1,1" element_type="f16"/>
			<output>
				<port id="0" precision="FP16">
					<dim>1</dim>
					<dim>96</dim>
					<dim>1</dim>
					<dim>1</dim>
				</port>
			</output>
		</layer>
		<layer id="367" name="Reshape_10927548842/restored_convert" type="Convert" version="opset1">
			<data destination_type="f32"/>
			<rt_info>
				<attribute name="decompression" version="0"/>
			</rt_info>
			<input>
				<port id="0">
					<dim>1</dim>
					<dim>96</dim>
					<dim>1</dim>
					<dim>1</dim>
				</port>
			</input>
			<output>
				<port id="1" precision="FP32">
					<dim>1</dim>
					<dim>96</dim>
					<dim>1</dim>
					<dim>1</dim>
				</port>
			</output>
		</layer>
		<layer id="368" name="Conv_61" type="Add" version="opset1">
			<data auto_broadcast="numpy"/>
			<rt_info>
				<attribute name="fused_names" version="0" value="Concat_1091, Conv_61, Reshape_1092"/>
			</rt_info>
			<input>
				<port id="0">
					<dim>1</dim>
					<dim>96</dim>
					<dim>80</dim>
					<dim>80</dim>
				</port>
				<port id="1">
					<dim>1</dim>
					<dim>96</dim>
					<dim>1</dim>
					<dim>1</dim>
				</port>
			</input>
			<output>
				<port id="2" precision="FP32" names="input.92">
					<dim>1</dim>
					<dim>96</dim>
					<dim>80</dim>
					<dim>80</dim>
				</port>
			</output>
		</layer>
		<layer id="369" name="Mul_63" type="Swish" version="opset4">
			<rt_info>
				<attribute name="fused_names" version="0" value="Mul_63, Sigmoid_62"/>
			</rt_info>
			<input>
				<port id="0">
					<dim>1</dim>
					<dim>96</dim>
					<dim>80</dim>
					<dim>80</dim>
				</port>
			</input>
			<output>
				<port id="1" precision="FP32" names="onnx::Add_231">
					<dim>1</dim>
					<dim>96</dim>
					<dim>80</dim>
					<dim>80</dim>
				</port>
			</output>
		</layer>
		<layer id="370" name="Add_64/fq_input_1" type="FakeQuantize" version="opset1">
			<data levels="256" auto_broadcast="numpy"/>
			<input>
				<port id="0">
					<dim>1</dim>
					<dim>96</dim>
					<dim>80</dim>
					<dim>80</dim>
				</port>
				<port id="1"/>
				<port id="2"/>
				<port id="3"/>
				<port id="4"/>
			</input>
			<output>
				<port id="5" precision="FP32">
					<dim>1</dim>
					<dim>96</dim>
					<dim>80</dim>
					<dim>80</dim>
				</port>
			</output>
		</layer>
		<layer id="371" name="Add_64" type="Add" version="opset1">
			<data auto_broadcast="numpy"/>
			<rt_info>
				<attribute name="fused_names" version="0" value="Add_64"/>
			</rt_info>
			<input>
				<port id="0">
					<dim>1</dim>
					<dim>96</dim>
					<dim>80</dim>
					<dim>80</dim>
				</port>
				<port id="1">
					<dim>1</dim>
					<dim>96</dim>
					<dim>80</dim>
					<dim>80</dim>
				</port>
			</input>
			<output>
				<port id="2" precision="FP32" names="onnx::Concat_232">
					<dim>1</dim>
					<dim>96</dim>
					<dim>80</dim>
					<dim>80</dim>
				</port>
			</output>
		</layer>
		<layer id="372" name="Concat_68/fq_input_0" type="FakeQuantize" version="opset1">
			<data levels="256" auto_broadcast="numpy"/>
			<input>
				<port id="0">
					<dim>1</dim>
					<dim>96</dim>
					<dim>80</dim>
					<dim>80</dim>
				</port>
				<port id="1"/>
				<port id="2"/>
				<port id="3"/>
				<port id="4"/>
			</input>
			<output>
				<port id="5" precision="FP32">
					<dim>1</dim>
					<dim>96</dim>
					<dim>80</dim>
					<dim>80</dim>
				</port>
			</output>
		</layer>
		<layer id="373" name="5188519216683" type="Const" version="opset1">
			<data offset="128" size="4" shape="" element_type="f32"/>
			<output>
				<port id="0" precision="FP32"/>
			</output>
		</layer>
		<layer id="374" name="5189519317562" type="Const" version="opset1">
			<data offset="132" size="4" shape="" element_type="f32"/>
			<output>
				<port id="0" precision="FP32"/>
			</output>
		</layer>
		<layer id="375" name="5190519417403" type="Const" version="opset1">
			<data offset="128" size="4" shape="" element_type="f32"/>
			<output>
				<port id="0" precision="FP32"/>
			</output>
		</layer>
		<layer id="376" name="5191519515750" type="Const" version="opset1">
			<data offset="132" size="4" shape="" element_type="f32"/>
			<output>
				<port id="0" precision="FP32"/>
			</output>
		</layer>
		<layer id="377" name="Conv_65/WithoutBiases/fq_weights_1/scale1215516062" type="Const" version="opset1">
			<data offset="673960" size="384" shape="96,1,1,1" element_type="f32"/>
			<output>
				<port id="0" precision="FP32">
					<dim>96</dim>
					<dim>1</dim>
					<dim>1</dim>
					<dim>1</dim>
				</port>
			</output>
		</layer>
		<layer id="378" name="model.4.cv2.conv.weight7598843/restored_convert/quantized1214717355" type="Const" version="opset1">
			<data offset="674344" size="18432" shape="96,192,1,1" element_type="i8"/>
			<output>
				<port id="0" precision="I8">
					<dim>96</dim>
					<dim>192</dim>
					<dim>1</dim>
					<dim>1</dim>
				</port>
			</output>
		</layer>
		<layer id="379" name="model.4.cv2.conv.weight7598843/restored_convert/quantized/to_f32" type="Convert" version="opset1">
			<data destination_type="f32"/>
			<input>
				<port id="0">
					<dim>96</dim>
					<dim>192</dim>
					<dim>1</dim>
					<dim>1</dim>
				</port>
			</input>
			<output>
				<port id="1" precision="FP32">
					<dim>96</dim>
					<dim>192</dim>
					<dim>1</dim>
					<dim>1</dim>
				</port>
			</output>
		</layer>
		<layer id="380" name="Conv_65/WithoutBiases/fq_weights_1/mulpiply_by_scale" type="Multiply" version="opset1">
			<data auto_broadcast="numpy"/>
			<input>
				<port id="0">
					<dim>96</dim>
					<dim>192</dim>
					<dim>1</dim>
					<dim>1</dim>
				</port>
				<port id="1">
					<dim>96</dim>
					<dim>1</dim>
					<dim>1</dim>
					<dim>1</dim>
				</port>
			</input>
			<output>
				<port id="2" precision="FP32">
					<dim>96</dim>
					<dim>192</dim>
					<dim>1</dim>
					<dim>1</dim>
				</port>
			</output>
		</layer>
		<layer id="381" name="Conv_65/WithoutBiases" type="Convolution" version="opset1">
			<data auto_pad="explicit" strides="1,1" dilations="1,1" pads_begin="0,0" pads_end="0,0"/>
			<rt_info>
				<attribute name="fused_names" version="0" value="Conv_65/WithoutBiases"/>
			</rt_info>
			<input>
				<port id="0">
					<dim>1</dim>
					<dim>192</dim>
					<dim>80</dim>
					<dim>80</dim>
				</port>
				<port id="1">
					<dim>96</dim>
					<dim>192</dim>
					<dim>1</dim>
					<dim>1</dim>
				</port>
			</input>
			<output>
				<port id="2" precision="FP32">
					<dim>1</dim>
					<dim>96</dim>
					<dim>80</dim>
					<dim>80</dim>
				</port>
			</output>
		</layer>
		<layer id="382" name="Reshape_114376216734" type="Const" version="opset1">
			<data offset="692776" size="192" shape="1,96,1,1" element_type="f16"/>
			<output>
				<port id="0" precision="FP16">
					<dim>1</dim>
					<dim>96</dim>
					<dim>1</dim>
					<dim>1</dim>
				</port>
			</output>
		</layer>
		<layer id="383" name="Reshape_11437628844/restored_convert" type="Convert" version="opset1">
			<data destination_type="f32"/>
			<rt_info>
				<attribute name="decompression" version="0"/>
			</rt_info>
			<input>
				<port id="0">
					<dim>1</dim>
					<dim>96</dim>
					<dim>1</dim>
					<dim>1</dim>
				</port>
			</input>
			<output>
				<port id="1" precision="FP32">
					<dim>1</dim>
					<dim>96</dim>
					<dim>1</dim>
					<dim>1</dim>
				</port>
			</output>
		</layer>
		<layer id="384" name="Conv_65" type="Add" version="opset1">
			<data auto_broadcast="numpy"/>
			<rt_info>
				<attribute name="fused_names" version="0" value="Concat_1142, Conv_65, Reshape_1143"/>
			</rt_info>
			<input>
				<port id="0">
					<dim>1</dim>
					<dim>96</dim>
					<dim>80</dim>
					<dim>80</dim>
				</port>
				<port id="1">
					<dim>1</dim>
					<dim>96</dim>
					<dim>1</dim>
					<dim>1</dim>
				</port>
			</input>
			<output>
				<port id="2" precision="FP32" names="input.96">
					<dim>1</dim>
					<dim>96</dim>
					<dim>80</dim>
					<dim>80</dim>
				</port>
			</output>
		</layer>
		<layer id="385" name="Mul_67" type="Swish" version="opset4">
			<rt_info>
				<attribute name="fused_names" version="0" value="Mul_67, Sigmoid_66"/>
			</rt_info>
			<input>
				<port id="0">
					<dim>1</dim>
					<dim>96</dim>
					<dim>80</dim>
					<dim>80</dim>
				</port>
			</input>
			<output>
				<port id="1" precision="FP32" names="onnx::Concat_235">
					<dim>1</dim>
					<dim>96</dim>
					<dim>80</dim>
					<dim>80</dim>
				</port>
			</output>
		</layer>
		<layer id="386" name="Concat_68/fq_input_1" type="FakeQuantize" version="opset1">
			<data levels="256" auto_broadcast="numpy"/>
			<input>
				<port id="0">
					<dim>1</dim>
					<dim>96</dim>
					<dim>80</dim>
					<dim>80</dim>
				</port>
				<port id="1"/>
				<port id="2"/>
				<port id="3"/>
				<port id="4"/>
			</input>
			<output>
				<port id="5" precision="FP32">
					<dim>1</dim>
					<dim>96</dim>
					<dim>80</dim>
					<dim>80</dim>
				</port>
			</output>
		</layer>
		<layer id="387" name="Concat_68" type="Concat" version="opset1">
			<data axis="1"/>
			<rt_info>
				<attribute name="fused_names" version="0" value="Concat_68"/>
			</rt_info>
			<input>
				<port id="0">
					<dim>1</dim>
					<dim>96</dim>
					<dim>80</dim>
					<dim>80</dim>
				</port>
				<port id="1">
					<dim>1</dim>
					<dim>96</dim>
					<dim>80</dim>
					<dim>80</dim>
				</port>
			</input>
			<output>
				<port id="2" precision="FP32" names="input.100">
					<dim>1</dim>
					<dim>192</dim>
					<dim>80</dim>
					<dim>80</dim>
				</port>
			</output>
		</layer>
		<layer id="388" name="Conv_69/WithoutBiases/fq_weights_1/scale1053516539" type="Const" version="opset1">
			<data offset="692968" size="768" shape="192,1,1,1" element_type="f32"/>
			<output>
				<port id="0" precision="FP32">
					<dim>192</dim>
					<dim>1</dim>
					<dim>1</dim>
					<dim>1</dim>
				</port>
			</output>
		</layer>
		<layer id="389" name="model.4.cv3.conv.weight7678845/restored_convert/quantized1052716500" type="Const" version="opset1">
			<data offset="693736" size="36864" shape="192,192,1,1" element_type="i8"/>
			<output>
				<port id="0" precision="I8">
					<dim>192</dim>
					<dim>192</dim>
					<dim>1</dim>
					<dim>1</dim>
				</port>
			</output>
		</layer>
		<layer id="390" name="model.4.cv3.conv.weight7678845/restored_convert/quantized/to_f32" type="Convert" version="opset1">
			<data destination_type="f32"/>
			<input>
				<port id="0">
					<dim>192</dim>
					<dim>192</dim>
					<dim>1</dim>
					<dim>1</dim>
				</port>
			</input>
			<output>
				<port id="1" precision="FP32">
					<dim>192</dim>
					<dim>192</dim>
					<dim>1</dim>
					<dim>1</dim>
				</port>
			</output>
		</layer>
		<layer id="391" name="Conv_69/WithoutBiases/fq_weights_1/mulpiply_by_scale" type="Multiply" version="opset1">
			<data auto_broadcast="numpy"/>
			<input>
				<port id="0">
					<dim>192</dim>
					<dim>192</dim>
					<dim>1</dim>
					<dim>1</dim>
				</port>
				<port id="1">
					<dim>192</dim>
					<dim>1</dim>
					<dim>1</dim>
					<dim>1</dim>
				</port>
			</input>
			<output>
				<port id="2" precision="FP32">
					<dim>192</dim>
					<dim>192</dim>
					<dim>1</dim>
					<dim>1</dim>
				</port>
			</output>
		</layer>
		<layer id="392" name="Conv_69/WithoutBiases" type="Convolution" version="opset1">
			<data auto_pad="explicit" strides="1,1" dilations="1,1" pads_begin="0,0" pads_end="0,0"/>
			<rt_info>
				<attribute name="fused_names" version="0" value="Conv_69/WithoutBiases"/>
			</rt_info>
			<input>
				<port id="0">
					<dim>1</dim>
					<dim>192</dim>
					<dim>80</dim>
					<dim>80</dim>
				</port>
				<port id="1">
					<dim>192</dim>
					<dim>192</dim>
					<dim>1</dim>
					<dim>1</dim>
				</port>
			</input>
			<output>
				<port id="2" precision="FP32">
					<dim>1</dim>
					<dim>192</dim>
					<dim>80</dim>
					<dim>80</dim>
				</port>
			</output>
		</layer>
		<layer id="393" name="Reshape_119477017079" type="Const" version="opset1">
			<data offset="730600" size="384" shape="1,192,1,1" element_type="f16"/>
			<output>
				<port id="0" precision="FP16">
					<dim>1</dim>
					<dim>192</dim>
					<dim>1</dim>
					<dim>1</dim>
				</port>
			</output>
		</layer>
		<layer id="394" name="Reshape_11947708846/restored_convert" type="Convert" version="opset1">
			<data destination_type="f32"/>
			<rt_info>
				<attribute name="decompression" version="0"/>
			</rt_info>
			<input>
				<port id="0">
					<dim>1</dim>
					<dim>192</dim>
					<dim>1</dim>
					<dim>1</dim>
				</port>
			</input>
			<output>
				<port id="1" precision="FP32">
					<dim>1</dim>
					<dim>192</dim>
					<dim>1</dim>
					<dim>1</dim>
				</port>
			</output>
		</layer>
		<layer id="395" name="Conv_69" type="Add" version="opset1">
			<data auto_broadcast="numpy"/>
			<rt_info>
				<attribute name="fused_names" version="0" value="Concat_1193, Conv_69, Reshape_1194"/>
			</rt_info>
			<input>
				<port id="0">
					<dim>1</dim>
					<dim>192</dim>
					<dim>80</dim>
					<dim>80</dim>
				</port>
				<port id="1">
					<dim>1</dim>
					<dim>192</dim>
					<dim>1</dim>
					<dim>1</dim>
				</port>
			</input>
			<output>
				<port id="2" precision="FP32" names="input.104">
					<dim>1</dim>
					<dim>192</dim>
					<dim>80</dim>
					<dim>80</dim>
				</port>
			</output>
		</layer>
		<layer id="396" name="Mul_71" type="Swish" version="opset4">
			<rt_info>
				<attribute name="fused_names" version="0" value="Mul_71, Sigmoid_70"/>
			</rt_info>
			<input>
				<port id="0">
					<dim>1</dim>
					<dim>192</dim>
					<dim>80</dim>
					<dim>80</dim>
				</port>
			</input>
			<output>
				<port id="1" precision="FP32" names="onnx::Conv_239">
					<dim>1</dim>
					<dim>192</dim>
					<dim>80</dim>
					<dim>80</dim>
				</port>
			</output>
		</layer>
		<layer id="397" name="Concat_197/fq_input_1" type="FakeQuantize" version="opset1">
			<data levels="256" auto_broadcast="numpy"/>
			<input>
				<port id="0">
					<dim>1</dim>
					<dim>192</dim>
					<dim>80</dim>
					<dim>80</dim>
				</port>
				<port id="1"/>
				<port id="2"/>
				<port id="3"/>
				<port id="4"/>
			</input>
			<output>
				<port id="5" precision="FP32">
					<dim>1</dim>
					<dim>192</dim>
					<dim>80</dim>
					<dim>80</dim>
				</port>
			</output>
		</layer>
		<layer id="398" name="Conv_72/WithoutBiases/fq_weights_1/scale1056516272" type="Const" version="opset1">
			<data offset="730984" size="1536" shape="384,1,1,1" element_type="f32"/>
			<output>
				<port id="0" precision="FP32">
					<dim>384</dim>
					<dim>1</dim>
					<dim>1</dim>
					<dim>1</dim>
				</port>
			</output>
		</layer>
		<layer id="399" name="model.5.conv.weight7748847/restored_convert/quantized1055717412" type="Const" version="opset1">
			<data offset="732520" size="663552" shape="384,192,3,3" element_type="i8"/>
			<output>
				<port id="0" precision="I8">
					<dim>384</dim>
					<dim>192</dim>
					<dim>3</dim>
					<dim>3</dim>
				</port>
			</output>
		</layer>
		<layer id="400" name="model.5.conv.weight7748847/restored_convert/quantized/to_f32" type="Convert" version="opset1">
			<data destination_type="f32"/>
			<input>
				<port id="0">
					<dim>384</dim>
					<dim>192</dim>
					<dim>3</dim>
					<dim>3</dim>
				</port>
			</input>
			<output>
				<port id="1" precision="FP32">
					<dim>384</dim>
					<dim>192</dim>
					<dim>3</dim>
					<dim>3</dim>
				</port>
			</output>
		</layer>
		<layer id="401" name="Conv_72/WithoutBiases/fq_weights_1/mulpiply_by_scale" type="Multiply" version="opset1">
			<data auto_broadcast="numpy"/>
			<input>
				<port id="0">
					<dim>384</dim>
					<dim>192</dim>
					<dim>3</dim>
					<dim>3</dim>
				</port>
				<port id="1">
					<dim>384</dim>
					<dim>1</dim>
					<dim>1</dim>
					<dim>1</dim>
				</port>
			</input>
			<output>
				<port id="2" precision="FP32">
					<dim>384</dim>
					<dim>192</dim>
					<dim>3</dim>
					<dim>3</dim>
				</port>
			</output>
		</layer>
		<layer id="402" name="Conv_72/WithoutBiases" type="Convolution" version="opset1">
			<data auto_pad="explicit" strides="2,2" dilations="1,1" pads_begin="1,1" pads_end="1,1"/>
			<rt_info>
				<attribute name="fused_names" version="0" value="Conv_72/WithoutBiases"/>
			</rt_info>
			<input>
				<port id="0">
					<dim>1</dim>
					<dim>192</dim>
					<dim>80</dim>
					<dim>80</dim>
				</port>
				<port id="1">
					<dim>384</dim>
					<dim>192</dim>
					<dim>3</dim>
					<dim>3</dim>
				</port>
			</input>
			<output>
				<port id="2" precision="FP32">
					<dim>1</dim>
					<dim>384</dim>
					<dim>40</dim>
					<dim>40</dim>
				</port>
			</output>
		</layer>
		<layer id="403" name="Reshape_124477717283" type="Const" version="opset1">
			<data offset="1396072" size="768" shape="1,384,1,1" element_type="f16"/>
			<output>
				<port id="0" precision="FP16">
					<dim>1</dim>
					<dim>384</dim>
					<dim>1</dim>
					<dim>1</dim>
				</port>
			</output>
		</layer>
		<layer id="404" name="Reshape_12447778848/restored_convert" type="Convert" version="opset1">
			<data destination_type="f32"/>
			<rt_info>
				<attribute name="decompression" version="0"/>
			</rt_info>
			<input>
				<port id="0">
					<dim>1</dim>
					<dim>384</dim>
					<dim>1</dim>
					<dim>1</dim>
				</port>
			</input>
			<output>
				<port id="1" precision="FP32">
					<dim>1</dim>
					<dim>384</dim>
					<dim>1</dim>
					<dim>1</dim>
				</port>
			</output>
		</layer>
		<layer id="405" name="Conv_72" type="Add" version="opset1">
			<data auto_broadcast="numpy"/>
			<rt_info>
				<attribute name="fused_names" version="0" value="Concat_1243, Conv_72, Reshape_1244"/>
			</rt_info>
			<input>
				<port id="0">
					<dim>1</dim>
					<dim>384</dim>
					<dim>40</dim>
					<dim>40</dim>
				</port>
				<port id="1">
					<dim>1</dim>
					<dim>384</dim>
					<dim>1</dim>
					<dim>1</dim>
				</port>
			</input>
			<output>
				<port id="2" precision="FP32" names="input.108">
					<dim>1</dim>
					<dim>384</dim>
					<dim>40</dim>
					<dim>40</dim>
				</port>
			</output>
		</layer>
		<layer id="406" name="Mul_74" type="Swish" version="opset4">
			<rt_info>
				<attribute name="fused_names" version="0" value="Mul_74, Sigmoid_73"/>
			</rt_info>
			<input>
				<port id="0">
					<dim>1</dim>
					<dim>384</dim>
					<dim>40</dim>
					<dim>40</dim>
				</port>
			</input>
			<output>
				<port id="1" precision="FP32" names="onnx::Conv_242">
					<dim>1</dim>
					<dim>384</dim>
					<dim>40</dim>
					<dim>40</dim>
				</port>
			</output>
		</layer>
		<layer id="407" name="Conv_120/WithoutBiases/fq_input_0" type="FakeQuantize" version="opset1">
			<data levels="256" auto_broadcast="numpy"/>
			<input>
				<port id="0">
					<dim>1</dim>
					<dim>384</dim>
					<dim>40</dim>
					<dim>40</dim>
				</port>
				<port id="1"/>
				<port id="2"/>
				<port id="3"/>
				<port id="4"/>
			</input>
			<output>
				<port id="5" precision="FP32">
					<dim>1</dim>
					<dim>384</dim>
					<dim>40</dim>
					<dim>40</dim>
				</port>
			</output>
		</layer>
		<layer id="408" name="Conv_75/WithoutBiases/fq_weights_1/scale1116517013" type="Const" version="opset1">
			<data offset="1396840" size="768" shape="192,1,1,1" element_type="f32"/>
			<output>
				<port id="0" precision="FP32">
					<dim>192</dim>
					<dim>1</dim>
					<dim>1</dim>
					<dim>1</dim>
				</port>
			</output>
		</layer>
		<layer id="409" name="model.6.cv1.conv.weight7818849/restored_convert/quantized1115715840" type="Const" version="opset1">
			<data offset="1397608" size="73728" shape="192,384,1,1" element_type="i8"/>
			<output>
				<port id="0" precision="I8">
					<dim>192</dim>
					<dim>384</dim>
					<dim>1</dim>
					<dim>1</dim>
				</port>
			</output>
		</layer>
		<layer id="410" name="model.6.cv1.conv.weight7818849/restored_convert/quantized/to_f32" type="Convert" version="opset1">
			<data destination_type="f32"/>
			<input>
				<port id="0">
					<dim>192</dim>
					<dim>384</dim>
					<dim>1</dim>
					<dim>1</dim>
				</port>
			</input>
			<output>
				<port id="1" precision="FP32">
					<dim>192</dim>
					<dim>384</dim>
					<dim>1</dim>
					<dim>1</dim>
				</port>
			</output>
		</layer>
		<layer id="411" name="Conv_75/WithoutBiases/fq_weights_1/mulpiply_by_scale" type="Multiply" version="opset1">
			<data auto_broadcast="numpy"/>
			<input>
				<port id="0">
					<dim>192</dim>
					<dim>384</dim>
					<dim>1</dim>
					<dim>1</dim>
				</port>
				<port id="1">
					<dim>192</dim>
					<dim>1</dim>
					<dim>1</dim>
					<dim>1</dim>
				</port>
			</input>
			<output>
				<port id="2" precision="FP32">
					<dim>192</dim>
					<dim>384</dim>
					<dim>1</dim>
					<dim>1</dim>
				</port>
			</output>
		</layer>
		<layer id="412" name="Conv_75/WithoutBiases" type="Convolution" version="opset1">
			<data auto_pad="explicit" strides="1,1" dilations="1,1" pads_begin="0,0" pads_end="0,0"/>
			<rt_info>
				<attribute name="fused_names" version="0" value="Conv_75/WithoutBiases"/>
			</rt_info>
			<input>
				<port id="0">
					<dim>1</dim>
					<dim>384</dim>
					<dim>40</dim>
					<dim>40</dim>
				</port>
				<port id="1">
					<dim>192</dim>
					<dim>384</dim>
					<dim>1</dim>
…
		<edge from-layer="601" from-port="0" to-layer="611" to-port="4"/>
		<edge from-layer="597" from-port="5" to-layer="612" to-port="0"/>
		<edge from-layer="611" from-port="5" to-layer="612" to-port="1"/>
		<edge from-layer="614" from-port="0" to-layer="615" to-port="0"/>
		<edge from-layer="615" from-port="1" to-layer="616" to-port="0"/>
		<edge from-layer="613" from-port="0" to-layer="616" to-port="1"/>
		<edge from-layer="612" from-port="2" to-layer="617" to-port="0"/>
		<edge from-layer="616" from-port="2" to-layer="617" to-port="1"/>
		<edge from-layer="618" from-port="0" to-layer="619" to-port="0"/>
		<edge from-layer="617" from-port="2" to-layer="620" to-port="0"/>
		<edge from-layer="619" from-port="1" to-layer="620" to-port="1"/>
		<edge from-layer="620" from-port="2" to-layer="621" to-port="0"/>
		<edge from-layer="621" from-port="1" to-layer="622" to-port="0"/>
		<edge from-layer="24" from-port="0" to-layer="622" to-port="1"/>
		<edge from-layer="25" from-port="0" to-layer="622" to-port="2"/>
		<edge from-layer="26" from-port="0" to-layer="622" to-port="3"/>
		<edge from-layer="27" from-port="0" to-layer="622" to-port="4"/>
		<edge from-layer="624" from-port="0" to-layer="625" to-port="0"/>
		<edge from-layer="625" from-port="1" to-layer="626" to-port="0"/>
		<edge from-layer="623" from-port="0" to-layer="626" to-port="1"/>
		<edge from-layer="622" from-port="5" to-layer="627" to-port="0"/>
		<edge from-layer="626" from-port="2" to-layer="627" to-port="1"/>
		<edge from-layer="628" from-port="0" to-layer="629" to-port="0"/>
		<edge from-layer="627" from-port="2" to-layer="630" to-port="0"/>
		<edge from-layer="629" from-port="1" to-layer="630" to-port="1"/>
		<edge from-layer="630" from-port="2" to-layer="631" to-port="0"/>
		<edge from-layer="631" from-port="1" to-layer="632" to-port="0"/>
		<edge from-layer="20" from-port="0" to-layer="632" to-port="1"/>
		<edge from-layer="21" from-port="0" to-layer="632" to-port="2"/>
		<edge from-layer="22" from-port="0" to-layer="632" to-port="3"/>
		<edge from-layer="23" from-port="0" to-layer="632" to-port="4"/>
		<edge from-layer="634" from-port="0" to-layer="635" to-port="0"/>
		<edge from-layer="635" from-port="1" to-layer="636" to-port="0"/>
		<edge from-layer="633" from-port="0" to-layer="636" to-port="1"/>
		<edge from-layer="632" from-port="5" to-layer="637" to-port="0"/>
		<edge from-layer="636" from-port="2" to-layer="637" to-port="1"/>
		<edge from-layer="638" from-port="0" to-layer="639" to-port="0"/>
		<edge from-layer="637" from-port="2" to-layer="640" to-port="0"/>
		<edge from-layer="639" from-port="1" to-layer="640" to-port="1"/>
		<edge from-layer="640" from-port="2" to-layer="641" to-port="0"/>
		<edge from-layer="641" from-port="1" to-layer="642" to-port="0"/>
		<edge from-layer="16" from-port="0" to-layer="642" to-port="1"/>
		<edge from-layer="17" from-port="0" to-layer="642" to-port="2"/>
		<edge from-layer="18" from-port="0" to-layer="642" to-port="3"/>
		<edge from-layer="19" from-port="0" to-layer="642" to-port="4"/>
		<edge from-layer="652" from-port="0" to-layer="653" to-port="0"/>
		<edge from-layer="653" from-port="1" to-layer="654" to-port="0"/>
		<edge from-layer="651" from-port="0" to-layer="654" to-port="1"/>
		<edge from-layer="642" from-port="5" to-layer="655" to-port="0"/>
		<edge from-layer="654" from-port="2" to-layer="655" to-port="1"/>
		<edge from-layer="656" from-port="0" to-layer="657" to-port="0"/>
		<edge from-layer="655" from-port="2" to-layer="658" to-port="0"/>
		<edge from-layer="657" from-port="1" to-layer="658" to-port="1"/>
		<edge from-layer="658" from-port="2" to-layer="659" to-port="0"/>
		<edge from-layer="659" from-port="1" to-layer="660" to-port="0"/>
		<edge from-layer="647" from-port="0" to-layer="660" to-port="1"/>
		<edge from-layer="648" from-port="0" to-layer="660" to-port="2"/>
		<edge from-layer="649" from-port="0" to-layer="660" to-port="3"/>
		<edge from-layer="650" from-port="0" to-layer="660" to-port="4"/>
		<edge from-layer="662" from-port="0" to-layer="663" to-port="0"/>
		<edge from-layer="663" from-port="1" to-layer="664" to-port="0"/>
		<edge from-layer="661" from-port="0" to-layer="664" to-port="1"/>
		<edge from-layer="660" from-port="5" to-layer="665" to-port="0"/>
		<edge from-layer="664" from-port="2" to-layer="665" to-port="1"/>
		<edge from-layer="666" from-port="0" to-layer="667" to-port="0"/>
		<edge from-layer="665" from-port="2" to-layer="668" to-port="0"/>
		<edge from-layer="667" from-port="1" to-layer="668" to-port="1"/>
		<edge from-layer="668" from-port="2" to-layer="669" to-port="0"/>
		<edge from-layer="669" from-port="1" to-layer="670" to-port="0"/>
		<edge from-layer="643" from-port="0" to-layer="670" to-port="1"/>
		<edge from-layer="644" from-port="0" to-layer="670" to-port="2"/>
		<edge from-layer="645" from-port="0" to-layer="670" to-port="3"/>
		<edge from-layer="646" from-port="0" to-layer="670" to-port="4"/>
		<edge from-layer="642" from-port="5" to-layer="671" to-port="0"/>
		<edge from-layer="670" from-port="5" to-layer="671" to-port="1"/>
		<edge from-layer="671" from-port="2" to-layer="672" to-port="0"/>
		<edge from-layer="12" from-port="0" to-layer="672" to-port="1"/>
		<edge from-layer="13" from-port="0" to-layer="672" to-port="2"/>
		<edge from-layer="14" from-port="0" to-layer="672" to-port="3"/>
		<edge from-layer="15" from-port="0" to-layer="672" to-port="4"/>
		<edge from-layer="682" from-port="0" to-layer="683" to-port="0"/>
		<edge from-layer="683" from-port="1" to-layer="684" to-port="0"/>
		<edge from-layer="681" from-port="0" to-layer="684" to-port="1"/>
		<edge from-layer="672" from-port="5" to-layer="685" to-port="0"/>
		<edge from-layer="684" from-port="2" to-layer="685" to-port="1"/>
		<edge from-layer="686" from-port="0" to-layer="687" to-port="0"/>
		<edge from-layer="685" from-port="2" to-layer="688" to-port="0"/>
		<edge from-layer="687" from-port="1" to-layer="688" to-port="1"/>
		<edge from-layer="688" from-port="2" to-layer="689" to-port="0"/>
		<edge from-layer="689" from-port="1" to-layer="690" to-port="0"/>
		<edge from-layer="677" from-port="0" to-layer="690" to-port="1"/>
		<edge from-layer="678" from-port="0" to-layer="690" to-port="2"/>
		<edge from-layer="679" from-port="0" to-layer="690" to-port="3"/>
		<edge from-layer="680" from-port="0" to-layer="690" to-port="4"/>
		<edge from-layer="692" from-port="0" to-layer="693" to-port="0"/>
		<edge from-layer="693" from-port="1" to-layer="694" to-port="0"/>
		<edge from-layer="691" from-port="0" to-layer="694" to-port="1"/>
		<edge from-layer="690" from-port="5" to-layer="695" to-port="0"/>
		<edge from-layer="694" from-port="2" to-layer="695" to-port="1"/>
		<edge from-layer="696" from-port="0" to-layer="697" to-port="0"/>
		<edge from-layer="695" from-port="2" to-layer="698" to-port="0"/>
		<edge from-layer="697" from-port="1" to-layer="698" to-port="1"/>
		<edge from-layer="698" from-port="2" to-layer="699" to-port="0"/>
		<edge from-layer="699" from-port="1" to-layer="700" to-port="0"/>
		<edge from-layer="673" from-port="0" to-layer="700" to-port="1"/>
		<edge from-layer="674" from-port="0" to-layer="700" to-port="2"/>
		<edge from-layer="675" from-port="0" to-layer="700" to-port="3"/>
		<edge from-layer="676" from-port="0" to-layer="700" to-port="4"/>
		<edge from-layer="672" from-port="5" to-layer="701" to-port="0"/>
		<edge from-layer="700" from-port="5" to-layer="701" to-port="1"/>
		<edge from-layer="701" from-port="2" to-layer="702" to-port="0"/>
		<edge from-layer="8" from-port="0" to-layer="702" to-port="1"/>
		<edge from-layer="9" from-port="0" to-layer="702" to-port="2"/>
		<edge from-layer="10" from-port="0" to-layer="702" to-port="3"/>
		<edge from-layer="11" from-port="0" to-layer="702" to-port="4"/>
		<edge from-layer="708" from-port="0" to-layer="709" to-port="0"/>
		<edge from-layer="709" from-port="1" to-layer="710" to-port="0"/>
		<edge from-layer="707" from-port="0" to-layer="710" to-port="1"/>
		<edge from-layer="632" from-port="5" to-layer="711" to-port="0"/>
		<edge from-layer="710" from-port="2" to-layer="711" to-port="1"/>
		<edge from-layer="712" from-port="0" to-layer="713" to-port="0"/>
		<edge from-layer="711" from-port="2" to-layer="714" to-port="0"/>
		<edge from-layer="713" from-port="1" to-layer="714" to-port="1"/>
		<edge from-layer="714" from-port="2" to-layer="715" to-port="0"/>
		<edge from-layer="715" from-port="1" to-layer="716" to-port="0"/>
		<edge from-layer="703" from-port="0" to-layer="716" to-port="1"/>
		<edge from-layer="704" from-port="0" to-layer="716" to-port="2"/>
		<edge from-layer="705" from-port="0" to-layer="716" to-port="3"/>
		<edge from-layer="706" from-port="0" to-layer="716" to-port="4"/>
		<edge from-layer="702" from-port="5" to-layer="717" to-port="0"/>
		<edge from-layer="716" from-port="5" to-layer="717" to-port="1"/>
		<edge from-layer="719" from-port="0" to-layer="720" to-port="0"/>
		<edge from-layer="720" from-port="1" to-layer="721" to-port="0"/>
		<edge from-layer="718" from-port="0" to-layer="721" to-port="1"/>
		<edge from-layer="717" from-port="2" to-layer="722" to-port="0"/>
		<edge from-layer="721" from-port="2" to-layer="722" to-port="1"/>
		<edge from-layer="723" from-port="0" to-layer="724" to-port="0"/>
		<edge from-layer="722" from-port="2" to-layer="725" to-port="0"/>
		<edge from-layer="724" from-port="1" to-layer="725" to-port="1"/>
		<edge from-layer="725" from-port="2" to-layer="726" to-port="0"/>
		<edge from-layer="726" from-port="1" to-layer="727" to-port="0"/>
		<edge from-layer="4" from-port="0" to-layer="727" to-port="1"/>
		<edge from-layer="5" from-port="0" to-layer="727" to-port="2"/>
		<edge from-layer="6" from-port="0" to-layer="727" to-port="3"/>
		<edge from-layer="7" from-port="0" to-layer="727" to-port="4"/>
		<edge from-layer="729" from-port="0" to-layer="730" to-port="0"/>
		<edge from-layer="730" from-port="1" to-layer="731" to-port="0"/>
		<edge from-layer="728" from-port="0" to-layer="731" to-port="1"/>
		<edge from-layer="727" from-port="5" to-layer="732" to-port="0"/>
		<edge from-layer="731" from-port="2" to-layer="732" to-port="1"/>
		<edge from-layer="733" from-port="0" to-layer="734" to-port="0"/>
		<edge from-layer="732" from-port="2" to-layer="735" to-port="0"/>
		<edge from-layer="734" from-port="1" to-layer="735" to-port="1"/>
		<edge from-layer="735" from-port="2" to-layer="736" to-port="0"/>
		<edge from-layer="736" from-port="1" to-layer="737" to-port="0"/>
		<edge from-layer="0" from-port="0" to-layer="737" to-port="1"/>
		<edge from-layer="1" from-port="0" to-layer="737" to-port="2"/>
		<edge from-layer="2" from-port="0" to-layer="737" to-port="3"/>
		<edge from-layer="3" from-port="0" to-layer="737" to-port="4"/>
		<edge from-layer="737" from-port="5" to-layer="738" to-port="0"/>
		<edge from-layer="738" from-port="1" to-layer="740" to-port="0"/>
		<edge from-layer="740" from-port="1" to-layer="742" to-port="0"/>
		<edge from-layer="737" from-port="5" to-layer="813" to-port="0"/>
		<edge from-layer="738" from-port="1" to-layer="813" to-port="1"/>
		<edge from-layer="740" from-port="1" to-layer="813" to-port="2"/>
		<edge from-layer="742" from-port="1" to-layer="813" to-port="3"/>
		<edge from-layer="815" from-port="0" to-layer="816" to-port="0"/>
		<edge from-layer="816" from-port="1" to-layer="817" to-port="0"/>
		<edge from-layer="814" from-port="0" to-layer="817" to-port="1"/>
		<edge from-layer="813" from-port="4" to-layer="818" to-port="0"/>
		<edge from-layer="817" from-port="2" to-layer="818" to-port="1"/>
		<edge from-layer="819" from-port="0" to-layer="820" to-port="0"/>
		<edge from-layer="818" from-port="2" to-layer="821" to-port="0"/>
		<edge from-layer="820" from-port="1" to-layer="821" to-port="1"/>
		<edge from-layer="821" from-port="2" to-layer="822" to-port="0"/>
		<edge from-layer="822" from-port="1" to-layer="823" to-port="0"/>
		<edge from-layer="809" from-port="0" to-layer="823" to-port="1"/>
		<edge from-layer="810" from-port="0" to-layer="823" to-port="2"/>
		<edge from-layer="811" from-port="0" to-layer="823" to-port="3"/>
		<edge from-layer="812" from-port="0" to-layer="823" to-port="4"/>
		<edge from-layer="825" from-port="0" to-layer="826" to-port="0"/>
		<edge from-layer="826" from-port="1" to-layer="827" to-port="0"/>
		<edge from-layer="824" from-port="0" to-layer="827" to-port="1"/>
		<edge from-layer="823" from-port="5" to-layer="828" to-port="0"/>
		<edge from-layer="827" from-port="2" to-layer="828" to-port="1"/>
		<edge from-layer="829" from-port="0" to-layer="830" to-port="0"/>
		<edge from-layer="828" from-port="2" to-layer="831" to-port="0"/>
		<edge from-layer="830" from-port="1" to-layer="831" to-port="1"/>
		<edge from-layer="831" from-port="2" to-layer="832" to-port="0"/>
		<edge from-layer="832" from-port="1" to-layer="833" to-port="0"/>
		<edge from-layer="805" from-port="0" to-layer="833" to-port="1"/>
		<edge from-layer="806" from-port="0" to-layer="833" to-port="2"/>
		<edge from-layer="807" from-port="0" to-layer="833" to-port="3"/>
		<edge from-layer="808" from-port="0" to-layer="833" to-port="4"/>
		<edge from-layer="832" from-port="1" to-layer="834" to-port="0"/>
		<edge from-layer="834" from-port="1" to-layer="835" to-port="0"/>
		<edge from-layer="835" from-port="1" to-layer="836" to-port="0"/>
		<edge from-layer="772" from-port="0" to-layer="836" to-port="1"/>
		<edge from-layer="836" from-port="2" to-layer="837" to-port="0"/>
		<edge from-layer="833" from-port="5" to-layer="838" to-port="0"/>
		<edge from-layer="837" from-port="1" to-layer="838" to-port="1"/>
		<edge from-layer="772" from-port="0" to-layer="838" to-port="2"/>
		<edge from-layer="838" from-port="3" to-layer="839" to-port="0"/>
		<edge from-layer="801" from-port="0" to-layer="839" to-port="1"/>
		<edge from-layer="802" from-port="0" to-layer="839" to-port="2"/>
		<edge from-layer="803" from-port="0" to-layer="839" to-port="3"/>
		<edge from-layer="804" from-port="0" to-layer="839" to-port="4"/>
		<edge from-layer="839" from-port="5" to-layer="840" to-port="0"/>
		<edge from-layer="622" from-port="5" to-layer="840" to-port="1"/>
		<edge from-layer="842" from-port="0" to-layer="843" to-port="0"/>
		<edge from-layer="843" from-port="1" to-layer="844" to-port="0"/>
		<edge from-layer="841" from-port="0" to-layer="844" to-port="1"/>
		<edge from-layer="840" from-port="2" to-layer="845" to-port="0"/>
		<edge from-layer="844" from-port="2" to-layer="845" to-port="1"/>
		<edge from-layer="846" from-port="0" to-layer="847" to-port="0"/>
		<edge from-layer="845" from-port="2" to-layer="848" to-port="0"/>
		<edge from-layer="847" from-port="1" to-layer="848" to-port="1"/>
		<edge from-layer="848" from-port="2" to-layer="849" to-port="0"/>
		<edge from-layer="849" from-port="1" to-layer="850" to-port="0"/>
		<edge from-layer="797" from-port="0" to-layer="850" to-port="1"/>
		<edge from-layer="798" from-port="0" to-layer="850" to-port="2"/>
		<edge from-layer="799" from-port="0" to-layer="850" to-port="3"/>
		<edge from-layer="800" from-port="0" to-layer="850" to-port="4"/>
		<edge from-layer="852" from-port="0" to-layer="853" to-port="0"/>
		<edge from-layer="853" from-port="1" to-layer="854" to-port="0"/>
		<edge from-layer="851" from-port="0" to-layer="854" to-port="1"/>
		<edge from-layer="850" from-port="5" to-layer="855" to-port="0"/>
		<edge from-layer="854" from-port="2" to-layer="855" to-port="1"/>
		<edge from-layer="856" from-port="0" to-layer="857" to-port="0"/>
		<edge from-layer="855" from-port="2" to-layer="858" to-port="0"/>
		<edge from-layer="857" from-port="1" to-layer="858" to-port="1"/>
		<edge from-layer="858" from-port="2" to-layer="859" to-port="0"/>
		<edge from-layer="859" from-port="1" to-layer="860" to-port="0"/>
		<edge from-layer="793" from-port="0" to-layer="860" to-port="1"/>
		<edge from-layer="794" from-port="0" to-layer="860" to-port="2"/>
		<edge from-layer="795" from-port="0" to-layer="860" to-port="3"/>
		<edge from-layer="796" from-port="0" to-layer="860" to-port="4"/>
		<edge from-layer="862" from-port="0" to-layer="863" to-port="0"/>
		<edge from-layer="863" from-port="1" to-layer="864" to-port="0"/>
		<edge from-layer="861" from-port="0" to-layer="864" to-port="1"/>
		<edge from-layer="860" from-port="5" to-layer="865" to-port="0"/>
		<edge from-layer="864" from-port="2" to-layer="865" to-port="1"/>
		<edge from-layer="866" from-port="0" to-layer="867" to-port="0"/>
		<edge from-layer="865" from-port="2" to-layer="868" to-port="0"/>
		<edge from-layer="867" from-port="1" to-layer="868" to-port="1"/>
		<edge from-layer="868" from-port="2" to-layer="869" to-port="0"/>
		<edge from-layer="869" from-port="1" to-layer="870" to-port="0"/>
		<edge from-layer="789" from-port="0" to-layer="870" to-port="1"/>
		<edge from-layer="790" from-port="0" to-layer="870" to-port="2"/>
		<edge from-layer="791" from-port="0" to-layer="870" to-port="3"/>
		<edge from-layer="792" from-port="0" to-layer="870" to-port="4"/>
		<edge from-layer="872" from-port="0" to-layer="873" to-port="0"/>
		<edge from-layer="873" from-port="1" to-layer="874" to-port="0"/>
		<edge from-layer="871" from-port="0" to-layer="874" to-port="1"/>
		<edge from-layer="870" from-port="5" to-layer="875" to-port="0"/>
		<edge from-layer="874" from-port="2" to-layer="875" to-port="1"/>
		<edge from-layer="876" from-port="0" to-layer="877" to-port="0"/>
		<edge from-layer="875" from-port="2" to-layer="878" to-port="0"/>
		<edge from-layer="877" from-port="1" to-layer="878" to-port="1"/>
		<edge from-layer="878" from-port="2" to-layer="879" to-port="0"/>
		<edge from-layer="879" from-port="1" to-layer="880" to-port="0"/>
		<edge from-layer="785" from-port="0" to-layer="880" to-port="1"/>
		<edge from-layer="786" from-port="0" to-layer="880" to-port="2"/>
		<edge from-layer="787" from-port="0" to-layer="880" to-port="3"/>
		<edge from-layer="788" from-port="0" to-layer="880" to-port="4"/>
		<edge from-layer="882" from-port="0" to-layer="883" to-port="0"/>
		<edge from-layer="883" from-port="1" to-layer="884" to-port="0"/>
		<edge from-layer="881" from-port="0" to-layer="884" to-port="1"/>
		<edge from-layer="880" from-port="5" to-layer="885" to-port="0"/>
		<edge from-layer="884" from-port="2" to-layer="885" to-port="1"/>
		<edge from-layer="886" from-port="0" to-layer="887" to-port="0"/>
		<edge from-layer="885" from-port="2" to-layer="888" to-port="0"/>
		<edge from-layer="887" from-port="1" to-layer="888" to-port="1"/>
		<edge from-layer="888" from-port="2" to-layer="889" to-port="0"/>
		<edge from-layer="889" from-port="1" to-layer="890" to-port="0"/>
		<edge from-layer="781" from-port="0" to-layer="890" to-port="1"/>
		<edge from-layer="782" from-port="0" to-layer="890" to-port="2"/>
		<edge from-layer="783" from-port="0" to-layer="890" to-port="3"/>
		<edge from-layer="784" from-port="0" to-layer="890" to-port="4"/>
		<edge from-layer="896" from-port="0" to-layer="897" to-port="0"/>
		<edge from-layer="897" from-port="1" to-layer="898" to-port="0"/>
		<edge from-layer="895" from-port="0" to-layer="898" to-port="1"/>
		<edge from-layer="840" from-port="2" to-layer="899" to-port="0"/>
		<edge from-layer="898" from-port="2" to-layer="899" to-port="1"/>
		<edge from-layer="900" from-port="0" to-layer="901" to-port="0"/>
		<edge from-layer="899" from-port="2" to-layer="902" to-port="0"/>
		<edge from-layer="901" from-port="1" to-layer="902" to-port="1"/>
		<edge from-layer="902" from-port="2" to-layer="903" to-port="0"/>
		<edge from-layer="903" from-port="1" to-layer="904" to-port="0"/>
		<edge from-layer="891" from-port="0" to-layer="904" to-port="1"/>
		<edge from-layer="892" from-port="0" to-layer="904" to-port="2"/>
		<edge from-layer="893" from-port="0" to-layer="904" to-port="3"/>
		<edge from-layer="894" from-port="0" to-layer="904" to-port="4"/>
		<edge from-layer="890" from-port="5" to-layer="905" to-port="0"/>
		<edge from-layer="904" from-port="5" to-layer="905" to-port="1"/>
		<edge from-layer="907" from-port="0" to-layer="908" to-port="0"/>
		<edge from-layer="908" from-port="1" to-layer="909" to-port="0"/>
		<edge from-layer="906" from-port="0" to-layer="909" to-port="1"/>
		<edge from-layer="905" from-port="2" to-layer="910" to-port="0"/>
		<edge from-layer="909" from-port="2" to-layer="910" to-port="1"/>
		<edge from-layer="911" from-port="0" to-layer="912" to-port="0"/>
		<edge from-layer="910" from-port="2" to-layer="913" to-port="0"/>
		<edge from-layer="912" from-port="1" to-layer="913" to-port="1"/>
		<edge from-layer="913" from-port="2" to-layer="914" to-port="0"/>
		<edge from-layer="914" from-port="1" to-layer="915" to-port="0"/>
		<edge from-layer="777" from-port="0" to-layer="915" to-port="1"/>
		<edge from-layer="778" from-port="0" to-layer="915" to-port="2"/>
		<edge from-layer="779" from-port="0" to-layer="915" to-port="3"/>
		<edge from-layer="780" from-port="0" to-layer="915" to-port="4"/>
		<edge from-layer="917" from-port="0" to-layer="918" to-port="0"/>
		<edge from-layer="918" from-port="1" to-layer="919" to-port="0"/>
		<edge from-layer="916" from-port="0" to-layer="919" to-port="1"/>
		<edge from-layer="915" from-port="5" to-layer="920" to-port="0"/>
		<edge from-layer="919" from-port="2" to-layer="920" to-port="1"/>
		<edge from-layer="921" from-port="0" to-layer="922" to-port="0"/>
		<edge from-layer="920" from-port="2" to-layer="923" to-port="0"/>
		<edge from-layer="922" from-port="1" to-layer="923" to-port="1"/>
		<edge from-layer="923" from-port="2" to-layer="924" to-port="0"/>
		<edge from-layer="924" from-port="1" to-layer="925" to-port="0"/>
		<edge from-layer="773" from-port="0" to-layer="925" to-port="1"/>
		<edge from-layer="774" from-port="0" to-layer="925" to-port="2"/>
		<edge from-layer="775" from-port="0" to-layer="925" to-port="3"/>
		<edge from-layer="776" from-port="0" to-layer="925" to-port="4"/>
		<edge from-layer="924" from-port="1" to-layer="926" to-port="0"/>
		<edge from-layer="926" from-port="1" to-layer="927" to-port="0"/>
		<edge from-layer="927" from-port="1" to-layer="928" to-port="0"/>
		<edge from-layer="772" from-port="0" to-layer="928" to-port="1"/>
		<edge from-layer="928" from-port="2" to-layer="929" to-port="0"/>
		<edge from-layer="925" from-port="5" to-layer="930" to-port="0"/>
		<edge from-layer="929" from-port="1" to-layer="930" to-port="1"/>
		<edge from-layer="772" from-port="0" to-layer="930" to-port="2"/>
		<edge from-layer="930" from-port="3" to-layer="931" to-port="0"/>
		<edge from-layer="768" from-port="0" to-layer="931" to-port="1"/>
		<edge from-layer="769" from-port="0" to-layer="931" to-port="2"/>
		<edge from-layer="770" from-port="0" to-layer="931" to-port="3"/>
		<edge from-layer="771" from-port="0" to-layer="931" to-port="4"/>
		<edge from-layer="931" from-port="5" to-layer="932" to-port="0"/>
		<edge from-layer="397" from-port="5" to-layer="932" to-port="1"/>
		<edge from-layer="934" from-port="0" to-layer="935" to-port="0"/>
		<edge from-layer="935" from-port="1" to-layer="936" to-port="0"/>
		<edge from-layer="933" from-port="0" to-layer="936" to-port="1"/>
		<edge from-layer="932" from-port="2" to-layer="937" to-port="0"/>
		<edge from-layer="936" from-port="2" to-layer="937" to-port="1"/>
		<edge from-layer="938" from-port="0" to-layer="939" to-port="0"/>
		<edge from-layer="937" from-port="2" to-layer="940" to-port="0"/>
		<edge from-layer="939" from-port="1" to-layer="940" to-port="1"/>
		<edge from-layer="940" from-port="2" to-layer="941" to-port="0"/>
		<edge from-layer="941" from-port="1" to-layer="942" to-port="0"/>
		<edge from-layer="764" from-port="0" to-layer="942" to-port="1"/>
		<edge from-layer="765" from-port="0" to-layer="942" to-port="2"/>
		<edge from-layer="766" from-port="0" to-layer="942" to-port="3"/>
		<edge from-layer="767" from-port="0" to-layer="942" to-port="4"/>
		<edge from-layer="944" from-port="0" to-layer="945" to-port="0"/>
		<edge from-layer="945" from-port="1" to-layer="946" to-port="0"/>
		<edge from-layer="943" from-port="0" to-layer="946" to-port="1"/>
		<edge from-layer="942" from-port="5" to-layer="947" to-port="0"/>
		<edge from-layer="946" from-port="2" to-layer="947" to-port="1"/>
		<edge from-layer="948" from-port="0" to-layer="949" to-port="0"/>
		<edge from-layer="947" from-port="2" to-layer="950" to-port="0"/>
		<edge from-layer="949" from-port="1" to-layer="950" to-port="1"/>
		<edge from-layer="950" from-port="2" to-layer="951" to-port="0"/>
		<edge from-layer="951" from-port="1" to-layer="952" to-port="0"/>
		<edge from-layer="760" from-port="0" to-layer="952" to-port="1"/>
		<edge from-layer="761" from-port="0" to-layer="952" to-port="2"/>
		<edge from-layer="762" from-port="0" to-layer="952" to-port="3"/>
		<edge from-layer="763" from-port="0" to-layer="952" to-port="4"/>
		<edge from-layer="954" from-port="0" to-layer="955" to-port="0"/>
		<edge from-layer="955" from-port="1" to-layer="956" to-port="0"/>
		<edge from-layer="953" from-port="0" to-layer="956" to-port="1"/>
		<edge from-layer="952" from-port="5" to-layer="957" to-port="0"/>
		<edge from-layer="956" from-port="2" to-layer="957" to-port="1"/>
		<edge from-layer="958" from-port="0" to-layer="959" to-port="0"/>
		<edge from-layer="957" from-port="2" to-layer="960" to-port="0"/>
		<edge from-layer="959" from-port="1" to-layer="960" to-port="1"/>
		<edge from-layer="960" from-port="2" to-layer="961" to-port="0"/>
		<edge from-layer="961" from-port="1" to-layer="962" to-port="0"/>
		<edge from-layer="756" from-port="0" to-layer="962" to-port="1"/>
		<edge from-layer="757" from-port="0" to-layer="962" to-port="2"/>
		<edge from-layer="758" from-port="0" to-layer="962" to-port="3"/>
		<edge from-layer="759" from-port="0" to-layer="962" to-port="4"/>
		<edge from-layer="964" from-port="0" to-layer="965" to-port="0"/>
		<edge from-layer="965" from-port="1" to-layer="966" to-port="0"/>
		<edge from-layer="963" from-port="0" to-layer="966" to-port="1"/>
		<edge from-layer="962" from-port="5" to-layer="967" to-port="0"/>
		<edge from-layer="966" from-port="2" to-layer="967" to-port="1"/>
		<edge from-layer="968" from-port="0" to-layer="969" to-port="0"/>
		<edge from-layer="967" from-port="2" to-layer="970" to-port="0"/>
		<edge from-layer="969" from-port="1" to-layer="970" to-port="1"/>
		<edge from-layer="970" from-port="2" to-layer="971" to-port="0"/>
		<edge from-layer="971" from-port="1" to-layer="972" to-port="0"/>
		<edge from-layer="752" from-port="0" to-layer="972" to-port="1"/>
		<edge from-layer="753" from-port="0" to-layer="972" to-port="2"/>
		<edge from-layer="754" from-port="0" to-layer="972" to-port="3"/>
		<edge from-layer="755" from-port="0" to-layer="972" to-port="4"/>
		<edge from-layer="974" from-port="0" to-layer="975" to-port="0"/>
		<edge from-layer="975" from-port="1" to-layer="976" to-port="0"/>
		<edge from-layer="973" from-port="0" to-layer="976" to-port="1"/>
		<edge from-layer="972" from-port="5" to-layer="977" to-port="0"/>
		<edge from-layer="976" from-port="2" to-layer="977" to-port="1"/>
		<edge from-layer="978" from-port="0" to-layer="979" to-port="0"/>
		<edge from-layer="977" from-port="2" to-layer="980" to-port="0"/>
		<edge from-layer="979" from-port="1" to-layer="980" to-port="1"/>
		<edge from-layer="980" from-port="2" to-layer="981" to-port="0"/>
		<edge from-layer="981" from-port="1" to-layer="982" to-port="0"/>
		<edge from-layer="748" from-port="0" to-layer="982" to-port="1"/>
		<edge from-layer="749" from-port="0" to-layer="982" to-port="2"/>
		<edge from-layer="750" from-port="0" to-layer="982" to-port="3"/>
		<edge from-layer="751" from-port="0" to-layer="982" to-port="4"/>
		<edge from-layer="988" from-port="0" to-layer="989" to-port="0"/>
		<edge from-layer="989" from-port="1" to-layer="990" to-port="0"/>
		<edge from-layer="987" from-port="0" to-layer="990" to-port="1"/>
		<edge from-layer="932" from-port="2" to-layer="991" to-port="0"/>
		<edge from-layer="990" from-port="2" to-layer="991" to-port="1"/>
		<edge from-layer="992" from-port="0" to-layer="993" to-port="0"/>
		<edge from-layer="991" from-port="2" to-layer="994" to-port="0"/>
		<edge from-layer="993" from-port="1" to-layer="994" to-port="1"/>
		<edge from-layer="994" from-port="2" to-layer="995" to-port="0"/>
		<edge from-layer="995" from-port="1" to-layer="996" to-port="0"/>
		<edge from-layer="983" from-port="0" to-layer="996" to-port="1"/>
		<edge from-layer="984" from-port="0" to-layer="996" to-port="2"/>
		<edge from-layer="985" from-port="0" to-layer="996" to-port="3"/>
		<edge from-layer="986" from-port="0" to-layer="996" to-port="4"/>
		<edge from-layer="982" from-port="5" to-layer="997" to-port="0"/>
		<edge from-layer="996" from-port="5" to-layer="997" to-port="1"/>
		<edge from-layer="999" from-port="0" to-layer="1000" to-port="0"/>
		<edge from-layer="1000" from-port="1" to-layer="1001" to-port="0"/>
		<edge from-layer="998" from-port="0" to-layer="1001" to-port="1"/>
		<edge from-layer="997" from-port="2" to-layer="1002" to-port="0"/>
		<edge from-layer="1001" from-port="2" to-layer="1002" to-port="1"/>
		<edge from-layer="1003" from-port="0" to-layer="1004" to-port="0"/>
		<edge from-layer="1002" from-port="2" to-layer="1005" to-port="0"/>
		<edge from-layer="1004" from-port="1" to-layer="1005" to-port="1"/>
		<edge from-layer="1005" from-port="2" to-layer="1006" to-port="0"/>
		<edge from-layer="1006" from-port="1" to-layer="1007" to-port="0"/>
		<edge from-layer="744" from-port="0" to-layer="1007" to-port="1"/>
		<edge from-layer="745" from-port="0" to-layer="1007" to-port="2"/>
		<edge from-layer="746" from-port="0" to-layer="1007" to-port="3"/>
		<edge from-layer="747" from-port="0" to-layer="1007" to-port="4"/>
		<edge from-layer="1009" from-port="0" to-layer="1010" to-port="0"/>
		<edge from-layer="1010" from-port="1" to-layer="1011" to-port="0"/>
		<edge from-layer="1008" from-port="0" to-layer="1011" to-port="1"/>
		<edge from-layer="1007" from-port="5" to-layer="1012" to-port="0"/>
		<edge from-layer="1011" from-port="2" to-layer="1012" to-port="1"/>
		<edge from-layer="1013" from-port="0" to-layer="1014" to-port="0"/>
		<edge from-layer="1012" from-port="2" to-layer="1015" to-port="0"/>
		<edge from-layer="1014" from-port="1" to-layer="1015" to-port="1"/>
		<edge from-layer="1046" from-port="0" to-layer="1047" to-port="0"/>
		<edge from-layer="1047" from-port="1" to-layer="1048" to-port="0"/>
		<edge from-layer="1045" from-port="0" to-layer="1048" to-port="1"/>
		<edge from-layer="1007" from-port="5" to-layer="1049" to-port="0"/>
		<edge from-layer="1048" from-port="2" to-layer="1049" to-port="1"/>
		<edge from-layer="1050" from-port="0" to-layer="1051" to-port="0"/>
		<edge from-layer="1049" from-port="2" to-layer="1052" to-port="0"/>
		<edge from-layer="1051" from-port="1" to-layer="1052" to-port="1"/>
		<edge from-layer="1052" from-port="2" to-layer="1053" to-port="0"/>
		<edge from-layer="1053" from-port="1" to-layer="1054" to-port="0"/>
		<edge from-layer="1041" from-port="0" to-layer="1054" to-port="1"/>
		<edge from-layer="1042" from-port="0" to-layer="1054" to-port="2"/>
		<edge from-layer="1043" from-port="0" to-layer="1054" to-port="3"/>
		<edge from-layer="1044" from-port="0" to-layer="1054" to-port="4"/>
		<edge from-layer="1054" from-port="5" to-layer="1055" to-port="0"/>
		<edge from-layer="925" from-port="5" to-layer="1055" to-port="1"/>
		<edge from-layer="1057" from-port="0" to-layer="1058" to-port="0"/>
		<edge from-layer="1058" from-port="1" to-layer="1059" to-port="0"/>
		<edge from-layer="1056" from-port="0" to-layer="1059" to-port="1"/>
		<edge from-layer="1055" from-port="2" to-layer="1060" to-port="0"/>
		<edge from-layer="1059" from-port="2" to-layer="1060" to-port="1"/>
		<edge from-layer="1061" from-port="0" to-layer="1062" to-port="0"/>
		<edge from-layer="1060" from-port="2" to-layer="1063" to-port="0"/>
		<edge from-layer="1062" from-port="1" to-layer="1063" to-port="1"/>
		<edge from-layer="1063" from-port="2" to-layer="1064" to-port="0"/>
		<edge from-layer="1064" from-port="1" to-layer="1065" to-port="0"/>
		<edge from-layer="1037" from-port="0" to-layer="1065" to-port="1"/>
		<edge from-layer="1038" from-port="0" to-layer="1065" to-port="2"/>
		<edge from-layer="1039" from-port="0" to-layer="1065" to-port="3"/>
		<edge from-layer="1040" from-port="0" to-layer="1065" to-port="4"/>
		<edge from-layer="1067" from-port="0" to-layer="1068" to-port="0"/>
		<edge from-layer="1068" from-port="1" to-layer="1069" to-port="0"/>
		<edge from-layer="1066" from-port="0" to-layer="1069" to-port="1"/>
		<edge from-layer="1065" from-port="5" to-layer="1070" to-port="0"/>
		<edge from-layer="1069" from-port="2" to-layer="1070" to-port="1"/>
		<edge from-layer="1071" from-port="0" to-layer="1072" to-port="0"/>
		<edge from-layer="1070" from-port="2" to-layer="1073" to-port="0"/>
		<edge from-layer="1072" from-port="1" to-layer="1073" to-port="1"/>
		<edge from-layer="1073" from-port="2" to-layer="1074" to-port="0"/>
		<edge from-layer="1074" from-port="1" to-layer="1075" to-port="0"/>
		<edge from-layer="1033" from-port="0" to-layer="1075" to-port="1"/>
		<edge from-layer="1034" from-port="0" to-layer="1075" to-port="2"/>
		<edge from-layer="1035" from-port="0" to-layer="1075" to-port="3"/>
		<edge from-layer="1036" from-port="0" to-layer="1075" to-port="4"/>
		<edge from-layer="1077" from-port="0" to-layer="1078" to-port="0"/>
		<edge from-layer="1078" from-port="1" to-layer="1079" to-port="0"/>
		<edge from-layer="1076" from-port="0" to-layer="1079" to-port="1"/>
		<edge from-layer="1075" from-port="5" to-layer="1080" to-port="0"/>
		<edge from-layer="1079" from-port="2" to-layer="1080" to-port="1"/>
		<edge from-layer="1081" from-port="0" to-layer="1082" to-port="0"/>
		<edge from-layer="1080" from-port="2" to-layer="1083" to-port="0"/>
		<edge from-layer="1082" from-port="1" to-layer="1083" to-port="1"/>
		<edge from-layer="1083" from-port="2" to-layer="1084" to-port="0"/>
		<edge from-layer="1084" from-port="1" to-layer="1085" to-port="0"/>
		<edge from-layer="1029" from-port="0" to-layer="1085" to-port="1"/>
		<edge from-layer="1030" from-port="0" to-layer="1085" to-port="2"/>
		<edge from-layer="1031" from-port="0" to-layer="1085" to-port="3"/>
		<edge from-layer="1032" from-port="0" to-layer="1085" to-port="4"/>
		<edge from-layer="1087" from-port="0" to-layer="1088" to-port="0"/>
		<edge from-layer="1088" from-port="1" to-layer="1089" to-port="0"/>
		<edge from-layer="1086" from-port="0" to-layer="1089" to-port="1"/>
		<edge from-layer="1085" from-port="5" to-layer="1090" to-port="0"/>
		<edge from-layer="1089" from-port="2" to-layer="1090" to-port="1"/>
		<edge from-layer="1091" from-port="0" to-layer="1092" to-port="0"/>
		<edge from-layer="1090" from-port="2" to-layer="1093" to-port="0"/>
		<edge from-layer="1092" from-port="1" to-layer="1093" to-port="1"/>
		<edge from-layer="1093" from-port="2" to-layer="1094" to-port="0"/>
		<edge from-layer="1094" from-port="1" to-layer="1095" to-port="0"/>
		<edge from-layer="1025" from-port="0" to-layer="1095" to-port="1"/>
		<edge from-layer="1026" from-port="0" to-layer="1095" to-port="2"/>
		<edge from-layer="1027" from-port="0" to-layer="1095" to-port="3"/>
		<edge from-layer="1028" from-port="0" to-layer="1095" to-port="4"/>
		<edge from-layer="1097" from-port="0" to-layer="1098" to-port="0"/>
		<edge from-layer="1098" from-port="1" to-layer="1099" to-port="0"/>
		<edge from-layer="1096" from-port="0" to-layer="1099" to-port="1"/>
		<edge from-layer="1095" from-port="5" to-layer="1100" to-port="0"/>
		<edge from-layer="1099" from-port="2" to-layer="1100" to-port="1"/>
		<edge from-layer="1101" from-port="0" to-layer="1102" to-port="0"/>
		<edge from-layer="1100" from-port="2" to-layer="1103" to-port="0"/>
		<edge from-layer="1102" from-port="1" to-layer="1103" to-port="1"/>
		<edge from-layer="1103" from-port="2" to-layer="1104" to-port="0"/>
		<edge from-layer="1104" from-port="1" to-layer="1105" to-port="0"/>
		<edge from-layer="1021" from-port="0" to-layer="1105" to-port="1"/>
		<edge from-layer="1022" from-port="0" to-layer="1105" to-port="2"/>
		<edge from-layer="1023" from-port="0" to-layer="1105" to-port="3"/>
		<edge from-layer="1024" from-port="0" to-layer="1105" to-port="4"/>
		<edge from-layer="1111" from-port="0" to-layer="1112" to-port="0"/>
		<edge from-layer="1112" from-port="1" to-layer="1113" to-port="0"/>
		<edge from-layer="1110" from-port="0" to-layer="1113" to-port="1"/>
		<edge from-layer="1055" from-port="2" to-layer="1114" to-port="0"/>
		<edge from-layer="1113" from-port="2" to-layer="1114" to-port="1"/>
		<edge from-layer="1115" from-port="0" to-layer="1116" to-port="0"/>
		<edge from-layer="1114" from-port="2" to-layer="1117" to-port="0"/>
		<edge from-layer="1116" from-port="1" to-layer="1117" to-port="1"/>
		<edge from-layer="1117" from-port="2" to-layer="1118" to-port="0"/>
		<edge from-layer="1118" from-port="1" to-layer="1119" to-port="0"/>
		<edge from-layer="1106" from-port="0" to-layer="1119" to-port="1"/>
		<edge from-layer="1107" from-port="0" to-layer="1119" to-port="2"/>
		<edge from-layer="1108" from-port="0" to-layer="1119" to-port="3"/>
		<edge from-layer="1109" from-port="0" to-layer="1119" to-port="4"/>
		<edge from-layer="1105" from-port="5" to-layer="1120" to-port="0"/>
		<edge from-layer="1119" from-port="5" to-layer="1120" to-port="1"/>
		<edge from-layer="1122" from-port="0" to-layer="1123" to-port="0"/>
		<edge from-layer="1123" from-port="1" to-layer="1124" to-port="0"/>
		<edge from-layer="1121" from-port="0" to-layer="1124" to-port="1"/>
		<edge from-layer="1120" from-port="2" to-layer="1125" to-port="0"/>
		<edge from-layer="1124" from-port="2" to-layer="1125" to-port="1"/>
		<edge from-layer="1126" from-port="0" to-layer="1127" to-port="0"/>
		<edge from-layer="1125" from-port="2" to-layer="1128" to-port="0"/>
		<edge from-layer="1127" from-port="1" to-layer="1128" to-port="1"/>
		<edge from-layer="1128" from-port="2" to-layer="1129" to-port="0"/>
		<edge from-layer="1129" from-port="1" to-layer="1130" to-port="0"/>
		<edge from-layer="1017" from-port="0" to-layer="1130" to-port="1"/>
		<edge from-layer="1018" from-port="0" to-layer="1130" to-port="2"/>
		<edge from-layer="1019" from-port="0" to-layer="1130" to-port="3"/>
		<edge from-layer="1020" from-port="0" to-layer="1130" to-port="4"/>
		<edge from-layer="1132" from-port="0" to-layer="1133" to-port="0"/>
		<edge from-layer="1133" from-port="1" to-layer="1134" to-port="0"/>
		<edge from-layer="1131" from-port="0" to-layer="1134" to-port="1"/>
		<edge from-layer="1130" from-port="5" to-layer="1135" to-port="0"/>
		<edge from-layer="1134" from-port="2" to-layer="1135" to-port="1"/>
		<edge from-layer="1136" from-port="0" to-layer="1137" to-port="0"/>
		<edge from-layer="1135" from-port="2" to-layer="1138" to-port="0"/>
		<edge from-layer="1137" from-port="1" to-layer="1138" to-port="1"/>
		<edge from-layer="1169" from-port="0" to-layer="1170" to-port="0"/>
		<edge from-layer="1170" from-port="1" to-layer="1171" to-port="0"/>
		<edge from-layer="1168" from-port="0" to-layer="1171" to-port="1"/>
		<edge from-layer="1130" from-port="5" to-layer="1172" to-port="0"/>
		<edge from-layer="1171" from-port="2" to-layer="1172" to-port="1"/>
		<edge from-layer="1173" from-port="0" to-layer="1174" to-port="0"/>
		<edge from-layer="1172" from-port="2" to-layer="1175" to-port="0"/>
		<edge from-layer="1174" from-port="1" to-layer="1175" to-port="1"/>
		<edge from-layer="1175" from-port="2" to-layer="1176" to-port="0"/>
		<edge from-layer="1176" from-port="1" to-layer="1177" to-port="0"/>
		<edge from-layer="1164" from-port="0" to-layer="1177" to-port="1"/>
		<edge from-layer="1165" from-port="0" to-layer="1177" to-port="2"/>
		<edge from-layer="1166" from-port="0" to-layer="1177" to-port="3"/>
		<edge from-layer="1167" from-port="0" to-layer="1177" to-port="4"/>
		<edge from-layer="1177" from-port="5" to-layer="1178" to-port="0"/>
		<edge from-layer="833" from-port="5" to-layer="1178" to-port="1"/>
		<edge from-layer="1180" from-port="0" to-layer="1181" to-port="0"/>
		<edge from-layer="1181" from-port="1" to-layer="1182" to-port="0"/>
		<edge from-layer="1179" from-port="0" to-layer="1182" to-port="1"/>
		<edge from-layer="1178" from-port="2" to-layer="1183" to-port="0"/>
		<edge from-layer="1182" from-port="2" to-layer="1183" to-port="1"/>
		<edge from-layer="1184" from-port="0" to-layer="1185" to-port="0"/>
		<edge from-layer="1183" from-port="2" to-layer="1186" to-port="0"/>
		<edge from-layer="1185" from-port="1" to-layer="1186" to-port="1"/>
		<edge from-layer="1186" from-port="2" to-layer="1187" to-port="0"/>
		<edge from-layer="1187" from-port="1" to-layer="1188" to-port="0"/>
		<edge from-layer="1160" from-port="0" to-layer="1188" to-port="1"/>
		<edge from-layer="1161" from-port="0" to-layer="1188" to-port="2"/>
		<edge from-layer="1162" from-port="0" to-layer="1188" to-port="3"/>
		<edge from-layer="1163" from-port="0" to-layer="1188" to-port="4"/>
		<edge from-layer="1190" from-port="0" to-layer="1191" to-port="0"/>
		<edge from-layer="1191" from-port="1" to-layer="1192" to-port="0"/>
		<edge from-layer="1189" from-port="0" to-layer="1192" to-port="1"/>
		<edge from-layer="1188" from-port="5" to-layer="1193" to-port="0"/>
		<edge from-layer="1192" from-port="2" to-layer="1193" to-port="1"/>
		<edge from-layer="1194" from-port="0" to-layer="1195" to-port="0"/>
		<edge from-layer="1193" from-port="2" to-layer="1196" to-port="0"/>
		<edge from-layer="1195" from-port="1" to-layer="1196" to-port="1"/>
		<edge from-layer="1196" from-port="2" to-layer="1197" to-port="0"/>
		<edge from-layer="1197" from-port="1" to-layer="1198" to-port="0"/>
		<edge from-layer="1156" from-port="0" to-layer="1198" to-port="1"/>
		<edge from-layer="1157" from-port="0" to-layer="1198" to-port="2"/>
		<edge from-layer="1158" from-port="0" to-layer="1198" to-port="3"/>
		<edge from-layer="1159" from-port="0" to-layer="1198" to-port="4"/>
		<edge from-layer="1200" from-port="0" to-layer="1201" to-port="0"/>
		<edge from-layer="1201" from-port="1" to-layer="1202" to-port="0"/>
		<edge from-layer="1199" from-port="0" to-layer="1202" to-port="1"/>
		<edge from-layer="1198" from-port="5" to-layer="1203" to-port="0"/>
		<edge from-layer="1202" from-port="2" to-layer="1203" to-port="1"/>
		<edge from-layer="1204" from-port="0" to-layer="1205" to-port="0"/>
		<edge from-layer="1203" from-port="2" to-layer="1206" to-port="0"/>
		<edge from-layer="1205" from-port="1" to-layer="1206" to-port="1"/>
		<edge from-layer="1206" from-port="2" to-layer="1207" to-port="0"/>
		<edge from-layer="1207" from-port="1" to-layer="1208" to-port="0"/>
		<edge from-layer="1152" from-port="0" to-layer="1208" to-port="1"/>
		<edge from-layer="1153" from-port="0" to-layer="1208" to-port="2"/>
		<edge from-layer="1154" from-port="0" to-layer="1208" to-port="3"/>
		<edge from-layer="1155" from-port="0" to-layer="1208" to-port="4"/>
		<edge from-layer="1210" from-port="0" to-layer="1211" to-port="0"/>
		<edge from-layer="1211" from-port="1" to-layer="1212" to-port="0"/>
		<edge from-layer="1209" from-port="0" to-layer="1212" to-port="1"/>
		<edge from-layer="1208" from-port="5" to-layer="1213" to-port="0"/>
		<edge from-layer="1212" from-port="2" to-layer="1213" to-port="1"/>
		<edge from-layer="1214" from-port="0" to-layer="1215" to-port="0"/>
		<edge from-layer="1213" from-port="2" to-layer="1216" to-port="0"/>
		<edge from-layer="1215" from-port="1" to-layer="1216" to-port="1"/>
		<edge from-layer="1216" from-port="2" to-layer="1217" to-port="0"/>
		<edge from-layer="1217" from-port="1" to-layer="1218" to-port="0"/>
		<edge from-layer="1148" from-port="0" to-layer="1218" to-port="1"/>
		<edge from-layer="1149" from-port="0" to-layer="1218" to-port="2"/>
		<edge from-layer="1150" from-port="0" to-layer="1218" to-port="3"/>
		<edge from-layer="1151" from-port="0" to-layer="1218" to-port="4"/>
		<edge from-layer="1220" from-port="0" to-layer="1221" to-port="0"/>
		<edge from-layer="1221" from-port="1" to-layer="1222" to-port="0"/>
		<edge from-layer="1219" from-port="0" to-layer="1222" to-port="1"/>
		<edge from-layer="1218" from-port="5" to-layer="1223" to-port="0"/>
		<edge from-layer="1222" from-port="2" to-layer="1223" to-port="1"/>
		<edge from-layer="1224" from-port="0" to-layer="1225" to-port="0"/>
		<edge from-layer="1223" from-port="2" to-layer="1226" to-port="0"/>
		<edge from-layer="1225" from-port="1" to-layer="1226" to-port="1"/>
		<edge from-layer="1226" from-port="2" to-layer="1227" to-port="0"/>
		<edge from-layer="1227" from-port="1" to-layer="1228" to-port="0"/>
		<edge from-layer="1144" from-port="0" to-layer="1228" to-port="1"/>
		<edge from-layer="1145" from-port="0" to-layer="1228" to-port="2"/>
		<edge from-layer="1146" from-port="0" to-layer="1228" to-port="3"/>
		<edge from-layer="1147" from-port="0" to-layer="1228" to-port="4"/>
		<edge from-layer="1234" from-port="0" to-layer="1235" to-port="0"/>
		<edge from-layer="1235" from-port="1" to-layer="1236" to-port="0"/>
		<edge from-layer="1233" from-port="0" to-layer="1236" to-port="1"/>
		<edge from-layer="1178" from-port="2" to-layer="1237" to-port="0"/>
		<edge from-layer="1236" from-port="2" to-layer="1237" to-port="1"/>
		<edge from-layer="1238" from-port="0" to-layer="1239" to-port="0"/>
		<edge from-layer="1237" from-port="2" to-layer="1240" to-port="0"/>
		<edge from-layer="1239" from-port="1" to-layer="1240" to-port="1"/>
		<edge from-layer="1240" from-port="2" to-layer="1241" to-port="0"/>
		<edge from-layer="1241" from-port="1" to-layer="1242" to-port="0"/>
		<edge from-layer="1229" from-port="0" to-layer="1242" to-port="1"/>
		<edge from-layer="1230" from-port="0" to-layer="1242" to-port="2"/>
		<edge from-layer="1231" from-port="0" to-layer="1242" to-port="3"/>
		<edge from-layer="1232" from-port="0" to-layer="1242" to-port="4"/>
		<edge from-layer="1228" from-port="5" to-layer="1243" to-port="0"/>
		<edge from-layer="1242" from-port="5" to-layer="1243" to-port="1"/>
		<edge from-layer="1245" from-port="0" to-layer="1246" to-port="0"/>
		<edge from-layer="1246" from-port="1" to-layer="1247" to-port="0"/>
		<edge from-layer="1244" from-port="0" to-layer="1247" to-port="1"/>
		<edge from-layer="1243" from-port="2" to-layer="1248" to-port="0"/>
		<edge from-layer="1247" from-port="2" to-layer="1248" to-port="1"/>
		<edge from-layer="1249" from-port="0" to-layer="1250" to-port="0"/>
		<edge from-layer="1248" from-port="2" to-layer="1251" to-port="0"/>
		<edge from-layer="1250" from-port="1" to-layer="1251" to-port="1"/>
		<edge from-layer="1251" from-port="2" to-layer="1252" to-port="0"/>
		<edge from-layer="1252" from-port="1" to-layer="1253" to-port="0"/>
		<edge from-layer="1140" from-port="0" to-layer="1253" to-port="1"/>
		<edge from-layer="1141" from-port="0" to-layer="1253" to-port="2"/>
		<edge from-layer="1142" from-port="0" to-layer="1253" to-port="3"/>
		<edge from-layer="1143" from-port="0" to-layer="1253" to-port="4"/>
		<edge from-layer="1255" from-port="0" to-layer="1256" to-port="0"/>
		<edge from-layer="1256" from-port="1" to-layer="1257" to-port="0"/>
		<edge from-layer="1254" from-port="0" to-layer="1257" to-port="1"/>
		<edge from-layer="1253" from-port="5" to-layer="1258" to-port="0"/>
		<edge from-layer="1257" from-port="2" to-layer="1258" to-port="1"/>
		<edge from-layer="1259" from-port="0" to-layer="1260" to-port="0"/>
		<edge from-layer="1258" from-port="2" to-layer="1261" to-port="0"/>
		<edge from-layer="1260" from-port="1" to-layer="1261" to-port="1"/>
		<edge from-layer="1015" from-port="2" to-layer="1016" to-port="0"/>
		<edge from-layer="1138" from-port="2" to-layer="1139" to-port="0"/>
		<edge from-layer="1261" from-port="2" to-layer="1262" to-port="0"/>
	</edges>
	<rt_info>
		<quantization_parameters>
			<cli_params>
				<ac_config value="None"/>
				<data_source value="/home/openvino/yolo/val2017/"/>
				<direct_dump value="False"/>
				<engine value="simplified"/>
				<evaluate value="False"/>
				<keep_uncompressed_weights value="False"/>
				<log_level value="INFO"/>
				<max_drop value="None"/>
				<model value="/home/openvino/yolo/storage/yolov5m-640/FP16/yolov5m.xml"/>
				<name value="yolov5m"/>
				<output_dir value="PATH"/>
				<pbar value="False"/>
				<preset value="performance"/>
				<quantize value="default"/>
				<stream_output value="False"/>
				<weights value="/home/openvino/yolo/storage/yolov5m-640/FP16/yolov5m.bin"/>
			</cli_params>
			<config value="{
		'compression': {
			'target_device': 'ANY',
			'algorithms': [
				{
					'name': 'DefaultQuantization',
					'params': {
						'preset': 'performance',
						'stat_subset_size': 300
					}
				}
			]
		},
		'engine': {
			'config': '&lt;CONFIG_PATH&gt;',
			'type': 'simplified',
			'data_source': 'PATH',
			'device': 'CPU'
		}
	}"/>
			<version value="2022.3.0-9038-b84161848ea-releases/2022/3"/>
		</quantization_parameters>
	</rt_info>
	<quantization_parameters>
		<config>{
		'compression': {
			'target_device': 'ANY',
			'algorithms': [
				{
					'name': 'DefaultQuantization',
					'params': {
						'preset': 'performance',
						'stat_subset_size': 300
					}
				}
			]
		},
		'engine': {
			'config': '&lt;CONFIG_PATH&gt;',
			'type': 'simplified',
			'data_source': 'PATH',
			'device': 'CPU'
		}
	}</config>
		<version value="2022.3.0-9038-b84161848ea-releases/2022/3"/>
		<cli_params value="{'quantize': 'default', 'preset': 'performance', 'model': '/home/openvino/yolo/storage/yolov5m-640/FP16/yolov5m.xml', 'weights': '/home/openvino/yolo/storage/yolov5m-640/FP16/yolov5m.bin', 'name': 'yolov5m', 'engine': 'simplified', 'ac_config': None, 'max_drop': None, 'evaluate': False, 'output_dir': 'PATH', 'direct_dump': False, 'log_level': 'INFO', 'pbar': False, 'stream_output': False, 'keep_uncompressed_weights': False, 'data_source': '/home/openvino/yolo/val2017/'}"/>
	</quantization_parameters>
</net>
