<?xml version="1.0" ?>
<net name="efficientnet-b0" version="10">
	<layers>
		<layer id="0" name="2426243012731" type="Const" version="opset1">
			<data element_type="f16" offset="0" shape="" size="2"/>
			<output>
				<port id="0" precision="FP16"/>
			</output>
		</layer>
		<layer id="1" name="2427243112623" type="Const" version="opset1">
			<data element_type="f16" offset="2" shape="" size="2"/>
			<output>
				<port id="0" precision="FP16"/>
			</output>
		</layer>
		<layer id="2" name="2428243211378" type="Const" version="opset1">
			<data element_type="f16" offset="0" shape="" size="2"/>
			<output>
				<port id="0" precision="FP16"/>
			</output>
		</layer>
		<layer id="3" name="2429243313943" type="Const" version="opset1">
			<data element_type="f16" offset="2" shape="" size="2"/>
			<output>
				<port id="0" precision="FP16"/>
			</output>
		</layer>
		<layer id="4" name="efficientnet-b0/model/head/global_average_pooling2d/MeanGather143641864491012407" type="Const" version="opset1">
			<data element_type="i64" offset="4" shape="2" size="16"/>
			<output>
				<port id="0" precision="I64">
					<dim>2</dim>
				</port>
			</output>
		</layer>
		<layer id="5" name="2036204012581" type="Const" version="opset1">
			<data element_type="f16" offset="20" shape="" size="2"/>
			<output>
				<port id="0" precision="FP16"/>
			</output>
		</layer>
		<layer id="6" name="2037204111162" type="Const" version="opset1">
			<data element_type="f16" offset="22" shape="" size="2"/>
			<output>
				<port id="0" precision="FP16"/>
			</output>
		</layer>
		<layer id="7" name="2038204211765" type="Const" version="opset1">
			<data element_type="f16" offset="20" shape="" size="2"/>
			<output>
				<port id="0" precision="FP16"/>
			</output>
		</layer>
		<layer id="8" name="2039204313955" type="Const" version="opset1">
			<data element_type="f16" offset="22" shape="" size="2"/>
			<output>
				<port id="0" precision="FP16"/>
			</output>
		</layer>
		<layer id="9" name="2016202013391" type="Const" version="opset1">
			<data element_type="f16" offset="24" shape="" size="2"/>
			<output>
				<port id="0" precision="FP16"/>
			</output>
		</layer>
		<layer id="10" name="2017202112659" type="Const" version="opset1">
			<data element_type="f16" offset="26" shape="" size="2"/>
			<output>
				<port id="0" precision="FP16"/>
			</output>
		</layer>
		<layer id="11" name="2018202212938" type="Const" version="opset1">
			<data element_type="f16" offset="24" shape="" size="2"/>
			<output>
				<port id="0" precision="FP16"/>
			</output>
		</layer>
		<layer id="12" name="2019202312824" type="Const" version="opset1">
			<data element_type="f16" offset="26" shape="" size="2"/>
			<output>
				<port id="0" precision="FP16"/>
			</output>
		</layer>
		<layer id="13" name="2926293011957" type="Const" version="opset1">
			<data element_type="f16" offset="28" shape="" size="2"/>
			<output>
				<port id="0" precision="FP16"/>
			</output>
		</layer>
		<layer id="14" name="2927293113685" type="Const" version="opset1">
			<data element_type="f16" offset="30" shape="" size="2"/>
			<output>
				<port id="0" precision="FP16"/>
			</output>
		</layer>
		<layer id="15" name="2928293212218" type="Const" version="opset1">
			<data element_type="f16" offset="28" shape="" size="2"/>
			<output>
				<port id="0" precision="FP16"/>
			</output>
		</layer>
		<layer id="16" name="2929293314129" type="Const" version="opset1">
			<data element_type="f16" offset="30" shape="" size="2"/>
			<output>
				<port id="0" precision="FP16"/>
			</output>
		</layer>
		<layer id="17" name="2226223011804" type="Const" version="opset1">
			<data element_type="f16" offset="32" shape="" size="2"/>
			<output>
				<port id="0" precision="FP16"/>
			</output>
		</layer>
		<layer id="18" name="2227223113637" type="Const" version="opset1">
			<data element_type="f16" offset="34" shape="" size="2"/>
			<output>
				<port id="0" precision="FP16"/>
			</output>
		</layer>
		<layer id="19" name="2228223211912" type="Const" version="opset1">
			<data element_type="f16" offset="32" shape="" size="2"/>
			<output>
				<port id="0" precision="FP16"/>
			</output>
		</layer>
		<layer id="20" name="2229223312428" type="Const" version="opset1">
			<data element_type="f16" offset="34" shape="" size="2"/>
			<output>
				<port id="0" precision="FP16"/>
			</output>
		</layer>
		<layer id="21" name="3716372011642" type="Const" version="opset1">
			<data element_type="f16" offset="36" shape="" size="2"/>
			<output>
				<port id="0" precision="FP16"/>
			</output>
		</layer>
		<layer id="22" name="3717372114165" type="Const" version="opset1">
			<data element_type="f16" offset="38" shape="" size="2"/>
			<output>
				<port id="0" precision="FP16"/>
			</output>
		</layer>
		<layer id="23" name="3718372213076" type="Const" version="opset1">
			<data element_type="f16" offset="36" shape="" size="2"/>
			<output>
				<port id="0" precision="FP16"/>
			</output>
		</layer>
		<layer id="24" name="3719372312020" type="Const" version="opset1">
			<data element_type="f16" offset="38" shape="" size="2"/>
			<output>
				<port id="0" precision="FP16"/>
			</output>
		</layer>
		<layer id="25" name="1546155014126" type="Const" version="opset1">
			<data element_type="f16" offset="40" shape="" size="2"/>
			<output>
				<port id="0" precision="FP16"/>
			</output>
		</layer>
		<layer id="26" name="1547155111594" type="Const" version="opset1">
			<data element_type="f16" offset="42" shape="" size="2"/>
			<output>
				<port id="0" precision="FP16"/>
			</output>
		</layer>
		<layer id="27" name="1548155212734" type="Const" version="opset1">
			<data element_type="f16" offset="40" shape="" size="2"/>
			<output>
				<port id="0" precision="FP16"/>
			</output>
		</layer>
		<layer id="28" name="1549155313235" type="Const" version="opset1">
			<data element_type="f16" offset="42" shape="" size="2"/>
			<output>
				<port id="0" precision="FP16"/>
			</output>
		</layer>
		<layer id="29" name="128681900488813592" type="Const" version="opset1">
			<data element_type="i64" offset="4" shape="2" size="16"/>
			<output>
				<port id="0" precision="I64">
					<dim>2</dim>
				</port>
			</output>
		</layer>
		<layer id="30" name="2686269013910" type="Const" version="opset1">
			<data element_type="f16" offset="44" shape="" size="2"/>
			<output>
				<port id="0" precision="FP16"/>
			</output>
		</layer>
		<layer id="31" name="2687269113877" type="Const" version="opset1">
			<data element_type="f16" offset="46" shape="" size="2"/>
			<output>
				<port id="0" precision="FP16"/>
			</output>
		</layer>
		<layer id="32" name="2688269211402" type="Const" version="opset1">
			<data element_type="f16" offset="44" shape="" size="2"/>
			<output>
				<port id="0" precision="FP16"/>
			</output>
		</layer>
		<layer id="33" name="2689269313985" type="Const" version="opset1">
			<data element_type="f16" offset="46" shape="" size="2"/>
			<output>
				<port id="0" precision="FP16"/>
			</output>
		</layer>
		<layer id="34" name="2736274012545" type="Const" version="opset1">
			<data element_type="f16" offset="48" shape="1,1152,1,1" size="2304"/>
			<output>
				<port id="0" precision="FP16">
					<dim>1</dim>
					<dim>1152</dim>
					<dim>1</dim>
					<dim>1</dim>
				</port>
			</output>
		</layer>
		<layer id="35" name="2737274113052" type="Const" version="opset1">
			<data element_type="f16" offset="2352" shape="1,1152,1,1" size="2304"/>
			<output>
				<port id="0" precision="FP16">
					<dim>1</dim>
					<dim>1152</dim>
					<dim>1</dim>
					<dim>1</dim>
				</port>
			</output>
		</layer>
		<layer id="36" name="2738274211351" type="Const" version="opset1">
			<data element_type="f16" offset="48" shape="1,1152,1,1" size="2304"/>
			<output>
				<port id="0" precision="FP16">
					<dim>1</dim>
					<dim>1152</dim>
					<dim>1</dim>
					<dim>1</dim>
				</port>
			</output>
		</layer>
		<layer id="37" name="2739274312845" type="Const" version="opset1">
			<data element_type="f16" offset="2352" shape="1,1152,1,1" size="2304"/>
			<output>
				<port id="0" precision="FP16">
					<dim>1</dim>
					<dim>1152</dim>
					<dim>1</dim>
					<dim>1</dim>
				</port>
			</output>
		</layer>
		<layer id="38" name="1996200012161" type="Const" version="opset1">
			<data element_type="f16" offset="4656" shape="" size="2"/>
			<output>
				<port id="0" precision="FP16"/>
			</output>
		</layer>
		<layer id="39" name="1997200114018" type="Const" version="opset1">
			<data element_type="f16" offset="4658" shape="" size="2"/>
			<output>
				<port id="0" precision="FP16"/>
			</output>
		</layer>
		<layer id="40" name="1998200211843" type="Const" version="opset1">
			<data element_type="f16" offset="4656" shape="" size="2"/>
			<output>
				<port id="0" precision="FP16"/>
			</output>
		</layer>
		<layer id="41" name="1999200311168" type="Const" version="opset1">
			<data element_type="f16" offset="4658" shape="" size="2"/>
			<output>
				<port id="0" precision="FP16"/>
			</output>
		</layer>
		<layer id="42" name="1946195013145" type="Const" version="opset1">
			<data element_type="f16" offset="4660" shape="" size="2"/>
			<output>
				<port id="0" precision="FP16"/>
			</output>
		</layer>
		<layer id="43" name="1947195114171" type="Const" version="opset1">
			<data element_type="f16" offset="4662" shape="" size="2"/>
			<output>
				<port id="0" precision="FP16"/>
			</output>
		</layer>
		<layer id="44" name="1948195213547" type="Const" version="opset1">
			<data element_type="f16" offset="4660" shape="" size="2"/>
			<output>
				<port id="0" precision="FP16"/>
			</output>
		</layer>
		<layer id="45" name="1949195314114" type="Const" version="opset1">
			<data element_type="f16" offset="4662" shape="" size="2"/>
			<output>
				<port id="0" precision="FP16"/>
			</output>
		</layer>
		<layer id="46" name="1796180012368" type="Const" version="opset1">
			<data element_type="f16" offset="4664" shape="" size="2"/>
			<output>
				<port id="0" precision="FP16"/>
			</output>
		</layer>
		<layer id="47" name="1797180113529" type="Const" version="opset1">
			<data element_type="f16" offset="4666" shape="" size="2"/>
			<output>
				<port id="0" precision="FP16"/>
			</output>
		</layer>
		<layer id="48" name="1798180211153" type="Const" version="opset1">
			<data element_type="f16" offset="4664" shape="" size="2"/>
			<output>
				<port id="0" precision="FP16"/>
			</output>
		</layer>
		<layer id="49" name="1799180311336" type="Const" version="opset1">
			<data element_type="f16" offset="4666" shape="" size="2"/>
			<output>
				<port id="0" precision="FP16"/>
			</output>
		</layer>
		<layer id="50" name="1566157011414" type="Const" version="opset1">
			<data element_type="f16" offset="32" shape="" size="2"/>
			<output>
				<port id="0" precision="FP16"/>
			</output>
		</layer>
		<layer id="51" name="1567157112614" type="Const" version="opset1">
			<data element_type="f16" offset="4668" shape="" size="2"/>
			<output>
				<port id="0" precision="FP16"/>
			</output>
		</layer>
		<layer id="52" name="1568157211123" type="Const" version="opset1">
			<data element_type="f16" offset="32" shape="" size="2"/>
			<output>
				<port id="0" precision="FP16"/>
			</output>
		</layer>
		<layer id="53" name="1569157312419" type="Const" version="opset1">
			<data element_type="f16" offset="4668" shape="" size="2"/>
			<output>
				<port id="0" precision="FP16"/>
			</output>
		</layer>
		<layer id="54" name="3086309012707" type="Const" version="opset1">
			<data element_type="f16" offset="4670" shape="" size="2"/>
			<output>
				<port id="0" precision="FP16"/>
			</output>
		</layer>
		<layer id="55" name="3087309113724" type="Const" version="opset1">
			<data element_type="f16" offset="4672" shape="" size="2"/>
			<output>
				<port id="0" precision="FP16"/>
			</output>
		</layer>
		<layer id="56" name="3088309211999" type="Const" version="opset1">
			<data element_type="f16" offset="4670" shape="" size="2"/>
			<output>
				<port id="0" precision="FP16"/>
			</output>
		</layer>
		<layer id="57" name="3089309314075" type="Const" version="opset1">
			<data element_type="f16" offset="4672" shape="" size="2"/>
			<output>
				<port id="0" precision="FP16"/>
			</output>
		</layer>
		<layer id="58" name="2846285011303" type="Const" version="opset1">
			<data element_type="f16" offset="4674" shape="" size="2"/>
			<output>
				<port id="0" precision="FP16"/>
			</output>
		</layer>
		<layer id="59" name="2847285111633" type="Const" version="opset1">
			<data element_type="f16" offset="4676" shape="" size="2"/>
			<output>
				<port id="0" precision="FP16"/>
			</output>
		</layer>
		<layer id="60" name="2848285214021" type="Const" version="opset1">
			<data element_type="f16" offset="4674" shape="" size="2"/>
			<output>
				<port id="0" precision="FP16"/>
			</output>
		</layer>
		<layer id="61" name="2849285313961" type="Const" version="opset1">
			<data element_type="f16" offset="4676" shape="" size="2"/>
			<output>
				<port id="0" precision="FP16"/>
			</output>
		</layer>
		<layer id="62" name="128421865086013295" type="Const" version="opset1">
			<data element_type="i64" offset="4" shape="2" size="16"/>
			<output>
				<port id="0" precision="I64">
					<dim>2</dim>
				</port>
			</output>
		</layer>
		<layer id="63" name="3736374012350" type="Const" version="opset1">
			<data element_type="f16" offset="4678" shape="" size="2"/>
			<output>
				<port id="0" precision="FP16"/>
			</output>
		</layer>
		<layer id="64" name="3737374112854" type="Const" version="opset1">
			<data element_type="f16" offset="4680" shape="" size="2"/>
			<output>
				<port id="0" precision="FP16"/>
			</output>
		</layer>
		<layer id="65" name="3738374211825" type="Const" version="opset1">
			<data element_type="f16" offset="4678" shape="" size="2"/>
			<output>
				<port id="0" precision="FP16"/>
			</output>
		</layer>
		<layer id="66" name="3739374312644" type="Const" version="opset1">
			<data element_type="f16" offset="4680" shape="" size="2"/>
			<output>
				<port id="0" precision="FP16"/>
			</output>
		</layer>
		<layer id="67" name="2136214012485" type="Const" version="opset1">
			<data element_type="f16" offset="4682" shape="1,1152,1,1" size="2304"/>
			<output>
				<port id="0" precision="FP16">
					<dim>1</dim>
					<dim>1152</dim>
					<dim>1</dim>
					<dim>1</dim>
				</port>
			</output>
		</layer>
		<layer id="68" name="2137214113886" type="Const" version="opset1">
			<data element_type="f16" offset="6986" shape="1,1152,1,1" size="2304"/>
			<output>
				<port id="0" precision="FP16">
					<dim>1</dim>
					<dim>1152</dim>
					<dim>1</dim>
					<dim>1</dim>
				</port>
			</output>
		</layer>
		<layer id="69" name="2138214212443" type="Const" version="opset1">
			<data element_type="f16" offset="4682" shape="1,1152,1,1" size="2304"/>
			<output>
				<port id="0" precision="FP16">
					<dim>1</dim>
					<dim>1152</dim>
					<dim>1</dim>
					<dim>1</dim>
				</port>
			</output>
		</layer>
		<layer id="70" name="2139214311840" type="Const" version="opset1">
			<data element_type="f16" offset="6986" shape="1,1152,1,1" size="2304"/>
			<output>
				<port id="0" precision="FP16">
					<dim>1</dim>
					<dim>1152</dim>
					<dim>1</dim>
					<dim>1</dim>
				</port>
			</output>
		</layer>
		<layer id="71" name="1906191012932" type="Const" version="opset1">
			<data element_type="f16" offset="9290" shape="1152,1,1,1" size="2304"/>
			<output>
				<port id="0" precision="FP16">
					<dim>1152</dim>
					<dim>1</dim>
					<dim>1</dim>
					<dim>1</dim>
				</port>
			</output>
		</layer>
		<layer id="72" name="1907191111975" type="Const" version="opset1">
			<data element_type="f16" offset="11594" shape="1152,1,1,1" size="2304"/>
			<output>
				<port id="0" precision="FP16">
					<dim>1152</dim>
					<dim>1</dim>
					<dim>1</dim>
					<dim>1</dim>
				</port>
			</output>
		</layer>
		<layer id="73" name="1908191211297" type="Const" version="opset1">
			<data element_type="f16" offset="9290" shape="1152,1,1,1" size="2304"/>
			<output>
				<port id="0" precision="FP16">
					<dim>1152</dim>
					<dim>1</dim>
					<dim>1</dim>
					<dim>1</dim>
				</port>
			</output>
		</layer>
		<layer id="74" name="1909191313811" type="Const" version="opset1">
			<data element_type="f16" offset="11594" shape="1152,1,1,1" size="2304"/>
			<output>
				<port id="0" precision="FP16">
					<dim>1152</dim>
					<dim>1</dim>
					<dim>1</dim>
					<dim>1</dim>
				</port>
			</output>
		</layer>
		<layer id="75" name="efficientnet-b0/model/blocks_14/tpu_batch_normalization/batchnorm/mul_1_copy85011906" type="Const" version="opset1">
			<data element_type="f16" offset="13898" shape="1152,192,1,1" size="442368"/>
			<output>
				<port id="0" names="efficientnet-b0/blocks_14/conv2d/kernel/read:0" precision="FP16">
					<dim>1152</dim>
					<dim>192</dim>
					<dim>1</dim>
					<dim>1</dim>
				</port>
			</output>
		</layer>
		<layer id="76" name="efficientnet-b0/model/blocks_14/conv2d/Conv2D/fq_weights_1" type="FakeQuantize" version="opset1">
			<data auto_broadcast="numpy" levels="255"/>
			<input>
				<port id="0">
					<dim>1152</dim>
					<dim>192</dim>
					<dim>1</dim>
					<dim>1</dim>
				</port>
				<port id="1">
					<dim>1152</dim>
					<dim>1</dim>
					<dim>1</dim>
					<dim>1</dim>
				</port>
				<port id="2">
					<dim>1152</dim>
					<dim>1</dim>
					<dim>1</dim>
					<dim>1</dim>
				</port>
				<port id="3">
					<dim>1152</dim>
					<dim>1</dim>
					<dim>1</dim>
					<dim>1</dim>
				</port>
				<port id="4">
					<dim>1152</dim>
					<dim>1</dim>
					<dim>1</dim>
					<dim>1</dim>
				</port>
			</input>
			<output>
				<port id="5" precision="FP16">
					<dim>1152</dim>
					<dim>192</dim>
					<dim>1</dim>
					<dim>1</dim>
				</port>
			</output>
		</layer>
		<layer id="77" name="1956196013007" type="Const" version="opset1">
			<data element_type="f16" offset="456266" shape="" size="2"/>
			<output>
				<port id="0" precision="FP16"/>
			</output>
		</layer>
		<layer id="78" name="1957196113424" type="Const" version="opset1">
			<data element_type="f16" offset="456268" shape="" size="2"/>
			<output>
				<port id="0" precision="FP16"/>
			</output>
		</layer>
		<layer id="79" name="1958196212806" type="Const" version="opset1">
			<data element_type="f16" offset="456266" shape="" size="2"/>
			<output>
				<port id="0" precision="FP16"/>
			</output>
		</layer>
		<layer id="80" name="1959196313997" type="Const" version="opset1">
			<data element_type="f16" offset="456268" shape="" size="2"/>
			<output>
				<port id="0" precision="FP16"/>
			</output>
		</layer>
		<layer id="81" name="2946295014024" type="Const" version="opset1">
			<data element_type="f16" offset="456270" shape="" size="2"/>
			<output>
				<port id="0" precision="FP16"/>
			</output>
		</layer>
		<layer id="82" name="2947295113949" type="Const" version="opset1">
			<data element_type="f16" offset="456272" shape="" size="2"/>
			<output>
				<port id="0" precision="FP16"/>
			</output>
		</layer>
		<layer id="83" name="2948295211405" type="Const" version="opset1">
			<data element_type="f16" offset="456270" shape="" size="2"/>
			<output>
				<port id="0" precision="FP16"/>
			</output>
		</layer>
		<layer id="84" name="2949295312779" type="Const" version="opset1">
			<data element_type="f16" offset="456272" shape="" size="2"/>
			<output>
				<port id="0" precision="FP16"/>
			</output>
		</layer>
		<layer id="85" name="2756276011822" type="Const" version="opset1">
			<data element_type="f16" offset="456274" shape="" size="2"/>
			<output>
				<port id="0" precision="FP16"/>
			</output>
		</layer>
		<layer id="86" name="2757276111249" type="Const" version="opset1">
			<data element_type="f16" offset="456276" shape="" size="2"/>
			<output>
				<port id="0" precision="FP16"/>
			</output>
		</layer>
		<layer id="87" name="2758276211921" type="Const" version="opset1">
			<data element_type="f16" offset="456274" shape="" size="2"/>
			<output>
				<port id="0" precision="FP16"/>
			</output>
		</layer>
		<layer id="88" name="2759276313745" type="Const" version="opset1">
			<data element_type="f16" offset="456276" shape="" size="2"/>
			<output>
				<port id="0" precision="FP16"/>
			</output>
		</layer>
		<layer id="89" name="2696270011360" type="Const" version="opset1">
			<data element_type="f16" offset="32" shape="" size="2"/>
			<output>
				<port id="0" precision="FP16"/>
			</output>
		</layer>
		<layer id="90" name="2697270114030" type="Const" version="opset1">
			<data element_type="f16" offset="456278" shape="" size="2"/>
			<output>
				<port id="0" precision="FP16"/>
			</output>
		</layer>
		<layer id="91" name="2698270212767" type="Const" version="opset1">
			<data element_type="f16" offset="32" shape="" size="2"/>
			<output>
				<port id="0" precision="FP16"/>
			</output>
		</layer>
		<layer id="92" name="2699270313313" type="Const" version="opset1">
			<data element_type="f16" offset="456278" shape="" size="2"/>
			<output>
				<port id="0" precision="FP16"/>
			</output>
		</layer>
		<layer id="93" name="2606261013418" type="Const" version="opset1">
			<data element_type="f16" offset="456280" shape="" size="2"/>
			<output>
				<port id="0" precision="FP16"/>
			</output>
		</layer>
		<layer id="94" name="2607261113982" type="Const" version="opset1">
			<data element_type="f16" offset="456282" shape="" size="2"/>
			<output>
				<port id="0" precision="FP16"/>
			</output>
		</layer>
		<layer id="95" name="2608261211717" type="Const" version="opset1">
			<data element_type="f16" offset="456280" shape="" size="2"/>
			<output>
				<port id="0" precision="FP16"/>
			</output>
		</layer>
		<layer id="96" name="2609261313601" type="Const" version="opset1">
			<data element_type="f16" offset="456282" shape="" size="2"/>
			<output>
				<port id="0" precision="FP16"/>
			</output>
		</layer>
		<layer id="97" name="2486249012701" type="Const" version="opset1">
			<data element_type="f16" offset="456284" shape="" size="2"/>
			<output>
				<port id="0" precision="FP16"/>
			</output>
		</layer>
		<layer id="98" name="2487249112497" type="Const" version="opset1">
			<data element_type="f16" offset="456286" shape="" size="2"/>
			<output>
				<port id="0" precision="FP16"/>
			</output>
		</layer>
		<layer id="99" name="2488249211651" type="Const" version="opset1">
			<data element_type="f16" offset="456284" shape="" size="2"/>
			<output>
				<port id="0" precision="FP16"/>
			</output>
		</layer>
		<layer id="100" name="2489249312245" type="Const" version="opset1">
			<data element_type="f16" offset="456286" shape="" size="2"/>
			<output>
				<port id="0" precision="FP16"/>
			</output>
		</layer>
		<layer id="101" name="128161886383213322" type="Const" version="opset1">
			<data element_type="i64" offset="4" shape="2" size="16"/>
			<output>
				<port id="0" precision="I64">
					<dim>2</dim>
				</port>
			</output>
		</layer>
		<layer id="102" name="1966197012665" type="Const" version="opset1">
			<data element_type="f16" offset="456288" shape="" size="2"/>
			<output>
				<port id="0" precision="FP16"/>
			</output>
		</layer>
		<layer id="103" name="1967197113922" type="Const" version="opset1">
			<data element_type="f16" offset="456290" shape="" size="2"/>
			<output>
				<port id="0" precision="FP16"/>
			</output>
		</layer>
		<layer id="104" name="1968197211696" type="Const" version="opset1">
			<data element_type="f16" offset="456288" shape="" size="2"/>
			<output>
				<port id="0" precision="FP16"/>
			</output>
		</layer>
		<layer id="105" name="1969197312662" type="Const" version="opset1">
			<data element_type="f16" offset="456290" shape="" size="2"/>
			<output>
				<port id="0" precision="FP16"/>
			</output>
		</layer>
		<layer id="106" name="3416342012059" type="Const" version="opset1">
			<data element_type="f16" offset="456292" shape="1,1152,1,1" size="2304"/>
			<output>
				<port id="0" precision="FP16">
					<dim>1</dim>
					<dim>1152</dim>
					<dim>1</dim>
					<dim>1</dim>
				</port>
			</output>
		</layer>
		<layer id="107" name="3417342112053" type="Const" version="opset1">
			<data element_type="f16" offset="458596" shape="1,1152,1,1" size="2304"/>
			<output>
				<port id="0" precision="FP16">
					<dim>1</dim>
					<dim>1152</dim>
					<dim>1</dim>
					<dim>1</dim>
				</port>
			</output>
		</layer>
		<layer id="108" name="3418342214087" type="Const" version="opset1">
			<data element_type="f16" offset="456292" shape="1,1152,1,1" size="2304"/>
			<output>
				<port id="0" precision="FP16">
					<dim>1</dim>
					<dim>1152</dim>
					<dim>1</dim>
					<dim>1</dim>
				</port>
			</output>
		</layer>
		<layer id="109" name="3419342313019" type="Const" version="opset1">
			<data element_type="f16" offset="458596" shape="1,1152,1,1" size="2304"/>
			<output>
				<port id="0" precision="FP16">
					<dim>1</dim>
					<dim>1152</dim>
					<dim>1</dim>
					<dim>1</dim>
				</port>
			</output>
		</layer>
		<layer id="110" name="2786279012359" type="Const" version="opset1">
			<data element_type="f16" offset="460900" shape="1152,1,1,1" size="2304"/>
			<output>
				<port id="0" precision="FP16">
					<dim>1152</dim>
					<dim>1</dim>
					<dim>1</dim>
					<dim>1</dim>
				</port>
			</output>
		</layer>
		<layer id="111" name="2787279113607" type="Const" version="opset1">
			<data element_type="f16" offset="463204" shape="1152,1,1,1" size="2304"/>
			<output>
				<port id="0" precision="FP16">
					<dim>1152</dim>
					<dim>1</dim>
					<dim>1</dim>
					<dim>1</dim>
				</port>
			</output>
		</layer>
		<layer id="112" name="2788279212764" type="Const" version="opset1">
			<data element_type="f16" offset="460900" shape="1152,1,1,1" size="2304"/>
			<output>
				<port id="0" precision="FP16">
					<dim>1152</dim>
					<dim>1</dim>
					<dim>1</dim>
					<dim>1</dim>
				</port>
			</output>
		</layer>
		<layer id="113" name="2789279311747" type="Const" version="opset1">
			<data element_type="f16" offset="463204" shape="1152,1,1,1" size="2304"/>
			<output>
				<port id="0" precision="FP16">
					<dim>1152</dim>
					<dim>1</dim>
					<dim>1</dim>
					<dim>1</dim>
				</port>
			</output>
		</layer>
		<layer id="114" name="efficientnet-b0/model/blocks_13/tpu_batch_normalization/batchnorm/mul_1_copy82211381" type="Const" version="opset1">
			<data element_type="f16" offset="465508" shape="1152,192,1,1" size="442368"/>
			<output>
				<port id="0" names="efficientnet-b0/blocks_13/conv2d/kernel/read:0" precision="FP16">
					<dim>1152</dim>
					<dim>192</dim>
					<dim>1</dim>
					<dim>1</dim>
				</port>
			</output>
		</layer>
		<layer id="115" name="efficientnet-b0/model/blocks_13/conv2d/Conv2D/fq_weights_1" type="FakeQuantize" version="opset1">
			<data auto_broadcast="numpy" levels="255"/>
			<input>
				<port id="0">
					<dim>1152</dim>
					<dim>192</dim>
					<dim>1</dim>
					<dim>1</dim>
				</port>
				<port id="1">
					<dim>1152</dim>
					<dim>1</dim>
					<dim>1</dim>
					<dim>1</dim>
				</port>
				<port id="2">
					<dim>1152</dim>
					<dim>1</dim>
					<dim>1</dim>
					<dim>1</dim>
				</port>
				<port id="3">
					<dim>1152</dim>
					<dim>1</dim>
					<dim>1</dim>
					<dim>1</dim>
				</port>
				<port id="4">
					<dim>1152</dim>
					<dim>1</dim>
					<dim>1</dim>
					<dim>1</dim>
				</port>
			</input>
			<output>
				<port id="5" precision="FP16">
					<dim>1152</dim>
					<dim>192</dim>
					<dim>1</dim>
					<dim>1</dim>
				</port>
			</output>
		</layer>
		<layer id="116" name="2956296012737" type="Const" version="opset1">
			<data element_type="f16" offset="907876" shape="" size="2"/>
			<output>
				<port id="0" precision="FP16"/>
			</output>
		</layer>
		<layer id="117" name="2957296112041" type="Const" version="opset1">
			<data element_type="f16" offset="907878" shape="" size="2"/>
			<output>
				<port id="0" precision="FP16"/>
			</output>
		</layer>
		<layer id="118" name="2958296213016" type="Const" version="opset1">
			<data element_type="f16" offset="907876" shape="" size="2"/>
			<output>
				<port id="0" precision="FP16"/>
			</output>
		</layer>
		<layer id="119" name="2959296312119" type="Const" version="opset1">
			<data element_type="f16" offset="907878" shape="" size="2"/>
			<output>
				<port id="0" precision="FP16"/>
			</output>
		</layer>
		<layer id="120" name="2966297012680" type="Const" version="opset1">
			<data element_type="f16" offset="907880" shape="" size="2"/>
			<output>
				<port id="0" precision="FP16"/>
			</output>
		</layer>
		<layer id="121" name="2967297113847" type="Const" version="opset1">
			<data element_type="f16" offset="907882" shape="" size="2"/>
			<output>
				<port id="0" precision="FP16"/>
			</output>
		</layer>
		<layer id="122" name="2968297212740" type="Const" version="opset1">
			<data element_type="f16" offset="907880" shape="" size="2"/>
			<output>
				<port id="0" precision="FP16"/>
			</output>
		</layer>
		<layer id="123" name="2969297313373" type="Const" version="opset1">
			<data element_type="f16" offset="907882" shape="" size="2"/>
			<output>
				<port id="0" precision="FP16"/>
			</output>
		</layer>
		<layer id="124" name="3246325011519" type="Const" version="opset1">
			<data element_type="f16" offset="907884" shape="" size="2"/>
			<output>
				<port id="0" precision="FP16"/>
			</output>
		</layer>
		<layer id="125" name="3247325111963" type="Const" version="opset1">
			<data element_type="f16" offset="907886" shape="" size="2"/>
			<output>
				<port id="0" precision="FP16"/>
			</output>
		</layer>
		<layer id="126" name="3248325212800" type="Const" version="opset1">
			<data element_type="f16" offset="907884" shape="" size="2"/>
			<output>
				<port id="0" precision="FP16"/>
			</output>
		</layer>
		<layer id="127" name="3249325313142" type="Const" version="opset1">
			<data element_type="f16" offset="907886" shape="" size="2"/>
			<output>
				<port id="0" precision="FP16"/>
			</output>
		</layer>
		<layer id="128" name="1816182013091" type="Const" version="opset1">
			<data element_type="f16" offset="32" shape="" size="2"/>
			<output>
				<port id="0" precision="FP16"/>
			</output>
		</layer>
		<layer id="129" name="1817182113580" type="Const" version="opset1">
			<data element_type="f16" offset="907888" shape="" size="2"/>
			<output>
				<port id="0" precision="FP16"/>
			</output>
		</layer>
		<layer id="130" name="1818182213742" type="Const" version="opset1">
			<data element_type="f16" offset="32" shape="" size="2"/>
			<output>
				<port id="0" precision="FP16"/>
			</output>
		</layer>
		<layer id="131" name="1819182314105" type="Const" version="opset1">
			<data element_type="f16" offset="907888" shape="" size="2"/>
			<output>
				<port id="0" precision="FP16"/>
			</output>
		</layer>
		<layer id="132" name="2096210011903" type="Const" version="opset1">
			<data element_type="f16" offset="907890" shape="" size="2"/>
			<output>
				<port id="0" precision="FP16"/>
			</output>
		</layer>
		<layer id="133" name="2097210112206" type="Const" version="opset1">
			<data element_type="f16" offset="907892" shape="" size="2"/>
			<output>
				<port id="0" precision="FP16"/>
			</output>
		</layer>
		<layer id="134" name="2098210211255" type="Const" version="opset1">
			<data element_type="f16" offset="907890" shape="" size="2"/>
			<output>
				<port id="0" precision="FP16"/>
			</output>
		</layer>
		<layer id="135" name="2099210313157" type="Const" version="opset1">
			<data element_type="f16" offset="907892" shape="" size="2"/>
			<output>
				<port id="0" precision="FP16"/>
			</output>
		</layer>
		<layer id="136" name="1676168013400" type="Const" version="opset1">
			<data element_type="f16" offset="907894" shape="" size="2"/>
			<output>
				<port id="0" precision="FP16"/>
			</output>
		</layer>
		<layer id="137" name="1677168111126" type="Const" version="opset1">
			<data element_type="f16" offset="907896" shape="" size="2"/>
			<output>
				<port id="0" precision="FP16"/>
			</output>
		</layer>
		<layer id="138" name="1678168211834" type="Const" version="opset1">
			<data element_type="f16" offset="907894" shape="" size="2"/>
			<output>
				<port id="0" precision="FP16"/>
			</output>
		</layer>
		<layer id="139" name="1679168312026" type="Const" version="opset1">
			<data element_type="f16" offset="907896" shape="" size="2"/>
			<output>
				<port id="0" precision="FP16"/>
			</output>
		</layer>
		<layer id="140" name="127901886680413625" type="Const" version="opset1">
			<data element_type="i64" offset="4" shape="2" size="16"/>
			<output>
				<port id="0" precision="I64">
					<dim>2</dim>
				</port>
			</output>
		</layer>
		<layer id="141" name="2346235013976" type="Const" version="opset1">
			<data element_type="f16" offset="907898" shape="" size="2"/>
			<output>
				<port id="0" precision="FP16"/>
			</output>
		</layer>
		<layer id="142" name="2347235111231" type="Const" version="opset1">
			<data element_type="f16" offset="907900" shape="" size="2"/>
			<output>
				<port id="0" precision="FP16"/>
			</output>
		</layer>
		<layer id="143" name="2348235213436" type="Const" version="opset1">
			<data element_type="f16" offset="907898" shape="" size="2"/>
			<output>
				<port id="0" precision="FP16"/>
			</output>
		</layer>
		<layer id="144" name="2349235312092" type="Const" version="opset1">
			<data element_type="f16" offset="907900" shape="" size="2"/>
			<output>
				<port id="0" precision="FP16"/>
			</output>
		</layer>
		<layer id="145" name="2116212012467" type="Const" version="opset1">
			<data element_type="f16" offset="907902" shape="1,1152,1,1" size="2304"/>
			<output>
				<port id="0" precision="FP16">
					<dim>1</dim>
					<dim>1152</dim>
					<dim>1</dim>
					<dim>1</dim>
				</port>
			</output>
		</layer>
		<layer id="146" name="2117212113913" type="Const" version="opset1">
			<data element_type="f16" offset="910206" shape="1,1152,1,1" size="2304"/>
			<output>
				<port id="0" precision="FP16">
					<dim>1</dim>
					<dim>1152</dim>
					<dim>1</dim>
					<dim>1</dim>
				</port>
			</output>
		</layer>
		<layer id="147" name="2118212213004" type="Const" version="opset1">
			<data element_type="f16" offset="907902" shape="1,1152,1,1" size="2304"/>
			<output>
				<port id="0" precision="FP16">
					<dim>1</dim>
					<dim>1152</dim>
					<dim>1</dim>
					<dim>1</dim>
				</port>
			</output>
		</layer>
		<layer id="148" name="2119212311366" type="Const" version="opset1">
			<data element_type="f16" offset="910206" shape="1,1152,1,1" size="2304"/>
			<output>
				<port id="0" precision="FP16">
					<dim>1</dim>
					<dim>1152</dim>
					<dim>1</dim>
					<dim>1</dim>
				</port>
			</output>
		</layer>
		<layer id="149" name="3446345012326" type="Const" version="opset1">
			<data element_type="f16" offset="912510" shape="1152,1,1,1" size="2304"/>
			<output>
				<port id="0" precision="FP16">
					<dim>1152</dim>
					<dim>1</dim>
					<dim>1</dim>
					<dim>1</dim>
				</port>
			</output>
		</layer>
		<layer id="150" name="3447345113583" type="Const" version="opset1">
			<data element_type="f16" offset="914814" shape="1152,1,1,1" size="2304"/>
			<output>
				<port id="0" precision="FP16">
					<dim>1152</dim>
					<dim>1</dim>
					<dim>1</dim>
					<dim>1</dim>
				</port>
			</output>
		</layer>
		<layer id="151" name="3448345214186" type="Const" version="opset1">
			<data element_type="f16" offset="912510" shape="1152,1,1,1" size="2304"/>
			<output>
				<port id="0" precision="FP16">
					<dim>1152</dim>
					<dim>1</dim>
					<dim>1</dim>
					<dim>1</dim>
				</port>
			</output>
		</layer>
		<layer id="152" name="3449345311468" type="Const" version="opset1">
			<data element_type="f16" offset="914814" shape="1152,1,1,1" size="2304"/>
			<output>
				<port id="0" precision="FP16">
					<dim>1152</dim>
					<dim>1</dim>
					<dim>1</dim>
					<dim>1</dim>
				</port>
			</output>
		</layer>
		<layer id="153" name="efficientnet-b0/model/blocks_12/tpu_batch_normalization/batchnorm/mul_1_copy79412482" type="Const" version="opset1">
			<data element_type="f16" offset="917118" shape="1152,192,1,1" size="442368"/>
			<output>
				<port id="0" names="efficientnet-b0/blocks_12/conv2d/kernel/read:0" precision="FP16">
					<dim>1152</dim>
					<dim>192</dim>
					<dim>1</dim>
					<dim>1</dim>
				</port>
			</output>
		</layer>
		<layer id="154" name="efficientnet-b0/model/blocks_12/conv2d/Conv2D/fq_weights_1" type="FakeQuantize" version="opset1">
			<data auto_broadcast="numpy" levels="255"/>
			<input>
				<port id="0">
					<dim>1152</dim>
					<dim>192</dim>
					<dim>1</dim>
					<dim>1</dim>
				</port>
				<port id="1">
					<dim>1152</dim>
					<dim>1</dim>
					<dim>1</dim>
					<dim>1</dim>
				</port>
				<port id="2">
					<dim>1152</dim>
					<dim>1</dim>
					<dim>1</dim>
					<dim>1</dim>
				</port>
				<port id="3">
					<dim>1152</dim>
					<dim>1</dim>
					<dim>1</dim>
					<dim>1</dim>
				</port>
				<port id="4">
					<dim>1152</dim>
					<dim>1</dim>
					<dim>1</dim>
					<dim>1</dim>
				</port>
			</input>
			<output>
				<port id="5" precision="FP16">
					<dim>1152</dim>
					<dim>192</dim>
					<dim>1</dim>
					<dim>1</dim>
				</port>
			</output>
		</layer>
		<layer id="155" name="2976298013988" type="Const" version="opset1">
			<data element_type="f16" offset="1359486" shape="" size="2"/>
			<output>
				<port id="0" precision="FP16"/>
			</output>
		</layer>
		<layer id="156" name="2977298111270" type="Const" version="opset1">
			<data element_type="f16" offset="1359488" shape="" size="2"/>
			<output>
				<port id="0" precision="FP16"/>
			</output>
		</layer>
		<layer id="157" name="2978298211201" type="Const" version="opset1">
			<data element_type="f16" offset="1359486" shape="" size="2"/>
			<output>
				<port id="0" precision="FP16"/>
			</output>
		</layer>
		<layer id="158" name="2979298313604" type="Const" version="opset1">
			<data element_type="f16" offset="1359488" shape="" size="2"/>
			<output>
				<port id="0" precision="FP16"/>
			</output>
		</layer>
		<layer id="159" name="3696370011438" type="Const" version="opset1">
			<data element_type="f16" offset="1359490" shape="" size="2"/>
			<output>
				<port id="0" precision="FP16"/>
			</output>
		</layer>
		<layer id="160" name="3697370113670" type="Const" version="opset1">
			<data element_type="f16" offset="1359492" shape="" size="2"/>
			<output>
				<port id="0" precision="FP16"/>
			</output>
		</layer>
		<layer id="161" name="3698370212257" type="Const" version="opset1">
			<data element_type="f16" offset="1359490" shape="" size="2"/>
			<output>
				<port id="0" precision="FP16"/>
			</output>
		</layer>
		<layer id="162" name="3699370312758" type="Const" version="opset1">
			<data element_type="f16" offset="1359492" shape="" size="2"/>
			<output>
				<port id="0" precision="FP16"/>
			</output>
		</layer>
		<layer id="163" name="1836184013214" type="Const" version="opset1">
			<data element_type="f16" offset="32" shape="" size="2"/>
			<output>
				<port id="0" precision="FP16"/>
			</output>
		</layer>
		<layer id="164" name="1837184112797" type="Const" version="opset1">
			<data element_type="f16" offset="1359494" shape="" size="2"/>
			<output>
				<port id="0" precision="FP16"/>
			</output>
		</layer>
		<layer id="165" name="1838184212281" type="Const" version="opset1">
			<data element_type="f16" offset="32" shape="" size="2"/>
			<output>
				<port id="0" precision="FP16"/>
			</output>
		</layer>
		<layer id="166" name="1839184312839" type="Const" version="opset1">
			<data element_type="f16" offset="1359494" shape="" size="2"/>
			<output>
				<port id="0" precision="FP16"/>
			</output>
		</layer>
		<layer id="167" name="3006301012620" type="Const" version="opset1">
			<data element_type="f16" offset="1359496" shape="" size="2"/>
			<output>
				<port id="0" precision="FP16"/>
			</output>
		</layer>
		<layer id="168" name="3007301113970" type="Const" version="opset1">
			<data element_type="f16" offset="1359498" shape="" size="2"/>
			<output>
				<port id="0" precision="FP16"/>
			</output>
		</layer>
		<layer id="169" name="3008301213856" type="Const" version="opset1">
			<data element_type="f16" offset="1359496" shape="" size="2"/>
			<output>
				<port id="0" precision="FP16"/>
			</output>
		</layer>
		<layer id="170" name="3009301311399" type="Const" version="opset1">
			<data element_type="f16" offset="1359498" shape="" size="2"/>
			<output>
				<port id="0" precision="FP16"/>
			</output>
		</layer>
		<layer id="171" name="2816282014036" type="Const" version="opset1">
			<data element_type="f16" offset="1359500" shape="" size="2"/>
			<output>
				<port id="0" precision="FP16"/>
			</output>
		</layer>
		<layer id="172" name="2817282114084" type="Const" version="opset1">
			<data element_type="f16" offset="1359502" shape="" size="2"/>
			<output>
				<port id="0" precision="FP16"/>
			</output>
		</layer>
		<layer id="173" name="2818282212971" type="Const" version="opset1">
			<data element_type="f16" offset="1359500" shape="" size="2"/>
			<output>
				<port id="0" precision="FP16"/>
			</output>
		</layer>
		<layer id="174" name="2819282313124" type="Const" version="opset1">
			<data element_type="f16" offset="1359502" shape="" size="2"/>
			<output>
				<port id="0" precision="FP16"/>
			</output>
		</layer>
		<layer id="175" name="127641887277711654" type="Const" version="opset1">
			<data element_type="i64" offset="4" shape="2" size="16"/>
			<output>
				<port id="0" precision="I64">
					<dim>2</dim>
				</port>
			</output>
		</layer>
		<layer id="176" name="2356236012548" type="Const" version="opset1">
			<data element_type="f16" offset="1359504" shape="" size="2"/>
			<output>
				<port id="0" precision="FP16"/>
			</output>
		</layer>
		<layer id="177" name="2357236112341" type="Const" version="opset1">
			<data element_type="f16" offset="1359506" shape="" size="2"/>
			<output>
				<port id="0" precision="FP16"/>
			</output>
		</layer>
		<layer id="178" name="2358236211279" type="Const" version="opset1">
			<data element_type="f16" offset="1359504" shape="" size="2"/>
			<output>
				<port id="0" precision="FP16"/>
			</output>
		</layer>
		<layer id="179" name="2359236313241" type="Const" version="opset1">
			<data element_type="f16" offset="1359506" shape="" size="2"/>
			<output>
				<port id="0" precision="FP16"/>
			</output>
		</layer>
		<layer id="180" name="2546255013265" type="Const" version="opset1">
			<data element_type="f16" offset="1359508" shape="1,672,1,1" size="1344"/>
			<output>
				<port id="0" precision="FP16">
					<dim>1</dim>
					<dim>672</dim>
					<dim>1</dim>
					<dim>1</dim>
				</port>
			</output>
		</layer>
		<layer id="181" name="2547255112431" type="Const" version="opset1">
			<data element_type="f16" offset="1360852" shape="1,672,1,1" size="1344"/>
			<output>
				<port id="0" precision="FP16">
					<dim>1</dim>
					<dim>672</dim>
					<dim>1</dim>
					<dim>1</dim>
				</port>
			</output>
		</layer>
		<layer id="182" name="2548255211789" type="Const" version="opset1">
			<data element_type="f16" offset="1359508" shape="1,672,1,1" size="1344"/>
			<output>
				<port id="0" precision="FP16">
					<dim>1</dim>
					<dim>672</dim>
					<dim>1</dim>
					<dim>1</dim>
				</port>
			</output>
		</layer>
		<layer id="183" name="2549255313340" type="Const" version="opset1">
			<data element_type="f16" offset="1360852" shape="1,672,1,1" size="1344"/>
			<output>
				<port id="0" precision="FP16">
					<dim>1</dim>
					<dim>672</dim>
					<dim>1</dim>
					<dim>1</dim>
				</port>
			</output>
		</layer>
		<layer id="184" name="1486149013112" type="Const" version="opset1">
			<data element_type="f16" offset="1362196" shape="" size="2"/>
			<output>
				<port id="0" precision="FP16"/>
			</output>
		</layer>
		<layer id="185" name="1487149112362" type="Const" version="opset1">
			<data element_type="f16" offset="1362198" shape="" size="2"/>
			<output>
				<port id="0" precision="FP16"/>
			</output>
		</layer>
		<layer id="186" name="1488149211636" type="Const" version="opset1">
			<data element_type="f16" offset="1362196" shape="" size="2"/>
			<output>
				<port id="0" precision="FP16"/>
			</output>
		</layer>
		<layer id="187" name="1489149313310" type="Const" version="opset1">
			<data element_type="f16" offset="1362198" shape="" size="2"/>
			<output>
				<port id="0" precision="FP16"/>
			</output>
		</layer>
		<layer id="188" name="2466247012608" type="Const" version="opset1">
			<data element_type="f16" offset="1362200" shape="" size="2"/>
			<output>
				<port id="0" precision="FP16"/>
			</output>
		</layer>
		<layer id="189" name="2467247112014" type="Const" version="opset1">
			<data element_type="f16" offset="1362202" shape="" size="2"/>
			<output>
				<port id="0" precision="FP16"/>
			</output>
		</layer>
		<layer id="190" name="2468247212185" type="Const" version="opset1">
			<data element_type="f16" offset="1362200" shape="" size="2"/>
			<output>
				<port id="0" precision="FP16"/>
			</output>
		</layer>
		<layer id="191" name="2469247313862" type="Const" version="opset1">
			<data element_type="f16" offset="1362202" shape="" size="2"/>
			<output>
				<port id="0" precision="FP16"/>
			</output>
		</layer>
		<layer id="192" name="2566257011228" type="Const" version="opset1">
			<data element_type="f16" offset="1362204" shape="" size="2"/>
			<output>
				<port id="0" precision="FP16"/>
			</output>
		</layer>
		<layer id="193" name="2567257112299" type="Const" version="opset1">
			<data element_type="f16" offset="1362206" shape="" size="2"/>
			<output>
				<port id="0" precision="FP16"/>
			</output>
		</layer>
		<layer id="194" name="2568257213544" type="Const" version="opset1">
			<data element_type="f16" offset="1362204" shape="" size="2"/>
			<output>
				<port id="0" precision="FP16"/>
			</output>
		</layer>
		<layer id="195" name="2569257311555" type="Const" version="opset1">
			<data element_type="f16" offset="1362206" shape="" size="2"/>
			<output>
				<port id="0" precision="FP16"/>
			</output>
		</layer>
		<layer id="196" name="2626263013814" type="Const" version="opset1">
			<data element_type="f16" offset="32" shape="" size="2"/>
			<output>
				<port id="0" precision="FP16"/>
			</output>
		</layer>
		<layer id="197" name="2627263113700" type="Const" version="opset1">
			<data element_type="f16" offset="1362208" shape="" size="2"/>
			<output>
				<port id="0" precision="FP16"/>
			</output>
		</layer>
		<layer id="198" name="2628263211660" type="Const" version="opset1">
			<data element_type="f16" offset="32" shape="" size="2"/>
			<output>
				<port id="0" precision="FP16"/>
			</output>
		</layer>
		<layer id="199" name="2629263311432" type="Const" version="opset1">
			<data element_type="f16" offset="1362208" shape="" size="2"/>
			<output>
				<port id="0" precision="FP16"/>
			</output>
		</layer>
		<layer id="200" name="1736174011423" type="Const" version="opset1">
			<data element_type="f16" offset="1362210" shape="" size="2"/>
			<output>
				<port id="0" precision="FP16"/>
			</output>
		</layer>
		<layer id="201" name="1737174113010" type="Const" version="opset1">
			<data element_type="f16" offset="1362212" shape="" size="2"/>
			<output>
				<port id="0" precision="FP16"/>
			</output>
		</layer>
		<layer id="202" name="1738174214117" type="Const" version="opset1">
			<data element_type="f16" offset="1362210" shape="" size="2"/>
			<output>
				<port id="0" precision="FP16"/>
			</output>
		</layer>
		<layer id="203" name="1739174311588" type="Const" version="opset1">
			<data element_type="f16" offset="1362212" shape="" size="2"/>
			<output>
				<port id="0" precision="FP16"/>
			</output>
		</layer>
		<layer id="204" name="3166317012227" type="Const" version="opset1">
			<data element_type="f16" offset="1362214" shape="" size="2"/>
			<output>
				<port id="0" precision="FP16"/>
			</output>
		</layer>
		<layer id="205" name="3167317111894" type="Const" version="opset1">
			<data element_type="f16" offset="1362216" shape="" size="2"/>
			<output>
				<port id="0" precision="FP16"/>
			</output>
		</layer>
		<layer id="206" name="3168317211576" type="Const" version="opset1">
			<data element_type="f16" offset="1362214" shape="" size="2"/>
			<output>
				<port id="0" precision="FP16"/>
			</output>
		</layer>
		<layer id="207" name="3169317313991" type="Const" version="opset1">
			<data element_type="f16" offset="1362216" shape="" size="2"/>
			<output>
				<port id="0" precision="FP16"/>
			</output>
		</layer>
		<layer id="208" name="127381879774911807" type="Const" version="opset1">
			<data element_type="i64" offset="4" shape="2" size="16"/>
			<output>
				<port id="0" precision="I64">
					<dim>2</dim>
				</port>
			</output>
		</layer>
		<layer id="209" name="3746375011720" type="Const" version="opset1">
			<data element_type="f16" offset="1362218" shape="" size="2"/>
			<output>
				<port id="0" precision="FP16"/>
			</output>
		</layer>
		<layer id="210" name="3747375111252" type="Const" version="opset1">
			<data element_type="f16" offset="1362220" shape="" size="2"/>
			<output>
				<port id="0" precision="FP16"/>
			</output>
		</layer>
		<layer id="211" name="3748375211612" type="Const" version="opset1">
			<data element_type="f16" offset="1362218" shape="" size="2"/>
			<output>
				<port id="0" precision="FP16"/>
			</output>
		</layer>
		<layer id="212" name="3749375312395" type="Const" version="opset1">
			<data element_type="f16" offset="1362220" shape="" size="2"/>
			<output>
				<port id="0" precision="FP16"/>
			</output>
		</layer>
		<layer id="213" name="1716172011171" type="Const" version="opset1">
			<data element_type="f16" offset="1362222" shape="1,672,1,1" size="1344"/>
			<output>
				<port id="0" precision="FP16">
					<dim>1</dim>
					<dim>672</dim>
					<dim>1</dim>
					<dim>1</dim>
				</port>
			</output>
		</layer>
		<layer id="214" name="1717172111495" type="Const" version="opset1">
			<data element_type="f16" offset="1363566" shape="1,672,1,1" size="1344"/>
			<output>
				<port id="0" precision="FP16">
					<dim>1</dim>
					<dim>672</dim>
					<dim>1</dim>
					<dim>1</dim>
				</port>
			</output>
		</layer>
		<layer id="215" name="1718172213730" type="Const" version="opset1">
			<data element_type="f16" offset="1362222" shape="1,672,1,1" size="1344"/>
			<output>
				<port id="0" precision="FP16">
					<dim>1</dim>
					<dim>672</dim>
					<dim>1</dim>
					<dim>1</dim>
				</port>
			</output>
		</layer>
		<layer id="216" name="1719172313469" type="Const" version="opset1">
			<data element_type="f16" offset="1363566" shape="1,672,1,1" size="1344"/>
			<output>
				<port id="0" precision="FP16">
					<dim>1</dim>
					<dim>672</dim>
					<dim>1</dim>
					<dim>1</dim>
				</port>
			</output>
		</layer>
		<layer id="217" name="2296230011885" type="Const" version="opset1">
			<data element_type="f16" offset="1364910" shape="672,1,1,1" size="1344"/>
			<output>
				<port id="0" precision="FP16">
					<dim>672</dim>
					<dim>1</dim>
					<dim>1</dim>
					<dim>1</dim>
				</port>
			</output>
		</layer>
		<layer id="218" name="2297230113478" type="Const" version="opset1">
			<data element_type="f16" offset="1366254" shape="672,1,1,1" size="1344"/>
			<output>
				<port id="0" precision="FP16">
					<dim>672</dim>
					<dim>1</dim>
					<dim>1</dim>
					<dim>1</dim>
				</port>
			</output>
		</layer>
		<layer id="219" name="2298230211564" type="Const" version="opset1">
			<data element_type="f16" offset="1364910" shape="672,1,1,1" size="1344"/>
			<output>
				<port id="0" precision="FP16">
					<dim>672</dim>
					<dim>1</dim>
					<dim>1</dim>
					<dim>1</dim>
				</port>
			</output>
		</layer>
		<layer id="220" name="2299230313106" type="Const" version="opset1">
			<data element_type="f16" offset="1366254" shape="672,1,1,1" size="1344"/>
			<output>
				<port id="0" precision="FP16">
					<dim>672</dim>
					<dim>1</dim>
					<dim>1</dim>
					<dim>1</dim>
				</port>
			</output>
		</layer>
		<layer id="221" name="efficientnet-b0/model/blocks_10/tpu_batch_normalization/batchnorm/mul_1_copy73912863" type="Const" version="opset1">
			<data element_type="f16" offset="1367598" shape="672,112,1,1" size="150528"/>
			<output>
				<port id="0" names="efficientnet-b0/blocks_10/conv2d/kernel/read:0" precision="FP16">
					<dim>672</dim>
					<dim>112</dim>
					<dim>1</dim>
					<dim>1</dim>
				</port>
			</output>
		</layer>
		<layer id="222" name="efficientnet-b0/model/blocks_10/conv2d/Conv2D/fq_weights_1" type="FakeQuantize" version="opset1">
			<data auto_broadcast="numpy" levels="255"/>
			<input>
				<port id="0">
					<dim>672</dim>
					<dim>112</dim>
					<dim>1</dim>
					<dim>1</dim>
				</port>
				<port id="1">
					<dim>672</dim>
					<dim>1</dim>
					<dim>1</dim>
					<dim>1</dim>
				</port>
				<port id="2">
					<dim>672</dim>
					<dim>1</dim>
					<dim>1</dim>
					<dim>1</dim>
				</port>
				<port id="3">
					<dim>672</dim>
					<dim>1</dim>
					<dim>1</dim>
					<dim>1</dim>
				</port>
				<port id="4">
					<dim>672</dim>
					<dim>1</dim>
					<dim>1</dim>
					<dim>1</dim>
				</port>
			</input>
			<output>
				<port id="5" precision="FP16">
					<dim>672</dim>
					<dim>112</dim>
					<dim>1</dim>
					<dim>1</dim>
				</port>
			</output>
		</layer>
		<layer id="223" name="2476248012446" type="Const" version="opset1">
			<data element_type="f16" offset="1518126" shape="" size="2"/>
			<output>
				<port id="0" precision="FP16"/>
			</output>
		</layer>
		<layer id="224" name="2477248113634" type="Const" version="opset1">
			<data element_type="f16" offset="1518128" shape="" size="2"/>
			<output>
				<port id="0" precision="FP16"/>
			</output>
		</layer>
		<layer id="225" name="2478248212104" type="Const" version="opset1">
			<data element_type="f16" offset="1518126" shape="" size="2"/>
			<output>
				<port id="0" precision="FP16"/>
			</output>
		</layer>
		<layer id="226" name="2479248311492" type="Const" version="opset1">
			<data element_type="f16" offset="1518128" shape="" size="2"/>
			<output>
				<port id="0" precision="FP16"/>
			</output>
		</layer>
		<layer id="227" name="1916192011489" type="Const" version="opset1">
			<data element_type="f16" offset="1518130" shape="" size="2"/>
			<output>
				<port id="0" precision="FP16"/>
			</output>
		</layer>
		<layer id="228" name="1917192112785" type="Const" version="opset1">
			<data element_type="f16" offset="1518132" shape="" size="2"/>
			<output>
				<port id="0" precision="FP16"/>
			</output>
		</layer>
		<layer id="229" name="1918192212686" type="Const" version="opset1">
			<data element_type="f16" offset="1518130" shape="" size="2"/>
			<output>
				<port id="0" precision="FP16"/>
			</output>
		</layer>
		<layer id="230" name="1919192312224" type="Const" version="opset1">
			<data element_type="f16" offset="1518132" shape="" size="2"/>
			<output>
				<port id="0" precision="FP16"/>
			</output>
		</layer>
		<layer id="231" name="3146315012791" type="Const" version="opset1">
			<data element_type="f16" offset="1518134" shape="" size="2"/>
			<output>
				<port id="0" precision="FP16"/>
			</output>
		</layer>
		<layer id="232" name="3147315111174" type="Const" version="opset1">
			<data element_type="f16" offset="1518136" shape="" size="2"/>
			<output>
				<port id="0" precision="FP16"/>
			</output>
		</layer>
		<layer id="233" name="3148315212401" type="Const" version="opset1">
			<data element_type="f16" offset="1518134" shape="" size="2"/>
			<output>
				<port id="0" precision="FP16"/>
			</output>
		</layer>
		<layer id="234" name="3149315312023" type="Const" version="opset1">
			<data element_type="f16" offset="1518136" shape="" size="2"/>
			<output>
				<port id="0" precision="FP16"/>
			</output>
		</layer>
		<layer id="235" name="3496350011462" type="Const" version="opset1">
			<data element_type="f16" offset="32" shape="" size="2"/>
			<output>
				<port id="0" precision="FP16"/>
			</output>
		</layer>
		<layer id="236" name="3497350112953" type="Const" version="opset1">
			<data element_type="f16" offset="1518138" shape="" size="2"/>
			<output>
				<port id="0" precision="FP16"/>
			</output>
		</layer>
		<layer id="237" name="3498350211846" type="Const" version="opset1">
			<data element_type="f16" offset="32" shape="" size="2"/>
			<output>
				<port id="0" precision="FP16"/>
			</output>
		</layer>
		<layer id="238" name="3499350312851" type="Const" version="opset1">
			<data element_type="f16" offset="1518138" shape="" size="2"/>
			<output>
				<port id="0" precision="FP16"/>
			</output>
		</layer>
		<layer id="239" name="2886289012617" type="Const" version="opset1">
			<data element_type="f16" offset="1518140" shape="" size="2"/>
			<output>
				<port id="0" precision="FP16"/>
			</output>
		</layer>
		<layer id="240" name="2887289114057" type="Const" version="opset1">
			<data element_type="f16" offset="1518142" shape="" size="2"/>
			<output>
				<port id="0" precision="FP16"/>
			</output>
		</layer>
		<layer id="241" name="2888289212584" type="Const" version="opset1">
			<data element_type="f16" offset="1518140" shape="" size="2"/>
			<output>
				<port id="0" precision="FP16"/>
			</output>
		</layer>
		<layer id="242" name="2889289312122" type="Const" version="opset1">
			<data element_type="f16" offset="1518142" shape="" size="2"/>
			<output>
				<port id="0" precision="FP16"/>
			</output>
		</layer>
		<layer id="243" name="3266327012035" type="Const" version="opset1">
			<data element_type="f16" offset="1518144" shape="" size="2"/>
			<output>
				<port id="0" precision="FP16"/>
			</output>
		</layer>
		<layer id="244" name="3267327111852" type="Const" version="opset1">
			<data element_type="f16" offset="1518146" shape="" size="2"/>
			<output>
				<port id="0" precision="FP16"/>
			</output>
		</layer>
		<layer id="245" name="3268327211291" type="Const" version="opset1">
			<data element_type="f16" offset="1518144" shape="" size="2"/>
			<output>
				<port id="0" precision="FP16"/>
			</output>
		</layer>
		<layer id="246" name="3269327312296" type="Const" version="opset1">
			<data element_type="f16" offset="1518146" shape="" size="2"/>
			<output>
				<port id="0" precision="FP16"/>
			</output>
		</layer>
		<layer id="247" name="127121871972111375" type="Const" version="opset1">
			<data element_type="i64" offset="4" shape="2" size="16"/>
			<output>
				<port id="0" precision="I64">
					<dim>2</dim>
				</port>
			</output>
		</layer>
		<layer id="248" name="2836284014180" type="Const" version="opset1">
			<data element_type="f16" offset="1518148" shape="" size="2"/>
			<output>
				<port id="0" precision="FP16"/>
			</output>
		</layer>
		<layer id="249" name="2837284111306" type="Const" version="opset1">
			<data element_type="f16" offset="1518150" shape="" size="2"/>
			<output>
				<port id="0" precision="FP16"/>
			</output>
		</layer>
		<layer id="250" name="2838284212878" type="Const" version="opset1">
			<data element_type="f16" offset="1518148" shape="" size="2"/>
			<output>
				<port id="0" precision="FP16"/>
			</output>
		</layer>
		<layer id="251" name="2839284314150" type="Const" version="opset1">
			<data element_type="f16" offset="1518150" shape="" size="2"/>
			<output>
				<port id="0" precision="FP16"/>
			</output>
		</layer>
		<layer id="252" name="2406241013490" type="Const" version="opset1">
			<data element_type="f16" offset="1518152" shape="1,672,1,1" size="1344"/>
			<output>
				<port id="0" precision="FP16">
					<dim>1</dim>
					<dim>672</dim>
					<dim>1</dim>
					<dim>1</dim>
				</port>
			</output>
		</layer>
		<layer id="253" name="2407241112551" type="Const" version="opset1">
			<data element_type="f16" offset="1519496" shape="1,672,1,1" size="1344"/>
			<output>
				<port id="0" precision="FP16">
					<dim>1</dim>
					<dim>672</dim>
					<dim>1</dim>
					<dim>1</dim>
				</port>
			</output>
		</layer>
		<layer id="254" name="2408241213022" type="Const" version="opset1">
			<data element_type="f16" offset="1518152" shape="1,672,1,1" size="1344"/>
			<output>
				<port id="0" precision="FP16">
					<dim>1</dim>
					<dim>672</dim>
					<dim>1</dim>
					<dim>1</dim>
				</port>
			</output>
		</layer>
		<layer id="255" name="2409241311552" type="Const" version="opset1">
			<data element_type="f16" offset="1519496" shape="1,672,1,1" size="1344"/>
			<output>
				<port id="0" precision="FP16">
					<dim>1</dim>
					<dim>672</dim>
					<dim>1</dim>
					<dim>1</dim>
				</port>
			</output>
		</layer>
		<layer id="256" name="1616162014009" type="Const" version="opset1">
			<data element_type="f16" offset="1520840" shape="672,1,1,1" size="1344"/>
			<output>
				<port id="0" precision="FP16">
					<dim>672</dim>
					<dim>1</dim>
					<dim>1</dim>
					<dim>1</dim>
				</port>
			</output>
		</layer>
		<layer id="257" name="1617162111516" type="Const" version="opset1">
			<data element_type="f16" offset="1522184" shape="672,1,1,1" size="1344"/>
			<output>
				<port id="0" precision="FP16">
					<dim>672</dim>
					<dim>1</dim>
					<dim>1</dim>
					<dim>1</dim>
				</port>
			</output>
		</layer>
		<layer id="258" name="1618162212632" type="Const" version="opset1">
			<data element_type="f16" offset="1520840" shape="672,1,1,1" size="1344"/>
			<output>
				<port id="0" precision="FP16">
					<dim>672</dim>
					<dim>1</dim>
					<dim>1</dim>
					<dim>1</dim>
				</port>
			</output>
		</layer>
		<layer id="259" name="1619162313460" type="Const" version="opset1">
			<data element_type="f16" offset="1522184" shape="672,1,1,1" size="1344"/>
			<output>
				<port id="0" precision="FP16">
					<dim>672</dim>
					<dim>1</dim>
					<dim>1</dim>
					<dim>1</dim>
				</port>
			</output>
		</layer>
		<layer id="260" name="efficientnet-b0/model/blocks_9/tpu_batch_normalization/batchnorm/mul_1_copy71112230" type="Const" version="opset1">
			<data element_type="f16" offset="1523528" shape="672,112,1,1" size="150528"/>
			<output>
				<port id="0" names="efficientnet-b0/blocks_9/conv2d/kernel/read:0" precision="FP16">
					<dim>672</dim>
					<dim>112</dim>
					<dim>1</dim>
					<dim>1</dim>
				</port>
			</output>
		</layer>
		<layer id="261" name="efficientnet-b0/model/blocks_9/conv2d/Conv2D/fq_weights_1" type="FakeQuantize" version="opset1">
			<data auto_broadcast="numpy" levels="255"/>
			<input>
				<port id="0">
					<dim>672</dim>
					<dim>112</dim>
					<dim>1</dim>
					<dim>1</dim>
				</port>
				<port id="1">
					<dim>672</dim>
					<dim>1</dim>
					<dim>1</dim>
					<dim>1</dim>
				</port>
				<port id="2">
					<dim>672</dim>
					<dim>1</dim>
					<dim>1</dim>
					<dim>1</dim>
				</port>
				<port id="3">
					<dim>672</dim>
					<dim>1</dim>
					<dim>1</dim>
					<dim>1</dim>
				</port>
				<port id="4">
					<dim>672</dim>
					<dim>1</dim>
					<dim>1</dim>
					<dim>1</dim>
				</port>
			</input>
			<output>
				<port id="5" precision="FP16">
					<dim>672</dim>
					<dim>112</dim>
					<dim>1</dim>
					<dim>1</dim>
				</port>
			</output>
		</layer>
		<layer id="262" name="1926193013115" type="Const" version="opset1">
			<data element_type="f16" offset="1674056" shape="" size="2"/>
			<output>
				<port id="0" precision="FP16"/>
			</output>
		</layer>
		<layer id="263" name="1927193114045" type="Const" version="opset1">
			<data element_type="f16" offset="1674058" shape="" size="2"/>
			<output>
				<port id="0" precision="FP16"/>
			</output>
		</layer>
		<layer id="264" name="1928193212311" type="Const" version="opset1">
			<data element_type="f16" offset="1674056" shape="" size="2"/>
			<output>
				<port id="0" precision="FP16"/>
			</output>
		</layer>
		<layer id="265" name="1929193312365" type="Const" version="opset1">
			<data element_type="f16" offset="1674058" shape="" size="2"/>
			<output>
				<port id="0" precision="FP16"/>
			</output>
		</layer>
		<layer id="266" name="3106311011570" type="Const" version="opset1">
			<data element_type="f16" offset="1674060" shape="" size="2"/>
			<output>
				<port id="0" precision="FP16"/>
			</output>
		</layer>
		<layer id="267" name="3107311111573" type="Const" version="opset1">
			<data element_type="f16" offset="1674062" shape="" size="2"/>
			<output>
				<port id="0" precision="FP16"/>
			</output>
		</layer>
		<layer id="268" name="3108311212323" type="Const" version="opset1">
			<data element_type="f16" offset="1674060" shape="" size="2"/>
			<output>
				<port id="0" precision="FP16"/>
			</output>
		</layer>
		<layer id="269" name="3109311313550" type="Const" version="opset1">
			<data element_type="f16" offset="1674062" shape="" size="2"/>
			<output>
				<port id="0" precision="FP16"/>
			</output>
		</layer>
		<layer id="270" name="3376338012974" type="Const" version="opset1">
			<data element_type="f16" offset="32" shape="" size="2"/>
			<output>
				<port id="0" precision="FP16"/>
			</output>
		</layer>
		<layer id="271" name="3377338113931" type="Const" version="opset1">
			<data element_type="f16" offset="1362208" shape="" size="2"/>
			<output>
				<port id="0" precision="FP16"/>
			</output>
		</layer>
		<layer id="272" name="3378338212320" type="Const" version="opset1">
			<data element_type="f16" offset="32" shape="" size="2"/>
			<output>
				<port id="0" precision="FP16"/>
			</output>
		</layer>
		<layer id="273" name="3379338312371" type="Const" version="opset1">
			<data element_type="f16" offset="1362208" shape="" size="2"/>
			<output>
				<port id="0" precision="FP16"/>
			</output>
		</layer>
		<layer id="274" name="3616362013181" type="Const" version="opset1">
			<data element_type="f16" offset="1674064" shape="" size="2"/>
			<output>
				<port id="0" precision="FP16"/>
			</output>
		</layer>
		<layer id="275" name="3617362112116" type="Const" version="opset1">
			<data element_type="f16" offset="1674066" shape="" size="2"/>
			<output>
				<port id="0" precision="FP16"/>
			</output>
		</layer>
		<layer id="276" name="3618362212182" type="Const" version="opset1">
			<data element_type="f16" offset="1674064" shape="" size="2"/>
			<output>
				<port id="0" precision="FP16"/>
			</output>
		</layer>
		<layer id="277" name="3619362311444" type="Const" version="opset1">
			<data element_type="f16" offset="1674066" shape="" size="2"/>
			<output>
				<port id="0" precision="FP16"/>
			</output>
		</layer>
		<layer id="278" name="3216322012770" type="Const" version="opset1">
			<data element_type="f16" offset="1674068" shape="" size="2"/>
			<output>
				<port id="0" precision="FP16"/>
			</output>
		</layer>
		<layer id="279" name="3217322111450" type="Const" version="opset1">
			<data element_type="f16" offset="1674070" shape="" size="2"/>
			<output>
				<port id="0" precision="FP16"/>
			</output>
		</layer>
		<layer id="280" name="3218322212599" type="Const" version="opset1">
			<data element_type="f16" offset="1674068" shape="" size="2"/>
			<output>
				<port id="0" precision="FP16"/>
			</output>
		</layer>
		<layer id="281" name="3219322311849" type="Const" version="opset1">
			<data element_type="f16" offset="1674070" shape="" size="2"/>
			<output>
				<port id="0" precision="FP16"/>
			</output>
		</layer>
		<layer id="282" name="126861894469411927" type="Const" version="opset1">
			<data element_type="i64" offset="4" shape="2" size="16"/>
			<output>
				<port id="0" precision="I64">
					<dim>2</dim>
				</port>
			</output>
		</layer>
		<layer id="283" name="1626163013445" type="Const" version="opset1">
			<data element_type="f16" offset="1674072" shape="" size="2"/>
			<output>
				<port id="0" precision="FP16"/>
			</output>
		</layer>
		<layer id="284" name="1627163112005" type="Const" version="opset1">
			<data element_type="f16" offset="1674074" shape="" size="2"/>
			<output>
				<port id="0" precision="FP16"/>
			</output>
		</layer>
		<layer id="285" name="1628163212473" type="Const" version="opset1">
			<data element_type="f16" offset="1674072" shape="" size="2"/>
			<output>
				<port id="0" precision="FP16"/>
			</output>
		</layer>
		<layer id="286" name="1629163314141" type="Const" version="opset1">
			<data element_type="f16" offset="1674074" shape="" size="2"/>
			<output>
				<port id="0" precision="FP16"/>
			</output>
		</layer>
		<layer id="287" name="2366237013217" type="Const" version="opset1">
			<data element_type="f16" offset="1674076" shape="1,480,1,1" size="960"/>
			<output>
				<port id="0" precision="FP16">
					<dim>1</dim>
					<dim>480</dim>
					<dim>1</dim>
					<dim>1</dim>
				</port>
			</output>
		</layer>
		<layer id="288" name="2367237111735" type="Const" version="opset1">
			<data element_type="f16" offset="1675036" shape="1,480,1,1" size="960"/>
			<output>
				<port id="0" precision="FP16">
					<dim>1</dim>
					<dim>480</dim>
					<dim>1</dim>
					<dim>1</dim>
				</port>
			</output>
		</layer>
		<layer id="289" name="2368237211546" type="Const" version="opset1">
			<data element_type="f16" offset="1674076" shape="1,480,1,1" size="960"/>
			<output>
				<port id="0" precision="FP16">
					<dim>1</dim>
					<dim>480</dim>
					<dim>1</dim>
					<dim>1</dim>
				</port>
			</output>
		</layer>
		<layer id="290" name="2369237314132" type="Const" version="opset1">
			<data element_type="f16" offset="1675036" shape="1,480,1,1" size="960"/>
			<output>
				<port id="0" precision="FP16">
					<dim>1</dim>
					<dim>480</dim>
					<dim>1</dim>
					<dim>1</dim>
				</port>
			</output>
		</layer>
		<layer id="291" name="2586259014054" type="Const" version="opset1">
			<data element_type="f16" offset="1675996" shape="" size="2"/>
			<output>
				<port id="0" precision="FP16"/>
			</output>
		</layer>
		<layer id="292" name="2587259114069" type="Const" version="opset1">
			<data element_type="f16" offset="1675998" shape="" size="2"/>
			<output>
				<port id="0" precision="FP16"/>
			</output>
		</layer>
		<layer id="293" name="2588259211837" type="Const" version="opset1">
			<data element_type="f16" offset="1675996" shape="" size="2"/>
			<output>
				<port id="0" precision="FP16"/>
			</output>
		</layer>
		<layer id="294" name="2589259312947" type="Const" version="opset1">
			<data element_type="f16" offset="1675998" shape="" size="2"/>
			<output>
				<port id="0" precision="FP16"/>
			</output>
		</layer>
		<layer id="295" name="2666267011864" type="Const" version="opset1">
			<data element_type="f16" offset="1676000" shape="" size="2"/>
			<output>
				<port id="0" precision="FP16"/>
			</output>
		</layer>
		<layer id="296" name="2667267113169" type="Const" version="opset1">
			<data element_type="f16" offset="1676002" shape="" size="2"/>
			<output>
				<port id="0" precision="FP16"/>
			</output>
		</layer>
		<layer id="297" name="2668267211300" type="Const" version="opset1">
			<data element_type="f16" offset="1676000" shape="" size="2"/>
			<output>
				<port id="0" precision="FP16"/>
			</output>
		</layer>
		<layer id="298" name="2669267311762" type="Const" version="opset1">
			<data element_type="f16" offset="1676002" shape="" size="2"/>
			<output>
				<port id="0" precision="FP16"/>
			</output>
		</layer>
		<layer id="299" name="3396340012917" type="Const" version="opset1">
			<data element_type="f16" offset="1676004" shape="" size="2"/>
			<output>
				<port id="0" precision="FP16"/>
			</output>
		</layer>
		<layer id="300" name="3397340113100" type="Const" version="opset1">
			<data element_type="f16" offset="1676006" shape="" size="2"/>
			<output>
				<port id="0" precision="FP16"/>
			</output>
		</layer>
		<layer id="301" name="3398340211144" type="Const" version="opset1">
			<data element_type="f16" offset="1676004" shape="" size="2"/>
			<output>
				<port id="0" precision="FP16"/>
			</output>
		</layer>
		<layer id="302" name="3399340311549" type="Const" version="opset1">
			<data element_type="f16" offset="1676006" shape="" size="2"/>
			<output>
				<port id="0" precision="FP16"/>
			</output>
		</layer>
		<layer id="303" name="3066307014153" type="Const" version="opset1">
			<data element_type="f16" offset="32" shape="" size="2"/>
			<output>
				<port id="0" precision="FP16"/>
			</output>
		</layer>
		<layer id="304" name="3067307111606" type="Const" version="opset1">
			<data element_type="f16" offset="1676008" shape="" size="2"/>
			<output>
				<port id="0" precision="FP16"/>
			</output>
		</layer>
		<layer id="305" name="3068307211969" type="Const" version="opset1">
			<data element_type="f16" offset="32" shape="" size="2"/>
			<output>
				<port id="0" precision="FP16"/>
			</output>
		</layer>
		<layer id="306" name="3069307312404" type="Const" version="opset1">
			<data element_type="f16" offset="1676008" shape="" size="2"/>
			<output>
				<port id="0" precision="FP16"/>
			</output>
		</layer>
		<layer id="307" name="1526153013505" type="Const" version="opset1">
			<data element_type="f16" offset="1676010" shape="" size="2"/>
			<output>
				<port id="0" precision="FP16"/>
			</output>
		</layer>
		<layer id="308" name="1527153113328" type="Const" version="opset1">
			<data element_type="f16" offset="1676012" shape="" size="2"/>
			<output>
				<port id="0" precision="FP16"/>
			</output>
		</layer>
		<layer id="309" name="1528153212125" type="Const" version="opset1">
			<data element_type="f16" offset="1676010" shape="" size="2"/>
			<output>
				<port id="0" precision="FP16"/>
			</output>
		</layer>
		<layer id="310" name="1529153312017" type="Const" version="opset1">
			<data element_type="f16" offset="1676012" shape="" size="2"/>
			<output>
				<port id="0" precision="FP16"/>
			</output>
		</layer>
		<layer id="311" name="3046305013628" type="Const" version="opset1">
			<data element_type="f16" offset="1676014" shape="" size="2"/>
			<output>
				<port id="0" precision="FP16"/>
			</output>
		</layer>
		<layer id="312" name="3047305111243" type="Const" version="opset1">
			<data element_type="f16" offset="1676016" shape="" size="2"/>
			<output>
				<port id="0" precision="FP16"/>
			</output>
		</layer>
		<layer id="313" name="3048305213484" type="Const" version="opset1">
			<data element_type="f16" offset="1676014" shape="" size="2"/>
			<output>
				<port id="0" precision="FP16"/>
			</output>
		</layer>
		<layer id="314" name="3049305313211" type="Const" version="opset1">
			<data element_type="f16" offset="1676016" shape="" size="2"/>
			<output>
				<port id="0" precision="FP16"/>
			</output>
		</layer>
		<layer id="315" name="126601878566612176" type="Const" version="opset1">
			<data element_type="i64" offset="4" shape="2" size="16"/>
			<output>
				<port id="0" precision="I64">
					<dim>2</dim>
				</port>
			</output>
		</layer>
		<layer id="316" name="3326333011177" type="Const" version="opset1">
			<data element_type="f16" offset="1676018" shape="" size="2"/>
			<output>
				<port id="0" precision="FP16"/>
			</output>
		</layer>
		<layer id="317" name="3327333113739" type="Const" version="opset1">
			<data element_type="f16" offset="1676020" shape="" size="2"/>
			<output>
				<port id="0" precision="FP16"/>
			</output>
		</layer>
		<layer id="318" name="3328333213787" type="Const" version="opset1">
			<data element_type="f16" offset="1676018" shape="" size="2"/>
			<output>
				<port id="0" precision="FP16"/>
			</output>
		</layer>
		<layer id="319" name="3329333314168" type="Const" version="opset1">
			<data element_type="f16" offset="1676020" shape="" size="2"/>
			<output>
				<port id="0" precision="FP16"/>
			</output>
		</layer>
		<layer id="320" name="3676368014015" type="Const" version="opset1">
			<data element_type="f16" offset="1676022" shape="1,480,1,1" size="960"/>
			<output>
				<port id="0" precision="FP16">
					<dim>1</dim>
					<dim>480</dim>
					<dim>1</dim>
					<dim>1</dim>
				</port>
			</output>
		</layer>
		<layer id="321" name="3677368111978" type="Const" version="opset1">
			<data element_type="f16" offset="1676982" shape="1,480,1,1" size="960"/>
			<output>
				<port id="0" precision="FP16">
					<dim>1</dim>
					<dim>480</dim>
					<dim>1</dim>
					<dim>1</dim>
				</port>
			</output>
		</layer>
		<layer id="322" name="3678368212587" type="Const" version="opset1">
			<data element_type="f16" offset="1676022" shape="1,480,1,1" size="960"/>
			<output>
				<port id="0" precision="FP16">
					<dim>1</dim>
					<dim>480</dim>
					<dim>1</dim>
					<dim>1</dim>
				</port>
			</output>
		</layer>
		<layer id="323" name="3679368313883" type="Const" version="opset1">
			<data element_type="f16" offset="1676982" shape="1,480,1,1" size="960"/>
			<output>
				<port id="0" precision="FP16">
					<dim>1</dim>
					<dim>480</dim>
					<dim>1</dim>
					<dim>1</dim>
				</port>
			</output>
		</layer>
		<layer id="324" name="2726273011522" type="Const" version="opset1">
			<data element_type="f16" offset="1677942" shape="480,1,1,1" size="960"/>
			<output>
				<port id="0" precision="FP16">
					<dim>480</dim>
					<dim>1</dim>
					<dim>1</dim>
					<dim>1</dim>
				</port>
			</output>
		</layer>
		<layer id="325" name="2727273112836" type="Const" version="opset1">
			<data element_type="f16" offset="1678902" shape="480,1,1,1" size="960"/>
			<output>
				<port id="0" precision="FP16">
					<dim>480</dim>
					<dim>1</dim>
					<dim>1</dim>
					<dim>1</dim>
				</port>
			</output>
		</layer>
		<layer id="326" name="2728273211942" type="Const" version="opset1">
			<data element_type="f16" offset="1677942" shape="480,1,1,1" size="960"/>
			<output>
				<port id="0" precision="FP16">
					<dim>480</dim>
					<dim>1</dim>
					<dim>1</dim>
					<dim>1</dim>
				</port>
			</output>
		</layer>
		<layer id="327" name="2729273313172" type="Const" version="opset1">
			<data element_type="f16" offset="1678902" shape="480,1,1,1" size="960"/>
			<output>
				<port id="0" precision="FP16">
					<dim>480</dim>
					<dim>1</dim>
					<dim>1</dim>
					<dim>1</dim>
				</port>
			</output>
		</layer>
		<layer id="328" name="efficientnet-b0/model/blocks_7/tpu_batch_normalization/batchnorm/mul_1_copy65612671" type="Const" version="opset1">
			<data element_type="f16" offset="1679862" shape="480,80,1,1" size="76800"/>
			<output>
				<port id="0" names="efficientnet-b0/blocks_7/conv2d/kernel/read:0" precision="FP16">
					<dim>480</dim>
					<dim>80</dim>
					<dim>1</dim>
					<dim>1</dim>
				</port>
			</output>
		</layer>
		<layer id="329" name="efficientnet-b0/model/blocks_7/conv2d/Conv2D/fq_weights_1" type="FakeQuantize" version="opset1">
			<data auto_broadcast="numpy" levels="255"/>
			<input>
				<port id="0">
					<dim>480</dim>
					<dim>80</dim>
					<dim>1</dim>
					<dim>1</dim>
				</port>
				<port id="1">
					<dim>480</dim>
					<dim>1</dim>
					<dim>1</dim>
					<dim>1</dim>
				</port>
				<port id="2">
					<dim>480</dim>
					<dim>1</dim>
					<dim>1</dim>
					<dim>1</dim>
				</port>
				<port id="3">
					<dim>480</dim>
					<dim>1</dim>
					<dim>1</dim>
					<dim>1</dim>
				</port>
				<port id="4">
					<dim>480</dim>
					<dim>1</dim>
					<dim>1</dim>
					<dim>1</dim>
				</port>
			</input>
			<output>
				<port id="5" precision="FP16">
					<dim>480</dim>
					<dim>80</dim>
					<dim>1</dim>
					<dim>1</dim>
				</port>
			</output>
		</layer>
		<layer id="330" name="2676268013094" type="Const" version="opset1">
			<data element_type="f16" offset="1756662" shape="" size="2"/>
			<output>
				<port id="0" precision="FP16"/>
			</output>
		</layer>
		<layer id="331" name="2677268113220" type="Const" version="opset1">
			<data element_type="f16" offset="1756664" shape="" size="2"/>
			<output>
				<port id="0" precision="FP16"/>
			</output>
		</layer>
		<layer id="332" name="2678268211639" type="Const" version="opset1">
			<data element_type="f16" offset="1756662" shape="" size="2"/>
			<output>
				<port id="0" precision="FP16"/>
			</output>
		</layer>
		<layer id="333" name="2679268313286" type="Const" version="opset1">
			<data element_type="f16" offset="1756664" shape="" size="2"/>
			<output>
				<port id="0" precision="FP16"/>
			</output>
		</layer>
		<layer id="334" name="2326233012503" type="Const" version="opset1">
			<data element_type="f16" offset="1756666" shape="" size="2"/>
			<output>
				<port id="0" precision="FP16"/>
			</output>
		</layer>
		<layer id="335" name="2327233112506" type="Const" version="opset1">
			<data element_type="f16" offset="1756668" shape="" size="2"/>
			<output>
				<port id="0" precision="FP16"/>
			</output>
		</layer>
		<layer id="336" name="2328233213256" type="Const" version="opset1">
			<data element_type="f16" offset="1756666" shape="" size="2"/>
			<output>
				<port id="0" precision="FP16"/>
			</output>
		</layer>
		<layer id="337" name="2329233311237" type="Const" version="opset1">
			<data element_type="f16" offset="1756668" shape="" size="2"/>
			<output>
				<port id="0" precision="FP16"/>
			</output>
		</layer>
		<layer id="338" name="2156216014102" type="Const" version="opset1">
			<data element_type="f16" offset="1756670" shape="" size="2"/>
			<output>
				<port id="0" precision="FP16"/>
			</output>
		</layer>
		<layer id="339" name="2157216113034" type="Const" version="opset1">
			<data element_type="f16" offset="1756672" shape="" size="2"/>
			<output>
				<port id="0" precision="FP16"/>
			</output>
		</layer>
		<layer id="340" name="2158216211282" type="Const" version="opset1">
			<data element_type="f16" offset="1756670" shape="" size="2"/>
			<output>
				<port id="0" precision="FP16"/>
			</output>
		</layer>
		<layer id="341" name="2159216313202" type="Const" version="opset1">
			<data element_type="f16" offset="1756672" shape="" size="2"/>
			<output>
				<port id="0" precision="FP16"/>
			</output>
		</layer>
		<layer id="342" name="3286329011183" type="Const" version="opset1">
			<data element_type="f16" offset="32" shape="" size="2"/>
			<output>
				<port id="0" precision="FP16"/>
			</output>
		</layer>
		<layer id="343" name="3287329111390" type="Const" version="opset1">
			<data element_type="f16" offset="1756674" shape="" size="2"/>
			<output>
				<port id="0" precision="FP16"/>
			</output>
		</layer>
		<layer id="344" name="3288329213679" type="Const" version="opset1">
			<data element_type="f16" offset="32" shape="" size="2"/>
			<output>
				<port id="0" precision="FP16"/>
			</output>
		</layer>
		<layer id="345" name="3289329313673" type="Const" version="opset1">
			<data element_type="f16" offset="1756674" shape="" size="2"/>
			<output>
				<port id="0" precision="FP16"/>
			</output>
		</layer>
		<layer id="346" name="3306331013763" type="Const" version="opset1">
			<data element_type="f16" offset="1756676" shape="" size="2"/>
			<output>
				<port id="0" precision="FP16"/>
			</output>
		</layer>
		<layer id="347" name="3307331112134" type="Const" version="opset1">
			<data element_type="f16" offset="1756678" shape="" size="2"/>
			<output>
				<port id="0" precision="FP16"/>
			</output>
		</layer>
		<layer id="348" name="3308331212668" type="Const" version="opset1">
			<data element_type="f16" offset="1756676" shape="" size="2"/>
			<output>
				<port id="0" precision="FP16"/>
			</output>
		</layer>
		<layer id="349" name="3309331312146" type="Const" version="opset1">
			<data element_type="f16" offset="1756678" shape="" size="2"/>
			<output>
				<port id="0" precision="FP16"/>
			</output>
		</layer>
		<layer id="350" name="1656166011930" type="Const" version="opset1">
			<data element_type="f16" offset="1756680" shape="" size="2"/>
			<output>
				<port id="0" precision="FP16"/>
			</output>
		</layer>
		<layer id="351" name="1657166113562" type="Const" version="opset1">
			<data element_type="f16" offset="1756682" shape="" size="2"/>
			<output>
				<port id="0" precision="FP16"/>
			</output>
		</layer>
		<layer id="352" name="1658166213613" type="Const" version="opset1">
			<data element_type="f16" offset="1756680" shape="" size="2"/>
			<output>
				<port id="0" precision="FP16"/>
			</output>
		</layer>
		<layer id="353" name="1659166312086" type="Const" version="opset1">
			<data element_type="f16" offset="1756682" shape="" size="2"/>
			<output>
				<port id="0" precision="FP16"/>
			</output>
		</layer>
		<layer id="354" name="126341884263813457" type="Const" version="opset1">
			<data element_type="i64" offset="4" shape="2" size="16"/>
			<output>
				<port id="0" precision="I64">
					<dim>2</dim>
				</port>
			</output>
		</layer>
		<layer id="355" name="2216222013733" type="Const" version="opset1">
			<data element_type="f16" offset="1756684" shape="" size="2"/>
			<output>
				<port id="0" precision="FP16"/>
			</output>
		</layer>
		<layer id="356" name="2217222113736" type="Const" version="opset1">
			<data element_type="f16" offset="1756686" shape="" size="2"/>
			<output>
				<port id="0" precision="FP16"/>
			</output>
		</layer>
		<layer id="357" name="2218222213952" type="Const" version="opset1">
			<data element_type="f16" offset="1756684" shape="" size="2"/>
			<output>
				<port id="0" precision="FP16"/>
			</output>
		</layer>
		<layer id="358" name="2219222313421" type="Const" version="opset1">
			<data element_type="f16" offset="1756686" shape="" size="2"/>
			<output>
				<port id="0" precision="FP16"/>
			</output>
		</layer>
		<layer id="359" name="1506151011600" type="Const" version="opset1">
			<data element_type="f16" offset="1756688" shape="1,480,1,1" size="960"/>
			<output>
				<port id="0" precision="FP16">
					<dim>1</dim>
					<dim>480</dim>
					<dim>1</dim>
					<dim>1</dim>
				</port>
			</output>
		</layer>
		<layer id="360" name="1507151113454" type="Const" version="opset1">
			<data element_type="f16" offset="1757648" shape="1,480,1,1" size="960"/>
			<output>
				<port id="0" precision="FP16">
					<dim>1</dim>
					<dim>480</dim>
					<dim>1</dim>
					<dim>1</dim>
				</port>
			</output>
		</layer>
		<layer id="361" name="1508151213196" type="Const" version="opset1">
			<data element_type="f16" offset="1756688" shape="1,480,1,1" size="960"/>
			<output>
				<port id="0" precision="FP16">
					<dim>1</dim>
					<dim>480</dim>
					<dim>1</dim>
					<dim>1</dim>
				</port>
			</output>
		</layer>
		<layer id="362" name="1509151312593" type="Const" version="opset1">
			<data element_type="f16" offset="1757648" shape="1,480,1,1" size="960"/>
			<output>
				<port id="0" precision="FP16">
					<dim>1</dim>
					<dim>480</dim>
					<dim>1</dim>
					<dim>1</dim>
				</port>
			</output>
		</layer>
		<layer id="363" name="2996300012572" type="Const" version="opset1">
			<data element_type="f16" offset="1758608" shape="480,1,1,1" size="960"/>
			<output>
				<port id="0" precision="FP16">
					<dim>480</dim>
					<dim>1</dim>
					<dim>1</dim>
					<dim>1</dim>
				</port>
			</output>
		</layer>
		<layer id="364" name="2997300111768" type="Const" version="opset1">
			<data element_type="f16" offset="1759568" shape="480,1,1,1" size="960"/>
			<output>
				<port id="0" precision="FP16">
					<dim>480</dim>
					<dim>1</dim>
					<dim>1</dim>
					<dim>1</dim>
				</port>
			</output>
		</layer>
		<layer id="365" name="2998300213292" type="Const" version="opset1">
			<data element_type="f16" offset="1758608" shape="480,1,1,1" size="960"/>
			<output>
				<port id="0" precision="FP16">
					<dim>480</dim>
					<dim>1</dim>
					<dim>1</dim>
					<dim>1</dim>
				</port>
			</output>
		</layer>
		<layer id="366" name="2999300311435" type="Const" version="opset1">
			<data element_type="f16" offset="1759568" shape="480,1,1,1" size="960"/>
			<output>
				<port id="0" precision="FP16">
					<dim>480</dim>
					<dim>1</dim>
					<dim>1</dim>
					<dim>1</dim>
				</port>
			</output>
		</layer>
		<layer id="367" name="efficientnet-b0/model/blocks_6/tpu_batch_normalization/batchnorm/mul_1_copy62813643" type="Const" version="opset1">
			<data element_type="f16" offset="1760528" shape="480,80,1,1" size="76800"/>
			<output>
				<port id="0" names="efficientnet-b0/blocks_6/conv2d/kernel/read:0" precision="FP16">
					<dim>480</dim>
					<dim>80</dim>
					<dim>1</dim>
					<dim>1</dim>
				</port>
			</output>
		</layer>
		<layer id="368" name="efficientnet-b0/model/blocks_6/conv2d/Conv2D/fq_weights_1" type="FakeQuantize" version="opset1">
			<data auto_broadcast="numpy" levels="255"/>
			<input>
				<port id="0">
					<dim>480</dim>
					<dim>80</dim>
					<dim>1</dim>
					<dim>1</dim>
				</port>
				<port id="1">
					<dim>480</dim>
					<dim>1</dim>
					<dim>1</dim>
					<dim>1</dim>
				</port>
				<port id="2">
					<dim>480</dim>
					<dim>1</dim>
					<dim>1</dim>
					<dim>1</dim>
				</port>
				<port id="3">
					<dim>480</dim>
					<dim>1</dim>
					<dim>1</dim>
					<dim>1</dim>
				</port>
				<port id="4">
					<dim>480</dim>
					<dim>1</dim>
					<dim>1</dim>
					<dim>1</dim>
				</port>
			</input>
			<output>
				<port id="5" precision="FP16">
					<dim>480</dim>
					<dim>80</dim>
					<dim>1</dim>
					<dim>1</dim>
				</port>
			</output>
		</layer>
		<layer id="369" name="2336234012893" type="Const" version="opset1">
			<data element_type="f16" offset="1837328" shape="" size="2"/>
			<output>
				<port id="0" precision="FP16"/>
			</output>
		</layer>
		<layer id="370" name="2337234112335" type="Const" version="opset1">
			<data element_type="f16" offset="1837330" shape="" size="2"/>
			<output>
				<port id="0" precision="FP16"/>
			</output>
		</layer>
		<layer id="371" name="2338234212080" type="Const" version="opset1">
			<data element_type="f16" offset="1837328" shape="" size="2"/>
			<output>
				<port id="0" precision="FP16"/>
			</output>
		</layer>
		<layer id="372" name="2339234312305" type="Const" version="opset1">
			<data element_type="f16" offset="1837330" shape="" size="2"/>
			<output>
				<port id="0" precision="FP16"/>
			</output>
		</layer>
		<layer id="373" name="3576358013622" type="Const" version="opset1">
			<data element_type="f16" offset="1837332" shape="" size="2"/>
			<output>
				<port id="0" precision="FP16"/>
			</output>
		</layer>
		<layer id="374" name="3577358113802" type="Const" version="opset1">
			<data element_type="f16" offset="1837334" shape="" size="2"/>
			<output>
				<port id="0" precision="FP16"/>
			</output>
		</layer>
		<layer id="375" name="3578358213388" type="Const" version="opset1">
			<data element_type="f16" offset="1837332" shape="" size="2"/>
			<output>
				<port id="0" precision="FP16"/>
			</output>
		</layer>
		<layer id="376" name="3579358313835" type="Const" version="opset1">
			<data element_type="f16" offset="1837334" shape="" size="2"/>
			<output>
				<port id="0" precision="FP16"/>
			</output>
		</layer>
		<layer id="377" name="3186319013073" type="Const" version="opset1">
			<data element_type="f16" offset="32" shape="" size="2"/>
			<output>
				<port id="0" precision="FP16"/>
			</output>
		</layer>
		<layer id="378" name="3187319112962" type="Const" version="opset1">
			<data element_type="f16" offset="1837336" shape="" size="2"/>
			<output>
				<port id="0" precision="FP16"/>
			</output>
		</layer>
		<layer id="379" name="3188319213046" type="Const" version="opset1">
			<data element_type="f16" offset="32" shape="" size="2"/>
			<output>
				<port id="0" precision="FP16"/>
			</output>
		</layer>
		<layer id="380" name="3189319312491" type="Const" version="opset1">
			<data element_type="f16" offset="1837336" shape="" size="2"/>
			<output>
				<port id="0" precision="FP16"/>
			</output>
		</layer>
		<layer id="381" name="3516352013919" type="Const" version="opset1">
			<data element_type="f16" offset="1837338" shape="" size="2"/>
			<output>
				<port id="0" precision="FP16"/>
			</output>
		</layer>
		<layer id="382" name="3517352113805" type="Const" version="opset1">
			<data element_type="f16" offset="1837340" shape="" size="2"/>
			<output>
				<port id="0" precision="FP16"/>
			</output>
		</layer>
		<layer id="383" name="3518352212203" type="Const" version="opset1">
			<data element_type="f16" offset="1837338" shape="" size="2"/>
			<output>
				<port id="0" precision="FP16"/>
			</output>
		</layer>
		<layer id="384" name="3519352311186" type="Const" version="opset1">
			<data element_type="f16" offset="1837340" shape="" size="2"/>
			<output>
				<port id="0" precision="FP16"/>
			</output>
		</layer>
		<layer id="385" name="1466147013760" type="Const" version="opset1">
			<data element_type="f16" offset="1837342" shape="" size="2"/>
			<output>
				<port id="0" precision="FP16"/>
			</output>
		</layer>
		<layer id="386" name="1467147112248" type="Const" version="opset1">
			<data element_type="f16" offset="1837344" shape="" size="2"/>
			<output>
				<port id="0" precision="FP16"/>
			</output>
		</layer>
		<layer id="387" name="1468147213751" type="Const" version="opset1">
			<data element_type="f16" offset="1837342" shape="" size="2"/>
			<output>
				<port id="0" precision="FP16"/>
			</output>
		</layer>
		<layer id="388" name="1469147311420" type="Const" version="opset1">
			<data element_type="f16" offset="1837344" shape="" size="2"/>
			<output>
				<port id="0" precision="FP16"/>
			</output>
		</layer>
		<layer id="389" name="126081891761112494" type="Const" version="opset1">
			<data element_type="i64" offset="4" shape="2" size="16"/>
			<output>
				<port id="0" precision="I64">
					<dim>2</dim>
				</port>
			</output>
		</layer>
		<layer id="390" name="1696170012170" type="Const" version="opset1">
			<data element_type="f16" offset="1837346" shape="" size="2"/>
			<output>
				<port id="0" precision="FP16"/>
			</output>
		</layer>
		<layer id="391" name="1697170113361" type="Const" version="opset1">
			<data element_type="f16" offset="1837348" shape="" size="2"/>
			<output>
				<port id="0" precision="FP16"/>
			</output>
		</layer>
		<layer id="392" name="1698170212872" type="Const" version="opset1">
			<data element_type="f16" offset="1837346" shape="" size="2"/>
			<output>
				<port id="0" precision="FP16"/>
			</output>
		</layer>
		<layer id="393" name="1699170311309" type="Const" version="opset1">
			<data element_type="f16" offset="1837348" shape="" size="2"/>
			<output>
				<port id="0" precision="FP16"/>
			</output>
		</layer>
		<layer id="394" name="3556356013001" type="Const" version="opset1">
			<data element_type="f16" offset="1837350" shape="1,240,1,1" size="480"/>
			<output>
				<port id="0" precision="FP16">
					<dim>1</dim>
					<dim>240</dim>
					<dim>1</dim>
					<dim>1</dim>
				</port>
			</output>
		</layer>
		<layer id="395" name="3557356111657" type="Const" version="opset1">
			<data element_type="f16" offset="1837830" shape="1,240,1,1" size="480"/>
			<output>
				<port id="0" precision="FP16">
					<dim>1</dim>
					<dim>240</dim>
					<dim>1</dim>
					<dim>1</dim>
				</port>
			</output>
		</layer>
		<layer id="396" name="3558356211897" type="Const" version="opset1">
			<data element_type="f16" offset="1837350" shape="1,240,1,1" size="480"/>
			<output>
				<port id="0" precision="FP16">
					<dim>1</dim>
					<dim>240</dim>
					<dim>1</dim>
					<dim>1</dim>
				</port>
			</output>
		</layer>
		<layer id="397" name="3559356312233" type="Const" version="opset1">
			<data element_type="f16" offset="1837830" shape="1,240,1,1" size="480"/>
			<output>
				<port id="0" precision="FP16">
					<dim>1</dim>
					<dim>240</dim>
					<dim>1</dim>
					<dim>1</dim>
				</port>
			</output>
		</layer>
		<layer id="398" name="3336334012158" type="Const" version="opset1">
			<data element_type="f16" offset="1838310" shape="" size="2"/>
			<output>
				<port id="0" precision="FP16"/>
			</output>
		</layer>
		<layer id="399" name="3337334112602" type="Const" version="opset1">
			<data element_type="f16" offset="1838312" shape="" size="2"/>
			<output>
				<port id="0" precision="FP16"/>
			</output>
		</layer>
		<layer id="400" name="3338334213925" type="Const" version="opset1">
			<data element_type="f16" offset="1838310" shape="" size="2"/>
			<output>
				<port id="0" precision="FP16"/>
			</output>
		</layer>
		<layer id="401" name="3339334313433" type="Const" version="opset1">
			<data element_type="f16" offset="1838312" shape="" size="2"/>
			<output>
				<port id="0" precision="FP16"/>
			</output>
		</layer>
		<layer id="402" name="2446245011582" type="Const" version="opset1">
			<data element_type="f16" offset="1838314" shape="" size="2"/>
			<output>
				<port id="0" precision="FP16"/>
			</output>
		</layer>
		<layer id="403" name="2447245113166" type="Const" version="opset1">
			<data element_type="f16" offset="1838316" shape="" size="2"/>
			<output>
				<port id="0" precision="FP16"/>
			</output>
		</layer>
		<layer id="404" name="2448245212596" type="Const" version="opset1">
			<data element_type="f16" offset="1838314" shape="" size="2"/>
			<output>
				<port id="0" precision="FP16"/>
			</output>
		</layer>
		<layer id="405" name="2449245313160" type="Const" version="opset1">
			<data element_type="f16" offset="1838316" shape="" size="2"/>
			<output>
				<port id="0" precision="FP16"/>
			</output>
		</layer>
		<layer id="406" name="1636164012965" type="Const" version="opset1">
			<data element_type="f16" offset="1838318" shape="" size="2"/>
			<output>
				<port id="0" precision="FP16"/>
			</output>
		</layer>
		<layer id="407" name="1637164113838" type="Const" version="opset1">
			<data element_type="f16" offset="1838320" shape="" size="2"/>
			<output>
				<port id="0" precision="FP16"/>
			</output>
		</layer>
		<layer id="408" name="1638164212353" type="Const" version="opset1">
			<data element_type="f16" offset="1838318" shape="" size="2"/>
			<output>
				<port id="0" precision="FP16"/>
			</output>
		</layer>
		<layer id="409" name="1639164314090" type="Const" version="opset1">
			<data element_type="f16" offset="1838320" shape="" size="2"/>
			<output>
				<port id="0" precision="FP16"/>
			</output>
		</layer>
		<layer id="410" name="3536354012653" type="Const" version="opset1">
			<data element_type="f16" offset="32" shape="" size="2"/>
			<output>
				<port id="0" precision="FP16"/>
			</output>
		</layer>
		<layer id="411" name="3537354114111" type="Const" version="opset1">
			<data element_type="f16" offset="1838322" shape="" size="2"/>
			<output>
				<port id="0" precision="FP16"/>
			</output>
		</layer>
		<layer id="412" name="3538354213571" type="Const" version="opset1">
			<data element_type="f16" offset="32" shape="" size="2"/>
			<output>
				<port id="0" precision="FP16"/>
			</output>
		</layer>
		<layer id="413" name="3539354313067" type="Const" version="opset1">
			<data element_type="f16" offset="1838322" shape="" size="2"/>
			<output>
				<port id="0" precision="FP16"/>
			</output>
		</layer>
		<layer id="414" name="3476348012626" type="Const" version="opset1">
			<data element_type="f16" offset="1838324" shape="" size="2"/>
			<output>
				<port id="0" precision="FP16"/>
			</output>
		</layer>
		<layer id="415" name="3477348112434" type="Const" version="opset1">
			<data element_type="f16" offset="1838326" shape="" size="2"/>
			<output>
				<port id="0" precision="FP16"/>
			</output>
		</layer>
		<layer id="416" name="3478348211192" type="Const" version="opset1">
			<data element_type="f16" offset="1838324" shape="" size="2"/>
			<output>
				<port id="0" precision="FP16"/>
			</output>
		</layer>
		<layer id="417" name="3479348312029" type="Const" version="opset1">
			<data element_type="f16" offset="1838326" shape="" size="2"/>
			<output>
				<port id="0" precision="FP16"/>
			</output>
		</layer>
		<layer id="418" name="3356336011939" type="Const" version="opset1">
			<data element_type="f16" offset="1838328" shape="" size="2"/>
			<output>
				<port id="0" precision="FP16"/>
			</output>
		</layer>
		<layer id="419" name="3357336113895" type="Const" version="opset1">
			<data element_type="f16" offset="1838330" shape="" size="2"/>
			<output>
				<port id="0" precision="FP16"/>
			</output>
		</layer>
		<layer id="420" name="3358336213826" type="Const" version="opset1">
			<data element_type="f16" offset="1838328" shape="" size="2"/>
			<output>
				<port id="0" precision="FP16"/>
			</output>
		</layer>
		<layer id="421" name="3359336311561" type="Const" version="opset1">
			<data element_type="f16" offset="1838330" shape="" size="2"/>
			<output>
				<port id="0" precision="FP16"/>
			</output>
		</layer>
		<layer id="422" name="125821878258313784" type="Const" version="opset1">
			<data element_type="i64" offset="4" shape="2" size="16"/>
			<output>
				<port id="0" precision="I64">
					<dim>2</dim>
				</port>
			</output>
		</layer>
		<layer id="423" name="3236324011585" type="Const" version="opset1">
			<data element_type="f16" offset="456288" shape="" size="2"/>
			<output>
				<port id="0" precision="FP16"/>
			</output>
		</layer>
		<layer id="424" name="3237324113343" type="Const" version="opset1">
			<data element_type="f16" offset="1838332" shape="" size="2"/>
			<output>
				<port id="0" precision="FP16"/>
			</output>
		</layer>
		<layer id="425" name="3238324212215" type="Const" version="opset1">
			<data element_type="f16" offset="456288" shape="" size="2"/>
			<output>
				<port id="0" precision="FP16"/>
			</output>
		</layer>
		<layer id="426" name="3239324314006" type="Const" version="opset1">
			<data element_type="f16" offset="1838332" shape="" size="2"/>
			<output>
				<port id="0" precision="FP16"/>
			</output>
		</layer>
		<layer id="427" name="2866287012110" type="Const" version="opset1">
			<data element_type="f16" offset="1838334" shape="1,240,1,1" size="480"/>
			<output>
				<port id="0" precision="FP16">
					<dim>1</dim>
					<dim>240</dim>
					<dim>1</dim>
					<dim>1</dim>
				</port>
			</output>
		</layer>
		<layer id="428" name="2867287113331" type="Const" version="opset1">
			<data element_type="f16" offset="1838814" shape="1,240,1,1" size="480"/>
			<output>
				<port id="0" precision="FP16">
					<dim>1</dim>
					<dim>240</dim>
					<dim>1</dim>
					<dim>1</dim>
				</port>
			</output>
		</layer>
		<layer id="429" name="2868287213778" type="Const" version="opset1">
			<data element_type="f16" offset="1838334" shape="1,240,1,1" size="480"/>
			<output>
				<port id="0" precision="FP16">
					<dim>1</dim>
					<dim>240</dim>
					<dim>1</dim>
					<dim>1</dim>
				</port>
			</output>
		</layer>
		<layer id="430" name="2869287313937" type="Const" version="opset1">
			<data element_type="f16" offset="1838814" shape="1,240,1,1" size="480"/>
			<output>
				<port id="0" precision="FP16">
					<dim>1</dim>
					<dim>240</dim>
					<dim>1</dim>
					<dim>1</dim>
				</port>
			</output>
		</layer>
		<layer id="431" name="1786179013754" type="Const" version="opset1">
			<data element_type="f16" offset="1839294" shape="240,1,1,1" size="480"/>
			<output>
				<port id="0" precision="FP16">
					<dim>240</dim>
					<dim>1</dim>
					<dim>1</dim>
					<dim>1</dim>
				</port>
			</output>
		</layer>
		<layer id="432" name="1787179113874" type="Const" version="opset1">
			<data element_type="f16" offset="1839774" shape="240,1,1,1" size="480"/>
			<output>
				<port id="0" precision="FP16">
					<dim>240</dim>
					<dim>1</dim>
					<dim>1</dim>
					<dim>1</dim>
				</port>
			</output>
		</layer>
		<layer id="433" name="1788179213427" type="Const" version="opset1">
			<data element_type="f16" offset="1839294" shape="240,1,1,1" size="480"/>
			<output>
				<port id="0" precision="FP16">
					<dim>240</dim>
					<dim>1</dim>
					<dim>1</dim>
					<dim>1</dim>
				</port>
			</output>
		</layer>
		<layer id="434" name="1789179313766" type="Const" version="opset1">
			<data element_type="f16" offset="1839774" shape="240,1,1,1" size="480"/>
			<output>
				<port id="0" precision="FP16">
					<dim>240</dim>
					<dim>1</dim>
					<dim>1</dim>
					<dim>1</dim>
				</port>
			</output>
		</layer>
		<layer id="435" name="efficientnet-b0/model/blocks_4/tpu_batch_normalization/batchnorm/mul_1_copy57311831" type="Const" version="opset1">
			<data element_type="f16" offset="1840254" shape="240,40,1,1" size="19200"/>
			<output>
				<port id="0" names="efficientnet-b0/blocks_4/conv2d/kernel/read:0" precision="FP16">
					<dim>240</dim>
					<dim>40</dim>
					<dim>1</dim>
					<dim>1</dim>
				</port>
			</output>
		</layer>
		<layer id="436" name="efficientnet-b0/model/blocks_4/conv2d/Conv2D/fq_weights_1" type="FakeQuantize" version="opset1">
			<data auto_broadcast="numpy" levels="255"/>
			<input>
				<port id="0">
					<dim>240</dim>
					<dim>40</dim>
					<dim>1</dim>
					<dim>1</dim>
				</port>
				<port id="1">
					<dim>240</dim>
					<dim>1</dim>
					<dim>1</dim>
					<dim>1</dim>
				</port>
				<port id="2">
					<dim>240</dim>
					<dim>1</dim>
					<dim>1</dim>
					<dim>1</dim>
				</port>
				<port id="3">
					<dim>240</dim>
					<dim>1</dim>
					<dim>1</dim>
					<dim>1</dim>
				</port>
				<port id="4">
					<dim>240</dim>
					<dim>1</dim>
					<dim>1</dim>
					<dim>1</dim>
				</port>
			</input>
			<output>
				<port id="5" precision="FP16">
					<dim>240</dim>
					<dim>40</dim>
					<dim>1</dim>
					<dim>1</dim>
				</port>
			</output>
		</layer>
		<layer id="437" name="2456246012833" type="Const" version="opset1">
			<data element_type="f16" offset="1859454" shape="" size="2"/>
			<output>
				<port id="0" precision="FP16"/>
			</output>
		</layer>
		<layer id="438" name="2457246113136" type="Const" version="opset1">
			<data element_type="f16" offset="1859456" shape="" size="2"/>
			<output>
				<port id="0" precision="FP16"/>
			</output>
		</layer>
		<layer id="439" name="2458246211156" type="Const" version="opset1">
			<data element_type="f16" offset="1859454" shape="" size="2"/>
			<output>
				<port id="0" precision="FP16"/>
			</output>
		</layer>
		<layer id="440" name="2459246313697" type="Const" version="opset1">
			<data element_type="f16" offset="1859456" shape="" size="2"/>
			<output>
				<port id="0" precision="FP16"/>
			</output>
		</layer>
		<layer id="441" name="2196220011318" type="Const" version="opset1">
			<data element_type="f16" offset="1859458" shape="" size="2"/>
			<output>
				<port id="0" precision="FP16"/>
			</output>
		</layer>
		<layer id="442" name="2197220112512" type="Const" version="opset1">
			<data element_type="f16" offset="1859460" shape="" size="2"/>
			<output>
				<port id="0" precision="FP16"/>
			</output>
		</layer>
		<layer id="443" name="2198220213364" type="Const" version="opset1">
			<data element_type="f16" offset="1859458" shape="" size="2"/>
			<output>
				<port id="0" precision="FP16"/>
			</output>
		</layer>
		<layer id="444" name="2199220312155" type="Const" version="opset1">
			<data element_type="f16" offset="1859460" shape="" size="2"/>
			<output>
				<port id="0" precision="FP16"/>
			</output>
		</layer>
		<layer id="445" name="2646265013502" type="Const" version="opset1">
			<data element_type="f16" offset="32" shape="" size="2"/>
			<output>
				<port id="0" precision="FP16"/>
			</output>
		</layer>
		<layer id="446" name="2647265113268" type="Const" version="opset1">
			<data element_type="f16" offset="1859462" shape="" size="2"/>
			<output>
				<port id="0" precision="FP16"/>
			</output>
		</layer>
		<layer id="447" name="2648265213394" type="Const" version="opset1">
			<data element_type="f16" offset="32" shape="" size="2"/>
			<output>
				<port id="0" precision="FP16"/>
			</output>
		</layer>
		<layer id="448" name="2649265313889" type="Const" version="opset1">
			<data element_type="f16" offset="1859462" shape="" size="2"/>
			<output>
				<port id="0" precision="FP16"/>
			</output>
		</layer>
		<layer id="449" name="1976198013709" type="Const" version="opset1">
			<data element_type="f16" offset="1859464" shape="" size="2"/>
			<output>
				<port id="0" precision="FP16"/>
			</output>
		</layer>
		<layer id="450" name="1977198112755" type="Const" version="opset1">
			<data element_type="f16" offset="1859466" shape="" size="2"/>
			<output>
				<port id="0" precision="FP16"/>
			</output>
		</layer>
		<layer id="451" name="1978198211357" type="Const" version="opset1">
			<data element_type="f16" offset="1859464" shape="" size="2"/>
			<output>
				<port id="0" precision="FP16"/>
			</output>
		</layer>
		<layer id="452" name="1979198312038" type="Const" version="opset1">
			<data element_type="f16" offset="1859466" shape="" size="2"/>
			<output>
				<port id="0" precision="FP16"/>
			</output>
		</layer>
		<layer id="453" name="2506251012989" type="Const" version="opset1">
			<data element_type="f16" offset="1859468" shape="" size="2"/>
			<output>
				<port id="0" precision="FP16"/>
			</output>
		</layer>
		<layer id="454" name="2507251113799" type="Const" version="opset1">
			<data element_type="f16" offset="1859470" shape="" size="2"/>
			<output>
				<port id="0" precision="FP16"/>
			</output>
		</layer>
		<layer id="455" name="2508251213463" type="Const" version="opset1">
			<data element_type="f16" offset="1859468" shape="" size="2"/>
			<output>
				<port id="0" precision="FP16"/>
			</output>
		</layer>
		<layer id="456" name="2509251313586" type="Const" version="opset1">
			<data element_type="f16" offset="1859470" shape="" size="2"/>
			<output>
				<port id="0" precision="FP16"/>
			</output>
		</layer>
		<layer id="457" name="125561874955611996" type="Const" version="opset1">
			<data element_type="i64" offset="4" shape="2" size="16"/>
			<output>
				<port id="0" precision="I64">
					<dim>2</dim>
				</port>
			</output>
		</layer>
		<layer id="458" name="1936194012518" type="Const" version="opset1">
			<data element_type="f16" offset="1859472" shape="" size="2"/>
			<output>
				<port id="0" precision="FP16"/>
			</output>
		</layer>
		<layer id="459" name="1937194111753" type="Const" version="opset1">
			<data element_type="f16" offset="1859474" shape="" size="2"/>
			<output>
				<port id="0" precision="FP16"/>
			</output>
		</layer>
		<layer id="460" name="1938194212476" type="Const" version="opset1">
			<data element_type="f16" offset="1859472" shape="" size="2"/>
			<output>
				<port id="0" precision="FP16"/>
			</output>
		</layer>
		<layer id="461" name="1939194312809" type="Const" version="opset1">
			<data element_type="f16" offset="1859474" shape="" size="2"/>
			<output>
				<port id="0" precision="FP16"/>
			</output>
		</layer>
		<layer id="462" name="2046205012842" type="Const" version="opset1">
			<data element_type="f16" offset="1859476" shape="1,144,1,1" size="288"/>
			<output>
				<port id="0" precision="FP16">
					<dim>1</dim>
					<dim>144</dim>
					<dim>1</dim>
					<dim>1</dim>
				</port>
			</output>
		</layer>
		<layer id="463" name="2047205113229" type="Const" version="opset1">
			<data element_type="f16" offset="1859764" shape="1,144,1,1" size="288"/>
			<output>
				<port id="0" precision="FP16">
					<dim>1</dim>
					<dim>144</dim>
					<dim>1</dim>
					<dim>1</dim>
				</port>
			</output>
		</layer>
		<layer id="464" name="2048205214159" type="Const" version="opset1">
			<data element_type="f16" offset="1859476" shape="1,144,1,1" size="288"/>
			<output>
				<port id="0" precision="FP16">
					<dim>1</dim>
					<dim>144</dim>
					<dim>1</dim>
					<dim>1</dim>
				</port>
			</output>
		</layer>
		<layer id="465" name="2049205313940" type="Const" version="opset1">
			<data element_type="f16" offset="1859764" shape="1,144,1,1" size="288"/>
			<output>
				<port id="0" precision="FP16">
					<dim>1</dim>
					<dim>144</dim>
					<dim>1</dim>
					<dim>1</dim>
				</port>
			</output>
		</layer>
		<layer id="466" name="1876188011483" type="Const" version="opset1">
			<data element_type="f16" offset="1860052" shape="" size="2"/>
			<output>
				<port id="0" precision="FP16"/>
			</output>
		</layer>
		<layer id="467" name="1877188112524" type="Const" version="opset1">
			<data element_type="f16" offset="1860054" shape="" size="2"/>
			<output>
				<port id="0" precision="FP16"/>
			</output>
		</layer>
		<layer id="468" name="1878188212563" type="Const" version="opset1">
			<data element_type="f16" offset="1860052" shape="" size="2"/>
			<output>
				<port id="0" precision="FP16"/>
			</output>
		</layer>
		<layer id="469" name="1879188312716" type="Const" version="opset1">
			<data element_type="f16" offset="1860054" shape="" size="2"/>
			<output>
				<port id="0" precision="FP16"/>
			</output>
		</layer>
		<layer id="470" name="3456346012821" type="Const" version="opset1">
			<data element_type="f16" offset="1860056" shape="" size="2"/>
			<output>
				<port id="0" precision="FP16"/>
			</output>
		</layer>
		<layer id="471" name="3457346111345" type="Const" version="opset1">
			<data element_type="f16" offset="1860058" shape="" size="2"/>
			<output>
				<port id="0" precision="FP16"/>
			</output>
		</layer>
		<layer id="472" name="3458346211627" type="Const" version="opset1">
			<data element_type="f16" offset="1860056" shape="" size="2"/>
			<output>
				<port id="0" precision="FP16"/>
			</output>
		</layer>
		<layer id="473" name="3459346313247" type="Const" version="opset1">
			<data element_type="f16" offset="1860058" shape="" size="2"/>
			<output>
				<port id="0" precision="FP16"/>
			</output>
		</layer>
		<layer id="474" name="2176218013958" type="Const" version="opset1">
			<data element_type="f16" offset="1860060" shape="" size="2"/>
			<output>
				<port id="0" precision="FP16"/>
			</output>
		</layer>
		<layer id="475" name="2177218111210" type="Const" version="opset1">
			<data element_type="f16" offset="1860062" shape="" size="2"/>
			<output>
				<port id="0" precision="FP16"/>
			</output>
		</layer>
		<layer id="476" name="2178218211960" type="Const" version="opset1">
			<data element_type="f16" offset="1860060" shape="" size="2"/>
			<output>
				<port id="0" precision="FP16"/>
			</output>
		</layer>
		<layer id="477" name="2179218312101" type="Const" version="opset1">
			<data element_type="f16" offset="1860062" shape="" size="2"/>
			<output>
				<port id="0" precision="FP16"/>
			</output>
		</layer>
		<layer id="478" name="2076208012062" type="Const" version="opset1">
			<data element_type="f16" offset="32" shape="" size="2"/>
			<output>
				<port id="0" precision="FP16"/>
			</output>
		</layer>
		<layer id="479" name="2077208114078" type="Const" version="opset1">
			<data element_type="f16" offset="1860064" shape="" size="2"/>
			<output>
				<port id="0" precision="FP16"/>
			</output>
		</layer>
		<layer id="480" name="2078208213409" type="Const" version="opset1">
			<data element_type="f16" offset="32" shape="" size="2"/>
			<output>
				<port id="0" precision="FP16"/>
			</output>
		</layer>
		<layer id="481" name="2079208313682" type="Const" version="opset1">
			<data element_type="f16" offset="1860064" shape="" size="2"/>
			<output>
				<port id="0" precision="FP16"/>
			</output>
		</layer>
		<layer id="482" name="1586159013070" type="Const" version="opset1">
			<data element_type="f16" offset="1860066" shape="" size="2"/>
			<output>
				<port id="0" precision="FP16"/>
			</output>
		</layer>
		<layer id="483" name="1587159113850" type="Const" version="opset1">
			<data element_type="f16" offset="1860068" shape="" size="2"/>
			<output>
				<port id="0" precision="FP16"/>
			</output>
		</layer>
		<layer id="484" name="1588159211810" type="Const" version="opset1">
			<data element_type="f16" offset="1860066" shape="" size="2"/>
			<output>
				<port id="0" precision="FP16"/>
			</output>
		</layer>
		<layer id="485" name="1589159313349" type="Const" version="opset1">
			<data element_type="f16" offset="1860068" shape="" size="2"/>
			<output>
				<port id="0" precision="FP16"/>
			</output>
		</layer>
		<layer id="486" name="1756176011861" type="Const" version="opset1">
			<data element_type="f16" offset="1860070" shape="" size="2"/>
			<output>
				<port id="0" precision="FP16"/>
			</output>
		</layer>
		<layer id="487" name="1757176112269" type="Const" version="opset1">
			<data element_type="f16" offset="1860072" shape="" size="2"/>
			<output>
				<port id="0" precision="FP16"/>
			</output>
		</layer>
		<layer id="488" name="1758176212827" type="Const" version="opset1">
			<data element_type="f16" offset="1860070" shape="" size="2"/>
			<output>
				<port id="0" precision="FP16"/>
			</output>
		</layer>
		<layer id="489" name="1759176313298" type="Const" version="opset1">
			<data element_type="f16" offset="1860072" shape="" size="2"/>
			<output>
				<port id="0" precision="FP16"/>
			</output>
		</layer>
		<layer id="490" name="125301892952812356" type="Const" version="opset1">
			<data element_type="i64" offset="4" shape="2" size="16"/>
			<output>
				<port id="0" precision="I64">
					<dim>2</dim>
				</port>
			</output>
		</layer>
		<layer id="491" name="1706171013118" type="Const" version="opset1">
			<data element_type="f16" offset="1860074" shape="" size="2"/>
			<output>
				<port id="0" precision="FP16"/>
			</output>
		</layer>
		<layer id="492" name="1707171113274" type="Const" version="opset1">
			<data element_type="f16" offset="1860076" shape="" size="2"/>
			<output>
				<port id="0" precision="FP16"/>
			</output>
		</layer>
		<layer id="493" name="1708171212992" type="Const" version="opset1">
			<data element_type="f16" offset="1860074" shape="" size="2"/>
			<output>
				<port id="0" precision="FP16"/>
			</output>
		</layer>
		<layer id="494" name="1709171311354" type="Const" version="opset1">
			<data element_type="f16" offset="1860076" shape="" size="2"/>
			<output>
				<port id="0" precision="FP16"/>
			</output>
		</layer>
		<layer id="495" name="2526253012554" type="Const" version="opset1">
			<data element_type="f16" offset="1860078" shape="1,144,1,1" size="288"/>
			<output>
				<port id="0" precision="FP16">
					<dim>1</dim>
					<dim>144</dim>
					<dim>1</dim>
					<dim>1</dim>
				</port>
			</output>
		</layer>
		<layer id="496" name="2527253113712" type="Const" version="opset1">
			<data element_type="f16" offset="1860366" shape="1,144,1,1" size="288"/>
			<output>
				<port id="0" precision="FP16">
					<dim>1</dim>
					<dim>144</dim>
					<dim>1</dim>
					<dim>1</dim>
				</port>
			</output>
		</layer>
		<layer id="497" name="2528253212077" type="Const" version="opset1">
			<data element_type="f16" offset="1860078" shape="1,144,1,1" size="288"/>
			<output>
				<port id="0" precision="FP16">
					<dim>1</dim>
					<dim>144</dim>
					<dim>1</dim>
					<dim>1</dim>
				</port>
			</output>
		</layer>
		<layer id="498" name="2529253311726" type="Const" version="opset1">
			<data element_type="f16" offset="1860366" shape="1,144,1,1" size="288"/>
			<output>
				<port id="0" precision="FP16">
					<dim>1</dim>
					<dim>144</dim>
					<dim>1</dim>
					<dim>1</dim>
				</port>
			</output>
		</layer>
		<layer id="499" name="3666367013691" type="Const" version="opset1">
			<data element_type="f16" offset="1860654" shape="144,1,1,1" size="288"/>
			<output>
				<port id="0" precision="FP16">
					<dim>144</dim>
					<dim>1</dim>
					<dim>1</dim>
					<dim>1</dim>
				</port>
			</output>
		</layer>
		<layer id="500" name="3667367113616" type="Const" version="opset1">
			<data element_type="f16" offset="1860942" shape="144,1,1,1" size="288"/>
			<output>
				<port id="0" precision="FP16">
					<dim>144</dim>
					<dim>1</dim>
					<dim>1</dim>
					<dim>1</dim>
				</port>
			</output>
		</layer>
		<layer id="501" name="3668367211150" type="Const" version="opset1">
			<data element_type="f16" offset="1860654" shape="144,1,1,1" size="288"/>
			<output>
				<port id="0" precision="FP16">
					<dim>144</dim>
					<dim>1</dim>
					<dim>1</dim>
					<dim>1</dim>
				</port>
			</output>
		</layer>
		<layer id="502" name="3669367311693" type="Const" version="opset1">
			<data element_type="f16" offset="1860942" shape="144,1,1,1" size="288"/>
			<output>
				<port id="0" precision="FP16">
					<dim>144</dim>
					<dim>1</dim>
					<dim>1</dim>
					<dim>1</dim>
				</port>
			</output>
		</layer>
		<layer id="503" name="efficientnet-b0/model/blocks_2/tpu_batch_normalization/batchnorm/mul_1_copy51812803" type="Const" version="opset1">
			<data element_type="f16" offset="1861230" shape="144,24,1,1" size="6912"/>
			<output>
				<port id="0" names="efficientnet-b0/blocks_2/conv2d/kernel/read:0" precision="FP16">
					<dim>144</dim>
					<dim>24</dim>
					<dim>1</dim>
					<dim>1</dim>
				</port>
			</output>
		</layer>
		<layer id="504" name="efficientnet-b0/model/blocks_2/conv2d/Conv2D/fq_weights_1" type="FakeQuantize" version="opset1">
			<data auto_broadcast="numpy" levels="255"/>
			<input>
				<port id="0">
					<dim>144</dim>
					<dim>24</dim>
					<dim>1</dim>
					<dim>1</dim>
				</port>
				<port id="1">
					<dim>144</dim>
					<dim>1</dim>
					<dim>1</dim>
					<dim>1</dim>
				</port>
				<port id="2">
					<dim>144</dim>
					<dim>1</dim>
					<dim>1</dim>
					<dim>1</dim>
				</port>
				<port id="3">
					<dim>144</dim>
					<dim>1</dim>
					<dim>1</dim>
					<dim>1</dim>
				</port>
				<port id="4">
					<dim>144</dim>
					<dim>1</dim>
					<dim>1</dim>
					<dim>1</dim>
				</port>
			</input>
			<output>
				<port id="5" precision="FP16">
					<dim>144</dim>
					<dim>24</dim>
					<dim>1</dim>
					<dim>1</dim>
				</port>
			</output>
		</layer>
		<layer id="505" name="3466347012521" type="Const" version="opset1">
			<data element_type="f16" offset="1868142" shape="" size="2"/>
			<output>
				<port id="0" precision="FP16"/>
			</output>
		</layer>
		<layer id="506" name="3467347111558" type="Const" version="opset1">
			<data element_type="f16" offset="1868144" shape="" size="2"/>
			<output>
				<port id="0" precision="FP16"/>
			</output>
		</layer>
		<layer id="507" name="3468347213040" type="Const" version="opset1">
			<data element_type="f16" offset="1868142" shape="" size="2"/>
			<output>
				<port id="0" precision="FP16"/>
			</output>
		</layer>
		<layer id="508" name="3469347312935" type="Const" version="opset1">
			<data element_type="f16" offset="1868144" shape="" size="2"/>
			<output>
				<port id="0" precision="FP16"/>
			</output>
		</layer>
		<layer id="509" name="1856186014003" type="Const" version="opset1">
			<data element_type="f16" offset="1868146" shape="" size="2"/>
			<output>
				<port id="0" precision="FP16"/>
			</output>
		</layer>
		<layer id="510" name="1857186112074" type="Const" version="opset1">
			<data element_type="f16" offset="1868148" shape="" size="2"/>
			<output>
				<port id="0" precision="FP16"/>
			</output>
		</layer>
		<layer id="511" name="1858186212968" type="Const" version="opset1">
			<data element_type="f16" offset="1868146" shape="" size="2"/>
			<output>
				<port id="0" precision="FP16"/>
			</output>
		</layer>
		<layer id="512" name="1859186314051" type="Const" version="opset1">
			<data element_type="f16" offset="1868148" shape="" size="2"/>
			<output>
				<port id="0" precision="FP16"/>
			</output>
		</layer>
		<layer id="513" name="3026303013574" type="Const" version="opset1">
			<data element_type="f16" offset="32" shape="" size="2"/>
			<output>
				<port id="0" precision="FP16"/>
			</output>
		</layer>
		<layer id="514" name="3027303111915" type="Const" version="opset1">
			<data element_type="f16" offset="1868150" shape="" size="2"/>
			<output>
				<port id="0" precision="FP16"/>
			</output>
		</layer>
		<layer id="515" name="3028303213475" type="Const" version="opset1">
			<data element_type="f16" offset="32" shape="" size="2"/>
			<output>
				<port id="0" precision="FP16"/>
			</output>
		</layer>
		<layer id="516" name="3029303313703" type="Const" version="opset1">
			<data element_type="f16" offset="1868150" shape="" size="2"/>
			<output>
				<port id="0" precision="FP16"/>
			</output>
		</layer>
		<layer id="517" name="3126313013823" type="Const" version="opset1">
			<data element_type="f16" offset="1868152" shape="" size="2"/>
			<output>
				<port id="0" precision="FP16"/>
			</output>
		</layer>
		<layer id="518" name="3127313111771" type="Const" version="opset1">
			<data element_type="f16" offset="1868154" shape="" size="2"/>
			<output>
				<port id="0" precision="FP16"/>
			</output>
		</layer>
		<layer id="519" name="3128313213916" type="Const" version="opset1">
			<data element_type="f16" offset="1868152" shape="" size="2"/>
			<output>
				<port id="0" precision="FP16"/>
			</output>
		</layer>
		<layer id="520" name="3129313311882" type="Const" version="opset1">
			<data element_type="f16" offset="1868154" shape="" size="2"/>
			<output>
				<port id="0" precision="FP16"/>
			</output>
		</layer>
		<layer id="521" name="2386239012896" type="Const" version="opset1">
			<data element_type="f16" offset="1868156" shape="" size="2"/>
			<output>
				<port id="0" precision="FP16"/>
			</output>
		</layer>
		<layer id="522" name="2387239113508" type="Const" version="opset1">
			<data element_type="f16" offset="1868158" shape="" size="2"/>
			<output>
				<port id="0" precision="FP16"/>
			</output>
		</layer>
		<layer id="523" name="2388239213151" type="Const" version="opset1">
			<data element_type="f16" offset="1868156" shape="" size="2"/>
			<output>
				<port id="0" precision="FP16"/>
			</output>
		</layer>
		<layer id="524" name="2389239313346" type="Const" version="opset1">
			<data element_type="f16" offset="1868158" shape="" size="2"/>
			<output>
				<port id="0" precision="FP16"/>
			</output>
		</layer>
		<layer id="525" name="125041885450114177" type="Const" version="opset1">
			<data element_type="i64" offset="4" shape="2" size="16"/>
			<output>
				<port id="0" precision="I64">
					<dim>2</dim>
				</port>
			</output>
		</layer>
		<layer id="526" name="3206321011993" type="Const" version="opset1">
			<data element_type="f16" offset="1868160" shape="" size="2"/>
			<output>
				<port id="0" precision="FP16"/>
			</output>
		</layer>
		<layer id="527" name="3207321112536" type="Const" version="opset1">
			<data element_type="f16" offset="1868162" shape="" size="2"/>
			<output>
				<port id="0" precision="FP16"/>
			</output>
		</layer>
		<layer id="528" name="3208321211273" type="Const" version="opset1">
			<data element_type="f16" offset="1868160" shape="" size="2"/>
			<output>
				<port id="0" precision="FP16"/>
			</output>
		</layer>
		<layer id="529" name="3209321312275" type="Const" version="opset1">
			<data element_type="f16" offset="1868162" shape="" size="2"/>
			<output>
				<port id="0" precision="FP16"/>
			</output>
		</layer>
		<layer id="530" name="2266227011870" type="Const" version="opset1">
			<data element_type="f16" offset="1868164" shape="1,96,1,1" size="192"/>
			<output>
				<port id="0" precision="FP16">
					<dim>1</dim>
					<dim>96</dim>
					<dim>1</dim>
					<dim>1</dim>
				</port>
			</output>
		</layer>
		<layer id="531" name="2267227113385" type="Const" version="opset1">
			<data element_type="f16" offset="1868356" shape="1,96,1,1" size="192"/>
			<output>
				<port id="0" precision="FP16">
					<dim>1</dim>
					<dim>96</dim>
					<dim>1</dim>
					<dim>1</dim>
				</port>
			</output>
		</layer>
		<layer id="532" name="2268227211537" type="Const" version="opset1">
			<data element_type="f16" offset="1868164" shape="1,96,1,1" size="192"/>
			<output>
				<port id="0" precision="FP16">
					<dim>1</dim>
					<dim>96</dim>
					<dim>1</dim>
					<dim>1</dim>
				</port>
			</output>
		</layer>
		<layer id="533" name="2269227312500" type="Const" version="opset1">
			<data element_type="f16" offset="1868356" shape="1,96,1,1" size="192"/>
			<output>
				<port id="0" precision="FP16">
					<dim>1</dim>
					<dim>96</dim>
					<dim>1</dim>
					<dim>1</dim>
				</port>
			</output>
		</layer>
		<layer id="534" name="2246225012470" type="Const" version="opset1">
			<data element_type="f16" offset="1868548" shape="" size="2"/>
			<output>
				<port id="0" precision="FP16"/>
			</output>
		</layer>
		<layer id="535" name="2247225111528" type="Const" version="opset1">
			<data element_type="f16" offset="1868550" shape="" size="2"/>
			<output>
				<port id="0" precision="FP16"/>
			</output>
		</layer>
		<layer id="536" name="2248225213061" type="Const" version="opset1">
			<data element_type="f16" offset="1868548" shape="" size="2"/>
			<output>
				<port id="0" precision="FP16"/>
			</output>
		</layer>
		<layer id="537" name="2249225312083" type="Const" version="opset1">
			<data element_type="f16" offset="1868550" shape="" size="2"/>
			<output>
				<port id="0" precision="FP16"/>
			</output>
		</layer>
		<layer id="538" name="3596360012647" type="Const" version="opset1">
			<data element_type="f16" offset="907880" shape="" size="2"/>
			<output>
				<port id="0" precision="FP16"/>
			</output>
		</layer>
		<layer id="539" name="3597360112044" type="Const" version="opset1">
			<data element_type="f16" offset="907882" shape="" size="2"/>
			<output>
				<port id="0" precision="FP16"/>
			</output>
		</layer>
		<layer id="540" name="3598360211954" type="Const" version="opset1">
			<data element_type="f16" offset="907880" shape="" size="2"/>
			<output>
				<port id="0" precision="FP16"/>
			</output>
		</layer>
		<layer id="541" name="3599360311288" type="Const" version="opset1">
			<data element_type="f16" offset="907882" shape="" size="2"/>
			<output>
				<port id="0" precision="FP16"/>
			</output>
		</layer>
		<layer id="542" name="3636364012776" type="Const" version="opset1">
			<data element_type="f16" offset="32" shape="" size="2"/>
			<output>
				<port id="0" precision="FP16"/>
			</output>
		</layer>
		<layer id="543" name="3637364114039" type="Const" version="opset1">
			<data element_type="f16" offset="1868552" shape="" size="2"/>
			<output>
				<port id="0" precision="FP16"/>
			</output>
		</layer>
		<layer id="544" name="3638364211132" type="Const" version="opset1">
			<data element_type="f16" offset="32" shape="" size="2"/>
			<output>
				<port id="0" precision="FP16"/>
			</output>
		</layer>
		<layer id="545" name="3639364313853" type="Const" version="opset1">
			<data element_type="f16" offset="1868552" shape="" size="2"/>
			<output>
				<port id="0" precision="FP16"/>
			</output>
		</layer>
		<layer id="546" name="2796280011213" type="Const" version="opset1">
			<data element_type="f16" offset="1868554" shape="" size="2"/>
			<output>
				<port id="0" precision="FP16"/>
			</output>
		</layer>
		<layer id="547" name="2797280113568" type="Const" version="opset1">
			<data element_type="f16" offset="1868556" shape="" size="2"/>
			<output>
				<port id="0" precision="FP16"/>
			</output>
		</layer>
		<layer id="548" name="2798280211498" type="Const" version="opset1">
			<data element_type="f16" offset="1868554" shape="" size="2"/>
			<output>
				<port id="0" precision="FP16"/>
			</output>
		</layer>
		<layer id="549" name="2799280312533" type="Const" version="opset1">
			<data element_type="f16" offset="1868556" shape="" size="2"/>
			<output>
				<port id="0" precision="FP16"/>
			</output>
		</layer>
		<layer id="550" name="2906291011138" type="Const" version="opset1">
			<data element_type="f16" offset="1868558" shape="" size="2"/>
			<output>
				<port id="0" precision="FP16"/>
			</output>
		</layer>
		<layer id="551" name="2907291111198" type="Const" version="opset1">
			<data element_type="f16" offset="1868560" shape="" size="2"/>
			<output>
				<port id="0" precision="FP16"/>
			</output>
		</layer>
		<layer id="552" name="2908291211195" type="Const" version="opset1">
			<data element_type="f16" offset="1868558" shape="" size="2"/>
			<output>
				<port id="0" precision="FP16"/>
			</output>
		</layer>
		<layer id="553" name="2909291312416" type="Const" version="opset1">
			<data element_type="f16" offset="1868560" shape="" size="2"/>
			<output>
				<port id="0" precision="FP16"/>
			</output>
		</layer>
		<layer id="554" name="124781855747414156" type="Const" version="opset1">
			<data element_type="i64" offset="4" shape="2" size="16"/>
			<output>
				<port id="0" precision="I64">
					<dim>2</dim>
				</port>
			</output>
		</layer>
		<layer id="555" name="2066207011525" type="Const" version="opset1">
			<data element_type="f16" offset="1868562" shape="" size="2"/>
			<output>
				<port id="0" precision="FP16"/>
			</output>
		</layer>
		<layer id="556" name="2067207112566" type="Const" version="opset1">
			<data element_type="f16" offset="1868564" shape="" size="2"/>
			<output>
				<port id="0" precision="FP16"/>
			</output>
		</layer>
		<layer id="557" name="2068207211480" type="Const" version="opset1">
			<data element_type="f16" offset="1868562" shape="" size="2"/>
			<output>
				<port id="0" precision="FP16"/>
			</output>
		</layer>
		<layer id="558" name="2069207313793" type="Const" version="opset1">
			<data element_type="f16" offset="1868564" shape="" size="2"/>
			<output>
				<port id="0" precision="FP16"/>
			</output>
		</layer>
		<layer id="559" name="3756376013439" type="Const" version="opset1">
			<data element_type="f16" offset="1868566" shape="1,32,1,1" size="64"/>
			<output>
				<port id="0" precision="FP16">
					<dim>1</dim>
					<dim>32</dim>
					<dim>1</dim>
					<dim>1</dim>
				</port>
			</output>
		</layer>
		<layer id="560" name="3757376112557" type="Const" version="opset1">
			<data element_type="f16" offset="1868630" shape="1,32,1,1" size="64"/>
			<output>
				<port id="0" precision="FP16">
					<dim>1</dim>
					<dim>32</dim>
					<dim>1</dim>
					<dim>1</dim>
				</port>
			</output>
		</layer>
		<layer id="561" name="3758376211723" type="Const" version="opset1">
			<data element_type="f16" offset="1868566" shape="1,32,1,1" size="64"/>
			<output>
				<port id="0" precision="FP16">
					<dim>1</dim>
					<dim>32</dim>
					<dim>1</dim>
					<dim>1</dim>
				</port>
			</output>
		</layer>
		<layer id="562" name="3759376313049" type="Const" version="opset1">
			<data element_type="f16" offset="1868630" shape="1,32,1,1" size="64"/>
			<output>
				<port id="0" precision="FP16">
					<dim>1</dim>
					<dim>32</dim>
					<dim>1</dim>
					<dim>1</dim>
				</port>
			</output>
		</layer>
		<layer id="563" name="2306231011624" type="Const" version="opset1">
			<data element_type="f16" offset="1868694" shape="" size="2"/>
			<output>
				<port id="0" precision="FP16"/>
			</output>
		</layer>
		<layer id="564" name="2307231112860" type="Const" version="opset1">
			<data element_type="f16" offset="1868696" shape="" size="2"/>
			<output>
				<port id="0" precision="FP16"/>
			</output>
		</layer>
		<layer id="565" name="2308231213127" type="Const" version="opset1">
			<data element_type="f16" offset="1868694" shape="" size="2"/>
			<output>
				<port id="0" precision="FP16"/>
			</output>
		</layer>
		<layer id="566" name="2309231312089" type="Const" version="opset1">
			<data element_type="f16" offset="1868696" shape="" size="2"/>
			<output>
				<port id="0" precision="FP16"/>
			</output>
		</layer>
		<layer id="567" name="sub/placeholder_port_0" type="Parameter" version="opset1">
			<data element_type="f16" shape="1,3,224,224"/>
			<output>
				<port id="0" names="sub" precision="FP16">
					<dim>1</dim>
					<dim>3</dim>
					<dim>224</dim>
					<dim>224</dim>
				</port>
			</output>
		</layer>
		<layer id="568" name="data_mul_901846012050" type="Const" version="opset1">
			<data element_type="f16" offset="1868698" shape="1,3,1,1" size="6"/>
			<output>
				<port id="0" precision="FP16">
					<dim>1</dim>
					<dim>3</dim>
					<dim>1</dim>
					<dim>1</dim>
				</port>
			</output>
		</layer>
		<layer id="569" name="truediv/Fused_Mul_" type="Multiply" version="opset1">
			<data auto_broadcast="numpy"/>
			<input>
				<port id="0">
					<dim>1</dim>
					<dim>3</dim>
					<dim>224</dim>
					<dim>224</dim>
				</port>
				<port id="1">
					<dim>1</dim>
					<dim>3</dim>
					<dim>1</dim>
					<dim>1</dim>
				</port>
			</input>
			<output>
				<port id="2" precision="FP16">
					<dim>1</dim>
					<dim>3</dim>
					<dim>224</dim>
					<dim>224</dim>
				</port>
			</output>
		</layer>
		<layer id="570" name="data_add_902046213526" type="Const" version="opset1">
			<data element_type="f16" offset="1868704" shape="1,3,1,1" size="6"/>
			<output>
				<port id="0" precision="FP16">
					<dim>1</dim>
					<dim>3</dim>
					<dim>1</dim>
					<dim>1</dim>
				</port>
			</output>
		</layer>
		<layer id="571" name="sub/Fused_Add_" type="Add" version="opset1">
			<data auto_broadcast="numpy"/>
			<input>
				<port id="0">
					<dim>1</dim>
					<dim>3</dim>
					<dim>224</dim>
					<dim>224</dim>
				</port>
				<port id="1">
					<dim>1</dim>
					<dim>3</dim>
					<dim>1</dim>
					<dim>1</dim>
				</port>
			</input>
			<output>
				<port id="2" names="truediv:0" precision="FP16">
					<dim>1</dim>
					<dim>3</dim>
					<dim>224</dim>
					<dim>224</dim>
				</port>
			</output>
		</layer>
		<layer id="572" name="efficientnet-b0/model/stem/conv2d/Conv2D/fq_input_0" type="FakeQuantize" version="opset1">
			<data auto_broadcast="numpy" levels="256"/>
			<input>
				<port id="0">
					<dim>1</dim>
					<dim>3</dim>
					<dim>224</dim>
					<dim>224</dim>
				</port>
				<port id="1"/>
				<port id="2"/>
				<port id="3"/>
				<port id="4"/>
			</input>
			<output>
				<port id="5" precision="FP16">
					<dim>1</dim>
					<dim>3</dim>
					<dim>224</dim>
					<dim>224</dim>
				</port>
			</output>
		</layer>
		<layer id="573" name="2316232012986" type="Const" version="opset1">
			<data element_type="f16" offset="1868710" shape="32,1,1,1" size="64"/>
			<output>
				<port id="0" precision="FP16">
					<dim>32</dim>
					<dim>1</dim>
					<dim>1</dim>
					<dim>1</dim>
				</port>
			</output>
		</layer>
		<layer id="574" name="2317232113967" type="Const" version="opset1">
			<data element_type="f16" offset="1868774" shape="32,1,1,1" size="64"/>
			<output>
				<port id="0" precision="FP16">
					<dim>32</dim>
					<dim>1</dim>
					<dim>1</dim>
					<dim>1</dim>
				</port>
			</output>
		</layer>
		<layer id="575" name="2318232213301" type="Const" version="opset1">
			<data element_type="f16" offset="1868838" shape="32,1,1,1" size="64"/>
			<output>
				<port id="0" precision="FP16">
					<dim>32</dim>
					<dim>1</dim>
					<dim>1</dim>
					<dim>1</dim>
				</port>
			</output>
		</layer>
		<layer id="576" name="2319232312527" type="Const" version="opset1">
			<data element_type="f16" offset="1868902" shape="32,1,1,1" size="64"/>
			<output>
				<port id="0" precision="FP16">
					<dim>32</dim>
					<dim>1</dim>
					<dim>1</dim>
					<dim>1</dim>
				</port>
			</output>
		</layer>
		<layer id="577" name="efficientnet-b0/model/stem/tpu_batch_normalization/batchnorm/mul_1_copy46413646" type="Const" version="opset1">
			<data element_type="f16" offset="1868966" shape="32,3,3,3" size="1728"/>
			<output>
				<port id="0" names="efficientnet-b0/model/stem/conv2d/Conv2D/ReadVariableOp:0" precision="FP16">
					<dim>32</dim>
					<dim>3</dim>
					<dim>3</dim>
					<dim>3</dim>
				</port>
			</output>
		</layer>
		<layer id="578" name="efficientnet-b0/model/stem/conv2d/Conv2D/fq_weights_1" type="FakeQuantize" version="opset1">
			<data auto_broadcast="numpy" levels="255"/>
			<input>
				<port id="0">
					<dim>32</dim>
					<dim>3</dim>
					<dim>3</dim>
					<dim>3</dim>
				</port>
				<port id="1">
					<dim>32</dim>
					<dim>1</dim>
					<dim>1</dim>
					<dim>1</dim>
				</port>
				<port id="2">
					<dim>32</dim>
					<dim>1</dim>
					<dim>1</dim>
					<dim>1</dim>
				</port>
				<port id="3">
					<dim>32</dim>
					<dim>1</dim>
					<dim>1</dim>
					<dim>1</dim>
				</port>
				<port id="4">
					<dim>32</dim>
					<dim>1</dim>
					<dim>1</dim>
					<dim>1</dim>
				</port>
			</input>
			<output>
				<port id="5" precision="FP16">
					<dim>32</dim>
					<dim>3</dim>
					<dim>3</dim>
					<dim>3</dim>
				</port>
			</output>
		</layer>
		<layer id="579" name="efficientnet-b0/model/stem/conv2d/Conv2D" type="Convolution" version="opset1">
			<data auto_pad="same_upper" dilations="1,1" pads_begin="0,0" pads_end="0,0" strides="2,2"/>
			<input>
				<port id="0">
					<dim>1</dim>
					<dim>3</dim>
					<dim>224</dim>
					<dim>224</dim>
				</port>
				<port id="1">
					<dim>32</dim>
					<dim>3</dim>
					<dim>3</dim>
					<dim>3</dim>
				</port>
			</input>
			<output>
				<port id="2" names="efficientnet-b0/model/stem/tpu_batch_normalization/batchnorm/mul_1:0" precision="FP16">
					<dim>1</dim>
					<dim>32</dim>
					<dim>112</dim>
					<dim>112</dim>
				</port>
			</output>
		</layer>
		<layer id="580" name="efficientnet-b0/model/stem/tpu_batch_normalization/batchnorm/sub46613283" type="Const" version="opset1">
			<data element_type="f16" offset="1870694" shape="1,32,1,1" size="64"/>
			<output>
				<port id="0" names="efficientnet-b0/model/stem/tpu_batch_normalization/batchnorm/sub:0" precision="FP16">
					<dim>1</dim>
					<dim>32</dim>
					<dim>1</dim>
					<dim>1</dim>
				</port>
			</output>
		</layer>
		<layer id="581" name="efficientnet-b0/model/stem/tpu_batch_normalization/batchnorm/add_1" type="Add" version="opset1">
			<data auto_broadcast="numpy"/>
			<input>
				<port id="0">
					<dim>1</dim>
					<dim>32</dim>
					<dim>112</dim>
					<dim>112</dim>
				</port>
				<port id="1">
					<dim>1</dim>
					<dim>32</dim>
					<dim>1</dim>
					<dim>1</dim>
				</port>
			</input>
			<output>
				<port id="2" names="efficientnet-b0/model/stem/tpu_batch_normalization/batchnorm/add_1:0" precision="FP16">
					<dim>1</dim>
					<dim>32</dim>
					<dim>112</dim>
					<dim>112</dim>
				</port>
			</output>
		</layer>
		<layer id="582" name="efficientnet-b0/model/stem/swish_f32" type="Swish" version="opset4">
			<input>
				<port id="0">
					<dim>1</dim>
					<dim>32</dim>
					<dim>112</dim>
					<dim>112</dim>
				</port>
			</input>
			<output>
				<port id="1" names="efficientnet-b0/model/stem/swish_f32:0" precision="FP16">
					<dim>1</dim>
					<dim>32</dim>
					<dim>112</dim>
					<dim>112</dim>
				</port>
			</output>
		</layer>
		<layer id="583" name="efficientnet-b0/model/blocks_0/depthwise_conv2d/depthwise/fq_input_0" type="FakeQuantize" version="opset1">
			<data auto_broadcast="numpy" levels="256"/>
			<input>
				<port id="0">
					<dim>1</dim>
					<dim>32</dim>
					<dim>112</dim>
					<dim>112</dim>
				</port>
				<port id="1">
					<dim>1</dim>
					<dim>32</dim>
					<dim>1</dim>
					<dim>1</dim>
				</port>
				<port id="2">
					<dim>1</dim>
					<dim>32</dim>
					<dim>1</dim>
					<dim>1</dim>
				</port>
				<port id="3">
					<dim>1</dim>
					<dim>32</dim>
					<dim>1</dim>
					<dim>1</dim>
				</port>
				<port id="4">
					<dim>1</dim>
					<dim>32</dim>
					<dim>1</dim>
					<dim>1</dim>
				</port>
			</input>
			<output>
				<port id="5" precision="FP16">
					<dim>1</dim>
					<dim>32</dim>
					<dim>112</dim>
					<dim>112</dim>
				</port>
			</output>
		</layer>
		<layer id="584" name="9010/value901211684" type="Const" version="opset1">
			<data element_type="i64" offset="1870758" shape="5" size="40"/>
			<output>
				<port id="0" precision="I64">
					<dim>5</dim>
				</port>
			</output>
		</layer>
		<layer id="585" name="3766377011828" type="Const" version="opset1">
			<data element_type="f16" offset="1870798" shape="32,1,1,1" size="64"/>
			<output>
				<port id="0" precision="FP16">
					<dim>32</dim>
					<dim>1</dim>
					<dim>1</dim>
					<dim>1</dim>
				</port>
			</output>
		</layer>
		<layer id="586" name="3767377112794" type="Const" version="opset1">
			<data element_type="f16" offset="1870862" shape="32,1,1,1" size="64"/>
			<output>
				<port id="0" precision="FP16">
					<dim>32</dim>
					<dim>1</dim>
					<dim>1</dim>
					<dim>1</dim>
				</port>
			</output>
		</layer>
		<layer id="587" name="3768377212995" type="Const" version="opset1">
			<data element_type="f16" offset="1870798" shape="32,1,1,1" size="64"/>
			<output>
				<port id="0" precision="FP16">
					<dim>32</dim>
					<dim>1</dim>
					<dim>1</dim>
					<dim>1</dim>
				</port>
			</output>
		</layer>
		<layer id="588" name="3769377312914" type="Const" version="opset1">
			<data element_type="f16" offset="1870862" shape="32,1,1,1" size="64"/>
			<output>
				<port id="0" precision="FP16">
					<dim>32</dim>
					<dim>1</dim>
					<dim>1</dim>
					<dim>1</dim>
				</port>
			</output>
		</layer>
		<layer id="589" name="efficientnet-b0/model/blocks_0/tpu_batch_normalization/batchnorm/mul_1_copy46911285" type="Const" version="opset1">
			<data element_type="f16" offset="1870926" shape="32,1,3,3" size="576"/>
			<output>
				<port id="0" names="efficientnet-b0/blocks_0/depthwise_conv2d/depthwise_kernel/read:0" precision="FP16">
					<dim>32</dim>
					<dim>1</dim>
					<dim>3</dim>
					<dim>3</dim>
				</port>
			</output>
		</layer>
		<layer id="590" name="efficientnet-b0/model/blocks_0/depthwise_conv2d/depthwise/fq_weights_1" type="FakeQuantize" version="opset1">
			<data auto_broadcast="numpy" levels="255"/>
			<input>
				<port id="0">
					<dim>32</dim>
					<dim>1</dim>
					<dim>3</dim>
					<dim>3</dim>
				</port>
				<port id="1">
					<dim>32</dim>
					<dim>1</dim>
					<dim>1</dim>
					<dim>1</dim>
				</port>
				<port id="2">
					<dim>32</dim>
					<dim>1</dim>
					<dim>1</dim>
					<dim>1</dim>
				</port>
				<port id="3">
					<dim>32</dim>
					<dim>1</dim>
					<dim>1</dim>
					<dim>1</dim>
				</port>
				<port id="4">
					<dim>32</dim>
					<dim>1</dim>
					<dim>1</dim>
					<dim>1</dim>
				</port>
			</input>
			<output>
				<port id="5" precision="FP16">
					<dim>32</dim>
					<dim>1</dim>
					<dim>3</dim>
					<dim>3</dim>
				</port>
			</output>
		</layer>
		<layer id="591" name="9010" type="Reshape" version="opset1">
			<data special_zero="true"/>
			<input>
				<port id="0">
					<dim>32</dim>
					<dim>1</dim>
					<dim>3</dim>
					<dim>3</dim>
				</port>
				<port id="1">
					<dim>5</dim>
				</port>
			</input>
			<output>
				<port id="2" precision="FP16">
					<dim>32</dim>
					<dim>1</dim>
					<dim>1</dim>
					<dim>3</dim>
					<dim>3</dim>
				</port>
			</output>
		</layer>
		<layer id="592" name="efficientnet-b0/model/blocks_0/depthwise_conv2d/depthwise" type="GroupConvolution" version="opset1">
			<data auto_pad="same_upper" dilations="1,1" pads_begin="0,0" pads_end="0,0" strides="1,1"/>
			<input>
				<port id="0">
					<dim>1</dim>
					<dim>32</dim>
					<dim>112</dim>
					<dim>112</dim>
				</port>
				<port id="1">
					<dim>32</dim>
					<dim>1</dim>
					<dim>1</dim>
					<dim>3</dim>
					<dim>3</dim>
				</port>
			</input>
			<output>
				<port id="2" names="efficientnet-b0/model/blocks_0/tpu_batch_normalization/batchnorm/mul_1:0" precision="FP16">
					<dim>1</dim>
					<dim>32</dim>
					<dim>112</dim>
					<dim>112</dim>
				</port>
			</output>
		</layer>
		<layer id="593" name="efficientnet-b0/model/blocks_0/tpu_batch_normalization/batchnorm/sub47113610" type="Const" version="opset1">
			<data element_type="f16" offset="1871502" shape="1,32,1,1" size="64"/>
			<output>
				<port id="0" names="efficientnet-b0/model/blocks_0/tpu_batch_normalization/batchnorm/sub:0" precision="FP16">
					<dim>1</dim>
					<dim>32</dim>
					<dim>1</dim>
					<dim>1</dim>
				</port>
			</output>
		</layer>
		<layer id="594" name="efficientnet-b0/model/blocks_0/tpu_batch_normalization/batchnorm/add_1" type="Add" version="opset1">
			<data auto_broadcast="numpy"/>
			<input>
				<port id="0">
					<dim>1</dim>
					<dim>32</dim>
					<dim>112</dim>
					<dim>112</dim>
				</port>
				<port id="1">
					<dim>1</dim>
					<dim>32</dim>
					<dim>1</dim>
					<dim>1</dim>
				</port>
			</input>
			<output>
				<port id="2" names="efficientnet-b0/model/blocks_0/tpu_batch_normalization/batchnorm/add_1:0" precision="FP16">
					<dim>1</dim>
					<dim>32</dim>
					<dim>112</dim>
					<dim>112</dim>
				</port>
			</output>
		</layer>
		<layer id="595" name="efficientnet-b0/model/blocks_0/swish_f32" type="Swish" version="opset4">
			<input>
				<port id="0">
					<dim>1</dim>
					<dim>32</dim>
					<dim>112</dim>
					<dim>112</dim>
				</port>
			</input>
			<output>
				<port id="1" names="efficientnet-b0/model/blocks_0/swish_f32:0" precision="FP16">
					<dim>1</dim>
					<dim>32</dim>
					<dim>112</dim>
					<dim>112</dim>
				</port>
			</output>
		</layer>
		<layer id="596" name="efficientnet-b0/model/blocks_0/se/Mean/fq_input_0" type="FakeQuantize" version="opset1">
			<data auto_broadcast="numpy" levels="256"/>
			<input>
				<port id="0">
					<dim>1</dim>
					<dim>32</dim>
					<dim>112</dim>
					<dim>112</dim>
				</port>
				<port id="1"/>
				<port id="2"/>
				<port id="3"/>
				<port id="4"/>
			</input>
			<output>
				<port id="5" precision="FP16">
					<dim>1</dim>
					<dim>32</dim>
					<dim>112</dim>
					<dim>112</dim>
				</port>
			</output>
		</layer>
		<layer id="597" name="efficientnet-b0/model/blocks_0/se/Mean" type="ReduceMean" version="opset1">
			<data keep_dims="true"/>
			<input>
				<port id="0">
					<dim>1</dim>
					<dim>32</dim>
					<dim>112</dim>
					<dim>112</dim>
				</port>
				<port id="1">
					<dim>2</dim>
				</port>
			</input>
			<output>
				<port id="2" names="efficientnet-b0/model/blocks_0/se/Mean:0" precision="FP16">
					<dim>1</dim>
					<dim>32</dim>
					<dim>1</dim>
					<dim>1</dim>
				</port>
			</output>
		</layer>
		<layer id="598" name="efficientnet-b0/model/blocks_0/se/conv2d/Conv2D/fq_input_0" type="FakeQuantize" version="opset1">
			<data auto_broadcast="numpy" levels="256"/>
			<input>
				<port id="0">
					<dim>1</dim>
					<dim>32</dim>
					<dim>1</dim>
					<dim>1</dim>
				</port>
				<port id="1"/>
				<port id="2"/>
				<port id="3"/>
				<port id="4"/>
			</input>
			<output>
				<port id="5" precision="FP16">
					<dim>1</dim>
…
		<edge from-layer="269" from-port="0" to-layer="1086" to-port="4"/>
		<edge from-layer="1091" from-port="0" to-layer="1092" to-port="0"/>
		<edge from-layer="1087" from-port="0" to-layer="1092" to-port="1"/>
		<edge from-layer="1088" from-port="0" to-layer="1092" to-port="2"/>
		<edge from-layer="1089" from-port="0" to-layer="1092" to-port="3"/>
		<edge from-layer="1090" from-port="0" to-layer="1092" to-port="4"/>
		<edge from-layer="1086" from-port="5" to-layer="1093" to-port="0"/>
		<edge from-layer="1092" from-port="5" to-layer="1093" to-port="1"/>
		<edge from-layer="1093" from-port="2" to-layer="1095" to-port="0"/>
		<edge from-layer="1094" from-port="0" to-layer="1095" to-port="1"/>
		<edge from-layer="1095" from-port="2" to-layer="1096" to-port="0"/>
		<edge from-layer="262" from-port="0" to-layer="1096" to-port="1"/>
		<edge from-layer="263" from-port="0" to-layer="1096" to-port="2"/>
		<edge from-layer="264" from-port="0" to-layer="1096" to-port="3"/>
		<edge from-layer="265" from-port="0" to-layer="1096" to-port="4"/>
		<edge from-layer="1096" from-port="5" to-layer="1097" to-port="0"/>
		<edge from-layer="261" from-port="5" to-layer="1097" to-port="1"/>
		<edge from-layer="1097" from-port="2" to-layer="1099" to-port="0"/>
		<edge from-layer="1098" from-port="0" to-layer="1099" to-port="1"/>
		<edge from-layer="1099" from-port="2" to-layer="1100" to-port="0"/>
		<edge from-layer="1100" from-port="1" to-layer="1101" to-port="0"/>
		<edge from-layer="252" from-port="0" to-layer="1101" to-port="1"/>
		<edge from-layer="253" from-port="0" to-layer="1101" to-port="2"/>
		<edge from-layer="254" from-port="0" to-layer="1101" to-port="3"/>
		<edge from-layer="255" from-port="0" to-layer="1101" to-port="4"/>
		<edge from-layer="1107" from-port="0" to-layer="1108" to-port="0"/>
		<edge from-layer="1103" from-port="0" to-layer="1108" to-port="1"/>
		<edge from-layer="1104" from-port="0" to-layer="1108" to-port="2"/>
		<edge from-layer="1105" from-port="0" to-layer="1108" to-port="3"/>
		<edge from-layer="1106" from-port="0" to-layer="1108" to-port="4"/>
		<edge from-layer="1108" from-port="5" to-layer="1109" to-port="0"/>
		<edge from-layer="1102" from-port="0" to-layer="1109" to-port="1"/>
		<edge from-layer="1101" from-port="5" to-layer="1110" to-port="0"/>
		<edge from-layer="1109" from-port="2" to-layer="1110" to-port="1"/>
		<edge from-layer="1110" from-port="2" to-layer="1112" to-port="0"/>
		<edge from-layer="1111" from-port="0" to-layer="1112" to-port="1"/>
		<edge from-layer="1112" from-port="2" to-layer="1113" to-port="0"/>
		<edge from-layer="1113" from-port="1" to-layer="1114" to-port="0"/>
		<edge from-layer="248" from-port="0" to-layer="1114" to-port="1"/>
		<edge from-layer="249" from-port="0" to-layer="1114" to-port="2"/>
		<edge from-layer="250" from-port="0" to-layer="1114" to-port="3"/>
		<edge from-layer="251" from-port="0" to-layer="1114" to-port="4"/>
		<edge from-layer="1114" from-port="5" to-layer="1115" to-port="0"/>
		<edge from-layer="247" from-port="0" to-layer="1115" to-port="1"/>
		<edge from-layer="1115" from-port="2" to-layer="1116" to-port="0"/>
		<edge from-layer="243" from-port="0" to-layer="1116" to-port="1"/>
		<edge from-layer="244" from-port="0" to-layer="1116" to-port="2"/>
		<edge from-layer="245" from-port="0" to-layer="1116" to-port="3"/>
		<edge from-layer="246" from-port="0" to-layer="1116" to-port="4"/>
		<edge from-layer="1121" from-port="0" to-layer="1122" to-port="0"/>
		<edge from-layer="1117" from-port="0" to-layer="1122" to-port="1"/>
		<edge from-layer="1118" from-port="0" to-layer="1122" to-port="2"/>
		<edge from-layer="1119" from-port="0" to-layer="1122" to-port="3"/>
		<edge from-layer="1120" from-port="0" to-layer="1122" to-port="4"/>
		<edge from-layer="1116" from-port="5" to-layer="1123" to-port="0"/>
		<edge from-layer="1122" from-port="5" to-layer="1123" to-port="1"/>
		<edge from-layer="1123" from-port="2" to-layer="1125" to-port="0"/>
		<edge from-layer="1124" from-port="0" to-layer="1125" to-port="1"/>
		<edge from-layer="1125" from-port="2" to-layer="1126" to-port="0"/>
		<edge from-layer="1126" from-port="1" to-layer="1127" to-port="0"/>
		<edge from-layer="239" from-port="0" to-layer="1127" to-port="1"/>
		<edge from-layer="240" from-port="0" to-layer="1127" to-port="2"/>
		<edge from-layer="241" from-port="0" to-layer="1127" to-port="3"/>
		<edge from-layer="242" from-port="0" to-layer="1127" to-port="4"/>
		<edge from-layer="1132" from-port="0" to-layer="1133" to-port="0"/>
		<edge from-layer="1128" from-port="0" to-layer="1133" to-port="1"/>
		<edge from-layer="1129" from-port="0" to-layer="1133" to-port="2"/>
		<edge from-layer="1130" from-port="0" to-layer="1133" to-port="3"/>
		<edge from-layer="1131" from-port="0" to-layer="1133" to-port="4"/>
		<edge from-layer="1127" from-port="5" to-layer="1134" to-port="0"/>
		<edge from-layer="1133" from-port="5" to-layer="1134" to-port="1"/>
		<edge from-layer="1134" from-port="2" to-layer="1136" to-port="0"/>
		<edge from-layer="1135" from-port="0" to-layer="1136" to-port="1"/>
		<edge from-layer="1136" from-port="2" to-layer="1137" to-port="0"/>
		<edge from-layer="1137" from-port="1" to-layer="1138" to-port="0"/>
		<edge from-layer="235" from-port="0" to-layer="1138" to-port="1"/>
		<edge from-layer="236" from-port="0" to-layer="1138" to-port="2"/>
		<edge from-layer="237" from-port="0" to-layer="1138" to-port="3"/>
		<edge from-layer="238" from-port="0" to-layer="1138" to-port="4"/>
		<edge from-layer="1138" from-port="5" to-layer="1139" to-port="0"/>
		<edge from-layer="1114" from-port="5" to-layer="1139" to-port="1"/>
		<edge from-layer="1139" from-port="2" to-layer="1140" to-port="0"/>
		<edge from-layer="231" from-port="0" to-layer="1140" to-port="1"/>
		<edge from-layer="232" from-port="0" to-layer="1140" to-port="2"/>
		<edge from-layer="233" from-port="0" to-layer="1140" to-port="3"/>
		<edge from-layer="234" from-port="0" to-layer="1140" to-port="4"/>
		<edge from-layer="1145" from-port="0" to-layer="1146" to-port="0"/>
		<edge from-layer="1141" from-port="0" to-layer="1146" to-port="1"/>
		<edge from-layer="1142" from-port="0" to-layer="1146" to-port="2"/>
		<edge from-layer="1143" from-port="0" to-layer="1146" to-port="3"/>
		<edge from-layer="1144" from-port="0" to-layer="1146" to-port="4"/>
		<edge from-layer="1140" from-port="5" to-layer="1147" to-port="0"/>
		<edge from-layer="1146" from-port="5" to-layer="1147" to-port="1"/>
		<edge from-layer="1147" from-port="2" to-layer="1149" to-port="0"/>
		<edge from-layer="1148" from-port="0" to-layer="1149" to-port="1"/>
		<edge from-layer="1149" from-port="2" to-layer="1150" to-port="0"/>
		<edge from-layer="227" from-port="0" to-layer="1150" to-port="1"/>
		<edge from-layer="228" from-port="0" to-layer="1150" to-port="2"/>
		<edge from-layer="229" from-port="0" to-layer="1150" to-port="3"/>
		<edge from-layer="230" from-port="0" to-layer="1150" to-port="4"/>
		<edge from-layer="1150" from-port="5" to-layer="1151" to-port="0"/>
		<edge from-layer="1096" from-port="5" to-layer="1151" to-port="1"/>
		<edge from-layer="1151" from-port="2" to-layer="1152" to-port="0"/>
		<edge from-layer="223" from-port="0" to-layer="1152" to-port="1"/>
		<edge from-layer="224" from-port="0" to-layer="1152" to-port="2"/>
		<edge from-layer="225" from-port="0" to-layer="1152" to-port="3"/>
		<edge from-layer="226" from-port="0" to-layer="1152" to-port="4"/>
		<edge from-layer="1152" from-port="5" to-layer="1153" to-port="0"/>
		<edge from-layer="222" from-port="5" to-layer="1153" to-port="1"/>
		<edge from-layer="1153" from-port="2" to-layer="1155" to-port="0"/>
		<edge from-layer="1154" from-port="0" to-layer="1155" to-port="1"/>
		<edge from-layer="1155" from-port="2" to-layer="1156" to-port="0"/>
		<edge from-layer="1156" from-port="1" to-layer="1157" to-port="0"/>
		<edge from-layer="213" from-port="0" to-layer="1157" to-port="1"/>
		<edge from-layer="214" from-port="0" to-layer="1157" to-port="2"/>
		<edge from-layer="215" from-port="0" to-layer="1157" to-port="3"/>
		<edge from-layer="216" from-port="0" to-layer="1157" to-port="4"/>
		<edge from-layer="1163" from-port="0" to-layer="1164" to-port="0"/>
		<edge from-layer="1159" from-port="0" to-layer="1164" to-port="1"/>
		<edge from-layer="1160" from-port="0" to-layer="1164" to-port="2"/>
		<edge from-layer="1161" from-port="0" to-layer="1164" to-port="3"/>
		<edge from-layer="1162" from-port="0" to-layer="1164" to-port="4"/>
		<edge from-layer="1164" from-port="5" to-layer="1165" to-port="0"/>
		<edge from-layer="1158" from-port="0" to-layer="1165" to-port="1"/>
		<edge from-layer="1157" from-port="5" to-layer="1166" to-port="0"/>
		<edge from-layer="1165" from-port="2" to-layer="1166" to-port="1"/>
		<edge from-layer="1166" from-port="2" to-layer="1168" to-port="0"/>
		<edge from-layer="1167" from-port="0" to-layer="1168" to-port="1"/>
		<edge from-layer="1168" from-port="2" to-layer="1169" to-port="0"/>
		<edge from-layer="1169" from-port="1" to-layer="1170" to-port="0"/>
		<edge from-layer="209" from-port="0" to-layer="1170" to-port="1"/>
		<edge from-layer="210" from-port="0" to-layer="1170" to-port="2"/>
		<edge from-layer="211" from-port="0" to-layer="1170" to-port="3"/>
		<edge from-layer="212" from-port="0" to-layer="1170" to-port="4"/>
		<edge from-layer="1170" from-port="5" to-layer="1171" to-port="0"/>
		<edge from-layer="208" from-port="0" to-layer="1171" to-port="1"/>
		<edge from-layer="1171" from-port="2" to-layer="1172" to-port="0"/>
		<edge from-layer="204" from-port="0" to-layer="1172" to-port="1"/>
		<edge from-layer="205" from-port="0" to-layer="1172" to-port="2"/>
		<edge from-layer="206" from-port="0" to-layer="1172" to-port="3"/>
		<edge from-layer="207" from-port="0" to-layer="1172" to-port="4"/>
		<edge from-layer="1177" from-port="0" to-layer="1178" to-port="0"/>
		<edge from-layer="1173" from-port="0" to-layer="1178" to-port="1"/>
		<edge from-layer="1174" from-port="0" to-layer="1178" to-port="2"/>
		<edge from-layer="1175" from-port="0" to-layer="1178" to-port="3"/>
		<edge from-layer="1176" from-port="0" to-layer="1178" to-port="4"/>
		<edge from-layer="1172" from-port="5" to-layer="1179" to-port="0"/>
		<edge from-layer="1178" from-port="5" to-layer="1179" to-port="1"/>
		<edge from-layer="1179" from-port="2" to-layer="1181" to-port="0"/>
		<edge from-layer="1180" from-port="0" to-layer="1181" to-port="1"/>
		<edge from-layer="1181" from-port="2" to-layer="1182" to-port="0"/>
		<edge from-layer="1182" from-port="1" to-layer="1183" to-port="0"/>
		<edge from-layer="200" from-port="0" to-layer="1183" to-port="1"/>
		<edge from-layer="201" from-port="0" to-layer="1183" to-port="2"/>
		<edge from-layer="202" from-port="0" to-layer="1183" to-port="3"/>
		<edge from-layer="203" from-port="0" to-layer="1183" to-port="4"/>
		<edge from-layer="1188" from-port="0" to-layer="1189" to-port="0"/>
		<edge from-layer="1184" from-port="0" to-layer="1189" to-port="1"/>
		<edge from-layer="1185" from-port="0" to-layer="1189" to-port="2"/>
		<edge from-layer="1186" from-port="0" to-layer="1189" to-port="3"/>
		<edge from-layer="1187" from-port="0" to-layer="1189" to-port="4"/>
		<edge from-layer="1183" from-port="5" to-layer="1190" to-port="0"/>
		<edge from-layer="1189" from-port="5" to-layer="1190" to-port="1"/>
		<edge from-layer="1190" from-port="2" to-layer="1192" to-port="0"/>
		<edge from-layer="1191" from-port="0" to-layer="1192" to-port="1"/>
		<edge from-layer="1192" from-port="2" to-layer="1193" to-port="0"/>
		<edge from-layer="1193" from-port="1" to-layer="1194" to-port="0"/>
		<edge from-layer="196" from-port="0" to-layer="1194" to-port="1"/>
		<edge from-layer="197" from-port="0" to-layer="1194" to-port="2"/>
		<edge from-layer="198" from-port="0" to-layer="1194" to-port="3"/>
		<edge from-layer="199" from-port="0" to-layer="1194" to-port="4"/>
		<edge from-layer="1194" from-port="5" to-layer="1195" to-port="0"/>
		<edge from-layer="1170" from-port="5" to-layer="1195" to-port="1"/>
		<edge from-layer="1195" from-port="2" to-layer="1196" to-port="0"/>
		<edge from-layer="192" from-port="0" to-layer="1196" to-port="1"/>
		<edge from-layer="193" from-port="0" to-layer="1196" to-port="2"/>
		<edge from-layer="194" from-port="0" to-layer="1196" to-port="3"/>
		<edge from-layer="195" from-port="0" to-layer="1196" to-port="4"/>
		<edge from-layer="1201" from-port="0" to-layer="1202" to-port="0"/>
		<edge from-layer="1197" from-port="0" to-layer="1202" to-port="1"/>
		<edge from-layer="1198" from-port="0" to-layer="1202" to-port="2"/>
		<edge from-layer="1199" from-port="0" to-layer="1202" to-port="3"/>
		<edge from-layer="1200" from-port="0" to-layer="1202" to-port="4"/>
		<edge from-layer="1196" from-port="5" to-layer="1203" to-port="0"/>
		<edge from-layer="1202" from-port="5" to-layer="1203" to-port="1"/>
		<edge from-layer="1203" from-port="2" to-layer="1205" to-port="0"/>
		<edge from-layer="1204" from-port="0" to-layer="1205" to-port="1"/>
		<edge from-layer="1205" from-port="2" to-layer="1206" to-port="0"/>
		<edge from-layer="188" from-port="0" to-layer="1206" to-port="1"/>
		<edge from-layer="189" from-port="0" to-layer="1206" to-port="2"/>
		<edge from-layer="190" from-port="0" to-layer="1206" to-port="3"/>
		<edge from-layer="191" from-port="0" to-layer="1206" to-port="4"/>
		<edge from-layer="1206" from-port="5" to-layer="1207" to-port="0"/>
		<edge from-layer="1152" from-port="5" to-layer="1207" to-port="1"/>
		<edge from-layer="1207" from-port="2" to-layer="1208" to-port="0"/>
		<edge from-layer="184" from-port="0" to-layer="1208" to-port="1"/>
		<edge from-layer="185" from-port="0" to-layer="1208" to-port="2"/>
		<edge from-layer="186" from-port="0" to-layer="1208" to-port="3"/>
		<edge from-layer="187" from-port="0" to-layer="1208" to-port="4"/>
		<edge from-layer="1213" from-port="0" to-layer="1214" to-port="0"/>
		<edge from-layer="1209" from-port="0" to-layer="1214" to-port="1"/>
		<edge from-layer="1210" from-port="0" to-layer="1214" to-port="2"/>
		<edge from-layer="1211" from-port="0" to-layer="1214" to-port="3"/>
		<edge from-layer="1212" from-port="0" to-layer="1214" to-port="4"/>
		<edge from-layer="1208" from-port="5" to-layer="1215" to-port="0"/>
		<edge from-layer="1214" from-port="5" to-layer="1215" to-port="1"/>
		<edge from-layer="1215" from-port="2" to-layer="1217" to-port="0"/>
		<edge from-layer="1216" from-port="0" to-layer="1217" to-port="1"/>
		<edge from-layer="1217" from-port="2" to-layer="1218" to-port="0"/>
		<edge from-layer="1218" from-port="1" to-layer="1219" to-port="0"/>
		<edge from-layer="180" from-port="0" to-layer="1219" to-port="1"/>
		<edge from-layer="181" from-port="0" to-layer="1219" to-port="2"/>
		<edge from-layer="182" from-port="0" to-layer="1219" to-port="3"/>
		<edge from-layer="183" from-port="0" to-layer="1219" to-port="4"/>
		<edge from-layer="1225" from-port="0" to-layer="1226" to-port="0"/>
		<edge from-layer="1221" from-port="0" to-layer="1226" to-port="1"/>
		<edge from-layer="1222" from-port="0" to-layer="1226" to-port="2"/>
		<edge from-layer="1223" from-port="0" to-layer="1226" to-port="3"/>
		<edge from-layer="1224" from-port="0" to-layer="1226" to-port="4"/>
		<edge from-layer="1226" from-port="5" to-layer="1227" to-port="0"/>
		<edge from-layer="1220" from-port="0" to-layer="1227" to-port="1"/>
		<edge from-layer="1219" from-port="5" to-layer="1228" to-port="0"/>
		<edge from-layer="1227" from-port="2" to-layer="1228" to-port="1"/>
		<edge from-layer="1228" from-port="2" to-layer="1230" to-port="0"/>
		<edge from-layer="1229" from-port="0" to-layer="1230" to-port="1"/>
		<edge from-layer="1230" from-port="2" to-layer="1231" to-port="0"/>
		<edge from-layer="1231" from-port="1" to-layer="1232" to-port="0"/>
		<edge from-layer="176" from-port="0" to-layer="1232" to-port="1"/>
		<edge from-layer="177" from-port="0" to-layer="1232" to-port="2"/>
		<edge from-layer="178" from-port="0" to-layer="1232" to-port="3"/>
		<edge from-layer="179" from-port="0" to-layer="1232" to-port="4"/>
		<edge from-layer="1232" from-port="5" to-layer="1233" to-port="0"/>
		<edge from-layer="175" from-port="0" to-layer="1233" to-port="1"/>
		<edge from-layer="1233" from-port="2" to-layer="1234" to-port="0"/>
		<edge from-layer="171" from-port="0" to-layer="1234" to-port="1"/>
		<edge from-layer="172" from-port="0" to-layer="1234" to-port="2"/>
		<edge from-layer="173" from-port="0" to-layer="1234" to-port="3"/>
		<edge from-layer="174" from-port="0" to-layer="1234" to-port="4"/>
		<edge from-layer="1239" from-port="0" to-layer="1240" to-port="0"/>
		<edge from-layer="1235" from-port="0" to-layer="1240" to-port="1"/>
		<edge from-layer="1236" from-port="0" to-layer="1240" to-port="2"/>
		<edge from-layer="1237" from-port="0" to-layer="1240" to-port="3"/>
		<edge from-layer="1238" from-port="0" to-layer="1240" to-port="4"/>
		<edge from-layer="1234" from-port="5" to-layer="1241" to-port="0"/>
		<edge from-layer="1240" from-port="5" to-layer="1241" to-port="1"/>
		<edge from-layer="1241" from-port="2" to-layer="1243" to-port="0"/>
		<edge from-layer="1242" from-port="0" to-layer="1243" to-port="1"/>
		<edge from-layer="1243" from-port="2" to-layer="1244" to-port="0"/>
		<edge from-layer="1244" from-port="1" to-layer="1245" to-port="0"/>
		<edge from-layer="167" from-port="0" to-layer="1245" to-port="1"/>
		<edge from-layer="168" from-port="0" to-layer="1245" to-port="2"/>
		<edge from-layer="169" from-port="0" to-layer="1245" to-port="3"/>
		<edge from-layer="170" from-port="0" to-layer="1245" to-port="4"/>
		<edge from-layer="1250" from-port="0" to-layer="1251" to-port="0"/>
		<edge from-layer="1246" from-port="0" to-layer="1251" to-port="1"/>
		<edge from-layer="1247" from-port="0" to-layer="1251" to-port="2"/>
		<edge from-layer="1248" from-port="0" to-layer="1251" to-port="3"/>
		<edge from-layer="1249" from-port="0" to-layer="1251" to-port="4"/>
		<edge from-layer="1245" from-port="5" to-layer="1252" to-port="0"/>
		<edge from-layer="1251" from-port="5" to-layer="1252" to-port="1"/>
		<edge from-layer="1252" from-port="2" to-layer="1254" to-port="0"/>
		<edge from-layer="1253" from-port="0" to-layer="1254" to-port="1"/>
		<edge from-layer="1254" from-port="2" to-layer="1255" to-port="0"/>
		<edge from-layer="1255" from-port="1" to-layer="1256" to-port="0"/>
		<edge from-layer="163" from-port="0" to-layer="1256" to-port="1"/>
		<edge from-layer="164" from-port="0" to-layer="1256" to-port="2"/>
		<edge from-layer="165" from-port="0" to-layer="1256" to-port="3"/>
		<edge from-layer="166" from-port="0" to-layer="1256" to-port="4"/>
		<edge from-layer="1256" from-port="5" to-layer="1257" to-port="0"/>
		<edge from-layer="1232" from-port="5" to-layer="1257" to-port="1"/>
		<edge from-layer="1257" from-port="2" to-layer="1258" to-port="0"/>
		<edge from-layer="159" from-port="0" to-layer="1258" to-port="1"/>
		<edge from-layer="160" from-port="0" to-layer="1258" to-port="2"/>
		<edge from-layer="161" from-port="0" to-layer="1258" to-port="3"/>
		<edge from-layer="162" from-port="0" to-layer="1258" to-port="4"/>
		<edge from-layer="1263" from-port="0" to-layer="1264" to-port="0"/>
		<edge from-layer="1259" from-port="0" to-layer="1264" to-port="1"/>
		<edge from-layer="1260" from-port="0" to-layer="1264" to-port="2"/>
		<edge from-layer="1261" from-port="0" to-layer="1264" to-port="3"/>
		<edge from-layer="1262" from-port="0" to-layer="1264" to-port="4"/>
		<edge from-layer="1258" from-port="5" to-layer="1265" to-port="0"/>
		<edge from-layer="1264" from-port="5" to-layer="1265" to-port="1"/>
		<edge from-layer="1265" from-port="2" to-layer="1267" to-port="0"/>
		<edge from-layer="1266" from-port="0" to-layer="1267" to-port="1"/>
		<edge from-layer="1267" from-port="2" to-layer="1268" to-port="0"/>
		<edge from-layer="155" from-port="0" to-layer="1268" to-port="1"/>
		<edge from-layer="156" from-port="0" to-layer="1268" to-port="2"/>
		<edge from-layer="157" from-port="0" to-layer="1268" to-port="3"/>
		<edge from-layer="158" from-port="0" to-layer="1268" to-port="4"/>
		<edge from-layer="1268" from-port="5" to-layer="1269" to-port="0"/>
		<edge from-layer="154" from-port="5" to-layer="1269" to-port="1"/>
		<edge from-layer="1269" from-port="2" to-layer="1271" to-port="0"/>
		<edge from-layer="1270" from-port="0" to-layer="1271" to-port="1"/>
		<edge from-layer="1271" from-port="2" to-layer="1272" to-port="0"/>
		<edge from-layer="1272" from-port="1" to-layer="1273" to-port="0"/>
		<edge from-layer="145" from-port="0" to-layer="1273" to-port="1"/>
		<edge from-layer="146" from-port="0" to-layer="1273" to-port="2"/>
		<edge from-layer="147" from-port="0" to-layer="1273" to-port="3"/>
		<edge from-layer="148" from-port="0" to-layer="1273" to-port="4"/>
		<edge from-layer="1279" from-port="0" to-layer="1280" to-port="0"/>
		<edge from-layer="1275" from-port="0" to-layer="1280" to-port="1"/>
		<edge from-layer="1276" from-port="0" to-layer="1280" to-port="2"/>
		<edge from-layer="1277" from-port="0" to-layer="1280" to-port="3"/>
		<edge from-layer="1278" from-port="0" to-layer="1280" to-port="4"/>
		<edge from-layer="1280" from-port="5" to-layer="1281" to-port="0"/>
		<edge from-layer="1274" from-port="0" to-layer="1281" to-port="1"/>
		<edge from-layer="1273" from-port="5" to-layer="1282" to-port="0"/>
		<edge from-layer="1281" from-port="2" to-layer="1282" to-port="1"/>
		<edge from-layer="1282" from-port="2" to-layer="1284" to-port="0"/>
		<edge from-layer="1283" from-port="0" to-layer="1284" to-port="1"/>
		<edge from-layer="1284" from-port="2" to-layer="1285" to-port="0"/>
		<edge from-layer="1285" from-port="1" to-layer="1286" to-port="0"/>
		<edge from-layer="141" from-port="0" to-layer="1286" to-port="1"/>
		<edge from-layer="142" from-port="0" to-layer="1286" to-port="2"/>
		<edge from-layer="143" from-port="0" to-layer="1286" to-port="3"/>
		<edge from-layer="144" from-port="0" to-layer="1286" to-port="4"/>
		<edge from-layer="1286" from-port="5" to-layer="1287" to-port="0"/>
		<edge from-layer="140" from-port="0" to-layer="1287" to-port="1"/>
		<edge from-layer="1287" from-port="2" to-layer="1288" to-port="0"/>
		<edge from-layer="136" from-port="0" to-layer="1288" to-port="1"/>
		<edge from-layer="137" from-port="0" to-layer="1288" to-port="2"/>
		<edge from-layer="138" from-port="0" to-layer="1288" to-port="3"/>
		<edge from-layer="139" from-port="0" to-layer="1288" to-port="4"/>
		<edge from-layer="1293" from-port="0" to-layer="1294" to-port="0"/>
		<edge from-layer="1289" from-port="0" to-layer="1294" to-port="1"/>
		<edge from-layer="1290" from-port="0" to-layer="1294" to-port="2"/>
		<edge from-layer="1291" from-port="0" to-layer="1294" to-port="3"/>
		<edge from-layer="1292" from-port="0" to-layer="1294" to-port="4"/>
		<edge from-layer="1288" from-port="5" to-layer="1295" to-port="0"/>
		<edge from-layer="1294" from-port="5" to-layer="1295" to-port="1"/>
		<edge from-layer="1295" from-port="2" to-layer="1297" to-port="0"/>
		<edge from-layer="1296" from-port="0" to-layer="1297" to-port="1"/>
		<edge from-layer="1297" from-port="2" to-layer="1298" to-port="0"/>
		<edge from-layer="1298" from-port="1" to-layer="1299" to-port="0"/>
		<edge from-layer="132" from-port="0" to-layer="1299" to-port="1"/>
		<edge from-layer="133" from-port="0" to-layer="1299" to-port="2"/>
		<edge from-layer="134" from-port="0" to-layer="1299" to-port="3"/>
		<edge from-layer="135" from-port="0" to-layer="1299" to-port="4"/>
		<edge from-layer="1304" from-port="0" to-layer="1305" to-port="0"/>
		<edge from-layer="1300" from-port="0" to-layer="1305" to-port="1"/>
		<edge from-layer="1301" from-port="0" to-layer="1305" to-port="2"/>
		<edge from-layer="1302" from-port="0" to-layer="1305" to-port="3"/>
		<edge from-layer="1303" from-port="0" to-layer="1305" to-port="4"/>
		<edge from-layer="1299" from-port="5" to-layer="1306" to-port="0"/>
		<edge from-layer="1305" from-port="5" to-layer="1306" to-port="1"/>
		<edge from-layer="1306" from-port="2" to-layer="1308" to-port="0"/>
		<edge from-layer="1307" from-port="0" to-layer="1308" to-port="1"/>
		<edge from-layer="1308" from-port="2" to-layer="1309" to-port="0"/>
		<edge from-layer="1309" from-port="1" to-layer="1310" to-port="0"/>
		<edge from-layer="128" from-port="0" to-layer="1310" to-port="1"/>
		<edge from-layer="129" from-port="0" to-layer="1310" to-port="2"/>
		<edge from-layer="130" from-port="0" to-layer="1310" to-port="3"/>
		<edge from-layer="131" from-port="0" to-layer="1310" to-port="4"/>
		<edge from-layer="1310" from-port="5" to-layer="1311" to-port="0"/>
		<edge from-layer="1286" from-port="5" to-layer="1311" to-port="1"/>
		<edge from-layer="1311" from-port="2" to-layer="1312" to-port="0"/>
		<edge from-layer="124" from-port="0" to-layer="1312" to-port="1"/>
		<edge from-layer="125" from-port="0" to-layer="1312" to-port="2"/>
		<edge from-layer="126" from-port="0" to-layer="1312" to-port="3"/>
		<edge from-layer="127" from-port="0" to-layer="1312" to-port="4"/>
		<edge from-layer="1317" from-port="0" to-layer="1318" to-port="0"/>
		<edge from-layer="1313" from-port="0" to-layer="1318" to-port="1"/>
		<edge from-layer="1314" from-port="0" to-layer="1318" to-port="2"/>
		<edge from-layer="1315" from-port="0" to-layer="1318" to-port="3"/>
		<edge from-layer="1316" from-port="0" to-layer="1318" to-port="4"/>
		<edge from-layer="1312" from-port="5" to-layer="1319" to-port="0"/>
		<edge from-layer="1318" from-port="5" to-layer="1319" to-port="1"/>
		<edge from-layer="1319" from-port="2" to-layer="1321" to-port="0"/>
		<edge from-layer="1320" from-port="0" to-layer="1321" to-port="1"/>
		<edge from-layer="1321" from-port="2" to-layer="1322" to-port="0"/>
		<edge from-layer="120" from-port="0" to-layer="1322" to-port="1"/>
		<edge from-layer="121" from-port="0" to-layer="1322" to-port="2"/>
		<edge from-layer="122" from-port="0" to-layer="1322" to-port="3"/>
		<edge from-layer="123" from-port="0" to-layer="1322" to-port="4"/>
		<edge from-layer="1322" from-port="5" to-layer="1323" to-port="0"/>
		<edge from-layer="1268" from-port="5" to-layer="1323" to-port="1"/>
		<edge from-layer="1323" from-port="2" to-layer="1324" to-port="0"/>
		<edge from-layer="116" from-port="0" to-layer="1324" to-port="1"/>
		<edge from-layer="117" from-port="0" to-layer="1324" to-port="2"/>
		<edge from-layer="118" from-port="0" to-layer="1324" to-port="3"/>
		<edge from-layer="119" from-port="0" to-layer="1324" to-port="4"/>
		<edge from-layer="1324" from-port="5" to-layer="1325" to-port="0"/>
		<edge from-layer="115" from-port="5" to-layer="1325" to-port="1"/>
		<edge from-layer="1325" from-port="2" to-layer="1327" to-port="0"/>
		<edge from-layer="1326" from-port="0" to-layer="1327" to-port="1"/>
		<edge from-layer="1327" from-port="2" to-layer="1328" to-port="0"/>
		<edge from-layer="1328" from-port="1" to-layer="1329" to-port="0"/>
		<edge from-layer="106" from-port="0" to-layer="1329" to-port="1"/>
		<edge from-layer="107" from-port="0" to-layer="1329" to-port="2"/>
		<edge from-layer="108" from-port="0" to-layer="1329" to-port="3"/>
		<edge from-layer="109" from-port="0" to-layer="1329" to-port="4"/>
		<edge from-layer="1335" from-port="0" to-layer="1336" to-port="0"/>
		<edge from-layer="1331" from-port="0" to-layer="1336" to-port="1"/>
		<edge from-layer="1332" from-port="0" to-layer="1336" to-port="2"/>
		<edge from-layer="1333" from-port="0" to-layer="1336" to-port="3"/>
		<edge from-layer="1334" from-port="0" to-layer="1336" to-port="4"/>
		<edge from-layer="1336" from-port="5" to-layer="1337" to-port="0"/>
		<edge from-layer="1330" from-port="0" to-layer="1337" to-port="1"/>
		<edge from-layer="1329" from-port="5" to-layer="1338" to-port="0"/>
		<edge from-layer="1337" from-port="2" to-layer="1338" to-port="1"/>
		<edge from-layer="1338" from-port="2" to-layer="1340" to-port="0"/>
		<edge from-layer="1339" from-port="0" to-layer="1340" to-port="1"/>
		<edge from-layer="1340" from-port="2" to-layer="1341" to-port="0"/>
		<edge from-layer="1341" from-port="1" to-layer="1342" to-port="0"/>
		<edge from-layer="102" from-port="0" to-layer="1342" to-port="1"/>
		<edge from-layer="103" from-port="0" to-layer="1342" to-port="2"/>
		<edge from-layer="104" from-port="0" to-layer="1342" to-port="3"/>
		<edge from-layer="105" from-port="0" to-layer="1342" to-port="4"/>
		<edge from-layer="1342" from-port="5" to-layer="1343" to-port="0"/>
		<edge from-layer="101" from-port="0" to-layer="1343" to-port="1"/>
		<edge from-layer="1343" from-port="2" to-layer="1344" to-port="0"/>
		<edge from-layer="97" from-port="0" to-layer="1344" to-port="1"/>
		<edge from-layer="98" from-port="0" to-layer="1344" to-port="2"/>
		<edge from-layer="99" from-port="0" to-layer="1344" to-port="3"/>
		<edge from-layer="100" from-port="0" to-layer="1344" to-port="4"/>
		<edge from-layer="1349" from-port="0" to-layer="1350" to-port="0"/>
		<edge from-layer="1345" from-port="0" to-layer="1350" to-port="1"/>
		<edge from-layer="1346" from-port="0" to-layer="1350" to-port="2"/>
		<edge from-layer="1347" from-port="0" to-layer="1350" to-port="3"/>
		<edge from-layer="1348" from-port="0" to-layer="1350" to-port="4"/>
		<edge from-layer="1344" from-port="5" to-layer="1351" to-port="0"/>
		<edge from-layer="1350" from-port="5" to-layer="1351" to-port="1"/>
		<edge from-layer="1351" from-port="2" to-layer="1353" to-port="0"/>
		<edge from-layer="1352" from-port="0" to-layer="1353" to-port="1"/>
		<edge from-layer="1353" from-port="2" to-layer="1354" to-port="0"/>
		<edge from-layer="1354" from-port="1" to-layer="1355" to-port="0"/>
		<edge from-layer="93" from-port="0" to-layer="1355" to-port="1"/>
		<edge from-layer="94" from-port="0" to-layer="1355" to-port="2"/>
		<edge from-layer="95" from-port="0" to-layer="1355" to-port="3"/>
		<edge from-layer="96" from-port="0" to-layer="1355" to-port="4"/>
		<edge from-layer="1360" from-port="0" to-layer="1361" to-port="0"/>
		<edge from-layer="1356" from-port="0" to-layer="1361" to-port="1"/>
		<edge from-layer="1357" from-port="0" to-layer="1361" to-port="2"/>
		<edge from-layer="1358" from-port="0" to-layer="1361" to-port="3"/>
		<edge from-layer="1359" from-port="0" to-layer="1361" to-port="4"/>
		<edge from-layer="1355" from-port="5" to-layer="1362" to-port="0"/>
		<edge from-layer="1361" from-port="5" to-layer="1362" to-port="1"/>
		<edge from-layer="1362" from-port="2" to-layer="1364" to-port="0"/>
		<edge from-layer="1363" from-port="0" to-layer="1364" to-port="1"/>
		<edge from-layer="1364" from-port="2" to-layer="1365" to-port="0"/>
		<edge from-layer="1365" from-port="1" to-layer="1366" to-port="0"/>
		<edge from-layer="89" from-port="0" to-layer="1366" to-port="1"/>
		<edge from-layer="90" from-port="0" to-layer="1366" to-port="2"/>
		<edge from-layer="91" from-port="0" to-layer="1366" to-port="3"/>
		<edge from-layer="92" from-port="0" to-layer="1366" to-port="4"/>
		<edge from-layer="1366" from-port="5" to-layer="1367" to-port="0"/>
		<edge from-layer="1342" from-port="5" to-layer="1367" to-port="1"/>
		<edge from-layer="1367" from-port="2" to-layer="1368" to-port="0"/>
		<edge from-layer="85" from-port="0" to-layer="1368" to-port="1"/>
		<edge from-layer="86" from-port="0" to-layer="1368" to-port="2"/>
		<edge from-layer="87" from-port="0" to-layer="1368" to-port="3"/>
		<edge from-layer="88" from-port="0" to-layer="1368" to-port="4"/>
		<edge from-layer="1373" from-port="0" to-layer="1374" to-port="0"/>
		<edge from-layer="1369" from-port="0" to-layer="1374" to-port="1"/>
		<edge from-layer="1370" from-port="0" to-layer="1374" to-port="2"/>
		<edge from-layer="1371" from-port="0" to-layer="1374" to-port="3"/>
		<edge from-layer="1372" from-port="0" to-layer="1374" to-port="4"/>
		<edge from-layer="1368" from-port="5" to-layer="1375" to-port="0"/>
		<edge from-layer="1374" from-port="5" to-layer="1375" to-port="1"/>
		<edge from-layer="1375" from-port="2" to-layer="1377" to-port="0"/>
		<edge from-layer="1376" from-port="0" to-layer="1377" to-port="1"/>
		<edge from-layer="1377" from-port="2" to-layer="1378" to-port="0"/>
		<edge from-layer="81" from-port="0" to-layer="1378" to-port="1"/>
		<edge from-layer="82" from-port="0" to-layer="1378" to-port="2"/>
		<edge from-layer="83" from-port="0" to-layer="1378" to-port="3"/>
		<edge from-layer="84" from-port="0" to-layer="1378" to-port="4"/>
		<edge from-layer="1378" from-port="5" to-layer="1379" to-port="0"/>
		<edge from-layer="1324" from-port="5" to-layer="1379" to-port="1"/>
		<edge from-layer="1379" from-port="2" to-layer="1380" to-port="0"/>
		<edge from-layer="77" from-port="0" to-layer="1380" to-port="1"/>
		<edge from-layer="78" from-port="0" to-layer="1380" to-port="2"/>
		<edge from-layer="79" from-port="0" to-layer="1380" to-port="3"/>
		<edge from-layer="80" from-port="0" to-layer="1380" to-port="4"/>
		<edge from-layer="1380" from-port="5" to-layer="1381" to-port="0"/>
		<edge from-layer="76" from-port="5" to-layer="1381" to-port="1"/>
		<edge from-layer="1381" from-port="2" to-layer="1383" to-port="0"/>
		<edge from-layer="1382" from-port="0" to-layer="1383" to-port="1"/>
		<edge from-layer="1383" from-port="2" to-layer="1384" to-port="0"/>
		<edge from-layer="1384" from-port="1" to-layer="1385" to-port="0"/>
		<edge from-layer="67" from-port="0" to-layer="1385" to-port="1"/>
		<edge from-layer="68" from-port="0" to-layer="1385" to-port="2"/>
		<edge from-layer="69" from-port="0" to-layer="1385" to-port="3"/>
		<edge from-layer="70" from-port="0" to-layer="1385" to-port="4"/>
		<edge from-layer="1391" from-port="0" to-layer="1392" to-port="0"/>
		<edge from-layer="1387" from-port="0" to-layer="1392" to-port="1"/>
		<edge from-layer="1388" from-port="0" to-layer="1392" to-port="2"/>
		<edge from-layer="1389" from-port="0" to-layer="1392" to-port="3"/>
		<edge from-layer="1390" from-port="0" to-layer="1392" to-port="4"/>
		<edge from-layer="1392" from-port="5" to-layer="1393" to-port="0"/>
		<edge from-layer="1386" from-port="0" to-layer="1393" to-port="1"/>
		<edge from-layer="1385" from-port="5" to-layer="1394" to-port="0"/>
		<edge from-layer="1393" from-port="2" to-layer="1394" to-port="1"/>
		<edge from-layer="1394" from-port="2" to-layer="1396" to-port="0"/>
		<edge from-layer="1395" from-port="0" to-layer="1396" to-port="1"/>
		<edge from-layer="1396" from-port="2" to-layer="1397" to-port="0"/>
		<edge from-layer="1397" from-port="1" to-layer="1398" to-port="0"/>
		<edge from-layer="63" from-port="0" to-layer="1398" to-port="1"/>
		<edge from-layer="64" from-port="0" to-layer="1398" to-port="2"/>
		<edge from-layer="65" from-port="0" to-layer="1398" to-port="3"/>
		<edge from-layer="66" from-port="0" to-layer="1398" to-port="4"/>
		<edge from-layer="1398" from-port="5" to-layer="1399" to-port="0"/>
		<edge from-layer="62" from-port="0" to-layer="1399" to-port="1"/>
		<edge from-layer="1399" from-port="2" to-layer="1400" to-port="0"/>
		<edge from-layer="58" from-port="0" to-layer="1400" to-port="1"/>
		<edge from-layer="59" from-port="0" to-layer="1400" to-port="2"/>
		<edge from-layer="60" from-port="0" to-layer="1400" to-port="3"/>
		<edge from-layer="61" from-port="0" to-layer="1400" to-port="4"/>
		<edge from-layer="1405" from-port="0" to-layer="1406" to-port="0"/>
		<edge from-layer="1401" from-port="0" to-layer="1406" to-port="1"/>
		<edge from-layer="1402" from-port="0" to-layer="1406" to-port="2"/>
		<edge from-layer="1403" from-port="0" to-layer="1406" to-port="3"/>
		<edge from-layer="1404" from-port="0" to-layer="1406" to-port="4"/>
		<edge from-layer="1400" from-port="5" to-layer="1407" to-port="0"/>
		<edge from-layer="1406" from-port="5" to-layer="1407" to-port="1"/>
		<edge from-layer="1407" from-port="2" to-layer="1409" to-port="0"/>
		<edge from-layer="1408" from-port="0" to-layer="1409" to-port="1"/>
		<edge from-layer="1409" from-port="2" to-layer="1410" to-port="0"/>
		<edge from-layer="1410" from-port="1" to-layer="1411" to-port="0"/>
		<edge from-layer="54" from-port="0" to-layer="1411" to-port="1"/>
		<edge from-layer="55" from-port="0" to-layer="1411" to-port="2"/>
		<edge from-layer="56" from-port="0" to-layer="1411" to-port="3"/>
		<edge from-layer="57" from-port="0" to-layer="1411" to-port="4"/>
		<edge from-layer="1416" from-port="0" to-layer="1417" to-port="0"/>
		<edge from-layer="1412" from-port="0" to-layer="1417" to-port="1"/>
		<edge from-layer="1413" from-port="0" to-layer="1417" to-port="2"/>
		<edge from-layer="1414" from-port="0" to-layer="1417" to-port="3"/>
		<edge from-layer="1415" from-port="0" to-layer="1417" to-port="4"/>
		<edge from-layer="1411" from-port="5" to-layer="1418" to-port="0"/>
		<edge from-layer="1417" from-port="5" to-layer="1418" to-port="1"/>
		<edge from-layer="1418" from-port="2" to-layer="1420" to-port="0"/>
		<edge from-layer="1419" from-port="0" to-layer="1420" to-port="1"/>
		<edge from-layer="1420" from-port="2" to-layer="1421" to-port="0"/>
		<edge from-layer="1421" from-port="1" to-layer="1422" to-port="0"/>
		<edge from-layer="50" from-port="0" to-layer="1422" to-port="1"/>
		<edge from-layer="51" from-port="0" to-layer="1422" to-port="2"/>
		<edge from-layer="52" from-port="0" to-layer="1422" to-port="3"/>
		<edge from-layer="53" from-port="0" to-layer="1422" to-port="4"/>
		<edge from-layer="1422" from-port="5" to-layer="1423" to-port="0"/>
		<edge from-layer="1398" from-port="5" to-layer="1423" to-port="1"/>
		<edge from-layer="1423" from-port="2" to-layer="1424" to-port="0"/>
		<edge from-layer="46" from-port="0" to-layer="1424" to-port="1"/>
		<edge from-layer="47" from-port="0" to-layer="1424" to-port="2"/>
		<edge from-layer="48" from-port="0" to-layer="1424" to-port="3"/>
		<edge from-layer="49" from-port="0" to-layer="1424" to-port="4"/>
		<edge from-layer="1429" from-port="0" to-layer="1430" to-port="0"/>
		<edge from-layer="1425" from-port="0" to-layer="1430" to-port="1"/>
		<edge from-layer="1426" from-port="0" to-layer="1430" to-port="2"/>
		<edge from-layer="1427" from-port="0" to-layer="1430" to-port="3"/>
		<edge from-layer="1428" from-port="0" to-layer="1430" to-port="4"/>
		<edge from-layer="1424" from-port="5" to-layer="1431" to-port="0"/>
		<edge from-layer="1430" from-port="5" to-layer="1431" to-port="1"/>
		<edge from-layer="1431" from-port="2" to-layer="1433" to-port="0"/>
		<edge from-layer="1432" from-port="0" to-layer="1433" to-port="1"/>
		<edge from-layer="1433" from-port="2" to-layer="1434" to-port="0"/>
		<edge from-layer="42" from-port="0" to-layer="1434" to-port="1"/>
		<edge from-layer="43" from-port="0" to-layer="1434" to-port="2"/>
		<edge from-layer="44" from-port="0" to-layer="1434" to-port="3"/>
		<edge from-layer="45" from-port="0" to-layer="1434" to-port="4"/>
		<edge from-layer="1434" from-port="5" to-layer="1435" to-port="0"/>
		<edge from-layer="1380" from-port="5" to-layer="1435" to-port="1"/>
		<edge from-layer="1435" from-port="2" to-layer="1436" to-port="0"/>
		<edge from-layer="38" from-port="0" to-layer="1436" to-port="1"/>
		<edge from-layer="39" from-port="0" to-layer="1436" to-port="2"/>
		<edge from-layer="40" from-port="0" to-layer="1436" to-port="3"/>
		<edge from-layer="41" from-port="0" to-layer="1436" to-port="4"/>
		<edge from-layer="1441" from-port="0" to-layer="1442" to-port="0"/>
		<edge from-layer="1437" from-port="0" to-layer="1442" to-port="1"/>
		<edge from-layer="1438" from-port="0" to-layer="1442" to-port="2"/>
		<edge from-layer="1439" from-port="0" to-layer="1442" to-port="3"/>
		<edge from-layer="1440" from-port="0" to-layer="1442" to-port="4"/>
		<edge from-layer="1436" from-port="5" to-layer="1443" to-port="0"/>
		<edge from-layer="1442" from-port="5" to-layer="1443" to-port="1"/>
		<edge from-layer="1443" from-port="2" to-layer="1445" to-port="0"/>
		<edge from-layer="1444" from-port="0" to-layer="1445" to-port="1"/>
		<edge from-layer="1445" from-port="2" to-layer="1446" to-port="0"/>
		<edge from-layer="1446" from-port="1" to-layer="1447" to-port="0"/>
		<edge from-layer="34" from-port="0" to-layer="1447" to-port="1"/>
		<edge from-layer="35" from-port="0" to-layer="1447" to-port="2"/>
		<edge from-layer="36" from-port="0" to-layer="1447" to-port="3"/>
		<edge from-layer="37" from-port="0" to-layer="1447" to-port="4"/>
		<edge from-layer="1453" from-port="0" to-layer="1454" to-port="0"/>
		<edge from-layer="1449" from-port="0" to-layer="1454" to-port="1"/>
		<edge from-layer="1450" from-port="0" to-layer="1454" to-port="2"/>
		<edge from-layer="1451" from-port="0" to-layer="1454" to-port="3"/>
		<edge from-layer="1452" from-port="0" to-layer="1454" to-port="4"/>
		<edge from-layer="1454" from-port="5" to-layer="1455" to-port="0"/>
		<edge from-layer="1448" from-port="0" to-layer="1455" to-port="1"/>
		<edge from-layer="1447" from-port="5" to-layer="1456" to-port="0"/>
		<edge from-layer="1455" from-port="2" to-layer="1456" to-port="1"/>
		<edge from-layer="1456" from-port="2" to-layer="1458" to-port="0"/>
		<edge from-layer="1457" from-port="0" to-layer="1458" to-port="1"/>
		<edge from-layer="1458" from-port="2" to-layer="1459" to-port="0"/>
		<edge from-layer="1459" from-port="1" to-layer="1460" to-port="0"/>
		<edge from-layer="30" from-port="0" to-layer="1460" to-port="1"/>
		<edge from-layer="31" from-port="0" to-layer="1460" to-port="2"/>
		<edge from-layer="32" from-port="0" to-layer="1460" to-port="3"/>
		<edge from-layer="33" from-port="0" to-layer="1460" to-port="4"/>
		<edge from-layer="1460" from-port="5" to-layer="1461" to-port="0"/>
		<edge from-layer="29" from-port="0" to-layer="1461" to-port="1"/>
		<edge from-layer="1461" from-port="2" to-layer="1462" to-port="0"/>
		<edge from-layer="25" from-port="0" to-layer="1462" to-port="1"/>
		<edge from-layer="26" from-port="0" to-layer="1462" to-port="2"/>
		<edge from-layer="27" from-port="0" to-layer="1462" to-port="3"/>
		<edge from-layer="28" from-port="0" to-layer="1462" to-port="4"/>
		<edge from-layer="1467" from-port="0" to-layer="1468" to-port="0"/>
		<edge from-layer="1463" from-port="0" to-layer="1468" to-port="1"/>
		<edge from-layer="1464" from-port="0" to-layer="1468" to-port="2"/>
		<edge from-layer="1465" from-port="0" to-layer="1468" to-port="3"/>
		<edge from-layer="1466" from-port="0" to-layer="1468" to-port="4"/>
		<edge from-layer="1462" from-port="5" to-layer="1469" to-port="0"/>
		<edge from-layer="1468" from-port="5" to-layer="1469" to-port="1"/>
		<edge from-layer="1469" from-port="2" to-layer="1471" to-port="0"/>
		<edge from-layer="1470" from-port="0" to-layer="1471" to-port="1"/>
		<edge from-layer="1471" from-port="2" to-layer="1472" to-port="0"/>
		<edge from-layer="1472" from-port="1" to-layer="1473" to-port="0"/>
		<edge from-layer="21" from-port="0" to-layer="1473" to-port="1"/>
		<edge from-layer="22" from-port="0" to-layer="1473" to-port="2"/>
		<edge from-layer="23" from-port="0" to-layer="1473" to-port="3"/>
		<edge from-layer="24" from-port="0" to-layer="1473" to-port="4"/>
		<edge from-layer="1478" from-port="0" to-layer="1479" to-port="0"/>
		<edge from-layer="1474" from-port="0" to-layer="1479" to-port="1"/>
		<edge from-layer="1475" from-port="0" to-layer="1479" to-port="2"/>
		<edge from-layer="1476" from-port="0" to-layer="1479" to-port="3"/>
		<edge from-layer="1477" from-port="0" to-layer="1479" to-port="4"/>
		<edge from-layer="1473" from-port="5" to-layer="1480" to-port="0"/>
		<edge from-layer="1479" from-port="5" to-layer="1480" to-port="1"/>
		<edge from-layer="1480" from-port="2" to-layer="1482" to-port="0"/>
		<edge from-layer="1481" from-port="0" to-layer="1482" to-port="1"/>
		<edge from-layer="1482" from-port="2" to-layer="1483" to-port="0"/>
		<edge from-layer="1483" from-port="1" to-layer="1484" to-port="0"/>
		<edge from-layer="17" from-port="0" to-layer="1484" to-port="1"/>
		<edge from-layer="18" from-port="0" to-layer="1484" to-port="2"/>
		<edge from-layer="19" from-port="0" to-layer="1484" to-port="3"/>
		<edge from-layer="20" from-port="0" to-layer="1484" to-port="4"/>
		<edge from-layer="1484" from-port="5" to-layer="1485" to-port="0"/>
		<edge from-layer="1460" from-port="5" to-layer="1485" to-port="1"/>
		<edge from-layer="1485" from-port="2" to-layer="1486" to-port="0"/>
		<edge from-layer="13" from-port="0" to-layer="1486" to-port="1"/>
		<edge from-layer="14" from-port="0" to-layer="1486" to-port="2"/>
		<edge from-layer="15" from-port="0" to-layer="1486" to-port="3"/>
		<edge from-layer="16" from-port="0" to-layer="1486" to-port="4"/>
		<edge from-layer="1491" from-port="0" to-layer="1492" to-port="0"/>
		<edge from-layer="1487" from-port="0" to-layer="1492" to-port="1"/>
		<edge from-layer="1488" from-port="0" to-layer="1492" to-port="2"/>
		<edge from-layer="1489" from-port="0" to-layer="1492" to-port="3"/>
		<edge from-layer="1490" from-port="0" to-layer="1492" to-port="4"/>
		<edge from-layer="1486" from-port="5" to-layer="1493" to-port="0"/>
		<edge from-layer="1492" from-port="5" to-layer="1493" to-port="1"/>
		<edge from-layer="1493" from-port="2" to-layer="1495" to-port="0"/>
		<edge from-layer="1494" from-port="0" to-layer="1495" to-port="1"/>
		<edge from-layer="1495" from-port="2" to-layer="1496" to-port="0"/>
		<edge from-layer="9" from-port="0" to-layer="1496" to-port="1"/>
		<edge from-layer="10" from-port="0" to-layer="1496" to-port="2"/>
		<edge from-layer="11" from-port="0" to-layer="1496" to-port="3"/>
		<edge from-layer="12" from-port="0" to-layer="1496" to-port="4"/>
		<edge from-layer="1501" from-port="0" to-layer="1502" to-port="0"/>
		<edge from-layer="1497" from-port="0" to-layer="1502" to-port="1"/>
		<edge from-layer="1498" from-port="0" to-layer="1502" to-port="2"/>
		<edge from-layer="1499" from-port="0" to-layer="1502" to-port="3"/>
		<edge from-layer="1500" from-port="0" to-layer="1502" to-port="4"/>
		<edge from-layer="1496" from-port="5" to-layer="1503" to-port="0"/>
		<edge from-layer="1502" from-port="5" to-layer="1503" to-port="1"/>
		<edge from-layer="1503" from-port="2" to-layer="1505" to-port="0"/>
		<edge from-layer="1504" from-port="0" to-layer="1505" to-port="1"/>
		<edge from-layer="1505" from-port="2" to-layer="1506" to-port="0"/>
		<edge from-layer="1506" from-port="1" to-layer="1507" to-port="0"/>
		<edge from-layer="5" from-port="0" to-layer="1507" to-port="1"/>
		<edge from-layer="6" from-port="0" to-layer="1507" to-port="2"/>
		<edge from-layer="7" from-port="0" to-layer="1507" to-port="3"/>
		<edge from-layer="8" from-port="0" to-layer="1507" to-port="4"/>
		<edge from-layer="1507" from-port="5" to-layer="1508" to-port="0"/>
		<edge from-layer="4" from-port="0" to-layer="1508" to-port="1"/>
		<edge from-layer="1508" from-port="2" to-layer="1509" to-port="0"/>
		<edge from-layer="0" from-port="0" to-layer="1509" to-port="1"/>
		<edge from-layer="1" from-port="0" to-layer="1509" to-port="2"/>
		<edge from-layer="2" from-port="0" to-layer="1509" to-port="3"/>
		<edge from-layer="3" from-port="0" to-layer="1509" to-port="4"/>
		<edge from-layer="1514" from-port="0" to-layer="1515" to-port="0"/>
		<edge from-layer="1510" from-port="0" to-layer="1515" to-port="1"/>
		<edge from-layer="1511" from-port="0" to-layer="1515" to-port="2"/>
		<edge from-layer="1512" from-port="0" to-layer="1515" to-port="3"/>
		<edge from-layer="1513" from-port="0" to-layer="1515" to-port="4"/>
		<edge from-layer="1509" from-port="5" to-layer="1516" to-port="0"/>
		<edge from-layer="1515" from-port="5" to-layer="1516" to-port="1"/>
		<edge from-layer="1516" from-port="2" to-layer="1518" to-port="0"/>
		<edge from-layer="1517" from-port="0" to-layer="1518" to-port="1"/>
		<edge from-layer="1518" from-port="2" to-layer="1519" to-port="0"/>
	</edges>
	<meta_data>
		<MO_version value="2021.4.2-3976-0943ed67223-refs/pull/539/head"/>
		<cli_parameters>
			<caffe_parser_path value="DIR"/>
			<data_type value="FP16"/>
			<disable_nhwc_to_nchw value="False"/>
			<disable_omitting_optional value="False"/>
			<disable_resnet_optimization value="False"/>
			<disable_weights_compression value="False"/>
			<enable_concat_optimization value="False"/>
			<enable_flattening_nested_params value="False"/>
			<enable_ssd_gluoncv value="False"/>
			<extensions value="DIR"/>
			<framework value="tf"/>
			<freeze_placeholder_with_value value="{}"/>
			<generate_deprecated_IR_V7 value="False"/>
			<input value="0:sub"/>
			<input_meta_graph value="DIR/model.ckpt.meta"/>
			<input_model_is_text value="False"/>
			<input_shape value="[1,224,224,3]"/>
			<k value="DIR/CustomLayersMapping.xml"/>
			<keep_shape_ops value="True"/>
			<legacy_ir_generation value="False"/>
			<legacy_mxnet_model value="False"/>
			<log_level value="ERROR"/>
			<mean_scale_values value="{}"/>
			<mean_values value="()"/>
			<model_name value="efficientnet-b0"/>
			<output value="['logits']"/>
			<output_dir value="DIR"/>
			<placeholder_data_types value="{}"/>
			<placeholder_shapes value="{'0:sub': array([  1, 224, 224,   3])}"/>
			<progress value="False"/>
			<remove_memory value="False"/>
			<remove_output_softmax value="False"/>
			<reverse_input_channels value="True"/>
			<save_params_from_nd value="False"/>
			<scale_values value="()"/>
			<silent value="False"/>
			<static_shape value="False"/>
			<stream_output value="False"/>
			<transform value=""/>
			<unset unset_cli_parameters="batch, counts, disable_fusing, disable_gfusing, finegrain_fusing, input_checkpoint, input_model, input_proto, input_symbol, mean_file, mean_file_offsets, move_to_preprocess, nd_prefix_name, pretrained_model_name, saved_model_dir, saved_model_tags, scale, tensorboard_logdir, tensorflow_custom_layer_libraries, tensorflow_custom_operations_config_update, tensorflow_object_detection_api_pipeline_config, tensorflow_use_custom_operations_config, transformations_config"/>
		</cli_parameters>
	</meta_data>
	<quantization_parameters>
		<config/>
		<version value="{}"/>
		<cli_params value="{}"/>
	</quantization_parameters>
</net>
