<?xml version="1.0" ?>
<net name="efficientnet-b0" version="10">
	<layers>
		<layer id="0" name="3586359012821" type="Const" version="opset1">
			<data element_type="f32" offset="0" shape="" size="4"/>
			<output>
				<port id="0" precision="FP32"/>
			</output>
		</layer>
		<layer id="1" name="3587359112182" type="Const" version="opset1">
			<data element_type="f32" offset="4" shape="" size="4"/>
			<output>
				<port id="0" precision="FP32"/>
			</output>
		</layer>
		<layer id="2" name="3588359212677" type="Const" version="opset1">
			<data element_type="f32" offset="0" shape="" size="4"/>
			<output>
				<port id="0" precision="FP32"/>
			</output>
		</layer>
		<layer id="3" name="3589359312869" type="Const" version="opset1">
			<data element_type="f32" offset="4" shape="" size="4"/>
			<output>
				<port id="0" precision="FP32"/>
			</output>
		</layer>
		<layer id="4" name="efficientnet-b0/model/head/global_average_pooling2d/MeanGather143641867491013802" type="Const" version="opset1">
			<data element_type="i64" offset="8" shape="2" size="16"/>
			<output>
				<port id="0" precision="I64">
					<dim>2</dim>
				</port>
			</output>
		</layer>
		<layer id="5" name="2556256013943" type="Const" version="opset1">
			<data element_type="f32" offset="24" shape="" size="4"/>
			<output>
				<port id="0" precision="FP32"/>
			</output>
		</layer>
		<layer id="6" name="2557256113403" type="Const" version="opset1">
			<data element_type="f32" offset="28" shape="" size="4"/>
			<output>
				<port id="0" precision="FP32"/>
			</output>
		</layer>
		<layer id="7" name="2558256212929" type="Const" version="opset1">
			<data element_type="f32" offset="24" shape="" size="4"/>
			<output>
				<port id="0" precision="FP32"/>
			</output>
		</layer>
		<layer id="8" name="2559256314000" type="Const" version="opset1">
			<data element_type="f32" offset="28" shape="" size="4"/>
			<output>
				<port id="0" precision="FP32"/>
			</output>
		</layer>
		<layer id="9" name="2306231011222" type="Const" version="opset1">
			<data element_type="f32" offset="32" shape="" size="4"/>
			<output>
				<port id="0" precision="FP32"/>
			</output>
		</layer>
		<layer id="10" name="2307231112797" type="Const" version="opset1">
			<data element_type="f32" offset="36" shape="" size="4"/>
			<output>
				<port id="0" precision="FP32"/>
			</output>
		</layer>
		<layer id="11" name="2308231211846" type="Const" version="opset1">
			<data element_type="f32" offset="32" shape="" size="4"/>
			<output>
				<port id="0" precision="FP32"/>
			</output>
		</layer>
		<layer id="12" name="2309231311432" type="Const" version="opset1">
			<data element_type="f32" offset="36" shape="" size="4"/>
			<output>
				<port id="0" precision="FP32"/>
			</output>
		</layer>
		<layer id="13" name="2396240013301" type="Const" version="opset1">
			<data element_type="f32" offset="40" shape="" size="4"/>
			<output>
				<port id="0" precision="FP32"/>
			</output>
		</layer>
		<layer id="14" name="2397240112617" type="Const" version="opset1">
			<data element_type="f32" offset="44" shape="" size="4"/>
			<output>
				<port id="0" precision="FP32"/>
			</output>
		</layer>
		<layer id="15" name="2398240212317" type="Const" version="opset1">
			<data element_type="f32" offset="40" shape="" size="4"/>
			<output>
				<port id="0" precision="FP32"/>
			</output>
		</layer>
		<layer id="16" name="2399240312266" type="Const" version="opset1">
			<data element_type="f32" offset="44" shape="" size="4"/>
			<output>
				<port id="0" precision="FP32"/>
			</output>
		</layer>
		<layer id="17" name="2476248011990" type="Const" version="opset1">
			<data element_type="f32" offset="48" shape="" size="4"/>
			<output>
				<port id="0" precision="FP32"/>
			</output>
		</layer>
		<layer id="18" name="2477248111360" type="Const" version="opset1">
			<data element_type="f32" offset="52" shape="" size="4"/>
			<output>
				<port id="0" precision="FP32"/>
			</output>
		</layer>
		<layer id="19" name="2478248212755" type="Const" version="opset1">
			<data element_type="f32" offset="48" shape="" size="4"/>
			<output>
				<port id="0" precision="FP32"/>
			</output>
		</layer>
		<layer id="20" name="2479248311816" type="Const" version="opset1">
			<data element_type="f32" offset="52" shape="" size="4"/>
			<output>
				<port id="0" precision="FP32"/>
			</output>
		</layer>
		<layer id="21" name="2646265012647" type="Const" version="opset1">
			<data element_type="f32" offset="56" shape="" size="4"/>
			<output>
				<port id="0" precision="FP32"/>
			</output>
		</layer>
		<layer id="22" name="2647265113982" type="Const" version="opset1">
			<data element_type="f32" offset="60" shape="" size="4"/>
			<output>
				<port id="0" precision="FP32"/>
			</output>
		</layer>
		<layer id="23" name="2648265214078" type="Const" version="opset1">
			<data element_type="f32" offset="56" shape="" size="4"/>
			<output>
				<port id="0" precision="FP32"/>
			</output>
		</layer>
		<layer id="24" name="2649265313856" type="Const" version="opset1">
			<data element_type="f32" offset="60" shape="" size="4"/>
			<output>
				<port id="0" precision="FP32"/>
			</output>
		</layer>
		<layer id="25" name="2706271014018" type="Const" version="opset1">
			<data element_type="f32" offset="64" shape="" size="4"/>
			<output>
				<port id="0" precision="FP32"/>
			</output>
		</layer>
		<layer id="26" name="2707271113655" type="Const" version="opset1">
			<data element_type="f32" offset="68" shape="" size="4"/>
			<output>
				<port id="0" precision="FP32"/>
			</output>
		</layer>
		<layer id="27" name="2708271213433" type="Const" version="opset1">
			<data element_type="f32" offset="64" shape="" size="4"/>
			<output>
				<port id="0" precision="FP32"/>
			</output>
		</layer>
		<layer id="28" name="2709271311267" type="Const" version="opset1">
			<data element_type="f32" offset="68" shape="" size="4"/>
			<output>
				<port id="0" precision="FP32"/>
			</output>
		</layer>
		<layer id="29" name="128681906788813934" type="Const" version="opset1">
			<data element_type="i64" offset="8" shape="2" size="16"/>
			<output>
				<port id="0" precision="I64">
					<dim>2</dim>
				</port>
			</output>
		</layer>
		<layer id="30" name="2906291013016" type="Const" version="opset1">
			<data element_type="f32" offset="72" shape="" size="4"/>
			<output>
				<port id="0" precision="FP32"/>
			</output>
		</layer>
		<layer id="31" name="2907291112215" type="Const" version="opset1">
			<data element_type="f32" offset="76" shape="" size="4"/>
			<output>
				<port id="0" precision="FP32"/>
			</output>
		</layer>
		<layer id="32" name="2908291213103" type="Const" version="opset1">
			<data element_type="f32" offset="72" shape="" size="4"/>
			<output>
				<port id="0" precision="FP32"/>
			</output>
		</layer>
		<layer id="33" name="2909291311918" type="Const" version="opset1">
			<data element_type="f32" offset="76" shape="" size="4"/>
			<output>
				<port id="0" precision="FP32"/>
			</output>
		</layer>
		<layer id="34" name="2116212013175" type="Const" version="opset1">
			<data element_type="f32" offset="80" shape="1,1152,1,1" size="4608"/>
			<output>
				<port id="0" precision="FP32">
					<dim>1</dim>
					<dim>1152</dim>
					<dim>1</dim>
					<dim>1</dim>
				</port>
			</output>
		</layer>
		<layer id="35" name="2117212113499" type="Const" version="opset1">
			<data element_type="f32" offset="4688" shape="1,1152,1,1" size="4608"/>
			<output>
				<port id="0" precision="FP32">
					<dim>1</dim>
					<dim>1152</dim>
					<dim>1</dim>
					<dim>1</dim>
				</port>
			</output>
		</layer>
		<layer id="36" name="2118212213205" type="Const" version="opset1">
			<data element_type="f32" offset="80" shape="1,1152,1,1" size="4608"/>
			<output>
				<port id="0" precision="FP32">
					<dim>1</dim>
					<dim>1152</dim>
					<dim>1</dim>
					<dim>1</dim>
				</port>
			</output>
		</layer>
		<layer id="37" name="2119212313157" type="Const" version="opset1">
			<data element_type="f32" offset="4688" shape="1,1152,1,1" size="4608"/>
			<output>
				<port id="0" precision="FP32">
					<dim>1</dim>
					<dim>1152</dim>
					<dim>1</dim>
					<dim>1</dim>
				</port>
			</output>
		</layer>
		<layer id="38" name="3356336012962" type="Const" version="opset1">
			<data element_type="f32" offset="9296" shape="" size="4"/>
			<output>
				<port id="0" precision="FP32"/>
			</output>
		</layer>
		<layer id="39" name="3357336111639" type="Const" version="opset1">
			<data element_type="f32" offset="9300" shape="" size="4"/>
			<output>
				<port id="0" precision="FP32"/>
			</output>
		</layer>
		<layer id="40" name="3358336211780" type="Const" version="opset1">
			<data element_type="f32" offset="9296" shape="" size="4"/>
			<output>
				<port id="0" precision="FP32"/>
			</output>
		</layer>
		<layer id="41" name="3359336313907" type="Const" version="opset1">
			<data element_type="f32" offset="9300" shape="" size="4"/>
			<output>
				<port id="0" precision="FP32"/>
			</output>
		</layer>
		<layer id="42" name="2566257011660" type="Const" version="opset1">
			<data element_type="f32" offset="9304" shape="" size="4"/>
			<output>
				<port id="0" precision="FP32"/>
			</output>
		</layer>
		<layer id="43" name="2567257113865" type="Const" version="opset1">
			<data element_type="f32" offset="9308" shape="" size="4"/>
			<output>
				<port id="0" precision="FP32"/>
			</output>
		</layer>
		<layer id="44" name="2568257212119" type="Const" version="opset1">
			<data element_type="f32" offset="9304" shape="" size="4"/>
			<output>
				<port id="0" precision="FP32"/>
			</output>
		</layer>
		<layer id="45" name="2569257312857" type="Const" version="opset1">
			<data element_type="f32" offset="9308" shape="" size="4"/>
			<output>
				<port id="0" precision="FP32"/>
			</output>
		</layer>
		<layer id="46" name="2456246011681" type="Const" version="opset1">
			<data element_type="f32" offset="9312" shape="" size="4"/>
			<output>
				<port id="0" precision="FP32"/>
			</output>
		</layer>
		<layer id="47" name="2457246112395" type="Const" version="opset1">
			<data element_type="f32" offset="9316" shape="" size="4"/>
			<output>
				<port id="0" precision="FP32"/>
			</output>
		</layer>
		<layer id="48" name="2458246213409" type="Const" version="opset1">
			<data element_type="f32" offset="9312" shape="" size="4"/>
			<output>
				<port id="0" precision="FP32"/>
			</output>
		</layer>
		<layer id="49" name="2459246312068" type="Const" version="opset1">
			<data element_type="f32" offset="9316" shape="" size="4"/>
			<output>
				<port id="0" precision="FP32"/>
			</output>
		</layer>
		<layer id="50" name="3466347013961" type="Const" version="opset1">
			<data element_type="f32" offset="48" shape="" size="4"/>
			<output>
				<port id="0" precision="FP32"/>
			</output>
		</layer>
		<layer id="51" name="3467347113742" type="Const" version="opset1">
			<data element_type="f32" offset="9320" shape="" size="4"/>
			<output>
				<port id="0" precision="FP32"/>
			</output>
		</layer>
		<layer id="52" name="3468347213442" type="Const" version="opset1">
			<data element_type="f32" offset="48" shape="" size="4"/>
			<output>
				<port id="0" precision="FP32"/>
			</output>
		</layer>
		<layer id="53" name="3469347311648" type="Const" version="opset1">
			<data element_type="f32" offset="9320" shape="" size="4"/>
			<output>
				<port id="0" precision="FP32"/>
			</output>
		</layer>
		<layer id="54" name="1756176012752" type="Const" version="opset1">
			<data element_type="f32" offset="9324" shape="" size="4"/>
			<output>
				<port id="0" precision="FP32"/>
			</output>
		</layer>
		<layer id="55" name="1757176113940" type="Const" version="opset1">
			<data element_type="f32" offset="9328" shape="" size="4"/>
			<output>
				<port id="0" precision="FP32"/>
			</output>
		</layer>
		<layer id="56" name="1758176213964" type="Const" version="opset1">
			<data element_type="f32" offset="9324" shape="" size="4"/>
			<output>
				<port id="0" precision="FP32"/>
			</output>
		</layer>
		<layer id="57" name="1759176312794" type="Const" version="opset1">
			<data element_type="f32" offset="9328" shape="" size="4"/>
			<output>
				<port id="0" precision="FP32"/>
			</output>
		</layer>
		<layer id="58" name="3726373012995" type="Const" version="opset1">
			<data element_type="f32" offset="9332" shape="" size="4"/>
			<output>
				<port id="0" precision="FP32"/>
			</output>
		</layer>
		<layer id="59" name="3727373111393" type="Const" version="opset1">
			<data element_type="f32" offset="9336" shape="" size="4"/>
			<output>
				<port id="0" precision="FP32"/>
			</output>
		</layer>
		<layer id="60" name="3728373212482" type="Const" version="opset1">
			<data element_type="f32" offset="9332" shape="" size="4"/>
			<output>
				<port id="0" precision="FP32"/>
			</output>
		</layer>
		<layer id="61" name="3729373312650" type="Const" version="opset1">
			<data element_type="f32" offset="9336" shape="" size="4"/>
			<output>
				<port id="0" precision="FP32"/>
			</output>
		</layer>
		<layer id="62" name="128421878886012248" type="Const" version="opset1">
			<data element_type="i64" offset="8" shape="2" size="16"/>
			<output>
				<port id="0" precision="I64">
					<dim>2</dim>
				</port>
			</output>
		</layer>
		<layer id="63" name="3656366011525" type="Const" version="opset1">
			<data element_type="f32" offset="9340" shape="" size="4"/>
			<output>
				<port id="0" precision="FP32"/>
			</output>
		</layer>
		<layer id="64" name="3657366113757" type="Const" version="opset1">
			<data element_type="f32" offset="9344" shape="" size="4"/>
			<output>
				<port id="0" precision="FP32"/>
			</output>
		</layer>
		<layer id="65" name="3658366213034" type="Const" version="opset1">
			<data element_type="f32" offset="9340" shape="" size="4"/>
			<output>
				<port id="0" precision="FP32"/>
			</output>
		</layer>
		<layer id="66" name="3659366313406" type="Const" version="opset1">
			<data element_type="f32" offset="9344" shape="" size="4"/>
			<output>
				<port id="0" precision="FP32"/>
			</output>
		</layer>
		<layer id="67" name="1896190013322" type="Const" version="opset1">
			<data element_type="f32" offset="9348" shape="1,1152,1,1" size="4608"/>
			<output>
				<port id="0" precision="FP32">
					<dim>1</dim>
					<dim>1152</dim>
					<dim>1</dim>
					<dim>1</dim>
				</port>
			</output>
		</layer>
		<layer id="68" name="1897190112578" type="Const" version="opset1">
			<data element_type="f32" offset="13956" shape="1,1152,1,1" size="4608"/>
			<output>
				<port id="0" precision="FP32">
					<dim>1</dim>
					<dim>1152</dim>
					<dim>1</dim>
					<dim>1</dim>
				</port>
			</output>
		</layer>
		<layer id="69" name="1898190212509" type="Const" version="opset1">
			<data element_type="f32" offset="9348" shape="1,1152,1,1" size="4608"/>
			<output>
				<port id="0" precision="FP32">
					<dim>1</dim>
					<dim>1152</dim>
					<dim>1</dim>
					<dim>1</dim>
				</port>
			</output>
		</layer>
		<layer id="70" name="1899190312179" type="Const" version="opset1">
			<data element_type="f32" offset="13956" shape="1,1152,1,1" size="4608"/>
			<output>
				<port id="0" precision="FP32">
					<dim>1</dim>
					<dim>1152</dim>
					<dim>1</dim>
					<dim>1</dim>
				</port>
			</output>
		</layer>
		<layer id="71" name="3456346013352" type="Const" version="opset1">
			<data element_type="f32" offset="18564" shape="1152,1,1,1" size="4608"/>
			<output>
				<port id="0" precision="FP32">
					<dim>1152</dim>
					<dim>1</dim>
					<dim>1</dim>
					<dim>1</dim>
				</port>
			</output>
		</layer>
		<layer id="72" name="3457346111999" type="Const" version="opset1">
			<data element_type="f32" offset="23172" shape="1152,1,1,1" size="4608"/>
			<output>
				<port id="0" precision="FP32">
					<dim>1152</dim>
					<dim>1</dim>
					<dim>1</dim>
					<dim>1</dim>
				</port>
			</output>
		</layer>
		<layer id="73" name="3458346213565" type="Const" version="opset1">
			<data element_type="f32" offset="18564" shape="1152,1,1,1" size="4608"/>
			<output>
				<port id="0" precision="FP32">
					<dim>1152</dim>
					<dim>1</dim>
					<dim>1</dim>
					<dim>1</dim>
				</port>
			</output>
		</layer>
		<layer id="74" name="3459346313862" type="Const" version="opset1">
			<data element_type="f32" offset="23172" shape="1152,1,1,1" size="4608"/>
			<output>
				<port id="0" precision="FP32">
					<dim>1152</dim>
					<dim>1</dim>
					<dim>1</dim>
					<dim>1</dim>
				</port>
			</output>
		</layer>
		<layer id="75" name="efficientnet-b0/model/blocks_14/tpu_batch_normalization/batchnorm/mul_1_copy85011714" type="Const" version="opset1">
			<data element_type="f32" offset="27780" shape="1152,192,1,1" size="884736"/>
			<output>
				<port id="0" names="efficientnet-b0/blocks_14/conv2d/kernel/read:0" precision="FP32">
					<dim>1152</dim>
					<dim>192</dim>
					<dim>1</dim>
					<dim>1</dim>
				</port>
			</output>
		</layer>
		<layer id="76" name="efficientnet-b0/model/blocks_14/conv2d/Conv2D/fq_weights_1" type="FakeQuantize" version="opset1">
			<data auto_broadcast="numpy" levels="255"/>
			<input>
				<port id="0">
					<dim>1152</dim>
					<dim>192</dim>
					<dim>1</dim>
					<dim>1</dim>
				</port>
				<port id="1">
					<dim>1152</dim>
					<dim>1</dim>
					<dim>1</dim>
					<dim>1</dim>
				</port>
				<port id="2">
					<dim>1152</dim>
					<dim>1</dim>
					<dim>1</dim>
					<dim>1</dim>
				</port>
				<port id="3">
					<dim>1152</dim>
					<dim>1</dim>
					<dim>1</dim>
					<dim>1</dim>
				</port>
				<port id="4">
					<dim>1152</dim>
					<dim>1</dim>
					<dim>1</dim>
					<dim>1</dim>
				</port>
			</input>
			<output>
				<port id="5" precision="FP32">
					<dim>1152</dim>
					<dim>192</dim>
					<dim>1</dim>
					<dim>1</dim>
				</port>
			</output>
		</layer>
		<layer id="77" name="2576258011993" type="Const" version="opset1">
			<data element_type="f32" offset="912516" shape="" size="4"/>
			<output>
				<port id="0" precision="FP32"/>
			</output>
		</layer>
		<layer id="78" name="2577258112827" type="Const" version="opset1">
			<data element_type="f32" offset="912520" shape="" size="4"/>
			<output>
				<port id="0" precision="FP32"/>
			</output>
		</layer>
		<layer id="79" name="2578258211543" type="Const" version="opset1">
			<data element_type="f32" offset="912516" shape="" size="4"/>
			<output>
				<port id="0" precision="FP32"/>
			</output>
		</layer>
		<layer id="80" name="2579258312662" type="Const" version="opset1">
			<data element_type="f32" offset="912520" shape="" size="4"/>
			<output>
				<port id="0" precision="FP32"/>
			</output>
		</layer>
		<layer id="81" name="2866287013379" type="Const" version="opset1">
			<data element_type="f32" offset="912524" shape="" size="4"/>
			<output>
				<port id="0" precision="FP32"/>
			</output>
		</layer>
		<layer id="82" name="2867287111747" type="Const" version="opset1">
			<data element_type="f32" offset="912528" shape="" size="4"/>
			<output>
				<port id="0" precision="FP32"/>
			</output>
		</layer>
		<layer id="83" name="2868287213055" type="Const" version="opset1">
			<data element_type="f32" offset="912524" shape="" size="4"/>
			<output>
				<port id="0" precision="FP32"/>
			</output>
		</layer>
		<layer id="84" name="2869287313010" type="Const" version="opset1">
			<data element_type="f32" offset="912528" shape="" size="4"/>
			<output>
				<port id="0" precision="FP32"/>
			</output>
		</layer>
		<layer id="85" name="1996200011915" type="Const" version="opset1">
			<data element_type="f32" offset="912532" shape="" size="4"/>
			<output>
				<port id="0" precision="FP32"/>
			</output>
		</layer>
		<layer id="86" name="1997200113376" type="Const" version="opset1">
			<data element_type="f32" offset="912536" shape="" size="4"/>
			<output>
				<port id="0" precision="FP32"/>
			</output>
		</layer>
		<layer id="87" name="1998200213142" type="Const" version="opset1">
			<data element_type="f32" offset="912532" shape="" size="4"/>
			<output>
				<port id="0" precision="FP32"/>
			</output>
		</layer>
		<layer id="88" name="1999200311363" type="Const" version="opset1">
			<data element_type="f32" offset="912536" shape="" size="4"/>
			<output>
				<port id="0" precision="FP32"/>
			</output>
		</layer>
		<layer id="89" name="2976298011156" type="Const" version="opset1">
			<data element_type="f32" offset="48" shape="" size="4"/>
			<output>
				<port id="0" precision="FP32"/>
			</output>
		</layer>
		<layer id="90" name="2977298113781" type="Const" version="opset1">
			<data element_type="f32" offset="912540" shape="" size="4"/>
			<output>
				<port id="0" precision="FP32"/>
			</output>
		</layer>
		<layer id="91" name="2978298212431" type="Const" version="opset1">
			<data element_type="f32" offset="48" shape="" size="4"/>
			<output>
				<port id="0" precision="FP32"/>
			</output>
		</layer>
		<layer id="92" name="2979298313151" type="Const" version="opset1">
			<data element_type="f32" offset="912540" shape="" size="4"/>
			<output>
				<port id="0" precision="FP32"/>
			</output>
		</layer>
		<layer id="93" name="2416242013607" type="Const" version="opset1">
			<data element_type="f32" offset="912544" shape="" size="4"/>
			<output>
				<port id="0" precision="FP32"/>
			</output>
		</layer>
		<layer id="94" name="2417242112170" type="Const" version="opset1">
			<data element_type="f32" offset="912548" shape="" size="4"/>
			<output>
				<port id="0" precision="FP32"/>
			</output>
		</layer>
		<layer id="95" name="2418242211225" type="Const" version="opset1">
			<data element_type="f32" offset="912544" shape="" size="4"/>
			<output>
				<port id="0" precision="FP32"/>
			</output>
		</layer>
		<layer id="96" name="2419242311642" type="Const" version="opset1">
			<data element_type="f32" offset="912548" shape="" size="4"/>
			<output>
				<port id="0" precision="FP32"/>
			</output>
		</layer>
		<layer id="97" name="1846185012758" type="Const" version="opset1">
			<data element_type="f32" offset="912552" shape="" size="4"/>
			<output>
				<port id="0" precision="FP32"/>
			</output>
		</layer>
		<layer id="98" name="1847185111813" type="Const" version="opset1">
			<data element_type="f32" offset="912556" shape="" size="4"/>
			<output>
				<port id="0" precision="FP32"/>
			</output>
		</layer>
		<layer id="99" name="1848185212191" type="Const" version="opset1">
			<data element_type="f32" offset="912552" shape="" size="4"/>
			<output>
				<port id="0" precision="FP32"/>
			</output>
		</layer>
		<layer id="100" name="1849185311924" type="Const" version="opset1">
			<data element_type="f32" offset="912556" shape="" size="4"/>
			<output>
				<port id="0" precision="FP32"/>
			</output>
		</layer>
		<layer id="101" name="128161856683212245" type="Const" version="opset1">
			<data element_type="i64" offset="8" shape="2" size="16"/>
			<output>
				<port id="0" precision="I64">
					<dim>2</dim>
				</port>
			</output>
		</layer>
		<layer id="102" name="3196320012851" type="Const" version="opset1">
			<data element_type="f32" offset="912560" shape="" size="4"/>
			<output>
				<port id="0" precision="FP32"/>
			</output>
		</layer>
		<layer id="103" name="3197320114171" type="Const" version="opset1">
			<data element_type="f32" offset="912564" shape="" size="4"/>
			<output>
				<port id="0" precision="FP32"/>
			</output>
		</layer>
		<layer id="104" name="3198320214108" type="Const" version="opset1">
			<data element_type="f32" offset="912560" shape="" size="4"/>
			<output>
				<port id="0" precision="FP32"/>
			</output>
		</layer>
		<layer id="105" name="3199320311705" type="Const" version="opset1">
			<data element_type="f32" offset="912564" shape="" size="4"/>
			<output>
				<port id="0" precision="FP32"/>
			</output>
		</layer>
		<layer id="106" name="1656166011240" type="Const" version="opset1">
			<data element_type="f32" offset="912568" shape="1,1152,1,1" size="4608"/>
			<output>
				<port id="0" precision="FP32">
					<dim>1</dim>
					<dim>1152</dim>
					<dim>1</dim>
					<dim>1</dim>
				</port>
			</output>
		</layer>
		<layer id="107" name="1657166113817" type="Const" version="opset1">
			<data element_type="f32" offset="917176" shape="1,1152,1,1" size="4608"/>
			<output>
				<port id="0" precision="FP32">
					<dim>1</dim>
					<dim>1152</dim>
					<dim>1</dim>
					<dim>1</dim>
				</port>
			</output>
		</layer>
		<layer id="108" name="1658166213286" type="Const" version="opset1">
			<data element_type="f32" offset="912568" shape="1,1152,1,1" size="4608"/>
			<output>
				<port id="0" precision="FP32">
					<dim>1</dim>
					<dim>1152</dim>
					<dim>1</dim>
					<dim>1</dim>
				</port>
			</output>
		</layer>
		<layer id="109" name="1659166311759" type="Const" version="opset1">
			<data element_type="f32" offset="917176" shape="1,1152,1,1" size="4608"/>
			<output>
				<port id="0" precision="FP32">
					<dim>1</dim>
					<dim>1152</dim>
					<dim>1</dim>
					<dim>1</dim>
				</port>
			</output>
		</layer>
		<layer id="110" name="3716372013337" type="Const" version="opset1">
			<data element_type="f32" offset="921784" shape="1152,1,1,1" size="4608"/>
			<output>
				<port id="0" precision="FP32">
					<dim>1152</dim>
					<dim>1</dim>
					<dim>1</dim>
					<dim>1</dim>
				</port>
			</output>
		</layer>
		<layer id="111" name="3717372114126" type="Const" version="opset1">
			<data element_type="f32" offset="926392" shape="1152,1,1,1" size="4608"/>
			<output>
				<port id="0" precision="FP32">
					<dim>1152</dim>
					<dim>1</dim>
					<dim>1</dim>
					<dim>1</dim>
				</port>
			</output>
		</layer>
		<layer id="112" name="3718372211726" type="Const" version="opset1">
			<data element_type="f32" offset="921784" shape="1152,1,1,1" size="4608"/>
			<output>
				<port id="0" precision="FP32">
					<dim>1152</dim>
					<dim>1</dim>
					<dim>1</dim>
					<dim>1</dim>
				</port>
			</output>
		</layer>
		<layer id="113" name="3719372313052" type="Const" version="opset1">
			<data element_type="f32" offset="926392" shape="1152,1,1,1" size="4608"/>
			<output>
				<port id="0" precision="FP32">
					<dim>1152</dim>
					<dim>1</dim>
					<dim>1</dim>
					<dim>1</dim>
				</port>
			</output>
		</layer>
		<layer id="114" name="efficientnet-b0/model/blocks_13/tpu_batch_normalization/batchnorm/mul_1_copy82214027" type="Const" version="opset1">
			<data element_type="f32" offset="931000" shape="1152,192,1,1" size="884736"/>
			<output>
				<port id="0" names="efficientnet-b0/blocks_13/conv2d/kernel/read:0" precision="FP32">
					<dim>1152</dim>
					<dim>192</dim>
					<dim>1</dim>
					<dim>1</dim>
				</port>
			</output>
		</layer>
		<layer id="115" name="efficientnet-b0/model/blocks_13/conv2d/Conv2D/fq_weights_1" type="FakeQuantize" version="opset1">
			<data auto_broadcast="numpy" levels="255"/>
			<input>
				<port id="0">
					<dim>1152</dim>
					<dim>192</dim>
					<dim>1</dim>
					<dim>1</dim>
				</port>
				<port id="1">
					<dim>1152</dim>
					<dim>1</dim>
					<dim>1</dim>
					<dim>1</dim>
				</port>
				<port id="2">
					<dim>1152</dim>
					<dim>1</dim>
					<dim>1</dim>
					<dim>1</dim>
				</port>
				<port id="3">
					<dim>1152</dim>
					<dim>1</dim>
					<dim>1</dim>
					<dim>1</dim>
				</port>
				<port id="4">
					<dim>1152</dim>
					<dim>1</dim>
					<dim>1</dim>
					<dim>1</dim>
				</port>
			</input>
			<output>
				<port id="5" precision="FP32">
					<dim>1152</dim>
					<dim>192</dim>
					<dim>1</dim>
					<dim>1</dim>
				</port>
			</output>
		</layer>
		<layer id="116" name="2876288012506" type="Const" version="opset1">
			<data element_type="f32" offset="1815736" shape="" size="4"/>
			<output>
				<port id="0" precision="FP32"/>
			</output>
		</layer>
		<layer id="117" name="2877288111630" type="Const" version="opset1">
			<data element_type="f32" offset="1815740" shape="" size="4"/>
			<output>
				<port id="0" precision="FP32"/>
			</output>
		</layer>
		<layer id="118" name="2878288213583" type="Const" version="opset1">
			<data element_type="f32" offset="1815736" shape="" size="4"/>
			<output>
				<port id="0" precision="FP32"/>
			</output>
		</layer>
		<layer id="119" name="2879288313715" type="Const" version="opset1">
			<data element_type="f32" offset="1815740" shape="" size="4"/>
			<output>
				<port id="0" precision="FP32"/>
			</output>
		</layer>
		<layer id="120" name="2516252013730" type="Const" version="opset1">
			<data element_type="f32" offset="1815744" shape="" size="4"/>
			<output>
				<port id="0" precision="FP32"/>
			</output>
		</layer>
		<layer id="121" name="2517252113070" type="Const" version="opset1">
			<data element_type="f32" offset="1815748" shape="" size="4"/>
			<output>
				<port id="0" precision="FP32"/>
			</output>
		</layer>
		<layer id="122" name="2518252213484" type="Const" version="opset1">
			<data element_type="f32" offset="1815744" shape="" size="4"/>
			<output>
				<port id="0" precision="FP32"/>
			</output>
		</layer>
		<layer id="123" name="2519252314135" type="Const" version="opset1">
			<data element_type="f32" offset="1815748" shape="" size="4"/>
			<output>
				<port id="0" precision="FP32"/>
			</output>
		</layer>
		<layer id="124" name="3076308011495" type="Const" version="opset1">
			<data element_type="f32" offset="1815752" shape="" size="4"/>
			<output>
				<port id="0" precision="FP32"/>
			</output>
		</layer>
		<layer id="125" name="3077308112917" type="Const" version="opset1">
			<data element_type="f32" offset="1815756" shape="" size="4"/>
			<output>
				<port id="0" precision="FP32"/>
			</output>
		</layer>
		<layer id="126" name="3078308212629" type="Const" version="opset1">
			<data element_type="f32" offset="1815752" shape="" size="4"/>
			<output>
				<port id="0" precision="FP32"/>
			</output>
		</layer>
		<layer id="127" name="3079308311783" type="Const" version="opset1">
			<data element_type="f32" offset="1815756" shape="" size="4"/>
			<output>
				<port id="0" precision="FP32"/>
			</output>
		</layer>
		<layer id="128" name="2886289013841" type="Const" version="opset1">
			<data element_type="f32" offset="48" shape="" size="4"/>
			<output>
				<port id="0" precision="FP32"/>
			</output>
		</layer>
		<layer id="129" name="2887289113568" type="Const" version="opset1">
			<data element_type="f32" offset="1815760" shape="" size="4"/>
			<output>
				<port id="0" precision="FP32"/>
			</output>
		</layer>
		<layer id="130" name="2888289211618" type="Const" version="opset1">
			<data element_type="f32" offset="48" shape="" size="4"/>
			<output>
				<port id="0" precision="FP32"/>
			</output>
		</layer>
		<layer id="131" name="2889289312017" type="Const" version="opset1">
			<data element_type="f32" offset="1815760" shape="" size="4"/>
			<output>
				<port id="0" precision="FP32"/>
			</output>
		</layer>
		<layer id="132" name="2756276014180" type="Const" version="opset1">
			<data element_type="f32" offset="1815764" shape="" size="4"/>
			<output>
				<port id="0" precision="FP32"/>
			</output>
		</layer>
		<layer id="133" name="2757276111237" type="Const" version="opset1">
			<data element_type="f32" offset="1815768" shape="" size="4"/>
			<output>
				<port id="0" precision="FP32"/>
			</output>
		</layer>
		<layer id="134" name="2758276211291" type="Const" version="opset1">
			<data element_type="f32" offset="1815764" shape="" size="4"/>
			<output>
				<port id="0" precision="FP32"/>
			</output>
		</layer>
		<layer id="135" name="2759276313610" type="Const" version="opset1">
			<data element_type="f32" offset="1815768" shape="" size="4"/>
			<output>
				<port id="0" precision="FP32"/>
			</output>
		</layer>
		<layer id="136" name="2796280012665" type="Const" version="opset1">
			<data element_type="f32" offset="1815772" shape="" size="4"/>
			<output>
				<port id="0" precision="FP32"/>
			</output>
		</layer>
		<layer id="137" name="2797280113973" type="Const" version="opset1">
			<data element_type="f32" offset="1815776" shape="" size="4"/>
			<output>
				<port id="0" precision="FP32"/>
			</output>
		</layer>
		<layer id="138" name="2798280211339" type="Const" version="opset1">
			<data element_type="f32" offset="1815772" shape="" size="4"/>
			<output>
				<port id="0" precision="FP32"/>
			</output>
		</layer>
		<layer id="139" name="2799280313439" type="Const" version="opset1">
			<data element_type="f32" offset="1815776" shape="" size="4"/>
			<output>
				<port id="0" precision="FP32"/>
			</output>
		</layer>
		<layer id="140" name="127901869280411381" type="Const" version="opset1">
			<data element_type="i64" offset="8" shape="2" size="16"/>
			<output>
				<port id="0" precision="I64">
					<dim>2</dim>
				</port>
			</output>
		</layer>
		<layer id="141" name="3306331011678" type="Const" version="opset1">
			<data element_type="f32" offset="1815780" shape="" size="4"/>
			<output>
				<port id="0" precision="FP32"/>
			</output>
		</layer>
		<layer id="142" name="3307331111186" type="Const" version="opset1">
			<data element_type="f32" offset="1815784" shape="" size="4"/>
			<output>
				<port id="0" precision="FP32"/>
			</output>
		</layer>
		<layer id="143" name="3308331213298" type="Const" version="opset1">
			<data element_type="f32" offset="1815780" shape="" size="4"/>
			<output>
				<port id="0" precision="FP32"/>
			</output>
		</layer>
		<layer id="144" name="3309331313478" type="Const" version="opset1">
			<data element_type="f32" offset="1815784" shape="" size="4"/>
			<output>
				<port id="0" precision="FP32"/>
			</output>
		</layer>
		<layer id="145" name="2916292011351" type="Const" version="opset1">
			<data element_type="f32" offset="1815788" shape="1,1152,1,1" size="4608"/>
			<output>
				<port id="0" precision="FP32">
					<dim>1</dim>
					<dim>1152</dim>
					<dim>1</dim>
					<dim>1</dim>
				</port>
			</output>
		</layer>
		<layer id="146" name="2917292112683" type="Const" version="opset1">
			<data element_type="f32" offset="1820396" shape="1,1152,1,1" size="4608"/>
			<output>
				<port id="0" precision="FP32">
					<dim>1</dim>
					<dim>1152</dim>
					<dim>1</dim>
					<dim>1</dim>
				</port>
			</output>
		</layer>
		<layer id="147" name="2918292211180" type="Const" version="opset1">
			<data element_type="f32" offset="1815788" shape="1,1152,1,1" size="4608"/>
			<output>
				<port id="0" precision="FP32">
					<dim>1</dim>
					<dim>1152</dim>
					<dim>1</dim>
					<dim>1</dim>
				</port>
			</output>
		</layer>
		<layer id="148" name="2919292313130" type="Const" version="opset1">
			<data element_type="f32" offset="1820396" shape="1,1152,1,1" size="4608"/>
			<output>
				<port id="0" precision="FP32">
					<dim>1</dim>
					<dim>1152</dim>
					<dim>1</dim>
					<dim>1</dim>
				</port>
			</output>
		</layer>
		<layer id="149" name="3436344013412" type="Const" version="opset1">
			<data element_type="f32" offset="1825004" shape="1152,1,1,1" size="4608"/>
			<output>
				<port id="0" precision="FP32">
					<dim>1152</dim>
					<dim>1</dim>
					<dim>1</dim>
					<dim>1</dim>
				</port>
			</output>
		</layer>
		<layer id="150" name="3437344111882" type="Const" version="opset1">
			<data element_type="f32" offset="1829612" shape="1152,1,1,1" size="4608"/>
			<output>
				<port id="0" precision="FP32">
					<dim>1152</dim>
					<dim>1</dim>
					<dim>1</dim>
					<dim>1</dim>
				</port>
			</output>
		</layer>
		<layer id="151" name="3438344213148" type="Const" version="opset1">
			<data element_type="f32" offset="1825004" shape="1152,1,1,1" size="4608"/>
			<output>
				<port id="0" precision="FP32">
					<dim>1152</dim>
					<dim>1</dim>
					<dim>1</dim>
					<dim>1</dim>
				</port>
			</output>
		</layer>
		<layer id="152" name="3439344312743" type="Const" version="opset1">
			<data element_type="f32" offset="1829612" shape="1152,1,1,1" size="4608"/>
			<output>
				<port id="0" precision="FP32">
					<dim>1152</dim>
					<dim>1</dim>
					<dim>1</dim>
					<dim>1</dim>
				</port>
			</output>
		</layer>
		<layer id="153" name="efficientnet-b0/model/blocks_12/tpu_batch_normalization/batchnorm/mul_1_copy79411564" type="Const" version="opset1">
			<data element_type="f32" offset="1834220" shape="1152,192,1,1" size="884736"/>
			<output>
				<port id="0" names="efficientnet-b0/blocks_12/conv2d/kernel/read:0" precision="FP32">
					<dim>1152</dim>
					<dim>192</dim>
					<dim>1</dim>
					<dim>1</dim>
				</port>
			</output>
		</layer>
		<layer id="154" name="efficientnet-b0/model/blocks_12/conv2d/Conv2D/fq_weights_1" type="FakeQuantize" version="opset1">
			<data auto_broadcast="numpy" levels="255"/>
			<input>
				<port id="0">
					<dim>1152</dim>
					<dim>192</dim>
					<dim>1</dim>
					<dim>1</dim>
				</port>
				<port id="1">
					<dim>1152</dim>
					<dim>1</dim>
					<dim>1</dim>
					<dim>1</dim>
				</port>
				<port id="2">
					<dim>1152</dim>
					<dim>1</dim>
					<dim>1</dim>
					<dim>1</dim>
				</port>
				<port id="3">
					<dim>1152</dim>
					<dim>1</dim>
					<dim>1</dim>
					<dim>1</dim>
				</port>
				<port id="4">
					<dim>1152</dim>
					<dim>1</dim>
					<dim>1</dim>
					<dim>1</dim>
				</port>
			</input>
			<output>
				<port id="5" precision="FP32">
					<dim>1152</dim>
					<dim>192</dim>
					<dim>1</dim>
					<dim>1</dim>
				</port>
			</output>
		</layer>
		<layer id="155" name="2526253012041" type="Const" version="opset1">
			<data element_type="f32" offset="2718956" shape="" size="4"/>
			<output>
				<port id="0" precision="FP32"/>
			</output>
		</layer>
		<layer id="156" name="2527253112707" type="Const" version="opset1">
			<data element_type="f32" offset="2718960" shape="" size="4"/>
			<output>
				<port id="0" precision="FP32"/>
			</output>
		</layer>
		<layer id="157" name="2528253212569" type="Const" version="opset1">
			<data element_type="f32" offset="2718956" shape="" size="4"/>
			<output>
				<port id="0" precision="FP32"/>
			</output>
		</layer>
		<layer id="158" name="2529253311510" type="Const" version="opset1">
			<data element_type="f32" offset="2718960" shape="" size="4"/>
			<output>
				<port id="0" precision="FP32"/>
			</output>
		</layer>
		<layer id="159" name="2846285012251" type="Const" version="opset1">
			<data element_type="f32" offset="2718964" shape="" size="4"/>
			<output>
				<port id="0" precision="FP32"/>
			</output>
		</layer>
		<layer id="160" name="2847285112254" type="Const" version="opset1">
			<data element_type="f32" offset="2718968" shape="" size="4"/>
			<output>
				<port id="0" precision="FP32"/>
			</output>
		</layer>
		<layer id="161" name="2848285213685" type="Const" version="opset1">
			<data element_type="f32" offset="2718964" shape="" size="4"/>
			<output>
				<port id="0" precision="FP32"/>
			</output>
		</layer>
		<layer id="162" name="2849285313094" type="Const" version="opset1">
			<data element_type="f32" offset="2718968" shape="" size="4"/>
			<output>
				<port id="0" precision="FP32"/>
			</output>
		</layer>
		<layer id="163" name="3246325013370" type="Const" version="opset1">
			<data element_type="f32" offset="48" shape="" size="4"/>
			<output>
				<port id="0" precision="FP32"/>
			</output>
		</layer>
		<layer id="164" name="3247325112059" type="Const" version="opset1">
			<data element_type="f32" offset="2718972" shape="" size="4"/>
			<output>
				<port id="0" precision="FP32"/>
			</output>
		</layer>
		<layer id="165" name="3248325212434" type="Const" version="opset1">
			<data element_type="f32" offset="48" shape="" size="4"/>
			<output>
				<port id="0" precision="FP32"/>
			</output>
		</layer>
		<layer id="166" name="3249325312203" type="Const" version="opset1">
			<data element_type="f32" offset="2718972" shape="" size="4"/>
			<output>
				<port id="0" precision="FP32"/>
			</output>
		</layer>
		<layer id="167" name="1576158012239" type="Const" version="opset1">
			<data element_type="f32" offset="2718976" shape="" size="4"/>
			<output>
				<port id="0" precision="FP32"/>
			</output>
		</layer>
		<layer id="168" name="1577158113028" type="Const" version="opset1">
			<data element_type="f32" offset="2718980" shape="" size="4"/>
			<output>
				<port id="0" precision="FP32"/>
			</output>
		</layer>
		<layer id="169" name="1578158212947" type="Const" version="opset1">
			<data element_type="f32" offset="2718976" shape="" size="4"/>
			<output>
				<port id="0" precision="FP32"/>
			</output>
		</layer>
		<layer id="170" name="1579158312401" type="Const" version="opset1">
			<data element_type="f32" offset="2718980" shape="" size="4"/>
			<output>
				<port id="0" precision="FP32"/>
			</output>
		</layer>
		<layer id="171" name="3286329013775" type="Const" version="opset1">
			<data element_type="f32" offset="2718984" shape="" size="4"/>
			<output>
				<port id="0" precision="FP32"/>
			</output>
		</layer>
		<layer id="172" name="3287329114039" type="Const" version="opset1">
			<data element_type="f32" offset="2718988" shape="" size="4"/>
			<output>
				<port id="0" precision="FP32"/>
			</output>
		</layer>
		<layer id="173" name="3288329213001" type="Const" version="opset1">
			<data element_type="f32" offset="2718984" shape="" size="4"/>
			<output>
				<port id="0" precision="FP32"/>
			</output>
		</layer>
		<layer id="174" name="3289329311699" type="Const" version="opset1">
			<data element_type="f32" offset="2718988" shape="" size="4"/>
			<output>
				<port id="0" precision="FP32"/>
			</output>
		</layer>
		<layer id="175" name="127641906477713193" type="Const" version="opset1">
			<data element_type="i64" offset="8" shape="2" size="16"/>
			<output>
				<port id="0" precision="I64">
					<dim>2</dim>
				</port>
			</output>
		</layer>
		<layer id="176" name="2816282012176" type="Const" version="opset1">
			<data element_type="f32" offset="2718992" shape="" size="4"/>
			<output>
				<port id="0" precision="FP32"/>
			</output>
		</layer>
		<layer id="177" name="2817282113127" type="Const" version="opset1">
			<data element_type="f32" offset="2718996" shape="" size="4"/>
			<output>
				<port id="0" precision="FP32"/>
			</output>
		</layer>
		<layer id="178" name="2818282211582" type="Const" version="opset1">
			<data element_type="f32" offset="2718992" shape="" size="4"/>
			<output>
				<port id="0" precision="FP32"/>
			</output>
		</layer>
		<layer id="179" name="2819282311951" type="Const" version="opset1">
			<data element_type="f32" offset="2718996" shape="" size="4"/>
			<output>
				<port id="0" precision="FP32"/>
			</output>
		</layer>
		<layer id="180" name="3156316013505" type="Const" version="opset1">
			<data element_type="f32" offset="2719000" shape="1,672,1,1" size="2688"/>
			<output>
				<port id="0" precision="FP32">
					<dim>1</dim>
					<dim>672</dim>
					<dim>1</dim>
					<dim>1</dim>
				</port>
			</output>
		</layer>
		<layer id="181" name="3157316111513" type="Const" version="opset1">
			<data element_type="f32" offset="2721688" shape="1,672,1,1" size="2688"/>
			<output>
				<port id="0" precision="FP32">
					<dim>1</dim>
					<dim>672</dim>
					<dim>1</dim>
					<dim>1</dim>
				</port>
			</output>
		</layer>
		<layer id="182" name="3158316213190" type="Const" version="opset1">
			<data element_type="f32" offset="2719000" shape="1,672,1,1" size="2688"/>
			<output>
				<port id="0" precision="FP32">
					<dim>1</dim>
					<dim>672</dim>
					<dim>1</dim>
					<dim>1</dim>
				</port>
			</output>
		</layer>
		<layer id="183" name="3159316312956" type="Const" version="opset1">
			<data element_type="f32" offset="2721688" shape="1,672,1,1" size="2688"/>
			<output>
				<port id="0" precision="FP32">
					<dim>1</dim>
					<dim>672</dim>
					<dim>1</dim>
					<dim>1</dim>
				</port>
			</output>
		</layer>
		<layer id="184" name="1506151011930" type="Const" version="opset1">
			<data element_type="f32" offset="2724376" shape="" size="4"/>
			<output>
				<port id="0" precision="FP32"/>
			</output>
		</layer>
		<layer id="185" name="1507151112890" type="Const" version="opset1">
			<data element_type="f32" offset="2724380" shape="" size="4"/>
			<output>
				<port id="0" precision="FP32"/>
			</output>
		</layer>
		<layer id="186" name="1508151211189" type="Const" version="opset1">
			<data element_type="f32" offset="2724376" shape="" size="4"/>
			<output>
				<port id="0" precision="FP32"/>
			</output>
		</layer>
		<layer id="187" name="1509151313427" type="Const" version="opset1">
			<data element_type="f32" offset="2724380" shape="" size="4"/>
			<output>
				<port id="0" precision="FP32"/>
			</output>
		</layer>
		<layer id="188" name="3566357014129" type="Const" version="opset1">
			<data element_type="f32" offset="2724384" shape="" size="4"/>
			<output>
				<port id="0" precision="FP32"/>
			</output>
		</layer>
		<layer id="189" name="3567357111840" type="Const" version="opset1">
			<data element_type="f32" offset="2724388" shape="" size="4"/>
			<output>
				<port id="0" precision="FP32"/>
			</output>
		</layer>
		<layer id="190" name="3568357213181" type="Const" version="opset1">
			<data element_type="f32" offset="2724384" shape="" size="4"/>
			<output>
				<port id="0" precision="FP32"/>
			</output>
		</layer>
		<layer id="191" name="3569357311774" type="Const" version="opset1">
			<data element_type="f32" offset="2724388" shape="" size="4"/>
			<output>
				<port id="0" precision="FP32"/>
			</output>
		</layer>
		<layer id="192" name="2096210012845" type="Const" version="opset1">
			<data element_type="f32" offset="2724392" shape="" size="4"/>
			<output>
				<port id="0" precision="FP32"/>
			</output>
		</layer>
		<layer id="193" name="2097210113112" type="Const" version="opset1">
			<data element_type="f32" offset="2724396" shape="" size="4"/>
			<output>
				<port id="0" precision="FP32"/>
			</output>
		</layer>
		<layer id="194" name="2098210211141" type="Const" version="opset1">
			<data element_type="f32" offset="2724392" shape="" size="4"/>
			<output>
				<port id="0" precision="FP32"/>
			</output>
		</layer>
		<layer id="195" name="2099210312374" type="Const" version="opset1">
			<data element_type="f32" offset="2724396" shape="" size="4"/>
			<output>
				<port id="0" precision="FP32"/>
			</output>
		</layer>
		<layer id="196" name="2226223011489" type="Const" version="opset1">
			<data element_type="f32" offset="48" shape="" size="4"/>
			<output>
				<port id="0" precision="FP32"/>
			</output>
		</layer>
		<layer id="197" name="2227223112761" type="Const" version="opset1">
			<data element_type="f32" offset="2724400" shape="" size="4"/>
			<output>
				<port id="0" precision="FP32"/>
			</output>
		</layer>
		<layer id="198" name="2228223212659" type="Const" version="opset1">
			<data element_type="f32" offset="48" shape="" size="4"/>
			<output>
				<port id="0" precision="FP32"/>
			</output>
		</layer>
		<layer id="199" name="2229223313358" type="Const" version="opset1">
			<data element_type="f32" offset="2724400" shape="" size="4"/>
			<output>
				<port id="0" precision="FP32"/>
			</output>
		</layer>
		<layer id="200" name="2246225013361" type="Const" version="opset1">
			<data element_type="f32" offset="2724404" shape="" size="4"/>
			<output>
				<port id="0" precision="FP32"/>
			</output>
		</layer>
		<layer id="201" name="2247225113580" type="Const" version="opset1">
			<data element_type="f32" offset="2724408" shape="" size="4"/>
			<output>
				<port id="0" precision="FP32"/>
			</output>
		</layer>
		<layer id="202" name="2248225211303" type="Const" version="opset1">
			<data element_type="f32" offset="2724404" shape="" size="4"/>
			<output>
				<port id="0" precision="FP32"/>
			</output>
		</layer>
		<layer id="203" name="2249225313874" type="Const" version="opset1">
			<data element_type="f32" offset="2724408" shape="" size="4"/>
			<output>
				<port id="0" precision="FP32"/>
			</output>
		</layer>
		<layer id="204" name="1736174011723" type="Const" version="opset1">
			<data element_type="f32" offset="2724412" shape="" size="4"/>
			<output>
				<port id="0" precision="FP32"/>
			</output>
		</layer>
		<layer id="205" name="1737174111822" type="Const" version="opset1">
			<data element_type="f32" offset="2724416" shape="" size="4"/>
			<output>
				<port id="0" precision="FP32"/>
			</output>
		</layer>
		<layer id="206" name="1738174211795" type="Const" version="opset1">
			<data element_type="f32" offset="2724412" shape="" size="4"/>
			<output>
				<port id="0" precision="FP32"/>
			</output>
		</layer>
		<layer id="207" name="1739174311594" type="Const" version="opset1">
			<data element_type="f32" offset="2724416" shape="" size="4"/>
			<output>
				<port id="0" precision="FP32"/>
			</output>
		</layer>
		<layer id="208" name="127381891174911414" type="Const" version="opset1">
			<data element_type="i64" offset="8" shape="2" size="16"/>
			<output>
				<port id="0" precision="I64">
					<dim>2</dim>
				</port>
			</output>
		</layer>
		<layer id="209" name="3766377013724" type="Const" version="opset1">
			<data element_type="f32" offset="2724420" shape="" size="4"/>
			<output>
				<port id="0" precision="FP32"/>
			</output>
		</layer>
		<layer id="210" name="3767377113850" type="Const" version="opset1">
			<data element_type="f32" offset="2724424" shape="" size="4"/>
			<output>
				<port id="0" precision="FP32"/>
			</output>
		</layer>
		<layer id="211" name="3768377213694" type="Const" version="opset1">
			<data element_type="f32" offset="2724420" shape="" size="4"/>
			<output>
				<port id="0" precision="FP32"/>
			</output>
		</layer>
		<layer id="212" name="3769377311981" type="Const" version="opset1">
			<data element_type="f32" offset="2724424" shape="" size="4"/>
			<output>
				<port id="0" precision="FP32"/>
			</output>
		</layer>
		<layer id="213" name="1826183013634" type="Const" version="opset1">
			<data element_type="f32" offset="2724428" shape="1,672,1,1" size="2688"/>
			<output>
				<port id="0" precision="FP32">
					<dim>1</dim>
					<dim>672</dim>
					<dim>1</dim>
					<dim>1</dim>
				</port>
			</output>
		</layer>
		<layer id="214" name="1827183113145" type="Const" version="opset1">
			<data element_type="f32" offset="2727116" shape="1,672,1,1" size="2688"/>
			<output>
				<port id="0" precision="FP32">
					<dim>1</dim>
					<dim>672</dim>
					<dim>1</dim>
					<dim>1</dim>
				</port>
			</output>
		</layer>
		<layer id="215" name="1828183213187" type="Const" version="opset1">
			<data element_type="f32" offset="2724428" shape="1,672,1,1" size="2688"/>
			<output>
				<port id="0" precision="FP32">
					<dim>1</dim>
					<dim>672</dim>
					<dim>1</dim>
					<dim>1</dim>
				</port>
			</output>
		</layer>
		<layer id="216" name="1829183311768" type="Const" version="opset1">
			<data element_type="f32" offset="2727116" shape="1,672,1,1" size="2688"/>
			<output>
				<port id="0" precision="FP32">
					<dim>1</dim>
					<dim>672</dim>
					<dim>1</dim>
					<dim>1</dim>
				</port>
			</output>
		</layer>
		<layer id="217" name="2446245013073" type="Const" version="opset1">
			<data element_type="f32" offset="2729804" shape="672,1,1,1" size="2688"/>
			<output>
				<port id="0" precision="FP32">
					<dim>672</dim>
					<dim>1</dim>
					<dim>1</dim>
					<dim>1</dim>
				</port>
			</output>
		</layer>
		<layer id="218" name="2447245112122" type="Const" version="opset1">
			<data element_type="f32" offset="2732492" shape="672,1,1,1" size="2688"/>
			<output>
				<port id="0" precision="FP32">
					<dim>672</dim>
					<dim>1</dim>
					<dim>1</dim>
					<dim>1</dim>
				</port>
			</output>
		</layer>
		<layer id="219" name="2448245213271" type="Const" version="opset1">
			<data element_type="f32" offset="2729804" shape="672,1,1,1" size="2688"/>
			<output>
				<port id="0" precision="FP32">
					<dim>672</dim>
					<dim>1</dim>
					<dim>1</dim>
					<dim>1</dim>
				</port>
			</output>
		</layer>
		<layer id="220" name="2449245311333" type="Const" version="opset1">
			<data element_type="f32" offset="2732492" shape="672,1,1,1" size="2688"/>
			<output>
				<port id="0" precision="FP32">
					<dim>672</dim>
					<dim>1</dim>
					<dim>1</dim>
					<dim>1</dim>
				</port>
			</output>
		</layer>
		<layer id="221" name="efficientnet-b0/model/blocks_10/tpu_batch_normalization/batchnorm/mul_1_copy73911150" type="Const" version="opset1">
			<data element_type="f32" offset="2735180" shape="672,112,1,1" size="301056"/>
			<output>
				<port id="0" names="efficientnet-b0/blocks_10/conv2d/kernel/read:0" precision="FP32">
					<dim>672</dim>
					<dim>112</dim>
					<dim>1</dim>
					<dim>1</dim>
				</port>
			</output>
		</layer>
		<layer id="222" name="efficientnet-b0/model/blocks_10/conv2d/Conv2D/fq_weights_1" type="FakeQuantize" version="opset1">
			<data auto_broadcast="numpy" levels="255"/>
			<input>
				<port id="0">
					<dim>672</dim>
					<dim>112</dim>
					<dim>1</dim>
					<dim>1</dim>
				</port>
				<port id="1">
					<dim>672</dim>
					<dim>1</dim>
					<dim>1</dim>
					<dim>1</dim>
				</port>
				<port id="2">
					<dim>672</dim>
					<dim>1</dim>
					<dim>1</dim>
					<dim>1</dim>
				</port>
				<port id="3">
					<dim>672</dim>
					<dim>1</dim>
					<dim>1</dim>
					<dim>1</dim>
				</port>
				<port id="4">
					<dim>672</dim>
					<dim>1</dim>
					<dim>1</dim>
					<dim>1</dim>
				</port>
			</input>
			<output>
				<port id="5" precision="FP32">
					<dim>672</dim>
					<dim>112</dim>
					<dim>1</dim>
					<dim>1</dim>
				</port>
			</output>
		</layer>
		<layer id="223" name="3576358012692" type="Const" version="opset1">
			<data element_type="f32" offset="3036236" shape="" size="4"/>
			<output>
				<port id="0" precision="FP32"/>
			</output>
		</layer>
		<layer id="224" name="3577358111519" type="Const" version="opset1">
			<data element_type="f32" offset="3036240" shape="" size="4"/>
			<output>
				<port id="0" precision="FP32"/>
			</output>
		</layer>
		<layer id="225" name="3578358213220" type="Const" version="opset1">
			<data element_type="f32" offset="3036236" shape="" size="4"/>
			<output>
				<port id="0" precision="FP32"/>
			</output>
		</layer>
		<layer id="226" name="3579358312020" type="Const" version="opset1">
			<data element_type="f32" offset="3036240" shape="" size="4"/>
			<output>
				<port id="0" precision="FP32"/>
			</output>
		</layer>
		<layer id="227" name="2016202012545" type="Const" version="opset1">
			<data element_type="f32" offset="3036244" shape="" size="4"/>
			<output>
				<port id="0" precision="FP32"/>
			</output>
		</layer>
		<layer id="228" name="2017202112071" type="Const" version="opset1">
			<data element_type="f32" offset="3036248" shape="" size="4"/>
			<output>
				<port id="0" precision="FP32"/>
			</output>
		</layer>
		<layer id="229" name="2018202214042" type="Const" version="opset1">
			<data element_type="f32" offset="3036244" shape="" size="4"/>
			<output>
				<port id="0" precision="FP32"/>
			</output>
		</layer>
		<layer id="230" name="2019202313679" type="Const" version="opset1">
			<data element_type="f32" offset="3036248" shape="" size="4"/>
			<output>
				<port id="0" precision="FP32"/>
			</output>
		</layer>
		<layer id="231" name="1956196013988" type="Const" version="opset1">
			<data element_type="f32" offset="3036252" shape="" size="4"/>
			<output>
				<port id="0" precision="FP32"/>
			</output>
		</layer>
		<layer id="232" name="1957196112653" type="Const" version="opset1">
			<data element_type="f32" offset="3036256" shape="" size="4"/>
			<output>
				<port id="0" precision="FP32"/>
			</output>
		</layer>
		<layer id="233" name="1958196212416" type="Const" version="opset1">
			<data element_type="f32" offset="3036252" shape="" size="4"/>
			<output>
				<port id="0" precision="FP32"/>
			</output>
		</layer>
		<layer id="234" name="1959196313196" type="Const" version="opset1">
			<data element_type="f32" offset="3036256" shape="" size="4"/>
			<output>
				<port id="0" precision="FP32"/>
			</output>
		</layer>
		<layer id="235" name="3266327012038" type="Const" version="opset1">
			<data element_type="f32" offset="48" shape="" size="4"/>
			<output>
				<port id="0" precision="FP32"/>
			</output>
		</layer>
		<layer id="236" name="3267327112392" type="Const" version="opset1">
			<data element_type="f32" offset="3036260" shape="" size="4"/>
			<output>
				<port id="0" precision="FP32"/>
			</output>
		</layer>
		<layer id="237" name="3268327212479" type="Const" version="opset1">
			<data element_type="f32" offset="48" shape="" size="4"/>
			<output>
				<port id="0" precision="FP32"/>
			</output>
		</layer>
		<layer id="238" name="3269327311309" type="Const" version="opset1">
			<data element_type="f32" offset="3036260" shape="" size="4"/>
			<output>
				<port id="0" precision="FP32"/>
			</output>
		</layer>
		<layer id="239" name="2956296014060" type="Const" version="opset1">
			<data element_type="f32" offset="3036264" shape="" size="4"/>
			<output>
				<port id="0" precision="FP32"/>
			</output>
		</layer>
		<layer id="240" name="2957296113343" type="Const" version="opset1">
			<data element_type="f32" offset="3036268" shape="" size="4"/>
			<output>
				<port id="0" precision="FP32"/>
			</output>
		</layer>
		<layer id="241" name="2958296212470" type="Const" version="opset1">
			<data element_type="f32" offset="3036264" shape="" size="4"/>
			<output>
				<port id="0" precision="FP32"/>
			</output>
		</layer>
		<layer id="242" name="2959296311288" type="Const" version="opset1">
			<data element_type="f32" offset="3036268" shape="" size="4"/>
			<output>
				<port id="0" precision="FP32"/>
			</output>
		</layer>
		<layer id="243" name="3376338011540" type="Const" version="opset1">
			<data element_type="f32" offset="3036272" shape="" size="4"/>
			<output>
				<port id="0" precision="FP32"/>
			</output>
		</layer>
		<layer id="244" name="3377338111252" type="Const" version="opset1">
			<data element_type="f32" offset="3036276" shape="" size="4"/>
			<output>
				<port id="0" precision="FP32"/>
			</output>
		</layer>
		<layer id="245" name="3378338212293" type="Const" version="opset1">
			<data element_type="f32" offset="3036272" shape="" size="4"/>
			<output>
				<port id="0" precision="FP32"/>
			</output>
		</layer>
		<layer id="246" name="3379338313391" type="Const" version="opset1">
			<data element_type="f32" offset="3036276" shape="" size="4"/>
			<output>
				<port id="0" precision="FP32"/>
			</output>
		</layer>
		<layer id="247" name="127121907072113541" type="Const" version="opset1">
			<data element_type="i64" offset="8" shape="2" size="16"/>
			<output>
				<port id="0" precision="I64">
					<dim>2</dim>
				</port>
			</output>
		</layer>
		<layer id="248" name="3646365012518" type="Const" version="opset1">
			<data element_type="f32" offset="3036280" shape="" size="4"/>
			<output>
				<port id="0" precision="FP32"/>
			</output>
		</layer>
		<layer id="249" name="3647365112989" type="Const" version="opset1">
			<data element_type="f32" offset="3036284" shape="" size="4"/>
			<output>
				<port id="0" precision="FP32"/>
			</output>
		</layer>
		<layer id="250" name="3648365214114" type="Const" version="opset1">
			<data element_type="f32" offset="3036280" shape="" size="4"/>
			<output>
				<port id="0" precision="FP32"/>
			</output>
		</layer>
		<layer id="251" name="3649365311459" type="Const" version="opset1">
			<data element_type="f32" offset="3036284" shape="" size="4"/>
			<output>
				<port id="0" precision="FP32"/>
			</output>
		</layer>
		<layer id="252" name="1676168011906" type="Const" version="opset1">
			<data element_type="f32" offset="3036288" shape="1,672,1,1" size="2688"/>
			<output>
				<port id="0" precision="FP32">
					<dim>1</dim>
					<dim>672</dim>
					<dim>1</dim>
					<dim>1</dim>
				</port>
			</output>
		</layer>
		<layer id="253" name="1677168113754" type="Const" version="opset1">
			<data element_type="f32" offset="3038976" shape="1,672,1,1" size="2688"/>
			<output>
				<port id="0" precision="FP32">
					<dim>1</dim>
					<dim>672</dim>
					<dim>1</dim>
					<dim>1</dim>
				</port>
			</output>
		</layer>
		<layer id="254" name="1678168213229" type="Const" version="opset1">
			<data element_type="f32" offset="3036288" shape="1,672,1,1" size="2688"/>
			<output>
				<port id="0" precision="FP32">
					<dim>1</dim>
					<dim>672</dim>
					<dim>1</dim>
					<dim>1</dim>
				</port>
			</output>
		</layer>
		<layer id="255" name="1679168313709" type="Const" version="opset1">
			<data element_type="f32" offset="3038976" shape="1,672,1,1" size="2688"/>
			<output>
				<port id="0" precision="FP32">
					<dim>1</dim>
					<dim>672</dim>
					<dim>1</dim>
					<dim>1</dim>
				</port>
			</output>
		</layer>
		<layer id="256" name="2146215011879" type="Const" version="opset1">
			<data element_type="f32" offset="3041664" shape="672,1,1,1" size="2688"/>
			<output>
				<port id="0" precision="FP32">
					<dim>672</dim>
					<dim>1</dim>
					<dim>1</dim>
					<dim>1</dim>
				</port>
			</output>
		</layer>
		<layer id="257" name="2147215113328" type="Const" version="opset1">
			<data element_type="f32" offset="3044352" shape="672,1,1,1" size="2688"/>
			<output>
				<port id="0" precision="FP32">
					<dim>672</dim>
					<dim>1</dim>
					<dim>1</dim>
					<dim>1</dim>
				</port>
			</output>
		</layer>
		<layer id="258" name="2148215212818" type="Const" version="opset1">
			<data element_type="f32" offset="3041664" shape="672,1,1,1" size="2688"/>
			<output>
				<port id="0" precision="FP32">
					<dim>672</dim>
					<dim>1</dim>
					<dim>1</dim>
					<dim>1</dim>
				</port>
			</output>
		</layer>
		<layer id="259" name="2149215313397" type="Const" version="opset1">
			<data element_type="f32" offset="3044352" shape="672,1,1,1" size="2688"/>
			<output>
				<port id="0" precision="FP32">
					<dim>672</dim>
					<dim>1</dim>
					<dim>1</dim>
					<dim>1</dim>
				</port>
			</output>
		</layer>
		<layer id="260" name="efficientnet-b0/model/blocks_9/tpu_batch_normalization/batchnorm/mul_1_copy71113088" type="Const" version="opset1">
			<data element_type="f32" offset="3047040" shape="672,112,1,1" size="301056"/>
			<output>
				<port id="0" names="efficientnet-b0/blocks_9/conv2d/kernel/read:0" precision="FP32">
					<dim>672</dim>
					<dim>112</dim>
					<dim>1</dim>
					<dim>1</dim>
				</port>
			</output>
		</layer>
		<layer id="261" name="efficientnet-b0/model/blocks_9/conv2d/Conv2D/fq_weights_1" type="FakeQuantize" version="opset1">
			<data auto_broadcast="numpy" levels="255"/>
			<input>
				<port id="0">
					<dim>672</dim>
					<dim>112</dim>
					<dim>1</dim>
					<dim>1</dim>
				</port>
				<port id="1">
					<dim>672</dim>
					<dim>1</dim>
					<dim>1</dim>
					<dim>1</dim>
				</port>
				<port id="2">
					<dim>672</dim>
					<dim>1</dim>
					<dim>1</dim>
					<dim>1</dim>
				</port>
				<port id="3">
					<dim>672</dim>
					<dim>1</dim>
					<dim>1</dim>
					<dim>1</dim>
				</port>
				<port id="4">
					<dim>672</dim>
					<dim>1</dim>
					<dim>1</dim>
					<dim>1</dim>
				</port>
			</input>
			<output>
				<port id="5" precision="FP32">
					<dim>672</dim>
					<dim>112</dim>
					<dim>1</dim>
					<dim>1</dim>
				</port>
			</output>
		</layer>
		<layer id="262" name="2026203011984" type="Const" version="opset1">
			<data element_type="f32" offset="3348096" shape="" size="4"/>
			<output>
				<port id="0" precision="FP32"/>
			</output>
		</layer>
		<layer id="263" name="2027203111294" type="Const" version="opset1">
			<data element_type="f32" offset="3348100" shape="" size="4"/>
			<output>
				<port id="0" precision="FP32"/>
			</output>
		</layer>
		<layer id="264" name="2028203212257" type="Const" version="opset1">
			<data element_type="f32" offset="3348096" shape="" size="4"/>
			<output>
				<port id="0" precision="FP32"/>
			</output>
		</layer>
		<layer id="265" name="2029203313652" type="Const" version="opset1">
			<data element_type="f32" offset="3348100" shape="" size="4"/>
			<output>
				<port id="0" precision="FP32"/>
			</output>
		</layer>
		<layer id="266" name="3666367011819" type="Const" version="opset1">
			<data element_type="f32" offset="3348104" shape="" size="4"/>
			<output>
				<port id="0" precision="FP32"/>
			</output>
		</layer>
		<layer id="267" name="3667367113946" type="Const" version="opset1">
			<data element_type="f32" offset="3348108" shape="" size="4"/>
			<output>
				<port id="0" precision="FP32"/>
			</output>
		</layer>
		<layer id="268" name="3668367213124" type="Const" version="opset1">
			<data element_type="f32" offset="3348104" shape="" size="4"/>
			<output>
				<port id="0" precision="FP32"/>
			</output>
		</layer>
		<layer id="269" name="3669367311456" type="Const" version="opset1">
			<data element_type="f32" offset="3348108" shape="" size="4"/>
			<output>
				<port id="0" precision="FP32"/>
			</output>
		</layer>
		<layer id="270" name="3176318011435" type="Const" version="opset1">
			<data element_type="f32" offset="48" shape="" size="4"/>
			<output>
				<port id="0" precision="FP32"/>
			</output>
		</layer>
		<layer id="271" name="3177318112737" type="Const" version="opset1">
			<data element_type="f32" offset="3348112" shape="" size="4"/>
			<output>
				<port id="0" precision="FP32"/>
			</output>
		</layer>
		<layer id="272" name="3178318211348" type="Const" version="opset1">
			<data element_type="f32" offset="48" shape="" size="4"/>
			<output>
				<port id="0" precision="FP32"/>
			</output>
		</layer>
		<layer id="273" name="3179318311405" type="Const" version="opset1">
			<data element_type="f32" offset="3348112" shape="" size="4"/>
			<output>
				<port id="0" precision="FP32"/>
			</output>
		</layer>
		<layer id="274" name="3686369011402" type="Const" version="opset1">
			<data element_type="f32" offset="3348116" shape="" size="4"/>
			<output>
				<port id="0" precision="FP32"/>
			</output>
		</layer>
		<layer id="275" name="3687369111672" type="Const" version="opset1">
			<data element_type="f32" offset="3348120" shape="" size="4"/>
			<output>
				<port id="0" precision="FP32"/>
			</output>
		</layer>
		<layer id="276" name="3688369212953" type="Const" version="opset1">
			<data element_type="f32" offset="3348116" shape="" size="4"/>
			<output>
				<port id="0" precision="FP32"/>
			</output>
		</layer>
		<layer id="277" name="3689369312476" type="Const" version="opset1">
			<data element_type="f32" offset="3348120" shape="" size="4"/>
			<output>
				<port id="0" precision="FP32"/>
			</output>
		</layer>
		<layer id="278" name="1976198013265" type="Const" version="opset1">
			<data element_type="f32" offset="3348124" shape="" size="4"/>
			<output>
				<port id="0" precision="FP32"/>
			</output>
		</layer>
		<layer id="279" name="1977198113604" type="Const" version="opset1">
			<data element_type="f32" offset="3348128" shape="" size="4"/>
			<output>
				<port id="0" precision="FP32"/>
			</output>
		</layer>
		<layer id="280" name="1978198212260" type="Const" version="opset1">
			<data element_type="f32" offset="3348124" shape="" size="4"/>
			<output>
				<port id="0" precision="FP32"/>
			</output>
		</layer>
		<layer id="281" name="1979198312272" type="Const" version="opset1">
			<data element_type="f32" offset="3348128" shape="" size="4"/>
			<output>
				<port id="0" precision="FP32"/>
			</output>
		</layer>
		<layer id="282" name="126861888769414153" type="Const" version="opset1">
			<data element_type="i64" offset="8" shape="2" size="16"/>
			<output>
				<port id="0" precision="I64">
					<dim>2</dim>
				</port>
			</output>
		</layer>
		<layer id="283" name="3396340012047" type="Const" version="opset1">
			<data element_type="f32" offset="3348132" shape="" size="4"/>
			<output>
				<port id="0" precision="FP32"/>
			</output>
		</layer>
		<layer id="284" name="3397340112824" type="Const" version="opset1">
			<data element_type="f32" offset="3348136" shape="" size="4"/>
			<output>
				<port id="0" precision="FP32"/>
			</output>
		</layer>
		<layer id="285" name="3398340212983" type="Const" version="opset1">
			<data element_type="f32" offset="3348132" shape="" size="4"/>
			<output>
				<port id="0" precision="FP32"/>
			</output>
		</layer>
		<layer id="286" name="3399340311570" type="Const" version="opset1">
			<data element_type="f32" offset="3348136" shape="" size="4"/>
			<output>
				<port id="0" precision="FP32"/>
			</output>
		</layer>
		<layer id="287" name="2606261012011" type="Const" version="opset1">
			<data element_type="f32" offset="3348140" shape="1,480,1,1" size="1920"/>
			<output>
				<port id="0" precision="FP32">
					<dim>1</dim>
					<dim>480</dim>
					<dim>1</dim>
					<dim>1</dim>
				</port>
			</output>
		</layer>
		<layer id="288" name="2607261112014" type="Const" version="opset1">
			<data element_type="f32" offset="3350060" shape="1,480,1,1" size="1920"/>
			<output>
				<port id="0" precision="FP32">
					<dim>1</dim>
					<dim>480</dim>
					<dim>1</dim>
					<dim>1</dim>
				</port>
			</output>
		</layer>
		<layer id="289" name="2608261213025" type="Const" version="opset1">
			<data element_type="f32" offset="3348140" shape="1,480,1,1" size="1920"/>
			<output>
				<port id="0" precision="FP32">
					<dim>1</dim>
					<dim>480</dim>
					<dim>1</dim>
					<dim>1</dim>
				</port>
			</output>
		</layer>
		<layer id="290" name="2609261313703" type="Const" version="opset1">
			<data element_type="f32" offset="3350060" shape="1,480,1,1" size="1920"/>
			<output>
				<port id="0" precision="FP32">
					<dim>1</dim>
					<dim>480</dim>
					<dim>1</dim>
					<dim>1</dim>
				</port>
			</output>
		</layer>
		<layer id="291" name="1776178014057" type="Const" version="opset1">
			<data element_type="f32" offset="3351980" shape="" size="4"/>
			<output>
				<port id="0" precision="FP32"/>
			</output>
		</layer>
		<layer id="292" name="1777178112287" type="Const" version="opset1">
			<data element_type="f32" offset="3351984" shape="" size="4"/>
			<output>
				<port id="0" precision="FP32"/>
			</output>
		</layer>
		<layer id="293" name="1778178213508" type="Const" version="opset1">
			<data element_type="f32" offset="3351980" shape="" size="4"/>
			<output>
				<port id="0" precision="FP32"/>
			</output>
		</layer>
		<layer id="294" name="1779178311735" type="Const" version="opset1">
			<data element_type="f32" offset="3351984" shape="" size="4"/>
			<output>
				<port id="0" precision="FP32"/>
			</output>
		</layer>
		<layer id="295" name="3226323012620" type="Const" version="opset1">
			<data element_type="f32" offset="3351988" shape="" size="4"/>
			<output>
				<port id="0" precision="FP32"/>
			</output>
		</layer>
		<layer id="296" name="3227323113751" type="Const" version="opset1">
			<data element_type="f32" offset="3351992" shape="" size="4"/>
			<output>
				<port id="0" precision="FP32"/>
			</output>
		</layer>
		<layer id="297" name="3228323212281" type="Const" version="opset1">
			<data element_type="f32" offset="3351988" shape="" size="4"/>
			<output>
				<port id="0" precision="FP32"/>
			</output>
		</layer>
		<layer id="298" name="3229323311651" type="Const" version="opset1">
			<data element_type="f32" offset="3351992" shape="" size="4"/>
			<output>
				<port id="0" precision="FP32"/>
			</output>
		</layer>
		<layer id="299" name="2496250014159" type="Const" version="opset1">
			<data element_type="f32" offset="3351996" shape="" size="4"/>
			<output>
				<port id="0" precision="FP32"/>
			</output>
		</layer>
		<layer id="300" name="2497250113829" type="Const" version="opset1">
			<data element_type="f32" offset="3352000" shape="" size="4"/>
			<output>
				<port id="0" precision="FP32"/>
			</output>
		</layer>
		<layer id="301" name="2498250213688" type="Const" version="opset1">
			<data element_type="f32" offset="3351996" shape="" size="4"/>
			<output>
				<port id="0" precision="FP32"/>
			</output>
		</layer>
		<layer id="302" name="2499250311258" type="Const" version="opset1">
			<data element_type="f32" offset="3352000" shape="" size="4"/>
			<output>
				<port id="0" precision="FP32"/>
			</output>
		</layer>
		<layer id="303" name="2776278013847" type="Const" version="opset1">
			<data element_type="f32" offset="48" shape="" size="4"/>
			<output>
				<port id="0" precision="FP32"/>
			</output>
		</layer>
		<layer id="304" name="2777278112812" type="Const" version="opset1">
			<data element_type="f32" offset="3352004" shape="" size="4"/>
			<output>
				<port id="0" precision="FP32"/>
			</output>
		</layer>
		<layer id="305" name="2778278212029" type="Const" version="opset1">
			<data element_type="f32" offset="48" shape="" size="4"/>
			<output>
				<port id="0" precision="FP32"/>
			</output>
		</layer>
		<layer id="306" name="2779278312152" type="Const" version="opset1">
			<data element_type="f32" offset="3352004" shape="" size="4"/>
			<output>
				<port id="0" precision="FP32"/>
			</output>
		</layer>
		<layer id="307" name="3016302013571" type="Const" version="opset1">
			<data element_type="f32" offset="3352008" shape="" size="4"/>
			<output>
				<port id="0" precision="FP32"/>
			</output>
		</layer>
		<layer id="308" name="3017302112212" type="Const" version="opset1">
			<data element_type="f32" offset="3352012" shape="" size="4"/>
			<output>
				<port id="0" precision="FP32"/>
			</output>
		</layer>
		<layer id="309" name="3018302213355" type="Const" version="opset1">
			<data element_type="f32" offset="3352008" shape="" size="4"/>
			<output>
				<port id="0" precision="FP32"/>
			</output>
		</layer>
		<layer id="310" name="3019302311912" type="Const" version="opset1">
			<data element_type="f32" offset="3352012" shape="" size="4"/>
			<output>
				<port id="0" precision="FP32"/>
			</output>
		</layer>
		<layer id="311" name="2336234011603" type="Const" version="opset1">
			<data element_type="f32" offset="3352016" shape="" size="4"/>
			<output>
				<port id="0" precision="FP32"/>
			</output>
		</layer>
		<layer id="312" name="2337234114141" type="Const" version="opset1">
			<data element_type="f32" offset="3352020" shape="" size="4"/>
			<output>
				<port id="0" precision="FP32"/>
			</output>
		</layer>
		<layer id="313" name="2338234212464" type="Const" version="opset1">
			<data element_type="f32" offset="3352016" shape="" size="4"/>
			<output>
				<port id="0" precision="FP32"/>
			</output>
		</layer>
		<layer id="314" name="2339234311387" type="Const" version="opset1">
			<data element_type="f32" offset="3352020" shape="" size="4"/>
			<output>
				<port id="0" precision="FP32"/>
			</output>
		</layer>
		<layer id="315" name="126601886666613313" type="Const" version="opset1">
			<data element_type="i64" offset="8" shape="2" size="16"/>
			<output>
				<port id="0" precision="I64">
					<dim>2</dim>
				</port>
			</output>
		</layer>
		<layer id="316" name="2326233013238" type="Const" version="opset1">
			<data element_type="f32" offset="3352024" shape="" size="4"/>
			<output>
				<port id="0" precision="FP32"/>
			</output>
		</layer>
		<layer id="317" name="2327233114156" type="Const" version="opset1">
			<data element_type="f32" offset="3352028" shape="" size="4"/>
			<output>
				<port id="0" precision="FP32"/>
			</output>
		</layer>
		<layer id="318" name="2328233212575" type="Const" version="opset1">
			<data element_type="f32" offset="3352024" shape="" size="4"/>
			<output>
				<port id="0" precision="FP32"/>
			</output>
		</layer>
		<layer id="319" name="2329233311453" type="Const" version="opset1">
			<data element_type="f32" offset="3352028" shape="" size="4"/>
			<output>
				<port id="0" precision="FP32"/>
			</output>
		</layer>
		<layer id="320" name="2736274012944" type="Const" version="opset1">
			<data element_type="f32" offset="3352032" shape="1,480,1,1" size="1920"/>
			<output>
				<port id="0" precision="FP32">
					<dim>1</dim>
					<dim>480</dim>
					<dim>1</dim>
					<dim>1</dim>
				</port>
			</output>
		</layer>
		<layer id="321" name="2737274112269" type="Const" version="opset1">
			<data element_type="f32" offset="3353952" shape="1,480,1,1" size="1920"/>
			<output>
				<port id="0" precision="FP32">
					<dim>1</dim>
					<dim>480</dim>
					<dim>1</dim>
					<dim>1</dim>
				</port>
			</output>
		</layer>
		<layer id="322" name="2738274212716" type="Const" version="opset1">
			<data element_type="f32" offset="3352032" shape="1,480,1,1" size="1920"/>
			<output>
				<port id="0" precision="FP32">
					<dim>1</dim>
					<dim>480</dim>
					<dim>1</dim>
					<dim>1</dim>
				</port>
			</output>
		</layer>
		<layer id="323" name="2739274313172" type="Const" version="opset1">
			<data element_type="f32" offset="3353952" shape="1,480,1,1" size="1920"/>
			<output>
				<port id="0" precision="FP32">
					<dim>1</dim>
					<dim>480</dim>
					<dim>1</dim>
					<dim>1</dim>
				</port>
			</output>
		</layer>
		<layer id="324" name="1726173012803" type="Const" version="opset1">
			<data element_type="f32" offset="3355872" shape="480,1,1,1" size="1920"/>
			<output>
				<port id="0" precision="FP32">
					<dim>480</dim>
					<dim>1</dim>
					<dim>1</dim>
					<dim>1</dim>
				</port>
			</output>
		</layer>
		<layer id="325" name="1727173113805" type="Const" version="opset1">
			<data element_type="f32" offset="3357792" shape="480,1,1,1" size="1920"/>
			<output>
				<port id="0" precision="FP32">
					<dim>480</dim>
					<dim>1</dim>
					<dim>1</dim>
					<dim>1</dim>
				</port>
			</output>
		</layer>
		<layer id="326" name="1728173211279" type="Const" version="opset1">
			<data element_type="f32" offset="3355872" shape="480,1,1,1" size="1920"/>
			<output>
				<port id="0" precision="FP32">
					<dim>480</dim>
					<dim>1</dim>
					<dim>1</dim>
					<dim>1</dim>
				</port>
			</output>
		</layer>
		<layer id="327" name="1729173312236" type="Const" version="opset1">
			<data element_type="f32" offset="3357792" shape="480,1,1,1" size="1920"/>
			<output>
				<port id="0" precision="FP32">
					<dim>480</dim>
					<dim>1</dim>
					<dim>1</dim>
					<dim>1</dim>
				</port>
			</output>
		</layer>
		<layer id="328" name="efficientnet-b0/model/blocks_7/tpu_batch_normalization/batchnorm/mul_1_copy65611261" type="Const" version="opset1">
			<data element_type="f32" offset="3359712" shape="480,80,1,1" size="153600"/>
			<output>
				<port id="0" names="efficientnet-b0/blocks_7/conv2d/kernel/read:0" precision="FP32">
					<dim>480</dim>
					<dim>80</dim>
					<dim>1</dim>
					<dim>1</dim>
				</port>
			</output>
		</layer>
		<layer id="329" name="efficientnet-b0/model/blocks_7/conv2d/Conv2D/fq_weights_1" type="FakeQuantize" version="opset1">
			<data auto_broadcast="numpy" levels="255"/>
			<input>
				<port id="0">
					<dim>480</dim>
					<dim>80</dim>
					<dim>1</dim>
					<dim>1</dim>
				</port>
				<port id="1">
					<dim>480</dim>
					<dim>1</dim>
					<dim>1</dim>
					<dim>1</dim>
				</port>
				<port id="2">
					<dim>480</dim>
					<dim>1</dim>
					<dim>1</dim>
					<dim>1</dim>
				</port>
				<port id="3">
					<dim>480</dim>
					<dim>1</dim>
					<dim>1</dim>
					<dim>1</dim>
				</port>
				<port id="4">
					<dim>480</dim>
					<dim>1</dim>
					<dim>1</dim>
					<dim>1</dim>
				</port>
			</input>
			<output>
				<port id="5" precision="FP32">
					<dim>480</dim>
					<dim>80</dim>
					<dim>1</dim>
					<dim>1</dim>
				</port>
			</output>
		</layer>
		<layer id="330" name="3236324013586" type="Const" version="opset1">
			<data element_type="f32" offset="3513312" shape="" size="4"/>
			<output>
				<port id="0" precision="FP32"/>
			</output>
		</layer>
		<layer id="331" name="3237324111231" type="Const" version="opset1">
			<data element_type="f32" offset="3513316" shape="" size="4"/>
			<output>
				<port id="0" precision="FP32"/>
			</output>
		</layer>
		<layer id="332" name="3238324211966" type="Const" version="opset1">
			<data element_type="f32" offset="3513312" shape="" size="4"/>
			<output>
				<port id="0" precision="FP32"/>
			</output>
		</layer>
		<layer id="333" name="3239324311888" type="Const" version="opset1">
			<data element_type="f32" offset="3513316" shape="" size="4"/>
			<output>
				<port id="0" precision="FP32"/>
			</output>
		</layer>
		<layer id="334" name="1696170012098" type="Const" version="opset1">
			<data element_type="f32" offset="3513320" shape="" size="4"/>
			<output>
				<port id="0" precision="FP32"/>
			</output>
		</layer>
		<layer id="335" name="1697170112275" type="Const" version="opset1">
			<data element_type="f32" offset="3513324" shape="" size="4"/>
			<output>
				<port id="0" precision="FP32"/>
			</output>
		</layer>
		<layer id="336" name="1698170214090" type="Const" version="opset1">
			<data element_type="f32" offset="3513320" shape="" size="4"/>
			<output>
				<port id="0" precision="FP32"/>
			</output>
		</layer>
		<layer id="337" name="1699170311567" type="Const" version="opset1">
			<data element_type="f32" offset="3513324" shape="" size="4"/>
			<output>
				<port id="0" precision="FP32"/>
			</output>
		</layer>
		<layer id="338" name="2076208012734" type="Const" version="opset1">
			<data element_type="f32" offset="3513328" shape="" size="4"/>
			<output>
				<port id="0" precision="FP32"/>
			</output>
		</layer>
		<layer id="339" name="2077208111891" type="Const" version="opset1">
			<data element_type="f32" offset="3513332" shape="" size="4"/>
			<output>
				<port id="0" precision="FP32"/>
			</output>
		</layer>
		<layer id="340" name="2078208214036" type="Const" version="opset1">
			<data element_type="f32" offset="3513328" shape="" size="4"/>
			<output>
				<port id="0" precision="FP32"/>
			</output>
		</layer>
		<layer id="341" name="2079208311420" type="Const" version="opset1">
			<data element_type="f32" offset="3513332" shape="" size="4"/>
			<output>
				<port id="0" precision="FP32"/>
			</output>
		</layer>
		<layer id="342" name="2176218013118" type="Const" version="opset1">
			<data element_type="f32" offset="48" shape="" size="4"/>
			<output>
				<port id="0" precision="FP32"/>
			</output>
		</layer>
		<layer id="343" name="2177218113493" type="Const" version="opset1">
			<data element_type="f32" offset="3513336" shape="" size="4"/>
			<output>
				<port id="0" precision="FP32"/>
			</output>
		</layer>
		<layer id="344" name="2178218212065" type="Const" version="opset1">
			<data element_type="f32" offset="48" shape="" size="4"/>
			<output>
				<port id="0" precision="FP32"/>
			</output>
		</layer>
		<layer id="345" name="2179218312449" type="Const" version="opset1">
			<data element_type="f32" offset="3513336" shape="" size="4"/>
			<output>
				<port id="0" precision="FP32"/>
			</output>
		</layer>
		<layer id="346" name="1876188012875" type="Const" version="opset1">
			<data element_type="f32" offset="3513340" shape="" size="4"/>
			<output>
				<port id="0" precision="FP32"/>
			</output>
		</layer>
		<layer id="347" name="1877188112044" type="Const" version="opset1">
			<data element_type="f32" offset="3513344" shape="" size="4"/>
			<output>
				<port id="0" precision="FP32"/>
			</output>
		</layer>
		<layer id="348" name="1878188211771" type="Const" version="opset1">
			<data element_type="f32" offset="3513340" shape="" size="4"/>
			<output>
				<port id="0" precision="FP32"/>
			</output>
		</layer>
		<layer id="349" name="1879188311183" type="Const" version="opset1">
			<data element_type="f32" offset="3513344" shape="" size="4"/>
			<output>
				<port id="0" precision="FP32"/>
			</output>
		</layer>
		<layer id="350" name="1636164013970" type="Const" version="opset1">
			<data element_type="f32" offset="3513348" shape="" size="4"/>
			<output>
				<port id="0" precision="FP32"/>
			</output>
		</layer>
		<layer id="351" name="1637164113268" type="Const" version="opset1">
			<data element_type="f32" offset="3513352" shape="" size="4"/>
			<output>
				<port id="0" precision="FP32"/>
			</output>
		</layer>
		<layer id="352" name="1638164212773" type="Const" version="opset1">
			<data element_type="f32" offset="3513348" shape="" size="4"/>
			<output>
				<port id="0" precision="FP32"/>
			</output>
		</layer>
		<layer id="353" name="1639164311276" type="Const" version="opset1">
			<data element_type="f32" offset="3513352" shape="" size="4"/>
			<output>
				<port id="0" precision="FP32"/>
			</output>
		</layer>
		<layer id="354" name="126341901063811579" type="Const" version="opset1">
			<data element_type="i64" offset="8" shape="2" size="16"/>
			<output>
				<port id="0" precision="I64">
					<dim>2</dim>
				</port>
			</output>
		</layer>
		<layer id="355" name="1866187011129" type="Const" version="opset1">
			<data element_type="f32" offset="3513356" shape="" size="4"/>
			<output>
				<port id="0" precision="FP32"/>
			</output>
		</layer>
		<layer id="356" name="1867187112590" type="Const" version="opset1">
			<data element_type="f32" offset="3513360" shape="" size="4"/>
			<output>
				<port id="0" precision="FP32"/>
			</output>
		</layer>
		<layer id="357" name="1868187211885" type="Const" version="opset1">
			<data element_type="f32" offset="3513356" shape="" size="4"/>
			<output>
				<port id="0" precision="FP32"/>
			</output>
		</layer>
		<layer id="358" name="1869187312077" type="Const" version="opset1">
			<data element_type="f32" offset="3513360" shape="" size="4"/>
			<output>
				<port id="0" precision="FP32"/>
			</output>
		</layer>
		<layer id="359" name="2626263013106" type="Const" version="opset1">
			<data element_type="f32" offset="3513364" shape="1,480,1,1" size="1920"/>
			<output>
				<port id="0" precision="FP32">
					<dim>1</dim>
					<dim>480</dim>
					<dim>1</dim>
					<dim>1</dim>
				</port>
			</output>
		</layer>
		<layer id="360" name="2627263113463" type="Const" version="opset1">
			<data element_type="f32" offset="3515284" shape="1,480,1,1" size="1920"/>
			<output>
				<port id="0" precision="FP32">
					<dim>1</dim>
					<dim>480</dim>
					<dim>1</dim>
					<dim>1</dim>
				</port>
			</output>
		</layer>
		<layer id="361" name="2628263211285" type="Const" version="opset1">
			<data element_type="f32" offset="3513364" shape="1,480,1,1" size="1920"/>
			<output>
				<port id="0" precision="FP32">
					<dim>1</dim>
					<dim>480</dim>
					<dim>1</dim>
					<dim>1</dim>
				</port>
			</output>
		</layer>
		<layer id="362" name="2629263312383" type="Const" version="opset1">
			<data element_type="f32" offset="3515284" shape="1,480,1,1" size="1920"/>
			<output>
				<port id="0" precision="FP32">
					<dim>1</dim>
					<dim>480</dim>
					<dim>1</dim>
					<dim>1</dim>
				</port>
			</output>
		</layer>
		<layer id="363" name="3046305013475" type="Const" version="opset1">
			<data element_type="f32" offset="3517204" shape="480,1,1,1" size="1920"/>
			<output>
				<port id="0" precision="FP32">
					<dim>480</dim>
					<dim>1</dim>
					<dim>1</dim>
					<dim>1</dim>
				</port>
			</output>
		</layer>
		<layer id="364" name="3047305111204" type="Const" version="opset1">
			<data element_type="f32" offset="3519124" shape="480,1,1,1" size="1920"/>
			<output>
				<port id="0" precision="FP32">
					<dim>480</dim>
					<dim>1</dim>
					<dim>1</dim>
					<dim>1</dim>
				</port>
			</output>
		</layer>
		<layer id="365" name="3048305211687" type="Const" version="opset1">
			<data element_type="f32" offset="3517204" shape="480,1,1,1" size="1920"/>
			<output>
				<port id="0" precision="FP32">
					<dim>480</dim>
					<dim>1</dim>
					<dim>1</dim>
					<dim>1</dim>
				</port>
			</output>
		</layer>
		<layer id="366" name="3049305313955" type="Const" version="opset1">
			<data element_type="f32" offset="3519124" shape="480,1,1,1" size="1920"/>
			<output>
				<port id="0" precision="FP32">
					<dim>480</dim>
					<dim>1</dim>
					<dim>1</dim>
					<dim>1</dim>
				</port>
			</output>
		</layer>
		<layer id="367" name="efficientnet-b0/model/blocks_6/tpu_batch_normalization/batchnorm/mul_1_copy62811300" type="Const" version="opset1">
			<data element_type="f32" offset="3521044" shape="480,80,1,1" size="153600"/>
			<output>
				<port id="0" names="efficientnet-b0/blocks_6/conv2d/kernel/read:0" precision="FP32">
					<dim>480</dim>
					<dim>80</dim>
					<dim>1</dim>
					<dim>1</dim>
				</port>
			</output>
		</layer>
		<layer id="368" name="efficientnet-b0/model/blocks_6/conv2d/Conv2D/fq_weights_1" type="FakeQuantize" version="opset1">
			<data auto_broadcast="numpy" levels="255"/>
			<input>
				<port id="0">
					<dim>480</dim>
					<dim>80</dim>
					<dim>1</dim>
					<dim>1</dim>
				</port>
				<port id="1">
					<dim>480</dim>
					<dim>1</dim>
					<dim>1</dim>
					<dim>1</dim>
				</port>
				<port id="2">
					<dim>480</dim>
					<dim>1</dim>
					<dim>1</dim>
					<dim>1</dim>
				</port>
				<port id="3">
					<dim>480</dim>
					<dim>1</dim>
					<dim>1</dim>
					<dim>1</dim>
				</port>
				<port id="4">
					<dim>480</dim>
					<dim>1</dim>
					<dim>1</dim>
					<dim>1</dim>
				</port>
			</input>
			<output>
				<port id="5" precision="FP32">
					<dim>480</dim>
					<dim>80</dim>
					<dim>1</dim>
					<dim>1</dim>
				</port>
			</output>
		</layer>
		<layer id="369" name="1706171013469" type="Const" version="opset1">
			<data element_type="f32" offset="3674644" shape="" size="4"/>
			<output>
				<port id="0" precision="FP32"/>
			</output>
		</layer>
		<layer id="370" name="1707171112563" type="Const" version="opset1">
			<data element_type="f32" offset="3674648" shape="" size="4"/>
			<output>
				<port id="0" precision="FP32"/>
			</output>
		</layer>
		<layer id="371" name="1708171213415" type="Const" version="opset1">
			<data element_type="f32" offset="3674644" shape="" size="4"/>
			<output>
				<port id="0" precision="FP32"/>
			</output>
		</layer>
		<layer id="372" name="1709171311786" type="Const" version="opset1">
			<data element_type="f32" offset="3674648" shape="" size="4"/>
			<output>
				<port id="0" precision="FP32"/>
			</output>
		</layer>
		<layer id="373" name="1796180013556" type="Const" version="opset1">
			<data element_type="f32" offset="3674652" shape="" size="4"/>
			<output>
				<port id="0" precision="FP32"/>
			</output>
		</layer>
		<layer id="374" name="1797180113550" type="Const" version="opset1">
			<data element_type="f32" offset="3674656" shape="" size="4"/>
			<output>
				<port id="0" precision="FP32"/>
			</output>
		</layer>
		<layer id="375" name="1798180213184" type="Const" version="opset1">
			<data element_type="f32" offset="3674652" shape="" size="4"/>
			<output>
				<port id="0" precision="FP32"/>
			</output>
		</layer>
		<layer id="376" name="1799180312764" type="Const" version="opset1">
			<data element_type="f32" offset="3674656" shape="" size="4"/>
			<output>
				<port id="0" precision="FP32"/>
			</output>
		</layer>
		<layer id="377" name="2266227012164" type="Const" version="opset1">
			<data element_type="f32" offset="48" shape="" size="4"/>
			<output>
				<port id="0" precision="FP32"/>
			</output>
		</layer>
		<layer id="378" name="2267227112632" type="Const" version="opset1">
			<data element_type="f32" offset="3674660" shape="" size="4"/>
			<output>
				<port id="0" precision="FP32"/>
			</output>
		</layer>
		<layer id="379" name="2268227213076" type="Const" version="opset1">
			<data element_type="f32" offset="48" shape="" size="4"/>
			<output>
				<port id="0" precision="FP32"/>
			</output>
		</layer>
		<layer id="380" name="2269227314123" type="Const" version="opset1">
			<data element_type="f32" offset="3674660" shape="" size="4"/>
			<output>
				<port id="0" precision="FP32"/>
			</output>
		</layer>
		<layer id="381" name="1616162012389" type="Const" version="opset1">
			<data element_type="f32" offset="3674664" shape="" size="4"/>
			<output>
				<port id="0" precision="FP32"/>
			</output>
		</layer>
		<layer id="382" name="1617162113535" type="Const" version="opset1">
			<data element_type="f32" offset="3674668" shape="" size="4"/>
			<output>
				<port id="0" precision="FP32"/>
			</output>
		</layer>
		<layer id="383" name="1618162214117" type="Const" version="opset1">
			<data element_type="f32" offset="3674664" shape="" size="4"/>
			<output>
				<port id="0" precision="FP32"/>
			</output>
		</layer>
		<layer id="384" name="1619162311462" type="Const" version="opset1">
			<data element_type="f32" offset="3674668" shape="" size="4"/>
			<output>
				<port id="0" precision="FP32"/>
			</output>
		</layer>
		<layer id="385" name="3406341011663" type="Const" version="opset1">
			<data element_type="f32" offset="3674672" shape="" size="4"/>
			<output>
				<port id="0" precision="FP32"/>
			</output>
		</layer>
		<layer id="386" name="3407341112092" type="Const" version="opset1">
			<data element_type="f32" offset="3674676" shape="" size="4"/>
			<output>
				<port id="0" precision="FP32"/>
			</output>
		</layer>
		<layer id="387" name="3408341211903" type="Const" version="opset1">
			<data element_type="f32" offset="3674672" shape="" size="4"/>
			<output>
				<port id="0" precision="FP32"/>
			</output>
		</layer>
		<layer id="388" name="3409341312116" type="Const" version="opset1">
			<data element_type="f32" offset="3674676" shape="" size="4"/>
			<output>
				<port id="0" precision="FP32"/>
			</output>
		</layer>
		<layer id="389" name="126081871961111345" type="Const" version="opset1">
			<data element_type="i64" offset="8" shape="2" size="16"/>
			<output>
				<port id="0" precision="I64">
					<dim>2</dim>
				</port>
			</output>
		</layer>
		<layer id="390" name="3096310013898" type="Const" version="opset1">
			<data element_type="f32" offset="3674680" shape="" size="4"/>
			<output>
				<port id="0" precision="FP32"/>
			</output>
		</layer>
		<layer id="391" name="3097310111597" type="Const" version="opset1">
			<data element_type="f32" offset="3674684" shape="" size="4"/>
			<output>
				<port id="0" precision="FP32"/>
			</output>
		</layer>
		<layer id="392" name="3098310212023" type="Const" version="opset1">
			<data element_type="f32" offset="3674680" shape="" size="4"/>
			<output>
				<port id="0" precision="FP32"/>
			</output>
		</layer>
		<layer id="393" name="3099310312497" type="Const" version="opset1">
			<data element_type="f32" offset="3674684" shape="" size="4"/>
			<output>
				<port id="0" precision="FP32"/>
			</output>
		</layer>
		<layer id="394" name="2156216013454" type="Const" version="opset1">
			<data element_type="f32" offset="3674688" shape="1,240,1,1" size="960"/>
			<output>
				<port id="0" precision="FP32">
					<dim>1</dim>
					<dim>240</dim>
					<dim>1</dim>
					<dim>1</dim>
				</port>
			</output>
		</layer>
		<layer id="395" name="2157216112473" type="Const" version="opset1">
			<data element_type="f32" offset="3675648" shape="1,240,1,1" size="960"/>
			<output>
				<port id="0" precision="FP32">
					<dim>1</dim>
					<dim>240</dim>
					<dim>1</dim>
					<dim>1</dim>
				</port>
			</output>
		</layer>
		<layer id="396" name="2158216213958" type="Const" version="opset1">
			<data element_type="f32" offset="3674688" shape="1,240,1,1" size="960"/>
			<output>
				<port id="0" precision="FP32">
					<dim>1</dim>
					<dim>240</dim>
					<dim>1</dim>
					<dim>1</dim>
				</port>
			</output>
		</layer>
		<layer id="397" name="2159216311537" type="Const" version="opset1">
			<data element_type="f32" offset="3675648" shape="1,240,1,1" size="960"/>
			<output>
				<port id="0" precision="FP32">
					<dim>1</dim>
					<dim>240</dim>
					<dim>1</dim>
					<dim>1</dim>
				</port>
			</output>
		</layer>
		<layer id="398" name="3626363013211" type="Const" version="opset1">
			<data element_type="f32" offset="3676608" shape="" size="4"/>
			<output>
				<port id="0" precision="FP32"/>
			</output>
		</layer>
		<layer id="399" name="3627363111654" type="Const" version="opset1">
			<data element_type="f32" offset="3676612" shape="" size="4"/>
			<output>
				<port id="0" precision="FP32"/>
			</output>
		</layer>
		<layer id="400" name="3628363212911" type="Const" version="opset1">
			<data element_type="f32" offset="3676608" shape="" size="4"/>
			<output>
				<port id="0" precision="FP32"/>
			</output>
		</layer>
		<layer id="401" name="3629363311315" type="Const" version="opset1">
			<data element_type="f32" offset="3676612" shape="" size="4"/>
			<output>
				<port id="0" precision="FP32"/>
			</output>
		</layer>
		<layer id="402" name="3746375012428" type="Const" version="opset1">
			<data element_type="f32" offset="3676616" shape="" size="4"/>
			<output>
				<port id="0" precision="FP32"/>
			</output>
		</layer>
		<layer id="403" name="3747375111270" type="Const" version="opset1">
			<data element_type="f32" offset="3676620" shape="" size="4"/>
			<output>
				<port id="0" precision="FP32"/>
			</output>
		</layer>
		<layer id="404" name="3748375212671" type="Const" version="opset1">
			<data element_type="f32" offset="3676616" shape="" size="4"/>
			<output>
				<port id="0" precision="FP32"/>
			</output>
		</layer>
		<layer id="405" name="3749375313895" type="Const" version="opset1">
			<data element_type="f32" offset="3676620" shape="" size="4"/>
			<output>
				<port id="0" precision="FP32"/>
			</output>
		</layer>
		<layer id="406" name="3606361013364" type="Const" version="opset1">
			<data element_type="f32" offset="3676624" shape="" size="4"/>
			<output>
				<port id="0" precision="FP32"/>
			</output>
		</layer>
		<layer id="407" name="3607361113559" type="Const" version="opset1">
			<data element_type="f32" offset="3676628" shape="" size="4"/>
			<output>
				<port id="0" precision="FP32"/>
			</output>
		</layer>
		<layer id="408" name="3608361214024" type="Const" version="opset1">
			<data element_type="f32" offset="3676624" shape="" size="4"/>
			<output>
				<port id="0" precision="FP32"/>
			</output>
		</layer>
		<layer id="409" name="3609361314075" type="Const" version="opset1">
			<data element_type="f32" offset="3676628" shape="" size="4"/>
			<output>
				<port id="0" precision="FP32"/>
			</output>
		</layer>
		<layer id="410" name="2286229013226" type="Const" version="opset1">
			<data element_type="f32" offset="48" shape="" size="4"/>
			<output>
				<port id="0" precision="FP32"/>
			</output>
		</layer>
		<layer id="411" name="2287229113553" type="Const" version="opset1">
			<data element_type="f32" offset="3676632" shape="" size="4"/>
			<output>
				<port id="0" precision="FP32"/>
			</output>
		</layer>
		<layer id="412" name="2288229212320" type="Const" version="opset1">
			<data element_type="f32" offset="48" shape="" size="4"/>
			<output>
				<port id="0" precision="FP32"/>
			</output>
		</layer>
		<layer id="413" name="2289229311894" type="Const" version="opset1">
			<data element_type="f32" offset="3676632" shape="" size="4"/>
			<output>
				<port id="0" precision="FP32"/>
			</output>
		</layer>
		<layer id="414" name="3316332012377" type="Const" version="opset1">
			<data element_type="f32" offset="3676636" shape="" size="4"/>
			<output>
				<port id="0" precision="FP32"/>
			</output>
		</layer>
		<layer id="415" name="3317332111234" type="Const" version="opset1">
			<data element_type="f32" offset="3676640" shape="" size="4"/>
			<output>
				<port id="0" precision="FP32"/>
			</output>
		</layer>
		<layer id="416" name="3318332213418" type="Const" version="opset1">
			<data element_type="f32" offset="3676636" shape="" size="4"/>
			<output>
				<port id="0" precision="FP32"/>
			</output>
		</layer>
		<layer id="417" name="3319332312326" type="Const" version="opset1">
			<data element_type="f32" offset="3676640" shape="" size="4"/>
			<output>
				<port id="0" precision="FP32"/>
			</output>
		</layer>
		<layer id="418" name="2536254014186" type="Const" version="opset1">
			<data element_type="f32" offset="3676644" shape="" size="4"/>
			<output>
				<port id="0" precision="FP32"/>
			</output>
		</layer>
		<layer id="419" name="2537254112749" type="Const" version="opset1">
			<data element_type="f32" offset="3676648" shape="" size="4"/>
			<output>
				<port id="0" precision="FP32"/>
			</output>
		</layer>
		<layer id="420" name="2538254213256" type="Const" version="opset1">
			<data element_type="f32" offset="3676644" shape="" size="4"/>
			<output>
				<port id="0" precision="FP32"/>
			</output>
		</layer>
		<layer id="421" name="2539254313916" type="Const" version="opset1">
			<data element_type="f32" offset="3676648" shape="" size="4"/>
			<output>
				<port id="0" precision="FP32"/>
			</output>
		</layer>
		<layer id="422" name="125821856958313883" type="Const" version="opset1">
			<data element_type="i64" offset="8" shape="2" size="16"/>
			<output>
				<port id="0" precision="I64">
					<dim>2</dim>
				</port>
			</output>
		</layer>
		<layer id="423" name="1566157013139" type="Const" version="opset1">
			<data element_type="f32" offset="3676652" shape="" size="4"/>
			<output>
				<port id="0" precision="FP32"/>
			</output>
		</layer>
		<layer id="424" name="1567157111126" type="Const" version="opset1">
			<data element_type="f32" offset="3676656" shape="" size="4"/>
			<output>
				<port id="0" precision="FP32"/>
			</output>
		</layer>
		<layer id="425" name="1568157212899" type="Const" version="opset1">
			<data element_type="f32" offset="3676652" shape="" size="4"/>
			<output>
				<port id="0" precision="FP32"/>
			</output>
		</layer>
		<layer id="426" name="1569157311864" type="Const" version="opset1">
			<data element_type="f32" offset="3676656" shape="" size="4"/>
			<output>
				<port id="0" precision="FP32"/>
			</output>
		</layer>
		<layer id="427" name="3526353013526" type="Const" version="opset1">
			<data element_type="f32" offset="3676660" shape="1,240,1,1" size="960"/>
			<output>
				<port id="0" precision="FP32">
					<dim>1</dim>
					<dim>240</dim>
					<dim>1</dim>
					<dim>1</dim>
				</port>
			</output>
		</layer>
		<layer id="428" name="3527353111408" type="Const" version="opset1">
			<data element_type="f32" offset="3677620" shape="1,240,1,1" size="960"/>
			<output>
				<port id="0" precision="FP32">
					<dim>1</dim>
					<dim>240</dim>
					<dim>1</dim>
					<dim>1</dim>
				</port>
			</output>
		</layer>
		<layer id="429" name="3528353211585" type="Const" version="opset1">
			<data element_type="f32" offset="3676660" shape="1,240,1,1" size="960"/>
			<output>
				<port id="0" precision="FP32">
					<dim>1</dim>
					<dim>240</dim>
					<dim>1</dim>
					<dim>1</dim>
				</port>
			</output>
		</layer>
		<layer id="430" name="3529353313043" type="Const" version="opset1">
			<data element_type="f32" offset="3677620" shape="1,240,1,1" size="960"/>
			<output>
				<port id="0" precision="FP32">
					<dim>1</dim>
					<dim>240</dim>
					<dim>1</dim>
					<dim>1</dim>
				</port>
			</output>
		</layer>
		<layer id="431" name="2386239011144" type="Const" version="opset1">
			<data element_type="f32" offset="3678580" shape="240,1,1,1" size="960"/>
			<output>
				<port id="0" precision="FP32">
					<dim>240</dim>
					<dim>1</dim>
					<dim>1</dim>
					<dim>1</dim>
				</port>
			</output>
		</layer>
		<layer id="432" name="2387239112503" type="Const" version="opset1">
			<data element_type="f32" offset="3679540" shape="240,1,1,1" size="960"/>
			<output>
				<port id="0" precision="FP32">
					<dim>240</dim>
					<dim>1</dim>
					<dim>1</dim>
					<dim>1</dim>
				</port>
			</output>
		</layer>
		<layer id="433" name="2388239214102" type="Const" version="opset1">
			<data element_type="f32" offset="3678580" shape="240,1,1,1" size="960"/>
			<output>
				<port id="0" precision="FP32">
					<dim>240</dim>
					<dim>1</dim>
					<dim>1</dim>
					<dim>1</dim>
				</port>
			</output>
		</layer>
		<layer id="434" name="2389239311159" type="Const" version="opset1">
			<data element_type="f32" offset="3679540" shape="240,1,1,1" size="960"/>
			<output>
				<port id="0" precision="FP32">
					<dim>240</dim>
					<dim>1</dim>
					<dim>1</dim>
					<dim>1</dim>
				</port>
			</output>
		</layer>
		<layer id="435" name="efficientnet-b0/model/blocks_4/tpu_batch_normalization/batchnorm/mul_1_copy57312605" type="Const" version="opset1">
			<data element_type="f32" offset="3680500" shape="240,40,1,1" size="38400"/>
			<output>
				<port id="0" names="efficientnet-b0/blocks_4/conv2d/kernel/read:0" precision="FP32">
					<dim>240</dim>
					<dim>40</dim>
					<dim>1</dim>
					<dim>1</dim>
				</port>
			</output>
		</layer>
		<layer id="436" name="efficientnet-b0/model/blocks_4/conv2d/Conv2D/fq_weights_1" type="FakeQuantize" version="opset1">
			<data auto_broadcast="numpy" levels="255"/>
			<input>
				<port id="0">
					<dim>240</dim>
					<dim>40</dim>
					<dim>1</dim>
					<dim>1</dim>
				</port>
				<port id="1">
					<dim>240</dim>
					<dim>1</dim>
					<dim>1</dim>
					<dim>1</dim>
				</port>
				<port id="2">
					<dim>240</dim>
					<dim>1</dim>
					<dim>1</dim>
					<dim>1</dim>
				</port>
				<port id="3">
					<dim>240</dim>
					<dim>1</dim>
					<dim>1</dim>
					<dim>1</dim>
				</port>
				<port id="4">
					<dim>240</dim>
					<dim>1</dim>
					<dim>1</dim>
					<dim>1</dim>
				</port>
			</input>
			<output>
				<port id="5" precision="FP32">
					<dim>240</dim>
					<dim>40</dim>
					<dim>1</dim>
					<dim>1</dim>
				</port>
			</output>
		</layer>
		<layer id="437" name="3756376012005" type="Const" version="opset1">
			<data element_type="f32" offset="3718900" shape="" size="4"/>
			<output>
				<port id="0" precision="FP32"/>
			</output>
		</layer>
		<layer id="438" name="3757376112134" type="Const" version="opset1">
			<data element_type="f32" offset="3718904" shape="" size="4"/>
			<output>
				<port id="0" precision="FP32"/>
			</output>
		</layer>
		<layer id="439" name="3758376214006" type="Const" version="opset1">
			<data element_type="f32" offset="3718900" shape="" size="4"/>
			<output>
				<port id="0" precision="FP32"/>
			</output>
		</layer>
		<layer id="440" name="3759376312173" type="Const" version="opset1">
			<data element_type="f32" offset="3718904" shape="" size="4"/>
			<output>
				<port id="0" precision="FP32"/>
			</output>
		</layer>
		<layer id="441" name="2056206012782" type="Const" version="opset1">
			<data element_type="f32" offset="3718908" shape="" size="4"/>
			<output>
				<port id="0" precision="FP32"/>
			</output>
		</layer>
		<layer id="442" name="2057206113976" type="Const" version="opset1">
			<data element_type="f32" offset="3718912" shape="" size="4"/>
			<output>
				<port id="0" precision="FP32"/>
			</output>
		</layer>
		<layer id="443" name="2058206212860" type="Const" version="opset1">
			<data element_type="f32" offset="3718908" shape="" size="4"/>
			<output>
				<port id="0" precision="FP32"/>
			</output>
		</layer>
		<layer id="444" name="2059206312560" type="Const" version="opset1">
			<data element_type="f32" offset="3718912" shape="" size="4"/>
			<output>
				<port id="0" precision="FP32"/>
			</output>
		</layer>
		<layer id="445" name="3136314013697" type="Const" version="opset1">
			<data element_type="f32" offset="48" shape="" size="4"/>
			<output>
				<port id="0" precision="FP32"/>
			</output>
		</layer>
		<layer id="446" name="3137314113058" type="Const" version="opset1">
			<data element_type="f32" offset="3718916" shape="" size="4"/>
			<output>
				<port id="0" precision="FP32"/>
			</output>
		</layer>
		<layer id="447" name="3138314212701" type="Const" version="opset1">
			<data element_type="f32" offset="48" shape="" size="4"/>
			<output>
				<port id="0" precision="FP32"/>
			</output>
		</layer>
		<layer id="448" name="3139314312554" type="Const" version="opset1">
			<data element_type="f32" offset="3718916" shape="" size="4"/>
			<output>
				<port id="0" precision="FP32"/>
			</output>
		</layer>
		<layer id="449" name="1916192012884" type="Const" version="opset1">
			<data element_type="f32" offset="3718920" shape="" size="4"/>
			<output>
				<port id="0" precision="FP32"/>
			</output>
		</layer>
		<layer id="450" name="1917192111573" type="Const" version="opset1">
			<data element_type="f32" offset="3718924" shape="" size="4"/>
			<output>
				<port id="0" precision="FP32"/>
			</output>
		</layer>
		<layer id="451" name="1918192213277" type="Const" version="opset1">
			<data element_type="f32" offset="3718920" shape="" size="4"/>
			<output>
				<port id="0" precision="FP32"/>
			</output>
		</layer>
		<layer id="452" name="1919192311741" type="Const" version="opset1">
			<data element_type="f32" offset="3718924" shape="" size="4"/>
			<output>
				<port id="0" precision="FP32"/>
			</output>
		</layer>
		<layer id="453" name="2586259011375" type="Const" version="opset1">
			<data element_type="f32" offset="3718928" shape="" size="4"/>
			<output>
				<port id="0" precision="FP32"/>
			</output>
		</layer>
		<layer id="454" name="2587259111516" type="Const" version="opset1">
			<data element_type="f32" offset="3718932" shape="" size="4"/>
			<output>
				<port id="0" precision="FP32"/>
			</output>
		</layer>
		<layer id="455" name="2588259213928" type="Const" version="opset1">
			<data element_type="f32" offset="3718928" shape="" size="4"/>
			<output>
				<port id="0" precision="FP32"/>
			</output>
		</layer>
		<layer id="456" name="2589259313067" type="Const" version="opset1">
			<data element_type="f32" offset="3718932" shape="" size="4"/>
			<output>
				<port id="0" precision="FP32"/>
			</output>
		</layer>
		<layer id="457" name="125561909455611480" type="Const" version="opset1">
			<data element_type="i64" offset="8" shape="2" size="16"/>
			<output>
				<port id="0" precision="I64">
					<dim>2</dim>
				</port>
			</output>
		</layer>
		<layer id="458" name="1816182011987" type="Const" version="opset1">
			<data element_type="f32" offset="3718936" shape="" size="4"/>
			<output>
				<port id="0" precision="FP32"/>
			</output>
		</layer>
		<layer id="459" name="1817182111834" type="Const" version="opset1">
			<data element_type="f32" offset="3718940" shape="" size="4"/>
			<output>
				<port id="0" precision="FP32"/>
			</output>
		</layer>
		<layer id="460" name="1818182213316" type="Const" version="opset1">
			<data element_type="f32" offset="3718936" shape="" size="4"/>
			<output>
				<port id="0" precision="FP32"/>
			</output>
		</layer>
		<layer id="461" name="1819182311396" type="Const" version="opset1">
			<data element_type="f32" offset="3718940" shape="" size="4"/>
			<output>
				<port id="0" precision="FP32"/>
			</output>
		</layer>
		<layer id="462" name="3486349011492" type="Const" version="opset1">
			<data element_type="f32" offset="3718944" shape="1,144,1,1" size="576"/>
			<output>
				<port id="0" precision="FP32">
					<dim>1</dim>
					<dim>144</dim>
					<dim>1</dim>
					<dim>1</dim>
				</port>
			</output>
		</layer>
		<layer id="463" name="3487349112815" type="Const" version="opset1">
			<data element_type="f32" offset="3719520" shape="1,144,1,1" size="576"/>
			<output>
				<port id="0" precision="FP32">
					<dim>1</dim>
					<dim>144</dim>
					<dim>1</dim>
					<dim>1</dim>
				</port>
			</output>
		</layer>
		<layer id="464" name="3488349212308" type="Const" version="opset1">
			<data element_type="f32" offset="3718944" shape="1,144,1,1" size="576"/>
			<output>
				<port id="0" precision="FP32">
					<dim>1</dim>
					<dim>144</dim>
					<dim>1</dim>
					<dim>1</dim>
				</port>
			</output>
		</layer>
		<layer id="465" name="3489349311195" type="Const" version="opset1">
			<data element_type="f32" offset="3719520" shape="1,144,1,1" size="576"/>
			<output>
				<port id="0" precision="FP32">
					<dim>1</dim>
					<dim>144</dim>
					<dim>1</dim>
					<dim>1</dim>
				</port>
			</output>
		</layer>
		<layer id="466" name="3336334013208" type="Const" version="opset1">
			<data element_type="f32" offset="3720096" shape="" size="4"/>
			<output>
				<port id="0" precision="FP32"/>
			</output>
		</layer>
		<layer id="467" name="3337334112971" type="Const" version="opset1">
			<data element_type="f32" offset="3720100" shape="" size="4"/>
			<output>
				<port id="0" precision="FP32"/>
			</output>
		</layer>
		<layer id="468" name="3338334211798" type="Const" version="opset1">
			<data element_type="f32" offset="3720096" shape="" size="4"/>
			<output>
				<port id="0" precision="FP32"/>
			</output>
		</layer>
		<layer id="469" name="3339334312230" type="Const" version="opset1">
			<data element_type="f32" offset="3720100" shape="" size="4"/>
			<output>
				<port id="0" precision="FP32"/>
			</output>
		</layer>
		<layer id="470" name="2996300012161" type="Const" version="opset1">
			<data element_type="f32" offset="3720104" shape="" size="4"/>
			<output>
				<port id="0" precision="FP32"/>
			</output>
		</layer>
		<layer id="471" name="2997300112638" type="Const" version="opset1">
			<data element_type="f32" offset="3720108" shape="" size="4"/>
			<output>
				<port id="0" precision="FP32"/>
			</output>
		</layer>
		<layer id="472" name="2998300212443" type="Const" version="opset1">
			<data element_type="f32" offset="3720104" shape="" size="4"/>
			<output>
				<port id="0" precision="FP32"/>
			</output>
		</layer>
		<layer id="473" name="2999300311807" type="Const" version="opset1">
			<data element_type="f32" offset="3720108" shape="" size="4"/>
			<output>
				<port id="0" precision="FP32"/>
			</output>
		</layer>
		<layer id="474" name="2936294011870" type="Const" version="opset1">
			<data element_type="f32" offset="3720112" shape="" size="4"/>
			<output>
				<port id="0" precision="FP32"/>
			</output>
		</layer>
		<layer id="475" name="2937294111501" type="Const" version="opset1">
			<data element_type="f32" offset="3720116" shape="" size="4"/>
			<output>
				<port id="0" precision="FP32"/>
			</output>
		</layer>
		<layer id="476" name="2938294214015" type="Const" version="opset1">
			<data element_type="f32" offset="3720112" shape="" size="4"/>
			<output>
				<port id="0" precision="FP32"/>
			</output>
		</layer>
		<layer id="477" name="2939294313886" type="Const" version="opset1">
			<data element_type="f32" offset="3720116" shape="" size="4"/>
			<output>
				<port id="0" precision="FP32"/>
			</output>
		</layer>
		<layer id="478" name="2206221012776" type="Const" version="opset1">
			<data element_type="f32" offset="48" shape="" size="4"/>
			<output>
				<port id="0" precision="FP32"/>
			</output>
		</layer>
		<layer id="479" name="2207221112371" type="Const" version="opset1">
			<data element_type="f32" offset="3720120" shape="" size="4"/>
			<output>
				<port id="0" precision="FP32"/>
			</output>
		</layer>
		<layer id="480" name="2208221213880" type="Const" version="opset1">
			<data element_type="f32" offset="48" shape="" size="4"/>
			<output>
				<port id="0" precision="FP32"/>
			</output>
		</layer>
		<layer id="481" name="2209221313922" type="Const" version="opset1">
			<data element_type="f32" offset="3720120" shape="" size="4"/>
			<output>
				<port id="0" precision="FP32"/>
			</output>
		</layer>
		<layer id="482" name="1936194012536" type="Const" version="opset1">
			<data element_type="f32" offset="3720124" shape="" size="4"/>
			<output>
				<port id="0" precision="FP32"/>
			</output>
		</layer>
		<layer id="483" name="1937194113244" type="Const" version="opset1">
			<data element_type="f32" offset="3720128" shape="" size="4"/>
			<output>
				<port id="0" precision="FP32"/>
			</output>
		</layer>
		<layer id="484" name="1938194212146" type="Const" version="opset1">
			<data element_type="f32" offset="3720124" shape="" size="4"/>
			<output>
				<port id="0" precision="FP32"/>
			</output>
		</layer>
		<layer id="485" name="1939194313280" type="Const" version="opset1">
			<data element_type="f32" offset="3720128" shape="" size="4"/>
			<output>
				<port id="0" precision="FP32"/>
			</output>
		</layer>
		<layer id="486" name="3056306011174" type="Const" version="opset1">
			<data element_type="f32" offset="3720132" shape="" size="4"/>
			<output>
				<port id="0" precision="FP32"/>
			</output>
		</layer>
		<layer id="487" name="3057306112113" type="Const" version="opset1">
			<data element_type="f32" offset="3720136" shape="" size="4"/>
			<output>
				<port id="0" precision="FP32"/>
			</output>
		</layer>
		<layer id="488" name="3058306212242" type="Const" version="opset1">
			<data element_type="f32" offset="3720132" shape="" size="4"/>
			<output>
				<port id="0" precision="FP32"/>
			</output>
		</layer>
		<layer id="489" name="3059306311942" type="Const" version="opset1">
			<data element_type="f32" offset="3720136" shape="" size="4"/>
			<output>
				<port id="0" precision="FP32"/>
			</output>
		</layer>
		<layer id="490" name="125301855452812101" type="Const" version="opset1">
			<data element_type="i64" offset="8" shape="2" size="16"/>
			<output>
				<port id="0" precision="I64">
					<dim>2</dim>
				</port>
			</output>
		</layer>
		<layer id="491" name="2726273011507" type="Const" version="opset1">
			<data element_type="f32" offset="3720140" shape="" size="4"/>
			<output>
				<port id="0" precision="FP32"/>
			</output>
		</layer>
		<layer id="492" name="2727273114072" type="Const" version="opset1">
			<data element_type="f32" offset="3720144" shape="" size="4"/>
			<output>
				<port id="0" precision="FP32"/>
			</output>
		</layer>
		<layer id="493" name="2728273211354" type="Const" version="opset1">
			<data element_type="f32" offset="3720140" shape="" size="4"/>
			<output>
				<port id="0" precision="FP32"/>
			</output>
		</layer>
		<layer id="494" name="2729273313748" type="Const" version="opset1">
			<data element_type="f32" offset="3720144" shape="" size="4"/>
			<output>
				<port id="0" precision="FP32"/>
			</output>
		</layer>
		<layer id="495" name="2686269013877" type="Const" version="opset1">
			<data element_type="f32" offset="3720148" shape="1,144,1,1" size="576"/>
			<output>
				<port id="0" precision="FP32">
					<dim>1</dim>
					<dim>144</dim>
					<dim>1</dim>
					<dim>1</dim>
				</port>
			</output>
		</layer>
		<layer id="496" name="2687269112695" type="Const" version="opset1">
			<data element_type="f32" offset="3720724" shape="1,144,1,1" size="576"/>
			<output>
				<port id="0" precision="FP32">
					<dim>1</dim>
					<dim>144</dim>
					<dim>1</dim>
					<dim>1</dim>
				</port>
			</output>
		</layer>
		<layer id="497" name="2688269214066" type="Const" version="opset1">
			<data element_type="f32" offset="3720148" shape="1,144,1,1" size="576"/>
			<output>
				<port id="0" precision="FP32">
					<dim>1</dim>
					<dim>144</dim>
					<dim>1</dim>
					<dim>1</dim>
				</port>
			</output>
		</layer>
		<layer id="498" name="2689269311666" type="Const" version="opset1">
			<data element_type="f32" offset="3720724" shape="1,144,1,1" size="576"/>
			<output>
				<port id="0" precision="FP32">
					<dim>1</dim>
					<dim>144</dim>
					<dim>1</dim>
					<dim>1</dim>
				</port>
			</output>
		</layer>
		<layer id="499" name="3516352011837" type="Const" version="opset1">
			<data element_type="f32" offset="3721300" shape="144,1,1,1" size="576"/>
			<output>
				<port id="0" precision="FP32">
					<dim>144</dim>
					<dim>1</dim>
					<dim>1</dim>
					<dim>1</dim>
				</port>
			</output>
		</layer>
		<layer id="500" name="3517352113643" type="Const" version="opset1">
			<data element_type="f32" offset="3721876" shape="144,1,1,1" size="576"/>
			<output>
				<port id="0" precision="FP32">
					<dim>144</dim>
					<dim>1</dim>
					<dim>1</dim>
					<dim>1</dim>
				</port>
			</output>
		</layer>
		<layer id="501" name="3518352213763" type="Const" version="opset1">
			<data element_type="f32" offset="3721300" shape="144,1,1,1" size="576"/>
			<output>
				<port id="0" precision="FP32">
					<dim>144</dim>
					<dim>1</dim>
					<dim>1</dim>
					<dim>1</dim>
				</port>
			</output>
		</layer>
		<layer id="502" name="3519352312335" type="Const" version="opset1">
			<data element_type="f32" offset="3721876" shape="144,1,1,1" size="576"/>
			<output>
				<port id="0" precision="FP32">
					<dim>144</dim>
					<dim>1</dim>
					<dim>1</dim>
					<dim>1</dim>
				</port>
			</output>
		</layer>
		<layer id="503" name="efficientnet-b0/model/blocks_2/tpu_batch_normalization/batchnorm/mul_1_copy51812500" type="Const" version="opset1">
			<data element_type="f32" offset="3722452" shape="144,24,1,1" size="13824"/>
			<output>
				<port id="0" names="efficientnet-b0/blocks_2/conv2d/kernel/read:0" precision="FP32">
					<dim>144</dim>
					<dim>24</dim>
					<dim>1</dim>
					<dim>1</dim>
				</port>
			</output>
		</layer>
		<layer id="504" name="efficientnet-b0/model/blocks_2/conv2d/Conv2D/fq_weights_1" type="FakeQuantize" version="opset1">
			<data auto_broadcast="numpy" levels="255"/>
			<input>
				<port id="0">
					<dim>144</dim>
					<dim>24</dim>
					<dim>1</dim>
					<dim>1</dim>
				</port>
				<port id="1">
					<dim>144</dim>
					<dim>1</dim>
					<dim>1</dim>
					<dim>1</dim>
				</port>
				<port id="2">
					<dim>144</dim>
					<dim>1</dim>
					<dim>1</dim>
					<dim>1</dim>
				</port>
				<port id="3">
					<dim>144</dim>
					<dim>1</dim>
					<dim>1</dim>
					<dim>1</dim>
				</port>
				<port id="4">
					<dim>144</dim>
					<dim>1</dim>
					<dim>1</dim>
					<dim>1</dim>
				</port>
			</input>
			<output>
				<port id="5" precision="FP32">
					<dim>144</dim>
					<dim>24</dim>
					<dim>1</dim>
					<dim>1</dim>
				</port>
			</output>
		</layer>
		<layer id="505" name="3006301011897" type="Const" version="opset1">
			<data element_type="f32" offset="3736276" shape="" size="4"/>
			<output>
				<port id="0" precision="FP32"/>
			</output>
		</layer>
		<layer id="506" name="3007301112458" type="Const" version="opset1">
			<data element_type="f32" offset="3736280" shape="" size="4"/>
			<output>
				<port id="0" precision="FP32"/>
			</output>
		</layer>
		<layer id="507" name="3008301212557" type="Const" version="opset1">
			<data element_type="f32" offset="3736276" shape="" size="4"/>
			<output>
				<port id="0" precision="FP32"/>
			</output>
		</layer>
		<layer id="508" name="3009301313424" type="Const" version="opset1">
			<data element_type="f32" offset="3736280" shape="" size="4"/>
			<output>
				<port id="0" precision="FP32"/>
			</output>
		</layer>
		<layer id="509" name="3116312011873" type="Const" version="opset1">
			<data element_type="f32" offset="3736284" shape="" size="4"/>
			<output>
				<port id="0" precision="FP32"/>
			</output>
		</layer>
		<layer id="510" name="3117312111444" type="Const" version="opset1">
			<data element_type="f32" offset="3736288" shape="" size="4"/>
			<output>
				<port id="0" precision="FP32"/>
			</output>
		</layer>
		<layer id="511" name="3118312213304" type="Const" version="opset1">
			<data element_type="f32" offset="3736284" shape="" size="4"/>
			<output>
				<port id="0" precision="FP32"/>
			</output>
		</layer>
		<layer id="512" name="3119312311969" type="Const" version="opset1">
			<data element_type="f32" offset="3736288" shape="" size="4"/>
			<output>
				<port id="0" precision="FP32"/>
			</output>
		</layer>
		<layer id="513" name="2666267013502" type="Const" version="opset1">
			<data element_type="f32" offset="48" shape="" size="4"/>
			<output>
				<port id="0" precision="FP32"/>
			</output>
		</layer>
		<layer id="514" name="2667267111336" type="Const" version="opset1">
			<data element_type="f32" offset="3736292" shape="" size="4"/>
			<output>
				<port id="0" precision="FP32"/>
			</output>
		</layer>
		<layer id="515" name="2668267211546" type="Const" version="opset1">
			<data element_type="f32" offset="48" shape="" size="4"/>
			<output>
				<port id="0" precision="FP32"/>
			</output>
		</layer>
		<layer id="516" name="2669267312194" type="Const" version="opset1">
			<data element_type="f32" offset="3736292" shape="" size="4"/>
			<output>
				<port id="0" precision="FP32"/>
			</output>
		</layer>
		<layer id="517" name="1596160012872" type="Const" version="opset1">
			<data element_type="f32" offset="3736296" shape="" size="4"/>
			<output>
				<port id="0" precision="FP32"/>
			</output>
		</layer>
		<layer id="518" name="1597160113682" type="Const" version="opset1">
			<data element_type="f32" offset="3736300" shape="" size="4"/>
			<output>
				<port id="0" precision="FP32"/>
			</output>
		</layer>
		<layer id="519" name="1598160213931" type="Const" version="opset1">
			<data element_type="f32" offset="3736296" shape="" size="4"/>
			<output>
				<port id="0" precision="FP32"/>
			</output>
		</layer>
		<layer id="520" name="1599160313490" type="Const" version="opset1">
			<data element_type="f32" offset="3736300" shape="" size="4"/>
			<output>
				<port id="0" precision="FP32"/>
			</output>
		</layer>
		<layer id="521" name="3206321011213" type="Const" version="opset1">
			<data element_type="f32" offset="3736304" shape="" size="4"/>
			<output>
				<port id="0" precision="FP32"/>
			</output>
		</layer>
		<layer id="522" name="3207321113796" type="Const" version="opset1">
			<data element_type="f32" offset="3736308" shape="" size="4"/>
			<output>
				<port id="0" precision="FP32"/>
			</output>
		</layer>
		<layer id="523" name="3208321214168" type="Const" version="opset1">
			<data element_type="f32" offset="3736304" shape="" size="4"/>
			<output>
				<port id="0" precision="FP32"/>
			</output>
		</layer>
		<layer id="524" name="3209321313445" type="Const" version="opset1">
			<data element_type="f32" offset="3736308" shape="" size="4"/>
			<output>
				<port id="0" precision="FP32"/>
			</output>
		</layer>
		<layer id="525" name="125041894150111147" type="Const" version="opset1">
			<data element_type="i64" offset="8" shape="2" size="16"/>
			<output>
				<port id="0" precision="I64">
					<dim>2</dim>
				</port>
			</output>
		</layer>
		<layer id="526" name="2196220014150" type="Const" version="opset1">
			<data element_type="f32" offset="3736312" shape="" size="4"/>
			<output>
				<port id="0" precision="FP32"/>
			</output>
		</layer>
		<layer id="527" name="2197220111744" type="Const" version="opset1">
			<data element_type="f32" offset="3736316" shape="" size="4"/>
			<output>
				<port id="0" precision="FP32"/>
			</output>
		</layer>
		<layer id="528" name="2198220212551" type="Const" version="opset1">
			<data element_type="f32" offset="3736312" shape="" size="4"/>
			<output>
				<port id="0" precision="FP32"/>
			</output>
		</layer>
		<layer id="529" name="2199220312353" type="Const" version="opset1">
			<data element_type="f32" offset="3736316" shape="" size="4"/>
			<output>
				<port id="0" precision="FP32"/>
			</output>
		</layer>
		<layer id="530" name="1546155014147" type="Const" version="opset1">
			<data element_type="f32" offset="3736320" shape="1,96,1,1" size="384"/>
			<output>
				<port id="0" precision="FP32">
					<dim>1</dim>
					<dim>96</dim>
					<dim>1</dim>
					<dim>1</dim>
				</port>
			</output>
		</layer>
		<layer id="531" name="1547155113778" type="Const" version="opset1">
			<data element_type="f32" offset="3736704" shape="1,96,1,1" size="384"/>
			<output>
				<port id="0" precision="FP32">
					<dim>1</dim>
					<dim>96</dim>
					<dim>1</dim>
					<dim>1</dim>
				</port>
			</output>
		</layer>
		<layer id="532" name="1548155213910" type="Const" version="opset1">
			<data element_type="f32" offset="3736320" shape="1,96,1,1" size="384"/>
			<output>
				<port id="0" precision="FP32">
					<dim>1</dim>
					<dim>96</dim>
					<dim>1</dim>
					<dim>1</dim>
				</port>
			</output>
		</layer>
		<layer id="533" name="1549155313367" type="Const" version="opset1">
			<data element_type="f32" offset="3736704" shape="1,96,1,1" size="384"/>
			<output>
				<port id="0" precision="FP32">
					<dim>1</dim>
					<dim>96</dim>
					<dim>1</dim>
					<dim>1</dim>
				</port>
			</output>
		</layer>
		<layer id="534" name="3546355013718" type="Const" version="opset1">
			<data element_type="f32" offset="3737088" shape="" size="4"/>
			<output>
				<port id="0" precision="FP32"/>
			</output>
		</layer>
		<layer id="535" name="3547355113040" type="Const" version="opset1">
			<data element_type="f32" offset="3737092" shape="" size="4"/>
			<output>
				<port id="0" precision="FP32"/>
			</output>
		</layer>
		<layer id="536" name="3548355211612" type="Const" version="opset1">
			<data element_type="f32" offset="3737088" shape="" size="4"/>
			<output>
				<port id="0" precision="FP32"/>
			</output>
		</layer>
		<layer id="537" name="3549355312548" type="Const" version="opset1">
			<data element_type="f32" offset="3737092" shape="" size="4"/>
			<output>
				<port id="0" precision="FP32"/>
			</output>
		</layer>
		<layer id="538" name="2826283013340" type="Const" version="opset1">
			<data element_type="f32" offset="3737096" shape="" size="4"/>
			<output>
				<port id="0" precision="FP32"/>
			</output>
		</layer>
		<layer id="539" name="2827283113769" type="Const" version="opset1">
			<data element_type="f32" offset="3737100" shape="" size="4"/>
			<output>
				<port id="0" precision="FP32"/>
			</output>
		</layer>
		<layer id="540" name="2828283211855" type="Const" version="opset1">
			<data element_type="f32" offset="3737096" shape="" size="4"/>
			<output>
				<port id="0" precision="FP32"/>
			</output>
		</layer>
		<layer id="541" name="2829283313706" type="Const" version="opset1">
			<data element_type="f32" offset="3737100" shape="" size="4"/>
			<output>
				<port id="0" precision="FP32"/>
			</output>
		</layer>
		<layer id="542" name="1526153011297" type="Const" version="opset1">
			<data element_type="f32" offset="48" shape="" size="4"/>
			<output>
				<port id="0" precision="FP32"/>
			</output>
		</layer>
		<layer id="543" name="1527153113382" type="Const" version="opset1">
			<data element_type="f32" offset="3737104" shape="" size="4"/>
			<output>
				<port id="0" precision="FP32"/>
			</output>
		</layer>
		<layer id="544" name="1528153213649" type="Const" version="opset1">
			<data element_type="f32" offset="48" shape="" size="4"/>
			<output>
				<port id="0" precision="FP32"/>
			</output>
		</layer>
		<layer id="545" name="1529153312425" type="Const" version="opset1">
			<data element_type="f32" offset="3737104" shape="" size="4"/>
			<output>
				<port id="0" precision="FP32"/>
			</output>
		</layer>
		<layer id="546" name="1486149011831" type="Const" version="opset1">
			<data element_type="f32" offset="3737108" shape="" size="4"/>
			<output>
				<port id="0" precision="FP32"/>
			</output>
		</layer>
		<layer id="547" name="1487149111471" type="Const" version="opset1">
			<data element_type="f32" offset="3737112" shape="" size="4"/>
			<output>
				<port id="0" precision="FP32"/>
			</output>
		</layer>
		<layer id="548" name="1488149214069" type="Const" version="opset1">
			<data element_type="f32" offset="3737108" shape="" size="4"/>
			<output>
				<port id="0" precision="FP32"/>
			</output>
		</layer>
		<layer id="549" name="1489149312527" type="Const" version="opset1">
			<data element_type="f32" offset="3737112" shape="" size="4"/>
			<output>
				<port id="0" precision="FP32"/>
			</output>
		</layer>
		<layer id="550" name="1466147013589" type="Const" version="opset1">
			<data element_type="f32" offset="3737116" shape="" size="4"/>
			<output>
				<port id="0" precision="FP32"/>
			</output>
		</layer>
		<layer id="551" name="1467147111483" type="Const" version="opset1">
			<data element_type="f32" offset="3737120" shape="" size="4"/>
			<output>
				<port id="0" precision="FP32"/>
			</output>
		</layer>
		<layer id="552" name="1468147213613" type="Const" version="opset1">
			<data element_type="f32" offset="3737116" shape="" size="4"/>
			<output>
				<port id="0" precision="FP32"/>
			</output>
		</layer>
		<layer id="553" name="1469147313640" type="Const" version="opset1">
			<data element_type="f32" offset="3737120" shape="" size="4"/>
			<output>
				<port id="0" precision="FP32"/>
			</output>
		</layer>
		<layer id="554" name="124781870147411390" type="Const" version="opset1">
			<data element_type="i64" offset="8" shape="2" size="16"/>
			<output>
				<port id="0" precision="I64">
					<dim>2</dim>
				</port>
			</output>
		</layer>
		<layer id="555" name="3106311012935" type="Const" version="opset1">
			<data element_type="f32" offset="3737124" shape="" size="4"/>
			<output>
				<port id="0" precision="FP32"/>
			</output>
		</layer>
		<layer id="556" name="3107311111852" type="Const" version="opset1">
			<data element_type="f32" offset="3737128" shape="" size="4"/>
			<output>
				<port id="0" precision="FP32"/>
			</output>
		</layer>
		<layer id="557" name="3108311212950" type="Const" version="opset1">
			<data element_type="f32" offset="3737124" shape="" size="4"/>
			<output>
				<port id="0" precision="FP32"/>
			</output>
		</layer>
		<layer id="558" name="3109311312986" type="Const" version="opset1">
			<data element_type="f32" offset="3737128" shape="" size="4"/>
			<output>
				<port id="0" precision="FP32"/>
			</output>
		</layer>
		<layer id="559" name="2356236013109" type="Const" version="opset1">
			<data element_type="f32" offset="3737132" shape="1,32,1,1" size="128"/>
			<output>
				<port id="0" precision="FP32">
					<dim>1</dim>
					<dim>32</dim>
					<dim>1</dim>
					<dim>1</dim>
				</port>
			</output>
		</layer>
		<layer id="560" name="2357236113826" type="Const" version="opset1">
			<data element_type="f32" offset="3737260" shape="1,32,1,1" size="128"/>
			<output>
				<port id="0" precision="FP32">
					<dim>1</dim>
					<dim>32</dim>
					<dim>1</dim>
					<dim>1</dim>
				</port>
			</output>
		</layer>
		<layer id="561" name="2358236212206" type="Const" version="opset1">
			<data element_type="f32" offset="3737132" shape="1,32,1,1" size="128"/>
			<output>
				<port id="0" precision="FP32">
					<dim>1</dim>
					<dim>32</dim>
					<dim>1</dim>
					<dim>1</dim>
				</port>
			</output>
		</layer>
		<layer id="562" name="2359236312731" type="Const" version="opset1">
			<data element_type="f32" offset="3737260" shape="1,32,1,1" size="128"/>
			<output>
				<port id="0" precision="FP32">
					<dim>1</dim>
					<dim>32</dim>
					<dim>1</dim>
					<dim>1</dim>
				</port>
			</output>
		</layer>
		<layer id="563" name="2036204011789" type="Const" version="opset1">
			<data element_type="f32" offset="3737388" shape="" size="4"/>
			<output>
				<port id="0" precision="FP32"/>
			</output>
		</layer>
		<layer id="564" name="2037204112104" type="Const" version="opset1">
			<data element_type="f32" offset="3737392" shape="" size="4"/>
			<output>
				<port id="0" precision="FP32"/>
			</output>
		</layer>
		<layer id="565" name="2038204214033" type="Const" version="opset1">
			<data element_type="f32" offset="3737388" shape="" size="4"/>
			<output>
				<port id="0" precision="FP32"/>
			</output>
		</layer>
		<layer id="566" name="2039204313952" type="Const" version="opset1">
			<data element_type="f32" offset="3737392" shape="" size="4"/>
			<output>
				<port id="0" precision="FP32"/>
			</output>
		</layer>
		<layer id="567" name="sub/placeholder_port_0" type="Parameter" version="opset1">
			<data element_type="f32" shape="1,3,224,224"/>
			<output>
				<port id="0" names="sub" precision="FP32">
					<dim>1</dim>
					<dim>3</dim>
					<dim>224</dim>
					<dim>224</dim>
				</port>
			</output>
		</layer>
		<layer id="568" name="data_mul_901846011330" type="Const" version="opset1">
			<data element_type="f32" offset="3737396" shape="1,3,1,1" size="12"/>
			<output>
				<port id="0" precision="FP32">
					<dim>1</dim>
					<dim>3</dim>
					<dim>1</dim>
					<dim>1</dim>
				</port>
			</output>
		</layer>
		<layer id="569" name="truediv/Fused_Mul_" type="Multiply" version="opset1">
			<data auto_broadcast="numpy"/>
			<input>
				<port id="0">
					<dim>1</dim>
					<dim>3</dim>
					<dim>224</dim>
					<dim>224</dim>
				</port>
				<port id="1">
					<dim>1</dim>
					<dim>3</dim>
					<dim>1</dim>
					<dim>1</dim>
				</port>
			</input>
			<output>
				<port id="2" precision="FP32">
					<dim>1</dim>
					<dim>3</dim>
					<dim>224</dim>
					<dim>224</dim>
				</port>
			</output>
		</layer>
		<layer id="570" name="data_add_902046214105" type="Const" version="opset1">
			<data element_type="f32" offset="3737408" shape="1,3,1,1" size="12"/>
			<output>
				<port id="0" precision="FP32">
					<dim>1</dim>
					<dim>3</dim>
					<dim>1</dim>
					<dim>1</dim>
				</port>
			</output>
		</layer>
		<layer id="571" name="sub/Fused_Add_" type="Add" version="opset1">
			<data auto_broadcast="numpy"/>
			<input>
				<port id="0">
					<dim>1</dim>
					<dim>3</dim>
					<dim>224</dim>
					<dim>224</dim>
				</port>
				<port id="1">
					<dim>1</dim>
					<dim>3</dim>
					<dim>1</dim>
					<dim>1</dim>
				</port>
			</input>
			<output>
				<port id="2" names="truediv:0" precision="FP32">
					<dim>1</dim>
					<dim>3</dim>
					<dim>224</dim>
					<dim>224</dim>
				</port>
			</output>
		</layer>
		<layer id="572" name="efficientnet-b0/model/stem/conv2d/Conv2D/fq_input_0" type="FakeQuantize" version="opset1">
			<data auto_broadcast="numpy" levels="256"/>
			<input>
				<port id="0">
					<dim>1</dim>
					<dim>3</dim>
					<dim>224</dim>
					<dim>224</dim>
				</port>
				<port id="1"/>
				<port id="2"/>
				<port id="3"/>
				<port id="4"/>
			</input>
			<output>
				<port id="5" precision="FP32">
					<dim>1</dim>
					<dim>3</dim>
					<dim>224</dim>
					<dim>224</dim>
				</port>
			</output>
		</layer>
		<layer id="573" name="2046205012008" type="Const" version="opset1">
			<data element_type="f32" offset="3737420" shape="32,1,1,1" size="128"/>
			<output>
				<port id="0" precision="FP32">
					<dim>32</dim>
					<dim>1</dim>
					<dim>1</dim>
					<dim>1</dim>
				</port>
			</output>
		</layer>
		<layer id="574" name="2047205112140" type="Const" version="opset1">
			<data element_type="f32" offset="3737548" shape="32,1,1,1" size="128"/>
			<output>
				<port id="0" precision="FP32">
					<dim>32</dim>
					<dim>1</dim>
					<dim>1</dim>
					<dim>1</dim>
				</port>
			</output>
		</layer>
		<layer id="575" name="2048205212965" type="Const" version="opset1">
			<data element_type="f32" offset="3737676" shape="32,1,1,1" size="128"/>
			<output>
				<port id="0" precision="FP32">
					<dim>32</dim>
					<dim>1</dim>
					<dim>1</dim>
					<dim>1</dim>
				</port>
			</output>
		</layer>
		<layer id="576" name="2049205312584" type="Const" version="opset1">
			<data element_type="f32" offset="3737804" shape="32,1,1,1" size="128"/>
			<output>
				<port id="0" precision="FP32">
					<dim>32</dim>
					<dim>1</dim>
					<dim>1</dim>
					<dim>1</dim>
				</port>
			</output>
		</layer>
		<layer id="577" name="efficientnet-b0/model/stem/tpu_batch_normalization/batchnorm/mul_1_copy46413400" type="Const" version="opset1">
			<data element_type="f32" offset="3737932" shape="32,3,3,3" size="3456"/>
			<output>
				<port id="0" names="efficientnet-b0/model/stem/conv2d/Conv2D/ReadVariableOp:0" precision="FP32">
					<dim>32</dim>
					<dim>3</dim>
					<dim>3</dim>
					<dim>3</dim>
				</port>
			</output>
		</layer>
		<layer id="578" name="efficientnet-b0/model/stem/conv2d/Conv2D/fq_weights_1" type="FakeQuantize" version="opset1">
			<data auto_broadcast="numpy" levels="255"/>
			<input>
				<port id="0">
					<dim>32</dim>
					<dim>3</dim>
					<dim>3</dim>
					<dim>3</dim>
				</port>
				<port id="1">
					<dim>32</dim>
					<dim>1</dim>
					<dim>1</dim>
					<dim>1</dim>
				</port>
				<port id="2">
					<dim>32</dim>
					<dim>1</dim>
					<dim>1</dim>
					<dim>1</dim>
				</port>
				<port id="3">
					<dim>32</dim>
					<dim>1</dim>
					<dim>1</dim>
					<dim>1</dim>
				</port>
				<port id="4">
					<dim>32</dim>
					<dim>1</dim>
					<dim>1</dim>
					<dim>1</dim>
				</port>
			</input>
			<output>
				<port id="5" precision="FP32">
					<dim>32</dim>
					<dim>3</dim>
					<dim>3</dim>
					<dim>3</dim>
				</port>
			</output>
		</layer>
		<layer id="579" name="efficientnet-b0/model/stem/conv2d/Conv2D" type="Convolution" version="opset1">
			<data auto_pad="same_upper" dilations="1,1" pads_begin="0,0" pads_end="0,0" strides="2,2"/>
			<input>
				<port id="0">
					<dim>1</dim>
					<dim>3</dim>
					<dim>224</dim>
					<dim>224</dim>
				</port>
				<port id="1">
					<dim>32</dim>
					<dim>3</dim>
					<dim>3</dim>
					<dim>3</dim>
				</port>
			</input>
			<output>
				<port id="2" names="efficientnet-b0/model/stem/tpu_batch_normalization/batchnorm/mul_1:0" precision="FP32">
					<dim>1</dim>
					<dim>32</dim>
					<dim>112</dim>
					<dim>112</dim>
				</port>
			</output>
		</layer>
		<layer id="580" name="efficientnet-b0/model/stem/tpu_batch_normalization/batchnorm/sub46614144" type="Const" version="opset1">
			<data element_type="f32" offset="3741388" shape="1,32,1,1" size="128"/>
			<output>
				<port id="0" names="efficientnet-b0/model/stem/tpu_batch_normalization/batchnorm/sub:0" precision="FP32">
					<dim>1</dim>
					<dim>32</dim>
					<dim>1</dim>
					<dim>1</dim>
				</port>
			</output>
		</layer>
		<layer id="581" name="efficientnet-b0/model/stem/tpu_batch_normalization/batchnorm/add_1" type="Add" version="opset1">
			<data auto_broadcast="numpy"/>
			<input>
				<port id="0">
					<dim>1</dim>
					<dim>32</dim>
					<dim>112</dim>
					<dim>112</dim>
				</port>
				<port id="1">
					<dim>1</dim>
					<dim>32</dim>
					<dim>1</dim>
					<dim>1</dim>
				</port>
			</input>
			<output>
				<port id="2" names="efficientnet-b0/model/stem/tpu_batch_normalization/batchnorm/add_1:0" precision="FP32">
					<dim>1</dim>
					<dim>32</dim>
					<dim>112</dim>
					<dim>112</dim>
				</port>
			</output>
		</layer>
		<layer id="582" name="efficientnet-b0/model/stem/swish_f32" type="Swish" version="opset4">
			<input>
				<port id="0">
					<dim>1</dim>
					<dim>32</dim>
					<dim>112</dim>
					<dim>112</dim>
				</port>
			</input>
			<output>
				<port id="1" names="efficientnet-b0/model/stem/swish_f32:0" precision="FP32">
					<dim>1</dim>
					<dim>32</dim>
					<dim>112</dim>
					<dim>112</dim>
				</port>
			</output>
		</layer>
		<layer id="583" name="efficientnet-b0/model/blocks_0/depthwise_conv2d/depthwise/fq_input_0" type="FakeQuantize" version="opset1">
			<data auto_broadcast="numpy" levels="256"/>
			<input>
				<port id="0">
					<dim>1</dim>
					<dim>32</dim>
					<dim>112</dim>
					<dim>112</dim>
				</port>
				<port id="1">
					<dim>1</dim>
					<dim>32</dim>
					<dim>1</dim>
					<dim>1</dim>
				</port>
				<port id="2">
					<dim>1</dim>
					<dim>32</dim>
					<dim>1</dim>
					<dim>1</dim>
				</port>
				<port id="3">
					<dim>1</dim>
					<dim>32</dim>
					<dim>1</dim>
					<dim>1</dim>
				</port>
				<port id="4">
					<dim>1</dim>
					<dim>32</dim>
					<dim>1</dim>
					<dim>1</dim>
				</port>
			</input>
			<output>
				<port id="5" precision="FP32">
					<dim>1</dim>
					<dim>32</dim>
					<dim>112</dim>
					<dim>112</dim>
				</port>
			</output>
		</layer>
		<layer id="584" name="9010/value901211645" type="Const" version="opset1">
			<data element_type="i64" offset="3741516" shape="5" size="40"/>
			<output>
				<port id="0" precision="I64">
					<dim>5</dim>
				</port>
			</output>
		</layer>
		<layer id="585" name="2366237013349" type="Const" version="opset1">
			<data element_type="f32" offset="3741556" shape="32,1,1,1" size="128"/>
			<output>
				<port id="0" precision="FP32">
					<dim>32</dim>
					<dim>1</dim>
					<dim>1</dim>
					<dim>1</dim>
				</port>
			</output>
		</layer>
		<layer id="586" name="2367237111450" type="Const" version="opset1">
			<data element_type="f32" offset="3741684" shape="32,1,1,1" size="128"/>
			<output>
				<port id="0" precision="FP32">
					<dim>32</dim>
					<dim>1</dim>
					<dim>1</dim>
					<dim>1</dim>
				</port>
			</output>
		</layer>
		<layer id="587" name="2368237212233" type="Const" version="opset1">
			<data element_type="f32" offset="3741556" shape="32,1,1,1" size="128"/>
			<output>
				<port id="0" precision="FP32">
					<dim>32</dim>
					<dim>1</dim>
					<dim>1</dim>
					<dim>1</dim>
				</port>
			</output>
		</layer>
		<layer id="588" name="2369237312410" type="Const" version="opset1">
			<data element_type="f32" offset="3741684" shape="32,1,1,1" size="128"/>
			<output>
				<port id="0" precision="FP32">
					<dim>32</dim>
					<dim>1</dim>
					<dim>1</dim>
					<dim>1</dim>
				</port>
			</output>
		</layer>
		<layer id="589" name="efficientnet-b0/model/blocks_0/tpu_batch_normalization/batchnorm/mul_1_copy46912107" type="Const" version="opset1">
			<data element_type="f32" offset="3741812" shape="32,1,3,3" size="1152"/>
			<output>
				<port id="0" names="efficientnet-b0/blocks_0/depthwise_conv2d/depthwise_kernel/read:0" precision="FP32">
					<dim>32</dim>
					<dim>1</dim>
					<dim>3</dim>
					<dim>3</dim>
				</port>
			</output>
		</layer>
		<layer id="590" name="efficientnet-b0/model/blocks_0/depthwise_conv2d/depthwise/fq_weights_1" type="FakeQuantize" version="opset1">
			<data auto_broadcast="numpy" levels="255"/>
			<input>
				<port id="0">
					<dim>32</dim>
					<dim>1</dim>
					<dim>3</dim>
					<dim>3</dim>
				</port>
				<port id="1">
					<dim>32</dim>
					<dim>1</dim>
					<dim>1</dim>
					<dim>1</dim>
				</port>
				<port id="2">
					<dim>32</dim>
					<dim>1</dim>
					<dim>1</dim>
					<dim>1</dim>
				</port>
				<port id="3">
					<dim>32</dim>
					<dim>1</dim>
					<dim>1</dim>
					<dim>1</dim>
				</port>
				<port id="4">
					<dim>32</dim>
					<dim>1</dim>
					<dim>1</dim>
					<dim>1</dim>
				</port>
			</input>
			<output>
				<port id="5" precision="FP32">
					<dim>32</dim>
					<dim>1</dim>
					<dim>3</dim>
					<dim>3</dim>
				</port>
			</output>
		</layer>
		<layer id="591" name="9010" type="Reshape" version="opset1">
			<data special_zero="true"/>
			<input>
				<port id="0">
					<dim>32</dim>
					<dim>1</dim>
					<dim>3</dim>
					<dim>3</dim>
				</port>
				<port id="1">
					<dim>5</dim>
				</port>
			</input>
			<output>
				<port id="2" precision="FP32">
					<dim>32</dim>
					<dim>1</dim>
					<dim>1</dim>
					<dim>3</dim>
					<dim>3</dim>
				</port>
			</output>
		</layer>
		<layer id="592" name="efficientnet-b0/model/blocks_0/depthwise_conv2d/depthwise" type="GroupConvolution" version="opset1">
			<data auto_pad="same_upper" dilations="1,1" pads_begin="0,0" pads_end="0,0" strides="1,1"/>
			<input>
				<port id="0">
					<dim>1</dim>
					<dim>32</dim>
					<dim>112</dim>
					<dim>112</dim>
				</port>
				<port id="1">
					<dim>32</dim>
					<dim>1</dim>
					<dim>1</dim>
					<dim>3</dim>
					<dim>3</dim>
				</port>
			</input>
			<output>
				<port id="2" names="efficientnet-b0/model/blocks_0/tpu_batch_normalization/batchnorm/mul_1:0" precision="FP32">
					<dim>1</dim>
					<dim>32</dim>
					<dim>112</dim>
					<dim>112</dim>
				</port>
			</output>
		</layer>
		<layer id="593" name="efficientnet-b0/model/blocks_0/tpu_batch_normalization/batchnorm/sub47112455" type="Const" version="opset1">
			<data element_type="f32" offset="3742964" shape="1,32,1,1" size="128"/>
			<output>
				<port id="0" names="efficientnet-b0/model/blocks_0/tpu_batch_normalization/batchnorm/sub:0" precision="FP32">
					<dim>1</dim>
					<dim>32</dim>
					<dim>1</dim>
					<dim>1</dim>
				</port>
			</output>
		</layer>
		<layer id="594" name="efficientnet-b0/model/blocks_0/tpu_batch_normalization/batchnorm/add_1" type="Add" version="opset1">
			<data auto_broadcast="numpy"/>
			<input>
				<port id="0">
					<dim>1</dim>
					<dim>32</dim>
					<dim>112</dim>
					<dim>112</dim>
				</port>
				<port id="1">
					<dim>1</dim>
					<dim>32</dim>
					<dim>1</dim>
					<dim>1</dim>
				</port>
			</input>
			<output>
				<port id="2" names="efficientnet-b0/model/blocks_0/tpu_batch_normalization/batchnorm/add_1:0" precision="FP32">
					<dim>1</dim>
					<dim>32</dim>
					<dim>112</dim>
					<dim>112</dim>
				</port>
			</output>
		</layer>
		<layer id="595" name="efficientnet-b0/model/blocks_0/swish_f32" type="Swish" version="opset4">
			<input>
				<port id="0">
					<dim>1</dim>
					<dim>32</dim>
					<dim>112</dim>
					<dim>112</dim>
				</port>
			</input>
			<output>
				<port id="1" names="efficientnet-b0/model/blocks_0/swish_f32:0" precision="FP32">
					<dim>1</dim>
					<dim>32</dim>
					<dim>112</dim>
					<dim>112</dim>
				</port>
			</output>
		</layer>
		<layer id="596" name="efficientnet-b0/model/blocks_0/se/Mean/fq_input_0" type="FakeQuantize" version="opset1">
			<data auto_broadcast="numpy" levels="256"/>
			<input>
				<port id="0">
					<dim>1</dim>
					<dim>32</dim>
					<dim>112</dim>
					<dim>112</dim>
				</port>
				<port id="1"/>
				<port id="2"/>
				<port id="3"/>
				<port id="4"/>
			</input>
			<output>
				<port id="5" precision="FP32">
					<dim>1</dim>
					<dim>32</dim>
					<dim>112</dim>
					<dim>112</dim>
				</port>
			</output>
		</layer>
		<layer id="597" name="efficientnet-b0/model/blocks_0/se/Mean" type="ReduceMean" version="opset1">
			<data keep_dims="true"/>
			<input>
				<port id="0">
					<dim>1</dim>
					<dim>32</dim>
					<dim>112</dim>
					<dim>112</dim>
				</port>
				<port id="1">
					<dim>2</dim>
				</port>
			</input>
			<output>
				<port id="2" names="efficientnet-b0/model/blocks_0/se/Mean:0" precision="FP32">
					<dim>1</dim>
					<dim>32</dim>
					<dim>1</dim>
					<dim>1</dim>
				</port>
			</output>
		</layer>
		<layer id="598" name="efficientnet-b0/model/blocks_0/se/conv2d/Conv2D/fq_input_0" type="FakeQuantize" version="opset1">
			<data auto_broadcast="numpy" levels="256"/>
			<input>
				<port id="0">
					<dim>1</dim>
					<dim>32</dim>
					<dim>1</dim>
					<dim>1</dim>
				</port>
				<port id="1"/>
				<port id="2"/>
				<port id="3"/>
…
		<edge from-layer="269" from-port="0" to-layer="1086" to-port="4"/>
		<edge from-layer="1091" from-port="0" to-layer="1092" to-port="0"/>
		<edge from-layer="1087" from-port="0" to-layer="1092" to-port="1"/>
		<edge from-layer="1088" from-port="0" to-layer="1092" to-port="2"/>
		<edge from-layer="1089" from-port="0" to-layer="1092" to-port="3"/>
		<edge from-layer="1090" from-port="0" to-layer="1092" to-port="4"/>
		<edge from-layer="1086" from-port="5" to-layer="1093" to-port="0"/>
		<edge from-layer="1092" from-port="5" to-layer="1093" to-port="1"/>
		<edge from-layer="1093" from-port="2" to-layer="1095" to-port="0"/>
		<edge from-layer="1094" from-port="0" to-layer="1095" to-port="1"/>
		<edge from-layer="1095" from-port="2" to-layer="1096" to-port="0"/>
		<edge from-layer="262" from-port="0" to-layer="1096" to-port="1"/>
		<edge from-layer="263" from-port="0" to-layer="1096" to-port="2"/>
		<edge from-layer="264" from-port="0" to-layer="1096" to-port="3"/>
		<edge from-layer="265" from-port="0" to-layer="1096" to-port="4"/>
		<edge from-layer="1096" from-port="5" to-layer="1097" to-port="0"/>
		<edge from-layer="261" from-port="5" to-layer="1097" to-port="1"/>
		<edge from-layer="1097" from-port="2" to-layer="1099" to-port="0"/>
		<edge from-layer="1098" from-port="0" to-layer="1099" to-port="1"/>
		<edge from-layer="1099" from-port="2" to-layer="1100" to-port="0"/>
		<edge from-layer="1100" from-port="1" to-layer="1101" to-port="0"/>
		<edge from-layer="252" from-port="0" to-layer="1101" to-port="1"/>
		<edge from-layer="253" from-port="0" to-layer="1101" to-port="2"/>
		<edge from-layer="254" from-port="0" to-layer="1101" to-port="3"/>
		<edge from-layer="255" from-port="0" to-layer="1101" to-port="4"/>
		<edge from-layer="1107" from-port="0" to-layer="1108" to-port="0"/>
		<edge from-layer="1103" from-port="0" to-layer="1108" to-port="1"/>
		<edge from-layer="1104" from-port="0" to-layer="1108" to-port="2"/>
		<edge from-layer="1105" from-port="0" to-layer="1108" to-port="3"/>
		<edge from-layer="1106" from-port="0" to-layer="1108" to-port="4"/>
		<edge from-layer="1108" from-port="5" to-layer="1109" to-port="0"/>
		<edge from-layer="1102" from-port="0" to-layer="1109" to-port="1"/>
		<edge from-layer="1101" from-port="5" to-layer="1110" to-port="0"/>
		<edge from-layer="1109" from-port="2" to-layer="1110" to-port="1"/>
		<edge from-layer="1110" from-port="2" to-layer="1112" to-port="0"/>
		<edge from-layer="1111" from-port="0" to-layer="1112" to-port="1"/>
		<edge from-layer="1112" from-port="2" to-layer="1113" to-port="0"/>
		<edge from-layer="1113" from-port="1" to-layer="1114" to-port="0"/>
		<edge from-layer="248" from-port="0" to-layer="1114" to-port="1"/>
		<edge from-layer="249" from-port="0" to-layer="1114" to-port="2"/>
		<edge from-layer="250" from-port="0" to-layer="1114" to-port="3"/>
		<edge from-layer="251" from-port="0" to-layer="1114" to-port="4"/>
		<edge from-layer="1114" from-port="5" to-layer="1115" to-port="0"/>
		<edge from-layer="247" from-port="0" to-layer="1115" to-port="1"/>
		<edge from-layer="1115" from-port="2" to-layer="1116" to-port="0"/>
		<edge from-layer="243" from-port="0" to-layer="1116" to-port="1"/>
		<edge from-layer="244" from-port="0" to-layer="1116" to-port="2"/>
		<edge from-layer="245" from-port="0" to-layer="1116" to-port="3"/>
		<edge from-layer="246" from-port="0" to-layer="1116" to-port="4"/>
		<edge from-layer="1121" from-port="0" to-layer="1122" to-port="0"/>
		<edge from-layer="1117" from-port="0" to-layer="1122" to-port="1"/>
		<edge from-layer="1118" from-port="0" to-layer="1122" to-port="2"/>
		<edge from-layer="1119" from-port="0" to-layer="1122" to-port="3"/>
		<edge from-layer="1120" from-port="0" to-layer="1122" to-port="4"/>
		<edge from-layer="1116" from-port="5" to-layer="1123" to-port="0"/>
		<edge from-layer="1122" from-port="5" to-layer="1123" to-port="1"/>
		<edge from-layer="1123" from-port="2" to-layer="1125" to-port="0"/>
		<edge from-layer="1124" from-port="0" to-layer="1125" to-port="1"/>
		<edge from-layer="1125" from-port="2" to-layer="1126" to-port="0"/>
		<edge from-layer="1126" from-port="1" to-layer="1127" to-port="0"/>
		<edge from-layer="239" from-port="0" to-layer="1127" to-port="1"/>
		<edge from-layer="240" from-port="0" to-layer="1127" to-port="2"/>
		<edge from-layer="241" from-port="0" to-layer="1127" to-port="3"/>
		<edge from-layer="242" from-port="0" to-layer="1127" to-port="4"/>
		<edge from-layer="1132" from-port="0" to-layer="1133" to-port="0"/>
		<edge from-layer="1128" from-port="0" to-layer="1133" to-port="1"/>
		<edge from-layer="1129" from-port="0" to-layer="1133" to-port="2"/>
		<edge from-layer="1130" from-port="0" to-layer="1133" to-port="3"/>
		<edge from-layer="1131" from-port="0" to-layer="1133" to-port="4"/>
		<edge from-layer="1127" from-port="5" to-layer="1134" to-port="0"/>
		<edge from-layer="1133" from-port="5" to-layer="1134" to-port="1"/>
		<edge from-layer="1134" from-port="2" to-layer="1136" to-port="0"/>
		<edge from-layer="1135" from-port="0" to-layer="1136" to-port="1"/>
		<edge from-layer="1136" from-port="2" to-layer="1137" to-port="0"/>
		<edge from-layer="1137" from-port="1" to-layer="1138" to-port="0"/>
		<edge from-layer="235" from-port="0" to-layer="1138" to-port="1"/>
		<edge from-layer="236" from-port="0" to-layer="1138" to-port="2"/>
		<edge from-layer="237" from-port="0" to-layer="1138" to-port="3"/>
		<edge from-layer="238" from-port="0" to-layer="1138" to-port="4"/>
		<edge from-layer="1138" from-port="5" to-layer="1139" to-port="0"/>
		<edge from-layer="1114" from-port="5" to-layer="1139" to-port="1"/>
		<edge from-layer="1139" from-port="2" to-layer="1140" to-port="0"/>
		<edge from-layer="231" from-port="0" to-layer="1140" to-port="1"/>
		<edge from-layer="232" from-port="0" to-layer="1140" to-port="2"/>
		<edge from-layer="233" from-port="0" to-layer="1140" to-port="3"/>
		<edge from-layer="234" from-port="0" to-layer="1140" to-port="4"/>
		<edge from-layer="1145" from-port="0" to-layer="1146" to-port="0"/>
		<edge from-layer="1141" from-port="0" to-layer="1146" to-port="1"/>
		<edge from-layer="1142" from-port="0" to-layer="1146" to-port="2"/>
		<edge from-layer="1143" from-port="0" to-layer="1146" to-port="3"/>
		<edge from-layer="1144" from-port="0" to-layer="1146" to-port="4"/>
		<edge from-layer="1140" from-port="5" to-layer="1147" to-port="0"/>
		<edge from-layer="1146" from-port="5" to-layer="1147" to-port="1"/>
		<edge from-layer="1147" from-port="2" to-layer="1149" to-port="0"/>
		<edge from-layer="1148" from-port="0" to-layer="1149" to-port="1"/>
		<edge from-layer="1149" from-port="2" to-layer="1150" to-port="0"/>
		<edge from-layer="227" from-port="0" to-layer="1150" to-port="1"/>
		<edge from-layer="228" from-port="0" to-layer="1150" to-port="2"/>
		<edge from-layer="229" from-port="0" to-layer="1150" to-port="3"/>
		<edge from-layer="230" from-port="0" to-layer="1150" to-port="4"/>
		<edge from-layer="1150" from-port="5" to-layer="1151" to-port="0"/>
		<edge from-layer="1096" from-port="5" to-layer="1151" to-port="1"/>
		<edge from-layer="1151" from-port="2" to-layer="1152" to-port="0"/>
		<edge from-layer="223" from-port="0" to-layer="1152" to-port="1"/>
		<edge from-layer="224" from-port="0" to-layer="1152" to-port="2"/>
		<edge from-layer="225" from-port="0" to-layer="1152" to-port="3"/>
		<edge from-layer="226" from-port="0" to-layer="1152" to-port="4"/>
		<edge from-layer="1152" from-port="5" to-layer="1153" to-port="0"/>
		<edge from-layer="222" from-port="5" to-layer="1153" to-port="1"/>
		<edge from-layer="1153" from-port="2" to-layer="1155" to-port="0"/>
		<edge from-layer="1154" from-port="0" to-layer="1155" to-port="1"/>
		<edge from-layer="1155" from-port="2" to-layer="1156" to-port="0"/>
		<edge from-layer="1156" from-port="1" to-layer="1157" to-port="0"/>
		<edge from-layer="213" from-port="0" to-layer="1157" to-port="1"/>
		<edge from-layer="214" from-port="0" to-layer="1157" to-port="2"/>
		<edge from-layer="215" from-port="0" to-layer="1157" to-port="3"/>
		<edge from-layer="216" from-port="0" to-layer="1157" to-port="4"/>
		<edge from-layer="1163" from-port="0" to-layer="1164" to-port="0"/>
		<edge from-layer="1159" from-port="0" to-layer="1164" to-port="1"/>
		<edge from-layer="1160" from-port="0" to-layer="1164" to-port="2"/>
		<edge from-layer="1161" from-port="0" to-layer="1164" to-port="3"/>
		<edge from-layer="1162" from-port="0" to-layer="1164" to-port="4"/>
		<edge from-layer="1164" from-port="5" to-layer="1165" to-port="0"/>
		<edge from-layer="1158" from-port="0" to-layer="1165" to-port="1"/>
		<edge from-layer="1157" from-port="5" to-layer="1166" to-port="0"/>
		<edge from-layer="1165" from-port="2" to-layer="1166" to-port="1"/>
		<edge from-layer="1166" from-port="2" to-layer="1168" to-port="0"/>
		<edge from-layer="1167" from-port="0" to-layer="1168" to-port="1"/>
		<edge from-layer="1168" from-port="2" to-layer="1169" to-port="0"/>
		<edge from-layer="1169" from-port="1" to-layer="1170" to-port="0"/>
		<edge from-layer="209" from-port="0" to-layer="1170" to-port="1"/>
		<edge from-layer="210" from-port="0" to-layer="1170" to-port="2"/>
		<edge from-layer="211" from-port="0" to-layer="1170" to-port="3"/>
		<edge from-layer="212" from-port="0" to-layer="1170" to-port="4"/>
		<edge from-layer="1170" from-port="5" to-layer="1171" to-port="0"/>
		<edge from-layer="208" from-port="0" to-layer="1171" to-port="1"/>
		<edge from-layer="1171" from-port="2" to-layer="1172" to-port="0"/>
		<edge from-layer="204" from-port="0" to-layer="1172" to-port="1"/>
		<edge from-layer="205" from-port="0" to-layer="1172" to-port="2"/>
		<edge from-layer="206" from-port="0" to-layer="1172" to-port="3"/>
		<edge from-layer="207" from-port="0" to-layer="1172" to-port="4"/>
		<edge from-layer="1177" from-port="0" to-layer="1178" to-port="0"/>
		<edge from-layer="1173" from-port="0" to-layer="1178" to-port="1"/>
		<edge from-layer="1174" from-port="0" to-layer="1178" to-port="2"/>
		<edge from-layer="1175" from-port="0" to-layer="1178" to-port="3"/>
		<edge from-layer="1176" from-port="0" to-layer="1178" to-port="4"/>
		<edge from-layer="1172" from-port="5" to-layer="1179" to-port="0"/>
		<edge from-layer="1178" from-port="5" to-layer="1179" to-port="1"/>
		<edge from-layer="1179" from-port="2" to-layer="1181" to-port="0"/>
		<edge from-layer="1180" from-port="0" to-layer="1181" to-port="1"/>
		<edge from-layer="1181" from-port="2" to-layer="1182" to-port="0"/>
		<edge from-layer="1182" from-port="1" to-layer="1183" to-port="0"/>
		<edge from-layer="200" from-port="0" to-layer="1183" to-port="1"/>
		<edge from-layer="201" from-port="0" to-layer="1183" to-port="2"/>
		<edge from-layer="202" from-port="0" to-layer="1183" to-port="3"/>
		<edge from-layer="203" from-port="0" to-layer="1183" to-port="4"/>
		<edge from-layer="1188" from-port="0" to-layer="1189" to-port="0"/>
		<edge from-layer="1184" from-port="0" to-layer="1189" to-port="1"/>
		<edge from-layer="1185" from-port="0" to-layer="1189" to-port="2"/>
		<edge from-layer="1186" from-port="0" to-layer="1189" to-port="3"/>
		<edge from-layer="1187" from-port="0" to-layer="1189" to-port="4"/>
		<edge from-layer="1183" from-port="5" to-layer="1190" to-port="0"/>
		<edge from-layer="1189" from-port="5" to-layer="1190" to-port="1"/>
		<edge from-layer="1190" from-port="2" to-layer="1192" to-port="0"/>
		<edge from-layer="1191" from-port="0" to-layer="1192" to-port="1"/>
		<edge from-layer="1192" from-port="2" to-layer="1193" to-port="0"/>
		<edge from-layer="1193" from-port="1" to-layer="1194" to-port="0"/>
		<edge from-layer="196" from-port="0" to-layer="1194" to-port="1"/>
		<edge from-layer="197" from-port="0" to-layer="1194" to-port="2"/>
		<edge from-layer="198" from-port="0" to-layer="1194" to-port="3"/>
		<edge from-layer="199" from-port="0" to-layer="1194" to-port="4"/>
		<edge from-layer="1194" from-port="5" to-layer="1195" to-port="0"/>
		<edge from-layer="1170" from-port="5" to-layer="1195" to-port="1"/>
		<edge from-layer="1195" from-port="2" to-layer="1196" to-port="0"/>
		<edge from-layer="192" from-port="0" to-layer="1196" to-port="1"/>
		<edge from-layer="193" from-port="0" to-layer="1196" to-port="2"/>
		<edge from-layer="194" from-port="0" to-layer="1196" to-port="3"/>
		<edge from-layer="195" from-port="0" to-layer="1196" to-port="4"/>
		<edge from-layer="1201" from-port="0" to-layer="1202" to-port="0"/>
		<edge from-layer="1197" from-port="0" to-layer="1202" to-port="1"/>
		<edge from-layer="1198" from-port="0" to-layer="1202" to-port="2"/>
		<edge from-layer="1199" from-port="0" to-layer="1202" to-port="3"/>
		<edge from-layer="1200" from-port="0" to-layer="1202" to-port="4"/>
		<edge from-layer="1196" from-port="5" to-layer="1203" to-port="0"/>
		<edge from-layer="1202" from-port="5" to-layer="1203" to-port="1"/>
		<edge from-layer="1203" from-port="2" to-layer="1205" to-port="0"/>
		<edge from-layer="1204" from-port="0" to-layer="1205" to-port="1"/>
		<edge from-layer="1205" from-port="2" to-layer="1206" to-port="0"/>
		<edge from-layer="188" from-port="0" to-layer="1206" to-port="1"/>
		<edge from-layer="189" from-port="0" to-layer="1206" to-port="2"/>
		<edge from-layer="190" from-port="0" to-layer="1206" to-port="3"/>
		<edge from-layer="191" from-port="0" to-layer="1206" to-port="4"/>
		<edge from-layer="1206" from-port="5" to-layer="1207" to-port="0"/>
		<edge from-layer="1152" from-port="5" to-layer="1207" to-port="1"/>
		<edge from-layer="1207" from-port="2" to-layer="1208" to-port="0"/>
		<edge from-layer="184" from-port="0" to-layer="1208" to-port="1"/>
		<edge from-layer="185" from-port="0" to-layer="1208" to-port="2"/>
		<edge from-layer="186" from-port="0" to-layer="1208" to-port="3"/>
		<edge from-layer="187" from-port="0" to-layer="1208" to-port="4"/>
		<edge from-layer="1213" from-port="0" to-layer="1214" to-port="0"/>
		<edge from-layer="1209" from-port="0" to-layer="1214" to-port="1"/>
		<edge from-layer="1210" from-port="0" to-layer="1214" to-port="2"/>
		<edge from-layer="1211" from-port="0" to-layer="1214" to-port="3"/>
		<edge from-layer="1212" from-port="0" to-layer="1214" to-port="4"/>
		<edge from-layer="1208" from-port="5" to-layer="1215" to-port="0"/>
		<edge from-layer="1214" from-port="5" to-layer="1215" to-port="1"/>
		<edge from-layer="1215" from-port="2" to-layer="1217" to-port="0"/>
		<edge from-layer="1216" from-port="0" to-layer="1217" to-port="1"/>
		<edge from-layer="1217" from-port="2" to-layer="1218" to-port="0"/>
		<edge from-layer="1218" from-port="1" to-layer="1219" to-port="0"/>
		<edge from-layer="180" from-port="0" to-layer="1219" to-port="1"/>
		<edge from-layer="181" from-port="0" to-layer="1219" to-port="2"/>
		<edge from-layer="182" from-port="0" to-layer="1219" to-port="3"/>
		<edge from-layer="183" from-port="0" to-layer="1219" to-port="4"/>
		<edge from-layer="1225" from-port="0" to-layer="1226" to-port="0"/>
		<edge from-layer="1221" from-port="0" to-layer="1226" to-port="1"/>
		<edge from-layer="1222" from-port="0" to-layer="1226" to-port="2"/>
		<edge from-layer="1223" from-port="0" to-layer="1226" to-port="3"/>
		<edge from-layer="1224" from-port="0" to-layer="1226" to-port="4"/>
		<edge from-layer="1226" from-port="5" to-layer="1227" to-port="0"/>
		<edge from-layer="1220" from-port="0" to-layer="1227" to-port="1"/>
		<edge from-layer="1219" from-port="5" to-layer="1228" to-port="0"/>
		<edge from-layer="1227" from-port="2" to-layer="1228" to-port="1"/>
		<edge from-layer="1228" from-port="2" to-layer="1230" to-port="0"/>
		<edge from-layer="1229" from-port="0" to-layer="1230" to-port="1"/>
		<edge from-layer="1230" from-port="2" to-layer="1231" to-port="0"/>
		<edge from-layer="1231" from-port="1" to-layer="1232" to-port="0"/>
		<edge from-layer="176" from-port="0" to-layer="1232" to-port="1"/>
		<edge from-layer="177" from-port="0" to-layer="1232" to-port="2"/>
		<edge from-layer="178" from-port="0" to-layer="1232" to-port="3"/>
		<edge from-layer="179" from-port="0" to-layer="1232" to-port="4"/>
		<edge from-layer="1232" from-port="5" to-layer="1233" to-port="0"/>
		<edge from-layer="175" from-port="0" to-layer="1233" to-port="1"/>
		<edge from-layer="1233" from-port="2" to-layer="1234" to-port="0"/>
		<edge from-layer="171" from-port="0" to-layer="1234" to-port="1"/>
		<edge from-layer="172" from-port="0" to-layer="1234" to-port="2"/>
		<edge from-layer="173" from-port="0" to-layer="1234" to-port="3"/>
		<edge from-layer="174" from-port="0" to-layer="1234" to-port="4"/>
		<edge from-layer="1239" from-port="0" to-layer="1240" to-port="0"/>
		<edge from-layer="1235" from-port="0" to-layer="1240" to-port="1"/>
		<edge from-layer="1236" from-port="0" to-layer="1240" to-port="2"/>
		<edge from-layer="1237" from-port="0" to-layer="1240" to-port="3"/>
		<edge from-layer="1238" from-port="0" to-layer="1240" to-port="4"/>
		<edge from-layer="1234" from-port="5" to-layer="1241" to-port="0"/>
		<edge from-layer="1240" from-port="5" to-layer="1241" to-port="1"/>
		<edge from-layer="1241" from-port="2" to-layer="1243" to-port="0"/>
		<edge from-layer="1242" from-port="0" to-layer="1243" to-port="1"/>
		<edge from-layer="1243" from-port="2" to-layer="1244" to-port="0"/>
		<edge from-layer="1244" from-port="1" to-layer="1245" to-port="0"/>
		<edge from-layer="167" from-port="0" to-layer="1245" to-port="1"/>
		<edge from-layer="168" from-port="0" to-layer="1245" to-port="2"/>
		<edge from-layer="169" from-port="0" to-layer="1245" to-port="3"/>
		<edge from-layer="170" from-port="0" to-layer="1245" to-port="4"/>
		<edge from-layer="1250" from-port="0" to-layer="1251" to-port="0"/>
		<edge from-layer="1246" from-port="0" to-layer="1251" to-port="1"/>
		<edge from-layer="1247" from-port="0" to-layer="1251" to-port="2"/>
		<edge from-layer="1248" from-port="0" to-layer="1251" to-port="3"/>
		<edge from-layer="1249" from-port="0" to-layer="1251" to-port="4"/>
		<edge from-layer="1245" from-port="5" to-layer="1252" to-port="0"/>
		<edge from-layer="1251" from-port="5" to-layer="1252" to-port="1"/>
		<edge from-layer="1252" from-port="2" to-layer="1254" to-port="0"/>
		<edge from-layer="1253" from-port="0" to-layer="1254" to-port="1"/>
		<edge from-layer="1254" from-port="2" to-layer="1255" to-port="0"/>
		<edge from-layer="1255" from-port="1" to-layer="1256" to-port="0"/>
		<edge from-layer="163" from-port="0" to-layer="1256" to-port="1"/>
		<edge from-layer="164" from-port="0" to-layer="1256" to-port="2"/>
		<edge from-layer="165" from-port="0" to-layer="1256" to-port="3"/>
		<edge from-layer="166" from-port="0" to-layer="1256" to-port="4"/>
		<edge from-layer="1256" from-port="5" to-layer="1257" to-port="0"/>
		<edge from-layer="1232" from-port="5" to-layer="1257" to-port="1"/>
		<edge from-layer="1257" from-port="2" to-layer="1258" to-port="0"/>
		<edge from-layer="159" from-port="0" to-layer="1258" to-port="1"/>
		<edge from-layer="160" from-port="0" to-layer="1258" to-port="2"/>
		<edge from-layer="161" from-port="0" to-layer="1258" to-port="3"/>
		<edge from-layer="162" from-port="0" to-layer="1258" to-port="4"/>
		<edge from-layer="1263" from-port="0" to-layer="1264" to-port="0"/>
		<edge from-layer="1259" from-port="0" to-layer="1264" to-port="1"/>
		<edge from-layer="1260" from-port="0" to-layer="1264" to-port="2"/>
		<edge from-layer="1261" from-port="0" to-layer="1264" to-port="3"/>
		<edge from-layer="1262" from-port="0" to-layer="1264" to-port="4"/>
		<edge from-layer="1258" from-port="5" to-layer="1265" to-port="0"/>
		<edge from-layer="1264" from-port="5" to-layer="1265" to-port="1"/>
		<edge from-layer="1265" from-port="2" to-layer="1267" to-port="0"/>
		<edge from-layer="1266" from-port="0" to-layer="1267" to-port="1"/>
		<edge from-layer="1267" from-port="2" to-layer="1268" to-port="0"/>
		<edge from-layer="155" from-port="0" to-layer="1268" to-port="1"/>
		<edge from-layer="156" from-port="0" to-layer="1268" to-port="2"/>
		<edge from-layer="157" from-port="0" to-layer="1268" to-port="3"/>
		<edge from-layer="158" from-port="0" to-layer="1268" to-port="4"/>
		<edge from-layer="1268" from-port="5" to-layer="1269" to-port="0"/>
		<edge from-layer="154" from-port="5" to-layer="1269" to-port="1"/>
		<edge from-layer="1269" from-port="2" to-layer="1271" to-port="0"/>
		<edge from-layer="1270" from-port="0" to-layer="1271" to-port="1"/>
		<edge from-layer="1271" from-port="2" to-layer="1272" to-port="0"/>
		<edge from-layer="1272" from-port="1" to-layer="1273" to-port="0"/>
		<edge from-layer="145" from-port="0" to-layer="1273" to-port="1"/>
		<edge from-layer="146" from-port="0" to-layer="1273" to-port="2"/>
		<edge from-layer="147" from-port="0" to-layer="1273" to-port="3"/>
		<edge from-layer="148" from-port="0" to-layer="1273" to-port="4"/>
		<edge from-layer="1279" from-port="0" to-layer="1280" to-port="0"/>
		<edge from-layer="1275" from-port="0" to-layer="1280" to-port="1"/>
		<edge from-layer="1276" from-port="0" to-layer="1280" to-port="2"/>
		<edge from-layer="1277" from-port="0" to-layer="1280" to-port="3"/>
		<edge from-layer="1278" from-port="0" to-layer="1280" to-port="4"/>
		<edge from-layer="1280" from-port="5" to-layer="1281" to-port="0"/>
		<edge from-layer="1274" from-port="0" to-layer="1281" to-port="1"/>
		<edge from-layer="1273" from-port="5" to-layer="1282" to-port="0"/>
		<edge from-layer="1281" from-port="2" to-layer="1282" to-port="1"/>
		<edge from-layer="1282" from-port="2" to-layer="1284" to-port="0"/>
		<edge from-layer="1283" from-port="0" to-layer="1284" to-port="1"/>
		<edge from-layer="1284" from-port="2" to-layer="1285" to-port="0"/>
		<edge from-layer="1285" from-port="1" to-layer="1286" to-port="0"/>
		<edge from-layer="141" from-port="0" to-layer="1286" to-port="1"/>
		<edge from-layer="142" from-port="0" to-layer="1286" to-port="2"/>
		<edge from-layer="143" from-port="0" to-layer="1286" to-port="3"/>
		<edge from-layer="144" from-port="0" to-layer="1286" to-port="4"/>
		<edge from-layer="1286" from-port="5" to-layer="1287" to-port="0"/>
		<edge from-layer="140" from-port="0" to-layer="1287" to-port="1"/>
		<edge from-layer="1287" from-port="2" to-layer="1288" to-port="0"/>
		<edge from-layer="136" from-port="0" to-layer="1288" to-port="1"/>
		<edge from-layer="137" from-port="0" to-layer="1288" to-port="2"/>
		<edge from-layer="138" from-port="0" to-layer="1288" to-port="3"/>
		<edge from-layer="139" from-port="0" to-layer="1288" to-port="4"/>
		<edge from-layer="1293" from-port="0" to-layer="1294" to-port="0"/>
		<edge from-layer="1289" from-port="0" to-layer="1294" to-port="1"/>
		<edge from-layer="1290" from-port="0" to-layer="1294" to-port="2"/>
		<edge from-layer="1291" from-port="0" to-layer="1294" to-port="3"/>
		<edge from-layer="1292" from-port="0" to-layer="1294" to-port="4"/>
		<edge from-layer="1288" from-port="5" to-layer="1295" to-port="0"/>
		<edge from-layer="1294" from-port="5" to-layer="1295" to-port="1"/>
		<edge from-layer="1295" from-port="2" to-layer="1297" to-port="0"/>
		<edge from-layer="1296" from-port="0" to-layer="1297" to-port="1"/>
		<edge from-layer="1297" from-port="2" to-layer="1298" to-port="0"/>
		<edge from-layer="1298" from-port="1" to-layer="1299" to-port="0"/>
		<edge from-layer="132" from-port="0" to-layer="1299" to-port="1"/>
		<edge from-layer="133" from-port="0" to-layer="1299" to-port="2"/>
		<edge from-layer="134" from-port="0" to-layer="1299" to-port="3"/>
		<edge from-layer="135" from-port="0" to-layer="1299" to-port="4"/>
		<edge from-layer="1304" from-port="0" to-layer="1305" to-port="0"/>
		<edge from-layer="1300" from-port="0" to-layer="1305" to-port="1"/>
		<edge from-layer="1301" from-port="0" to-layer="1305" to-port="2"/>
		<edge from-layer="1302" from-port="0" to-layer="1305" to-port="3"/>
		<edge from-layer="1303" from-port="0" to-layer="1305" to-port="4"/>
		<edge from-layer="1299" from-port="5" to-layer="1306" to-port="0"/>
		<edge from-layer="1305" from-port="5" to-layer="1306" to-port="1"/>
		<edge from-layer="1306" from-port="2" to-layer="1308" to-port="0"/>
		<edge from-layer="1307" from-port="0" to-layer="1308" to-port="1"/>
		<edge from-layer="1308" from-port="2" to-layer="1309" to-port="0"/>
		<edge from-layer="1309" from-port="1" to-layer="1310" to-port="0"/>
		<edge from-layer="128" from-port="0" to-layer="1310" to-port="1"/>
		<edge from-layer="129" from-port="0" to-layer="1310" to-port="2"/>
		<edge from-layer="130" from-port="0" to-layer="1310" to-port="3"/>
		<edge from-layer="131" from-port="0" to-layer="1310" to-port="4"/>
		<edge from-layer="1310" from-port="5" to-layer="1311" to-port="0"/>
		<edge from-layer="1286" from-port="5" to-layer="1311" to-port="1"/>
		<edge from-layer="1311" from-port="2" to-layer="1312" to-port="0"/>
		<edge from-layer="124" from-port="0" to-layer="1312" to-port="1"/>
		<edge from-layer="125" from-port="0" to-layer="1312" to-port="2"/>
		<edge from-layer="126" from-port="0" to-layer="1312" to-port="3"/>
		<edge from-layer="127" from-port="0" to-layer="1312" to-port="4"/>
		<edge from-layer="1317" from-port="0" to-layer="1318" to-port="0"/>
		<edge from-layer="1313" from-port="0" to-layer="1318" to-port="1"/>
		<edge from-layer="1314" from-port="0" to-layer="1318" to-port="2"/>
		<edge from-layer="1315" from-port="0" to-layer="1318" to-port="3"/>
		<edge from-layer="1316" from-port="0" to-layer="1318" to-port="4"/>
		<edge from-layer="1312" from-port="5" to-layer="1319" to-port="0"/>
		<edge from-layer="1318" from-port="5" to-layer="1319" to-port="1"/>
		<edge from-layer="1319" from-port="2" to-layer="1321" to-port="0"/>
		<edge from-layer="1320" from-port="0" to-layer="1321" to-port="1"/>
		<edge from-layer="1321" from-port="2" to-layer="1322" to-port="0"/>
		<edge from-layer="120" from-port="0" to-layer="1322" to-port="1"/>
		<edge from-layer="121" from-port="0" to-layer="1322" to-port="2"/>
		<edge from-layer="122" from-port="0" to-layer="1322" to-port="3"/>
		<edge from-layer="123" from-port="0" to-layer="1322" to-port="4"/>
		<edge from-layer="1322" from-port="5" to-layer="1323" to-port="0"/>
		<edge from-layer="1268" from-port="5" to-layer="1323" to-port="1"/>
		<edge from-layer="1323" from-port="2" to-layer="1324" to-port="0"/>
		<edge from-layer="116" from-port="0" to-layer="1324" to-port="1"/>
		<edge from-layer="117" from-port="0" to-layer="1324" to-port="2"/>
		<edge from-layer="118" from-port="0" to-layer="1324" to-port="3"/>
		<edge from-layer="119" from-port="0" to-layer="1324" to-port="4"/>
		<edge from-layer="1324" from-port="5" to-layer="1325" to-port="0"/>
		<edge from-layer="115" from-port="5" to-layer="1325" to-port="1"/>
		<edge from-layer="1325" from-port="2" to-layer="1327" to-port="0"/>
		<edge from-layer="1326" from-port="0" to-layer="1327" to-port="1"/>
		<edge from-layer="1327" from-port="2" to-layer="1328" to-port="0"/>
		<edge from-layer="1328" from-port="1" to-layer="1329" to-port="0"/>
		<edge from-layer="106" from-port="0" to-layer="1329" to-port="1"/>
		<edge from-layer="107" from-port="0" to-layer="1329" to-port="2"/>
		<edge from-layer="108" from-port="0" to-layer="1329" to-port="3"/>
		<edge from-layer="109" from-port="0" to-layer="1329" to-port="4"/>
		<edge from-layer="1335" from-port="0" to-layer="1336" to-port="0"/>
		<edge from-layer="1331" from-port="0" to-layer="1336" to-port="1"/>
		<edge from-layer="1332" from-port="0" to-layer="1336" to-port="2"/>
		<edge from-layer="1333" from-port="0" to-layer="1336" to-port="3"/>
		<edge from-layer="1334" from-port="0" to-layer="1336" to-port="4"/>
		<edge from-layer="1336" from-port="5" to-layer="1337" to-port="0"/>
		<edge from-layer="1330" from-port="0" to-layer="1337" to-port="1"/>
		<edge from-layer="1329" from-port="5" to-layer="1338" to-port="0"/>
		<edge from-layer="1337" from-port="2" to-layer="1338" to-port="1"/>
		<edge from-layer="1338" from-port="2" to-layer="1340" to-port="0"/>
		<edge from-layer="1339" from-port="0" to-layer="1340" to-port="1"/>
		<edge from-layer="1340" from-port="2" to-layer="1341" to-port="0"/>
		<edge from-layer="1341" from-port="1" to-layer="1342" to-port="0"/>
		<edge from-layer="102" from-port="0" to-layer="1342" to-port="1"/>
		<edge from-layer="103" from-port="0" to-layer="1342" to-port="2"/>
		<edge from-layer="104" from-port="0" to-layer="1342" to-port="3"/>
		<edge from-layer="105" from-port="0" to-layer="1342" to-port="4"/>
		<edge from-layer="1342" from-port="5" to-layer="1343" to-port="0"/>
		<edge from-layer="101" from-port="0" to-layer="1343" to-port="1"/>
		<edge from-layer="1343" from-port="2" to-layer="1344" to-port="0"/>
		<edge from-layer="97" from-port="0" to-layer="1344" to-port="1"/>
		<edge from-layer="98" from-port="0" to-layer="1344" to-port="2"/>
		<edge from-layer="99" from-port="0" to-layer="1344" to-port="3"/>
		<edge from-layer="100" from-port="0" to-layer="1344" to-port="4"/>
		<edge from-layer="1349" from-port="0" to-layer="1350" to-port="0"/>
		<edge from-layer="1345" from-port="0" to-layer="1350" to-port="1"/>
		<edge from-layer="1346" from-port="0" to-layer="1350" to-port="2"/>
		<edge from-layer="1347" from-port="0" to-layer="1350" to-port="3"/>
		<edge from-layer="1348" from-port="0" to-layer="1350" to-port="4"/>
		<edge from-layer="1344" from-port="5" to-layer="1351" to-port="0"/>
		<edge from-layer="1350" from-port="5" to-layer="1351" to-port="1"/>
		<edge from-layer="1351" from-port="2" to-layer="1353" to-port="0"/>
		<edge from-layer="1352" from-port="0" to-layer="1353" to-port="1"/>
		<edge from-layer="1353" from-port="2" to-layer="1354" to-port="0"/>
		<edge from-layer="1354" from-port="1" to-layer="1355" to-port="0"/>
		<edge from-layer="93" from-port="0" to-layer="1355" to-port="1"/>
		<edge from-layer="94" from-port="0" to-layer="1355" to-port="2"/>
		<edge from-layer="95" from-port="0" to-layer="1355" to-port="3"/>
		<edge from-layer="96" from-port="0" to-layer="1355" to-port="4"/>
		<edge from-layer="1360" from-port="0" to-layer="1361" to-port="0"/>
		<edge from-layer="1356" from-port="0" to-layer="1361" to-port="1"/>
		<edge from-layer="1357" from-port="0" to-layer="1361" to-port="2"/>
		<edge from-layer="1358" from-port="0" to-layer="1361" to-port="3"/>
		<edge from-layer="1359" from-port="0" to-layer="1361" to-port="4"/>
		<edge from-layer="1355" from-port="5" to-layer="1362" to-port="0"/>
		<edge from-layer="1361" from-port="5" to-layer="1362" to-port="1"/>
		<edge from-layer="1362" from-port="2" to-layer="1364" to-port="0"/>
		<edge from-layer="1363" from-port="0" to-layer="1364" to-port="1"/>
		<edge from-layer="1364" from-port="2" to-layer="1365" to-port="0"/>
		<edge from-layer="1365" from-port="1" to-layer="1366" to-port="0"/>
		<edge from-layer="89" from-port="0" to-layer="1366" to-port="1"/>
		<edge from-layer="90" from-port="0" to-layer="1366" to-port="2"/>
		<edge from-layer="91" from-port="0" to-layer="1366" to-port="3"/>
		<edge from-layer="92" from-port="0" to-layer="1366" to-port="4"/>
		<edge from-layer="1366" from-port="5" to-layer="1367" to-port="0"/>
		<edge from-layer="1342" from-port="5" to-layer="1367" to-port="1"/>
		<edge from-layer="1367" from-port="2" to-layer="1368" to-port="0"/>
		<edge from-layer="85" from-port="0" to-layer="1368" to-port="1"/>
		<edge from-layer="86" from-port="0" to-layer="1368" to-port="2"/>
		<edge from-layer="87" from-port="0" to-layer="1368" to-port="3"/>
		<edge from-layer="88" from-port="0" to-layer="1368" to-port="4"/>
		<edge from-layer="1373" from-port="0" to-layer="1374" to-port="0"/>
		<edge from-layer="1369" from-port="0" to-layer="1374" to-port="1"/>
		<edge from-layer="1370" from-port="0" to-layer="1374" to-port="2"/>
		<edge from-layer="1371" from-port="0" to-layer="1374" to-port="3"/>
		<edge from-layer="1372" from-port="0" to-layer="1374" to-port="4"/>
		<edge from-layer="1368" from-port="5" to-layer="1375" to-port="0"/>
		<edge from-layer="1374" from-port="5" to-layer="1375" to-port="1"/>
		<edge from-layer="1375" from-port="2" to-layer="1377" to-port="0"/>
		<edge from-layer="1376" from-port="0" to-layer="1377" to-port="1"/>
		<edge from-layer="1377" from-port="2" to-layer="1378" to-port="0"/>
		<edge from-layer="81" from-port="0" to-layer="1378" to-port="1"/>
		<edge from-layer="82" from-port="0" to-layer="1378" to-port="2"/>
		<edge from-layer="83" from-port="0" to-layer="1378" to-port="3"/>
		<edge from-layer="84" from-port="0" to-layer="1378" to-port="4"/>
		<edge from-layer="1378" from-port="5" to-layer="1379" to-port="0"/>
		<edge from-layer="1324" from-port="5" to-layer="1379" to-port="1"/>
		<edge from-layer="1379" from-port="2" to-layer="1380" to-port="0"/>
		<edge from-layer="77" from-port="0" to-layer="1380" to-port="1"/>
		<edge from-layer="78" from-port="0" to-layer="1380" to-port="2"/>
		<edge from-layer="79" from-port="0" to-layer="1380" to-port="3"/>
		<edge from-layer="80" from-port="0" to-layer="1380" to-port="4"/>
		<edge from-layer="1380" from-port="5" to-layer="1381" to-port="0"/>
		<edge from-layer="76" from-port="5" to-layer="1381" to-port="1"/>
		<edge from-layer="1381" from-port="2" to-layer="1383" to-port="0"/>
		<edge from-layer="1382" from-port="0" to-layer="1383" to-port="1"/>
		<edge from-layer="1383" from-port="2" to-layer="1384" to-port="0"/>
		<edge from-layer="1384" from-port="1" to-layer="1385" to-port="0"/>
		<edge from-layer="67" from-port="0" to-layer="1385" to-port="1"/>
		<edge from-layer="68" from-port="0" to-layer="1385" to-port="2"/>
		<edge from-layer="69" from-port="0" to-layer="1385" to-port="3"/>
		<edge from-layer="70" from-port="0" to-layer="1385" to-port="4"/>
		<edge from-layer="1391" from-port="0" to-layer="1392" to-port="0"/>
		<edge from-layer="1387" from-port="0" to-layer="1392" to-port="1"/>
		<edge from-layer="1388" from-port="0" to-layer="1392" to-port="2"/>
		<edge from-layer="1389" from-port="0" to-layer="1392" to-port="3"/>
		<edge from-layer="1390" from-port="0" to-layer="1392" to-port="4"/>
		<edge from-layer="1392" from-port="5" to-layer="1393" to-port="0"/>
		<edge from-layer="1386" from-port="0" to-layer="1393" to-port="1"/>
		<edge from-layer="1385" from-port="5" to-layer="1394" to-port="0"/>
		<edge from-layer="1393" from-port="2" to-layer="1394" to-port="1"/>
		<edge from-layer="1394" from-port="2" to-layer="1396" to-port="0"/>
		<edge from-layer="1395" from-port="0" to-layer="1396" to-port="1"/>
		<edge from-layer="1396" from-port="2" to-layer="1397" to-port="0"/>
		<edge from-layer="1397" from-port="1" to-layer="1398" to-port="0"/>
		<edge from-layer="63" from-port="0" to-layer="1398" to-port="1"/>
		<edge from-layer="64" from-port="0" to-layer="1398" to-port="2"/>
		<edge from-layer="65" from-port="0" to-layer="1398" to-port="3"/>
		<edge from-layer="66" from-port="0" to-layer="1398" to-port="4"/>
		<edge from-layer="1398" from-port="5" to-layer="1399" to-port="0"/>
		<edge from-layer="62" from-port="0" to-layer="1399" to-port="1"/>
		<edge from-layer="1399" from-port="2" to-layer="1400" to-port="0"/>
		<edge from-layer="58" from-port="0" to-layer="1400" to-port="1"/>
		<edge from-layer="59" from-port="0" to-layer="1400" to-port="2"/>
		<edge from-layer="60" from-port="0" to-layer="1400" to-port="3"/>
		<edge from-layer="61" from-port="0" to-layer="1400" to-port="4"/>
		<edge from-layer="1405" from-port="0" to-layer="1406" to-port="0"/>
		<edge from-layer="1401" from-port="0" to-layer="1406" to-port="1"/>
		<edge from-layer="1402" from-port="0" to-layer="1406" to-port="2"/>
		<edge from-layer="1403" from-port="0" to-layer="1406" to-port="3"/>
		<edge from-layer="1404" from-port="0" to-layer="1406" to-port="4"/>
		<edge from-layer="1400" from-port="5" to-layer="1407" to-port="0"/>
		<edge from-layer="1406" from-port="5" to-layer="1407" to-port="1"/>
		<edge from-layer="1407" from-port="2" to-layer="1409" to-port="0"/>
		<edge from-layer="1408" from-port="0" to-layer="1409" to-port="1"/>
		<edge from-layer="1409" from-port="2" to-layer="1410" to-port="0"/>
		<edge from-layer="1410" from-port="1" to-layer="1411" to-port="0"/>
		<edge from-layer="54" from-port="0" to-layer="1411" to-port="1"/>
		<edge from-layer="55" from-port="0" to-layer="1411" to-port="2"/>
		<edge from-layer="56" from-port="0" to-layer="1411" to-port="3"/>
		<edge from-layer="57" from-port="0" to-layer="1411" to-port="4"/>
		<edge from-layer="1416" from-port="0" to-layer="1417" to-port="0"/>
		<edge from-layer="1412" from-port="0" to-layer="1417" to-port="1"/>
		<edge from-layer="1413" from-port="0" to-layer="1417" to-port="2"/>
		<edge from-layer="1414" from-port="0" to-layer="1417" to-port="3"/>
		<edge from-layer="1415" from-port="0" to-layer="1417" to-port="4"/>
		<edge from-layer="1411" from-port="5" to-layer="1418" to-port="0"/>
		<edge from-layer="1417" from-port="5" to-layer="1418" to-port="1"/>
		<edge from-layer="1418" from-port="2" to-layer="1420" to-port="0"/>
		<edge from-layer="1419" from-port="0" to-layer="1420" to-port="1"/>
		<edge from-layer="1420" from-port="2" to-layer="1421" to-port="0"/>
		<edge from-layer="1421" from-port="1" to-layer="1422" to-port="0"/>
		<edge from-layer="50" from-port="0" to-layer="1422" to-port="1"/>
		<edge from-layer="51" from-port="0" to-layer="1422" to-port="2"/>
		<edge from-layer="52" from-port="0" to-layer="1422" to-port="3"/>
		<edge from-layer="53" from-port="0" to-layer="1422" to-port="4"/>
		<edge from-layer="1422" from-port="5" to-layer="1423" to-port="0"/>
		<edge from-layer="1398" from-port="5" to-layer="1423" to-port="1"/>
		<edge from-layer="1423" from-port="2" to-layer="1424" to-port="0"/>
		<edge from-layer="46" from-port="0" to-layer="1424" to-port="1"/>
		<edge from-layer="47" from-port="0" to-layer="1424" to-port="2"/>
		<edge from-layer="48" from-port="0" to-layer="1424" to-port="3"/>
		<edge from-layer="49" from-port="0" to-layer="1424" to-port="4"/>
		<edge from-layer="1429" from-port="0" to-layer="1430" to-port="0"/>
		<edge from-layer="1425" from-port="0" to-layer="1430" to-port="1"/>
		<edge from-layer="1426" from-port="0" to-layer="1430" to-port="2"/>
		<edge from-layer="1427" from-port="0" to-layer="1430" to-port="3"/>
		<edge from-layer="1428" from-port="0" to-layer="1430" to-port="4"/>
		<edge from-layer="1424" from-port="5" to-layer="1431" to-port="0"/>
		<edge from-layer="1430" from-port="5" to-layer="1431" to-port="1"/>
		<edge from-layer="1431" from-port="2" to-layer="1433" to-port="0"/>
		<edge from-layer="1432" from-port="0" to-layer="1433" to-port="1"/>
		<edge from-layer="1433" from-port="2" to-layer="1434" to-port="0"/>
		<edge from-layer="42" from-port="0" to-layer="1434" to-port="1"/>
		<edge from-layer="43" from-port="0" to-layer="1434" to-port="2"/>
		<edge from-layer="44" from-port="0" to-layer="1434" to-port="3"/>
		<edge from-layer="45" from-port="0" to-layer="1434" to-port="4"/>
		<edge from-layer="1434" from-port="5" to-layer="1435" to-port="0"/>
		<edge from-layer="1380" from-port="5" to-layer="1435" to-port="1"/>
		<edge from-layer="1435" from-port="2" to-layer="1436" to-port="0"/>
		<edge from-layer="38" from-port="0" to-layer="1436" to-port="1"/>
		<edge from-layer="39" from-port="0" to-layer="1436" to-port="2"/>
		<edge from-layer="40" from-port="0" to-layer="1436" to-port="3"/>
		<edge from-layer="41" from-port="0" to-layer="1436" to-port="4"/>
		<edge from-layer="1441" from-port="0" to-layer="1442" to-port="0"/>
		<edge from-layer="1437" from-port="0" to-layer="1442" to-port="1"/>
		<edge from-layer="1438" from-port="0" to-layer="1442" to-port="2"/>
		<edge from-layer="1439" from-port="0" to-layer="1442" to-port="3"/>
		<edge from-layer="1440" from-port="0" to-layer="1442" to-port="4"/>
		<edge from-layer="1436" from-port="5" to-layer="1443" to-port="0"/>
		<edge from-layer="1442" from-port="5" to-layer="1443" to-port="1"/>
		<edge from-layer="1443" from-port="2" to-layer="1445" to-port="0"/>
		<edge from-layer="1444" from-port="0" to-layer="1445" to-port="1"/>
		<edge from-layer="1445" from-port="2" to-layer="1446" to-port="0"/>
		<edge from-layer="1446" from-port="1" to-layer="1447" to-port="0"/>
		<edge from-layer="34" from-port="0" to-layer="1447" to-port="1"/>
		<edge from-layer="35" from-port="0" to-layer="1447" to-port="2"/>
		<edge from-layer="36" from-port="0" to-layer="1447" to-port="3"/>
		<edge from-layer="37" from-port="0" to-layer="1447" to-port="4"/>
		<edge from-layer="1453" from-port="0" to-layer="1454" to-port="0"/>
		<edge from-layer="1449" from-port="0" to-layer="1454" to-port="1"/>
		<edge from-layer="1450" from-port="0" to-layer="1454" to-port="2"/>
		<edge from-layer="1451" from-port="0" to-layer="1454" to-port="3"/>
		<edge from-layer="1452" from-port="0" to-layer="1454" to-port="4"/>
		<edge from-layer="1454" from-port="5" to-layer="1455" to-port="0"/>
		<edge from-layer="1448" from-port="0" to-layer="1455" to-port="1"/>
		<edge from-layer="1447" from-port="5" to-layer="1456" to-port="0"/>
		<edge from-layer="1455" from-port="2" to-layer="1456" to-port="1"/>
		<edge from-layer="1456" from-port="2" to-layer="1458" to-port="0"/>
		<edge from-layer="1457" from-port="0" to-layer="1458" to-port="1"/>
		<edge from-layer="1458" from-port="2" to-layer="1459" to-port="0"/>
		<edge from-layer="1459" from-port="1" to-layer="1460" to-port="0"/>
		<edge from-layer="30" from-port="0" to-layer="1460" to-port="1"/>
		<edge from-layer="31" from-port="0" to-layer="1460" to-port="2"/>
		<edge from-layer="32" from-port="0" to-layer="1460" to-port="3"/>
		<edge from-layer="33" from-port="0" to-layer="1460" to-port="4"/>
		<edge from-layer="1460" from-port="5" to-layer="1461" to-port="0"/>
		<edge from-layer="29" from-port="0" to-layer="1461" to-port="1"/>
		<edge from-layer="1461" from-port="2" to-layer="1462" to-port="0"/>
		<edge from-layer="25" from-port="0" to-layer="1462" to-port="1"/>
		<edge from-layer="26" from-port="0" to-layer="1462" to-port="2"/>
		<edge from-layer="27" from-port="0" to-layer="1462" to-port="3"/>
		<edge from-layer="28" from-port="0" to-layer="1462" to-port="4"/>
		<edge from-layer="1467" from-port="0" to-layer="1468" to-port="0"/>
		<edge from-layer="1463" from-port="0" to-layer="1468" to-port="1"/>
		<edge from-layer="1464" from-port="0" to-layer="1468" to-port="2"/>
		<edge from-layer="1465" from-port="0" to-layer="1468" to-port="3"/>
		<edge from-layer="1466" from-port="0" to-layer="1468" to-port="4"/>
		<edge from-layer="1462" from-port="5" to-layer="1469" to-port="0"/>
		<edge from-layer="1468" from-port="5" to-layer="1469" to-port="1"/>
		<edge from-layer="1469" from-port="2" to-layer="1471" to-port="0"/>
		<edge from-layer="1470" from-port="0" to-layer="1471" to-port="1"/>
		<edge from-layer="1471" from-port="2" to-layer="1472" to-port="0"/>
		<edge from-layer="1472" from-port="1" to-layer="1473" to-port="0"/>
		<edge from-layer="21" from-port="0" to-layer="1473" to-port="1"/>
		<edge from-layer="22" from-port="0" to-layer="1473" to-port="2"/>
		<edge from-layer="23" from-port="0" to-layer="1473" to-port="3"/>
		<edge from-layer="24" from-port="0" to-layer="1473" to-port="4"/>
		<edge from-layer="1478" from-port="0" to-layer="1479" to-port="0"/>
		<edge from-layer="1474" from-port="0" to-layer="1479" to-port="1"/>
		<edge from-layer="1475" from-port="0" to-layer="1479" to-port="2"/>
		<edge from-layer="1476" from-port="0" to-layer="1479" to-port="3"/>
		<edge from-layer="1477" from-port="0" to-layer="1479" to-port="4"/>
		<edge from-layer="1473" from-port="5" to-layer="1480" to-port="0"/>
		<edge from-layer="1479" from-port="5" to-layer="1480" to-port="1"/>
		<edge from-layer="1480" from-port="2" to-layer="1482" to-port="0"/>
		<edge from-layer="1481" from-port="0" to-layer="1482" to-port="1"/>
		<edge from-layer="1482" from-port="2" to-layer="1483" to-port="0"/>
		<edge from-layer="1483" from-port="1" to-layer="1484" to-port="0"/>
		<edge from-layer="17" from-port="0" to-layer="1484" to-port="1"/>
		<edge from-layer="18" from-port="0" to-layer="1484" to-port="2"/>
		<edge from-layer="19" from-port="0" to-layer="1484" to-port="3"/>
		<edge from-layer="20" from-port="0" to-layer="1484" to-port="4"/>
		<edge from-layer="1484" from-port="5" to-layer="1485" to-port="0"/>
		<edge from-layer="1460" from-port="5" to-layer="1485" to-port="1"/>
		<edge from-layer="1485" from-port="2" to-layer="1486" to-port="0"/>
		<edge from-layer="13" from-port="0" to-layer="1486" to-port="1"/>
		<edge from-layer="14" from-port="0" to-layer="1486" to-port="2"/>
		<edge from-layer="15" from-port="0" to-layer="1486" to-port="3"/>
		<edge from-layer="16" from-port="0" to-layer="1486" to-port="4"/>
		<edge from-layer="1491" from-port="0" to-layer="1492" to-port="0"/>
		<edge from-layer="1487" from-port="0" to-layer="1492" to-port="1"/>
		<edge from-layer="1488" from-port="0" to-layer="1492" to-port="2"/>
		<edge from-layer="1489" from-port="0" to-layer="1492" to-port="3"/>
		<edge from-layer="1490" from-port="0" to-layer="1492" to-port="4"/>
		<edge from-layer="1486" from-port="5" to-layer="1493" to-port="0"/>
		<edge from-layer="1492" from-port="5" to-layer="1493" to-port="1"/>
		<edge from-layer="1493" from-port="2" to-layer="1495" to-port="0"/>
		<edge from-layer="1494" from-port="0" to-layer="1495" to-port="1"/>
		<edge from-layer="1495" from-port="2" to-layer="1496" to-port="0"/>
		<edge from-layer="9" from-port="0" to-layer="1496" to-port="1"/>
		<edge from-layer="10" from-port="0" to-layer="1496" to-port="2"/>
		<edge from-layer="11" from-port="0" to-layer="1496" to-port="3"/>
		<edge from-layer="12" from-port="0" to-layer="1496" to-port="4"/>
		<edge from-layer="1501" from-port="0" to-layer="1502" to-port="0"/>
		<edge from-layer="1497" from-port="0" to-layer="1502" to-port="1"/>
		<edge from-layer="1498" from-port="0" to-layer="1502" to-port="2"/>
		<edge from-layer="1499" from-port="0" to-layer="1502" to-port="3"/>
		<edge from-layer="1500" from-port="0" to-layer="1502" to-port="4"/>
		<edge from-layer="1496" from-port="5" to-layer="1503" to-port="0"/>
		<edge from-layer="1502" from-port="5" to-layer="1503" to-port="1"/>
		<edge from-layer="1503" from-port="2" to-layer="1505" to-port="0"/>
		<edge from-layer="1504" from-port="0" to-layer="1505" to-port="1"/>
		<edge from-layer="1505" from-port="2" to-layer="1506" to-port="0"/>
		<edge from-layer="1506" from-port="1" to-layer="1507" to-port="0"/>
		<edge from-layer="5" from-port="0" to-layer="1507" to-port="1"/>
		<edge from-layer="6" from-port="0" to-layer="1507" to-port="2"/>
		<edge from-layer="7" from-port="0" to-layer="1507" to-port="3"/>
		<edge from-layer="8" from-port="0" to-layer="1507" to-port="4"/>
		<edge from-layer="1507" from-port="5" to-layer="1508" to-port="0"/>
		<edge from-layer="4" from-port="0" to-layer="1508" to-port="1"/>
		<edge from-layer="1508" from-port="2" to-layer="1509" to-port="0"/>
		<edge from-layer="0" from-port="0" to-layer="1509" to-port="1"/>
		<edge from-layer="1" from-port="0" to-layer="1509" to-port="2"/>
		<edge from-layer="2" from-port="0" to-layer="1509" to-port="3"/>
		<edge from-layer="3" from-port="0" to-layer="1509" to-port="4"/>
		<edge from-layer="1514" from-port="0" to-layer="1515" to-port="0"/>
		<edge from-layer="1510" from-port="0" to-layer="1515" to-port="1"/>
		<edge from-layer="1511" from-port="0" to-layer="1515" to-port="2"/>
		<edge from-layer="1512" from-port="0" to-layer="1515" to-port="3"/>
		<edge from-layer="1513" from-port="0" to-layer="1515" to-port="4"/>
		<edge from-layer="1509" from-port="5" to-layer="1516" to-port="0"/>
		<edge from-layer="1515" from-port="5" to-layer="1516" to-port="1"/>
		<edge from-layer="1516" from-port="2" to-layer="1518" to-port="0"/>
		<edge from-layer="1517" from-port="0" to-layer="1518" to-port="1"/>
		<edge from-layer="1518" from-port="2" to-layer="1519" to-port="0"/>
	</edges>
	<meta_data>
		<MO_version value="2021.4.2-3976-0943ed67223-refs/pull/539/head"/>
		<cli_parameters>
			<caffe_parser_path value="DIR"/>
			<data_type value="FP32"/>
			<disable_nhwc_to_nchw value="False"/>
			<disable_omitting_optional value="False"/>
			<disable_resnet_optimization value="False"/>
			<disable_weights_compression value="False"/>
			<enable_concat_optimization value="False"/>
			<enable_flattening_nested_params value="False"/>
			<enable_ssd_gluoncv value="False"/>
			<extensions value="DIR"/>
			<framework value="tf"/>
			<freeze_placeholder_with_value value="{}"/>
			<generate_deprecated_IR_V7 value="False"/>
			<input value="0:sub"/>
			<input_meta_graph value="DIR/model.ckpt.meta"/>
			<input_model_is_text value="False"/>
			<input_shape value="[1,224,224,3]"/>
			<k value="DIR/CustomLayersMapping.xml"/>
			<keep_shape_ops value="True"/>
			<legacy_ir_generation value="False"/>
			<legacy_mxnet_model value="False"/>
			<log_level value="ERROR"/>
			<mean_scale_values value="{}"/>
			<mean_values value="()"/>
			<model_name value="efficientnet-b0"/>
			<output value="['logits']"/>
			<output_dir value="DIR"/>
			<placeholder_data_types value="{}"/>
			<placeholder_shapes value="{'0:sub': array([  1, 224, 224,   3])}"/>
			<progress value="False"/>
			<remove_memory value="False"/>
			<remove_output_softmax value="False"/>
			<reverse_input_channels value="True"/>
			<save_params_from_nd value="False"/>
			<scale_values value="()"/>
			<silent value="False"/>
			<static_shape value="False"/>
			<stream_output value="False"/>
			<transform value=""/>
			<unset unset_cli_parameters="batch, counts, disable_fusing, disable_gfusing, finegrain_fusing, input_checkpoint, input_model, input_proto, input_symbol, mean_file, mean_file_offsets, move_to_preprocess, nd_prefix_name, pretrained_model_name, saved_model_dir, saved_model_tags, scale, tensorboard_logdir, tensorflow_custom_layer_libraries, tensorflow_custom_operations_config_update, tensorflow_object_detection_api_pipeline_config, tensorflow_use_custom_operations_config, transformations_config"/>
		</cli_parameters>
	</meta_data>
	<quantization_parameters>
		<config/>
		<version value="{}"/>
		<cli_params value="{}"/>
	</quantization_parameters>
</net>
