<?xml version="1.0"?>
<net name="torch_jit" version="11">
	<layers>
		<layer id="0" name="x.1" type="Parameter" version="opset1">
			<data shape="1,3,224,224" element_type="f32" />
			<output>
				<port id="0" precision="FP32" names="x.1">
					<dim>1</dim>
					<dim>3</dim>
					<dim>224</dim>
					<dim>224</dim>
				</port>
			</output>
		</layer>
		<layer id="1" name="Constant_31020" type="Const" version="opset1">
			<data element_type="f32" shape="1, 1, 1, 1" offset="0" size="4" />
			<output>
				<port id="0" precision="FP32">
					<dim>1</dim>
					<dim>1</dim>
					<dim>1</dim>
					<dim>1</dim>
				</port>
			</output>
		</layer>
		<layer id="2" name="Constant_31021" type="Const" version="opset1">
			<data element_type="f32" shape="1, 1, 1, 1" offset="4" size="4" />
			<output>
				<port id="0" precision="FP32">
					<dim>1</dim>
					<dim>1</dim>
					<dim>1</dim>
					<dim>1</dim>
				</port>
			</output>
		</layer>
		<layer id="3" name="Constant_31022" type="Const" version="opset1">
			<data element_type="f32" shape="1, 1, 1, 1" offset="0" size="4" />
			<output>
				<port id="0" precision="FP32">
					<dim>1</dim>
					<dim>1</dim>
					<dim>1</dim>
					<dim>1</dim>
				</port>
			</output>
		</layer>
		<layer id="4" name="Constant_31023" type="Const" version="opset1">
			<data element_type="f32" shape="1, 1, 1, 1" offset="4" size="4" />
			<output>
				<port id="0" precision="FP32">
					<dim>1</dim>
					<dim>1</dim>
					<dim>1</dim>
					<dim>1</dim>
				</port>
			</output>
		</layer>
		<layer id="5" name="//nncf_model_input_0|OUTPUT/FakeQuantize" type="FakeQuantize" version="opset1">
			<data levels="256" auto_broadcast="numpy" />
			<input>
				<port id="0" precision="FP32">
					<dim>1</dim>
					<dim>3</dim>
					<dim>224</dim>
					<dim>224</dim>
				</port>
				<port id="1" precision="FP32">
					<dim>1</dim>
					<dim>1</dim>
					<dim>1</dim>
					<dim>1</dim>
				</port>
				<port id="2" precision="FP32">
					<dim>1</dim>
					<dim>1</dim>
					<dim>1</dim>
					<dim>1</dim>
				</port>
				<port id="3" precision="FP32">
					<dim>1</dim>
					<dim>1</dim>
					<dim>1</dim>
					<dim>1</dim>
				</port>
				<port id="4" precision="FP32">
					<dim>1</dim>
					<dim>1</dim>
					<dim>1</dim>
					<dim>1</dim>
				</port>
			</input>
			<output>
				<port id="5" precision="FP32" names="//nncf_model_input_0|OUTPUT/FakeQuantize_output_0">
					<dim>1</dim>
					<dim>3</dim>
					<dim>224</dim>
					<dim>224</dim>
				</port>
			</output>
		</layer>
		<layer id="6" name="/nncf_module/features/features.0/features.0.0/pre_ops.0/op/Constant" type="Const" version="opset1">
			<data element_type="i8" shape="40, 3, 3, 3" offset="8" size="1080" />
			<output>
				<port id="0" precision="I8">
					<dim>40</dim>
					<dim>3</dim>
					<dim>3</dim>
					<dim>3</dim>
				</port>
			</output>
		</layer>
		<layer id="7" name="Convert_33782" type="Convert" version="opset1">
			<data destination_type="f32" />
			<input>
				<port id="0" precision="I8">
					<dim>40</dim>
					<dim>3</dim>
					<dim>3</dim>
					<dim>3</dim>
				</port>
			</input>
			<output>
				<port id="1" precision="FP32">
					<dim>40</dim>
					<dim>3</dim>
					<dim>3</dim>
					<dim>3</dim>
				</port>
			</output>
		</layer>
		<layer id="8" name="Constant_33719" type="Const" version="opset1">
			<data element_type="f32" shape="40, 1, 1, 1" offset="1088" size="160" />
			<output>
				<port id="0" precision="FP32">
					<dim>40</dim>
					<dim>1</dim>
					<dim>1</dim>
					<dim>1</dim>
				</port>
			</output>
		</layer>
		<layer id="9" name="Multiply_29560" type="Multiply" version="opset1">
			<data auto_broadcast="numpy" />
			<input>
				<port id="0" precision="FP32">
					<dim>40</dim>
					<dim>3</dim>
					<dim>3</dim>
					<dim>3</dim>
				</port>
				<port id="1" precision="FP32">
					<dim>40</dim>
					<dim>1</dim>
					<dim>1</dim>
					<dim>1</dim>
				</port>
			</input>
			<output>
				<port id="2" precision="FP32">
					<dim>40</dim>
					<dim>3</dim>
					<dim>3</dim>
					<dim>3</dim>
				</port>
			</output>
		</layer>
		<layer id="10" name="Multiply_29007" type="Convolution" version="opset1">
			<data strides="2, 2" dilations="1, 1" pads_begin="1, 1" pads_end="1, 1" auto_pad="explicit" />
			<input>
				<port id="0" precision="FP32">
					<dim>1</dim>
					<dim>3</dim>
					<dim>224</dim>
					<dim>224</dim>
				</port>
				<port id="1" precision="FP32">
					<dim>40</dim>
					<dim>3</dim>
					<dim>3</dim>
					<dim>3</dim>
				</port>
			</input>
			<output>
				<port id="2" precision="FP32">
					<dim>1</dim>
					<dim>40</dim>
					<dim>112</dim>
					<dim>112</dim>
				</port>
			</output>
		</layer>
		<layer id="11" name="Constant_29012" type="Const" version="opset1">
			<data element_type="f32" shape="1, 40, 1, 1" offset="1248" size="160" />
			<output>
				<port id="0" precision="FP32">
					<dim>1</dim>
					<dim>40</dim>
					<dim>1</dim>
					<dim>1</dim>
				</port>
			</output>
		</layer>
		<layer id="12" name="/nncf_module/features/features.0/features.0.1/BatchNormalization" type="Add" version="opset1">
			<data auto_broadcast="numpy" />
			<input>
				<port id="0" precision="FP32">
					<dim>1</dim>
					<dim>40</dim>
					<dim>112</dim>
					<dim>112</dim>
				</port>
				<port id="1" precision="FP32">
					<dim>1</dim>
					<dim>40</dim>
					<dim>1</dim>
					<dim>1</dim>
				</port>
			</input>
			<output>
				<port id="2" precision="FP32" names="/nncf_module/features/features.0/features.0.1/BatchNormalization_output_0">
					<dim>1</dim>
					<dim>40</dim>
					<dim>112</dim>
					<dim>112</dim>
				</port>
			</output>
		</layer>
		<layer id="13" name="/nncf_module/features/features.0/features.0.2/Mul" type="Swish" version="opset4">
			<input>
				<port id="0" precision="FP32">
					<dim>1</dim>
					<dim>40</dim>
					<dim>112</dim>
					<dim>112</dim>
				</port>
			</input>
			<output>
				<port id="1" precision="FP32" names="/nncf_module/features/features.0/features.0.2/Mul_output_0">
					<dim>1</dim>
					<dim>40</dim>
					<dim>112</dim>
					<dim>112</dim>
				</port>
			</output>
		</layer>
		<layer id="14" name="/nncf_module/features/features.0/features.0.2/EfficientNet/Sequential[features]/Conv2dNormActivation[0]/SiLU[2]/silu_0|OUTPUT/Constant" type="Const" version="opset1">
			<data element_type="f32" shape="1, 40, 1, 1" offset="1408" size="160" />
			<output>
				<port id="0" precision="FP32" names="/nncf_module/features/features.0/features.0.2/EfficientNet/Sequential[features]/Conv2dNormActivation[0]/SiLU[2]/silu_0|OUTPUT/Constant_output_0">
					<dim>1</dim>
					<dim>40</dim>
					<dim>1</dim>
					<dim>1</dim>
				</port>
			</output>
		</layer>
		<layer id="15" name="/nncf_module/features/features.0/features.0.2/EfficientNet/Sequential[features]/Conv2dNormActivation[0]/SiLU[2]/silu_0|OUTPUT/Constant_1" type="Const" version="opset1">
			<data element_type="f32" shape="1, 40, 1, 1" offset="1568" size="160" />
			<output>
				<port id="0" precision="FP32" names="/nncf_module/features/features.0/features.0.2/EfficientNet/Sequential[features]/Conv2dNormActivation[0]/SiLU[2]/silu_0|OUTPUT/Constant_1_output_0">
					<dim>1</dim>
					<dim>40</dim>
					<dim>1</dim>
					<dim>1</dim>
				</port>
			</output>
		</layer>
		<layer id="16" name="/nncf_module/features/features.0/features.0.2/EfficientNet/Sequential[features]/Conv2dNormActivation[0]/SiLU[2]/silu_0|OUTPUT/FakeQuantize" type="FakeQuantize" version="opset1">
			<data levels="256" auto_broadcast="numpy" />
			<input>
				<port id="0" precision="FP32">
					<dim>1</dim>
					<dim>40</dim>
					<dim>112</dim>
					<dim>112</dim>
				</port>
				<port id="1" precision="FP32">
					<dim>1</dim>
					<dim>40</dim>
					<dim>1</dim>
					<dim>1</dim>
				</port>
				<port id="2" precision="FP32">
					<dim>1</dim>
					<dim>40</dim>
					<dim>1</dim>
					<dim>1</dim>
				</port>
				<port id="3" precision="FP32">
					<dim>1</dim>
					<dim>40</dim>
					<dim>1</dim>
					<dim>1</dim>
				</port>
				<port id="4" precision="FP32">
					<dim>1</dim>
					<dim>40</dim>
					<dim>1</dim>
					<dim>1</dim>
				</port>
			</input>
			<output>
				<port id="5" precision="FP32" names="/nncf_module/features/features.0/features.0.2/EfficientNet/Sequential[features]/Conv2dNormActivation[0]/SiLU[2]/silu_0|OUTPUT/FakeQuantize_output_0">
					<dim>1</dim>
					<dim>40</dim>
					<dim>112</dim>
					<dim>112</dim>
				</port>
			</output>
		</layer>
		<layer id="17" name="/nncf_module/features/features.1/features.1.0/block/block.0/block.0.0/pre_ops.0/op/Constant" type="Const" version="opset1">
			<data element_type="i8" shape="40, 1, 3, 3" offset="1728" size="360" />
			<output>
				<port id="0" precision="I8">
					<dim>40</dim>
					<dim>1</dim>
					<dim>3</dim>
					<dim>3</dim>
				</port>
			</output>
		</layer>
		<layer id="18" name="Convert_33903" type="Convert" version="opset1">
			<data destination_type="f32" />
			<input>
				<port id="0" precision="I8">
					<dim>40</dim>
					<dim>1</dim>
					<dim>3</dim>
					<dim>3</dim>
				</port>
			</input>
			<output>
				<port id="1" precision="FP32">
					<dim>40</dim>
					<dim>1</dim>
					<dim>3</dim>
					<dim>3</dim>
				</port>
			</output>
		</layer>
		<layer id="19" name="Constant_33840" type="Const" version="opset1">
			<data element_type="f32" shape="40, 1, 1, 1" offset="2088" size="160" />
			<output>
				<port id="0" precision="FP32">
					<dim>40</dim>
					<dim>1</dim>
					<dim>1</dim>
					<dim>1</dim>
				</port>
			</output>
		</layer>
		<layer id="20" name="/nncf_module/features/features.1/features.1.0/block/block.0/block.0.0/pre_ops.0/op/FakeQuantize" type="Multiply" version="opset1">
			<data auto_broadcast="numpy" />
			<input>
				<port id="0" precision="FP32">
					<dim>40</dim>
					<dim>1</dim>
					<dim>3</dim>
					<dim>3</dim>
				</port>
				<port id="1" precision="FP32">
					<dim>40</dim>
					<dim>1</dim>
					<dim>1</dim>
					<dim>1</dim>
				</port>
			</input>
			<output>
				<port id="2" precision="FP32" names="/nncf_module/features/features.1/features.1.0/block/block.0/block.0.0/pre_ops.0/op/FakeQuantize_output_0">
					<dim>40</dim>
					<dim>1</dim>
					<dim>3</dim>
					<dim>3</dim>
				</port>
			</output>
		</layer>
		<layer id="21" name="Reshape_29563" type="Const" version="opset1">
			<data element_type="f32" shape="40, 1, 1, 1" offset="2248" size="160" />
			<output>
				<port id="0" precision="FP32">
					<dim>40</dim>
					<dim>1</dim>
					<dim>1</dim>
					<dim>1</dim>
				</port>
			</output>
		</layer>
		<layer id="22" name="Multiply_29569" type="Multiply" version="opset1">
			<data auto_broadcast="numpy" />
			<input>
				<port id="0" precision="FP32">
					<dim>40</dim>
					<dim>1</dim>
					<dim>3</dim>
					<dim>3</dim>
				</port>
				<port id="1" precision="FP32">
					<dim>40</dim>
					<dim>1</dim>
					<dim>1</dim>
					<dim>1</dim>
				</port>
			</input>
			<output>
				<port id="2" precision="FP32">
					<dim>40</dim>
					<dim>1</dim>
					<dim>3</dim>
					<dim>3</dim>
				</port>
			</output>
		</layer>
		<layer id="23" name="Constant_388" type="Const" version="opset1">
			<data element_type="i64" shape="1" offset="2408" size="8" />
			<output>
				<port id="0" precision="I64">
					<dim>1</dim>
				</port>
			</output>
		</layer>
		<layer id="24" name="ShapeOf_389" type="ShapeOf" version="opset3">
			<data output_type="i64" />
			<input>
				<port id="0" precision="FP32">
					<dim>40</dim>
					<dim>1</dim>
					<dim>3</dim>
					<dim>3</dim>
				</port>
			</input>
			<output>
				<port id="1" precision="I64">
					<dim>4</dim>
				</port>
			</output>
		</layer>
		<layer id="25" name="Constant_386" type="Const" version="opset1">
			<data element_type="i64" shape="" offset="2416" size="8" />
			<output>
				<port id="0" precision="I64" />
			</output>
		</layer>
		<layer id="26" name="Constant_387" type="Const" version="opset1">
			<data element_type="i64" shape="2" offset="2424" size="16" />
			<output>
				<port id="0" precision="I64">
					<dim>2</dim>
				</port>
			</output>
		</layer>
		<layer id="27" name="VariadicSplit_390" type="VariadicSplit" version="opset1">
			<input>
				<port id="0" precision="I64">
					<dim>4</dim>
				</port>
				<port id="1" precision="I64" />
				<port id="2" precision="I64">
					<dim>2</dim>
				</port>
			</input>
			<output>
				<port id="3" precision="I64">
					<dim>1</dim>
				</port>
				<port id="4" precision="I64">
					<dim>3</dim>
				</port>
			</output>
		</layer>
		<layer id="28" name="Divide_391" type="Divide" version="opset1">
			<data auto_broadcast="numpy" m_pythondiv="true" />
			<input>
				<port id="0" precision="I64">
					<dim>1</dim>
				</port>
				<port id="1" precision="I64">
					<dim>1</dim>
				</port>
			</input>
			<output>
				<port id="2" precision="I64">
					<dim>1</dim>
				</port>
			</output>
		</layer>
		<layer id="29" name="Concat_392" type="Concat" version="opset1">
			<data axis="0" />
			<input>
				<port id="0" precision="I64">
					<dim>1</dim>
				</port>
				<port id="1" precision="I64">
					<dim>1</dim>
				</port>
				<port id="2" precision="I64">
					<dim>3</dim>
				</port>
			</input>
			<output>
				<port id="3" precision="I64">
					<dim>5</dim>
				</port>
			</output>
		</layer>
		<layer id="30" name="Reshape_393" type="Reshape" version="opset1">
			<data special_zero="false" />
			<input>
				<port id="0" precision="FP32">
					<dim>40</dim>
					<dim>1</dim>
					<dim>3</dim>
					<dim>3</dim>
				</port>
				<port id="1" precision="I64">
					<dim>5</dim>
				</port>
			</input>
			<output>
				<port id="2" precision="FP32">
					<dim>40</dim>
					<dim>1</dim>
					<dim>1</dim>
					<dim>3</dim>
					<dim>3</dim>
				</port>
			</output>
		</layer>
		<layer id="31" name="Multiply_29014" type="GroupConvolution" version="opset1">
			<data strides="1, 1" pads_begin="1, 1" pads_end="1, 1" dilations="1, 1" auto_pad="explicit" />
			<input>
				<port id="0" precision="FP32">
					<dim>1</dim>
					<dim>40</dim>
					<dim>112</dim>
					<dim>112</dim>
				</port>
				<port id="1" precision="FP32">
					<dim>40</dim>
					<dim>1</dim>
					<dim>1</dim>
					<dim>3</dim>
					<dim>3</dim>
				</port>
			</input>
			<output>
				<port id="2" precision="FP32" names="/nncf_module/features/features.1/features.1.0/block/block.0/block.0.0/Conv_output_0">
					<dim>1</dim>
					<dim>40</dim>
					<dim>112</dim>
					<dim>112</dim>
				</port>
			</output>
		</layer>
		<layer id="32" name="Constant_29019" type="Const" version="opset1">
			<data element_type="f32" shape="1, 40, 1, 1" offset="2440" size="160" />
			<output>
				<port id="0" precision="FP32">
					<dim>1</dim>
					<dim>40</dim>
					<dim>1</dim>
					<dim>1</dim>
				</port>
			</output>
		</layer>
		<layer id="33" name="/nncf_module/features/features.1/features.1.0/block/block.0/block.0.1/BatchNormalization" type="Add" version="opset1">
			<data auto_broadcast="numpy" />
			<input>
				<port id="0" precision="FP32">
					<dim>1</dim>
					<dim>40</dim>
					<dim>112</dim>
					<dim>112</dim>
				</port>
				<port id="1" precision="FP32">
					<dim>1</dim>
					<dim>40</dim>
					<dim>1</dim>
					<dim>1</dim>
				</port>
			</input>
			<output>
				<port id="2" precision="FP32" names="/nncf_module/features/features.1/features.1.0/block/block.0/block.0.1/BatchNormalization_output_0">
					<dim>1</dim>
					<dim>40</dim>
					<dim>112</dim>
					<dim>112</dim>
				</port>
			</output>
		</layer>
		<layer id="34" name="/nncf_module/features/features.1/features.1.0/block/block.0/block.0.2/Mul" type="Swish" version="opset4">
			<input>
				<port id="0" precision="FP32">
					<dim>1</dim>
					<dim>40</dim>
					<dim>112</dim>
					<dim>112</dim>
				</port>
			</input>
			<output>
				<port id="1" precision="FP32" names="/nncf_module/features/features.1/features.1.0/block/block.0/block.0.2/Mul_output_0">
					<dim>1</dim>
					<dim>40</dim>
					<dim>112</dim>
					<dim>112</dim>
				</port>
			</output>
		</layer>
		<layer id="35" name="Constant_31024" type="Const" version="opset1">
			<data element_type="f32" shape="1, 1, 1, 1" offset="2600" size="4" />
			<output>
				<port id="0" precision="FP32">
					<dim>1</dim>
					<dim>1</dim>
					<dim>1</dim>
					<dim>1</dim>
				</port>
			</output>
		</layer>
		<layer id="36" name="Constant_31025" type="Const" version="opset1">
			<data element_type="f32" shape="1, 1, 1, 1" offset="2604" size="4" />
			<output>
				<port id="0" precision="FP32">
					<dim>1</dim>
					<dim>1</dim>
					<dim>1</dim>
					<dim>1</dim>
				</port>
			</output>
		</layer>
		<layer id="37" name="Constant_31026" type="Const" version="opset1">
			<data element_type="f32" shape="1, 1, 1, 1" offset="2600" size="4" />
			<output>
				<port id="0" precision="FP32">
					<dim>1</dim>
					<dim>1</dim>
					<dim>1</dim>
					<dim>1</dim>
				</port>
			</output>
		</layer>
		<layer id="38" name="Constant_31027" type="Const" version="opset1">
			<data element_type="f32" shape="1, 1, 1, 1" offset="2604" size="4" />
			<output>
				<port id="0" precision="FP32">
					<dim>1</dim>
					<dim>1</dim>
					<dim>1</dim>
					<dim>1</dim>
				</port>
			</output>
		</layer>
		<layer id="39" name="/nncf_module/features/features.1/features.1.0/block/block.0/block.0.2/EfficientNet/Sequential[features]/Sequential[1]/MBConv[0]/Sequential[block]/Conv2dNormActivation[0]/SiLU[2]/silu_0|OUTPUT/FakeQuantize" type="FakeQuantize" version="opset1">
			<data levels="256" auto_broadcast="numpy" />
			<input>
				<port id="0" precision="FP32">
					<dim>1</dim>
					<dim>40</dim>
					<dim>112</dim>
					<dim>112</dim>
				</port>
				<port id="1" precision="FP32">
					<dim>1</dim>
					<dim>1</dim>
					<dim>1</dim>
					<dim>1</dim>
				</port>
				<port id="2" precision="FP32">
					<dim>1</dim>
					<dim>1</dim>
					<dim>1</dim>
					<dim>1</dim>
				</port>
				<port id="3" precision="FP32">
					<dim>1</dim>
					<dim>1</dim>
					<dim>1</dim>
					<dim>1</dim>
				</port>
				<port id="4" precision="FP32">
					<dim>1</dim>
					<dim>1</dim>
					<dim>1</dim>
					<dim>1</dim>
				</port>
			</input>
			<output>
				<port id="5" precision="FP32" names="/nncf_module/features/features.1/features.1.0/block/block.0/block.0.2/EfficientNet/Sequential[features]/Sequential[1]/MBConv[0]/Sequential[block]/Conv2dNormActivation[0]/SiLU[2]/silu_0|OUTPUT/FakeQuantize_output_0">
					<dim>1</dim>
					<dim>40</dim>
					<dim>112</dim>
					<dim>112</dim>
				</port>
			</output>
		</layer>
		<layer id="40" name="Range_472" type="Const" version="opset1">
			<data element_type="i64" shape="2" offset="2608" size="16" />
			<output>
				<port id="0" precision="I64">
					<dim>2</dim>
				</port>
			</output>
		</layer>
		<layer id="41" name="/nncf_module/features/features.1/features.1.0/block/block.1/avgpool/GlobalAveragePool" type="ReduceMean" version="opset1">
			<data keep_dims="true" />
			<input>
				<port id="0" precision="FP32">
					<dim>1</dim>
					<dim>40</dim>
					<dim>112</dim>
					<dim>112</dim>
				</port>
				<port id="1" precision="I64">
					<dim>2</dim>
				</port>
			</input>
			<output>
				<port id="2" precision="FP32" names="/nncf_module/features/features.1/features.1.0/block/block.1/avgpool/GlobalAveragePool_output_0">
					<dim>1</dim>
					<dim>40</dim>
					<dim>1</dim>
					<dim>1</dim>
				</port>
			</output>
		</layer>
		<layer id="42" name="Constant_31028" type="Const" version="opset1">
			<data element_type="f32" shape="1, 1, 1, 1" offset="2624" size="4" />
			<output>
				<port id="0" precision="FP32">
					<dim>1</dim>
					<dim>1</dim>
					<dim>1</dim>
					<dim>1</dim>
				</port>
			</output>
		</layer>
		<layer id="43" name="Constant_31029" type="Const" version="opset1">
			<data element_type="f32" shape="1, 1, 1, 1" offset="2628" size="4" />
			<output>
				<port id="0" precision="FP32">
					<dim>1</dim>
					<dim>1</dim>
					<dim>1</dim>
					<dim>1</dim>
				</port>
			</output>
		</layer>
		<layer id="44" name="Constant_31030" type="Const" version="opset1">
			<data element_type="f32" shape="1, 1, 1, 1" offset="2624" size="4" />
			<output>
				<port id="0" precision="FP32">
					<dim>1</dim>
					<dim>1</dim>
					<dim>1</dim>
					<dim>1</dim>
				</port>
			</output>
		</layer>
		<layer id="45" name="Constant_31031" type="Const" version="opset1">
			<data element_type="f32" shape="1, 1, 1, 1" offset="2628" size="4" />
			<output>
				<port id="0" precision="FP32">
					<dim>1</dim>
					<dim>1</dim>
					<dim>1</dim>
					<dim>1</dim>
				</port>
			</output>
		</layer>
		<layer id="46" name="/nncf_module/features/features.1/features.1.0/block/block.1/avgpool/EfficientNet/Sequential[features]/Sequential[1]/MBConv[0]/Sequential[block]/SqueezeExcitation[1]/AdaptiveAvgPool2d[avgpool]/adaptive_avg_pool2d_0|OUTPUT/FakeQuantize" type="FakeQuantize" version="opset1">
			<data levels="256" auto_broadcast="numpy" />
			<input>
				<port id="0" precision="FP32">
					<dim>1</dim>
					<dim>40</dim>
					<dim>1</dim>
					<dim>1</dim>
				</port>
				<port id="1" precision="FP32">
					<dim>1</dim>
					<dim>1</dim>
					<dim>1</dim>
					<dim>1</dim>
				</port>
				<port id="2" precision="FP32">
					<dim>1</dim>
					<dim>1</dim>
					<dim>1</dim>
					<dim>1</dim>
				</port>
				<port id="3" precision="FP32">
					<dim>1</dim>
					<dim>1</dim>
					<dim>1</dim>
					<dim>1</dim>
				</port>
				<port id="4" precision="FP32">
					<dim>1</dim>
					<dim>1</dim>
					<dim>1</dim>
					<dim>1</dim>
				</port>
			</input>
			<output>
				<port id="5" precision="FP32" names="/nncf_module/features/features.1/features.1.0/block/block.1/avgpool/EfficientNet/Sequential[features]/Sequential[1]/MBConv[0]/Sequential[block]/SqueezeExcitation[1]/AdaptiveAvgPool2d[avgpool]/adaptive_avg_pool2d_0|OUTPUT/FakeQuantize_output_0">
					<dim>1</dim>
					<dim>40</dim>
					<dim>1</dim>
					<dim>1</dim>
				</port>
			</output>
		</layer>
		<layer id="47" name="/nncf_module/features/features.1/features.1.0/block/block.1/fc1/pre_ops.0/op/Constant" type="Const" version="opset1">
			<data element_type="i8" shape="10, 40, 1, 1" offset="2632" size="400" />
			<output>
				<port id="0" precision="I8">
					<dim>10</dim>
					<dim>40</dim>
					<dim>1</dim>
					<dim>1</dim>
				</port>
			</output>
		</layer>
		<layer id="48" name="Convert_34072" type="Convert" version="opset1">
			<data destination_type="f32" />
			<input>
				<port id="0" precision="I8">
					<dim>10</dim>
					<dim>40</dim>
					<dim>1</dim>
					<dim>1</dim>
				</port>
			</input>
			<output>
				<port id="1" precision="FP32">
					<dim>10</dim>
					<dim>40</dim>
					<dim>1</dim>
					<dim>1</dim>
				</port>
			</output>
		</layer>
		<layer id="49" name="Constant_33979" type="Const" version="opset1">
			<data element_type="f32" shape="10, 1, 1, 1" offset="3032" size="40" />
			<output>
				<port id="0" precision="FP32">
					<dim>10</dim>
					<dim>1</dim>
					<dim>1</dim>
					<dim>1</dim>
				</port>
			</output>
		</layer>
		<layer id="50" name="/nncf_module/features/features.1/features.1.0/block/block.1/fc1/pre_ops.0/op/FakeQuantize" type="Multiply" version="opset1">
			<data auto_broadcast="numpy" />
			<input>
				<port id="0" precision="FP32">
					<dim>10</dim>
					<dim>40</dim>
					<dim>1</dim>
					<dim>1</dim>
				</port>
				<port id="1" precision="FP32">
					<dim>10</dim>
					<dim>1</dim>
					<dim>1</dim>
					<dim>1</dim>
				</port>
			</input>
			<output>
				<port id="2" precision="FP32" names="/nncf_module/features/features.1/features.1.0/block/block.1/fc1/pre_ops.0/op/FakeQuantize_output_0">
					<dim>10</dim>
					<dim>40</dim>
					<dim>1</dim>
					<dim>1</dim>
				</port>
			</output>
		</layer>
		<layer id="51" name="/nncf_module/features/features.1/features.1.0/block/block.1/fc1/Conv/WithoutBiases" type="Convolution" version="opset1">
			<data strides="1, 1" dilations="1, 1" pads_begin="0, 0" pads_end="0, 0" auto_pad="explicit" />
			<input>
				<port id="0" precision="FP32">
					<dim>1</dim>
					<dim>40</dim>
					<dim>1</dim>
					<dim>1</dim>
				</port>
				<port id="1" precision="FP32">
					<dim>10</dim>
					<dim>40</dim>
					<dim>1</dim>
					<dim>1</dim>
				</port>
			</input>
			<output>
				<port id="2" precision="FP32">
					<dim>1</dim>
					<dim>10</dim>
					<dim>1</dim>
					<dim>1</dim>
				</port>
			</output>
		</layer>
		<layer id="52" name="Reshape_524" type="Const" version="opset1">
			<data element_type="f32" shape="1, 10, 1, 1" offset="3072" size="40" />
			<output>
				<port id="0" precision="FP32">
					<dim>1</dim>
					<dim>10</dim>
					<dim>1</dim>
					<dim>1</dim>
				</port>
			</output>
		</layer>
		<layer id="53" name="/nncf_module/features/features.1/features.1.0/block/block.1/fc1/Conv" type="Add" version="opset1">
			<data auto_broadcast="numpy" />
			<input>
				<port id="0" precision="FP32">
					<dim>1</dim>
					<dim>10</dim>
					<dim>1</dim>
					<dim>1</dim>
				</port>
				<port id="1" precision="FP32">
					<dim>1</dim>
					<dim>10</dim>
					<dim>1</dim>
					<dim>1</dim>
				</port>
			</input>
			<output>
				<port id="2" precision="FP32" names="/nncf_module/features/features.1/features.1.0/block/block.1/fc1/Conv_output_0">
					<dim>1</dim>
					<dim>10</dim>
					<dim>1</dim>
					<dim>1</dim>
				</port>
			</output>
		</layer>
		<layer id="54" name="/nncf_module/features/features.1/features.1.0/block/block.1/activation/Mul" type="Swish" version="opset4">
			<input>
				<port id="0" precision="FP32">
					<dim>1</dim>
					<dim>10</dim>
					<dim>1</dim>
					<dim>1</dim>
				</port>
			</input>
			<output>
				<port id="1" precision="FP32" names="/nncf_module/features/features.1/features.1.0/block/block.1/activation/Mul_output_0">
					<dim>1</dim>
					<dim>10</dim>
					<dim>1</dim>
					<dim>1</dim>
				</port>
			</output>
		</layer>
		<layer id="55" name="Constant_31032" type="Const" version="opset1">
			<data element_type="f32" shape="1, 1, 1, 1" offset="3112" size="4" />
			<output>
				<port id="0" precision="FP32">
					<dim>1</dim>
					<dim>1</dim>
					<dim>1</dim>
					<dim>1</dim>
				</port>
			</output>
		</layer>
		<layer id="56" name="Constant_31033" type="Const" version="opset1">
			<data element_type="f32" shape="1, 1, 1, 1" offset="3116" size="4" />
			<output>
				<port id="0" precision="FP32">
					<dim>1</dim>
					<dim>1</dim>
					<dim>1</dim>
					<dim>1</dim>
				</port>
			</output>
		</layer>
		<layer id="57" name="Constant_31034" type="Const" version="opset1">
			<data element_type="f32" shape="1, 1, 1, 1" offset="3112" size="4" />
			<output>
				<port id="0" precision="FP32">
					<dim>1</dim>
					<dim>1</dim>
					<dim>1</dim>
					<dim>1</dim>
				</port>
			</output>
		</layer>
		<layer id="58" name="Constant_31035" type="Const" version="opset1">
			<data element_type="f32" shape="1, 1, 1, 1" offset="3116" size="4" />
			<output>
				<port id="0" precision="FP32">
					<dim>1</dim>
					<dim>1</dim>
					<dim>1</dim>
					<dim>1</dim>
				</port>
			</output>
		</layer>
		<layer id="59" name="/nncf_module/features/features.1/features.1.0/block/block.1/activation/EfficientNet/Sequential[features]/Sequential[1]/MBConv[0]/Sequential[block]/SqueezeExcitation[1]/SiLU[activation]/silu_0|OUTPUT/FakeQuantize" type="FakeQuantize" version="opset1">
			<data levels="256" auto_broadcast="numpy" />
			<input>
				<port id="0" precision="FP32">
					<dim>1</dim>
					<dim>10</dim>
					<dim>1</dim>
					<dim>1</dim>
				</port>
				<port id="1" precision="FP32">
					<dim>1</dim>
					<dim>1</dim>
					<dim>1</dim>
					<dim>1</dim>
				</port>
				<port id="2" precision="FP32">
					<dim>1</dim>
					<dim>1</dim>
					<dim>1</dim>
					<dim>1</dim>
				</port>
				<port id="3" precision="FP32">
					<dim>1</dim>
					<dim>1</dim>
					<dim>1</dim>
					<dim>1</dim>
				</port>
				<port id="4" precision="FP32">
					<dim>1</dim>
					<dim>1</dim>
					<dim>1</dim>
					<dim>1</dim>
				</port>
			</input>
			<output>
				<port id="5" precision="FP32" names="/nncf_module/features/features.1/features.1.0/block/block.1/activation/EfficientNet/Sequential[features]/Sequential[1]/MBConv[0]/Sequential[block]/SqueezeExcitation[1]/SiLU[activation]/silu_0|OUTPUT/FakeQuantize_output_0">
					<dim>1</dim>
					<dim>10</dim>
					<dim>1</dim>
					<dim>1</dim>
				</port>
			</output>
		</layer>
		<layer id="60" name="/nncf_module/features/features.1/features.1.0/block/block.1/fc2/pre_ops.0/op/Constant" type="Const" version="opset1">
			<data element_type="i8" shape="40, 10, 1, 1" offset="3120" size="400" />
			<output>
				<port id="0" precision="I8">
					<dim>40</dim>
					<dim>10</dim>
					<dim>1</dim>
					<dim>1</dim>
				</port>
			</output>
		</layer>
		<layer id="61" name="Convert_34193" type="Convert" version="opset1">
			<data destination_type="f32" />
			<input>
				<port id="0" precision="I8">
					<dim>40</dim>
					<dim>10</dim>
					<dim>1</dim>
					<dim>1</dim>
				</port>
			</input>
			<output>
				<port id="1" precision="FP32">
					<dim>40</dim>
					<dim>10</dim>
					<dim>1</dim>
					<dim>1</dim>
				</port>
			</output>
		</layer>
		<layer id="62" name="Constant_34130" type="Const" version="opset1">
			<data element_type="f32" shape="40, 1, 1, 1" offset="3520" size="160" />
			<output>
				<port id="0" precision="FP32">
					<dim>40</dim>
					<dim>1</dim>
					<dim>1</dim>
					<dim>1</dim>
				</port>
			</output>
		</layer>
		<layer id="63" name="/nncf_module/features/features.1/features.1.0/block/block.1/fc2/pre_ops.0/op/FakeQuantize" type="Multiply" version="opset1">
			<data auto_broadcast="numpy" />
			<input>
				<port id="0" precision="FP32">
					<dim>40</dim>
					<dim>10</dim>
					<dim>1</dim>
					<dim>1</dim>
				</port>
				<port id="1" precision="FP32">
					<dim>40</dim>
					<dim>1</dim>
					<dim>1</dim>
					<dim>1</dim>
				</port>
			</input>
			<output>
				<port id="2" precision="FP32" names="/nncf_module/features/features.1/features.1.0/block/block.1/fc2/pre_ops.0/op/FakeQuantize_output_0">
					<dim>40</dim>
					<dim>10</dim>
					<dim>1</dim>
					<dim>1</dim>
				</port>
			</output>
		</layer>
		<layer id="64" name="/nncf_module/features/features.1/features.1.0/block/block.1/fc2/Conv/WithoutBiases" type="Convolution" version="opset1">
			<data strides="1, 1" dilations="1, 1" pads_begin="0, 0" pads_end="0, 0" auto_pad="explicit" />
			<input>
				<port id="0" precision="FP32">
					<dim>1</dim>
					<dim>10</dim>
					<dim>1</dim>
					<dim>1</dim>
				</port>
				<port id="1" precision="FP32">
					<dim>40</dim>
					<dim>10</dim>
					<dim>1</dim>
					<dim>1</dim>
				</port>
			</input>
			<output>
				<port id="2" precision="FP32">
					<dim>1</dim>
					<dim>40</dim>
					<dim>1</dim>
					<dim>1</dim>
				</port>
			</output>
		</layer>
		<layer id="65" name="Reshape_581" type="Const" version="opset1">
			<data element_type="f32" shape="1, 40, 1, 1" offset="3680" size="160" />
			<output>
				<port id="0" precision="FP32">
					<dim>1</dim>
					<dim>40</dim>
					<dim>1</dim>
					<dim>1</dim>
				</port>
			</output>
		</layer>
		<layer id="66" name="/nncf_module/features/features.1/features.1.0/block/block.1/fc2/Conv" type="Add" version="opset1">
			<data auto_broadcast="numpy" />
			<input>
				<port id="0" precision="FP32">
					<dim>1</dim>
					<dim>40</dim>
					<dim>1</dim>
					<dim>1</dim>
				</port>
				<port id="1" precision="FP32">
					<dim>1</dim>
					<dim>40</dim>
					<dim>1</dim>
					<dim>1</dim>
				</port>
			</input>
			<output>
				<port id="2" precision="FP32" names="/nncf_module/features/features.1/features.1.0/block/block.1/fc2/Conv_output_0">
					<dim>1</dim>
					<dim>40</dim>
					<dim>1</dim>
					<dim>1</dim>
				</port>
			</output>
		</layer>
		<layer id="67" name="/nncf_module/features/features.1/features.1.0/block/block.1/scale_activation/Sigmoid" type="Sigmoid" version="opset1">
			<input>
				<port id="0" precision="FP32">
					<dim>1</dim>
					<dim>40</dim>
					<dim>1</dim>
					<dim>1</dim>
				</port>
			</input>
			<output>
				<port id="1" precision="FP32" names="/nncf_module/features/features.1/features.1.0/block/block.1/scale_activation/Sigmoid_output_0">
					<dim>1</dim>
					<dim>40</dim>
					<dim>1</dim>
					<dim>1</dim>
				</port>
			</output>
		</layer>
		<layer id="68" name="Constant_31036" type="Const" version="opset1">
			<data element_type="f32" shape="1, 1, 1, 1" offset="3840" size="4" />
			<output>
				<port id="0" precision="FP32">
					<dim>1</dim>
					<dim>1</dim>
					<dim>1</dim>
					<dim>1</dim>
				</port>
			</output>
		</layer>
		<layer id="69" name="Constant_31037" type="Const" version="opset1">
			<data element_type="f32" shape="1, 1, 1, 1" offset="3844" size="4" />
			<output>
				<port id="0" precision="FP32">
					<dim>1</dim>
					<dim>1</dim>
					<dim>1</dim>
					<dim>1</dim>
				</port>
			</output>
		</layer>
		<layer id="70" name="Constant_31038" type="Const" version="opset1">
			<data element_type="f32" shape="1, 1, 1, 1" offset="3840" size="4" />
			<output>
				<port id="0" precision="FP32">
					<dim>1</dim>
					<dim>1</dim>
					<dim>1</dim>
					<dim>1</dim>
				</port>
			</output>
		</layer>
		<layer id="71" name="Constant_31039" type="Const" version="opset1">
			<data element_type="f32" shape="1, 1, 1, 1" offset="3844" size="4" />
			<output>
				<port id="0" precision="FP32">
					<dim>1</dim>
					<dim>1</dim>
					<dim>1</dim>
					<dim>1</dim>
				</port>
			</output>
		</layer>
		<layer id="72" name="/nncf_module/features/features.1/features.1.0/block/block.1/scale_activation/EfficientNet/Sequential[features]/Sequential[1]/MBConv[0]/Sequential[block]/SqueezeExcitation[1]/Sigmoid[scale_activation]/sigmoid_0|OUTPUT/FakeQuantize" type="FakeQuantize" version="opset1">
			<data levels="256" auto_broadcast="numpy" />
			<input>
				<port id="0" precision="FP32">
					<dim>1</dim>
					<dim>40</dim>
					<dim>1</dim>
					<dim>1</dim>
				</port>
				<port id="1" precision="FP32">
					<dim>1</dim>
					<dim>1</dim>
					<dim>1</dim>
					<dim>1</dim>
				</port>
				<port id="2" precision="FP32">
					<dim>1</dim>
					<dim>1</dim>
					<dim>1</dim>
					<dim>1</dim>
				</port>
				<port id="3" precision="FP32">
					<dim>1</dim>
					<dim>1</dim>
					<dim>1</dim>
					<dim>1</dim>
				</port>
				<port id="4" precision="FP32">
					<dim>1</dim>
					<dim>1</dim>
					<dim>1</dim>
					<dim>1</dim>
				</port>
			</input>
			<output>
				<port id="5" precision="FP32" names="/nncf_module/features/features.1/features.1.0/block/block.1/scale_activation/EfficientNet/Sequential[features]/Sequential[1]/MBConv[0]/Sequential[block]/SqueezeExcitation[1]/Sigmoid[scale_activation]/sigmoid_0|OUTPUT/FakeQuantize_output_0">
					<dim>1</dim>
					<dim>40</dim>
					<dim>1</dim>
					<dim>1</dim>
				</port>
			</output>
		</layer>
		<layer id="73" name="/nncf_module/features/features.1/features.1.0/block/block.1/Mul" type="Multiply" version="opset1">
			<data auto_broadcast="numpy" />
			<input>
				<port id="0" precision="FP32">
					<dim>1</dim>
					<dim>40</dim>
					<dim>1</dim>
					<dim>1</dim>
				</port>
				<port id="1" precision="FP32">
					<dim>1</dim>
					<dim>40</dim>
					<dim>112</dim>
					<dim>112</dim>
				</port>
			</input>
			<output>
				<port id="2" precision="FP32" names="/nncf_module/features/features.1/features.1.0/block/block.1/Mul_output_0">
					<dim>1</dim>
					<dim>40</dim>
					<dim>112</dim>
					<dim>112</dim>
				</port>
			</output>
		</layer>
		<layer id="74" name="Constant_31040" type="Const" version="opset1">
			<data element_type="f32" shape="1, 1, 1, 1" offset="3848" size="4" />
			<output>
				<port id="0" precision="FP32">
					<dim>1</dim>
					<dim>1</dim>
					<dim>1</dim>
					<dim>1</dim>
				</port>
			</output>
		</layer>
		<layer id="75" name="Constant_31041" type="Const" version="opset1">
			<data element_type="f32" shape="1, 1, 1, 1" offset="3852" size="4" />
			<output>
				<port id="0" precision="FP32">
					<dim>1</dim>
					<dim>1</dim>
					<dim>1</dim>
					<dim>1</dim>
				</port>
			</output>
		</layer>
		<layer id="76" name="Constant_31042" type="Const" version="opset1">
			<data element_type="f32" shape="1, 1, 1, 1" offset="3848" size="4" />
			<output>
				<port id="0" precision="FP32">
					<dim>1</dim>
					<dim>1</dim>
					<dim>1</dim>
					<dim>1</dim>
				</port>
			</output>
		</layer>
		<layer id="77" name="Constant_31043" type="Const" version="opset1">
			<data element_type="f32" shape="1, 1, 1, 1" offset="3852" size="4" />
			<output>
				<port id="0" precision="FP32">
					<dim>1</dim>
					<dim>1</dim>
					<dim>1</dim>
					<dim>1</dim>
				</port>
			</output>
		</layer>
		<layer id="78" name="/nncf_module/features/features.1/features.1.0/block/block.1/EfficientNet/Sequential[features]/Sequential[1]/MBConv[0]/Sequential[block]/SqueezeExcitation[1]/__mul___0|OUTPUT/FakeQuantize" type="FakeQuantize" version="opset1">
			<data levels="256" auto_broadcast="numpy" />
			<input>
				<port id="0" precision="FP32">
					<dim>1</dim>
					<dim>40</dim>
					<dim>112</dim>
					<dim>112</dim>
				</port>
				<port id="1" precision="FP32">
					<dim>1</dim>
					<dim>1</dim>
					<dim>1</dim>
					<dim>1</dim>
				</port>
				<port id="2" precision="FP32">
					<dim>1</dim>
					<dim>1</dim>
					<dim>1</dim>
					<dim>1</dim>
				</port>
				<port id="3" precision="FP32">
					<dim>1</dim>
					<dim>1</dim>
					<dim>1</dim>
					<dim>1</dim>
				</port>
				<port id="4" precision="FP32">
					<dim>1</dim>
					<dim>1</dim>
					<dim>1</dim>
					<dim>1</dim>
				</port>
			</input>
			<output>
				<port id="5" precision="FP32" names="/nncf_module/features/features.1/features.1.0/block/block.1/EfficientNet/Sequential[features]/Sequential[1]/MBConv[0]/Sequential[block]/SqueezeExcitation[1]/__mul___0|OUTPUT/FakeQuantize_output_0">
					<dim>1</dim>
					<dim>40</dim>
					<dim>112</dim>
					<dim>112</dim>
				</port>
			</output>
		</layer>
		<layer id="79" name="/nncf_module/features/features.1/features.1.0/block/block.2/block.2.0/pre_ops.0/op/Constant" type="Const" version="opset1">
			<data element_type="i8" shape="24, 40, 1, 1" offset="3856" size="960" />
			<output>
				<port id="0" precision="I8">
					<dim>24</dim>
					<dim>40</dim>
					<dim>1</dim>
					<dim>1</dim>
				</port>
			</output>
		</layer>
		<layer id="80" name="Convert_34314" type="Convert" version="opset1">
			<data destination_type="f32" />
			<input>
				<port id="0" precision="I8">
					<dim>24</dim>
					<dim>40</dim>
					<dim>1</dim>
					<dim>1</dim>
				</port>
			</input>
			<output>
				<port id="1" precision="FP32">
					<dim>24</dim>
					<dim>40</dim>
					<dim>1</dim>
					<dim>1</dim>
				</port>
			</output>
		</layer>
		<layer id="81" name="Constant_34251" type="Const" version="opset1">
			<data element_type="f32" shape="24, 1, 1, 1" offset="4816" size="96" />
			<output>
				<port id="0" precision="FP32">
					<dim>24</dim>
					<dim>1</dim>
					<dim>1</dim>
					<dim>1</dim>
				</port>
			</output>
		</layer>
		<layer id="82" name="Multiply_29577" type="Multiply" version="opset1">
			<data auto_broadcast="numpy" />
			<input>
				<port id="0" precision="FP32">
					<dim>24</dim>
					<dim>40</dim>
					<dim>1</dim>
					<dim>1</dim>
				</port>
				<port id="1" precision="FP32">
					<dim>24</dim>
					<dim>1</dim>
					<dim>1</dim>
					<dim>1</dim>
				</port>
			</input>
			<output>
				<port id="2" precision="FP32">
					<dim>24</dim>
					<dim>40</dim>
					<dim>1</dim>
					<dim>1</dim>
				</port>
			</output>
		</layer>
		<layer id="83" name="Multiply_29021" type="Convolution" version="opset1">
			<data strides="1, 1" dilations="1, 1" pads_begin="0, 0" pads_end="0, 0" auto_pad="explicit" />
			<input>
				<port id="0" precision="FP32">
					<dim>1</dim>
					<dim>40</dim>
					<dim>112</dim>
					<dim>112</dim>
				</port>
				<port id="1" precision="FP32">
					<dim>24</dim>
					<dim>40</dim>
					<dim>1</dim>
					<dim>1</dim>
				</port>
			</input>
			<output>
				<port id="2" precision="FP32">
					<dim>1</dim>
					<dim>24</dim>
					<dim>112</dim>
					<dim>112</dim>
				</port>
			</output>
		</layer>
		<layer id="84" name="Constant_29026" type="Const" version="opset1">
			<data element_type="f32" shape="1, 24, 1, 1" offset="4912" size="96" />
			<output>
				<port id="0" precision="FP32">
					<dim>1</dim>
					<dim>24</dim>
					<dim>1</dim>
					<dim>1</dim>
				</port>
			</output>
		</layer>
		<layer id="85" name="/nncf_module/features/features.1/features.1.0/block/block.2/block.2.1/BatchNormalization" type="Add" version="opset1">
			<data auto_broadcast="numpy" />
			<input>
				<port id="0" precision="FP32">
					<dim>1</dim>
					<dim>24</dim>
					<dim>112</dim>
					<dim>112</dim>
				</port>
				<port id="1" precision="FP32">
					<dim>1</dim>
					<dim>24</dim>
					<dim>1</dim>
					<dim>1</dim>
				</port>
			</input>
			<output>
				<port id="2" precision="FP32" names="/nncf_module/features/features.1/features.1.0/block/block.2/block.2.1/BatchNormalization_output_0">
					<dim>1</dim>
					<dim>24</dim>
					<dim>112</dim>
					<dim>112</dim>
				</port>
			</output>
		</layer>
		<layer id="86" name="Constant_31044" type="Const" version="opset1">
			<data element_type="f32" shape="1, 1, 1, 1" offset="5008" size="4" />
			<output>
				<port id="0" precision="FP32">
					<dim>1</dim>
					<dim>1</dim>
					<dim>1</dim>
					<dim>1</dim>
				</port>
			</output>
		</layer>
		<layer id="87" name="Constant_31045" type="Const" version="opset1">
			<data element_type="f32" shape="1, 1, 1, 1" offset="5012" size="4" />
			<output>
				<port id="0" precision="FP32">
					<dim>1</dim>
					<dim>1</dim>
					<dim>1</dim>
					<dim>1</dim>
				</port>
			</output>
		</layer>
		<layer id="88" name="Constant_31046" type="Const" version="opset1">
			<data element_type="f32" shape="1, 1, 1, 1" offset="5008" size="4" />
			<output>
				<port id="0" precision="FP32">
					<dim>1</dim>
					<dim>1</dim>
					<dim>1</dim>
					<dim>1</dim>
				</port>
			</output>
		</layer>
		<layer id="89" name="Constant_31047" type="Const" version="opset1">
			<data element_type="f32" shape="1, 1, 1, 1" offset="5012" size="4" />
			<output>
				<port id="0" precision="FP32">
					<dim>1</dim>
					<dim>1</dim>
					<dim>1</dim>
					<dim>1</dim>
				</port>
			</output>
		</layer>
		<layer id="90" name="/nncf_module/features/features.1/features.1.0/block/block.2/block.2.1/EfficientNet/Sequential[features]/Sequential[1]/MBConv[0]/Sequential[block]/Conv2dNormActivation[2]/NNCFBatchNorm2d[1]/batch_norm_0|OUTPUT/FakeQuantize" type="FakeQuantize" version="opset1">
			<data levels="256" auto_broadcast="numpy" />
			<input>
				<port id="0" precision="FP32">
					<dim>1</dim>
					<dim>24</dim>
					<dim>112</dim>
					<dim>112</dim>
				</port>
				<port id="1" precision="FP32">
					<dim>1</dim>
					<dim>1</dim>
					<dim>1</dim>
					<dim>1</dim>
				</port>
				<port id="2" precision="FP32">
					<dim>1</dim>
					<dim>1</dim>
					<dim>1</dim>
					<dim>1</dim>
				</port>
				<port id="3" precision="FP32">
					<dim>1</dim>
					<dim>1</dim>
					<dim>1</dim>
					<dim>1</dim>
				</port>
				<port id="4" precision="FP32">
					<dim>1</dim>
					<dim>1</dim>
					<dim>1</dim>
					<dim>1</dim>
				</port>
			</input>
			<output>
				<port id="5" precision="FP32" names="/nncf_module/features/features.1/features.1.0/block/block.2/block.2.1/EfficientNet/Sequential[features]/Sequential[1]/MBConv[0]/Sequential[block]/Conv2dNormActivation[2]/NNCFBatchNorm2d[1]/batch_norm_0|OUTPUT/FakeQuantize_output_0">
					<dim>1</dim>
					<dim>24</dim>
					<dim>112</dim>
					<dim>112</dim>
				</port>
			</output>
		</layer>
		<layer id="91" name="/nncf_module/features/features.1/features.1.1/block/block.0/block.0.0/pre_ops.0/op/Constant" type="Const" version="opset1">
			<data element_type="i8" shape="24, 1, 3, 3" offset="5016" size="216" />
			<output>
				<port id="0" precision="I8">
					<dim>24</dim>
					<dim>1</dim>
					<dim>3</dim>
					<dim>3</dim>
				</port>
			</output>
		</layer>
		<layer id="92" name="Convert_34435" type="Convert" version="opset1">
			<data destination_type="f32" />
			<input>
				<port id="0" precision="I8">
					<dim>24</dim>
					<dim>1</dim>
					<dim>3</dim>
					<dim>3</dim>
				</port>
			</input>
			<output>
				<port id="1" precision="FP32">
					<dim>24</dim>
					<dim>1</dim>
					<dim>3</dim>
					<dim>3</dim>
				</port>
			</output>
		</layer>
		<layer id="93" name="Constant_34372" type="Const" version="opset1">
			<data element_type="f32" shape="24, 1, 1, 1" offset="5232" size="96" />
			<output>
				<port id="0" precision="FP32">
					<dim>24</dim>
					<dim>1</dim>
					<dim>1</dim>
					<dim>1</dim>
				</port>
			</output>
		</layer>
		<layer id="94" name="/nncf_module/features/features.1/features.1.1/block/block.0/block.0.0/pre_ops.0/op/FakeQuantize" type="Multiply" version="opset1">
			<data auto_broadcast="numpy" />
			<input>
				<port id="0" precision="FP32">
					<dim>24</dim>
					<dim>1</dim>
					<dim>3</dim>
					<dim>3</dim>
				</port>
				<port id="1" precision="FP32">
					<dim>24</dim>
					<dim>1</dim>
					<dim>1</dim>
					<dim>1</dim>
				</port>
			</input>
			<output>
				<port id="2" precision="FP32" names="/nncf_module/features/features.1/features.1.1/block/block.0/block.0.0/pre_ops.0/op/FakeQuantize_output_0">
					<dim>24</dim>
					<dim>1</dim>
					<dim>3</dim>
					<dim>3</dim>
				</port>
			</output>
		</layer>
		<layer id="95" name="Reshape_29580" type="Const" version="opset1">
			<data element_type="f32" shape="24, 1, 1, 1" offset="5328" size="96" />
			<output>
				<port id="0" precision="FP32">
					<dim>24</dim>
					<dim>1</dim>
					<dim>1</dim>
					<dim>1</dim>
				</port>
			</output>
		</layer>
		<layer id="96" name="Multiply_29586" type="Multiply" version="opset1">
			<data auto_broadcast="numpy" />
			<input>
				<port id="0" precision="FP32">
					<dim>24</dim>
					<dim>1</dim>
					<dim>3</dim>
					<dim>3</dim>
				</port>
				<port id="1" precision="FP32">
					<dim>24</dim>
					<dim>1</dim>
					<dim>1</dim>
					<dim>1</dim>
				</port>
			</input>
			<output>
				<port id="2" precision="FP32">
					<dim>24</dim>
					<dim>1</dim>
					<dim>3</dim>
					<dim>3</dim>
				</port>
			</output>
		</layer>
		<layer id="97" name="Constant_634" type="Const" version="opset1">
			<data element_type="i64" shape="1" offset="5424" size="8" />
			<output>
				<port id="0" precision="I64">
					<dim>1</dim>
				</port>
			</output>
		</layer>
		<layer id="98" name="ShapeOf_635" type="ShapeOf" version="opset3">
			<data output_type="i64" />
			<input>
				<port id="0" precision="FP32">
					<dim>24</dim>
					<dim>1</dim>
					<dim>3</dim>
					<dim>3</dim>
				</port>
			</input>
			<output>
				<port id="1" precision="I64">
					<dim>4</dim>
				</port>
			</output>
		</layer>
		<layer id="99" name="Constant_632" type="Const" version="opset1">
			<data element_type="i64" shape="" offset="2416" size="8" />
			<output>
				<port id="0" precision="I64" />
			</output>
		</layer>
		<layer id="100" name="Constant_633" type="Const" version="opset1">
			<data element_type="i64" shape="2" offset="2424" size="16" />
			<output>
				<port id="0" precision="I64">
					<dim>2</dim>
				</port>
			</output>
		</layer>
		<layer id="101" name="VariadicSplit_636" type="VariadicSplit" version="opset1">
			<input>
				<port id="0" precision="I64">
					<dim>4</dim>
				</port>
				<port id="1" precision="I64" />
				<port id="2" precision="I64">
					<dim>2</dim>
				</port>
			</input>
			<output>
				<port id="3" precision="I64">
					<dim>1</dim>
				</port>
				<port id="4" precision="I64">
					<dim>3</dim>
				</port>
			</output>
		</layer>
		<layer id="102" name="Divide_637" type="Divide" version="opset1">
			<data auto_broadcast="numpy" m_pythondiv="true" />
			<input>
				<port id="0" precision="I64">
					<dim>1</dim>
				</port>
				<port id="1" precision="I64">
					<dim>1</dim>
				</port>
			</input>
			<output>
				<port id="2" precision="I64">
					<dim>1</dim>
				</port>
			</output>
		</layer>
		<layer id="103" name="Concat_638" type="Concat" version="opset1">
			<data axis="0" />
			<input>
				<port id="0" precision="I64">
					<dim>1</dim>
				</port>
				<port id="1" precision="I64">
					<dim>1</dim>
				</port>
				<port id="2" precision="I64">
					<dim>3</dim>
				</port>
			</input>
			<output>
				<port id="3" precision="I64">
					<dim>5</dim>
				</port>
			</output>
		</layer>
		<layer id="104" name="Reshape_639" type="Reshape" version="opset1">
			<data special_zero="false" />
			<input>
				<port id="0" precision="FP32">
					<dim>24</dim>
					<dim>1</dim>
					<dim>3</dim>
					<dim>3</dim>
				</port>
				<port id="1" precision="I64">
					<dim>5</dim>
				</port>
			</input>
			<output>
				<port id="2" precision="FP32">
					<dim>24</dim>
					<dim>1</dim>
					<dim>1</dim>
					<dim>3</dim>
					<dim>3</dim>
				</port>
			</output>
		</layer>
		<layer id="105" name="Multiply_29028" type="GroupConvolution" version="opset1">
			<data strides="1, 1" pads_begin="1, 1" pads_end="1, 1" dilations="1, 1" auto_pad="explicit" />
			<input>
				<port id="0" precision="FP32">
					<dim>1</dim>
					<dim>24</dim>
					<dim>112</dim>
					<dim>112</dim>
				</port>
				<port id="1" precision="FP32">
					<dim>24</dim>
					<dim>1</dim>
					<dim>1</dim>
					<dim>3</dim>
					<dim>3</dim>
				</port>
			</input>
			<output>
				<port id="2" precision="FP32" names="/nncf_module/features/features.1/features.1.1/block/block.0/block.0.0/Conv_output_0">
					<dim>1</dim>
					<dim>24</dim>
					<dim>112</dim>
					<dim>112</dim>
				</port>
			</output>
		</layer>
		<layer id="106" name="Constant_29033" type="Const" version="opset1">
			<data element_type="f32" shape="1, 24, 1, 1" offset="5432" size="96" />
			<output>
				<port id="0" precision="FP32">
					<dim>1</dim>
					<dim>24</dim>
					<dim>1</dim>
					<dim>1</dim>
				</port>
			</output>
		</layer>
		<layer id="107" name="/nncf_module/features/features.1/features.1.1/block/block.0/block.0.1/BatchNormalization" type="Add" version="opset1">
			<data auto_broadcast="numpy" />
			<input>
				<port id="0" precision="FP32">
					<dim>1</dim>
					<dim>24</dim>
					<dim>112</dim>
					<dim>112</dim>
				</port>
				<port id="1" precision="FP32">
					<dim>1</dim>
					<dim>24</dim>
					<dim>1</dim>
					<dim>1</dim>
				</port>
			</input>
			<output>
				<port id="2" precision="FP32" names="/nncf_module/features/features.1/features.1.1/block/block.0/block.0.1/BatchNormalization_output_0">
					<dim>1</dim>
					<dim>24</dim>
					<dim>112</dim>
					<dim>112</dim>
				</port>
			</output>
		</layer>
		<layer id="108" name="/nncf_module/features/features.1/features.1.1/block/block.0/block.0.2/Mul" type="Swish" version="opset4">
			<input>
				<port id="0" precision="FP32">
					<dim>1</dim>
					<dim>24</dim>
					<dim>112</dim>
					<dim>112</dim>
				</port>
			</input>
			<output>
				<port id="1" precision="FP32" names="/nncf_module/features/features.1/features.1.1/block/block.0/block.0.2/Mul_output_0">
					<dim>1</dim>
					<dim>24</dim>
					<dim>112</dim>
					<dim>112</dim>
				</port>
			</output>
		</layer>
		<layer id="109" name="Constant_31048" type="Const" version="opset1">
			<data element_type="f32" shape="1, 1, 1, 1" offset="5528" size="4" />
			<output>
				<port id="0" precision="FP32">
					<dim>1</dim>
					<dim>1</dim>
					<dim>1</dim>
					<dim>1</dim>
				</port>
			</output>
		</layer>
		<layer id="110" name="Constant_31049" type="Const" version="opset1">
			<data element_type="f32" shape="1, 1, 1, 1" offset="5532" size="4" />
			<output>
				<port id="0" precision="FP32">
					<dim>1</dim>
					<dim>1</dim>
					<dim>1</dim>
					<dim>1</dim>
				</port>
			</output>
		</layer>
		<layer id="111" name="Constant_31050" type="Const" version="opset1">
			<data element_type="f32" shape="1, 1, 1, 1" offset="5528" size="4" />
			<output>
				<port id="0" precision="FP32">
					<dim>1</dim>
					<dim>1</dim>
					<dim>1</dim>
					<dim>1</dim>
				</port>
			</output>
		</layer>
		<layer id="112" name="Constant_31051" type="Const" version="opset1">
			<data element_type="f32" shape="1, 1, 1, 1" offset="5532" size="4" />
			<output>
				<port id="0" precision="FP32">
					<dim>1</dim>
					<dim>1</dim>
					<dim>1</dim>
					<dim>1</dim>
				</port>
			</output>
		</layer>
		<layer id="113" name="/nncf_module/features/features.1/features.1.1/block/block.0/block.0.2/EfficientNet/Sequential[features]/Sequential[1]/MBConv[1]/Sequential[block]/Conv2dNormActivation[0]/SiLU[2]/silu_0|OUTPUT/FakeQuantize" type="FakeQuantize" version="opset1">
			<data levels="256" auto_broadcast="numpy" />
			<input>
				<port id="0" precision="FP32">
					<dim>1</dim>
					<dim>24</dim>
					<dim>112</dim>
					<dim>112</dim>
				</port>
				<port id="1" precision="FP32">
					<dim>1</dim>
					<dim>1</dim>
					<dim>1</dim>
					<dim>1</dim>
				</port>
				<port id="2" precision="FP32">
					<dim>1</dim>
					<dim>1</dim>
					<dim>1</dim>
					<dim>1</dim>
				</port>
				<port id="3" precision="FP32">
					<dim>1</dim>
					<dim>1</dim>
					<dim>1</dim>
					<dim>1</dim>
				</port>
				<port id="4" precision="FP32">
					<dim>1</dim>
					<dim>1</dim>
					<dim>1</dim>
					<dim>1</dim>
				</port>
			</input>
			<output>
				<port id="5" precision="FP32" names="/nncf_module/features/features.1/features.1.1/block/block.0/block.0.2/EfficientNet/Sequential[features]/Sequential[1]/MBConv[1]/Sequential[block]/Conv2dNormActivation[0]/SiLU[2]/silu_0|OUTPUT/FakeQuantize_output_0">
					<dim>1</dim>
					<dim>24</dim>
					<dim>112</dim>
					<dim>112</dim>
				</port>
			</output>
		</layer>
		<layer id="114" name="Range_718" type="Const" version="opset1">
			<data element_type="i64" shape="2" offset="2608" size="16" />
			<output>
				<port id="0" precision="I64">
					<dim>2</dim>
				</port>
			</output>
		</layer>
		<layer id="115" name="/nncf_module/features/features.1/features.1.1/block/block.1/avgpool/GlobalAveragePool" type="ReduceMean" version="opset1">
			<data keep_dims="true" />
			<input>
				<port id="0" precision="FP32">
					<dim>1</dim>
					<dim>24</dim>
					<dim>112</dim>
					<dim>112</dim>
				</port>
				<port id="1" precision="I64">
					<dim>2</dim>
				</port>
			</input>
			<output>
				<port id="2" precision="FP32" names="/nncf_module/features/features.1/features.1.1/block/block.1/avgpool/GlobalAveragePool_output_0">
					<dim>1</dim>
					<dim>24</dim>
					<dim>1</dim>
					<dim>1</dim>
				</port>
			</output>
		</layer>
		<layer id="116" name="Constant_31052" type="Const" version="opset1">
			<data element_type="f32" shape="1, 1, 1, 1" offset="5536" size="4" />
			<output>
				<port id="0" precision="FP32">
					<dim>1</dim>
					<dim>1</dim>
					<dim>1</dim>
					<dim>1</dim>
				</port>
			</output>
		</layer>
		<layer id="117" name="Constant_31053" type="Const" version="opset1">
			<data element_type="f32" shape="1, 1, 1, 1" offset="5540" size="4" />
			<output>
				<port id="0" precision="FP32">
					<dim>1</dim>
					<dim>1</dim>
					<dim>1</dim>
					<dim>1</dim>
				</port>
			</output>
		</layer>
		<layer id="118" name="Constant_31054" type="Const" version="opset1">
			<data element_type="f32" shape="1, 1, 1, 1" offset="5536" size="4" />
			<output>
				<port id="0" precision="FP32">
					<dim>1</dim>
					<dim>1</dim>
					<dim>1</dim>
					<dim>1</dim>
				</port>
			</output>
		</layer>
		<layer id="119" name="Constant_31055" type="Const" version="opset1">
			<data element_type="f32" shape="1, 1, 1, 1" offset="5540" size="4" />
			<output>
				<port id="0" precision="FP32">
					<dim>1</dim>
					<dim>1</dim>
					<dim>1</dim>
					<dim>1</dim>
				</port>
			</output>
		</layer>
		<layer id="120" name="/nncf_module/features/features.1/features.1.1/block/block.1/avgpool/EfficientNet/Sequential[features]/Sequential[1]/MBConv[1]/Sequential[block]/SqueezeExcitation[1]/AdaptiveAvgPool2d[avgpool]/adaptive_avg_pool2d_0|OUTPUT/FakeQuantize" type="FakeQuantize" version="opset1">
			<data levels="256" auto_broadcast="numpy" />
			<input>
				<port id="0" precision="FP32">
					<dim>1</dim>
					<dim>24</dim>
					<dim>1</dim>
					<dim>1</dim>
				</port>
				<port id="1" precision="FP32">
					<dim>1</dim>
					<dim>1</dim>
					<dim>1</dim>
					<dim>1</dim>
				</port>
				<port id="2" precision="FP32">
					<dim>1</dim>
					<dim>1</dim>
					<dim>1</dim>
					<dim>1</dim>
				</port>
				<port id="3" precision="FP32">
					<dim>1</dim>
					<dim>1</dim>
					<dim>1</dim>
					<dim>1</dim>
				</port>
				<port id="4" precision="FP32">
					<dim>1</dim>
					<dim>1</dim>
					<dim>1</dim>
					<dim>1</dim>
				</port>
			</input>
			<output>
				<port id="5" precision="FP32" names="/nncf_module/features/features.1/features.1.1/block/block.1/avgpool/EfficientNet/Sequential[features]/Sequential[1]/MBConv[1]/Sequential[block]/SqueezeExcitation[1]/AdaptiveAvgPool2d[avgpool]/adaptive_avg_pool2d_0|OUTPUT/FakeQuantize_output_0">
					<dim>1</dim>
					<dim>24</dim>
					<dim>1</dim>
					<dim>1</dim>
				</port>
			</output>
		</layer>
		<layer id="121" name="/nncf_module/features/features.1/features.1.1/block/block.1/fc1/pre_ops.0/op/Constant" type="Const" version="opset1">
			<data element_type="i8" shape="6, 24, 1, 1" offset="5544" size="144" />
			<output>
				<port id="0" precision="I8">
					<dim>6</dim>
					<dim>24</dim>
					<dim>1</dim>
					<dim>1</dim>
				</port>
			</output>
		</layer>
		<layer id="122" name="Convert_34604" type="Convert" version="opset1">
			<data destination_type="f32" />
			<input>
				<port id="0" precision="I8">
					<dim>6</dim>
					<dim>24</dim>
					<dim>1</dim>
					<dim>1</dim>
				</port>
			</input>
			<output>
				<port id="1" precision="FP32">
					<dim>6</dim>
					<dim>24</dim>
					<dim>1</dim>
					<dim>1</dim>
				</port>
			</output>
		</layer>
		<layer id="123" name="Constant_34511" type="Const" version="opset1">
			<data element_type="f32" shape="6, 1, 1, 1" offset="5688" size="24" />
			<output>
				<port id="0" precision="FP32">
					<dim>6</dim>
					<dim>1</dim>
					<dim>1</dim>
					<dim>1</dim>
				</port>
			</output>
		</layer>
		<layer id="124" name="/nncf_module/features/features.1/features.1.1/block/block.1/fc1/pre_ops.0/op/FakeQuantize" type="Multiply" version="opset1">
			<data auto_broadcast="numpy" />
			<input>
				<port id="0" precision="FP32">
					<dim>6</dim>
					<dim>24</dim>
					<dim>1</dim>
					<dim>1</dim>
				</port>
				<port id="1" precision="FP32">
					<dim>6</dim>
					<dim>1</dim>
					<dim>1</dim>
					<dim>1</dim>
				</port>
			</input>
			<output>
				<port id="2" precision="FP32" names="/nncf_module/features/features.1/features.1.1/block/block.1/fc1/pre_ops.0/op/FakeQuantize_output_0">
					<dim>6</dim>
					<dim>24</dim>
					<dim>1</dim>
					<dim>1</dim>
				</port>
			</output>
		</layer>
		<layer id="125" name="/nncf_module/features/features.1/features.1.1/block/block.1/fc1/Conv/WithoutBiases" type="Convolution" version="opset1">
			<data strides="1, 1" dilations="1, 1" pads_begin="0, 0" pads_end="0, 0" auto_pad="explicit" />
			<input>
				<port id="0" precision="FP32">
					<dim>1</dim>
					<dim>24</dim>
					<dim>1</dim>
					<dim>1</dim>
				</port>
				<port id="1" precision="FP32">
					<dim>6</dim>
					<dim>24</dim>
					<dim>1</dim>
					<dim>1</dim>
				</port>
			</input>
			<output>
				<port id="2" precision="FP32">
					<dim>1</dim>
					<dim>6</dim>
					<dim>1</dim>
					<dim>1</dim>
				</port>
			</output>
		</layer>
		<layer id="126" name="Reshape_770" type="Const" version="opset1">
			<data element_type="f32" shape="1, 6, 1, 1" offset="5712" size="24" />
			<output>
				<port id="0" precision="FP32">
					<dim>1</dim>
					<dim>6</dim>
					<dim>1</dim>
					<dim>1</dim>
				</port>
			</output>
		</layer>
		<layer id="127" name="/nncf_module/features/features.1/features.1.1/block/block.1/fc1/Conv" type="Add" version="opset1">
			<data auto_broadcast="numpy" />
			<input>
				<port id="0" precision="FP32">
					<dim>1</dim>
					<dim>6</dim>
					<dim>1</dim>
					<dim>1</dim>
				</port>
				<port id="1" precision="FP32">
					<dim>1</dim>
					<dim>6</dim>
					<dim>1</dim>
					<dim>1</dim>
				</port>
			</input>
			<output>
				<port id="2" precision="FP32" names="/nncf_module/features/features.1/features.1.1/block/block.1/fc1/Conv_output_0">
					<dim>1</dim>
					<dim>6</dim>
					<dim>1</dim>
					<dim>1</dim>
				</port>
			</output>
		</layer>
		<layer id="128" name="/nncf_module/features/features.1/features.1.1/block/block.1/activation/Mul" type="Swish" version="opset4">
			<input>
				<port id="0" precision="FP32">
					<dim>1</dim>
					<dim>6</dim>
					<dim>1</dim>
					<dim>1</dim>
				</port>
			</input>
			<output>
				<port id="1" precision="FP32" names="/nncf_module/features/features.1/features.1.1/block/block.1/activation/Mul_output_0">
					<dim>1</dim>
					<dim>6</dim>
					<dim>1</dim>
					<dim>1</dim>
				</port>
			</output>
		</layer>
		<layer id="129" name="Constant_31056" type="Const" version="opset1">
			<data element_type="f32" shape="1, 1, 1, 1" offset="5736" size="4" />
			<output>
				<port id="0" precision="FP32">
					<dim>1</dim>
					<dim>1</dim>
					<dim>1</dim>
					<dim>1</dim>
				</port>
			</output>
		</layer>
		<layer id="130" name="Constant_31057" type="Const" version="opset1">
			<data element_type="f32" shape="1, 1, 1, 1" offset="5740" size="4" />
			<output>
				<port id="0" precision="FP32">
					<dim>1</dim>
					<dim>1</dim>
					<dim>1</dim>
					<dim>1</dim>
				</port>
			</output>
		</layer>
		<layer id="131" name="Constant_31058" type="Const" version="opset1">
			<data element_type="f32" shape="1, 1, 1, 1" offset="5736" size="4" />
			<output>
				<port id="0" precision="FP32">
					<dim>1</dim>
					<dim>1</dim>
					<dim>1</dim>
					<dim>1</dim>
				</port>
			</output>
		</layer>
		<layer id="132" name="Constant_31059" type="Const" version="opset1">
			<data element_type="f32" shape="1, 1, 1, 1" offset="5740" size="4" />
			<output>
				<port id="0" precision="FP32">
					<dim>1</dim>
					<dim>1</dim>
					<dim>1</dim>
					<dim>1</dim>
				</port>
			</output>
		</layer>
		<layer id="133" name="/nncf_module/features/features.1/features.1.1/block/block.1/activation/EfficientNet/Sequential[features]/Sequential[1]/MBConv[1]/Sequential[block]/SqueezeExcitation[1]/SiLU[activation]/silu_0|OUTPUT/FakeQuantize" type="FakeQuantize" version="opset1">
			<data levels="256" auto_broadcast="numpy" />
			<input>
				<port id="0" precision="FP32">
					<dim>1</dim>
					<dim>6</dim>
					<dim>1</dim>
					<dim>1</dim>
				</port>
				<port id="1" precision="FP32">
					<dim>1</dim>
					<dim>1</dim>
					<dim>1</dim>
					<dim>1</dim>
				</port>
				<port id="2" precision="FP32">
					<dim>1</dim>
					<dim>1</dim>
					<dim>1</dim>
					<dim>1</dim>
				</port>
				<port id="3" precision="FP32">
					<dim>1</dim>
					<dim>1</dim>
					<dim>1</dim>
					<dim>1</dim>
				</port>
				<port id="4" precision="FP32">
					<dim>1</dim>
					<dim>1</dim>
					<dim>1</dim>
					<dim>1</dim>
				</port>
			</input>
			<output>
				<port id="5" precision="FP32" names="/nncf_module/features/features.1/features.1.1/block/block.1/activation/EfficientNet/Sequential[features]/Sequential[1]/MBConv[1]/Sequential[block]/SqueezeExcitation[1]/SiLU[activation]/silu_0|OUTPUT/FakeQuantize_output_0">
					<dim>1</dim>
					<dim>6</dim>
					<dim>1</dim>
					<dim>1</dim>
				</port>
			</output>
		</layer>
		<layer id="134" name="/nncf_module/features/features.1/features.1.1/block/block.1/fc2/pre_ops.0/op/Constant" type="Const" version="opset1">
			<data element_type="i8" shape="24, 6, 1, 1" offset="5744" size="144" />
			<output>
				<port id="0" precision="I8">
					<dim>24</dim>
					<dim>6</dim>
					<dim>1</dim>
					<dim>1</dim>
				</port>
			</output>
		</layer>
		<layer id="135" name="Convert_34725" type="Convert" version="opset1">
			<data destination_type="f32" />
			<input>
				<port id="0" precision="I8">
					<dim>24</dim>
					<dim>6</dim>
					<dim>1</dim>
					<dim>1</dim>
				</port>
			</input>
			<output>
				<port id="1" precision="FP32">
					<dim>24</dim>
					<dim>6</dim>
					<dim>1</dim>
					<dim>1</dim>
				</port>
			</output>
		</layer>
		<layer id="136" name="Constant_34662" type="Const" version="opset1">
			<data element_type="f32" shape="24, 1, 1, 1" offset="5888" size="96" />
			<output>
				<port id="0" precision="FP32">
					<dim>24</dim>
					<dim>1</dim>
					<dim>1</dim>
					<dim>1</dim>
				</port>
			</output>
		</layer>
		<layer id="137" name="/nncf_module/features/features.1/features.1.1/block/block.1/fc2/pre_ops.0/op/FakeQuantize" type="Multiply" version="opset1">
			<data auto_broadcast="numpy" />
			<input>
				<port id="0" precision="FP32">
					<dim>24</dim>
					<dim>6</dim>
					<dim>1</dim>
					<dim>1</dim>
				</port>
				<port id="1" precision="FP32">
					<dim>24</dim>
					<dim>1</dim>
					<dim>1</dim>
					<dim>1</dim>
				</port>
			</input>
			<output>
				<port id="2" precision="FP32" names="/nncf_module/features/features.1/features.1.1/block/block.1/fc2/pre_ops.0/op/FakeQuantize_output_0">
					<dim>24</dim>
					<dim>6</dim>
					<dim>1</dim>
					<dim>1</dim>
				</port>
			</output>
		</layer>
		<layer id="138" name="/nncf_module/features/features.1/features.1.1/block/block.1/fc2/Conv/WithoutBiases" type="Convolution" version="opset1">
			<data strides="1, 1" dilations="1, 1" pads_begin="0, 0" pads_end="0, 0" auto_pad="explicit" />
			<input>
				<port id="0" precision="FP32">
					<dim>1</dim>
					<dim>6</dim>
					<dim>1</dim>
					<dim>1</dim>
				</port>
				<port id="1" precision="FP32">
					<dim>24</dim>
					<dim>6</dim>
					<dim>1</dim>
					<dim>1</dim>
				</port>
			</input>
			<output>
				<port id="2" precision="FP32">
					<dim>1</dim>
					<dim>24</dim>
					<dim>1</dim>
					<dim>1</dim>
				</port>
			</output>
		</layer>
		<layer id="139" name="Reshape_827" type="Const" version="opset1">
			<data element_type="f32" shape="1, 24, 1, 1" offset="5984" size="96" />
			<output>
				<port id="0" precision="FP32">
					<dim>1</dim>
					<dim>24</dim>
					<dim>1</dim>
					<dim>1</dim>
				</port>
			</output>
		</layer>
		<layer id="140" name="/nncf_module/features/features.1/features.1.1/block/block.1/fc2/Conv" type="Add" version="opset1">
			<data auto_broadcast="numpy" />
			<input>
				<port id="0" precision="FP32">
					<dim>1</dim>
					<dim>24</dim>
					<dim>1</dim>
					<dim>1</dim>
				</port>
				<port id="1" precision="FP32">
					<dim>1</dim>
					<dim>24</dim>
					<dim>1</dim>
					<dim>1</dim>
				</port>
			</input>
			<output>
				<port id="2" precision="FP32" names="/nncf_module/features/features.1/features.1.1/block/block.1/fc2/Conv_output_0">
					<dim>1</dim>
					<dim>24</dim>
					<dim>1</dim>
					<dim>1</dim>
				</port>
			</output>
		</layer>
		<layer id="141" name="/nncf_module/features/features.1/features.1.1/block/block.1/scale_activation/Sigmoid" type="Sigmoid" version="opset1">
			<input>
				<port id="0" precision="FP32">
					<dim>1</dim>
					<dim>24</dim>
					<dim>1</dim>
					<dim>1</dim>
				</port>
			</input>
			<output>
				<port id="1" precision="FP32" names="/nncf_module/features/features.1/features.1.1/block/block.1/scale_activation/Sigmoid_output_0">
					<dim>1</dim>
					<dim>24</dim>
					<dim>1</dim>
					<dim>1</dim>
				</port>
			</output>
		</layer>
		<layer id="142" name="Constant_31060" type="Const" version="opset1">
			<data element_type="f32" shape="1, 1, 1, 1" offset="3840" size="4" />
			<output>
				<port id="0" precision="FP32">
					<dim>1</dim>
					<dim>1</dim>
					<dim>1</dim>
					<dim>1</dim>
				</port>
			</output>
		</layer>
		<layer id="143" name="Constant_31061" type="Const" version="opset1">
			<data element_type="f32" shape="1, 1, 1, 1" offset="6080" size="4" />
			<output>
				<port id="0" precision="FP32">
					<dim>1</dim>
					<dim>1</dim>
					<dim>1</dim>
					<dim>1</dim>
				</port>
			</output>
		</layer>
		<layer id="144" name="Constant_31062" type="Const" version="opset1">
			<data element_type="f32" shape="1, 1, 1, 1" offset="3840" size="4" />
			<output>
				<port id="0" precision="FP32">
					<dim>1</dim>
					<dim>1</dim>
					<dim>1</dim>
					<dim>1</dim>
				</port>
			</output>
		</layer>
		<layer id="145" name="Constant_31063" type="Const" version="opset1">
			<data element_type="f32" shape="1, 1, 1, 1" offset="6080" size="4" />
			<output>
				<port id="0" precision="FP32">
					<dim>1</dim>
					<dim>1</dim>
					<dim>1</dim>
					<dim>1</dim>
				</port>
			</output>
		</layer>
		<layer id="146" name="/nncf_module/features/features.1/features.1.1/block/block.1/scale_activation/EfficientNet/Sequential[features]/Sequential[1]/MBConv[1]/Sequential[block]/SqueezeExcitation[1]/Sigmoid[scale_activation]/sigmoid_0|OUTPUT/FakeQuantize" type="FakeQuantize" version="opset1">
			<data levels="256" auto_broadcast="numpy" />
			<input>
				<port id="0" precision="FP32">
					<dim>1</dim>
					<dim>24</dim>
					<dim>1</dim>
					<dim>1</dim>
				</port>
				<port id="1" precision="FP32">
					<dim>1</dim>
					<dim>1</dim>
					<dim>1</dim>
					<dim>1</dim>
				</port>
				<port id="2" precision="FP32">
					<dim>1</dim>
					<dim>1</dim>
					<dim>1</dim>
					<dim>1</dim>
				</port>
				<port id="3" precision="FP32">
					<dim>1</dim>
					<dim>1</dim>
					<dim>1</dim>
					<dim>1</dim>
				</port>
				<port id="4" precision="FP32">
					<dim>1</dim>
					<dim>1</dim>
					<dim>1</dim>
					<dim>1</dim>
				</port>
			</input>
			<output>
				<port id="5" precision="FP32" names="/nncf_module/features/features.1/features.1.1/block/block.1/scale_activation/EfficientNet/Sequential[features]/Sequential[1]/MBConv[1]/Sequential[block]/SqueezeExcitation[1]/Sigmoid[scale_activation]/sigmoid_0|OUTPUT/FakeQuantize_output_0">
					<dim>1</dim>
					<dim>24</dim>
					<dim>1</dim>
					<dim>1</dim>
				</port>
			</output>
		</layer>
		<layer id="147" name="/nncf_module/features/features.1/features.1.1/block/block.1/Mul" type="Multiply" version="opset1">
			<data auto_broadcast="numpy" />
			<input>
				<port id="0" precision="FP32">
					<dim>1</dim>
					<dim>24</dim>
					<dim>1</dim>
					<dim>1</dim>
				</port>
				<port id="1" precision="FP32">
					<dim>1</dim>
					<dim>24</dim>
					<dim>112</dim>
					<dim>112</dim>
				</port>
			</input>
			<output>
				<port id="2" precision="FP32" names="/nncf_module/features/features.1/features.1.1/block/block.1/Mul_output_0">
					<dim>1</dim>
					<dim>24</dim>
					<dim>112</dim>
					<dim>112</dim>
				</port>
			</output>
		</layer>
		<layer id="148" name="Constant_31064" type="Const" version="opset1">
			<data element_type="f32" shape="1, 1, 1, 1" offset="6084" size="4" />
			<output>
				<port id="0" precision="FP32">
					<dim>1</dim>
					<dim>1</dim>
					<dim>1</dim>
					<dim>1</dim>
				</port>
			</output>
		</layer>
		<layer id="149" name="Constant_31065" type="Const" version="opset1">
			<data element_type="f32" shape="1, 1, 1, 1" offset="6088" size="4" />
			<output>
				<port id="0" precision="FP32">
					<dim>1</dim>
					<dim>1</dim>
					<dim>1</dim>
					<dim>1</dim>
				</port>
			</output>
		</layer>
		<layer id="150" name="Constant_31066" type="Const" version="opset1">
			<data element_type="f32" shape="1, 1, 1, 1" offset="6084" size="4" />
			<output>
				<port id="0" precision="FP32">
					<dim>1</dim>
					<dim>1</dim>
					<dim>1</dim>
					<dim>1</dim>
				</port>
			</output>
		</layer>
		<layer id="151" name="Constant_31067" type="Const" version="opset1">
			<data element_type="f32" shape="1, 1, 1, 1" offset="6088" size="4" />
			<output>
				<port id="0" precision="FP32">
					<dim>1</dim>
					<dim>1</dim>
					<dim>1</dim>
					<dim>1</dim>
				</port>
			</output>
		</layer>
		<layer id="152" name="/nncf_module/features/features.1/features.1.1/block/block.1/EfficientNet/Sequential[features]/Sequential[1]/MBConv[1]/Sequential[block]/SqueezeExcitation[1]/__mul___0|OUTPUT/FakeQuantize" type="FakeQuantize" version="opset1">
			<data levels="256" auto_broadcast="numpy" />
			<input>
				<port id="0" precision="FP32">
					<dim>1</dim>
					<dim>24</dim>
					<dim>112</dim>
					<dim>112</dim>
				</port>
				<port id="1" precision="FP32">
					<dim>1</dim>
					<dim>1</dim>
					<dim>1</dim>
					<dim>1</dim>
				</port>
				<port id="2" precision="FP32">
					<dim>1</dim>
					<dim>1</dim>
					<dim>1</dim>
					<dim>1</dim>
				</port>
				<port id="3" precision="FP32">
					<dim>1</dim>
					<dim>1</dim>
					<dim>1</dim>
					<dim>1</dim>
				</port>
				<port id="4" precision="FP32">
					<dim>1</dim>
					<dim>1</dim>
					<dim>1</dim>
					<dim>1</dim>
				</port>
			</input>
			<output>
				<port id="5" precision="FP32" names="/nncf_module/features/features.1/features.1.1/block/block.1/EfficientNet/Sequential[features]/Sequential[1]/MBConv[1]/Sequential[block]/SqueezeExcitation[1]/__mul___0|OUTPUT/FakeQuantize_output_0">
					<dim>1</dim>
					<dim>24</dim>
					<dim>112</dim>
					<dim>112</dim>
				</port>
			</output>
		</layer>
		<layer id="153" name="/nncf_module/features/features.1/features.1.1/block/block.2/block.2.0/pre_ops.0/op/Constant" type="Const" version="opset1">
			<data element_type="i8" shape="24, 24, 1, 1" offset="6092" size="576" />
			<output>
				<port id="0" precision="I8">
					<dim>24</dim>
					<dim>24</dim>
					<dim>1</dim>
					<dim>1</dim>
				</port>
			</output>
		</layer>
		<layer id="154" name="Convert_34846" type="Convert" version="opset1">
			<data destination_type="f32" />
			<input>
				<port id="0" precision="I8">
					<dim>24</dim>
					<dim>24</dim>
					<dim>1</dim>
					<dim>1</dim>
				</port>
			</input>
			<output>
				<port id="1" precision="FP32">
					<dim>24</dim>
					<dim>24</dim>
					<dim>1</dim>
					<dim>1</dim>
				</port>
			</output>
		</layer>
		<layer id="155" name="Constant_34783" type="Const" version="opset1">
			<data element_type="f32" shape="24, 1, 1, 1" offset="6668" size="96" />
			<output>
				<port id="0" precision="FP32">
					<dim>24</dim>
					<dim>1</dim>
					<dim>1</dim>
					<dim>1</dim>
				</port>
			</output>
		</layer>
		<layer id="156" name="Multiply_29594" type="Multiply" version="opset1">
			<data auto_broadcast="numpy" />
			<input>
				<port id="0" precision="FP32">
					<dim>24</dim>
					<dim>24</dim>
					<dim>1</dim>
					<dim>1</dim>
				</port>
				<port id="1" precision="FP32">
					<dim>24</dim>
					<dim>1</dim>
					<dim>1</dim>
					<dim>1</dim>
				</port>
			</input>
			<output>
				<port id="2" precision="FP32">
					<dim>24</dim>
					<dim>24</dim>
					<dim>1</dim>
					<dim>1</dim>
				</port>
			</output>
		</layer>
		<layer id="157" name="Multiply_29035" type="Convolution" version="opset1">
			<data strides="1, 1" dilations="1, 1" pads_begin="0, 0" pads_end="0, 0" auto_pad="explicit" />
			<input>
				<port id="0" precision="FP32">
					<dim>1</dim>
					<dim>24</dim>
					<dim>112</dim>
					<dim>112</dim>
				</port>
				<port id="1" precision="FP32">
					<dim>24</dim>
					<dim>24</dim>
					<dim>1</dim>
					<dim>1</dim>
				</port>
			</input>
			<output>
				<port id="2" precision="FP32">
					<dim>1</dim>
					<dim>24</dim>
					<dim>112</dim>
					<dim>112</dim>
				</port>
			</output>
		</layer>
		<layer id="158" name="Constant_29040" type="Const" version="opset1">
			<data element_type="f32" shape="1, 24, 1, 1" offset="6764" size="96" />
			<output>
				<port id="0" precision="FP32">
					<dim>1</dim>
					<dim>24</dim>
					<dim>1</dim>
					<dim>1</dim>
				</port>
			</output>
		</layer>
		<layer id="159" name="/nncf_module/features/features.1/features.1.1/block/block.2/block.2.1/BatchNormalization" type="Add" version="opset1">
			<data auto_broadcast="numpy" />
			<input>
				<port id="0" precision="FP32">
					<dim>1</dim>
					<dim>24</dim>
					<dim>112</dim>
					<dim>112</dim>
				</port>
				<port id="1" precision="FP32">
					<dim>1</dim>
					<dim>24</dim>
					<dim>1</dim>
					<dim>1</dim>
				</port>
			</input>
			<output>
				<port id="2" precision="FP32" names="/nncf_module/features/features.1/features.1.1/block/block.2/block.2.1/BatchNormalization_output_0">
					<dim>1</dim>
					<dim>24</dim>
					<dim>112</dim>
					<dim>112</dim>
				</port>
			</output>
		</layer>
		<layer id="160" name="Constant_31068" type="Const" version="opset1">
			<data element_type="f32" shape="1, 1, 1, 1" offset="6860" size="4" />
			<output>
				<port id="0" precision="FP32">
					<dim>1</dim>
					<dim>1</dim>
					<dim>1</dim>
					<dim>1</dim>
				</port>
			</output>
		</layer>
		<layer id="161" name="Constant_31069" type="Const" version="opset1">
			<data element_type="f32" shape="1, 1, 1, 1" offset="6864" size="4" />
			<output>
				<port id="0" precision="FP32">
					<dim>1</dim>
					<dim>1</dim>
					<dim>1</dim>
					<dim>1</dim>
				</port>
			</output>
		</layer>
		<layer id="162" name="Constant_31070" type="Const" version="opset1">
			<data element_type="f32" shape="1, 1, 1, 1" offset="6860" size="4" />
			<output>
				<port id="0" precision="FP32">
					<dim>1</dim>
					<dim>1</dim>
					<dim>1</dim>
					<dim>1</dim>
				</port>
			</output>
		</layer>
		<layer id="163" name="Constant_31071" type="Const" version="opset1">
			<data element_type="f32" shape="1, 1, 1, 1" offset="6864" size="4" />
			<output>
				<port id="0" precision="FP32">
					<dim>1</dim>
					<dim>1</dim>
					<dim>1</dim>
					<dim>1</dim>
				</port>
			</output>
		</layer>
		<layer id="164" name="/nncf_module/features/features.1/features.1.1/block/block.2/block.2.1/EfficientNet/Sequential[features]/Sequential[1]/MBConv[1]/Sequential[block]/Conv2dNormActivation[2]/NNCFBatchNorm2d[1]/batch_norm_0|OUTPUT/FakeQuantize" type="FakeQuantize" version="opset1">
			<data levels="256" auto_broadcast="numpy" />
			<input>
				<port id="0" precision="FP32">
					<dim>1</dim>
					<dim>24</dim>
					<dim>112</dim>
					<dim>112</dim>
				</port>
				<port id="1" precision="FP32">
					<dim>1</dim>
					<dim>1</dim>
					<dim>1</dim>
					<dim>1</dim>
				</port>
				<port id="2" precision="FP32">
					<dim>1</dim>
					<dim>1</dim>
					<dim>1</dim>
					<dim>1</dim>
				</port>
				<port id="3" precision="FP32">
					<dim>1</dim>
					<dim>1</dim>
					<dim>1</dim>
					<dim>1</dim>
				</port>
				<port id="4" precision="FP32">
					<dim>1</dim>
					<dim>1</dim>
					<dim>1</dim>
					<dim>1</dim>
				</port>
			</input>
			<output>
				<port id="5" precision="FP32" names="/nncf_module/features/features.1/features.1.1/block/block.2/block.2.1/EfficientNet/Sequential[features]/Sequential[1]/MBConv[1]/Sequential[block]/Conv2dNormActivation[2]/NNCFBatchNorm2d[1]/batch_norm_0|OUTPUT/FakeQuantize_output_0">
					<dim>1</dim>
					<dim>24</dim>
					<dim>112</dim>
					<dim>112</dim>
				</port>
			</output>
		</layer>
		<layer id="165" name="/nncf_module/features/features.1/features.1.1/Add" type="Add" version="opset1">
			<data auto_broadcast="numpy" />
			<input>
				<port id="0" precision="FP32">
					<dim>1</dim>
					<dim>24</dim>
					<dim>112</dim>
					<dim>112</dim>
				</port>
				<port id="1" precision="FP32">
					<dim>1</dim>
					<dim>24</dim>
					<dim>112</dim>
					<dim>112</dim>
				</port>
			</input>
			<output>
				<port id="2" precision="FP32" names="/nncf_module/features/features.1/features.1.1/Add_output_0">
					<dim>1</dim>
					<dim>24</dim>
					<dim>112</dim>
					<dim>112</dim>
				</port>
			</output>
		</layer>
		<layer id="166" name="Constant_31072" type="Const" version="opset1">
			<data element_type="f32" shape="1, 1, 1, 1" offset="6868" size="4" />
			<output>
				<port id="0" precision="FP32">
					<dim>1</dim>
					<dim>1</dim>
					<dim>1</dim>
					<dim>1</dim>
				</port>
			</output>
		</layer>
		<layer id="167" name="Constant_31073" type="Const" version="opset1">
			<data element_type="f32" shape="1, 1, 1, 1" offset="6872" size="4" />
			<output>
				<port id="0" precision="FP32">
					<dim>1</dim>
					<dim>1</dim>
					<dim>1</dim>
					<dim>1</dim>
				</port>
			</output>
		</layer>
		<layer id="168" name="Constant_31074" type="Const" version="opset1">
			<data element_type="f32" shape="1, 1, 1, 1" offset="6868" size="4" />
			<output>
				<port id="0" precision="FP32">
					<dim>1</dim>
					<dim>1</dim>
					<dim>1</dim>
					<dim>1</dim>
				</port>
			</output>
		</layer>
		<layer id="169" name="Constant_31075" type="Const" version="opset1">
			<data element_type="f32" shape="1, 1, 1, 1" offset="6872" size="4" />
			<output>
				<port id="0" precision="FP32">
					<dim>1</dim>
					<dim>1</dim>
					<dim>1</dim>
					<dim>1</dim>
				</port>
			</output>
		</layer>
		<layer id="170" name="/nncf_module/features/features.1/features.1.1/EfficientNet/Sequential[features]/Sequential[1]/MBConv[1]/__iadd___0|OUTPUT/FakeQuantize" type="FakeQuantize" version="opset1">
			<data levels="256" auto_broadcast="numpy" />
			<input>
				<port id="0" precision="FP32">
					<dim>1</dim>
					<dim>24</dim>
					<dim>112</dim>
					<dim>112</dim>
				</port>
				<port id="1" precision="FP32">
					<dim>1</dim>
					<dim>1</dim>
					<dim>1</dim>
					<dim>1</dim>
				</port>
				<port id="2" precision="FP32">
					<dim>1</dim>
					<dim>1</dim>
					<dim>1</dim>
					<dim>1</dim>
				</port>
				<port id="3" precision="FP32">
					<dim>1</dim>
					<dim>1</dim>
					<dim>1</dim>
					<dim>1</dim>
				</port>
				<port id="4" precision="FP32">
					<dim>1</dim>
					<dim>1</dim>
					<dim>1</dim>
					<dim>1</dim>
				</port>
			</input>
			<output>
				<port id="5" precision="FP32" names="/nncf_module/features/features.1/features.1.1/EfficientNet/Sequential[features]/Sequential[1]/MBConv[1]/__iadd___0|OUTPUT/FakeQuantize_output_0">
					<dim>1</dim>
					<dim>24</dim>
					<dim>112</dim>
					<dim>112</dim>
				</port>
			</output>
		</layer>
		<layer id="171" name="/nncf_module/features/features.2/features.2.0/block/block.0/block.0.0/pre_ops.0/op/Constant" type="Const" version="opset1">
			<data element_type="i8" shape="144, 24, 1, 1" offset="6876" size="3456" />
			<output>
				<port id="0" precision="I8">
					<dim>144</dim>
					<dim>24</dim>
					<dim>1</dim>
					<dim>1</dim>
				</port>
			</output>
		</layer>
		<layer id="172" name="Convert_34967" type="Convert" version="opset1">
			<data destination_type="f32" />
			<input>
				<port id="0" precision="I8">
					<dim>144</dim>
					<dim>24</dim>
					<dim>1</dim>
					<dim>1</dim>
				</port>
			</input>
			<output>
				<port id="1" precision="FP32">
					<dim>144</dim>
					<dim>24</dim>
					<dim>1</dim>
					<dim>1</dim>
				</port>
			</output>
		</layer>
		<layer id="173" name="Constant_34904" type="Const" version="opset1">
			<data element_type="f32" shape="144, 1, 1, 1" offset="10332" size="576" />
			<output>
				<port id="0" precision="FP32">
					<dim>144</dim>
					<dim>1</dim>
					<dim>1</dim>
					<dim>1</dim>
				</port>
			</output>
		</layer>
		<layer id="174" name="Multiply_29603" type="Multiply" version="opset1">
			<data auto_broadcast="numpy" />
			<input>
				<port id="0" precision="FP32">
					<dim>144</dim>
					<dim>24</dim>
					<dim>1</dim>
					<dim>1</dim>
				</port>
				<port id="1" precision="FP32">
					<dim>144</dim>
					<dim>1</dim>
					<dim>1</dim>
					<dim>1</dim>
				</port>
			</input>
			<output>
				<port id="2" precision="FP32">
					<dim>144</dim>
					<dim>24</dim>
					<dim>1</dim>
					<dim>1</dim>
				</port>
			</output>
		</layer>
		<layer id="175" name="Multiply_29042" type="Convolution" version="opset1">
			<data strides="1, 1" dilations="1, 1" pads_begin="0, 0" pads_end="0, 0" auto_pad="explicit" />
			<input>
				<port id="0" precision="FP32">
					<dim>1</dim>
					<dim>24</dim>
					<dim>112</dim>
					<dim>112</dim>
				</port>
				<port id="1" precision="FP32">
					<dim>144</dim>
					<dim>24</dim>
					<dim>1</dim>
					<dim>1</dim>
				</port>
			</input>
			<output>
				<port id="2" precision="FP32">
					<dim>1</dim>
					<dim>144</dim>
					<dim>112</dim>
					<dim>112</dim>
				</port>
			</output>
		</layer>
		<layer id="176" name="Constant_29047" type="Const" version="opset1">
			<data element_type="f32" shape="1, 144, 1, 1" offset="10908" size="576" />
			<output>
				<port id="0" precision="FP32">
					<dim>1</dim>
					<dim>144</dim>
					<dim>1</dim>
					<dim>1</dim>
				</port>
			</output>
		</layer>
		<layer id="177" name="/nncf_module/features/features.2/features.2.0/block/block.0/block.0.1/BatchNormalization" type="Add" version="opset1">
			<data auto_broadcast="numpy" />
			<input>
				<port id="0" precision="FP32">
					<dim>1</dim>
					<dim>144</dim>
					<dim>112</dim>
					<dim>112</dim>
				</port>
				<port id="1" precision="FP32">
					<dim>1</dim>
					<dim>144</dim>
					<dim>1</dim>
					<dim>1</dim>
				</port>
			</input>
			<output>
				<port id="2" precision="FP32" names="/nncf_module/features/features.2/features.2.0/block/block.0/block.0.1/BatchNormalization_output_0">
					<dim>1</dim>
					<dim>144</dim>
					<dim>112</dim>
					<dim>112</dim>
				</port>
			</output>
		</layer>
		<layer id="178" name="/nncf_module/features/features.2/features.2.0/block/block.0/block.0.2/Mul" type="Swish" version="opset4">
			<input>
				<port id="0" precision="FP32">
					<dim>1</dim>
					<dim>144</dim>
					<dim>112</dim>
					<dim>112</dim>
				</port>
			</input>
			<output>
				<port id="1" precision="FP32" names="/nncf_module/features/features.2/features.2.0/block/block.0/block.0.2/Mul_output_0">
					<dim>1</dim>
					<dim>144</dim>
					<dim>112</dim>
					<dim>112</dim>
				</port>
			</output>
		</layer>
		<layer id="179" name="/nncf_module/features/features.2/features.2.0/block/block.0/block.0.2/EfficientNet/Sequential[features]/Sequential[2]/MBConv[0]/Sequential[block]/Conv2dNormActivation[0]/SiLU[2]/silu_0|OUTPUT/Constant" type="Const" version="opset1">
			<data element_type="f32" shape="1, 144, 1, 1" offset="11484" size="576" />
			<output>
				<port id="0" precision="FP32" names="/nncf_module/features/features.2/features.2.0/block/block.0/block.0.2/EfficientNet/Sequential[features]/Sequential[2]/MBConv[0]/Sequential[block]/Conv2dNormActivation[0]/SiLU[2]/silu_0|OUTPUT/Constant_output_0">
					<dim>1</dim>
					<dim>144</dim>
					<dim>1</dim>
					<dim>1</dim>
				</port>
			</output>
		</layer>
		<layer id="180" name="/nncf_module/features/features.2/features.2.0/block/block.0/block.0.2/EfficientNet/Sequential[features]/Sequential[2]/MBConv[0]/Sequential[block]/Conv2dNormActivation[0]/SiLU[2]/silu_0|OUTPUT/Constant_1" type="Const" version="opset1">
			<data element_type="f32" shape="1, 144, 1, 1" offset="12060" size="576" />
			<output>
				<port id="0" precision="FP32" names="/nncf_module/features/features.2/features.2.0/block/block.0/block.0.2/EfficientNet/Sequential[features]/Sequential[2]/MBConv[0]/Sequential[block]/Conv2dNormActivation[0]/SiLU[2]/silu_0|OUTPUT/Constant_1_output_0">
					<dim>1</dim>
					<dim>144</dim>
					<dim>1</dim>
					<dim>1</dim>
				</port>
			</output>
		</layer>
		<layer id="181" name="/nncf_module/features/features.2/features.2.0/block/block.0/block.0.2/EfficientNet/Sequential[features]/Sequential[2]/MBConv[0]/Sequential[block]/Conv2dNormActivation[0]/SiLU[2]/silu_0|OUTPUT/FakeQuantize" type="FakeQuantize" version="opset1">
			<data levels="256" auto_broadcast="numpy" />
			<input>
				<port id="0" precision="FP32">
					<dim>1</dim>
					<dim>144</dim>
					<dim>112</dim>
					<dim>112</dim>
				</port>
				<port id="1" precision="FP32">
					<dim>1</dim>
					<dim>144</dim>
					<dim>1</dim>
					<dim>1</dim>
				</port>
				<port id="2" precision="FP32">
					<dim>1</dim>
					<dim>144</dim>
					<dim>1</dim>
					<dim>1</dim>
				</port>
				<port id="3" precision="FP32">
					<dim>1</dim>
					<dim>144</dim>
					<dim>1</dim>
					<dim>1</dim>
				</port>
				<port id="4" precision="FP32">
					<dim>1</dim>
					<dim>144</dim>
					<dim>1</dim>
					<dim>1</dim>
				</port>
			</input>
			<output>
				<port id="5" precision="FP32" names="/nncf_module/features/features.2/features.2.0/block/block.0/block.0.2/EfficientNet/Sequential[features]/Sequential[2]/MBConv[0]/Sequential[block]/Conv2dNormActivation[0]/SiLU[2]/silu_0|OUTPUT/FakeQuantize_output_0">
					<dim>1</dim>
					<dim>144</dim>
					<dim>112</dim>
					<dim>112</dim>
				</port>
			</output>
		</layer>
		<layer id="182" name="/nncf_module/features/features.2/features.2.0/block/block.1/block.1.0/pre_ops.0/op/Constant" type="Const" version="opset1">
			<data element_type="i8" shape="144, 1, 3, 3" offset="12636" size="1296" />
			<output>
				<port id="0" precision="I8">
					<dim>144</dim>
					<dim>1</dim>
					<dim>3</dim>
					<dim>3</dim>
				</port>
			</output>
		</layer>
		<layer id="183" name="Convert_35088" type="Convert" version="opset1">
			<data destination_type="f32" />
			<input>
				<port id="0" precision="I8">
					<dim>144</dim>
					<dim>1</dim>
					<dim>3</dim>
					<dim>3</dim>
				</port>
			</input>
			<output>
				<port id="1" precision="FP32">
					<dim>144</dim>
					<dim>1</dim>
					<dim>3</dim>
					<dim>3</dim>
				</port>
			</output>
		</layer>
		<layer id="184" name="Constant_35025" type="Const" version="opset1">
			<data element_type="f32" shape="144, 1, 1, 1" offset="13932" size="576" />
			<output>
				<port id="0" precision="FP32">
					<dim>144</dim>
					<dim>1</dim>
					<dim>1</dim>
					<dim>1</dim>
				</port>
			</output>
		</layer>
		<layer id="185" name="/nncf_module/features/features.2/features.2.0/block/block.1/block.1.0/pre_ops.0/op/FakeQuantize" type="Multiply" version="opset1">
			<data auto_broadcast="numpy" />
			<input>
				<port id="0" precision="FP32">
					<dim>144</dim>
					<dim>1</dim>
					<dim>3</dim>
					<dim>3</dim>
				</port>
				<port id="1" precision="FP32">
					<dim>144</dim>
					<dim>1</dim>
					<dim>1</dim>
					<dim>1</dim>
				</port>
			</input>
			<output>
				<port id="2" precision="FP32" names="/nncf_module/features/features.2/features.2.0/block/block.1/block.1.0/pre_ops.0/op/FakeQuantize_output_0">
					<dim>144</dim>
					<dim>1</dim>
					<dim>3</dim>
					<dim>3</dim>
				</port>
			</output>
		</layer>
		<layer id="186" name="Reshape_29606" type="Const" version="opset1">
			<data element_type="f32" shape="144, 1, 1, 1" offset="14508" size="576" />
			<output>
				<port id="0" precision="FP32">
					<dim>144</dim>
					<dim>1</dim>
					<dim>1</dim>
					<dim>1</dim>
				</port>
			</output>
		</layer>
		<layer id="187" name="Multiply_29612" type="Multiply" version="opset1">
			<data auto_broadcast="numpy" />
			<input>
				<port id="0" precision="FP32">
					<dim>144</dim>
					<dim>1</dim>
					<dim>3</dim>
					<dim>3</dim>
				</port>
				<port id="1" precision="FP32">
					<dim>144</dim>
					<dim>1</dim>
					<dim>1</dim>
					<dim>1</dim>
				</port>
			</input>
			<output>
				<port id="2" precision="FP32">
					<dim>144</dim>
					<dim>1</dim>
					<dim>3</dim>
					<dim>3</dim>
				</port>
			</output>
		</layer>
		<layer id="188" name="Constant_895" type="Const" version="opset1">
			<data element_type="i64" shape="1" offset="15084" size="8" />
			<output>
				<port id="0" precision="I64">
					<dim>1</dim>
				</port>
			</output>
		</layer>
		<layer id="189" name="ShapeOf_896" type="ShapeOf" version="opset3">
			<data output_type="i64" />
			<input>
				<port id="0" precision="FP32">
					<dim>144</dim>
					<dim>1</dim>
					<dim>3</dim>
					<dim>3</dim>
				</port>
			</input>
			<output>
				<port id="1" precision="I64">
					<dim>4</dim>
				</port>
			</output>
		</layer>
		<layer id="190" name="Constant_893" type="Const" version="opset1">
			<data element_type="i64" shape="" offset="2416" size="8" />
			<output>
				<port id="0" precision="I64" />
			</output>
		</layer>
		<layer id="191" name="Constant_894" type="Const" version="opset1">
			<data element_type="i64" shape="2" offset="2424" size="16" />
			<output>
				<port id="0" precision="I64">
					<dim>2</dim>
				</port>
			</output>
		</layer>
		<layer id="192" name="VariadicSplit_897" type="VariadicSplit" version="opset1">
			<input>
				<port id="0" precision="I64">
					<dim>4</dim>
				</port>
				<port id="1" precision="I64" />
				<port id="2" precision="I64">
					<dim>2</dim>
				</port>
			</input>
			<output>
				<port id="3" precision="I64">
					<dim>1</dim>
				</port>
				<port id="4" precision="I64">
					<dim>3</dim>
				</port>
			</output>
		</layer>
		<layer id="193" name="Divide_898" type="Divide" version="opset1">
			<data auto_broadcast="numpy" m_pythondiv="true" />
			<input>
				<port id="0" precision="I64">
					<dim>1</dim>
				</port>
				<port id="1" precision="I64">
					<dim>1</dim>
				</port>
			</input>
			<output>
				<port id="2" precision="I64">
					<dim>1</dim>
				</port>
			</output>
		</layer>
		<layer id="194" name="Concat_899" type="Concat" version="opset1">
			<data axis="0" />
			<input>
				<port id="0" precision="I64">
					<dim>1</dim>
				</port>
				<port id="1" precision="I64">
					<dim>1</dim>
				</port>
				<port id="2" precision="I64">
					<dim>3</dim>
				</port>
			</input>
			<output>
				<port id="3" precision="I64">
					<dim>5</dim>
				</port>
			</output>
		</layer>
		<layer id="195" name="Reshape_900" type="Reshape" version="opset1">
			<data special_zero="false" />
			<input>
				<port id="0" precision="FP32">
					<dim>144</dim>
					<dim>1</dim>
					<dim>3</dim>
					<dim>3</dim>
				</port>
				<port id="1" precision="I64">
					<dim>5</dim>
				</port>
			</input>
			<output>
				<port id="2" precision="FP32">
					<dim>144</dim>
					<dim>1</dim>
					<dim>1</dim>
					<dim>3</dim>
					<dim>3</dim>
				</port>
			</output>
		</layer>
		<layer id="196" name="Multiply_29049" type="GroupConvolution" version="opset1">
			<data strides="2, 2" pads_begin="1, 1" pads_end="1, 1" dilations="1, 1" auto_pad="explicit" />
			<input>
				<port id="0" precision="FP32">
					<dim>1</dim>
					<dim>144</dim>
					<dim>112</dim>
					<dim>112</dim>
				</port>
				<port id="1" precision="FP32">
					<dim>144</dim>
					<dim>1</dim>
					<dim>1</dim>
					<dim>3</dim>
					<dim>3</dim>
				</port>
			</input>
			<output>
				<port id="2" precision="FP32" names="/nncf_module/features/features.2/features.2.0/block/block.1/block.1.0/Conv_output_0">
					<dim>1</dim>
					<dim>144</dim>
					<dim>56</dim>
					<dim>56</dim>
				</port>
			</output>
		</layer>
		<layer id="197" name="Constant_29054" type="Const" version="opset1">
			<data element_type="f32" shape="1, 144, 1, 1" offset="15092" size="576" />
			<output>
				<port id="0" precision="FP32">
					<dim>1</dim>
					<dim>144</dim>
					<dim>1</dim>
					<dim>1</dim>
				</port>
			</output>
		</layer>
		<layer id="198" name="/nncf_module/features/features.2/features.2.0/block/block.1/block.1.1/BatchNormalization" type="Add" version="opset1">
			<data auto_broadcast="numpy" />
			<input>
				<port id="0" precision="FP32">
					<dim>1</dim>
					<dim>144</dim>
					<dim>56</dim>
					<dim>56</dim>
				</port>
				<port id="1" precision="FP32">
					<dim>1</dim>
					<dim>144</dim>
					<dim>1</dim>
					<dim>1</dim>
				</port>
			</input>
			<output>
				<port id="2" precision="FP32" names="/nncf_module/features/features.2/features.2.0/block/block.1/block.1.1/BatchNormalization_output_0">
					<dim>1</dim>
					<dim>144</dim>
					<dim>56</dim>
					<dim>56</dim>
				</port>
			</output>
		</layer>
		<layer id="199" name="/nncf_module/features/features.2/features.2.0/block/block.1/block.1.2/Mul" type="Swish" version="opset4">
			<input>
				<port id="0" precision="FP32">
					<dim>1</dim>
					<dim>144</dim>
					<dim>56</dim>
					<dim>56</dim>
				</port>
			</input>
			<output>
				<port id="1" precision="FP32" names="/nncf_module/features/features.2/features.2.0/block/block.1/block.1.2/Mul_output_0">
					<dim>1</dim>
					<dim>144</dim>
					<dim>56</dim>
					<dim>56</dim>
				</port>
			</output>
		</layer>
		<layer id="200" name="Constant_31076" type="Const" version="opset1">
			<data element_type="f32" shape="1, 1, 1, 1" offset="15668" size="4" />
			<output>
				<port id="0" precision="FP32">
					<dim>1</dim>
					<dim>1</dim>
					<dim>1</dim>
					<dim>1</dim>
				</port>
			</output>
		</layer>
		<layer id="201" name="Constant_31077" type="Const" version="opset1">
			<data element_type="f32" shape="1, 1, 1, 1" offset="15672" size="4" />
			<output>
				<port id="0" precision="FP32">
					<dim>1</dim>
					<dim>1</dim>
					<dim>1</dim>
					<dim>1</dim>
				</port>
			</output>
		</layer>
		<layer id="202" name="Constant_31078" type="Const" version="opset1">
			<data element_type="f32" shape="1, 1, 1, 1" offset="15668" size="4" />
			<output>
				<port id="0" precision="FP32">
					<dim>1</dim>
					<dim>1</dim>
					<dim>1</dim>
					<dim>1</dim>
				</port>
			</output>
		</layer>
		<layer id="203" name="Constant_31079" type="Const" version="opset1">
			<data element_type="f32" shape="1, 1, 1, 1" offset="15672" size="4" />
			<output>
				<port id="0" precision="FP32">
					<dim>1</dim>
					<dim>1</dim>
					<dim>1</dim>
					<dim>1</dim>
				</port>
			</output>
		</layer>
		<layer id="204" name="/nncf_module/features/features.2/features.2.0/block/block.1/block.1.2/EfficientNet/Sequential[features]/Sequential[2]/MBConv[0]/Sequential[block]/Conv2dNormActivation[1]/SiLU[2]/silu_0|OUTPUT/FakeQuantize" type="FakeQuantize" version="opset1">
			<data levels="256" auto_broadcast="numpy" />
			<input>
				<port id="0" precision="FP32">
					<dim>1</dim>
					<dim>144</dim>
					<dim>56</dim>
					<dim>56</dim>
				</port>
				<port id="1" precision="FP32">
					<dim>1</dim>
					<dim>1</dim>
					<dim>1</dim>
					<dim>1</dim>
				</port>
				<port id="2" precision="FP32">
					<dim>1</dim>
					<dim>1</dim>
					<dim>1</dim>
					<dim>1</dim>
				</port>
				<port id="3" precision="FP32">
					<dim>1</dim>
					<dim>1</dim>
					<dim>1</dim>
					<dim>1</dim>
				</port>
				<port id="4" precision="FP32">
					<dim>1</dim>
					<dim>1</dim>
					<dim>1</dim>
					<dim>1</dim>
				</port>
			</input>
			<output>
				<port id="5" precision="FP32" names="/nncf_module/features/features.2/features.2.0/block/block.1/block.1.2/EfficientNet/Sequential[features]/Sequential[2]/MBConv[0]/Sequential[block]/Conv2dNormActivation[1]/SiLU[2]/silu_0|OUTPUT/FakeQuantize_output_0">
					<dim>1</dim>
					<dim>144</dim>
					<dim>56</dim>
					<dim>56</dim>
				</port>
			</output>
		</layer>
		<layer id="205" name="Range_979" type="Const" version="opset1">
			<data element_type="i64" shape="2" offset="2608" size="16" />
			<output>
				<port id="0" precision="I64">
					<dim>2</dim>
				</port>
			</output>
		</layer>
		<layer id="206" name="/nncf_module/features/features.2/features.2.0/block/block.2/avgpool/GlobalAveragePool" type="ReduceMean" version="opset1">
			<data keep_dims="true" />
			<input>
				<port id="0" precision="FP32">
					<dim>1</dim>
					<dim>144</dim>
					<dim>56</dim>
					<dim>56</dim>
				</port>
				<port id="1" precision="I64">
					<dim>2</dim>
				</port>
			</input>
			<output>
				<port id="2" precision="FP32" names="/nncf_module/features/features.2/features.2.0/block/block.2/avgpool/GlobalAveragePool_output_0">
					<dim>1</dim>
					<dim>144</dim>
					<dim>1</dim>
					<dim>1</dim>
				</port>
			</output>
		</layer>
		<layer id="207" name="Constant_31080" type="Const" version="opset1">
			<data element_type="f32" shape="1, 1, 1, 1" offset="15676" size="4" />
			<output>
				<port id="0" precision="FP32">
					<dim>1</dim>
					<dim>1</dim>
					<dim>1</dim>
					<dim>1</dim>
				</port>
			</output>
		</layer>
		<layer id="208" name="Constant_31081" type="Const" version="opset1">
			<data element_type="f32" shape="1, 1, 1, 1" offset="15680" size="4" />
			<output>
				<port id="0" precision="FP32">
					<dim>1</dim>
					<dim>1</dim>
					<dim>1</dim>
					<dim>1</dim>
				</port>
			</output>
		</layer>
		<layer id="209" name="Constant_31082" type="Const" version="opset1">
			<data element_type="f32" shape="1, 1, 1, 1" offset="15676" size="4" />
			<output>
				<port id="0" precision="FP32">
					<dim>1</dim>
					<dim>1</dim>
					<dim>1</dim>
					<dim>1</dim>
				</port>
			</output>
		</layer>
		<layer id="210" name="Constant_31083" type="Const" version="opset1">
			<data element_type="f32" shape="1, 1, 1, 1" offset="15680" size="4" />
			<output>
				<port id="0" precision="FP32">
					<dim>1</dim>
					<dim>1</dim>
					<dim>1</dim>
					<dim>1</dim>
				</port>
			</output>
		</layer>
		<layer id="211" name="/nncf_module/features/features.2/features.2.0/block/block.2/avgpool/EfficientNet/Sequential[features]/Sequential[2]/MBConv[0]/Sequential[block]/SqueezeExcitation[2]/AdaptiveAvgPool2d[avgpool]/adaptive_avg_pool2d_0|OUTPUT/FakeQuantize" type="FakeQuantize" version="opset1">
			<data levels="256" auto_broadcast="numpy" />
			<input>
				<port id="0" precision="FP32">
					<dim>1</dim>
					<dim>144</dim>
					<dim>1</dim>
					<dim>1</dim>
				</port>
				<port id="1" precision="FP32">
					<dim>1</dim>
					<dim>1</dim>
					<dim>1</dim>
					<dim>1</dim>
				</port>
				<port id="2" precision="FP32">
					<dim>1</dim>
					<dim>1</dim>
					<dim>1</dim>
					<dim>1</dim>
				</port>
				<port id="3" precision="FP32">
					<dim>1</dim>
					<dim>1</dim>
					<dim>1</dim>
					<dim>1</dim>
				</port>
				<port id="4" precision="FP32">
					<dim>1</dim>
					<dim>1</dim>
					<dim>1</dim>
					<dim>1</dim>
				</port>
			</input>
			<output>
				<port id="5" precision="FP32" names="/nncf_module/features/features.2/features.2.0/block/block.2/avgpool/EfficientNet/Sequential[features]/Sequential[2]/MBConv[0]/Sequential[block]/SqueezeExcitation[2]/AdaptiveAvgPool2d[avgpool]/adaptive_avg_pool2d_0|OUTPUT/FakeQuantize_output_0">
					<dim>1</dim>
					<dim>144</dim>
					<dim>1</dim>
					<dim>1</dim>
				</port>
			</output>
		</layer>
		<layer id="212" name="/nncf_module/features/features.2/features.2.0/block/block.2/fc1/pre_ops.0/op/Constant" type="Const" version="opset1">
			<data element_type="i8" shape="6, 144, 1, 1" offset="15684" size="864" />
			<output>
				<port id="0" precision="I8">
					<dim>6</dim>
					<dim>144</dim>
					<dim>1</dim>
					<dim>1</dim>
				</port>
			</output>
		</layer>
		<layer id="213" name="Convert_35257" type="Convert" version="opset1">
			<data destination_type="f32" />
			<input>
				<port id="0" precision="I8">
					<dim>6</dim>
					<dim>144</dim>
					<dim>1</dim>
					<dim>1</dim>
				</port>
			</input>
			<output>
				<port id="1" precision="FP32">
					<dim>6</dim>
					<dim>144</dim>
					<dim>1</dim>
					<dim>1</dim>
				</port>
			</output>
		</layer>
		<layer id="214" name="Constant_35164" type="Const" version="opset1">
			<data element_type="f32" shape="6, 1, 1, 1" offset="16548" size="24" />
			<output>
				<port id="0" precision="FP32">
					<dim>6</dim>
					<dim>1</dim>
					<dim>1</dim>
					<dim>1</dim>
				</port>
			</output>
		</layer>
		<layer id="215" name="/nncf_module/features/features.2/features.2.0/block/block.2/fc1/pre_ops.0/op/FakeQuantize" type="Multiply" version="opset1">
			<data auto_broadcast="numpy" />
			<input>
				<port id="0" precision="FP32">
					<dim>6</dim>
					<dim>144</dim>
					<dim>1</dim>
					<dim>1</dim>
				</port>
				<port id="1" precision="FP32">
					<dim>6</dim>
					<dim>1</dim>
					<dim>1</dim>
					<dim>1</dim>
				</port>
			</input>
			<output>
				<port id="2" precision="FP32" names="/nncf_module/features/features.2/features.2.0/block/block.2/fc1/pre_ops.0/op/FakeQuantize_output_0">
					<dim>6</dim>
					<dim>144</dim>
					<dim>1</dim>
					<dim>1</dim>
				</port>
			</output>
		</layer>
		<layer id="216" name="/nncf_module/features/features.2/features.2.0/block/block.2/fc1/Conv/WithoutBiases" type="Convolution" version="opset1">
			<data strides="1, 1" dilations="1, 1" pads_begin="0, 0" pads_end="0, 0" auto_pad="explicit" />
			<input>
				<port id="0" precision="FP32">
					<dim>1</dim>
					<dim>144</dim>
					<dim>1</dim>
					<dim>1</dim>
				</port>
				<port id="1" precision="FP32">
					<dim>6</dim>
					<dim>144</dim>
					<dim>1</dim>
					<dim>1</dim>
				</port>
			</input>
			<output>
				<port id="2" precision="FP32">
					<dim>1</dim>
					<dim>6</dim>
					<dim>1</dim>
					<dim>1</dim>
				</port>
			</output>
		</layer>
		<layer id="217" name="Reshape_1031" type="Const" version="opset1">
			<data element_type="f32" shape="1, 6, 1, 1" offset="16572" size="24" />
			<output>
				<port id="0" precision="FP32">
					<dim>1</dim>
					<dim>6</dim>
					<dim>1</dim>
					<dim>1</dim>
				</port>
			</output>
		</layer>
		<layer id="218" name="/nncf_module/features/features.2/features.2.0/block/block.2/fc1/Conv" type="Add" version="opset1">
			<data auto_broadcast="numpy" />
			<input>
				<port id="0" precision="FP32">
					<dim>1</dim>
					<dim>6</dim>
					<dim>1</dim>
					<dim>1</dim>
				</port>
				<port id="1" precision="FP32">
					<dim>1</dim>
					<dim>6</dim>
					<dim>1</dim>
					<dim>1</dim>
				</port>
			</input>
			<output>
				<port id="2" precision="FP32" names="/nncf_module/features/features.2/features.2.0/block/block.2/fc1/Conv_output_0">
					<dim>1</dim>
					<dim>6</dim>
					<dim>1</dim>
					<dim>1</dim>
				</port>
			</output>
		</layer>
		<layer id="219" name="/nncf_module/features/features.2/features.2.0/block/block.2/activation/Mul" type="Swish" version="opset4">
			<input>
				<port id="0" precision="FP32">
					<dim>1</dim>
					<dim>6</dim>
					<dim>1</dim>
					<dim>1</dim>
				</port>
			</input>
			<output>
				<port id="1" precision="FP32" names="/nncf_module/features/features.2/features.2.0/block/block.2/activation/Mul_output_0">
					<dim>1</dim>
					<dim>6</dim>
					<dim>1</dim>
					<dim>1</dim>
				</port>
			</output>
		</layer>
		<layer id="220" name="Constant_31084" type="Const" version="opset1">
			<data element_type="f32" shape="1, 1, 1, 1" offset="16596" size="4" />
			<output>
				<port id="0" precision="FP32">
					<dim>1</dim>
					<dim>1</dim>
					<dim>1</dim>
					<dim>1</dim>
				</port>
			</output>
		</layer>
		<layer id="221" name="Constant_31085" type="Const" version="opset1">
			<data element_type="f32" shape="1, 1, 1, 1" offset="16600" size="4" />
			<output>
				<port id="0" precision="FP32">
					<dim>1</dim>
					<dim>1</dim>
					<dim>1</dim>
					<dim>1</dim>
				</port>
			</output>
		</layer>
		<layer id="222" name="Constant_31086" type="Const" version="opset1">
			<data element_type="f32" shape="1, 1, 1, 1" offset="16596" size="4" />
			<output>
				<port id="0" precision="FP32">
					<dim>1</dim>
					<dim>1</dim>
					<dim>1</dim>
					<dim>1</dim>
				</port>
			</output>
		</layer>
		<layer id="223" name="Constant_31087" type="Const" version="opset1">
			<data element_type="f32" shape="1, 1, 1, 1" offset="16600" size="4" />
			<output>
				<port id="0" precision="FP32">
					<dim>1</dim>
					<dim>1</dim>
					<dim>1</dim>
					<dim>1</dim>
				</port>
			</output>
		</layer>
		<layer id="224" name="/nncf_module/features/features.2/features.2.0/block/block.2/activation/EfficientNet/Sequential[features]/Sequential[2]/MBConv[0]/Sequential[block]/SqueezeExcitation[2]/SiLU[activation]/silu_0|OUTPUT/FakeQuantize" type="FakeQuantize" version="opset1">
			<data levels="256" auto_broadcast="numpy" />
			<input>
				<port id="0" precision="FP32">
					<dim>1</dim>
					<dim>6</dim>
					<dim>1</dim>
					<dim>1</dim>
				</port>
				<port id="1" precision="FP32">
					<dim>1</dim>
					<dim>1</dim>
					<dim>1</dim>
					<dim>1</dim>
				</port>
				<port id="2" precision="FP32">
					<dim>1</dim>
					<dim>1</dim>
					<dim>1</dim>
					<dim>1</dim>
				</port>
				<port id="3" precision="FP32">
					<dim>1</dim>
					<dim>1</dim>
					<dim>1</dim>
					<dim>1</dim>
				</port>
				<port id="4" precision="FP32">
					<dim>1</dim>
					<dim>1</dim>
					<dim>1</dim>
					<dim>1</dim>
				</port>
			</input>
			<output>
				<port id="5" precision="FP32" names="/nncf_module/features/features.2/features.2.0/block/block.2/activation/EfficientNet/Sequential[features]/Sequential[2]/MBConv[0]/Sequential[block]/SqueezeExcitation[2]/SiLU[activation]/silu_0|OUTPUT/FakeQuantize_output_0">
					<dim>1</dim>
					<dim>6</dim>
					<dim>1</dim>
					<dim>1</dim>
				</port>
			</output>
		</layer>
		<layer id="225" name="/nncf_module/features/features.2/features.2.0/block/block.2/fc2/pre_ops.0/op/Constant" type="Const" version="opset1">
			<data element_type="i8" shape="144, 6, 1, 1" offset="16604" size="864" />
			<output>
				<port id="0" precision="I8">
					<dim>144</dim>
					<dim>6</dim>
					<dim>1</dim>
					<dim>1</dim>
				</port>
			</output>
		</layer>
		<layer id="226" name="Convert_35378" type="Convert" version="opset1">
			<data destination_type="f32" />
			<input>
				<port id="0" precision="I8">
					<dim>144</dim>
					<dim>6</dim>
					<dim>1</dim>
					<dim>1</dim>
				</port>
			</input>
			<output>
				<port id="1" precision="FP32">
					<dim>144</dim>
					<dim>6</dim>
					<dim>1</dim>
					<dim>1</dim>
				</port>
			</output>
		</layer>
		<layer id="227" name="Constant_35315" type="Const" version="opset1">
			<data element_type="f32" shape="144, 1, 1, 1" offset="17468" size="576" />
			<output>
				<port id="0" precision="FP32">
					<dim>144</dim>
					<dim>1</dim>
					<dim>1</dim>
					<dim>1</dim>
				</port>
			</output>
		</layer>
		<layer id="228" name="/nncf_module/features/features.2/features.2.0/block/block.2/fc2/pre_ops.0/op/FakeQuantize" type="Multiply" version="opset1">
			<data auto_broadcast="numpy" />
			<input>
				<port id="0" precision="FP32">
					<dim>144</dim>
					<dim>6</dim>
					<dim>1</dim>
					<dim>1</dim>
				</port>
				<port id="1" precision="FP32">
					<dim>144</dim>
					<dim>1</dim>
					<dim>1</dim>
					<dim>1</dim>
				</port>
			</input>
			<output>
				<port id="2" precision="FP32" names="/nncf_module/features/features.2/features.2.0/block/block.2/fc2/pre_ops.0/op/FakeQuantize_output_0">
					<dim>144</dim>
					<dim>6</dim>
					<dim>1</dim>
					<dim>1</dim>
				</port>
			</output>
		</layer>
		<layer id="229" name="/nncf_module/features/features.2/features.2.0/block/block.2/fc2/Conv/WithoutBiases" type="Convolution" version="opset1">
			<data strides="1, 1" dilations="1, 1" pads_begin="0, 0" pads_end="0, 0" auto_pad="explicit" />
			<input>
				<port id="0" precision="FP32">
					<dim>1</dim>
					<dim>6</dim>
					<dim>1</dim>
					<dim>1</dim>
				</port>
				<port id="1" precision="FP32">
					<dim>144</dim>
					<dim>6</dim>
					<dim>1</dim>
					<dim>1</dim>
				</port>
			</input>
			<output>
				<port id="2" precision="FP32">
					<dim>1</dim>
					<dim>144</dim>
					<dim>1</dim>
					<dim>1</dim>
				</port>
			</output>
		</layer>
		<layer id="230" name="Reshape_1088" type="Const" version="opset1">
			<data element_type="f32" shape="1, 144, 1, 1" offset="18044" size="576" />
			<output>
				<port id="0" precision="FP32">
					<dim>1</dim>
					<dim>144</dim>
					<dim>1</dim>
					<dim>1</dim>
				</port>
			</output>
		</layer>
		<layer id="231" name="/nncf_module/features/features.2/features.2.0/block/block.2/fc2/Conv" type="Add" version="opset1">
			<data auto_broadcast="numpy" />
			<input>
				<port id="0" precision="FP32">
					<dim>1</dim>
					<dim>144</dim>
					<dim>1</dim>
					<dim>1</dim>
				</port>
				<port id="1" precision="FP32">
					<dim>1</dim>
					<dim>144</dim>
					<dim>1</dim>
					<dim>1</dim>
				</port>
			</input>
			<output>
				<port id="2" precision="FP32" names="/nncf_module/features/features.2/features.2.0/block/block.2/fc2/Conv_output_0">
					<dim>1</dim>
					<dim>144</dim>
					<dim>1</dim>
					<dim>1</dim>
				</port>
			</output>
		</layer>
		<layer id="232" name="/nncf_module/features/features.2/features.2.0/block/block.2/scale_activation/Sigmoid" type="Sigmoid" version="opset1">
			<input>
				<port id="0" precision="FP32">
					<dim>1</dim>
					<dim>144</dim>
					<dim>1</dim>
					<dim>1</dim>
				</port>
			</input>
			<output>
				<port id="1" precision="FP32" names="/nncf_module/features/features.2/features.2.0/block/block.2/scale_activation/Sigmoid_output_0">
					<dim>1</dim>
					<dim>144</dim>
					<dim>1</dim>
					<dim>1</dim>
				</port>
			</output>
		</layer>
		<layer id="233" name="Constant_31088" type="Const" version="opset1">
			<data element_type="f32" shape="1, 1, 1, 1" offset="3840" size="4" />
			<output>
				<port id="0" precision="FP32">
					<dim>1</dim>
					<dim>1</dim>
					<dim>1</dim>
					<dim>1</dim>
				</port>
			</output>
		</layer>
		<layer id="234" name="Constant_31089" type="Const" version="opset1">
			<data element_type="f32" shape="1, 1, 1, 1" offset="18620" size="4" />
			<output>
				<port id="0" precision="FP32">
					<dim>1</dim>
					<dim>1</dim>
					<dim>1</dim>
					<dim>1</dim>
				</port>
			</output>
		</layer>
		<layer id="235" name="Constant_31090" type="Const" version="opset1">
			<data element_type="f32" shape="1, 1, 1, 1" offset="3840" size="4" />
			<output>
				<port id="0" precision="FP32">
					<dim>1</dim>
					<dim>1</dim>
					<dim>1</dim>
					<dim>1</dim>
				</port>
			</output>
		</layer>
		<layer id="236" name="Constant_31091" type="Const" version="opset1">
			<data element_type="f32" shape="1, 1, 1, 1" offset="18620" size="4" />
			<output>
				<port id="0" precision="FP32">
					<dim>1</dim>
					<dim>1</dim>
					<dim>1</dim>
					<dim>1</dim>
				</port>
			</output>
		</layer>
		<layer id="237" name="/nncf_module/features/features.2/features.2.0/block/block.2/scale_activation/EfficientNet/Sequential[features]/Sequential[2]/MBConv[0]/Sequential[block]/SqueezeExcitation[2]/Sigmoid[scale_activation]/sigmoid_0|OUTPUT/FakeQuantize" type="FakeQuantize" version="opset1">
			<data levels="256" auto_broadcast="numpy" />
			<input>
				<port id="0" precision="FP32">
					<dim>1</dim>
					<dim>144</dim>
					<dim>1</dim>
					<dim>1</dim>
				</port>
				<port id="1" precision="FP32">
					<dim>1</dim>
					<dim>1</dim>
					<dim>1</dim>
					<dim>1</dim>
				</port>
				<port id="2" precision="FP32">
					<dim>1</dim>
					<dim>1</dim>
					<dim>1</dim>
					<dim>1</dim>
				</port>
				<port id="3" precision="FP32">
					<dim>1</dim>
					<dim>1</dim>
					<dim>1</dim>
					<dim>1</dim>
				</port>
				<port id="4" precision="FP32">
					<dim>1</dim>
					<dim>1</dim>
					<dim>1</dim>
					<dim>1</dim>
				</port>
			</input>
			<output>
				<port id="5" precision="FP32" names="/nncf_module/features/features.2/features.2.0/block/block.2/scale_activation/EfficientNet/Sequential[features]/Sequential[2]/MBConv[0]/Sequential[block]/SqueezeExcitation[2]/Sigmoid[scale_activation]/sigmoid_0|OUTPUT/FakeQuantize_output_0">
					<dim>1</dim>
					<dim>144</dim>
					<dim>1</dim>
					<dim>1</dim>
				</port>
			</output>
		</layer>
		<layer id="238" name="/nncf_module/features/features.2/features.2.0/block/block.2/Mul" type="Multiply" version="opset1">
			<data auto_broadcast="numpy" />
			<input>
				<port id="0" precision="FP32">
					<dim>1</dim>
					<dim>144</dim>
					<dim>1</dim>
					<dim>1</dim>
				</port>
				<port id="1" precision="FP32">
					<dim>1</dim>
					<dim>144</dim>
					<dim>56</dim>
					<dim>56</dim>
				</port>
			</input>
			<output>
				<port id="2" precision="FP32" names="/nncf_module/features/features.2/features.2.0/block/block.2/Mul_output_0">
					<dim>1</dim>
					<dim>144</dim>
					<dim>56</dim>
					<dim>56</dim>
				</port>
			</output>
		</layer>
		<layer id="239" name="Constant_31092" type="Const" version="opset1">
			<data element_type="f32" shape="1, 1, 1, 1" offset="18624" size="4" />
			<output>
				<port id="0" precision="FP32">
					<dim>1</dim>
					<dim>1</dim>
					<dim>1</dim>
					<dim>1</dim>
				</port>
			</output>
		</layer>
		<layer id="240" name="Constant_31093" type="Const" version="opset1">
			<data element_type="f32" shape="1, 1, 1, 1" offset="18628" size="4" />
			<output>
				<port id="0" precision="FP32">
					<dim>1</dim>
					<dim>1</dim>
					<dim>1</dim>
					<dim>1</dim>
				</port>
			</output>
		</layer>
		<layer id="241" name="Constant_31094" type="Const" version="opset1">
			<data element_type="f32" shape="1, 1, 1, 1" offset="18624" size="4" />
			<output>
				<port id="0" precision="FP32">
					<dim>1</dim>
					<dim>1</dim>
					<dim>1</dim>
					<dim>1</dim>
				</port>
			</output>
		</layer>
		<layer id="242" name="Constant_31095" type="Const" version="opset1">
			<data element_type="f32" shape="1, 1, 1, 1" offset="18628" size="4" />
			<output>
				<port id="0" precision="FP32">
					<dim>1</dim>
					<dim>1</dim>
					<dim>1</dim>
					<dim>1</dim>
				</port>
			</output>
		</layer>
		<layer id="243" name="/nncf_module/features/features.2/features.2.0/block/block.2/EfficientNet/Sequential[features]/Sequential[2]/MBConv[0]/Sequential[block]/SqueezeExcitation[2]/__mul___0|OUTPUT/FakeQuantize" type="FakeQuantize" version="opset1">
			<data levels="256" auto_broadcast="numpy" />
			<input>
				<port id="0" precision="FP32">
					<dim>1</dim>
					<dim>144</dim>
					<dim>56</dim>
					<dim>56</dim>
				</port>
				<port id="1" precision="FP32">
					<dim>1</dim>
					<dim>1</dim>
					<dim>1</dim>
					<dim>1</dim>
				</port>
				<port id="2" precision="FP32">
					<dim>1</dim>
					<dim>1</dim>
					<dim>1</dim>
					<dim>1</dim>
				</port>
				<port id="3" precision="FP32">
					<dim>1</dim>
					<dim>1</dim>
					<dim>1</dim>
					<dim>1</dim>
				</port>
				<port id="4" precision="FP32">
					<dim>1</dim>
					<dim>1</dim>
					<dim>1</dim>
					<dim>1</dim>
				</port>
			</input>
			<output>
				<port id="5" precision="FP32" names="/nncf_module/features/features.2/features.2.0/block/block.2/EfficientNet/Sequential[features]/Sequential[2]/MBConv[0]/Sequential[block]/SqueezeExcitation[2]/__mul___0|OUTPUT/FakeQuantize_output_0">
					<dim>1</dim>
					<dim>144</dim>
					<dim>56</dim>
					<dim>56</dim>
				</port>
			</output>
		</layer>
		<layer id="244" name="/nncf_module/features/features.2/features.2.0/block/block.3/block.3.0/pre_ops.0/op/Constant" type="Const" version="opset1">
			<data element_type="i8" shape="32, 144, 1, 1" offset="18632" size="4608" />
			<output>
				<port id="0" precision="I8">
					<dim>32</dim>
					<dim>144</dim>
					<dim>1</dim>
					<dim>1</dim>
				</port>
			</output>
		</layer>
		<layer id="245" name="Convert_35499" type="Convert" version="opset1">
			<data destination_type="f32" />
			<input>
				<port id="0" precision="I8">
					<dim>32</dim>
					<dim>144</dim>
					<dim>1</dim>
					<dim>1</dim>
				</port>
			</input>
			<output>
				<port id="1" precision="FP32">
					<dim>32</dim>
					<dim>144</dim>
					<dim>1</dim>
					<dim>1</dim>
				</port>
			</output>
		</layer>
		<layer id="246" name="Constant_35436" type="Const" version="opset1">
			<data element_type="f32" shape="32, 1, 1, 1" offset="23240" size="128" />
			<output>
				<port id="0" precision="FP32">
					<dim>32</dim>
					<dim>1</dim>
					<dim>1</dim>
					<dim>1</dim>
				</port>
			</output>
		</layer>
		<layer id="247" name="Multiply_29620" type="Multiply" version="opset1">
			<data auto_broadcast="numpy" />
			<input>
				<port id="0" precision="FP32">
					<dim>32</dim>
					<dim>144</dim>
					<dim>1</dim>
					<dim>1</dim>
				</port>
				<port id="1" precision="FP32">
					<dim>32</dim>
					<dim>1</dim>
					<dim>1</dim>
					<dim>1</dim>
				</port>
			</input>
			<output>
				<port id="2" precision="FP32">
					<dim>32</dim>
					<dim>144</dim>
					<dim>1</dim>
					<dim>1</dim>
				</port>
			</output>
		</layer>
		<layer id="248" name="Multiply_29056" type="Convolution" version="opset1">
			<data strides="1, 1" dilations="1, 1" pads_begin="0, 0" pads_end="0, 0" auto_pad="explicit" />
			<input>
				<port id="0" precision="FP32">
					<dim>1</dim>
					<dim>144</dim>
					<dim>56</dim>
					<dim>56</dim>
				</port>
				<port id="1" precision="FP32">
					<dim>32</dim>
					<dim>144</dim>
					<dim>1</dim>
					<dim>1</dim>
				</port>
			</input>
			<output>
				<port id="2" precision="FP32">
					<dim>1</dim>
					<dim>32</dim>
					<dim>56</dim>
					<dim>56</dim>
				</port>
			</output>
		</layer>
		<layer id="249" name="Constant_29061" type="Const" version="opset1">
			<data element_type="f32" shape="1, 32, 1, 1" offset="23368" size="128" />
			<output>
				<port id="0" precision="FP32">
					<dim>1</dim>
					<dim>32</dim>
					<dim>1</dim>
					<dim>1</dim>
				</port>
			</output>
		</layer>
		<layer id="250" name="/nncf_module/features/features.2/features.2.0/block/block.3/block.3.1/BatchNormalization" type="Add" version="opset1">
			<data auto_broadcast="numpy" />
			<input>
				<port id="0" precision="FP32">
					<dim>1</dim>
					<dim>32</dim>
					<dim>56</dim>
					<dim>56</dim>
				</port>
				<port id="1" precision="FP32">
					<dim>1</dim>
					<dim>32</dim>
					<dim>1</dim>
					<dim>1</dim>
				</port>
			</input>
			<output>
				<port id="2" precision="FP32" names="/nncf_module/features/features.2/features.2.0/block/block.3/block.3.1/BatchNormalization_output_0">
					<dim>1</dim>
					<dim>32</dim>
					<dim>56</dim>
					<dim>56</dim>
				</port>
			</output>
		</layer>
		<layer id="251" name="Constant_31096" type="Const" version="opset1">
			<data element_type="f32" shape="1, 1, 1, 1" offset="23496" size="4" />
			<output>
				<port id="0" precision="FP32">
					<dim>1</dim>
					<dim>1</dim>
					<dim>1</dim>
					<dim>1</dim>
				</port>
			</output>
		</layer>
		<layer id="252" name="Constant_31097" type="Const" version="opset1">
			<data element_type="f32" shape="1, 1, 1, 1" offset="23500" size="4" />
			<output>
				<port id="0" precision="FP32">
					<dim>1</dim>
					<dim>1</dim>
					<dim>1</dim>
					<dim>1</dim>
				</port>
			</output>
		</layer>
		<layer id="253" name="Constant_31098" type="Const" version="opset1">
			<data element_type="f32" shape="1, 1, 1, 1" offset="23496" size="4" />
			<output>
				<port id="0" precision="FP32">
					<dim>1</dim>
					<dim>1</dim>
					<dim>1</dim>
					<dim>1</dim>
				</port>
			</output>
		</layer>
		<layer id="254" name="Constant_31099" type="Const" version="opset1">
			<data element_type="f32" shape="1, 1, 1, 1" offset="23500" size="4" />
			<output>
				<port id="0" precision="FP32">
					<dim>1</dim>
					<dim>1</dim>
					<dim>1</dim>
					<dim>1</dim>
				</port>
			</output>
		</layer>
		<layer id="255" name="/nncf_module/features/features.2/features.2.0/block/block.3/block.3.1/EfficientNet/Sequential[features]/Sequential[2]/MBConv[0]/Sequential[block]/Conv2dNormActivation[3]/NNCFBatchNorm2d[1]/batch_norm_0|OUTPUT/FakeQuantize" type="FakeQuantize" version="opset1">
			<data levels="256" auto_broadcast="numpy" />
			<input>
				<port id="0" precision="FP32">
					<dim>1</dim>
					<dim>32</dim>
					<dim>56</dim>
					<dim>56</dim>
				</port>
				<port id="1" precision="FP32">
					<dim>1</dim>
					<dim>1</dim>
					<dim>1</dim>
					<dim>1</dim>
				</port>
				<port id="2" precision="FP32">
					<dim>1</dim>
					<dim>1</dim>
					<dim>1</dim>
					<dim>1</dim>
				</port>
				<port id="3" precision="FP32">
					<dim>1</dim>
					<dim>1</dim>
					<dim>1</dim>
					<dim>1</dim>
				</port>
				<port id="4" precision="FP32">
					<dim>1</dim>
					<dim>1</dim>
					<dim>1</dim>
					<dim>1</dim>
				</port>
			</input>
			<output>
				<port id="5" precision="FP32" names="/nncf_module/features/features.2/features.2.0/block/block.3/block.3.1/EfficientNet/Sequential[features]/Sequential[2]/MBConv[0]/Sequential[block]/Conv2dNormActivation[3]/NNCFBatchNorm2d[1]/batch_norm_0|OUTPUT/FakeQuantize_output_0">
					<dim>1</dim>
					<dim>32</dim>
					<dim>56</dim>
					<dim>56</dim>
				</port>
			</output>
		</layer>
		<layer id="256" name="/nncf_module/features/features.2/features.2.1/block/block.0/block.0.0/pre_ops.0/op/Constant" type="Const" version="opset1">
			<data element_type="i8" shape="192, 32, 1, 1" offset="23504" size="6144" />
			<output>
				<port id="0" precision="I8">
					<dim>192</dim>
					<dim>32</dim>
					<dim>1</dim>
					<dim>1</dim>
				</port>
			</output>
		</layer>
		<layer id="257" name="Convert_35620" type="Convert" version="opset1">
			<data destination_type="f32" />
			<input>
				<port id="0" precision="I8">
					<dim>192</dim>
					<dim>32</dim>
					<dim>1</dim>
					<dim>1</dim>
				</port>
			</input>
			<output>
				<port id="1" precision="FP32">
					<dim>192</dim>
					<dim>32</dim>
					<dim>1</dim>
					<dim>1</dim>
				</port>
			</output>
		</layer>
		<layer id="258" name="Constant_35557" type="Const" version="opset1">
			<data element_type="f32" shape="192, 1, 1, 1" offset="29648" size="768" />
			<output>
				<port id="0" precision="FP32">
					<dim>192</dim>
					<dim>1</dim>
					<dim>1</dim>
					<dim>1</dim>
				</port>
			</output>
		</layer>
		<layer id="259" name="Multiply_29629" type="Multiply" version="opset1">
			<data auto_broadcast="numpy" />
			<input>
				<port id="0" precision="FP32">
					<dim>192</dim>
					<dim>32</dim>
					<dim>1</dim>
					<dim>1</dim>
				</port>
				<port id="1" precision="FP32">
					<dim>192</dim>
					<dim>1</dim>
					<dim>1</dim>
					<dim>1</dim>
				</port>
			</input>
			<output>
				<port id="2" precision="FP32">
					<dim>192</dim>
					<dim>32</dim>
					<dim>1</dim>
					<dim>1</dim>
				</port>
			</output>
		</layer>
		<layer id="260" name="Multiply_29063" type="Convolution" version="opset1">
			<data strides="1, 1" dilations="1, 1" pads_begin="0, 0" pads_end="0, 0" auto_pad="explicit" />
			<input>
				<port id="0" precision="FP32">
					<dim>1</dim>
					<dim>32</dim>
					<dim>56</dim>
					<dim>56</dim>
				</port>
				<port id="1" precision="FP32">
					<dim>192</dim>
					<dim>32</dim>
					<dim>1</dim>
					<dim>1</dim>
				</port>
			</input>
			<output>
				<port id="2" precision="FP32">
					<dim>1</dim>
					<dim>192</dim>
					<dim>56</dim>
					<dim>56</dim>
				</port>
			</output>
		</layer>
		<layer id="261" name="Constant_29068" type="Const" version="opset1">
			<data element_type="f32" shape="1, 192, 1, 1" offset="30416" size="768" />
			<output>
				<port id="0" precision="FP32">
					<dim>1</dim>
					<dim>192</dim>
					<dim>1</dim>
					<dim>1</dim>
				</port>
			</output>
		</layer>
		<layer id="262" name="/nncf_module/features/features.2/features.2.1/block/block.0/block.0.1/BatchNormalization" type="Add" version="opset1">
			<data auto_broadcast="numpy" />
			<input>
				<port id="0" precision="FP32">
					<dim>1</dim>
					<dim>192</dim>
					<dim>56</dim>
					<dim>56</dim>
				</port>
				<port id="1" precision="FP32">
					<dim>1</dim>
					<dim>192</dim>
					<dim>1</dim>
					<dim>1</dim>
				</port>
			</input>
			<output>
				<port id="2" precision="FP32" names="/nncf_module/features/features.2/features.2.1/block/block.0/block.0.1/BatchNormalization_output_0">
					<dim>1</dim>
					<dim>192</dim>
					<dim>56</dim>
					<dim>56</dim>
				</port>
			</output>
		</layer>
		<layer id="263" name="/nncf_module/features/features.2/features.2.1/block/block.0/block.0.2/Mul" type="Swish" version="opset4">
			<input>
				<port id="0" precision="FP32">
					<dim>1</dim>
					<dim>192</dim>
					<dim>56</dim>
					<dim>56</dim>
				</port>
			</input>
			<output>
				<port id="1" precision="FP32" names="/nncf_module/features/features.2/features.2.1/block/block.0/block.0.2/Mul_output_0">
					<dim>1</dim>
					<dim>192</dim>
					<dim>56</dim>
					<dim>56</dim>
				</port>
			</output>
		</layer>
		<layer id="264" name="/nncf_module/features/features.2/features.2.1/block/block.0/block.0.2/EfficientNet/Sequential[features]/Sequential[2]/MBConv[1]/Sequential[block]/Conv2dNormActivation[0]/SiLU[2]/silu_0|OUTPUT/Constant" type="Const" version="opset1">
			<data element_type="f32" shape="1, 192, 1, 1" offset="31184" size="768" />
			<output>
				<port id="0" precision="FP32" names="/nncf_module/features/features.2/features.2.1/block/block.0/block.0.2/EfficientNet/Sequential[features]/Sequential[2]/MBConv[1]/Sequential[block]/Conv2dNormActivation[0]/SiLU[2]/silu_0|OUTPUT/Constant_output_0">
					<dim>1</dim>
					<dim>192</dim>
					<dim>1</dim>
					<dim>1</dim>
				</port>
			</output>
		</layer>
		<layer id="265" name="/nncf_module/features/features.2/features.2.1/block/block.0/block.0.2/EfficientNet/Sequential[features]/Sequential[2]/MBConv[1]/Sequential[block]/Conv2dNormActivation[0]/SiLU[2]/silu_0|OUTPUT/Constant_1" type="Const" version="opset1">
			<data element_type="f32" shape="1, 192, 1, 1" offset="31952" size="768" />
			<output>
				<port id="0" precision="FP32" names="/nncf_module/features/features.2/features.2.1/block/block.0/block.0.2/EfficientNet/Sequential[features]/Sequential[2]/MBConv[1]/Sequential[block]/Conv2dNormActivation[0]/SiLU[2]/silu_0|OUTPUT/Constant_1_output_0">
					<dim>1</dim>
					<dim>192</dim>
					<dim>1</dim>
					<dim>1</dim>
				</port>
			</output>
		</layer>
		<layer id="266" name="/nncf_module/features/features.2/features.2.1/block/block.0/block.0.2/EfficientNet/Sequential[features]/Sequential[2]/MBConv[1]/Sequential[block]/Conv2dNormActivation[0]/SiLU[2]/silu_0|OUTPUT/FakeQuantize" type="FakeQuantize" version="opset1">
			<data levels="256" auto_broadcast="numpy" />
			<input>
				<port id="0" precision="FP32">
					<dim>1</dim>
					<dim>192</dim>
					<dim>56</dim>
					<dim>56</dim>
				</port>
				<port id="1" precision="FP32">
					<dim>1</dim>
					<dim>192</dim>
					<dim>1</dim>
					<dim>1</dim>
				</port>
				<port id="2" precision="FP32">
					<dim>1</dim>
					<dim>192</dim>
					<dim>1</dim>
					<dim>1</dim>
				</port>
				<port id="3" precision="FP32">
					<dim>1</dim>
					<dim>192</dim>
					<dim>1</dim>
					<dim>1</dim>
				</port>
				<port id="4" precision="FP32">
					<dim>1</dim>
					<dim>192</dim>
					<dim>1</dim>
					<dim>1</dim>
				</port>
			</input>
			<output>
				<port id="5" precision="FP32" names="/nncf_module/features/features.2/features.2.1/block/block.0/block.0.2/EfficientNet/Sequential[features]/Sequential[2]/MBConv[1]/Sequential[block]/Conv2dNormActivation[0]/SiLU[2]/silu_0|OUTPUT/FakeQuantize_output_0">
					<dim>1</dim>
					<dim>192</dim>
					<dim>56</dim>
					<dim>56</dim>
				</port>
			</output>
		</layer>
		<layer id="267" name="/nncf_module/features/features.2/features.2.1/block/block.1/block.1.0/pre_ops.0/op/Constant" type="Const" version="opset1">
			<data element_type="i8" shape="192, 1, 3, 3" offset="32720" size="1728" />
			<output>
				<port id="0" precision="I8">
					<dim>192</dim>
					<dim>1</dim>
					<dim>3</dim>
					<dim>3</dim>
				</port>
			</output>
		</layer>
		<layer id="268" name="Convert_35741" type="Convert" version="opset1">
			<data destination_type="f32" />
			<input>
				<port id="0" precision="I8">
					<dim>192</dim>
					<dim>1</dim>
					<dim>3</dim>
					<dim>3</dim>
				</port>
			</input>
			<output>
				<port id="1" precision="FP32">
					<dim>192</dim>
					<dim>1</dim>
					<dim>3</dim>
					<dim>3</dim>
				</port>
			</output>
		</layer>
		<layer id="269" name="Constant_35678" type="Const" version="opset1">
			<data element_type="f32" shape="192, 1, 1, 1" offset="34448" size="768" />
			<output>
				<port id="0" precision="FP32">
					<dim>192</dim>
					<dim>1</dim>
					<dim>1</dim>
					<dim>1</dim>
				</port>
			</output>
		</layer>
		<layer id="270" name="/nncf_module/features/features.2/features.2.1/block/block.1/block.1.0/pre_ops.0/op/FakeQuantize" type="Multiply" version="opset1">
			<data auto_broadcast="numpy" />
			<input>
				<port id="0" precision="FP32">
					<dim>192</dim>
					<dim>1</dim>
					<dim>3</dim>
					<dim>3</dim>
				</port>
				<port id="1" precision="FP32">
					<dim>192</dim>
					<dim>1</dim>
					<dim>1</dim>
					<dim>1</dim>
				</port>
			</input>
			<output>
				<port id="2" precision="FP32" names="/nncf_module/features/features.2/features.2.1/block/block.1/block.1.0/pre_ops.0/op/FakeQuantize_output_0">
					<dim>192</dim>
					<dim>1</dim>
					<dim>3</dim>
					<dim>3</dim>
				</port>
			</output>
		</layer>
		<layer id="271" name="Reshape_29632" type="Const" version="opset1">
			<data element_type="f32" shape="192, 1, 1, 1" offset="35216" size="768" />
			<output>
				<port id="0" precision="FP32">
					<dim>192</dim>
					<dim>1</dim>
					<dim>1</dim>
					<dim>1</dim>
				</port>
			</output>
		</layer>
		<layer id="272" name="Multiply_29638" type="Multiply" version="opset1">
			<data auto_broadcast="numpy" />
			<input>
				<port id="0" precision="FP32">
					<dim>192</dim>
					<dim>1</dim>
					<dim>3</dim>
					<dim>3</dim>
				</port>
				<port id="1" precision="FP32">
					<dim>192</dim>
					<dim>1</dim>
					<dim>1</dim>
					<dim>1</dim>
				</port>
			</input>
			<output>
				<port id="2" precision="FP32">
					<dim>192</dim>
					<dim>1</dim>
					<dim>3</dim>
					<dim>3</dim>
				</port>
			</output>
		</layer>
		<layer id="273" name="Constant_1152" type="Const" version="opset1">
			<data element_type="i64" shape="1" offset="35984" size="8" />
			<output>
				<port id="0" precision="I64">
					<dim>1</dim>
				</port>
			</output>
		</layer>
		<layer id="274" name="ShapeOf_1153" type="ShapeOf" version="opset3">
			<data output_type="i64" />
			<input>
				<port id="0" precision="FP32">
					<dim>192</dim>
					<dim>1</dim>
					<dim>3</dim>
					<dim>3</dim>
				</port>
			</input>
			<output>
				<port id="1" precision="I64">
					<dim>4</dim>
				</port>
			</output>
		</layer>
		<layer id="275" name="Constant_1150" type="Const" version="opset1">
			<data element_type="i64" shape="" offset="2416" size="8" />
			<output>
				<port id="0" precision="I64" />
			</output>
		</layer>
		<layer id="276" name="Constant_1151" type="Const" version="opset1">
			<data element_type="i64" shape="2" offset="2424" size="16" />
			<output>
				<port id="0" precision="I64">
					<dim>2</dim>
				</port>
			</output>
		</layer>
		<layer id="277" name="VariadicSplit_1154" type="VariadicSplit" version="opset1">
			<input>
				<port id="0" precision="I64">
					<dim>4</dim>
				</port>
				<port id="1" precision="I64" />
				<port id="2" precision="I64">
					<dim>2</dim>
				</port>
			</input>
			<output>
				<port id="3" precision="I64">
					<dim>1</dim>
				</port>
				<port id="4" precision="I64">
					<dim>3</dim>
				</port>
			</output>
		</layer>
		<layer id="278" name="Divide_1155" type="Divide" version="opset1">
			<data auto_broadcast="numpy" m_pythondiv="true" />
			<input>
				<port id="0" precision="I64">
					<dim>1</dim>
				</port>
				<port id="1" precision="I64">
					<dim>1</dim>
				</port>
			</input>
			<output>
				<port id="2" precision="I64">
					<dim>1</dim>
				</port>
			</output>
		</layer>
		<layer id="279" name="Concat_1156" type="Concat" version="opset1">
			<data axis="0" />
			<input>
				<port id="0" precision="I64">
					<dim>1</dim>
				</port>
				<port id="1" precision="I64">
					<dim>1</dim>
				</port>
				<port id="2" precision="I64">
					<dim>3</dim>
				</port>
			</input>
			<output>
				<port id="3" precision="I64">
					<dim>5</dim>
				</port>
			</output>
		</layer>
		<layer id="280" name="Reshape_1157" type="Reshape" version="opset1">
			<data special_zero="false" />
			<input>
				<port id="0" precision="FP32">
					<dim>192</dim>
					<dim>1</dim>
					<dim>3</dim>
					<dim>3</dim>
				</port>
				<port id="1" precision="I64">
					<dim>5</dim>
				</port>
			</input>
			<output>
				<port id="2" precision="FP32">
					<dim>192</dim>
					<dim>1</dim>
					<dim>1</dim>
					<dim>3</dim>
					<dim>3</dim>
				</port>
			</output>
		</layer>
		<layer id="281" name="Multiply_29070" type="GroupConvolution" version="opset1">
			<data strides="1, 1" pads_begin="1, 1" pads_end="1, 1" dilations="1, 1" auto_pad="explicit" />
			<input>
				<port id="0" precision="FP32">
					<dim>1</dim>
					<dim>192</dim>
					<dim>56</dim>
					<dim>56</dim>
				</port>
				<port id="1" precision="FP32">
					<dim>192</dim>
					<dim>1</dim>
					<dim>1</dim>
					<dim>3</dim>
					<dim>3</dim>
				</port>
			</input>
			<output>
				<port id="2" precision="FP32" names="/nncf_module/features/features.2/features.2.1/block/block.1/block.1.0/Conv_output_0">
					<dim>1</dim>
					<dim>192</dim>
					<dim>56</dim>
					<dim>56</dim>
				</port>
			</output>
		</layer>
		<layer id="282" name="Constant_29075" type="Const" version="opset1">
			<data element_type="f32" shape="1, 192, 1, 1" offset="35992" size="768" />
			<output>
				<port id="0" precision="FP32">
					<dim>1</dim>
					<dim>192</dim>
					<dim>1</dim>
					<dim>1</dim>
				</port>
			</output>
		</layer>
		<layer id="283" name="/nncf_module/features/features.2/features.2.1/block/block.1/block.1.1/BatchNormalization" type="Add" version="opset1">
			<data auto_broadcast="numpy" />
			<input>
				<port id="0" precision="FP32">
					<dim>1</dim>
					<dim>192</dim>
					<dim>56</dim>
					<dim>56</dim>
				</port>
				<port id="1" precision="FP32">
					<dim>1</dim>
					<dim>192</dim>
					<dim>1</dim>
					<dim>1</dim>
				</port>
			</input>
			<output>
				<port id="2" precision="FP32" names="/nncf_module/features/features.2/features.2.1/block/block.1/block.1.1/BatchNormalization_output_0">
					<dim>1</dim>
					<dim>192</dim>
					<dim>56</dim>
					<dim>56</dim>
				</port>
			</output>
		</layer>
		<layer id="284" name="/nncf_module/features/features.2/features.2.1/block/block.1/block.1.2/Mul" type="Swish" version="opset4">
			<input>
				<port id="0" precision="FP32">
					<dim>1</dim>
					<dim>192</dim>
					<dim>56</dim>
					<dim>56</dim>
				</port>
			</input>
			<output>
				<port id="1" precision="FP32" names="/nncf_module/features/features.2/features.2.1/block/block.1/block.1.2/Mul_output_0">
					<dim>1</dim>
					<dim>192</dim>
					<dim>56</dim>
					<dim>56</dim>
				</port>
			</output>
		</layer>
		<layer id="285" name="Constant_31100" type="Const" version="opset1">
			<data element_type="f32" shape="1, 1, 1, 1" offset="36760" size="4" />
			<output>
				<port id="0" precision="FP32">
					<dim>1</dim>
					<dim>1</dim>
					<dim>1</dim>
					<dim>1</dim>
				</port>
			</output>
		</layer>
		<layer id="286" name="Constant_31101" type="Const" version="opset1">
			<data element_type="f32" shape="1, 1, 1, 1" offset="36764" size="4" />
			<output>
				<port id="0" precision="FP32">
					<dim>1</dim>
					<dim>1</dim>
					<dim>1</dim>
					<dim>1</dim>
				</port>
			</output>
		</layer>
		<layer id="287" name="Constant_31102" type="Const" version="opset1">
			<data element_type="f32" shape="1, 1, 1, 1" offset="36760" size="4" />
			<output>
				<port id="0" precision="FP32">
					<dim>1</dim>
					<dim>1</dim>
					<dim>1</dim>
					<dim>1</dim>
				</port>
			</output>
		</layer>
		<layer id="288" name="Constant_31103" type="Const" version="opset1">
			<data element_type="f32" shape="1, 1, 1, 1" offset="36764" size="4" />
			<output>
				<port id="0" precision="FP32">
					<dim>1</dim>
					<dim>1</dim>
					<dim>1</dim>
					<dim>1</dim>
				</port>
			</output>
		</layer>
		<layer id="289" name="/nncf_module/features/features.2/features.2.1/block/block.1/block.1.2/EfficientNet/Sequential[features]/Sequential[2]/MBConv[1]/Sequential[block]/Conv2dNormActivation[1]/SiLU[2]/silu_0|OUTPUT/FakeQuantize" type="FakeQuantize" version="opset1">
			<data levels="256" auto_broadcast="numpy" />
			<input>
				<port id="0" precision="FP32">
					<dim>1</dim>
					<dim>192</dim>
					<dim>56</dim>
					<dim>56</dim>
				</port>
				<port id="1" precision="FP32">
					<dim>1</dim>
					<dim>1</dim>
					<dim>1</dim>
					<dim>1</dim>
				</port>
				<port id="2" precision="FP32">
					<dim>1</dim>
					<dim>1</dim>
					<dim>1</dim>
					<dim>1</dim>
				</port>
				<port id="3" precision="FP32">
					<dim>1</dim>
					<dim>1</dim>
					<dim>1</dim>
					<dim>1</dim>
				</port>
				<port id="4" precision="FP32">
					<dim>1</dim>
					<dim>1</dim>
					<dim>1</dim>
					<dim>1</dim>
				</port>
			</input>
			<output>
				<port id="5" precision="FP32" names="/nncf_module/features/features.2/features.2.1/block/block.1/block.1.2/EfficientNet/Sequential[features]/Sequential[2]/MBConv[1]/Sequential[block]/Conv2dNormActivation[1]/SiLU[2]/silu_0|OUTPUT/FakeQuantize_output_0">
					<dim>1</dim>
					<dim>192</dim>
					<dim>56</dim>
					<dim>56</dim>
				</port>
			</output>
		</layer>
		<layer id="290" name="Range_1236" type="Const" version="opset1">
			<data element_type="i64" shape="2" offset="2608" size="16" />
			<output>
				<port id="0" precision="I64">
					<dim>2</dim>
				</port>
			</output>
		</layer>
		<layer id="291" name="/nncf_module/features/features.2/features.2.1/block/block.2/avgpool/GlobalAveragePool" type="ReduceMean" version="opset1">
			<data keep_dims="true" />
			<input>
				<port id="0" precision="FP32">
					<dim>1</dim>
					<dim>192</dim>
					<dim>56</dim>
					<dim>56</dim>
				</port>
				<port id="1" precision="I64">
					<dim>2</dim>
				</port>
			</input>
			<output>
				<port id="2" precision="FP32" names="/nncf_module/features/features.2/features.2.1/block/block.2/avgpool/GlobalAveragePool_output_0">
					<dim>1</dim>
					<dim>192</dim>
					<dim>1</dim>
					<dim>1</dim>
				</port>
			</output>
		</layer>
		<layer id="292" name="Constant_31104" type="Const" version="opset1">
			<data element_type="f32" shape="1, 1, 1, 1" offset="36768" size="4" />
			<output>
				<port id="0" precision="FP32">
					<dim>1</dim>
					<dim>1</dim>
					<dim>1</dim>
					<dim>1</dim>
				</port>
			</output>
		</layer>
		<layer id="293" name="Constant_31105" type="Const" version="opset1">
			<data element_type="f32" shape="1, 1, 1, 1" offset="36772" size="4" />
			<output>
				<port id="0" precision="FP32">
					<dim>1</dim>
					<dim>1</dim>
					<dim>1</dim>
					<dim>1</dim>
				</port>
			</output>
		</layer>
		<layer id="294" name="Constant_31106" type="Const" version="opset1">
			<data element_type="f32" shape="1, 1, 1, 1" offset="36768" size="4" />
			<output>
				<port id="0" precision="FP32">
					<dim>1</dim>
					<dim>1</dim>
					<dim>1</dim>
					<dim>1</dim>
				</port>
			</output>
		</layer>
		<layer id="295" name="Constant_31107" type="Const" version="opset1">
			<data element_type="f32" shape="1, 1, 1, 1" offset="36772" size="4" />
			<output>
				<port id="0" precision="FP32">
					<dim>1</dim>
					<dim>1</dim>
					<dim>1</dim>
					<dim>1</dim>
				</port>
			</output>
		</layer>
		<layer id="296" name="/nncf_module/features/features.2/features.2.1/block/block.2/avgpool/EfficientNet/Sequential[features]/Sequential[2]/MBConv[1]/Sequential[block]/SqueezeExcitation[2]/AdaptiveAvgPool2d[avgpool]/adaptive_avg_pool2d_0|OUTPUT/FakeQuantize" type="FakeQuantize" version="opset1">
			<data levels="256" auto_broadcast="numpy" />
			<input>
				<port id="0" precision="FP32">
					<dim>1</dim>
					<dim>192</dim>
					<dim>1</dim>
					<dim>1</dim>
				</port>
				<port id="1" precision="FP32">
					<dim>1</dim>
					<dim>1</dim>
					<dim>1</dim>
					<dim>1</dim>
				</port>
				<port id="2" precision="FP32">
					<dim>1</dim>
					<dim>1</dim>
					<dim>1</dim>
					<dim>1</dim>
				</port>
				<port id="3" precision="FP32">
					<dim>1</dim>
					<dim>1</dim>
					<dim>1</dim>
					<dim>1</dim>
				</port>
				<port id="4" precision="FP32">
					<dim>1</dim>
					<dim>1</dim>
					<dim>1</dim>
					<dim>1</dim>
				</port>
			</input>
			<output>
				<port id="5" precision="FP32" names="/nncf_module/features/features.2/features.2.1/block/block.2/avgpool/EfficientNet/Sequential[features]/Sequential[2]/MBConv[1]/Sequential[block]/SqueezeExcitation[2]/AdaptiveAvgPool2d[avgpool]/adaptive_avg_pool2d_0|OUTPUT/FakeQuantize_output_0">
					<dim>1</dim>
					<dim>192</dim>
					<dim>1</dim>
					<dim>1</dim>
				</port>
			</output>
		</layer>
		<layer id="297" name="/nncf_module/features/features.2/features.2.1/block/block.2/fc1/pre_ops.0/op/Constant" type="Const" version="opset1">
			<data element_type="i8" shape="8, 192, 1, 1" offset="36776" size="1536" />
			<output>
				<port id="0" precision="I8">
					<dim>8</dim>
					<dim>192</dim>
					<dim>1</dim>
					<dim>1</dim>
				</port>
			</output>
		</layer>
		<layer id="298" name="Convert_35910" type="Convert" version="opset1">
			<data destination_type="f32" />
			<input>
				<port id="0" precision="I8">
					<dim>8</dim>
					<dim>192</dim>
					<dim>1</dim>
					<dim>1</dim>
				</port>
			</input>
			<output>
				<port id="1" precision="FP32">
					<dim>8</dim>
					<dim>192</dim>
					<dim>1</dim>
					<dim>1</dim>
				</port>
			</output>
		</layer>
		<layer id="299" name="Constant_35817" type="Const" version="opset1">
			<data element_type="f32" shape="8, 1, 1, 1" offset="38312" size="32" />
			<output>
				<port id="0" precision="FP32">
					<dim>8</dim>
					<dim>1</dim>
					<dim>1</dim>
					<dim>1</dim>
				</port>
			</output>
		</layer>
		<layer id="300" name="/nncf_module/features/features.2/features.2.1/block/block.2/fc1/pre_ops.0/op/FakeQuantize" type="Multiply" version="opset1">
			<data auto_broadcast="numpy" />
			<input>
				<port id="0" precision="FP32">
					<dim>8</dim>
					<dim>192</dim>
					<dim>1</dim>
					<dim>1</dim>
				</port>
				<port id="1" precision="FP32">
					<dim>8</dim>
					<dim>1</dim>
					<dim>1</dim>
					<dim>1</dim>
				</port>
			</input>
			<output>
				<port id="2" precision="FP32" names="/nncf_module/features/features.2/features.2.1/block/block.2/fc1/pre_ops.0/op/FakeQuantize_output_0">
					<dim>8</dim>
					<dim>192</dim>
					<dim>1</dim>
					<dim>1</dim>
				</port>
			</output>
		</layer>
		<layer id="301" name="/nncf_module/features/features.2/features.2.1/block/block.2/fc1/Conv/WithoutBiases" type="Convolution" version="opset1">
			<data strides="1, 1" dilations="1, 1" pads_begin="0, 0" pads_end="0, 0" auto_pad="explicit" />
			<input>
				<port id="0" precision="FP32">
					<dim>1</dim>
					<dim>192</dim>
					<dim>1</dim>
					<dim>1</dim>
				</port>
				<port id="1" precision="FP32">
					<dim>8</dim>
					<dim>192</dim>
					<dim>1</dim>
					<dim>1</dim>
				</port>
			</input>
			<output>
				<port id="2" precision="FP32">
					<dim>1</dim>
					<dim>8</dim>
					<dim>1</dim>
					<dim>1</dim>
				</port>
			</output>
		</layer>
		<layer id="302" name="Reshape_1288" type="Const" version="opset1">
			<data element_type="f32" shape="1, 8, 1, 1" offset="38344" size="32" />
			<output>
				<port id="0" precision="FP32">
					<dim>1</dim>
					<dim>8</dim>
					<dim>1</dim>
					<dim>1</dim>
				</port>
			</output>
		</layer>
		<layer id="303" name="/nncf_module/features/features.2/features.2.1/block/block.2/fc1/Conv" type="Add" version="opset1">
			<data auto_broadcast="numpy" />
			<input>
				<port id="0" precision="FP32">
					<dim>1</dim>
					<dim>8</dim>
					<dim>1</dim>
					<dim>1</dim>
				</port>
				<port id="1" precision="FP32">
					<dim>1</dim>
					<dim>8</dim>
					<dim>1</dim>
					<dim>1</dim>
				</port>
			</input>
			<output>
				<port id="2" precision="FP32" names="/nncf_module/features/features.2/features.2.1/block/block.2/fc1/Conv_output_0">
					<dim>1</dim>
					<dim>8</dim>
					<dim>1</dim>
					<dim>1</dim>
				</port>
			</output>
		</layer>
		<layer id="304" name="/nncf_module/features/features.2/features.2.1/block/block.2/activation/Mul" type="Swish" version="opset4">
			<input>
				<port id="0" precision="FP32">
					<dim>1</dim>
					<dim>8</dim>
					<dim>1</dim>
					<dim>1</dim>
				</port>
			</input>
			<output>
				<port id="1" precision="FP32" names="/nncf_module/features/features.2/features.2.1/block/block.2/activation/Mul_output_0">
					<dim>1</dim>
					<dim>8</dim>
					<dim>1</dim>
					<dim>1</dim>
				</port>
			</output>
		</layer>
		<layer id="305" name="Constant_31108" type="Const" version="opset1">
			<data element_type="f32" shape="1, 1, 1, 1" offset="38376" size="4" />
			<output>
				<port id="0" precision="FP32">
					<dim>1</dim>
					<dim>1</dim>
					<dim>1</dim>
					<dim>1</dim>
				</port>
			</output>
		</layer>
		<layer id="306" name="Constant_31109" type="Const" version="opset1">
			<data element_type="f32" shape="1, 1, 1, 1" offset="38380" size="4" />
			<output>
				<port id="0" precision="FP32">
					<dim>1</dim>
					<dim>1</dim>
					<dim>1</dim>
					<dim>1</dim>
				</port>
			</output>
		</layer>
		<layer id="307" name="Constant_31110" type="Const" version="opset1">
			<data element_type="f32" shape="1, 1, 1, 1" offset="38376" size="4" />
			<output>
				<port id="0" precision="FP32">
					<dim>1</dim>
					<dim>1</dim>
					<dim>1</dim>
					<dim>1</dim>
				</port>
			</output>
		</layer>
		<layer id="308" name="Constant_31111" type="Const" version="opset1">
			<data element_type="f32" shape="1, 1, 1, 1" offset="38380" size="4" />
			<output>
				<port id="0" precision="FP32">
					<dim>1</dim>
					<dim>1</dim>
					<dim>1</dim>
					<dim>1</dim>
				</port>
			</output>
		</layer>
		<layer id="309" name="/nncf_module/features/features.2/features.2.1/block/block.2/activation/EfficientNet/Sequential[features]/Sequential[2]/MBConv[1]/Sequential[block]/SqueezeExcitation[2]/SiLU[activation]/silu_0|OUTPUT/FakeQuantize" type="FakeQuantize" version="opset1">
			<data levels="256" auto_broadcast="numpy" />
…
		<edge from-layer="1700" from-port="1" to-layer="1702" to-port="0" />
		<edge from-layer="1701" from-port="0" to-layer="1702" to-port="1" />
		<edge from-layer="1702" from-port="2" to-layer="1704" to-port="0" />
		<edge from-layer="1702" from-port="2" to-layer="1706" to-port="0" />
		<edge from-layer="1703" from-port="0" to-layer="1704" to-port="1" />
		<edge from-layer="1704" from-port="2" to-layer="1712" to-port="0" />
		<edge from-layer="1705" from-port="0" to-layer="1710" to-port="1" />
		<edge from-layer="1705" from-port="0" to-layer="1711" to-port="0" />
		<edge from-layer="1706" from-port="1" to-layer="1709" to-port="0" />
		<edge from-layer="1707" from-port="0" to-layer="1709" to-port="1" />
		<edge from-layer="1708" from-port="0" to-layer="1709" to-port="2" />
		<edge from-layer="1709" from-port="3" to-layer="1710" to-port="0" />
		<edge from-layer="1709" from-port="4" to-layer="1711" to-port="2" />
		<edge from-layer="1710" from-port="2" to-layer="1711" to-port="1" />
		<edge from-layer="1711" from-port="3" to-layer="1712" to-port="1" />
		<edge from-layer="1712" from-port="2" to-layer="1713" to-port="1" />
		<edge from-layer="1713" from-port="2" to-layer="1715" to-port="0" />
		<edge from-layer="1714" from-port="0" to-layer="1715" to-port="1" />
		<edge from-layer="1715" from-port="2" to-layer="1716" to-port="0" />
		<edge from-layer="1716" from-port="1" to-layer="1721" to-port="0" />
		<edge from-layer="1717" from-port="0" to-layer="1721" to-port="1" />
		<edge from-layer="1718" from-port="0" to-layer="1721" to-port="2" />
		<edge from-layer="1719" from-port="0" to-layer="1721" to-port="3" />
		<edge from-layer="1720" from-port="0" to-layer="1721" to-port="4" />
		<edge from-layer="1721" from-port="5" to-layer="1723" to-port="0" />
		<edge from-layer="1721" from-port="5" to-layer="1755" to-port="1" />
		<edge from-layer="1722" from-port="0" to-layer="1723" to-port="1" />
		<edge from-layer="1723" from-port="2" to-layer="1728" to-port="0" />
		<edge from-layer="1724" from-port="0" to-layer="1728" to-port="1" />
		<edge from-layer="1725" from-port="0" to-layer="1728" to-port="2" />
		<edge from-layer="1726" from-port="0" to-layer="1728" to-port="3" />
		<edge from-layer="1727" from-port="0" to-layer="1728" to-port="4" />
		<edge from-layer="1728" from-port="5" to-layer="1733" to-port="0" />
		<edge from-layer="1729" from-port="0" to-layer="1730" to-port="0" />
		<edge from-layer="1730" from-port="1" to-layer="1732" to-port="0" />
		<edge from-layer="1731" from-port="0" to-layer="1732" to-port="1" />
		<edge from-layer="1732" from-port="2" to-layer="1733" to-port="1" />
		<edge from-layer="1733" from-port="2" to-layer="1735" to-port="0" />
		<edge from-layer="1734" from-port="0" to-layer="1735" to-port="1" />
		<edge from-layer="1735" from-port="2" to-layer="1736" to-port="0" />
		<edge from-layer="1736" from-port="1" to-layer="1741" to-port="0" />
		<edge from-layer="1737" from-port="0" to-layer="1741" to-port="1" />
		<edge from-layer="1738" from-port="0" to-layer="1741" to-port="2" />
		<edge from-layer="1739" from-port="0" to-layer="1741" to-port="3" />
		<edge from-layer="1740" from-port="0" to-layer="1741" to-port="4" />
		<edge from-layer="1741" from-port="5" to-layer="1746" to-port="0" />
		<edge from-layer="1742" from-port="0" to-layer="1743" to-port="0" />
		<edge from-layer="1743" from-port="1" to-layer="1745" to-port="0" />
		<edge from-layer="1744" from-port="0" to-layer="1745" to-port="1" />
		<edge from-layer="1745" from-port="2" to-layer="1746" to-port="1" />
		<edge from-layer="1746" from-port="2" to-layer="1748" to-port="0" />
		<edge from-layer="1747" from-port="0" to-layer="1748" to-port="1" />
		<edge from-layer="1748" from-port="2" to-layer="1749" to-port="0" />
		<edge from-layer="1749" from-port="1" to-layer="1754" to-port="0" />
		<edge from-layer="1750" from-port="0" to-layer="1754" to-port="1" />
		<edge from-layer="1751" from-port="0" to-layer="1754" to-port="2" />
		<edge from-layer="1752" from-port="0" to-layer="1754" to-port="3" />
		<edge from-layer="1753" from-port="0" to-layer="1754" to-port="4" />
		<edge from-layer="1754" from-port="5" to-layer="1755" to-port="0" />
		<edge from-layer="1755" from-port="2" to-layer="1760" to-port="0" />
		<edge from-layer="1756" from-port="0" to-layer="1760" to-port="1" />
		<edge from-layer="1757" from-port="0" to-layer="1760" to-port="2" />
		<edge from-layer="1758" from-port="0" to-layer="1760" to-port="3" />
		<edge from-layer="1759" from-port="0" to-layer="1760" to-port="4" />
		<edge from-layer="1760" from-port="5" to-layer="1765" to-port="0" />
		<edge from-layer="1761" from-port="0" to-layer="1762" to-port="0" />
		<edge from-layer="1762" from-port="1" to-layer="1764" to-port="0" />
		<edge from-layer="1763" from-port="0" to-layer="1764" to-port="1" />
		<edge from-layer="1764" from-port="2" to-layer="1765" to-port="1" />
		<edge from-layer="1765" from-port="2" to-layer="1767" to-port="0" />
		<edge from-layer="1766" from-port="0" to-layer="1767" to-port="1" />
		<edge from-layer="1767" from-port="2" to-layer="1772" to-port="0" />
		<edge from-layer="1768" from-port="0" to-layer="1772" to-port="1" />
		<edge from-layer="1769" from-port="0" to-layer="1772" to-port="2" />
		<edge from-layer="1770" from-port="0" to-layer="1772" to-port="3" />
		<edge from-layer="1771" from-port="0" to-layer="1772" to-port="4" />
		<edge from-layer="1772" from-port="5" to-layer="1773" to-port="0" />
		<edge from-layer="1773" from-port="2" to-layer="1778" to-port="0" />
		<edge from-layer="1774" from-port="0" to-layer="1778" to-port="1" />
		<edge from-layer="1775" from-port="0" to-layer="1778" to-port="2" />
		<edge from-layer="1776" from-port="0" to-layer="1778" to-port="3" />
		<edge from-layer="1777" from-port="0" to-layer="1778" to-port="4" />
		<edge from-layer="1778" from-port="5" to-layer="1783" to-port="0" />
		<edge from-layer="1778" from-port="5" to-layer="1864" to-port="1" />
		<edge from-layer="1779" from-port="0" to-layer="1780" to-port="0" />
		<edge from-layer="1780" from-port="1" to-layer="1782" to-port="0" />
		<edge from-layer="1781" from-port="0" to-layer="1782" to-port="1" />
		<edge from-layer="1782" from-port="2" to-layer="1783" to-port="1" />
		<edge from-layer="1783" from-port="2" to-layer="1785" to-port="0" />
		<edge from-layer="1784" from-port="0" to-layer="1785" to-port="1" />
		<edge from-layer="1785" from-port="2" to-layer="1786" to-port="0" />
		<edge from-layer="1786" from-port="1" to-layer="1789" to-port="0" />
		<edge from-layer="1787" from-port="0" to-layer="1789" to-port="1" />
		<edge from-layer="1787" from-port="0" to-layer="1789" to-port="3" />
		<edge from-layer="1788" from-port="0" to-layer="1789" to-port="4" />
		<edge from-layer="1788" from-port="0" to-layer="1789" to-port="2" />
		<edge from-layer="1789" from-port="5" to-layer="1804" to-port="0" />
		<edge from-layer="1790" from-port="0" to-layer="1791" to-port="0" />
		<edge from-layer="1791" from-port="1" to-layer="1793" to-port="0" />
		<edge from-layer="1792" from-port="0" to-layer="1793" to-port="1" />
		<edge from-layer="1793" from-port="2" to-layer="1795" to-port="0" />
		<edge from-layer="1793" from-port="2" to-layer="1797" to-port="0" />
		<edge from-layer="1794" from-port="0" to-layer="1795" to-port="1" />
		<edge from-layer="1795" from-port="2" to-layer="1803" to-port="0" />
		<edge from-layer="1796" from-port="0" to-layer="1801" to-port="1" />
		<edge from-layer="1796" from-port="0" to-layer="1802" to-port="0" />
		<edge from-layer="1797" from-port="1" to-layer="1800" to-port="0" />
		<edge from-layer="1798" from-port="0" to-layer="1800" to-port="1" />
		<edge from-layer="1799" from-port="0" to-layer="1800" to-port="2" />
		<edge from-layer="1800" from-port="3" to-layer="1801" to-port="0" />
		<edge from-layer="1800" from-port="4" to-layer="1802" to-port="2" />
		<edge from-layer="1801" from-port="2" to-layer="1802" to-port="1" />
		<edge from-layer="1802" from-port="3" to-layer="1803" to-port="1" />
		<edge from-layer="1803" from-port="2" to-layer="1804" to-port="1" />
		<edge from-layer="1804" from-port="2" to-layer="1806" to-port="0" />
		<edge from-layer="1805" from-port="0" to-layer="1806" to-port="1" />
		<edge from-layer="1806" from-port="2" to-layer="1807" to-port="0" />
		<edge from-layer="1807" from-port="1" to-layer="1812" to-port="0" />
		<edge from-layer="1808" from-port="0" to-layer="1812" to-port="1" />
		<edge from-layer="1809" from-port="0" to-layer="1812" to-port="2" />
		<edge from-layer="1810" from-port="0" to-layer="1812" to-port="3" />
		<edge from-layer="1811" from-port="0" to-layer="1812" to-port="4" />
		<edge from-layer="1812" from-port="5" to-layer="1846" to-port="1" />
		<edge from-layer="1812" from-port="5" to-layer="1814" to-port="0" />
		<edge from-layer="1813" from-port="0" to-layer="1814" to-port="1" />
		<edge from-layer="1814" from-port="2" to-layer="1819" to-port="0" />
		<edge from-layer="1815" from-port="0" to-layer="1819" to-port="1" />
		<edge from-layer="1816" from-port="0" to-layer="1819" to-port="2" />
		<edge from-layer="1817" from-port="0" to-layer="1819" to-port="3" />
		<edge from-layer="1818" from-port="0" to-layer="1819" to-port="4" />
		<edge from-layer="1819" from-port="5" to-layer="1824" to-port="0" />
		<edge from-layer="1820" from-port="0" to-layer="1821" to-port="0" />
		<edge from-layer="1821" from-port="1" to-layer="1823" to-port="0" />
		<edge from-layer="1822" from-port="0" to-layer="1823" to-port="1" />
		<edge from-layer="1823" from-port="2" to-layer="1824" to-port="1" />
		<edge from-layer="1824" from-port="2" to-layer="1826" to-port="0" />
		<edge from-layer="1825" from-port="0" to-layer="1826" to-port="1" />
		<edge from-layer="1826" from-port="2" to-layer="1827" to-port="0" />
		<edge from-layer="1827" from-port="1" to-layer="1832" to-port="0" />
		<edge from-layer="1828" from-port="0" to-layer="1832" to-port="1" />
		<edge from-layer="1829" from-port="0" to-layer="1832" to-port="2" />
		<edge from-layer="1830" from-port="0" to-layer="1832" to-port="3" />
		<edge from-layer="1831" from-port="0" to-layer="1832" to-port="4" />
		<edge from-layer="1832" from-port="5" to-layer="1837" to-port="0" />
		<edge from-layer="1833" from-port="0" to-layer="1834" to-port="0" />
		<edge from-layer="1834" from-port="1" to-layer="1836" to-port="0" />
		<edge from-layer="1835" from-port="0" to-layer="1836" to-port="1" />
		<edge from-layer="1836" from-port="2" to-layer="1837" to-port="1" />
		<edge from-layer="1837" from-port="2" to-layer="1839" to-port="0" />
		<edge from-layer="1838" from-port="0" to-layer="1839" to-port="1" />
		<edge from-layer="1839" from-port="2" to-layer="1840" to-port="0" />
		<edge from-layer="1840" from-port="1" to-layer="1845" to-port="0" />
		<edge from-layer="1841" from-port="0" to-layer="1845" to-port="1" />
		<edge from-layer="1842" from-port="0" to-layer="1845" to-port="2" />
		<edge from-layer="1843" from-port="0" to-layer="1845" to-port="3" />
		<edge from-layer="1844" from-port="0" to-layer="1845" to-port="4" />
		<edge from-layer="1845" from-port="5" to-layer="1846" to-port="0" />
		<edge from-layer="1846" from-port="2" to-layer="1851" to-port="0" />
		<edge from-layer="1847" from-port="0" to-layer="1851" to-port="1" />
		<edge from-layer="1848" from-port="0" to-layer="1851" to-port="2" />
		<edge from-layer="1849" from-port="0" to-layer="1851" to-port="3" />
		<edge from-layer="1850" from-port="0" to-layer="1851" to-port="4" />
		<edge from-layer="1851" from-port="5" to-layer="1856" to-port="0" />
		<edge from-layer="1852" from-port="0" to-layer="1853" to-port="0" />
		<edge from-layer="1853" from-port="1" to-layer="1855" to-port="0" />
		<edge from-layer="1854" from-port="0" to-layer="1855" to-port="1" />
		<edge from-layer="1855" from-port="2" to-layer="1856" to-port="1" />
		<edge from-layer="1856" from-port="2" to-layer="1858" to-port="0" />
		<edge from-layer="1857" from-port="0" to-layer="1858" to-port="1" />
		<edge from-layer="1858" from-port="2" to-layer="1863" to-port="0" />
		<edge from-layer="1859" from-port="0" to-layer="1863" to-port="1" />
		<edge from-layer="1860" from-port="0" to-layer="1863" to-port="2" />
		<edge from-layer="1861" from-port="0" to-layer="1863" to-port="3" />
		<edge from-layer="1862" from-port="0" to-layer="1863" to-port="4" />
		<edge from-layer="1863" from-port="5" to-layer="1864" to-port="0" />
		<edge from-layer="1864" from-port="2" to-layer="1869" to-port="0" />
		<edge from-layer="1865" from-port="0" to-layer="1869" to-port="1" />
		<edge from-layer="1866" from-port="0" to-layer="1869" to-port="2" />
		<edge from-layer="1867" from-port="0" to-layer="1869" to-port="3" />
		<edge from-layer="1868" from-port="0" to-layer="1869" to-port="4" />
		<edge from-layer="1869" from-port="5" to-layer="1874" to-port="0" />
		<edge from-layer="1869" from-port="5" to-layer="1955" to-port="1" />
		<edge from-layer="1870" from-port="0" to-layer="1871" to-port="0" />
		<edge from-layer="1871" from-port="1" to-layer="1873" to-port="0" />
		<edge from-layer="1872" from-port="0" to-layer="1873" to-port="1" />
		<edge from-layer="1873" from-port="2" to-layer="1874" to-port="1" />
		<edge from-layer="1874" from-port="2" to-layer="1876" to-port="0" />
		<edge from-layer="1875" from-port="0" to-layer="1876" to-port="1" />
		<edge from-layer="1876" from-port="2" to-layer="1877" to-port="0" />
		<edge from-layer="1877" from-port="1" to-layer="1880" to-port="0" />
		<edge from-layer="1878" from-port="0" to-layer="1880" to-port="3" />
		<edge from-layer="1878" from-port="0" to-layer="1880" to-port="1" />
		<edge from-layer="1879" from-port="0" to-layer="1880" to-port="4" />
		<edge from-layer="1879" from-port="0" to-layer="1880" to-port="2" />
		<edge from-layer="1880" from-port="5" to-layer="1895" to-port="0" />
		<edge from-layer="1881" from-port="0" to-layer="1882" to-port="0" />
		<edge from-layer="1882" from-port="1" to-layer="1884" to-port="0" />
		<edge from-layer="1883" from-port="0" to-layer="1884" to-port="1" />
		<edge from-layer="1884" from-port="2" to-layer="1886" to-port="0" />
		<edge from-layer="1884" from-port="2" to-layer="1888" to-port="0" />
		<edge from-layer="1885" from-port="0" to-layer="1886" to-port="1" />
		<edge from-layer="1886" from-port="2" to-layer="1894" to-port="0" />
		<edge from-layer="1887" from-port="0" to-layer="1892" to-port="1" />
		<edge from-layer="1887" from-port="0" to-layer="1893" to-port="0" />
		<edge from-layer="1888" from-port="1" to-layer="1891" to-port="0" />
		<edge from-layer="1889" from-port="0" to-layer="1891" to-port="1" />
		<edge from-layer="1890" from-port="0" to-layer="1891" to-port="2" />
		<edge from-layer="1891" from-port="3" to-layer="1892" to-port="0" />
		<edge from-layer="1891" from-port="4" to-layer="1893" to-port="2" />
		<edge from-layer="1892" from-port="2" to-layer="1893" to-port="1" />
		<edge from-layer="1893" from-port="3" to-layer="1894" to-port="1" />
		<edge from-layer="1894" from-port="2" to-layer="1895" to-port="1" />
		<edge from-layer="1895" from-port="2" to-layer="1897" to-port="0" />
		<edge from-layer="1896" from-port="0" to-layer="1897" to-port="1" />
		<edge from-layer="1897" from-port="2" to-layer="1898" to-port="0" />
		<edge from-layer="1898" from-port="1" to-layer="1903" to-port="0" />
		<edge from-layer="1899" from-port="0" to-layer="1903" to-port="1" />
		<edge from-layer="1900" from-port="0" to-layer="1903" to-port="2" />
		<edge from-layer="1901" from-port="0" to-layer="1903" to-port="3" />
		<edge from-layer="1902" from-port="0" to-layer="1903" to-port="4" />
		<edge from-layer="1903" from-port="5" to-layer="1937" to-port="1" />
		<edge from-layer="1903" from-port="5" to-layer="1905" to-port="0" />
		<edge from-layer="1904" from-port="0" to-layer="1905" to-port="1" />
		<edge from-layer="1905" from-port="2" to-layer="1910" to-port="0" />
		<edge from-layer="1906" from-port="0" to-layer="1910" to-port="1" />
		<edge from-layer="1907" from-port="0" to-layer="1910" to-port="2" />
		<edge from-layer="1908" from-port="0" to-layer="1910" to-port="3" />
		<edge from-layer="1909" from-port="0" to-layer="1910" to-port="4" />
		<edge from-layer="1910" from-port="5" to-layer="1915" to-port="0" />
		<edge from-layer="1911" from-port="0" to-layer="1912" to-port="0" />
		<edge from-layer="1912" from-port="1" to-layer="1914" to-port="0" />
		<edge from-layer="1913" from-port="0" to-layer="1914" to-port="1" />
		<edge from-layer="1914" from-port="2" to-layer="1915" to-port="1" />
		<edge from-layer="1915" from-port="2" to-layer="1917" to-port="0" />
		<edge from-layer="1916" from-port="0" to-layer="1917" to-port="1" />
		<edge from-layer="1917" from-port="2" to-layer="1918" to-port="0" />
		<edge from-layer="1918" from-port="1" to-layer="1923" to-port="0" />
		<edge from-layer="1919" from-port="0" to-layer="1923" to-port="1" />
		<edge from-layer="1920" from-port="0" to-layer="1923" to-port="2" />
		<edge from-layer="1921" from-port="0" to-layer="1923" to-port="3" />
		<edge from-layer="1922" from-port="0" to-layer="1923" to-port="4" />
		<edge from-layer="1923" from-port="5" to-layer="1928" to-port="0" />
		<edge from-layer="1924" from-port="0" to-layer="1925" to-port="0" />
		<edge from-layer="1925" from-port="1" to-layer="1927" to-port="0" />
		<edge from-layer="1926" from-port="0" to-layer="1927" to-port="1" />
		<edge from-layer="1927" from-port="2" to-layer="1928" to-port="1" />
		<edge from-layer="1928" from-port="2" to-layer="1930" to-port="0" />
		<edge from-layer="1929" from-port="0" to-layer="1930" to-port="1" />
		<edge from-layer="1930" from-port="2" to-layer="1931" to-port="0" />
		<edge from-layer="1931" from-port="1" to-layer="1936" to-port="0" />
		<edge from-layer="1932" from-port="0" to-layer="1936" to-port="1" />
		<edge from-layer="1933" from-port="0" to-layer="1936" to-port="2" />
		<edge from-layer="1934" from-port="0" to-layer="1936" to-port="3" />
		<edge from-layer="1935" from-port="0" to-layer="1936" to-port="4" />
		<edge from-layer="1936" from-port="5" to-layer="1937" to-port="0" />
		<edge from-layer="1937" from-port="2" to-layer="1942" to-port="0" />
		<edge from-layer="1938" from-port="0" to-layer="1942" to-port="1" />
		<edge from-layer="1939" from-port="0" to-layer="1942" to-port="2" />
		<edge from-layer="1940" from-port="0" to-layer="1942" to-port="3" />
		<edge from-layer="1941" from-port="0" to-layer="1942" to-port="4" />
		<edge from-layer="1942" from-port="5" to-layer="1947" to-port="0" />
		<edge from-layer="1943" from-port="0" to-layer="1944" to-port="0" />
		<edge from-layer="1944" from-port="1" to-layer="1946" to-port="0" />
		<edge from-layer="1945" from-port="0" to-layer="1946" to-port="1" />
		<edge from-layer="1946" from-port="2" to-layer="1947" to-port="1" />
		<edge from-layer="1947" from-port="2" to-layer="1949" to-port="0" />
		<edge from-layer="1948" from-port="0" to-layer="1949" to-port="1" />
		<edge from-layer="1949" from-port="2" to-layer="1954" to-port="0" />
		<edge from-layer="1950" from-port="0" to-layer="1954" to-port="1" />
		<edge from-layer="1951" from-port="0" to-layer="1954" to-port="2" />
		<edge from-layer="1952" from-port="0" to-layer="1954" to-port="3" />
		<edge from-layer="1953" from-port="0" to-layer="1954" to-port="4" />
		<edge from-layer="1954" from-port="5" to-layer="1955" to-port="0" />
		<edge from-layer="1955" from-port="2" to-layer="1960" to-port="0" />
		<edge from-layer="1956" from-port="0" to-layer="1960" to-port="1" />
		<edge from-layer="1957" from-port="0" to-layer="1960" to-port="2" />
		<edge from-layer="1958" from-port="0" to-layer="1960" to-port="3" />
		<edge from-layer="1959" from-port="0" to-layer="1960" to-port="4" />
		<edge from-layer="1960" from-port="5" to-layer="2046" to-port="1" />
		<edge from-layer="1960" from-port="5" to-layer="1965" to-port="0" />
		<edge from-layer="1961" from-port="0" to-layer="1962" to-port="0" />
		<edge from-layer="1962" from-port="1" to-layer="1964" to-port="0" />
		<edge from-layer="1963" from-port="0" to-layer="1964" to-port="1" />
		<edge from-layer="1964" from-port="2" to-layer="1965" to-port="1" />
		<edge from-layer="1965" from-port="2" to-layer="1967" to-port="0" />
		<edge from-layer="1966" from-port="0" to-layer="1967" to-port="1" />
		<edge from-layer="1967" from-port="2" to-layer="1968" to-port="0" />
		<edge from-layer="1968" from-port="1" to-layer="1971" to-port="0" />
		<edge from-layer="1969" from-port="0" to-layer="1971" to-port="3" />
		<edge from-layer="1969" from-port="0" to-layer="1971" to-port="1" />
		<edge from-layer="1970" from-port="0" to-layer="1971" to-port="4" />
		<edge from-layer="1970" from-port="0" to-layer="1971" to-port="2" />
		<edge from-layer="1971" from-port="5" to-layer="1986" to-port="0" />
		<edge from-layer="1972" from-port="0" to-layer="1973" to-port="0" />
		<edge from-layer="1973" from-port="1" to-layer="1975" to-port="0" />
		<edge from-layer="1974" from-port="0" to-layer="1975" to-port="1" />
		<edge from-layer="1975" from-port="2" to-layer="1977" to-port="0" />
		<edge from-layer="1975" from-port="2" to-layer="1979" to-port="0" />
		<edge from-layer="1976" from-port="0" to-layer="1977" to-port="1" />
		<edge from-layer="1977" from-port="2" to-layer="1985" to-port="0" />
		<edge from-layer="1978" from-port="0" to-layer="1983" to-port="1" />
		<edge from-layer="1978" from-port="0" to-layer="1984" to-port="0" />
		<edge from-layer="1979" from-port="1" to-layer="1982" to-port="0" />
		<edge from-layer="1980" from-port="0" to-layer="1982" to-port="1" />
		<edge from-layer="1981" from-port="0" to-layer="1982" to-port="2" />
		<edge from-layer="1982" from-port="3" to-layer="1983" to-port="0" />
		<edge from-layer="1982" from-port="4" to-layer="1984" to-port="2" />
		<edge from-layer="1983" from-port="2" to-layer="1984" to-port="1" />
		<edge from-layer="1984" from-port="3" to-layer="1985" to-port="1" />
		<edge from-layer="1985" from-port="2" to-layer="1986" to-port="1" />
		<edge from-layer="1986" from-port="2" to-layer="1988" to-port="0" />
		<edge from-layer="1987" from-port="0" to-layer="1988" to-port="1" />
		<edge from-layer="1988" from-port="2" to-layer="1989" to-port="0" />
		<edge from-layer="1989" from-port="1" to-layer="1994" to-port="0" />
		<edge from-layer="1990" from-port="0" to-layer="1994" to-port="1" />
		<edge from-layer="1991" from-port="0" to-layer="1994" to-port="2" />
		<edge from-layer="1992" from-port="0" to-layer="1994" to-port="3" />
		<edge from-layer="1993" from-port="0" to-layer="1994" to-port="4" />
		<edge from-layer="1994" from-port="5" to-layer="2028" to-port="1" />
		<edge from-layer="1994" from-port="5" to-layer="1996" to-port="0" />
		<edge from-layer="1995" from-port="0" to-layer="1996" to-port="1" />
		<edge from-layer="1996" from-port="2" to-layer="2001" to-port="0" />
		<edge from-layer="1997" from-port="0" to-layer="2001" to-port="1" />
		<edge from-layer="1998" from-port="0" to-layer="2001" to-port="2" />
		<edge from-layer="1999" from-port="0" to-layer="2001" to-port="3" />
		<edge from-layer="2000" from-port="0" to-layer="2001" to-port="4" />
		<edge from-layer="2001" from-port="5" to-layer="2006" to-port="0" />
		<edge from-layer="2002" from-port="0" to-layer="2003" to-port="0" />
		<edge from-layer="2003" from-port="1" to-layer="2005" to-port="0" />
		<edge from-layer="2004" from-port="0" to-layer="2005" to-port="1" />
		<edge from-layer="2005" from-port="2" to-layer="2006" to-port="1" />
		<edge from-layer="2006" from-port="2" to-layer="2008" to-port="0" />
		<edge from-layer="2007" from-port="0" to-layer="2008" to-port="1" />
		<edge from-layer="2008" from-port="2" to-layer="2009" to-port="0" />
		<edge from-layer="2009" from-port="1" to-layer="2014" to-port="0" />
		<edge from-layer="2010" from-port="0" to-layer="2014" to-port="1" />
		<edge from-layer="2011" from-port="0" to-layer="2014" to-port="2" />
		<edge from-layer="2012" from-port="0" to-layer="2014" to-port="3" />
		<edge from-layer="2013" from-port="0" to-layer="2014" to-port="4" />
		<edge from-layer="2014" from-port="5" to-layer="2019" to-port="0" />
		<edge from-layer="2015" from-port="0" to-layer="2016" to-port="0" />
		<edge from-layer="2016" from-port="1" to-layer="2018" to-port="0" />
		<edge from-layer="2017" from-port="0" to-layer="2018" to-port="1" />
		<edge from-layer="2018" from-port="2" to-layer="2019" to-port="1" />
		<edge from-layer="2019" from-port="2" to-layer="2021" to-port="0" />
		<edge from-layer="2020" from-port="0" to-layer="2021" to-port="1" />
		<edge from-layer="2021" from-port="2" to-layer="2022" to-port="0" />
		<edge from-layer="2022" from-port="1" to-layer="2027" to-port="0" />
		<edge from-layer="2023" from-port="0" to-layer="2027" to-port="1" />
		<edge from-layer="2024" from-port="0" to-layer="2027" to-port="2" />
		<edge from-layer="2025" from-port="0" to-layer="2027" to-port="3" />
		<edge from-layer="2026" from-port="0" to-layer="2027" to-port="4" />
		<edge from-layer="2027" from-port="5" to-layer="2028" to-port="0" />
		<edge from-layer="2028" from-port="2" to-layer="2033" to-port="0" />
		<edge from-layer="2029" from-port="0" to-layer="2033" to-port="1" />
		<edge from-layer="2030" from-port="0" to-layer="2033" to-port="2" />
		<edge from-layer="2031" from-port="0" to-layer="2033" to-port="3" />
		<edge from-layer="2032" from-port="0" to-layer="2033" to-port="4" />
		<edge from-layer="2033" from-port="5" to-layer="2038" to-port="0" />
		<edge from-layer="2034" from-port="0" to-layer="2035" to-port="0" />
		<edge from-layer="2035" from-port="1" to-layer="2037" to-port="0" />
		<edge from-layer="2036" from-port="0" to-layer="2037" to-port="1" />
		<edge from-layer="2037" from-port="2" to-layer="2038" to-port="1" />
		<edge from-layer="2038" from-port="2" to-layer="2040" to-port="0" />
		<edge from-layer="2039" from-port="0" to-layer="2040" to-port="1" />
		<edge from-layer="2040" from-port="2" to-layer="2045" to-port="0" />
		<edge from-layer="2041" from-port="0" to-layer="2045" to-port="1" />
		<edge from-layer="2042" from-port="0" to-layer="2045" to-port="2" />
		<edge from-layer="2043" from-port="0" to-layer="2045" to-port="3" />
		<edge from-layer="2044" from-port="0" to-layer="2045" to-port="4" />
		<edge from-layer="2045" from-port="5" to-layer="2046" to-port="0" />
		<edge from-layer="2046" from-port="2" to-layer="2051" to-port="0" />
		<edge from-layer="2047" from-port="0" to-layer="2051" to-port="1" />
		<edge from-layer="2048" from-port="0" to-layer="2051" to-port="2" />
		<edge from-layer="2049" from-port="0" to-layer="2051" to-port="3" />
		<edge from-layer="2050" from-port="0" to-layer="2051" to-port="4" />
		<edge from-layer="2051" from-port="5" to-layer="2056" to-port="0" />
		<edge from-layer="2051" from-port="5" to-layer="2137" to-port="1" />
		<edge from-layer="2052" from-port="0" to-layer="2053" to-port="0" />
		<edge from-layer="2053" from-port="1" to-layer="2055" to-port="0" />
		<edge from-layer="2054" from-port="0" to-layer="2055" to-port="1" />
		<edge from-layer="2055" from-port="2" to-layer="2056" to-port="1" />
		<edge from-layer="2056" from-port="2" to-layer="2058" to-port="0" />
		<edge from-layer="2057" from-port="0" to-layer="2058" to-port="1" />
		<edge from-layer="2058" from-port="2" to-layer="2059" to-port="0" />
		<edge from-layer="2059" from-port="1" to-layer="2062" to-port="0" />
		<edge from-layer="2060" from-port="0" to-layer="2062" to-port="1" />
		<edge from-layer="2060" from-port="0" to-layer="2062" to-port="3" />
		<edge from-layer="2061" from-port="0" to-layer="2062" to-port="4" />
		<edge from-layer="2061" from-port="0" to-layer="2062" to-port="2" />
		<edge from-layer="2062" from-port="5" to-layer="2077" to-port="0" />
		<edge from-layer="2063" from-port="0" to-layer="2064" to-port="0" />
		<edge from-layer="2064" from-port="1" to-layer="2066" to-port="0" />
		<edge from-layer="2065" from-port="0" to-layer="2066" to-port="1" />
		<edge from-layer="2066" from-port="2" to-layer="2070" to-port="0" />
		<edge from-layer="2066" from-port="2" to-layer="2068" to-port="0" />
		<edge from-layer="2067" from-port="0" to-layer="2068" to-port="1" />
		<edge from-layer="2068" from-port="2" to-layer="2076" to-port="0" />
		<edge from-layer="2069" from-port="0" to-layer="2074" to-port="1" />
		<edge from-layer="2069" from-port="0" to-layer="2075" to-port="0" />
		<edge from-layer="2070" from-port="1" to-layer="2073" to-port="0" />
		<edge from-layer="2071" from-port="0" to-layer="2073" to-port="1" />
		<edge from-layer="2072" from-port="0" to-layer="2073" to-port="2" />
		<edge from-layer="2073" from-port="4" to-layer="2075" to-port="2" />
		<edge from-layer="2073" from-port="3" to-layer="2074" to-port="0" />
		<edge from-layer="2074" from-port="2" to-layer="2075" to-port="1" />
		<edge from-layer="2075" from-port="3" to-layer="2076" to-port="1" />
		<edge from-layer="2076" from-port="2" to-layer="2077" to-port="1" />
		<edge from-layer="2077" from-port="2" to-layer="2079" to-port="0" />
		<edge from-layer="2078" from-port="0" to-layer="2079" to-port="1" />
		<edge from-layer="2079" from-port="2" to-layer="2080" to-port="0" />
		<edge from-layer="2080" from-port="1" to-layer="2085" to-port="0" />
		<edge from-layer="2081" from-port="0" to-layer="2085" to-port="1" />
		<edge from-layer="2082" from-port="0" to-layer="2085" to-port="2" />
		<edge from-layer="2083" from-port="0" to-layer="2085" to-port="3" />
		<edge from-layer="2084" from-port="0" to-layer="2085" to-port="4" />
		<edge from-layer="2085" from-port="5" to-layer="2119" to-port="1" />
		<edge from-layer="2085" from-port="5" to-layer="2087" to-port="0" />
		<edge from-layer="2086" from-port="0" to-layer="2087" to-port="1" />
		<edge from-layer="2087" from-port="2" to-layer="2092" to-port="0" />
		<edge from-layer="2088" from-port="0" to-layer="2092" to-port="1" />
		<edge from-layer="2089" from-port="0" to-layer="2092" to-port="2" />
		<edge from-layer="2090" from-port="0" to-layer="2092" to-port="3" />
		<edge from-layer="2091" from-port="0" to-layer="2092" to-port="4" />
		<edge from-layer="2092" from-port="5" to-layer="2097" to-port="0" />
		<edge from-layer="2093" from-port="0" to-layer="2094" to-port="0" />
		<edge from-layer="2094" from-port="1" to-layer="2096" to-port="0" />
		<edge from-layer="2095" from-port="0" to-layer="2096" to-port="1" />
		<edge from-layer="2096" from-port="2" to-layer="2097" to-port="1" />
		<edge from-layer="2097" from-port="2" to-layer="2099" to-port="0" />
		<edge from-layer="2098" from-port="0" to-layer="2099" to-port="1" />
		<edge from-layer="2099" from-port="2" to-layer="2100" to-port="0" />
		<edge from-layer="2100" from-port="1" to-layer="2105" to-port="0" />
		<edge from-layer="2101" from-port="0" to-layer="2105" to-port="1" />
		<edge from-layer="2102" from-port="0" to-layer="2105" to-port="2" />
		<edge from-layer="2103" from-port="0" to-layer="2105" to-port="3" />
		<edge from-layer="2104" from-port="0" to-layer="2105" to-port="4" />
		<edge from-layer="2105" from-port="5" to-layer="2110" to-port="0" />
		<edge from-layer="2106" from-port="0" to-layer="2107" to-port="0" />
		<edge from-layer="2107" from-port="1" to-layer="2109" to-port="0" />
		<edge from-layer="2108" from-port="0" to-layer="2109" to-port="1" />
		<edge from-layer="2109" from-port="2" to-layer="2110" to-port="1" />
		<edge from-layer="2110" from-port="2" to-layer="2112" to-port="0" />
		<edge from-layer="2111" from-port="0" to-layer="2112" to-port="1" />
		<edge from-layer="2112" from-port="2" to-layer="2113" to-port="0" />
		<edge from-layer="2113" from-port="1" to-layer="2118" to-port="0" />
		<edge from-layer="2114" from-port="0" to-layer="2118" to-port="1" />
		<edge from-layer="2115" from-port="0" to-layer="2118" to-port="2" />
		<edge from-layer="2116" from-port="0" to-layer="2118" to-port="3" />
		<edge from-layer="2117" from-port="0" to-layer="2118" to-port="4" />
		<edge from-layer="2118" from-port="5" to-layer="2119" to-port="0" />
		<edge from-layer="2119" from-port="2" to-layer="2124" to-port="0" />
		<edge from-layer="2120" from-port="0" to-layer="2124" to-port="1" />
		<edge from-layer="2121" from-port="0" to-layer="2124" to-port="2" />
		<edge from-layer="2122" from-port="0" to-layer="2124" to-port="3" />
		<edge from-layer="2123" from-port="0" to-layer="2124" to-port="4" />
		<edge from-layer="2124" from-port="5" to-layer="2129" to-port="0" />
		<edge from-layer="2125" from-port="0" to-layer="2126" to-port="0" />
		<edge from-layer="2126" from-port="1" to-layer="2128" to-port="0" />
		<edge from-layer="2127" from-port="0" to-layer="2128" to-port="1" />
		<edge from-layer="2128" from-port="2" to-layer="2129" to-port="1" />
		<edge from-layer="2129" from-port="2" to-layer="2131" to-port="0" />
		<edge from-layer="2130" from-port="0" to-layer="2131" to-port="1" />
		<edge from-layer="2131" from-port="2" to-layer="2136" to-port="0" />
		<edge from-layer="2132" from-port="0" to-layer="2136" to-port="1" />
		<edge from-layer="2133" from-port="0" to-layer="2136" to-port="2" />
		<edge from-layer="2134" from-port="0" to-layer="2136" to-port="3" />
		<edge from-layer="2135" from-port="0" to-layer="2136" to-port="4" />
		<edge from-layer="2136" from-port="5" to-layer="2137" to-port="0" />
		<edge from-layer="2137" from-port="2" to-layer="2142" to-port="0" />
		<edge from-layer="2138" from-port="0" to-layer="2142" to-port="1" />
		<edge from-layer="2139" from-port="0" to-layer="2142" to-port="2" />
		<edge from-layer="2140" from-port="0" to-layer="2142" to-port="3" />
		<edge from-layer="2141" from-port="0" to-layer="2142" to-port="4" />
		<edge from-layer="2142" from-port="5" to-layer="2147" to-port="0" />
		<edge from-layer="2143" from-port="0" to-layer="2144" to-port="0" />
		<edge from-layer="2144" from-port="1" to-layer="2146" to-port="0" />
		<edge from-layer="2145" from-port="0" to-layer="2146" to-port="1" />
		<edge from-layer="2146" from-port="2" to-layer="2147" to-port="1" />
		<edge from-layer="2147" from-port="2" to-layer="2149" to-port="0" />
		<edge from-layer="2148" from-port="0" to-layer="2149" to-port="1" />
		<edge from-layer="2149" from-port="2" to-layer="2150" to-port="0" />
		<edge from-layer="2150" from-port="1" to-layer="2153" to-port="0" />
		<edge from-layer="2151" from-port="0" to-layer="2153" to-port="1" />
		<edge from-layer="2151" from-port="0" to-layer="2153" to-port="3" />
		<edge from-layer="2152" from-port="0" to-layer="2153" to-port="2" />
		<edge from-layer="2152" from-port="0" to-layer="2153" to-port="4" />
		<edge from-layer="2153" from-port="5" to-layer="2168" to-port="0" />
		<edge from-layer="2154" from-port="0" to-layer="2155" to-port="0" />
		<edge from-layer="2155" from-port="1" to-layer="2157" to-port="0" />
		<edge from-layer="2156" from-port="0" to-layer="2157" to-port="1" />
		<edge from-layer="2157" from-port="2" to-layer="2161" to-port="0" />
		<edge from-layer="2157" from-port="2" to-layer="2159" to-port="0" />
		<edge from-layer="2158" from-port="0" to-layer="2159" to-port="1" />
		<edge from-layer="2159" from-port="2" to-layer="2167" to-port="0" />
		<edge from-layer="2160" from-port="0" to-layer="2166" to-port="0" />
		<edge from-layer="2160" from-port="0" to-layer="2165" to-port="1" />
		<edge from-layer="2161" from-port="1" to-layer="2164" to-port="0" />
		<edge from-layer="2162" from-port="0" to-layer="2164" to-port="1" />
		<edge from-layer="2163" from-port="0" to-layer="2164" to-port="2" />
		<edge from-layer="2164" from-port="3" to-layer="2165" to-port="0" />
		<edge from-layer="2164" from-port="4" to-layer="2166" to-port="2" />
		<edge from-layer="2165" from-port="2" to-layer="2166" to-port="1" />
		<edge from-layer="2166" from-port="3" to-layer="2167" to-port="1" />
		<edge from-layer="2167" from-port="2" to-layer="2168" to-port="1" />
		<edge from-layer="2168" from-port="2" to-layer="2170" to-port="0" />
		<edge from-layer="2169" from-port="0" to-layer="2170" to-port="1" />
		<edge from-layer="2170" from-port="2" to-layer="2171" to-port="0" />
		<edge from-layer="2171" from-port="1" to-layer="2176" to-port="0" />
		<edge from-layer="2172" from-port="0" to-layer="2176" to-port="1" />
		<edge from-layer="2173" from-port="0" to-layer="2176" to-port="2" />
		<edge from-layer="2174" from-port="0" to-layer="2176" to-port="3" />
		<edge from-layer="2175" from-port="0" to-layer="2176" to-port="4" />
		<edge from-layer="2176" from-port="5" to-layer="2210" to-port="1" />
		<edge from-layer="2176" from-port="5" to-layer="2178" to-port="0" />
		<edge from-layer="2177" from-port="0" to-layer="2178" to-port="1" />
		<edge from-layer="2178" from-port="2" to-layer="2183" to-port="0" />
		<edge from-layer="2179" from-port="0" to-layer="2183" to-port="1" />
		<edge from-layer="2180" from-port="0" to-layer="2183" to-port="2" />
		<edge from-layer="2181" from-port="0" to-layer="2183" to-port="3" />
		<edge from-layer="2182" from-port="0" to-layer="2183" to-port="4" />
		<edge from-layer="2183" from-port="5" to-layer="2188" to-port="0" />
		<edge from-layer="2184" from-port="0" to-layer="2185" to-port="0" />
		<edge from-layer="2185" from-port="1" to-layer="2187" to-port="0" />
		<edge from-layer="2186" from-port="0" to-layer="2187" to-port="1" />
		<edge from-layer="2187" from-port="2" to-layer="2188" to-port="1" />
		<edge from-layer="2188" from-port="2" to-layer="2190" to-port="0" />
		<edge from-layer="2189" from-port="0" to-layer="2190" to-port="1" />
		<edge from-layer="2190" from-port="2" to-layer="2191" to-port="0" />
		<edge from-layer="2191" from-port="1" to-layer="2196" to-port="0" />
		<edge from-layer="2192" from-port="0" to-layer="2196" to-port="1" />
		<edge from-layer="2193" from-port="0" to-layer="2196" to-port="2" />
		<edge from-layer="2194" from-port="0" to-layer="2196" to-port="3" />
		<edge from-layer="2195" from-port="0" to-layer="2196" to-port="4" />
		<edge from-layer="2196" from-port="5" to-layer="2201" to-port="0" />
		<edge from-layer="2197" from-port="0" to-layer="2198" to-port="0" />
		<edge from-layer="2198" from-port="1" to-layer="2200" to-port="0" />
		<edge from-layer="2199" from-port="0" to-layer="2200" to-port="1" />
		<edge from-layer="2200" from-port="2" to-layer="2201" to-port="1" />
		<edge from-layer="2201" from-port="2" to-layer="2203" to-port="0" />
		<edge from-layer="2202" from-port="0" to-layer="2203" to-port="1" />
		<edge from-layer="2203" from-port="2" to-layer="2204" to-port="0" />
		<edge from-layer="2204" from-port="1" to-layer="2209" to-port="0" />
		<edge from-layer="2205" from-port="0" to-layer="2209" to-port="1" />
		<edge from-layer="2206" from-port="0" to-layer="2209" to-port="2" />
		<edge from-layer="2207" from-port="0" to-layer="2209" to-port="3" />
		<edge from-layer="2208" from-port="0" to-layer="2209" to-port="4" />
		<edge from-layer="2209" from-port="5" to-layer="2210" to-port="0" />
		<edge from-layer="2210" from-port="2" to-layer="2215" to-port="0" />
		<edge from-layer="2211" from-port="0" to-layer="2215" to-port="1" />
		<edge from-layer="2212" from-port="0" to-layer="2215" to-port="2" />
		<edge from-layer="2213" from-port="0" to-layer="2215" to-port="3" />
		<edge from-layer="2214" from-port="0" to-layer="2215" to-port="4" />
		<edge from-layer="2215" from-port="5" to-layer="2220" to-port="0" />
		<edge from-layer="2216" from-port="0" to-layer="2217" to-port="0" />
		<edge from-layer="2217" from-port="1" to-layer="2219" to-port="0" />
		<edge from-layer="2218" from-port="0" to-layer="2219" to-port="1" />
		<edge from-layer="2219" from-port="2" to-layer="2220" to-port="1" />
		<edge from-layer="2220" from-port="2" to-layer="2222" to-port="0" />
		<edge from-layer="2221" from-port="0" to-layer="2222" to-port="1" />
		<edge from-layer="2222" from-port="2" to-layer="2227" to-port="0" />
		<edge from-layer="2223" from-port="0" to-layer="2227" to-port="1" />
		<edge from-layer="2224" from-port="0" to-layer="2227" to-port="2" />
		<edge from-layer="2225" from-port="0" to-layer="2227" to-port="3" />
		<edge from-layer="2226" from-port="0" to-layer="2227" to-port="4" />
		<edge from-layer="2227" from-port="5" to-layer="2232" to-port="0" />
		<edge from-layer="2227" from-port="5" to-layer="2313" to-port="1" />
		<edge from-layer="2228" from-port="0" to-layer="2229" to-port="0" />
		<edge from-layer="2229" from-port="1" to-layer="2231" to-port="0" />
		<edge from-layer="2230" from-port="0" to-layer="2231" to-port="1" />
		<edge from-layer="2231" from-port="2" to-layer="2232" to-port="1" />
		<edge from-layer="2232" from-port="2" to-layer="2234" to-port="0" />
		<edge from-layer="2233" from-port="0" to-layer="2234" to-port="1" />
		<edge from-layer="2234" from-port="2" to-layer="2235" to-port="0" />
		<edge from-layer="2235" from-port="1" to-layer="2238" to-port="0" />
		<edge from-layer="2236" from-port="0" to-layer="2238" to-port="1" />
		<edge from-layer="2236" from-port="0" to-layer="2238" to-port="3" />
		<edge from-layer="2237" from-port="0" to-layer="2238" to-port="2" />
		<edge from-layer="2237" from-port="0" to-layer="2238" to-port="4" />
		<edge from-layer="2238" from-port="5" to-layer="2253" to-port="0" />
		<edge from-layer="2239" from-port="0" to-layer="2240" to-port="0" />
		<edge from-layer="2240" from-port="1" to-layer="2242" to-port="0" />
		<edge from-layer="2241" from-port="0" to-layer="2242" to-port="1" />
		<edge from-layer="2242" from-port="2" to-layer="2244" to-port="0" />
		<edge from-layer="2242" from-port="2" to-layer="2246" to-port="0" />
		<edge from-layer="2243" from-port="0" to-layer="2244" to-port="1" />
		<edge from-layer="2244" from-port="2" to-layer="2252" to-port="0" />
		<edge from-layer="2245" from-port="0" to-layer="2250" to-port="1" />
		<edge from-layer="2245" from-port="0" to-layer="2251" to-port="0" />
		<edge from-layer="2246" from-port="1" to-layer="2249" to-port="0" />
		<edge from-layer="2247" from-port="0" to-layer="2249" to-port="1" />
		<edge from-layer="2248" from-port="0" to-layer="2249" to-port="2" />
		<edge from-layer="2249" from-port="3" to-layer="2250" to-port="0" />
		<edge from-layer="2249" from-port="4" to-layer="2251" to-port="2" />
		<edge from-layer="2250" from-port="2" to-layer="2251" to-port="1" />
		<edge from-layer="2251" from-port="3" to-layer="2252" to-port="1" />
		<edge from-layer="2252" from-port="2" to-layer="2253" to-port="1" />
		<edge from-layer="2253" from-port="2" to-layer="2255" to-port="0" />
		<edge from-layer="2254" from-port="0" to-layer="2255" to-port="1" />
		<edge from-layer="2255" from-port="2" to-layer="2256" to-port="0" />
		<edge from-layer="2256" from-port="1" to-layer="2261" to-port="0" />
		<edge from-layer="2257" from-port="0" to-layer="2261" to-port="1" />
		<edge from-layer="2258" from-port="0" to-layer="2261" to-port="2" />
		<edge from-layer="2259" from-port="0" to-layer="2261" to-port="3" />
		<edge from-layer="2260" from-port="0" to-layer="2261" to-port="4" />
		<edge from-layer="2261" from-port="5" to-layer="2295" to-port="1" />
		<edge from-layer="2261" from-port="5" to-layer="2263" to-port="0" />
		<edge from-layer="2262" from-port="0" to-layer="2263" to-port="1" />
		<edge from-layer="2263" from-port="2" to-layer="2268" to-port="0" />
		<edge from-layer="2264" from-port="0" to-layer="2268" to-port="1" />
		<edge from-layer="2265" from-port="0" to-layer="2268" to-port="2" />
		<edge from-layer="2266" from-port="0" to-layer="2268" to-port="3" />
		<edge from-layer="2267" from-port="0" to-layer="2268" to-port="4" />
		<edge from-layer="2268" from-port="5" to-layer="2273" to-port="0" />
		<edge from-layer="2269" from-port="0" to-layer="2270" to-port="0" />
		<edge from-layer="2270" from-port="1" to-layer="2272" to-port="0" />
		<edge from-layer="2271" from-port="0" to-layer="2272" to-port="1" />
		<edge from-layer="2272" from-port="2" to-layer="2273" to-port="1" />
		<edge from-layer="2273" from-port="2" to-layer="2275" to-port="0" />
		<edge from-layer="2274" from-port="0" to-layer="2275" to-port="1" />
		<edge from-layer="2275" from-port="2" to-layer="2276" to-port="0" />
		<edge from-layer="2276" from-port="1" to-layer="2281" to-port="0" />
		<edge from-layer="2277" from-port="0" to-layer="2281" to-port="1" />
		<edge from-layer="2278" from-port="0" to-layer="2281" to-port="2" />
		<edge from-layer="2279" from-port="0" to-layer="2281" to-port="3" />
		<edge from-layer="2280" from-port="0" to-layer="2281" to-port="4" />
		<edge from-layer="2281" from-port="5" to-layer="2286" to-port="0" />
		<edge from-layer="2282" from-port="0" to-layer="2283" to-port="0" />
		<edge from-layer="2283" from-port="1" to-layer="2285" to-port="0" />
		<edge from-layer="2284" from-port="0" to-layer="2285" to-port="1" />
		<edge from-layer="2285" from-port="2" to-layer="2286" to-port="1" />
		<edge from-layer="2286" from-port="2" to-layer="2288" to-port="0" />
		<edge from-layer="2287" from-port="0" to-layer="2288" to-port="1" />
		<edge from-layer="2288" from-port="2" to-layer="2289" to-port="0" />
		<edge from-layer="2289" from-port="1" to-layer="2294" to-port="0" />
		<edge from-layer="2290" from-port="0" to-layer="2294" to-port="1" />
		<edge from-layer="2291" from-port="0" to-layer="2294" to-port="2" />
		<edge from-layer="2292" from-port="0" to-layer="2294" to-port="3" />
		<edge from-layer="2293" from-port="0" to-layer="2294" to-port="4" />
		<edge from-layer="2294" from-port="5" to-layer="2295" to-port="0" />
		<edge from-layer="2295" from-port="2" to-layer="2300" to-port="0" />
		<edge from-layer="2296" from-port="0" to-layer="2300" to-port="1" />
		<edge from-layer="2297" from-port="0" to-layer="2300" to-port="2" />
		<edge from-layer="2298" from-port="0" to-layer="2300" to-port="3" />
		<edge from-layer="2299" from-port="0" to-layer="2300" to-port="4" />
		<edge from-layer="2300" from-port="5" to-layer="2305" to-port="0" />
		<edge from-layer="2301" from-port="0" to-layer="2302" to-port="0" />
		<edge from-layer="2302" from-port="1" to-layer="2304" to-port="0" />
		<edge from-layer="2303" from-port="0" to-layer="2304" to-port="1" />
		<edge from-layer="2304" from-port="2" to-layer="2305" to-port="1" />
		<edge from-layer="2305" from-port="2" to-layer="2307" to-port="0" />
		<edge from-layer="2306" from-port="0" to-layer="2307" to-port="1" />
		<edge from-layer="2307" from-port="2" to-layer="2312" to-port="0" />
		<edge from-layer="2308" from-port="0" to-layer="2312" to-port="1" />
		<edge from-layer="2309" from-port="0" to-layer="2312" to-port="2" />
		<edge from-layer="2310" from-port="0" to-layer="2312" to-port="3" />
		<edge from-layer="2311" from-port="0" to-layer="2312" to-port="4" />
		<edge from-layer="2312" from-port="5" to-layer="2313" to-port="0" />
		<edge from-layer="2313" from-port="2" to-layer="2318" to-port="0" />
		<edge from-layer="2314" from-port="0" to-layer="2318" to-port="1" />
		<edge from-layer="2315" from-port="0" to-layer="2318" to-port="2" />
		<edge from-layer="2316" from-port="0" to-layer="2318" to-port="3" />
		<edge from-layer="2317" from-port="0" to-layer="2318" to-port="4" />
		<edge from-layer="2318" from-port="5" to-layer="2323" to-port="0" />
		<edge from-layer="2319" from-port="0" to-layer="2320" to-port="0" />
		<edge from-layer="2320" from-port="1" to-layer="2322" to-port="0" />
		<edge from-layer="2321" from-port="0" to-layer="2322" to-port="1" />
		<edge from-layer="2322" from-port="2" to-layer="2323" to-port="1" />
		<edge from-layer="2323" from-port="2" to-layer="2325" to-port="0" />
		<edge from-layer="2324" from-port="0" to-layer="2325" to-port="1" />
		<edge from-layer="2325" from-port="2" to-layer="2326" to-port="0" />
		<edge from-layer="2326" from-port="1" to-layer="2331" to-port="0" />
		<edge from-layer="2327" from-port="0" to-layer="2331" to-port="1" />
		<edge from-layer="2328" from-port="0" to-layer="2331" to-port="2" />
		<edge from-layer="2329" from-port="0" to-layer="2331" to-port="3" />
		<edge from-layer="2330" from-port="0" to-layer="2331" to-port="4" />
		<edge from-layer="2331" from-port="5" to-layer="2333" to-port="0" />
		<edge from-layer="2332" from-port="0" to-layer="2333" to-port="1" />
		<edge from-layer="2333" from-port="2" to-layer="2338" to-port="0" />
		<edge from-layer="2334" from-port="0" to-layer="2338" to-port="1" />
		<edge from-layer="2335" from-port="0" to-layer="2338" to-port="2" />
		<edge from-layer="2336" from-port="0" to-layer="2338" to-port="3" />
		<edge from-layer="2337" from-port="0" to-layer="2338" to-port="4" />
		<edge from-layer="2338" from-port="5" to-layer="2349" to-port="0" />
		<edge from-layer="2339" from-port="0" to-layer="2348" to-port="0" />
		<edge from-layer="2340" from-port="0" to-layer="2341" to-port="0" />
		<edge from-layer="2341" from-port="1" to-layer="2343" to-port="0" />
		<edge from-layer="2342" from-port="0" to-layer="2343" to-port="1" />
		<edge from-layer="2343" from-port="2" to-layer="2344" to-port="0" />
		<edge from-layer="2343" from-port="2" to-layer="2350" to-port="1" />
		<edge from-layer="2344" from-port="1" to-layer="2347" to-port="0" />
		<edge from-layer="2345" from-port="0" to-layer="2347" to-port="1" />
		<edge from-layer="2346" from-port="0" to-layer="2347" to-port="2" />
		<edge from-layer="2347" from-port="3" to-layer="2348" to-port="1" />
		<edge from-layer="2348" from-port="2" to-layer="2349" to-port="1" />
		<edge from-layer="2349" from-port="2" to-layer="2350" to-port="0" />
		<edge from-layer="2350" from-port="2" to-layer="2352" to-port="0" />
		<edge from-layer="2351" from-port="0" to-layer="2352" to-port="1" />
		<edge from-layer="2352" from-port="2" to-layer="2353" to-port="0" />
	</edges>
	<rt_info>
		<MO_version value="2022.3.0-9052-9752fafe8eb-releases/2022/3" />
		<Runtime_version value="2022.3.0-9052-9752fafe8eb-releases/2022/3" />
		<conversion_parameters>
			<framework value="onnx" />
			<input_model value="DIR/efficientnet_b3_int8.onnx" />
			<model_name value="efficientnet_b3_int8" />
		</conversion_parameters>
		<legacy_frontend value="False" />
	</rt_info>
</net>
