<?xml version="1.0"?>
<net name="torch-jit-export" version="11">
	<layers>
		<layer id="0" name="images" type="Parameter" version="opset1">
			<data shape="1,3,1024,1824" element_type="f32" />
			<output>
				<port id="0" precision="FP32" names="images">
					<dim>1</dim>
					<dim>3</dim>
					<dim>1024</dim>
					<dim>1824</dim>
				</port>
			</output>
		</layer>
		<layer id="1" name="425" type="Const" version="opset1">
			<data element_type="f32" shape="64, 3, 7, 7" offset="0" size="37632" />
			<output>
				<port id="0" precision="FP32" names="425">
					<dim>64</dim>
					<dim>3</dim>
					<dim>7</dim>
					<dim>7</dim>
				</port>
			</output>
		</layer>
		<layer id="2" name="Conv_0/WithoutBiases" type="Convolution" version="opset1">
			<data strides="2, 2" dilations="1, 1" pads_begin="3, 3" pads_end="3, 3" auto_pad="explicit" />
			<input>
				<port id="0" precision="FP32">
					<dim>1</dim>
					<dim>3</dim>
					<dim>1024</dim>
					<dim>1824</dim>
				</port>
				<port id="1" precision="FP32">
					<dim>64</dim>
					<dim>3</dim>
					<dim>7</dim>
					<dim>7</dim>
				</port>
			</input>
			<output>
				<port id="2" precision="FP32">
					<dim>1</dim>
					<dim>64</dim>
					<dim>512</dim>
					<dim>912</dim>
				</port>
			</output>
		</layer>
		<layer id="3" name="Reshape_101" type="Const" version="opset1">
			<data element_type="f32" shape="1, 64, 1, 1" offset="37632" size="256" />
			<output>
				<port id="0" precision="FP32">
					<dim>1</dim>
					<dim>64</dim>
					<dim>1</dim>
					<dim>1</dim>
				</port>
			</output>
		</layer>
		<layer id="4" name="Conv_0" type="Add" version="opset1">
			<data auto_broadcast="numpy" />
			<input>
				<port id="0" precision="FP32">
					<dim>1</dim>
					<dim>64</dim>
					<dim>512</dim>
					<dim>912</dim>
				</port>
				<port id="1" precision="FP32">
					<dim>1</dim>
					<dim>64</dim>
					<dim>1</dim>
					<dim>1</dim>
				</port>
			</input>
			<output>
				<port id="2" precision="FP32" names="424">
					<dim>1</dim>
					<dim>64</dim>
					<dim>512</dim>
					<dim>912</dim>
				</port>
			</output>
		</layer>
		<layer id="5" name="Relu_1" type="ReLU" version="opset1">
			<input>
				<port id="0" precision="FP32">
					<dim>1</dim>
					<dim>64</dim>
					<dim>512</dim>
					<dim>912</dim>
				</port>
			</input>
			<output>
				<port id="1" precision="FP32" names="212">
					<dim>1</dim>
					<dim>64</dim>
					<dim>512</dim>
					<dim>912</dim>
				</port>
			</output>
		</layer>
		<layer id="6" name="MaxPool_2" type="MaxPool" version="opset8">
			<data strides="2, 2" dilations="1, 1" pads_begin="1, 1" pads_end="1, 1" kernel="3, 3" rounding_type="floor" auto_pad="explicit" index_element_type="i64" axis="0" />
			<input>
				<port id="0" precision="FP32">
					<dim>1</dim>
					<dim>64</dim>
					<dim>512</dim>
					<dim>912</dim>
				</port>
			</input>
			<output>
				<port id="1" precision="FP32" names="213">
					<dim>1</dim>
					<dim>64</dim>
					<dim>256</dim>
					<dim>456</dim>
				</port>
				<port id="2" precision="I64">
					<dim>1</dim>
					<dim>64</dim>
					<dim>256</dim>
					<dim>456</dim>
				</port>
			</output>
		</layer>
		<layer id="7" name="428" type="Const" version="opset1">
			<data element_type="f32" shape="64, 64, 3, 3" offset="37888" size="147456" />
			<output>
				<port id="0" precision="FP32" names="428">
					<dim>64</dim>
					<dim>64</dim>
					<dim>3</dim>
					<dim>3</dim>
				</port>
			</output>
		</layer>
		<layer id="8" name="Conv_3/WithoutBiases" type="Convolution" version="opset1">
			<data strides="1, 1" dilations="1, 1" pads_begin="1, 1" pads_end="1, 1" auto_pad="explicit" />
			<input>
				<port id="0" precision="FP32">
					<dim>1</dim>
					<dim>64</dim>
					<dim>256</dim>
					<dim>456</dim>
				</port>
				<port id="1" precision="FP32">
					<dim>64</dim>
					<dim>64</dim>
					<dim>3</dim>
					<dim>3</dim>
				</port>
			</input>
			<output>
				<port id="2" precision="FP32">
					<dim>1</dim>
					<dim>64</dim>
					<dim>256</dim>
					<dim>456</dim>
				</port>
			</output>
		</layer>
		<layer id="9" name="Reshape_151" type="Const" version="opset1">
			<data element_type="f32" shape="1, 64, 1, 1" offset="185344" size="256" />
			<output>
				<port id="0" precision="FP32">
					<dim>1</dim>
					<dim>64</dim>
					<dim>1</dim>
					<dim>1</dim>
				</port>
			</output>
		</layer>
		<layer id="10" name="Conv_3" type="Add" version="opset1">
			<data auto_broadcast="numpy" />
			<input>
				<port id="0" precision="FP32">
					<dim>1</dim>
					<dim>64</dim>
					<dim>256</dim>
					<dim>456</dim>
				</port>
				<port id="1" precision="FP32">
					<dim>1</dim>
					<dim>64</dim>
					<dim>1</dim>
					<dim>1</dim>
				</port>
			</input>
			<output>
				<port id="2" precision="FP32" names="427">
					<dim>1</dim>
					<dim>64</dim>
					<dim>256</dim>
					<dim>456</dim>
				</port>
			</output>
		</layer>
		<layer id="11" name="Relu_4" type="ReLU" version="opset1">
			<input>
				<port id="0" precision="FP32">
					<dim>1</dim>
					<dim>64</dim>
					<dim>256</dim>
					<dim>456</dim>
				</port>
			</input>
			<output>
				<port id="1" precision="FP32" names="216">
					<dim>1</dim>
					<dim>64</dim>
					<dim>256</dim>
					<dim>456</dim>
				</port>
			</output>
		</layer>
		<layer id="12" name="431" type="Const" version="opset1">
			<data element_type="f32" shape="64, 64, 3, 3" offset="185600" size="147456" />
			<output>
				<port id="0" precision="FP32" names="431">
					<dim>64</dim>
					<dim>64</dim>
					<dim>3</dim>
					<dim>3</dim>
				</port>
			</output>
		</layer>
		<layer id="13" name="Conv_5/WithoutBiases" type="Convolution" version="opset1">
			<data strides="1, 1" dilations="1, 1" pads_begin="1, 1" pads_end="1, 1" auto_pad="explicit" />
			<input>
				<port id="0" precision="FP32">
					<dim>1</dim>
					<dim>64</dim>
					<dim>256</dim>
					<dim>456</dim>
				</port>
				<port id="1" precision="FP32">
					<dim>64</dim>
					<dim>64</dim>
					<dim>3</dim>
					<dim>3</dim>
				</port>
			</input>
			<output>
				<port id="2" precision="FP32">
					<dim>1</dim>
					<dim>64</dim>
					<dim>256</dim>
					<dim>456</dim>
				</port>
			</output>
		</layer>
		<layer id="14" name="Reshape_200" type="Const" version="opset1">
			<data element_type="f32" shape="1, 64, 1, 1" offset="333056" size="256" />
			<output>
				<port id="0" precision="FP32">
					<dim>1</dim>
					<dim>64</dim>
					<dim>1</dim>
					<dim>1</dim>
				</port>
			</output>
		</layer>
		<layer id="15" name="Conv_5" type="Add" version="opset1">
			<data auto_broadcast="numpy" />
			<input>
				<port id="0" precision="FP32">
					<dim>1</dim>
					<dim>64</dim>
					<dim>256</dim>
					<dim>456</dim>
				</port>
				<port id="1" precision="FP32">
					<dim>1</dim>
					<dim>64</dim>
					<dim>1</dim>
					<dim>1</dim>
				</port>
			</input>
			<output>
				<port id="2" precision="FP32" names="430">
					<dim>1</dim>
					<dim>64</dim>
					<dim>256</dim>
					<dim>456</dim>
				</port>
			</output>
		</layer>
		<layer id="16" name="Add_6" type="Add" version="opset1">
			<data auto_broadcast="numpy" />
			<input>
				<port id="0" precision="FP32">
					<dim>1</dim>
					<dim>64</dim>
					<dim>256</dim>
					<dim>456</dim>
				</port>
				<port id="1" precision="FP32">
					<dim>1</dim>
					<dim>64</dim>
					<dim>256</dim>
					<dim>456</dim>
				</port>
			</input>
			<output>
				<port id="2" precision="FP32" names="219">
					<dim>1</dim>
					<dim>64</dim>
					<dim>256</dim>
					<dim>456</dim>
				</port>
			</output>
		</layer>
		<layer id="17" name="Relu_7" type="ReLU" version="opset1">
			<input>
				<port id="0" precision="FP32">
					<dim>1</dim>
					<dim>64</dim>
					<dim>256</dim>
					<dim>456</dim>
				</port>
			</input>
			<output>
				<port id="1" precision="FP32" names="220">
					<dim>1</dim>
					<dim>64</dim>
					<dim>256</dim>
					<dim>456</dim>
				</port>
			</output>
		</layer>
		<layer id="18" name="434" type="Const" version="opset1">
			<data element_type="f32" shape="64, 64, 3, 3" offset="333312" size="147456" />
			<output>
				<port id="0" precision="FP32" names="434">
					<dim>64</dim>
					<dim>64</dim>
					<dim>3</dim>
					<dim>3</dim>
				</port>
			</output>
		</layer>
		<layer id="19" name="Conv_8/WithoutBiases" type="Convolution" version="opset1">
			<data strides="1, 1" dilations="1, 1" pads_begin="1, 1" pads_end="1, 1" auto_pad="explicit" />
			<input>
				<port id="0" precision="FP32">
					<dim>1</dim>
					<dim>64</dim>
					<dim>256</dim>
					<dim>456</dim>
				</port>
				<port id="1" precision="FP32">
					<dim>64</dim>
					<dim>64</dim>
					<dim>3</dim>
					<dim>3</dim>
				</port>
			</input>
			<output>
				<port id="2" precision="FP32">
					<dim>1</dim>
					<dim>64</dim>
					<dim>256</dim>
					<dim>456</dim>
				</port>
			</output>
		</layer>
		<layer id="20" name="Reshape_250" type="Const" version="opset1">
			<data element_type="f32" shape="1, 64, 1, 1" offset="480768" size="256" />
			<output>
				<port id="0" precision="FP32">
					<dim>1</dim>
					<dim>64</dim>
					<dim>1</dim>
					<dim>1</dim>
				</port>
			</output>
		</layer>
		<layer id="21" name="Conv_8" type="Add" version="opset1">
			<data auto_broadcast="numpy" />
			<input>
				<port id="0" precision="FP32">
					<dim>1</dim>
					<dim>64</dim>
					<dim>256</dim>
					<dim>456</dim>
				</port>
				<port id="1" precision="FP32">
					<dim>1</dim>
					<dim>64</dim>
					<dim>1</dim>
					<dim>1</dim>
				</port>
			</input>
			<output>
				<port id="2" precision="FP32" names="433">
					<dim>1</dim>
					<dim>64</dim>
					<dim>256</dim>
					<dim>456</dim>
				</port>
			</output>
		</layer>
		<layer id="22" name="Relu_9" type="ReLU" version="opset1">
			<input>
				<port id="0" precision="FP32">
					<dim>1</dim>
					<dim>64</dim>
					<dim>256</dim>
					<dim>456</dim>
				</port>
			</input>
			<output>
				<port id="1" precision="FP32" names="223">
					<dim>1</dim>
					<dim>64</dim>
					<dim>256</dim>
					<dim>456</dim>
				</port>
			</output>
		</layer>
		<layer id="23" name="437" type="Const" version="opset1">
			<data element_type="f32" shape="64, 64, 3, 3" offset="481024" size="147456" />
			<output>
				<port id="0" precision="FP32" names="437">
					<dim>64</dim>
					<dim>64</dim>
					<dim>3</dim>
					<dim>3</dim>
				</port>
			</output>
		</layer>
		<layer id="24" name="Conv_10/WithoutBiases" type="Convolution" version="opset1">
			<data strides="1, 1" dilations="1, 1" pads_begin="1, 1" pads_end="1, 1" auto_pad="explicit" />
			<input>
				<port id="0" precision="FP32">
					<dim>1</dim>
					<dim>64</dim>
					<dim>256</dim>
					<dim>456</dim>
				</port>
				<port id="1" precision="FP32">
					<dim>64</dim>
					<dim>64</dim>
					<dim>3</dim>
					<dim>3</dim>
				</port>
			</input>
			<output>
				<port id="2" precision="FP32">
					<dim>1</dim>
					<dim>64</dim>
					<dim>256</dim>
					<dim>456</dim>
				</port>
			</output>
		</layer>
		<layer id="25" name="Reshape_299" type="Const" version="opset1">
			<data element_type="f32" shape="1, 64, 1, 1" offset="628480" size="256" />
			<output>
				<port id="0" precision="FP32">
					<dim>1</dim>
					<dim>64</dim>
					<dim>1</dim>
					<dim>1</dim>
				</port>
			</output>
		</layer>
		<layer id="26" name="Conv_10" type="Add" version="opset1">
			<data auto_broadcast="numpy" />
			<input>
				<port id="0" precision="FP32">
					<dim>1</dim>
					<dim>64</dim>
					<dim>256</dim>
					<dim>456</dim>
				</port>
				<port id="1" precision="FP32">
					<dim>1</dim>
					<dim>64</dim>
					<dim>1</dim>
					<dim>1</dim>
				</port>
			</input>
			<output>
				<port id="2" precision="FP32" names="436">
					<dim>1</dim>
					<dim>64</dim>
					<dim>256</dim>
					<dim>456</dim>
				</port>
			</output>
		</layer>
		<layer id="27" name="Add_11" type="Add" version="opset1">
			<data auto_broadcast="numpy" />
			<input>
				<port id="0" precision="FP32">
					<dim>1</dim>
					<dim>64</dim>
					<dim>256</dim>
					<dim>456</dim>
				</port>
				<port id="1" precision="FP32">
					<dim>1</dim>
					<dim>64</dim>
					<dim>256</dim>
					<dim>456</dim>
				</port>
			</input>
			<output>
				<port id="2" precision="FP32" names="226">
					<dim>1</dim>
					<dim>64</dim>
					<dim>256</dim>
					<dim>456</dim>
				</port>
			</output>
		</layer>
		<layer id="28" name="Relu_12" type="ReLU" version="opset1">
			<input>
				<port id="0" precision="FP32">
					<dim>1</dim>
					<dim>64</dim>
					<dim>256</dim>
					<dim>456</dim>
				</port>
			</input>
			<output>
				<port id="1" precision="FP32" names="227">
					<dim>1</dim>
					<dim>64</dim>
					<dim>256</dim>
					<dim>456</dim>
				</port>
			</output>
		</layer>
		<layer id="29" name="440" type="Const" version="opset1">
			<data element_type="f32" shape="128, 64, 3, 3" offset="628736" size="294912" />
			<output>
				<port id="0" precision="FP32" names="440">
					<dim>128</dim>
					<dim>64</dim>
					<dim>3</dim>
					<dim>3</dim>
				</port>
			</output>
		</layer>
		<layer id="30" name="Conv_13/WithoutBiases" type="Convolution" version="opset1">
			<data strides="2, 2" dilations="1, 1" pads_begin="1, 1" pads_end="1, 1" auto_pad="explicit" />
			<input>
				<port id="0" precision="FP32">
					<dim>1</dim>
					<dim>64</dim>
					<dim>256</dim>
					<dim>456</dim>
				</port>
				<port id="1" precision="FP32">
					<dim>128</dim>
					<dim>64</dim>
					<dim>3</dim>
					<dim>3</dim>
				</port>
			</input>
			<output>
				<port id="2" precision="FP32">
					<dim>1</dim>
					<dim>128</dim>
					<dim>128</dim>
					<dim>228</dim>
				</port>
			</output>
		</layer>
		<layer id="31" name="Reshape_349" type="Const" version="opset1">
			<data element_type="f32" shape="1, 128, 1, 1" offset="923648" size="512" />
			<output>
				<port id="0" precision="FP32">
					<dim>1</dim>
					<dim>128</dim>
					<dim>1</dim>
					<dim>1</dim>
				</port>
			</output>
		</layer>
		<layer id="32" name="Conv_13" type="Add" version="opset1">
			<data auto_broadcast="numpy" />
			<input>
				<port id="0" precision="FP32">
					<dim>1</dim>
					<dim>128</dim>
					<dim>128</dim>
					<dim>228</dim>
				</port>
				<port id="1" precision="FP32">
					<dim>1</dim>
					<dim>128</dim>
					<dim>1</dim>
					<dim>1</dim>
				</port>
			</input>
			<output>
				<port id="2" precision="FP32" names="439">
					<dim>1</dim>
					<dim>128</dim>
					<dim>128</dim>
					<dim>228</dim>
				</port>
			</output>
		</layer>
		<layer id="33" name="Relu_14" type="ReLU" version="opset1">
			<input>
				<port id="0" precision="FP32">
					<dim>1</dim>
					<dim>128</dim>
					<dim>128</dim>
					<dim>228</dim>
				</port>
			</input>
			<output>
				<port id="1" precision="FP32" names="230">
					<dim>1</dim>
					<dim>128</dim>
					<dim>128</dim>
					<dim>228</dim>
				</port>
			</output>
		</layer>
		<layer id="34" name="443" type="Const" version="opset1">
			<data element_type="f32" shape="128, 128, 3, 3" offset="924160" size="589824" />
			<output>
				<port id="0" precision="FP32" names="443">
					<dim>128</dim>
					<dim>128</dim>
					<dim>3</dim>
					<dim>3</dim>
				</port>
			</output>
		</layer>
		<layer id="35" name="Conv_15/WithoutBiases" type="Convolution" version="opset1">
			<data strides="1, 1" dilations="1, 1" pads_begin="1, 1" pads_end="1, 1" auto_pad="explicit" />
			<input>
				<port id="0" precision="FP32">
					<dim>1</dim>
					<dim>128</dim>
					<dim>128</dim>
					<dim>228</dim>
				</port>
				<port id="1" precision="FP32">
					<dim>128</dim>
					<dim>128</dim>
					<dim>3</dim>
					<dim>3</dim>
				</port>
			</input>
			<output>
				<port id="2" precision="FP32">
					<dim>1</dim>
					<dim>128</dim>
					<dim>128</dim>
					<dim>228</dim>
				</port>
			</output>
		</layer>
		<layer id="36" name="Reshape_398" type="Const" version="opset1">
			<data element_type="f32" shape="1, 128, 1, 1" offset="1513984" size="512" />
			<output>
				<port id="0" precision="FP32">
					<dim>1</dim>
					<dim>128</dim>
					<dim>1</dim>
					<dim>1</dim>
				</port>
			</output>
		</layer>
		<layer id="37" name="Conv_15" type="Add" version="opset1">
			<data auto_broadcast="numpy" />
			<input>
				<port id="0" precision="FP32">
					<dim>1</dim>
					<dim>128</dim>
					<dim>128</dim>
					<dim>228</dim>
				</port>
				<port id="1" precision="FP32">
					<dim>1</dim>
					<dim>128</dim>
					<dim>1</dim>
					<dim>1</dim>
				</port>
			</input>
			<output>
				<port id="2" precision="FP32" names="442">
					<dim>1</dim>
					<dim>128</dim>
					<dim>128</dim>
					<dim>228</dim>
				</port>
			</output>
		</layer>
		<layer id="38" name="446" type="Const" version="opset1">
			<data element_type="f32" shape="128, 64, 1, 1" offset="1514496" size="32768" />
			<output>
				<port id="0" precision="FP32" names="446">
					<dim>128</dim>
					<dim>64</dim>
					<dim>1</dim>
					<dim>1</dim>
				</port>
			</output>
		</layer>
		<layer id="39" name="Conv_16/WithoutBiases" type="Convolution" version="opset1">
			<data strides="2, 2" dilations="1, 1" pads_begin="0, 0" pads_end="0, 0" auto_pad="explicit" />
			<input>
				<port id="0" precision="FP32">
					<dim>1</dim>
					<dim>64</dim>
					<dim>256</dim>
					<dim>456</dim>
				</port>
				<port id="1" precision="FP32">
					<dim>128</dim>
					<dim>64</dim>
					<dim>1</dim>
					<dim>1</dim>
				</port>
			</input>
			<output>
				<port id="2" precision="FP32">
					<dim>1</dim>
					<dim>128</dim>
					<dim>128</dim>
					<dim>228</dim>
				</port>
			</output>
		</layer>
		<layer id="40" name="Reshape_446" type="Const" version="opset1">
			<data element_type="f32" shape="1, 128, 1, 1" offset="1547264" size="512" />
			<output>
				<port id="0" precision="FP32">
					<dim>1</dim>
					<dim>128</dim>
					<dim>1</dim>
					<dim>1</dim>
				</port>
			</output>
		</layer>
		<layer id="41" name="Conv_16" type="Add" version="opset1">
			<data auto_broadcast="numpy" />
			<input>
				<port id="0" precision="FP32">
					<dim>1</dim>
					<dim>128</dim>
					<dim>128</dim>
					<dim>228</dim>
				</port>
				<port id="1" precision="FP32">
					<dim>1</dim>
					<dim>128</dim>
					<dim>1</dim>
					<dim>1</dim>
				</port>
			</input>
			<output>
				<port id="2" precision="FP32" names="445">
					<dim>1</dim>
					<dim>128</dim>
					<dim>128</dim>
					<dim>228</dim>
				</port>
			</output>
		</layer>
		<layer id="42" name="Add_17" type="Add" version="opset1">
			<data auto_broadcast="numpy" />
			<input>
				<port id="0" precision="FP32">
					<dim>1</dim>
					<dim>128</dim>
					<dim>128</dim>
					<dim>228</dim>
				</port>
				<port id="1" precision="FP32">
					<dim>1</dim>
					<dim>128</dim>
					<dim>128</dim>
					<dim>228</dim>
				</port>
			</input>
			<output>
				<port id="2" precision="FP32" names="235">
					<dim>1</dim>
					<dim>128</dim>
					<dim>128</dim>
					<dim>228</dim>
				</port>
			</output>
		</layer>
		<layer id="43" name="Relu_18" type="ReLU" version="opset1">
			<input>
				<port id="0" precision="FP32">
					<dim>1</dim>
					<dim>128</dim>
					<dim>128</dim>
					<dim>228</dim>
				</port>
			</input>
			<output>
				<port id="1" precision="FP32" names="236">
					<dim>1</dim>
					<dim>128</dim>
					<dim>128</dim>
					<dim>228</dim>
				</port>
			</output>
		</layer>
		<layer id="44" name="449" type="Const" version="opset1">
			<data element_type="f32" shape="128, 128, 3, 3" offset="1547776" size="589824" />
			<output>
				<port id="0" precision="FP32" names="449">
					<dim>128</dim>
					<dim>128</dim>
					<dim>3</dim>
					<dim>3</dim>
				</port>
			</output>
		</layer>
		<layer id="45" name="Conv_19/WithoutBiases" type="Convolution" version="opset1">
			<data strides="1, 1" dilations="1, 1" pads_begin="1, 1" pads_end="1, 1" auto_pad="explicit" />
			<input>
				<port id="0" precision="FP32">
					<dim>1</dim>
					<dim>128</dim>
					<dim>128</dim>
					<dim>228</dim>
				</port>
				<port id="1" precision="FP32">
					<dim>128</dim>
					<dim>128</dim>
					<dim>3</dim>
					<dim>3</dim>
				</port>
			</input>
			<output>
				<port id="2" precision="FP32">
					<dim>1</dim>
					<dim>128</dim>
					<dim>128</dim>
					<dim>228</dim>
				</port>
			</output>
		</layer>
		<layer id="46" name="Reshape_496" type="Const" version="opset1">
			<data element_type="f32" shape="1, 128, 1, 1" offset="2137600" size="512" />
			<output>
				<port id="0" precision="FP32">
					<dim>1</dim>
					<dim>128</dim>
					<dim>1</dim>
					<dim>1</dim>
				</port>
			</output>
		</layer>
		<layer id="47" name="Conv_19" type="Add" version="opset1">
			<data auto_broadcast="numpy" />
			<input>
				<port id="0" precision="FP32">
					<dim>1</dim>
					<dim>128</dim>
					<dim>128</dim>
					<dim>228</dim>
				</port>
				<port id="1" precision="FP32">
					<dim>1</dim>
					<dim>128</dim>
					<dim>1</dim>
					<dim>1</dim>
				</port>
			</input>
			<output>
				<port id="2" precision="FP32" names="448">
					<dim>1</dim>
					<dim>128</dim>
					<dim>128</dim>
					<dim>228</dim>
				</port>
			</output>
		</layer>
		<layer id="48" name="Relu_20" type="ReLU" version="opset1">
			<input>
				<port id="0" precision="FP32">
					<dim>1</dim>
					<dim>128</dim>
					<dim>128</dim>
					<dim>228</dim>
				</port>
			</input>
			<output>
				<port id="1" precision="FP32" names="239">
					<dim>1</dim>
					<dim>128</dim>
					<dim>128</dim>
					<dim>228</dim>
				</port>
			</output>
		</layer>
		<layer id="49" name="452" type="Const" version="opset1">
			<data element_type="f32" shape="128, 128, 3, 3" offset="2138112" size="589824" />
			<output>
				<port id="0" precision="FP32" names="452">
					<dim>128</dim>
					<dim>128</dim>
					<dim>3</dim>
					<dim>3</dim>
				</port>
			</output>
		</layer>
		<layer id="50" name="Conv_21/WithoutBiases" type="Convolution" version="opset1">
			<data strides="1, 1" dilations="1, 1" pads_begin="1, 1" pads_end="1, 1" auto_pad="explicit" />
			<input>
				<port id="0" precision="FP32">
					<dim>1</dim>
					<dim>128</dim>
					<dim>128</dim>
					<dim>228</dim>
				</port>
				<port id="1" precision="FP32">
					<dim>128</dim>
					<dim>128</dim>
					<dim>3</dim>
					<dim>3</dim>
				</port>
			</input>
			<output>
				<port id="2" precision="FP32">
					<dim>1</dim>
					<dim>128</dim>
					<dim>128</dim>
					<dim>228</dim>
				</port>
			</output>
		</layer>
		<layer id="51" name="Reshape_545" type="Const" version="opset1">
			<data element_type="f32" shape="1, 128, 1, 1" offset="2727936" size="512" />
			<output>
				<port id="0" precision="FP32">
					<dim>1</dim>
					<dim>128</dim>
					<dim>1</dim>
					<dim>1</dim>
				</port>
			</output>
		</layer>
		<layer id="52" name="Conv_21" type="Add" version="opset1">
			<data auto_broadcast="numpy" />
			<input>
				<port id="0" precision="FP32">
					<dim>1</dim>
					<dim>128</dim>
					<dim>128</dim>
					<dim>228</dim>
				</port>
				<port id="1" precision="FP32">
					<dim>1</dim>
					<dim>128</dim>
					<dim>1</dim>
					<dim>1</dim>
				</port>
			</input>
			<output>
				<port id="2" precision="FP32" names="451">
					<dim>1</dim>
					<dim>128</dim>
					<dim>128</dim>
					<dim>228</dim>
				</port>
			</output>
		</layer>
		<layer id="53" name="Add_22" type="Add" version="opset1">
			<data auto_broadcast="numpy" />
			<input>
				<port id="0" precision="FP32">
					<dim>1</dim>
					<dim>128</dim>
					<dim>128</dim>
					<dim>228</dim>
				</port>
				<port id="1" precision="FP32">
					<dim>1</dim>
					<dim>128</dim>
					<dim>128</dim>
					<dim>228</dim>
				</port>
			</input>
			<output>
				<port id="2" precision="FP32" names="242">
					<dim>1</dim>
					<dim>128</dim>
					<dim>128</dim>
					<dim>228</dim>
				</port>
			</output>
		</layer>
		<layer id="54" name="Relu_23" type="ReLU" version="opset1">
			<input>
				<port id="0" precision="FP32">
					<dim>1</dim>
					<dim>128</dim>
					<dim>128</dim>
					<dim>228</dim>
				</port>
			</input>
			<output>
				<port id="1" precision="FP32" names="243">
					<dim>1</dim>
					<dim>128</dim>
					<dim>128</dim>
					<dim>228</dim>
				</port>
			</output>
		</layer>
		<layer id="55" name="455" type="Const" version="opset1">
			<data element_type="f32" shape="256, 128, 3, 3" offset="2728448" size="1179648" />
			<output>
				<port id="0" precision="FP32" names="455">
					<dim>256</dim>
					<dim>128</dim>
					<dim>3</dim>
					<dim>3</dim>
				</port>
			</output>
		</layer>
		<layer id="56" name="Conv_24/WithoutBiases" type="Convolution" version="opset1">
			<data strides="2, 2" dilations="1, 1" pads_begin="1, 1" pads_end="1, 1" auto_pad="explicit" />
			<input>
				<port id="0" precision="FP32">
					<dim>1</dim>
					<dim>128</dim>
					<dim>128</dim>
					<dim>228</dim>
				</port>
				<port id="1" precision="FP32">
					<dim>256</dim>
					<dim>128</dim>
					<dim>3</dim>
					<dim>3</dim>
				</port>
			</input>
			<output>
				<port id="2" precision="FP32">
					<dim>1</dim>
					<dim>256</dim>
					<dim>64</dim>
					<dim>114</dim>
				</port>
			</output>
		</layer>
		<layer id="57" name="Reshape_595" type="Const" version="opset1">
			<data element_type="f32" shape="1, 256, 1, 1" offset="3908096" size="1024" />
			<output>
				<port id="0" precision="FP32">
					<dim>1</dim>
					<dim>256</dim>
					<dim>1</dim>
					<dim>1</dim>
				</port>
			</output>
		</layer>
		<layer id="58" name="Conv_24" type="Add" version="opset1">
			<data auto_broadcast="numpy" />
			<input>
				<port id="0" precision="FP32">
					<dim>1</dim>
					<dim>256</dim>
					<dim>64</dim>
					<dim>114</dim>
				</port>
				<port id="1" precision="FP32">
					<dim>1</dim>
					<dim>256</dim>
					<dim>1</dim>
					<dim>1</dim>
				</port>
			</input>
			<output>
				<port id="2" precision="FP32" names="454">
					<dim>1</dim>
					<dim>256</dim>
					<dim>64</dim>
					<dim>114</dim>
				</port>
			</output>
		</layer>
		<layer id="59" name="Relu_25" type="ReLU" version="opset1">
			<input>
				<port id="0" precision="FP32">
					<dim>1</dim>
					<dim>256</dim>
					<dim>64</dim>
					<dim>114</dim>
				</port>
			</input>
			<output>
				<port id="1" precision="FP32" names="246">
					<dim>1</dim>
					<dim>256</dim>
					<dim>64</dim>
					<dim>114</dim>
				</port>
			</output>
		</layer>
		<layer id="60" name="458" type="Const" version="opset1">
			<data element_type="f32" shape="256, 256, 3, 3" offset="3909120" size="2359296" />
			<output>
				<port id="0" precision="FP32" names="458">
					<dim>256</dim>
					<dim>256</dim>
					<dim>3</dim>
					<dim>3</dim>
				</port>
			</output>
		</layer>
		<layer id="61" name="Conv_26/WithoutBiases" type="Convolution" version="opset1">
			<data strides="1, 1" dilations="1, 1" pads_begin="1, 1" pads_end="1, 1" auto_pad="explicit" />
			<input>
				<port id="0" precision="FP32">
					<dim>1</dim>
					<dim>256</dim>
					<dim>64</dim>
					<dim>114</dim>
				</port>
				<port id="1" precision="FP32">
					<dim>256</dim>
					<dim>256</dim>
					<dim>3</dim>
					<dim>3</dim>
				</port>
			</input>
			<output>
				<port id="2" precision="FP32">
					<dim>1</dim>
					<dim>256</dim>
					<dim>64</dim>
					<dim>114</dim>
				</port>
			</output>
		</layer>
		<layer id="62" name="Reshape_644" type="Const" version="opset1">
			<data element_type="f32" shape="1, 256, 1, 1" offset="6268416" size="1024" />
			<output>
				<port id="0" precision="FP32">
					<dim>1</dim>
					<dim>256</dim>
					<dim>1</dim>
					<dim>1</dim>
				</port>
			</output>
		</layer>
		<layer id="63" name="Conv_26" type="Add" version="opset1">
			<data auto_broadcast="numpy" />
			<input>
				<port id="0" precision="FP32">
					<dim>1</dim>
					<dim>256</dim>
					<dim>64</dim>
					<dim>114</dim>
				</port>
				<port id="1" precision="FP32">
					<dim>1</dim>
					<dim>256</dim>
					<dim>1</dim>
					<dim>1</dim>
				</port>
			</input>
			<output>
				<port id="2" precision="FP32" names="457">
					<dim>1</dim>
					<dim>256</dim>
					<dim>64</dim>
					<dim>114</dim>
				</port>
			</output>
		</layer>
		<layer id="64" name="461" type="Const" version="opset1">
			<data element_type="f32" shape="256, 128, 1, 1" offset="6269440" size="131072" />
			<output>
				<port id="0" precision="FP32" names="461">
					<dim>256</dim>
					<dim>128</dim>
					<dim>1</dim>
					<dim>1</dim>
				</port>
			</output>
		</layer>
		<layer id="65" name="Conv_27/WithoutBiases" type="Convolution" version="opset1">
			<data strides="2, 2" dilations="1, 1" pads_begin="0, 0" pads_end="0, 0" auto_pad="explicit" />
			<input>
				<port id="0" precision="FP32">
					<dim>1</dim>
					<dim>128</dim>
					<dim>128</dim>
					<dim>228</dim>
				</port>
				<port id="1" precision="FP32">
					<dim>256</dim>
					<dim>128</dim>
					<dim>1</dim>
					<dim>1</dim>
				</port>
			</input>
			<output>
				<port id="2" precision="FP32">
					<dim>1</dim>
					<dim>256</dim>
					<dim>64</dim>
					<dim>114</dim>
				</port>
			</output>
		</layer>
		<layer id="66" name="Reshape_692" type="Const" version="opset1">
			<data element_type="f32" shape="1, 256, 1, 1" offset="6400512" size="1024" />
			<output>
				<port id="0" precision="FP32">
					<dim>1</dim>
					<dim>256</dim>
					<dim>1</dim>
					<dim>1</dim>
				</port>
			</output>
		</layer>
		<layer id="67" name="Conv_27" type="Add" version="opset1">
			<data auto_broadcast="numpy" />
			<input>
				<port id="0" precision="FP32">
					<dim>1</dim>
					<dim>256</dim>
					<dim>64</dim>
					<dim>114</dim>
				</port>
				<port id="1" precision="FP32">
					<dim>1</dim>
					<dim>256</dim>
					<dim>1</dim>
					<dim>1</dim>
				</port>
			</input>
			<output>
				<port id="2" precision="FP32" names="460">
					<dim>1</dim>
					<dim>256</dim>
					<dim>64</dim>
					<dim>114</dim>
				</port>
			</output>
		</layer>
		<layer id="68" name="Add_28" type="Add" version="opset1">
			<data auto_broadcast="numpy" />
			<input>
				<port id="0" precision="FP32">
					<dim>1</dim>
					<dim>256</dim>
					<dim>64</dim>
					<dim>114</dim>
				</port>
				<port id="1" precision="FP32">
					<dim>1</dim>
					<dim>256</dim>
					<dim>64</dim>
					<dim>114</dim>
				</port>
			</input>
			<output>
				<port id="2" precision="FP32" names="251">
					<dim>1</dim>
					<dim>256</dim>
					<dim>64</dim>
					<dim>114</dim>
				</port>
			</output>
		</layer>
		<layer id="69" name="Relu_29" type="ReLU" version="opset1">
			<input>
				<port id="0" precision="FP32">
					<dim>1</dim>
					<dim>256</dim>
					<dim>64</dim>
					<dim>114</dim>
				</port>
			</input>
			<output>
				<port id="1" precision="FP32" names="252">
					<dim>1</dim>
					<dim>256</dim>
					<dim>64</dim>
					<dim>114</dim>
				</port>
			</output>
		</layer>
		<layer id="70" name="464" type="Const" version="opset1">
			<data element_type="f32" shape="256, 256, 3, 3" offset="6401536" size="2359296" />
			<output>
				<port id="0" precision="FP32" names="464">
					<dim>256</dim>
					<dim>256</dim>
					<dim>3</dim>
					<dim>3</dim>
				</port>
			</output>
		</layer>
		<layer id="71" name="Conv_30/WithoutBiases" type="Convolution" version="opset1">
			<data strides="1, 1" dilations="1, 1" pads_begin="1, 1" pads_end="1, 1" auto_pad="explicit" />
			<input>
				<port id="0" precision="FP32">
					<dim>1</dim>
					<dim>256</dim>
					<dim>64</dim>
					<dim>114</dim>
				</port>
				<port id="1" precision="FP32">
					<dim>256</dim>
					<dim>256</dim>
					<dim>3</dim>
					<dim>3</dim>
				</port>
			</input>
			<output>
				<port id="2" precision="FP32">
					<dim>1</dim>
					<dim>256</dim>
					<dim>64</dim>
					<dim>114</dim>
				</port>
			</output>
		</layer>
		<layer id="72" name="Reshape_742" type="Const" version="opset1">
			<data element_type="f32" shape="1, 256, 1, 1" offset="8760832" size="1024" />
			<output>
				<port id="0" precision="FP32">
					<dim>1</dim>
					<dim>256</dim>
					<dim>1</dim>
					<dim>1</dim>
				</port>
			</output>
		</layer>
		<layer id="73" name="Conv_30" type="Add" version="opset1">
			<data auto_broadcast="numpy" />
			<input>
				<port id="0" precision="FP32">
					<dim>1</dim>
					<dim>256</dim>
					<dim>64</dim>
					<dim>114</dim>
				</port>
				<port id="1" precision="FP32">
					<dim>1</dim>
					<dim>256</dim>
					<dim>1</dim>
					<dim>1</dim>
				</port>
			</input>
			<output>
				<port id="2" precision="FP32" names="463">
					<dim>1</dim>
					<dim>256</dim>
					<dim>64</dim>
					<dim>114</dim>
				</port>
			</output>
		</layer>
		<layer id="74" name="Relu_31" type="ReLU" version="opset1">
			<input>
				<port id="0" precision="FP32">
					<dim>1</dim>
					<dim>256</dim>
					<dim>64</dim>
					<dim>114</dim>
				</port>
			</input>
			<output>
				<port id="1" precision="FP32" names="255">
					<dim>1</dim>
					<dim>256</dim>
					<dim>64</dim>
					<dim>114</dim>
				</port>
			</output>
		</layer>
		<layer id="75" name="467" type="Const" version="opset1">
			<data element_type="f32" shape="256, 256, 3, 3" offset="8761856" size="2359296" />
			<output>
				<port id="0" precision="FP32" names="467">
					<dim>256</dim>
					<dim>256</dim>
					<dim>3</dim>
					<dim>3</dim>
				</port>
			</output>
		</layer>
		<layer id="76" name="Conv_32/WithoutBiases" type="Convolution" version="opset1">
			<data strides="1, 1" dilations="1, 1" pads_begin="1, 1" pads_end="1, 1" auto_pad="explicit" />
			<input>
				<port id="0" precision="FP32">
					<dim>1</dim>
					<dim>256</dim>
					<dim>64</dim>
					<dim>114</dim>
				</port>
				<port id="1" precision="FP32">
					<dim>256</dim>
					<dim>256</dim>
					<dim>3</dim>
					<dim>3</dim>
				</port>
			</input>
			<output>
				<port id="2" precision="FP32">
					<dim>1</dim>
					<dim>256</dim>
					<dim>64</dim>
					<dim>114</dim>
				</port>
			</output>
		</layer>
		<layer id="77" name="Reshape_791" type="Const" version="opset1">
			<data element_type="f32" shape="1, 256, 1, 1" offset="11121152" size="1024" />
			<output>
				<port id="0" precision="FP32">
					<dim>1</dim>
					<dim>256</dim>
					<dim>1</dim>
					<dim>1</dim>
				</port>
			</output>
		</layer>
		<layer id="78" name="Conv_32" type="Add" version="opset1">
			<data auto_broadcast="numpy" />
			<input>
				<port id="0" precision="FP32">
					<dim>1</dim>
					<dim>256</dim>
					<dim>64</dim>
					<dim>114</dim>
				</port>
				<port id="1" precision="FP32">
					<dim>1</dim>
					<dim>256</dim>
					<dim>1</dim>
					<dim>1</dim>
				</port>
			</input>
			<output>
				<port id="2" precision="FP32" names="466">
					<dim>1</dim>
					<dim>256</dim>
					<dim>64</dim>
					<dim>114</dim>
				</port>
			</output>
		</layer>
		<layer id="79" name="Add_33" type="Add" version="opset1">
			<data auto_broadcast="numpy" />
			<input>
				<port id="0" precision="FP32">
					<dim>1</dim>
					<dim>256</dim>
					<dim>64</dim>
					<dim>114</dim>
				</port>
				<port id="1" precision="FP32">
					<dim>1</dim>
					<dim>256</dim>
					<dim>64</dim>
					<dim>114</dim>
				</port>
			</input>
			<output>
				<port id="2" precision="FP32" names="258">
					<dim>1</dim>
					<dim>256</dim>
					<dim>64</dim>
					<dim>114</dim>
				</port>
			</output>
		</layer>
		<layer id="80" name="Relu_34" type="ReLU" version="opset1">
			<input>
				<port id="0" precision="FP32">
					<dim>1</dim>
					<dim>256</dim>
					<dim>64</dim>
					<dim>114</dim>
				</port>
			</input>
			<output>
				<port id="1" precision="FP32" names="259">
					<dim>1</dim>
					<dim>256</dim>
					<dim>64</dim>
					<dim>114</dim>
				</port>
			</output>
		</layer>
		<layer id="81" name="470" type="Const" version="opset1">
			<data element_type="f32" shape="512, 256, 3, 3" offset="11122176" size="4718592" />
			<output>
				<port id="0" precision="FP32" names="470">
					<dim>512</dim>
					<dim>256</dim>
					<dim>3</dim>
					<dim>3</dim>
				</port>
			</output>
		</layer>
		<layer id="82" name="Conv_35/WithoutBiases" type="Convolution" version="opset1">
			<data strides="2, 2" dilations="1, 1" pads_begin="1, 1" pads_end="1, 1" auto_pad="explicit" />
			<input>
				<port id="0" precision="FP32">
					<dim>1</dim>
					<dim>256</dim>
					<dim>64</dim>
					<dim>114</dim>
				</port>
				<port id="1" precision="FP32">
					<dim>512</dim>
					<dim>256</dim>
					<dim>3</dim>
					<dim>3</dim>
				</port>
			</input>
			<output>
				<port id="2" precision="FP32">
					<dim>1</dim>
					<dim>512</dim>
					<dim>32</dim>
					<dim>57</dim>
				</port>
			</output>
		</layer>
		<layer id="83" name="Reshape_841" type="Const" version="opset1">
			<data element_type="f32" shape="1, 512, 1, 1" offset="15840768" size="2048" />
			<output>
				<port id="0" precision="FP32">
					<dim>1</dim>
					<dim>512</dim>
					<dim>1</dim>
					<dim>1</dim>
				</port>
			</output>
		</layer>
		<layer id="84" name="Conv_35" type="Add" version="opset1">
			<data auto_broadcast="numpy" />
			<input>
				<port id="0" precision="FP32">
					<dim>1</dim>
					<dim>512</dim>
					<dim>32</dim>
					<dim>57</dim>
				</port>
				<port id="1" precision="FP32">
					<dim>1</dim>
					<dim>512</dim>
					<dim>1</dim>
					<dim>1</dim>
				</port>
			</input>
			<output>
				<port id="2" precision="FP32" names="469">
					<dim>1</dim>
					<dim>512</dim>
					<dim>32</dim>
					<dim>57</dim>
				</port>
			</output>
		</layer>
		<layer id="85" name="Relu_36" type="ReLU" version="opset1">
			<input>
				<port id="0" precision="FP32">
					<dim>1</dim>
					<dim>512</dim>
					<dim>32</dim>
					<dim>57</dim>
				</port>
			</input>
			<output>
				<port id="1" precision="FP32" names="262">
					<dim>1</dim>
					<dim>512</dim>
					<dim>32</dim>
					<dim>57</dim>
				</port>
			</output>
		</layer>
		<layer id="86" name="473" type="Const" version="opset1">
			<data element_type="f32" shape="512, 512, 3, 3" offset="15842816" size="9437184" />
			<output>
				<port id="0" precision="FP32" names="473">
					<dim>512</dim>
					<dim>512</dim>
					<dim>3</dim>
					<dim>3</dim>
				</port>
			</output>
		</layer>
		<layer id="87" name="Conv_37/WithoutBiases" type="Convolution" version="opset1">
			<data strides="1, 1" dilations="1, 1" pads_begin="1, 1" pads_end="1, 1" auto_pad="explicit" />
			<input>
				<port id="0" precision="FP32">
					<dim>1</dim>
					<dim>512</dim>
					<dim>32</dim>
					<dim>57</dim>
				</port>
				<port id="1" precision="FP32">
					<dim>512</dim>
					<dim>512</dim>
					<dim>3</dim>
					<dim>3</dim>
				</port>
			</input>
			<output>
				<port id="2" precision="FP32">
					<dim>1</dim>
					<dim>512</dim>
					<dim>32</dim>
					<dim>57</dim>
				</port>
			</output>
		</layer>
		<layer id="88" name="Reshape_890" type="Const" version="opset1">
			<data element_type="f32" shape="1, 512, 1, 1" offset="25280000" size="2048" />
			<output>
				<port id="0" precision="FP32">
					<dim>1</dim>
					<dim>512</dim>
					<dim>1</dim>
					<dim>1</dim>
				</port>
			</output>
		</layer>
		<layer id="89" name="Conv_37" type="Add" version="opset1">
			<data auto_broadcast="numpy" />
			<input>
				<port id="0" precision="FP32">
					<dim>1</dim>
					<dim>512</dim>
					<dim>32</dim>
					<dim>57</dim>
				</port>
				<port id="1" precision="FP32">
					<dim>1</dim>
					<dim>512</dim>
					<dim>1</dim>
					<dim>1</dim>
				</port>
			</input>
			<output>
				<port id="2" precision="FP32" names="472">
					<dim>1</dim>
					<dim>512</dim>
					<dim>32</dim>
					<dim>57</dim>
				</port>
			</output>
		</layer>
		<layer id="90" name="476" type="Const" version="opset1">
			<data element_type="f32" shape="512, 256, 1, 1" offset="25282048" size="524288" />
			<output>
				<port id="0" precision="FP32" names="476">
					<dim>512</dim>
					<dim>256</dim>
					<dim>1</dim>
					<dim>1</dim>
				</port>
			</output>
		</layer>
		<layer id="91" name="Conv_38/WithoutBiases" type="Convolution" version="opset1">
			<data strides="2, 2" dilations="1, 1" pads_begin="0, 0" pads_end="0, 0" auto_pad="explicit" />
			<input>
				<port id="0" precision="FP32">
					<dim>1</dim>
					<dim>256</dim>
					<dim>64</dim>
					<dim>114</dim>
				</port>
				<port id="1" precision="FP32">
					<dim>512</dim>
					<dim>256</dim>
					<dim>1</dim>
					<dim>1</dim>
				</port>
			</input>
			<output>
				<port id="2" precision="FP32">
					<dim>1</dim>
					<dim>512</dim>
					<dim>32</dim>
					<dim>57</dim>
				</port>
			</output>
		</layer>
		<layer id="92" name="Reshape_938" type="Const" version="opset1">
			<data element_type="f32" shape="1, 512, 1, 1" offset="25806336" size="2048" />
			<output>
				<port id="0" precision="FP32">
					<dim>1</dim>
					<dim>512</dim>
					<dim>1</dim>
					<dim>1</dim>
				</port>
			</output>
		</layer>
		<layer id="93" name="Conv_38" type="Add" version="opset1">
			<data auto_broadcast="numpy" />
			<input>
				<port id="0" precision="FP32">
					<dim>1</dim>
					<dim>512</dim>
					<dim>32</dim>
					<dim>57</dim>
				</port>
				<port id="1" precision="FP32">
					<dim>1</dim>
					<dim>512</dim>
					<dim>1</dim>
					<dim>1</dim>
				</port>
			</input>
			<output>
				<port id="2" precision="FP32" names="475">
					<dim>1</dim>
					<dim>512</dim>
					<dim>32</dim>
					<dim>57</dim>
				</port>
			</output>
		</layer>
		<layer id="94" name="Add_39" type="Add" version="opset1">
			<data auto_broadcast="numpy" />
			<input>
				<port id="0" precision="FP32">
					<dim>1</dim>
					<dim>512</dim>
					<dim>32</dim>
					<dim>57</dim>
				</port>
				<port id="1" precision="FP32">
					<dim>1</dim>
					<dim>512</dim>
					<dim>32</dim>
					<dim>57</dim>
				</port>
			</input>
			<output>
				<port id="2" precision="FP32" names="267">
					<dim>1</dim>
					<dim>512</dim>
					<dim>32</dim>
					<dim>57</dim>
				</port>
			</output>
		</layer>
		<layer id="95" name="Relu_40" type="ReLU" version="opset1">
			<input>
				<port id="0" precision="FP32">
					<dim>1</dim>
					<dim>512</dim>
					<dim>32</dim>
					<dim>57</dim>
				</port>
			</input>
			<output>
				<port id="1" precision="FP32" names="268">
					<dim>1</dim>
					<dim>512</dim>
					<dim>32</dim>
					<dim>57</dim>
				</port>
			</output>
		</layer>
		<layer id="96" name="479" type="Const" version="opset1">
			<data element_type="f32" shape="512, 512, 3, 3" offset="25808384" size="9437184" />
			<output>
				<port id="0" precision="FP32" names="479">
					<dim>512</dim>
					<dim>512</dim>
					<dim>3</dim>
					<dim>3</dim>
				</port>
			</output>
		</layer>
		<layer id="97" name="Conv_41/WithoutBiases" type="Convolution" version="opset1">
			<data strides="1, 1" dilations="1, 1" pads_begin="1, 1" pads_end="1, 1" auto_pad="explicit" />
			<input>
				<port id="0" precision="FP32">
					<dim>1</dim>
					<dim>512</dim>
					<dim>32</dim>
					<dim>57</dim>
				</port>
				<port id="1" precision="FP32">
					<dim>512</dim>
					<dim>512</dim>
					<dim>3</dim>
					<dim>3</dim>
				</port>
			</input>
			<output>
				<port id="2" precision="FP32">
					<dim>1</dim>
					<dim>512</dim>
					<dim>32</dim>
					<dim>57</dim>
				</port>
			</output>
		</layer>
		<layer id="98" name="Reshape_988" type="Const" version="opset1">
			<data element_type="f32" shape="1, 512, 1, 1" offset="35245568" size="2048" />
			<output>
				<port id="0" precision="FP32">
					<dim>1</dim>
					<dim>512</dim>
					<dim>1</dim>
					<dim>1</dim>
				</port>
			</output>
		</layer>
		<layer id="99" name="Conv_41" type="Add" version="opset1">
			<data auto_broadcast="numpy" />
			<input>
				<port id="0" precision="FP32">
					<dim>1</dim>
					<dim>512</dim>
					<dim>32</dim>
					<dim>57</dim>
				</port>
				<port id="1" precision="FP32">
					<dim>1</dim>
					<dim>512</dim>
					<dim>1</dim>
					<dim>1</dim>
				</port>
			</input>
			<output>
				<port id="2" precision="FP32" names="478">
					<dim>1</dim>
					<dim>512</dim>
					<dim>32</dim>
					<dim>57</dim>
				</port>
			</output>
		</layer>
		<layer id="100" name="Relu_42" type="ReLU" version="opset1">
			<input>
				<port id="0" precision="FP32">
					<dim>1</dim>
					<dim>512</dim>
					<dim>32</dim>
					<dim>57</dim>
				</port>
			</input>
			<output>
				<port id="1" precision="FP32" names="271">
					<dim>1</dim>
					<dim>512</dim>
					<dim>32</dim>
					<dim>57</dim>
				</port>
			</output>
		</layer>
		<layer id="101" name="482" type="Const" version="opset1">
			<data element_type="f32" shape="512, 512, 3, 3" offset="35247616" size="9437184" />
			<output>
				<port id="0" precision="FP32" names="482">
					<dim>512</dim>
					<dim>512</dim>
					<dim>3</dim>
					<dim>3</dim>
				</port>
			</output>
		</layer>
		<layer id="102" name="Conv_43/WithoutBiases" type="Convolution" version="opset1">
			<data strides="1, 1" dilations="1, 1" pads_begin="1, 1" pads_end="1, 1" auto_pad="explicit" />
			<input>
				<port id="0" precision="FP32">
					<dim>1</dim>
					<dim>512</dim>
					<dim>32</dim>
					<dim>57</dim>
				</port>
				<port id="1" precision="FP32">
					<dim>512</dim>
					<dim>512</dim>
					<dim>3</dim>
					<dim>3</dim>
				</port>
			</input>
			<output>
				<port id="2" precision="FP32">
					<dim>1</dim>
					<dim>512</dim>
					<dim>32</dim>
					<dim>57</dim>
				</port>
			</output>
		</layer>
		<layer id="103" name="Reshape_1037" type="Const" version="opset1">
			<data element_type="f32" shape="1, 512, 1, 1" offset="44684800" size="2048" />
			<output>
				<port id="0" precision="FP32">
					<dim>1</dim>
					<dim>512</dim>
					<dim>1</dim>
					<dim>1</dim>
				</port>
			</output>
		</layer>
		<layer id="104" name="Conv_43" type="Add" version="opset1">
			<data auto_broadcast="numpy" />
			<input>
				<port id="0" precision="FP32">
					<dim>1</dim>
					<dim>512</dim>
					<dim>32</dim>
					<dim>57</dim>
				</port>
				<port id="1" precision="FP32">
					<dim>1</dim>
					<dim>512</dim>
					<dim>1</dim>
					<dim>1</dim>
				</port>
			</input>
			<output>
				<port id="2" precision="FP32" names="481">
					<dim>1</dim>
					<dim>512</dim>
					<dim>32</dim>
					<dim>57</dim>
				</port>
			</output>
		</layer>
		<layer id="105" name="Add_44" type="Add" version="opset1">
			<data auto_broadcast="numpy" />
			<input>
				<port id="0" precision="FP32">
					<dim>1</dim>
					<dim>512</dim>
					<dim>32</dim>
					<dim>57</dim>
				</port>
				<port id="1" precision="FP32">
					<dim>1</dim>
					<dim>512</dim>
					<dim>32</dim>
					<dim>57</dim>
				</port>
			</input>
			<output>
				<port id="2" precision="FP32" names="274">
					<dim>1</dim>
					<dim>512</dim>
					<dim>32</dim>
					<dim>57</dim>
				</port>
			</output>
		</layer>
		<layer id="106" name="Relu_45" type="ReLU" version="opset1">
			<input>
				<port id="0" precision="FP32">
					<dim>1</dim>
					<dim>512</dim>
					<dim>32</dim>
					<dim>57</dim>
				</port>
			</input>
			<output>
				<port id="1" precision="FP32" names="275">
					<dim>1</dim>
					<dim>512</dim>
					<dim>32</dim>
					<dim>57</dim>
				</port>
			</output>
		</layer>
		<layer id="107" name="485" type="Const" version="opset1">
			<data element_type="f32" shape="64, 512, 1, 1" offset="44686848" size="131072" />
			<output>
				<port id="0" precision="FP32" names="485">
					<dim>64</dim>
					<dim>512</dim>
					<dim>1</dim>
					<dim>1</dim>
				</port>
			</output>
		</layer>
		<layer id="108" name="Conv_46/WithoutBiases" type="Convolution" version="opset1">
			<data strides="1, 1" dilations="1, 1" pads_begin="0, 0" pads_end="0, 0" auto_pad="explicit" />
			<input>
				<port id="0" precision="FP32">
					<dim>1</dim>
					<dim>512</dim>
					<dim>32</dim>
					<dim>57</dim>
				</port>
				<port id="1" precision="FP32">
					<dim>64</dim>
					<dim>512</dim>
					<dim>1</dim>
					<dim>1</dim>
				</port>
			</input>
			<output>
				<port id="2" precision="FP32">
					<dim>1</dim>
					<dim>64</dim>
					<dim>32</dim>
					<dim>57</dim>
				</port>
			</output>
		</layer>
		<layer id="109" name="Reshape_1087" type="Const" version="opset1">
			<data element_type="f32" shape="1, 64, 1, 1" offset="44817920" size="256" />
			<output>
				<port id="0" precision="FP32">
					<dim>1</dim>
					<dim>64</dim>
					<dim>1</dim>
					<dim>1</dim>
				</port>
			</output>
		</layer>
		<layer id="110" name="Conv_46" type="Add" version="opset1">
			<data auto_broadcast="numpy" />
			<input>
				<port id="0" precision="FP32">
					<dim>1</dim>
					<dim>64</dim>
					<dim>32</dim>
					<dim>57</dim>
				</port>
				<port id="1" precision="FP32">
					<dim>1</dim>
					<dim>64</dim>
					<dim>1</dim>
					<dim>1</dim>
				</port>
			</input>
			<output>
				<port id="2" precision="FP32" names="484">
					<dim>1</dim>
					<dim>64</dim>
					<dim>32</dim>
					<dim>57</dim>
				</port>
			</output>
		</layer>
		<layer id="111" name="Relu_47" type="ReLU" version="opset1">
			<input>
				<port id="0" precision="FP32">
					<dim>1</dim>
					<dim>64</dim>
					<dim>32</dim>
					<dim>57</dim>
				</port>
			</input>
			<output>
				<port id="1" precision="FP32" names="278">
					<dim>1</dim>
					<dim>64</dim>
					<dim>32</dim>
					<dim>57</dim>
				</port>
			</output>
		</layer>
		<layer id="112" name="Shape_50" type="ShapeOf" version="opset3">
			<data output_type="i64" />
			<input>
				<port id="0" precision="FP32">
					<dim>1</dim>
					<dim>64</dim>
					<dim>32</dim>
					<dim>57</dim>
				</port>
			</input>
			<output>
				<port id="1" precision="I64" names="287,380">
					<dim>4</dim>
				</port>
			</output>
		</layer>
		<layer id="113" name="Constant_52" type="Const" version="opset1">
			<data element_type="i64" shape="1" offset="44818176" size="8" />
			<output>
				<port id="0" precision="I64" names="289">
					<dim>1</dim>
				</port>
			</output>
		</layer>
		<layer id="114" name="Constant_53" type="Const" version="opset1">
			<data element_type="i64" shape="1" offset="44818184" size="8" />
			<output>
				<port id="0" precision="I64" names="290">
					<dim>1</dim>
				</port>
			</output>
		</layer>
		<layer id="115" name="Broadcast_1171" type="Const" version="opset1">
			<data element_type="i64" shape="1" offset="44818192" size="8" />
			<output>
				<port id="0" precision="I64">
					<dim>1</dim>
				</port>
			</output>
		</layer>
		<layer id="116" name="Slice_54" type="StridedSlice" version="opset1">
			<data begin_mask="0" end_mask="0" new_axis_mask="" shrink_axis_mask="" ellipsis_mask="" />
			<input>
				<port id="0" precision="I64">
					<dim>4</dim>
				</port>
				<port id="1" precision="I64">
					<dim>1</dim>
				</port>
				<port id="2" precision="I64">
					<dim>1</dim>
				</port>
				<port id="3" precision="I64">
					<dim>1</dim>
				</port>
			</input>
			<output>
				<port id="4" precision="I64" names="291">
					<dim>2</dim>
				</port>
			</output>
		</layer>
		<layer id="117" name="517" type="Const" version="opset1">
			<data element_type="i64" shape="2" offset="44818200" size="16" />
			<output>
				<port id="0" precision="I64" names="517">
					<dim>2</dim>
				</port>
			</output>
		</layer>
		<layer id="118" name="Concat_55" type="Concat" version="opset1">
			<data axis="0" />
			<input>
				<port id="0" precision="I64">
					<dim>2</dim>
				</port>
				<port id="1" precision="I64">
					<dim>2</dim>
				</port>
			</input>
			<output>
				<port id="2" precision="I64" names="293">
					<dim>4</dim>
				</port>
			</output>
		</layer>
		<layer id="119" name="Convert_1193" type="Convert" version="opset1">
			<data destination_type="f32" />
			<input>
				<port id="0" precision="I64">
					<dim>4</dim>
				</port>
			</input>
			<output>
				<port id="1" precision="FP32">
					<dim>4</dim>
				</port>
			</output>
		</layer>
		<layer id="120" name="Convert_1192" type="Convert" version="opset1">
			<data destination_type="f32" />
			<input>
				<port id="0" precision="I64">
					<dim>4</dim>
				</port>
			</input>
			<output>
				<port id="1" precision="FP32">
					<dim>4</dim>
				</port>
			</output>
		</layer>
		<layer id="121" name="Divide_1194" type="Divide" version="opset1">
			<data auto_broadcast="numpy" m_pythondiv="true" />
			<input>
				<port id="0" precision="FP32">
					<dim>4</dim>
				</port>
				<port id="1" precision="FP32">
					<dim>4</dim>
				</port>
			</input>
			<output>
				<port id="2" precision="FP32">
					<dim>4</dim>
				</port>
			</output>
		</layer>
		<layer id="122" name="Constant_9503" type="Const" version="opset1">
			<data element_type="f32" shape="1" offset="44818216" size="4" />
			<output>
				<port id="0" precision="FP32">
					<dim>1</dim>
				</port>
			</output>
		</layer>
		<layer id="123" name="Add_1196" type="Add" version="opset1">
			<data auto_broadcast="numpy" />
			<input>
				<port id="0" precision="FP32">
					<dim>4</dim>
				</port>
				<port id="1" precision="FP32">
					<dim>1</dim>
				</port>
			</input>
			<output>
				<port id="2" precision="FP32">
					<dim>4</dim>
				</port>
			</output>
		</layer>
		<layer id="124" name="Resize_58" type="Interpolate" version="opset4">
			<data mode="nearest" shape_calculation_mode="sizes" coordinate_transformation_mode="asymmetric" nearest_mode="floor" antialias="false" pads_begin="0, 0, 0, 0" pads_end="0, 0, 0, 0" cube_coeff="-0.75" />
			<input>
				<port id="0" precision="FP32">
					<dim>1</dim>
					<dim>64</dim>
					<dim>32</dim>
					<dim>57</dim>
				</port>
				<port id="1" precision="I64">
					<dim>4</dim>
				</port>
				<port id="2" precision="FP32">
					<dim>4</dim>
				</port>
			</input>
			<output>
				<port id="3" precision="FP32" names="296">
					<dim>1</dim>
					<dim>64</dim>
					<dim>64</dim>
					<dim>114</dim>
				</port>
			</output>
		</layer>
		<layer id="125" name="488" type="Const" version="opset1">
			<data element_type="f32" shape="64, 256, 1, 1" offset="44818220" size="65536" />
			<output>
				<port id="0" precision="FP32" names="488">
					<dim>64</dim>
					<dim>256</dim>
					<dim>1</dim>
					<dim>1</dim>
				</port>
			</output>
		</layer>
		<layer id="126" name="Conv_48/WithoutBiases" type="Convolution" version="opset1">
			<data strides="1, 1" dilations="1, 1" pads_begin="0, 0" pads_end="0, 0" auto_pad="explicit" />
			<input>
				<port id="0" precision="FP32">
					<dim>1</dim>
					<dim>256</dim>
					<dim>64</dim>
					<dim>114</dim>
				</port>
				<port id="1" precision="FP32">
					<dim>64</dim>
					<dim>256</dim>
					<dim>1</dim>
					<dim>1</dim>
				</port>
			</input>
			<output>
				<port id="2" precision="FP32">
					<dim>1</dim>
					<dim>64</dim>
					<dim>64</dim>
					<dim>114</dim>
				</port>
			</output>
		</layer>
		<layer id="127" name="Reshape_1136" type="Const" version="opset1">
			<data element_type="f32" shape="1, 64, 1, 1" offset="44883756" size="256" />
			<output>
				<port id="0" precision="FP32">
					<dim>1</dim>
					<dim>64</dim>
					<dim>1</dim>
					<dim>1</dim>
				</port>
			</output>
		</layer>
		<layer id="128" name="Conv_48" type="Add" version="opset1">
			<data auto_broadcast="numpy" />
			<input>
				<port id="0" precision="FP32">
					<dim>1</dim>
					<dim>64</dim>
					<dim>64</dim>
					<dim>114</dim>
				</port>
				<port id="1" precision="FP32">
					<dim>1</dim>
					<dim>64</dim>
					<dim>1</dim>
					<dim>1</dim>
				</port>
			</input>
			<output>
				<port id="2" precision="FP32" names="487">
					<dim>1</dim>
					<dim>64</dim>
					<dim>64</dim>
					<dim>114</dim>
				</port>
			</output>
		</layer>
		<layer id="129" name="Relu_49" type="ReLU" version="opset1">
			<input>
				<port id="0" precision="FP32">
					<dim>1</dim>
					<dim>64</dim>
					<dim>64</dim>
					<dim>114</dim>
				</port>
			</input>
			<output>
				<port id="1" precision="FP32" names="281">
					<dim>1</dim>
					<dim>64</dim>
					<dim>64</dim>
					<dim>114</dim>
				</port>
			</output>
		</layer>
		<layer id="130" name="Add_59" type="Add" version="opset1">
			<data auto_broadcast="numpy" />
			<input>
				<port id="0" precision="FP32">
					<dim>1</dim>
					<dim>64</dim>
					<dim>64</dim>
					<dim>114</dim>
				</port>
				<port id="1" precision="FP32">
					<dim>1</dim>
					<dim>64</dim>
					<dim>64</dim>
					<dim>114</dim>
				</port>
			</input>
			<output>
				<port id="2" precision="FP32" names="297">
					<dim>1</dim>
					<dim>64</dim>
					<dim>64</dim>
					<dim>114</dim>
				</port>
			</output>
		</layer>
		<layer id="131" name="491" type="Const" version="opset1">
			<data element_type="f32" shape="64, 64, 3, 3" offset="44884012" size="147456" />
			<output>
				<port id="0" precision="FP32" names="491">
					<dim>64</dim>
					<dim>64</dim>
					<dim>3</dim>
					<dim>3</dim>
				</port>
			</output>
		</layer>
		<layer id="132" name="Conv_60/WithoutBiases" type="Convolution" version="opset1">
			<data strides="1, 1" dilations="1, 1" pads_begin="1, 1" pads_end="1, 1" auto_pad="explicit" />
			<input>
				<port id="0" precision="FP32">
					<dim>1</dim>
					<dim>64</dim>
					<dim>64</dim>
					<dim>114</dim>
				</port>
				<port id="1" precision="FP32">
					<dim>64</dim>
					<dim>64</dim>
					<dim>3</dim>
					<dim>3</dim>
				</port>
			</input>
			<output>
				<port id="2" precision="FP32">
					<dim>1</dim>
					<dim>64</dim>
					<dim>64</dim>
					<dim>114</dim>
				</port>
			</output>
		</layer>
		<layer id="133" name="Reshape_1251" type="Const" version="opset1">
			<data element_type="f32" shape="1, 64, 1, 1" offset="45031468" size="256" />
			<output>
				<port id="0" precision="FP32">
					<dim>1</dim>
					<dim>64</dim>
					<dim>1</dim>
					<dim>1</dim>
				</port>
			</output>
		</layer>
		<layer id="134" name="Conv_60" type="Add" version="opset1">
			<data auto_broadcast="numpy" />
			<input>
				<port id="0" precision="FP32">
					<dim>1</dim>
					<dim>64</dim>
					<dim>64</dim>
					<dim>114</dim>
				</port>
				<port id="1" precision="FP32">
					<dim>1</dim>
					<dim>64</dim>
					<dim>1</dim>
					<dim>1</dim>
				</port>
			</input>
			<output>
				<port id="2" precision="FP32" names="490">
					<dim>1</dim>
					<dim>64</dim>
					<dim>64</dim>
					<dim>114</dim>
				</port>
			</output>
		</layer>
		<layer id="135" name="Relu_61" type="ReLU" version="opset1">
			<input>
				<port id="0" precision="FP32">
					<dim>1</dim>
					<dim>64</dim>
					<dim>64</dim>
					<dim>114</dim>
				</port>
			</input>
			<output>
				<port id="1" precision="FP32" names="300">
					<dim>1</dim>
					<dim>64</dim>
					<dim>64</dim>
					<dim>114</dim>
				</port>
			</output>
		</layer>
		<layer id="136" name="Shape_64" type="ShapeOf" version="opset3">
			<data output_type="i64" />
			<input>
				<port id="0" precision="FP32">
					<dim>1</dim>
					<dim>64</dim>
					<dim>64</dim>
					<dim>114</dim>
				</port>
			</input>
			<output>
				<port id="1" precision="I64" names="309,367">
					<dim>4</dim>
				</port>
			</output>
		</layer>
		<layer id="137" name="Constant_66" type="Const" version="opset1">
			<data element_type="i64" shape="1" offset="44818176" size="8" />
			<output>
				<port id="0" precision="I64" names="311">
					<dim>1</dim>
				</port>
			</output>
		</layer>
		<layer id="138" name="Constant_67" type="Const" version="opset1">
			<data element_type="i64" shape="1" offset="44818184" size="8" />
			<output>
				<port id="0" precision="I64" names="312">
					<dim>1</dim>
				</port>
			</output>
		</layer>
		<layer id="139" name="Broadcast_1335" type="Const" version="opset1">
			<data element_type="i64" shape="1" offset="44818192" size="8" />
			<output>
				<port id="0" precision="I64">
					<dim>1</dim>
				</port>
			</output>
		</layer>
		<layer id="140" name="Slice_68" type="StridedSlice" version="opset1">
			<data begin_mask="0" end_mask="0" new_axis_mask="" shrink_axis_mask="" ellipsis_mask="" />
			<input>
				<port id="0" precision="I64">
					<dim>4</dim>
				</port>
				<port id="1" precision="I64">
					<dim>1</dim>
				</port>
				<port id="2" precision="I64">
					<dim>1</dim>
				</port>
				<port id="3" precision="I64">
					<dim>1</dim>
				</port>
			</input>
			<output>
				<port id="4" precision="I64" names="313">
					<dim>2</dim>
				</port>
			</output>
		</layer>
		<layer id="141" name="521" type="Const" version="opset1">
			<data element_type="i64" shape="2" offset="45031724" size="16" />
			<output>
				<port id="0" precision="I64" names="521">
					<dim>2</dim>
				</port>
			</output>
		</layer>
		<layer id="142" name="Concat_69" type="Concat" version="opset1">
			<data axis="0" />
			<input>
				<port id="0" precision="I64">
					<dim>2</dim>
				</port>
				<port id="1" precision="I64">
					<dim>2</dim>
				</port>
			</input>
			<output>
				<port id="2" precision="I64" names="315">
					<dim>4</dim>
				</port>
			</output>
		</layer>
		<layer id="143" name="Convert_1357" type="Convert" version="opset1">
			<data destination_type="f32" />
			<input>
				<port id="0" precision="I64">
					<dim>4</dim>
				</port>
			</input>
			<output>
				<port id="1" precision="FP32">
					<dim>4</dim>
				</port>
			</output>
		</layer>
		<layer id="144" name="Convert_1356" type="Convert" version="opset1">
			<data destination_type="f32" />
			<input>
				<port id="0" precision="I64">
					<dim>4</dim>
				</port>
			</input>
			<output>
				<port id="1" precision="FP32">
					<dim>4</dim>
				</port>
			</output>
		</layer>
		<layer id="145" name="Divide_1358" type="Divide" version="opset1">
			<data auto_broadcast="numpy" m_pythondiv="true" />
			<input>
				<port id="0" precision="FP32">
					<dim>4</dim>
				</port>
				<port id="1" precision="FP32">
					<dim>4</dim>
				</port>
			</input>
			<output>
				<port id="2" precision="FP32">
					<dim>4</dim>
				</port>
			</output>
		</layer>
		<layer id="146" name="Constant_9504" type="Const" version="opset1">
			<data element_type="f32" shape="1" offset="44818216" size="4" />
			<output>
				<port id="0" precision="FP32">
					<dim>1</dim>
				</port>
			</output>
		</layer>
		<layer id="147" name="Add_1360" type="Add" version="opset1">
			<data auto_broadcast="numpy" />
			<input>
				<port id="0" precision="FP32">
					<dim>4</dim>
				</port>
				<port id="1" precision="FP32">
					<dim>1</dim>
				</port>
			</input>
			<output>
				<port id="2" precision="FP32">
					<dim>4</dim>
				</port>
			</output>
		</layer>
		<layer id="148" name="Resize_72" type="Interpolate" version="opset4">
			<data mode="nearest" shape_calculation_mode="sizes" coordinate_transformation_mode="asymmetric" nearest_mode="floor" antialias="false" pads_begin="0, 0, 0, 0" pads_end="0, 0, 0, 0" cube_coeff="-0.75" />
			<input>
				<port id="0" precision="FP32">
					<dim>1</dim>
					<dim>64</dim>
					<dim>64</dim>
					<dim>114</dim>
				</port>
				<port id="1" precision="I64">
					<dim>4</dim>
				</port>
				<port id="2" precision="FP32">
					<dim>4</dim>
				</port>
			</input>
			<output>
				<port id="3" precision="FP32" names="318">
					<dim>1</dim>
					<dim>64</dim>
					<dim>128</dim>
					<dim>228</dim>
				</port>
			</output>
		</layer>
		<layer id="149" name="494" type="Const" version="opset1">
			<data element_type="f32" shape="64, 128, 1, 1" offset="45031740" size="32768" />
			<output>
				<port id="0" precision="FP32" names="494">
					<dim>64</dim>
					<dim>128</dim>
					<dim>1</dim>
					<dim>1</dim>
				</port>
			</output>
		</layer>
		<layer id="150" name="Conv_62/WithoutBiases" type="Convolution" version="opset1">
			<data strides="1, 1" dilations="1, 1" pads_begin="0, 0" pads_end="0, 0" auto_pad="explicit" />
			<input>
				<port id="0" precision="FP32">
					<dim>1</dim>
					<dim>128</dim>
					<dim>128</dim>
					<dim>228</dim>
				</port>
				<port id="1" precision="FP32">
					<dim>64</dim>
					<dim>128</dim>
					<dim>1</dim>
					<dim>1</dim>
				</port>
			</input>
			<output>
				<port id="2" precision="FP32">
					<dim>1</dim>
					<dim>64</dim>
					<dim>128</dim>
					<dim>228</dim>
				</port>
			</output>
		</layer>
		<layer id="151" name="Reshape_1300" type="Const" version="opset1">
			<data element_type="f32" shape="1, 64, 1, 1" offset="45064508" size="256" />
			<output>
				<port id="0" precision="FP32">
					<dim>1</dim>
					<dim>64</dim>
					<dim>1</dim>
					<dim>1</dim>
				</port>
			</output>
		</layer>
		<layer id="152" name="Conv_62" type="Add" version="opset1">
			<data auto_broadcast="numpy" />
			<input>
				<port id="0" precision="FP32">
					<dim>1</dim>
					<dim>64</dim>
					<dim>128</dim>
					<dim>228</dim>
				</port>
				<port id="1" precision="FP32">
					<dim>1</dim>
					<dim>64</dim>
					<dim>1</dim>
					<dim>1</dim>
				</port>
			</input>
			<output>
				<port id="2" precision="FP32" names="493">
					<dim>1</dim>
					<dim>64</dim>
					<dim>128</dim>
					<dim>228</dim>
				</port>
			</output>
		</layer>
		<layer id="153" name="Relu_63" type="ReLU" version="opset1">
			<input>
				<port id="0" precision="FP32">
					<dim>1</dim>
					<dim>64</dim>
					<dim>128</dim>
					<dim>228</dim>
				</port>
			</input>
			<output>
				<port id="1" precision="FP32" names="303">
					<dim>1</dim>
					<dim>64</dim>
					<dim>128</dim>
					<dim>228</dim>
				</port>
			</output>
		</layer>
		<layer id="154" name="Add_73" type="Add" version="opset1">
			<data auto_broadcast="numpy" />
			<input>
				<port id="0" precision="FP32">
					<dim>1</dim>
					<dim>64</dim>
					<dim>128</dim>
					<dim>228</dim>
				</port>
				<port id="1" precision="FP32">
					<dim>1</dim>
					<dim>64</dim>
					<dim>128</dim>
					<dim>228</dim>
				</port>
			</input>
			<output>
				<port id="2" precision="FP32" names="319">
					<dim>1</dim>
					<dim>64</dim>
					<dim>128</dim>
					<dim>228</dim>
				</port>
			</output>
		</layer>
		<layer id="155" name="497" type="Const" version="opset1">
			<data element_type="f32" shape="64, 64, 3, 3" offset="45064764" size="147456" />
			<output>
				<port id="0" precision="FP32" names="497">
					<dim>64</dim>
					<dim>64</dim>
					<dim>3</dim>
					<dim>3</dim>
				</port>
			</output>
		</layer>
		<layer id="156" name="Conv_74/WithoutBiases" type="Convolution" version="opset1">
			<data strides="1, 1" dilations="1, 1" pads_begin="1, 1" pads_end="1, 1" auto_pad="explicit" />
			<input>
				<port id="0" precision="FP32">
					<dim>1</dim>
					<dim>64</dim>
					<dim>128</dim>
					<dim>228</dim>
				</port>
				<port id="1" precision="FP32">
					<dim>64</dim>
					<dim>64</dim>
					<dim>3</dim>
					<dim>3</dim>
				</port>
			</input>
			<output>
				<port id="2" precision="FP32">
					<dim>1</dim>
					<dim>64</dim>
					<dim>128</dim>
					<dim>228</dim>
				</port>
			</output>
		</layer>
		<layer id="157" name="Reshape_1415" type="Const" version="opset1">
			<data element_type="f32" shape="1, 64, 1, 1" offset="45212220" size="256" />
			<output>
				<port id="0" precision="FP32">
					<dim>1</dim>
					<dim>64</dim>
					<dim>1</dim>
					<dim>1</dim>
				</port>
			</output>
		</layer>
		<layer id="158" name="Conv_74" type="Add" version="opset1">
			<data auto_broadcast="numpy" />
			<input>
				<port id="0" precision="FP32">
					<dim>1</dim>
					<dim>64</dim>
					<dim>128</dim>
					<dim>228</dim>
				</port>
				<port id="1" precision="FP32">
					<dim>1</dim>
					<dim>64</dim>
					<dim>1</dim>
					<dim>1</dim>
				</port>
			</input>
			<output>
				<port id="2" precision="FP32" names="496">
					<dim>1</dim>
					<dim>64</dim>
					<dim>128</dim>
					<dim>228</dim>
				</port>
			</output>
		</layer>
		<layer id="159" name="Relu_75" type="ReLU" version="opset1">
			<input>
				<port id="0" precision="FP32">
					<dim>1</dim>
					<dim>64</dim>
					<dim>128</dim>
					<dim>228</dim>
				</port>
			</input>
			<output>
				<port id="1" precision="FP32" names="322">
					<dim>1</dim>
					<dim>64</dim>
					<dim>128</dim>
					<dim>228</dim>
				</port>
			</output>
		</layer>
		<layer id="160" name="Shape_78" type="ShapeOf" version="opset3">
			<data output_type="i64" />
			<input>
				<port id="0" precision="FP32">
					<dim>1</dim>
					<dim>64</dim>
					<dim>128</dim>
					<dim>228</dim>
				</port>
			</input>
			<output>
				<port id="1" precision="I64" names="331,354">
					<dim>4</dim>
				</port>
			</output>
		</layer>
		<layer id="161" name="Constant_80" type="Const" version="opset1">
			<data element_type="i64" shape="1" offset="44818176" size="8" />
			<output>
				<port id="0" precision="I64" names="333">
					<dim>1</dim>
				</port>
			</output>
		</layer>
		<layer id="162" name="Constant_81" type="Const" version="opset1">
			<data element_type="i64" shape="1" offset="44818184" size="8" />
			<output>
				<port id="0" precision="I64" names="334">
					<dim>1</dim>
				</port>
			</output>
		</layer>
		<layer id="163" name="Broadcast_1499" type="Const" version="opset1">
			<data element_type="i64" shape="1" offset="44818192" size="8" />
			<output>
				<port id="0" precision="I64">
					<dim>1</dim>
				</port>
			</output>
		</layer>
		<layer id="164" name="Slice_82" type="StridedSlice" version="opset1">
			<data begin_mask="0" end_mask="0" new_axis_mask="" shrink_axis_mask="" ellipsis_mask="" />
			<input>
				<port id="0" precision="I64">
					<dim>4</dim>
				</port>
				<port id="1" precision="I64">
					<dim>1</dim>
				</port>
				<port id="2" precision="I64">
					<dim>1</dim>
				</port>
				<port id="3" precision="I64">
					<dim>1</dim>
				</port>
			</input>
			<output>
				<port id="4" precision="I64" names="335">
					<dim>2</dim>
				</port>
			</output>
		</layer>
		<layer id="165" name="525" type="Const" version="opset1">
			<data element_type="i64" shape="2" offset="45212476" size="16" />
			<output>
				<port id="0" precision="I64" names="525">
					<dim>2</dim>
				</port>
			</output>
		</layer>
		<layer id="166" name="Concat_83" type="Concat" version="opset1">
			<data axis="0" />
			<input>
				<port id="0" precision="I64">
					<dim>2</dim>
				</port>
				<port id="1" precision="I64">
					<dim>2</dim>
				</port>
			</input>
			<output>
				<port id="2" precision="I64" names="337">
					<dim>4</dim>
				</port>
			</output>
		</layer>
		<layer id="167" name="Convert_1521" type="Convert" version="opset1">
			<data destination_type="f32" />
			<input>
				<port id="0" precision="I64">
					<dim>4</dim>
				</port>
			</input>
			<output>
				<port id="1" precision="FP32">
					<dim>4</dim>
				</port>
			</output>
		</layer>
		<layer id="168" name="Convert_1520" type="Convert" version="opset1">
			<data destination_type="f32" />
			<input>
				<port id="0" precision="I64">
					<dim>4</dim>
				</port>
			</input>
			<output>
				<port id="1" precision="FP32">
					<dim>4</dim>
				</port>
			</output>
		</layer>
		<layer id="169" name="Divide_1522" type="Divide" version="opset1">
			<data auto_broadcast="numpy" m_pythondiv="true" />
			<input>
				<port id="0" precision="FP32">
					<dim>4</dim>
				</port>
				<port id="1" precision="FP32">
					<dim>4</dim>
				</port>
			</input>
			<output>
				<port id="2" precision="FP32">
					<dim>4</dim>
				</port>
			</output>
		</layer>
		<layer id="170" name="Constant_9505" type="Const" version="opset1">
			<data element_type="f32" shape="1" offset="44818216" size="4" />
			<output>
				<port id="0" precision="FP32">
					<dim>1</dim>
				</port>
			</output>
		</layer>
		<layer id="171" name="Add_1524" type="Add" version="opset1">
			<data auto_broadcast="numpy" />
			<input>
				<port id="0" precision="FP32">
					<dim>4</dim>
				</port>
				<port id="1" precision="FP32">
					<dim>1</dim>
				</port>
			</input>
			<output>
				<port id="2" precision="FP32">
					<dim>4</dim>
				</port>
			</output>
		</layer>
		<layer id="172" name="Resize_86" type="Interpolate" version="opset4">
			<data mode="nearest" shape_calculation_mode="sizes" coordinate_transformation_mode="asymmetric" nearest_mode="floor" antialias="false" pads_begin="0, 0, 0, 0" pads_end="0, 0, 0, 0" cube_coeff="-0.75" />
			<input>
				<port id="0" precision="FP32">
					<dim>1</dim>
					<dim>64</dim>
					<dim>128</dim>
					<dim>228</dim>
				</port>
				<port id="1" precision="I64">
					<dim>4</dim>
				</port>
				<port id="2" precision="FP32">
					<dim>4</dim>
				</port>
			</input>
			<output>
				<port id="3" precision="FP32" names="340">
					<dim>1</dim>
					<dim>64</dim>
					<dim>256</dim>
					<dim>456</dim>
				</port>
			</output>
		</layer>
		<layer id="173" name="500" type="Const" version="opset1">
			<data element_type="f32" shape="64, 64, 1, 1" offset="45212492" size="16384" />
			<output>
				<port id="0" precision="FP32" names="500">
					<dim>64</dim>
					<dim>64</dim>
					<dim>1</dim>
					<dim>1</dim>
				</port>
			</output>
		</layer>
		<layer id="174" name="Conv_76/WithoutBiases" type="Convolution" version="opset1">
			<data strides="1, 1" dilations="1, 1" pads_begin="0, 0" pads_end="0, 0" auto_pad="explicit" />
			<input>
				<port id="0" precision="FP32">
					<dim>1</dim>
					<dim>64</dim>
					<dim>256</dim>
					<dim>456</dim>
				</port>
				<port id="1" precision="FP32">
					<dim>64</dim>
					<dim>64</dim>
					<dim>1</dim>
					<dim>1</dim>
				</port>
			</input>
			<output>
				<port id="2" precision="FP32">
					<dim>1</dim>
					<dim>64</dim>
					<dim>256</dim>
					<dim>456</dim>
				</port>
			</output>
		</layer>
		<layer id="175" name="Reshape_1464" type="Const" version="opset1">
			<data element_type="f32" shape="1, 64, 1, 1" offset="45228876" size="256" />
			<output>
				<port id="0" precision="FP32">
					<dim>1</dim>
					<dim>64</dim>
					<dim>1</dim>
					<dim>1</dim>
				</port>
			</output>
		</layer>
		<layer id="176" name="Conv_76" type="Add" version="opset1">
			<data auto_broadcast="numpy" />
			<input>
				<port id="0" precision="FP32">
					<dim>1</dim>
					<dim>64</dim>
					<dim>256</dim>
					<dim>456</dim>
				</port>
				<port id="1" precision="FP32">
					<dim>1</dim>
					<dim>64</dim>
					<dim>1</dim>
					<dim>1</dim>
				</port>
			</input>
			<output>
				<port id="2" precision="FP32" names="499">
					<dim>1</dim>
					<dim>64</dim>
					<dim>256</dim>
					<dim>456</dim>
				</port>
			</output>
		</layer>
		<layer id="177" name="Relu_77" type="ReLU" version="opset1">
			<input>
				<port id="0" precision="FP32">
					<dim>1</dim>
					<dim>64</dim>
					<dim>256</dim>
					<dim>456</dim>
				</port>
			</input>
			<output>
				<port id="1" precision="FP32" names="325">
					<dim>1</dim>
					<dim>64</dim>
					<dim>256</dim>
					<dim>456</dim>
				</port>
			</output>
		</layer>
		<layer id="178" name="Add_87" type="Add" version="opset1">
			<data auto_broadcast="numpy" />
			<input>
				<port id="0" precision="FP32">
					<dim>1</dim>
					<dim>64</dim>
					<dim>256</dim>
					<dim>456</dim>
				</port>
				<port id="1" precision="FP32">
					<dim>1</dim>
					<dim>64</dim>
					<dim>256</dim>
					<dim>456</dim>
				</port>
			</input>
			<output>
				<port id="2" precision="FP32" names="341">
					<dim>1</dim>
					<dim>64</dim>
					<dim>256</dim>
					<dim>456</dim>
				</port>
			</output>
		</layer>
		<layer id="179" name="503" type="Const" version="opset1">
			<data element_type="f32" shape="64, 64, 3, 3" offset="45229132" size="147456" />
			<output>
				<port id="0" precision="FP32" names="503">
					<dim>64</dim>
					<dim>64</dim>
					<dim>3</dim>
					<dim>3</dim>
				</port>
			</output>
		</layer>
		<layer id="180" name="Conv_88/WithoutBiases" type="Convolution" version="opset1">
			<data strides="1, 1" dilations="1, 1" pads_begin="1, 1" pads_end="1, 1" auto_pad="explicit" />
			<input>
				<port id="0" precision="FP32">
					<dim>1</dim>
					<dim>64</dim>
					<dim>256</dim>
					<dim>456</dim>
				</port>
				<port id="1" precision="FP32">
					<dim>64</dim>
					<dim>64</dim>
					<dim>3</dim>
					<dim>3</dim>
				</port>
			</input>
			<output>
				<port id="2" precision="FP32">
					<dim>1</dim>
					<dim>64</dim>
					<dim>256</dim>
					<dim>456</dim>
				</port>
			</output>
		</layer>
		<layer id="181" name="Reshape_1579" type="Const" version="opset1">
			<data element_type="f32" shape="1, 64, 1, 1" offset="45376588" size="256" />
			<output>
				<port id="0" precision="FP32">
					<dim>1</dim>
					<dim>64</dim>
					<dim>1</dim>
					<dim>1</dim>
				</port>
			</output>
		</layer>
		<layer id="182" name="Conv_88" type="Add" version="opset1">
			<data auto_broadcast="numpy" />
			<input>
				<port id="0" precision="FP32">
					<dim>1</dim>
					<dim>64</dim>
					<dim>256</dim>
					<dim>456</dim>
				</port>
				<port id="1" precision="FP32">
					<dim>1</dim>
					<dim>64</dim>
					<dim>1</dim>
					<dim>1</dim>
				</port>
			</input>
			<output>
				<port id="2" precision="FP32" names="502">
					<dim>1</dim>
					<dim>64</dim>
					<dim>256</dim>
					<dim>456</dim>
				</port>
			</output>
		</layer>
		<layer id="183" name="Relu_89" type="ReLU" version="opset1">
			<input>
				<port id="0" precision="FP32">
					<dim>1</dim>
					<dim>64</dim>
					<dim>256</dim>
					<dim>456</dim>
				</port>
			</input>
			<output>
				<port id="1" precision="FP32" names="344">
					<dim>1</dim>
					<dim>64</dim>
					<dim>256</dim>
					<dim>456</dim>
				</port>
			</output>
		</layer>
		<layer id="184" name="Constant_101" type="Const" version="opset1">
			<data element_type="i64" shape="1" offset="44818176" size="8" />
			<output>
				<port id="0" precision="I64" names="356">
					<dim>1</dim>
				</port>
			</output>
		</layer>
		<layer id="185" name="Constant_102" type="Const" version="opset1">
			<data element_type="i64" shape="1" offset="44818184" size="8" />
			<output>
				<port id="0" precision="I64" names="357">
					<dim>1</dim>
				</port>
			</output>
		</layer>
		<layer id="186" name="Broadcast_1627" type="Const" version="opset1">
			<data element_type="i64" shape="1" offset="44818192" size="8" />
			<output>
				<port id="0" precision="I64">
					<dim>1</dim>
				</port>
			</output>
		</layer>
		<layer id="187" name="Slice_103" type="StridedSlice" version="opset1">
			<data begin_mask="0" end_mask="0" new_axis_mask="" shrink_axis_mask="" ellipsis_mask="" />
			<input>
				<port id="0" precision="I64">
					<dim>4</dim>
				</port>
				<port id="1" precision="I64">
					<dim>1</dim>
				</port>
				<port id="2" precision="I64">
					<dim>1</dim>
				</port>
				<port id="3" precision="I64">
					<dim>1</dim>
				</port>
			</input>
			<output>
				<port id="4" precision="I64" names="358">
					<dim>2</dim>
				</port>
			</output>
		</layer>
		<layer id="188" name="Shape_90" type="ShapeOf" version="opset3">
			<data output_type="i64" />
			<input>
				<port id="0" precision="FP32">
					<dim>1</dim>
					<dim>64</dim>
					<dim>256</dim>
					<dim>456</dim>
				</port>
			</input>
			<output>
				<port id="1" precision="I64" names="345,348">
					<dim>4</dim>
				</port>
			</output>
		</layer>
		<layer id="189" name="Constant_8032" type="Const" version="opset1">
			<data element_type="i64" shape="2" offset="45376844" size="16" />
			<output>
				<port id="0" precision="I64">
					<dim>2</dim>
				</port>
			</output>
		</layer>
		<layer id="190" name="Constant_8033" type="Const" version="opset1">
			<data element_type="i64" shape="" offset="44818176" size="8" />
			<output>
				<port id="0" precision="I64" />
			</output>
		</layer>
		<layer id="191" name="Gather_8034" type="Gather" version="opset8">
			<data batch_dims="0" />
			<input>
				<port id="0" precision="I64">
					<dim>4</dim>
				</port>
				<port id="1" precision="I64">
					<dim>2</dim>
				</port>
				<port id="2" precision="I64" />
			</input>
			<output>
				<port id="3" precision="I64" names="353,359">
					<dim>2</dim>
				</port>
			</output>
		</layer>
		<layer id="192" name="Concat_105" type="Concat" version="opset1">
			<data axis="0" />
			<input>
				<port id="0" precision="I64">
					<dim>2</dim>
				</port>
				<port id="1" precision="I64">
					<dim>2</dim>
				</port>
			</input>
			<output>
				<port id="2" precision="I64" names="360">
					<dim>4</dim>
				</port>
			</output>
		</layer>
		<layer id="193" name="Convert_1650" type="Convert" version="opset1">
			<data destination_type="f32" />
			<input>
				<port id="0" precision="I64">
					<dim>4</dim>
				</port>
			</input>
			<output>
				<port id="1" precision="FP32">
					<dim>4</dim>
				</port>
			</output>
		</layer>
		<layer id="194" name="Convert_1649" type="Convert" version="opset1">
			<data destination_type="f32" />
			<input>
				<port id="0" precision="I64">
					<dim>4</dim>
				</port>
			</input>
			<output>
				<port id="1" precision="FP32">
					<dim>4</dim>
				</port>
			</output>
		</layer>
		<layer id="195" name="Divide_1651" type="Divide" version="opset1">
			<data auto_broadcast="numpy" m_pythondiv="true" />
			<input>
				<port id="0" precision="FP32">
					<dim>4</dim>
				</port>
				<port id="1" precision="FP32">
					<dim>4</dim>
				</port>
			</input>
			<output>
				<port id="2" precision="FP32">
					<dim>4</dim>
				</port>
			</output>
		</layer>
		<layer id="196" name="Constant_9506" type="Const" version="opset1">
			<data element_type="f32" shape="1" offset="44818216" size="4" />
			<output>
				<port id="0" precision="FP32">
					<dim>1</dim>
				</port>
			</output>
		</layer>
		<layer id="197" name="Add_1653" type="Add" version="opset1">
			<data auto_broadcast="numpy" />
			<input>
				<port id="0" precision="FP32">
					<dim>4</dim>
				</port>
				<port id="1" precision="FP32">
					<dim>1</dim>
				</port>
			</input>
			<output>
				<port id="2" precision="FP32">
					<dim>4</dim>
				</port>
			</output>
		</layer>
		<layer id="198" name="Resize_108" type="Interpolate" version="opset4">
			<data mode="nearest" shape_calculation_mode="sizes" coordinate_transformation_mode="asymmetric" nearest_mode="floor" antialias="false" pads_begin="0, 0, 0, 0" pads_end="0, 0, 0, 0" cube_coeff="-0.75" />
			<input>
				<port id="0" precision="FP32">
					<dim>1</dim>
					<dim>64</dim>
					<dim>128</dim>
					<dim>228</dim>
				</port>
				<port id="1" precision="I64">
					<dim>4</dim>
				</port>
				<port id="2" precision="FP32">
					<dim>4</dim>
				</port>
			</input>
			<output>
				<port id="3" precision="FP32" names="363">
					<dim>1</dim>
					<dim>64</dim>
					<dim>256</dim>
					<dim>456</dim>
				</port>
			</output>
		</layer>
		<layer id="199" name="Constant_114" type="Const" version="opset1">
			<data element_type="i64" shape="1" offset="44818176" size="8" />
			<output>
				<port id="0" precision="I64" names="369">
					<dim>1</dim>
				</port>
			</output>
		</layer>
		<layer id="200" name="Constant_115" type="Const" version="opset1">
			<data element_type="i64" shape="1" offset="44818184" size="8" />
			<output>
				<port id="0" precision="I64" names="370">
					<dim>1</dim>
				</port>
			</output>
		</layer>
		<layer id="201" name="Broadcast_1741" type="Const" version="opset1">
			<data element_type="i64" shape="1" offset="44818192" size="8" />
			<output>
				<port id="0" precision="I64">
					<dim>1</dim>
				</port>
			</output>
		</layer>
		<layer id="202" name="Slice_116" type="StridedSlice" version="opset1">
			<data begin_mask="0" end_mask="0" new_axis_mask="" shrink_axis_mask="" ellipsis_mask="" />
			<input>
				<port id="0" precision="I64">
					<dim>4</dim>
				</port>
				<port id="1" precision="I64">
					<dim>1</dim>
				</port>
				<port id="2" precision="I64">
					<dim>1</dim>
				</port>
				<port id="3" precision="I64">
					<dim>1</dim>
				</port>
			</input>
			<output>
				<port id="4" precision="I64" names="371">
					<dim>2</dim>
				</port>
			</output>
		</layer>
		<layer id="203" name="Constant_8036" type="Const" version="opset1">
			<data element_type="i64" shape="2" offset="45376844" size="16" />
			<output>
				<port id="0" precision="I64">
					<dim>2</dim>
				</port>
			</output>
		</layer>
		<layer id="204" name="Constant_8037" type="Const" version="opset1">
			<data element_type="i64" shape="" offset="44818176" size="8" />
			<output>
				<port id="0" precision="I64" />
			</output>
		</layer>
		<layer id="205" name="Gather_8038" type="Gather" version="opset8">
			<data batch_dims="0" />
			<input>
				<port id="0" precision="I64">
					<dim>4</dim>
				</port>
				<port id="1" precision="I64">
					<dim>2</dim>
				</port>
				<port id="2" precision="I64" />
			</input>
			<output>
				<port id="3" precision="I64" names="366,372">
					<dim>2</dim>
				</port>
			</output>
		</layer>
		<layer id="206" name="Concat_118" type="Concat" version="opset1">
			<data axis="0" />
			<input>
				<port id="0" precision="I64">
					<dim>2</dim>
				</port>
				<port id="1" precision="I64">
					<dim>2</dim>
				</port>
			</input>
			<output>
				<port id="2" precision="I64" names="373">
					<dim>4</dim>
				</port>
			</output>
		</layer>
		<layer id="207" name="Convert_1764" type="Convert" version="opset1">
			<data destination_type="f32" />
			<input>
				<port id="0" precision="I64">
					<dim>4</dim>
				</port>
			</input>
			<output>
				<port id="1" precision="FP32">
					<dim>4</dim>
				</port>
			</output>
		</layer>
		<layer id="208" name="Convert_1763" type="Convert" version="opset1">
			<data destination_type="f32" />
			<input>
				<port id="0" precision="I64">
					<dim>4</dim>
				</port>
			</input>
			<output>
				<port id="1" precision="FP32">
					<dim>4</dim>
				</port>
			</output>
		</layer>
		<layer id="209" name="Divide_1765" type="Divide" version="opset1">
			<data auto_broadcast="numpy" m_pythondiv="true" />
			<input>
				<port id="0" precision="FP32">
					<dim>4</dim>
				</port>
				<port id="1" precision="FP32">
					<dim>4</dim>
				</port>
			</input>
			<output>
				<port id="2" precision="FP32">
					<dim>4</dim>
				</port>
			</output>
		</layer>
		<layer id="210" name="Constant_9507" type="Const" version="opset1">
			<data element_type="f32" shape="1" offset="44818216" size="4" />
			<output>
				<port id="0" precision="FP32">
					<dim>1</dim>
				</port>
			</output>
		</layer>
		<layer id="211" name="Add_1767" type="Add" version="opset1">
			<data auto_broadcast="numpy" />
			<input>
				<port id="0" precision="FP32">
					<dim>4</dim>
				</port>
				<port id="1" precision="FP32">
					<dim>1</dim>
				</port>
			</input>
			<output>
				<port id="2" precision="FP32">
					<dim>4</dim>
				</port>
			</output>
		</layer>
		<layer id="212" name="Resize_121" type="Interpolate" version="opset4">
			<data mode="nearest" shape_calculation_mode="sizes" coordinate_transformation_mode="asymmetric" nearest_mode="floor" antialias="false" pads_begin="0, 0, 0, 0" pads_end="0, 0, 0, 0" cube_coeff="-0.75" />
			<input>
				<port id="0" precision="FP32">
					<dim>1</dim>
					<dim>64</dim>
					<dim>64</dim>
					<dim>114</dim>
				</port>
				<port id="1" precision="I64">
					<dim>4</dim>
				</port>
				<port id="2" precision="FP32">
					<dim>4</dim>
				</port>
			</input>
			<output>
				<port id="3" precision="FP32" names="376">
					<dim>1</dim>
					<dim>64</dim>
					<dim>256</dim>
					<dim>456</dim>
				</port>
			</output>
		</layer>
		<layer id="213" name="Constant_127" type="Const" version="opset1">
			<data element_type="i64" shape="1" offset="44818176" size="8" />
			<output>
				<port id="0" precision="I64" names="382">
					<dim>1</dim>
				</port>
			</output>
		</layer>
		<layer id="214" name="Constant_128" type="Const" version="opset1">
			<data element_type="i64" shape="1" offset="44818184" size="8" />
			<output>
				<port id="0" precision="I64" names="383">
					<dim>1</dim>
				</port>
			</output>
		</layer>
		<layer id="215" name="Broadcast_1855" type="Const" version="opset1">
			<data element_type="i64" shape="1" offset="44818192" size="8" />
			<output>
				<port id="0" precision="I64">
					<dim>1</dim>
				</port>
			</output>
		</layer>
		<layer id="216" name="Slice_129" type="StridedSlice" version="opset1">
			<data begin_mask="0" end_mask="0" new_axis_mask="" shrink_axis_mask="" ellipsis_mask="" />
			<input>
				<port id="0" precision="I64">
					<dim>4</dim>
				</port>
				<port id="1" precision="I64">
					<dim>1</dim>
				</port>
				<port id="2" precision="I64">
					<dim>1</dim>
				</port>
				<port id="3" precision="I64">
					<dim>1</dim>
				</port>
			</input>
			<output>
				<port id="4" precision="I64" names="384">
					<dim>2</dim>
				</port>
			</output>
		</layer>
		<layer id="217" name="Constant_8040" type="Const" version="opset1">
			<data element_type="i64" shape="2" offset="45376844" size="16" />
			<output>
				<port id="0" precision="I64">
					<dim>2</dim>
				</port>
			</output>
		</layer>
		<layer id="218" name="Constant_8041" type="Const" version="opset1">
			<data element_type="i64" shape="" offset="44818176" size="8" />
			<output>
				<port id="0" precision="I64" />
			</output>
		</layer>
		<layer id="219" name="Gather_8042" type="Gather" version="opset8">
			<data batch_dims="0" />
			<input>
				<port id="0" precision="I64">
					<dim>4</dim>
				</port>
				<port id="1" precision="I64">
					<dim>2</dim>
				</port>
				<port id="2" precision="I64" />
			</input>
			<output>
				<port id="3" precision="I64" names="379,385">
					<dim>2</dim>
				</port>
			</output>
		</layer>
		<layer id="220" name="Concat_131" type="Concat" version="opset1">
			<data axis="0" />
			<input>
				<port id="0" precision="I64">
					<dim>2</dim>
				</port>
				<port id="1" precision="I64">
					<dim>2</dim>
				</port>
			</input>
			<output>
				<port id="2" precision="I64" names="386">
					<dim>4</dim>
				</port>
			</output>
		</layer>
		<layer id="221" name="Convert_1878" type="Convert" version="opset1">
			<data destination_type="f32" />
			<input>
				<port id="0" precision="I64">
					<dim>4</dim>
				</port>
			</input>
			<output>
				<port id="1" precision="FP32">
					<dim>4</dim>
				</port>
			</output>
		</layer>
		<layer id="222" name="Convert_1877" type="Convert" version="opset1">
			<data destination_type="f32" />
			<input>
				<port id="0" precision="I64">
					<dim>4</dim>
				</port>
			</input>
			<output>
				<port id="1" precision="FP32">
					<dim>4</dim>
				</port>
			</output>
		</layer>
		<layer id="223" name="Divide_1879" type="Divide" version="opset1">
			<data auto_broadcast="numpy" m_pythondiv="true" />
			<input>
				<port id="0" precision="FP32">
					<dim>4</dim>
				</port>
				<port id="1" precision="FP32">
					<dim>4</dim>
				</port>
			</input>
			<output>
				<port id="2" precision="FP32">
					<dim>4</dim>
				</port>
			</output>
		</layer>
		<layer id="224" name="Constant_9508" type="Const" version="opset1">
			<data element_type="f32" shape="1" offset="44818216" size="4" />
			<output>
				<port id="0" precision="FP32">
					<dim>1</dim>
				</port>
			</output>
		</layer>
		<layer id="225" name="Add_1881" type="Add" version="opset1">
			<data auto_broadcast="numpy" />
			<input>
				<port id="0" precision="FP32">
					<dim>4</dim>
				</port>
				<port id="1" precision="FP32">
					<dim>1</dim>
				</port>
			</input>
			<output>
				<port id="2" precision="FP32">
					<dim>4</dim>
				</port>
			</output>
		</layer>
		<layer id="226" name="Resize_134" type="Interpolate" version="opset4">
			<data mode="nearest" shape_calculation_mode="sizes" coordinate_transformation_mode="asymmetric" nearest_mode="floor" antialias="false" pads_begin="0, 0, 0, 0" pads_end="0, 0, 0, 0" cube_coeff="-0.75" />
			<input>
				<port id="0" precision="FP32">
					<dim>1</dim>
					<dim>64</dim>
					<dim>32</dim>
					<dim>57</dim>
				</port>
				<port id="1" precision="I64">
					<dim>4</dim>
				</port>
				<port id="2" precision="FP32">
					<dim>4</dim>
				</port>
			</input>
			<output>
				<port id="3" precision="FP32" names="389">
					<dim>1</dim>
					<dim>64</dim>
					<dim>256</dim>
					<dim>456</dim>
				</port>
			</output>
		</layer>
		<layer id="227" name="Concat_135" type="Concat" version="opset1">
			<data axis="1" />
			<input>
				<port id="0" precision="FP32">
					<dim>1</dim>
					<dim>64</dim>
					<dim>256</dim>
					<dim>456</dim>
				</port>
				<port id="1" precision="FP32">
					<dim>1</dim>
					<dim>64</dim>
					<dim>256</dim>
					<dim>456</dim>
				</port>
				<port id="2" precision="FP32">
					<dim>1</dim>
					<dim>64</dim>
					<dim>256</dim>
					<dim>456</dim>
				</port>
				<port id="3" precision="FP32">
					<dim>1</dim>
					<dim>64</dim>
					<dim>256</dim>
					<dim>456</dim>
				</port>
			</input>
			<output>
				<port id="4" precision="FP32" names="390">
					<dim>1</dim>
					<dim>256</dim>
					<dim>256</dim>
					<dim>456</dim>
				</port>
			</output>
		</layer>
		<layer id="228" name="506" type="Const" version="opset1">
			<data element_type="f32" shape="256, 256, 3, 3" offset="45376860" size="2359296" />
			<output>
				<port id="0" precision="FP32" names="506">
					<dim>256</dim>
					<dim>256</dim>
					<dim>3</dim>
					<dim>3</dim>
				</port>
			</output>
		</layer>
		<layer id="229" name="Conv_136/WithoutBiases" type="Convolution" version="opset1">
			<data strides="1, 1" dilations="1, 1" pads_begin="1, 1" pads_end="1, 1" auto_pad="explicit" />
			<input>
				<port id="0" precision="FP32">
					<dim>1</dim>
					<dim>256</dim>
					<dim>256</dim>
					<dim>456</dim>
				</port>
				<port id="1" precision="FP32">
					<dim>256</dim>
					<dim>256</dim>
					<dim>3</dim>
					<dim>3</dim>
				</port>
			</input>
			<output>
				<port id="2" precision="FP32">
					<dim>1</dim>
					<dim>256</dim>
					<dim>256</dim>
					<dim>456</dim>
				</port>
			</output>
		</layer>
		<layer id="230" name="Reshape_1979" type="Const" version="opset1">
			<data element_type="f32" shape="1, 256, 1, 1" offset="47736156" size="1024" />
			<output>
				<port id="0" precision="FP32">
					<dim>1</dim>
					<dim>256</dim>
					<dim>1</dim>
					<dim>1</dim>
				</port>
			</output>
		</layer>
		<layer id="231" name="Conv_136" type="Add" version="opset1">
			<data auto_broadcast="numpy" />
			<input>
				<port id="0" precision="FP32">
					<dim>1</dim>
					<dim>256</dim>
					<dim>256</dim>
					<dim>456</dim>
				</port>
				<port id="1" precision="FP32">
					<dim>1</dim>
					<dim>256</dim>
					<dim>1</dim>
					<dim>1</dim>
				</port>
			</input>
			<output>
				<port id="2" precision="FP32" names="505">
					<dim>1</dim>
					<dim>256</dim>
					<dim>256</dim>
					<dim>456</dim>
				</port>
			</output>
		</layer>
		<layer id="232" name="Relu_137" type="ReLU" version="opset1">
			<input>
				<port id="0" precision="FP32">
					<dim>1</dim>
					<dim>256</dim>
					<dim>256</dim>
					<dim>456</dim>
				</port>
			</input>
			<output>
				<port id="1" precision="FP32" names="393">
					<dim>1</dim>
					<dim>256</dim>
					<dim>256</dim>
					<dim>456</dim>
				</port>
			</output>
		</layer>
		<layer id="233" name="509" type="Const" version="opset1">
			<data element_type="f32" shape="64, 256, 3, 3" offset="47737180" size="589824" />
			<output>
				<port id="0" precision="FP32" names="509">
					<dim>64</dim>
					<dim>256</dim>
					<dim>3</dim>
					<dim>3</dim>
				</port>
			</output>
		</layer>
		<layer id="234" name="Conv_138/WithoutBiases" type="Convolution" version="opset1">
			<data strides="1, 1" dilations="1, 1" pads_begin="1, 1" pads_end="1, 1" auto_pad="explicit" />
			<input>
				<port id="0" precision="FP32">
					<dim>1</dim>
					<dim>256</dim>
					<dim>256</dim>
					<dim>456</dim>
				</port>
				<port id="1" precision="FP32">
					<dim>64</dim>
					<dim>256</dim>
					<dim>3</dim>
					<dim>3</dim>
				</port>
			</input>
			<output>
				<port id="2" precision="FP32">
					<dim>1</dim>
					<dim>64</dim>
					<dim>256</dim>
					<dim>456</dim>
				</port>
			</output>
		</layer>
		<layer id="235" name="Reshape_2028" type="Const" version="opset1">
			<data element_type="f32" shape="1, 64, 1, 1" offset="48327004" size="256" />
			<output>
				<port id="0" precision="FP32">
					<dim>1</dim>
					<dim>64</dim>
					<dim>1</dim>
					<dim>1</dim>
				</port>
			</output>
		</layer>
		<layer id="236" name="Conv_138" type="Add" version="opset1">
			<data auto_broadcast="numpy" />
			<input>
				<port id="0" precision="FP32">
					<dim>1</dim>
					<dim>64</dim>
					<dim>256</dim>
					<dim>456</dim>
				</port>
				<port id="1" precision="FP32">
					<dim>1</dim>
					<dim>64</dim>
					<dim>1</dim>
					<dim>1</dim>
				</port>
			</input>
			<output>
				<port id="2" precision="FP32" names="508">
					<dim>1</dim>
					<dim>64</dim>
					<dim>256</dim>
					<dim>456</dim>
				</port>
			</output>
		</layer>
		<layer id="237" name="Relu_139" type="ReLU" version="opset1">
			<input>
				<port id="0" precision="FP32">
					<dim>1</dim>
					<dim>64</dim>
					<dim>256</dim>
					<dim>456</dim>
				</port>
			</input>
			<output>
				<port id="1" precision="FP32" names="396">
					<dim>1</dim>
					<dim>64</dim>
					<dim>256</dim>
					<dim>456</dim>
				</port>
			</output>
		</layer>
		<layer id="238" name="Multiply_9422" type="Const" version="opset1">
			<data element_type="f32" shape="64, 64, 2, 2" offset="48327260" size="65536" />
			<output>
				<port id="0" precision="FP32">
					<dim>64</dim>
					<dim>64</dim>
					<dim>2</dim>
					<dim>2</dim>
				</port>
			</output>
		</layer>
		<layer id="239" name="Multiply_9398" type="ConvolutionBackpropData" version="opset1">
			<data strides="2, 2" dilations="1, 1" pads_begin="0, 0" pads_end="0, 0" auto_pad="explicit" output_padding="0, 0" />
			<input>
				<port id="0" precision="FP32">
					<dim>1</dim>
					<dim>64</dim>
					<dim>256</dim>
					<dim>456</dim>
				</port>
				<port id="1" precision="FP32">
					<dim>64</dim>
					<dim>64</dim>
					<dim>2</dim>
					<dim>2</dim>
				</port>
			</input>
			<output>
				<port id="2" precision="FP32">
					<dim>1</dim>
					<dim>64</dim>
					<dim>512</dim>
					<dim>912</dim>
				</port>
			</output>
		</layer>
		<layer id="240" name="Constant_9403" type="Const" version="opset1">
			<data element_type="f32" shape="1, 64, 1, 1" offset="48392796" size="256" />
			<output>
				<port id="0" precision="FP32">
					<dim>1</dim>
					<dim>64</dim>
					<dim>1</dim>
					<dim>1</dim>
				</port>
			</output>
		</layer>
		<layer id="241" name="BatchNormalization_141" type="Add" version="opset1">
			<data auto_broadcast="numpy" />
			<input>
				<port id="0" precision="FP32">
					<dim>1</dim>
					<dim>64</dim>
					<dim>512</dim>
					<dim>912</dim>
				</port>
				<port id="1" precision="FP32">
					<dim>1</dim>
					<dim>64</dim>
					<dim>1</dim>
					<dim>1</dim>
				</port>
			</input>
			<output>
				<port id="2" precision="FP32" names="398">
					<dim>1</dim>
					<dim>64</dim>
					<dim>512</dim>
					<dim>912</dim>
				</port>
			</output>
		</layer>
		<layer id="242" name="Relu_142" type="ReLU" version="opset1">
			<input>
				<port id="0" precision="FP32">
					<dim>1</dim>
					<dim>64</dim>
					<dim>512</dim>
					<dim>912</dim>
				</port>
			</input>
			<output>
				<port id="1" precision="FP32" names="399">
					<dim>1</dim>
					<dim>64</dim>
					<dim>512</dim>
					<dim>912</dim>
				</port>
			</output>
		</layer>
		<layer id="243" name="head.binarize.6.weight" type="Const" version="opset1">
			<data element_type="f32" shape="64, 1, 2, 2" offset="48393052" size="1024" />
			<output>
				<port id="0" precision="FP32" names="head.binarize.6.weight">
					<dim>64</dim>
					<dim>1</dim>
					<dim>2</dim>
					<dim>2</dim>
				</port>
			</output>
		</layer>
		<layer id="244" name="ConvolutionBackpropData_2068" type="ConvolutionBackpropData" version="opset1">
			<data strides="2, 2" dilations="1, 1" pads_begin="0, 0" pads_end="0, 0" auto_pad="explicit" output_padding="0, 0" />
			<input>
				<port id="0" precision="FP32">
					<dim>1</dim>
					<dim>64</dim>
					<dim>512</dim>
					<dim>912</dim>
				</port>
				<port id="1" precision="FP32">
					<dim>64</dim>
					<dim>1</dim>
					<dim>2</dim>
					<dim>2</dim>
				</port>
			</input>
			<output>
				<port id="2" precision="FP32">
					<dim>1</dim>
					<dim>1</dim>
					<dim>1024</dim>
					<dim>1824</dim>
				</port>
			</output>
		</layer>
		<layer id="245" name="Reshape_2070" type="Const" version="opset1">
			<data element_type="f32" shape="1, 1, 1, 1" offset="48394076" size="4" />
			<output>
				<port id="0" precision="FP32">
					<dim>1</dim>
					<dim>1</dim>
					<dim>1</dim>
					<dim>1</dim>
				</port>
			</output>
		</layer>
		<layer id="246" name="ConvTranspose_143" type="Add" version="opset1">
			<data auto_broadcast="numpy" />
			<input>
				<port id="0" precision="FP32">
					<dim>1</dim>
					<dim>1</dim>
					<dim>1024</dim>
					<dim>1824</dim>
				</port>
				<port id="1" precision="FP32">
					<dim>1</dim>
					<dim>1</dim>
					<dim>1</dim>
					<dim>1</dim>
				</port>
			</input>
			<output>
				<port id="2" precision="FP32" names="400">
					<dim>1</dim>
					<dim>1</dim>
					<dim>1024</dim>
					<dim>1824</dim>
				</port>
			</output>
		</layer>
		<layer id="247" name="Sigmoid_144" type="Sigmoid" version="opset1">
			<input>
				<port id="0" precision="FP32">
					<dim>1</dim>
					<dim>1</dim>
					<dim>1024</dim>
					<dim>1824</dim>
				</port>
			</input>
			<output>
				<port id="1" precision="FP32" names="401">
					<dim>1</dim>
					<dim>1</dim>
					<dim>1024</dim>
					<dim>1824</dim>
				</port>
			</output>
		</layer>
		<layer id="248" name="512" type="Const" version="opset1">
			<data element_type="f32" shape="64, 256, 3, 3" offset="48394080" size="589824" />
			<output>
				<port id="0" precision="FP32" names="512">
					<dim>64</dim>
					<dim>256</dim>
					<dim>3</dim>
					<dim>3</dim>
				</port>
			</output>
		</layer>
		<layer id="249" name="Conv_145/WithoutBiases" type="Convolution" version="opset1">
			<data strides="1, 1" dilations="1, 1" pads_begin="1, 1" pads_end="1, 1" auto_pad="explicit" />
			<input>
				<port id="0" precision="FP32">
					<dim>1</dim>
					<dim>256</dim>
					<dim>256</dim>
					<dim>456</dim>
				</port>
				<port id="1" precision="FP32">
					<dim>64</dim>
					<dim>256</dim>
					<dim>3</dim>
					<dim>3</dim>
				</port>
			</input>
			<output>
				<port id="2" precision="FP32">
					<dim>1</dim>
					<dim>64</dim>
					<dim>256</dim>
					<dim>456</dim>
				</port>
			</output>
		</layer>
		<layer id="250" name="Reshape_2098" type="Const" version="opset1">
			<data element_type="f32" shape="1, 64, 1, 1" offset="48983904" size="256" />
			<output>
				<port id="0" precision="FP32">
					<dim>1</dim>
					<dim>64</dim>
					<dim>1</dim>
					<dim>1</dim>
				</port>
			</output>
		</layer>
		<layer id="251" name="Conv_145" type="Add" version="opset1">
			<data auto_broadcast="numpy" />
			<input>
				<port id="0" precision="FP32">
					<dim>1</dim>
					<dim>64</dim>
					<dim>256</dim>
					<dim>456</dim>
				</port>
				<port id="1" precision="FP32">
					<dim>1</dim>
					<dim>64</dim>
					<dim>1</dim>
					<dim>1</dim>
				</port>
			</input>
			<output>
				<port id="2" precision="FP32" names="511">
					<dim>1</dim>
					<dim>64</dim>
					<dim>256</dim>
					<dim>456</dim>
				</port>
			</output>
		</layer>
		<layer id="252" name="Relu_146" type="ReLU" version="opset1">
			<input>
				<port id="0" precision="FP32">
					<dim>1</dim>
					<dim>64</dim>
					<dim>256</dim>
					<dim>456</dim>
				</port>
			</input>
			<output>
				<port id="1" precision="FP32" names="404">
					<dim>1</dim>
					<dim>64</dim>
					<dim>256</dim>
					<dim>456</dim>
				</port>
			</output>
		</layer>
		<layer id="253" name="Multiply_9431" type="Const" version="opset1">
			<data element_type="f32" shape="64, 64, 2, 2" offset="48984160" size="65536" />
			<output>
				<port id="0" precision="FP32">
					<dim>64</dim>
					<dim>64</dim>
					<dim>2</dim>
					<dim>2</dim>
				</port>
			</output>
		</layer>
		<layer id="254" name="Multiply_9408" type="ConvolutionBackpropData" version="opset1">
			<data strides="2, 2" dilations="1, 1" pads_begin="0, 0" pads_end="0, 0" auto_pad="explicit" output_padding="0, 0" />
			<input>
				<port id="0" precision="FP32">
					<dim>1</dim>
					<dim>64</dim>
					<dim>256</dim>
					<dim>456</dim>
				</port>
				<port id="1" precision="FP32">
					<dim>64</dim>
					<dim>64</dim>
					<dim>2</dim>
					<dim>2</dim>
				</port>
			</input>
			<output>
				<port id="2" precision="FP32">
					<dim>1</dim>
					<dim>64</dim>
					<dim>512</dim>
					<dim>912</dim>
				</port>
			</output>
		</layer>
		<layer id="255" name="Constant_9413" type="Const" version="opset1">
			<data element_type="f32" shape="1, 64, 1, 1" offset="49049696" size="256" />
			<output>
				<port id="0" precision="FP32">
					<dim>1</dim>
					<dim>64</dim>
					<dim>1</dim>
					<dim>1</dim>
				</port>
			</output>
		</layer>
		<layer id="256" name="BatchNormalization_148" type="Add" version="opset1">
			<data auto_broadcast="numpy" />
			<input>
				<port id="0" precision="FP32">
					<dim>1</dim>
					<dim>64</dim>
					<dim>512</dim>
					<dim>912</dim>
				</port>
				<port id="1" precision="FP32">
					<dim>1</dim>
					<dim>64</dim>
					<dim>1</dim>
					<dim>1</dim>
				</port>
			</input>
			<output>
				<port id="2" precision="FP32" names="406">
					<dim>1</dim>
					<dim>64</dim>
					<dim>512</dim>
					<dim>912</dim>
				</port>
			</output>
		</layer>
		<layer id="257" name="Relu_149" type="ReLU" version="opset1">
			<input>
				<port id="0" precision="FP32">
					<dim>1</dim>
					<dim>64</dim>
					<dim>512</dim>
					<dim>912</dim>
				</port>
			</input>
			<output>
				<port id="1" precision="FP32" names="407">
					<dim>1</dim>
					<dim>64</dim>
					<dim>512</dim>
					<dim>912</dim>
				</port>
			</output>
		</layer>
		<layer id="258" name="head.thresh.6.weight" type="Const" version="opset1">
			<data element_type="f32" shape="64, 1, 2, 2" offset="49049952" size="1024" />
			<output>
				<port id="0" precision="FP32" names="head.thresh.6.weight">
					<dim>64</dim>
					<dim>1</dim>
					<dim>2</dim>
					<dim>2</dim>
				</port>
			</output>
		</layer>
		<layer id="259" name="ConvolutionBackpropData_2138" type="ConvolutionBackpropData" version="opset1">
			<data strides="2, 2" dilations="1, 1" pads_begin="0, 0" pads_end="0, 0" auto_pad="explicit" output_padding="0, 0" />
			<input>
				<port id="0" precision="FP32">
					<dim>1</dim>
					<dim>64</dim>
					<dim>512</dim>
					<dim>912</dim>
				</port>
				<port id="1" precision="FP32">
					<dim>64</dim>
					<dim>1</dim>
					<dim>2</dim>
					<dim>2</dim>
				</port>
			</input>
			<output>
				<port id="2" precision="FP32">
					<dim>1</dim>
					<dim>1</dim>
					<dim>1024</dim>
					<dim>1824</dim>
				</port>
			</output>
		</layer>
		<layer id="260" name="Reshape_2140" type="Const" version="opset1">
			<data element_type="f32" shape="1, 1, 1, 1" offset="49050976" size="4" />
			<output>
				<port id="0" precision="FP32">
					<dim>1</dim>
					<dim>1</dim>
					<dim>1</dim>
					<dim>1</dim>
				</port>
			</output>
		</layer>
		<layer id="261" name="ConvTranspose_150" type="Add" version="opset1">
			<data auto_broadcast="numpy" />
			<input>
				<port id="0" precision="FP32">
					<dim>1</dim>
					<dim>1</dim>
					<dim>1024</dim>
					<dim>1824</dim>
				</port>
				<port id="1" precision="FP32">
					<dim>1</dim>
					<dim>1</dim>
					<dim>1</dim>
					<dim>1</dim>
				</port>
			</input>
			<output>
				<port id="2" precision="FP32" names="408">
					<dim>1</dim>
					<dim>1</dim>
					<dim>1024</dim>
					<dim>1824</dim>
				</port>
			</output>
		</layer>
		<layer id="262" name="Sigmoid_151" type="Sigmoid" version="opset1">
			<input>
				<port id="0" precision="FP32">
					<dim>1</dim>
					<dim>1</dim>
					<dim>1024</dim>
					<dim>1824</dim>
				</port>
			</input>
			<output>
				<port id="1" precision="FP32" names="409">
					<dim>1</dim>
					<dim>1</dim>
					<dim>1024</dim>
					<dim>1824</dim>
				</port>
			</output>
		</layer>
		<layer id="263" name="Concat_152" type="Concat" version="opset1">
			<data axis="1" />
			<input>
				<port id="0" precision="FP32">
					<dim>1</dim>
					<dim>1</dim>
					<dim>1024</dim>
					<dim>1824</dim>
				</port>
				<port id="1" precision="FP32">
					<dim>1</dim>
					<dim>1</dim>
					<dim>1024</dim>
					<dim>1824</dim>
				</port>
			</input>
			<output>
				<port id="2" precision="FP32" names="410">
					<dim>1</dim>
					<dim>2</dim>
					<dim>1024</dim>
					<dim>1824</dim>
				</port>
			</output>
		</layer>
		<layer id="264" name="Shape_153" type="ShapeOf" version="opset3">
			<data output_type="i64" />
			<input>
				<port id="0" precision="FP32">
					<dim>1</dim>
					<dim>2</dim>
					<dim>1024</dim>
					<dim>1824</dim>
				</port>
			</input>
			<output>
				<port id="1" precision="I64" names="414">
					<dim>4</dim>
				</port>
			</output>
		</layer>
		<layer id="265" name="Constant_155" type="Const" version="opset1">
			<data element_type="i64" shape="1" offset="44818176" size="8" />
			<output>
				<port id="0" precision="I64" names="416">
					<dim>1</dim>
				</port>
			</output>
		</layer>
		<layer id="266" name="Constant_156" type="Const" version="opset1">
			<data element_type="i64" shape="1" offset="44818184" size="8" />
			<output>
				<port id="0" precision="I64" names="417">
					<dim>1</dim>
				</port>
			</output>
		</layer>
		<layer id="267" name="Broadcast_2155" type="Const" version="opset1">
			<data element_type="i64" shape="1" offset="44818192" size="8" />
			<output>
				<port id="0" precision="I64">
					<dim>1</dim>
				</port>
			</output>
		</layer>
		<layer id="268" name="Slice_157" type="StridedSlice" version="opset1">
			<data begin_mask="0" end_mask="0" new_axis_mask="" shrink_axis_mask="" ellipsis_mask="" />
			<input>
				<port id="0" precision="I64">
					<dim>4</dim>
				</port>
				<port id="1" precision="I64">
					<dim>1</dim>
				</port>
				<port id="2" precision="I64">
					<dim>1</dim>
				</port>
				<port id="3" precision="I64">
					<dim>1</dim>
				</port>
			</input>
			<output>
				<port id="4" precision="I64" names="418">
					<dim>2</dim>
				</port>
			</output>
		</layer>
		<layer id="269" name="529" type="Const" version="opset1">
			<data element_type="i64" shape="2" offset="49050980" size="16" />
			<output>
				<port id="0" precision="I64" names="529">
					<dim>2</dim>
				</port>
			</output>
		</layer>
		<layer id="270" name="Concat_158" type="Concat" version="opset1">
			<data axis="0" />
			<input>
				<port id="0" precision="I64">
					<dim>2</dim>
				</port>
				<port id="1" precision="I64">
					<dim>2</dim>
				</port>
			</input>
			<output>
				<port id="2" precision="I64" names="420">
					<dim>4</dim>
				</port>
			</output>
		</layer>
		<layer id="271" name="Convert_2177" type="Convert" version="opset1">
			<data destination_type="f32" />
			<input>
				<port id="0" precision="I64">
					<dim>4</dim>
				</port>
			</input>
			<output>
				<port id="1" precision="FP32">
					<dim>4</dim>
				</port>
			</output>
		</layer>
		<layer id="272" name="Convert_2176" type="Convert" version="opset1">
			<data destination_type="f32" />
			<input>
				<port id="0" precision="I64">
					<dim>4</dim>
				</port>
			</input>
			<output>
				<port id="1" precision="FP32">
					<dim>4</dim>
				</port>
			</output>
		</layer>
		<layer id="273" name="Divide_2178" type="Divide" version="opset1">
			<data auto_broadcast="numpy" m_pythondiv="true" />
			<input>
				<port id="0" precision="FP32">
					<dim>4</dim>
				</port>
				<port id="1" precision="FP32">
					<dim>4</dim>
				</port>
			</input>
			<output>
				<port id="2" precision="FP32">
					<dim>4</dim>
				</port>
			</output>
		</layer>
		<layer id="274" name="Constant_9509" type="Const" version="opset1">
			<data element_type="f32" shape="1" offset="44818216" size="4" />
			<output>
				<port id="0" precision="FP32">
					<dim>1</dim>
				</port>
			</output>
		</layer>
		<layer id="275" name="Add_2180" type="Add" version="opset1">
			<data auto_broadcast="numpy" />
			<input>
				<port id="0" precision="FP32">
					<dim>4</dim>
				</port>
				<port id="1" precision="FP32">
					<dim>1</dim>
				</port>
			</input>
			<output>
				<port id="2" precision="FP32">
					<dim>4</dim>
				</port>
			</output>
		</layer>
		<layer id="276" name="output" type="Interpolate" version="opset4">
			<data mode="linear_onnx" shape_calculation_mode="sizes" coordinate_transformation_mode="align_corners" nearest_mode="floor" antialias="false" pads_begin="0, 0, 0, 0" pads_end="0, 0, 0, 0" cube_coeff="-0.75" />
			<input>
				<port id="0" precision="FP32">
					<dim>1</dim>
					<dim>2</dim>
					<dim>1024</dim>
					<dim>1824</dim>
				</port>
				<port id="1" precision="I64">
					<dim>4</dim>
				</port>
				<port id="2" precision="FP32">
					<dim>4</dim>
				</port>
			</input>
			<output>
				<port id="3" precision="FP32" names="output">
					<dim>1</dim>
					<dim>2</dim>
					<dim>1024</dim>
					<dim>1824</dim>
				</port>
			</output>
		</layer>
		<layer id="277" name="output/sink_port_0" type="Result" version="opset1">
			<input>
				<port id="0" precision="FP32">
					<dim>1</dim>
					<dim>2</dim>
					<dim>1024</dim>
					<dim>1824</dim>
				</port>
			</input>
		</layer>
	</layers>
	<edges>
		<edge from-layer="0" from-port="0" to-layer="2" to-port="0" />
		<edge from-layer="1" from-port="0" to-layer="2" to-port="1" />
		<edge from-layer="2" from-port="2" to-layer="4" to-port="0" />
		<edge from-layer="3" from-port="0" to-layer="4" to-port="1" />
		<edge from-layer="4" from-port="2" to-layer="5" to-port="0" />
		<edge from-layer="5" from-port="1" to-layer="6" to-port="0" />
		<edge from-layer="6" from-port="1" to-layer="16" to-port="1" />
		<edge from-layer="6" from-port="1" to-layer="8" to-port="0" />
		<edge from-layer="7" from-port="0" to-layer="8" to-port="1" />
		<edge from-layer="8" from-port="2" to-layer="10" to-port="0" />
		<edge from-layer="9" from-port="0" to-layer="10" to-port="1" />
		<edge from-layer="10" from-port="2" to-layer="11" to-port="0" />
		<edge from-layer="11" from-port="1" to-layer="13" to-port="0" />
		<edge from-layer="12" from-port="0" to-layer="13" to-port="1" />
		<edge from-layer="13" from-port="2" to-layer="15" to-port="0" />
		<edge from-layer="14" from-port="0" to-layer="15" to-port="1" />
		<edge from-layer="15" from-port="2" to-layer="16" to-port="0" />
		<edge from-layer="16" from-port="2" to-layer="17" to-port="0" />
		<edge from-layer="17" from-port="1" to-layer="19" to-port="0" />
		<edge from-layer="17" from-port="1" to-layer="27" to-port="1" />
		<edge from-layer="18" from-port="0" to-layer="19" to-port="1" />
		<edge from-layer="19" from-port="2" to-layer="21" to-port="0" />
		<edge from-layer="20" from-port="0" to-layer="21" to-port="1" />
		<edge from-layer="21" from-port="2" to-layer="22" to-port="0" />
		<edge from-layer="22" from-port="1" to-layer="24" to-port="0" />
		<edge from-layer="23" from-port="0" to-layer="24" to-port="1" />
		<edge from-layer="24" from-port="2" to-layer="26" to-port="0" />
		<edge from-layer="25" from-port="0" to-layer="26" to-port="1" />
		<edge from-layer="26" from-port="2" to-layer="27" to-port="0" />
		<edge from-layer="27" from-port="2" to-layer="28" to-port="0" />
		<edge from-layer="28" from-port="1" to-layer="174" to-port="0" />
		<edge from-layer="28" from-port="1" to-layer="39" to-port="0" />
		<edge from-layer="28" from-port="1" to-layer="30" to-port="0" />
		<edge from-layer="29" from-port="0" to-layer="30" to-port="1" />
		<edge from-layer="30" from-port="2" to-layer="32" to-port="0" />
		<edge from-layer="31" from-port="0" to-layer="32" to-port="1" />
		<edge from-layer="32" from-port="2" to-layer="33" to-port="0" />
		<edge from-layer="33" from-port="1" to-layer="35" to-port="0" />
		<edge from-layer="34" from-port="0" to-layer="35" to-port="1" />
		<edge from-layer="35" from-port="2" to-layer="37" to-port="0" />
		<edge from-layer="36" from-port="0" to-layer="37" to-port="1" />
		<edge from-layer="37" from-port="2" to-layer="42" to-port="0" />
		<edge from-layer="38" from-port="0" to-layer="39" to-port="1" />
		<edge from-layer="39" from-port="2" to-layer="41" to-port="0" />
		<edge from-layer="40" from-port="0" to-layer="41" to-port="1" />
		<edge from-layer="41" from-port="2" to-layer="42" to-port="1" />
		<edge from-layer="42" from-port="2" to-layer="43" to-port="0" />
		<edge from-layer="43" from-port="1" to-layer="45" to-port="0" />
		<edge from-layer="43" from-port="1" to-layer="53" to-port="1" />
		<edge from-layer="44" from-port="0" to-layer="45" to-port="1" />
		<edge from-layer="45" from-port="2" to-layer="47" to-port="0" />
		<edge from-layer="46" from-port="0" to-layer="47" to-port="1" />
		<edge from-layer="47" from-port="2" to-layer="48" to-port="0" />
		<edge from-layer="48" from-port="1" to-layer="50" to-port="0" />
		<edge from-layer="49" from-port="0" to-layer="50" to-port="1" />
		<edge from-layer="50" from-port="2" to-layer="52" to-port="0" />
		<edge from-layer="51" from-port="0" to-layer="52" to-port="1" />
		<edge from-layer="52" from-port="2" to-layer="53" to-port="0" />
		<edge from-layer="53" from-port="2" to-layer="54" to-port="0" />
		<edge from-layer="54" from-port="1" to-layer="56" to-port="0" />
		<edge from-layer="54" from-port="1" to-layer="150" to-port="0" />
		<edge from-layer="54" from-port="1" to-layer="65" to-port="0" />
		<edge from-layer="55" from-port="0" to-layer="56" to-port="1" />
		<edge from-layer="56" from-port="2" to-layer="58" to-port="0" />
		<edge from-layer="57" from-port="0" to-layer="58" to-port="1" />
		<edge from-layer="58" from-port="2" to-layer="59" to-port="0" />
		<edge from-layer="59" from-port="1" to-layer="61" to-port="0" />
		<edge from-layer="60" from-port="0" to-layer="61" to-port="1" />
		<edge from-layer="61" from-port="2" to-layer="63" to-port="0" />
		<edge from-layer="62" from-port="0" to-layer="63" to-port="1" />
		<edge from-layer="63" from-port="2" to-layer="68" to-port="0" />
		<edge from-layer="64" from-port="0" to-layer="65" to-port="1" />
		<edge from-layer="65" from-port="2" to-layer="67" to-port="0" />
		<edge from-layer="66" from-port="0" to-layer="67" to-port="1" />
		<edge from-layer="67" from-port="2" to-layer="68" to-port="1" />
		<edge from-layer="68" from-port="2" to-layer="69" to-port="0" />
		<edge from-layer="69" from-port="1" to-layer="71" to-port="0" />
		<edge from-layer="69" from-port="1" to-layer="79" to-port="1" />
		<edge from-layer="70" from-port="0" to-layer="71" to-port="1" />
		<edge from-layer="71" from-port="2" to-layer="73" to-port="0" />
		<edge from-layer="72" from-port="0" to-layer="73" to-port="1" />
		<edge from-layer="73" from-port="2" to-layer="74" to-port="0" />
		<edge from-layer="74" from-port="1" to-layer="76" to-port="0" />
		<edge from-layer="75" from-port="0" to-layer="76" to-port="1" />
		<edge from-layer="76" from-port="2" to-layer="78" to-port="0" />
		<edge from-layer="77" from-port="0" to-layer="78" to-port="1" />
		<edge from-layer="78" from-port="2" to-layer="79" to-port="0" />
		<edge from-layer="79" from-port="2" to-layer="80" to-port="0" />
		<edge from-layer="80" from-port="1" to-layer="126" to-port="0" />
		<edge from-layer="80" from-port="1" to-layer="91" to-port="0" />
		<edge from-layer="80" from-port="1" to-layer="82" to-port="0" />
		<edge from-layer="81" from-port="0" to-layer="82" to-port="1" />
		<edge from-layer="82" from-port="2" to-layer="84" to-port="0" />
		<edge from-layer="83" from-port="0" to-layer="84" to-port="1" />
		<edge from-layer="84" from-port="2" to-layer="85" to-port="0" />
		<edge from-layer="85" from-port="1" to-layer="87" to-port="0" />
		<edge from-layer="86" from-port="0" to-layer="87" to-port="1" />
		<edge from-layer="87" from-port="2" to-layer="89" to-port="0" />
		<edge from-layer="88" from-port="0" to-layer="89" to-port="1" />
		<edge from-layer="89" from-port="2" to-layer="94" to-port="0" />
		<edge from-layer="90" from-port="0" to-layer="91" to-port="1" />
		<edge from-layer="91" from-port="2" to-layer="93" to-port="0" />
		<edge from-layer="92" from-port="0" to-layer="93" to-port="1" />
		<edge from-layer="93" from-port="2" to-layer="94" to-port="1" />
		<edge from-layer="94" from-port="2" to-layer="95" to-port="0" />
		<edge from-layer="95" from-port="1" to-layer="97" to-port="0" />
		<edge from-layer="95" from-port="1" to-layer="105" to-port="1" />
		<edge from-layer="96" from-port="0" to-layer="97" to-port="1" />
		<edge from-layer="97" from-port="2" to-layer="99" to-port="0" />
		<edge from-layer="98" from-port="0" to-layer="99" to-port="1" />
		<edge from-layer="99" from-port="2" to-layer="100" to-port="0" />
		<edge from-layer="100" from-port="1" to-layer="102" to-port="0" />
		<edge from-layer="101" from-port="0" to-layer="102" to-port="1" />
		<edge from-layer="102" from-port="2" to-layer="104" to-port="0" />
		<edge from-layer="103" from-port="0" to-layer="104" to-port="1" />
		<edge from-layer="104" from-port="2" to-layer="105" to-port="0" />
		<edge from-layer="105" from-port="2" to-layer="106" to-port="0" />
		<edge from-layer="106" from-port="1" to-layer="108" to-port="0" />
		<edge from-layer="107" from-port="0" to-layer="108" to-port="1" />
		<edge from-layer="108" from-port="2" to-layer="110" to-port="0" />
		<edge from-layer="109" from-port="0" to-layer="110" to-port="1" />
		<edge from-layer="110" from-port="2" to-layer="111" to-port="0" />
		<edge from-layer="111" from-port="1" to-layer="112" to-port="0" />
		<edge from-layer="111" from-port="1" to-layer="226" to-port="0" />
		<edge from-layer="111" from-port="1" to-layer="124" to-port="0" />
		<edge from-layer="112" from-port="1" to-layer="116" to-port="0" />
		<edge from-layer="112" from-port="1" to-layer="120" to-port="0" />
		<edge from-layer="112" from-port="1" to-layer="222" to-port="0" />
		<edge from-layer="112" from-port="1" to-layer="216" to-port="0" />
		<edge from-layer="113" from-port="0" to-layer="116" to-port="1" />
		<edge from-layer="114" from-port="0" to-layer="116" to-port="2" />
		<edge from-layer="115" from-port="0" to-layer="116" to-port="3" />
		<edge from-layer="116" from-port="4" to-layer="118" to-port="0" />
		<edge from-layer="117" from-port="0" to-layer="118" to-port="1" />
		<edge from-layer="118" from-port="2" to-layer="119" to-port="0" />
		<edge from-layer="118" from-port="2" to-layer="124" to-port="1" />
		<edge from-layer="119" from-port="1" to-layer="121" to-port="0" />
		<edge from-layer="120" from-port="1" to-layer="121" to-port="1" />
		<edge from-layer="121" from-port="2" to-layer="123" to-port="0" />
		<edge from-layer="122" from-port="0" to-layer="123" to-port="1" />
		<edge from-layer="123" from-port="2" to-layer="124" to-port="2" />
		<edge from-layer="124" from-port="3" to-layer="130" to-port="0" />
		<edge from-layer="125" from-port="0" to-layer="126" to-port="1" />
		<edge from-layer="126" from-port="2" to-layer="128" to-port="0" />
		<edge from-layer="127" from-port="0" to-layer="128" to-port="1" />
		<edge from-layer="128" from-port="2" to-layer="129" to-port="0" />
		<edge from-layer="129" from-port="1" to-layer="130" to-port="1" />
		<edge from-layer="130" from-port="2" to-layer="132" to-port="0" />
		<edge from-layer="131" from-port="0" to-layer="132" to-port="1" />
		<edge from-layer="132" from-port="2" to-layer="134" to-port="0" />
		<edge from-layer="133" from-port="0" to-layer="134" to-port="1" />
		<edge from-layer="134" from-port="2" to-layer="135" to-port="0" />
		<edge from-layer="135" from-port="1" to-layer="136" to-port="0" />
		<edge from-layer="135" from-port="1" to-layer="212" to-port="0" />
		<edge from-layer="135" from-port="1" to-layer="148" to-port="0" />
		<edge from-layer="136" from-port="1" to-layer="208" to-port="0" />
		<edge from-layer="136" from-port="1" to-layer="202" to-port="0" />
		<edge from-layer="136" from-port="1" to-layer="144" to-port="0" />
		<edge from-layer="136" from-port="1" to-layer="140" to-port="0" />
		<edge from-layer="137" from-port="0" to-layer="140" to-port="1" />
		<edge from-layer="138" from-port="0" to-layer="140" to-port="2" />
		<edge from-layer="139" from-port="0" to-layer="140" to-port="3" />
		<edge from-layer="140" from-port="4" to-layer="142" to-port="0" />
		<edge from-layer="141" from-port="0" to-layer="142" to-port="1" />
		<edge from-layer="142" from-port="2" to-layer="143" to-port="0" />
		<edge from-layer="142" from-port="2" to-layer="148" to-port="1" />
		<edge from-layer="143" from-port="1" to-layer="145" to-port="0" />
		<edge from-layer="144" from-port="1" to-layer="145" to-port="1" />
		<edge from-layer="145" from-port="2" to-layer="147" to-port="0" />
		<edge from-layer="146" from-port="0" to-layer="147" to-port="1" />
		<edge from-layer="147" from-port="2" to-layer="148" to-port="2" />
		<edge from-layer="148" from-port="3" to-layer="154" to-port="0" />
		<edge from-layer="149" from-port="0" to-layer="150" to-port="1" />
		<edge from-layer="150" from-port="2" to-layer="152" to-port="0" />
		<edge from-layer="151" from-port="0" to-layer="152" to-port="1" />
		<edge from-layer="152" from-port="2" to-layer="153" to-port="0" />
		<edge from-layer="153" from-port="1" to-layer="154" to-port="1" />
		<edge from-layer="154" from-port="2" to-layer="156" to-port="0" />
		<edge from-layer="155" from-port="0" to-layer="156" to-port="1" />
		<edge from-layer="156" from-port="2" to-layer="158" to-port="0" />
		<edge from-layer="157" from-port="0" to-layer="158" to-port="1" />
		<edge from-layer="158" from-port="2" to-layer="159" to-port="0" />
		<edge from-layer="159" from-port="1" to-layer="198" to-port="0" />
		<edge from-layer="159" from-port="1" to-layer="172" to-port="0" />
		<edge from-layer="159" from-port="1" to-layer="160" to-port="0" />
		<edge from-layer="160" from-port="1" to-layer="194" to-port="0" />
		<edge from-layer="160" from-port="1" to-layer="168" to-port="0" />
		<edge from-layer="160" from-port="1" to-layer="187" to-port="0" />
		<edge from-layer="160" from-port="1" to-layer="164" to-port="0" />
		<edge from-layer="161" from-port="0" to-layer="164" to-port="1" />
		<edge from-layer="162" from-port="0" to-layer="164" to-port="2" />
		<edge from-layer="163" from-port="0" to-layer="164" to-port="3" />
		<edge from-layer="164" from-port="4" to-layer="166" to-port="0" />
		<edge from-layer="165" from-port="0" to-layer="166" to-port="1" />
		<edge from-layer="166" from-port="2" to-layer="167" to-port="0" />
		<edge from-layer="166" from-port="2" to-layer="172" to-port="1" />
		<edge from-layer="167" from-port="1" to-layer="169" to-port="0" />
		<edge from-layer="168" from-port="1" to-layer="169" to-port="1" />
		<edge from-layer="169" from-port="2" to-layer="171" to-port="0" />
		<edge from-layer="170" from-port="0" to-layer="171" to-port="1" />
		<edge from-layer="171" from-port="2" to-layer="172" to-port="2" />
		<edge from-layer="172" from-port="3" to-layer="178" to-port="0" />
		<edge from-layer="173" from-port="0" to-layer="174" to-port="1" />
		<edge from-layer="174" from-port="2" to-layer="176" to-port="0" />
		<edge from-layer="175" from-port="0" to-layer="176" to-port="1" />
		<edge from-layer="176" from-port="2" to-layer="177" to-port="0" />
		<edge from-layer="177" from-port="1" to-layer="178" to-port="1" />
		<edge from-layer="178" from-port="2" to-layer="180" to-port="0" />
		<edge from-layer="179" from-port="0" to-layer="180" to-port="1" />
		<edge from-layer="180" from-port="2" to-layer="182" to-port="0" />
		<edge from-layer="181" from-port="0" to-layer="182" to-port="1" />
		<edge from-layer="182" from-port="2" to-layer="183" to-port="0" />
		<edge from-layer="183" from-port="1" to-layer="227" to-port="0" />
		<edge from-layer="183" from-port="1" to-layer="188" to-port="0" />
		<edge from-layer="184" from-port="0" to-layer="187" to-port="1" />
		<edge from-layer="185" from-port="0" to-layer="187" to-port="2" />
		<edge from-layer="186" from-port="0" to-layer="187" to-port="3" />
		<edge from-layer="187" from-port="4" to-layer="192" to-port="0" />
		<edge from-layer="188" from-port="1" to-layer="191" to-port="0" />
		<edge from-layer="188" from-port="1" to-layer="219" to-port="0" />
		<edge from-layer="188" from-port="1" to-layer="205" to-port="0" />
		<edge from-layer="189" from-port="0" to-layer="191" to-port="1" />
		<edge from-layer="190" from-port="0" to-layer="191" to-port="2" />
		<edge from-layer="191" from-port="3" to-layer="192" to-port="1" />
		<edge from-layer="192" from-port="2" to-layer="193" to-port="0" />
		<edge from-layer="192" from-port="2" to-layer="198" to-port="1" />
		<edge from-layer="193" from-port="1" to-layer="195" to-port="0" />
		<edge from-layer="194" from-port="1" to-layer="195" to-port="1" />
		<edge from-layer="195" from-port="2" to-layer="197" to-port="0" />
		<edge from-layer="196" from-port="0" to-layer="197" to-port="1" />
		<edge from-layer="197" from-port="2" to-layer="198" to-port="2" />
		<edge from-layer="198" from-port="3" to-layer="227" to-port="1" />
		<edge from-layer="199" from-port="0" to-layer="202" to-port="1" />
		<edge from-layer="200" from-port="0" to-layer="202" to-port="2" />
		<edge from-layer="201" from-port="0" to-layer="202" to-port="3" />
		<edge from-layer="202" from-port="4" to-layer="206" to-port="0" />
		<edge from-layer="203" from-port="0" to-layer="205" to-port="1" />
		<edge from-layer="204" from-port="0" to-layer="205" to-port="2" />
		<edge from-layer="205" from-port="3" to-layer="206" to-port="1" />
		<edge from-layer="206" from-port="2" to-layer="212" to-port="1" />
		<edge from-layer="206" from-port="2" to-layer="207" to-port="0" />
		<edge from-layer="207" from-port="1" to-layer="209" to-port="0" />
		<edge from-layer="208" from-port="1" to-layer="209" to-port="1" />
		<edge from-layer="209" from-port="2" to-layer="211" to-port="0" />
		<edge from-layer="210" from-port="0" to-layer="211" to-port="1" />
		<edge from-layer="211" from-port="2" to-layer="212" to-port="2" />
		<edge from-layer="212" from-port="3" to-layer="227" to-port="2" />
		<edge from-layer="213" from-port="0" to-layer="216" to-port="1" />
		<edge from-layer="214" from-port="0" to-layer="216" to-port="2" />
		<edge from-layer="215" from-port="0" to-layer="216" to-port="3" />
		<edge from-layer="216" from-port="4" to-layer="220" to-port="0" />
		<edge from-layer="217" from-port="0" to-layer="219" to-port="1" />
		<edge from-layer="218" from-port="0" to-layer="219" to-port="2" />
		<edge from-layer="219" from-port="3" to-layer="220" to-port="1" />
		<edge from-layer="220" from-port="2" to-layer="226" to-port="1" />
		<edge from-layer="220" from-port="2" to-layer="221" to-port="0" />
		<edge from-layer="221" from-port="1" to-layer="223" to-port="0" />
		<edge from-layer="222" from-port="1" to-layer="223" to-port="1" />
		<edge from-layer="223" from-port="2" to-layer="225" to-port="0" />
		<edge from-layer="224" from-port="0" to-layer="225" to-port="1" />
		<edge from-layer="225" from-port="2" to-layer="226" to-port="2" />
		<edge from-layer="226" from-port="3" to-layer="227" to-port="3" />
		<edge from-layer="227" from-port="4" to-layer="229" to-port="0" />
		<edge from-layer="228" from-port="0" to-layer="229" to-port="1" />
		<edge from-layer="229" from-port="2" to-layer="231" to-port="0" />
		<edge from-layer="230" from-port="0" to-layer="231" to-port="1" />
		<edge from-layer="231" from-port="2" to-layer="232" to-port="0" />
		<edge from-layer="232" from-port="1" to-layer="249" to-port="0" />
		<edge from-layer="232" from-port="1" to-layer="234" to-port="0" />
		<edge from-layer="233" from-port="0" to-layer="234" to-port="1" />
		<edge from-layer="234" from-port="2" to-layer="236" to-port="0" />
		<edge from-layer="235" from-port="0" to-layer="236" to-port="1" />
		<edge from-layer="236" from-port="2" to-layer="237" to-port="0" />
		<edge from-layer="237" from-port="1" to-layer="239" to-port="0" />
		<edge from-layer="238" from-port="0" to-layer="239" to-port="1" />
		<edge from-layer="239" from-port="2" to-layer="241" to-port="0" />
		<edge from-layer="240" from-port="0" to-layer="241" to-port="1" />
		<edge from-layer="241" from-port="2" to-layer="242" to-port="0" />
		<edge from-layer="242" from-port="1" to-layer="244" to-port="0" />
		<edge from-layer="243" from-port="0" to-layer="244" to-port="1" />
		<edge from-layer="244" from-port="2" to-layer="246" to-port="0" />
		<edge from-layer="245" from-port="0" to-layer="246" to-port="1" />
		<edge from-layer="246" from-port="2" to-layer="247" to-port="0" />
		<edge from-layer="247" from-port="1" to-layer="263" to-port="0" />
		<edge from-layer="248" from-port="0" to-layer="249" to-port="1" />
		<edge from-layer="249" from-port="2" to-layer="251" to-port="0" />
		<edge from-layer="250" from-port="0" to-layer="251" to-port="1" />
		<edge from-layer="251" from-port="2" to-layer="252" to-port="0" />
		<edge from-layer="252" from-port="1" to-layer="254" to-port="0" />
		<edge from-layer="253" from-port="0" to-layer="254" to-port="1" />
		<edge from-layer="254" from-port="2" to-layer="256" to-port="0" />
		<edge from-layer="255" from-port="0" to-layer="256" to-port="1" />
		<edge from-layer="256" from-port="2" to-layer="257" to-port="0" />
		<edge from-layer="257" from-port="1" to-layer="259" to-port="0" />
		<edge from-layer="258" from-port="0" to-layer="259" to-port="1" />
		<edge from-layer="259" from-port="2" to-layer="261" to-port="0" />
		<edge from-layer="260" from-port="0" to-layer="261" to-port="1" />
		<edge from-layer="261" from-port="2" to-layer="262" to-port="0" />
		<edge from-layer="262" from-port="1" to-layer="263" to-port="1" />
		<edge from-layer="263" from-port="2" to-layer="264" to-port="0" />
		<edge from-layer="263" from-port="2" to-layer="276" to-port="0" />
		<edge from-layer="264" from-port="1" to-layer="268" to-port="0" />
		<edge from-layer="264" from-port="1" to-layer="272" to-port="0" />
		<edge from-layer="265" from-port="0" to-layer="268" to-port="1" />
		<edge from-layer="266" from-port="0" to-layer="268" to-port="2" />
		<edge from-layer="267" from-port="0" to-layer="268" to-port="3" />
		<edge from-layer="268" from-port="4" to-layer="270" to-port="0" />
		<edge from-layer="269" from-port="0" to-layer="270" to-port="1" />
		<edge from-layer="270" from-port="2" to-layer="271" to-port="0" />
		<edge from-layer="270" from-port="2" to-layer="276" to-port="1" />
		<edge from-layer="271" from-port="1" to-layer="273" to-port="0" />
		<edge from-layer="272" from-port="1" to-layer="273" to-port="1" />
		<edge from-layer="273" from-port="2" to-layer="275" to-port="0" />
		<edge from-layer="274" from-port="0" to-layer="275" to-port="1" />
		<edge from-layer="275" from-port="2" to-layer="276" to-port="2" />
		<edge from-layer="276" from-port="3" to-layer="277" to-port="0" />
	</edges>
	<rt_info>
		<MO_version value="2022.3.0-9052-9752fafe8eb-releases/2022/3" />
		<Runtime_version value="2022.3.0-9052-9752fafe8eb-releases/2022/3" />
		<conversion_parameters>
			<data_type value="FP32" />
			<framework value="onnx" />
			<input_model value="DIR/dbnet_trial_b4.onnx" />
			<model_name value="dbnet_trial_b4" />
			<output_dir value="DIR" />
		</conversion_parameters>
		<legacy_frontend value="False" />
	</rt_info>
</net>
