<?xml version="1.0"?>
<net name="torch_jit" version="11">
	<layers>
		<layer id="0" name="x.1" type="Parameter" version="opset1">
			<data shape="1,3,224,224" element_type="f32" />
			<rt_info>
				<attribute name="old_api_map_element_type" version="0" value="f16" />
			</rt_info>
			<output>
				<port id="0" precision="FP32" names="x.1">
					<dim>1</dim>
					<dim>3</dim>
					<dim>224</dim>
					<dim>224</dim>
				</port>
			</output>
		</layer>
		<layer id="1" name="Constant_31020_compressed" type="Const" version="opset1">
			<data element_type="f16" shape="1, 1, 1, 1" offset="0" size="2" />
			<output>
				<port id="0" precision="FP16">
					<dim>1</dim>
					<dim>1</dim>
					<dim>1</dim>
					<dim>1</dim>
				</port>
			</output>
		</layer>
		<layer id="2" name="Constant_31020" type="Convert" version="opset1">
			<data destination_type="f32" />
			<rt_info>
				<attribute name="decompression" version="0" />
			</rt_info>
			<input>
				<port id="0" precision="FP16">
					<dim>1</dim>
					<dim>1</dim>
					<dim>1</dim>
					<dim>1</dim>
				</port>
			</input>
			<output>
				<port id="1" precision="FP32">
					<dim>1</dim>
					<dim>1</dim>
					<dim>1</dim>
					<dim>1</dim>
				</port>
			</output>
		</layer>
		<layer id="3" name="Constant_31021_compressed" type="Const" version="opset1">
			<data element_type="f16" shape="1, 1, 1, 1" offset="2" size="2" />
			<output>
				<port id="0" precision="FP16">
					<dim>1</dim>
					<dim>1</dim>
					<dim>1</dim>
					<dim>1</dim>
				</port>
			</output>
		</layer>
		<layer id="4" name="Constant_31021" type="Convert" version="opset1">
			<data destination_type="f32" />
			<rt_info>
				<attribute name="decompression" version="0" />
			</rt_info>
			<input>
				<port id="0" precision="FP16">
					<dim>1</dim>
					<dim>1</dim>
					<dim>1</dim>
					<dim>1</dim>
				</port>
			</input>
			<output>
				<port id="1" precision="FP32">
					<dim>1</dim>
					<dim>1</dim>
					<dim>1</dim>
					<dim>1</dim>
				</port>
			</output>
		</layer>
		<layer id="5" name="Constant_31022_compressed" type="Const" version="opset1">
			<data element_type="f16" shape="1, 1, 1, 1" offset="0" size="2" />
			<output>
				<port id="0" precision="FP16">
					<dim>1</dim>
					<dim>1</dim>
					<dim>1</dim>
					<dim>1</dim>
				</port>
			</output>
		</layer>
		<layer id="6" name="Constant_31022" type="Convert" version="opset1">
			<data destination_type="f32" />
			<rt_info>
				<attribute name="decompression" version="0" />
			</rt_info>
			<input>
				<port id="0" precision="FP16">
					<dim>1</dim>
					<dim>1</dim>
					<dim>1</dim>
					<dim>1</dim>
				</port>
			</input>
			<output>
				<port id="1" precision="FP32">
					<dim>1</dim>
					<dim>1</dim>
					<dim>1</dim>
					<dim>1</dim>
				</port>
			</output>
		</layer>
		<layer id="7" name="Constant_31023_compressed" type="Const" version="opset1">
			<data element_type="f16" shape="1, 1, 1, 1" offset="2" size="2" />
			<output>
				<port id="0" precision="FP16">
					<dim>1</dim>
					<dim>1</dim>
					<dim>1</dim>
					<dim>1</dim>
				</port>
			</output>
		</layer>
		<layer id="8" name="Constant_31023" type="Convert" version="opset1">
			<data destination_type="f32" />
			<rt_info>
				<attribute name="decompression" version="0" />
			</rt_info>
			<input>
				<port id="0" precision="FP16">
					<dim>1</dim>
					<dim>1</dim>
					<dim>1</dim>
					<dim>1</dim>
				</port>
			</input>
			<output>
				<port id="1" precision="FP32">
					<dim>1</dim>
					<dim>1</dim>
					<dim>1</dim>
					<dim>1</dim>
				</port>
			</output>
		</layer>
		<layer id="9" name="//nncf_model_input_0|OUTPUT/FakeQuantize" type="FakeQuantize" version="opset1">
			<data levels="256" auto_broadcast="numpy" />
			<input>
				<port id="0" precision="FP32">
					<dim>1</dim>
					<dim>3</dim>
					<dim>224</dim>
					<dim>224</dim>
				</port>
				<port id="1" precision="FP32">
					<dim>1</dim>
					<dim>1</dim>
					<dim>1</dim>
					<dim>1</dim>
				</port>
				<port id="2" precision="FP32">
					<dim>1</dim>
					<dim>1</dim>
					<dim>1</dim>
					<dim>1</dim>
				</port>
				<port id="3" precision="FP32">
					<dim>1</dim>
					<dim>1</dim>
					<dim>1</dim>
					<dim>1</dim>
				</port>
				<port id="4" precision="FP32">
					<dim>1</dim>
					<dim>1</dim>
					<dim>1</dim>
					<dim>1</dim>
				</port>
			</input>
			<output>
				<port id="5" precision="FP32" names="//nncf_model_input_0|OUTPUT/FakeQuantize_output_0">
					<dim>1</dim>
					<dim>3</dim>
					<dim>224</dim>
					<dim>224</dim>
				</port>
			</output>
		</layer>
		<layer id="10" name="/nncf_module/features/features.0/features.0.0/pre_ops.0/op/Constant" type="Const" version="opset1">
			<data element_type="i8" shape="40, 3, 3, 3" offset="4" size="1080" />
			<output>
				<port id="0" precision="I8">
					<dim>40</dim>
					<dim>3</dim>
					<dim>3</dim>
					<dim>3</dim>
				</port>
			</output>
		</layer>
		<layer id="11" name="Convert_33782" type="Convert" version="opset1">
			<data destination_type="f32" />
			<input>
				<port id="0" precision="I8">
					<dim>40</dim>
					<dim>3</dim>
					<dim>3</dim>
					<dim>3</dim>
				</port>
			</input>
			<output>
				<port id="1" precision="FP32">
					<dim>40</dim>
					<dim>3</dim>
					<dim>3</dim>
					<dim>3</dim>
				</port>
			</output>
		</layer>
		<layer id="12" name="Constant_33719_compressed" type="Const" version="opset1">
			<data element_type="f16" shape="40, 1, 1, 1" offset="1084" size="80" />
			<output>
				<port id="0" precision="FP16">
					<dim>40</dim>
					<dim>1</dim>
					<dim>1</dim>
					<dim>1</dim>
				</port>
			</output>
		</layer>
		<layer id="13" name="Constant_33719" type="Convert" version="opset1">
			<data destination_type="f32" />
			<rt_info>
				<attribute name="decompression" version="0" />
			</rt_info>
			<input>
				<port id="0" precision="FP16">
					<dim>40</dim>
					<dim>1</dim>
					<dim>1</dim>
					<dim>1</dim>
				</port>
			</input>
			<output>
				<port id="1" precision="FP32">
					<dim>40</dim>
					<dim>1</dim>
					<dim>1</dim>
					<dim>1</dim>
				</port>
			</output>
		</layer>
		<layer id="14" name="Multiply_29560" type="Multiply" version="opset1">
			<data auto_broadcast="numpy" />
			<input>
				<port id="0" precision="FP32">
					<dim>40</dim>
					<dim>3</dim>
					<dim>3</dim>
					<dim>3</dim>
				</port>
				<port id="1" precision="FP32">
					<dim>40</dim>
					<dim>1</dim>
					<dim>1</dim>
					<dim>1</dim>
				</port>
			</input>
			<output>
				<port id="2" precision="FP32">
					<dim>40</dim>
					<dim>3</dim>
					<dim>3</dim>
					<dim>3</dim>
				</port>
			</output>
		</layer>
		<layer id="15" name="Multiply_29007" type="Convolution" version="opset1">
			<data strides="2, 2" dilations="1, 1" pads_begin="1, 1" pads_end="1, 1" auto_pad="explicit" />
			<input>
				<port id="0" precision="FP32">
					<dim>1</dim>
					<dim>3</dim>
					<dim>224</dim>
					<dim>224</dim>
				</port>
				<port id="1" precision="FP32">
					<dim>40</dim>
					<dim>3</dim>
					<dim>3</dim>
					<dim>3</dim>
				</port>
			</input>
			<output>
				<port id="2" precision="FP32">
					<dim>1</dim>
					<dim>40</dim>
					<dim>112</dim>
					<dim>112</dim>
				</port>
			</output>
		</layer>
		<layer id="16" name="Constant_29012_compressed" type="Const" version="opset1">
			<data element_type="f16" shape="1, 40, 1, 1" offset="1164" size="80" />
			<output>
				<port id="0" precision="FP16">
					<dim>1</dim>
					<dim>40</dim>
					<dim>1</dim>
					<dim>1</dim>
				</port>
			</output>
		</layer>
		<layer id="17" name="Constant_29012" type="Convert" version="opset1">
			<data destination_type="f32" />
			<rt_info>
				<attribute name="decompression" version="0" />
			</rt_info>
			<input>
				<port id="0" precision="FP16">
					<dim>1</dim>
					<dim>40</dim>
					<dim>1</dim>
					<dim>1</dim>
				</port>
			</input>
			<output>
				<port id="1" precision="FP32">
					<dim>1</dim>
					<dim>40</dim>
					<dim>1</dim>
					<dim>1</dim>
				</port>
			</output>
		</layer>
		<layer id="18" name="/nncf_module/features/features.0/features.0.1/BatchNormalization" type="Add" version="opset1">
			<data auto_broadcast="numpy" />
			<input>
				<port id="0" precision="FP32">
					<dim>1</dim>
					<dim>40</dim>
					<dim>112</dim>
					<dim>112</dim>
				</port>
				<port id="1" precision="FP32">
					<dim>1</dim>
					<dim>40</dim>
					<dim>1</dim>
					<dim>1</dim>
				</port>
			</input>
			<output>
				<port id="2" precision="FP32" names="/nncf_module/features/features.0/features.0.1/BatchNormalization_output_0">
					<dim>1</dim>
					<dim>40</dim>
					<dim>112</dim>
					<dim>112</dim>
				</port>
			</output>
		</layer>
		<layer id="19" name="/nncf_module/features/features.0/features.0.2/Mul" type="Swish" version="opset4">
			<input>
				<port id="0" precision="FP32">
					<dim>1</dim>
					<dim>40</dim>
					<dim>112</dim>
					<dim>112</dim>
				</port>
			</input>
			<output>
				<port id="1" precision="FP32" names="/nncf_module/features/features.0/features.0.2/Mul_output_0">
					<dim>1</dim>
					<dim>40</dim>
					<dim>112</dim>
					<dim>112</dim>
				</port>
			</output>
		</layer>
		<layer id="20" name="/nncf_module/features/features.0/features.0.2/EfficientNet/Sequential[features]/Conv2dNormActivation[0]/SiLU[2]/silu_0|OUTPUT/Constant_compressed" type="Const" version="opset1">
			<data element_type="f16" shape="1, 40, 1, 1" offset="1244" size="80" />
			<output>
				<port id="0" precision="FP16">
					<dim>1</dim>
					<dim>40</dim>
					<dim>1</dim>
					<dim>1</dim>
				</port>
			</output>
		</layer>
		<layer id="21" name="/nncf_module/features/features.0/features.0.2/EfficientNet/Sequential[features]/Conv2dNormActivation[0]/SiLU[2]/silu_0|OUTPUT/Constant" type="Convert" version="opset1">
			<data destination_type="f32" />
			<rt_info>
				<attribute name="decompression" version="0" />
			</rt_info>
			<input>
				<port id="0" precision="FP16">
					<dim>1</dim>
					<dim>40</dim>
					<dim>1</dim>
					<dim>1</dim>
				</port>
			</input>
			<output>
				<port id="1" precision="FP32" names="/nncf_module/features/features.0/features.0.2/EfficientNet/Sequential[features]/Conv2dNormActivation[0]/SiLU[2]/silu_0|OUTPUT/Constant_output_0">
					<dim>1</dim>
					<dim>40</dim>
					<dim>1</dim>
					<dim>1</dim>
				</port>
			</output>
		</layer>
		<layer id="22" name="/nncf_module/features/features.0/features.0.2/EfficientNet/Sequential[features]/Conv2dNormActivation[0]/SiLU[2]/silu_0|OUTPUT/Constant_1_compressed" type="Const" version="opset1">
			<data element_type="f16" shape="1, 40, 1, 1" offset="1324" size="80" />
			<output>
				<port id="0" precision="FP16">
					<dim>1</dim>
					<dim>40</dim>
					<dim>1</dim>
					<dim>1</dim>
				</port>
			</output>
		</layer>
		<layer id="23" name="/nncf_module/features/features.0/features.0.2/EfficientNet/Sequential[features]/Conv2dNormActivation[0]/SiLU[2]/silu_0|OUTPUT/Constant_1" type="Convert" version="opset1">
			<data destination_type="f32" />
			<rt_info>
				<attribute name="decompression" version="0" />
			</rt_info>
			<input>
				<port id="0" precision="FP16">
					<dim>1</dim>
					<dim>40</dim>
					<dim>1</dim>
					<dim>1</dim>
				</port>
			</input>
			<output>
				<port id="1" precision="FP32" names="/nncf_module/features/features.0/features.0.2/EfficientNet/Sequential[features]/Conv2dNormActivation[0]/SiLU[2]/silu_0|OUTPUT/Constant_1_output_0">
					<dim>1</dim>
					<dim>40</dim>
					<dim>1</dim>
					<dim>1</dim>
				</port>
			</output>
		</layer>
		<layer id="24" name="/nncf_module/features/features.0/features.0.2/EfficientNet/Sequential[features]/Conv2dNormActivation[0]/SiLU[2]/silu_0|OUTPUT/FakeQuantize" type="FakeQuantize" version="opset1">
			<data levels="256" auto_broadcast="numpy" />
			<input>
				<port id="0" precision="FP32">
					<dim>1</dim>
					<dim>40</dim>
					<dim>112</dim>
					<dim>112</dim>
				</port>
				<port id="1" precision="FP32">
					<dim>1</dim>
					<dim>40</dim>
					<dim>1</dim>
					<dim>1</dim>
				</port>
				<port id="2" precision="FP32">
					<dim>1</dim>
					<dim>40</dim>
					<dim>1</dim>
					<dim>1</dim>
				</port>
				<port id="3" precision="FP32">
					<dim>1</dim>
					<dim>40</dim>
					<dim>1</dim>
					<dim>1</dim>
				</port>
				<port id="4" precision="FP32">
					<dim>1</dim>
					<dim>40</dim>
					<dim>1</dim>
					<dim>1</dim>
				</port>
			</input>
			<output>
				<port id="5" precision="FP32" names="/nncf_module/features/features.0/features.0.2/EfficientNet/Sequential[features]/Conv2dNormActivation[0]/SiLU[2]/silu_0|OUTPUT/FakeQuantize_output_0">
					<dim>1</dim>
					<dim>40</dim>
					<dim>112</dim>
					<dim>112</dim>
				</port>
			</output>
		</layer>
		<layer id="25" name="/nncf_module/features/features.1/features.1.0/block/block.0/block.0.0/pre_ops.0/op/Constant" type="Const" version="opset1">
			<data element_type="i8" shape="40, 1, 3, 3" offset="1404" size="360" />
			<output>
				<port id="0" precision="I8">
					<dim>40</dim>
					<dim>1</dim>
					<dim>3</dim>
					<dim>3</dim>
				</port>
			</output>
		</layer>
		<layer id="26" name="Convert_33903" type="Convert" version="opset1">
			<data destination_type="f32" />
			<input>
				<port id="0" precision="I8">
					<dim>40</dim>
					<dim>1</dim>
					<dim>3</dim>
					<dim>3</dim>
				</port>
			</input>
			<output>
				<port id="1" precision="FP32">
					<dim>40</dim>
					<dim>1</dim>
					<dim>3</dim>
					<dim>3</dim>
				</port>
			</output>
		</layer>
		<layer id="27" name="Constant_33840_compressed" type="Const" version="opset1">
			<data element_type="f16" shape="40, 1, 1, 1" offset="1764" size="80" />
			<output>
				<port id="0" precision="FP16">
					<dim>40</dim>
					<dim>1</dim>
					<dim>1</dim>
					<dim>1</dim>
				</port>
			</output>
		</layer>
		<layer id="28" name="Constant_33840" type="Convert" version="opset1">
			<data destination_type="f32" />
			<rt_info>
				<attribute name="decompression" version="0" />
			</rt_info>
			<input>
				<port id="0" precision="FP16">
					<dim>40</dim>
					<dim>1</dim>
					<dim>1</dim>
					<dim>1</dim>
				</port>
			</input>
			<output>
				<port id="1" precision="FP32">
					<dim>40</dim>
					<dim>1</dim>
					<dim>1</dim>
					<dim>1</dim>
				</port>
			</output>
		</layer>
		<layer id="29" name="/nncf_module/features/features.1/features.1.0/block/block.0/block.0.0/pre_ops.0/op/FakeQuantize" type="Multiply" version="opset1">
			<data auto_broadcast="numpy" />
			<input>
				<port id="0" precision="FP32">
					<dim>40</dim>
					<dim>1</dim>
					<dim>3</dim>
					<dim>3</dim>
				</port>
				<port id="1" precision="FP32">
					<dim>40</dim>
					<dim>1</dim>
					<dim>1</dim>
					<dim>1</dim>
				</port>
			</input>
			<output>
				<port id="2" precision="FP32" names="/nncf_module/features/features.1/features.1.0/block/block.0/block.0.0/pre_ops.0/op/FakeQuantize_output_0">
					<dim>40</dim>
					<dim>1</dim>
					<dim>3</dim>
					<dim>3</dim>
				</port>
			</output>
		</layer>
		<layer id="30" name="Reshape_29563_compressed" type="Const" version="opset1">
			<data element_type="f16" shape="40, 1, 1, 1" offset="1844" size="80" />
			<output>
				<port id="0" precision="FP16">
					<dim>40</dim>
					<dim>1</dim>
					<dim>1</dim>
					<dim>1</dim>
				</port>
			</output>
		</layer>
		<layer id="31" name="Reshape_29563" type="Convert" version="opset1">
			<data destination_type="f32" />
			<rt_info>
				<attribute name="decompression" version="0" />
			</rt_info>
			<input>
				<port id="0" precision="FP16">
					<dim>40</dim>
					<dim>1</dim>
					<dim>1</dim>
					<dim>1</dim>
				</port>
			</input>
			<output>
				<port id="1" precision="FP32">
					<dim>40</dim>
					<dim>1</dim>
					<dim>1</dim>
					<dim>1</dim>
				</port>
			</output>
		</layer>
		<layer id="32" name="Multiply_29569" type="Multiply" version="opset1">
			<data auto_broadcast="numpy" />
			<input>
				<port id="0" precision="FP32">
					<dim>40</dim>
					<dim>1</dim>
					<dim>3</dim>
					<dim>3</dim>
				</port>
				<port id="1" precision="FP32">
					<dim>40</dim>
					<dim>1</dim>
					<dim>1</dim>
					<dim>1</dim>
				</port>
			</input>
			<output>
				<port id="2" precision="FP32">
					<dim>40</dim>
					<dim>1</dim>
					<dim>3</dim>
					<dim>3</dim>
				</port>
			</output>
		</layer>
		<layer id="33" name="Constant_388" type="Const" version="opset1">
			<data element_type="i64" shape="1" offset="1924" size="8" />
			<output>
				<port id="0" precision="I64">
					<dim>1</dim>
				</port>
			</output>
		</layer>
		<layer id="34" name="ShapeOf_389" type="ShapeOf" version="opset3">
			<data output_type="i64" />
			<input>
				<port id="0" precision="FP32">
					<dim>40</dim>
					<dim>1</dim>
					<dim>3</dim>
					<dim>3</dim>
				</port>
			</input>
			<output>
				<port id="1" precision="I64">
					<dim>4</dim>
				</port>
			</output>
		</layer>
		<layer id="35" name="Constant_386" type="Const" version="opset1">
			<data element_type="i64" shape="" offset="1932" size="8" />
			<output>
				<port id="0" precision="I64" />
			</output>
		</layer>
		<layer id="36" name="Constant_387" type="Const" version="opset1">
			<data element_type="i64" shape="2" offset="1940" size="16" />
			<output>
				<port id="0" precision="I64">
					<dim>2</dim>
				</port>
			</output>
		</layer>
		<layer id="37" name="VariadicSplit_390" type="VariadicSplit" version="opset1">
			<input>
				<port id="0" precision="I64">
					<dim>4</dim>
				</port>
				<port id="1" precision="I64" />
				<port id="2" precision="I64">
					<dim>2</dim>
				</port>
			</input>
			<output>
				<port id="3" precision="I64">
					<dim>1</dim>
				</port>
				<port id="4" precision="I64">
					<dim>3</dim>
				</port>
			</output>
		</layer>
		<layer id="38" name="Divide_391" type="Divide" version="opset1">
			<data auto_broadcast="numpy" m_pythondiv="true" />
			<input>
				<port id="0" precision="I64">
					<dim>1</dim>
				</port>
				<port id="1" precision="I64">
					<dim>1</dim>
				</port>
			</input>
			<output>
				<port id="2" precision="I64">
					<dim>1</dim>
				</port>
			</output>
		</layer>
		<layer id="39" name="Concat_392" type="Concat" version="opset1">
			<data axis="0" />
			<input>
				<port id="0" precision="I64">
					<dim>1</dim>
				</port>
				<port id="1" precision="I64">
					<dim>1</dim>
				</port>
				<port id="2" precision="I64">
					<dim>3</dim>
				</port>
			</input>
			<output>
				<port id="3" precision="I64">
					<dim>5</dim>
				</port>
			</output>
		</layer>
		<layer id="40" name="Reshape_393" type="Reshape" version="opset1">
			<data special_zero="false" />
			<input>
				<port id="0" precision="FP32">
					<dim>40</dim>
					<dim>1</dim>
					<dim>3</dim>
					<dim>3</dim>
				</port>
				<port id="1" precision="I64">
					<dim>5</dim>
				</port>
			</input>
			<output>
				<port id="2" precision="FP32">
					<dim>40</dim>
					<dim>1</dim>
					<dim>1</dim>
					<dim>3</dim>
					<dim>3</dim>
				</port>
			</output>
		</layer>
		<layer id="41" name="Multiply_29014" type="GroupConvolution" version="opset1">
			<data strides="1, 1" pads_begin="1, 1" pads_end="1, 1" dilations="1, 1" auto_pad="explicit" />
			<input>
				<port id="0" precision="FP32">
					<dim>1</dim>
					<dim>40</dim>
					<dim>112</dim>
					<dim>112</dim>
				</port>
				<port id="1" precision="FP32">
					<dim>40</dim>
					<dim>1</dim>
					<dim>1</dim>
					<dim>3</dim>
					<dim>3</dim>
				</port>
			</input>
			<output>
				<port id="2" precision="FP32" names="/nncf_module/features/features.1/features.1.0/block/block.0/block.0.0/Conv_output_0">
					<dim>1</dim>
					<dim>40</dim>
					<dim>112</dim>
					<dim>112</dim>
				</port>
			</output>
		</layer>
		<layer id="42" name="Constant_29019_compressed" type="Const" version="opset1">
			<data element_type="f16" shape="1, 40, 1, 1" offset="1956" size="80" />
			<output>
				<port id="0" precision="FP16">
					<dim>1</dim>
					<dim>40</dim>
					<dim>1</dim>
					<dim>1</dim>
				</port>
			</output>
		</layer>
		<layer id="43" name="Constant_29019" type="Convert" version="opset1">
			<data destination_type="f32" />
			<rt_info>
				<attribute name="decompression" version="0" />
			</rt_info>
			<input>
				<port id="0" precision="FP16">
					<dim>1</dim>
					<dim>40</dim>
					<dim>1</dim>
					<dim>1</dim>
				</port>
			</input>
			<output>
				<port id="1" precision="FP32">
					<dim>1</dim>
					<dim>40</dim>
					<dim>1</dim>
					<dim>1</dim>
				</port>
			</output>
		</layer>
		<layer id="44" name="/nncf_module/features/features.1/features.1.0/block/block.0/block.0.1/BatchNormalization" type="Add" version="opset1">
			<data auto_broadcast="numpy" />
			<input>
				<port id="0" precision="FP32">
					<dim>1</dim>
					<dim>40</dim>
					<dim>112</dim>
					<dim>112</dim>
				</port>
				<port id="1" precision="FP32">
					<dim>1</dim>
					<dim>40</dim>
					<dim>1</dim>
					<dim>1</dim>
				</port>
			</input>
			<output>
				<port id="2" precision="FP32" names="/nncf_module/features/features.1/features.1.0/block/block.0/block.0.1/BatchNormalization_output_0">
					<dim>1</dim>
					<dim>40</dim>
					<dim>112</dim>
					<dim>112</dim>
				</port>
			</output>
		</layer>
		<layer id="45" name="/nncf_module/features/features.1/features.1.0/block/block.0/block.0.2/Mul" type="Swish" version="opset4">
			<input>
				<port id="0" precision="FP32">
					<dim>1</dim>
					<dim>40</dim>
					<dim>112</dim>
					<dim>112</dim>
				</port>
			</input>
			<output>
				<port id="1" precision="FP32" names="/nncf_module/features/features.1/features.1.0/block/block.0/block.0.2/Mul_output_0">
					<dim>1</dim>
					<dim>40</dim>
					<dim>112</dim>
					<dim>112</dim>
				</port>
			</output>
		</layer>
		<layer id="46" name="Constant_31024_compressed" type="Const" version="opset1">
			<data element_type="f16" shape="1, 1, 1, 1" offset="2036" size="2" />
			<output>
				<port id="0" precision="FP16">
					<dim>1</dim>
					<dim>1</dim>
					<dim>1</dim>
					<dim>1</dim>
				</port>
			</output>
		</layer>
		<layer id="47" name="Constant_31024" type="Convert" version="opset1">
			<data destination_type="f32" />
			<rt_info>
				<attribute name="decompression" version="0" />
			</rt_info>
			<input>
				<port id="0" precision="FP16">
					<dim>1</dim>
					<dim>1</dim>
					<dim>1</dim>
					<dim>1</dim>
				</port>
			</input>
			<output>
				<port id="1" precision="FP32">
					<dim>1</dim>
					<dim>1</dim>
					<dim>1</dim>
					<dim>1</dim>
				</port>
			</output>
		</layer>
		<layer id="48" name="Constant_31025_compressed" type="Const" version="opset1">
			<data element_type="f16" shape="1, 1, 1, 1" offset="2038" size="2" />
			<output>
				<port id="0" precision="FP16">
					<dim>1</dim>
					<dim>1</dim>
					<dim>1</dim>
					<dim>1</dim>
				</port>
			</output>
		</layer>
		<layer id="49" name="Constant_31025" type="Convert" version="opset1">
			<data destination_type="f32" />
			<rt_info>
				<attribute name="decompression" version="0" />
			</rt_info>
			<input>
				<port id="0" precision="FP16">
					<dim>1</dim>
					<dim>1</dim>
					<dim>1</dim>
					<dim>1</dim>
				</port>
			</input>
			<output>
				<port id="1" precision="FP32">
					<dim>1</dim>
					<dim>1</dim>
					<dim>1</dim>
					<dim>1</dim>
				</port>
			</output>
		</layer>
		<layer id="50" name="Constant_31026_compressed" type="Const" version="opset1">
			<data element_type="f16" shape="1, 1, 1, 1" offset="2036" size="2" />
			<output>
				<port id="0" precision="FP16">
					<dim>1</dim>
					<dim>1</dim>
					<dim>1</dim>
					<dim>1</dim>
				</port>
			</output>
		</layer>
		<layer id="51" name="Constant_31026" type="Convert" version="opset1">
			<data destination_type="f32" />
			<rt_info>
				<attribute name="decompression" version="0" />
			</rt_info>
			<input>
				<port id="0" precision="FP16">
					<dim>1</dim>
					<dim>1</dim>
					<dim>1</dim>
					<dim>1</dim>
				</port>
			</input>
			<output>
				<port id="1" precision="FP32">
					<dim>1</dim>
					<dim>1</dim>
					<dim>1</dim>
					<dim>1</dim>
				</port>
			</output>
		</layer>
		<layer id="52" name="Constant_31027_compressed" type="Const" version="opset1">
			<data element_type="f16" shape="1, 1, 1, 1" offset="2038" size="2" />
			<output>
				<port id="0" precision="FP16">
					<dim>1</dim>
					<dim>1</dim>
					<dim>1</dim>
					<dim>1</dim>
				</port>
			</output>
		</layer>
		<layer id="53" name="Constant_31027" type="Convert" version="opset1">
			<data destination_type="f32" />
			<rt_info>
				<attribute name="decompression" version="0" />
			</rt_info>
			<input>
				<port id="0" precision="FP16">
					<dim>1</dim>
					<dim>1</dim>
					<dim>1</dim>
					<dim>1</dim>
				</port>
			</input>
			<output>
				<port id="1" precision="FP32">
					<dim>1</dim>
					<dim>1</dim>
					<dim>1</dim>
					<dim>1</dim>
				</port>
			</output>
		</layer>
		<layer id="54" name="/nncf_module/features/features.1/features.1.0/block/block.0/block.0.2/EfficientNet/Sequential[features]/Sequential[1]/MBConv[0]/Sequential[block]/Conv2dNormActivation[0]/SiLU[2]/silu_0|OUTPUT/FakeQuantize" type="FakeQuantize" version="opset1">
			<data levels="256" auto_broadcast="numpy" />
			<input>
				<port id="0" precision="FP32">
					<dim>1</dim>
					<dim>40</dim>
					<dim>112</dim>
					<dim>112</dim>
				</port>
				<port id="1" precision="FP32">
					<dim>1</dim>
					<dim>1</dim>
					<dim>1</dim>
					<dim>1</dim>
				</port>
				<port id="2" precision="FP32">
					<dim>1</dim>
					<dim>1</dim>
					<dim>1</dim>
					<dim>1</dim>
				</port>
				<port id="3" precision="FP32">
					<dim>1</dim>
					<dim>1</dim>
					<dim>1</dim>
					<dim>1</dim>
				</port>
				<port id="4" precision="FP32">
					<dim>1</dim>
					<dim>1</dim>
					<dim>1</dim>
					<dim>1</dim>
				</port>
			</input>
			<output>
				<port id="5" precision="FP32" names="/nncf_module/features/features.1/features.1.0/block/block.0/block.0.2/EfficientNet/Sequential[features]/Sequential[1]/MBConv[0]/Sequential[block]/Conv2dNormActivation[0]/SiLU[2]/silu_0|OUTPUT/FakeQuantize_output_0">
					<dim>1</dim>
					<dim>40</dim>
					<dim>112</dim>
					<dim>112</dim>
				</port>
			</output>
		</layer>
		<layer id="55" name="Range_472" type="Const" version="opset1">
			<data element_type="i64" shape="2" offset="2040" size="16" />
			<output>
				<port id="0" precision="I64">
					<dim>2</dim>
				</port>
			</output>
		</layer>
		<layer id="56" name="/nncf_module/features/features.1/features.1.0/block/block.1/avgpool/GlobalAveragePool" type="ReduceMean" version="opset1">
			<data keep_dims="true" />
			<input>
				<port id="0" precision="FP32">
					<dim>1</dim>
					<dim>40</dim>
					<dim>112</dim>
					<dim>112</dim>
				</port>
				<port id="1" precision="I64">
					<dim>2</dim>
				</port>
			</input>
			<output>
				<port id="2" precision="FP32" names="/nncf_module/features/features.1/features.1.0/block/block.1/avgpool/GlobalAveragePool_output_0">
					<dim>1</dim>
					<dim>40</dim>
					<dim>1</dim>
					<dim>1</dim>
				</port>
			</output>
		</layer>
		<layer id="57" name="Constant_31028_compressed" type="Const" version="opset1">
			<data element_type="f16" shape="1, 1, 1, 1" offset="2056" size="2" />
			<output>
				<port id="0" precision="FP16">
					<dim>1</dim>
					<dim>1</dim>
					<dim>1</dim>
					<dim>1</dim>
				</port>
			</output>
		</layer>
		<layer id="58" name="Constant_31028" type="Convert" version="opset1">
			<data destination_type="f32" />
			<rt_info>
				<attribute name="decompression" version="0" />
			</rt_info>
			<input>
				<port id="0" precision="FP16">
					<dim>1</dim>
					<dim>1</dim>
					<dim>1</dim>
					<dim>1</dim>
				</port>
			</input>
			<output>
				<port id="1" precision="FP32">
					<dim>1</dim>
					<dim>1</dim>
					<dim>1</dim>
					<dim>1</dim>
				</port>
			</output>
		</layer>
		<layer id="59" name="Constant_31029_compressed" type="Const" version="opset1">
			<data element_type="f16" shape="1, 1, 1, 1" offset="2058" size="2" />
			<output>
				<port id="0" precision="FP16">
					<dim>1</dim>
					<dim>1</dim>
					<dim>1</dim>
					<dim>1</dim>
				</port>
			</output>
		</layer>
		<layer id="60" name="Constant_31029" type="Convert" version="opset1">
			<data destination_type="f32" />
			<rt_info>
				<attribute name="decompression" version="0" />
			</rt_info>
			<input>
				<port id="0" precision="FP16">
					<dim>1</dim>
					<dim>1</dim>
					<dim>1</dim>
					<dim>1</dim>
				</port>
			</input>
			<output>
				<port id="1" precision="FP32">
					<dim>1</dim>
					<dim>1</dim>
					<dim>1</dim>
					<dim>1</dim>
				</port>
			</output>
		</layer>
		<layer id="61" name="Constant_31030_compressed" type="Const" version="opset1">
			<data element_type="f16" shape="1, 1, 1, 1" offset="2056" size="2" />
			<output>
				<port id="0" precision="FP16">
					<dim>1</dim>
					<dim>1</dim>
					<dim>1</dim>
					<dim>1</dim>
				</port>
			</output>
		</layer>
		<layer id="62" name="Constant_31030" type="Convert" version="opset1">
			<data destination_type="f32" />
			<rt_info>
				<attribute name="decompression" version="0" />
			</rt_info>
			<input>
				<port id="0" precision="FP16">
					<dim>1</dim>
					<dim>1</dim>
					<dim>1</dim>
					<dim>1</dim>
				</port>
			</input>
			<output>
				<port id="1" precision="FP32">
					<dim>1</dim>
					<dim>1</dim>
					<dim>1</dim>
					<dim>1</dim>
				</port>
			</output>
		</layer>
		<layer id="63" name="Constant_31031_compressed" type="Const" version="opset1">
			<data element_type="f16" shape="1, 1, 1, 1" offset="2058" size="2" />
			<output>
				<port id="0" precision="FP16">
					<dim>1</dim>
					<dim>1</dim>
					<dim>1</dim>
					<dim>1</dim>
				</port>
			</output>
		</layer>
		<layer id="64" name="Constant_31031" type="Convert" version="opset1">
			<data destination_type="f32" />
			<rt_info>
				<attribute name="decompression" version="0" />
			</rt_info>
			<input>
				<port id="0" precision="FP16">
					<dim>1</dim>
					<dim>1</dim>
					<dim>1</dim>
					<dim>1</dim>
				</port>
			</input>
			<output>
				<port id="1" precision="FP32">
					<dim>1</dim>
					<dim>1</dim>
					<dim>1</dim>
					<dim>1</dim>
				</port>
			</output>
		</layer>
		<layer id="65" name="/nncf_module/features/features.1/features.1.0/block/block.1/avgpool/EfficientNet/Sequential[features]/Sequential[1]/MBConv[0]/Sequential[block]/SqueezeExcitation[1]/AdaptiveAvgPool2d[avgpool]/adaptive_avg_pool2d_0|OUTPUT/FakeQuantize" type="FakeQuantize" version="opset1">
			<data levels="256" auto_broadcast="numpy" />
			<input>
				<port id="0" precision="FP32">
					<dim>1</dim>
					<dim>40</dim>
					<dim>1</dim>
					<dim>1</dim>
				</port>
				<port id="1" precision="FP32">
					<dim>1</dim>
					<dim>1</dim>
					<dim>1</dim>
					<dim>1</dim>
				</port>
				<port id="2" precision="FP32">
					<dim>1</dim>
					<dim>1</dim>
					<dim>1</dim>
					<dim>1</dim>
				</port>
				<port id="3" precision="FP32">
					<dim>1</dim>
					<dim>1</dim>
					<dim>1</dim>
					<dim>1</dim>
				</port>
				<port id="4" precision="FP32">
					<dim>1</dim>
					<dim>1</dim>
					<dim>1</dim>
					<dim>1</dim>
				</port>
			</input>
			<output>
				<port id="5" precision="FP32" names="/nncf_module/features/features.1/features.1.0/block/block.1/avgpool/EfficientNet/Sequential[features]/Sequential[1]/MBConv[0]/Sequential[block]/SqueezeExcitation[1]/AdaptiveAvgPool2d[avgpool]/adaptive_avg_pool2d_0|OUTPUT/FakeQuantize_output_0">
					<dim>1</dim>
					<dim>40</dim>
					<dim>1</dim>
					<dim>1</dim>
				</port>
			</output>
		</layer>
		<layer id="66" name="/nncf_module/features/features.1/features.1.0/block/block.1/fc1/pre_ops.0/op/Constant" type="Const" version="opset1">
			<data element_type="i8" shape="10, 40, 1, 1" offset="2060" size="400" />
			<output>
				<port id="0" precision="I8">
					<dim>10</dim>
					<dim>40</dim>
					<dim>1</dim>
					<dim>1</dim>
				</port>
			</output>
		</layer>
		<layer id="67" name="Convert_34072" type="Convert" version="opset1">
			<data destination_type="f32" />
			<input>
				<port id="0" precision="I8">
					<dim>10</dim>
					<dim>40</dim>
					<dim>1</dim>
					<dim>1</dim>
				</port>
			</input>
			<output>
				<port id="1" precision="FP32">
					<dim>10</dim>
					<dim>40</dim>
					<dim>1</dim>
					<dim>1</dim>
				</port>
			</output>
		</layer>
		<layer id="68" name="Constant_33979_compressed" type="Const" version="opset1">
			<data element_type="f16" shape="10, 1, 1, 1" offset="2460" size="20" />
			<output>
				<port id="0" precision="FP16">
					<dim>10</dim>
					<dim>1</dim>
					<dim>1</dim>
					<dim>1</dim>
				</port>
			</output>
		</layer>
		<layer id="69" name="Constant_33979" type="Convert" version="opset1">
			<data destination_type="f32" />
			<rt_info>
				<attribute name="decompression" version="0" />
			</rt_info>
			<input>
				<port id="0" precision="FP16">
					<dim>10</dim>
					<dim>1</dim>
					<dim>1</dim>
					<dim>1</dim>
				</port>
			</input>
			<output>
				<port id="1" precision="FP32">
					<dim>10</dim>
					<dim>1</dim>
					<dim>1</dim>
					<dim>1</dim>
				</port>
			</output>
		</layer>
		<layer id="70" name="/nncf_module/features/features.1/features.1.0/block/block.1/fc1/pre_ops.0/op/FakeQuantize" type="Multiply" version="opset1">
			<data auto_broadcast="numpy" />
			<input>
				<port id="0" precision="FP32">
					<dim>10</dim>
					<dim>40</dim>
					<dim>1</dim>
					<dim>1</dim>
				</port>
				<port id="1" precision="FP32">
					<dim>10</dim>
					<dim>1</dim>
					<dim>1</dim>
					<dim>1</dim>
				</port>
			</input>
			<output>
				<port id="2" precision="FP32" names="/nncf_module/features/features.1/features.1.0/block/block.1/fc1/pre_ops.0/op/FakeQuantize_output_0">
					<dim>10</dim>
					<dim>40</dim>
					<dim>1</dim>
					<dim>1</dim>
				</port>
			</output>
		</layer>
		<layer id="71" name="/nncf_module/features/features.1/features.1.0/block/block.1/fc1/Conv/WithoutBiases" type="Convolution" version="opset1">
			<data strides="1, 1" dilations="1, 1" pads_begin="0, 0" pads_end="0, 0" auto_pad="explicit" />
			<input>
				<port id="0" precision="FP32">
					<dim>1</dim>
					<dim>40</dim>
					<dim>1</dim>
					<dim>1</dim>
				</port>
				<port id="1" precision="FP32">
					<dim>10</dim>
					<dim>40</dim>
					<dim>1</dim>
					<dim>1</dim>
				</port>
			</input>
			<output>
				<port id="2" precision="FP32">
					<dim>1</dim>
					<dim>10</dim>
					<dim>1</dim>
					<dim>1</dim>
				</port>
			</output>
		</layer>
		<layer id="72" name="Reshape_524_compressed" type="Const" version="opset1">
			<data element_type="f16" shape="1, 10, 1, 1" offset="2480" size="20" />
			<output>
				<port id="0" precision="FP16">
					<dim>1</dim>
					<dim>10</dim>
					<dim>1</dim>
					<dim>1</dim>
				</port>
			</output>
		</layer>
		<layer id="73" name="Reshape_524" type="Convert" version="opset1">
			<data destination_type="f32" />
			<rt_info>
				<attribute name="decompression" version="0" />
			</rt_info>
			<input>
				<port id="0" precision="FP16">
					<dim>1</dim>
					<dim>10</dim>
					<dim>1</dim>
					<dim>1</dim>
				</port>
			</input>
			<output>
				<port id="1" precision="FP32">
					<dim>1</dim>
					<dim>10</dim>
					<dim>1</dim>
					<dim>1</dim>
				</port>
			</output>
		</layer>
		<layer id="74" name="/nncf_module/features/features.1/features.1.0/block/block.1/fc1/Conv" type="Add" version="opset1">
			<data auto_broadcast="numpy" />
			<input>
				<port id="0" precision="FP32">
					<dim>1</dim>
					<dim>10</dim>
					<dim>1</dim>
					<dim>1</dim>
				</port>
				<port id="1" precision="FP32">
					<dim>1</dim>
					<dim>10</dim>
					<dim>1</dim>
					<dim>1</dim>
				</port>
			</input>
			<output>
				<port id="2" precision="FP32" names="/nncf_module/features/features.1/features.1.0/block/block.1/fc1/Conv_output_0">
					<dim>1</dim>
					<dim>10</dim>
					<dim>1</dim>
					<dim>1</dim>
				</port>
			</output>
		</layer>
		<layer id="75" name="/nncf_module/features/features.1/features.1.0/block/block.1/activation/Mul" type="Swish" version="opset4">
			<input>
				<port id="0" precision="FP32">
					<dim>1</dim>
					<dim>10</dim>
					<dim>1</dim>
					<dim>1</dim>
				</port>
			</input>
			<output>
				<port id="1" precision="FP32" names="/nncf_module/features/features.1/features.1.0/block/block.1/activation/Mul_output_0">
					<dim>1</dim>
					<dim>10</dim>
					<dim>1</dim>
					<dim>1</dim>
				</port>
			</output>
		</layer>
		<layer id="76" name="Constant_31032_compressed" type="Const" version="opset1">
			<data element_type="f16" shape="1, 1, 1, 1" offset="2500" size="2" />
			<output>
				<port id="0" precision="FP16">
					<dim>1</dim>
					<dim>1</dim>
					<dim>1</dim>
					<dim>1</dim>
				</port>
			</output>
		</layer>
		<layer id="77" name="Constant_31032" type="Convert" version="opset1">
			<data destination_type="f32" />
			<rt_info>
				<attribute name="decompression" version="0" />
			</rt_info>
			<input>
				<port id="0" precision="FP16">
					<dim>1</dim>
					<dim>1</dim>
					<dim>1</dim>
					<dim>1</dim>
				</port>
			</input>
			<output>
				<port id="1" precision="FP32">
					<dim>1</dim>
					<dim>1</dim>
					<dim>1</dim>
					<dim>1</dim>
				</port>
			</output>
		</layer>
		<layer id="78" name="Constant_31033_compressed" type="Const" version="opset1">
			<data element_type="f16" shape="1, 1, 1, 1" offset="2502" size="2" />
			<output>
				<port id="0" precision="FP16">
					<dim>1</dim>
					<dim>1</dim>
					<dim>1</dim>
					<dim>1</dim>
				</port>
			</output>
		</layer>
		<layer id="79" name="Constant_31033" type="Convert" version="opset1">
			<data destination_type="f32" />
			<rt_info>
				<attribute name="decompression" version="0" />
			</rt_info>
			<input>
				<port id="0" precision="FP16">
					<dim>1</dim>
					<dim>1</dim>
					<dim>1</dim>
					<dim>1</dim>
				</port>
			</input>
			<output>
				<port id="1" precision="FP32">
					<dim>1</dim>
					<dim>1</dim>
					<dim>1</dim>
					<dim>1</dim>
				</port>
			</output>
		</layer>
		<layer id="80" name="Constant_31034_compressed" type="Const" version="opset1">
			<data element_type="f16" shape="1, 1, 1, 1" offset="2500" size="2" />
			<output>
				<port id="0" precision="FP16">
					<dim>1</dim>
					<dim>1</dim>
					<dim>1</dim>
					<dim>1</dim>
				</port>
			</output>
		</layer>
		<layer id="81" name="Constant_31034" type="Convert" version="opset1">
			<data destination_type="f32" />
			<rt_info>
				<attribute name="decompression" version="0" />
			</rt_info>
			<input>
				<port id="0" precision="FP16">
					<dim>1</dim>
					<dim>1</dim>
					<dim>1</dim>
					<dim>1</dim>
				</port>
			</input>
			<output>
				<port id="1" precision="FP32">
					<dim>1</dim>
					<dim>1</dim>
					<dim>1</dim>
					<dim>1</dim>
				</port>
			</output>
		</layer>
		<layer id="82" name="Constant_31035_compressed" type="Const" version="opset1">
			<data element_type="f16" shape="1, 1, 1, 1" offset="2502" size="2" />
			<output>
				<port id="0" precision="FP16">
					<dim>1</dim>
					<dim>1</dim>
					<dim>1</dim>
					<dim>1</dim>
				</port>
			</output>
		</layer>
		<layer id="83" name="Constant_31035" type="Convert" version="opset1">
			<data destination_type="f32" />
			<rt_info>
				<attribute name="decompression" version="0" />
			</rt_info>
			<input>
				<port id="0" precision="FP16">
					<dim>1</dim>
					<dim>1</dim>
					<dim>1</dim>
					<dim>1</dim>
				</port>
			</input>
			<output>
				<port id="1" precision="FP32">
					<dim>1</dim>
					<dim>1</dim>
					<dim>1</dim>
					<dim>1</dim>
				</port>
			</output>
		</layer>
		<layer id="84" name="/nncf_module/features/features.1/features.1.0/block/block.1/activation/EfficientNet/Sequential[features]/Sequential[1]/MBConv[0]/Sequential[block]/SqueezeExcitation[1]/SiLU[activation]/silu_0|OUTPUT/FakeQuantize" type="FakeQuantize" version="opset1">
			<data levels="256" auto_broadcast="numpy" />
			<input>
				<port id="0" precision="FP32">
					<dim>1</dim>
					<dim>10</dim>
					<dim>1</dim>
					<dim>1</dim>
				</port>
				<port id="1" precision="FP32">
					<dim>1</dim>
					<dim>1</dim>
					<dim>1</dim>
					<dim>1</dim>
				</port>
				<port id="2" precision="FP32">
					<dim>1</dim>
					<dim>1</dim>
					<dim>1</dim>
					<dim>1</dim>
				</port>
				<port id="3" precision="FP32">
					<dim>1</dim>
					<dim>1</dim>
					<dim>1</dim>
					<dim>1</dim>
				</port>
				<port id="4" precision="FP32">
					<dim>1</dim>
					<dim>1</dim>
					<dim>1</dim>
					<dim>1</dim>
				</port>
			</input>
			<output>
				<port id="5" precision="FP32" names="/nncf_module/features/features.1/features.1.0/block/block.1/activation/EfficientNet/Sequential[features]/Sequential[1]/MBConv[0]/Sequential[block]/SqueezeExcitation[1]/SiLU[activation]/silu_0|OUTPUT/FakeQuantize_output_0">
					<dim>1</dim>
					<dim>10</dim>
					<dim>1</dim>
					<dim>1</dim>
				</port>
			</output>
		</layer>
		<layer id="85" name="/nncf_module/features/features.1/features.1.0/block/block.1/fc2/pre_ops.0/op/Constant" type="Const" version="opset1">
			<data element_type="i8" shape="40, 10, 1, 1" offset="2504" size="400" />
			<output>
				<port id="0" precision="I8">
					<dim>40</dim>
					<dim>10</dim>
					<dim>1</dim>
					<dim>1</dim>
				</port>
			</output>
		</layer>
		<layer id="86" name="Convert_34193" type="Convert" version="opset1">
			<data destination_type="f32" />
			<input>
				<port id="0" precision="I8">
					<dim>40</dim>
					<dim>10</dim>
					<dim>1</dim>
					<dim>1</dim>
				</port>
			</input>
			<output>
				<port id="1" precision="FP32">
					<dim>40</dim>
					<dim>10</dim>
					<dim>1</dim>
					<dim>1</dim>
				</port>
			</output>
		</layer>
		<layer id="87" name="Constant_34130_compressed" type="Const" version="opset1">
			<data element_type="f16" shape="40, 1, 1, 1" offset="2904" size="80" />
			<output>
				<port id="0" precision="FP16">
					<dim>40</dim>
					<dim>1</dim>
					<dim>1</dim>
					<dim>1</dim>
				</port>
			</output>
		</layer>
		<layer id="88" name="Constant_34130" type="Convert" version="opset1">
			<data destination_type="f32" />
			<rt_info>
				<attribute name="decompression" version="0" />
			</rt_info>
			<input>
				<port id="0" precision="FP16">
					<dim>40</dim>
					<dim>1</dim>
					<dim>1</dim>
					<dim>1</dim>
				</port>
			</input>
			<output>
				<port id="1" precision="FP32">
					<dim>40</dim>
					<dim>1</dim>
					<dim>1</dim>
					<dim>1</dim>
				</port>
			</output>
		</layer>
		<layer id="89" name="/nncf_module/features/features.1/features.1.0/block/block.1/fc2/pre_ops.0/op/FakeQuantize" type="Multiply" version="opset1">
			<data auto_broadcast="numpy" />
			<input>
				<port id="0" precision="FP32">
					<dim>40</dim>
					<dim>10</dim>
					<dim>1</dim>
					<dim>1</dim>
				</port>
				<port id="1" precision="FP32">
					<dim>40</dim>
					<dim>1</dim>
					<dim>1</dim>
					<dim>1</dim>
				</port>
			</input>
			<output>
				<port id="2" precision="FP32" names="/nncf_module/features/features.1/features.1.0/block/block.1/fc2/pre_ops.0/op/FakeQuantize_output_0">
					<dim>40</dim>
					<dim>10</dim>
					<dim>1</dim>
					<dim>1</dim>
				</port>
			</output>
		</layer>
		<layer id="90" name="/nncf_module/features/features.1/features.1.0/block/block.1/fc2/Conv/WithoutBiases" type="Convolution" version="opset1">
			<data strides="1, 1" dilations="1, 1" pads_begin="0, 0" pads_end="0, 0" auto_pad="explicit" />
			<input>
				<port id="0" precision="FP32">
					<dim>1</dim>
					<dim>10</dim>
					<dim>1</dim>
					<dim>1</dim>
				</port>
				<port id="1" precision="FP32">
					<dim>40</dim>
					<dim>10</dim>
					<dim>1</dim>
					<dim>1</dim>
				</port>
			</input>
			<output>
				<port id="2" precision="FP32">
					<dim>1</dim>
					<dim>40</dim>
					<dim>1</dim>
					<dim>1</dim>
				</port>
			</output>
		</layer>
		<layer id="91" name="Reshape_581_compressed" type="Const" version="opset1">
			<data element_type="f16" shape="1, 40, 1, 1" offset="2984" size="80" />
			<output>
				<port id="0" precision="FP16">
					<dim>1</dim>
					<dim>40</dim>
					<dim>1</dim>
					<dim>1</dim>
				</port>
			</output>
		</layer>
		<layer id="92" name="Reshape_581" type="Convert" version="opset1">
			<data destination_type="f32" />
			<rt_info>
				<attribute name="decompression" version="0" />
			</rt_info>
			<input>
				<port id="0" precision="FP16">
					<dim>1</dim>
					<dim>40</dim>
					<dim>1</dim>
					<dim>1</dim>
				</port>
			</input>
			<output>
				<port id="1" precision="FP32">
					<dim>1</dim>
					<dim>40</dim>
					<dim>1</dim>
					<dim>1</dim>
				</port>
			</output>
		</layer>
		<layer id="93" name="/nncf_module/features/features.1/features.1.0/block/block.1/fc2/Conv" type="Add" version="opset1">
			<data auto_broadcast="numpy" />
			<input>
				<port id="0" precision="FP32">
					<dim>1</dim>
					<dim>40</dim>
					<dim>1</dim>
					<dim>1</dim>
				</port>
				<port id="1" precision="FP32">
					<dim>1</dim>
					<dim>40</dim>
					<dim>1</dim>
					<dim>1</dim>
				</port>
			</input>
			<output>
				<port id="2" precision="FP32" names="/nncf_module/features/features.1/features.1.0/block/block.1/fc2/Conv_output_0">
					<dim>1</dim>
					<dim>40</dim>
					<dim>1</dim>
					<dim>1</dim>
				</port>
			</output>
		</layer>
		<layer id="94" name="/nncf_module/features/features.1/features.1.0/block/block.1/scale_activation/Sigmoid" type="Sigmoid" version="opset1">
			<input>
				<port id="0" precision="FP32">
					<dim>1</dim>
					<dim>40</dim>
					<dim>1</dim>
					<dim>1</dim>
				</port>
			</input>
			<output>
				<port id="1" precision="FP32" names="/nncf_module/features/features.1/features.1.0/block/block.1/scale_activation/Sigmoid_output_0">
					<dim>1</dim>
					<dim>40</dim>
					<dim>1</dim>
					<dim>1</dim>
				</port>
			</output>
		</layer>
		<layer id="95" name="Constant_31036_compressed" type="Const" version="opset1">
			<data element_type="f16" shape="1, 1, 1, 1" offset="3064" size="2" />
			<output>
				<port id="0" precision="FP16">
					<dim>1</dim>
					<dim>1</dim>
					<dim>1</dim>
					<dim>1</dim>
				</port>
			</output>
		</layer>
		<layer id="96" name="Constant_31036" type="Convert" version="opset1">
			<data destination_type="f32" />
			<rt_info>
				<attribute name="decompression" version="0" />
			</rt_info>
			<input>
				<port id="0" precision="FP16">
					<dim>1</dim>
					<dim>1</dim>
					<dim>1</dim>
					<dim>1</dim>
				</port>
			</input>
			<output>
				<port id="1" precision="FP32">
					<dim>1</dim>
					<dim>1</dim>
					<dim>1</dim>
					<dim>1</dim>
				</port>
			</output>
		</layer>
		<layer id="97" name="Constant_31037_compressed" type="Const" version="opset1">
			<data element_type="f16" shape="1, 1, 1, 1" offset="3066" size="2" />
			<output>
				<port id="0" precision="FP16">
					<dim>1</dim>
					<dim>1</dim>
					<dim>1</dim>
					<dim>1</dim>
				</port>
			</output>
		</layer>
		<layer id="98" name="Constant_31037" type="Convert" version="opset1">
			<data destination_type="f32" />
			<rt_info>
				<attribute name="decompression" version="0" />
			</rt_info>
			<input>
				<port id="0" precision="FP16">
					<dim>1</dim>
					<dim>1</dim>
					<dim>1</dim>
					<dim>1</dim>
				</port>
			</input>
			<output>
				<port id="1" precision="FP32">
					<dim>1</dim>
					<dim>1</dim>
					<dim>1</dim>
					<dim>1</dim>
				</port>
			</output>
		</layer>
		<layer id="99" name="Constant_31038_compressed" type="Const" version="opset1">
			<data element_type="f16" shape="1, 1, 1, 1" offset="3064" size="2" />
			<output>
				<port id="0" precision="FP16">
					<dim>1</dim>
					<dim>1</dim>
					<dim>1</dim>
					<dim>1</dim>
				</port>
			</output>
		</layer>
		<layer id="100" name="Constant_31038" type="Convert" version="opset1">
			<data destination_type="f32" />
			<rt_info>
				<attribute name="decompression" version="0" />
			</rt_info>
			<input>
				<port id="0" precision="FP16">
					<dim>1</dim>
					<dim>1</dim>
					<dim>1</dim>
					<dim>1</dim>
				</port>
			</input>
			<output>
				<port id="1" precision="FP32">
					<dim>1</dim>
					<dim>1</dim>
					<dim>1</dim>
					<dim>1</dim>
				</port>
			</output>
		</layer>
		<layer id="101" name="Constant_31039_compressed" type="Const" version="opset1">
			<data element_type="f16" shape="1, 1, 1, 1" offset="3066" size="2" />
			<output>
				<port id="0" precision="FP16">
					<dim>1</dim>
					<dim>1</dim>
					<dim>1</dim>
					<dim>1</dim>
				</port>
			</output>
		</layer>
		<layer id="102" name="Constant_31039" type="Convert" version="opset1">
			<data destination_type="f32" />
			<rt_info>
				<attribute name="decompression" version="0" />
			</rt_info>
			<input>
				<port id="0" precision="FP16">
					<dim>1</dim>
					<dim>1</dim>
					<dim>1</dim>
					<dim>1</dim>
				</port>
			</input>
			<output>
				<port id="1" precision="FP32">
					<dim>1</dim>
					<dim>1</dim>
					<dim>1</dim>
					<dim>1</dim>
				</port>
			</output>
		</layer>
		<layer id="103" name="/nncf_module/features/features.1/features.1.0/block/block.1/scale_activation/EfficientNet/Sequential[features]/Sequential[1]/MBConv[0]/Sequential[block]/SqueezeExcitation[1]/Sigmoid[scale_activation]/sigmoid_0|OUTPUT/FakeQuantize" type="FakeQuantize" version="opset1">
			<data levels="256" auto_broadcast="numpy" />
			<input>
				<port id="0" precision="FP32">
					<dim>1</dim>
					<dim>40</dim>
					<dim>1</dim>
					<dim>1</dim>
				</port>
				<port id="1" precision="FP32">
					<dim>1</dim>
					<dim>1</dim>
					<dim>1</dim>
					<dim>1</dim>
				</port>
				<port id="2" precision="FP32">
					<dim>1</dim>
					<dim>1</dim>
					<dim>1</dim>
					<dim>1</dim>
				</port>
				<port id="3" precision="FP32">
					<dim>1</dim>
					<dim>1</dim>
					<dim>1</dim>
					<dim>1</dim>
				</port>
				<port id="4" precision="FP32">
					<dim>1</dim>
					<dim>1</dim>
					<dim>1</dim>
					<dim>1</dim>
				</port>
			</input>
			<output>
				<port id="5" precision="FP32" names="/nncf_module/features/features.1/features.1.0/block/block.1/scale_activation/EfficientNet/Sequential[features]/Sequential[1]/MBConv[0]/Sequential[block]/SqueezeExcitation[1]/Sigmoid[scale_activation]/sigmoid_0|OUTPUT/FakeQuantize_output_0">
					<dim>1</dim>
					<dim>40</dim>
					<dim>1</dim>
					<dim>1</dim>
				</port>
			</output>
		</layer>
		<layer id="104" name="/nncf_module/features/features.1/features.1.0/block/block.1/Mul" type="Multiply" version="opset1">
			<data auto_broadcast="numpy" />
			<input>
				<port id="0" precision="FP32">
					<dim>1</dim>
					<dim>40</dim>
					<dim>1</dim>
					<dim>1</dim>
				</port>
				<port id="1" precision="FP32">
					<dim>1</dim>
					<dim>40</dim>
					<dim>112</dim>
					<dim>112</dim>
				</port>
			</input>
			<output>
				<port id="2" precision="FP32" names="/nncf_module/features/features.1/features.1.0/block/block.1/Mul_output_0">
					<dim>1</dim>
					<dim>40</dim>
					<dim>112</dim>
					<dim>112</dim>
				</port>
			</output>
		</layer>
		<layer id="105" name="Constant_31040_compressed" type="Const" version="opset1">
			<data element_type="f16" shape="1, 1, 1, 1" offset="3068" size="2" />
			<output>
				<port id="0" precision="FP16">
					<dim>1</dim>
					<dim>1</dim>
					<dim>1</dim>
					<dim>1</dim>
				</port>
			</output>
		</layer>
		<layer id="106" name="Constant_31040" type="Convert" version="opset1">
			<data destination_type="f32" />
			<rt_info>
				<attribute name="decompression" version="0" />
			</rt_info>
			<input>
				<port id="0" precision="FP16">
					<dim>1</dim>
					<dim>1</dim>
					<dim>1</dim>
					<dim>1</dim>
				</port>
			</input>
			<output>
				<port id="1" precision="FP32">
					<dim>1</dim>
					<dim>1</dim>
					<dim>1</dim>
					<dim>1</dim>
				</port>
			</output>
		</layer>
		<layer id="107" name="Constant_31041_compressed" type="Const" version="opset1">
			<data element_type="f16" shape="1, 1, 1, 1" offset="3070" size="2" />
			<output>
				<port id="0" precision="FP16">
					<dim>1</dim>
					<dim>1</dim>
					<dim>1</dim>
					<dim>1</dim>
				</port>
			</output>
		</layer>
		<layer id="108" name="Constant_31041" type="Convert" version="opset1">
			<data destination_type="f32" />
			<rt_info>
				<attribute name="decompression" version="0" />
			</rt_info>
			<input>
				<port id="0" precision="FP16">
					<dim>1</dim>
					<dim>1</dim>
					<dim>1</dim>
					<dim>1</dim>
				</port>
			</input>
			<output>
				<port id="1" precision="FP32">
					<dim>1</dim>
					<dim>1</dim>
					<dim>1</dim>
					<dim>1</dim>
				</port>
			</output>
		</layer>
		<layer id="109" name="Constant_31042_compressed" type="Const" version="opset1">
			<data element_type="f16" shape="1, 1, 1, 1" offset="3068" size="2" />
			<output>
				<port id="0" precision="FP16">
					<dim>1</dim>
					<dim>1</dim>
					<dim>1</dim>
					<dim>1</dim>
				</port>
			</output>
		</layer>
		<layer id="110" name="Constant_31042" type="Convert" version="opset1">
			<data destination_type="f32" />
			<rt_info>
				<attribute name="decompression" version="0" />
			</rt_info>
			<input>
				<port id="0" precision="FP16">
					<dim>1</dim>
					<dim>1</dim>
					<dim>1</dim>
					<dim>1</dim>
				</port>
			</input>
			<output>
				<port id="1" precision="FP32">
					<dim>1</dim>
					<dim>1</dim>
					<dim>1</dim>
					<dim>1</dim>
				</port>
			</output>
		</layer>
		<layer id="111" name="Constant_31043_compressed" type="Const" version="opset1">
			<data element_type="f16" shape="1, 1, 1, 1" offset="3070" size="2" />
			<output>
				<port id="0" precision="FP16">
					<dim>1</dim>
					<dim>1</dim>
					<dim>1</dim>
					<dim>1</dim>
				</port>
			</output>
		</layer>
		<layer id="112" name="Constant_31043" type="Convert" version="opset1">
			<data destination_type="f32" />
			<rt_info>
				<attribute name="decompression" version="0" />
			</rt_info>
			<input>
				<port id="0" precision="FP16">
					<dim>1</dim>
					<dim>1</dim>
					<dim>1</dim>
					<dim>1</dim>
				</port>
			</input>
			<output>
				<port id="1" precision="FP32">
					<dim>1</dim>
					<dim>1</dim>
					<dim>1</dim>
					<dim>1</dim>
				</port>
			</output>
		</layer>
		<layer id="113" name="/nncf_module/features/features.1/features.1.0/block/block.1/EfficientNet/Sequential[features]/Sequential[1]/MBConv[0]/Sequential[block]/SqueezeExcitation[1]/__mul___0|OUTPUT/FakeQuantize" type="FakeQuantize" version="opset1">
			<data levels="256" auto_broadcast="numpy" />
			<input>
				<port id="0" precision="FP32">
					<dim>1</dim>
					<dim>40</dim>
					<dim>112</dim>
					<dim>112</dim>
				</port>
				<port id="1" precision="FP32">
					<dim>1</dim>
					<dim>1</dim>
					<dim>1</dim>
					<dim>1</dim>
				</port>
				<port id="2" precision="FP32">
					<dim>1</dim>
					<dim>1</dim>
					<dim>1</dim>
					<dim>1</dim>
				</port>
				<port id="3" precision="FP32">
					<dim>1</dim>
					<dim>1</dim>
					<dim>1</dim>
					<dim>1</dim>
				</port>
				<port id="4" precision="FP32">
					<dim>1</dim>
					<dim>1</dim>
					<dim>1</dim>
					<dim>1</dim>
				</port>
			</input>
			<output>
				<port id="5" precision="FP32" names="/nncf_module/features/features.1/features.1.0/block/block.1/EfficientNet/Sequential[features]/Sequential[1]/MBConv[0]/Sequential[block]/SqueezeExcitation[1]/__mul___0|OUTPUT/FakeQuantize_output_0">
					<dim>1</dim>
					<dim>40</dim>
					<dim>112</dim>
					<dim>112</dim>
				</port>
			</output>
		</layer>
		<layer id="114" name="/nncf_module/features/features.1/features.1.0/block/block.2/block.2.0/pre_ops.0/op/Constant" type="Const" version="opset1">
			<data element_type="i8" shape="24, 40, 1, 1" offset="3072" size="960" />
			<output>
				<port id="0" precision="I8">
					<dim>24</dim>
					<dim>40</dim>
					<dim>1</dim>
					<dim>1</dim>
				</port>
			</output>
		</layer>
		<layer id="115" name="Convert_34314" type="Convert" version="opset1">
			<data destination_type="f32" />
			<input>
				<port id="0" precision="I8">
					<dim>24</dim>
					<dim>40</dim>
					<dim>1</dim>
					<dim>1</dim>
				</port>
			</input>
			<output>
				<port id="1" precision="FP32">
					<dim>24</dim>
					<dim>40</dim>
					<dim>1</dim>
					<dim>1</dim>
				</port>
			</output>
		</layer>
		<layer id="116" name="Constant_34251_compressed" type="Const" version="opset1">
			<data element_type="f16" shape="24, 1, 1, 1" offset="4032" size="48" />
			<output>
				<port id="0" precision="FP16">
					<dim>24</dim>
					<dim>1</dim>
					<dim>1</dim>
					<dim>1</dim>
				</port>
			</output>
		</layer>
		<layer id="117" name="Constant_34251" type="Convert" version="opset1">
			<data destination_type="f32" />
			<rt_info>
				<attribute name="decompression" version="0" />
			</rt_info>
			<input>
				<port id="0" precision="FP16">
					<dim>24</dim>
					<dim>1</dim>
					<dim>1</dim>
					<dim>1</dim>
				</port>
			</input>
			<output>
				<port id="1" precision="FP32">
					<dim>24</dim>
					<dim>1</dim>
					<dim>1</dim>
					<dim>1</dim>
				</port>
			</output>
		</layer>
		<layer id="118" name="Multiply_29577" type="Multiply" version="opset1">
			<data auto_broadcast="numpy" />
			<input>
				<port id="0" precision="FP32">
					<dim>24</dim>
					<dim>40</dim>
					<dim>1</dim>
					<dim>1</dim>
				</port>
				<port id="1" precision="FP32">
					<dim>24</dim>
					<dim>1</dim>
					<dim>1</dim>
					<dim>1</dim>
				</port>
			</input>
			<output>
				<port id="2" precision="FP32">
					<dim>24</dim>
					<dim>40</dim>
					<dim>1</dim>
					<dim>1</dim>
				</port>
			</output>
		</layer>
		<layer id="119" name="Multiply_29021" type="Convolution" version="opset1">
			<data strides="1, 1" dilations="1, 1" pads_begin="0, 0" pads_end="0, 0" auto_pad="explicit" />
			<input>
				<port id="0" precision="FP32">
					<dim>1</dim>
					<dim>40</dim>
					<dim>112</dim>
					<dim>112</dim>
				</port>
				<port id="1" precision="FP32">
					<dim>24</dim>
					<dim>40</dim>
					<dim>1</dim>
					<dim>1</dim>
				</port>
			</input>
			<output>
				<port id="2" precision="FP32">
					<dim>1</dim>
					<dim>24</dim>
					<dim>112</dim>
					<dim>112</dim>
				</port>
			</output>
		</layer>
		<layer id="120" name="Constant_29026_compressed" type="Const" version="opset1">
			<data element_type="f16" shape="1, 24, 1, 1" offset="4080" size="48" />
			<output>
				<port id="0" precision="FP16">
					<dim>1</dim>
					<dim>24</dim>
					<dim>1</dim>
					<dim>1</dim>
				</port>
			</output>
		</layer>
		<layer id="121" name="Constant_29026" type="Convert" version="opset1">
			<data destination_type="f32" />
			<rt_info>
				<attribute name="decompression" version="0" />
			</rt_info>
			<input>
				<port id="0" precision="FP16">
					<dim>1</dim>
					<dim>24</dim>
					<dim>1</dim>
					<dim>1</dim>
				</port>
			</input>
			<output>
				<port id="1" precision="FP32">
					<dim>1</dim>
					<dim>24</dim>
					<dim>1</dim>
					<dim>1</dim>
				</port>
			</output>
		</layer>
		<layer id="122" name="/nncf_module/features/features.1/features.1.0/block/block.2/block.2.1/BatchNormalization" type="Add" version="opset1">
			<data auto_broadcast="numpy" />
			<input>
				<port id="0" precision="FP32">
					<dim>1</dim>
					<dim>24</dim>
					<dim>112</dim>
					<dim>112</dim>
				</port>
				<port id="1" precision="FP32">
					<dim>1</dim>
					<dim>24</dim>
					<dim>1</dim>
					<dim>1</dim>
				</port>
			</input>
			<output>
				<port id="2" precision="FP32" names="/nncf_module/features/features.1/features.1.0/block/block.2/block.2.1/BatchNormalization_output_0">
					<dim>1</dim>
					<dim>24</dim>
					<dim>112</dim>
					<dim>112</dim>
				</port>
			</output>
		</layer>
		<layer id="123" name="Constant_31044_compressed" type="Const" version="opset1">
			<data element_type="f16" shape="1, 1, 1, 1" offset="4128" size="2" />
			<output>
				<port id="0" precision="FP16">
					<dim>1</dim>
					<dim>1</dim>
					<dim>1</dim>
					<dim>1</dim>
				</port>
			</output>
		</layer>
		<layer id="124" name="Constant_31044" type="Convert" version="opset1">
			<data destination_type="f32" />
			<rt_info>
				<attribute name="decompression" version="0" />
			</rt_info>
			<input>
				<port id="0" precision="FP16">
					<dim>1</dim>
					<dim>1</dim>
					<dim>1</dim>
					<dim>1</dim>
				</port>
			</input>
			<output>
				<port id="1" precision="FP32">
					<dim>1</dim>
					<dim>1</dim>
					<dim>1</dim>
					<dim>1</dim>
				</port>
			</output>
		</layer>
		<layer id="125" name="Constant_31045_compressed" type="Const" version="opset1">
			<data element_type="f16" shape="1, 1, 1, 1" offset="4130" size="2" />
			<output>
				<port id="0" precision="FP16">
					<dim>1</dim>
					<dim>1</dim>
					<dim>1</dim>
					<dim>1</dim>
				</port>
			</output>
		</layer>
		<layer id="126" name="Constant_31045" type="Convert" version="opset1">
			<data destination_type="f32" />
			<rt_info>
				<attribute name="decompression" version="0" />
			</rt_info>
			<input>
				<port id="0" precision="FP16">
					<dim>1</dim>
					<dim>1</dim>
					<dim>1</dim>
					<dim>1</dim>
				</port>
			</input>
			<output>
				<port id="1" precision="FP32">
					<dim>1</dim>
					<dim>1</dim>
					<dim>1</dim>
					<dim>1</dim>
				</port>
			</output>
		</layer>
		<layer id="127" name="Constant_31046_compressed" type="Const" version="opset1">
			<data element_type="f16" shape="1, 1, 1, 1" offset="4128" size="2" />
			<output>
				<port id="0" precision="FP16">
					<dim>1</dim>
					<dim>1</dim>
					<dim>1</dim>
					<dim>1</dim>
				</port>
			</output>
		</layer>
		<layer id="128" name="Constant_31046" type="Convert" version="opset1">
			<data destination_type="f32" />
			<rt_info>
				<attribute name="decompression" version="0" />
			</rt_info>
			<input>
				<port id="0" precision="FP16">
					<dim>1</dim>
					<dim>1</dim>
					<dim>1</dim>
					<dim>1</dim>
				</port>
			</input>
			<output>
				<port id="1" precision="FP32">
					<dim>1</dim>
					<dim>1</dim>
					<dim>1</dim>
					<dim>1</dim>
				</port>
			</output>
		</layer>
		<layer id="129" name="Constant_31047_compressed" type="Const" version="opset1">
			<data element_type="f16" shape="1, 1, 1, 1" offset="4130" size="2" />
			<output>
				<port id="0" precision="FP16">
					<dim>1</dim>
					<dim>1</dim>
					<dim>1</dim>
					<dim>1</dim>
				</port>
			</output>
		</layer>
		<layer id="130" name="Constant_31047" type="Convert" version="opset1">
			<data destination_type="f32" />
			<rt_info>
				<attribute name="decompression" version="0" />
			</rt_info>
			<input>
				<port id="0" precision="FP16">
					<dim>1</dim>
					<dim>1</dim>
					<dim>1</dim>
					<dim>1</dim>
				</port>
			</input>
			<output>
				<port id="1" precision="FP32">
					<dim>1</dim>
					<dim>1</dim>
					<dim>1</dim>
					<dim>1</dim>
				</port>
			</output>
		</layer>
		<layer id="131" name="/nncf_module/features/features.1/features.1.0/block/block.2/block.2.1/EfficientNet/Sequential[features]/Sequential[1]/MBConv[0]/Sequential[block]/Conv2dNormActivation[2]/NNCFBatchNorm2d[1]/batch_norm_0|OUTPUT/FakeQuantize" type="FakeQuantize" version="opset1">
			<data levels="256" auto_broadcast="numpy" />
			<input>
				<port id="0" precision="FP32">
					<dim>1</dim>
					<dim>24</dim>
					<dim>112</dim>
					<dim>112</dim>
				</port>
				<port id="1" precision="FP32">
					<dim>1</dim>
					<dim>1</dim>
					<dim>1</dim>
					<dim>1</dim>
				</port>
				<port id="2" precision="FP32">
					<dim>1</dim>
					<dim>1</dim>
					<dim>1</dim>
					<dim>1</dim>
				</port>
				<port id="3" precision="FP32">
					<dim>1</dim>
					<dim>1</dim>
					<dim>1</dim>
					<dim>1</dim>
				</port>
				<port id="4" precision="FP32">
					<dim>1</dim>
					<dim>1</dim>
					<dim>1</dim>
					<dim>1</dim>
				</port>
			</input>
			<output>
				<port id="5" precision="FP32" names="/nncf_module/features/features.1/features.1.0/block/block.2/block.2.1/EfficientNet/Sequential[features]/Sequential[1]/MBConv[0]/Sequential[block]/Conv2dNormActivation[2]/NNCFBatchNorm2d[1]/batch_norm_0|OUTPUT/FakeQuantize_output_0">
					<dim>1</dim>
					<dim>24</dim>
					<dim>112</dim>
					<dim>112</dim>
				</port>
			</output>
		</layer>
		<layer id="132" name="/nncf_module/features/features.1/features.1.1/block/block.0/block.0.0/pre_ops.0/op/Constant" type="Const" version="opset1">
			<data element_type="i8" shape="24, 1, 3, 3" offset="4132" size="216" />
			<output>
				<port id="0" precision="I8">
					<dim>24</dim>
					<dim>1</dim>
					<dim>3</dim>
					<dim>3</dim>
				</port>
			</output>
		</layer>
		<layer id="133" name="Convert_34435" type="Convert" version="opset1">
			<data destination_type="f32" />
			<input>
				<port id="0" precision="I8">
					<dim>24</dim>
					<dim>1</dim>
					<dim>3</dim>
					<dim>3</dim>
				</port>
			</input>
			<output>
				<port id="1" precision="FP32">
					<dim>24</dim>
					<dim>1</dim>
					<dim>3</dim>
					<dim>3</dim>
				</port>
			</output>
		</layer>
		<layer id="134" name="Constant_34372_compressed" type="Const" version="opset1">
			<data element_type="f16" shape="24, 1, 1, 1" offset="4348" size="48" />
			<output>
				<port id="0" precision="FP16">
					<dim>24</dim>
					<dim>1</dim>
					<dim>1</dim>
					<dim>1</dim>
				</port>
			</output>
		</layer>
		<layer id="135" name="Constant_34372" type="Convert" version="opset1">
			<data destination_type="f32" />
			<rt_info>
				<attribute name="decompression" version="0" />
			</rt_info>
			<input>
				<port id="0" precision="FP16">
					<dim>24</dim>
					<dim>1</dim>
					<dim>1</dim>
					<dim>1</dim>
				</port>
			</input>
			<output>
				<port id="1" precision="FP32">
					<dim>24</dim>
					<dim>1</dim>
					<dim>1</dim>
					<dim>1</dim>
				</port>
			</output>
		</layer>
		<layer id="136" name="/nncf_module/features/features.1/features.1.1/block/block.0/block.0.0/pre_ops.0/op/FakeQuantize" type="Multiply" version="opset1">
			<data auto_broadcast="numpy" />
			<input>
				<port id="0" precision="FP32">
					<dim>24</dim>
					<dim>1</dim>
					<dim>3</dim>
					<dim>3</dim>
				</port>
				<port id="1" precision="FP32">
					<dim>24</dim>
					<dim>1</dim>
					<dim>1</dim>
					<dim>1</dim>
				</port>
			</input>
			<output>
				<port id="2" precision="FP32" names="/nncf_module/features/features.1/features.1.1/block/block.0/block.0.0/pre_ops.0/op/FakeQuantize_output_0">
					<dim>24</dim>
					<dim>1</dim>
					<dim>3</dim>
					<dim>3</dim>
				</port>
			</output>
		</layer>
		<layer id="137" name="Reshape_29580_compressed" type="Const" version="opset1">
			<data element_type="f16" shape="24, 1, 1, 1" offset="4396" size="48" />
			<output>
				<port id="0" precision="FP16">
					<dim>24</dim>
					<dim>1</dim>
					<dim>1</dim>
					<dim>1</dim>
				</port>
			</output>
		</layer>
		<layer id="138" name="Reshape_29580" type="Convert" version="opset1">
			<data destination_type="f32" />
			<rt_info>
				<attribute name="decompression" version="0" />
			</rt_info>
			<input>
				<port id="0" precision="FP16">
					<dim>24</dim>
					<dim>1</dim>
					<dim>1</dim>
					<dim>1</dim>
				</port>
			</input>
			<output>
				<port id="1" precision="FP32">
					<dim>24</dim>
					<dim>1</dim>
					<dim>1</dim>
					<dim>1</dim>
				</port>
			</output>
		</layer>
		<layer id="139" name="Multiply_29586" type="Multiply" version="opset1">
			<data auto_broadcast="numpy" />
			<input>
				<port id="0" precision="FP32">
					<dim>24</dim>
					<dim>1</dim>
					<dim>3</dim>
					<dim>3</dim>
				</port>
				<port id="1" precision="FP32">
					<dim>24</dim>
					<dim>1</dim>
					<dim>1</dim>
					<dim>1</dim>
				</port>
			</input>
			<output>
				<port id="2" precision="FP32">
					<dim>24</dim>
					<dim>1</dim>
					<dim>3</dim>
					<dim>3</dim>
				</port>
			</output>
		</layer>
		<layer id="140" name="Constant_634" type="Const" version="opset1">
			<data element_type="i64" shape="1" offset="4444" size="8" />
			<output>
				<port id="0" precision="I64">
					<dim>1</dim>
				</port>
			</output>
		</layer>
		<layer id="141" name="ShapeOf_635" type="ShapeOf" version="opset3">
			<data output_type="i64" />
			<input>
				<port id="0" precision="FP32">
					<dim>24</dim>
					<dim>1</dim>
					<dim>3</dim>
					<dim>3</dim>
				</port>
			</input>
			<output>
				<port id="1" precision="I64">
					<dim>4</dim>
				</port>
			</output>
		</layer>
		<layer id="142" name="Constant_632" type="Const" version="opset1">
			<data element_type="i64" shape="" offset="1932" size="8" />
			<output>
				<port id="0" precision="I64" />
			</output>
		</layer>
		<layer id="143" name="Constant_633" type="Const" version="opset1">
			<data element_type="i64" shape="2" offset="1940" size="16" />
			<output>
				<port id="0" precision="I64">
					<dim>2</dim>
				</port>
			</output>
		</layer>
		<layer id="144" name="VariadicSplit_636" type="VariadicSplit" version="opset1">
			<input>
				<port id="0" precision="I64">
					<dim>4</dim>
				</port>
				<port id="1" precision="I64" />
				<port id="2" precision="I64">
					<dim>2</dim>
				</port>
			</input>
			<output>
				<port id="3" precision="I64">
					<dim>1</dim>
				</port>
				<port id="4" precision="I64">
					<dim>3</dim>
				</port>
			</output>
		</layer>
		<layer id="145" name="Divide_637" type="Divide" version="opset1">
			<data auto_broadcast="numpy" m_pythondiv="true" />
			<input>
				<port id="0" precision="I64">
					<dim>1</dim>
				</port>
				<port id="1" precision="I64">
					<dim>1</dim>
				</port>
			</input>
			<output>
				<port id="2" precision="I64">
					<dim>1</dim>
				</port>
			</output>
		</layer>
		<layer id="146" name="Concat_638" type="Concat" version="opset1">
			<data axis="0" />
			<input>
				<port id="0" precision="I64">
					<dim>1</dim>
				</port>
				<port id="1" precision="I64">
					<dim>1</dim>
				</port>
				<port id="2" precision="I64">
					<dim>3</dim>
				</port>
			</input>
			<output>
				<port id="3" precision="I64">
					<dim>5</dim>
				</port>
			</output>
		</layer>
		<layer id="147" name="Reshape_639" type="Reshape" version="opset1">
			<data special_zero="false" />
			<input>
				<port id="0" precision="FP32">
					<dim>24</dim>
					<dim>1</dim>
					<dim>3</dim>
					<dim>3</dim>
				</port>
				<port id="1" precision="I64">
					<dim>5</dim>
				</port>
			</input>
			<output>
				<port id="2" precision="FP32">
					<dim>24</dim>
					<dim>1</dim>
					<dim>1</dim>
					<dim>3</dim>
					<dim>3</dim>
				</port>
			</output>
		</layer>
		<layer id="148" name="Multiply_29028" type="GroupConvolution" version="opset1">
			<data strides="1, 1" pads_begin="1, 1" pads_end="1, 1" dilations="1, 1" auto_pad="explicit" />
			<input>
				<port id="0" precision="FP32">
					<dim>1</dim>
					<dim>24</dim>
					<dim>112</dim>
					<dim>112</dim>
				</port>
				<port id="1" precision="FP32">
					<dim>24</dim>
					<dim>1</dim>
					<dim>1</dim>
					<dim>3</dim>
					<dim>3</dim>
				</port>
			</input>
			<output>
				<port id="2" precision="FP32" names="/nncf_module/features/features.1/features.1.1/block/block.0/block.0.0/Conv_output_0">
					<dim>1</dim>
					<dim>24</dim>
					<dim>112</dim>
					<dim>112</dim>
				</port>
			</output>
		</layer>
		<layer id="149" name="Constant_29033_compressed" type="Const" version="opset1">
			<data element_type="f16" shape="1, 24, 1, 1" offset="4452" size="48" />
			<output>
				<port id="0" precision="FP16">
					<dim>1</dim>
					<dim>24</dim>
					<dim>1</dim>
					<dim>1</dim>
				</port>
			</output>
		</layer>
		<layer id="150" name="Constant_29033" type="Convert" version="opset1">
			<data destination_type="f32" />
			<rt_info>
				<attribute name="decompression" version="0" />
			</rt_info>
			<input>
				<port id="0" precision="FP16">
					<dim>1</dim>
					<dim>24</dim>
					<dim>1</dim>
					<dim>1</dim>
				</port>
			</input>
			<output>
				<port id="1" precision="FP32">
					<dim>1</dim>
					<dim>24</dim>
					<dim>1</dim>
					<dim>1</dim>
				</port>
			</output>
		</layer>
		<layer id="151" name="/nncf_module/features/features.1/features.1.1/block/block.0/block.0.1/BatchNormalization" type="Add" version="opset1">
			<data auto_broadcast="numpy" />
			<input>
				<port id="0" precision="FP32">
					<dim>1</dim>
					<dim>24</dim>
					<dim>112</dim>
					<dim>112</dim>
				</port>
				<port id="1" precision="FP32">
					<dim>1</dim>
					<dim>24</dim>
					<dim>1</dim>
					<dim>1</dim>
				</port>
			</input>
			<output>
				<port id="2" precision="FP32" names="/nncf_module/features/features.1/features.1.1/block/block.0/block.0.1/BatchNormalization_output_0">
					<dim>1</dim>
					<dim>24</dim>
					<dim>112</dim>
					<dim>112</dim>
				</port>
			</output>
		</layer>
		<layer id="152" name="/nncf_module/features/features.1/features.1.1/block/block.0/block.0.2/Mul" type="Swish" version="opset4">
			<input>
				<port id="0" precision="FP32">
					<dim>1</dim>
					<dim>24</dim>
					<dim>112</dim>
					<dim>112</dim>
				</port>
			</input>
			<output>
				<port id="1" precision="FP32" names="/nncf_module/features/features.1/features.1.1/block/block.0/block.0.2/Mul_output_0">
					<dim>1</dim>
					<dim>24</dim>
					<dim>112</dim>
					<dim>112</dim>
				</port>
			</output>
		</layer>
		<layer id="153" name="Constant_31048_compressed" type="Const" version="opset1">
			<data element_type="f16" shape="1, 1, 1, 1" offset="4500" size="2" />
			<output>
				<port id="0" precision="FP16">
					<dim>1</dim>
					<dim>1</dim>
					<dim>1</dim>
					<dim>1</dim>
				</port>
			</output>
		</layer>
		<layer id="154" name="Constant_31048" type="Convert" version="opset1">
			<data destination_type="f32" />
			<rt_info>
				<attribute name="decompression" version="0" />
			</rt_info>
			<input>
				<port id="0" precision="FP16">
					<dim>1</dim>
					<dim>1</dim>
					<dim>1</dim>
					<dim>1</dim>
				</port>
			</input>
			<output>
				<port id="1" precision="FP32">
					<dim>1</dim>
					<dim>1</dim>
					<dim>1</dim>
					<dim>1</dim>
				</port>
			</output>
		</layer>
		<layer id="155" name="Constant_31049_compressed" type="Const" version="opset1">
			<data element_type="f16" shape="1, 1, 1, 1" offset="4502" size="2" />
			<output>
				<port id="0" precision="FP16">
					<dim>1</dim>
					<dim>1</dim>
					<dim>1</dim>
					<dim>1</dim>
				</port>
			</output>
		</layer>
		<layer id="156" name="Constant_31049" type="Convert" version="opset1">
			<data destination_type="f32" />
			<rt_info>
				<attribute name="decompression" version="0" />
			</rt_info>
			<input>
				<port id="0" precision="FP16">
					<dim>1</dim>
					<dim>1</dim>
					<dim>1</dim>
					<dim>1</dim>
				</port>
			</input>
			<output>
				<port id="1" precision="FP32">
					<dim>1</dim>
					<dim>1</dim>
					<dim>1</dim>
					<dim>1</dim>
				</port>
			</output>
		</layer>
		<layer id="157" name="Constant_31050_compressed" type="Const" version="opset1">
			<data element_type="f16" shape="1, 1, 1, 1" offset="4500" size="2" />
			<output>
				<port id="0" precision="FP16">
					<dim>1</dim>
					<dim>1</dim>
					<dim>1</dim>
					<dim>1</dim>
				</port>
			</output>
		</layer>
		<layer id="158" name="Constant_31050" type="Convert" version="opset1">
			<data destination_type="f32" />
			<rt_info>
				<attribute name="decompression" version="0" />
			</rt_info>
			<input>
				<port id="0" precision="FP16">
					<dim>1</dim>
					<dim>1</dim>
					<dim>1</dim>
					<dim>1</dim>
				</port>
			</input>
			<output>
				<port id="1" precision="FP32">
					<dim>1</dim>
					<dim>1</dim>
					<dim>1</dim>
					<dim>1</dim>
				</port>
			</output>
		</layer>
		<layer id="159" name="Constant_31051_compressed" type="Const" version="opset1">
			<data element_type="f16" shape="1, 1, 1, 1" offset="4502" size="2" />
			<output>
				<port id="0" precision="FP16">
					<dim>1</dim>
					<dim>1</dim>
					<dim>1</dim>
					<dim>1</dim>
				</port>
			</output>
		</layer>
		<layer id="160" name="Constant_31051" type="Convert" version="opset1">
			<data destination_type="f32" />
			<rt_info>
				<attribute name="decompression" version="0" />
			</rt_info>
			<input>
				<port id="0" precision="FP16">
					<dim>1</dim>
					<dim>1</dim>
					<dim>1</dim>
					<dim>1</dim>
				</port>
			</input>
			<output>
				<port id="1" precision="FP32">
					<dim>1</dim>
					<dim>1</dim>
					<dim>1</dim>
					<dim>1</dim>
				</port>
			</output>
		</layer>
		<layer id="161" name="/nncf_module/features/features.1/features.1.1/block/block.0/block.0.2/EfficientNet/Sequential[features]/Sequential[1]/MBConv[1]/Sequential[block]/Conv2dNormActivation[0]/SiLU[2]/silu_0|OUTPUT/FakeQuantize" type="FakeQuantize" version="opset1">
			<data levels="256" auto_broadcast="numpy" />
			<input>
				<port id="0" precision="FP32">
					<dim>1</dim>
					<dim>24</dim>
					<dim>112</dim>
					<dim>112</dim>
				</port>
				<port id="1" precision="FP32">
					<dim>1</dim>
					<dim>1</dim>
					<dim>1</dim>
					<dim>1</dim>
				</port>
				<port id="2" precision="FP32">
					<dim>1</dim>
					<dim>1</dim>
					<dim>1</dim>
					<dim>1</dim>
				</port>
				<port id="3" precision="FP32">
					<dim>1</dim>
					<dim>1</dim>
					<dim>1</dim>
					<dim>1</dim>
				</port>
				<port id="4" precision="FP32">
					<dim>1</dim>
					<dim>1</dim>
					<dim>1</dim>
					<dim>1</dim>
				</port>
			</input>
			<output>
				<port id="5" precision="FP32" names="/nncf_module/features/features.1/features.1.1/block/block.0/block.0.2/EfficientNet/Sequential[features]/Sequential[1]/MBConv[1]/Sequential[block]/Conv2dNormActivation[0]/SiLU[2]/silu_0|OUTPUT/FakeQuantize_output_0">
					<dim>1</dim>
					<dim>24</dim>
					<dim>112</dim>
					<dim>112</dim>
				</port>
			</output>
		</layer>
		<layer id="162" name="Range_718" type="Const" version="opset1">
			<data element_type="i64" shape="2" offset="2040" size="16" />
			<output>
				<port id="0" precision="I64">
					<dim>2</dim>
				</port>
			</output>
		</layer>
		<layer id="163" name="/nncf_module/features/features.1/features.1.1/block/block.1/avgpool/GlobalAveragePool" type="ReduceMean" version="opset1">
			<data keep_dims="true" />
			<input>
				<port id="0" precision="FP32">
					<dim>1</dim>
					<dim>24</dim>
					<dim>112</dim>
					<dim>112</dim>
				</port>
				<port id="1" precision="I64">
					<dim>2</dim>
				</port>
			</input>
			<output>
				<port id="2" precision="FP32" names="/nncf_module/features/features.1/features.1.1/block/block.1/avgpool/GlobalAveragePool_output_0">
					<dim>1</dim>
					<dim>24</dim>
					<dim>1</dim>
					<dim>1</dim>
				</port>
			</output>
		</layer>
		<layer id="164" name="Constant_31052_compressed" type="Const" version="opset1">
			<data element_type="f16" shape="1, 1, 1, 1" offset="4504" size="2" />
			<output>
				<port id="0" precision="FP16">
					<dim>1</dim>
					<dim>1</dim>
					<dim>1</dim>
					<dim>1</dim>
				</port>
			</output>
		</layer>
		<layer id="165" name="Constant_31052" type="Convert" version="opset1">
			<data destination_type="f32" />
			<rt_info>
				<attribute name="decompression" version="0" />
			</rt_info>
			<input>
				<port id="0" precision="FP16">
					<dim>1</dim>
					<dim>1</dim>
					<dim>1</dim>
					<dim>1</dim>
				</port>
			</input>
			<output>
				<port id="1" precision="FP32">
					<dim>1</dim>
					<dim>1</dim>
					<dim>1</dim>
					<dim>1</dim>
				</port>
			</output>
		</layer>
		<layer id="166" name="Constant_31053_compressed" type="Const" version="opset1">
			<data element_type="f16" shape="1, 1, 1, 1" offset="4506" size="2" />
			<output>
				<port id="0" precision="FP16">
					<dim>1</dim>
					<dim>1</dim>
					<dim>1</dim>
					<dim>1</dim>
				</port>
			</output>
		</layer>
		<layer id="167" name="Constant_31053" type="Convert" version="opset1">
			<data destination_type="f32" />
			<rt_info>
				<attribute name="decompression" version="0" />
			</rt_info>
			<input>
				<port id="0" precision="FP16">
					<dim>1</dim>
					<dim>1</dim>
					<dim>1</dim>
					<dim>1</dim>
				</port>
			</input>
			<output>
				<port id="1" precision="FP32">
					<dim>1</dim>
					<dim>1</dim>
					<dim>1</dim>
					<dim>1</dim>
				</port>
			</output>
		</layer>
		<layer id="168" name="Constant_31054_compressed" type="Const" version="opset1">
			<data element_type="f16" shape="1, 1, 1, 1" offset="4504" size="2" />
			<output>
				<port id="0" precision="FP16">
					<dim>1</dim>
					<dim>1</dim>
					<dim>1</dim>
					<dim>1</dim>
				</port>
			</output>
		</layer>
		<layer id="169" name="Constant_31054" type="Convert" version="opset1">
			<data destination_type="f32" />
			<rt_info>
				<attribute name="decompression" version="0" />
			</rt_info>
			<input>
				<port id="0" precision="FP16">
					<dim>1</dim>
					<dim>1</dim>
					<dim>1</dim>
					<dim>1</dim>
				</port>
			</input>
			<output>
				<port id="1" precision="FP32">
					<dim>1</dim>
					<dim>1</dim>
					<dim>1</dim>
					<dim>1</dim>
				</port>
			</output>
		</layer>
		<layer id="170" name="Constant_31055_compressed" type="Const" version="opset1">
			<data element_type="f16" shape="1, 1, 1, 1" offset="4506" size="2" />
			<output>
				<port id="0" precision="FP16">
					<dim>1</dim>
					<dim>1</dim>
					<dim>1</dim>
					<dim>1</dim>
				</port>
			</output>
		</layer>
		<layer id="171" name="Constant_31055" type="Convert" version="opset1">
			<data destination_type="f32" />
			<rt_info>
				<attribute name="decompression" version="0" />
			</rt_info>
			<input>
				<port id="0" precision="FP16">
					<dim>1</dim>
					<dim>1</dim>
					<dim>1</dim>
					<dim>1</dim>
				</port>
			</input>
			<output>
				<port id="1" precision="FP32">
					<dim>1</dim>
					<dim>1</dim>
					<dim>1</dim>
					<dim>1</dim>
				</port>
			</output>
		</layer>
		<layer id="172" name="/nncf_module/features/features.1/features.1.1/block/block.1/avgpool/EfficientNet/Sequential[features]/Sequential[1]/MBConv[1]/Sequential[block]/SqueezeExcitation[1]/AdaptiveAvgPool2d[avgpool]/adaptive_avg_pool2d_0|OUTPUT/FakeQuantize" type="FakeQuantize" version="opset1">
			<data levels="256" auto_broadcast="numpy" />
			<input>
				<port id="0" precision="FP32">
					<dim>1</dim>
					<dim>24</dim>
					<dim>1</dim>
					<dim>1</dim>
				</port>
				<port id="1" precision="FP32">
					<dim>1</dim>
					<dim>1</dim>
					<dim>1</dim>
					<dim>1</dim>
				</port>
				<port id="2" precision="FP32">
					<dim>1</dim>
					<dim>1</dim>
					<dim>1</dim>
					<dim>1</dim>
				</port>
				<port id="3" precision="FP32">
					<dim>1</dim>
					<dim>1</dim>
					<dim>1</dim>
					<dim>1</dim>
				</port>
				<port id="4" precision="FP32">
					<dim>1</dim>
					<dim>1</dim>
					<dim>1</dim>
					<dim>1</dim>
				</port>
			</input>
			<output>
				<port id="5" precision="FP32" names="/nncf_module/features/features.1/features.1.1/block/block.1/avgpool/EfficientNet/Sequential[features]/Sequential[1]/MBConv[1]/Sequential[block]/SqueezeExcitation[1]/AdaptiveAvgPool2d[avgpool]/adaptive_avg_pool2d_0|OUTPUT/FakeQuantize_output_0">
					<dim>1</dim>
					<dim>24</dim>
					<dim>1</dim>
					<dim>1</dim>
				</port>
			</output>
		</layer>
		<layer id="173" name="/nncf_module/features/features.1/features.1.1/block/block.1/fc1/pre_ops.0/op/Constant" type="Const" version="opset1">
			<data element_type="i8" shape="6, 24, 1, 1" offset="4508" size="144" />
			<output>
				<port id="0" precision="I8">
					<dim>6</dim>
					<dim>24</dim>
					<dim>1</dim>
					<dim>1</dim>
				</port>
			</output>
		</layer>
		<layer id="174" name="Convert_34604" type="Convert" version="opset1">
			<data destination_type="f32" />
			<input>
				<port id="0" precision="I8">
					<dim>6</dim>
					<dim>24</dim>
					<dim>1</dim>
					<dim>1</dim>
				</port>
			</input>
			<output>
				<port id="1" precision="FP32">
					<dim>6</dim>
					<dim>24</dim>
					<dim>1</dim>
					<dim>1</dim>
				</port>
			</output>
		</layer>
		<layer id="175" name="Constant_34511_compressed" type="Const" version="opset1">
			<data element_type="f16" shape="6, 1, 1, 1" offset="4652" size="12" />
			<output>
				<port id="0" precision="FP16">
					<dim>6</dim>
					<dim>1</dim>
					<dim>1</dim>
					<dim>1</dim>
				</port>
			</output>
		</layer>
		<layer id="176" name="Constant_34511" type="Convert" version="opset1">
			<data destination_type="f32" />
			<rt_info>
				<attribute name="decompression" version="0" />
			</rt_info>
			<input>
				<port id="0" precision="FP16">
					<dim>6</dim>
					<dim>1</dim>
					<dim>1</dim>
					<dim>1</dim>
				</port>
			</input>
			<output>
				<port id="1" precision="FP32">
					<dim>6</dim>
					<dim>1</dim>
					<dim>1</dim>
					<dim>1</dim>
				</port>
			</output>
		</layer>
		<layer id="177" name="/nncf_module/features/features.1/features.1.1/block/block.1/fc1/pre_ops.0/op/FakeQuantize" type="Multiply" version="opset1">
			<data auto_broadcast="numpy" />
			<input>
				<port id="0" precision="FP32">
					<dim>6</dim>
					<dim>24</dim>
					<dim>1</dim>
					<dim>1</dim>
				</port>
				<port id="1" precision="FP32">
					<dim>6</dim>
					<dim>1</dim>
					<dim>1</dim>
					<dim>1</dim>
				</port>
			</input>
			<output>
				<port id="2" precision="FP32" names="/nncf_module/features/features.1/features.1.1/block/block.1/fc1/pre_ops.0/op/FakeQuantize_output_0">
					<dim>6</dim>
					<dim>24</dim>
					<dim>1</dim>
					<dim>1</dim>
				</port>
			</output>
		</layer>
		<layer id="178" name="/nncf_module/features/features.1/features.1.1/block/block.1/fc1/Conv/WithoutBiases" type="Convolution" version="opset1">
			<data strides="1, 1" dilations="1, 1" pads_begin="0, 0" pads_end="0, 0" auto_pad="explicit" />
			<input>
				<port id="0" precision="FP32">
					<dim>1</dim>
					<dim>24</dim>
					<dim>1</dim>
					<dim>1</dim>
				</port>
				<port id="1" precision="FP32">
					<dim>6</dim>
					<dim>24</dim>
					<dim>1</dim>
					<dim>1</dim>
				</port>
			</input>
			<output>
				<port id="2" precision="FP32">
					<dim>1</dim>
					<dim>6</dim>
					<dim>1</dim>
					<dim>1</dim>
				</port>
			</output>
		</layer>
		<layer id="179" name="Reshape_770_compressed" type="Const" version="opset1">
			<data element_type="f16" shape="1, 6, 1, 1" offset="4664" size="12" />
			<output>
				<port id="0" precision="FP16">
					<dim>1</dim>
					<dim>6</dim>
					<dim>1</dim>
					<dim>1</dim>
				</port>
			</output>
		</layer>
		<layer id="180" name="Reshape_770" type="Convert" version="opset1">
			<data destination_type="f32" />
			<rt_info>
				<attribute name="decompression" version="0" />
			</rt_info>
			<input>
				<port id="0" precision="FP16">
					<dim>1</dim>
					<dim>6</dim>
					<dim>1</dim>
					<dim>1</dim>
				</port>
			</input>
			<output>
				<port id="1" precision="FP32">
					<dim>1</dim>
					<dim>6</dim>
					<dim>1</dim>
					<dim>1</dim>
				</port>
			</output>
		</layer>
		<layer id="181" name="/nncf_module/features/features.1/features.1.1/block/block.1/fc1/Conv" type="Add" version="opset1">
			<data auto_broadcast="numpy" />
			<input>
				<port id="0" precision="FP32">
					<dim>1</dim>
					<dim>6</dim>
					<dim>1</dim>
					<dim>1</dim>
				</port>
				<port id="1" precision="FP32">
					<dim>1</dim>
					<dim>6</dim>
					<dim>1</dim>
					<dim>1</dim>
				</port>
			</input>
			<output>
				<port id="2" precision="FP32" names="/nncf_module/features/features.1/features.1.1/block/block.1/fc1/Conv_output_0">
					<dim>1</dim>
					<dim>6</dim>
					<dim>1</dim>
					<dim>1</dim>
				</port>
			</output>
		</layer>
		<layer id="182" name="/nncf_module/features/features.1/features.1.1/block/block.1/activation/Mul" type="Swish" version="opset4">
			<input>
				<port id="0" precision="FP32">
					<dim>1</dim>
					<dim>6</dim>
					<dim>1</dim>
					<dim>1</dim>
				</port>
			</input>
			<output>
				<port id="1" precision="FP32" names="/nncf_module/features/features.1/features.1.1/block/block.1/activation/Mul_output_0">
					<dim>1</dim>
					<dim>6</dim>
					<dim>1</dim>
					<dim>1</dim>
				</port>
			</output>
		</layer>
		<layer id="183" name="Constant_31056_compressed" type="Const" version="opset1">
			<data element_type="f16" shape="1, 1, 1, 1" offset="4676" size="2" />
			<output>
				<port id="0" precision="FP16">
					<dim>1</dim>
					<dim>1</dim>
					<dim>1</dim>
					<dim>1</dim>
				</port>
			</output>
		</layer>
		<layer id="184" name="Constant_31056" type="Convert" version="opset1">
			<data destination_type="f32" />
			<rt_info>
				<attribute name="decompression" version="0" />
			</rt_info>
			<input>
				<port id="0" precision="FP16">
					<dim>1</dim>
					<dim>1</dim>
					<dim>1</dim>
					<dim>1</dim>
				</port>
			</input>
			<output>
				<port id="1" precision="FP32">
					<dim>1</dim>
					<dim>1</dim>
					<dim>1</dim>
					<dim>1</dim>
				</port>
			</output>
		</layer>
		<layer id="185" name="Constant_31057_compressed" type="Const" version="opset1">
			<data element_type="f16" shape="1, 1, 1, 1" offset="4678" size="2" />
			<output>
				<port id="0" precision="FP16">
					<dim>1</dim>
					<dim>1</dim>
					<dim>1</dim>
					<dim>1</dim>
				</port>
			</output>
		</layer>
		<layer id="186" name="Constant_31057" type="Convert" version="opset1">
			<data destination_type="f32" />
			<rt_info>
				<attribute name="decompression" version="0" />
			</rt_info>
			<input>
				<port id="0" precision="FP16">
					<dim>1</dim>
					<dim>1</dim>
					<dim>1</dim>
					<dim>1</dim>
				</port>
			</input>
			<output>
				<port id="1" precision="FP32">
					<dim>1</dim>
					<dim>1</dim>
					<dim>1</dim>
					<dim>1</dim>
				</port>
			</output>
		</layer>
		<layer id="187" name="Constant_31058_compressed" type="Const" version="opset1">
			<data element_type="f16" shape="1, 1, 1, 1" offset="4676" size="2" />
			<output>
				<port id="0" precision="FP16">
					<dim>1</dim>
					<dim>1</dim>
					<dim>1</dim>
					<dim>1</dim>
				</port>
			</output>
		</layer>
		<layer id="188" name="Constant_31058" type="Convert" version="opset1">
			<data destination_type="f32" />
			<rt_info>
				<attribute name="decompression" version="0" />
			</rt_info>
			<input>
				<port id="0" precision="FP16">
					<dim>1</dim>
					<dim>1</dim>
					<dim>1</dim>
					<dim>1</dim>
				</port>
			</input>
			<output>
				<port id="1" precision="FP32">
					<dim>1</dim>
					<dim>1</dim>
					<dim>1</dim>
					<dim>1</dim>
				</port>
			</output>
		</layer>
		<layer id="189" name="Constant_31059_compressed" type="Const" version="opset1">
			<data element_type="f16" shape="1, 1, 1, 1" offset="4678" size="2" />
			<output>
				<port id="0" precision="FP16">
					<dim>1</dim>
					<dim>1</dim>
					<dim>1</dim>
					<dim>1</dim>
				</port>
			</output>
		</layer>
		<layer id="190" name="Constant_31059" type="Convert" version="opset1">
			<data destination_type="f32" />
			<rt_info>
				<attribute name="decompression" version="0" />
			</rt_info>
			<input>
				<port id="0" precision="FP16">
					<dim>1</dim>
					<dim>1</dim>
					<dim>1</dim>
					<dim>1</dim>
				</port>
			</input>
			<output>
				<port id="1" precision="FP32">
					<dim>1</dim>
					<dim>1</dim>
					<dim>1</dim>
					<dim>1</dim>
				</port>
			</output>
		</layer>
		<layer id="191" name="/nncf_module/features/features.1/features.1.1/block/block.1/activation/EfficientNet/Sequential[features]/Sequential[1]/MBConv[1]/Sequential[block]/SqueezeExcitation[1]/SiLU[activation]/silu_0|OUTPUT/FakeQuantize" type="FakeQuantize" version="opset1">
			<data levels="256" auto_broadcast="numpy" />
			<input>
				<port id="0" precision="FP32">
					<dim>1</dim>
					<dim>6</dim>
					<dim>1</dim>
					<dim>1</dim>
				</port>
				<port id="1" precision="FP32">
					<dim>1</dim>
					<dim>1</dim>
					<dim>1</dim>
					<dim>1</dim>
				</port>
				<port id="2" precision="FP32">
					<dim>1</dim>
					<dim>1</dim>
					<dim>1</dim>
					<dim>1</dim>
				</port>
				<port id="3" precision="FP32">
					<dim>1</dim>
					<dim>1</dim>
					<dim>1</dim>
					<dim>1</dim>
				</port>
				<port id="4" precision="FP32">
					<dim>1</dim>
					<dim>1</dim>
					<dim>1</dim>
					<dim>1</dim>
				</port>
			</input>
			<output>
				<port id="5" precision="FP32" names="/nncf_module/features/features.1/features.1.1/block/block.1/activation/EfficientNet/Sequential[features]/Sequential[1]/MBConv[1]/Sequential[block]/SqueezeExcitation[1]/SiLU[activation]/silu_0|OUTPUT/FakeQuantize_output_0">
					<dim>1</dim>
					<dim>6</dim>
					<dim>1</dim>
					<dim>1</dim>
				</port>
			</output>
		</layer>
		<layer id="192" name="/nncf_module/features/features.1/features.1.1/block/block.1/fc2/pre_ops.0/op/Constant" type="Const" version="opset1">
			<data element_type="i8" shape="24, 6, 1, 1" offset="4680" size="144" />
			<output>
				<port id="0" precision="I8">
					<dim>24</dim>
					<dim>6</dim>
					<dim>1</dim>
					<dim>1</dim>
				</port>
			</output>
		</layer>
		<layer id="193" name="Convert_34725" type="Convert" version="opset1">
			<data destination_type="f32" />
			<input>
				<port id="0" precision="I8">
					<dim>24</dim>
					<dim>6</dim>
					<dim>1</dim>
					<dim>1</dim>
				</port>
			</input>
			<output>
				<port id="1" precision="FP32">
					<dim>24</dim>
					<dim>6</dim>
					<dim>1</dim>
					<dim>1</dim>
				</port>
			</output>
		</layer>
		<layer id="194" name="Constant_34662_compressed" type="Const" version="opset1">
			<data element_type="f16" shape="24, 1, 1, 1" offset="4824" size="48" />
			<output>
				<port id="0" precision="FP16">
					<dim>24</dim>
					<dim>1</dim>
					<dim>1</dim>
					<dim>1</dim>
				</port>
			</output>
		</layer>
		<layer id="195" name="Constant_34662" type="Convert" version="opset1">
			<data destination_type="f32" />
			<rt_info>
				<attribute name="decompression" version="0" />
			</rt_info>
			<input>
				<port id="0" precision="FP16">
					<dim>24</dim>
					<dim>1</dim>
					<dim>1</dim>
					<dim>1</dim>
				</port>
			</input>
			<output>
				<port id="1" precision="FP32">
					<dim>24</dim>
					<dim>1</dim>
					<dim>1</dim>
					<dim>1</dim>
				</port>
			</output>
		</layer>
		<layer id="196" name="/nncf_module/features/features.1/features.1.1/block/block.1/fc2/pre_ops.0/op/FakeQuantize" type="Multiply" version="opset1">
			<data auto_broadcast="numpy" />
			<input>
				<port id="0" precision="FP32">
					<dim>24</dim>
					<dim>6</dim>
					<dim>1</dim>
					<dim>1</dim>
				</port>
				<port id="1" precision="FP32">
					<dim>24</dim>
					<dim>1</dim>
					<dim>1</dim>
					<dim>1</dim>
				</port>
			</input>
			<output>
				<port id="2" precision="FP32" names="/nncf_module/features/features.1/features.1.1/block/block.1/fc2/pre_ops.0/op/FakeQuantize_output_0">
					<dim>24</dim>
					<dim>6</dim>
					<dim>1</dim>
					<dim>1</dim>
				</port>
			</output>
		</layer>
		<layer id="197" name="/nncf_module/features/features.1/features.1.1/block/block.1/fc2/Conv/WithoutBiases" type="Convolution" version="opset1">
			<data strides="1, 1" dilations="1, 1" pads_begin="0, 0" pads_end="0, 0" auto_pad="explicit" />
			<input>
				<port id="0" precision="FP32">
					<dim>1</dim>
					<dim>6</dim>
					<dim>1</dim>
					<dim>1</dim>
				</port>
				<port id="1" precision="FP32">
					<dim>24</dim>
					<dim>6</dim>
					<dim>1</dim>
					<dim>1</dim>
				</port>
			</input>
			<output>
				<port id="2" precision="FP32">
					<dim>1</dim>
					<dim>24</dim>
					<dim>1</dim>
					<dim>1</dim>
				</port>
			</output>
		</layer>
		<layer id="198" name="Reshape_827_compressed" type="Const" version="opset1">
			<data element_type="f16" shape="1, 24, 1, 1" offset="4872" size="48" />
			<output>
				<port id="0" precision="FP16">
					<dim>1</dim>
					<dim>24</dim>
					<dim>1</dim>
					<dim>1</dim>
				</port>
			</output>
		</layer>
		<layer id="199" name="Reshape_827" type="Convert" version="opset1">
			<data destination_type="f32" />
			<rt_info>
				<attribute name="decompression" version="0" />
			</rt_info>
			<input>
				<port id="0" precision="FP16">
					<dim>1</dim>
					<dim>24</dim>
					<dim>1</dim>
					<dim>1</dim>
				</port>
			</input>
			<output>
				<port id="1" precision="FP32">
					<dim>1</dim>
					<dim>24</dim>
					<dim>1</dim>
					<dim>1</dim>
				</port>
			</output>
		</layer>
		<layer id="200" name="/nncf_module/features/features.1/features.1.1/block/block.1/fc2/Conv" type="Add" version="opset1">
			<data auto_broadcast="numpy" />
			<input>
				<port id="0" precision="FP32">
					<dim>1</dim>
					<dim>24</dim>
					<dim>1</dim>
					<dim>1</dim>
				</port>
				<port id="1" precision="FP32">
					<dim>1</dim>
					<dim>24</dim>
					<dim>1</dim>
					<dim>1</dim>
				</port>
			</input>
			<output>
				<port id="2" precision="FP32" names="/nncf_module/features/features.1/features.1.1/block/block.1/fc2/Conv_output_0">
					<dim>1</dim>
					<dim>24</dim>
					<dim>1</dim>
					<dim>1</dim>
				</port>
			</output>
		</layer>
		<layer id="201" name="/nncf_module/features/features.1/features.1.1/block/block.1/scale_activation/Sigmoid" type="Sigmoid" version="opset1">
			<input>
				<port id="0" precision="FP32">
					<dim>1</dim>
					<dim>24</dim>
					<dim>1</dim>
					<dim>1</dim>
				</port>
			</input>
			<output>
				<port id="1" precision="FP32" names="/nncf_module/features/features.1/features.1.1/block/block.1/scale_activation/Sigmoid_output_0">
					<dim>1</dim>
					<dim>24</dim>
					<dim>1</dim>
					<dim>1</dim>
				</port>
			</output>
		</layer>
		<layer id="202" name="Constant_31060_compressed" type="Const" version="opset1">
			<data element_type="f16" shape="1, 1, 1, 1" offset="3064" size="2" />
			<output>
				<port id="0" precision="FP16">
					<dim>1</dim>
					<dim>1</dim>
					<dim>1</dim>
					<dim>1</dim>
				</port>
			</output>
		</layer>
		<layer id="203" name="Constant_31060" type="Convert" version="opset1">
			<data destination_type="f32" />
			<rt_info>
				<attribute name="decompression" version="0" />
			</rt_info>
			<input>
				<port id="0" precision="FP16">
					<dim>1</dim>
					<dim>1</dim>
					<dim>1</dim>
					<dim>1</dim>
				</port>
			</input>
			<output>
				<port id="1" precision="FP32">
					<dim>1</dim>
					<dim>1</dim>
					<dim>1</dim>
					<dim>1</dim>
				</port>
			</output>
		</layer>
		<layer id="204" name="Constant_31061_compressed" type="Const" version="opset1">
			<data element_type="f16" shape="1, 1, 1, 1" offset="4920" size="2" />
			<output>
				<port id="0" precision="FP16">
					<dim>1</dim>
					<dim>1</dim>
					<dim>1</dim>
					<dim>1</dim>
				</port>
			</output>
		</layer>
		<layer id="205" name="Constant_31061" type="Convert" version="opset1">
			<data destination_type="f32" />
			<rt_info>
				<attribute name="decompression" version="0" />
			</rt_info>
			<input>
				<port id="0" precision="FP16">
					<dim>1</dim>
					<dim>1</dim>
					<dim>1</dim>
					<dim>1</dim>
				</port>
			</input>
			<output>
				<port id="1" precision="FP32">
					<dim>1</dim>
					<dim>1</dim>
					<dim>1</dim>
					<dim>1</dim>
				</port>
			</output>
		</layer>
		<layer id="206" name="Constant_31062_compressed" type="Const" version="opset1">
			<data element_type="f16" shape="1, 1, 1, 1" offset="3064" size="2" />
			<output>
				<port id="0" precision="FP16">
					<dim>1</dim>
					<dim>1</dim>
					<dim>1</dim>
					<dim>1</dim>
				</port>
			</output>
		</layer>
		<layer id="207" name="Constant_31062" type="Convert" version="opset1">
			<data destination_type="f32" />
			<rt_info>
				<attribute name="decompression" version="0" />
			</rt_info>
			<input>
				<port id="0" precision="FP16">
					<dim>1</dim>
					<dim>1</dim>
					<dim>1</dim>
					<dim>1</dim>
				</port>
			</input>
			<output>
				<port id="1" precision="FP32">
					<dim>1</dim>
					<dim>1</dim>
					<dim>1</dim>
					<dim>1</dim>
				</port>
			</output>
		</layer>
		<layer id="208" name="Constant_31063_compressed" type="Const" version="opset1">
			<data element_type="f16" shape="1, 1, 1, 1" offset="4920" size="2" />
			<output>
				<port id="0" precision="FP16">
					<dim>1</dim>
					<dim>1</dim>
					<dim>1</dim>
					<dim>1</dim>
				</port>
			</output>
		</layer>
		<layer id="209" name="Constant_31063" type="Convert" version="opset1">
			<data destination_type="f32" />
			<rt_info>
				<attribute name="decompression" version="0" />
			</rt_info>
			<input>
				<port id="0" precision="FP16">
					<dim>1</dim>
					<dim>1</dim>
					<dim>1</dim>
					<dim>1</dim>
				</port>
			</input>
			<output>
				<port id="1" precision="FP32">
					<dim>1</dim>
					<dim>1</dim>
					<dim>1</dim>
					<dim>1</dim>
				</port>
			</output>
		</layer>
		<layer id="210" name="/nncf_module/features/features.1/features.1.1/block/block.1/scale_activation/EfficientNet/Sequential[features]/Sequential[1]/MBConv[1]/Sequential[block]/SqueezeExcitation[1]/Sigmoid[scale_activation]/sigmoid_0|OUTPUT/FakeQuantize" type="FakeQuantize" version="opset1">
			<data levels="256" auto_broadcast="numpy" />
			<input>
				<port id="0" precision="FP32">
					<dim>1</dim>
					<dim>24</dim>
					<dim>1</dim>
					<dim>1</dim>
				</port>
				<port id="1" precision="FP32">
					<dim>1</dim>
					<dim>1</dim>
					<dim>1</dim>
					<dim>1</dim>
				</port>
				<port id="2" precision="FP32">
					<dim>1</dim>
					<dim>1</dim>
					<dim>1</dim>
					<dim>1</dim>
				</port>
				<port id="3" precision="FP32">
					<dim>1</dim>
					<dim>1</dim>
					<dim>1</dim>
					<dim>1</dim>
				</port>
				<port id="4" precision="FP32">
					<dim>1</dim>
					<dim>1</dim>
					<dim>1</dim>
					<dim>1</dim>
				</port>
			</input>
			<output>
				<port id="5" precision="FP32" names="/nncf_module/features/features.1/features.1.1/block/block.1/scale_activation/EfficientNet/Sequential[features]/Sequential[1]/MBConv[1]/Sequential[block]/SqueezeExcitation[1]/Sigmoid[scale_activation]/sigmoid_0|OUTPUT/FakeQuantize_output_0">
					<dim>1</dim>
					<dim>24</dim>
					<dim>1</dim>
					<dim>1</dim>
				</port>
			</output>
		</layer>
		<layer id="211" name="/nncf_module/features/features.1/features.1.1/block/block.1/Mul" type="Multiply" version="opset1">
			<data auto_broadcast="numpy" />
			<input>
				<port id="0" precision="FP32">
					<dim>1</dim>
					<dim>24</dim>
					<dim>1</dim>
					<dim>1</dim>
				</port>
				<port id="1" precision="FP32">
					<dim>1</dim>
					<dim>24</dim>
					<dim>112</dim>
					<dim>112</dim>
				</port>
			</input>
			<output>
				<port id="2" precision="FP32" names="/nncf_module/features/features.1/features.1.1/block/block.1/Mul_output_0">
					<dim>1</dim>
					<dim>24</dim>
					<dim>112</dim>
					<dim>112</dim>
				</port>
			</output>
		</layer>
		<layer id="212" name="Constant_31064_compressed" type="Const" version="opset1">
			<data element_type="f16" shape="1, 1, 1, 1" offset="4922" size="2" />
			<output>
				<port id="0" precision="FP16">
					<dim>1</dim>
					<dim>1</dim>
					<dim>1</dim>
					<dim>1</dim>
				</port>
			</output>
		</layer>
		<layer id="213" name="Constant_31064" type="Convert" version="opset1">
			<data destination_type="f32" />
			<rt_info>
				<attribute name="decompression" version="0" />
			</rt_info>
			<input>
				<port id="0" precision="FP16">
					<dim>1</dim>
					<dim>1</dim>
					<dim>1</dim>
					<dim>1</dim>
				</port>
			</input>
			<output>
				<port id="1" precision="FP32">
					<dim>1</dim>
					<dim>1</dim>
					<dim>1</dim>
					<dim>1</dim>
				</port>
			</output>
		</layer>
		<layer id="214" name="Constant_31065_compressed" type="Const" version="opset1">
			<data element_type="f16" shape="1, 1, 1, 1" offset="4924" size="2" />
			<output>
				<port id="0" precision="FP16">
					<dim>1</dim>
					<dim>1</dim>
					<dim>1</dim>
					<dim>1</dim>
				</port>
			</output>
		</layer>
		<layer id="215" name="Constant_31065" type="Convert" version="opset1">
			<data destination_type="f32" />
			<rt_info>
				<attribute name="decompression" version="0" />
			</rt_info>
			<input>
				<port id="0" precision="FP16">
					<dim>1</dim>
					<dim>1</dim>
					<dim>1</dim>
					<dim>1</dim>
				</port>
			</input>
			<output>
				<port id="1" precision="FP32">
					<dim>1</dim>
					<dim>1</dim>
					<dim>1</dim>
					<dim>1</dim>
				</port>
			</output>
		</layer>
		<layer id="216" name="Constant_31066_compressed" type="Const" version="opset1">
			<data element_type="f16" shape="1, 1, 1, 1" offset="4922" size="2" />
			<output>
				<port id="0" precision="FP16">
					<dim>1</dim>
					<dim>1</dim>
					<dim>1</dim>
					<dim>1</dim>
				</port>
			</output>
		</layer>
		<layer id="217" name="Constant_31066" type="Convert" version="opset1">
			<data destination_type="f32" />
			<rt_info>
				<attribute name="decompression" version="0" />
			</rt_info>
			<input>
				<port id="0" precision="FP16">
					<dim>1</dim>
					<dim>1</dim>
					<dim>1</dim>
					<dim>1</dim>
				</port>
			</input>
			<output>
				<port id="1" precision="FP32">
					<dim>1</dim>
					<dim>1</dim>
					<dim>1</dim>
					<dim>1</dim>
				</port>
			</output>
		</layer>
		<layer id="218" name="Constant_31067_compressed" type="Const" version="opset1">
			<data element_type="f16" shape="1, 1, 1, 1" offset="4924" size="2" />
			<output>
				<port id="0" precision="FP16">
					<dim>1</dim>
					<dim>1</dim>
					<dim>1</dim>
					<dim>1</dim>
				</port>
			</output>
		</layer>
		<layer id="219" name="Constant_31067" type="Convert" version="opset1">
			<data destination_type="f32" />
			<rt_info>
				<attribute name="decompression" version="0" />
			</rt_info>
			<input>
				<port id="0" precision="FP16">
					<dim>1</dim>
					<dim>1</dim>
					<dim>1</dim>
					<dim>1</dim>
				</port>
			</input>
			<output>
				<port id="1" precision="FP32">
					<dim>1</dim>
					<dim>1</dim>
					<dim>1</dim>
					<dim>1</dim>
				</port>
			</output>
		</layer>
		<layer id="220" name="/nncf_module/features/features.1/features.1.1/block/block.1/EfficientNet/Sequential[features]/Sequential[1]/MBConv[1]/Sequential[block]/SqueezeExcitation[1]/__mul___0|OUTPUT/FakeQuantize" type="FakeQuantize" version="opset1">
			<data levels="256" auto_broadcast="numpy" />
			<input>
				<port id="0" precision="FP32">
					<dim>1</dim>
					<dim>24</dim>
					<dim>112</dim>
					<dim>112</dim>
				</port>
				<port id="1" precision="FP32">
					<dim>1</dim>
					<dim>1</dim>
					<dim>1</dim>
					<dim>1</dim>
				</port>
				<port id="2" precision="FP32">
					<dim>1</dim>
					<dim>1</dim>
					<dim>1</dim>
					<dim>1</dim>
				</port>
				<port id="3" precision="FP32">
					<dim>1</dim>
					<dim>1</dim>
					<dim>1</dim>
					<dim>1</dim>
				</port>
				<port id="4" precision="FP32">
					<dim>1</dim>
					<dim>1</dim>
					<dim>1</dim>
					<dim>1</dim>
				</port>
			</input>
			<output>
				<port id="5" precision="FP32" names="/nncf_module/features/features.1/features.1.1/block/block.1/EfficientNet/Sequential[features]/Sequential[1]/MBConv[1]/Sequential[block]/SqueezeExcitation[1]/__mul___0|OUTPUT/FakeQuantize_output_0">
					<dim>1</dim>
					<dim>24</dim>
					<dim>112</dim>
					<dim>112</dim>
				</port>
			</output>
		</layer>
		<layer id="221" name="/nncf_module/features/features.1/features.1.1/block/block.2/block.2.0/pre_ops.0/op/Constant" type="Const" version="opset1">
			<data element_type="i8" shape="24, 24, 1, 1" offset="4926" size="576" />
			<output>
				<port id="0" precision="I8">
					<dim>24</dim>
					<dim>24</dim>
					<dim>1</dim>
					<dim>1</dim>
				</port>
			</output>
		</layer>
		<layer id="222" name="Convert_34846" type="Convert" version="opset1">
			<data destination_type="f32" />
			<input>
				<port id="0" precision="I8">
					<dim>24</dim>
					<dim>24</dim>
					<dim>1</dim>
					<dim>1</dim>
				</port>
			</input>
			<output>
				<port id="1" precision="FP32">
					<dim>24</dim>
					<dim>24</dim>
					<dim>1</dim>
					<dim>1</dim>
				</port>
			</output>
		</layer>
		<layer id="223" name="Constant_34783_compressed" type="Const" version="opset1">
			<data element_type="f16" shape="24, 1, 1, 1" offset="5502" size="48" />
			<output>
				<port id="0" precision="FP16">
					<dim>24</dim>
					<dim>1</dim>
					<dim>1</dim>
					<dim>1</dim>
				</port>
			</output>
		</layer>
		<layer id="224" name="Constant_34783" type="Convert" version="opset1">
			<data destination_type="f32" />
			<rt_info>
				<attribute name="decompression" version="0" />
			</rt_info>
			<input>
				<port id="0" precision="FP16">
					<dim>24</dim>
					<dim>1</dim>
					<dim>1</dim>
					<dim>1</dim>
				</port>
			</input>
			<output>
				<port id="1" precision="FP32">
					<dim>24</dim>
					<dim>1</dim>
					<dim>1</dim>
					<dim>1</dim>
				</port>
			</output>
		</layer>
		<layer id="225" name="Multiply_29594" type="Multiply" version="opset1">
			<data auto_broadcast="numpy" />
			<input>
				<port id="0" precision="FP32">
					<dim>24</dim>
					<dim>24</dim>
					<dim>1</dim>
					<dim>1</dim>
				</port>
				<port id="1" precision="FP32">
					<dim>24</dim>
					<dim>1</dim>
					<dim>1</dim>
					<dim>1</dim>
				</port>
			</input>
			<output>
				<port id="2" precision="FP32">
					<dim>24</dim>
					<dim>24</dim>
					<dim>1</dim>
					<dim>1</dim>
				</port>
			</output>
		</layer>
		<layer id="226" name="Multiply_29035" type="Convolution" version="opset1">
			<data strides="1, 1" dilations="1, 1" pads_begin="0, 0" pads_end="0, 0" auto_pad="explicit" />
			<input>
				<port id="0" precision="FP32">
					<dim>1</dim>
					<dim>24</dim>
					<dim>112</dim>
					<dim>112</dim>
				</port>
				<port id="1" precision="FP32">
					<dim>24</dim>
					<dim>24</dim>
					<dim>1</dim>
					<dim>1</dim>
				</port>
			</input>
			<output>
				<port id="2" precision="FP32">
					<dim>1</dim>
					<dim>24</dim>
					<dim>112</dim>
					<dim>112</dim>
				</port>
			</output>
		</layer>
		<layer id="227" name="Constant_29040_compressed" type="Const" version="opset1">
			<data element_type="f16" shape="1, 24, 1, 1" offset="5550" size="48" />
			<output>
				<port id="0" precision="FP16">
					<dim>1</dim>
					<dim>24</dim>
					<dim>1</dim>
					<dim>1</dim>
				</port>
			</output>
		</layer>
		<layer id="228" name="Constant_29040" type="Convert" version="opset1">
			<data destination_type="f32" />
			<rt_info>
				<attribute name="decompression" version="0" />
			</rt_info>
			<input>
				<port id="0" precision="FP16">
					<dim>1</dim>
					<dim>24</dim>
					<dim>1</dim>
					<dim>1</dim>
				</port>
			</input>
			<output>
				<port id="1" precision="FP32">
					<dim>1</dim>
					<dim>24</dim>
					<dim>1</dim>
					<dim>1</dim>
				</port>
			</output>
		</layer>
		<layer id="229" name="/nncf_module/features/features.1/features.1.1/block/block.2/block.2.1/BatchNormalization" type="Add" version="opset1">
			<data auto_broadcast="numpy" />
			<input>
				<port id="0" precision="FP32">
					<dim>1</dim>
					<dim>24</dim>
					<dim>112</dim>
					<dim>112</dim>
				</port>
				<port id="1" precision="FP32">
					<dim>1</dim>
					<dim>24</dim>
					<dim>1</dim>
					<dim>1</dim>
				</port>
			</input>
			<output>
				<port id="2" precision="FP32" names="/nncf_module/features/features.1/features.1.1/block/block.2/block.2.1/BatchNormalization_output_0">
					<dim>1</dim>
					<dim>24</dim>
					<dim>112</dim>
					<dim>112</dim>
				</port>
			</output>
		</layer>
		<layer id="230" name="Constant_31068_compressed" type="Const" version="opset1">
			<data element_type="f16" shape="1, 1, 1, 1" offset="5598" size="2" />
			<output>
				<port id="0" precision="FP16">
					<dim>1</dim>
					<dim>1</dim>
					<dim>1</dim>
					<dim>1</dim>
				</port>
			</output>
		</layer>
		<layer id="231" name="Constant_31068" type="Convert" version="opset1">
			<data destination_type="f32" />
			<rt_info>
				<attribute name="decompression" version="0" />
			</rt_info>
			<input>
				<port id="0" precision="FP16">
					<dim>1</dim>
					<dim>1</dim>
					<dim>1</dim>
					<dim>1</dim>
				</port>
			</input>
			<output>
				<port id="1" precision="FP32">
					<dim>1</dim>
					<dim>1</dim>
					<dim>1</dim>
					<dim>1</dim>
				</port>
			</output>
		</layer>
		<layer id="232" name="Constant_31069_compressed" type="Const" version="opset1">
			<data element_type="f16" shape="1, 1, 1, 1" offset="5600" size="2" />
			<output>
				<port id="0" precision="FP16">
					<dim>1</dim>
					<dim>1</dim>
					<dim>1</dim>
					<dim>1</dim>
				</port>
			</output>
		</layer>
		<layer id="233" name="Constant_31069" type="Convert" version="opset1">
			<data destination_type="f32" />
			<rt_info>
				<attribute name="decompression" version="0" />
			</rt_info>
			<input>
				<port id="0" precision="FP16">
					<dim>1</dim>
					<dim>1</dim>
					<dim>1</dim>
					<dim>1</dim>
				</port>
			</input>
			<output>
				<port id="1" precision="FP32">
					<dim>1</dim>
					<dim>1</dim>
					<dim>1</dim>
					<dim>1</dim>
				</port>
			</output>
		</layer>
		<layer id="234" name="Constant_31070_compressed" type="Const" version="opset1">
			<data element_type="f16" shape="1, 1, 1, 1" offset="5598" size="2" />
			<output>
				<port id="0" precision="FP16">
					<dim>1</dim>
					<dim>1</dim>
					<dim>1</dim>
					<dim>1</dim>
				</port>
			</output>
		</layer>
		<layer id="235" name="Constant_31070" type="Convert" version="opset1">
			<data destination_type="f32" />
			<rt_info>
				<attribute name="decompression" version="0" />
			</rt_info>
			<input>
				<port id="0" precision="FP16">
					<dim>1</dim>
					<dim>1</dim>
					<dim>1</dim>
					<dim>1</dim>
				</port>
			</input>
			<output>
				<port id="1" precision="FP32">
					<dim>1</dim>
					<dim>1</dim>
					<dim>1</dim>
					<dim>1</dim>
				</port>
			</output>
		</layer>
		<layer id="236" name="Constant_31071_compressed" type="Const" version="opset1">
			<data element_type="f16" shape="1, 1, 1, 1" offset="5600" size="2" />
			<output>
				<port id="0" precision="FP16">
					<dim>1</dim>
					<dim>1</dim>
					<dim>1</dim>
					<dim>1</dim>
				</port>
			</output>
		</layer>
		<layer id="237" name="Constant_31071" type="Convert" version="opset1">
			<data destination_type="f32" />
			<rt_info>
				<attribute name="decompression" version="0" />
			</rt_info>
			<input>
				<port id="0" precision="FP16">
					<dim>1</dim>
					<dim>1</dim>
					<dim>1</dim>
					<dim>1</dim>
				</port>
			</input>
			<output>
				<port id="1" precision="FP32">
					<dim>1</dim>
					<dim>1</dim>
					<dim>1</dim>
					<dim>1</dim>
				</port>
			</output>
		</layer>
		<layer id="238" name="/nncf_module/features/features.1/features.1.1/block/block.2/block.2.1/EfficientNet/Sequential[features]/Sequential[1]/MBConv[1]/Sequential[block]/Conv2dNormActivation[2]/NNCFBatchNorm2d[1]/batch_norm_0|OUTPUT/FakeQuantize" type="FakeQuantize" version="opset1">
			<data levels="256" auto_broadcast="numpy" />
			<input>
				<port id="0" precision="FP32">
					<dim>1</dim>
					<dim>24</dim>
					<dim>112</dim>
					<dim>112</dim>
				</port>
				<port id="1" precision="FP32">
					<dim>1</dim>
					<dim>1</dim>
					<dim>1</dim>
					<dim>1</dim>
				</port>
				<port id="2" precision="FP32">
					<dim>1</dim>
					<dim>1</dim>
					<dim>1</dim>
					<dim>1</dim>
				</port>
				<port id="3" precision="FP32">
					<dim>1</dim>
					<dim>1</dim>
					<dim>1</dim>
					<dim>1</dim>
				</port>
				<port id="4" precision="FP32">
					<dim>1</dim>
					<dim>1</dim>
					<dim>1</dim>
					<dim>1</dim>
				</port>
			</input>
			<output>
				<port id="5" precision="FP32" names="/nncf_module/features/features.1/features.1.1/block/block.2/block.2.1/EfficientNet/Sequential[features]/Sequential[1]/MBConv[1]/Sequential[block]/Conv2dNormActivation[2]/NNCFBatchNorm2d[1]/batch_norm_0|OUTPUT/FakeQuantize_output_0">
					<dim>1</dim>
					<dim>24</dim>
					<dim>112</dim>
					<dim>112</dim>
				</port>
			</output>
		</layer>
		<layer id="239" name="/nncf_module/features/features.1/features.1.1/Add" type="Add" version="opset1">
			<data auto_broadcast="numpy" />
			<input>
				<port id="0" precision="FP32">
					<dim>1</dim>
					<dim>24</dim>
					<dim>112</dim>
					<dim>112</dim>
				</port>
				<port id="1" precision="FP32">
					<dim>1</dim>
					<dim>24</dim>
					<dim>112</dim>
					<dim>112</dim>
				</port>
			</input>
			<output>
				<port id="2" precision="FP32" names="/nncf_module/features/features.1/features.1.1/Add_output_0">
					<dim>1</dim>
					<dim>24</dim>
					<dim>112</dim>
					<dim>112</dim>
				</port>
			</output>
		</layer>
		<layer id="240" name="Constant_31072_compressed" type="Const" version="opset1">
			<data element_type="f16" shape="1, 1, 1, 1" offset="5602" size="2" />
			<output>
				<port id="0" precision="FP16">
					<dim>1</dim>
					<dim>1</dim>
					<dim>1</dim>
					<dim>1</dim>
				</port>
			</output>
		</layer>
		<layer id="241" name="Constant_31072" type="Convert" version="opset1">
			<data destination_type="f32" />
			<rt_info>
				<attribute name="decompression" version="0" />
			</rt_info>
			<input>
				<port id="0" precision="FP16">
					<dim>1</dim>
					<dim>1</dim>
					<dim>1</dim>
					<dim>1</dim>
				</port>
			</input>
			<output>
				<port id="1" precision="FP32">
					<dim>1</dim>
					<dim>1</dim>
					<dim>1</dim>
					<dim>1</dim>
				</port>
			</output>
		</layer>
		<layer id="242" name="Constant_31073_compressed" type="Const" version="opset1">
			<data element_type="f16" shape="1, 1, 1, 1" offset="5604" size="2" />
			<output>
				<port id="0" precision="FP16">
					<dim>1</dim>
					<dim>1</dim>
					<dim>1</dim>
					<dim>1</dim>
				</port>
			</output>
		</layer>
		<layer id="243" name="Constant_31073" type="Convert" version="opset1">
			<data destination_type="f32" />
			<rt_info>
				<attribute name="decompression" version="0" />
			</rt_info>
			<input>
				<port id="0" precision="FP16">
					<dim>1</dim>
					<dim>1</dim>
					<dim>1</dim>
					<dim>1</dim>
				</port>
			</input>
			<output>
				<port id="1" precision="FP32">
					<dim>1</dim>
					<dim>1</dim>
					<dim>1</dim>
					<dim>1</dim>
				</port>
			</output>
		</layer>
		<layer id="244" name="Constant_31074_compressed" type="Const" version="opset1">
			<data element_type="f16" shape="1, 1, 1, 1" offset="5602" size="2" />
			<output>
				<port id="0" precision="FP16">
					<dim>1</dim>
					<dim>1</dim>
					<dim>1</dim>
					<dim>1</dim>
				</port>
			</output>
		</layer>
		<layer id="245" name="Constant_31074" type="Convert" version="opset1">
			<data destination_type="f32" />
			<rt_info>
				<attribute name="decompression" version="0" />
			</rt_info>
			<input>
				<port id="0" precision="FP16">
					<dim>1</dim>
					<dim>1</dim>
					<dim>1</dim>
					<dim>1</dim>
				</port>
			</input>
			<output>
				<port id="1" precision="FP32">
					<dim>1</dim>
					<dim>1</dim>
					<dim>1</dim>
					<dim>1</dim>
				</port>
			</output>
		</layer>
		<layer id="246" name="Constant_31075_compressed" type="Const" version="opset1">
			<data element_type="f16" shape="1, 1, 1, 1" offset="5604" size="2" />
			<output>
				<port id="0" precision="FP16">
					<dim>1</dim>
					<dim>1</dim>
					<dim>1</dim>
					<dim>1</dim>
				</port>
			</output>
		</layer>
		<layer id="247" name="Constant_31075" type="Convert" version="opset1">
			<data destination_type="f32" />
			<rt_info>
				<attribute name="decompression" version="0" />
			</rt_info>
			<input>
				<port id="0" precision="FP16">
					<dim>1</dim>
					<dim>1</dim>
					<dim>1</dim>
					<dim>1</dim>
				</port>
			</input>
			<output>
				<port id="1" precision="FP32">
					<dim>1</dim>
					<dim>1</dim>
					<dim>1</dim>
					<dim>1</dim>
				</port>
			</output>
		</layer>
		<layer id="248" name="/nncf_module/features/features.1/features.1.1/EfficientNet/Sequential[features]/Sequential[1]/MBConv[1]/__iadd___0|OUTPUT/FakeQuantize" type="FakeQuantize" version="opset1">
			<data levels="256" auto_broadcast="numpy" />
			<input>
				<port id="0" precision="FP32">
					<dim>1</dim>
					<dim>24</dim>
					<dim>112</dim>
					<dim>112</dim>
				</port>
				<port id="1" precision="FP32">
					<dim>1</dim>
					<dim>1</dim>
					<dim>1</dim>
					<dim>1</dim>
				</port>
				<port id="2" precision="FP32">
					<dim>1</dim>
					<dim>1</dim>
					<dim>1</dim>
					<dim>1</dim>
				</port>
				<port id="3" precision="FP32">
					<dim>1</dim>
					<dim>1</dim>
					<dim>1</dim>
					<dim>1</dim>
				</port>
				<port id="4" precision="FP32">
					<dim>1</dim>
					<dim>1</dim>
					<dim>1</dim>
					<dim>1</dim>
				</port>
			</input>
			<output>
				<port id="5" precision="FP32" names="/nncf_module/features/features.1/features.1.1/EfficientNet/Sequential[features]/Sequential[1]/MBConv[1]/__iadd___0|OUTPUT/FakeQuantize_output_0">
					<dim>1</dim>
					<dim>24</dim>
					<dim>112</dim>
					<dim>112</dim>
				</port>
			</output>
		</layer>
		<layer id="249" name="/nncf_module/features/features.2/features.2.0/block/block.0/block.0.0/pre_ops.0/op/Constant" type="Const" version="opset1">
			<data element_type="i8" shape="144, 24, 1, 1" offset="5606" size="3456" />
			<output>
				<port id="0" precision="I8">
					<dim>144</dim>
					<dim>24</dim>
					<dim>1</dim>
					<dim>1</dim>
				</port>
			</output>
		</layer>
		<layer id="250" name="Convert_34967" type="Convert" version="opset1">
			<data destination_type="f32" />
			<input>
				<port id="0" precision="I8">
					<dim>144</dim>
					<dim>24</dim>
					<dim>1</dim>
					<dim>1</dim>
				</port>
			</input>
			<output>
				<port id="1" precision="FP32">
					<dim>144</dim>
					<dim>24</dim>
					<dim>1</dim>
					<dim>1</dim>
				</port>
			</output>
		</layer>
		<layer id="251" name="Constant_34904_compressed" type="Const" version="opset1">
			<data element_type="f16" shape="144, 1, 1, 1" offset="9062" size="288" />
			<output>
				<port id="0" precision="FP16">
					<dim>144</dim>
					<dim>1</dim>
					<dim>1</dim>
					<dim>1</dim>
				</port>
			</output>
		</layer>
		<layer id="252" name="Constant_34904" type="Convert" version="opset1">
			<data destination_type="f32" />
			<rt_info>
				<attribute name="decompression" version="0" />
			</rt_info>
			<input>
				<port id="0" precision="FP16">
					<dim>144</dim>
					<dim>1</dim>
					<dim>1</dim>
					<dim>1</dim>
				</port>
			</input>
			<output>
				<port id="1" precision="FP32">
					<dim>144</dim>
					<dim>1</dim>
					<dim>1</dim>
					<dim>1</dim>
				</port>
			</output>
		</layer>
		<layer id="253" name="Multiply_29603" type="Multiply" version="opset1">
			<data auto_broadcast="numpy" />
			<input>
				<port id="0" precision="FP32">
					<dim>144</dim>
					<dim>24</dim>
					<dim>1</dim>
					<dim>1</dim>
				</port>
				<port id="1" precision="FP32">
					<dim>144</dim>
					<dim>1</dim>
					<dim>1</dim>
					<dim>1</dim>
				</port>
			</input>
			<output>
				<port id="2" precision="FP32">
					<dim>144</dim>
					<dim>24</dim>
					<dim>1</dim>
					<dim>1</dim>
				</port>
			</output>
		</layer>
		<layer id="254" name="Multiply_29042" type="Convolution" version="opset1">
			<data strides="1, 1" dilations="1, 1" pads_begin="0, 0" pads_end="0, 0" auto_pad="explicit" />
			<input>
				<port id="0" precision="FP32">
					<dim>1</dim>
					<dim>24</dim>
					<dim>112</dim>
					<dim>112</dim>
				</port>
				<port id="1" precision="FP32">
					<dim>144</dim>
					<dim>24</dim>
					<dim>1</dim>
					<dim>1</dim>
				</port>
			</input>
			<output>
				<port id="2" precision="FP32">
					<dim>1</dim>
					<dim>144</dim>
					<dim>112</dim>
					<dim>112</dim>
				</port>
			</output>
		</layer>
		<layer id="255" name="Constant_29047_compressed" type="Const" version="opset1">
			<data element_type="f16" shape="1, 144, 1, 1" offset="9350" size="288" />
			<output>
				<port id="0" precision="FP16">
					<dim>1</dim>
					<dim>144</dim>
					<dim>1</dim>
					<dim>1</dim>
				</port>
			</output>
		</layer>
		<layer id="256" name="Constant_29047" type="Convert" version="opset1">
			<data destination_type="f32" />
			<rt_info>
				<attribute name="decompression" version="0" />
			</rt_info>
			<input>
				<port id="0" precision="FP16">
					<dim>1</dim>
					<dim>144</dim>
					<dim>1</dim>
					<dim>1</dim>
				</port>
			</input>
			<output>
				<port id="1" precision="FP32">
					<dim>1</dim>
					<dim>144</dim>
					<dim>1</dim>
					<dim>1</dim>
				</port>
			</output>
		</layer>
		<layer id="257" name="/nncf_module/features/features.2/features.2.0/block/block.0/block.0.1/BatchNormalization" type="Add" version="opset1">
			<data auto_broadcast="numpy" />
			<input>
				<port id="0" precision="FP32">
					<dim>1</dim>
					<dim>144</dim>
					<dim>112</dim>
					<dim>112</dim>
				</port>
				<port id="1" precision="FP32">
					<dim>1</dim>
					<dim>144</dim>
					<dim>1</dim>
					<dim>1</dim>
				</port>
			</input>
			<output>
				<port id="2" precision="FP32" names="/nncf_module/features/features.2/features.2.0/block/block.0/block.0.1/BatchNormalization_output_0">
					<dim>1</dim>
					<dim>144</dim>
					<dim>112</dim>
					<dim>112</dim>
				</port>
			</output>
		</layer>
		<layer id="258" name="/nncf_module/features/features.2/features.2.0/block/block.0/block.0.2/Mul" type="Swish" version="opset4">
			<input>
				<port id="0" precision="FP32">
					<dim>1</dim>
					<dim>144</dim>
					<dim>112</dim>
					<dim>112</dim>
				</port>
			</input>
			<output>
				<port id="1" precision="FP32" names="/nncf_module/features/features.2/features.2.0/block/block.0/block.0.2/Mul_output_0">
					<dim>1</dim>
					<dim>144</dim>
					<dim>112</dim>
					<dim>112</dim>
				</port>
			</output>
		</layer>
		<layer id="259" name="/nncf_module/features/features.2/features.2.0/block/block.0/block.0.2/EfficientNet/Sequential[features]/Sequential[2]/MBConv[0]/Sequential[block]/Conv2dNormActivation[0]/SiLU[2]/silu_0|OUTPUT/Constant_compressed" type="Const" version="opset1">
			<data element_type="f16" shape="1, 144, 1, 1" offset="9638" size="288" />
			<output>
				<port id="0" precision="FP16">
					<dim>1</dim>
					<dim>144</dim>
					<dim>1</dim>
					<dim>1</dim>
				</port>
			</output>
		</layer>
		<layer id="260" name="/nncf_module/features/features.2/features.2.0/block/block.0/block.0.2/EfficientNet/Sequential[features]/Sequential[2]/MBConv[0]/Sequential[block]/Conv2dNormActivation[0]/SiLU[2]/silu_0|OUTPUT/Constant" type="Convert" version="opset1">
			<data destination_type="f32" />
			<rt_info>
				<attribute name="decompression" version="0" />
			</rt_info>
			<input>
				<port id="0" precision="FP16">
					<dim>1</dim>
					<dim>144</dim>
					<dim>1</dim>
					<dim>1</dim>
				</port>
			</input>
			<output>
				<port id="1" precision="FP32" names="/nncf_module/features/features.2/features.2.0/block/block.0/block.0.2/EfficientNet/Sequential[features]/Sequential[2]/MBConv[0]/Sequential[block]/Conv2dNormActivation[0]/SiLU[2]/silu_0|OUTPUT/Constant_output_0">
					<dim>1</dim>
					<dim>144</dim>
					<dim>1</dim>
					<dim>1</dim>
				</port>
			</output>
		</layer>
		<layer id="261" name="/nncf_module/features/features.2/features.2.0/block/block.0/block.0.2/EfficientNet/Sequential[features]/Sequential[2]/MBConv[0]/Sequential[block]/Conv2dNormActivation[0]/SiLU[2]/silu_0|OUTPUT/Constant_1_compressed" type="Const" version="opset1">
			<data element_type="f16" shape="1, 144, 1, 1" offset="9926" size="288" />
			<output>
				<port id="0" precision="FP16">
					<dim>1</dim>
					<dim>144</dim>
					<dim>1</dim>
					<dim>1</dim>
				</port>
			</output>
		</layer>
		<layer id="262" name="/nncf_module/features/features.2/features.2.0/block/block.0/block.0.2/EfficientNet/Sequential[features]/Sequential[2]/MBConv[0]/Sequential[block]/Conv2dNormActivation[0]/SiLU[2]/silu_0|OUTPUT/Constant_1" type="Convert" version="opset1">
			<data destination_type="f32" />
			<rt_info>
				<attribute name="decompression" version="0" />
			</rt_info>
			<input>
				<port id="0" precision="FP16">
					<dim>1</dim>
					<dim>144</dim>
					<dim>1</dim>
					<dim>1</dim>
				</port>
			</input>
			<output>
				<port id="1" precision="FP32" names="/nncf_module/features/features.2/features.2.0/block/block.0/block.0.2/EfficientNet/Sequential[features]/Sequential[2]/MBConv[0]/Sequential[block]/Conv2dNormActivation[0]/SiLU[2]/silu_0|OUTPUT/Constant_1_output_0">
					<dim>1</dim>
					<dim>144</dim>
					<dim>1</dim>
					<dim>1</dim>
				</port>
			</output>
		</layer>
		<layer id="263" name="/nncf_module/features/features.2/features.2.0/block/block.0/block.0.2/EfficientNet/Sequential[features]/Sequential[2]/MBConv[0]/Sequential[block]/Conv2dNormActivation[0]/SiLU[2]/silu_0|OUTPUT/FakeQuantize" type="FakeQuantize" version="opset1">
			<data levels="256" auto_broadcast="numpy" />
			<input>
				<port id="0" precision="FP32">
					<dim>1</dim>
					<dim>144</dim>
					<dim>112</dim>
					<dim>112</dim>
				</port>
				<port id="1" precision="FP32">
					<dim>1</dim>
					<dim>144</dim>
					<dim>1</dim>
					<dim>1</dim>
				</port>
				<port id="2" precision="FP32">
					<dim>1</dim>
					<dim>144</dim>
					<dim>1</dim>
					<dim>1</dim>
				</port>
				<port id="3" precision="FP32">
					<dim>1</dim>
					<dim>144</dim>
					<dim>1</dim>
					<dim>1</dim>
				</port>
				<port id="4" precision="FP32">
					<dim>1</dim>
					<dim>144</dim>
					<dim>1</dim>
					<dim>1</dim>
				</port>
			</input>
			<output>
				<port id="5" precision="FP32" names="/nncf_module/features/features.2/features.2.0/block/block.0/block.0.2/EfficientNet/Sequential[features]/Sequential[2]/MBConv[0]/Sequential[block]/Conv2dNormActivation[0]/SiLU[2]/silu_0|OUTPUT/FakeQuantize_output_0">
					<dim>1</dim>
					<dim>144</dim>
					<dim>112</dim>
					<dim>112</dim>
				</port>
			</output>
		</layer>
		<layer id="264" name="/nncf_module/features/features.2/features.2.0/block/block.1/block.1.0/pre_ops.0/op/Constant" type="Const" version="opset1">
			<data element_type="i8" shape="144, 1, 3, 3" offset="10214" size="1296" />
			<output>
				<port id="0" precision="I8">
					<dim>144</dim>
					<dim>1</dim>
					<dim>3</dim>
					<dim>3</dim>
				</port>
			</output>
		</layer>
		<layer id="265" name="Convert_35088" type="Convert" version="opset1">
			<data destination_type="f32" />
			<input>
				<port id="0" precision="I8">
					<dim>144</dim>
					<dim>1</dim>
					<dim>3</dim>
					<dim>3</dim>
				</port>
			</input>
			<output>
				<port id="1" precision="FP32">
					<dim>144</dim>
					<dim>1</dim>
					<dim>3</dim>
					<dim>3</dim>
				</port>
			</output>
		</layer>
		<layer id="266" name="Constant_35025_compressed" type="Const" version="opset1">
			<data element_type="f16" shape="144, 1, 1, 1" offset="11510" size="288" />
			<output>
				<port id="0" precision="FP16">
					<dim>144</dim>
					<dim>1</dim>
					<dim>1</dim>
					<dim>1</dim>
				</port>
			</output>
		</layer>
		<layer id="267" name="Constant_35025" type="Convert" version="opset1">
			<data destination_type="f32" />
			<rt_info>
				<attribute name="decompression" version="0" />
			</rt_info>
			<input>
				<port id="0" precision="FP16">
					<dim>144</dim>
					<dim>1</dim>
					<dim>1</dim>
					<dim>1</dim>
				</port>
			</input>
			<output>
				<port id="1" precision="FP32">
					<dim>144</dim>
					<dim>1</dim>
					<dim>1</dim>
					<dim>1</dim>
				</port>
			</output>
		</layer>
		<layer id="268" name="/nncf_module/features/features.2/features.2.0/block/block.1/block.1.0/pre_ops.0/op/FakeQuantize" type="Multiply" version="opset1">
			<data auto_broadcast="numpy" />
			<input>
				<port id="0" precision="FP32">
					<dim>144</dim>
					<dim>1</dim>
					<dim>3</dim>
					<dim>3</dim>
				</port>
				<port id="1" precision="FP32">
					<dim>144</dim>
					<dim>1</dim>
					<dim>1</dim>
					<dim>1</dim>
				</port>
			</input>
			<output>
				<port id="2" precision="FP32" names="/nncf_module/features/features.2/features.2.0/block/block.1/block.1.0/pre_ops.0/op/FakeQuantize_output_0">
					<dim>144</dim>
					<dim>1</dim>
					<dim>3</dim>
					<dim>3</dim>
				</port>
			</output>
		</layer>
		<layer id="269" name="Reshape_29606_compressed" type="Const" version="opset1">
			<data element_type="f16" shape="144, 1, 1, 1" offset="11798" size="288" />
			<output>
				<port id="0" precision="FP16">
					<dim>144</dim>
					<dim>1</dim>
					<dim>1</dim>
					<dim>1</dim>
				</port>
			</output>
		</layer>
		<layer id="270" name="Reshape_29606" type="Convert" version="opset1">
			<data destination_type="f32" />
			<rt_info>
				<attribute name="decompression" version="0" />
			</rt_info>
			<input>
				<port id="0" precision="FP16">
					<dim>144</dim>
					<dim>1</dim>
					<dim>1</dim>
					<dim>1</dim>
				</port>
			</input>
			<output>
				<port id="1" precision="FP32">
					<dim>144</dim>
					<dim>1</dim>
					<dim>1</dim>
					<dim>1</dim>
				</port>
			</output>
		</layer>
		<layer id="271" name="Multiply_29612" type="Multiply" version="opset1">
			<data auto_broadcast="numpy" />
			<input>
				<port id="0" precision="FP32">
					<dim>144</dim>
					<dim>1</dim>
					<dim>3</dim>
					<dim>3</dim>
				</port>
				<port id="1" precision="FP32">
					<dim>144</dim>
					<dim>1</dim>
					<dim>1</dim>
					<dim>1</dim>
				</port>
			</input>
			<output>
				<port id="2" precision="FP32">
					<dim>144</dim>
					<dim>1</dim>
					<dim>3</dim>
					<dim>3</dim>
				</port>
			</output>
		</layer>
		<layer id="272" name="Constant_895" type="Const" version="opset1">
			<data element_type="i64" shape="1" offset="12086" size="8" />
			<output>
				<port id="0" precision="I64">
					<dim>1</dim>
				</port>
			</output>
		</layer>
		<layer id="273" name="ShapeOf_896" type="ShapeOf" version="opset3">
			<data output_type="i64" />
			<input>
				<port id="0" precision="FP32">
					<dim>144</dim>
					<dim>1</dim>
					<dim>3</dim>
					<dim>3</dim>
				</port>
			</input>
			<output>
				<port id="1" precision="I64">
					<dim>4</dim>
				</port>
			</output>
		</layer>
		<layer id="274" name="Constant_893" type="Const" version="opset1">
			<data element_type="i64" shape="" offset="1932" size="8" />
			<output>
				<port id="0" precision="I64" />
			</output>
		</layer>
		<layer id="275" name="Constant_894" type="Const" version="opset1">
			<data element_type="i64" shape="2" offset="1940" size="16" />
			<output>
				<port id="0" precision="I64">
					<dim>2</dim>
				</port>
			</output>
		</layer>
		<layer id="276" name="VariadicSplit_897" type="VariadicSplit" version="opset1">
			<input>
				<port id="0" precision="I64">
					<dim>4</dim>
				</port>
				<port id="1" precision="I64" />
				<port id="2" precision="I64">
					<dim>2</dim>
				</port>
			</input>
			<output>
				<port id="3" precision="I64">
					<dim>1</dim>
				</port>
				<port id="4" precision="I64">
					<dim>3</dim>
				</port>
			</output>
		</layer>
		<layer id="277" name="Divide_898" type="Divide" version="opset1">
			<data auto_broadcast="numpy" m_pythondiv="true" />
			<input>
				<port id="0" precision="I64">
					<dim>1</dim>
				</port>
				<port id="1" precision="I64">
					<dim>1</dim>
				</port>
			</input>
			<output>
				<port id="2" precision="I64">
					<dim>1</dim>
				</port>
			</output>
		</layer>
		<layer id="278" name="Concat_899" type="Concat" version="opset1">
			<data axis="0" />
			<input>
				<port id="0" precision="I64">
					<dim>1</dim>
				</port>
				<port id="1" precision="I64">
					<dim>1</dim>
				</port>
				<port id="2" precision="I64">
					<dim>3</dim>
				</port>
			</input>
			<output>
				<port id="3" precision="I64">
					<dim>5</dim>
				</port>
			</output>
		</layer>
		<layer id="279" name="Reshape_900" type="Reshape" version="opset1">
			<data special_zero="false" />
			<input>
				<port id="0" precision="FP32">
					<dim>144</dim>
					<dim>1</dim>
					<dim>3</dim>
					<dim>3</dim>
				</port>
				<port id="1" precision="I64">
					<dim>5</dim>
				</port>
			</input>
			<output>
				<port id="2" precision="FP32">
					<dim>144</dim>
					<dim>1</dim>
					<dim>1</dim>
					<dim>3</dim>
					<dim>3</dim>
				</port>
			</output>
		</layer>
		<layer id="280" name="Multiply_29049" type="GroupConvolution" version="opset1">
			<data strides="2, 2" pads_begin="1, 1" pads_end="1, 1" dilations="1, 1" auto_pad="explicit" />
			<input>
				<port id="0" precision="FP32">
					<dim>1</dim>
					<dim>144</dim>
					<dim>112</dim>
					<dim>112</dim>
				</port>
				<port id="1" precision="FP32">
					<dim>144</dim>
					<dim>1</dim>
					<dim>1</dim>
					<dim>3</dim>
					<dim>3</dim>
				</port>
			</input>
			<output>
				<port id="2" precision="FP32" names="/nncf_module/features/features.2/features.2.0/block/block.1/block.1.0/Conv_output_0">
					<dim>1</dim>
					<dim>144</dim>
					<dim>56</dim>
					<dim>56</dim>
				</port>
			</output>
		</layer>
		<layer id="281" name="Constant_29054_compressed" type="Const" version="opset1">
			<data element_type="f16" shape="1, 144, 1, 1" offset="12094" size="288" />
			<output>
				<port id="0" precision="FP16">
					<dim>1</dim>
					<dim>144</dim>
					<dim>1</dim>
					<dim>1</dim>
				</port>
			</output>
		</layer>
		<layer id="282" name="Constant_29054" type="Convert" version="opset1">
			<data destination_type="f32" />
			<rt_info>
				<attribute name="decompression" version="0" />
			</rt_info>
			<input>
				<port id="0" precision="FP16">
					<dim>1</dim>
					<dim>144</dim>
					<dim>1</dim>
					<dim>1</dim>
				</port>
			</input>
			<output>
				<port id="1" precision="FP32">
					<dim>1</dim>
					<dim>144</dim>
					<dim>1</dim>
					<dim>1</dim>
				</port>
			</output>
		</layer>
		<layer id="283" name="/nncf_module/features/features.2/features.2.0/block/block.1/block.1.1/BatchNormalization" type="Add" version="opset1">
			<data auto_broadcast="numpy" />
			<input>
				<port id="0" precision="FP32">
					<dim>1</dim>
					<dim>144</dim>
					<dim>56</dim>
					<dim>56</dim>
				</port>
				<port id="1" precision="FP32">
					<dim>1</dim>
					<dim>144</dim>
					<dim>1</dim>
					<dim>1</dim>
				</port>
			</input>
			<output>
				<port id="2" precision="FP32" names="/nncf_module/features/features.2/features.2.0/block/block.1/block.1.1/BatchNormalization_output_0">
					<dim>1</dim>
					<dim>144</dim>
					<dim>56</dim>
					<dim>56</dim>
				</port>
			</output>
		</layer>
		<layer id="284" name="/nncf_module/features/features.2/features.2.0/block/block.1/block.1.2/Mul" type="Swish" version="opset4">
			<input>
				<port id="0" precision="FP32">
					<dim>1</dim>
					<dim>144</dim>
					<dim>56</dim>
					<dim>56</dim>
				</port>
			</input>
			<output>
				<port id="1" precision="FP32" names="/nncf_module/features/features.2/features.2.0/block/block.1/block.1.2/Mul_output_0">
					<dim>1</dim>
					<dim>144</dim>
					<dim>56</dim>
					<dim>56</dim>
				</port>
			</output>
		</layer>
		<layer id="285" name="Constant_31076_compressed" type="Const" version="opset1">
			<data element_type="f16" shape="1, 1, 1, 1" offset="12382" size="2" />
			<output>
				<port id="0" precision="FP16">
					<dim>1</dim>
					<dim>1</dim>
					<dim>1</dim>
					<dim>1</dim>
				</port>
			</output>
		</layer>
		<layer id="286" name="Constant_31076" type="Convert" version="opset1">
			<data destination_type="f32" />
			<rt_info>
				<attribute name="decompression" version="0" />
			</rt_info>
			<input>
				<port id="0" precision="FP16">
					<dim>1</dim>
					<dim>1</dim>
					<dim>1</dim>
					<dim>1</dim>
				</port>
			</input>
			<output>
				<port id="1" precision="FP32">
					<dim>1</dim>
					<dim>1</dim>
					<dim>1</dim>
					<dim>1</dim>
				</port>
			</output>
		</layer>
		<layer id="287" name="Constant_31077_compressed" type="Const" version="opset1">
			<data element_type="f16" shape="1, 1, 1, 1" offset="12384" size="2" />
			<output>
				<port id="0" precision="FP16">
					<dim>1</dim>
					<dim>1</dim>
					<dim>1</dim>
					<dim>1</dim>
				</port>
			</output>
		</layer>
		<layer id="288" name="Constant_31077" type="Convert" version="opset1">
			<data destination_type="f32" />
			<rt_info>
				<attribute name="decompression" version="0" />
			</rt_info>
			<input>
				<port id="0" precision="FP16">
					<dim>1</dim>
					<dim>1</dim>
					<dim>1</dim>
					<dim>1</dim>
				</port>
			</input>
			<output>
				<port id="1" precision="FP32">
					<dim>1</dim>
					<dim>1</dim>
					<dim>1</dim>
					<dim>1</dim>
				</port>
			</output>
		</layer>
		<layer id="289" name="Constant_31078_compressed" type="Const" version="opset1">
			<data element_type="f16" shape="1, 1, 1, 1" offset="12382" size="2" />
			<output>
				<port id="0" precision="FP16">
					<dim>1</dim>
					<dim>1</dim>
					<dim>1</dim>
					<dim>1</dim>
				</port>
			</output>
		</layer>
		<layer id="290" name="Constant_31078" type="Convert" version="opset1">
			<data destination_type="f32" />
			<rt_info>
				<attribute name="decompression" version="0" />
			</rt_info>
			<input>
				<port id="0" precision="FP16">
					<dim>1</dim>
					<dim>1</dim>
					<dim>1</dim>
					<dim>1</dim>
				</port>
			</input>
			<output>
				<port id="1" precision="FP32">
					<dim>1</dim>
					<dim>1</dim>
					<dim>1</dim>
					<dim>1</dim>
				</port>
			</output>
		</layer>
		<layer id="291" name="Constant_31079_compressed" type="Const" version="opset1">
			<data element_type="f16" shape="1, 1, 1, 1" offset="12384" size="2" />
			<output>
				<port id="0" precision="FP16">
					<dim>1</dim>
					<dim>1</dim>
					<dim>1</dim>
					<dim>1</dim>
				</port>
			</output>
		</layer>
		<layer id="292" name="Constant_31079" type="Convert" version="opset1">
			<data destination_type="f32" />
			<rt_info>
				<attribute name="decompression" version="0" />
			</rt_info>
			<input>
				<port id="0" precision="FP16">
					<dim>1</dim>
					<dim>1</dim>
					<dim>1</dim>
					<dim>1</dim>
				</port>
			</input>
			<output>
				<port id="1" precision="FP32">
					<dim>1</dim>
					<dim>1</dim>
					<dim>1</dim>
					<dim>1</dim>
				</port>
			</output>
		</layer>
		<layer id="293" name="/nncf_module/features/features.2/features.2.0/block/block.1/block.1.2/EfficientNet/Sequential[features]/Sequential[2]/MBConv[0]/Sequential[block]/Conv2dNormActivation[1]/SiLU[2]/silu_0|OUTPUT/FakeQuantize" type="FakeQuantize" version="opset1">
			<data levels="256" auto_broadcast="numpy" />
			<input>
				<port id="0" precision="FP32">
					<dim>1</dim>
					<dim>144</dim>
					<dim>56</dim>
					<dim>56</dim>
				</port>
				<port id="1" precision="FP32">
					<dim>1</dim>
					<dim>1</dim>
					<dim>1</dim>
					<dim>1</dim>
				</port>
				<port id="2" precision="FP32">
					<dim>1</dim>
					<dim>1</dim>
					<dim>1</dim>
					<dim>1</dim>
				</port>
				<port id="3" precision="FP32">
					<dim>1</dim>
					<dim>1</dim>
					<dim>1</dim>
					<dim>1</dim>
				</port>
				<port id="4" precision="FP32">
					<dim>1</dim>
					<dim>1</dim>
					<dim>1</dim>
					<dim>1</dim>
				</port>
			</input>
			<output>
				<port id="5" precision="FP32" names="/nncf_module/features/features.2/features.2.0/block/block.1/block.1.2/EfficientNet/Sequential[features]/Sequential[2]/MBConv[0]/Sequential[block]/Conv2dNormActivation[1]/SiLU[2]/silu_0|OUTPUT/FakeQuantize_output_0">
					<dim>1</dim>
					<dim>144</dim>
					<dim>56</dim>
					<dim>56</dim>
				</port>
			</output>
		</layer>
		<layer id="294" name="Range_979" type="Const" version="opset1">
			<data element_type="i64" shape="2" offset="2040" size="16" />
			<output>
				<port id="0" precision="I64">
					<dim>2</dim>
				</port>
			</output>
		</layer>
		<layer id="295" name="/nncf_module/features/features.2/features.2.0/block/block.2/avgpool/GlobalAveragePool" type="ReduceMean" version="opset1">
			<data keep_dims="true" />
			<input>
				<port id="0" precision="FP32">
					<dim>1</dim>
					<dim>144</dim>
					<dim>56</dim>
					<dim>56</dim>
				</port>
				<port id="1" precision="I64">
					<dim>2</dim>
				</port>
			</input>
			<output>
				<port id="2" precision="FP32" names="/nncf_module/features/features.2/features.2.0/block/block.2/avgpool/GlobalAveragePool_output_0">
					<dim>1</dim>
					<dim>144</dim>
					<dim>1</dim>
					<dim>1</dim>
				</port>
			</output>
		</layer>
		<layer id="296" name="Constant_31080_compressed" type="Const" version="opset1">
			<data element_type="f16" shape="1, 1, 1, 1" offset="12386" size="2" />
			<output>
				<port id="0" precision="FP16">
					<dim>1</dim>
					<dim>1</dim>
					<dim>1</dim>
					<dim>1</dim>
				</port>
			</output>
		</layer>
		<layer id="297" name="Constant_31080" type="Convert" version="opset1">
			<data destination_type="f32" />
			<rt_info>
				<attribute name="decompression" version="0" />
			</rt_info>
			<input>
				<port id="0" precision="FP16">
					<dim>1</dim>
					<dim>1</dim>
					<dim>1</dim>
					<dim>1</dim>
				</port>
			</input>
			<output>
				<port id="1" precision="FP32">
					<dim>1</dim>
					<dim>1</dim>
					<dim>1</dim>
					<dim>1</dim>
				</port>
			</output>
		</layer>
		<layer id="298" name="Constant_31081_compressed" type="Const" version="opset1">
			<data element_type="f16" shape="1, 1, 1, 1" offset="12388" size="2" />
			<output>
				<port id="0" precision="FP16">
					<dim>1</dim>
					<dim>1</dim>
					<dim>1</dim>
					<dim>1</dim>
				</port>
			</output>
		</layer>
		<layer id="299" name="Constant_31081" type="Convert" version="opset1">
			<data destination_type="f32" />
			<rt_info>
				<attribute name="decompression" version="0" />
			</rt_info>
			<input>
				<port id="0" precision="FP16">
					<dim>1</dim>
					<dim>1</dim>
					<dim>1</dim>
					<dim>1</dim>
				</port>
			</input>
			<output>
				<port id="1" precision="FP32">
					<dim>1</dim>
					<dim>1</dim>
					<dim>1</dim>
					<dim>1</dim>
				</port>
			</output>
		</layer>
		<layer id="300" name="Constant_31082_compressed" type="Const" version="opset1">
			<data element_type="f16" shape="1, 1, 1, 1" offset="12386" size="2" />
			<output>
				<port id="0" precision="FP16">
					<dim>1</dim>
					<dim>1</dim>
					<dim>1</dim>
					<dim>1</dim>
				</port>
			</output>
		</layer>
		<layer id="301" name="Constant_31082" type="Convert" version="opset1">
			<data destination_type="f32" />
			<rt_info>
				<attribute name="decompression" version="0" />
			</rt_info>
			<input>
				<port id="0" precision="FP16">
					<dim>1</dim>
					<dim>1</dim>
					<dim>1</dim>
					<dim>1</dim>
				</port>
			</input>
			<output>
				<port id="1" precision="FP32">
					<dim>1</dim>
					<dim>1</dim>
					<dim>1</dim>
					<dim>1</dim>
				</port>
			</output>
		</layer>
		<layer id="302" name="Constant_31083_compressed" type="Const" version="opset1">
			<data element_type="f16" shape="1, 1, 1, 1" offset="12388" size="2" />
			<output>
				<port id="0" precision="FP16">
					<dim>1</dim>
					<dim>1</dim>
					<dim>1</dim>
					<dim>1</dim>
				</port>
			</output>
		</layer>
		<layer id="303" name="Constant_31083" type="Convert" version="opset1">
			<data destination_type="f32" />
			<rt_info>
				<attribute name="decompression" version="0" />
			</rt_info>
			<input>
				<port id="0" precision="FP16">
					<dim>1</dim>
					<dim>1</dim>
					<dim>1</dim>
					<dim>1</dim>
				</port>
			</input>
			<output>
				<port id="1" precision="FP32">
					<dim>1</dim>
					<dim>1</dim>
					<dim>1</dim>
					<dim>1</dim>
				</port>
			</output>
		</layer>
		<layer id="304" name="/nncf_module/features/features.2/features.2.0/block/block.2/avgpool/EfficientNet/Sequential[features]/Sequential[2]/MBConv[0]/Sequential[block]/SqueezeExcitation[2]/AdaptiveAvgPool2d[avgpool]/adaptive_avg_pool2d_0|OUTPUT/FakeQuantize" type="FakeQuantize" version="opset1">
			<data levels="256" auto_broadcast="numpy" />
			<input>
				<port id="0" precision="FP32">
					<dim>1</dim>
					<dim>144</dim>
					<dim>1</dim>
					<dim>1</dim>
				</port>
				<port id="1" precision="FP32">
					<dim>1</dim>
					<dim>1</dim>
					<dim>1</dim>
					<dim>1</dim>
				</port>
				<port id="2" precision="FP32">
					<dim>1</dim>
					<dim>1</dim>
					<dim>1</dim>
					<dim>1</dim>
				</port>
				<port id="3" precision="FP32">
					<dim>1</dim>
					<dim>1</dim>
					<dim>1</dim>
					<dim>1</dim>
				</port>
				<port id="4" precision="FP32">
					<dim>1</dim>
					<dim>1</dim>
					<dim>1</dim>
					<dim>1</dim>
				</port>
			</input>
			<output>
				<port id="5" precision="FP32" names="/nncf_module/features/features.2/features.2.0/block/block.2/avgpool/EfficientNet/Sequential[features]/Sequential[2]/MBConv[0]/Sequential[block]/SqueezeExcitation[2]/AdaptiveAvgPool2d[avgpool]/adaptive_avg_pool2d_0|OUTPUT/FakeQuantize_output_0">
					<dim>1</dim>
					<dim>144</dim>
					<dim>1</dim>
					<dim>1</dim>
				</port>
			</output>
		</layer>
		<layer id="305" name="/nncf_module/features/features.2/features.2.0/block/block.2/fc1/pre_ops.0/op/Constant" type="Const" version="opset1">
			<data element_type="i8" shape="6, 144, 1, 1" offset="12390" size="864" />
			<output>
				<port id="0" precision="I8">
					<dim>6</dim>
					<dim>144</dim>
					<dim>1</dim>
					<dim>1</dim>
				</port>
			</output>
		</layer>
		<layer id="306" name="Convert_35257" type="Convert" version="opset1">
			<data destination_type="f32" />
			<input>
				<port id="0" precision="I8">
					<dim>6</dim>
					<dim>144</dim>
					<dim>1</dim>
					<dim>1</dim>
				</port>
			</input>
			<output>
				<port id="1" precision="FP32">
					<dim>6</dim>
					<dim>144</dim>
					<dim>1</dim>
					<dim>1</dim>
				</port>
			</output>
		</layer>
…
		<edge from-layer="2734" from-port="4" to-layer="2736" to-port="2" />
		<edge from-layer="2734" from-port="3" to-layer="2735" to-port="0" />
		<edge from-layer="2735" from-port="2" to-layer="2736" to-port="1" />
		<edge from-layer="2736" from-port="3" to-layer="2737" to-port="1" />
		<edge from-layer="2737" from-port="2" to-layer="2738" to-port="1" />
		<edge from-layer="2738" from-port="2" to-layer="2741" to-port="0" />
		<edge from-layer="2739" from-port="0" to-layer="2740" to-port="0" />
		<edge from-layer="2740" from-port="1" to-layer="2741" to-port="1" />
		<edge from-layer="2741" from-port="2" to-layer="2742" to-port="0" />
		<edge from-layer="2742" from-port="1" to-layer="2751" to-port="0" />
		<edge from-layer="2743" from-port="0" to-layer="2744" to-port="0" />
		<edge from-layer="2744" from-port="1" to-layer="2751" to-port="1" />
		<edge from-layer="2745" from-port="0" to-layer="2746" to-port="0" />
		<edge from-layer="2746" from-port="1" to-layer="2751" to-port="2" />
		<edge from-layer="2747" from-port="0" to-layer="2748" to-port="0" />
		<edge from-layer="2748" from-port="1" to-layer="2751" to-port="3" />
		<edge from-layer="2749" from-port="0" to-layer="2750" to-port="0" />
		<edge from-layer="2750" from-port="1" to-layer="2751" to-port="4" />
		<edge from-layer="2751" from-port="5" to-layer="2753" to-port="0" />
		<edge from-layer="2751" from-port="5" to-layer="2801" to-port="1" />
		<edge from-layer="2752" from-port="0" to-layer="2753" to-port="1" />
		<edge from-layer="2753" from-port="2" to-layer="2762" to-port="0" />
		<edge from-layer="2754" from-port="0" to-layer="2755" to-port="0" />
		<edge from-layer="2755" from-port="1" to-layer="2762" to-port="1" />
		<edge from-layer="2756" from-port="0" to-layer="2757" to-port="0" />
		<edge from-layer="2757" from-port="1" to-layer="2762" to-port="2" />
		<edge from-layer="2758" from-port="0" to-layer="2759" to-port="0" />
		<edge from-layer="2759" from-port="1" to-layer="2762" to-port="3" />
		<edge from-layer="2760" from-port="0" to-layer="2761" to-port="0" />
		<edge from-layer="2761" from-port="1" to-layer="2762" to-port="4" />
		<edge from-layer="2762" from-port="5" to-layer="2768" to-port="0" />
		<edge from-layer="2763" from-port="0" to-layer="2764" to-port="0" />
		<edge from-layer="2764" from-port="1" to-layer="2767" to-port="0" />
		<edge from-layer="2765" from-port="0" to-layer="2766" to-port="0" />
		<edge from-layer="2766" from-port="1" to-layer="2767" to-port="1" />
		<edge from-layer="2767" from-port="2" to-layer="2768" to-port="1" />
		<edge from-layer="2768" from-port="2" to-layer="2771" to-port="0" />
		<edge from-layer="2769" from-port="0" to-layer="2770" to-port="0" />
		<edge from-layer="2770" from-port="1" to-layer="2771" to-port="1" />
		<edge from-layer="2771" from-port="2" to-layer="2772" to-port="0" />
		<edge from-layer="2772" from-port="1" to-layer="2781" to-port="0" />
		<edge from-layer="2773" from-port="0" to-layer="2774" to-port="0" />
		<edge from-layer="2774" from-port="1" to-layer="2781" to-port="1" />
		<edge from-layer="2775" from-port="0" to-layer="2776" to-port="0" />
		<edge from-layer="2776" from-port="1" to-layer="2781" to-port="2" />
		<edge from-layer="2777" from-port="0" to-layer="2778" to-port="0" />
		<edge from-layer="2778" from-port="1" to-layer="2781" to-port="3" />
		<edge from-layer="2779" from-port="0" to-layer="2780" to-port="0" />
		<edge from-layer="2780" from-port="1" to-layer="2781" to-port="4" />
		<edge from-layer="2781" from-port="5" to-layer="2787" to-port="0" />
		<edge from-layer="2782" from-port="0" to-layer="2783" to-port="0" />
		<edge from-layer="2783" from-port="1" to-layer="2786" to-port="0" />
		<edge from-layer="2784" from-port="0" to-layer="2785" to-port="0" />
		<edge from-layer="2785" from-port="1" to-layer="2786" to-port="1" />
		<edge from-layer="2786" from-port="2" to-layer="2787" to-port="1" />
		<edge from-layer="2787" from-port="2" to-layer="2790" to-port="0" />
		<edge from-layer="2788" from-port="0" to-layer="2789" to-port="0" />
		<edge from-layer="2789" from-port="1" to-layer="2790" to-port="1" />
		<edge from-layer="2790" from-port="2" to-layer="2791" to-port="0" />
		<edge from-layer="2791" from-port="1" to-layer="2800" to-port="0" />
		<edge from-layer="2792" from-port="0" to-layer="2793" to-port="0" />
		<edge from-layer="2793" from-port="1" to-layer="2800" to-port="1" />
		<edge from-layer="2794" from-port="0" to-layer="2795" to-port="0" />
		<edge from-layer="2795" from-port="1" to-layer="2800" to-port="2" />
		<edge from-layer="2796" from-port="0" to-layer="2797" to-port="0" />
		<edge from-layer="2797" from-port="1" to-layer="2800" to-port="3" />
		<edge from-layer="2798" from-port="0" to-layer="2799" to-port="0" />
		<edge from-layer="2799" from-port="1" to-layer="2800" to-port="4" />
		<edge from-layer="2800" from-port="5" to-layer="2801" to-port="0" />
		<edge from-layer="2801" from-port="2" to-layer="2810" to-port="0" />
		<edge from-layer="2802" from-port="0" to-layer="2803" to-port="0" />
		<edge from-layer="2803" from-port="1" to-layer="2810" to-port="1" />
		<edge from-layer="2804" from-port="0" to-layer="2805" to-port="0" />
		<edge from-layer="2805" from-port="1" to-layer="2810" to-port="2" />
		<edge from-layer="2806" from-port="0" to-layer="2807" to-port="0" />
		<edge from-layer="2807" from-port="1" to-layer="2810" to-port="3" />
		<edge from-layer="2808" from-port="0" to-layer="2809" to-port="0" />
		<edge from-layer="2809" from-port="1" to-layer="2810" to-port="4" />
		<edge from-layer="2810" from-port="5" to-layer="2816" to-port="0" />
		<edge from-layer="2811" from-port="0" to-layer="2812" to-port="0" />
		<edge from-layer="2812" from-port="1" to-layer="2815" to-port="0" />
		<edge from-layer="2813" from-port="0" to-layer="2814" to-port="0" />
		<edge from-layer="2814" from-port="1" to-layer="2815" to-port="1" />
		<edge from-layer="2815" from-port="2" to-layer="2816" to-port="1" />
		<edge from-layer="2816" from-port="2" to-layer="2819" to-port="0" />
		<edge from-layer="2817" from-port="0" to-layer="2818" to-port="0" />
		<edge from-layer="2818" from-port="1" to-layer="2819" to-port="1" />
		<edge from-layer="2819" from-port="2" to-layer="2828" to-port="0" />
		<edge from-layer="2820" from-port="0" to-layer="2821" to-port="0" />
		<edge from-layer="2821" from-port="1" to-layer="2828" to-port="1" />
		<edge from-layer="2822" from-port="0" to-layer="2823" to-port="0" />
		<edge from-layer="2823" from-port="1" to-layer="2828" to-port="2" />
		<edge from-layer="2824" from-port="0" to-layer="2825" to-port="0" />
		<edge from-layer="2825" from-port="1" to-layer="2828" to-port="3" />
		<edge from-layer="2826" from-port="0" to-layer="2827" to-port="0" />
		<edge from-layer="2827" from-port="1" to-layer="2828" to-port="4" />
		<edge from-layer="2828" from-port="5" to-layer="2829" to-port="0" />
		<edge from-layer="2829" from-port="2" to-layer="2838" to-port="0" />
		<edge from-layer="2830" from-port="0" to-layer="2831" to-port="0" />
		<edge from-layer="2831" from-port="1" to-layer="2838" to-port="1" />
		<edge from-layer="2832" from-port="0" to-layer="2833" to-port="0" />
		<edge from-layer="2833" from-port="1" to-layer="2838" to-port="2" />
		<edge from-layer="2834" from-port="0" to-layer="2835" to-port="0" />
		<edge from-layer="2835" from-port="1" to-layer="2838" to-port="3" />
		<edge from-layer="2836" from-port="0" to-layer="2837" to-port="0" />
		<edge from-layer="2837" from-port="1" to-layer="2838" to-port="4" />
		<edge from-layer="2838" from-port="5" to-layer="2961" to-port="1" />
		<edge from-layer="2838" from-port="5" to-layer="2844" to-port="0" />
		<edge from-layer="2839" from-port="0" to-layer="2840" to-port="0" />
		<edge from-layer="2840" from-port="1" to-layer="2843" to-port="0" />
		<edge from-layer="2841" from-port="0" to-layer="2842" to-port="0" />
		<edge from-layer="2842" from-port="1" to-layer="2843" to-port="1" />
		<edge from-layer="2843" from-port="2" to-layer="2844" to-port="1" />
		<edge from-layer="2844" from-port="2" to-layer="2847" to-port="0" />
		<edge from-layer="2845" from-port="0" to-layer="2846" to-port="0" />
		<edge from-layer="2846" from-port="1" to-layer="2847" to-port="1" />
		<edge from-layer="2847" from-port="2" to-layer="2848" to-port="0" />
		<edge from-layer="2848" from-port="1" to-layer="2853" to-port="0" />
		<edge from-layer="2849" from-port="0" to-layer="2850" to-port="0" />
		<edge from-layer="2850" from-port="1" to-layer="2853" to-port="1" />
		<edge from-layer="2850" from-port="1" to-layer="2853" to-port="3" />
		<edge from-layer="2851" from-port="0" to-layer="2852" to-port="0" />
		<edge from-layer="2852" from-port="1" to-layer="2853" to-port="2" />
		<edge from-layer="2852" from-port="1" to-layer="2853" to-port="4" />
		<edge from-layer="2853" from-port="5" to-layer="2870" to-port="0" />
		<edge from-layer="2854" from-port="0" to-layer="2855" to-port="0" />
		<edge from-layer="2855" from-port="1" to-layer="2858" to-port="0" />
		<edge from-layer="2856" from-port="0" to-layer="2857" to-port="0" />
		<edge from-layer="2857" from-port="1" to-layer="2858" to-port="1" />
		<edge from-layer="2858" from-port="2" to-layer="2861" to-port="0" />
		<edge from-layer="2858" from-port="2" to-layer="2863" to-port="0" />
		<edge from-layer="2859" from-port="0" to-layer="2860" to-port="0" />
		<edge from-layer="2860" from-port="1" to-layer="2861" to-port="1" />
		<edge from-layer="2861" from-port="2" to-layer="2869" to-port="0" />
		<edge from-layer="2862" from-port="0" to-layer="2867" to-port="1" />
		<edge from-layer="2862" from-port="0" to-layer="2868" to-port="0" />
		<edge from-layer="2863" from-port="1" to-layer="2866" to-port="0" />
		<edge from-layer="2864" from-port="0" to-layer="2866" to-port="1" />
		<edge from-layer="2865" from-port="0" to-layer="2866" to-port="2" />
		<edge from-layer="2866" from-port="3" to-layer="2867" to-port="0" />
		<edge from-layer="2866" from-port="4" to-layer="2868" to-port="2" />
		<edge from-layer="2867" from-port="2" to-layer="2868" to-port="1" />
		<edge from-layer="2868" from-port="3" to-layer="2869" to-port="1" />
		<edge from-layer="2869" from-port="2" to-layer="2870" to-port="1" />
		<edge from-layer="2870" from-port="2" to-layer="2873" to-port="0" />
		<edge from-layer="2871" from-port="0" to-layer="2872" to-port="0" />
		<edge from-layer="2872" from-port="1" to-layer="2873" to-port="1" />
		<edge from-layer="2873" from-port="2" to-layer="2874" to-port="0" />
		<edge from-layer="2874" from-port="1" to-layer="2883" to-port="0" />
		<edge from-layer="2875" from-port="0" to-layer="2876" to-port="0" />
		<edge from-layer="2876" from-port="1" to-layer="2883" to-port="1" />
		<edge from-layer="2877" from-port="0" to-layer="2878" to-port="0" />
		<edge from-layer="2878" from-port="1" to-layer="2883" to-port="2" />
		<edge from-layer="2879" from-port="0" to-layer="2880" to-port="0" />
		<edge from-layer="2880" from-port="1" to-layer="2883" to-port="3" />
		<edge from-layer="2881" from-port="0" to-layer="2882" to-port="0" />
		<edge from-layer="2882" from-port="1" to-layer="2883" to-port="4" />
		<edge from-layer="2883" from-port="5" to-layer="2885" to-port="0" />
		<edge from-layer="2883" from-port="5" to-layer="2933" to-port="1" />
		<edge from-layer="2884" from-port="0" to-layer="2885" to-port="1" />
		<edge from-layer="2885" from-port="2" to-layer="2894" to-port="0" />
		<edge from-layer="2886" from-port="0" to-layer="2887" to-port="0" />
		<edge from-layer="2887" from-port="1" to-layer="2894" to-port="1" />
		<edge from-layer="2888" from-port="0" to-layer="2889" to-port="0" />
		<edge from-layer="2889" from-port="1" to-layer="2894" to-port="2" />
		<edge from-layer="2890" from-port="0" to-layer="2891" to-port="0" />
		<edge from-layer="2891" from-port="1" to-layer="2894" to-port="3" />
		<edge from-layer="2892" from-port="0" to-layer="2893" to-port="0" />
		<edge from-layer="2893" from-port="1" to-layer="2894" to-port="4" />
		<edge from-layer="2894" from-port="5" to-layer="2900" to-port="0" />
		<edge from-layer="2895" from-port="0" to-layer="2896" to-port="0" />
		<edge from-layer="2896" from-port="1" to-layer="2899" to-port="0" />
		<edge from-layer="2897" from-port="0" to-layer="2898" to-port="0" />
		<edge from-layer="2898" from-port="1" to-layer="2899" to-port="1" />
		<edge from-layer="2899" from-port="2" to-layer="2900" to-port="1" />
		<edge from-layer="2900" from-port="2" to-layer="2903" to-port="0" />
		<edge from-layer="2901" from-port="0" to-layer="2902" to-port="0" />
		<edge from-layer="2902" from-port="1" to-layer="2903" to-port="1" />
		<edge from-layer="2903" from-port="2" to-layer="2904" to-port="0" />
		<edge from-layer="2904" from-port="1" to-layer="2913" to-port="0" />
		<edge from-layer="2905" from-port="0" to-layer="2906" to-port="0" />
		<edge from-layer="2906" from-port="1" to-layer="2913" to-port="1" />
		<edge from-layer="2907" from-port="0" to-layer="2908" to-port="0" />
		<edge from-layer="2908" from-port="1" to-layer="2913" to-port="2" />
		<edge from-layer="2909" from-port="0" to-layer="2910" to-port="0" />
		<edge from-layer="2910" from-port="1" to-layer="2913" to-port="3" />
		<edge from-layer="2911" from-port="0" to-layer="2912" to-port="0" />
		<edge from-layer="2912" from-port="1" to-layer="2913" to-port="4" />
		<edge from-layer="2913" from-port="5" to-layer="2919" to-port="0" />
		<edge from-layer="2914" from-port="0" to-layer="2915" to-port="0" />
		<edge from-layer="2915" from-port="1" to-layer="2918" to-port="0" />
		<edge from-layer="2916" from-port="0" to-layer="2917" to-port="0" />
		<edge from-layer="2917" from-port="1" to-layer="2918" to-port="1" />
		<edge from-layer="2918" from-port="2" to-layer="2919" to-port="1" />
		<edge from-layer="2919" from-port="2" to-layer="2922" to-port="0" />
		<edge from-layer="2920" from-port="0" to-layer="2921" to-port="0" />
		<edge from-layer="2921" from-port="1" to-layer="2922" to-port="1" />
		<edge from-layer="2922" from-port="2" to-layer="2923" to-port="0" />
		<edge from-layer="2923" from-port="1" to-layer="2932" to-port="0" />
		<edge from-layer="2924" from-port="0" to-layer="2925" to-port="0" />
		<edge from-layer="2925" from-port="1" to-layer="2932" to-port="1" />
		<edge from-layer="2926" from-port="0" to-layer="2927" to-port="0" />
		<edge from-layer="2927" from-port="1" to-layer="2932" to-port="2" />
		<edge from-layer="2928" from-port="0" to-layer="2929" to-port="0" />
		<edge from-layer="2929" from-port="1" to-layer="2932" to-port="3" />
		<edge from-layer="2930" from-port="0" to-layer="2931" to-port="0" />
		<edge from-layer="2931" from-port="1" to-layer="2932" to-port="4" />
		<edge from-layer="2932" from-port="5" to-layer="2933" to-port="0" />
		<edge from-layer="2933" from-port="2" to-layer="2942" to-port="0" />
		<edge from-layer="2934" from-port="0" to-layer="2935" to-port="0" />
		<edge from-layer="2935" from-port="1" to-layer="2942" to-port="1" />
		<edge from-layer="2936" from-port="0" to-layer="2937" to-port="0" />
		<edge from-layer="2937" from-port="1" to-layer="2942" to-port="2" />
		<edge from-layer="2938" from-port="0" to-layer="2939" to-port="0" />
		<edge from-layer="2939" from-port="1" to-layer="2942" to-port="3" />
		<edge from-layer="2940" from-port="0" to-layer="2941" to-port="0" />
		<edge from-layer="2941" from-port="1" to-layer="2942" to-port="4" />
		<edge from-layer="2942" from-port="5" to-layer="2948" to-port="0" />
		<edge from-layer="2943" from-port="0" to-layer="2944" to-port="0" />
		<edge from-layer="2944" from-port="1" to-layer="2947" to-port="0" />
		<edge from-layer="2945" from-port="0" to-layer="2946" to-port="0" />
		<edge from-layer="2946" from-port="1" to-layer="2947" to-port="1" />
		<edge from-layer="2947" from-port="2" to-layer="2948" to-port="1" />
		<edge from-layer="2948" from-port="2" to-layer="2951" to-port="0" />
		<edge from-layer="2949" from-port="0" to-layer="2950" to-port="0" />
		<edge from-layer="2950" from-port="1" to-layer="2951" to-port="1" />
		<edge from-layer="2951" from-port="2" to-layer="2960" to-port="0" />
		<edge from-layer="2952" from-port="0" to-layer="2953" to-port="0" />
		<edge from-layer="2953" from-port="1" to-layer="2960" to-port="1" />
		<edge from-layer="2954" from-port="0" to-layer="2955" to-port="0" />
		<edge from-layer="2955" from-port="1" to-layer="2960" to-port="2" />
		<edge from-layer="2956" from-port="0" to-layer="2957" to-port="0" />
		<edge from-layer="2957" from-port="1" to-layer="2960" to-port="3" />
		<edge from-layer="2958" from-port="0" to-layer="2959" to-port="0" />
		<edge from-layer="2959" from-port="1" to-layer="2960" to-port="4" />
		<edge from-layer="2960" from-port="5" to-layer="2961" to-port="0" />
		<edge from-layer="2961" from-port="2" to-layer="2970" to-port="0" />
		<edge from-layer="2962" from-port="0" to-layer="2963" to-port="0" />
		<edge from-layer="2963" from-port="1" to-layer="2970" to-port="1" />
		<edge from-layer="2964" from-port="0" to-layer="2965" to-port="0" />
		<edge from-layer="2965" from-port="1" to-layer="2970" to-port="2" />
		<edge from-layer="2966" from-port="0" to-layer="2967" to-port="0" />
		<edge from-layer="2967" from-port="1" to-layer="2970" to-port="3" />
		<edge from-layer="2968" from-port="0" to-layer="2969" to-port="0" />
		<edge from-layer="2969" from-port="1" to-layer="2970" to-port="4" />
		<edge from-layer="2970" from-port="5" to-layer="2976" to-port="0" />
		<edge from-layer="2970" from-port="5" to-layer="3093" to-port="1" />
		<edge from-layer="2971" from-port="0" to-layer="2972" to-port="0" />
		<edge from-layer="2972" from-port="1" to-layer="2975" to-port="0" />
		<edge from-layer="2973" from-port="0" to-layer="2974" to-port="0" />
		<edge from-layer="2974" from-port="1" to-layer="2975" to-port="1" />
		<edge from-layer="2975" from-port="2" to-layer="2976" to-port="1" />
		<edge from-layer="2976" from-port="2" to-layer="2979" to-port="0" />
		<edge from-layer="2977" from-port="0" to-layer="2978" to-port="0" />
		<edge from-layer="2978" from-port="1" to-layer="2979" to-port="1" />
		<edge from-layer="2979" from-port="2" to-layer="2980" to-port="0" />
		<edge from-layer="2980" from-port="1" to-layer="2985" to-port="0" />
		<edge from-layer="2981" from-port="0" to-layer="2982" to-port="0" />
		<edge from-layer="2982" from-port="1" to-layer="2985" to-port="3" />
		<edge from-layer="2982" from-port="1" to-layer="2985" to-port="1" />
		<edge from-layer="2983" from-port="0" to-layer="2984" to-port="0" />
		<edge from-layer="2984" from-port="1" to-layer="2985" to-port="2" />
		<edge from-layer="2984" from-port="1" to-layer="2985" to-port="4" />
		<edge from-layer="2985" from-port="5" to-layer="3002" to-port="0" />
		<edge from-layer="2986" from-port="0" to-layer="2987" to-port="0" />
		<edge from-layer="2987" from-port="1" to-layer="2990" to-port="0" />
		<edge from-layer="2988" from-port="0" to-layer="2989" to-port="0" />
		<edge from-layer="2989" from-port="1" to-layer="2990" to-port="1" />
		<edge from-layer="2990" from-port="2" to-layer="2993" to-port="0" />
		<edge from-layer="2990" from-port="2" to-layer="2995" to-port="0" />
		<edge from-layer="2991" from-port="0" to-layer="2992" to-port="0" />
		<edge from-layer="2992" from-port="1" to-layer="2993" to-port="1" />
		<edge from-layer="2993" from-port="2" to-layer="3001" to-port="0" />
		<edge from-layer="2994" from-port="0" to-layer="3000" to-port="0" />
		<edge from-layer="2994" from-port="0" to-layer="2999" to-port="1" />
		<edge from-layer="2995" from-port="1" to-layer="2998" to-port="0" />
		<edge from-layer="2996" from-port="0" to-layer="2998" to-port="1" />
		<edge from-layer="2997" from-port="0" to-layer="2998" to-port="2" />
		<edge from-layer="2998" from-port="4" to-layer="3000" to-port="2" />
		<edge from-layer="2998" from-port="3" to-layer="2999" to-port="0" />
		<edge from-layer="2999" from-port="2" to-layer="3000" to-port="1" />
		<edge from-layer="3000" from-port="3" to-layer="3001" to-port="1" />
		<edge from-layer="3001" from-port="2" to-layer="3002" to-port="1" />
		<edge from-layer="3002" from-port="2" to-layer="3005" to-port="0" />
		<edge from-layer="3003" from-port="0" to-layer="3004" to-port="0" />
		<edge from-layer="3004" from-port="1" to-layer="3005" to-port="1" />
		<edge from-layer="3005" from-port="2" to-layer="3006" to-port="0" />
		<edge from-layer="3006" from-port="1" to-layer="3015" to-port="0" />
		<edge from-layer="3007" from-port="0" to-layer="3008" to-port="0" />
		<edge from-layer="3008" from-port="1" to-layer="3015" to-port="1" />
		<edge from-layer="3009" from-port="0" to-layer="3010" to-port="0" />
		<edge from-layer="3010" from-port="1" to-layer="3015" to-port="2" />
		<edge from-layer="3011" from-port="0" to-layer="3012" to-port="0" />
		<edge from-layer="3012" from-port="1" to-layer="3015" to-port="3" />
		<edge from-layer="3013" from-port="0" to-layer="3014" to-port="0" />
		<edge from-layer="3014" from-port="1" to-layer="3015" to-port="4" />
		<edge from-layer="3015" from-port="5" to-layer="3065" to-port="1" />
		<edge from-layer="3015" from-port="5" to-layer="3017" to-port="0" />
		<edge from-layer="3016" from-port="0" to-layer="3017" to-port="1" />
		<edge from-layer="3017" from-port="2" to-layer="3026" to-port="0" />
		<edge from-layer="3018" from-port="0" to-layer="3019" to-port="0" />
		<edge from-layer="3019" from-port="1" to-layer="3026" to-port="1" />
		<edge from-layer="3020" from-port="0" to-layer="3021" to-port="0" />
		<edge from-layer="3021" from-port="1" to-layer="3026" to-port="2" />
		<edge from-layer="3022" from-port="0" to-layer="3023" to-port="0" />
		<edge from-layer="3023" from-port="1" to-layer="3026" to-port="3" />
		<edge from-layer="3024" from-port="0" to-layer="3025" to-port="0" />
		<edge from-layer="3025" from-port="1" to-layer="3026" to-port="4" />
		<edge from-layer="3026" from-port="5" to-layer="3032" to-port="0" />
		<edge from-layer="3027" from-port="0" to-layer="3028" to-port="0" />
		<edge from-layer="3028" from-port="1" to-layer="3031" to-port="0" />
		<edge from-layer="3029" from-port="0" to-layer="3030" to-port="0" />
		<edge from-layer="3030" from-port="1" to-layer="3031" to-port="1" />
		<edge from-layer="3031" from-port="2" to-layer="3032" to-port="1" />
		<edge from-layer="3032" from-port="2" to-layer="3035" to-port="0" />
		<edge from-layer="3033" from-port="0" to-layer="3034" to-port="0" />
		<edge from-layer="3034" from-port="1" to-layer="3035" to-port="1" />
		<edge from-layer="3035" from-port="2" to-layer="3036" to-port="0" />
		<edge from-layer="3036" from-port="1" to-layer="3045" to-port="0" />
		<edge from-layer="3037" from-port="0" to-layer="3038" to-port="0" />
		<edge from-layer="3038" from-port="1" to-layer="3045" to-port="1" />
		<edge from-layer="3039" from-port="0" to-layer="3040" to-port="0" />
		<edge from-layer="3040" from-port="1" to-layer="3045" to-port="2" />
		<edge from-layer="3041" from-port="0" to-layer="3042" to-port="0" />
		<edge from-layer="3042" from-port="1" to-layer="3045" to-port="3" />
		<edge from-layer="3043" from-port="0" to-layer="3044" to-port="0" />
		<edge from-layer="3044" from-port="1" to-layer="3045" to-port="4" />
		<edge from-layer="3045" from-port="5" to-layer="3051" to-port="0" />
		<edge from-layer="3046" from-port="0" to-layer="3047" to-port="0" />
		<edge from-layer="3047" from-port="1" to-layer="3050" to-port="0" />
		<edge from-layer="3048" from-port="0" to-layer="3049" to-port="0" />
		<edge from-layer="3049" from-port="1" to-layer="3050" to-port="1" />
		<edge from-layer="3050" from-port="2" to-layer="3051" to-port="1" />
		<edge from-layer="3051" from-port="2" to-layer="3054" to-port="0" />
		<edge from-layer="3052" from-port="0" to-layer="3053" to-port="0" />
		<edge from-layer="3053" from-port="1" to-layer="3054" to-port="1" />
		<edge from-layer="3054" from-port="2" to-layer="3055" to-port="0" />
		<edge from-layer="3055" from-port="1" to-layer="3064" to-port="0" />
		<edge from-layer="3056" from-port="0" to-layer="3057" to-port="0" />
		<edge from-layer="3057" from-port="1" to-layer="3064" to-port="1" />
		<edge from-layer="3058" from-port="0" to-layer="3059" to-port="0" />
		<edge from-layer="3059" from-port="1" to-layer="3064" to-port="2" />
		<edge from-layer="3060" from-port="0" to-layer="3061" to-port="0" />
		<edge from-layer="3061" from-port="1" to-layer="3064" to-port="3" />
		<edge from-layer="3062" from-port="0" to-layer="3063" to-port="0" />
		<edge from-layer="3063" from-port="1" to-layer="3064" to-port="4" />
		<edge from-layer="3064" from-port="5" to-layer="3065" to-port="0" />
		<edge from-layer="3065" from-port="2" to-layer="3074" to-port="0" />
		<edge from-layer="3066" from-port="0" to-layer="3067" to-port="0" />
		<edge from-layer="3067" from-port="1" to-layer="3074" to-port="1" />
		<edge from-layer="3068" from-port="0" to-layer="3069" to-port="0" />
		<edge from-layer="3069" from-port="1" to-layer="3074" to-port="2" />
		<edge from-layer="3070" from-port="0" to-layer="3071" to-port="0" />
		<edge from-layer="3071" from-port="1" to-layer="3074" to-port="3" />
		<edge from-layer="3072" from-port="0" to-layer="3073" to-port="0" />
		<edge from-layer="3073" from-port="1" to-layer="3074" to-port="4" />
		<edge from-layer="3074" from-port="5" to-layer="3080" to-port="0" />
		<edge from-layer="3075" from-port="0" to-layer="3076" to-port="0" />
		<edge from-layer="3076" from-port="1" to-layer="3079" to-port="0" />
		<edge from-layer="3077" from-port="0" to-layer="3078" to-port="0" />
		<edge from-layer="3078" from-port="1" to-layer="3079" to-port="1" />
		<edge from-layer="3079" from-port="2" to-layer="3080" to-port="1" />
		<edge from-layer="3080" from-port="2" to-layer="3083" to-port="0" />
		<edge from-layer="3081" from-port="0" to-layer="3082" to-port="0" />
		<edge from-layer="3082" from-port="1" to-layer="3083" to-port="1" />
		<edge from-layer="3083" from-port="2" to-layer="3092" to-port="0" />
		<edge from-layer="3084" from-port="0" to-layer="3085" to-port="0" />
		<edge from-layer="3085" from-port="1" to-layer="3092" to-port="1" />
		<edge from-layer="3086" from-port="0" to-layer="3087" to-port="0" />
		<edge from-layer="3087" from-port="1" to-layer="3092" to-port="2" />
		<edge from-layer="3088" from-port="0" to-layer="3089" to-port="0" />
		<edge from-layer="3089" from-port="1" to-layer="3092" to-port="3" />
		<edge from-layer="3090" from-port="0" to-layer="3091" to-port="0" />
		<edge from-layer="3091" from-port="1" to-layer="3092" to-port="4" />
		<edge from-layer="3092" from-port="5" to-layer="3093" to-port="0" />
		<edge from-layer="3093" from-port="2" to-layer="3102" to-port="0" />
		<edge from-layer="3094" from-port="0" to-layer="3095" to-port="0" />
		<edge from-layer="3095" from-port="1" to-layer="3102" to-port="1" />
		<edge from-layer="3096" from-port="0" to-layer="3097" to-port="0" />
		<edge from-layer="3097" from-port="1" to-layer="3102" to-port="2" />
		<edge from-layer="3098" from-port="0" to-layer="3099" to-port="0" />
		<edge from-layer="3099" from-port="1" to-layer="3102" to-port="3" />
		<edge from-layer="3100" from-port="0" to-layer="3101" to-port="0" />
		<edge from-layer="3101" from-port="1" to-layer="3102" to-port="4" />
		<edge from-layer="3102" from-port="5" to-layer="3108" to-port="0" />
		<edge from-layer="3103" from-port="0" to-layer="3104" to-port="0" />
		<edge from-layer="3104" from-port="1" to-layer="3107" to-port="0" />
		<edge from-layer="3105" from-port="0" to-layer="3106" to-port="0" />
		<edge from-layer="3106" from-port="1" to-layer="3107" to-port="1" />
		<edge from-layer="3107" from-port="2" to-layer="3108" to-port="1" />
		<edge from-layer="3108" from-port="2" to-layer="3111" to-port="0" />
		<edge from-layer="3109" from-port="0" to-layer="3110" to-port="0" />
		<edge from-layer="3110" from-port="1" to-layer="3111" to-port="1" />
		<edge from-layer="3111" from-port="2" to-layer="3112" to-port="0" />
		<edge from-layer="3112" from-port="1" to-layer="3117" to-port="0" />
		<edge from-layer="3113" from-port="0" to-layer="3114" to-port="0" />
		<edge from-layer="3114" from-port="1" to-layer="3117" to-port="1" />
		<edge from-layer="3114" from-port="1" to-layer="3117" to-port="3" />
		<edge from-layer="3115" from-port="0" to-layer="3116" to-port="0" />
		<edge from-layer="3116" from-port="1" to-layer="3117" to-port="2" />
		<edge from-layer="3116" from-port="1" to-layer="3117" to-port="4" />
		<edge from-layer="3117" from-port="5" to-layer="3134" to-port="0" />
		<edge from-layer="3118" from-port="0" to-layer="3119" to-port="0" />
		<edge from-layer="3119" from-port="1" to-layer="3122" to-port="0" />
		<edge from-layer="3120" from-port="0" to-layer="3121" to-port="0" />
		<edge from-layer="3121" from-port="1" to-layer="3122" to-port="1" />
		<edge from-layer="3122" from-port="2" to-layer="3125" to-port="0" />
		<edge from-layer="3122" from-port="2" to-layer="3127" to-port="0" />
		<edge from-layer="3123" from-port="0" to-layer="3124" to-port="0" />
		<edge from-layer="3124" from-port="1" to-layer="3125" to-port="1" />
		<edge from-layer="3125" from-port="2" to-layer="3133" to-port="0" />
		<edge from-layer="3126" from-port="0" to-layer="3131" to-port="1" />
		<edge from-layer="3126" from-port="0" to-layer="3132" to-port="0" />
		<edge from-layer="3127" from-port="1" to-layer="3130" to-port="0" />
		<edge from-layer="3128" from-port="0" to-layer="3130" to-port="1" />
		<edge from-layer="3129" from-port="0" to-layer="3130" to-port="2" />
		<edge from-layer="3130" from-port="3" to-layer="3131" to-port="0" />
		<edge from-layer="3130" from-port="4" to-layer="3132" to-port="2" />
		<edge from-layer="3131" from-port="2" to-layer="3132" to-port="1" />
		<edge from-layer="3132" from-port="3" to-layer="3133" to-port="1" />
		<edge from-layer="3133" from-port="2" to-layer="3134" to-port="1" />
		<edge from-layer="3134" from-port="2" to-layer="3137" to-port="0" />
		<edge from-layer="3135" from-port="0" to-layer="3136" to-port="0" />
		<edge from-layer="3136" from-port="1" to-layer="3137" to-port="1" />
		<edge from-layer="3137" from-port="2" to-layer="3138" to-port="0" />
		<edge from-layer="3138" from-port="1" to-layer="3147" to-port="0" />
		<edge from-layer="3139" from-port="0" to-layer="3140" to-port="0" />
		<edge from-layer="3140" from-port="1" to-layer="3147" to-port="1" />
		<edge from-layer="3141" from-port="0" to-layer="3142" to-port="0" />
		<edge from-layer="3142" from-port="1" to-layer="3147" to-port="2" />
		<edge from-layer="3143" from-port="0" to-layer="3144" to-port="0" />
		<edge from-layer="3144" from-port="1" to-layer="3147" to-port="3" />
		<edge from-layer="3145" from-port="0" to-layer="3146" to-port="0" />
		<edge from-layer="3146" from-port="1" to-layer="3147" to-port="4" />
		<edge from-layer="3147" from-port="5" to-layer="3149" to-port="0" />
		<edge from-layer="3147" from-port="5" to-layer="3197" to-port="1" />
		<edge from-layer="3148" from-port="0" to-layer="3149" to-port="1" />
		<edge from-layer="3149" from-port="2" to-layer="3158" to-port="0" />
		<edge from-layer="3150" from-port="0" to-layer="3151" to-port="0" />
		<edge from-layer="3151" from-port="1" to-layer="3158" to-port="1" />
		<edge from-layer="3152" from-port="0" to-layer="3153" to-port="0" />
		<edge from-layer="3153" from-port="1" to-layer="3158" to-port="2" />
		<edge from-layer="3154" from-port="0" to-layer="3155" to-port="0" />
		<edge from-layer="3155" from-port="1" to-layer="3158" to-port="3" />
		<edge from-layer="3156" from-port="0" to-layer="3157" to-port="0" />
		<edge from-layer="3157" from-port="1" to-layer="3158" to-port="4" />
		<edge from-layer="3158" from-port="5" to-layer="3164" to-port="0" />
		<edge from-layer="3159" from-port="0" to-layer="3160" to-port="0" />
		<edge from-layer="3160" from-port="1" to-layer="3163" to-port="0" />
		<edge from-layer="3161" from-port="0" to-layer="3162" to-port="0" />
		<edge from-layer="3162" from-port="1" to-layer="3163" to-port="1" />
		<edge from-layer="3163" from-port="2" to-layer="3164" to-port="1" />
		<edge from-layer="3164" from-port="2" to-layer="3167" to-port="0" />
		<edge from-layer="3165" from-port="0" to-layer="3166" to-port="0" />
		<edge from-layer="3166" from-port="1" to-layer="3167" to-port="1" />
		<edge from-layer="3167" from-port="2" to-layer="3168" to-port="0" />
		<edge from-layer="3168" from-port="1" to-layer="3177" to-port="0" />
		<edge from-layer="3169" from-port="0" to-layer="3170" to-port="0" />
		<edge from-layer="3170" from-port="1" to-layer="3177" to-port="1" />
		<edge from-layer="3171" from-port="0" to-layer="3172" to-port="0" />
		<edge from-layer="3172" from-port="1" to-layer="3177" to-port="2" />
		<edge from-layer="3173" from-port="0" to-layer="3174" to-port="0" />
		<edge from-layer="3174" from-port="1" to-layer="3177" to-port="3" />
		<edge from-layer="3175" from-port="0" to-layer="3176" to-port="0" />
		<edge from-layer="3176" from-port="1" to-layer="3177" to-port="4" />
		<edge from-layer="3177" from-port="5" to-layer="3183" to-port="0" />
		<edge from-layer="3178" from-port="0" to-layer="3179" to-port="0" />
		<edge from-layer="3179" from-port="1" to-layer="3182" to-port="0" />
		<edge from-layer="3180" from-port="0" to-layer="3181" to-port="0" />
		<edge from-layer="3181" from-port="1" to-layer="3182" to-port="1" />
		<edge from-layer="3182" from-port="2" to-layer="3183" to-port="1" />
		<edge from-layer="3183" from-port="2" to-layer="3186" to-port="0" />
		<edge from-layer="3184" from-port="0" to-layer="3185" to-port="0" />
		<edge from-layer="3185" from-port="1" to-layer="3186" to-port="1" />
		<edge from-layer="3186" from-port="2" to-layer="3187" to-port="0" />
		<edge from-layer="3187" from-port="1" to-layer="3196" to-port="0" />
		<edge from-layer="3188" from-port="0" to-layer="3189" to-port="0" />
		<edge from-layer="3189" from-port="1" to-layer="3196" to-port="1" />
		<edge from-layer="3190" from-port="0" to-layer="3191" to-port="0" />
		<edge from-layer="3191" from-port="1" to-layer="3196" to-port="2" />
		<edge from-layer="3192" from-port="0" to-layer="3193" to-port="0" />
		<edge from-layer="3193" from-port="1" to-layer="3196" to-port="3" />
		<edge from-layer="3194" from-port="0" to-layer="3195" to-port="0" />
		<edge from-layer="3195" from-port="1" to-layer="3196" to-port="4" />
		<edge from-layer="3196" from-port="5" to-layer="3197" to-port="0" />
		<edge from-layer="3197" from-port="2" to-layer="3206" to-port="0" />
		<edge from-layer="3198" from-port="0" to-layer="3199" to-port="0" />
		<edge from-layer="3199" from-port="1" to-layer="3206" to-port="1" />
		<edge from-layer="3200" from-port="0" to-layer="3201" to-port="0" />
		<edge from-layer="3201" from-port="1" to-layer="3206" to-port="2" />
		<edge from-layer="3202" from-port="0" to-layer="3203" to-port="0" />
		<edge from-layer="3203" from-port="1" to-layer="3206" to-port="3" />
		<edge from-layer="3204" from-port="0" to-layer="3205" to-port="0" />
		<edge from-layer="3205" from-port="1" to-layer="3206" to-port="4" />
		<edge from-layer="3206" from-port="5" to-layer="3212" to-port="0" />
		<edge from-layer="3207" from-port="0" to-layer="3208" to-port="0" />
		<edge from-layer="3208" from-port="1" to-layer="3211" to-port="0" />
		<edge from-layer="3209" from-port="0" to-layer="3210" to-port="0" />
		<edge from-layer="3210" from-port="1" to-layer="3211" to-port="1" />
		<edge from-layer="3211" from-port="2" to-layer="3212" to-port="1" />
		<edge from-layer="3212" from-port="2" to-layer="3215" to-port="0" />
		<edge from-layer="3213" from-port="0" to-layer="3214" to-port="0" />
		<edge from-layer="3214" from-port="1" to-layer="3215" to-port="1" />
		<edge from-layer="3215" from-port="2" to-layer="3224" to-port="0" />
		<edge from-layer="3216" from-port="0" to-layer="3217" to-port="0" />
		<edge from-layer="3217" from-port="1" to-layer="3224" to-port="1" />
		<edge from-layer="3218" from-port="0" to-layer="3219" to-port="0" />
		<edge from-layer="3219" from-port="1" to-layer="3224" to-port="2" />
		<edge from-layer="3220" from-port="0" to-layer="3221" to-port="0" />
		<edge from-layer="3221" from-port="1" to-layer="3224" to-port="3" />
		<edge from-layer="3222" from-port="0" to-layer="3223" to-port="0" />
		<edge from-layer="3223" from-port="1" to-layer="3224" to-port="4" />
		<edge from-layer="3224" from-port="5" to-layer="3347" to-port="1" />
		<edge from-layer="3224" from-port="5" to-layer="3230" to-port="0" />
		<edge from-layer="3225" from-port="0" to-layer="3226" to-port="0" />
		<edge from-layer="3226" from-port="1" to-layer="3229" to-port="0" />
		<edge from-layer="3227" from-port="0" to-layer="3228" to-port="0" />
		<edge from-layer="3228" from-port="1" to-layer="3229" to-port="1" />
		<edge from-layer="3229" from-port="2" to-layer="3230" to-port="1" />
		<edge from-layer="3230" from-port="2" to-layer="3233" to-port="0" />
		<edge from-layer="3231" from-port="0" to-layer="3232" to-port="0" />
		<edge from-layer="3232" from-port="1" to-layer="3233" to-port="1" />
		<edge from-layer="3233" from-port="2" to-layer="3234" to-port="0" />
		<edge from-layer="3234" from-port="1" to-layer="3239" to-port="0" />
		<edge from-layer="3235" from-port="0" to-layer="3236" to-port="0" />
		<edge from-layer="3236" from-port="1" to-layer="3239" to-port="1" />
		<edge from-layer="3236" from-port="1" to-layer="3239" to-port="3" />
		<edge from-layer="3237" from-port="0" to-layer="3238" to-port="0" />
		<edge from-layer="3238" from-port="1" to-layer="3239" to-port="2" />
		<edge from-layer="3238" from-port="1" to-layer="3239" to-port="4" />
		<edge from-layer="3239" from-port="5" to-layer="3256" to-port="0" />
		<edge from-layer="3240" from-port="0" to-layer="3241" to-port="0" />
		<edge from-layer="3241" from-port="1" to-layer="3244" to-port="0" />
		<edge from-layer="3242" from-port="0" to-layer="3243" to-port="0" />
		<edge from-layer="3243" from-port="1" to-layer="3244" to-port="1" />
		<edge from-layer="3244" from-port="2" to-layer="3249" to-port="0" />
		<edge from-layer="3244" from-port="2" to-layer="3247" to-port="0" />
		<edge from-layer="3245" from-port="0" to-layer="3246" to-port="0" />
		<edge from-layer="3246" from-port="1" to-layer="3247" to-port="1" />
		<edge from-layer="3247" from-port="2" to-layer="3255" to-port="0" />
		<edge from-layer="3248" from-port="0" to-layer="3253" to-port="1" />
		<edge from-layer="3248" from-port="0" to-layer="3254" to-port="0" />
		<edge from-layer="3249" from-port="1" to-layer="3252" to-port="0" />
		<edge from-layer="3250" from-port="0" to-layer="3252" to-port="1" />
		<edge from-layer="3251" from-port="0" to-layer="3252" to-port="2" />
		<edge from-layer="3252" from-port="4" to-layer="3254" to-port="2" />
		<edge from-layer="3252" from-port="3" to-layer="3253" to-port="0" />
		<edge from-layer="3253" from-port="2" to-layer="3254" to-port="1" />
		<edge from-layer="3254" from-port="3" to-layer="3255" to-port="1" />
		<edge from-layer="3255" from-port="2" to-layer="3256" to-port="1" />
		<edge from-layer="3256" from-port="2" to-layer="3259" to-port="0" />
		<edge from-layer="3257" from-port="0" to-layer="3258" to-port="0" />
		<edge from-layer="3258" from-port="1" to-layer="3259" to-port="1" />
		<edge from-layer="3259" from-port="2" to-layer="3260" to-port="0" />
		<edge from-layer="3260" from-port="1" to-layer="3269" to-port="0" />
		<edge from-layer="3261" from-port="0" to-layer="3262" to-port="0" />
		<edge from-layer="3262" from-port="1" to-layer="3269" to-port="1" />
		<edge from-layer="3263" from-port="0" to-layer="3264" to-port="0" />
		<edge from-layer="3264" from-port="1" to-layer="3269" to-port="2" />
		<edge from-layer="3265" from-port="0" to-layer="3266" to-port="0" />
		<edge from-layer="3266" from-port="1" to-layer="3269" to-port="3" />
		<edge from-layer="3267" from-port="0" to-layer="3268" to-port="0" />
		<edge from-layer="3268" from-port="1" to-layer="3269" to-port="4" />
		<edge from-layer="3269" from-port="5" to-layer="3319" to-port="1" />
		<edge from-layer="3269" from-port="5" to-layer="3271" to-port="0" />
		<edge from-layer="3270" from-port="0" to-layer="3271" to-port="1" />
		<edge from-layer="3271" from-port="2" to-layer="3280" to-port="0" />
		<edge from-layer="3272" from-port="0" to-layer="3273" to-port="0" />
		<edge from-layer="3273" from-port="1" to-layer="3280" to-port="1" />
		<edge from-layer="3274" from-port="0" to-layer="3275" to-port="0" />
		<edge from-layer="3275" from-port="1" to-layer="3280" to-port="2" />
		<edge from-layer="3276" from-port="0" to-layer="3277" to-port="0" />
		<edge from-layer="3277" from-port="1" to-layer="3280" to-port="3" />
		<edge from-layer="3278" from-port="0" to-layer="3279" to-port="0" />
		<edge from-layer="3279" from-port="1" to-layer="3280" to-port="4" />
		<edge from-layer="3280" from-port="5" to-layer="3286" to-port="0" />
		<edge from-layer="3281" from-port="0" to-layer="3282" to-port="0" />
		<edge from-layer="3282" from-port="1" to-layer="3285" to-port="0" />
		<edge from-layer="3283" from-port="0" to-layer="3284" to-port="0" />
		<edge from-layer="3284" from-port="1" to-layer="3285" to-port="1" />
		<edge from-layer="3285" from-port="2" to-layer="3286" to-port="1" />
		<edge from-layer="3286" from-port="2" to-layer="3289" to-port="0" />
		<edge from-layer="3287" from-port="0" to-layer="3288" to-port="0" />
		<edge from-layer="3288" from-port="1" to-layer="3289" to-port="1" />
		<edge from-layer="3289" from-port="2" to-layer="3290" to-port="0" />
		<edge from-layer="3290" from-port="1" to-layer="3299" to-port="0" />
		<edge from-layer="3291" from-port="0" to-layer="3292" to-port="0" />
		<edge from-layer="3292" from-port="1" to-layer="3299" to-port="1" />
		<edge from-layer="3293" from-port="0" to-layer="3294" to-port="0" />
		<edge from-layer="3294" from-port="1" to-layer="3299" to-port="2" />
		<edge from-layer="3295" from-port="0" to-layer="3296" to-port="0" />
		<edge from-layer="3296" from-port="1" to-layer="3299" to-port="3" />
		<edge from-layer="3297" from-port="0" to-layer="3298" to-port="0" />
		<edge from-layer="3298" from-port="1" to-layer="3299" to-port="4" />
		<edge from-layer="3299" from-port="5" to-layer="3305" to-port="0" />
		<edge from-layer="3300" from-port="0" to-layer="3301" to-port="0" />
		<edge from-layer="3301" from-port="1" to-layer="3304" to-port="0" />
		<edge from-layer="3302" from-port="0" to-layer="3303" to-port="0" />
		<edge from-layer="3303" from-port="1" to-layer="3304" to-port="1" />
		<edge from-layer="3304" from-port="2" to-layer="3305" to-port="1" />
		<edge from-layer="3305" from-port="2" to-layer="3308" to-port="0" />
		<edge from-layer="3306" from-port="0" to-layer="3307" to-port="0" />
		<edge from-layer="3307" from-port="1" to-layer="3308" to-port="1" />
		<edge from-layer="3308" from-port="2" to-layer="3309" to-port="0" />
		<edge from-layer="3309" from-port="1" to-layer="3318" to-port="0" />
		<edge from-layer="3310" from-port="0" to-layer="3311" to-port="0" />
		<edge from-layer="3311" from-port="1" to-layer="3318" to-port="1" />
		<edge from-layer="3312" from-port="0" to-layer="3313" to-port="0" />
		<edge from-layer="3313" from-port="1" to-layer="3318" to-port="2" />
		<edge from-layer="3314" from-port="0" to-layer="3315" to-port="0" />
		<edge from-layer="3315" from-port="1" to-layer="3318" to-port="3" />
		<edge from-layer="3316" from-port="0" to-layer="3317" to-port="0" />
		<edge from-layer="3317" from-port="1" to-layer="3318" to-port="4" />
		<edge from-layer="3318" from-port="5" to-layer="3319" to-port="0" />
		<edge from-layer="3319" from-port="2" to-layer="3328" to-port="0" />
		<edge from-layer="3320" from-port="0" to-layer="3321" to-port="0" />
		<edge from-layer="3321" from-port="1" to-layer="3328" to-port="1" />
		<edge from-layer="3322" from-port="0" to-layer="3323" to-port="0" />
		<edge from-layer="3323" from-port="1" to-layer="3328" to-port="2" />
		<edge from-layer="3324" from-port="0" to-layer="3325" to-port="0" />
		<edge from-layer="3325" from-port="1" to-layer="3328" to-port="3" />
		<edge from-layer="3326" from-port="0" to-layer="3327" to-port="0" />
		<edge from-layer="3327" from-port="1" to-layer="3328" to-port="4" />
		<edge from-layer="3328" from-port="5" to-layer="3334" to-port="0" />
		<edge from-layer="3329" from-port="0" to-layer="3330" to-port="0" />
		<edge from-layer="3330" from-port="1" to-layer="3333" to-port="0" />
		<edge from-layer="3331" from-port="0" to-layer="3332" to-port="0" />
		<edge from-layer="3332" from-port="1" to-layer="3333" to-port="1" />
		<edge from-layer="3333" from-port="2" to-layer="3334" to-port="1" />
		<edge from-layer="3334" from-port="2" to-layer="3337" to-port="0" />
		<edge from-layer="3335" from-port="0" to-layer="3336" to-port="0" />
		<edge from-layer="3336" from-port="1" to-layer="3337" to-port="1" />
		<edge from-layer="3337" from-port="2" to-layer="3346" to-port="0" />
		<edge from-layer="3338" from-port="0" to-layer="3339" to-port="0" />
		<edge from-layer="3339" from-port="1" to-layer="3346" to-port="1" />
		<edge from-layer="3340" from-port="0" to-layer="3341" to-port="0" />
		<edge from-layer="3341" from-port="1" to-layer="3346" to-port="2" />
		<edge from-layer="3342" from-port="0" to-layer="3343" to-port="0" />
		<edge from-layer="3343" from-port="1" to-layer="3346" to-port="3" />
		<edge from-layer="3344" from-port="0" to-layer="3345" to-port="0" />
		<edge from-layer="3345" from-port="1" to-layer="3346" to-port="4" />
		<edge from-layer="3346" from-port="5" to-layer="3347" to-port="0" />
		<edge from-layer="3347" from-port="2" to-layer="3356" to-port="0" />
		<edge from-layer="3348" from-port="0" to-layer="3349" to-port="0" />
		<edge from-layer="3349" from-port="1" to-layer="3356" to-port="1" />
		<edge from-layer="3350" from-port="0" to-layer="3351" to-port="0" />
		<edge from-layer="3351" from-port="1" to-layer="3356" to-port="2" />
		<edge from-layer="3352" from-port="0" to-layer="3353" to-port="0" />
		<edge from-layer="3353" from-port="1" to-layer="3356" to-port="3" />
		<edge from-layer="3354" from-port="0" to-layer="3355" to-port="0" />
		<edge from-layer="3355" from-port="1" to-layer="3356" to-port="4" />
		<edge from-layer="3356" from-port="5" to-layer="3362" to-port="0" />
		<edge from-layer="3357" from-port="0" to-layer="3358" to-port="0" />
		<edge from-layer="3358" from-port="1" to-layer="3361" to-port="0" />
		<edge from-layer="3359" from-port="0" to-layer="3360" to-port="0" />
		<edge from-layer="3360" from-port="1" to-layer="3361" to-port="1" />
		<edge from-layer="3361" from-port="2" to-layer="3362" to-port="1" />
		<edge from-layer="3362" from-port="2" to-layer="3365" to-port="0" />
		<edge from-layer="3363" from-port="0" to-layer="3364" to-port="0" />
		<edge from-layer="3364" from-port="1" to-layer="3365" to-port="1" />
		<edge from-layer="3365" from-port="2" to-layer="3366" to-port="0" />
		<edge from-layer="3366" from-port="1" to-layer="3375" to-port="0" />
		<edge from-layer="3367" from-port="0" to-layer="3368" to-port="0" />
		<edge from-layer="3368" from-port="1" to-layer="3375" to-port="1" />
		<edge from-layer="3369" from-port="0" to-layer="3370" to-port="0" />
		<edge from-layer="3370" from-port="1" to-layer="3375" to-port="2" />
		<edge from-layer="3371" from-port="0" to-layer="3372" to-port="0" />
		<edge from-layer="3372" from-port="1" to-layer="3375" to-port="3" />
		<edge from-layer="3373" from-port="0" to-layer="3374" to-port="0" />
		<edge from-layer="3374" from-port="1" to-layer="3375" to-port="4" />
		<edge from-layer="3375" from-port="5" to-layer="3377" to-port="0" />
		<edge from-layer="3376" from-port="0" to-layer="3377" to-port="1" />
		<edge from-layer="3377" from-port="2" to-layer="3386" to-port="0" />
		<edge from-layer="3378" from-port="0" to-layer="3379" to-port="0" />
		<edge from-layer="3379" from-port="1" to-layer="3386" to-port="1" />
		<edge from-layer="3380" from-port="0" to-layer="3381" to-port="0" />
		<edge from-layer="3381" from-port="1" to-layer="3386" to-port="2" />
		<edge from-layer="3382" from-port="0" to-layer="3383" to-port="0" />
		<edge from-layer="3383" from-port="1" to-layer="3386" to-port="3" />
		<edge from-layer="3384" from-port="0" to-layer="3385" to-port="0" />
		<edge from-layer="3385" from-port="1" to-layer="3386" to-port="4" />
		<edge from-layer="3386" from-port="5" to-layer="3398" to-port="0" />
		<edge from-layer="3387" from-port="0" to-layer="3397" to-port="0" />
		<edge from-layer="3388" from-port="0" to-layer="3389" to-port="0" />
		<edge from-layer="3389" from-port="1" to-layer="3392" to-port="0" />
		<edge from-layer="3390" from-port="0" to-layer="3391" to-port="0" />
		<edge from-layer="3391" from-port="1" to-layer="3392" to-port="1" />
		<edge from-layer="3392" from-port="2" to-layer="3393" to-port="0" />
		<edge from-layer="3392" from-port="2" to-layer="3399" to-port="1" />
		<edge from-layer="3393" from-port="1" to-layer="3396" to-port="0" />
		<edge from-layer="3394" from-port="0" to-layer="3396" to-port="1" />
		<edge from-layer="3395" from-port="0" to-layer="3396" to-port="2" />
		<edge from-layer="3396" from-port="3" to-layer="3397" to-port="1" />
		<edge from-layer="3397" from-port="2" to-layer="3398" to-port="1" />
		<edge from-layer="3398" from-port="2" to-layer="3399" to-port="0" />
		<edge from-layer="3399" from-port="2" to-layer="3402" to-port="0" />
		<edge from-layer="3400" from-port="0" to-layer="3401" to-port="0" />
		<edge from-layer="3401" from-port="1" to-layer="3402" to-port="1" />
		<edge from-layer="3402" from-port="2" to-layer="3403" to-port="0" />
	</edges>
	<rt_info>
		<MO_version value="2022.3.0-9052-9752fafe8eb-releases/2022/3" />
		<Runtime_version value="2022.3.0-9052-9752fafe8eb-releases/2022/3" />
		<conversion_parameters>
			<data_type value="FP16" />
			<framework value="onnx" />
			<input_model value="DIR/efficientnet_b3_int8.onnx" />
			<model_name value="efficientnet_b3_int8" />
		</conversion_parameters>
		<legacy_frontend value="False" />
	</rt_info>
</net>
