<?xml version="1.0" ?>
<net name="yolo_v4" version="10">
	<layers>
		<layer id="0" name="3289329318519" type="Const" version="opset1">
			<data element_type="f16" offset="0" shape="1,1,1,1" size="2"/>
			<output>
				<port id="0" precision="FP16">
					<dim>1</dim>
					<dim>1</dim>
					<dim>1</dim>
					<dim>1</dim>
				</port>
			</output>
		</layer>
		<layer id="1" name="3290329419374" type="Const" version="opset1">
			<data element_type="f16" offset="2" shape="1,1,1,1" size="2"/>
			<output>
				<port id="0" precision="FP16">
					<dim>1</dim>
					<dim>1</dim>
					<dim>1</dim>
					<dim>1</dim>
				</port>
			</output>
		</layer>
		<layer id="2" name="3291329519719" type="Const" version="opset1">
			<data element_type="f16" offset="0" shape="1,1,1,1" size="2"/>
			<output>
				<port id="0" precision="FP16">
					<dim>1</dim>
					<dim>1</dim>
					<dim>1</dim>
					<dim>1</dim>
				</port>
			</output>
		</layer>
		<layer id="3" name="3292329620703" type="Const" version="opset1">
			<data element_type="f16" offset="2" shape="1,1,1,1" size="2"/>
			<output>
				<port id="0" precision="FP16">
					<dim>1</dim>
					<dim>1</dim>
					<dim>1</dim>
					<dim>1</dim>
				</port>
			</output>
		</layer>
		<layer id="4" name="4529453319950" type="Const" version="opset1">
			<data element_type="f16" offset="4" shape="1,1,1,1" size="2"/>
			<output>
				<port id="0" precision="FP16">
					<dim>1</dim>
					<dim>1</dim>
					<dim>1</dim>
					<dim>1</dim>
				</port>
			</output>
		</layer>
		<layer id="5" name="4530453419032" type="Const" version="opset1">
			<data element_type="f16" offset="6" shape="1,1,1,1" size="2"/>
			<output>
				<port id="0" precision="FP16">
					<dim>1</dim>
					<dim>1</dim>
					<dim>1</dim>
					<dim>1</dim>
				</port>
			</output>
		</layer>
		<layer id="6" name="4531453520568" type="Const" version="opset1">
			<data element_type="f16" offset="4" shape="1,1,1,1" size="2"/>
			<output>
				<port id="0" precision="FP16">
					<dim>1</dim>
					<dim>1</dim>
					<dim>1</dim>
					<dim>1</dim>
				</port>
			</output>
		</layer>
		<layer id="7" name="4532453619314" type="Const" version="opset1">
			<data element_type="f16" offset="6" shape="1,1,1,1" size="2"/>
			<output>
				<port id="0" precision="FP16">
					<dim>1</dim>
					<dim>1</dim>
					<dim>1</dim>
					<dim>1</dim>
				</port>
			</output>
		</layer>
		<layer id="8" name="3049305318174" type="Const" version="opset1">
			<data element_type="f16" offset="8" shape="1,1,1,1" size="2"/>
			<output>
				<port id="0" precision="FP16">
					<dim>1</dim>
					<dim>1</dim>
					<dim>1</dim>
					<dim>1</dim>
				</port>
			</output>
		</layer>
		<layer id="9" name="3050305419899" type="Const" version="opset1">
			<data element_type="f16" offset="10" shape="1,1,1,1" size="2"/>
			<output>
				<port id="0" precision="FP16">
					<dim>1</dim>
					<dim>1</dim>
					<dim>1</dim>
					<dim>1</dim>
				</port>
			</output>
		</layer>
		<layer id="10" name="3051305518939" type="Const" version="opset1">
			<data element_type="f16" offset="8" shape="1,1,1,1" size="2"/>
			<output>
				<port id="0" precision="FP16">
					<dim>1</dim>
					<dim>1</dim>
					<dim>1</dim>
					<dim>1</dim>
				</port>
			</output>
		</layer>
		<layer id="11" name="3052305618846" type="Const" version="opset1">
			<data element_type="f16" offset="10" shape="1,1,1,1" size="2"/>
			<output>
				<port id="0" precision="FP16">
					<dim>1</dim>
					<dim>1</dim>
					<dim>1</dim>
					<dim>1</dim>
				</port>
			</output>
		</layer>
		<layer id="12" name="3439344317895" type="Const" version="opset1">
			<data element_type="f16" offset="12" shape="1,1,1,1" size="2"/>
			<output>
				<port id="0" precision="FP16">
					<dim>1</dim>
					<dim>1</dim>
					<dim>1</dim>
					<dim>1</dim>
				</port>
			</output>
		</layer>
		<layer id="13" name="3440344419476" type="Const" version="opset1">
			<data element_type="f16" offset="14" shape="1,1,1,1" size="2"/>
			<output>
				<port id="0" precision="FP16">
					<dim>1</dim>
					<dim>1</dim>
					<dim>1</dim>
					<dim>1</dim>
				</port>
			</output>
		</layer>
		<layer id="14" name="3441344518318" type="Const" version="opset1">
			<data element_type="f16" offset="12" shape="1,1,1,1" size="2"/>
			<output>
				<port id="0" precision="FP16">
					<dim>1</dim>
					<dim>1</dim>
					<dim>1</dim>
					<dim>1</dim>
				</port>
			</output>
		</layer>
		<layer id="15" name="3442344619080" type="Const" version="opset1">
			<data element_type="f16" offset="14" shape="1,1,1,1" size="2"/>
			<output>
				<port id="0" precision="FP16">
					<dim>1</dim>
					<dim>1</dim>
					<dim>1</dim>
					<dim>1</dim>
				</port>
			</output>
		</layer>
		<layer id="16" name="4729473320766" type="Const" version="opset1">
			<data element_type="f16" offset="16" shape="1,1,1,1" size="2"/>
			<output>
				<port id="0" precision="FP16">
					<dim>1</dim>
					<dim>1</dim>
					<dim>1</dim>
					<dim>1</dim>
				</port>
			</output>
		</layer>
		<layer id="17" name="4730473419842" type="Const" version="opset1">
			<data element_type="f16" offset="18" shape="1,1,1,1" size="2"/>
			<output>
				<port id="0" precision="FP16">
					<dim>1</dim>
					<dim>1</dim>
					<dim>1</dim>
					<dim>1</dim>
				</port>
			</output>
		</layer>
		<layer id="18" name="4731473520631" type="Const" version="opset1">
			<data element_type="f16" offset="16" shape="1,1,1,1" size="2"/>
			<output>
				<port id="0" precision="FP16">
					<dim>1</dim>
					<dim>1</dim>
					<dim>1</dim>
					<dim>1</dim>
				</port>
			</output>
		</layer>
		<layer id="19" name="4732473619788" type="Const" version="opset1">
			<data element_type="f16" offset="18" shape="1,1,1,1" size="2"/>
			<output>
				<port id="0" precision="FP16">
					<dim>1</dim>
					<dim>1</dim>
					<dim>1</dim>
					<dim>1</dim>
				</port>
			</output>
		</layer>
		<layer id="20" name="3909391320436" type="Const" version="opset1">
			<data element_type="f16" offset="20" shape="1,1,1,1" size="2"/>
			<output>
				<port id="0" precision="FP16">
					<dim>1</dim>
					<dim>1</dim>
					<dim>1</dim>
					<dim>1</dim>
				</port>
			</output>
		</layer>
		<layer id="21" name="3910391420574" type="Const" version="opset1">
			<data element_type="f16" offset="22" shape="1,1,1,1" size="2"/>
			<output>
				<port id="0" precision="FP16">
					<dim>1</dim>
					<dim>1</dim>
					<dim>1</dim>
					<dim>1</dim>
				</port>
			</output>
		</layer>
		<layer id="22" name="3911391520070" type="Const" version="opset1">
			<data element_type="f16" offset="20" shape="1,1,1,1" size="2"/>
			<output>
				<port id="0" precision="FP16">
					<dim>1</dim>
					<dim>1</dim>
					<dim>1</dim>
					<dim>1</dim>
				</port>
			</output>
		</layer>
		<layer id="23" name="3912391620094" type="Const" version="opset1">
			<data element_type="f16" offset="22" shape="1,1,1,1" size="2"/>
			<output>
				<port id="0" precision="FP16">
					<dim>1</dim>
					<dim>1</dim>
					<dim>1</dim>
					<dim>1</dim>
				</port>
			</output>
		</layer>
		<layer id="24" name="6801680519308" type="Const" version="opset1">
			<data element_type="f16" offset="24" shape="1,1,1,1" size="2"/>
			<output>
				<port id="0" precision="FP16">
					<dim>1</dim>
					<dim>1</dim>
					<dim>1</dim>
					<dim>1</dim>
				</port>
			</output>
		</layer>
		<layer id="25" name="6802680620421" type="Const" version="opset1">
			<data element_type="f16" offset="26" shape="1,1,1,1" size="2"/>
			<output>
				<port id="0" precision="FP16">
					<dim>1</dim>
					<dim>1</dim>
					<dim>1</dim>
					<dim>1</dim>
				</port>
			</output>
		</layer>
		<layer id="26" name="6803680719077" type="Const" version="opset1">
			<data element_type="f16" offset="24" shape="1,1,1,1" size="2"/>
			<output>
				<port id="0" precision="FP16">
					<dim>1</dim>
					<dim>1</dim>
					<dim>1</dim>
					<dim>1</dim>
				</port>
			</output>
		</layer>
		<layer id="27" name="6804680818003" type="Const" version="opset1">
			<data element_type="f16" offset="26" shape="1,1,1,1" size="2"/>
			<output>
				<port id="0" precision="FP16">
					<dim>1</dim>
					<dim>1</dim>
					<dim>1</dim>
					<dim>1</dim>
				</port>
			</output>
		</layer>
		<layer id="28" name="zero_padding2d_5/Pad/pad_value_convert_input_port_0/value130618513" type="Const" version="opset1">
			<data element_type="f16" offset="28" shape="" size="2"/>
			<output>
				<port id="0" precision="FP16"/>
			</output>
		</layer>
		<layer id="29" name="3229323319986" type="Const" version="opset1">
			<data element_type="f16" offset="30" shape="1,1,1,1" size="2"/>
			<output>
				<port id="0" precision="FP16">
					<dim>1</dim>
					<dim>1</dim>
					<dim>1</dim>
					<dim>1</dim>
				</port>
			</output>
		</layer>
		<layer id="30" name="3230323418576" type="Const" version="opset1">
			<data element_type="f16" offset="32" shape="1,1,1,1" size="2"/>
			<output>
				<port id="0" precision="FP16">
					<dim>1</dim>
					<dim>1</dim>
					<dim>1</dim>
					<dim>1</dim>
				</port>
			</output>
		</layer>
		<layer id="31" name="3231323520349" type="Const" version="opset1">
			<data element_type="f16" offset="30" shape="1,1,1,1" size="2"/>
			<output>
				<port id="0" precision="FP16">
					<dim>1</dim>
					<dim>1</dim>
					<dim>1</dim>
					<dim>1</dim>
				</port>
			</output>
		</layer>
		<layer id="32" name="3232323619926" type="Const" version="opset1">
			<data element_type="f16" offset="32" shape="1,1,1,1" size="2"/>
			<output>
				<port id="0" precision="FP16">
					<dim>1</dim>
					<dim>1</dim>
					<dim>1</dim>
					<dim>1</dim>
				</port>
			</output>
		</layer>
		<layer id="33" name="4969497318864" type="Const" version="opset1">
			<data element_type="f16" offset="34" shape="1,1,1,1" size="2"/>
			<output>
				<port id="0" precision="FP16">
					<dim>1</dim>
					<dim>1</dim>
					<dim>1</dim>
					<dim>1</dim>
				</port>
			</output>
		</layer>
		<layer id="34" name="4970497419266" type="Const" version="opset1">
			<data element_type="f16" offset="36" shape="1,1,1,1" size="2"/>
			<output>
				<port id="0" precision="FP16">
					<dim>1</dim>
					<dim>1</dim>
					<dim>1</dim>
					<dim>1</dim>
				</port>
			</output>
		</layer>
		<layer id="35" name="4971497520322" type="Const" version="opset1">
			<data element_type="f16" offset="34" shape="1,1,1,1" size="2"/>
			<output>
				<port id="0" precision="FP16">
					<dim>1</dim>
					<dim>1</dim>
					<dim>1</dim>
					<dim>1</dim>
				</port>
			</output>
		</layer>
		<layer id="36" name="4972497619872" type="Const" version="opset1">
			<data element_type="f16" offset="36" shape="1,1,1,1" size="2"/>
			<output>
				<port id="0" precision="FP16">
					<dim>1</dim>
					<dim>1</dim>
					<dim>1</dim>
					<dim>1</dim>
				</port>
			</output>
		</layer>
		<layer id="37" name="4289429320151" type="Const" version="opset1">
			<data element_type="f16" offset="38" shape="1,1,1,1" size="2"/>
			<output>
				<port id="0" precision="FP16">
					<dim>1</dim>
					<dim>1</dim>
					<dim>1</dim>
					<dim>1</dim>
				</port>
			</output>
		</layer>
		<layer id="38" name="4290429418759" type="Const" version="opset1">
			<data element_type="f16" offset="40" shape="1,1,1,1" size="2"/>
			<output>
				<port id="0" precision="FP16">
					<dim>1</dim>
					<dim>1</dim>
					<dim>1</dim>
					<dim>1</dim>
				</port>
			</output>
		</layer>
		<layer id="39" name="4291429520655" type="Const" version="opset1">
			<data element_type="f16" offset="38" shape="1,1,1,1" size="2"/>
			<output>
				<port id="0" precision="FP16">
					<dim>1</dim>
					<dim>1</dim>
					<dim>1</dim>
					<dim>1</dim>
				</port>
			</output>
		</layer>
		<layer id="40" name="4292429620223" type="Const" version="opset1">
			<data element_type="f16" offset="40" shape="1,1,1,1" size="2"/>
			<output>
				<port id="0" precision="FP16">
					<dim>1</dim>
					<dim>1</dim>
					<dim>1</dim>
					<dim>1</dim>
				</port>
			</output>
		</layer>
		<layer id="41" name="4429443319383" type="Const" version="opset1">
			<data element_type="f16" offset="42" shape="1,1,1,1" size="2"/>
			<output>
				<port id="0" precision="FP16">
					<dim>1</dim>
					<dim>1</dim>
					<dim>1</dim>
					<dim>1</dim>
				</port>
			</output>
		</layer>
		<layer id="42" name="4430443418336" type="Const" version="opset1">
			<data element_type="f16" offset="44" shape="1,1,1,1" size="2"/>
			<output>
				<port id="0" precision="FP16">
					<dim>1</dim>
					<dim>1</dim>
					<dim>1</dim>
					<dim>1</dim>
				</port>
			</output>
		</layer>
		<layer id="43" name="4431443520286" type="Const" version="opset1">
			<data element_type="f16" offset="42" shape="1,1,1,1" size="2"/>
			<output>
				<port id="0" precision="FP16">
					<dim>1</dim>
					<dim>1</dim>
					<dim>1</dim>
					<dim>1</dim>
				</port>
			</output>
		</layer>
		<layer id="44" name="4432443620157" type="Const" version="opset1">
			<data element_type="f16" offset="44" shape="1,1,1,1" size="2"/>
			<output>
				<port id="0" precision="FP16">
					<dim>1</dim>
					<dim>1</dim>
					<dim>1</dim>
					<dim>1</dim>
				</port>
			</output>
		</layer>
		<layer id="45" name="3209321320379" type="Const" version="opset1">
			<data element_type="f16" offset="46" shape="1,1,1,1" size="2"/>
			<output>
				<port id="0" precision="FP16">
					<dim>1</dim>
					<dim>1</dim>
					<dim>1</dim>
					<dim>1</dim>
				</port>
			</output>
		</layer>
		<layer id="46" name="3210321419527" type="Const" version="opset1">
			<data element_type="f16" offset="48" shape="1,1,1,1" size="2"/>
			<output>
				<port id="0" precision="FP16">
					<dim>1</dim>
					<dim>1</dim>
					<dim>1</dim>
					<dim>1</dim>
				</port>
			</output>
		</layer>
		<layer id="47" name="3211321518555" type="Const" version="opset1">
			<data element_type="f16" offset="46" shape="1,1,1,1" size="2"/>
			<output>
				<port id="0" precision="FP16">
					<dim>1</dim>
					<dim>1</dim>
					<dim>1</dim>
					<dim>1</dim>
				</port>
			</output>
		</layer>
		<layer id="48" name="3212321617808" type="Const" version="opset1">
			<data element_type="f16" offset="48" shape="1,1,1,1" size="2"/>
			<output>
				<port id="0" precision="FP16">
					<dim>1</dim>
					<dim>1</dim>
					<dim>1</dim>
					<dim>1</dim>
				</port>
			</output>
		</layer>
		<layer id="49" name="6751675520316" type="Const" version="opset1">
			<data element_type="f16" offset="50" shape="1,1,1,1" size="2"/>
			<output>
				<port id="0" precision="FP16">
					<dim>1</dim>
					<dim>1</dim>
					<dim>1</dim>
					<dim>1</dim>
				</port>
			</output>
		</layer>
		<layer id="50" name="6752675620496" type="Const" version="opset1">
			<data element_type="f16" offset="52" shape="1,1,1,1" size="2"/>
			<output>
				<port id="0" precision="FP16">
					<dim>1</dim>
					<dim>1</dim>
					<dim>1</dim>
					<dim>1</dim>
				</port>
			</output>
		</layer>
		<layer id="51" name="6753675717880" type="Const" version="opset1">
			<data element_type="f16" offset="50" shape="1,1,1,1" size="2"/>
			<output>
				<port id="0" precision="FP16">
					<dim>1</dim>
					<dim>1</dim>
					<dim>1</dim>
					<dim>1</dim>
				</port>
			</output>
		</layer>
		<layer id="52" name="6754675820811" type="Const" version="opset1">
			<data element_type="f16" offset="52" shape="1,1,1,1" size="2"/>
			<output>
				<port id="0" precision="FP16">
					<dim>1</dim>
					<dim>1</dim>
					<dim>1</dim>
					<dim>1</dim>
				</port>
			</output>
		</layer>
		<layer id="53" name="2849285318378" type="Const" version="opset1">
			<data element_type="f16" offset="54" shape="1,1,1,1" size="2"/>
			<output>
				<port id="0" precision="FP16">
					<dim>1</dim>
					<dim>1</dim>
					<dim>1</dim>
					<dim>1</dim>
				</port>
			</output>
		</layer>
		<layer id="54" name="2850285418426" type="Const" version="opset1">
			<data element_type="f16" offset="56" shape="1,1,1,1" size="2"/>
			<output>
				<port id="0" precision="FP16">
					<dim>1</dim>
					<dim>1</dim>
					<dim>1</dim>
					<dim>1</dim>
				</port>
			</output>
		</layer>
		<layer id="55" name="2851285518705" type="Const" version="opset1">
			<data element_type="f16" offset="54" shape="1,1,1,1" size="2"/>
			<output>
				<port id="0" precision="FP16">
					<dim>1</dim>
					<dim>1</dim>
					<dim>1</dim>
					<dim>1</dim>
				</port>
			</output>
		</layer>
		<layer id="56" name="2852285619791" type="Const" version="opset1">
			<data element_type="f16" offset="56" shape="1,1,1,1" size="2"/>
			<output>
				<port id="0" precision="FP16">
					<dim>1</dim>
					<dim>1</dim>
					<dim>1</dim>
					<dim>1</dim>
				</port>
			</output>
		</layer>
		<layer id="57" name="6491649519614" type="Const" version="opset1">
			<data element_type="f16" offset="58" shape="1,1,1,1" size="2"/>
			<output>
				<port id="0" precision="FP16">
					<dim>1</dim>
					<dim>1</dim>
					<dim>1</dim>
					<dim>1</dim>
				</port>
			</output>
		</layer>
		<layer id="58" name="6492649618966" type="Const" version="opset1">
			<data element_type="f16" offset="60" shape="1,1,1,1" size="2"/>
			<output>
				<port id="0" precision="FP16">
					<dim>1</dim>
					<dim>1</dim>
					<dim>1</dim>
					<dim>1</dim>
				</port>
			</output>
		</layer>
		<layer id="59" name="6493649720139" type="Const" version="opset1">
			<data element_type="f16" offset="58" shape="1,1,1,1" size="2"/>
			<output>
				<port id="0" precision="FP16">
					<dim>1</dim>
					<dim>1</dim>
					<dim>1</dim>
					<dim>1</dim>
				</port>
			</output>
		</layer>
		<layer id="60" name="6494649820799" type="Const" version="opset1">
			<data element_type="f16" offset="60" shape="1,1,1,1" size="2"/>
			<output>
				<port id="0" precision="FP16">
					<dim>1</dim>
					<dim>1</dim>
					<dim>1</dim>
					<dim>1</dim>
				</port>
			</output>
		</layer>
		<layer id="61" name="4169417318594" type="Const" version="opset1">
			<data element_type="f16" offset="62" shape="1,1,1,1" size="2"/>
			<output>
				<port id="0" precision="FP16">
					<dim>1</dim>
					<dim>1</dim>
					<dim>1</dim>
					<dim>1</dim>
				</port>
			</output>
		</layer>
		<layer id="62" name="4170417418948" type="Const" version="opset1">
			<data element_type="f16" offset="64" shape="1,1,1,1" size="2"/>
			<output>
				<port id="0" precision="FP16">
					<dim>1</dim>
					<dim>1</dim>
					<dim>1</dim>
					<dim>1</dim>
				</port>
			</output>
		</layer>
		<layer id="63" name="4171417518504" type="Const" version="opset1">
			<data element_type="f16" offset="62" shape="1,1,1,1" size="2"/>
			<output>
				<port id="0" precision="FP16">
					<dim>1</dim>
					<dim>1</dim>
					<dim>1</dim>
					<dim>1</dim>
				</port>
			</output>
		</layer>
		<layer id="64" name="4172417617997" type="Const" version="opset1">
			<data element_type="f16" offset="64" shape="1,1,1,1" size="2"/>
			<output>
				<port id="0" precision="FP16">
					<dim>1</dim>
					<dim>1</dim>
					<dim>1</dim>
					<dim>1</dim>
				</port>
			</output>
		</layer>
		<layer id="65" name="3579358320358" type="Const" version="opset1">
			<data element_type="f16" offset="66" shape="1,1,1,1" size="2"/>
			<output>
				<port id="0" precision="FP16">
					<dim>1</dim>
					<dim>1</dim>
					<dim>1</dim>
					<dim>1</dim>
				</port>
			</output>
		</layer>
		<layer id="66" name="3580358419221" type="Const" version="opset1">
			<data element_type="f16" offset="68" shape="1,1,1,1" size="2"/>
			<output>
				<port id="0" precision="FP16">
					<dim>1</dim>
					<dim>1</dim>
					<dim>1</dim>
					<dim>1</dim>
				</port>
			</output>
		</layer>
		<layer id="67" name="3581358518786" type="Const" version="opset1">
			<data element_type="f16" offset="66" shape="1,1,1,1" size="2"/>
			<output>
				<port id="0" precision="FP16">
					<dim>1</dim>
					<dim>1</dim>
					<dim>1</dim>
					<dim>1</dim>
				</port>
			</output>
		</layer>
		<layer id="68" name="3582358617892" type="Const" version="opset1">
			<data element_type="f16" offset="68" shape="1,1,1,1" size="2"/>
			<output>
				<port id="0" precision="FP16">
					<dim>1</dim>
					<dim>1</dim>
					<dim>1</dim>
					<dim>1</dim>
				</port>
			</output>
		</layer>
		<layer id="69" name="4309431318657" type="Const" version="opset1">
			<data element_type="f16" offset="70" shape="1,1,1,1" size="2"/>
			<output>
				<port id="0" precision="FP16">
					<dim>1</dim>
					<dim>1</dim>
					<dim>1</dim>
					<dim>1</dim>
				</port>
			</output>
		</layer>
		<layer id="70" name="4310431419560" type="Const" version="opset1">
			<data element_type="f16" offset="72" shape="1,1,1,1" size="2"/>
			<output>
				<port id="0" precision="FP16">
					<dim>1</dim>
					<dim>1</dim>
					<dim>1</dim>
					<dim>1</dim>
				</port>
			</output>
		</layer>
		<layer id="71" name="4311431520859" type="Const" version="opset1">
			<data element_type="f16" offset="70" shape="1,1,1,1" size="2"/>
			<output>
				<port id="0" precision="FP16">
					<dim>1</dim>
					<dim>1</dim>
					<dim>1</dim>
					<dim>1</dim>
				</port>
			</output>
		</layer>
		<layer id="72" name="4312431619071" type="Const" version="opset1">
			<data element_type="f16" offset="72" shape="1,1,1,1" size="2"/>
			<output>
				<port id="0" precision="FP16">
					<dim>1</dim>
					<dim>1</dim>
					<dim>1</dim>
					<dim>1</dim>
				</port>
			</output>
		</layer>
		<layer id="73" name="3839384320388" type="Const" version="opset1">
			<data element_type="f16" offset="74" shape="1,1,1,1" size="2"/>
			<output>
				<port id="0" precision="FP16">
					<dim>1</dim>
					<dim>1</dim>
					<dim>1</dim>
					<dim>1</dim>
				</port>
			</output>
		</layer>
		<layer id="74" name="3840384418276" type="Const" version="opset1">
			<data element_type="f16" offset="76" shape="1,1,1,1" size="2"/>
			<output>
				<port id="0" precision="FP16">
					<dim>1</dim>
					<dim>1</dim>
					<dim>1</dim>
					<dim>1</dim>
				</port>
			</output>
		</layer>
		<layer id="75" name="3841384519380" type="Const" version="opset1">
			<data element_type="f16" offset="74" shape="1,1,1,1" size="2"/>
			<output>
				<port id="0" precision="FP16">
					<dim>1</dim>
					<dim>1</dim>
					<dim>1</dim>
					<dim>1</dim>
				</port>
			</output>
		</layer>
		<layer id="76" name="3842384618453" type="Const" version="opset1">
			<data element_type="f16" offset="76" shape="1,1,1,1" size="2"/>
			<output>
				<port id="0" precision="FP16">
					<dim>1</dim>
					<dim>1</dim>
					<dim>1</dim>
					<dim>1</dim>
				</port>
			</output>
		</layer>
		<layer id="77" name="4389439318639" type="Const" version="opset1">
			<data element_type="f16" offset="78" shape="1,1,1,1" size="2"/>
			<output>
				<port id="0" precision="FP16">
					<dim>1</dim>
					<dim>1</dim>
					<dim>1</dim>
					<dim>1</dim>
				</port>
			</output>
		</layer>
		<layer id="78" name="4390439418954" type="Const" version="opset1">
			<data element_type="f16" offset="80" shape="1,1,1,1" size="2"/>
			<output>
				<port id="0" precision="FP16">
					<dim>1</dim>
					<dim>1</dim>
					<dim>1</dim>
					<dim>1</dim>
				</port>
			</output>
		</layer>
		<layer id="79" name="4391439518195" type="Const" version="opset1">
			<data element_type="f16" offset="78" shape="1,1,1,1" size="2"/>
			<output>
				<port id="0" precision="FP16">
					<dim>1</dim>
					<dim>1</dim>
					<dim>1</dim>
					<dim>1</dim>
				</port>
			</output>
		</layer>
		<layer id="80" name="4392439618951" type="Const" version="opset1">
			<data element_type="f16" offset="80" shape="1,1,1,1" size="2"/>
			<output>
				<port id="0" precision="FP16">
					<dim>1</dim>
					<dim>1</dim>
					<dim>1</dim>
					<dim>1</dim>
				</port>
			</output>
		</layer>
		<layer id="81" name="2669267319062" type="Const" version="opset1">
			<data element_type="f16" offset="82" shape="1,1,1,1" size="2"/>
			<output>
				<port id="0" precision="FP16">
					<dim>1</dim>
					<dim>1</dim>
					<dim>1</dim>
					<dim>1</dim>
				</port>
			</output>
		</layer>
		<layer id="82" name="2670267420682" type="Const" version="opset1">
			<data element_type="f16" offset="84" shape="1,1,1,1" size="2"/>
			<output>
				<port id="0" precision="FP16">
					<dim>1</dim>
					<dim>1</dim>
					<dim>1</dim>
					<dim>1</dim>
				</port>
			</output>
		</layer>
		<layer id="83" name="2671267519131" type="Const" version="opset1">
			<data element_type="f16" offset="82" shape="1,1,1,1" size="2"/>
			<output>
				<port id="0" precision="FP16">
					<dim>1</dim>
					<dim>1</dim>
					<dim>1</dim>
					<dim>1</dim>
				</port>
			</output>
		</layer>
		<layer id="84" name="2672267620676" type="Const" version="opset1">
			<data element_type="f16" offset="84" shape="1,1,1,1" size="2"/>
			<output>
				<port id="0" precision="FP16">
					<dim>1</dim>
					<dim>1</dim>
					<dim>1</dim>
					<dim>1</dim>
				</port>
			</output>
		</layer>
		<layer id="85" name="4809481318075" type="Const" version="opset1">
			<data element_type="f16" offset="86" shape="1,1,1,1" size="2"/>
			<output>
				<port id="0" precision="FP16">
					<dim>1</dim>
					<dim>1</dim>
					<dim>1</dim>
					<dim>1</dim>
				</port>
			</output>
		</layer>
		<layer id="86" name="4810481418663" type="Const" version="opset1">
			<data element_type="f16" offset="88" shape="1,1,1,1" size="2"/>
			<output>
				<port id="0" precision="FP16">
					<dim>1</dim>
					<dim>1</dim>
					<dim>1</dim>
					<dim>1</dim>
				</port>
			</output>
		</layer>
		<layer id="87" name="4811481520463" type="Const" version="opset1">
			<data element_type="f16" offset="86" shape="1,1,1,1" size="2"/>
			<output>
				<port id="0" precision="FP16">
					<dim>1</dim>
					<dim>1</dim>
					<dim>1</dim>
					<dim>1</dim>
				</port>
			</output>
		</layer>
		<layer id="88" name="4812481620628" type="Const" version="opset1">
			<data element_type="f16" offset="88" shape="1,1,1,1" size="2"/>
			<output>
				<port id="0" precision="FP16">
					<dim>1</dim>
					<dim>1</dim>
					<dim>1</dim>
					<dim>1</dim>
				</port>
			</output>
		</layer>
		<layer id="89" name="4549455319065" type="Const" version="opset1">
			<data element_type="f16" offset="90" shape="1,1,1,1" size="2"/>
			<output>
				<port id="0" precision="FP16">
					<dim>1</dim>
					<dim>1</dim>
					<dim>1</dim>
					<dim>1</dim>
				</port>
			</output>
		</layer>
		<layer id="90" name="4550455419020" type="Const" version="opset1">
			<data element_type="f16" offset="92" shape="1,1,1,1" size="2"/>
			<output>
				<port id="0" precision="FP16">
					<dim>1</dim>
					<dim>1</dim>
					<dim>1</dim>
					<dim>1</dim>
				</port>
			</output>
		</layer>
		<layer id="91" name="4551455520247" type="Const" version="opset1">
			<data element_type="f16" offset="90" shape="1,1,1,1" size="2"/>
			<output>
				<port id="0" precision="FP16">
					<dim>1</dim>
					<dim>1</dim>
					<dim>1</dim>
					<dim>1</dim>
				</port>
			</output>
		</layer>
		<layer id="92" name="4552455618768" type="Const" version="opset1">
			<data element_type="f16" offset="92" shape="1,1,1,1" size="2"/>
			<output>
				<port id="0" precision="FP16">
					<dim>1</dim>
					<dim>1</dim>
					<dim>1</dim>
					<dim>1</dim>
				</port>
			</output>
		</layer>
		<layer id="93" name="2829283320439" type="Const" version="opset1">
			<data element_type="f16" offset="94" shape="1,1,1,1" size="2"/>
			<output>
				<port id="0" precision="FP16">
					<dim>1</dim>
					<dim>1</dim>
					<dim>1</dim>
					<dim>1</dim>
				</port>
			</output>
		</layer>
		<layer id="94" name="2830283420784" type="Const" version="opset1">
			<data element_type="f16" offset="96" shape="1,1,1,1" size="2"/>
			<output>
				<port id="0" precision="FP16">
					<dim>1</dim>
					<dim>1</dim>
					<dim>1</dim>
					<dim>1</dim>
				</port>
			</output>
		</layer>
		<layer id="95" name="2831283518180" type="Const" version="opset1">
			<data element_type="f16" offset="94" shape="1,1,1,1" size="2"/>
			<output>
				<port id="0" precision="FP16">
					<dim>1</dim>
					<dim>1</dim>
					<dim>1</dim>
					<dim>1</dim>
				</port>
			</output>
		</layer>
		<layer id="96" name="2832283618042" type="Const" version="opset1">
			<data element_type="f16" offset="96" shape="1,1,1,1" size="2"/>
			<output>
				<port id="0" precision="FP16">
					<dim>1</dim>
					<dim>1</dim>
					<dim>1</dim>
					<dim>1</dim>
				</port>
			</output>
		</layer>
		<layer id="97" name="2429243318492" type="Const" version="opset1">
			<data element_type="f16" offset="98" shape="1,1,1,1" size="2"/>
			<output>
				<port id="0" precision="FP16">
					<dim>1</dim>
					<dim>1</dim>
					<dim>1</dim>
					<dim>1</dim>
				</port>
			</output>
		</layer>
		<layer id="98" name="2430243418678" type="Const" version="opset1">
			<data element_type="f16" offset="100" shape="1,1,1,1" size="2"/>
			<output>
				<port id="0" precision="FP16">
					<dim>1</dim>
					<dim>1</dim>
					<dim>1</dim>
					<dim>1</dim>
				</port>
			</output>
		</layer>
		<layer id="99" name="2431243520178" type="Const" version="opset1">
			<data element_type="f16" offset="98" shape="1,1,1,1" size="2"/>
			<output>
				<port id="0" precision="FP16">
					<dim>1</dim>
					<dim>1</dim>
					<dim>1</dim>
					<dim>1</dim>
				</port>
			</output>
		</layer>
		<layer id="100" name="2432243619521" type="Const" version="opset1">
			<data element_type="f16" offset="100" shape="1,1,1,1" size="2"/>
			<output>
				<port id="0" precision="FP16">
					<dim>1</dim>
					<dim>1</dim>
					<dim>1</dim>
					<dim>1</dim>
				</port>
			</output>
		</layer>
		<layer id="101" name="6461646519590" type="Const" version="opset1">
			<data element_type="f16" offset="102" shape="1,1,1,1" size="2"/>
			<output>
				<port id="0" precision="FP16">
					<dim>1</dim>
					<dim>1</dim>
					<dim>1</dim>
					<dim>1</dim>
				</port>
			</output>
		</layer>
		<layer id="102" name="6462646619737" type="Const" version="opset1">
			<data element_type="f16" offset="104" shape="1,1,1,1" size="2"/>
			<output>
				<port id="0" precision="FP16">
					<dim>1</dim>
					<dim>1</dim>
					<dim>1</dim>
					<dim>1</dim>
				</port>
			</output>
		</layer>
		<layer id="103" name="6463646719578" type="Const" version="opset1">
			<data element_type="f16" offset="102" shape="1,1,1,1" size="2"/>
			<output>
				<port id="0" precision="FP16">
					<dim>1</dim>
					<dim>1</dim>
					<dim>1</dim>
					<dim>1</dim>
				</port>
			</output>
		</layer>
		<layer id="104" name="6464646819449" type="Const" version="opset1">
			<data element_type="f16" offset="104" shape="1,1,1,1" size="2"/>
			<output>
				<port id="0" precision="FP16">
					<dim>1</dim>
					<dim>1</dim>
					<dim>1</dim>
					<dim>1</dim>
				</port>
			</output>
		</layer>
		<layer id="105" name="6441644518564" type="Const" version="opset1">
			<data element_type="f16" offset="102" shape="1,1,1,1" size="2"/>
			<output>
				<port id="0" precision="FP16">
					<dim>1</dim>
					<dim>1</dim>
					<dim>1</dim>
					<dim>1</dim>
				</port>
			</output>
		</layer>
		<layer id="106" name="6442644618552" type="Const" version="opset1">
			<data element_type="f16" offset="106" shape="1,1,1,1" size="2"/>
			<output>
				<port id="0" precision="FP16">
					<dim>1</dim>
					<dim>1</dim>
					<dim>1</dim>
					<dim>1</dim>
				</port>
			</output>
		</layer>
		<layer id="107" name="6443644720598" type="Const" version="opset1">
			<data element_type="f16" offset="102" shape="1,1,1,1" size="2"/>
			<output>
				<port id="0" precision="FP16">
					<dim>1</dim>
					<dim>1</dim>
					<dim>1</dim>
					<dim>1</dim>
				</port>
			</output>
		</layer>
		<layer id="108" name="6444644818741" type="Const" version="opset1">
			<data element_type="f16" offset="106" shape="1,1,1,1" size="2"/>
			<output>
				<port id="0" precision="FP16">
					<dim>1</dim>
					<dim>1</dim>
					<dim>1</dim>
					<dim>1</dim>
				</port>
			</output>
		</layer>
		<layer id="109" name="4009401318429" type="Const" version="opset1">
			<data element_type="f16" offset="108" shape="1,1,1,1" size="2"/>
			<output>
				<port id="0" precision="FP16">
					<dim>1</dim>
					<dim>1</dim>
					<dim>1</dim>
					<dim>1</dim>
				</port>
			</output>
		</layer>
		<layer id="110" name="4010401419215" type="Const" version="opset1">
			<data element_type="f16" offset="110" shape="1,1,1,1" size="2"/>
			<output>
				<port id="0" precision="FP16">
					<dim>1</dim>
					<dim>1</dim>
					<dim>1</dim>
					<dim>1</dim>
				</port>
			</output>
		</layer>
		<layer id="111" name="4011401519416" type="Const" version="opset1">
			<data element_type="f16" offset="108" shape="1,1,1,1" size="2"/>
			<output>
				<port id="0" precision="FP16">
					<dim>1</dim>
					<dim>1</dim>
					<dim>1</dim>
					<dim>1</dim>
				</port>
			</output>
		</layer>
		<layer id="112" name="4012401618183" type="Const" version="opset1">
			<data element_type="f16" offset="110" shape="1,1,1,1" size="2"/>
			<output>
				<port id="0" precision="FP16">
					<dim>1</dim>
					<dim>1</dim>
					<dim>1</dim>
					<dim>1</dim>
				</port>
			</output>
		</layer>
		<layer id="113" name="2389239319248" type="Const" version="opset1">
			<data element_type="f16" offset="112" shape="1,1,1,1" size="2"/>
			<output>
				<port id="0" precision="FP16">
					<dim>1</dim>
					<dim>1</dim>
					<dim>1</dim>
					<dim>1</dim>
				</port>
			</output>
		</layer>
		<layer id="114" name="2390239418807" type="Const" version="opset1">
			<data element_type="f16" offset="114" shape="1,1,1,1" size="2"/>
			<output>
				<port id="0" precision="FP16">
					<dim>1</dim>
					<dim>1</dim>
					<dim>1</dim>
					<dim>1</dim>
				</port>
			</output>
		</layer>
		<layer id="115" name="2391239519350" type="Const" version="opset1">
			<data element_type="f16" offset="112" shape="1,1,1,1" size="2"/>
			<output>
				<port id="0" precision="FP16">
					<dim>1</dim>
					<dim>1</dim>
					<dim>1</dim>
					<dim>1</dim>
				</port>
			</output>
		</layer>
		<layer id="116" name="2392239620556" type="Const" version="opset1">
			<data element_type="f16" offset="114" shape="1,1,1,1" size="2"/>
			<output>
				<port id="0" precision="FP16">
					<dim>1</dim>
					<dim>1</dim>
					<dim>1</dim>
					<dim>1</dim>
				</port>
			</output>
		</layer>
		<layer id="117" name="3759376317961" type="Const" version="opset1">
			<data element_type="f16" offset="116" shape="1,1,1,1" size="2"/>
			<output>
				<port id="0" precision="FP16">
					<dim>1</dim>
					<dim>1</dim>
					<dim>1</dim>
					<dim>1</dim>
				</port>
			</output>
		</layer>
		<layer id="118" name="3760376419137" type="Const" version="opset1">
			<data element_type="f16" offset="118" shape="1,1,1,1" size="2"/>
			<output>
				<port id="0" precision="FP16">
					<dim>1</dim>
					<dim>1</dim>
					<dim>1</dim>
					<dim>1</dim>
				</port>
			</output>
		</layer>
		<layer id="119" name="3761376517886" type="Const" version="opset1">
			<data element_type="f16" offset="116" shape="1,1,1,1" size="2"/>
			<output>
				<port id="0" precision="FP16">
					<dim>1</dim>
					<dim>1</dim>
					<dim>1</dim>
					<dim>1</dim>
				</port>
			</output>
		</layer>
		<layer id="120" name="3762376618198" type="Const" version="opset1">
			<data element_type="f16" offset="118" shape="1,1,1,1" size="2"/>
			<output>
				<port id="0" precision="FP16">
					<dim>1</dim>
					<dim>1</dim>
					<dim>1</dim>
					<dim>1</dim>
				</port>
			</output>
		</layer>
		<layer id="121" name="3599360318471" type="Const" version="opset1">
			<data element_type="f16" offset="120" shape="1,1,1,1" size="2"/>
			<output>
				<port id="0" precision="FP16">
					<dim>1</dim>
					<dim>1</dim>
					<dim>1</dim>
					<dim>1</dim>
				</port>
			</output>
		</layer>
		<layer id="122" name="3600360420640" type="Const" version="opset1">
			<data element_type="f16" offset="122" shape="1,1,1,1" size="2"/>
			<output>
				<port id="0" precision="FP16">
					<dim>1</dim>
					<dim>1</dim>
					<dim>1</dim>
					<dim>1</dim>
				</port>
			</output>
		</layer>
		<layer id="123" name="3601360519857" type="Const" version="opset1">
			<data element_type="f16" offset="120" shape="1,1,1,1" size="2"/>
			<output>
				<port id="0" precision="FP16">
					<dim>1</dim>
					<dim>1</dim>
					<dim>1</dim>
					<dim>1</dim>
				</port>
			</output>
		</layer>
		<layer id="124" name="3602360620385" type="Const" version="opset1">
			<data element_type="f16" offset="122" shape="1,1,1,1" size="2"/>
			<output>
				<port id="0" precision="FP16">
					<dim>1</dim>
					<dim>1</dim>
					<dim>1</dim>
					<dim>1</dim>
				</port>
			</output>
		</layer>
		<layer id="125" name="6701670520175" type="Const" version="opset1">
			<data element_type="f16" offset="102" shape="1,1,1,1" size="2"/>
			<output>
				<port id="0" precision="FP16">
					<dim>1</dim>
					<dim>1</dim>
					<dim>1</dim>
					<dim>1</dim>
				</port>
			</output>
		</layer>
		<layer id="126" name="6702670618090" type="Const" version="opset1">
			<data element_type="f16" offset="104" shape="1,1,1,1" size="2"/>
			<output>
				<port id="0" precision="FP16">
					<dim>1</dim>
					<dim>1</dim>
					<dim>1</dim>
					<dim>1</dim>
				</port>
			</output>
		</layer>
		<layer id="127" name="6703670719359" type="Const" version="opset1">
			<data element_type="f16" offset="102" shape="1,1,1,1" size="2"/>
			<output>
				<port id="0" precision="FP16">
					<dim>1</dim>
					<dim>1</dim>
					<dim>1</dim>
					<dim>1</dim>
				</port>
			</output>
		</layer>
		<layer id="128" name="6704670818081" type="Const" version="opset1">
			<data element_type="f16" offset="104" shape="1,1,1,1" size="2"/>
			<output>
				<port id="0" precision="FP16">
					<dim>1</dim>
					<dim>1</dim>
					<dim>1</dim>
					<dim>1</dim>
				</port>
			</output>
		</layer>
		<layer id="129" name="6591659519272" type="Const" version="opset1">
			<data element_type="f16" offset="116" shape="1,1,1,1" size="2"/>
			<output>
				<port id="0" precision="FP16">
					<dim>1</dim>
					<dim>1</dim>
					<dim>1</dim>
					<dim>1</dim>
				</port>
			</output>
		</layer>
		<layer id="130" name="6592659620400" type="Const" version="opset1">
			<data element_type="f16" offset="124" shape="1,1,1,1" size="2"/>
			<output>
				<port id="0" precision="FP16">
					<dim>1</dim>
					<dim>1</dim>
					<dim>1</dim>
					<dim>1</dim>
				</port>
			</output>
		</layer>
		<layer id="131" name="6593659717889" type="Const" version="opset1">
			<data element_type="f16" offset="116" shape="1,1,1,1" size="2"/>
			<output>
				<port id="0" precision="FP16">
					<dim>1</dim>
					<dim>1</dim>
					<dim>1</dim>
					<dim>1</dim>
				</port>
			</output>
		</layer>
		<layer id="132" name="6594659819755" type="Const" version="opset1">
			<data element_type="f16" offset="124" shape="1,1,1,1" size="2"/>
			<output>
				<port id="0" precision="FP16">
					<dim>1</dim>
					<dim>1</dim>
					<dim>1</dim>
					<dim>1</dim>
				</port>
			</output>
		</layer>
		<layer id="133" name="4049405320853" type="Const" version="opset1">
			<data element_type="f16" offset="90" shape="1,1,1,1" size="2"/>
			<output>
				<port id="0" precision="FP16">
					<dim>1</dim>
					<dim>1</dim>
					<dim>1</dim>
					<dim>1</dim>
				</port>
			</output>
		</layer>
		<layer id="134" name="4050405418435" type="Const" version="opset1">
			<data element_type="f16" offset="126" shape="1,1,1,1" size="2"/>
			<output>
				<port id="0" precision="FP16">
					<dim>1</dim>
					<dim>1</dim>
					<dim>1</dim>
					<dim>1</dim>
				</port>
			</output>
		</layer>
		<layer id="135" name="4051405519752" type="Const" version="opset1">
			<data element_type="f16" offset="90" shape="1,1,1,1" size="2"/>
			<output>
				<port id="0" precision="FP16">
					<dim>1</dim>
					<dim>1</dim>
					<dim>1</dim>
					<dim>1</dim>
				</port>
			</output>
		</layer>
		<layer id="136" name="4052405619683" type="Const" version="opset1">
			<data element_type="f16" offset="126" shape="1,1,1,1" size="2"/>
			<output>
				<port id="0" precision="FP16">
					<dim>1</dim>
					<dim>1</dim>
					<dim>1</dim>
					<dim>1</dim>
				</port>
			</output>
		</layer>
		<layer id="137" name="4569457320415" type="Const" version="opset1">
			<data element_type="f16" offset="102" shape="1,1,1,1" size="2"/>
			<output>
				<port id="0" precision="FP16">
					<dim>1</dim>
					<dim>1</dim>
					<dim>1</dim>
					<dim>1</dim>
				</port>
			</output>
		</layer>
		<layer id="138" name="4570457418900" type="Const" version="opset1">
			<data element_type="f16" offset="106" shape="1,1,1,1" size="2"/>
			<output>
				<port id="0" precision="FP16">
					<dim>1</dim>
					<dim>1</dim>
					<dim>1</dim>
					<dim>1</dim>
				</port>
			</output>
		</layer>
		<layer id="139" name="4571457518258" type="Const" version="opset1">
			<data element_type="f16" offset="102" shape="1,1,1,1" size="2"/>
			<output>
				<port id="0" precision="FP16">
					<dim>1</dim>
					<dim>1</dim>
					<dim>1</dim>
					<dim>1</dim>
				</port>
			</output>
		</layer>
		<layer id="140" name="4572457619176" type="Const" version="opset1">
			<data element_type="f16" offset="106" shape="1,1,1,1" size="2"/>
			<output>
				<port id="0" precision="FP16">
					<dim>1</dim>
					<dim>1</dim>
					<dim>1</dim>
					<dim>1</dim>
				</port>
			</output>
		</layer>
		<layer id="141" name="3519352318633" type="Const" version="opset1">
			<data element_type="f16" offset="102" shape="1,1,1,1" size="2"/>
			<output>
				<port id="0" precision="FP16">
					<dim>1</dim>
					<dim>1</dim>
					<dim>1</dim>
					<dim>1</dim>
				</port>
			</output>
		</layer>
		<layer id="142" name="3520352420874" type="Const" version="opset1">
			<data element_type="f16" offset="128" shape="1,1,1,1" size="2"/>
			<output>
				<port id="0" precision="FP16">
					<dim>1</dim>
					<dim>1</dim>
					<dim>1</dim>
					<dim>1</dim>
				</port>
			</output>
		</layer>
		<layer id="143" name="3521352518765" type="Const" version="opset1">
			<data element_type="f16" offset="102" shape="1,1,1,1" size="2"/>
			<output>
				<port id="0" precision="FP16">
					<dim>1</dim>
					<dim>1</dim>
					<dim>1</dim>
					<dim>1</dim>
				</port>
			</output>
		</layer>
		<layer id="144" name="3522352620829" type="Const" version="opset1">
			<data element_type="f16" offset="128" shape="1,1,1,1" size="2"/>
			<output>
				<port id="0" precision="FP16">
					<dim>1</dim>
					<dim>1</dim>
					<dim>1</dim>
					<dim>1</dim>
				</port>
			</output>
		</layer>
		<layer id="145" name="6361636518369" type="Const" version="opset1">
			<data element_type="f16" offset="102" shape="1,1,1,1" size="2"/>
			<output>
				<port id="0" precision="FP16">
					<dim>1</dim>
					<dim>1</dim>
					<dim>1</dim>
					<dim>1</dim>
				</port>
			</output>
		</layer>
		<layer id="146" name="6362636619296" type="Const" version="opset1">
			<data element_type="f16" offset="128" shape="1,1,1,1" size="2"/>
			<output>
				<port id="0" precision="FP16">
					<dim>1</dim>
					<dim>1</dim>
					<dim>1</dim>
					<dim>1</dim>
				</port>
			</output>
		</layer>
		<layer id="147" name="6363636718852" type="Const" version="opset1">
			<data element_type="f16" offset="102" shape="1,1,1,1" size="2"/>
			<output>
				<port id="0" precision="FP16">
					<dim>1</dim>
					<dim>1</dim>
					<dim>1</dim>
					<dim>1</dim>
				</port>
			</output>
		</layer>
		<layer id="148" name="6364636820232" type="Const" version="opset1">
			<data element_type="f16" offset="128" shape="1,1,1,1" size="2"/>
			<output>
				<port id="0" precision="FP16">
					<dim>1</dim>
					<dim>1</dim>
					<dim>1</dim>
					<dim>1</dim>
				</port>
			</output>
		</layer>
		<layer id="149" name="3779378318054" type="Const" version="opset1">
			<data element_type="f16" offset="130" shape="1,1,1,1" size="2"/>
			<output>
				<port id="0" precision="FP16">
					<dim>1</dim>
					<dim>1</dim>
					<dim>1</dim>
					<dim>1</dim>
				</port>
			</output>
		</layer>
		<layer id="150" name="3780378419275" type="Const" version="opset1">
			<data element_type="f16" offset="132" shape="1,1,1,1" size="2"/>
			<output>
				<port id="0" precision="FP16">
					<dim>1</dim>
					<dim>1</dim>
					<dim>1</dim>
					<dim>1</dim>
				</port>
			</output>
		</layer>
		<layer id="151" name="3781378520724" type="Const" version="opset1">
			<data element_type="f16" offset="130" shape="1,1,1,1" size="2"/>
			<output>
				<port id="0" precision="FP16">
					<dim>1</dim>
					<dim>1</dim>
					<dim>1</dim>
					<dim>1</dim>
				</port>
			</output>
		</layer>
		<layer id="152" name="3782378620325" type="Const" version="opset1">
			<data element_type="f16" offset="132" shape="1,1,1,1" size="2"/>
			<output>
				<port id="0" precision="FP16">
					<dim>1</dim>
					<dim>1</dim>
					<dim>1</dim>
					<dim>1</dim>
				</port>
			</output>
		</layer>
		<layer id="153" name="image_input" type="Parameter" version="opset1">
			<data element_type="f16" shape="1,3,608,608"/>
			<output>
				<port id="0" precision="FP16">
					<dim>1</dim>
					<dim>3</dim>
					<dim>608</dim>
					<dim>608</dim>
				</port>
			</output>
		</layer>
		<layer id="154" name="conv2d/Conv2D/fq_input_0" type="FakeQuantize" version="opset1">
			<data auto_broadcast="numpy" levels="256"/>
			<input>
				<port id="0">
					<dim>1</dim>
					<dim>3</dim>
					<dim>608</dim>
					<dim>608</dim>
				</port>
				<port id="1">
					<dim>1</dim>
					<dim>1</dim>
					<dim>1</dim>
					<dim>1</dim>
				</port>
				<port id="2">
					<dim>1</dim>
					<dim>1</dim>
					<dim>1</dim>
					<dim>1</dim>
				</port>
				<port id="3">
					<dim>1</dim>
					<dim>1</dim>
					<dim>1</dim>
					<dim>1</dim>
				</port>
				<port id="4">
					<dim>1</dim>
					<dim>1</dim>
					<dim>1</dim>
					<dim>1</dim>
				</port>
			</input>
			<output>
				<port id="5" precision="FP16">
					<dim>1</dim>
					<dim>3</dim>
					<dim>608</dim>
					<dim>608</dim>
				</port>
			</output>
		</layer>
		<layer id="155" name="image_input/scale_copy7079540/quantized1177918432" type="Const" version="opset1">
			<data element_type="i8" offset="134" shape="32,3,3,3" size="864"/>
			<output>
				<port id="0" precision="I8">
					<dim>32</dim>
					<dim>3</dim>
					<dim>3</dim>
					<dim>3</dim>
				</port>
			</output>
		</layer>
		<layer id="156" name="image_input/scale_copy7079540/quantized/to_f16" type="Convert" version="opset1">
			<data destination_type="f16"/>
			<input>
				<port id="0">
					<dim>32</dim>
					<dim>3</dim>
					<dim>3</dim>
					<dim>3</dim>
				</port>
			</input>
			<output>
				<port id="1" precision="FP16">
					<dim>32</dim>
					<dim>3</dim>
					<dim>3</dim>
					<dim>3</dim>
				</port>
			</output>
		</layer>
		<layer id="157" name="conv2d/Conv2D/fq_weights_1/zero_point1179218216" type="Const" version="opset1">
			<data element_type="f16" offset="998" shape="32,1,1,1" size="64"/>
			<output>
				<port id="0" precision="FP16">
					<dim>32</dim>
					<dim>1</dim>
					<dim>1</dim>
					<dim>1</dim>
				</port>
			</output>
		</layer>
		<layer id="158" name="conv2d/Conv2D/fq_weights_1/minus_zp" type="Subtract" version="opset1">
			<data auto_broadcast="numpy"/>
			<input>
				<port id="0">
					<dim>32</dim>
					<dim>3</dim>
					<dim>3</dim>
					<dim>3</dim>
				</port>
				<port id="1">
					<dim>32</dim>
					<dim>1</dim>
					<dim>1</dim>
					<dim>1</dim>
				</port>
			</input>
			<output>
				<port id="2" precision="FP16">
					<dim>32</dim>
					<dim>3</dim>
					<dim>3</dim>
					<dim>3</dim>
				</port>
			</output>
		</layer>
		<layer id="159" name="conv2d/Conv2D/fq_weights_1/scale1178720832" type="Const" version="opset1">
			<data element_type="f16" offset="1062" shape="32,1,1,1" size="64"/>
			<output>
				<port id="0" precision="FP16">
					<dim>32</dim>
					<dim>1</dim>
					<dim>1</dim>
					<dim>1</dim>
				</port>
			</output>
		</layer>
		<layer id="160" name="conv2d/Conv2D/fq_weights_1/mulpiply_by_scale" type="Multiply" version="opset1">
			<data auto_broadcast="numpy"/>
			<input>
				<port id="0">
					<dim>32</dim>
					<dim>3</dim>
					<dim>3</dim>
					<dim>3</dim>
				</port>
				<port id="1">
					<dim>32</dim>
					<dim>1</dim>
					<dim>1</dim>
					<dim>1</dim>
				</port>
			</input>
			<output>
				<port id="2" precision="FP16">
					<dim>32</dim>
					<dim>3</dim>
					<dim>3</dim>
					<dim>3</dim>
				</port>
			</output>
		</layer>
		<layer id="161" name="conv2d/Conv2D" type="Convolution" version="opset1">
			<data auto_pad="same_upper" dilations="1,1" pads_begin="0,0" pads_end="0,0" strides="1,1"/>
			<input>
				<port id="0">
					<dim>1</dim>
					<dim>3</dim>
					<dim>608</dim>
					<dim>608</dim>
				</port>
				<port id="1">
					<dim>32</dim>
					<dim>3</dim>
					<dim>3</dim>
					<dim>3</dim>
				</port>
			</input>
			<output>
				<port id="2" precision="FP16">
					<dim>1</dim>
					<dim>32</dim>
					<dim>608</dim>
					<dim>608</dim>
				</port>
			</output>
		</layer>
		<layer id="162" name="data_add_2031670918135" type="Const" version="opset1">
			<data element_type="f16" offset="1126" shape="1,32,1,1" size="64"/>
			<output>
				<port id="0" precision="FP16">
					<dim>1</dim>
					<dim>32</dim>
					<dim>1</dim>
					<dim>1</dim>
				</port>
			</output>
		</layer>
		<layer id="163" name="batch_normalization/FusedBatchNorm/variance/Fused_Add_" type="Add" version="opset1">
			<data auto_broadcast="numpy"/>
			<input>
				<port id="0">
					<dim>1</dim>
					<dim>32</dim>
					<dim>608</dim>
					<dim>608</dim>
				</port>
				<port id="1">
					<dim>1</dim>
					<dim>32</dim>
					<dim>1</dim>
					<dim>1</dim>
				</port>
			</input>
			<output>
				<port id="2" names="batch_normalization/FusedBatchNorm:0" precision="FP16">
					<dim>1</dim>
					<dim>32</dim>
					<dim>608</dim>
					<dim>608</dim>
				</port>
			</output>
		</layer>
		<layer id="164" name="activation/mul" type="Mish" version="opset4">
			<input>
				<port id="0">
					<dim>1</dim>
					<dim>32</dim>
					<dim>608</dim>
					<dim>608</dim>
				</port>
			</input>
			<output>
				<port id="1" names="activation/mul:0" precision="FP16">
					<dim>1</dim>
					<dim>32</dim>
					<dim>608</dim>
					<dim>608</dim>
				</port>
			</output>
		</layer>
		<layer id="165" name="zero_padding2d/Pad/fq_input_0" type="FakeQuantize" version="opset1">
			<data auto_broadcast="numpy" levels="256"/>
			<input>
				<port id="0">
					<dim>1</dim>
					<dim>32</dim>
					<dim>608</dim>
					<dim>608</dim>
				</port>
				<port id="1">
					<dim>1</dim>
					<dim>1</dim>
					<dim>1</dim>
					<dim>1</dim>
				</port>
				<port id="2">
					<dim>1</dim>
					<dim>1</dim>
					<dim>1</dim>
					<dim>1</dim>
				</port>
				<port id="3">
					<dim>1</dim>
					<dim>1</dim>
					<dim>1</dim>
					<dim>1</dim>
				</port>
				<port id="4">
					<dim>1</dim>
					<dim>1</dim>
					<dim>1</dim>
					<dim>1</dim>
				</port>
			</input>
			<output>
				<port id="5" precision="FP16">
					<dim>1</dim>
					<dim>32</dim>
					<dim>608</dim>
					<dim>608</dim>
				</port>
			</output>
		</layer>
		<layer id="166" name="zero_padding2d/Pad/pad_value_convert_input_port_0/value71420289" type="Const" version="opset1">
			<data element_type="f16" offset="1190" shape="" size="2"/>
			<output>
				<port id="0" precision="FP16"/>
			</output>
		</layer>
		<layer id="167" name="zero_padding2d/Pad/pad_value_convert" type="ConvertLike" version="opset1">
			<input>
				<port id="0"/>
				<port id="1">
					<dim>1</dim>
					<dim>32</dim>
					<dim>608</dim>
					<dim>608</dim>
				</port>
			</input>
			<output>
				<port id="2" precision="FP16"/>
			</output>
		</layer>
		<layer id="168" name="2687736326712" type="Const" version="opset1">
			<data element_type="i64" offset="1192" shape="4" size="32"/>
			<output>
				<port id="0" precision="I64">
					<dim>4</dim>
				</port>
			</output>
		</layer>
		<layer id="169" name="2688335888713" type="Const" version="opset1">
			<data element_type="i64" offset="1224" shape="4" size="32"/>
			<output>
				<port id="0" precision="I64">
					<dim>4</dim>
				</port>
			</output>
		</layer>
		<layer id="170" name="zero_padding2d/Pad" type="Pad" version="opset1">
			<data pad_mode="constant"/>
			<input>
				<port id="0">
					<dim>1</dim>
					<dim>32</dim>
					<dim>608</dim>
					<dim>608</dim>
				</port>
				<port id="1">
					<dim>4</dim>
				</port>
				<port id="2">
					<dim>4</dim>
				</port>
				<port id="3"/>
			</input>
			<output>
				<port id="4" names="zero_padding2d/Pad:0" precision="FP16">
					<dim>1</dim>
					<dim>32</dim>
					<dim>609</dim>
					<dim>609</dim>
				</port>
			</output>
		</layer>
		<layer id="171" name="batch_normalization_1/FusedBatchNorm/mean/Fused_Mul__copy7179545/quantized1254718510" type="Const" version="opset1">
			<data element_type="i8" offset="1256" shape="64,32,3,3" size="18432"/>
			<output>
				<port id="0" precision="I8">
					<dim>64</dim>
					<dim>32</dim>
					<dim>3</dim>
					<dim>3</dim>
				</port>
			</output>
		</layer>
		<layer id="172" name="batch_normalization_1/FusedBatchNorm/mean/Fused_Mul__copy7179545/quantized/to_f16" type="Convert" version="opset1">
			<data destination_type="f16"/>
			<input>
				<port id="0">
					<dim>64</dim>
					<dim>32</dim>
					<dim>3</dim>
					<dim>3</dim>
				</port>
			</input>
			<output>
				<port id="1" precision="FP16">
					<dim>64</dim>
					<dim>32</dim>
					<dim>3</dim>
					<dim>3</dim>
				</port>
			</output>
		</layer>
		<layer id="173" name="conv2d_1/Conv2D/fq_weights_1/zero_point1256018681" type="Const" version="opset1">
			<data element_type="f16" offset="19688" shape="64,1,1,1" size="128"/>
			<output>
				<port id="0" precision="FP16">
					<dim>64</dim>
					<dim>1</dim>
					<dim>1</dim>
					<dim>1</dim>
				</port>
			</output>
		</layer>
		<layer id="174" name="conv2d_1/Conv2D/fq_weights_1/minus_zp" type="Subtract" version="opset1">
			<data auto_broadcast="numpy"/>
			<input>
				<port id="0">
					<dim>64</dim>
					<dim>32</dim>
					<dim>3</dim>
					<dim>3</dim>
				</port>
				<port id="1">
					<dim>64</dim>
					<dim>1</dim>
					<dim>1</dim>
					<dim>1</dim>
				</port>
			</input>
			<output>
				<port id="2" precision="FP16">
					<dim>64</dim>
					<dim>32</dim>
					<dim>3</dim>
					<dim>3</dim>
				</port>
			</output>
		</layer>
		<layer id="175" name="conv2d_1/Conv2D/fq_weights_1/scale1255518669" type="Const" version="opset1">
			<data element_type="f16" offset="19816" shape="64,1,1,1" size="128"/>
			<output>
				<port id="0" precision="FP16">
					<dim>64</dim>
					<dim>1</dim>
					<dim>1</dim>
					<dim>1</dim>
				</port>
			</output>
		</layer>
		<layer id="176" name="conv2d_1/Conv2D/fq_weights_1/mulpiply_by_scale" type="Multiply" version="opset1">
			<data auto_broadcast="numpy"/>
			<input>
				<port id="0">
					<dim>64</dim>
					<dim>32</dim>
					<dim>3</dim>
					<dim>3</dim>
				</port>
				<port id="1">
					<dim>64</dim>
					<dim>1</dim>
					<dim>1</dim>
					<dim>1</dim>
				</port>
			</input>
			<output>
				<port id="2" precision="FP16">
					<dim>64</dim>
					<dim>32</dim>
					<dim>3</dim>
					<dim>3</dim>
				</port>
			</output>
		</layer>
		<layer id="177" name="conv2d_1/Conv2D" type="Convolution" version="opset1">
			<data auto_pad="valid" dilations="1,1" pads_begin="0,0" pads_end="0,0" strides="2,2"/>
			<input>
				<port id="0">
					<dim>1</dim>
					<dim>32</dim>
					<dim>609</dim>
					<dim>609</dim>
				</port>
				<port id="1">
					<dim>64</dim>
					<dim>32</dim>
					<dim>3</dim>
					<dim>3</dim>
				</port>
			</input>
			<output>
				<port id="2" precision="FP16">
					<dim>1</dim>
					<dim>64</dim>
					<dim>304</dim>
					<dim>304</dim>
				</port>
			</output>
		</layer>
		<layer id="178" name="data_add_203192032471919104" type="Const" version="opset1">
			<data element_type="f16" offset="19944" shape="1,64,1,1" size="128"/>
			<output>
				<port id="0" precision="FP16">
					<dim>1</dim>
					<dim>64</dim>
					<dim>1</dim>
					<dim>1</dim>
				</port>
			</output>
		</layer>
		<layer id="179" name="batch_normalization_1/FusedBatchNorm/variance/Fused_Add_" type="Add" version="opset1">
			<data auto_broadcast="numpy"/>
			<input>
				<port id="0">
					<dim>1</dim>
					<dim>64</dim>
					<dim>304</dim>
					<dim>304</dim>
				</port>
				<port id="1">
					<dim>1</dim>
					<dim>64</dim>
					<dim>1</dim>
					<dim>1</dim>
				</port>
			</input>
			<output>
				<port id="2" names="batch_normalization_1/FusedBatchNorm:0" precision="FP16">
					<dim>1</dim>
					<dim>64</dim>
					<dim>304</dim>
					<dim>304</dim>
				</port>
			</output>
		</layer>
		<layer id="180" name="activation_1/mul" type="Mish" version="opset4">
			<input>
				<port id="0">
					<dim>1</dim>
					<dim>64</dim>
					<dim>304</dim>
					<dim>304</dim>
				</port>
			</input>
			<output>
				<port id="1" names="activation_1/mul:0" precision="FP16">
					<dim>1</dim>
					<dim>64</dim>
					<dim>304</dim>
					<dim>304</dim>
				</port>
			</output>
		</layer>
		<layer id="181" name="conv2d_2/Conv2D/fq_input_0" type="FakeQuantize" version="opset1">
			<data auto_broadcast="numpy" levels="256"/>
			<input>
				<port id="0">
					<dim>1</dim>
					<dim>64</dim>
					<dim>304</dim>
					<dim>304</dim>
				</port>
				<port id="1">
					<dim>1</dim>
					<dim>1</dim>
					<dim>1</dim>
					<dim>1</dim>
				</port>
				<port id="2">
					<dim>1</dim>
					<dim>1</dim>
					<dim>1</dim>
					<dim>1</dim>
				</port>
				<port id="3">
					<dim>1</dim>
					<dim>1</dim>
					<dim>1</dim>
					<dim>1</dim>
				</port>
				<port id="4">
					<dim>1</dim>
					<dim>1</dim>
					<dim>1</dim>
					<dim>1</dim>
				</port>
			</input>
			<output>
				<port id="5" precision="FP16">
					<dim>1</dim>
					<dim>64</dim>
					<dim>304</dim>
					<dim>304</dim>
				</port>
			</output>
		</layer>
		<layer id="182" name="batch_normalization_3/FusedBatchNorm/mean/Fused_Mul__copy7229547/quantized1129918381" type="Const" version="opset1">
			<data element_type="i8" offset="20072" shape="64,64,1,1" size="4096"/>
			<output>
				<port id="0" precision="I8">
					<dim>64</dim>
					<dim>64</dim>
					<dim>1</dim>
					<dim>1</dim>
				</port>
			</output>
		</layer>
		<layer id="183" name="batch_normalization_3/FusedBatchNorm/mean/Fused_Mul__copy7229547/quantized/to_f16" type="Convert" version="opset1">
			<data destination_type="f16"/>
			<input>
				<port id="0">
					<dim>64</dim>
					<dim>64</dim>
					<dim>1</dim>
					<dim>1</dim>
				</port>
			</input>
			<output>
				<port id="1" precision="FP16">
					<dim>64</dim>
					<dim>64</dim>
					<dim>1</dim>
					<dim>1</dim>
				</port>
			</output>
		</layer>
		<layer id="184" name="conv2d_3/Conv2D/fq_weights_1/zero_point1131218132" type="Const" version="opset1">
			<data element_type="f16" offset="24168" shape="64,1,1,1" size="128"/>
			<output>
				<port id="0" precision="FP16">
					<dim>64</dim>
					<dim>1</dim>
					<dim>1</dim>
					<dim>1</dim>
				</port>
			</output>
		</layer>
		<layer id="185" name="conv2d_3/Conv2D/fq_weights_1/minus_zp" type="Subtract" version="opset1">
			<data auto_broadcast="numpy"/>
			<input>
				<port id="0">
					<dim>64</dim>
					<dim>64</dim>
					<dim>1</dim>
					<dim>1</dim>
				</port>
				<port id="1">
					<dim>64</dim>
					<dim>1</dim>
					<dim>1</dim>
					<dim>1</dim>
				</port>
			</input>
			<output>
				<port id="2" precision="FP16">
					<dim>64</dim>
					<dim>64</dim>
					<dim>1</dim>
					<dim>1</dim>
				</port>
			</output>
		</layer>
		<layer id="186" name="conv2d_3/Conv2D/fq_weights_1/scale1130719155" type="Const" version="opset1">
			<data element_type="f16" offset="24296" shape="64,1,1,1" size="128"/>
			<output>
				<port id="0" precision="FP16">
					<dim>64</dim>
					<dim>1</dim>
					<dim>1</dim>
					<dim>1</dim>
				</port>
			</output>
		</layer>
		<layer id="187" name="conv2d_3/Conv2D/fq_weights_1/mulpiply_by_scale" type="Multiply" version="opset1">
			<data auto_broadcast="numpy"/>
			<input>
				<port id="0">
					<dim>64</dim>
					<dim>64</dim>
					<dim>1</dim>
					<dim>1</dim>
				</port>
				<port id="1">
					<dim>64</dim>
					<dim>1</dim>
					<dim>1</dim>
					<dim>1</dim>
				</port>
			</input>
			<output>
				<port id="2" precision="FP16">
					<dim>64</dim>
					<dim>64</dim>
					<dim>1</dim>
					<dim>1</dim>
				</port>
			</output>
		</layer>
		<layer id="188" name="conv2d_3/Conv2D" type="Convolution" version="opset1">
			<data auto_pad="same_upper" dilations="1,1" pads_begin="0,0" pads_end="0,0" strides="1,1"/>
			<input>
				<port id="0">
					<dim>1</dim>
					<dim>64</dim>
					<dim>304</dim>
					<dim>304</dim>
				</port>
				<port id="1">
					<dim>64</dim>
					<dim>64</dim>
					<dim>1</dim>
					<dim>1</dim>
				</port>
			</input>
			<output>
				<port id="2" precision="FP16">
					<dim>1</dim>
					<dim>64</dim>
					<dim>304</dim>
					<dim>304</dim>
				</port>
			</output>
		</layer>
		<layer id="189" name="data_add_203352034072420790" type="Const" version="opset1">
			<data element_type="f16" offset="24424" shape="1,64,1,1" size="128"/>
			<output>
				<port id="0" precision="FP16">
					<dim>1</dim>
					<dim>64</dim>
					<dim>1</dim>
					<dim>1</dim>
				</port>
			</output>
		</layer>
		<layer id="190" name="batch_normalization_3/FusedBatchNorm/variance/Fused_Add_" type="Add" version="opset1">
			<data auto_broadcast="numpy"/>
			<input>
				<port id="0">
					<dim>1</dim>
					<dim>64</dim>
					<dim>304</dim>
					<dim>304</dim>
				</port>
				<port id="1">
					<dim>1</dim>
					<dim>64</dim>
					<dim>1</dim>
					<dim>1</dim>
				</port>
			</input>
			<output>
				<port id="2" names="batch_normalization_3/FusedBatchNorm:0" precision="FP16">
					<dim>1</dim>
					<dim>64</dim>
					<dim>304</dim>
					<dim>304</dim>
				</port>
			</output>
		</layer>
		<layer id="191" name="activation_3/mul" type="Mish" version="opset4">
			<input>
				<port id="0">
					<dim>1</dim>
					<dim>64</dim>
					<dim>304</dim>
					<dim>304</dim>
				</port>
			</input>
			<output>
				<port id="1" names="activation_3/mul:0" precision="FP16">
					<dim>1</dim>
					<dim>64</dim>
					<dim>304</dim>
					<dim>304</dim>
				</port>
			</output>
		</layer>
		<layer id="192" name="add/add/fq_input_0" type="FakeQuantize" version="opset1">
			<data auto_broadcast="numpy" levels="256"/>
			<input>
				<port id="0">
					<dim>1</dim>
					<dim>64</dim>
					<dim>304</dim>
					<dim>304</dim>
				</port>
				<port id="1">
					<dim>1</dim>
					<dim>1</dim>
					<dim>1</dim>
					<dim>1</dim>
				</port>
				<port id="2">
					<dim>1</dim>
					<dim>1</dim>
					<dim>1</dim>
					<dim>1</dim>
				</port>
				<port id="3">
					<dim>1</dim>
					<dim>1</dim>
					<dim>1</dim>
					<dim>1</dim>
				</port>
				<port id="4">
					<dim>1</dim>
					<dim>1</dim>
					<dim>1</dim>
					<dim>1</dim>
				</port>
			</input>
			<output>
				<port id="5" precision="FP16">
					<dim>1</dim>
					<dim>64</dim>
					<dim>304</dim>
					<dim>304</dim>
				</port>
			</output>
		</layer>
		<layer id="193" name="4579458320043" type="Const" version="opset1">
			<data element_type="f16" offset="102" shape="1,1,1,1" size="2"/>
			<output>
				<port id="0" precision="FP16">
					<dim>1</dim>
					<dim>1</dim>
					<dim>1</dim>
					<dim>1</dim>
				</port>
			</output>
		</layer>
		<layer id="194" name="4580458418501" type="Const" version="opset1">
			<data element_type="f16" offset="104" shape="1,1,1,1" size="2"/>
			<output>
				<port id="0" precision="FP16">
					<dim>1</dim>
					<dim>1</dim>
					<dim>1</dim>
					<dim>1</dim>
				</port>
			</output>
		</layer>
		<layer id="195" name="4581458518567" type="Const" version="opset1">
			<data element_type="f16" offset="102" shape="1,1,1,1" size="2"/>
			<output>
				<port id="0" precision="FP16">
					<dim>1</dim>
					<dim>1</dim>
					<dim>1</dim>
					<dim>1</dim>
				</port>
			</output>
		</layer>
		<layer id="196" name="4582458620937" type="Const" version="opset1">
			<data element_type="f16" offset="104" shape="1,1,1,1" size="2"/>
			<output>
				<port id="0" precision="FP16">
					<dim>1</dim>
					<dim>1</dim>
					<dim>1</dim>
					<dim>1</dim>
				</port>
			</output>
		</layer>
		<layer id="197" name="4849485318942" type="Const" version="opset1">
			<data element_type="f16" offset="24552" shape="1,1,1,1" size="2"/>
			<output>
				<port id="0" precision="FP16">
					<dim>1</dim>
					<dim>1</dim>
					<dim>1</dim>
					<dim>1</dim>
				</port>
			</output>
		</layer>
		<layer id="198" name="4850485419617" type="Const" version="opset1">
			<data element_type="f16" offset="24554" shape="1,1,1,1" size="2"/>
			<output>
				<port id="0" precision="FP16">
					<dim>1</dim>
					<dim>1</dim>
					<dim>1</dim>
					<dim>1</dim>
				</port>
			</output>
		</layer>
		<layer id="199" name="4851485520469" type="Const" version="opset1">
			<data element_type="f16" offset="24552" shape="1,1,1,1" size="2"/>
			<output>
				<port id="0" precision="FP16">
					<dim>1</dim>
					<dim>1</dim>
					<dim>1</dim>
					<dim>1</dim>
				</port>
			</output>
		</layer>
		<layer id="200" name="4852485620526" type="Const" version="opset1">
			<data element_type="f16" offset="24554" shape="1,1,1,1" size="2"/>
			<output>
				<port id="0" precision="FP16">
					<dim>1</dim>
					<dim>1</dim>
					<dim>1</dim>
					<dim>1</dim>
				</port>
			</output>
		</layer>
		<layer id="201" name="batch_normalization_4/FusedBatchNorm/mean/Fused_Mul__copy7279549/quantized1108319794" type="Const" version="opset1">
			<data element_type="i8" offset="24556" shape="32,64,1,1" size="2048"/>
			<output>
				<port id="0" precision="I8">
					<dim>32</dim>
					<dim>64</dim>
					<dim>1</dim>
					<dim>1</dim>
				</port>
			</output>
		</layer>
		<layer id="202" name="batch_normalization_4/FusedBatchNorm/mean/Fused_Mul__copy7279549/quantized/to_f16" type="Convert" version="opset1">
			<data destination_type="f16"/>
			<input>
				<port id="0">
					<dim>32</dim>
					<dim>64</dim>
					<dim>1</dim>
					<dim>1</dim>
				</port>
			</input>
			<output>
				<port id="1" precision="FP16">
					<dim>32</dim>
					<dim>64</dim>
					<dim>1</dim>
					<dim>1</dim>
				</port>
			</output>
		</layer>
		<layer id="203" name="conv2d_4/Conv2D/fq_weights_1/zero_point1109618855" type="Const" version="opset1">
			<data element_type="f16" offset="26604" shape="32,1,1,1" size="64"/>
			<output>
				<port id="0" precision="FP16">
					<dim>32</dim>
					<dim>1</dim>
					<dim>1</dim>
					<dim>1</dim>
				</port>
			</output>
		</layer>
		<layer id="204" name="conv2d_4/Conv2D/fq_weights_1/minus_zp" type="Subtract" version="opset1">
			<data auto_broadcast="numpy"/>
			<input>
				<port id="0">
					<dim>32</dim>
					<dim>64</dim>
					<dim>1</dim>
					<dim>1</dim>
				</port>
				<port id="1">
					<dim>32</dim>
					<dim>1</dim>
					<dim>1</dim>
					<dim>1</dim>
				</port>
			</input>
			<output>
				<port id="2" precision="FP16">
					<dim>32</dim>
					<dim>64</dim>
					<dim>1</dim>
					<dim>1</dim>
				</port>
			</output>
		</layer>
		<layer id="205" name="conv2d_4/Conv2D/fq_weights_1/scale1109120487" type="Const" version="opset1">
			<data element_type="f16" offset="26668" shape="32,1,1,1" size="64"/>
			<output>
				<port id="0" precision="FP16">
					<dim>32</dim>
					<dim>1</dim>
					<dim>1</dim>
					<dim>1</dim>
				</port>
			</output>
		</layer>
		<layer id="206" name="conv2d_4/Conv2D/fq_weights_1/mulpiply_by_scale" type="Multiply" version="opset1">
			<data auto_broadcast="numpy"/>
			<input>
				<port id="0">
					<dim>32</dim>
					<dim>64</dim>
					<dim>1</dim>
					<dim>1</dim>
				</port>
				<port id="1">
					<dim>32</dim>
					<dim>1</dim>
					<dim>1</dim>
					<dim>1</dim>
				</port>
			</input>
			<output>
				<port id="2" precision="FP16">
					<dim>32</dim>
					<dim>64</dim>
					<dim>1</dim>
					<dim>1</dim>
				</port>
			</output>
		</layer>
		<layer id="207" name="conv2d_4/Conv2D" type="Convolution" version="opset1">
			<data auto_pad="same_upper" dilations="1,1" pads_begin="0,0" pads_end="0,0" strides="1,1"/>
			<input>
				<port id="0">
					<dim>1</dim>
					<dim>64</dim>
					<dim>304</dim>
					<dim>304</dim>
				</port>
				<port id="1">
					<dim>32</dim>
					<dim>64</dim>
					<dim>1</dim>
					<dim>1</dim>
				</port>
			</input>
			<output>
				<port id="2" precision="FP16">
					<dim>1</dim>
					<dim>32</dim>
					<dim>304</dim>
					<dim>304</dim>
				</port>
			</output>
		</layer>
		<layer id="208" name="data_add_203432034872918612" type="Const" version="opset1">
			<data element_type="f16" offset="26732" shape="1,32,1,1" size="64"/>
			<output>
				<port id="0" precision="FP16">
					<dim>1</dim>
					<dim>32</dim>
					<dim>1</dim>
					<dim>1</dim>
				</port>
			</output>
		</layer>
		<layer id="209" name="batch_normalization_4/FusedBatchNorm/variance/Fused_Add_" type="Add" version="opset1">
			<data auto_broadcast="numpy"/>
			<input>
				<port id="0">
					<dim>1</dim>
					<dim>32</dim>
					<dim>304</dim>
					<dim>304</dim>
				</port>
				<port id="1">
					<dim>1</dim>
					<dim>32</dim>
					<dim>1</dim>
					<dim>1</dim>
				</port>
			</input>
			<output>
				<port id="2" names="batch_normalization_4/FusedBatchNorm:0" precision="FP16">
					<dim>1</dim>
					<dim>32</dim>
					<dim>304</dim>
					<dim>304</dim>
				</port>
			</output>
		</layer>
		<layer id="210" name="activation_4/mul" type="Mish" version="opset4">
			<input>
				<port id="0">
					<dim>1</dim>
					<dim>32</dim>
					<dim>304</dim>
					<dim>304</dim>
				</port>
			</input>
			<output>
				<port id="1" names="activation_4/mul:0" precision="FP16">
					<dim>1</dim>
					<dim>32</dim>
					<dim>304</dim>
					<dim>304</dim>
				</port>
			</output>
		</layer>
		<layer id="211" name="conv2d_5/Conv2D/fq_input_0" type="FakeQuantize" version="opset1">
			<data auto_broadcast="numpy" levels="256"/>
			<input>
				<port id="0">
					<dim>1</dim>
					<dim>32</dim>
					<dim>304</dim>
					<dim>304</dim>
				</port>
				<port id="1">
					<dim>1</dim>
					<dim>1</dim>
					<dim>1</dim>
					<dim>1</dim>
				</port>
				<port id="2">
					<dim>1</dim>
					<dim>1</dim>
					<dim>1</dim>
					<dim>1</dim>
				</port>
				<port id="3">
					<dim>1</dim>
					<dim>1</dim>
					<dim>1</dim>
					<dim>1</dim>
				</port>
				<port id="4">
					<dim>1</dim>
					<dim>1</dim>
					<dim>1</dim>
					<dim>1</dim>
				</port>
			</input>
			<output>
				<port id="5" precision="FP16">
					<dim>1</dim>
					<dim>32</dim>
					<dim>304</dim>
					<dim>304</dim>
				</port>
			</output>
		</layer>
		<layer id="212" name="batch_normalization_5/FusedBatchNorm/mean/Fused_Mul__copy7329551/quantized1168319902" type="Const" version="opset1">
			<data element_type="i8" offset="26796" shape="64,32,3,3" size="18432"/>
			<output>
				<port id="0" precision="I8">
					<dim>64</dim>
					<dim>32</dim>
					<dim>3</dim>
					<dim>3</dim>
				</port>
			</output>
		</layer>
		<layer id="213" name="batch_normalization_5/FusedBatchNorm/mean/Fused_Mul__copy7329551/quantized/to_f16" type="Convert" version="opset1">
			<data destination_type="f16"/>
			<input>
				<port id="0">
					<dim>64</dim>
					<dim>32</dim>
					<dim>3</dim>
					<dim>3</dim>
				</port>
			</input>
			<output>
				<port id="1" precision="FP16">
					<dim>64</dim>
					<dim>32</dim>
					<dim>3</dim>
					<dim>3</dim>
				</port>
			</output>
		</layer>
		<layer id="214" name="conv2d_5/Conv2D/fq_weights_1/zero_point1169618591" type="Const" version="opset1">
			<data element_type="f16" offset="45228" shape="64,1,1,1" size="128"/>
			<output>
				<port id="0" precision="FP16">
					<dim>64</dim>
					<dim>1</dim>
					<dim>1</dim>
					<dim>1</dim>
				</port>
			</output>
		</layer>
		<layer id="215" name="conv2d_5/Conv2D/fq_weights_1/minus_zp" type="Subtract" version="opset1">
			<data auto_broadcast="numpy"/>
			<input>
				<port id="0">
					<dim>64</dim>
					<dim>32</dim>
					<dim>3</dim>
					<dim>3</dim>
				</port>
				<port id="1">
					<dim>64</dim>
					<dim>1</dim>
					<dim>1</dim>
					<dim>1</dim>
				</port>
			</input>
			<output>
				<port id="2" precision="FP16">
					<dim>64</dim>
					<dim>32</dim>
					<dim>3</dim>
					<dim>3</dim>
				</port>
			</output>
		</layer>
		<layer id="216" name="conv2d_5/Conv2D/fq_weights_1/scale1169118618" type="Const" version="opset1">
			<data element_type="f16" offset="45356" shape="64,1,1,1" size="128"/>
			<output>
				<port id="0" precision="FP16">
					<dim>64</dim>
					<dim>1</dim>
					<dim>1</dim>
					<dim>1</dim>
				</port>
			</output>
		</layer>
		<layer id="217" name="conv2d_5/Conv2D/fq_weights_1/mulpiply_by_scale" type="Multiply" version="opset1">
			<data auto_broadcast="numpy"/>
			<input>
				<port id="0">
					<dim>64</dim>
					<dim>32</dim>
					<dim>3</dim>
					<dim>3</dim>
				</port>
				<port id="1">
					<dim>64</dim>
					<dim>1</dim>
					<dim>1</dim>
					<dim>1</dim>
				</port>
			</input>
			<output>
				<port id="2" precision="FP16">
					<dim>64</dim>
					<dim>32</dim>
					<dim>3</dim>
					<dim>3</dim>
				</port>
			</output>
		</layer>
		<layer id="218" name="conv2d_5/Conv2D" type="Convolution" version="opset1">
			<data auto_pad="same_upper" dilations="1,1" pads_begin="0,0" pads_end="0,0" strides="1,1"/>
			<input>
				<port id="0">
					<dim>1</dim>
					<dim>32</dim>
					<dim>304</dim>
					<dim>304</dim>
				</port>
				<port id="1">
					<dim>64</dim>
					<dim>32</dim>
					<dim>3</dim>
					<dim>3</dim>
				</port>
			</input>
			<output>
				<port id="2" precision="FP16">
					<dim>1</dim>
					<dim>64</dim>
					<dim>304</dim>
					<dim>304</dim>
				</port>
			</output>
		</layer>
		<layer id="219" name="data_add_203512035673419167" type="Const" version="opset1">
			<data element_type="f16" offset="45484" shape="1,64,1,1" size="128"/>
			<output>
				<port id="0" precision="FP16">
					<dim>1</dim>
					<dim>64</dim>
					<dim>1</dim>
					<dim>1</dim>
				</port>
			</output>
		</layer>
		<layer id="220" name="batch_normalization_5/FusedBatchNorm/variance/Fused_Add_" type="Add" version="opset1">
			<data auto_broadcast="numpy"/>
			<input>
				<port id="0">
					<dim>1</dim>
					<dim>64</dim>
					<dim>304</dim>
					<dim>304</dim>
				</port>
				<port id="1">
					<dim>1</dim>
					<dim>64</dim>
					<dim>1</dim>
					<dim>1</dim>
				</port>
			</input>
			<output>
				<port id="2" names="batch_normalization_5/FusedBatchNorm:0" precision="FP16">
					<dim>1</dim>
					<dim>64</dim>
					<dim>304</dim>
					<dim>304</dim>
				</port>
			</output>
		</layer>
		<layer id="221" name="activation_5/mul" type="Mish" version="opset4">
			<input>
				<port id="0">
					<dim>1</dim>
					<dim>64</dim>
					<dim>304</dim>
					<dim>304</dim>
				</port>
			</input>
			<output>
				<port id="1" names="activation_5/mul:0" precision="FP16">
					<dim>1</dim>
					<dim>64</dim>
					<dim>304</dim>
					<dim>304</dim>
				</port>
			</output>
		</layer>
		<layer id="222" name="add/add/fq_input_1" type="FakeQuantize" version="opset1">
			<data auto_broadcast="numpy" levels="256"/>
			<input>
				<port id="0">
					<dim>1</dim>
					<dim>64</dim>
					<dim>304</dim>
					<dim>304</dim>
				</port>
				<port id="1">
					<dim>1</dim>
					<dim>1</dim>
					<dim>1</dim>
					<dim>1</dim>
				</port>
				<port id="2">
					<dim>1</dim>
					<dim>1</dim>
					<dim>1</dim>
					<dim>1</dim>
				</port>
				<port id="3">
					<dim>1</dim>
					<dim>1</dim>
					<dim>1</dim>
					<dim>1</dim>
				</port>
				<port id="4">
					<dim>1</dim>
					<dim>1</dim>
					<dim>1</dim>
					<dim>1</dim>
				</port>
			</input>
			<output>
				<port id="5" precision="FP16">
					<dim>1</dim>
					<dim>64</dim>
					<dim>304</dim>
					<dim>304</dim>
				</port>
			</output>
		</layer>
		<layer id="223" name="add/add" type="Add" version="opset1">
			<data auto_broadcast="numpy"/>
			<input>
				<port id="0">
					<dim>1</dim>
					<dim>64</dim>
					<dim>304</dim>
					<dim>304</dim>
				</port>
				<port id="1">
					<dim>1</dim>
					<dim>64</dim>
					<dim>304</dim>
					<dim>304</dim>
				</port>
			</input>
			<output>
				<port id="2" names="add/add:0" precision="FP16">
					<dim>1</dim>
					<dim>64</dim>
					<dim>304</dim>
					<dim>304</dim>
				</port>
			</output>
		</layer>
		<layer id="224" name="conv2d_6/Conv2D/fq_input_0" type="FakeQuantize" version="opset1">
			<data auto_broadcast="numpy" levels="256"/>
			<input>
				<port id="0">
					<dim>1</dim>
					<dim>64</dim>
					<dim>304</dim>
					<dim>304</dim>
				</port>
				<port id="1">
					<dim>1</dim>
					<dim>1</dim>
					<dim>1</dim>
					<dim>1</dim>
				</port>
				<port id="2">
					<dim>1</dim>
					<dim>1</dim>
					<dim>1</dim>
					<dim>1</dim>
				</port>
				<port id="3">
					<dim>1</dim>
					<dim>1</dim>
					<dim>1</dim>
					<dim>1</dim>
				</port>
				<port id="4">
					<dim>1</dim>
					<dim>1</dim>
					<dim>1</dim>
					<dim>1</dim>
				</port>
			</input>
			<output>
				<port id="5" precision="FP16">
					<dim>1</dim>
					<dim>64</dim>
					<dim>304</dim>
					<dim>304</dim>
				</port>
			</output>
		</layer>
		<layer id="225" name="batch_normalization_6/FusedBatchNorm/mean/Fused_Mul__copy7389553/quantized1132319098" type="Const" version="opset1">
			<data element_type="i8" offset="45612" shape="64,64,1,1" size="4096"/>
			<output>
				<port id="0" precision="I8">
					<dim>64</dim>
					<dim>64</dim>
					<dim>1</dim>
					<dim>1</dim>
				</port>
			</output>
		</layer>
		<layer id="226" name="batch_normalization_6/FusedBatchNorm/mean/Fused_Mul__copy7389553/quantized/to_f16" type="Convert" version="opset1">
			<data destination_type="f16"/>
			<input>
				<port id="0">
					<dim>64</dim>
					<dim>64</dim>
					<dim>1</dim>
					<dim>1</dim>
				</port>
			</input>
			<output>
				<port id="1" precision="FP16">
					<dim>64</dim>
					<dim>64</dim>
					<dim>1</dim>
					<dim>1</dim>
				</port>
			</output>
		</layer>
		<layer id="227" name="conv2d_6/Conv2D/fq_weights_1/zero_point1133619524" type="Const" version="opset1">
			<data element_type="f16" offset="49708" shape="64,1,1,1" size="128"/>
			<output>
				<port id="0" precision="FP16">
					<dim>64</dim>
					<dim>1</dim>
					<dim>1</dim>
					<dim>1</dim>
				</port>
			</output>
		</layer>
		<layer id="228" name="conv2d_6/Conv2D/fq_weights_1/minus_zp" type="Subtract" version="opset1">
			<data auto_broadcast="numpy"/>
			<input>
				<port id="0">
					<dim>64</dim>
					<dim>64</dim>
					<dim>1</dim>
					<dim>1</dim>
				</port>
				<port id="1">
					<dim>64</dim>
					<dim>1</dim>
					<dim>1</dim>
					<dim>1</dim>
				</port>
			</input>
			<output>
				<port id="2" precision="FP16">
					<dim>64</dim>
					<dim>64</dim>
					<dim>1</dim>
					<dim>1</dim>
				</port>
			</output>
		</layer>
		<layer id="229" name="conv2d_6/Conv2D/fq_weights_1/scale1133118873" type="Const" version="opset1">
			<data element_type="f16" offset="49836" shape="64,1,1,1" size="128"/>
			<output>
				<port id="0" precision="FP16">
					<dim>64</dim>
					<dim>1</dim>
					<dim>1</dim>
					<dim>1</dim>
				</port>
			</output>
		</layer>
		<layer id="230" name="conv2d_6/Conv2D/fq_weights_1/mulpiply_by_scale" type="Multiply" version="opset1">
			<data auto_broadcast="numpy"/>
			<input>
				<port id="0">
					<dim>64</dim>
					<dim>64</dim>
					<dim>1</dim>
					<dim>1</dim>
				</port>
				<port id="1">
					<dim>64</dim>
					<dim>1</dim>
					<dim>1</dim>
					<dim>1</dim>
				</port>
			</input>
			<output>
				<port id="2" precision="FP16">
					<dim>64</dim>
					<dim>64</dim>
					<dim>1</dim>
					<dim>1</dim>
				</port>
			</output>
		</layer>
		<layer id="231" name="conv2d_6/Conv2D" type="Convolution" version="opset1">
			<data auto_pad="same_upper" dilations="1,1" pads_begin="0,0" pads_end="0,0" strides="1,1"/>
			<input>
				<port id="0">
					<dim>1</dim>
					<dim>64</dim>
					<dim>304</dim>
					<dim>304</dim>
				</port>
				<port id="1">
					<dim>64</dim>
					<dim>64</dim>
					<dim>1</dim>
					<dim>1</dim>
				</port>
			</input>
			<output>
				<port id="2" precision="FP16">
					<dim>1</dim>
					<dim>64</dim>
					<dim>304</dim>
					<dim>304</dim>
				</port>
			</output>
		</layer>
		<layer id="232" name="data_add_203592036474019974" type="Const" version="opset1">
			<data element_type="f16" offset="49964" shape="1,64,1,1" size="128"/>
			<output>
				<port id="0" precision="FP16">
					<dim>1</dim>
					<dim>64</dim>
					<dim>1</dim>
					<dim>1</dim>
				</port>
			</output>
		</layer>
		<layer id="233" name="batch_normalization_6/FusedBatchNorm/variance/Fused_Add_" type="Add" version="opset1">
			<data auto_broadcast="numpy"/>
			<input>
				<port id="0">
					<dim>1</dim>
					<dim>64</dim>
					<dim>304</dim>
					<dim>304</dim>
				</port>
				<port id="1">
					<dim>1</dim>
					<dim>64</dim>
					<dim>1</dim>
					<dim>1</dim>
				</port>
			</input>
			<output>
				<port id="2" names="batch_normalization_6/FusedBatchNorm:0" precision="FP16">
					<dim>1</dim>
					<dim>64</dim>
					<dim>304</dim>
					<dim>304</dim>
				</port>
			</output>
		</layer>
		<layer id="234" name="activation_6/mul" type="Mish" version="opset4">
			<input>
				<port id="0">
					<dim>1</dim>
					<dim>64</dim>
					<dim>304</dim>
					<dim>304</dim>
				</port>
			</input>
			<output>
				<port id="1" names="activation_6/mul:0" precision="FP16">
					<dim>1</dim>
					<dim>64</dim>
					<dim>304</dim>
					<dim>304</dim>
				</port>
			</output>
		</layer>
		<layer id="235" name="concatenate/concat/fq_input_0" type="FakeQuantize" version="opset1">
			<data auto_broadcast="numpy" levels="256"/>
			<input>
				<port id="0">
					<dim>1</dim>
					<dim>64</dim>
					<dim>304</dim>
					<dim>304</dim>
				</port>
				<port id="1">
					<dim>1</dim>
					<dim>1</dim>
					<dim>1</dim>
					<dim>1</dim>
				</port>
				<port id="2">
					<dim>1</dim>
					<dim>1</dim>
					<dim>1</dim>
					<dim>1</dim>
				</port>
				<port id="3">
					<dim>1</dim>
					<dim>1</dim>
					<dim>1</dim>
					<dim>1</dim>
				</port>
				<port id="4">
					<dim>1</dim>
					<dim>1</dim>
					<dim>1</dim>
					<dim>1</dim>
				</port>
			</input>
			<output>
				<port id="5" precision="FP16">
					<dim>1</dim>
					<dim>64</dim>
					<dim>304</dim>
					<dim>304</dim>
				</port>
			</output>
		</layer>
		<layer id="236" name="6601660520418" type="Const" version="opset1">
			<data element_type="f16" offset="50092" shape="1,1,1,1" size="2"/>
			<output>
				<port id="0" precision="FP16">
					<dim>1</dim>
					<dim>1</dim>
					<dim>1</dim>
					<dim>1</dim>
				</port>
			</output>
		</layer>
		<layer id="237" name="6602660619086" type="Const" version="opset1">
			<data element_type="f16" offset="50094" shape="1,1,1,1" size="2"/>
			<output>
				<port id="0" precision="FP16">
					<dim>1</dim>
					<dim>1</dim>
					<dim>1</dim>
					<dim>1</dim>
				</port>
			</output>
		</layer>
		<layer id="238" name="6603660719464" type="Const" version="opset1">
			<data element_type="f16" offset="50092" shape="1,1,1,1" size="2"/>
			<output>
				<port id="0" precision="FP16">
					<dim>1</dim>
					<dim>1</dim>
					<dim>1</dim>
					<dim>1</dim>
				</port>
			</output>
		</layer>
		<layer id="239" name="6604660818930" type="Const" version="opset1">
			<data element_type="f16" offset="50094" shape="1,1,1,1" size="2"/>
			<output>
				<port id="0" precision="FP16">
					<dim>1</dim>
					<dim>1</dim>
					<dim>1</dim>
					<dim>1</dim>
				</port>
			</output>
		</layer>
		<layer id="240" name="batch_normalization_2/FusedBatchNorm/mean/Fused_Mul__copy7439555/quantized1281118747" type="Const" version="opset1">
			<data element_type="i8" offset="50096" shape="64,64,1,1" size="4096"/>
			<output>
				<port id="0" precision="I8">
					<dim>64</dim>
					<dim>64</dim>
					<dim>1</dim>
					<dim>1</dim>
				</port>
			</output>
		</layer>
		<layer id="241" name="batch_normalization_2/FusedBatchNorm/mean/Fused_Mul__copy7439555/quantized/to_f16" type="Convert" version="opset1">
			<data destination_type="f16"/>
			<input>
				<port id="0">
					<dim>64</dim>
					<dim>64</dim>
					<dim>1</dim>
					<dim>1</dim>
				</port>
			</input>
			<output>
				<port id="1" precision="FP16">
					<dim>64</dim>
					<dim>64</dim>
					<dim>1</dim>
					<dim>1</dim>
				</port>
			</output>
		</layer>
		<layer id="242" name="conv2d_2/Conv2D/fq_weights_1/zero_point1282419815" type="Const" version="opset1">
			<data element_type="f16" offset="54192" shape="64,1,1,1" size="128"/>
			<output>
				<port id="0" precision="FP16">
					<dim>64</dim>
					<dim>1</dim>
					<dim>1</dim>
					<dim>1</dim>
				</port>
			</output>
		</layer>
		<layer id="243" name="conv2d_2/Conv2D/fq_weights_1/minus_zp" type="Subtract" version="opset1">
			<data auto_broadcast="numpy"/>
			<input>
				<port id="0">
					<dim>64</dim>
					<dim>64</dim>
					<dim>1</dim>
					<dim>1</dim>
				</port>
				<port id="1">
					<dim>64</dim>
					<dim>1</dim>
					<dim>1</dim>
					<dim>1</dim>
				</port>
			</input>
			<output>
				<port id="2" precision="FP16">
					<dim>64</dim>
					<dim>64</dim>
					<dim>1</dim>
					<dim>1</dim>
				</port>
			</output>
		</layer>
		<layer id="244" name="conv2d_2/Conv2D/fq_weights_1/scale1281919566" type="Const" version="opset1">
			<data element_type="f16" offset="54320" shape="64,1,1,1" size="128"/>
			<output>
				<port id="0" precision="FP16">
					<dim>64</dim>
					<dim>1</dim>
					<dim>1</dim>
					<dim>1</dim>
				</port>
			</output>
		</layer>
		<layer id="245" name="conv2d_2/Conv2D/fq_weights_1/mulpiply_by_scale" type="Multiply" version="opset1">
			<data auto_broadcast="numpy"/>
			<input>
				<port id="0">
					<dim>64</dim>
					<dim>64</dim>
					<dim>1</dim>
					<dim>1</dim>
				</port>
				<port id="1">
					<dim>64</dim>
					<dim>1</dim>
					<dim>1</dim>
					<dim>1</dim>
				</port>
			</input>
			<output>
				<port id="2" precision="FP16">
					<dim>64</dim>
					<dim>64</dim>
					<dim>1</dim>
					<dim>1</dim>
				</port>
			</output>
		</layer>
		<layer id="246" name="conv2d_2/Conv2D" type="Convolution" version="opset1">
			<data auto_pad="same_upper" dilations="1,1" pads_begin="0,0" pads_end="0,0" strides="1,1"/>
			<input>
				<port id="0">
					<dim>1</dim>
					<dim>64</dim>
					<dim>304</dim>
					<dim>304</dim>
				</port>
				<port id="1">
					<dim>64</dim>
					<dim>64</dim>
					<dim>1</dim>
					<dim>1</dim>
				</port>
			</input>
			<output>
				<port id="2" precision="FP16">
					<dim>1</dim>
					<dim>64</dim>
					<dim>304</dim>
					<dim>304</dim>
				</port>
			</output>
		</layer>
		<layer id="247" name="data_add_203272033274519344" type="Const" version="opset1">
			<data element_type="f16" offset="54448" shape="1,64,1,1" size="128"/>
			<output>
				<port id="0" precision="FP16">
					<dim>1</dim>
					<dim>64</dim>
					<dim>1</dim>
					<dim>1</dim>
				</port>
			</output>
		</layer>
		<layer id="248" name="batch_normalization_2/FusedBatchNorm/variance/Fused_Add_" type="Add" version="opset1">
			<data auto_broadcast="numpy"/>
			<input>
				<port id="0">
					<dim>1</dim>
					<dim>64</dim>
					<dim>304</dim>
					<dim>304</dim>
				</port>
				<port id="1">
					<dim>1</dim>
					<dim>64</dim>
					<dim>1</dim>
					<dim>1</dim>
				</port>
			</input>
			<output>
				<port id="2" names="batch_normalization_2/FusedBatchNorm:0" precision="FP16">
					<dim>1</dim>
					<dim>64</dim>
					<dim>304</dim>
					<dim>304</dim>
				</port>
			</output>
		</layer>
		<layer id="249" name="activation_2/mul" type="Mish" version="opset4">
			<input>
				<port id="0">
					<dim>1</dim>
					<dim>64</dim>
					<dim>304</dim>
					<dim>304</dim>
				</port>
			</input>
			<output>
				<port id="1" names="activation_2/mul:0" precision="FP16">
					<dim>1</dim>
					<dim>64</dim>
					<dim>304</dim>
					<dim>304</dim>
				</port>
			</output>
		</layer>
		<layer id="250" name="concatenate/concat/fq_input_1" type="FakeQuantize" version="opset1">
			<data auto_broadcast="numpy" levels="256"/>
			<input>
				<port id="0">
					<dim>1</dim>
					<dim>64</dim>
					<dim>304</dim>
					<dim>304</dim>
				</port>
				<port id="1">
					<dim>1</dim>
					<dim>1</dim>
					<dim>1</dim>
					<dim>1</dim>
				</port>
				<port id="2">
					<dim>1</dim>
					<dim>1</dim>
					<dim>1</dim>
					<dim>1</dim>
				</port>
				<port id="3">
					<dim>1</dim>
					<dim>1</dim>
					<dim>1</dim>
					<dim>1</dim>
				</port>
				<port id="4">
					<dim>1</dim>
					<dim>1</dim>
					<dim>1</dim>
					<dim>1</dim>
				</port>
			</input>
			<output>
				<port id="5" precision="FP16">
					<dim>1</dim>
					<dim>64</dim>
					<dim>304</dim>
					<dim>304</dim>
				</port>
			</output>
		</layer>
		<layer id="251" name="concatenate/concat" type="Concat" version="opset1">
			<data axis="1"/>
			<input>
				<port id="0">
					<dim>1</dim>
					<dim>64</dim>
					<dim>304</dim>
					<dim>304</dim>
				</port>
				<port id="1">
					<dim>1</dim>
					<dim>64</dim>
					<dim>304</dim>
					<dim>304</dim>
				</port>
			</input>
			<output>
				<port id="2" names="concatenate/concat:0" precision="FP16">
					<dim>1</dim>
					<dim>128</dim>
					<dim>304</dim>
					<dim>304</dim>
				</port>
			</output>
		</layer>
		<layer id="252" name="batch_normalization_7/FusedBatchNorm/mean/Fused_Mul__copy7499557/quantized1259518117" type="Const" version="opset1">
			<data element_type="i8" offset="54576" shape="64,128,1,1" size="8192"/>
			<output>
				<port id="0" precision="I8">
					<dim>64</dim>
					<dim>128</dim>
					<dim>1</dim>
					<dim>1</dim>
				</port>
			</output>
		</layer>
		<layer id="253" name="batch_normalization_7/FusedBatchNorm/mean/Fused_Mul__copy7499557/quantized/to_f16" type="Convert" version="opset1">
			<data destination_type="f16"/>
			<input>
				<port id="0">
					<dim>64</dim>
					<dim>128</dim>
					<dim>1</dim>
					<dim>1</dim>
				</port>
			</input>
			<output>
				<port id="1" precision="FP16">
					<dim>64</dim>
					<dim>128</dim>
					<dim>1</dim>
					<dim>1</dim>
				</port>
			</output>
		</layer>
		<layer id="254" name="conv2d_7/Conv2D/fq_weights_1/zero_point1260819101" type="Const" version="opset1">
			<data element_type="f16" offset="62768" shape="64,1,1,1" size="128"/>
			<output>
				<port id="0" precision="FP16">
					<dim>64</dim>
					<dim>1</dim>
					<dim>1</dim>
					<dim>1</dim>
				</port>
			</output>
		</layer>
		<layer id="255" name="conv2d_7/Conv2D/fq_weights_1/minus_zp" type="Subtract" version="opset1">
			<data auto_broadcast="numpy"/>
			<input>
				<port id="0">
					<dim>64</dim>
					<dim>128</dim>
					<dim>1</dim>
					<dim>1</dim>
				</port>
				<port id="1">
					<dim>64</dim>
					<dim>1</dim>
					<dim>1</dim>
					<dim>1</dim>
				</port>
			</input>
			<output>
				<port id="2" precision="FP16">
					<dim>64</dim>
					<dim>128</dim>
					<dim>1</dim>
					<dim>1</dim>
				</port>
			</output>
		</layer>
		<layer id="256" name="conv2d_7/Conv2D/fq_weights_1/scale1260317991" type="Const" version="opset1">
			<data element_type="f16" offset="62896" shape="64,1,1,1" size="128"/>
			<output>
				<port id="0" precision="FP16">
					<dim>64</dim>
					<dim>1</dim>
					<dim>1</dim>
					<dim>1</dim>
				</port>
			</output>
		</layer>
		<layer id="257" name="conv2d_7/Conv2D/fq_weights_1/mulpiply_by_scale" type="Multiply" version="opset1">
			<data auto_broadcast="numpy"/>
			<input>
				<port id="0">
					<dim>64</dim>
					<dim>128</dim>
					<dim>1</dim>
					<dim>1</dim>
				</port>
				<port id="1">
					<dim>64</dim>
					<dim>1</dim>
					<dim>1</dim>
					<dim>1</dim>
				</port>
			</input>
			<output>
				<port id="2" precision="FP16">
					<dim>64</dim>
					<dim>128</dim>
					<dim>1</dim>
					<dim>1</dim>
				</port>
			</output>
		</layer>
		<layer id="258" name="conv2d_7/Conv2D" type="Convolution" version="opset1">
			<data auto_pad="same_upper" dilations="1,1" pads_begin="0,0" pads_end="0,0" strides="1,1"/>
			<input>
				<port id="0">
					<dim>1</dim>
					<dim>128</dim>
					<dim>304</dim>
					<dim>304</dim>
				</port>
				<port id="1">
					<dim>64</dim>
					<dim>128</dim>
					<dim>1</dim>
					<dim>1</dim>
				</port>
			</input>
			<output>
				<port id="2" precision="FP16">
					<dim>1</dim>
					<dim>64</dim>
					<dim>304</dim>
					<dim>304</dim>
				</port>
			</output>
		</layer>
		<layer id="259" name="data_add_203672037275119473" type="Const" version="opset1">
			<data element_type="f16" offset="63024" shape="1,64,1,1" size="128"/>
			<output>
				<port id="0" precision="FP16">
					<dim>1</dim>
					<dim>64</dim>
					<dim>1</dim>
					<dim>1</dim>
				</port>
			</output>
		</layer>
		<layer id="260" name="batch_normalization_7/FusedBatchNorm/variance/Fused_Add_" type="Add" version="opset1">
			<data auto_broadcast="numpy"/>
			<input>
				<port id="0">
					<dim>1</dim>
					<dim>64</dim>
					<dim>304</dim>
					<dim>304</dim>
				</port>
				<port id="1">
					<dim>1</dim>
					<dim>64</dim>
					<dim>1</dim>
					<dim>1</dim>
				</port>
			</input>
			<output>
				<port id="2" names="batch_normalization_7/FusedBatchNorm:0" precision="FP16">
					<dim>1</dim>
					<dim>64</dim>
					<dim>304</dim>
					<dim>304</dim>
				</port>
			</output>
		</layer>
		<layer id="261" name="activation_7/mul" type="Mish" version="opset4">
			<input>
				<port id="0">
					<dim>1</dim>
					<dim>64</dim>
					<dim>304</dim>
					<dim>304</dim>
				</port>
			</input>
			<output>
				<port id="1" names="activation_7/mul:0" precision="FP16">
					<dim>1</dim>
					<dim>64</dim>
					<dim>304</dim>
					<dim>304</dim>
				</port>
			</output>
		</layer>
		<layer id="262" name="zero_padding2d_1/Pad/fq_input_0" type="FakeQuantize" version="opset1">
			<data auto_broadcast="numpy" levels="256"/>
			<input>
				<port id="0">
					<dim>1</dim>
					<dim>64</dim>
					<dim>304</dim>
					<dim>304</dim>
				</port>
				<port id="1">
					<dim>1</dim>
					<dim>1</dim>
					<dim>1</dim>
					<dim>1</dim>
				</port>
				<port id="2">
					<dim>1</dim>
					<dim>1</dim>
					<dim>1</dim>
					<dim>1</dim>
				</port>
				<port id="3">
					<dim>1</dim>
					<dim>1</dim>
					<dim>1</dim>
					<dim>1</dim>
				</port>
				<port id="4">
					<dim>1</dim>
					<dim>1</dim>
					<dim>1</dim>
					<dim>1</dim>
				</port>
			</input>
			<output>
				<port id="5" precision="FP16">
					<dim>1</dim>
					<dim>64</dim>
					<dim>304</dim>
					<dim>304</dim>
				</port>
			</output>
		</layer>
		<layer id="263" name="zero_padding2d_1/Pad/pad_value_convert_input_port_0/value75618144" type="Const" version="opset1">
			<data element_type="f16" offset="1190" shape="" size="2"/>
			<output>
				<port id="0" precision="FP16"/>
			</output>
		</layer>
		<layer id="264" name="zero_padding2d_1/Pad/pad_value_convert" type="ConvertLike" version="opset1">
			<input>
				<port id="0"/>
				<port id="1">
					<dim>1</dim>
					<dim>64</dim>
					<dim>304</dim>
					<dim>304</dim>
				</port>
			</input>
			<output>
				<port id="2" precision="FP16"/>
			</output>
		</layer>
		<layer id="265" name="2688936566754" type="Const" version="opset1">
			<data element_type="i64" offset="1192" shape="4" size="32"/>
			<output>
				<port id="0" precision="I64">
					<dim>4</dim>
				</port>
			</output>
		</layer>
		<layer id="266" name="2689535858755" type="Const" version="opset1">
			<data element_type="i64" offset="1224" shape="4" size="32"/>
			<output>
				<port id="0" precision="I64">
					<dim>4</dim>
				</port>
			</output>
		</layer>
		<layer id="267" name="zero_padding2d_1/Pad" type="Pad" version="opset1">
			<data pad_mode="constant"/>
			<input>
				<port id="0">
					<dim>1</dim>
					<dim>64</dim>
					<dim>304</dim>
					<dim>304</dim>
				</port>
				<port id="1">
					<dim>4</dim>
				</port>
				<port id="2">
					<dim>4</dim>
				</port>
				<port id="3"/>
			</input>
			<output>
				<port id="4" names="zero_padding2d_1/Pad:0" precision="FP16">
					<dim>1</dim>
					<dim>64</dim>
					<dim>305</dim>
					<dim>305</dim>
				</port>
			</output>
		</layer>
		<layer id="268" name="batch_normalization_8/FusedBatchNorm/mean/Fused_Mul__copy7599562/quantized1093919170" type="Const" version="opset1">
			<data element_type="i8" offset="63152" shape="128,64,3,3" size="73728"/>
			<output>
				<port id="0" precision="I8">
					<dim>128</dim>
					<dim>64</dim>
					<dim>3</dim>
					<dim>3</dim>
				</port>
			</output>
		</layer>
		<layer id="269" name="batch_normalization_8/FusedBatchNorm/mean/Fused_Mul__copy7599562/quantized/to_f16" type="Convert" version="opset1">
			<data destination_type="f16"/>
			<input>
				<port id="0">
					<dim>128</dim>
					<dim>64</dim>
					<dim>3</dim>
					<dim>3</dim>
				</port>
			</input>
			<output>
				<port id="1" precision="FP16">
					<dim>128</dim>
					<dim>64</dim>
					<dim>3</dim>
					<dim>3</dim>
				</port>
			</output>
		</layer>
		<layer id="270" name="conv2d_8/Conv2D/fq_weights_1/zero_point1095217946" type="Const" version="opset1">
			<data element_type="f16" offset="136880" shape="128,1,1,1" size="256"/>
			<output>
				<port id="0" precision="FP16">
					<dim>128</dim>
					<dim>1</dim>
					<dim>1</dim>
					<dim>1</dim>
				</port>
			</output>
		</layer>
		<layer id="271" name="conv2d_8/Conv2D/fq_weights_1/minus_zp" type="Subtract" version="opset1">
			<data auto_broadcast="numpy"/>
			<input>
				<port id="0">
					<dim>128</dim>
					<dim>64</dim>
					<dim>3</dim>
					<dim>3</dim>
				</port>
				<port id="1">
					<dim>128</dim>
					<dim>1</dim>
					<dim>1</dim>
					<dim>1</dim>
				</port>
			</input>
			<output>
				<port id="2" precision="FP16">
					<dim>128</dim>
					<dim>64</dim>
					<dim>3</dim>
					<dim>3</dim>
				</port>
			</output>
		</layer>
		<layer id="272" name="conv2d_8/Conv2D/fq_weights_1/scale1094718792" type="Const" version="opset1">
			<data element_type="f16" offset="137136" shape="128,1,1,1" size="256"/>
			<output>
				<port id="0" precision="FP16">
					<dim>128</dim>
					<dim>1</dim>
					<dim>1</dim>
					<dim>1</dim>
				</port>
			</output>
		</layer>
		<layer id="273" name="conv2d_8/Conv2D/fq_weights_1/mulpiply_by_scale" type="Multiply" version="opset1">
			<data auto_broadcast="numpy"/>
			<input>
				<port id="0">
					<dim>128</dim>
					<dim>64</dim>
					<dim>3</dim>
					<dim>3</dim>
				</port>
				<port id="1">
					<dim>128</dim>
					<dim>1</dim>
					<dim>1</dim>
					<dim>1</dim>
				</port>
			</input>
			<output>
				<port id="2" precision="FP16">
					<dim>128</dim>
					<dim>64</dim>
					<dim>3</dim>
					<dim>3</dim>
				</port>
			</output>
		</layer>
		<layer id="274" name="conv2d_8/Conv2D" type="Convolution" version="opset1">
			<data auto_pad="valid" dilations="1,1" pads_begin="0,0" pads_end="0,0" strides="2,2"/>
			<input>
				<port id="0">
					<dim>1</dim>
					<dim>64</dim>
					<dim>305</dim>
					<dim>305</dim>
				</port>
				<port id="1">
					<dim>128</dim>
					<dim>64</dim>
					<dim>3</dim>
					<dim>3</dim>
				</port>
			</input>
			<output>
				<port id="2" precision="FP16">
					<dim>1</dim>
					<dim>128</dim>
					<dim>152</dim>
					<dim>152</dim>
				</port>
			</output>
		</layer>
		<layer id="275" name="data_add_203752038076120370" type="Const" version="opset1">
			<data element_type="f16" offset="137392" shape="1,128,1,1" size="256"/>
			<output>
				<port id="0" precision="FP16">
					<dim>1</dim>
					<dim>128</dim>
					<dim>1</dim>
					<dim>1</dim>
				</port>
			</output>
		</layer>
		<layer id="276" name="batch_normalization_8/FusedBatchNorm/variance/Fused_Add_" type="Add" version="opset1">
			<data auto_broadcast="numpy"/>
			<input>
				<port id="0">
					<dim>1</dim>
					<dim>128</dim>
					<dim>152</dim>
					<dim>152</dim>
				</port>
				<port id="1">
					<dim>1</dim>
					<dim>128</dim>
					<dim>1</dim>
					<dim>1</dim>
				</port>
			</input>
			<output>
				<port id="2" names="batch_normalization_8/FusedBatchNorm:0" precision="FP16">
					<dim>1</dim>
					<dim>128</dim>
					<dim>152</dim>
					<dim>152</dim>
				</port>
			</output>
		</layer>
		<layer id="277" name="activation_8/mul" type="Mish" version="opset4">
			<input>
				<port id="0">
					<dim>1</dim>
					<dim>128</dim>
					<dim>152</dim>
					<dim>152</dim>
				</port>
			</input>
			<output>
				<port id="1" names="activation_8/mul:0" precision="FP16">
					<dim>1</dim>
					<dim>128</dim>
					<dim>152</dim>
					<dim>152</dim>
				</port>
			</output>
		</layer>
		<layer id="278" name="conv2d_10/Conv2D/fq_input_0" type="FakeQuantize" version="opset1">
			<data auto_broadcast="numpy" levels="256"/>
			<input>
				<port id="0">
					<dim>1</dim>
					<dim>128</dim>
					<dim>152</dim>
					<dim>152</dim>
				</port>
				<port id="1">
					<dim>1</dim>
					<dim>1</dim>
					<dim>1</dim>
					<dim>1</dim>
				</port>
				<port id="2">
					<dim>1</dim>
					<dim>1</dim>
					<dim>1</dim>
					<dim>1</dim>
				</port>
				<port id="3">
					<dim>1</dim>
					<dim>1</dim>
					<dim>1</dim>
					<dim>1</dim>
				</port>
				<port id="4">
					<dim>1</dim>
					<dim>1</dim>
					<dim>1</dim>
					<dim>1</dim>
				</port>
			</input>
			<output>
				<port id="5" precision="FP16">
					<dim>1</dim>
					<dim>128</dim>
					<dim>152</dim>
					<dim>152</dim>
				</port>
			</output>
		</layer>
		<layer id="279" name="batch_normalization_10/FusedBatchNorm/mean/Fused_Mul__copy7649564/quantized1125117877" type="Const" version="opset1">
			<data element_type="i8" offset="137648" shape="64,128,1,1" size="8192"/>
			<output>
				<port id="0" precision="I8">
					<dim>64</dim>
					<dim>128</dim>
					<dim>1</dim>
					<dim>1</dim>
				</port>
			</output>
		</layer>
		<layer id="280" name="batch_normalization_10/FusedBatchNorm/mean/Fused_Mul__copy7649564/quantized/to_f16" type="Convert" version="opset1">
			<data destination_type="f16"/>
			<input>
				<port id="0">
					<dim>64</dim>
					<dim>128</dim>
					<dim>1</dim>
					<dim>1</dim>
				</port>
			</input>
			<output>
				<port id="1" precision="FP16">
					<dim>64</dim>
					<dim>128</dim>
					<dim>1</dim>
					<dim>1</dim>
				</port>
			</output>
		</layer>
		<layer id="281" name="conv2d_10/Conv2D/fq_weights_1/zero_point1126420685" type="Const" version="opset1">
			<data element_type="f16" offset="145840" shape="64,1,1,1" size="128"/>
			<output>
				<port id="0" precision="FP16">
					<dim>64</dim>
					<dim>1</dim>
					<dim>1</dim>
					<dim>1</dim>
				</port>
			</output>
		</layer>
		<layer id="282" name="conv2d_10/Conv2D/fq_weights_1/minus_zp" type="Subtract" version="opset1">
			<data auto_broadcast="numpy"/>
			<input>
				<port id="0">
					<dim>64</dim>
					<dim>128</dim>
					<dim>1</dim>
					<dim>1</dim>
				</port>
				<port id="1">
					<dim>64</dim>
					<dim>1</dim>
					<dim>1</dim>
					<dim>1</dim>
				</port>
			</input>
			<output>
				<port id="2" precision="FP16">
					<dim>64</dim>
					<dim>128</dim>
					<dim>1</dim>
					<dim>1</dim>
				</port>
			</output>
		</layer>
		<layer id="283" name="conv2d_10/Conv2D/fq_weights_1/scale1125919398" type="Const" version="opset1">
			<data element_type="f16" offset="145968" shape="64,1,1,1" size="128"/>
			<output>
				<port id="0" precision="FP16">
					<dim>64</dim>
					<dim>1</dim>
					<dim>1</dim>
					<dim>1</dim>
				</port>
			</output>
		</layer>
		<layer id="284" name="conv2d_10/Conv2D/fq_weights_1/mulpiply_by_scale" type="Multiply" version="opset1">
			<data auto_broadcast="numpy"/>
			<input>
				<port id="0">
					<dim>64</dim>
					<dim>128</dim>
					<dim>1</dim>
					<dim>1</dim>
				</port>
				<port id="1">
					<dim>64</dim>
					<dim>1</dim>
					<dim>1</dim>
					<dim>1</dim>
				</port>
			</input>
			<output>
				<port id="2" precision="FP16">
					<dim>64</dim>
					<dim>128</dim>
					<dim>1</dim>
					<dim>1</dim>
				</port>
			</output>
		</layer>
		<layer id="285" name="conv2d_10/Conv2D" type="Convolution" version="opset1">
			<data auto_pad="same_upper" dilations="1,1" pads_begin="0,0" pads_end="0,0" strides="1,1"/>
			<input>
				<port id="0">
					<dim>1</dim>
					<dim>128</dim>
					<dim>152</dim>
					<dim>152</dim>
				</port>
				<port id="1">
					<dim>64</dim>
					<dim>128</dim>
					<dim>1</dim>
					<dim>1</dim>
				</port>
			</input>
			<output>
				<port id="2" precision="FP16">
					<dim>1</dim>
					<dim>64</dim>
					<dim>152</dim>
					<dim>152</dim>
				</port>
			</output>
		</layer>
		<layer id="286" name="data_add_203912039676619587" type="Const" version="opset1">
			<data element_type="f16" offset="146096" shape="1,64,1,1" size="128"/>
			<output>
				<port id="0" precision="FP16">
					<dim>1</dim>
					<dim>64</dim>
					<dim>1</dim>
					<dim>1</dim>
				</port>
			</output>
		</layer>
		<layer id="287" name="batch_normalization_10/FusedBatchNorm/variance/Fused_Add_" type="Add" version="opset1">
			<data auto_broadcast="numpy"/>
			<input>
				<port id="0">
					<dim>1</dim>
					<dim>64</dim>
					<dim>152</dim>
					<dim>152</dim>
				</port>
				<port id="1">
					<dim>1</dim>
					<dim>64</dim>
					<dim>1</dim>
					<dim>1</dim>
				</port>
			</input>
			<output>
				<port id="2" names="batch_normalization_10/FusedBatchNorm:0" precision="FP16">
					<dim>1</dim>
					<dim>64</dim>
					<dim>152</dim>
					<dim>152</dim>
				</port>
			</output>
		</layer>
		<layer id="288" name="activation_10/mul" type="Mish" version="opset4">
			<input>
				<port id="0">
					<dim>1</dim>
					<dim>64</dim>
					<dim>152</dim>
					<dim>152</dim>
				</port>
			</input>
			<output>
				<port id="1" names="activation_10/mul:0" precision="FP16">
					<dim>1</dim>
					<dim>64</dim>
					<dim>152</dim>
					<dim>152</dim>
				</port>
			</output>
		</layer>
		<layer id="289" name="add_1/add/fq_input_0" type="FakeQuantize" version="opset1">
			<data auto_broadcast="numpy" levels="256"/>
			<input>
				<port id="0">
					<dim>1</dim>
					<dim>64</dim>
					<dim>152</dim>
					<dim>152</dim>
				</port>
				<port id="1">
					<dim>1</dim>
					<dim>1</dim>
					<dim>1</dim>
					<dim>1</dim>
				</port>
				<port id="2">
					<dim>1</dim>
					<dim>1</dim>
					<dim>1</dim>
					<dim>1</dim>
				</port>
				<port id="3">
					<dim>1</dim>
					<dim>1</dim>
					<dim>1</dim>
					<dim>1</dim>
				</port>
				<port id="4">
					<dim>1</dim>
					<dim>1</dim>
					<dim>1</dim>
					<dim>1</dim>
				</port>
			</input>
			<output>
				<port id="5" precision="FP16">
					<dim>1</dim>
					<dim>64</dim>
					<dim>152</dim>
					<dim>152</dim>
				</port>
			</output>
		</layer>
		<layer id="290" name="3769377320115" type="Const" version="opset1">
			<data element_type="f16" offset="102" shape="1,1,1,1" size="2"/>
			<output>
				<port id="0" precision="FP16">
					<dim>1</dim>
					<dim>1</dim>
					<dim>1</dim>
					<dim>1</dim>
				</port>
			</output>
		</layer>
		<layer id="291" name="3770377418150" type="Const" version="opset1">
			<data element_type="f16" offset="146224" shape="1,1,1,1" size="2"/>
			<output>
				<port id="0" precision="FP16">
					<dim>1</dim>
					<dim>1</dim>
					<dim>1</dim>
					<dim>1</dim>
				</port>
			</output>
		</layer>
		<layer id="292" name="3771377520523" type="Const" version="opset1">
			<data element_type="f16" offset="102" shape="1,1,1,1" size="2"/>
			<output>
				<port id="0" precision="FP16">
					<dim>1</dim>
					<dim>1</dim>
					<dim>1</dim>
					<dim>1</dim>
				</port>
			</output>
		</layer>
		<layer id="293" name="3772377618693" type="Const" version="opset1">
			<data element_type="f16" offset="146224" shape="1,1,1,1" size="2"/>
			<output>
				<port id="0" precision="FP16">
					<dim>1</dim>
					<dim>1</dim>
					<dim>1</dim>
					<dim>1</dim>
				</port>
			</output>
		</layer>
		<layer id="294" name="3319332320955" type="Const" version="opset1">
			<data element_type="f16" offset="146226" shape="1,1,1,1" size="2"/>
			<output>
				<port id="0" precision="FP16">
					<dim>1</dim>
					<dim>1</dim>
					<dim>1</dim>
					<dim>1</dim>
				</port>
			</output>
		</layer>
		<layer id="295" name="3320332417919" type="Const" version="opset1">
			<data element_type="f16" offset="146228" shape="1,1,1,1" size="2"/>
			<output>
				<port id="0" precision="FP16">
					<dim>1</dim>
					<dim>1</dim>
					<dim>1</dim>
					<dim>1</dim>
				</port>
			</output>
		</layer>
		<layer id="296" name="3321332519593" type="Const" version="opset1">
			<data element_type="f16" offset="146226" shape="1,1,1,1" size="2"/>
			<output>
				<port id="0" precision="FP16">
					<dim>1</dim>
					<dim>1</dim>
					<dim>1</dim>
					<dim>1</dim>
				</port>
			</output>
		</layer>
		<layer id="297" name="3322332619404" type="Const" version="opset1">
			<data element_type="f16" offset="146228" shape="1,1,1,1" size="2"/>
			<output>
				<port id="0" precision="FP16">
					<dim>1</dim>
					<dim>1</dim>
					<dim>1</dim>
					<dim>1</dim>
				</port>
			</output>
		</layer>
		<layer id="298" name="batch_normalization_11/FusedBatchNorm/mean/Fused_Mul__copy7699566/quantized1278719758" type="Const" version="opset1">
			<data element_type="i8" offset="146230" shape="64,64,1,1" size="4096"/>
			<output>
				<port id="0" precision="I8">
					<dim>64</dim>
					<dim>64</dim>
					<dim>1</dim>
					<dim>1</dim>
				</port>
			</output>
		</layer>
		<layer id="299" name="batch_normalization_11/FusedBatchNorm/mean/Fused_Mul__copy7699566/quantized/to_f16" type="Convert" version="opset1">
			<data destination_type="f16"/>
			<input>
				<port id="0">
					<dim>64</dim>
					<dim>64</dim>
					<dim>1</dim>
					<dim>1</dim>
				</port>
			</input>
			<output>
				<port id="1" precision="FP16">
					<dim>64</dim>
					<dim>64</dim>
					<dim>1</dim>
					<dim>1</dim>
				</port>
			</output>
		</layer>
		<layer id="300" name="conv2d_11/Conv2D/fq_weights_1/zero_point1280018675" type="Const" version="opset1">
			<data element_type="f16" offset="150326" shape="64,1,1,1" size="128"/>
			<output>
				<port id="0" precision="FP16">
					<dim>64</dim>
					<dim>1</dim>
					<dim>1</dim>
					<dim>1</dim>
				</port>
			</output>
		</layer>
		<layer id="301" name="conv2d_11/Conv2D/fq_weights_1/minus_zp" type="Subtract" version="opset1">
			<data auto_broadcast="numpy"/>
			<input>
				<port id="0">
					<dim>64</dim>
					<dim>64</dim>
					<dim>1</dim>
					<dim>1</dim>
				</port>
				<port id="1">
					<dim>64</dim>
					<dim>1</dim>
					<dim>1</dim>
					<dim>1</dim>
				</port>
			</input>
			<output>
				<port id="2" precision="FP16">
					<dim>64</dim>
					<dim>64</dim>
					<dim>1</dim>
					<dim>1</dim>
				</port>
			</output>
		</layer>
		<layer id="302" name="conv2d_11/Conv2D/fq_weights_1/scale1279520007" type="Const" version="opset1">
			<data element_type="f16" offset="150454" shape="64,1,1,1" size="128"/>
			<output>
				<port id="0" precision="FP16">
					<dim>64</dim>
					<dim>1</dim>
					<dim>1</dim>
					<dim>1</dim>
				</port>
			</output>
		</layer>
		<layer id="303" name="conv2d_11/Conv2D/fq_weights_1/mulpiply_by_scale" type="Multiply" version="opset1">
			<data auto_broadcast="numpy"/>
			<input>
				<port id="0">
					<dim>64</dim>
					<dim>64</dim>
					<dim>1</dim>
					<dim>1</dim>
				</port>
				<port id="1">
					<dim>64</dim>
					<dim>1</dim>
					<dim>1</dim>
					<dim>1</dim>
				</port>
			</input>
			<output>
				<port id="2" precision="FP16">
					<dim>64</dim>
					<dim>64</dim>
					<dim>1</dim>
					<dim>1</dim>
				</port>
			</output>
		</layer>
		<layer id="304" name="conv2d_11/Conv2D" type="Convolution" version="opset1">
			<data auto_pad="same_upper" dilations="1,1" pads_begin="0,0" pads_end="0,0" strides="1,1"/>
			<input>
				<port id="0">
					<dim>1</dim>
					<dim>64</dim>
					<dim>152</dim>
					<dim>152</dim>
				</port>
				<port id="1">
					<dim>64</dim>
					<dim>64</dim>
					<dim>1</dim>
					<dim>1</dim>
				</port>
			</input>
			<output>
				<port id="2" precision="FP16">
					<dim>1</dim>
					<dim>64</dim>
					<dim>152</dim>
					<dim>152</dim>
				</port>
			</output>
		</layer>
		<layer id="305" name="data_add_203992040477119866" type="Const" version="opset1">
			<data element_type="f16" offset="150582" shape="1,64,1,1" size="128"/>
			<output>
				<port id="0" precision="FP16">
					<dim>1</dim>
					<dim>64</dim>
					<dim>1</dim>
					<dim>1</dim>
				</port>
			</output>
		</layer>
		<layer id="306" name="batch_normalization_11/FusedBatchNorm/variance/Fused_Add_" type="Add" version="opset1">
			<data auto_broadcast="numpy"/>
			<input>
				<port id="0">
					<dim>1</dim>
					<dim>64</dim>
					<dim>152</dim>
					<dim>152</dim>
				</port>
				<port id="1">
					<dim>1</dim>
					<dim>64</dim>
					<dim>1</dim>
					<dim>1</dim>
				</port>
			</input>
			<output>
				<port id="2" names="batch_normalization_11/FusedBatchNorm:0" precision="FP16">
					<dim>1</dim>
					<dim>64</dim>
					<dim>152</dim>
					<dim>152</dim>
				</port>
			</output>
		</layer>
		<layer id="307" name="activation_11/mul" type="Mish" version="opset4">
			<input>
				<port id="0">
					<dim>1</dim>
					<dim>64</dim>
					<dim>152</dim>
					<dim>152</dim>
				</port>
			</input>
			<output>
				<port id="1" names="activation_11/mul:0" precision="FP16">
					<dim>1</dim>
					<dim>64</dim>
					<dim>152</dim>
					<dim>152</dim>
				</port>
			</output>
		</layer>
		<layer id="308" name="conv2d_12/Conv2D/fq_input_0" type="FakeQuantize" version="opset1">
			<data auto_broadcast="numpy" levels="256"/>
			<input>
				<port id="0">
					<dim>1</dim>
					<dim>64</dim>
					<dim>152</dim>
					<dim>152</dim>
				</port>
				<port id="1">
					<dim>1</dim>
					<dim>1</dim>
					<dim>1</dim>
					<dim>1</dim>
				</port>
				<port id="2">
					<dim>1</dim>
					<dim>1</dim>
					<dim>1</dim>
					<dim>1</dim>
				</port>
				<port id="3">
					<dim>1</dim>
					<dim>1</dim>
					<dim>1</dim>
					<dim>1</dim>
				</port>
				<port id="4">
					<dim>1</dim>
					<dim>1</dim>
					<dim>1</dim>
					<dim>1</dim>
				</port>
			</input>
			<output>
				<port id="5" precision="FP16">
					<dim>1</dim>
					<dim>64</dim>
					<dim>152</dim>
					<dim>152</dim>
				</port>
			</output>
		</layer>
		<layer id="309" name="batch_normalization_12/FusedBatchNorm/mean/Fused_Mul__copy7749568/quantized1283519533" type="Const" version="opset1">
			<data element_type="i8" offset="150710" shape="64,64,3,3" size="36864"/>
			<output>
				<port id="0" precision="I8">
					<dim>64</dim>
					<dim>64</dim>
					<dim>3</dim>
					<dim>3</dim>
				</port>
			</output>
		</layer>
		<layer id="310" name="batch_normalization_12/FusedBatchNorm/mean/Fused_Mul__copy7749568/quantized/to_f16" type="Convert" version="opset1">
			<data destination_type="f16"/>
			<input>
				<port id="0">
					<dim>64</dim>
					<dim>64</dim>
					<dim>3</dim>
					<dim>3</dim>
				</port>
			</input>
			<output>
				<port id="1" precision="FP16">
					<dim>64</dim>
					<dim>64</dim>
					<dim>3</dim>
					<dim>3</dim>
				</port>
			</output>
		</layer>
		<layer id="311" name="conv2d_12/Conv2D/fq_weights_1/zero_point1284819185" type="Const" version="opset1">
			<data element_type="f16" offset="187574" shape="64,1,1,1" size="128"/>
			<output>
				<port id="0" precision="FP16">
					<dim>64</dim>
					<dim>1</dim>
					<dim>1</dim>
					<dim>1</dim>
				</port>
			</output>
		</layer>
		<layer id="312" name="conv2d_12/Conv2D/fq_weights_1/minus_zp" type="Subtract" version="opset1">
			<data auto_broadcast="numpy"/>
			<input>
				<port id="0">
					<dim>64</dim>
					<dim>64</dim>
					<dim>3</dim>
					<dim>3</dim>
				</port>
				<port id="1">
					<dim>64</dim>
					<dim>1</dim>
					<dim>1</dim>
					<dim>1</dim>
				</port>
			</input>
			<output>
				<port id="2" precision="FP16">
					<dim>64</dim>
					<dim>64</dim>
					<dim>3</dim>
					<dim>3</dim>
				</port>
			</output>
		</layer>
		<layer id="313" name="conv2d_12/Conv2D/fq_weights_1/scale1284320256" type="Const" version="opset1">
			<data element_type="f16" offset="187702" shape="64,1,1,1" size="128"/>
			<output>
				<port id="0" precision="FP16">
					<dim>64</dim>
					<dim>1</dim>
					<dim>1</dim>
					<dim>1</dim>
				</port>
			</output>
		</layer>
		<layer id="314" name="conv2d_12/Conv2D/fq_weights_1/mulpiply_by_scale" type="Multiply" version="opset1">
			<data auto_broadcast="numpy"/>
			<input>
				<port id="0">
					<dim>64</dim>
					<dim>64</dim>
					<dim>3</dim>
					<dim>3</dim>
				</port>
				<port id="1">
					<dim>64</dim>
					<dim>1</dim>
					<dim>1</dim>
					<dim>1</dim>
				</port>
			</input>
			<output>
				<port id="2" precision="FP16">
					<dim>64</dim>
					<dim>64</dim>
					<dim>3</dim>
					<dim>3</dim>
				</port>
			</output>
		</layer>
		<layer id="315" name="conv2d_12/Conv2D" type="Convolution" version="opset1">
			<data auto_pad="same_upper" dilations="1,1" pads_begin="0,0" pads_end="0,0" strides="1,1"/>
			<input>
				<port id="0">
					<dim>1</dim>
					<dim>64</dim>
					<dim>152</dim>
					<dim>152</dim>
				</port>
				<port id="1">
					<dim>64</dim>
					<dim>64</dim>
					<dim>3</dim>
					<dim>3</dim>
				</port>
			</input>
			<output>
				<port id="2" precision="FP16">
					<dim>1</dim>
					<dim>64</dim>
					<dim>152</dim>
					<dim>152</dim>
				</port>
			</output>
		</layer>
		<layer id="316" name="data_add_204072041277619761" type="Const" version="opset1">
			<data element_type="f16" offset="187830" shape="1,64,1,1" size="128"/>
			<output>
				<port id="0" precision="FP16">
					<dim>1</dim>
					<dim>64</dim>
					<dim>1</dim>
					<dim>1</dim>
				</port>
			</output>
		</layer>
		<layer id="317" name="batch_normalization_12/FusedBatchNorm/variance/Fused_Add_" type="Add" version="opset1">
			<data auto_broadcast="numpy"/>
			<input>
				<port id="0">
					<dim>1</dim>
					<dim>64</dim>
					<dim>152</dim>
					<dim>152</dim>
				</port>
				<port id="1">
					<dim>1</dim>
					<dim>64</dim>
					<dim>1</dim>
					<dim>1</dim>
				</port>
			</input>
			<output>
				<port id="2" names="batch_normalization_12/FusedBatchNorm:0" precision="FP16">
					<dim>1</dim>
					<dim>64</dim>
					<dim>152</dim>
					<dim>152</dim>
				</port>
			</output>
		</layer>
		<layer id="318" name="activation_12/mul" type="Mish" version="opset4">
			<input>
				<port id="0">
					<dim>1</dim>
					<dim>64</dim>
					<dim>152</dim>
					<dim>152</dim>
				</port>
			</input>
			<output>
				<port id="1" names="activation_12/mul:0" precision="FP16">
					<dim>1</dim>
					<dim>64</dim>
					<dim>152</dim>
					<dim>152</dim>
				</port>
			</output>
		</layer>
		<layer id="319" name="add_1/add/fq_input_1" type="FakeQuantize" version="opset1">
			<data auto_broadcast="numpy" levels="256"/>
			<input>
				<port id="0">
					<dim>1</dim>
					<dim>64</dim>
					<dim>152</dim>
					<dim>152</dim>
				</port>
				<port id="1">
					<dim>1</dim>
					<dim>1</dim>
					<dim>1</dim>
					<dim>1</dim>
				</port>
				<port id="2">
					<dim>1</dim>
					<dim>1</dim>
					<dim>1</dim>
					<dim>1</dim>
				</port>
				<port id="3">
					<dim>1</dim>
					<dim>1</dim>
					<dim>1</dim>
					<dim>1</dim>
				</port>
				<port id="4">
					<dim>1</dim>
					<dim>1</dim>
					<dim>1</dim>
					<dim>1</dim>
				</port>
			</input>
			<output>
				<port id="5" precision="FP16">
					<dim>1</dim>
					<dim>64</dim>
					<dim>152</dim>
					<dim>152</dim>
				</port>
			</output>
		</layer>
		<layer id="320" name="add_1/add" type="Add" version="opset1">
			<data auto_broadcast="numpy"/>
			<input>
				<port id="0">
					<dim>1</dim>
					<dim>64</dim>
					<dim>152</dim>
					<dim>152</dim>
				</port>
				<port id="1">
					<dim>1</dim>
					<dim>64</dim>
					<dim>152</dim>
					<dim>152</dim>
				</port>
			</input>
			<output>
				<port id="2" names="add_1/add:0" precision="FP16">
					<dim>1</dim>
					<dim>64</dim>
					<dim>152</dim>
					<dim>152</dim>
				</port>
			</output>
		</layer>
		<layer id="321" name="add_2/add/fq_input_0" type="FakeQuantize" version="opset1">
			<data auto_broadcast="numpy" levels="256"/>
			<input>
				<port id="0">
					<dim>1</dim>
					<dim>64</dim>
					<dim>152</dim>
					<dim>152</dim>
				</port>
				<port id="1">
					<dim>1</dim>
					<dim>1</dim>
					<dim>1</dim>
					<dim>1</dim>
				</port>
				<port id="2">
					<dim>1</dim>
					<dim>1</dim>
					<dim>1</dim>
					<dim>1</dim>
				</port>
				<port id="3">
					<dim>1</dim>
					<dim>1</dim>
					<dim>1</dim>
					<dim>1</dim>
				</port>
				<port id="4">
					<dim>1</dim>
					<dim>1</dim>
					<dim>1</dim>
					<dim>1</dim>
				</port>
			</input>
			<output>
				<port id="5" precision="FP16">
					<dim>1</dim>
					<dim>64</dim>
					<dim>152</dim>
					<dim>152</dim>
				</port>
			</output>
		</layer>
		<layer id="322" name="2399240319596" type="Const" version="opset1">
			<data element_type="f16" offset="187958" shape="1,1,1,1" size="2"/>
			<output>
				<port id="0" precision="FP16">
					<dim>1</dim>
					<dim>1</dim>
					<dim>1</dim>
					<dim>1</dim>
				</port>
			</output>
		</layer>
		<layer id="323" name="2400240420544" type="Const" version="opset1">
			<data element_type="f16" offset="187960" shape="1,1,1,1" size="2"/>
			<output>
				<port id="0" precision="FP16">
					<dim>1</dim>
					<dim>1</dim>
					<dim>1</dim>
					<dim>1</dim>
				</port>
			</output>
		</layer>
		<layer id="324" name="2401240519413" type="Const" version="opset1">
			<data element_type="f16" offset="187958" shape="1,1,1,1" size="2"/>
			<output>
				<port id="0" precision="FP16">
					<dim>1</dim>
					<dim>1</dim>
					<dim>1</dim>
					<dim>1</dim>
				</port>
			</output>
		</layer>
		<layer id="325" name="2402240618894" type="Const" version="opset1">
			<data element_type="f16" offset="187960" shape="1,1,1,1" size="2"/>
			<output>
				<port id="0" precision="FP16">
					<dim>1</dim>
					<dim>1</dim>
					<dim>1</dim>
					<dim>1</dim>
				</port>
			</output>
		</layer>
		<layer id="326" name="2489249317838" type="Const" version="opset1">
			<data element_type="f16" offset="102" shape="1,1,1,1" size="2"/>
			<output>
				<port id="0" precision="FP16">
					<dim>1</dim>
					<dim>1</dim>
					<dim>1</dim>
					<dim>1</dim>
				</port>
			</output>
		</layer>
		<layer id="327" name="2490249419440" type="Const" version="opset1">
			<data element_type="f16" offset="187962" shape="1,1,1,1" size="2"/>
			<output>
				<port id="0" precision="FP16">
					<dim>1</dim>
					<dim>1</dim>
					<dim>1</dim>
					<dim>1</dim>
				</port>
			</output>
		</layer>
		<layer id="328" name="2491249520412" type="Const" version="opset1">
			<data element_type="f16" offset="102" shape="1,1,1,1" size="2"/>
			<output>
				<port id="0" precision="FP16">
					<dim>1</dim>
					<dim>1</dim>
					<dim>1</dim>
					<dim>1</dim>
				</port>
			</output>
		</layer>
		<layer id="329" name="2492249618861" type="Const" version="opset1">
			<data element_type="f16" offset="187962" shape="1,1,1,1" size="2"/>
			<output>
				<port id="0" precision="FP16">
					<dim>1</dim>
					<dim>1</dim>
					<dim>1</dim>
					<dim>1</dim>
				</port>
			</output>
		</layer>
		<layer id="330" name="batch_normalization_13/FusedBatchNorm/mean/Fused_Mul__copy7809570/quantized1122719311" type="Const" version="opset1">
			<data element_type="i8" offset="187964" shape="64,64,1,1" size="4096"/>
			<output>
				<port id="0" precision="I8">
					<dim>64</dim>
					<dim>64</dim>
					<dim>1</dim>
					<dim>1</dim>
				</port>
			</output>
		</layer>
		<layer id="331" name="batch_normalization_13/FusedBatchNorm/mean/Fused_Mul__copy7809570/quantized/to_f16" type="Convert" version="opset1">
			<data destination_type="f16"/>
			<input>
				<port id="0">
					<dim>64</dim>
					<dim>64</dim>
					<dim>1</dim>
					<dim>1</dim>
				</port>
			</input>
			<output>
				<port id="1" precision="FP16">
					<dim>64</dim>
					<dim>64</dim>
					<dim>1</dim>
					<dim>1</dim>
				</port>
			</output>
		</layer>
		<layer id="332" name="conv2d_13/Conv2D/fq_weights_1/zero_point1124019875" type="Const" version="opset1">
			<data element_type="f16" offset="192060" shape="64,1,1,1" size="128"/>
			<output>
				<port id="0" precision="FP16">
					<dim>64</dim>
					<dim>1</dim>
					<dim>1</dim>
					<dim>1</dim>
				</port>
			</output>
		</layer>
		<layer id="333" name="conv2d_13/Conv2D/fq_weights_1/minus_zp" type="Subtract" version="opset1">
			<data auto_broadcast="numpy"/>
			<input>
				<port id="0">
					<dim>64</dim>
					<dim>64</dim>
					<dim>1</dim>
					<dim>1</dim>
				</port>
				<port id="1">
					<dim>64</dim>
					<dim>1</dim>
					<dim>1</dim>
					<dim>1</dim>
				</port>
			</input>
			<output>
				<port id="2" precision="FP16">
					<dim>64</dim>
					<dim>64</dim>
					<dim>1</dim>
					<dim>1</dim>
				</port>
			</output>
		</layer>
		<layer id="334" name="conv2d_13/Conv2D/fq_weights_1/scale1123519917" type="Const" version="opset1">
			<data element_type="f16" offset="192188" shape="64,1,1,1" size="128"/>
			<output>
				<port id="0" precision="FP16">
					<dim>64</dim>
					<dim>1</dim>
					<dim>1</dim>
					<dim>1</dim>
				</port>
			</output>
		</layer>
		<layer id="335" name="conv2d_13/Conv2D/fq_weights_1/mulpiply_by_scale" type="Multiply" version="opset1">
			<data auto_broadcast="numpy"/>
			<input>
				<port id="0">
					<dim>64</dim>
					<dim>64</dim>
					<dim>1</dim>
					<dim>1</dim>
				</port>
				<port id="1">
					<dim>64</dim>
					<dim>1</dim>
					<dim>1</dim>
					<dim>1</dim>
				</port>
			</input>
			<output>
				<port id="2" precision="FP16">
					<dim>64</dim>
					<dim>64</dim>
					<dim>1</dim>
					<dim>1</dim>
				</port>
			</output>
		</layer>
		<layer id="336" name="conv2d_13/Conv2D" type="Convolution" version="opset1">
			<data auto_pad="same_upper" dilations="1,1" pads_begin="0,0" pads_end="0,0" strides="1,1"/>
			<input>
				<port id="0">
					<dim>1</dim>
					<dim>64</dim>
					<dim>152</dim>
					<dim>152</dim>
				</port>
				<port id="1">
					<dim>64</dim>
					<dim>64</dim>
					<dim>1</dim>
					<dim>1</dim>
				</port>
			</input>
			<output>
				<port id="2" precision="FP16">
					<dim>1</dim>
					<dim>64</dim>
					<dim>152</dim>
					<dim>152</dim>
				</port>
			</output>
		</layer>
		<layer id="337" name="data_add_204152042078219551" type="Const" version="opset1">
			<data element_type="f16" offset="192316" shape="1,64,1,1" size="128"/>
			<output>
				<port id="0" precision="FP16">
					<dim>1</dim>
					<dim>64</dim>
					<dim>1</dim>
					<dim>1</dim>
				</port>
			</output>
		</layer>
		<layer id="338" name="batch_normalization_13/FusedBatchNorm/variance/Fused_Add_" type="Add" version="opset1">
			<data auto_broadcast="numpy"/>
			<input>
				<port id="0">
					<dim>1</dim>
					<dim>64</dim>
					<dim>152</dim>
					<dim>152</dim>
				</port>
				<port id="1">
					<dim>1</dim>
					<dim>64</dim>
					<dim>1</dim>
					<dim>1</dim>
				</port>
			</input>
			<output>
				<port id="2" names="batch_normalization_13/FusedBatchNorm:0" precision="FP16">
					<dim>1</dim>
					<dim>64</dim>
					<dim>152</dim>
					<dim>152</dim>
				</port>
			</output>
		</layer>
		<layer id="339" name="activation_13/mul" type="Mish" version="opset4">
			<input>
				<port id="0">
					<dim>1</dim>
					<dim>64</dim>
					<dim>152</dim>
					<dim>152</dim>
				</port>
			</input>
			<output>
				<port id="1" names="activation_13/mul:0" precision="FP16">
					<dim>1</dim>
					<dim>64</dim>
					<dim>152</dim>
					<dim>152</dim>
				</port>
			</output>
		</layer>
		<layer id="340" name="conv2d_14/Conv2D/fq_input_0" type="FakeQuantize" version="opset1">
			<data auto_broadcast="numpy" levels="256"/>
			<input>
				<port id="0">
					<dim>1</dim>
					<dim>64</dim>
					<dim>152</dim>
					<dim>152</dim>
				</port>
				<port id="1">
					<dim>1</dim>
					<dim>1</dim>
					<dim>1</dim>
					<dim>1</dim>
				</port>
				<port id="2">
					<dim>1</dim>
					<dim>1</dim>
					<dim>1</dim>
					<dim>1</dim>
				</port>
				<port id="3">
					<dim>1</dim>
					<dim>1</dim>
					<dim>1</dim>
					<dim>1</dim>
				</port>
				<port id="4">
					<dim>1</dim>
					<dim>1</dim>
					<dim>1</dim>
					<dim>1</dim>
				</port>
			</input>
			<output>
				<port id="5" precision="FP16">
					<dim>1</dim>
					<dim>64</dim>
					<dim>152</dim>
					<dim>152</dim>
				</port>
			</output>
		</layer>
		<layer id="341" name="batch_normalization_14/FusedBatchNorm/mean/Fused_Mul__copy7859572/quantized1182718423" type="Const" version="opset1">
			<data element_type="i8" offset="192444" shape="64,64,3,3" size="36864"/>
			<output>
				<port id="0" precision="I8">
					<dim>64</dim>
					<dim>64</dim>
					<dim>3</dim>
					<dim>3</dim>
				</port>
			</output>
		</layer>
		<layer id="342" name="batch_normalization_14/FusedBatchNorm/mean/Fused_Mul__copy7859572/quantized/to_f16" type="Convert" version="opset1">
			<data destination_type="f16"/>
			<input>
				<port id="0">
					<dim>64</dim>
					<dim>64</dim>
					<dim>3</dim>
					<dim>3</dim>
				</port>
			</input>
			<output>
				<port id="1" precision="FP16">
					<dim>64</dim>
					<dim>64</dim>
					<dim>3</dim>
					<dim>3</dim>
				</port>
			</output>
		</layer>
		<layer id="343" name="conv2d_14/Conv2D/fq_weights_1/zero_point1184019998" type="Const" version="opset1">
			<data element_type="f16" offset="229308" shape="64,1,1,1" size="128"/>
			<output>
				<port id="0" precision="FP16">
					<dim>64</dim>
					<dim>1</dim>
					<dim>1</dim>
					<dim>1</dim>
				</port>
			</output>
		</layer>
		<layer id="344" name="conv2d_14/Conv2D/fq_weights_1/minus_zp" type="Subtract" version="opset1">
			<data auto_broadcast="numpy"/>
			<input>
				<port id="0">
					<dim>64</dim>
					<dim>64</dim>
					<dim>3</dim>
					<dim>3</dim>
				</port>
				<port id="1">
					<dim>64</dim>
					<dim>1</dim>
					<dim>1</dim>
					<dim>1</dim>
				</port>
			</input>
			<output>
				<port id="2" precision="FP16">
					<dim>64</dim>
					<dim>64</dim>
					<dim>3</dim>
					<dim>3</dim>
				</port>
			</output>
		</layer>
		<layer id="345" name="conv2d_14/Conv2D/fq_weights_1/scale1183519446" type="Const" version="opset1">
			<data element_type="f16" offset="229436" shape="64,1,1,1" size="128"/>
			<output>
				<port id="0" precision="FP16">
					<dim>64</dim>
					<dim>1</dim>
					<dim>1</dim>
					<dim>1</dim>
				</port>
			</output>
		</layer>
		<layer id="346" name="conv2d_14/Conv2D/fq_weights_1/mulpiply_by_scale" type="Multiply" version="opset1">
			<data auto_broadcast="numpy"/>
			<input>
				<port id="0">
					<dim>64</dim>
					<dim>64</dim>
					<dim>3</dim>
					<dim>3</dim>
				</port>
				<port id="1">
					<dim>64</dim>
					<dim>1</dim>
					<dim>1</dim>
					<dim>1</dim>
				</port>
			</input>
			<output>
				<port id="2" precision="FP16">
					<dim>64</dim>
					<dim>64</dim>
					<dim>3</dim>
					<dim>3</dim>
				</port>
			</output>
		</layer>
		<layer id="347" name="conv2d_14/Conv2D" type="Convolution" version="opset1">
			<data auto_pad="same_upper" dilations="1,1" pads_begin="0,0" pads_end="0,0" strides="1,1"/>
			<input>
				<port id="0">
					<dim>1</dim>
					<dim>64</dim>
					<dim>152</dim>
					<dim>152</dim>
				</port>
				<port id="1">
					<dim>64</dim>
					<dim>64</dim>
					<dim>3</dim>
					<dim>3</dim>
				</port>
			</input>
			<output>
				<port id="2" precision="FP16">
					<dim>1</dim>
					<dim>64</dim>
					<dim>152</dim>
					<dim>152</dim>
				</port>
			</output>
		</layer>
		<layer id="348" name="data_add_204232042878720586" type="Const" version="opset1">
			<data element_type="f16" offset="229564" shape="1,64,1,1" size="128"/>
			<output>
				<port id="0" precision="FP16">
					<dim>1</dim>
					<dim>64</dim>
					<dim>1</dim>
					<dim>1</dim>
				</port>
			</output>
		</layer>
		<layer id="349" name="batch_normalization_14/FusedBatchNorm/variance/Fused_Add_" type="Add" version="opset1">
			<data auto_broadcast="numpy"/>
			<input>
				<port id="0">
					<dim>1</dim>
					<dim>64</dim>
					<dim>152</dim>
					<dim>152</dim>
				</port>
				<port id="1">
					<dim>1</dim>
					<dim>64</dim>
					<dim>1</dim>
					<dim>1</dim>
				</port>
			</input>
			<output>
				<port id="2" names="batch_normalization_14/FusedBatchNorm:0" precision="FP16">
					<dim>1</dim>
					<dim>64</dim>
					<dim>152</dim>
					<dim>152</dim>
				</port>
			</output>
		</layer>
		<layer id="350" name="activation_14/mul" type="Mish" version="opset4">
			<input>
				<port id="0">
					<dim>1</dim>
					<dim>64</dim>
					<dim>152</dim>
					<dim>152</dim>
				</port>
			</input>
			<output>
				<port id="1" names="activation_14/mul:0" precision="FP16">
					<dim>1</dim>
					<dim>64</dim>
					<dim>152</dim>
					<dim>152</dim>
				</port>
			</output>
		</layer>
		<layer id="351" name="add_2/add/fq_input_1" type="FakeQuantize" version="opset1">
			<data auto_broadcast="numpy" levels="256"/>
			<input>
				<port id="0">
					<dim>1</dim>
					<dim>64</dim>
					<dim>152</dim>
					<dim>152</dim>
				</port>
				<port id="1">
					<dim>1</dim>
					<dim>1</dim>
					<dim>1</dim>
					<dim>1</dim>
				</port>
				<port id="2">
					<dim>1</dim>
					<dim>1</dim>
					<dim>1</dim>
					<dim>1</dim>
				</port>
				<port id="3">
					<dim>1</dim>
					<dim>1</dim>
					<dim>1</dim>
					<dim>1</dim>
				</port>
				<port id="4">
					<dim>1</dim>
					<dim>1</dim>
					<dim>1</dim>
					<dim>1</dim>
				</port>
			</input>
			<output>
				<port id="5" precision="FP16">
					<dim>1</dim>
					<dim>64</dim>
					<dim>152</dim>
					<dim>152</dim>
				</port>
			</output>
		</layer>
		<layer id="352" name="add_2/add" type="Add" version="opset1">
			<data auto_broadcast="numpy"/>
			<input>
				<port id="0">
					<dim>1</dim>
					<dim>64</dim>
					<dim>152</dim>
					<dim>152</dim>
				</port>
				<port id="1">
					<dim>1</dim>
					<dim>64</dim>
					<dim>152</dim>
					<dim>152</dim>
				</port>
			</input>
			<output>
				<port id="2" names="add_2/add:0" precision="FP16">
					<dim>1</dim>
					<dim>64</dim>
					<dim>152</dim>
					<dim>152</dim>
				</port>
			</output>
		</layer>
		<layer id="353" name="conv2d_15/Conv2D/fq_input_0" type="FakeQuantize" version="opset1">
			<data auto_broadcast="numpy" levels="256"/>
			<input>
				<port id="0">
					<dim>1</dim>
					<dim>64</dim>
					<dim>152</dim>
					<dim>152</dim>
				</port>
				<port id="1">
					<dim>1</dim>
					<dim>1</dim>
					<dim>1</dim>
					<dim>1</dim>
				</port>
				<port id="2">
					<dim>1</dim>
					<dim>1</dim>
					<dim>1</dim>
					<dim>1</dim>
				</port>
				<port id="3">
					<dim>1</dim>
					<dim>1</dim>
					<dim>1</dim>
					<dim>1</dim>
				</port>
				<port id="4">
					<dim>1</dim>
					<dim>1</dim>
					<dim>1</dim>
					<dim>1</dim>
				</port>
			</input>
			<output>
				<port id="5" precision="FP16">
					<dim>1</dim>
					<dim>64</dim>
					<dim>152</dim>
					<dim>152</dim>
				</port>
			</output>
		</layer>
		<layer id="354" name="batch_normalization_15/FusedBatchNorm/mean/Fused_Mul__copy7919574/quantized1237919947" type="Const" version="opset1">
			<data element_type="i8" offset="229692" shape="64,64,1,1" size="4096"/>
			<output>
				<port id="0" precision="I8">
					<dim>64</dim>
					<dim>64</dim>
					<dim>1</dim>
					<dim>1</dim>
				</port>
			</output>
		</layer>
		<layer id="355" name="batch_normalization_15/FusedBatchNorm/mean/Fused_Mul__copy7919574/quantized/to_f16" type="Convert" version="opset1">
			<data destination_type="f16"/>
			<input>
				<port id="0">
					<dim>64</dim>
					<dim>64</dim>
					<dim>1</dim>
					<dim>1</dim>
				</port>
			</input>
			<output>
				<port id="1" precision="FP16">
					<dim>64</dim>
					<dim>64</dim>
					<dim>1</dim>
					<dim>1</dim>
				</port>
			</output>
		</layer>
		<layer id="356" name="conv2d_15/Conv2D/fq_weights_1/zero_point1239218624" type="Const" version="opset1">
			<data element_type="f16" offset="233788" shape="64,1,1,1" size="128"/>
			<output>
				<port id="0" precision="FP16">
					<dim>64</dim>
					<dim>1</dim>
					<dim>1</dim>
					<dim>1</dim>
				</port>
			</output>
		</layer>
		<layer id="357" name="conv2d_15/Conv2D/fq_weights_1/minus_zp" type="Subtract" version="opset1">
			<data auto_broadcast="numpy"/>
			<input>
				<port id="0">
					<dim>64</dim>
					<dim>64</dim>
					<dim>1</dim>
					<dim>1</dim>
				</port>
				<port id="1">
					<dim>64</dim>
					<dim>1</dim>
					<dim>1</dim>
					<dim>1</dim>
				</port>
			</input>
			<output>
				<port id="2" precision="FP16">
					<dim>64</dim>
					<dim>64</dim>
					<dim>1</dim>
					<dim>1</dim>
				</port>
			</output>
		</layer>
		<layer id="358" name="conv2d_15/Conv2D/fq_weights_1/scale1238717802" type="Const" version="opset1">
			<data element_type="f16" offset="233916" shape="64,1,1,1" size="128"/>
			<output>
				<port id="0" precision="FP16">
					<dim>64</dim>
					<dim>1</dim>
					<dim>1</dim>
					<dim>1</dim>
				</port>
			</output>
		</layer>
		<layer id="359" name="conv2d_15/Conv2D/fq_weights_1/mulpiply_by_scale" type="Multiply" version="opset1">
			<data auto_broadcast="numpy"/>
			<input>
				<port id="0">
					<dim>64</dim>
					<dim>64</dim>
					<dim>1</dim>
					<dim>1</dim>
				</port>
				<port id="1">
					<dim>64</dim>
					<dim>1</dim>
					<dim>1</dim>
					<dim>1</dim>
				</port>
			</input>
			<output>
				<port id="2" precision="FP16">
					<dim>64</dim>
					<dim>64</dim>
					<dim>1</dim>
					<dim>1</dim>
				</port>
			</output>
		</layer>
		<layer id="360" name="conv2d_15/Conv2D" type="Convolution" version="opset1">
			<data auto_pad="same_upper" dilations="1,1" pads_begin="0,0" pads_end="0,0" strides="1,1"/>
			<input>
				<port id="0">
					<dim>1</dim>
					<dim>64</dim>
					<dim>152</dim>
					<dim>152</dim>
				</port>
				<port id="1">
					<dim>64</dim>
					<dim>64</dim>
					<dim>1</dim>
					<dim>1</dim>
				</port>
			</input>
			<output>
				<port id="2" precision="FP16">
					<dim>1</dim>
					<dim>64</dim>
					<dim>152</dim>
					<dim>152</dim>
				</port>
			</output>
		</layer>
		<layer id="361" name="data_add_204312043679319692" type="Const" version="opset1">
			<data element_type="f16" offset="234044" shape="1,64,1,1" size="128"/>
			<output>
				<port id="0" precision="FP16">
					<dim>1</dim>
					<dim>64</dim>
					<dim>1</dim>
					<dim>1</dim>
				</port>
			</output>
		</layer>
		<layer id="362" name="batch_normalization_15/FusedBatchNorm/variance/Fused_Add_" type="Add" version="opset1">
			<data auto_broadcast="numpy"/>
			<input>
				<port id="0">
					<dim>1</dim>
					<dim>64</dim>
					<dim>152</dim>
					<dim>152</dim>
				</port>
				<port id="1">
					<dim>1</dim>
					<dim>64</dim>
					<dim>1</dim>
					<dim>1</dim>
				</port>
			</input>
			<output>
				<port id="2" names="batch_normalization_15/FusedBatchNorm:0" precision="FP16">
					<dim>1</dim>
					<dim>64</dim>
					<dim>152</dim>
					<dim>152</dim>
				</port>
			</output>
		</layer>
		<layer id="363" name="activation_15/mul" type="Mish" version="opset4">
			<input>
				<port id="0">
					<dim>1</dim>
					<dim>64</dim>
					<dim>152</dim>
					<dim>152</dim>
				</port>
			</input>
			<output>
				<port id="1" names="activation_15/mul:0" precision="FP16">
					<dim>1</dim>
					<dim>64</dim>
					<dim>152</dim>
					<dim>152</dim>
				</port>
			</output>
		</layer>
		<layer id="364" name="concatenate_1/concat/fq_input_0" type="FakeQuantize" version="opset1">
			<data auto_broadcast="numpy" levels="256"/>
			<input>
				<port id="0">
					<dim>1</dim>
					<dim>64</dim>
					<dim>152</dim>
					<dim>152</dim>
				</port>
				<port id="1">
					<dim>1</dim>
					<dim>1</dim>
					<dim>1</dim>
					<dim>1</dim>
				</port>
				<port id="2">
					<dim>1</dim>
					<dim>1</dim>
					<dim>1</dim>
					<dim>1</dim>
				</port>
				<port id="3">
					<dim>1</dim>
					<dim>1</dim>
					<dim>1</dim>
					<dim>1</dim>
				</port>
				<port id="4">
					<dim>1</dim>
					<dim>1</dim>
					<dim>1</dim>
					<dim>1</dim>
				</port>
			</input>
			<output>
				<port id="5" precision="FP16">
					<dim>1</dim>
					<dim>64</dim>
					<dim>152</dim>
					<dim>152</dim>
				</port>
			</output>
		</layer>
		<layer id="365" name="6451645519251" type="Const" version="opset1">
			<data element_type="f16" offset="234172" shape="1,1,1,1" size="2"/>
			<output>
				<port id="0" precision="FP16">
					<dim>1</dim>
					<dim>1</dim>
					<dim>1</dim>
					<dim>1</dim>
				</port>
			</output>
		</layer>
		<layer id="366" name="6452645618996" type="Const" version="opset1">
			<data element_type="f16" offset="234174" shape="1,1,1,1" size="2"/>
			<output>
				<port id="0" precision="FP16">
					<dim>1</dim>
					<dim>1</dim>
					<dim>1</dim>
					<dim>1</dim>
				</port>
			</output>
		</layer>
		<layer id="367" name="6453645719659" type="Const" version="opset1">
			<data element_type="f16" offset="234172" shape="1,1,1,1" size="2"/>
			<output>
				<port id="0" precision="FP16">
					<dim>1</dim>
					<dim>1</dim>
					<dim>1</dim>
					<dim>1</dim>
				</port>
			</output>
		</layer>
		<layer id="368" name="6454645819557" type="Const" version="opset1">
			<data element_type="f16" offset="234174" shape="1,1,1,1" size="2"/>
			<output>
				<port id="0" precision="FP16">
					<dim>1</dim>
					<dim>1</dim>
					<dim>1</dim>
					<dim>1</dim>
				</port>
			</output>
		</layer>
		<layer id="369" name="batch_normalization_9/FusedBatchNorm/mean/Fused_Mul__copy7969576/quantized1134718918" type="Const" version="opset1">
			<data element_type="i8" offset="234176" shape="64,128,1,1" size="8192"/>
			<output>
				<port id="0" precision="I8">
					<dim>64</dim>
					<dim>128</dim>
					<dim>1</dim>
					<dim>1</dim>
				</port>
			</output>
		</layer>
		<layer id="370" name="batch_normalization_9/FusedBatchNorm/mean/Fused_Mul__copy7969576/quantized/to_f16" type="Convert" version="opset1">
			<data destination_type="f16"/>
			<input>
				<port id="0">
					<dim>64</dim>
					<dim>128</dim>
					<dim>1</dim>
					<dim>1</dim>
				</port>
			</input>
			<output>
				<port id="1" precision="FP16">
					<dim>64</dim>
					<dim>128</dim>
					<dim>1</dim>
					<dim>1</dim>
				</port>
			</output>
		</layer>
		<layer id="371" name="conv2d_9/Conv2D/fq_weights_1/zero_point1136019485" type="Const" version="opset1">
			<data element_type="f16" offset="242368" shape="64,1,1,1" size="128"/>
			<output>
				<port id="0" precision="FP16">
					<dim>64</dim>
					<dim>1</dim>
					<dim>1</dim>
					<dim>1</dim>
				</port>
			</output>
		</layer>
		<layer id="372" name="conv2d_9/Conv2D/fq_weights_1/minus_zp" type="Subtract" version="opset1">
			<data auto_broadcast="numpy"/>
			<input>
				<port id="0">
					<dim>64</dim>
					<dim>128</dim>
					<dim>1</dim>
					<dim>1</dim>
				</port>
				<port id="1">
					<dim>64</dim>
					<dim>1</dim>
					<dim>1</dim>
					<dim>1</dim>
				</port>
			</input>
			<output>
				<port id="2" precision="FP16">
					<dim>64</dim>
					<dim>128</dim>
					<dim>1</dim>
					<dim>1</dim>
				</port>
			</output>
		</layer>
		<layer id="373" name="conv2d_9/Conv2D/fq_weights_1/scale1135520004" type="Const" version="opset1">
			<data element_type="f16" offset="242496" shape="64,1,1,1" size="128"/>
			<output>
				<port id="0" precision="FP16">
					<dim>64</dim>
					<dim>1</dim>
					<dim>1</dim>
					<dim>1</dim>
				</port>
			</output>
		</layer>
		<layer id="374" name="conv2d_9/Conv2D/fq_weights_1/mulpiply_by_scale" type="Multiply" version="opset1">
			<data auto_broadcast="numpy"/>
			<input>
				<port id="0">
					<dim>64</dim>
					<dim>128</dim>
					<dim>1</dim>
					<dim>1</dim>
				</port>
				<port id="1">
					<dim>64</dim>
					<dim>1</dim>
					<dim>1</dim>
					<dim>1</dim>
				</port>
			</input>
			<output>
				<port id="2" precision="FP16">
					<dim>64</dim>
					<dim>128</dim>
					<dim>1</dim>
					<dim>1</dim>
				</port>
			</output>
		</layer>
		<layer id="375" name="conv2d_9/Conv2D" type="Convolution" version="opset1">
			<data auto_pad="same_upper" dilations="1,1" pads_begin="0,0" pads_end="0,0" strides="1,1"/>
			<input>
				<port id="0">
					<dim>1</dim>
					<dim>128</dim>
					<dim>152</dim>
					<dim>152</dim>
				</port>
				<port id="1">
					<dim>64</dim>
					<dim>128</dim>
					<dim>1</dim>
					<dim>1</dim>
				</port>
			</input>
			<output>
				<port id="2" precision="FP16">
					<dim>1</dim>
					<dim>64</dim>
					<dim>152</dim>
					<dim>152</dim>
				</port>
			</output>
		</layer>
		<layer id="376" name="data_add_203832038879818981" type="Const" version="opset1">
			<data element_type="f16" offset="242624" shape="1,64,1,1" size="128"/>
			<output>
				<port id="0" precision="FP16">
					<dim>1</dim>
					<dim>64</dim>
					<dim>1</dim>
					<dim>1</dim>
				</port>
			</output>
		</layer>
		<layer id="377" name="batch_normalization_9/FusedBatchNorm/variance/Fused_Add_" type="Add" version="opset1">
			<data auto_broadcast="numpy"/>
			<input>
				<port id="0">
					<dim>1</dim>
					<dim>64</dim>
					<dim>152</dim>
					<dim>152</dim>
				</port>
				<port id="1">
					<dim>1</dim>
					<dim>64</dim>
					<dim>1</dim>
					<dim>1</dim>
				</port>
			</input>
			<output>
				<port id="2" names="batch_normalization_9/FusedBatchNorm:0" precision="FP16">
					<dim>1</dim>
					<dim>64</dim>
					<dim>152</dim>
					<dim>152</dim>
				</port>
			</output>
		</layer>
		<layer id="378" name="activation_9/mul" type="Mish" version="opset4">
			<input>
				<port id="0">
					<dim>1</dim>
					<dim>64</dim>
					<dim>152</dim>
					<dim>152</dim>
				</port>
			</input>
			<output>
				<port id="1" names="activation_9/mul:0" precision="FP16">
					<dim>1</dim>
					<dim>64</dim>
					<dim>152</dim>
					<dim>152</dim>
				</port>
			</output>
		</layer>
		<layer id="379" name="concatenate_1/concat/fq_input_1" type="FakeQuantize" version="opset1">
			<data auto_broadcast="numpy" levels="256"/>
			<input>
				<port id="0">
					<dim>1</dim>
					<dim>64</dim>
					<dim>152</dim>
					<dim>152</dim>
				</port>
				<port id="1">
					<dim>1</dim>
					<dim>1</dim>
					<dim>1</dim>
					<dim>1</dim>
				</port>
				<port id="2">
					<dim>1</dim>
					<dim>1</dim>
					<dim>1</dim>
					<dim>1</dim>
				</port>
				<port id="3">
					<dim>1</dim>
					<dim>1</dim>
					<dim>1</dim>
					<dim>1</dim>
				</port>
				<port id="4">
					<dim>1</dim>
					<dim>1</dim>
					<dim>1</dim>
					<dim>1</dim>
				</port>
			</input>
			<output>
				<port id="5" precision="FP16">
					<dim>1</dim>
					<dim>64</dim>
					<dim>152</dim>
					<dim>152</dim>
				</port>
			</output>
		</layer>
		<layer id="380" name="concatenate_1/concat" type="Concat" version="opset1">
			<data axis="1"/>
			<input>
				<port id="0">
					<dim>1</dim>
					<dim>64</dim>
					<dim>152</dim>
					<dim>152</dim>
				</port>
				<port id="1">
					<dim>1</dim>
					<dim>64</dim>
					<dim>152</dim>
					<dim>152</dim>
				</port>
			</input>
			<output>
				<port id="2" names="concatenate_1/concat:0" precision="FP16">
					<dim>1</dim>
					<dim>128</dim>
					<dim>152</dim>
					<dim>152</dim>
				</port>
			</output>
		</layer>
		<layer id="381" name="batch_normalization_16/FusedBatchNorm/mean/Fused_Mul__copy8029578/quantized1153920199" type="Const" version="opset1">
			<data element_type="i8" offset="242752" shape="128,128,1,1" size="16384"/>
			<output>
				<port id="0" precision="I8">
					<dim>128</dim>
					<dim>128</dim>
					<dim>1</dim>
					<dim>1</dim>
				</port>
			</output>
		</layer>
		<layer id="382" name="batch_normalization_16/FusedBatchNorm/mean/Fused_Mul__copy8029578/quantized/to_f16" type="Convert" version="opset1">
			<data destination_type="f16"/>
			<input>
				<port id="0">
					<dim>128</dim>
					<dim>128</dim>
					<dim>1</dim>
					<dim>1</dim>
				</port>
			</input>
			<output>
				<port id="1" precision="FP16">
					<dim>128</dim>
					<dim>128</dim>
					<dim>1</dim>
					<dim>1</dim>
				</port>
			</output>
		</layer>
		<layer id="383" name="conv2d_16/Conv2D/fq_weights_1/zero_point1155220601" type="Const" version="opset1">
			<data element_type="f16" offset="259136" shape="128,1,1,1" size="256"/>
			<output>
				<port id="0" precision="FP16">
					<dim>128</dim>
					<dim>1</dim>
					<dim>1</dim>
					<dim>1</dim>
				</port>
			</output>
		</layer>
		<layer id="384" name="conv2d_16/Conv2D/fq_weights_1/minus_zp" type="Subtract" version="opset1">
			<data auto_broadcast="numpy"/>
			<input>
				<port id="0">
					<dim>128</dim>
					<dim>128</dim>
					<dim>1</dim>
					<dim>1</dim>
				</port>
				<port id="1">
					<dim>128</dim>
					<dim>1</dim>
					<dim>1</dim>
					<dim>1</dim>
				</port>
			</input>
			<output>
				<port id="2" precision="FP16">
					<dim>128</dim>
					<dim>128</dim>
					<dim>1</dim>
					<dim>1</dim>
				</port>
			</output>
		</layer>
		<layer id="385" name="conv2d_16/Conv2D/fq_weights_1/scale1154719833" type="Const" version="opset1">
			<data element_type="f16" offset="259392" shape="128,1,1,1" size="256"/>
			<output>
				<port id="0" precision="FP16">
					<dim>128</dim>
					<dim>1</dim>
					<dim>1</dim>
					<dim>1</dim>
				</port>
			</output>
		</layer>
		<layer id="386" name="conv2d_16/Conv2D/fq_weights_1/mulpiply_by_scale" type="Multiply" version="opset1">
			<data auto_broadcast="numpy"/>
			<input>
				<port id="0">
					<dim>128</dim>
					<dim>128</dim>
					<dim>1</dim>
					<dim>1</dim>
				</port>
				<port id="1">
					<dim>128</dim>
					<dim>1</dim>
					<dim>1</dim>
					<dim>1</dim>
				</port>
			</input>
			<output>
				<port id="2" precision="FP16">
					<dim>128</dim>
					<dim>128</dim>
					<dim>1</dim>
					<dim>1</dim>
				</port>
			</output>
		</layer>
		<layer id="387" name="conv2d_16/Conv2D" type="Convolution" version="opset1">
			<data auto_pad="same_upper" dilations="1,1" pads_begin="0,0" pads_end="0,0" strides="1,1"/>
			<input>
				<port id="0">
					<dim>1</dim>
					<dim>128</dim>
					<dim>152</dim>
					<dim>152</dim>
				</port>
				<port id="1">
…
		<edge from-layer="1395" from-port="2" to-layer="1397" to-port="0"/>
		<edge from-layer="1396" from-port="0" to-layer="1397" to-port="1"/>
		<edge from-layer="1397" from-port="2" to-layer="1398" to-port="0"/>
		<edge from-layer="1158" from-port="0" to-layer="1398" to-port="1"/>
		<edge from-layer="1159" from-port="0" to-layer="1398" to-port="2"/>
		<edge from-layer="1160" from-port="0" to-layer="1398" to-port="3"/>
		<edge from-layer="1161" from-port="0" to-layer="1398" to-port="4"/>
		<edge from-layer="1399" from-port="0" to-layer="1400" to-port="0"/>
		<edge from-layer="1400" from-port="1" to-layer="1402" to-port="0"/>
		<edge from-layer="1401" from-port="0" to-layer="1402" to-port="1"/>
		<edge from-layer="1402" from-port="2" to-layer="1404" to-port="0"/>
		<edge from-layer="1403" from-port="0" to-layer="1404" to-port="1"/>
		<edge from-layer="1398" from-port="5" to-layer="1405" to-port="0"/>
		<edge from-layer="1404" from-port="2" to-layer="1405" to-port="1"/>
		<edge from-layer="1405" from-port="2" to-layer="1407" to-port="0"/>
		<edge from-layer="1406" from-port="0" to-layer="1407" to-port="1"/>
		<edge from-layer="1407" from-port="2" to-layer="1409" to-port="0"/>
		<edge from-layer="1408" from-port="0" to-layer="1409" to-port="1"/>
		<edge from-layer="1409" from-port="2" to-layer="1410" to-port="0"/>
		<edge from-layer="1154" from-port="0" to-layer="1410" to-port="1"/>
		<edge from-layer="1155" from-port="0" to-layer="1410" to-port="2"/>
		<edge from-layer="1156" from-port="0" to-layer="1410" to-port="3"/>
		<edge from-layer="1157" from-port="0" to-layer="1410" to-port="4"/>
		<edge from-layer="1411" from-port="0" to-layer="1412" to-port="0"/>
		<edge from-layer="1412" from-port="1" to-layer="1414" to-port="0"/>
		<edge from-layer="1413" from-port="0" to-layer="1414" to-port="1"/>
		<edge from-layer="1414" from-port="2" to-layer="1416" to-port="0"/>
		<edge from-layer="1415" from-port="0" to-layer="1416" to-port="1"/>
		<edge from-layer="1410" from-port="5" to-layer="1417" to-port="0"/>
		<edge from-layer="1416" from-port="2" to-layer="1417" to-port="1"/>
		<edge from-layer="1417" from-port="2" to-layer="1419" to-port="0"/>
		<edge from-layer="1418" from-port="0" to-layer="1419" to-port="1"/>
		<edge from-layer="1419" from-port="2" to-layer="1421" to-port="0"/>
		<edge from-layer="1420" from-port="0" to-layer="1421" to-port="1"/>
		<edge from-layer="1421" from-port="2" to-layer="1422" to-port="0"/>
		<edge from-layer="1150" from-port="0" to-layer="1422" to-port="1"/>
		<edge from-layer="1151" from-port="0" to-layer="1422" to-port="2"/>
		<edge from-layer="1152" from-port="0" to-layer="1422" to-port="3"/>
		<edge from-layer="1153" from-port="0" to-layer="1422" to-port="4"/>
		<edge from-layer="1422" from-port="5" to-layer="1423" to-port="0"/>
		<edge from-layer="1422" from-port="5" to-layer="1424" to-port="0"/>
		<edge from-layer="1422" from-port="5" to-layer="1425" to-port="0"/>
		<edge from-layer="1425" from-port="1" to-layer="1426" to-port="0"/>
		<edge from-layer="1424" from-port="1" to-layer="1426" to-port="1"/>
		<edge from-layer="1423" from-port="1" to-layer="1426" to-port="2"/>
		<edge from-layer="1422" from-port="5" to-layer="1426" to-port="3"/>
		<edge from-layer="1427" from-port="0" to-layer="1428" to-port="0"/>
		<edge from-layer="1428" from-port="1" to-layer="1430" to-port="0"/>
		<edge from-layer="1429" from-port="0" to-layer="1430" to-port="1"/>
		<edge from-layer="1430" from-port="2" to-layer="1432" to-port="0"/>
		<edge from-layer="1431" from-port="0" to-layer="1432" to-port="1"/>
		<edge from-layer="1426" from-port="4" to-layer="1433" to-port="0"/>
		<edge from-layer="1432" from-port="2" to-layer="1433" to-port="1"/>
		<edge from-layer="1433" from-port="2" to-layer="1435" to-port="0"/>
		<edge from-layer="1434" from-port="0" to-layer="1435" to-port="1"/>
		<edge from-layer="1435" from-port="2" to-layer="1437" to-port="0"/>
		<edge from-layer="1436" from-port="0" to-layer="1437" to-port="1"/>
		<edge from-layer="1437" from-port="2" to-layer="1438" to-port="0"/>
		<edge from-layer="1146" from-port="0" to-layer="1438" to-port="1"/>
		<edge from-layer="1147" from-port="0" to-layer="1438" to-port="2"/>
		<edge from-layer="1148" from-port="0" to-layer="1438" to-port="3"/>
		<edge from-layer="1149" from-port="0" to-layer="1438" to-port="4"/>
		<edge from-layer="1439" from-port="0" to-layer="1440" to-port="0"/>
		<edge from-layer="1440" from-port="1" to-layer="1442" to-port="0"/>
		<edge from-layer="1441" from-port="0" to-layer="1442" to-port="1"/>
		<edge from-layer="1442" from-port="2" to-layer="1444" to-port="0"/>
		<edge from-layer="1443" from-port="0" to-layer="1444" to-port="1"/>
		<edge from-layer="1438" from-port="5" to-layer="1445" to-port="0"/>
		<edge from-layer="1444" from-port="2" to-layer="1445" to-port="1"/>
		<edge from-layer="1445" from-port="2" to-layer="1447" to-port="0"/>
		<edge from-layer="1446" from-port="0" to-layer="1447" to-port="1"/>
		<edge from-layer="1447" from-port="2" to-layer="1449" to-port="0"/>
		<edge from-layer="1448" from-port="0" to-layer="1449" to-port="1"/>
		<edge from-layer="1449" from-port="2" to-layer="1450" to-port="0"/>
		<edge from-layer="1142" from-port="0" to-layer="1450" to-port="1"/>
		<edge from-layer="1143" from-port="0" to-layer="1450" to-port="2"/>
		<edge from-layer="1144" from-port="0" to-layer="1450" to-port="3"/>
		<edge from-layer="1145" from-port="0" to-layer="1450" to-port="4"/>
		<edge from-layer="1451" from-port="0" to-layer="1452" to-port="0"/>
		<edge from-layer="1452" from-port="1" to-layer="1454" to-port="0"/>
		<edge from-layer="1453" from-port="0" to-layer="1454" to-port="1"/>
		<edge from-layer="1454" from-port="2" to-layer="1456" to-port="0"/>
		<edge from-layer="1455" from-port="0" to-layer="1456" to-port="1"/>
		<edge from-layer="1450" from-port="5" to-layer="1457" to-port="0"/>
		<edge from-layer="1456" from-port="2" to-layer="1457" to-port="1"/>
		<edge from-layer="1457" from-port="2" to-layer="1459" to-port="0"/>
		<edge from-layer="1458" from-port="0" to-layer="1459" to-port="1"/>
		<edge from-layer="1459" from-port="2" to-layer="1461" to-port="0"/>
		<edge from-layer="1460" from-port="0" to-layer="1461" to-port="1"/>
		<edge from-layer="1461" from-port="2" to-layer="1462" to-port="0"/>
		<edge from-layer="1138" from-port="0" to-layer="1462" to-port="1"/>
		<edge from-layer="1139" from-port="0" to-layer="1462" to-port="2"/>
		<edge from-layer="1140" from-port="0" to-layer="1462" to-port="3"/>
		<edge from-layer="1141" from-port="0" to-layer="1462" to-port="4"/>
		<edge from-layer="1463" from-port="0" to-layer="1464" to-port="0"/>
		<edge from-layer="1464" from-port="1" to-layer="1466" to-port="0"/>
		<edge from-layer="1465" from-port="0" to-layer="1466" to-port="1"/>
		<edge from-layer="1466" from-port="2" to-layer="1468" to-port="0"/>
		<edge from-layer="1467" from-port="0" to-layer="1468" to-port="1"/>
		<edge from-layer="1462" from-port="5" to-layer="1469" to-port="0"/>
		<edge from-layer="1468" from-port="2" to-layer="1469" to-port="1"/>
		<edge from-layer="1469" from-port="2" to-layer="1471" to-port="0"/>
		<edge from-layer="1470" from-port="0" to-layer="1471" to-port="1"/>
		<edge from-layer="1471" from-port="2" to-layer="1473" to-port="0"/>
		<edge from-layer="1472" from-port="0" to-layer="1473" to-port="1"/>
		<edge from-layer="1473" from-port="2" to-layer="1474" to-port="0"/>
		<edge from-layer="1474" from-port="1" to-layer="1477" to-port="0"/>
		<edge from-layer="1475" from-port="0" to-layer="1477" to-port="1"/>
		<edge from-layer="1476" from-port="0" to-layer="1477" to-port="2"/>
		<edge from-layer="1477" from-port="3" to-layer="1481" to-port="0"/>
		<edge from-layer="1478" from-port="0" to-layer="1481" to-port="1"/>
		<edge from-layer="1479" from-port="0" to-layer="1481" to-port="2"/>
		<edge from-layer="1480" from-port="0" to-layer="1481" to-port="3"/>
		<edge from-layer="1481" from-port="4" to-layer="1483" to-port="0"/>
		<edge from-layer="1482" from-port="0" to-layer="1483" to-port="1"/>
		<edge from-layer="1483" from-port="2" to-layer="1484" to-port="0"/>
		<edge from-layer="1473" from-port="2" to-layer="1485" to-port="0"/>
		<edge from-layer="1485" from-port="1" to-layer="1488" to-port="0"/>
		<edge from-layer="1486" from-port="0" to-layer="1488" to-port="1"/>
		<edge from-layer="1487" from-port="0" to-layer="1488" to-port="2"/>
		<edge from-layer="1488" from-port="3" to-layer="1492" to-port="0"/>
		<edge from-layer="1489" from-port="0" to-layer="1492" to-port="1"/>
		<edge from-layer="1490" from-port="0" to-layer="1492" to-port="2"/>
		<edge from-layer="1491" from-port="0" to-layer="1492" to-port="3"/>
		<edge from-layer="1492" from-port="4" to-layer="1493" to-port="0"/>
		<edge from-layer="1484" from-port="1" to-layer="1494" to-port="0"/>
		<edge from-layer="1493" from-port="1" to-layer="1494" to-port="1"/>
		<edge from-layer="1473" from-port="2" to-layer="1500" to-port="0"/>
		<edge from-layer="1496" from-port="0" to-layer="1500" to-port="1"/>
		<edge from-layer="1497" from-port="0" to-layer="1500" to-port="2"/>
		<edge from-layer="1498" from-port="0" to-layer="1500" to-port="3"/>
		<edge from-layer="1499" from-port="0" to-layer="1500" to-port="4"/>
		<edge from-layer="1483" from-port="2" to-layer="1501" to-port="0"/>
		<edge from-layer="1500" from-port="5" to-layer="1502" to-port="0"/>
		<edge from-layer="1501" from-port="1" to-layer="1502" to-port="1"/>
		<edge from-layer="1494" from-port="2" to-layer="1502" to-port="2"/>
		<edge from-layer="1495" from-port="0" to-layer="1502" to-port="3"/>
		<edge from-layer="1502" from-port="4" to-layer="1503" to-port="0"/>
		<edge from-layer="1134" from-port="0" to-layer="1503" to-port="1"/>
		<edge from-layer="1135" from-port="0" to-layer="1503" to-port="2"/>
		<edge from-layer="1136" from-port="0" to-layer="1503" to-port="3"/>
		<edge from-layer="1137" from-port="0" to-layer="1503" to-port="4"/>
		<edge from-layer="1133" from-port="5" to-layer="1504" to-port="0"/>
		<edge from-layer="1503" from-port="5" to-layer="1504" to-port="1"/>
		<edge from-layer="1505" from-port="0" to-layer="1506" to-port="0"/>
		<edge from-layer="1506" from-port="1" to-layer="1508" to-port="0"/>
		<edge from-layer="1507" from-port="0" to-layer="1508" to-port="1"/>
		<edge from-layer="1508" from-port="2" to-layer="1510" to-port="0"/>
		<edge from-layer="1509" from-port="0" to-layer="1510" to-port="1"/>
		<edge from-layer="1504" from-port="2" to-layer="1511" to-port="0"/>
		<edge from-layer="1510" from-port="2" to-layer="1511" to-port="1"/>
		<edge from-layer="1511" from-port="2" to-layer="1513" to-port="0"/>
		<edge from-layer="1512" from-port="0" to-layer="1513" to-port="1"/>
		<edge from-layer="1513" from-port="2" to-layer="1515" to-port="0"/>
		<edge from-layer="1514" from-port="0" to-layer="1515" to-port="1"/>
		<edge from-layer="1515" from-port="2" to-layer="1516" to-port="0"/>
		<edge from-layer="745" from-port="0" to-layer="1516" to-port="1"/>
		<edge from-layer="746" from-port="0" to-layer="1516" to-port="2"/>
		<edge from-layer="747" from-port="0" to-layer="1516" to-port="3"/>
		<edge from-layer="748" from-port="0" to-layer="1516" to-port="4"/>
		<edge from-layer="1517" from-port="0" to-layer="1518" to-port="0"/>
		<edge from-layer="1518" from-port="1" to-layer="1520" to-port="0"/>
		<edge from-layer="1519" from-port="0" to-layer="1520" to-port="1"/>
		<edge from-layer="1520" from-port="2" to-layer="1522" to-port="0"/>
		<edge from-layer="1521" from-port="0" to-layer="1522" to-port="1"/>
		<edge from-layer="1516" from-port="5" to-layer="1523" to-port="0"/>
		<edge from-layer="1522" from-port="2" to-layer="1523" to-port="1"/>
		<edge from-layer="1523" from-port="2" to-layer="1525" to-port="0"/>
		<edge from-layer="1524" from-port="0" to-layer="1525" to-port="1"/>
		<edge from-layer="1525" from-port="2" to-layer="1527" to-port="0"/>
		<edge from-layer="1526" from-port="0" to-layer="1527" to-port="1"/>
		<edge from-layer="1527" from-port="2" to-layer="1528" to-port="0"/>
		<edge from-layer="741" from-port="0" to-layer="1528" to-port="1"/>
		<edge from-layer="742" from-port="0" to-layer="1528" to-port="2"/>
		<edge from-layer="743" from-port="0" to-layer="1528" to-port="3"/>
		<edge from-layer="744" from-port="0" to-layer="1528" to-port="4"/>
		<edge from-layer="1529" from-port="0" to-layer="1530" to-port="0"/>
		<edge from-layer="1530" from-port="1" to-layer="1532" to-port="0"/>
		<edge from-layer="1531" from-port="0" to-layer="1532" to-port="1"/>
		<edge from-layer="1532" from-port="2" to-layer="1534" to-port="0"/>
		<edge from-layer="1533" from-port="0" to-layer="1534" to-port="1"/>
		<edge from-layer="1528" from-port="5" to-layer="1535" to-port="0"/>
		<edge from-layer="1534" from-port="2" to-layer="1535" to-port="1"/>
		<edge from-layer="1535" from-port="2" to-layer="1537" to-port="0"/>
		<edge from-layer="1536" from-port="0" to-layer="1537" to-port="1"/>
		<edge from-layer="1537" from-port="2" to-layer="1539" to-port="0"/>
		<edge from-layer="1538" from-port="0" to-layer="1539" to-port="1"/>
		<edge from-layer="1539" from-port="2" to-layer="1540" to-port="0"/>
		<edge from-layer="737" from-port="0" to-layer="1540" to-port="1"/>
		<edge from-layer="738" from-port="0" to-layer="1540" to-port="2"/>
		<edge from-layer="739" from-port="0" to-layer="1540" to-port="3"/>
		<edge from-layer="740" from-port="0" to-layer="1540" to-port="4"/>
		<edge from-layer="1541" from-port="0" to-layer="1542" to-port="0"/>
		<edge from-layer="1542" from-port="1" to-layer="1544" to-port="0"/>
		<edge from-layer="1543" from-port="0" to-layer="1544" to-port="1"/>
		<edge from-layer="1544" from-port="2" to-layer="1546" to-port="0"/>
		<edge from-layer="1545" from-port="0" to-layer="1546" to-port="1"/>
		<edge from-layer="1540" from-port="5" to-layer="1547" to-port="0"/>
		<edge from-layer="1546" from-port="2" to-layer="1547" to-port="1"/>
		<edge from-layer="1547" from-port="2" to-layer="1549" to-port="0"/>
		<edge from-layer="1548" from-port="0" to-layer="1549" to-port="1"/>
		<edge from-layer="1549" from-port="2" to-layer="1551" to-port="0"/>
		<edge from-layer="1550" from-port="0" to-layer="1551" to-port="1"/>
		<edge from-layer="1551" from-port="2" to-layer="1552" to-port="0"/>
		<edge from-layer="733" from-port="0" to-layer="1552" to-port="1"/>
		<edge from-layer="734" from-port="0" to-layer="1552" to-port="2"/>
		<edge from-layer="735" from-port="0" to-layer="1552" to-port="3"/>
		<edge from-layer="736" from-port="0" to-layer="1552" to-port="4"/>
		<edge from-layer="1553" from-port="0" to-layer="1554" to-port="0"/>
		<edge from-layer="1554" from-port="1" to-layer="1556" to-port="0"/>
		<edge from-layer="1555" from-port="0" to-layer="1556" to-port="1"/>
		<edge from-layer="1556" from-port="2" to-layer="1558" to-port="0"/>
		<edge from-layer="1557" from-port="0" to-layer="1558" to-port="1"/>
		<edge from-layer="1552" from-port="5" to-layer="1559" to-port="0"/>
		<edge from-layer="1558" from-port="2" to-layer="1559" to-port="1"/>
		<edge from-layer="1559" from-port="2" to-layer="1561" to-port="0"/>
		<edge from-layer="1560" from-port="0" to-layer="1561" to-port="1"/>
		<edge from-layer="1561" from-port="2" to-layer="1563" to-port="0"/>
		<edge from-layer="1562" from-port="0" to-layer="1563" to-port="1"/>
		<edge from-layer="1563" from-port="2" to-layer="1564" to-port="0"/>
		<edge from-layer="729" from-port="0" to-layer="1564" to-port="1"/>
		<edge from-layer="730" from-port="0" to-layer="1564" to-port="2"/>
		<edge from-layer="731" from-port="0" to-layer="1564" to-port="3"/>
		<edge from-layer="732" from-port="0" to-layer="1564" to-port="4"/>
		<edge from-layer="1565" from-port="0" to-layer="1566" to-port="0"/>
		<edge from-layer="1566" from-port="1" to-layer="1568" to-port="0"/>
		<edge from-layer="1567" from-port="0" to-layer="1568" to-port="1"/>
		<edge from-layer="1568" from-port="2" to-layer="1570" to-port="0"/>
		<edge from-layer="1569" from-port="0" to-layer="1570" to-port="1"/>
		<edge from-layer="1564" from-port="5" to-layer="1571" to-port="0"/>
		<edge from-layer="1570" from-port="2" to-layer="1571" to-port="1"/>
		<edge from-layer="1571" from-port="2" to-layer="1573" to-port="0"/>
		<edge from-layer="1572" from-port="0" to-layer="1573" to-port="1"/>
		<edge from-layer="1573" from-port="2" to-layer="1575" to-port="0"/>
		<edge from-layer="1574" from-port="0" to-layer="1575" to-port="1"/>
		<edge from-layer="1575" from-port="2" to-layer="1576" to-port="0"/>
		<edge from-layer="1576" from-port="1" to-layer="1579" to-port="0"/>
		<edge from-layer="1577" from-port="0" to-layer="1579" to-port="1"/>
		<edge from-layer="1578" from-port="0" to-layer="1579" to-port="2"/>
		<edge from-layer="1579" from-port="3" to-layer="1583" to-port="0"/>
		<edge from-layer="1580" from-port="0" to-layer="1583" to-port="1"/>
		<edge from-layer="1581" from-port="0" to-layer="1583" to-port="2"/>
		<edge from-layer="1582" from-port="0" to-layer="1583" to-port="3"/>
		<edge from-layer="1583" from-port="4" to-layer="1585" to-port="0"/>
		<edge from-layer="1584" from-port="0" to-layer="1585" to-port="1"/>
		<edge from-layer="1585" from-port="2" to-layer="1586" to-port="0"/>
		<edge from-layer="1575" from-port="2" to-layer="1587" to-port="0"/>
		<edge from-layer="1587" from-port="1" to-layer="1590" to-port="0"/>
		<edge from-layer="1588" from-port="0" to-layer="1590" to-port="1"/>
		<edge from-layer="1589" from-port="0" to-layer="1590" to-port="2"/>
		<edge from-layer="1590" from-port="3" to-layer="1594" to-port="0"/>
		<edge from-layer="1591" from-port="0" to-layer="1594" to-port="1"/>
		<edge from-layer="1592" from-port="0" to-layer="1594" to-port="2"/>
		<edge from-layer="1593" from-port="0" to-layer="1594" to-port="3"/>
		<edge from-layer="1594" from-port="4" to-layer="1595" to-port="0"/>
		<edge from-layer="1586" from-port="1" to-layer="1596" to-port="0"/>
		<edge from-layer="1595" from-port="1" to-layer="1596" to-port="1"/>
		<edge from-layer="1575" from-port="2" to-layer="1602" to-port="0"/>
		<edge from-layer="1598" from-port="0" to-layer="1602" to-port="1"/>
		<edge from-layer="1599" from-port="0" to-layer="1602" to-port="2"/>
		<edge from-layer="1600" from-port="0" to-layer="1602" to-port="3"/>
		<edge from-layer="1601" from-port="0" to-layer="1602" to-port="4"/>
		<edge from-layer="1585" from-port="2" to-layer="1603" to-port="0"/>
		<edge from-layer="1602" from-port="5" to-layer="1604" to-port="0"/>
		<edge from-layer="1603" from-port="1" to-layer="1604" to-port="1"/>
		<edge from-layer="1596" from-port="2" to-layer="1604" to-port="2"/>
		<edge from-layer="1597" from-port="0" to-layer="1604" to-port="3"/>
		<edge from-layer="1604" from-port="4" to-layer="1605" to-port="0"/>
		<edge from-layer="725" from-port="0" to-layer="1605" to-port="1"/>
		<edge from-layer="726" from-port="0" to-layer="1605" to-port="2"/>
		<edge from-layer="727" from-port="0" to-layer="1605" to-port="3"/>
		<edge from-layer="728" from-port="0" to-layer="1605" to-port="4"/>
		<edge from-layer="724" from-port="5" to-layer="1606" to-port="0"/>
		<edge from-layer="1605" from-port="5" to-layer="1606" to-port="1"/>
		<edge from-layer="1607" from-port="0" to-layer="1608" to-port="0"/>
		<edge from-layer="1608" from-port="1" to-layer="1610" to-port="0"/>
		<edge from-layer="1609" from-port="0" to-layer="1610" to-port="1"/>
		<edge from-layer="1610" from-port="2" to-layer="1612" to-port="0"/>
		<edge from-layer="1611" from-port="0" to-layer="1612" to-port="1"/>
		<edge from-layer="1606" from-port="2" to-layer="1613" to-port="0"/>
		<edge from-layer="1612" from-port="2" to-layer="1613" to-port="1"/>
		<edge from-layer="1613" from-port="2" to-layer="1615" to-port="0"/>
		<edge from-layer="1614" from-port="0" to-layer="1615" to-port="1"/>
		<edge from-layer="1615" from-port="2" to-layer="1617" to-port="0"/>
		<edge from-layer="1616" from-port="0" to-layer="1617" to-port="1"/>
		<edge from-layer="1617" from-port="2" to-layer="1618" to-port="0"/>
		<edge from-layer="45" from-port="0" to-layer="1618" to-port="1"/>
		<edge from-layer="46" from-port="0" to-layer="1618" to-port="2"/>
		<edge from-layer="47" from-port="0" to-layer="1618" to-port="3"/>
		<edge from-layer="48" from-port="0" to-layer="1618" to-port="4"/>
		<edge from-layer="1619" from-port="0" to-layer="1620" to-port="0"/>
		<edge from-layer="1620" from-port="1" to-layer="1622" to-port="0"/>
		<edge from-layer="1621" from-port="0" to-layer="1622" to-port="1"/>
		<edge from-layer="1622" from-port="2" to-layer="1624" to-port="0"/>
		<edge from-layer="1623" from-port="0" to-layer="1624" to-port="1"/>
		<edge from-layer="1618" from-port="5" to-layer="1625" to-port="0"/>
		<edge from-layer="1624" from-port="2" to-layer="1625" to-port="1"/>
		<edge from-layer="1625" from-port="2" to-layer="1627" to-port="0"/>
		<edge from-layer="1626" from-port="0" to-layer="1627" to-port="1"/>
		<edge from-layer="1627" from-port="2" to-layer="1629" to-port="0"/>
		<edge from-layer="1628" from-port="0" to-layer="1629" to-port="1"/>
		<edge from-layer="1629" from-port="2" to-layer="1630" to-port="0"/>
		<edge from-layer="41" from-port="0" to-layer="1630" to-port="1"/>
		<edge from-layer="42" from-port="0" to-layer="1630" to-port="2"/>
		<edge from-layer="43" from-port="0" to-layer="1630" to-port="3"/>
		<edge from-layer="44" from-port="0" to-layer="1630" to-port="4"/>
		<edge from-layer="1631" from-port="0" to-layer="1632" to-port="0"/>
		<edge from-layer="1632" from-port="1" to-layer="1634" to-port="0"/>
		<edge from-layer="1633" from-port="0" to-layer="1634" to-port="1"/>
		<edge from-layer="1634" from-port="2" to-layer="1636" to-port="0"/>
		<edge from-layer="1635" from-port="0" to-layer="1636" to-port="1"/>
		<edge from-layer="1630" from-port="5" to-layer="1637" to-port="0"/>
		<edge from-layer="1636" from-port="2" to-layer="1637" to-port="1"/>
		<edge from-layer="1637" from-port="2" to-layer="1639" to-port="0"/>
		<edge from-layer="1638" from-port="0" to-layer="1639" to-port="1"/>
		<edge from-layer="1639" from-port="2" to-layer="1641" to-port="0"/>
		<edge from-layer="1640" from-port="0" to-layer="1641" to-port="1"/>
		<edge from-layer="1641" from-port="2" to-layer="1642" to-port="0"/>
		<edge from-layer="37" from-port="0" to-layer="1642" to-port="1"/>
		<edge from-layer="38" from-port="0" to-layer="1642" to-port="2"/>
		<edge from-layer="39" from-port="0" to-layer="1642" to-port="3"/>
		<edge from-layer="40" from-port="0" to-layer="1642" to-port="4"/>
		<edge from-layer="1643" from-port="0" to-layer="1644" to-port="0"/>
		<edge from-layer="1644" from-port="1" to-layer="1646" to-port="0"/>
		<edge from-layer="1645" from-port="0" to-layer="1646" to-port="1"/>
		<edge from-layer="1646" from-port="2" to-layer="1648" to-port="0"/>
		<edge from-layer="1647" from-port="0" to-layer="1648" to-port="1"/>
		<edge from-layer="1642" from-port="5" to-layer="1649" to-port="0"/>
		<edge from-layer="1648" from-port="2" to-layer="1649" to-port="1"/>
		<edge from-layer="1649" from-port="2" to-layer="1651" to-port="0"/>
		<edge from-layer="1650" from-port="0" to-layer="1651" to-port="1"/>
		<edge from-layer="1651" from-port="2" to-layer="1653" to-port="0"/>
		<edge from-layer="1652" from-port="0" to-layer="1653" to-port="1"/>
		<edge from-layer="1653" from-port="2" to-layer="1654" to-port="0"/>
		<edge from-layer="33" from-port="0" to-layer="1654" to-port="1"/>
		<edge from-layer="34" from-port="0" to-layer="1654" to-port="2"/>
		<edge from-layer="35" from-port="0" to-layer="1654" to-port="3"/>
		<edge from-layer="36" from-port="0" to-layer="1654" to-port="4"/>
		<edge from-layer="1655" from-port="0" to-layer="1656" to-port="0"/>
		<edge from-layer="1656" from-port="1" to-layer="1658" to-port="0"/>
		<edge from-layer="1657" from-port="0" to-layer="1658" to-port="1"/>
		<edge from-layer="1658" from-port="2" to-layer="1660" to-port="0"/>
		<edge from-layer="1659" from-port="0" to-layer="1660" to-port="1"/>
		<edge from-layer="1654" from-port="5" to-layer="1661" to-port="0"/>
		<edge from-layer="1660" from-port="2" to-layer="1661" to-port="1"/>
		<edge from-layer="1661" from-port="2" to-layer="1663" to-port="0"/>
		<edge from-layer="1662" from-port="0" to-layer="1663" to-port="1"/>
		<edge from-layer="1663" from-port="2" to-layer="1665" to-port="0"/>
		<edge from-layer="1664" from-port="0" to-layer="1665" to-port="1"/>
		<edge from-layer="1665" from-port="2" to-layer="1666" to-port="0"/>
		<edge from-layer="29" from-port="0" to-layer="1666" to-port="1"/>
		<edge from-layer="30" from-port="0" to-layer="1666" to-port="2"/>
		<edge from-layer="31" from-port="0" to-layer="1666" to-port="3"/>
		<edge from-layer="32" from-port="0" to-layer="1666" to-port="4"/>
		<edge from-layer="28" from-port="0" to-layer="1667" to-port="0"/>
		<edge from-layer="1666" from-port="5" to-layer="1667" to-port="1"/>
		<edge from-layer="1666" from-port="5" to-layer="1670" to-port="0"/>
		<edge from-layer="1668" from-port="0" to-layer="1670" to-port="1"/>
		<edge from-layer="1669" from-port="0" to-layer="1670" to-port="2"/>
		<edge from-layer="1667" from-port="2" to-layer="1670" to-port="3"/>
		<edge from-layer="1671" from-port="0" to-layer="1672" to-port="0"/>
		<edge from-layer="1672" from-port="1" to-layer="1674" to-port="0"/>
		<edge from-layer="1673" from-port="0" to-layer="1674" to-port="1"/>
		<edge from-layer="1674" from-port="2" to-layer="1676" to-port="0"/>
		<edge from-layer="1675" from-port="0" to-layer="1676" to-port="1"/>
		<edge from-layer="1670" from-port="4" to-layer="1677" to-port="0"/>
		<edge from-layer="1676" from-port="2" to-layer="1677" to-port="1"/>
		<edge from-layer="1677" from-port="2" to-layer="1679" to-port="0"/>
		<edge from-layer="1678" from-port="0" to-layer="1679" to-port="1"/>
		<edge from-layer="1679" from-port="2" to-layer="1681" to-port="0"/>
		<edge from-layer="1680" from-port="0" to-layer="1681" to-port="1"/>
		<edge from-layer="1681" from-port="2" to-layer="1682" to-port="0"/>
		<edge from-layer="24" from-port="0" to-layer="1682" to-port="1"/>
		<edge from-layer="25" from-port="0" to-layer="1682" to-port="2"/>
		<edge from-layer="26" from-port="0" to-layer="1682" to-port="3"/>
		<edge from-layer="27" from-port="0" to-layer="1682" to-port="4"/>
		<edge from-layer="1682" from-port="5" to-layer="1683" to-port="0"/>
		<edge from-layer="1564" from-port="5" to-layer="1683" to-port="1"/>
		<edge from-layer="1684" from-port="0" to-layer="1685" to-port="0"/>
		<edge from-layer="1685" from-port="1" to-layer="1687" to-port="0"/>
		<edge from-layer="1686" from-port="0" to-layer="1687" to-port="1"/>
		<edge from-layer="1687" from-port="2" to-layer="1689" to-port="0"/>
		<edge from-layer="1688" from-port="0" to-layer="1689" to-port="1"/>
		<edge from-layer="1683" from-port="2" to-layer="1690" to-port="0"/>
		<edge from-layer="1689" from-port="2" to-layer="1690" to-port="1"/>
		<edge from-layer="1690" from-port="2" to-layer="1692" to-port="0"/>
		<edge from-layer="1691" from-port="0" to-layer="1692" to-port="1"/>
		<edge from-layer="1692" from-port="2" to-layer="1694" to-port="0"/>
		<edge from-layer="1693" from-port="0" to-layer="1694" to-port="1"/>
		<edge from-layer="1694" from-port="2" to-layer="1695" to-port="0"/>
		<edge from-layer="20" from-port="0" to-layer="1695" to-port="1"/>
		<edge from-layer="21" from-port="0" to-layer="1695" to-port="2"/>
		<edge from-layer="22" from-port="0" to-layer="1695" to-port="3"/>
		<edge from-layer="23" from-port="0" to-layer="1695" to-port="4"/>
		<edge from-layer="1696" from-port="0" to-layer="1697" to-port="0"/>
		<edge from-layer="1697" from-port="1" to-layer="1699" to-port="0"/>
		<edge from-layer="1698" from-port="0" to-layer="1699" to-port="1"/>
		<edge from-layer="1699" from-port="2" to-layer="1701" to-port="0"/>
		<edge from-layer="1700" from-port="0" to-layer="1701" to-port="1"/>
		<edge from-layer="1695" from-port="5" to-layer="1702" to-port="0"/>
		<edge from-layer="1701" from-port="2" to-layer="1702" to-port="1"/>
		<edge from-layer="1702" from-port="2" to-layer="1704" to-port="0"/>
		<edge from-layer="1703" from-port="0" to-layer="1704" to-port="1"/>
		<edge from-layer="1704" from-port="2" to-layer="1706" to-port="0"/>
		<edge from-layer="1705" from-port="0" to-layer="1706" to-port="1"/>
		<edge from-layer="1706" from-port="2" to-layer="1707" to-port="0"/>
		<edge from-layer="16" from-port="0" to-layer="1707" to-port="1"/>
		<edge from-layer="17" from-port="0" to-layer="1707" to-port="2"/>
		<edge from-layer="18" from-port="0" to-layer="1707" to-port="3"/>
		<edge from-layer="19" from-port="0" to-layer="1707" to-port="4"/>
		<edge from-layer="1708" from-port="0" to-layer="1709" to-port="0"/>
		<edge from-layer="1709" from-port="1" to-layer="1711" to-port="0"/>
		<edge from-layer="1710" from-port="0" to-layer="1711" to-port="1"/>
		<edge from-layer="1711" from-port="2" to-layer="1713" to-port="0"/>
		<edge from-layer="1712" from-port="0" to-layer="1713" to-port="1"/>
		<edge from-layer="1707" from-port="5" to-layer="1714" to-port="0"/>
		<edge from-layer="1713" from-port="2" to-layer="1714" to-port="1"/>
		<edge from-layer="1714" from-port="2" to-layer="1716" to-port="0"/>
		<edge from-layer="1715" from-port="0" to-layer="1716" to-port="1"/>
		<edge from-layer="1716" from-port="2" to-layer="1718" to-port="0"/>
		<edge from-layer="1717" from-port="0" to-layer="1718" to-port="1"/>
		<edge from-layer="1718" from-port="2" to-layer="1719" to-port="0"/>
		<edge from-layer="12" from-port="0" to-layer="1719" to-port="1"/>
		<edge from-layer="13" from-port="0" to-layer="1719" to-port="2"/>
		<edge from-layer="14" from-port="0" to-layer="1719" to-port="3"/>
		<edge from-layer="15" from-port="0" to-layer="1719" to-port="4"/>
		<edge from-layer="1720" from-port="0" to-layer="1721" to-port="0"/>
		<edge from-layer="1721" from-port="1" to-layer="1723" to-port="0"/>
		<edge from-layer="1722" from-port="0" to-layer="1723" to-port="1"/>
		<edge from-layer="1723" from-port="2" to-layer="1725" to-port="0"/>
		<edge from-layer="1724" from-port="0" to-layer="1725" to-port="1"/>
		<edge from-layer="1719" from-port="5" to-layer="1726" to-port="0"/>
		<edge from-layer="1725" from-port="2" to-layer="1726" to-port="1"/>
		<edge from-layer="1726" from-port="2" to-layer="1728" to-port="0"/>
		<edge from-layer="1727" from-port="0" to-layer="1728" to-port="1"/>
		<edge from-layer="1728" from-port="2" to-layer="1730" to-port="0"/>
		<edge from-layer="1729" from-port="0" to-layer="1730" to-port="1"/>
		<edge from-layer="1730" from-port="2" to-layer="1731" to-port="0"/>
		<edge from-layer="8" from-port="0" to-layer="1731" to-port="1"/>
		<edge from-layer="9" from-port="0" to-layer="1731" to-port="2"/>
		<edge from-layer="10" from-port="0" to-layer="1731" to-port="3"/>
		<edge from-layer="11" from-port="0" to-layer="1731" to-port="4"/>
		<edge from-layer="1732" from-port="0" to-layer="1733" to-port="0"/>
		<edge from-layer="1733" from-port="1" to-layer="1735" to-port="0"/>
		<edge from-layer="1734" from-port="0" to-layer="1735" to-port="1"/>
		<edge from-layer="1735" from-port="2" to-layer="1737" to-port="0"/>
		<edge from-layer="1736" from-port="0" to-layer="1737" to-port="1"/>
		<edge from-layer="1731" from-port="5" to-layer="1738" to-port="0"/>
		<edge from-layer="1737" from-port="2" to-layer="1738" to-port="1"/>
		<edge from-layer="1738" from-port="2" to-layer="1740" to-port="0"/>
		<edge from-layer="1739" from-port="0" to-layer="1740" to-port="1"/>
		<edge from-layer="1740" from-port="2" to-layer="1742" to-port="0"/>
		<edge from-layer="1741" from-port="0" to-layer="1742" to-port="1"/>
		<edge from-layer="1742" from-port="2" to-layer="1743" to-port="0"/>
		<edge from-layer="4" from-port="0" to-layer="1743" to-port="1"/>
		<edge from-layer="5" from-port="0" to-layer="1743" to-port="2"/>
		<edge from-layer="6" from-port="0" to-layer="1743" to-port="3"/>
		<edge from-layer="7" from-port="0" to-layer="1743" to-port="4"/>
		<edge from-layer="1744" from-port="0" to-layer="1745" to-port="0"/>
		<edge from-layer="1745" from-port="1" to-layer="1747" to-port="0"/>
		<edge from-layer="1746" from-port="0" to-layer="1747" to-port="1"/>
		<edge from-layer="1747" from-port="2" to-layer="1749" to-port="0"/>
		<edge from-layer="1748" from-port="0" to-layer="1749" to-port="1"/>
		<edge from-layer="1743" from-port="5" to-layer="1750" to-port="0"/>
		<edge from-layer="1749" from-port="2" to-layer="1750" to-port="1"/>
		<edge from-layer="1750" from-port="2" to-layer="1752" to-port="0"/>
		<edge from-layer="1751" from-port="0" to-layer="1752" to-port="1"/>
		<edge from-layer="1752" from-port="2" to-layer="1754" to-port="0"/>
		<edge from-layer="1753" from-port="0" to-layer="1754" to-port="1"/>
		<edge from-layer="1754" from-port="2" to-layer="1755" to-port="0"/>
		<edge from-layer="0" from-port="0" to-layer="1755" to-port="1"/>
		<edge from-layer="1" from-port="0" to-layer="1755" to-port="2"/>
		<edge from-layer="2" from-port="0" to-layer="1755" to-port="3"/>
		<edge from-layer="3" from-port="0" to-layer="1755" to-port="4"/>
		<edge from-layer="1756" from-port="0" to-layer="1757" to-port="0"/>
		<edge from-layer="1757" from-port="1" to-layer="1759" to-port="0"/>
		<edge from-layer="1758" from-port="0" to-layer="1759" to-port="1"/>
		<edge from-layer="1759" from-port="2" to-layer="1761" to-port="0"/>
		<edge from-layer="1760" from-port="0" to-layer="1761" to-port="1"/>
		<edge from-layer="1755" from-port="5" to-layer="1762" to-port="0"/>
		<edge from-layer="1761" from-port="2" to-layer="1762" to-port="1"/>
		<edge from-layer="1762" from-port="2" to-layer="1764" to-port="0"/>
		<edge from-layer="1763" from-port="0" to-layer="1764" to-port="1"/>
		<edge from-layer="1764" from-port="2" to-layer="1765" to-port="0"/>
		<edge from-layer="1794" from-port="0" to-layer="1795" to-port="0"/>
		<edge from-layer="1743" from-port="5" to-layer="1795" to-port="1"/>
		<edge from-layer="1743" from-port="5" to-layer="1798" to-port="0"/>
		<edge from-layer="1796" from-port="0" to-layer="1798" to-port="1"/>
		<edge from-layer="1797" from-port="0" to-layer="1798" to-port="2"/>
		<edge from-layer="1795" from-port="2" to-layer="1798" to-port="3"/>
		<edge from-layer="1799" from-port="0" to-layer="1800" to-port="0"/>
		<edge from-layer="1800" from-port="1" to-layer="1802" to-port="0"/>
		<edge from-layer="1801" from-port="0" to-layer="1802" to-port="1"/>
		<edge from-layer="1802" from-port="2" to-layer="1804" to-port="0"/>
		<edge from-layer="1803" from-port="0" to-layer="1804" to-port="1"/>
		<edge from-layer="1798" from-port="4" to-layer="1805" to-port="0"/>
		<edge from-layer="1804" from-port="2" to-layer="1805" to-port="1"/>
		<edge from-layer="1805" from-port="2" to-layer="1807" to-port="0"/>
		<edge from-layer="1806" from-port="0" to-layer="1807" to-port="1"/>
		<edge from-layer="1807" from-port="2" to-layer="1809" to-port="0"/>
		<edge from-layer="1808" from-port="0" to-layer="1809" to-port="1"/>
		<edge from-layer="1809" from-port="2" to-layer="1810" to-port="0"/>
		<edge from-layer="1790" from-port="0" to-layer="1810" to-port="1"/>
		<edge from-layer="1791" from-port="0" to-layer="1810" to-port="2"/>
		<edge from-layer="1792" from-port="0" to-layer="1810" to-port="3"/>
		<edge from-layer="1793" from-port="0" to-layer="1810" to-port="4"/>
		<edge from-layer="1810" from-port="5" to-layer="1811" to-port="0"/>
		<edge from-layer="1462" from-port="5" to-layer="1811" to-port="1"/>
		<edge from-layer="1812" from-port="0" to-layer="1813" to-port="0"/>
		<edge from-layer="1813" from-port="1" to-layer="1815" to-port="0"/>
		<edge from-layer="1814" from-port="0" to-layer="1815" to-port="1"/>
		<edge from-layer="1815" from-port="2" to-layer="1817" to-port="0"/>
		<edge from-layer="1816" from-port="0" to-layer="1817" to-port="1"/>
		<edge from-layer="1811" from-port="2" to-layer="1818" to-port="0"/>
		<edge from-layer="1817" from-port="2" to-layer="1818" to-port="1"/>
		<edge from-layer="1818" from-port="2" to-layer="1820" to-port="0"/>
		<edge from-layer="1819" from-port="0" to-layer="1820" to-port="1"/>
		<edge from-layer="1820" from-port="2" to-layer="1822" to-port="0"/>
		<edge from-layer="1821" from-port="0" to-layer="1822" to-port="1"/>
		<edge from-layer="1822" from-port="2" to-layer="1823" to-port="0"/>
		<edge from-layer="1786" from-port="0" to-layer="1823" to-port="1"/>
		<edge from-layer="1787" from-port="0" to-layer="1823" to-port="2"/>
		<edge from-layer="1788" from-port="0" to-layer="1823" to-port="3"/>
		<edge from-layer="1789" from-port="0" to-layer="1823" to-port="4"/>
		<edge from-layer="1824" from-port="0" to-layer="1825" to-port="0"/>
		<edge from-layer="1825" from-port="1" to-layer="1827" to-port="0"/>
		<edge from-layer="1826" from-port="0" to-layer="1827" to-port="1"/>
		<edge from-layer="1827" from-port="2" to-layer="1829" to-port="0"/>
		<edge from-layer="1828" from-port="0" to-layer="1829" to-port="1"/>
		<edge from-layer="1823" from-port="5" to-layer="1830" to-port="0"/>
		<edge from-layer="1829" from-port="2" to-layer="1830" to-port="1"/>
		<edge from-layer="1830" from-port="2" to-layer="1832" to-port="0"/>
		<edge from-layer="1831" from-port="0" to-layer="1832" to-port="1"/>
		<edge from-layer="1832" from-port="2" to-layer="1834" to-port="0"/>
		<edge from-layer="1833" from-port="0" to-layer="1834" to-port="1"/>
		<edge from-layer="1834" from-port="2" to-layer="1835" to-port="0"/>
		<edge from-layer="1782" from-port="0" to-layer="1835" to-port="1"/>
		<edge from-layer="1783" from-port="0" to-layer="1835" to-port="2"/>
		<edge from-layer="1784" from-port="0" to-layer="1835" to-port="3"/>
		<edge from-layer="1785" from-port="0" to-layer="1835" to-port="4"/>
		<edge from-layer="1836" from-port="0" to-layer="1837" to-port="0"/>
		<edge from-layer="1837" from-port="1" to-layer="1839" to-port="0"/>
		<edge from-layer="1838" from-port="0" to-layer="1839" to-port="1"/>
		<edge from-layer="1839" from-port="2" to-layer="1841" to-port="0"/>
		<edge from-layer="1840" from-port="0" to-layer="1841" to-port="1"/>
		<edge from-layer="1835" from-port="5" to-layer="1842" to-port="0"/>
		<edge from-layer="1841" from-port="2" to-layer="1842" to-port="1"/>
		<edge from-layer="1842" from-port="2" to-layer="1844" to-port="0"/>
		<edge from-layer="1843" from-port="0" to-layer="1844" to-port="1"/>
		<edge from-layer="1844" from-port="2" to-layer="1846" to-port="0"/>
		<edge from-layer="1845" from-port="0" to-layer="1846" to-port="1"/>
		<edge from-layer="1846" from-port="2" to-layer="1847" to-port="0"/>
		<edge from-layer="1778" from-port="0" to-layer="1847" to-port="1"/>
		<edge from-layer="1779" from-port="0" to-layer="1847" to-port="2"/>
		<edge from-layer="1780" from-port="0" to-layer="1847" to-port="3"/>
		<edge from-layer="1781" from-port="0" to-layer="1847" to-port="4"/>
		<edge from-layer="1848" from-port="0" to-layer="1849" to-port="0"/>
		<edge from-layer="1849" from-port="1" to-layer="1851" to-port="0"/>
		<edge from-layer="1850" from-port="0" to-layer="1851" to-port="1"/>
		<edge from-layer="1851" from-port="2" to-layer="1853" to-port="0"/>
		<edge from-layer="1852" from-port="0" to-layer="1853" to-port="1"/>
		<edge from-layer="1847" from-port="5" to-layer="1854" to-port="0"/>
		<edge from-layer="1853" from-port="2" to-layer="1854" to-port="1"/>
		<edge from-layer="1854" from-port="2" to-layer="1856" to-port="0"/>
		<edge from-layer="1855" from-port="0" to-layer="1856" to-port="1"/>
		<edge from-layer="1856" from-port="2" to-layer="1858" to-port="0"/>
		<edge from-layer="1857" from-port="0" to-layer="1858" to-port="1"/>
		<edge from-layer="1858" from-port="2" to-layer="1859" to-port="0"/>
		<edge from-layer="1774" from-port="0" to-layer="1859" to-port="1"/>
		<edge from-layer="1775" from-port="0" to-layer="1859" to-port="2"/>
		<edge from-layer="1776" from-port="0" to-layer="1859" to-port="3"/>
		<edge from-layer="1777" from-port="0" to-layer="1859" to-port="4"/>
		<edge from-layer="1860" from-port="0" to-layer="1861" to-port="0"/>
		<edge from-layer="1861" from-port="1" to-layer="1863" to-port="0"/>
		<edge from-layer="1862" from-port="0" to-layer="1863" to-port="1"/>
		<edge from-layer="1863" from-port="2" to-layer="1865" to-port="0"/>
		<edge from-layer="1864" from-port="0" to-layer="1865" to-port="1"/>
		<edge from-layer="1859" from-port="5" to-layer="1866" to-port="0"/>
		<edge from-layer="1865" from-port="2" to-layer="1866" to-port="1"/>
		<edge from-layer="1866" from-port="2" to-layer="1868" to-port="0"/>
		<edge from-layer="1867" from-port="0" to-layer="1868" to-port="1"/>
		<edge from-layer="1868" from-port="2" to-layer="1870" to-port="0"/>
		<edge from-layer="1869" from-port="0" to-layer="1870" to-port="1"/>
		<edge from-layer="1870" from-port="2" to-layer="1871" to-port="0"/>
		<edge from-layer="1770" from-port="0" to-layer="1871" to-port="1"/>
		<edge from-layer="1771" from-port="0" to-layer="1871" to-port="2"/>
		<edge from-layer="1772" from-port="0" to-layer="1871" to-port="3"/>
		<edge from-layer="1773" from-port="0" to-layer="1871" to-port="4"/>
		<edge from-layer="1872" from-port="0" to-layer="1873" to-port="0"/>
		<edge from-layer="1873" from-port="1" to-layer="1875" to-port="0"/>
		<edge from-layer="1874" from-port="0" to-layer="1875" to-port="1"/>
		<edge from-layer="1875" from-port="2" to-layer="1877" to-port="0"/>
		<edge from-layer="1876" from-port="0" to-layer="1877" to-port="1"/>
		<edge from-layer="1871" from-port="5" to-layer="1878" to-port="0"/>
		<edge from-layer="1877" from-port="2" to-layer="1878" to-port="1"/>
		<edge from-layer="1878" from-port="2" to-layer="1880" to-port="0"/>
		<edge from-layer="1879" from-port="0" to-layer="1880" to-port="1"/>
		<edge from-layer="1880" from-port="2" to-layer="1882" to-port="0"/>
		<edge from-layer="1881" from-port="0" to-layer="1882" to-port="1"/>
		<edge from-layer="1882" from-port="2" to-layer="1883" to-port="0"/>
		<edge from-layer="1766" from-port="0" to-layer="1883" to-port="1"/>
		<edge from-layer="1767" from-port="0" to-layer="1883" to-port="2"/>
		<edge from-layer="1768" from-port="0" to-layer="1883" to-port="3"/>
		<edge from-layer="1769" from-port="0" to-layer="1883" to-port="4"/>
		<edge from-layer="1884" from-port="0" to-layer="1885" to-port="0"/>
		<edge from-layer="1885" from-port="1" to-layer="1887" to-port="0"/>
		<edge from-layer="1886" from-port="0" to-layer="1887" to-port="1"/>
		<edge from-layer="1887" from-port="2" to-layer="1889" to-port="0"/>
		<edge from-layer="1888" from-port="0" to-layer="1889" to-port="1"/>
		<edge from-layer="1883" from-port="5" to-layer="1890" to-port="0"/>
		<edge from-layer="1889" from-port="2" to-layer="1890" to-port="1"/>
		<edge from-layer="1890" from-port="2" to-layer="1892" to-port="0"/>
		<edge from-layer="1891" from-port="0" to-layer="1892" to-port="1"/>
		<edge from-layer="1892" from-port="2" to-layer="1893" to-port="0"/>
		<edge from-layer="1898" from-port="0" to-layer="1899" to-port="0"/>
		<edge from-layer="1899" from-port="1" to-layer="1901" to-port="0"/>
		<edge from-layer="1900" from-port="0" to-layer="1901" to-port="1"/>
		<edge from-layer="1901" from-port="2" to-layer="1903" to-port="0"/>
		<edge from-layer="1902" from-port="0" to-layer="1903" to-port="1"/>
		<edge from-layer="1666" from-port="5" to-layer="1904" to-port="0"/>
		<edge from-layer="1903" from-port="2" to-layer="1904" to-port="1"/>
		<edge from-layer="1904" from-port="2" to-layer="1906" to-port="0"/>
		<edge from-layer="1905" from-port="0" to-layer="1906" to-port="1"/>
		<edge from-layer="1906" from-port="2" to-layer="1908" to-port="0"/>
		<edge from-layer="1907" from-port="0" to-layer="1908" to-port="1"/>
		<edge from-layer="1908" from-port="2" to-layer="1909" to-port="0"/>
		<edge from-layer="1894" from-port="0" to-layer="1909" to-port="1"/>
		<edge from-layer="1895" from-port="0" to-layer="1909" to-port="2"/>
		<edge from-layer="1896" from-port="0" to-layer="1909" to-port="3"/>
		<edge from-layer="1897" from-port="0" to-layer="1909" to-port="4"/>
		<edge from-layer="1910" from-port="0" to-layer="1911" to-port="0"/>
		<edge from-layer="1911" from-port="1" to-layer="1913" to-port="0"/>
		<edge from-layer="1912" from-port="0" to-layer="1913" to-port="1"/>
		<edge from-layer="1913" from-port="2" to-layer="1915" to-port="0"/>
		<edge from-layer="1914" from-port="0" to-layer="1915" to-port="1"/>
		<edge from-layer="1909" from-port="5" to-layer="1916" to-port="0"/>
		<edge from-layer="1915" from-port="2" to-layer="1916" to-port="1"/>
		<edge from-layer="1916" from-port="2" to-layer="1918" to-port="0"/>
		<edge from-layer="1917" from-port="0" to-layer="1918" to-port="1"/>
		<edge from-layer="1918" from-port="2" to-layer="1919" to-port="0"/>
	</edges>
	<meta_data>
		<MO_version value="custom_HEAD_149c43044cb1e8ed8cd4f3f196b23f7b3f129a36"/>
		<cli_parameters>
			<caffe_parser_path value="DIR"/>
			<data_type value="FP16"/>
			<disable_nhwc_to_nchw value="False"/>
			<disable_omitting_optional value="False"/>
			<disable_resnet_optimization value="False"/>
			<disable_weights_compression value="False"/>
			<enable_concat_optimization value="False"/>
			<enable_flattening_nested_params value="False"/>
			<enable_ssd_gluoncv value="False"/>
			<extensions value="DIR"/>
			<framework value="tf"/>
			<freeze_placeholder_with_value value="{}"/>
			<generate_deprecated_IR_V7 value="False"/>
			<input value="image_input"/>
			<input_model value="DIR/yolo-v4.pb"/>
			<input_model_is_text value="False"/>
			<input_shape value="[1,608,608,3]"/>
			<k value="DIR/CustomLayersMapping.xml"/>
			<keep_shape_ops value="True"/>
			<legacy_ir_generation value="False"/>
			<legacy_mxnet_model value="False"/>
			<log_level value="ERROR"/>
			<mean_scale_values value="{'image_input': {'mean': None, 'scale': array([255.])}}"/>
			<mean_values value="()"/>
			<model_name value="yolo_v4"/>
			<output_dir value="DIR"/>
			<placeholder_data_types value="{}"/>
			<placeholder_shapes value="{'image_input': array([  1, 608, 608,   3])}"/>
			<progress value="False"/>
			<remove_memory value="False"/>
			<remove_output_softmax value="False"/>
			<reverse_input_channels value="True"/>
			<save_params_from_nd value="False"/>
			<scale_values value="image_input[255.0]"/>
			<silent value="False"/>
			<static_shape value="False"/>
			<stream_output value="False"/>
			<transform value=""/>
			<unset unset_cli_parameters="batch, counts, disable_fusing, disable_gfusing, finegrain_fusing, input_checkpoint, input_meta_graph, input_proto, input_symbol, mean_file, mean_file_offsets, move_to_preprocess, nd_prefix_name, output, pretrained_model_name, saved_model_dir, saved_model_tags, scale, tensorboard_logdir, tensorflow_custom_layer_libraries, tensorflow_custom_operations_config_update, tensorflow_object_detection_api_pipeline_config, tensorflow_use_custom_operations_config, transformations_config"/>
		</cli_parameters>
	</meta_data>
	<quantization_parameters>
		<config>{
		'compression': {
			'algorithms': [
				{
					'name': 'DefaultQuantization',
					'params': {
						'num_samples_for_tuning': 2000,
						'preset': 'accuracy',
						'stat_subset_size': 300,
						'use_layerwise_tuning': false
					}
				}
			],
			'dump_intermediate_model': true,
			'target_device': 'ANY'
		},
		'engine': {
			'models': [
				{
					'name': 'yolo-v4-tf',
					'launchers': [
						{
							'framework': 'dlsdk',
							'adapter': {
								'type': 'yolo_v3',
								'anchors': '12,16,19,36,40,28,36,75,76,55,72,146,142,110,192,243,459,401',
								'num': 3,
								'coords': 4,
								'classes': 80,
								'threshold': 0.001,
								'anchor_masks': [
									[
										0,
										1,
										2
									],
									[
										3,
										4,
										5
									],
									[
										6,
										7,
										8
									]
								],
								'raw_output': true,
								'outputs': [
									'StatefulPartitionedCall/model/conv2d_93/BiasAdd/Add',
									'StatefulPartitionedCall/model/conv2d_101/BiasAdd/Add',
									'StatefulPartitionedCall/model/conv2d_109/BiasAdd/Add'
								]
							},
							'device': 'CPU'
						}
					],
					'datasets': [
						{
							'name': 'ms_coco_detection_80_class_without_background',
							'data_source': 'PATH',
							'annotation_conversion': {
								'converter': 'mscoco_detection',
								'annotation_file': 'PATH',
								'has_background': false,
								'sort_annotations': true,
								'use_full_label_map': false
							},
							'annotation': 'PATH',
							'dataset_meta': 'PATH',
							'preprocessing': [
								{
									'type': 'resize',
									'size': 608
								}
							],
							'postprocessing': [
								{
									'type': 'resize_prediction_boxes'
								},
								{
									'type': 'filter',
									'apply_to': 'prediction',
									'min_confidence': 0.001,
									'remove_filtered': true
								},
								{
									'type': 'diou_nms',
									'overlap': 0.5
								},
								{
									'type': 'clip_boxes',
									'apply_to': 'prediction'
								}
							],
							'metrics': [
								{
									'type': 'map',
									'integral': '11point',
									'ignore_difficult': true,
									'presenter': 'print_scalar'
								},
								{
									'name': 'AP@0.5',
									'type': 'coco_precision',
									'max_detections': 100,
									'threshold': 0.5
								},
								{
									'name': 'AP@0.5:0.05:95',
									'type': 'coco_precision',
									'max_detections': 100,
									'threshold': '0.5:0.05:0.95'
								}
							],
							'_command_line_mapping': {
								'annotation_file': 'PATH'
							}
						}
					]
				}
			],
			'stat_requests_number': null,
			'eval_requests_number': null,
			'type': 'accuracy_checker'
		}
	}</config>
		<version value="1.0"/>
		<cli_params value="{'quantize': None, 'preset': None, 'model': None, 'weights': None, 'name': None, 'ac_config': None, 'max_drop': None, 'evaluate': False, 'output_dir': 'PATH', 'direct_dump': True, 'log_level': 'INFO', 'pbar': False, 'stream_output': False, 'keep_uncompressed_weights': False}"/>
	</quantization_parameters>
</net>